checkpoints/best_Seq2Seq2_emb_snr_-4.pth (torch, 161054 bytes, 219 tensors)

enc.EncoderList.cell0.conv.weight f4 [4, 2, 17]
0	0x3da9fe86	0.083004996
1	0xbd30bdc4	-0.043149725
2	0xbd0ef56a	-0.034902014
3	0xbd074cf7	-0.033032384
4	0xbce23166	-0.027611446
5	0x3d0b61f2	0.034028955
6	0xbdc5abcc	-0.09651908
7	0xbccda496	-0.025102895
8	0xbe0044a6	-0.12526187
9	0x3db4304f	0.08798277
10	0x3d9be31c	0.07611677
11	0x3de6b5d6	0.11265151
12	0xbe058aa7	-0.13041173
13	0xbd5ade4c	-0.053434655
14	0x3df5095d	0.119646765
15	0x3d0cfd1a	0.034421064
16	0xbd00bfcb	-0.031432908
17	0x3d341837	0.043968406
18	0x3cf900e2	0.030395929
19	0x3e1ffba8	0.15623343
20	0x3d618e6a	0.055067457
21	0xbd063cb6	-0.032772742
22	0x3e0c918b	0.13727395
23	0x3e148673	0.14504413
24	0xbd81a363	-0.06329992
25	0xbafbc128	-0.0019207345
26	0x3e5b1717	0.21395527
27	0x3deec806	0.11659245
28	0xbd9207d8	-0.07130402
29	0xbd94c06f	-0.07263266
30	0xbdfd73e2	-0.123756185
31	0xbcf05377	-0.029336674
32	0x3e01ff76	0.12695107
33	0xbdd7f6c3	-0.10545113
34	0xbda41888	-0.080124915
35	0xbe4ac409	-0.19801344
36	0xbca12f33	-0.019675827
37	0xbd6ed988	-0.058312923
38	0x3de8040d	0.113288976
39	0x3dd3958a	0.10331257
40	0xbd9086f6	-0.07056992
41	0xbd9aabc4	-0.07552293
42	0x3da91c4d	0.08257351
43	0x3df96bbb	0.12178751
44	0x3dfa275d	0.12214539
45	0xbcab2ddc	-0.02089589
46	0x3db98e20	0.09060311
47	0x3e204801	0.15652467
48	0x3d854a91	0.06508363
49	0x3e15ee99	0.14641799
50	0x3d7943e6	0.06085577
51	0xbd0dc71e	-0.03461372
52	0xbcb1d331	-0.02170715
53	0xbd6d09f0	-0.057870805
54	0x3d330220	0.0437032
55	0x3d9e62ed	0.07733712
56	0x3e33a625	0.17543848
57	0x3db186b8	0.08668274
58	0x3de00699	0.109387584
59	0x3d75f270	0.06004566
60	0xbd804ad1	-0.0626427
61	0x3e0b6859	0.13614024
62	0xbd832b6f	-0.06404769
63	0xbe0c574e	-0.13705179
64	0x3dbf8e0b	0.093532644
65	0xbbfb1d4c	-0.0076634046
66	0x3cdbe6a7	0.026843382
67	0x3da47405	0.080299415
68	0xbd95ac51	-0.07308257
69	0x3d0df6df	0.034659263
70	0xbc14cd46	-0.009082144
71	0x3d9f0c2c	0.077659935
72	0xbd5a4807	-0.053291347
73	0xbdee9b46	-0.1165071
74	0x3d6ed831	0.058311645
75	0x3e24fc14	0.16111785
76	0x3dcb5ae1	0.09929443
77	0x3ca6d9c9	0.02036752
78	0x3c56efb6	0.013118675
79	0x3d384960	0.04499185
80	0xbdf282ed	-0.11841378
81	0x3cc3a758	0.023883507
82	0xbd11f2a6	-0.0356318
83	0xbca73e78	-0.02041553
84	0x3d8749f8	0.06605905
85	0x3bc7abe1	0.0060934876
86	0x3e131cc7	0.14366446
87	0x3d83ebe5	0.06441478
88	0x3e05cacd	0.13065644
89	0x3d9185cb	0.07105597
90	0x3dd33ceb	0.103143536
91	0xbdfc33b7	-0.12314551
92	0xbe005c02	-0.12535098
93	0xbdc74e63	-0.09731748
94	0xbe492993	-0.19644766
95	0xbe5800f2	-0.2109411
96	0xbcab1655	-0.020884672
97	0xbcb67cd4	-0.02227632
98	0x3a66b343	0.0008800516
99	0xbdddea6a	-0.108357266
100	0xbd0dc68b	-0.034613173
101	0x3d04c16d	0.032411028
102	0xbc0edad6	-0.008719167
103	0x3db00365	0.085943975
104	0x3d3a83a9	0.045535717
105	0xbd37ecf6	-0.044903718
106	0x3df09e1b	0.11748906
107	0x3e1c732d	0.15278311
108	0x3e20ccbd	0.15703101
109	0x3e1fa38c	0.15589732
110	0xbdb31996	-0.087451145
111	0x3d8c2a76	0.06844036
112	0xbd48e375	-0.049045045
113	0xbe10b1d2	-0.14130333
114	0xbe11fcb0	-0.14256549
115	0xbc9d3dd5	-0.019194523
116	0xbe5b4ab5	-0.21415217
117	0xbd5d8969	-0.054086123
118	0xbdd40d29	-0.103540726
119	0xbc12c62f	-0.008958383
120	0xbe1a85b7	-0.1509007
121	0xbd46a2a7	-0.04849496
122	0x3e00f1b9	0.1259221
123	0x3c1dfa8e	0.009642256
124	0x3d84708d	0.0646678
125	0xbdd0cd23	-0.10195377
126	0x3e031518	0.12801015
127	0xbd211470	-0.03932613
128	0x3e339bcc	0.175399
129	0x3ca3a0e7	0.019974185
130	0x3be3da5d	0.006953521
131	0x3cc113a6	0.02356894
132	0x3d77f1c3	0.060533296
133	0xbdb365fc	-0.08759686
134	0x3b1fa3f1	0.0024359191
135	0x3cbcf746	0.023067128

enc.EncoderList.cell0.conv.bias f4 [4]
0	0x3d97d759	0.07414121
1	0xbe83b3cb	-0.2572311
2	0x3be78c8f	0.0070663164
3	0x3d84a6e8	0.06477147

enc.EncoderList.cell0.activate.fcn.0.weight f4 [8, 8]
0	0xbd264c33	-0.040600013
1	0x3e7dac5d	0.24772783
2	0x3d812a4e	0.06306897
3	0x3c3e903d	0.011631069
4	0xbe15a9d5	-0.14615567
5	0x3e18092d	0.1484725
6	0x3e11d2ba	0.14240542
7	0x3d56fd92	0.052487917
8	0xbcf6d7b9	-0.030132161
9	0x3d145d48	0.036221772
10	0xbda2c6e5	-0.07948092
11	0xbe33c004	-0.17553717
12	0xbba5e74e	-0.005062974
13	0xbd583b7e	-0.05279111
14	0xbdddea54	-0.1083571
15	0xbd1e92f0	-0.03871435
16	0x3eabea47	0.33577177
17	0x3e7a1392	0.24421528
18	0xbe438233	-0.19092636
19	0xbe8fcd86	-0.2808649
20	0x3e2be20c	0.16785449
21	0x3e29594e	0.16537973
22	0xbe98d3de	-0.29849142
23	0xbdcbb7d3	-0.09947171
24	0xbe6d07f1	-0.2314756
25	0xbebe8ddb	-0.37217602
26	0xbb8cc5ab	-0.004296025
27	0x3c9cad1a	0.01912551
28	0x3e8dd633	0.27702484
29	0x3e7ba16a	0.24573293
30	0xbe5ae142	-0.21374992
31	0x3dd785ae	0.10523544
32	0xbdded939	-0.10881276
33	0xbd7f1cbf	-0.062283274
34	0x3cbbd138	0.022926912
35	0x3dbcba6a	0.09215243
36	0x3e9493bf	0.2901897
37	0xbdedd9c4	-0.11613801
38	0x3e4fe9a1	0.20303966
39	0x3ef18745	0.47173515
40	0x3e087f54	0.13329822
41	0xbda1a9fe	-0.078937516
42	0xbe86e96e	-0.26349968
43	0x3e8c689e	0.27423567
44	0x3e4502c8	0.19239342
45	0xbe3e135a	-0.1856207
46	0x3e831774	0.2560383
47	0x3e805ec9	0.25072315
48	0xbd83f5e5	-0.06443385
49	0xbdc41225	-0.09573773
50	0x3ddd3a0d	0.10802088
51	0x3e5b1b85	0.21397217
52	0xbc5e2eec	-0.013560992
53	0xbe3a04f2	-0.18165949
54	0xbe1239ef	-0.14279912
55	0xbe481346	-0.19538602
56	0xbe7c1f35	-0.2462128
57	0xbe9a9c6f	-0.30197474
58	0xbe1af8b4	-0.15133935
59	0xbe33d691	-0.1756232
60	0x3d2bbc93	0.041927885
61	0x3d59269b	0.053015333
62	0x3c90e63b	0.017687907
63	0x3eba3dd3	0.36375293

enc.EncoderList.cell0.activate.fcn.0.bias f4 [8]
0	0x3d16b335	0.036792
1	0xbe20d00e	-0.15704367
2	0x3e6dc09a	0.23218003
3	0x3ea97b9c	0.3310212
4	0xbe3ad7c1	-0.18246366
5	0xbe9d3906	-0.30707568
6	0x3ea16211	0.3152013
7	0x3da7921d	0.08182166

enc.EncoderList.cell0.activate.fcn.1.weight f4 [8]
0	0x3f6a9e7f	0.91648096
1	0x3f60a19a	0.87746584
2	0x3f76dff2	0.96435463
3	0x3f8b70d3	1.0893806
4	0x3f84a6c2	1.036339
5	0x3f7644b3	0.96198577
6	0x3f7ee1a9	0.9956308
7	0x3f8c9cab	1.0985311

enc.EncoderList.cell0.activate.fcn.1.bias f4 [8]
0	0xbe61f4db	-0.22066061
1	0x3e99ce9c	0.30040443
2	0xbdde0f6e	-0.10842787
3	0x3e206279	0.15662564
4	0x3c1525f8	0.009103291
5	0x3ae48d4a	0.0017437127
6	0x3eaae626	0.33378714
7	0x3bda76c6	0.006666991

enc.EncoderList.cell0.activate.fcn.1.running_mean f4 [8]
0	0x3c5db01d	0.013530758
1	0xbe226b60	-0.15861273
2	0x3e7721e9	0.2413403
3	0x3deca79d	0.11555407
4	0xbe8e0940	-0.27741432
5	0xbe9d95b1	-0.30778268
6	0x3ee8d6da	0.4547642
7	0xbe171bf0	-0.14756751

enc.EncoderList.cell0.activate.fcn.1.running_var f4 [8]
0	0x3bd76229	0.006572981
1	0x39afdfae	0.00033545255
2	0x3d3f108c	0.04664664
3	0x3cbec7bc	0.0232886
4	0x3bf02538	0.0073286556
5	0x3c1b29e5	0.009470438
6	0x3c607ade	0.013701169
7	0x3c77fb7b	0.015135641

enc.EncoderList.cell0.activate.fcn.3.weight f4 [4, 8]
0	0x3dddae9b	0.10824319
1	0xbe90769b	-0.2821549
2	0xbd8eb3dc	-0.06967899
3	0x3e2b1cde	0.1671023
4	0xbdbd5869	-0.092453785
5	0xbe69af15	-0.22820695
6	0xbe437db8	-0.19090927
7	0x3dfab605	0.12241749
8	0x3e6648dd	0.22488733
9	0x3e0f0eda	0.13970509
10	0x3d881280	0.066441536
11	0xbe215bbf	-0.15757655
12	0xbcdc6985	-0.026905784
13	0x3db599b1	0.08867205
14	0xbc878801	-0.016544344
15	0xbe433bd8	-0.19065797
16	0xbcbe1781	-0.023204567
17	0xbe1bde90	-0.1522162
18	0xbe100a9a	-0.14066544
19	0x3e4baef0	0.19890952
20	0x3dc992e9	0.09842474
21	0x3dc13fd0	0.094359994
22	0xbe7041b8	-0.2346257
23	0xbd879be8	-0.06621534
24	0xbdf25b2b	-0.11833795
25	0xbe0435ff	-0.12911223
26	0x3e69c60b	0.22829454
27	0x3b607944	0.0034251967
28	0xbeb70f65	-0.35753933
29	0x3d9e7116	0.07736413
30	0xbe8f8d89	-0.2803767
31	0xbec0a303	-0.37624368

enc.EncoderList.cell0.activate.fcn.3.bias f4 [4]
0	0xbd52e449	-0.05148724
1	0xbd34fccd	-0.044186402
2	0xbcbe3dd9	-0.02322285
3	0xbe6d426e	-0.23169872

enc.EncoderList.cell0.activate.fcn.4.weight f4 [4]
0	0x3f2a9041	0.66626364
1	0x3f0d58e0	0.5521374
2	0x3f5d51a4	0.864527
3	0x3eedc997	0.46442863

enc.EncoderList.cell0.activate.fcn.4.bias f4 [4]
0	0x3e5935fa	0.21211997
1	0x3f0b443f	0.5440101
2	0x3de0a4f2	0.10968961
3	0x3f0ef09f	0.5583591

enc.EncoderList.cell0.activate.fcn.4.running_mean f4 [4]
0	0xbe7f9bea	-0.2496182
1	0xbd7b625d	-0.061373103
2	0xbdf9e2e7	-0.12201481
3	0xbf2abfca	-0.66698897

enc.EncoderList.cell0.activate.fcn.4.running_var f4 [4]
0	0x3e794490	0.24342561
1	0x3d87719c	0.06613466
2	0x3de9a979	0.114092775
3	0x3e4c6708	0.19961178

enc.EncoderList.cell0.bn.weight f4 [4]
0	0x3f459ce3	0.77192515
1	0x3f68a582	0.90877545
2	0x3f64572e	0.89195526
3	0x3f6865c9	0.9078031

enc.EncoderList.cell0.bn.bias f4 [4]
0	0x3e8b85db	0.2725056
1	0x3d13ab0b	0.03605179
2	0x3ce9c876	0.02853797
3	0x3e9fc453	0.3120447

enc.EncoderList.cell0.bn.running_mean f4 [4]
0	0x3e2fd5dc	0.17171425
1	0xbdca1295	-0.098668255
2	0x3da95636	0.082683966
3	0x3de2a724	0.11067036

enc.EncoderList.cell0.bn.running_var f4 [4]
0	0x3e0cd285	0.13752182
1	0x3ebef315	0.37294832
2	0x3e220647	0.15822707
3	0x3ddb93a8	0.107215226

enc.EncoderList.cell1.conv.weight f4 [8, 4, 17]
0	0x3d9120d6	0.07086341
1	0xbdfa3218	-0.12216586
2	0xb985a10f	-0.00025487735
3	0xbcf0fbdb	-0.029416969
4	0xbc9deee8	-0.019278958
5	0x3dcfa1f4	0.10138312
6	0xbdf09a85	-0.11748222
7	0xbc0451bd	-0.008076129
8	0x3d962e55	0.07333056
9	0xbdd62b30	-0.10457456
10	0x3d0d9bb8	0.034572333
11	0xbcbbf1f7	-0.022942526
12	0xbd85d461	-0.06534649
13	0xbd85ae20	-0.06527352
14	0xbda75642	-0.08170749
15	0x3d85565e	0.06510614
16	0xbdd30adb	-0.10304805
17	0x3db274b8	0.087136686
18	0x3da6e526	0.08149175
19	0xbc9521f0	-0.01820466
20	0x3d41b6e3	0.047293555
21	0xbe0022a9	-0.12513222
22	0xbc85f5c7	-0.016352547
23	0x3d02e571	0.031957094
24	0xbda40f01	-0.08010674
25	0xbb73d5f3	-0.003720638
26	0xbd11f8d0	-0.035637677
27	0xbd521662	-0.051290877
28	0xbccc1a5b	-0.024914911
29	0xbd8e3bbb	-0.069449864
30	0xbd69e8d1	-0.057106797
31	0x3d6f4479	0.05841491
32	0x3dc05194	0.0939056
33	0xbcddebe6	-0.027090024
34	0x3d38e758	0.0451425
35	0x3d471071	0.048599664
36	0x3d394312	0.04522998
37	0x3d1b7acb	0.0379589
38	0x3df62a3f	0.120197766
39	0xbdb81c5e	-0.089897856
40	0x3db34ac4	0.08754495
41	0x3df7c26b	0.12097629
42	0x3e258477	0.16163813
43	0x3d4bfce6	0.04980173
44	0x3dbeacf6	0.093103334
45	0xbe0aedff	-0.13567351
46	0xbd9eb5a5	-0.0774949
47	0xbd83ef4f	-0.06442129
48	0xbab7b6dd	-0.001401629
49	0x3a20b805	0.00061309367
50	0xbda716e6	-0.081586644
51	0x3bdd0005	0.006744387
52	0x3dcc62e8	0.09979802
53	0x3de827c4	0.1133571
54	0x3d47bfa8	0.048766762
55	0xbd962953	-0.07332101
56	0xbd402580	-0.046910763
57	0x3db6d9d2	0.08928265
58	0xbbdcd156	-0.006738822
59	0xbdeb0f26	-0.11477499
60	0xbdf5b90e	-0.11998187
61	0x3bb937a6	0.0056523858
62	0x3c834f69	0.016029077
63	0x3dbeb341	0.09311534
64	0x3dcca3c5	0.09992174
65	0xbd409025	-0.047012467
66	0x3d835924	0.064134866
67	0x3bee5b67	0.0072740796
68	0x3d13a796	0.036048494
69	0x3c9c541f	0.01908308
70	0xbda662ba	-0.08124299
71	0xbd831d6b	-0.064020954
72	0xbdee5348	-0.116369784
73	0x3d830b0c	0.063985914
74	0xbd319f6a	-0.04336492
75	0x3cc3668a	0.023852605
76	0xbd060675	-0.032721
77	0x3e2a83e7	0.16651879
78	0xbd34f637	-0.04418012
79	0x3cd09fee	0.025466885
80	0x3d9fae50	0.07796919
81	0xbd392bc1	-0.045207743
82	0x3d936c63	0.071984075
83	0xbd765618	-0.0601407
84	0x3ce1ea49	0.027577536
85	0xbdab47ef	-0.083633296
86	0x3c8e4c77	0.017370446
87	0x3ce17fad	0.0275267
88	0x3bd79804	0.006579401
89	0xbd045483	-0.03230716
90	0x3d3681a1	0.044557218
91	0x3e0de7fa	0.13858023
92	0x3dbe4099	0.09289665
93	0x3dc9df5d	0.09857056
94	0x3dff19bd	0.12456081
95	0xbd825382	-0.06363584
96	0xbd54b0ca	-0.05192641
97	0x3d525def	0.051359113
98	0x3d362bbc	0.044475302
99	0xbdc3e2a1	-0.095647104
100	0x3d4e0177	0.050294366
101	0x3d7c58d9	0.06160817
102	0x3c91719a	0.017754365
103	0x3c115344	0.00886995
104	0x3dcaf37e	0.09909724
105	0x3e078896	0.13235697
106	0xbd298a71	-0.041391794
107	0x3d776d6c	0.060407087
108	0xbd2e25d8	-0.04251656
109	0xbdee7588	-0.11643511
110	0xbdd710fa	-0.10501285
111	0xbda82674	-0.08210459
112	0xbdcb0816	-0.09913652
113	0xbd89338a	-0.066992834
114	0xbd8929d8	-0.06697434
115	0x3d7f3f9b	0.06231652
116	0x3b4bfeac	0.0031127138
117	0x3d55da9e	0.052210443
118	0x3d2c0731	0.041999046
119	0xbb43fb32	-0.0029904363
120	0x3dbef193	0.093234204
121	0xbc3e9bfa	-0.011633867
122	0x3cd9be7b	0.026580086
123	0xbdd25cee	-0.10271631
124	0x3d6ae493	0.05734689
125	0xbd2badda	-0.041913845
126	0x3dd80854	0.105484635
127	0x3df42079	0.11920256
128	0x3e2bf6a1	0.167933
129	0x3bfb8bdb	0.007676584
130	0x3dd6007f	0.10449313
131	0x3e202b60	0.15641546
132	0x3cbf517c	0.023354284
133	0x3ddf8f99	0.10916061
134	0x3da862d5	0.08221976
135	0x3d806fbc	0.06271312
136	0x3c94fe4c	0.018187664
137	0xbd03cea5	-0.032179493
138	0xbd2e0b3e	-0.04249119
139	0x3d9277e8	0.071517766
140	0xbc84248e	-0.016130712
141	0x3c1e81d3	0.009674507
142	0x3d559b24	0.052149907
143	0xbdd563fb	-0.104194604
144	0xbd512a02	-0.051065452
145	0xbddb3d75	-0.107050814
146	0xbd79f948	-0.06102875
147	0x3d7a3410	0.061084807
148	0x3c161e7b	0.009162541
149	0x3df7f9a9	0.12108166
150	0x3e0709a1	0.13187267
151	0x3dd62932	0.10457076
152	0xbc5e43dc	-0.013565984
153	0xbd303e9e	-0.043028466
154	0x3c8d87b9	0.017276632
155	0xbb881b31	-0.004153632
156	0x3d2a6aa0	0.04160559
157	0x3d457e34	0.04821606
158	0x3dc57125	0.09640721
159	0xbdb6d32d	-0.08926997
160	0xbd96eec8	-0.07369763
161	0xbc03d9f3	-0.008047569
162	0xbdb874dc	-0.09006664
163	0xbda82af0	-0.08211315
164	0x3d3c5d46	0.04598739
165	0x3dd0209d	0.101624705
166	0xbd75446b	-0.0598797
167	0xbbd617c9	-0.006533597
168	0x3e33f110	0.17572427
169	0x3cd42a5a	0.025899101
170	0x3d9213d0	0.07132685
171	0x3d1c7c8a	0.038204707
172	0x3d248ed1	0.040175263
173	0x3e0abcce	0.13548586
174	0x3d696693	0.056982588
175	0x3dd69c30	0.10479009
176	0x3de35611	0.111004
177	0x3ca13865	0.019680211
178	0x3d9c5a0c	0.076343626
179	0x3d156373	0.036471795
180	0x3d0fd857	0.035118427
181	0xbd88ccf1	-0.066797145
182	0x3c72465e	0.014787285
183	0x3cfde676	0.030993681
184	0xbdf150d0	-0.11782992
185	0xbc648b06	-0.013949161
186	0xbe03bcc6	-0.1286498
187	0x3c79f281	0.015255571
188	0xbdb72c08	-0.08943945
189	0x3d87e69e	0.066357836
190	0xbd364816	-0.04450234
191	0x3be0c819	0.006859791
192	0xbbe4035c	-0.0069584083
193	0xbd97d51c	-0.07413694
194	0xbe1a7dc5	-0.1508704
195	0x3d1e576e	0.0386576
196	0x3d135314	0.0359679
197	0x3b3569cd	0.002768147
198	0x3d4b9f2e	0.049712352
199	0x3e0c7f92	0.13720539
200	0x3e24dee2	0.16100648
201	0x3dcc4518	0.09974116
202	0x3bf0a5a4	0.0073439647
203	0xbd0b51be	-0.034013502
204	0xbcf42228	-0.029801443
205	0xbdd1f203	-0.10251238
206	0xbdd38321	-0.10327745
207	0xbd02cda3	-0.03193439
208	0xbd80e3a7	-0.06293421
209	0x3d873052	0.06601013
210	0xbe003715	-0.12521012
211	0xbde1211d	-0.10992644
212	0x3d4618be	0.04836344
213	0xbdc6596c	-0.096850246
214	0x3dabb7c5	0.08384661
215	0x3b896dbb	0.004193989
216	0x3d64e77c	0.055884823
217	0xbd6f28ef	-0.058388647
218	0xbd90a4f4	-0.07062712
219	0x3b637e5b	0.0034712765
220	0x3d5347b8	0.05158207
221	0x3d3efcdb	0.04662786
222	0x3ba6ffe2	0.0050964216
223	0x3dae917d	0.085238434
224	0x3d54d98e	0.05196529
225	0xbc2147fa	-0.009843821
226	0x3db7e73a	0.0897965
227	0xbd5bc590	-0.053655207
228	0x3d7779a5	0.060418744
229	0xbd2749a3	-0.04084171
230	0x3d669229	0.056291733
231	0x3dc5c2db	0.09656306
232	0x3dda563d	0.1066098
233	0xbdb7f8d0	-0.08983004
234	0x3ceecfd5	0.029151836
235	0xbd5926d5	-0.05301555
236	0xbd396afc	-0.045268044
237	0xbd311e73	-0.04324193
238	0x3d9b5e58	0.07586354
239	0x3df4ea79	0.119587846
240	0xbb85bc8d	-0.004081315
241	0x3df52389	0.119696684
242	0xbcf39f66	-0.029739093
243	0x3e057578	0.13033092
244	0x3dd5ab2a	0.104330376
245	0x3e1d67df	0.15371655
246	0x3db75268	0.089512646
247	0xbd1a8955	-0.037728626
248	0xbd8d073c	-0.068861455
249	0xbd88e4b8	-0.0668425
250	0xbda2edeb	-0.079555355
251	0xbbf027db	-0.00732897
252	0xbdbcbe1d	-0.09215949
253	0xbdc54c34	-0.09633675
254	0xbdab22c7	-0.083562426
255	0x3dfa3f4f	0.122191064

enc.EncoderList.cell1.conv.bias f4 [8]
0	0xbe18d672	-0.14925554
1	0x3de9f359	0.11423368
2	0x3e8187de	0.2529897
3	0x3e013356	0.1261724
4	0xbe5e80b3	-0.21728782
5	0x3d022910	0.03177744
6	0x3e1c1a38	0.15244377
7	0xbb4e8de0	-0.003151767

enc.EncoderList.cell1.activate.fcn.0.weight f4 [16, 16]
0	0xbd57ded1	-0.05270273
1	0xbe3691c6	-0.17829046
2	0xbcb520e9	-0.02211042
3	0xbd9eb748	-0.07749802
4	0xbdcb9065	-0.099396504
5	0x3d1660c3	0.036713373
6	0xbe153ee1	-0.14574768
7	0x3e7490fa	0.23883429
8	0x3e20397a	0.15646926
9	0x3cfe49ca	0.031041045
10	0x3d58be76	0.052916013
11	0x3e4a8e7d	0.19780917
12	0x3d0de3e4	0.03464116
13	0xbe86fd73	-0.2636524
14	0x3d374f8d	0.0447536
15	0x3d48cd5a	0.049023964
16	0x3b219076	0.0024652756
17	0x3dd668fd	0.10469244
18	0xbe1cfc85	-0.15330704
19	0xbe35f836	-0.17770466
20	0xbddbc0ef	-0.107301585
21	0x3e0035d6	0.12520537
22	0xbe58a749	-0.21157564
23	0xbe4e36e1	-0.20138122
24	0x3dc21629	0.09476883
25	0x3d244843	0.040107977
26	0xbe6d1f35	-0.23156436
27	0xbe5d0df9	-0.21587361
28	0xbe1cb890	-0.1530478
29	0xbc9bda3f	-0.019024966
30	0xbe86244f	-0.26199576
31	0xbe31d11d	-0.17364927
32	0x3e8f1c7a	0.27951413
33	0xbe2e655d	-0.17030855
34	0xbde6da23	-0.11272075
35	0x3e1c6de8	0.15276301
36	0x3de9b942	0.11412288
37	0xbdcd4b73	-0.100241564
38	0xbdc513a2	-0.09622885
39	0x3d9e08b7	0.07716506
40	0x3ce289d8	0.02765362
41	0x3c09a857	0.008401952
42	0xbe0f1730	-0.13973689
43	0xbe8ac9f7	-0.27107212
44	0x3e65ec52	0.2245343
45	0x3e44109d	0.19146962
46	0x3e5d14b9	0.21589936
47	0xbb4da12d	-0.0031376586
48	0xbe9e37f8	-0.30902076
49	0xbe177a34	-0.1479271
50	0x3d809c08	0.062797606
51	0x3d186575	0.037206132
52	0xbe5514a0	-0.20808649
53	0x3e866801	0.26251224
54	0x3e33dbae	0.1756427
55	0x3e24596b	0.16049735
56	0x3e06d31a	0.13166466
57	0x3e894e74	0.26817667
58	0xbe269625	-0.16268213
59	0xbe190f79	-0.14947309
60	0x3dd3c28b	0.103398405
61	0xbe3ee243	-0.18641
62	0x3daf09c3	0.08546784
63	0xbd1828da	-0.037148334
64	0xbddd5d79	-0.10808844
65	0xbe1921e5	-0.14954336
66	0xbdc1f229	-0.094700165
67	0x3e210d2a	0.15727678
68	0xbe1e94d5	-0.15486462
69	0xbdcaf05c	-0.09909126
70	0x3dc1f49a	0.09470482
71	0x3d35d19c	0.044389352
72	0x3e44857e	0.19191548
73	0xbe2fce2e	-0.17168495
74	0x3e9a3516	0.30118626
75	0x3dc70e0d	0.09719477
76	0x3c77f452	0.015133934
77	0xbd412e23	-0.04716314
78	0xbe5ced59	-0.21574916
79	0xbd740399	-0.059573743
80	0x3e670583	0.22560696
81	0xbe580022	-0.210938
82	0x3e064352	0.13111618
83	0x3bfee080	0.0077782273
84	0x3d362c5d	0.044475902
85	0x3c44d921	0.012014658
86	0xbe941173	-0.28919563
87	0xbe2f9583	-0.17146878
88	0x3d5f585b	0.05452762
89	0xbe520a92	-0.20511845
90	0x3de58564	0.11207083
91	0x3cd66519	0.026171254
92	0x3e1cc342	0.1530886
93	0x3cd357c2	0.025798682
94	0xbe2c5816	-0.16830477
95	0xbe872924	-0.26398575
96	0xbe80e089	-0.25171307
97	0x3e321252	0.17389801
98	0xbcb6e5a8	-0.022326306
99	0xbda69e75	-0.08135692
100	0xbe839d18	-0.2570579
101	0xbcea67f0	-0.028614014
102	0x3d021e07	0.031766918
103	0x3dcfc58c	0.10145101
104	0x3e2e7832	0.17038038
105	0xbe0fb004	-0.14031988
106	0x3c3ad634	0.011403609
107	0xbc9f47d4	-0.01944343
108	0x3d5fa7fb	0.054603558
109	0x3d74cf19	0.059767816
110	0x3d114398	0.035464853
111	0xbcd21dcf	-0.02564898
112	0xbe128f1c	-0.14312404
113	0x3dfdbed1	0.12389911
114	0x3dc708e9	0.09718496
115	0xbe4a6898	-0.19766462
116	0xbd510d04	-0.051037803
117	0x3ce461c0	0.027878642
118	0xbe33f6cb	-0.17574613
119	0x3d104339	0.03522036
120	0x3da969dc	0.08272144
121	0xbe363b77	-0.17796122
122	0x3e0213a2	0.12702802
123	0x3e9929c8	0.2991469
124	0x3cecf42f	0.02892503
125	0x3d8dfaa6	0.06932573
126	0x3e8a2454	0.2698084
127	0x3ddb3ab8	0.10704559
128	0xbdd3da6d	-0.10344396
129	0xbe20b17c	-0.15692705
130	0xbe48d76e	-0.1961343
131	0x3e3d5ef0	0.18493247
132	0x3e42d888	0.19027913
133	0xbd1153ae	-0.035480194
134	0xbd14ff43	-0.03637625
135	0x3e8e56aa	0.27800494
136	0x3e645b89	0.22300543
137	0xbdcd82af	-0.100346915
138	0x3dc06d8c	0.093958944
139	0xbd92025a	-0.07129355
140	0x3d691e14	0.05691345
141	0x3e3247ed	0.1741025
142	0x3e7413c5	0.23835666
143	0xbda17593	-0.07883754
144	0xbdc55612	-0.09635557
145	0x3dac069f	0.083997004
146	0xbd8e215c	-0.069399565
147	0xbd7eced4	-0.062208965
148	0x3e3ead34	0.18620759
149	0x3e1bf898	0.1523155
150	0x3cbd9ad0	0.02314511
151	0xbe5cb86d	-0.21554728
152	0xbe89c567	-0.2690842
153	0x3e2ea6ba	0.17055789
154	0x3deb4103	0.114870094
155	0xbde5d913	-0.11223044
156	0x3bf973df	0.00761269
157	0xbe537862	-0.20651391
158	0xbb7d6704	-0.0038666138
159	0xbe3c833b	-0.18409435
160	0x3e3735a0	0.1789155
161	0x3ccee3b1	0.025255056
162	0x3d0dbdf7	0.034604993
163	0x3d13e318	0.036105245
164	0xbcb947c7	-0.022617234
165	0x3c2535e0	0.010083646
166	0x3e2b7051	0.16742064
167	0xbb3d6fc4	-0.0028905729
168	0x3e4cd0fe	0.20001599
169	0x3e734244	0.23755747
170	0x3e3d4143	0.18481927
171	0xbdb81de2	-0.08990075
172	0x3d7e251f	0.06204712
173	0x3e24eac3	0.1610518
174	0xbd356eb5	-0.04429503
175	0xbe042b65	-0.12907179
176	0xbdc919a9	-0.098193474
177	0xbd8cb5ba	-0.06870599
178	0x3d0db358	0.034594864
179	0xbd836391	-0.06415475
180	0x3e302eb5	0.17205317
181	0xbe06d3b1	-0.13166691
182	0x3b01db3f	0.0019814519
183	0x3de23e15	0.110469975
184	0x3ca50c39	0.02014743
185	0x3e40af71	0.18816926
186	0x3e00dba9	0.12583794
187	0xbdaf4359	-0.085577674
188	0xbd9ddb06	-0.07707791
189	0x3e2b3354	0.16718799
190	0x3dcaac40	0.09896135
191	0x3d9a39d1	0.07530559
192	0x3dd0c871	0.10194481
193	0x3def9fc2	0.11700393
194	0xbd33d4be	-0.04390406
195	0xbdbfd3fd	-0.093666054
196	0x3e96e293	0.29469737
197	0xbe1cd9b2	-0.15317419
198	0xbd06164d	-0.03273611
199	0x3e201ae8	0.15635264
200	0x3da77ac5	0.08177713
201	0xbe2b2783	-0.16714291
202	0xbddc996a	-0.10771449
203	0xbc4c323c	-0.012463149
204	0xbab312dd	-0.0013662238
205	0xbe498f60	-0.196836
206	0xbdf9d1d0	-0.12198222
207	0x3e5e8ee0	0.2173419
208	0x3e1615f1	0.14656807
209	0x3e0cee48	0.13762772
210	0xbcf27654	-0.029597439
211	0xbcd238b5	-0.025661806
212	0x3cb26e3c	0.02178108
213	0xbd9136d8	-0.07090539
214	0x3d917565	0.07102469
215	0xbd955a2c	-0.072925895
216	0x3e55f31a	0.20893517
217	0xbc1650d0	-0.009174541
218	0x3e491a32	0.19638899
219	0xbdaa2b64	-0.08309057
220	0xbde1a8d3	-0.11018529
221	0xbd712fc9	-0.058883462
222	0xbeb364fc	-0.35037982
223	0xbe89b0ad	-0.26892605
224	0x3d85c8d6	0.06532447
225	0x3deb25bd	0.114818074
226	0xbd3ee9b7	-0.046609607
227	0x3e3094ac	0.17244214
228	0x3e4c136e	0.19929287
229	0xbddaf6a8	-0.10691577
230	0xbe2a7b23	-0.16648535
231	0xbe14702d	-0.14495917
232	0x3e6f7bad	0.23387022
233	0x3dfb6c09	0.122764654
234	0x3ccbceab	0.02487882
235	0xba129da6	-0.00055929495
236	0xbdc9128a	-0.09817989
237	0xbdb870f4	-0.09005919
238	0xbb03726e	-0.002005722
239	0xbd14c1de	-0.0363177
240	0xbe3da9aa	-0.18521753
241	0xbcdfe344	-0.027330048
242	0xbbd69d77	-0.006549533
243	0x3cb1ed59	0.021719621
244	0x3c8ff225	0.017571518
245	0xbd61fac2	-0.055170782
246	0xbc0e8bc3	-0.008700314
247	0x3e9f6264	0.31129754
248	0x3e0fc2a3	0.14039092
249	0xbe26c980	-0.16287804
250	0xbe0371d9	-0.12836398
251	0x3c45b3f9	0.012066835
252	0x3e043efb	0.1291465
253	0x3e43a5fb	0.19106285
254	0x3e85ffb2	0.26171643
255	0xbdb1ff24	-0.08691242

enc.EncoderList.cell1.activate.fcn.0.bias f4 [16]
0	0xbdff4012	-0.12463392
1	0x3d0d260a	0.034460105
2	0x3e495938	0.1966294
3	0xbd13fbfa	-0.036128975
4	0x3c9fb854	0.019497074
5	0xbdfe8619	-0.12427921
6	0xbe3318f3	-0.17489986
7	0xbd817f1f	-0.063230745
8	0xbe0cccec	-0.13750046
9	0xbded4440	-0.11585283
10	0x3e02b8a5	0.12765749
11	0xbc865bdf	-0.01640123
12	0x3d8efda2	0.0698197
13	0x3c20e22f	0.009819551
14	0xbdc4af0a	-0.096036986
15	0xbdaa2b6a	-0.08309062

enc.EncoderList.cell1.activate.fcn.1.weight f4 [16]
0	0x3f8e9bea	1.1141331
1	0x3f7653ba	0.96221507
2	0x3f8efbaf	1.1170558
3	0x3f8204d5	1.0157725
4	0x3f7d1a80	0.9886856
5	0x3f780a97	0.9689116
6	0x3f82ae6d	1.020948
7	0x3f8910c0	1.0708237
8	0x3f823361	1.017193
9	0x3f8030f4	1.0014939
10	0x3f84de87	1.038041
11	0x3f8edfdc	1.1162066
12	0x3f809dfd	1.0048214
13	0x3f6b06d2	0.9180728
14	0x3f824096	1.017596
15	0x3f846ca8	1.0345659

enc.EncoderList.cell1.activate.fcn.1.bias f4 [16]
0	0x3dcdc168	0.10046655
1	0xbc03420d	-0.008011353
2	0x3db04a22	0.0860789
3	0x3e22f093	0.15912084
4	0xbcb5635a	-0.022142101
5	0x3e02a8c7	0.12759696
6	0xbc208667	-0.009797669
7	0x3d0e6078	0.03475997
8	0x3b593cc4	0.0033147791
9	0x3b9b619d	0.004741861
10	0x3d9ddbb9	0.077079244
11	0xbcafa25c	-0.021439724
12	0x3dd75da4	0.105159074
13	0x3cb121eb	0.021622619
14	0x3e49bb6f	0.19700406
15	0x3e187e25	0.1489187

enc.EncoderList.cell1.activate.fcn.1.running_mean f4 [16]
0	0xbec0eed3	-0.37682208
1	0x3dc8fd8a	0.09813984
2	0xbd33308a	-0.043747462
3	0xbdc93c12	-0.09825911
4	0xbd87c4e9	-0.066293545
5	0xbe35f7e7	-0.17770348
6	0xbe746c42	-0.23869422
7	0xbe9463d1	-0.28982404
8	0xbebb2da4	-0.3655826
9	0x3db80388	0.089850485
10	0x3e2ec976	0.17069039
11	0xbe10d744	-0.14144617
12	0x3e1183f4	0.14210492
13	0x3e98f561	0.2987471
14	0xbde9d9ce	-0.11418496
15	0xbe6552dc	-0.2239489

enc.EncoderList.cell1.activate.fcn.1.running_var f4 [16]
0	0x3ca117e1	0.019664707
1	0x3dce5da8	0.10076457
2	0x3d39af69	0.0453333
3	0x3c783f21	0.01515177
4	0x3c6bf9ed	0.014402849
5	0x3cc56772	0.024097178
6	0x3b8affea	0.004241933
7	0x3c7de6a1	0.015496881
8	0x3d7d9933	0.06191368
9	0x3d3fe597	0.046849813
10	0x3b36bb50	0.0027882643
11	0x3c112de2	0.008861037
12	0x3cdc1fc3	0.026870614
13	0x3d4e276f	0.050330576
14	0x3c501d66	0.012702322
15	0x3d0c9e7b	0.034330826

enc.EncoderList.cell1.activate.fcn.3.weight f4 [8, 16]
0	0xbdcd56ec	-0.10026345
1	0x3de8fa2a	0.1137584
2	0x3e31b4b4	0.17354089
3	0xbe7b43f2	-0.24537638
4	0xbe00d341	-0.12580587
5	0x3e73c52c	0.23805684
6	0x3e865069	0.26233223
7	0xbcfc5a84	-0.03080488
8	0xbe8e7f32	-0.27831417
9	0xbda4e0a4	-0.08050659
10	0x3be1c5ba	0.006890026
11	0xbdc98f60	-0.098418
12	0x3e44bcbb	0.1921262
13	0xbdb132d6	-0.08652274
14	0x3e5b9c06	0.21446237
15	0x3d9805f5	0.07423011
16	0x3ead81ba	0.33888036
17	0xbe0602ef	-0.13087057
18	0x3c999d78	0.018751845
19	0x3e0da890	0.13833833
20	0x3deb3871	0.11485375
21	0x3d9960c8	0.07489163
22	0xbe05437b	-0.13014023
23	0xbdfa4f0b	-0.122221075
24	0x3e32ee09	0.17473616
25	0xbd4b8892	-0.04969079
26	0xbd136150	-0.035981476
27	0xbcd3216f	-0.025772778
28	0xbd3e5036	-0.046463214
29	0xbe3ea396	-0.1861709
30	0x3d55b583	0.052175056
31	0x3e056da4	0.13030106
32	0xbc87a905	-0.016560087
33	0x3e3b23ab	0.18275325
34	0x3e159df1	0.14611031
35	0xbde11f18	-0.10992259
36	0x3e5f68d1	0.21817328
37	0xbe423b33	-0.18967895
38	0x3e0273ba	0.12739459
39	0x3e0c2a79	0.13688077
40	0x3e80f791	0.25188878
41	0x3e0bad4c	0.13640326
42	0x3e44b467	0.19209443
43	0xbd9d80fe	-0.07690619
44	0x3d4ef9cf	0.050531205
45	0xbe419fd4	-0.18908626
46	0xbd9d0f07	-0.07668882
47	0x3eb63a34	0.3559128
48	0xbe90c751	-0.28277066
49	0x3e482ffd	0.19549556
50	0x3e0d73ed	0.13813753
51	0x3e0b1219	0.13581122
52	0xbe68790d	-0.22702427
53	0xbcd55cbe	-0.0260452
54	0x3c9822f2	0.01857135
55	0xbc1691bc	-0.009190019
56	0xbe0fd1b2	-0.14044836
57	0x3e2c87f6	0.1684874
58	0x3c2ccdb1	0.0105470875
59	0x3db86ea5	0.09005479
60	0x3e2ce737	0.16885076
61	0xbd7ae29e	-0.061251275
62	0xbd8279fe	-0.063709244
63	0xbdbe1351	-0.09281028
64	0x3dc3f305	0.09567837
65	0x3e32bce3	0.17454867
66	0x3e59ba09	0.21262373
67	0x3dea0e2c	0.11428484
68	0x3e66f39d	0.22553869
69	0x3bbb2a62	0.0057118395
70	0x3dceb1ea	0.10092528
71	0x3d641e22	0.0556928
72	0xbd2e3781	-0.0425334
73	0xbe766028	-0.24060118
74	0x3e5317ab	0.20614497
75	0x3e264268	0.1623627
76	0x3d747189	0.059678588
77	0xbdfacb8d	-0.122458555
78	0x3d5b58e5	0.053551573
79	0x3e178441	0.14796545
80	0xbd62662d	-0.055273224
81	0x3e2fed6c	0.17180413
82	0xbd8d5378	-0.06900686
83	0xbdcac8e3	-0.09901597
84	0x3e30d3f0	0.17268348
85	0xbe21b614	-0.15792114
86	0xbdbfa5c1	-0.09357787
87	0x3e885706	0.26628894
88	0x3e291e8c	0.16515559
89	0xbe07b36a	-0.13252035
90	0x3dec8989	0.1154967
91	0x3e969f6d	0.29418507
92	0xbde5dce2	-0.11223771
93	0xbc86c8ae	-0.016453113
94	0x3d8d1f08	0.06890684
95	0x3e09f55d	0.13472505
96	0x3e9b90a8	0.303838
97	0xbd86c6f2	-0.065809146
98	0xbe83fdab	-0.2577947
99	0xbe7e683f	-0.24844454
100	0xbdbf6fa0	-0.09347463
101	0x3e2a8bee	0.16654941
102	0x3b324d33	0.002720666
103	0x3d61603c	0.055023417
104	0xbe074974	-0.13211614
105	0xbdf1e4ef	-0.11811244
106	0xbe4ab150	-0.19794202
107	0xbe139500	-0.14412308
108	0xbcd6d27a	-0.02622341
109	0x3e0d4227	0.13794766
110	0x3e4f259f	0.20229195
111	0xbe88362c	-0.2660383
112	0x3d82394e	0.06358586
113	0xbd933fbd	-0.071898915
114	0x3e31feec	0.17382401
115	0x3d503600	0.05083275
116	0xbd9274ca	-0.07151182
117	0xbe3cebfa	-0.18449393
118	0x3e662169	0.22473682
119	0x3dc99efc	0.09844777
120	0x3df5f2af	0.12009179
121	0xbe64ab67	-0.2233101
122	0x3c804f28	0.015662745
123	0xbe1f8cf0	-0.15581107
124	0x3dcef227	0.10104781
125	0x3e00e9e2	0.12589219
126	0xbe8ddb6c	-0.27706468
127	0x3dd42f0b	0.10360535

enc.EncoderList.cell1.activate.fcn.3.bias f4 [8]
0	0xbe184d41	-0.1487322
1	0x3e051e3e	0.12999818
2	0x3d2a785c	0.04161869
3	0x3e324adb	0.17411368
4	0x3e432d12	0.19060162
5	0xbe0e908c	-0.13922328
6	0x3e000f9a	0.12505952
7	0x3e48b596	0.1960052

enc.EncoderList.cell1.activate.fcn.4.weight f4 [8]
0	0x3f778299	0.9668365
1	0x3f81604d	1.0107514
2	0x3f567558	0.837728
3	0x3f853c06	1.0408943
4	0x3f6213be	0.88311374
5	0x3f32e334	0.69877934
6	0x3f38b7c8	0.7215543
7	0x3f799d39	0.9750553

enc.EncoderList.cell1.activate.fcn.4.bias f4 [8]
0	0x3e6284d7	0.22120987
1	0x3e596d1c	0.21233028
2	0xbe3b98b0	-0.18319964
3	0x3ee5d0e4	0.44885933
4	0xbccc88b9	-0.024967538
5	0xbd9b9dd9	-0.075984664
6	0xbdf825b8	-0.12116569
7	0x3db67d53	0.089106224

enc.EncoderList.cell1.activate.fcn.4.running_mean f4 [8]
0	0xbcfb7066	-0.030693244
1	0x3ea46555	0.3210856
2	0x3efed7b7	0.49773952
3	0x3e247cf7	0.16063295
4	0x3f36b517	0.7137007
5	0x3dd90a5e	0.105976805
6	0xbe0997e4	-0.13436848
7	0x3e64c341	0.22340108

enc.EncoderList.cell1.activate.fcn.4.running_var f4 [8]
0	0x3e1b1301	0.15143968
1	0x3eaafe20	0.33397007
2	0x3ee5cea0	0.44884205
3	0x3dd9237c	0.10602471
4	0x3edf3ae8	0.4359963
5	0x3e01ee3a	0.12688532
6	0x3f2a5f04	0.6655123
7	0x3e5bcfc3	0.21465974

enc.EncoderList.cell1.bn.weight f4 [8]
0	0x3f5f313d	0.87184507
1	0x3f75d5cb	0.9602935
2	0x3f6eaab2	0.9322921
3	0x3f650539	0.89461094
4	0x3f718ff1	0.9436026
5	0x3f824e85	1.0180212
6	0x3f61a6d6	0.88145196
7	0x3f5517ee	0.8323964

enc.EncoderList.cell1.bn.bias f4 [8]
0	0xbda2b626	-0.07944898
1	0xbbfb110c	-0.0076619443
2	0xbdd1493f	-0.10219049
3	0xbdb4f9c8	-0.088367045
4	0xbe278d5c	-0.16362518
5	0xbd4ff6b9	-0.050772402
6	0xbd99f05f	-0.0751655
7	0xbcc2f8f5	-0.023800353

enc.EncoderList.cell1.bn.running_mean f4 [8]
0	0xbd4a6866	-0.04941597
1	0x3eed0aae	0.4629721
2	0x3ed6355e	0.4183759
3	0x3e1ee7db	0.15518133
4	0x3d412ce1	0.04716194
5	0x3e42ced5	0.19024213
6	0x3e2de974	0.16983587
7	0x3d89312f	0.06698834

enc.EncoderList.cell1.bn.running_var f4 [8]
0	0x3eacc2c0	0.33742332
1	0x3f1c9737	0.61168236
2	0x3e94ca6d	0.2906069
3	0x3e8b236b	0.2717546
4	0x3eb6bd5f	0.35691354
5	0x3e5cec74	0.21574575
6	0x3f2b27b9	0.66857487
7	0x3eb112cc	0.34584653

enc.EncoderList.cell2.conv.weight f4 [16, 8, 3]
0	0xbdfc2706	-0.12312131
1	0xbc02203d	-0.0079422565
2	0xbe18f6fd	-0.14937969
3	0xbe2490da	-0.16070881
4	0x3d8e3b4e	0.06944905
5	0xbd45a141	-0.048249487
6	0x3daff323	0.085912965
7	0x3e0e0834	0.13870317
8	0xbddd00c9	-0.107911654
9	0xbe0fcfa1	-0.14044048
10	0xbe022a91	-0.1271155
11	0x3e2e5702	0.17025378
12	0x3e4371c0	0.19086361
13	0x3e86a8ea	0.26300746
14	0x3de639ce	0.11241494
15	0x3d638a84	0.05555202
16	0x3e30e0bd	0.17273231
17	0xbd8425ac	-0.06452498
18	0x3d91b445	0.07114462
19	0xbdf8efcb	-0.12155112
20	0x3db974ec	0.09055504
21	0xbdb9c019	-0.09069843
22	0xbca9c350	-0.020723015
23	0x3e38113d	0.17975326
24	0x3e2ec628	0.17067778
25	0x3d4474f3	0.047963094
26	0xbd0b20a4	-0.033966675
27	0x3e45090d	0.19241734
28	0xbd422a18	-0.047403425
29	0x3d8994c6	0.067178294
30	0xbd831fae	-0.06402527
31	0xbca0e980	-0.019642591
32	0x3e55505c	0.20831436
33	0x3dae6a15	0.08516327
34	0x3e54acb7	0.2076901
35	0x3e06920a	0.13141647
36	0xbc4d5292	-0.012531893
37	0x3e213c93	0.15745763
38	0x3d4591d3	0.048234772
39	0xbd107937	-0.03527185
40	0x3d1af469	0.037830744
41	0x3e02cd0e	0.12773535
42	0x3e0699be	0.13144585
43	0xbdd3b740	-0.103376865
44	0xbdd55ede	-0.10418485
45	0xbaede5bf	-0.0018150135
46	0xbe20142d	-0.15632696
47	0xbc90de96	-0.017684262
48	0xbe493872	-0.19650438
49	0xba840b7c	-0.0010074223
50	0xbdf448ca	-0.11927946
51	0x3dabd1ef	0.08389651
52	0xbe6e89b9	-0.23294725
53	0xbdc88fc2	-0.097930446
54	0x3b6635fc	0.0035127392
55	0xbe2ed17e	-0.17072102
56	0x3d4b3c42	0.049618013
57	0x3d65861c	0.0560361
58	0xbe097d07	-0.134266
59	0xbd533f78	-0.0515742
60	0xbd31b839	-0.04338858
61	0xbe08366f	-0.13302015
62	0xbe055638	-0.13021171
63	0x3e328a24	0.17435509
64	0x3b97dc2a	0.0046344
65	0x3e621985	0.22080047
66	0xbe137018	-0.14398229
67	0xbe086c50	-0.13322568
68	0x3d82db8e	0.06389533
69	0x3ce7da42	0.028302316
70	0xbc1c2f0c	-0.009532701
71	0x3e1b3489	0.1515676
72	0xbd936cad	-0.07198463
73	0xbc727a5c	-0.014799681
74	0x3d56cfea	0.052444376
75	0x3dc3554b	0.09537753
76	0x3cf55362	0.029946987
77	0xbda64b41	-0.08119822
78	0xbe4be43d	-0.19911285
79	0xbe0fca60	-0.14042044
80	0xbdd9b732	-0.10630645
81	0xbe13a8a0	-0.14419794
82	0x3d795d4a	0.060879983
83	0xbdee031e	-0.11621688
84	0xbd67e0ff	-0.056611057
85	0x3d5fe152	0.05465824
86	0xbe52e1a6	-0.2059389
87	0x3dc946d9	0.09827966
88	0x3d426537	0.047459807
89	0xbe3926ed	-0.18081255
90	0xbe0c39a2	-0.1369386
91	0x3dc71191	0.097201474
92	0xbd9611d6	-0.07327621
93	0xbe027b3f	-0.12742327
94	0xbd09b6b6	-0.033621512
95	0xbda1dca9	-0.07903416
96	0xbe21fe14	-0.1581958
97	0x3d927342	0.0715089
98	0x3e222841	0.15835668
99	0x3e277e5f	0.163568
100	0xbe46f522	-0.19429448
101	0x3e1de864	0.15420681
102	0x3d97ee8b	0.07418545
103	0xbd18a5f8	-0.037267655
104	0x3e15b850	0.14621091
105	0x3dc2cf91	0.095122464
106	0xbbeef2b0	-0.007292114
107	0x3e11da79	0.14243497
108	0xbe3cb755	-0.1842931
109	0x3c8278b8	0.015926704
110	0x3e596797	0.21230923
111	0xbe12b055	-0.14325078
112	0xbd38f4ec	-0.04515545
113	0xbc9a9ee8	-0.0188746
114	0x3e0c5a00	0.13706207
115	0x3d9baf6c	0.076018184
116	0x3dc51fa8	0.096251786
117	0xbe140eca	-0.14458767
118	0xbdbfe0dc	-0.093690604
119	0xbc8fe329	-0.017564373
120	0x3d8e3484	0.0694361
121	0xbe581545	-0.21101864
122	0xbcc64322	-0.024201933
123	0x3e17171f	0.14754914
124	0x3df345c0	0.11878538
125	0xbd2f46e1	-0.042792205
126	0x3df0d1fa	0.117588
127	0x3dae45e2	0.08509423
128	0xbdf9a424	-0.121895105
129	0x3d444bfd	0.04792403
130	0xbc7063d0	-0.014672235
131	0x3d2f678f	0.04282337
132	0x3da85b3e	0.08220528
133	0x3de04c3a	0.10952039
134	0x3d502367	0.050815012
135	0x3d26a943	0.040688764
136	0x3d3156f8	0.04329583
137	0x3d9736a4	0.07383469
138	0x3dda6a68	0.10664827
139	0x3dacd921	0.084398516
140	0xbd27dc1f	-0.04098141
141	0xbde4f094	-0.11178699
142	0xbcb41b67	-0.021985723
143	0x3d91f9f9	0.071277566
144	0x3dcc27ae	0.09968506
145	0x3e2d7718	0.16939962
146	0x3dabccb1	0.08388651
147	0x3e33169d	0.17489095
148	0x3d6ad3a8	0.057330757
149	0x3de0c10c	0.10974321
150	0xbda5eda2	-0.081019655
151	0x3c5ff081	0.01366818
152	0x3bcf8313	0.006332764
153	0x3e1044b3	0.14088707
154	0x3de77b87	0.11302858
155	0xbd8c15a1	-0.06840063
156	0xbc80f2dc	-0.015740804
157	0x3c6eed8b	0.014583002
158	0x3e086e65	0.13323362
159	0x3e848116	0.25879735
160	0x3e40af3b	0.18816845
161	0x3d04cab3	0.03241987
162	0x3de950a4	0.11392334
163	0x3dc8c4af	0.098031394
164	0x3dba1df6	0.09087746
165	0xbd8a03d7	-0.06739014
166	0xbc399d25	-0.01132897
167	0x3d67396e	0.056451254
168	0x3e06747b	0.13130371
169	0x3d9442ee	0.07239328
170	0xbbf75ece	-0.0075491434
171	0x3d14ecf7	0.0363588
172	0xbea95a34	-0.33076632
173	0x3dbeb235	0.09311334
174	0x3bcae334	0.0061916355
175	0x3e0f31d8	0.13983858
176	0x3def8aaf	0.11696374
177	0x3d2a6552	0.041600533
178	0xbe23e1fa	-0.16004172
179	0xbb14cf49	-0.002270656
180	0xbe10ab0f	-0.14127754
181	0x3c9e076d	0.01929065
182	0x3c93e7f0	0.018054932
183	0xbdab4474	-0.08362666
184	0xbe2c08ec	-0.16800278
185	0x3e6aac39	0.2291726
186	0xbde1f7eb	-0.11033615
187	0x3dd7d5e3	0.105388425
188	0xbe309974	-0.17246038
189	0x3e19f63a	0.15035334
190	0x3dba2552	0.090891495
191	0xbda968e1	-0.08271957
192	0x3e1b1874	0.15146047
193	0xbd6bb478	-0.057545155
194	0x3d737559	0.059438083
195	0x3dea9152	0.11453499
196	0xbdd3dcb4	-0.1034483
197	0x3d2dee3c	0.042463526
198	0xbdcd9513	-0.10038199
199	0xbd1d65fc	-0.038427338
200	0xbd1d2196	-0.03836211
201	0xbe5ba65b	-0.21450178
202	0x3d7cff42	0.06176687
203	0xbe15419d	-0.1457581
204	0x3a5a1323	0.00083188916
205	0x3e058eb0	0.13042712
206	0xbd4c24f0	-0.049839914
207	0x3e4aa60b	0.19789903
208	0xbd504790	-0.050849497
209	0xbe109632	-0.14119795
210	0x3c555517	0.013020775
211	0x3e17cc4a	0.14824024
212	0x3d8356d7	0.06413048
213	0xbdc65f36	-0.09686129
214	0x3e50122a	0.20319429
215	0x3e454df0	0.19268012
216	0xbbc72501	-0.0060774093
217	0xbdc83ba6	-0.09777002
218	0x3d65c123	0.056092393
219	0x3da6acf4	0.08138457
220	0x3cb4a1a8	0.02204974
221	0x3e09dbbc	0.13462728
222	0xbe8abdab	-0.2709783
223	0x3e06f2cb	0.13178556
224	0xbc939cf2	-0.018019173
225	0x3bebd5d9	0.0071971235
226	0x3e5804f2	0.21095636
227	0x3e102879	0.14077939
228	0xbd714be7	-0.058910277
229	0xbdac16a3	-0.08402755
230	0x3e0efcb7	0.1396359
231	0x3bee0798	0.007264089
232	0xbe9d2255	-0.30690256
233	0xbd935b9d	-0.07195208
234	0xbd702939	-0.058633063
235	0xbe3d88e4	-0.18509251
236	0xbe7439bc	-0.23850149
237	0x3c0d4c4c	0.008624148
238	0xbda0bbfe	-0.07848357
239	0x3e0163ed	0.12635775
240	0x3cf2e0de	0.02964824
241	0xbad4d43b	-0.0016237566
242	0xbdc1bab1	-0.09459437
243	0x3e57153d	0.21004196
244	0xbd96a5a5	-0.07355813
245	0x3e6f4f1a	0.23370019
246	0x3c661d22	0.014045032
247	0x3d37c649	0.044866834
248	0xbdc48a0f	-0.09596645
249	0x3dc12d1b	0.09432431
250	0x3cbe38cf	0.023220448
251	0x3d71d2b2	0.059038825
252	0x3e0151c2	0.12628844
253	0x3df027a8	0.11726314
254	0x3a132749	0.0005613459
255	0xbe74cae6	-0.23905525

enc.EncoderList.cell2.conv.bias f4 [16]
0	0x3dc7be48	0.0975309
1	0x3d1da769	0.038489733
2	0x3cbb89b1	0.022892805
3	0x3dad208a	0.08453472
4	0x3e469904	0.19394308
5	0xbe9b6d90	-0.30357027
6	0xbe52edb7	-0.20598494
7	0xbeb0651a	-0.34452134
8	0xbd83ddef	-0.06438815
9	0xbdf615da	-0.120158866
10	0x3e0056ea	0.12533155
11	0xbd827d01	-0.06371499
12	0x3e2279d5	0.15866788
13	0x3e2b95b1	0.16756321
14	0xbe86fd0a	-0.26364928
15	0x3e9744ad	0.29544583

enc.EncoderList.cell2.activate.fcn.0.weight f4 [32, 32]
0	0xbd07521b	-0.033037286
1	0xbc899289	-0.016793506
2	0x3d9c68bf	0.07637166
3	0xbe1a8700	-0.15090561
4	0xbe01093f	-0.12601183
5	0x3dadd797	0.08488386
6	0x3e1b64d4	0.15175182
7	0xbcba61c7	-0.022751702
8	0xbe0edaa7	-0.13950597
9	0xbe3ce128	-0.18445265
10	0x3e42cb9c	0.19022983
11	0x3e08a849	0.13345446
12	0xbdcddbae	-0.10051666
13	0x3dec9796	0.1155235
14	0xbd6963db	-0.056979995
15	0x3e180930	0.14847255
16	0xbd00b3f7	-0.031421628
17	0x3ea8fd62	0.33005816
18	0xbd9a9886	-0.07548623
19	0x3de3493c	0.11097953
20	0xbc061abf	-0.008185088
21	0x3e48593e	0.19565293
22	0x3d30dd66	0.043179892
23	0x3cd9fea4	0.02661068
24	0xbc238491	-0.009980337
25	0x3ddb8b49	0.10719926
26	0x3df3fc1b	0.1191332
27	0xbd3ce7f0	-0.04611963
28	0xbd7ae7b1	-0.061256114
29	0x3e0aff15	0.13573869
30	0x3e6b9197	0.23004757
31	0x3d8dacac	0.069177
32	0x3e462126	0.19348583
33	0xbdad9e4d	-0.08477459
34	0x3e0abafb	0.1354789
35	0x3e4f3c7e	0.2023792
36	0x3e2952c4	0.16535479
37	0xbde5ddbf	-0.11223935
38	0x3c748ae7	0.014925695
39	0xbdd66429	-0.10468323
40	0x3e388d7e	0.18022725
41	0xbe46cd35	-0.19414218
42	0xbd3b3f27	-0.045714524
43	0xbd23a174	-0.039948896
44	0xbc7689fc	-0.0150475465
45	0xbe389d0a	-0.18028656
46	0xbe00223a	-0.12513056
47	0x3c3d5900	0.011556864
48	0xbe031299	-0.12800063
49	0x3d1a3590	0.037648737
50	0x3e3f373e	0.18673417
51	0xbae2babd	-0.0017298084
52	0xbc894cb4	-0.016760208
53	0xbda36078	-0.07977384
54	0x3e322503	0.17396931
55	0xbd8a8995	-0.06764523
56	0xbde1928b	-0.11014279
57	0xbe4069de	-0.18790385
58	0x3c98602f	0.018600551
59	0xbe1c38a2	-0.15255979
60	0x3dbe96f1	0.093061335
61	0xbd8e43d5	-0.06946532
62	0x3c558598	0.0130323395
63	0xbce5a8cb	-0.028034588
64	0xbd893291	-0.06699098
65	0xbd047329	-0.032336388
66	0x3de585c2	0.11207153
67	0xbd953f69	-0.07287485
68	0x3e0f9253	0.14020662
69	0xbdc09843	-0.094040416
70	0xbe62b5cd	-0.22139664
71	0x3d7d9e68	0.061918646
72	0x3e2c4113	0.16821699
73	0x3d880a1e	0.06642555
74	0xbd053f14	-0.03253086
75	0x3e05055b	0.12990324
76	0x3de8c9c6	0.1136661
77	0xbe1ded37	-0.15422522
78	0x3b95bbbd	0.0045694993
79	0xbe6642b7	-0.22486387
80	0xbd44a779	-0.048011277
81	0xbdf4fcf5	-0.1196231
82	0xbdfbffc4	-0.12304643
83	0x3d161bc9	0.03664759
84	0xbc2fb2cf	-0.010723784
85	0xbd940976	-0.07228367
86	0x3e93e213	0.28883418
87	0x3c977ed2	0.01849309
88	0x3e2af075	0.1669329
89	0x3e076414	0.1322177
90	0x3dfb98a7	0.122849755
91	0x3ddcd43e	0.107826695
92	0x3dcb2ebc	0.09921023
93	0x3d18e43a	0.03732703
94	0xbd7853e7	-0.06062689
95	0xbd3eaef2	-0.04655356
96	0x3df4d728	0.119551
97	0x3d5de9c0	0.054178
98	0xbdd2b75f	-0.102888815
99	0xbcbb5c35	-0.022871116
100	0xbced790f	-0.02898839
101	0x3de5efc8	0.11227375
102	0x3d99ccda	0.075097755
103	0x3dcfc0c9	0.10144193
104	0xbdb106ef	-0.086439006
105	0xbe0108f9	-0.12601079
106	0x3cf2bb97	0.029630465
107	0xbdfc5ecd	-0.12322769
108	0x3d8b8b5c	0.0681369
109	0x3e078b1d	0.13236661
110	0xbda0e25e	-0.07855676
111	0x3ce6786d	0.028133595
112	0xbc65981f	-0.014013319
113	0x3d6594f4	0.056050256
114	0xbdc9ce8f	-0.09853851
115	0xbe5a4b9d	-0.21317907
116	0x3d4e4bf4	0.050365403
117	0x3e346d55	0.17619832
118	0x3d097119	0.033555124
119	0xbc975271	-0.018471928
120	0x3e476706	0.19472894
121	0x3d9ce937	0.0766167
122	0xbda49b80	-0.08037472
123	0xbb784279	-0.0037881418
124	0x3e047e53	0.12938814
125	0x3e10f223	0.14154868
126	0x3dfcdc08	0.12346655
127	0xbc83d155	-0.016091028
128	0xbd8b101c	-0.06790182
129	0xbe245ad4	-0.16050273
130	0xbe31ab16	-0.1735042
131	0x3d2fca43	0.0429175
132	0x3d6d78db	0.057976585
133	0x3d8852ef	0.06656443
134	0x3d27d4f8	0.040974587
135	0x3d80f13f	0.06296014
136	0x3df3c024	0.11901882
137	0xbd964d2c	-0.07338938
138	0xbe520366	-0.20509109
139	0x3e1c5aeb	0.15269057
140	0xbda90ad5	-0.08254019
141	0xbd5cb654	-0.05388482
142	0x3d7f4897	0.062325086
143	0x3d198557	0.03748068
144	0xbb37e04b	-0.0028057273
145	0x3c563618	0.01307442
146	0x3d9fdfb3	0.07806339
147	0x3d6c9f12	0.05776889
148	0xbe1e6fa8	-0.15472281
149	0x3e2eae7d	0.1705875
150	0xbdb94867	-0.09047013
151	0xbd67120f	-0.056413706
152	0x3cf77ce2	0.030210916
153	0xbdbbf819	-0.0917818
154	0x3dfafb8a	0.122550085
155	0x3e3ed296	0.1863502
156	0x3e179aeb	0.1480519
157	0x3e5528bf	0.20816325
158	0xbd9f45ed	-0.07777009
159	0x3dd5195b	0.10405227
160	0xbdbacca7	-0.091210656
161	0x3e305f16	0.17223772
162	0xbe42bf05	-0.1901818
163	0xbe2066d5	-0.15664227
164	0x3d6782c2	0.056521185
165	0xbe3469ad	-0.17618437
166	0x3d380314	0.04492481
167	0x3e188be1	0.1489711
168	0xbd8b2b39	-0.067953534
169	0x3d774bf6	0.060375176
170	0x3da9e40e	0.08295451
171	0xbe1e959d	-0.1548676
172	0xbd975224	-0.07388714
173	0xbe042431	-0.12904431
174	0xbde65306	-0.11246304
175	0xbdd638c6	-0.104600474
176	0x3e3d9ebb	0.18517582
177	0xbe52554a	-0.20540348
178	0xbe2343aa	-0.1594378
179	0x3cd63723	0.026149338
180	0x3d6ab782	0.057303913
181	0xbe3e26a4	-0.18569428
182	0xbdf1870f	-0.117933385
183	0xbd34f94f	-0.04418307
184	0xbdde00c6	-0.10839991
185	0xbe2744bc	-0.16334814
186	0x3da7e9a7	0.081988625
187	0xbda63862	-0.08116223
188	0x3e50aad2	0.20377663
189	0x3dfcab8d	0.12337408
190	0xbb17a431	-0.0023138637
191	0x3e09d8e2	0.1346164
192	0xbd9cf66a	-0.07664187
193	0xbe1c0455	-0.15236028
194	0x3e01be2f	0.12670206
195	0xbdba9ce9	-0.091119595
196	0x3d0f7f50	0.035033524
197	0x3e621c3d	0.22081085
198	0xbde9f36b	-0.114233814
199	0x3d84763f	0.06467866
200	0x3e070b9f	0.13188027
201	0x3df73df7	0.12072366
202	0x3e83cff2	0.25744587
203	0xbe0ad469	-0.1355759
204	0xbe115a7c	-0.14194673
205	0xbc0f58c4	-0.008749191
206	0xbdc0fcd3	-0.094232224
207	0x3d9a2c64	0.07527998
208	0x3c9d2782	0.019183878
209	0xbe5f0add	-0.21781488
210	0xbd0bbd05	-0.03411581
211	0x3d133531	0.0359394
212	0xbcb3543a	-0.021890748
213	0x3e0e7d16	0.13914904
214	0xbe74e122	-0.23914006
215	0xbd61c5bd	-0.05512022
216	0xbe0adda8	-0.13561118
217	0x3dec5eb4	0.11541501
218	0xbd22ba07	-0.03972819
219	0xbcd324e8	-0.025774434
220	0x3c86e06d	0.016464436
221	0xbd81cfc4	-0.06338456
222	0xbe16b5ac	-0.1471774
223	0x3e001ee5	0.12511785
224	0xbe296a79	-0.16544522
225	0xbe0aebda	-0.13566533
226	0x3d8f1ae0	0.06987548
227	0xbd2faf58	-0.04289183
228	0xbe4d3b8f	-0.20042251
229	0xbd0245ac	-0.031804726
230	0x3e171466	0.14753875
231	0xbd8aeb0a	-0.067831114
232	0x3e1ec0f1	0.15503289
233	0x3db8b6bb	0.09019228
234	0x3dc36ed8	0.09542626
235	0xbb43435d	-0.002979479
236	0x3d7419c6	0.059594892
237	0xbe572a6e	-0.2101228
238	0x3db1f5e4	0.08689478
239	0x3ba25b12	0.004954704
240	0xbc82e2ae	-0.01597723
241	0x3ca5ed4e	0.020254757
242	0x3d8d2f06	0.06893735
243	0x3e142037	0.14465414
244	0xbdc1834d	-0.09448872
245	0x3ce0b0cf	0.027428059
246	0xbcd37236	-0.025811296
247	0x3ccea207	0.025223745
248	0xbdc4ab4c	-0.09602985
249	0xbdc8251e	-0.097727045
250	0xbcaf9516	-0.021433394
251	0xbe044b88	-0.12919438
252	0x3d2e4441	0.04254556
253	0xbdce6e3d	-0.1007962
254	0x3d0e8d45	0.034802694
255	0xbd1acaad	-0.037790943

enc.EncoderList.cell2.activate.fcn.0.bias f4 [32]
0	0x3d8a3ba6	0.06749658
1	0xbe13d22f	-0.14435647
2	0xbdd36f65	-0.10323981
3	0x3dfad7de	0.12248205
4	0x3e12b05d	0.1432509
5	0xbce9c913	-0.028538262
6	0x3e04200e	0.12902853
7	0x3a6394a9	0.0008681515
8	0x3d456541	0.048192266
9	0xbe2689ac	-0.16263455
10	0xbe2b81f2	-0.16748789
11	0xbd71186b	-0.058861177
12	0x3da09f94	0.07842937
13	0x3d495b4a	0.049159326
14	0x3dc3b652	0.09556259
15	0x3def035a	0.11670561
16	0x3c9398ff	0.01801729
17	0xbdb7d05e	-0.0897529
18	0x3e0303e8	0.12794459
19	0x3cca7fda	0.024719168
20	0xbdd5181a	-0.10404988
21	0x3dd2d44c	0.10294399
22	0x3e351c80	0.17686653
23	0xbe227b65	-0.15867384
24	0xbe3f9e9b	-0.18712847
25	0x3e51e94e	0.20499155
26	0xbe2735d9	-0.16329135
27	0xbd892a31	-0.066975005
28	0xbe13d06c	-0.14434975
29	0x3b747e10	0.0037306584
30	0xbd9cbb80	-0.0765295
31	0x3d10035e	0.03515946

enc.EncoderList.cell2.activate.fcn.1.weight f4 [32]
0	0x3f7a0912	0.9767009
1	0x3f686b99	0.9078918
2	0x3f870d5a	1.055095
3	0x3f6a5265	0.91531974
4	0x3f859233	1.0435241
5	0x3f77ce54	0.96799207
6	0x3f8057ff	1.0026854
7	0x3f79a6e5	0.97520286
8	0x3f68ec5f	0.90985674
9	0x3f65c6be	0.8975638
10	0x3f7d5bf4	0.98968434
11	0x3f7a302f	0.9772977
12	0x3f838bd6	1.027705
13	0x3f798705	0.9747165
14	0x3f7fc633	0.99911803
15	0x3f894c36	1.0726383
16	0x3f873059	1.056163
17	0x3f86cb85	1.0530859
18	0x3f7d8a2b	0.9903895
19	0x3f81ae39	1.0131294
20	0x3f8116d9	1.0085098
21	0x3f83f07a	1.0307763
22	0x3f7b48f2	0.9815818
23	0x3f867f31	1.0507566
24	0x3f7bc460	0.9834652
25	0x3f83ca20	1.0296059
26	0x3f875bfb	1.0574945
27	0x3f77c615	0.96786624
28	0x3f84815b	1.0351976
29	0x3f8b5461	1.0885125
30	0x3f78532e	0.9700192
31	0x3f760b61	0.9611111

enc.EncoderList.cell2.activate.fcn.1.bias f4 [32]
0	0xbc5e12bb	-0.01355427
1	0xbbf4649d	-0.007458283
2	0x3dd5548e	0.10416518
3	0xba0cce93	-0.0005371358
4	0xbde40d6b	-0.11135372
5	0x3d775ff8	0.060394257
6	0xbd2e66af	-0.042578395
7	0x3d712801	0.05887604
8	0xbe3ec52c	-0.18629903
9	0xbd970f02	-0.073759094
10	0x3dd3c2c4	0.10339883
11	0xbd392d1c	-0.045209035
12	0xbd6826ff	-0.056677815
13	0x3d1025a6	0.035192154
14	0x3d2afd42	0.04174543
15	0x3cf29110	0.029610187
16	0x3d6a1bb3	0.057155322
17	0x3e0a4426	0.13502559
18	0x3d762d6d	0.060101915
19	0x3d5d4860	0.0540241
20	0xbc1915de	-0.009343592
21	0xbd84b9c0	-0.064807415
22	0xbbf75da8	-0.0075490065
23	0xbd3d599c	-0.046228036
24	0x3d63cc41	0.055614714
25	0x3d92b0d3	0.07162633
26	0xbcd5c05d	-0.026092703
27	0xbe13aeae	-0.14422104
28	0x3d79cdf0	0.060987413
29	0x3d9d166c	0.07670292
30	0x3dc6e2e8	0.09711248
31	0x3c7ae298	0.015312813

enc.EncoderList.cell2.activate.fcn.1.running_mean f4 [32]
0	0xbe7342c6	-0.23755941
1	0xbc7d42e8	-0.015457846
2	0xbebcc1cc	-0.36866605
3	0xbd08adfa	-0.033369042
4	0xbe0f4602	-0.1399155
5	0xbd096c14	-0.033550337
6	0x3ec41fa6	0.38305396
7	0x3d41c109	0.047303233
8	0x3ed2f979	0.41205958
9	0xbe52530f	-0.20539497
10	0xbe7c6848	-0.24649155
11	0xbd79c204	-0.060976043
12	0x3d5a6b5e	0.05332505
13	0x3e6556e2	0.22396424
14	0xbe699ae8	-0.22812998
15	0x3b999974	0.0046874825
16	0xbd454642	-0.048162706
17	0xbe33e1d3	-0.17566614
18	0x3ec4245c	0.3830899
19	0x3c5a308c	0.013317239
20	0xbd73f0d1	-0.059555832
21	0x3e504e8d	0.20342465
22	0x3f1c2dc7	0.6100735
23	0xbee12ab0	-0.4397788
24	0xbe5ac2a6	-0.21363315
25	0x3efcc11f	0.4936609
26	0xbef5f374	-0.48037302
27	0xbed6e26c	-0.4196962
28	0xbebeadfa	-0.3724211
29	0xbe93b48b	-0.2884868
30	0xbe413d96	-0.1887115
31	0xbdc1cd95	-0.0946304

enc.EncoderList.cell2.activate.fcn.1.running_var f4 [32]
0	0x3bfbf325	0.007688897
1	0x3c34fda4	0.011046801
2	0x3bd974c3	0.0066362335
3	0x3cefc351	0.029267939
4	0x3ca84df0	0.020544976
5	0x3c540549	0.012940713
6	0x3d58136d	0.0527529
7	0x3c8baa70	0.017049044
8	0x3cc92f3d	0.024558658
9	0x3cc1540f	0.023599653
10	0x3c1aef46	0.009456461
11	0x3bb7b352	0.0056060934
12	0x3c7b8228	0.015350856
13	0x3d3c0a6e	0.045908384
14	0x3c04a588	0.008096106
15	0x3c2e6f62	0.010646673
16	0x3c6a762c	0.014310401
17	0x3c1bdb6d	0.009512764
18	0x3d279913	0.040917467
19	0x3c228d2c	0.009921353
20	0x3c9661f9	0.018357264
21	0x3c041195	0.0080608325
22	0x3d4bc0d7	0.049744453
23	0x3d2a2de1	0.04154766
24	0x3bdbb429	0.0067048264
25	0x3d070a1a	0.032968618
26	0x3c7a6e3d	0.015285072
27	0x3d087f7c	0.033324704
28	0x3be91d07	0.007114056
29	0x3c6d22cf	0.014473631
30	0x3d2e3378	0.042529553
31	0x3dc3285d	0.09529183
