checkpoints/best_DACNN_emb_snr_2.pth (torch, 160834 bytes, 219 tensors)

enc.EncoderList.cell0.conv.weight f4 [4, 2, 17]
0.019043116 0.010610272 0.030181317 0.247479 0.15386395 0.1973228 0.041406184 0.14967662
0.22093119 -0.101187974 0.059378296 -0.09934184 0.03867274 -0.061116386 0.046088245 -0.049858674
0.07765142 0.14542103 0.021041075 0.16319545 -0.00018813761 0.04652364 -0.04168972 0.083818614
-0.12580952 -0.07071613 -0.011246335 -0.02437204 0.096111886 -0.06284273 0.25011837 -0.098972306
0.16762586 -0.000552125 -0.090458296 0.0496082 -0.027709164 0.0809469 -0.037101317 -0.10551509
-0.009278776 -0.10612608 0.045250773 0.13452311 0.10189119 -0.04848249 0.12301171 0.07861603
0.10770185 -0.07379614 -0.19075307 -0.17682904 -0.18853901 0.07295014 0.0081993 0.08706509
0.040046394 0.05393554 0.22114173 0.13657852 0.2542329 -0.018200753 0.10620614 -0.059445273
0.056494348 -0.02635235 0.097501785 -0.21748872 -0.1661713 -0.12665026 0.11787068 0.06494751
0.13287014 -0.13378216 -0.19678609 -0.1418185 -0.016322076 0.17721765 0.15967293 0.27100822
-0.0014992319 -0.005067055 0.11064737 -0.0592119 -0.009579435 0.04888176 0.1503579 -0.063775286
-0.04025837 0.04836425 0.007448703 -0.13221149 0.010152889 -0.006231738 -0.23141022 -0.11429492
0.13856599 0.011074378 0.02359841 -0.056067694 -0.002292244 0.08228026 0.040434934 -0.034690242
-0.00039711644 -0.10866617 -0.17757261 -0.08240879 -0.14931893 -0.08987031 0.075560115 -0.07621145
0.00668983 -0.21052511 -0.103606075 -0.07165278 0.092568934 -0.049879257 0.04101767 -0.0669668
0.039711513 -0.037653323 -0.0014021349 -0.14059742 -0.12373247 -0.122443095 -0.087870955 -0.17260844
0.11606805 -0.036696956 0.1701531 0.10349833 -0.07865968 0.16949847 0.0055405265 -0.028978309
00000000: 4f00 9c3c b5d6 2d3c cf3e f73c 236b 7d3e
00000010: 838e 1d3e fd0e 4a3e 8899 293d d444 193e
00000020: c93b 623e a43b cfbd a836 733d bc73 cbbd
00000030: 4f67 1e3d 2d55 7abd 07c7 3c3d 9c38 4cbd
00000040: b507 9f3d 40e9 143e 555e ac3c b51c 273e
00000050: ce46 45b9 938f 3e3d d7c2 2abd 18a9 ab3d
00000060: 36d4 00be 9ed3 90bd 8c42 38bc dfa7 c7bc
00000070: 4fd6 c43d b0b3 80bd 840f 803e feb1 cabd
00000080: 1da6 2b3e 7bbc 10ba 3342 b9bd f831 4b3d
00000090: 54fe e2bc 7dc7 a53d 8df7 17bd 4c18 d8bd
000000a0: 0206 18bc a158 d9bd e058 393d 6dc0 093e
000000b0: 54ac d03d 9395 46bd 90ed fb3d 7101 a13d
000000c0: ca92 dc3d 6e22 97bd c654 43be ac12 35be
000000d0: 5f10 41be e266 953d 5b56 063c 2f4f b23d
000000e0: b007 243d 83eb 5c3d fa72 623e 3ddb 0b3e
000000f0: d12a 823e bf19 95bc 9b82 d93d e37c 73bd
00000100: 9e66 673d e2e0 d7bc 04af c73d 5db5 5ebe
00000110: cf28 2abe 9bb0 01be 2f66 f13d 3303 853d
00000120: 1c0f 083e 31fe 08be 4b82 49be de38 11be
00000130: e0b5 85bc 8b78 353e 4d81 233e 97c1 8a3e
00000140: e081 c4ba 8a09 a6bb 179b e23d 2d88 72bd
00000150: 10f3 1cbc 3e38 483d 6cf7 193e 9e9c 82bd
00000160: f6e5 24bd 9819 463d 4014 f43b 7362 07be
00000170: 4e58 263c 9b33 ccbb cdf6 6cbe 7413 eabd
00000180: 3ee4 0d3e 4f71 353c 7451 c13c 3da7 65bd
00000190: 7939 16bb 8e82 a83d 1a9f 253d 5b17 0ebd
000001a0: 1134 d0b9 5e8c debd 98d5 35be f1c5 a8bd
000001b0: 10e7 18be ed0d b8bd 43bf 9a3d c014 9cbd
000001c0: 5d36 db3b e593 57be 6c2f d4bd b1be 92bd
000001d0: c894 bd3d 314e 4cbd 2502 283d e425 89bd
000001e0: 8aa8 223d 5f3a 1abd d7c7 b7ba c5f8 0fbe
000001f0: 7367 fdbd 72c3 fabd b0f5 b3bd 44c0 30be
00000200: 16b5 ed3d 8c4f 16bd 9d3c 2e3e eff6 d33d
00000210: 5418 a1bd 0291 2d3e 4e8d b53b eb63 edbc

enc.EncoderList.cell0.conv.bias f4 [4]
0.062588066 0.19071078 -0.27423683 0.014622461
00000000: 2c2e 803d b049 433e c568 8cbe 0c93 6f3c

enc.EncoderList.cell0.activate.fcn.0.weight f4 [8, 8]
0.18100916 -0.038689367 0.11410924 -0.21650572 -0.18017684 0.20140676 0.07947693 0.28227934
0.39852366 -0.100060016 -0.05033693 -0.096204646 -0.08755959 -0.3168019 0.35631576 -0.25764173
0.11575149 0.13495502 0.056226034 -0.23842648 0.38984126 0.1310291 -0.1003099 -0.2518987
0.120936215 -0.16787477 -0.19565344 0.26724067 -0.004320366 -0.29928437 -0.055493675 -0.01928247
0.21846525 -0.12190881 -0.25052413 -0.20444348 -0.17293473 0.23134711 0.18294883 -0.24422143
0.097762264 0.24170211 0.102409944 -0.09982822 0.17096794 0.11286802 0.2613189 -0.07751455
-0.025417127 0.20536363 0.0069496077 -0.17499885 0.2787613 0.20068774 0.123825565 -0.11475121
-0.013153274 0.28278354 0.18447144 0.16712552 -0.22182144 -0.15112461 0.09018243 0.14161982
00000000: 775a 393e be78 1ebd 1bb2 e93d adb3 5dbe
00000010: 4780 38be 933d 4e3e cdc4 a23d eb86 903e
00000020: 4b0b cc3e 44ec ccbd 192e 4ebd f106 c5bd
00000030: 7152 b3bd dc33 a2be 056f b63e 9ee9 83be
00000040: 1e0f ed3d a631 0a3e 454d 663d 1226 74be
00000050: 4699 c73e 7e2c 063e 476f cdbd def8 80be
00000060: 68ad f73d 5de7 2bbe 6059 48be c5d3 883e
00000070: db91 8dbb cd3b 99be 564d 63bd 45f6 9dbc
00000080: 5bb5 5f3e 54ab f9bd b344 80be a259 51be
00000090: cd15 31be 42e6 6c3e f056 3b3e 2f15 7abe
000000a0: 9537 c83d c280 773e 4ebc d13d bd72 ccbd
000000b0: 3812 2f3e 5927 e73d 97cb 853e f3bf 9ebd
000000c0: 9437 d0bc d84a 523e 89b9 e33b e632 33be
000000d0: cdb9 8e3e 1681 4d3e 4298 fd3d af02 ebbd
000000e0: d480 57bc 01c9 903e 15e6 3c3e f422 2b3e
000000f0: 2925 63be 69c0 1abe 91b1 b83d c904 113e

enc.EncoderList.cell0.activate.fcn.0.bias f4 [8]
-0.041134745 -0.21359092 -0.21730477 -0.31335902 -0.11417149 0.11868989 0.22765079 0.14467506
00000000: e87c 28bd 94b7 5abe 2485 5ebe 9870 a0be
00000010: bed2 e9bd af13 f33d 4a1d 693e b325 143e

enc.EncoderList.cell0.activate.fcn.1.weight f4 [8]
1.2303655 1.0197034 1.0014359 0.93904626 0.99300134 0.95033664 0.8970198 0.98954046
00000000: 9e7c 9d3f a485 823f 0d2f 803f 5665 703f
00000010: 5635 7e3f 4349 733f 17a3 653f 8652 7d3f

enc.EncoderList.cell0.activate.fcn.1.bias f4 [8]
-0.13404807 0.0035188026 -0.056817707 0.10030176 0.02529876 -0.015826628 0.01265988 0.06805356
00000000: e643 09be b69b 663b afb9 68bd 026b cd3d
00000010: 583f cf3c d8a6 81bc 636b 4f3c aa5f 8b3d

enc.EncoderList.cell0.activate.fcn.1.running_mean f4 [8]
-0.11881205 -0.04534977 -0.25773787 -0.15839244 -0.06595492 0.071538635 0.08286928 0.3262249
00000000: bb53 f3bd aec0 39bd 38f6 83be a131 22be
00000010: 6013 87bd d982 923d 5eb7 a93d f306 a73e

enc.EncoderList.cell0.activate.fcn.1.running_var f4 [8]
0.0014821583 0.064900205 0.24700053 0.034602623 0.03506555 0.07474394 0.12283414 0.061487846
00000000: fb44 c23a 66ea 843d b5ed 7c3e 7bbb 0d3d
00000010: e5a0 0f3d 5a13 993d 7790 fb3d aeda 7b3d

enc.EncoderList.cell0.activate.fcn.3.weight f4 [4, 8]
-0.47647715 -0.21904989 -0.0011464502 0.2009595 0.2497871 -0.10323661 0.04613961 -0.24982642
-0.43773976 0.28171885 -0.18188521 -0.11598438 -0.3181082 0.18340275 0.14786111 0.061464895
-0.42330945 -0.21993761 -0.1673645 0.09618187 0.2511629 0.3919499 0.23465648 -0.08838158
0.15339525 -0.10643137 -0.27265328 -0.37176213 0.23561206 -0.15834475 -0.08193761 -0.27079862
00000000: d0f4 f3be 9d4e 60be 7c44 96ba 54c8 4d3e
00000010: 31c8 7f3e b76d d3bd e3fc 3c3d 7fd2 7fbe
00000020: 6d1f e0be 743d 903e 1e40 3abe 3889 edbd
00000030: 14df a2be eecd 3b3e e768 173e 9dc2 7b3d
00000040: 04bc d8be 5337 61be 9961 2bbe 00fb c43d
00000050: 6c98 803e a8ad c83e ca49 703e 6701 b5bd
00000060: a513 1d3e b1f8 d9bd 3699 8bbe 9b57 bebe
00000070: 4a44 713e 2025 22be e8ce a7bd 1ea6 8abe

enc.EncoderList.cell0.activate.fcn.3.bias f4 [4]
-0.05623886 -0.2517864 -0.22890075 0.11751732
00000000: b85a 66bd 26ea 80be f564 6abe ecac f03d

enc.EncoderList.cell0.activate.fcn.4.weight f4 [4]
0.9572717 0.34279492 0.14551763 0.88941324
00000000: c20f 753f d182 af3e 9302 153e 96b0 633f

enc.EncoderList.cell0.activate.fcn.4.bias f4 [4]
0.4130194 1.1367296 1.1983353 0.34758702
00000000: 4777 d33e 5b80 913f 0d63 993f edf6 b13e

enc.EncoderList.cell0.activate.fcn.4.running_mean f4 [4]
-0.26650324 -0.40829265 -0.21256292 -0.19606188
00000000: 1d73 88be bc0b d1be 18aa 59be 72c4 48be

enc.EncoderList.cell0.activate.fcn.4.running_var f4 [4]
0.0382334 0.04296577 0.057864975 0.24410263
00000000: a09a 1c3d e0fc 2f3d d303 6d3d 0af6 793e

enc.EncoderList.cell0.bn.weight f4 [4]
0.9010218 0.9876528 0.9242251 0.85619944
00000000: 5da9 663f d0d6 7c3f 049a 6c3f e32f 5b3f

enc.EncoderList.cell0.bn.bias f4 [4]
0.18746208 0.37437966 -0.02251795 -0.1206548
00000000: 0ff6 3f3e b1ae bf3e 9077 b8bc dd19 f7bd

enc.EncoderList.cell0.bn.running_mean f4 [4]
0.19319156 0.22499657 -0.2050208 0.14893407
00000000: 02d4 453e 8065 663e f9f0 51be 2c82 183e

enc.EncoderList.cell0.bn.running_var f4 [4]
0.9494993 0.25670707 0.08389342 0.69626886
00000000: 6312 733f 1c6f 833e 50d0 ab3d ad3e 323f

enc.EncoderList.cell1.conv.weight f4 [8, 4, 17]
-0.12697603 0.012221558 -0.054130763 -0.08144352 -0.006852297 -0.023222378 0.0067414423 -0.06749218
0.10603546 -0.059693053 0.05489459 0.04207825 0.08538898 -0.07883785 0.09319422 -0.0645063
0.025037903 0.00078279304 -0.12685046 0.07856336 0.11378475 -0.070710056 0.12081673 -0.0230825
0.18350917 0.19235651 0.17302704 0.05309934 0.04447587 0.10619122 0.0689471 -0.17241372
-0.03437484 -0.072488986 -0.048889395 -0.04276545 0.14109643 0.048275176 -0.1424141 0.096539766
-0.013084692 -0.0792587 -0.087217666 -0.16914473 -0.19507794 -0.24466877 -0.00515 -0.049228508
-0.036507636 0.029148512 0.027566824 0.0019623786 0.0154431285 -0.037188835 -0.062141627 -0.07351215
-0.14696467 0.023591328 -0.12122382 0.015466331 -0.052844144 -0.0011941837 0.054684732 0.00020911577
-0.1607326 0.015708445 0.056381535 -0.027354214 0.049037013 0.12899289 0.049499165 0.12056716
0.028711224 0.09631806 0.19105744 0.13923961 -0.021525376 -0.031790614 -0.001491371 -0.011450384
0.051050395 0.12696508 0.19932088 0.099712774 -0.07035107 0.04317296 0.17142434 0.00829241
0.023056777 0.064280026 -0.00085293106 0.08011787 0.09136574 0.01707698 -0.008605988 -0.017482402
-0.023910083 -0.009691937 0.099174336 -0.07184552 -0.045597125 0.0968185 0.14856434 0.10536535
0.21527044 0.1052787 -0.08574418 0.11764012 0.1807023 0.064147845 0.013082677 0.15714878
-0.02892065 -0.039793517 -0.10389153 0.0110359825 0.07984267 0.06350096 0.01876642 -0.104785964
-0.1440769 -0.049486652 0.07539584 0.036780495 -0.11406227 -0.070587985 -0.10856949 -0.05510477
0.0024526622 -0.025876135 0.0070230784 -0.1867354 0.097453654 -0.037579346 0.07090343 0.15200979
0.009288584 0.09894881 -0.121410035 -0.07652139 0.029067462 -0.06372081 -0.06788807 -0.11451341
0.032009687 0.030204626 0.036507532 -0.055278502 -0.036992755 0.08357374 0.0939308 -0.028340956
-0.03236146 0.021699948 -0.03495779 -0.044033047 -0.049122732 -0.18494248 -0.16324504 -0.08819179
-0.0931356 0.01937347 -0.030270968 -0.018661547 0.15151991 0.08500838 0.14469366 0.012587376
0.02188191 0.105676875 -0.09216435 -0.030278377 0.07883711 -0.019576503 -0.15936701 0.106737524
0.12332164 0.06390581 -0.0039165257 -0.08638068 -0.056321524 0.059231643 0.113271154 0.02664305
-0.04967269 -0.0006015152 -0.11471121 -0.07954584 -0.14960869 -0.038852632 -0.01916791 0.0016204328
-0.06698016 0.12985389 0.10971374 0.3023527 0.30264425 0.050867673 -0.035297763 0.15437274
0.13270664 -0.09212732 -0.06942434 -0.1787179 -0.033173576 0.041381244 0.010178784 -0.02976601
-0.09305314 0.042156003 -0.01816301 -0.07712754 -0.022637324 -0.006558332 -0.024760798 -0.15400614
0.008676634 -0.06552067 -0.09768791 -0.051251635 0.157443 0.048505817 0.074822284 0.096323945
0.12597896 0.08470427 0.032650627 0.09420155 -0.050904557 -0.28073552 -0.28988856 -0.12687819
-0.0011027831 0.00682663 -0.052872784 0.071126655 0.00640953 0.05150518 0.007768665 -0.01570465
0.07604649 0.045806035 0.14603066 0.1042422 0.15079473 -1.6405478e-05 0.06805718 0.072262436
0.022139335 0.07486218 -0.1117792 -0.030311733 0.0049073175 -0.078654476 -0.050379287 0.014312454
00000000: 0106 02be ee3c 483c 38b8 5dbd dccb a6bd
00000010: 3c89 e0bb db3c bebc 51e7 dc3b 5739 8abd
00000020: 1f29 d93d b480 74bd 26d9 603d 3e5a 2c3d
00000030: 6be0 ae3d bd75 a1bd 9cdc be3d e11b 84bd
00000040: 4a1c cd3c 5a34 4d3a 16e5 01be d4e5 a03d
00000050: fb07 e93d 6fd0 90bd c36e f73d 8317 bdbc
00000060: d4e9 3b3e 1bf9 443e 002e 313e b27e 593d
00000070: 542c 363d c87a d93d 2334 8d3d 398d 30be
00000080: a2cc 0cbd 1b75 94bd 3f40 48bd d32a 2fbd
00000090: 957b 103e 31bc 453d 00d5 11be a4b6 c53d
000000a0: 2d61 56bc 6352 a2bd 2d9f b2bd 4734 2dbe
000000b0: 83c2 47be 738a 7abe 55c1 a8bb d5a3 49bd
000000c0: 0889 15bd dcc8 ee3c d2d3 e13c 409b 003b
000000d0: 2d05 7d3c 5253 18bd 3888 7ebd 8a8d 96bd
000000e0: e87d 16be 9a42 c13c 3244 f8bd 7e66 7d3c
000000f0: 1a73 58bd 2886 9cba 19fd 5f3d 1646 5b39
00000100: 1697 24be ffae 803c 53f0 663d f215 e0bc
00000110: 09db 483d b616 043e a3bf 4a3d eaeb f63d
00000120: cd33 eb3c 6742 c53d 90a4 433e d494 0e3e
00000130: fc55 b0bc e036 02bd 1b7a c3ba 649a 3bbc
00000140: 381a 513d 2203 023e c61a 4c3e 3636 cc3d
00000150: 3914 90bd 21d6 303d dd89 2f3e e3dc 073c
00000160: 91e1 bc3c 3fa5 833d 3c97 5fba d614 a43d
00000170: f61d bb3d 06e5 8b3c 2100 0dbc 4137 8fbc
00000180: 14df c3bc eeca 1ebc ea1b cb3d be23 93bd
00000190: 0dc4 3abd c748 c63d 4021 183e cac9 d73d
000001a0: db6f 5c3e 5c9c d73d a59a afbd 4eed f03d
000001b0: 060a 393e f25f 833d b958 563c 9ceb 203e
000001c0: 00eb ecbc 87fe 22bd 15c5 d4bd 44d0 343c
000001d0: 8e84 a33d cb0c 823d 09bc 993c 069a d6bd
000001e0: e588 13be 84b2 4abd 2269 9a3d 25a7 163d
000001f0: 7b99 e9bd 6f90 90bd ae59 debd 8ab5 61bd
00000200: d8bc 203b 30fa d3bc da21 e63b 9137 3fbe
00000210: c895 c73d cdec 19bd d135 913d 74a8 1b3e
00000220: 252f 183c aca5 ca3d d3a5 f8bd 3fb7 9cbd
00000230: e31e ee3c 0e80 82bd e708 8bbd 0286 eabd
00000240: 971c 033d b16f f73c ec88 153d b66b 62bd
00000250: b785 17bd b628 ab3d cb5e c03d 4b2b e8bc
00000260: 738d 04bd 17c4 b13c e62f 0fbd ff5b 34bd
00000270: eb34 49bd 9061 3dbe b529 27be e69d b4bd
00000280: e1bd bebd 1db5 9e3c d2fa f7bc 1ae0 98bc
00000290: 0928 1b3e e018 ae3d 932a 143e 483b 4e3c
000002a0: b141 b33c 1e6d d83d aac0 bcbd 5c0a f8bc
000002b0: 5a75 a13d e75e a0bc 1b31 23be 3499 da3d
000002c0: 0e90 fc3d 0de1 823d 3356 80bb 5be8 b0bd
000002d0: 66b1 66bd e19c 723d b5fa e73d 8742 da3c
000002e0: 9775 4bbd 00af 1dba b6ed eabd eee8 a2bd
000002f0: 0533 19be f023 1fbd 0506 9dbc b464 d43a
00000300: e52c 89bd 6bf8 043e 99b1 e03d f9cd 9a3e
00000310: 30f4 9a3e 9f5a 503d 6394 10bd e313 1e3e
00000320: 40e4 073e 40ad bcbd 592e 8ebd d301 37be
00000330: 04e1 07bd 617f 293d eac4 263c d9d7 f3bc
00000340: a592 bebd c6ab 2c3d 98ca 94bc 0bf5 9dbd
00000350: e971 b9bc 47e7 d6bb 28d7 cabc c9b3 1dbe
00000360: 7128 0e3c b32f 86bd 9910 c8bd 3ced 51bd
00000370: bd38 213e 09ae 463d 6d3c 993d 7d45 c53d
00000380: a100 013e 6f79 ad3d aabc 053d beec c03d
00000390: 4c81 50bd 91bc 8fbe 466c 94be 5bec 01be
000003a0: 438b 90ba ecb1 df3b 2291 58bd daaa 913d
000003b0: 0907 d23b 18f7 523d 4990 fe3b 0aa7 80bc
000003c0: 43be 9b3d 1c9f 3b3d 1089 153e ef7c d53d
000003d0: ef69 1a3e 7f9e 89b7 9061 8b3d 54fe 933d
000003e0: 8d5d b53c 5851 993d 7eec e4bd 5050 f8bc
000003f0: 90cd a03b 9915 a1bd 835a 4ebd c87e 6a3c

enc.EncoderList.cell1.conv.bias f4 [8]
0.11733625 0.0048419144 -0.16308862 -0.53922784 -0.47748518 0.16709146 -0.026112052 0.19296879
00000000: fd4d f03d eca8 9e3b b400 27be d60a 0abf
00000010: f078 f4be 061a 2b3e f1e8 d5bc 9c99 453e

enc.EncoderList.cell1.activate.fcn.0.weight f4 [16, 16]
-0.062541634 0.111755066 -0.1532302 0.094988465 -0.026797775 -0.2743511 0.10674675 0.087026045
0.27113026 -0.18343653 -0.11875843 0.071274735 0.04643415 0.08172459 0.18422244 -0.035769694
0.18419558 0.25563547 -0.058322914 0.11765302 0.2503075 0.29815573 -0.13339299 -0.025313085
-0.09118147 -0.002026351 -0.028561832 -0.1090757 -0.020732349 -0.09196015 0.045602873 -0.010011369
-0.26766482 -0.19367132 -0.12396087 0.1508283 -0.27944607 0.081145205 0.043591335 -0.1107058
0.12720083 -0.16308175 -0.22647552 -0.18043733 0.019368242 -0.16669497 0.01983215 -0.011367391
0.19229291 0.25071347 0.07961974 -0.07808595 -0.17287283 0.19155976 -0.18950044 0.1697423
0.121456765 0.17430328 0.19408466 0.16655508 -0.021216827 -0.13350461 0.17898016 -0.13893212
-0.1531834 0.17500466 0.13285358 0.14805077 -0.10624574 -0.31352285 -0.053884763 0.21206692
0.02573192 0.02284345 0.019592581 -0.07452058 0.21469742 0.02337517 0.2715385 -0.0713766
0.15548874 -0.03432915 0.17818551 0.07612152 0.29813752 0.20789863 0.22885826 -0.055588122
-0.051659692 -0.009301152 -0.045276333 -0.13787079 -0.16865577 0.025025351 0.2685985 0.19793156
-0.100197725 -0.11676835 -0.08872435 -0.19808954 0.16402984 0.097428694 0.20546065 0.042497545
0.12599184 0.11890111 -0.28312188 0.035263415 -0.003243507 -0.12828742 -0.20444243 0.31358236
0.15160969 0.1466201 0.34189722 0.002390559 -0.2619393 0.07100844 0.027883722 -0.08987234
-0.21262904 0.0072836787 -0.28108287 0.038898025 0.19579397 -0.12973438 -0.07097479 0.09355564
-0.101822905 -0.045640446 0.23960507 -0.119648054 -0.2103503 -0.20781487 -0.0023507564 -0.12859337
-0.13232636 -0.048441492 0.057944883 -0.103789 -0.17432259 -0.08762448 -0.029599013 -0.15317598
-0.18014422 -0.0007909943 -0.37434223 -0.11225748 0.21774568 0.12127254 -0.05284247 -0.079161294
0.2325759 0.10628932 0.3119663 -0.26974905 -0.21986012 -0.050616294 0.19089325 0.001442039
-0.18836372 -0.07710492 -0.2315297 -0.063433945 -0.26274633 0.22348401 0.043907695 -0.025476187
0.052523132 -0.005518965 0.1917093 0.17599513 0.14455959 -0.10038213 0.20510888 -0.008134503
-0.1679321 0.035653748 0.23570687 0.31804773 -0.20936996 -0.14507979 0.13712232 0.13524267
-0.27599165 -0.0067493515 -0.1310178 0.0788811 0.116462246 -0.15507409 0.02007772 0.06049177
0.03323718 -0.1817967 0.24538532 -0.122503035 0.020172158 -0.05879177 0.023301782 -0.24125674
0.062049795 -0.16365422 -0.045698445 0.031449832 -0.1283282 -0.12063347 0.0016543928 -0.1843665
-0.11753622 -0.29504788 0.04330979 -0.27768236 -0.18582806 -0.030636214 0.017069371 0.1084686
-0.056936335 0.13408022 0.2666188 0.15419586 -0.082909614 -0.057992797 -0.010616028 -0.045976873
0.0016061778 0.0656915 0.20578916 -0.24366541 0.050588228 -0.11149512 0.13066025 -0.18770957
-0.019281039 -0.18423904 -0.08061085 0.30190393 0.05609983 -0.09509141 -0.08286384 0.07108488
-0.15990017 0.20218156 0.09868947 0.0898534 0.14173102 -0.07228638 0.10495724 0.053279445
0.10580684 -0.18022823 0.23206842 -0.14406206 -0.20797475 -0.15028062 0.2807575 -0.07123361
00000000: d415 80bd d7df e43d 61e8 1cbe 5089 c23d
00000010: 0287 dbbc bf77 8cbe 0a9e da3d b63a b23d
00000020: 96d1 8a3e c9d6 3bbe 9f37 f3bd 7df8 913d
00000030: bc31 3e3d 395f a73d cfa4 3c3e 3e83 12bd
00000040: c49d 3c3e a7e2 823e 02e4 6ebd 11f4 f03d
00000050: 4e28 803e dea7 983e 2c98 08be 635d cfbc
00000060: 5abd babd 87cc 04bb 81fa e9bc 1563 dfbd
00000070: e3d6 a9bc 9a55 bcbd 14ca 3a3d ba06 24bc
00000080: 5d0b 89be c651 46be 32df fdbd bc72 1a3e
00000090: 8e13 8fbe 752f a63d d48c 323d b9b9 e2bd
000000a0: ef40 023e e7fe 26be 33e9 67be 90c4 38be
000000b0: 26aa 9e3c 16b2 2abe 0877 a23c 4b3e 3abc
000000c0: 6fe8 443e 845d 803e ad0f a33d 87eb 9fbd
000000d0: 9305 31be 3e28 443e 670c 42be edd0 2d3e
000000e0: 53be f83d 8f7c 323e 21be 463e 6a8d 2a3e
000000f0: e9ce adbc 6fb5 08be 9346 373e 3944 0ebe
00000100: 1cdc 1cbe 6c34 333e c50a 083e 9f9a 173e
00000110: 5e97 d9bd 1186 a0be 45b6 5cbd 1228 593e
00000120: bfcb d23c 3022 bb3c 9f80 a03c 3f9e 98bd
00000130: a4d9 5b3e 497d bf3c 1807 8b3e e52d 92bd
00000140: 7138 1f3e b99c 0cbd 4376 363e 99e5 9b3d
00000150: 7ba5 983e 61e3 543e d259 6a3e 5fb0 63bd
00000160: 1d99 53bd dc63 18bc ad73 39bd 002e 0dbe
00000170: 19b4 2cbe f701 cd3c be85 893e 92ae 4a3e
00000180: 7734 cdbd 3f24 efbd 1db5 b5bd fcd7 4abe
00000190: 70f7 273e b288 c73d 4764 523e e811 2e3d
000001a0: 0104 013e 6d82 f33d 5af5 90be 5f70 103d
000001b0: 0491 54bb c75d 03be 5b59 51be de8d a03e
000001c0: 923f 1b3e 9423 163e 270d af3e edaa 1c3b
000001d0: e81c 86be df6c 913d 676c e43c fd0e b8bd
000001e0: 6dbb 59be edab ee3b 18ea 8fbe 8953 1f3d
000001f0: 377e 483e 17d9 04be 3b5b 91bd 199a bf3d
00000200: 8788 d0bd 7af1 3abd 085b 753e 0a0a f5bd
00000210: 1266 57be 6ccd 54be 260f 1abb fbad 03be
00000220: 9080 07be 966a 46bd 9d57 6d3d 548f d4bd
00000230: 9f81 32be 7774 b3bd a179 f2bc 2ada 1cbe
00000240: ba77 38be bb5a 4fba c9a9 bfbe 40e7 e5bd
00000250: b9f8 5e3e bd5d f83d 5971 58bd 511f a2bd
00000260: 6028 6e3e 37ae d93d 0cba 9f3e 8c1c 8abe
00000270: 0323 61be 0853 4fbd 8579 433e cd02 bd3a
00000280: 6be2 40be 2fe9 9dbd 1f16 6dbe a8e9 81bd
00000290: b086 86be fed8 643e 8ed8 333d 70b3 d0bc
000002a0: 7f22 573d 6fd8 b4bb 714f 443e 1138 343e
000002b0: 6e07 143e 2595 cdbd 1008 523e 9446 05bc
000002c0: 64f6 2bbe aa09 123d 245d 713e 27d7 a23e
000002d0: 1465 56be cc8f 14be cb69 0c3e 0e7d 0a3e
000002e0: c74e 8dbe aa29 ddbb 8829 06be 6a8c a13d
000002f0: c283 ee3d becb 1ebe 087a a43c 38c6 773d
00000300: b623 083d ea28 3abe 4a46 7b3e dfe2 fabd
00000310: 1540 a53c a4cf 70bd 61e3 be3c 020c 77be
00000320: ed27 7e3d f994 27be 4b2e 3bbd 8ad1 003d
00000330: 7868 03be ae0e f7bd 36d8 d83a 92ca 3cbe
00000340: d4b6 f0bd 8410 97be 9b65 313d 622c 8ebe
00000350: b649 3ebe ccf8 fabc 11d5 8b3c c924 de3d
00000360: 1336 69bd 534c 093e 4282 883e 85e5 1d3e
00000370: 84cc a9bd db89 6dbd d9ee 2dbc 3f52 3cbd
00000380: 6286 d23a 4489 863d 65ba 523e 6d83 79be
00000390: 9a35 4f3d 8e57 e4bd cdcb 053e f036 40be
000003a0: 45f3 9dbc 29a9 3cbe 4d17 a5bd 2793 9a3e
000003b0: efc8 653d 49bf c2bd 84b4 a9bd f394 913d
000003c0: dfbc 23be af08 4f3e b41d ca3d 0f05 b83d
000003d0: f021 113e e20a 94bd d2f3 d63d 8c3b 5a3d
000003e0: 42b1 d83d c08d 38be 58a3 6d3e 0185 13be
000003f0: 55f7 54be 2ae3 19be 72bf 8f3e ede2 91bd

enc.EncoderList.cell1.activate.fcn.0.bias f4 [16]
-0.03268414 -0.104678944 -0.06632891 -0.2097447 -0.18970588 0.1523552 0.21942528 0.22531149
-0.18105613 0.13327754 -0.15430917 0.15511304 0.17815065 0.18982 0.18072112 0.16151859
00000000: cedf 05bd ea61 d6bd 74d7 87bd 51c7 56be
00000010: 4242 42be 0003 1c3e 05b1 603e 0eb8 663e
00000020: c766 39be e879 083e 3903 1ebe f4d5 1e3e
00000030: 206d 363e 2d60 423e f50e 393e 2165 253e

enc.EncoderList.cell1.activate.fcn.1.weight f4 [16]
1.0320827 0.962587 0.98234564 0.8862463 0.97581124 1.0725801 1.0862385 0.94707304
0.9094525 1.0650375 0.9981683 0.99369085 0.8960951 1.0216103 1.0338213 1.039984
00000000: 491b 843f 1a6c 763f 017b 7b3f 0ae1 623f
00000010: c4ce 793f 4e4a 893f dd09 8b3f 6173 723f
00000020: e1d1 683f 2653 883f f587 7f3f 8662 7e3f
00000030: 7d66 653f 20c4 823f 4254 843f 321e 853f

enc.EncoderList.cell1.activate.fcn.1.bias f4 [16]
-0.1179561 -0.05040616 -0.027573537 -0.00303754 0.016143156 0.36099634 0.14282942 0.3900881
-0.092490144 0.008290925 -0.22936907 -0.022015937 -0.046741463 0.04169587 0.11669421 0.21928573
00000000: f892 f1bd b176 4ebd e6e1 e1bc 7711 47bb
00000010: a73e 843c 83d4 b83e e041 123e a1b9 c73e
00000020: 796b bdbd a9d6 073c badf 6abe c45a b4bc
00000030: fa73 3fbd 4ac9 2a3d 60fd ee3d 708c 603e

enc.EncoderList.cell1.activate.fcn.1.running_mean f4 [16]
-0.22453763 0.54006076 -0.10831276 -0.07909828 -0.48887986 0.5072281 0.32931215 0.63383317
-0.20769654 -0.083639815 -0.6797941 0.18084028 0.12906164 -0.37080958 0.092675686 0.3437024
00000000: 31ed 65be 6c41 0a3f 15d3 ddbd 47fe a1bd
00000010: 764e fabe b3d9 013f 9a9b a83e e442 223f
00000020: 67ae 54be 5a4b abbd fc06 2ebf 322e 393e
00000030: bc28 043e c1da bdbe c0cc bd3d c3f9 af3e

enc.EncoderList.cell1.activate.fcn.1.running_var f4 [16]
0.041357245 0.1809452 0.0806021 0.13362941 0.019225061 0.03728378 0.02972814 0.059179615
0.13591763 0.041569985 0.050840683 0.10337272 0.21100652 0.1097459 0.115577295 0.15426244
00000000: 3766 293d b349 393e b712 a53d 26d6 083e
00000010: e07d 9d3c e0b6 183d 6e88 f33c 5366 723d
00000020: fe2d 0b3e 4a45 2a3d 523e 503d 14b5 d33d
00000030: 1812 583e 75c2 e03d cab3 ec3d f9f6 1d3e

enc.EncoderList.cell1.activate.fcn.3.weight f4 [8, 16]
0.16003495 0.022013584 -0.010744337 0.024680704 0.0013972403 0.029721977 -0.39337882 -0.06574328
-0.113435075 -0.10754905 -0.14980534 -0.22113287 0.06217157 0.15033717 0.29512376 0.15058838
-0.08842453 -0.2669569 0.12179132 -0.040731926 -0.14039223 0.13227206 -0.021553712 0.07904701
-0.084988534 0.18125749 0.23553404 0.2450177 -0.080209546 0.2959964 -0.15166467 0.2542446
0.13815983 0.1250244 0.2909364 0.05145376 -0.00023339216 0.0888902 -0.19635221 -0.21147665
-0.01638858 -0.029940015 -0.020935008 0.051274616 0.07983192 0.11190011 0.29345268 0.30339444
-0.2118979 -0.27267757 -0.040589746 -0.15119433 0.21275777 -0.32026976 0.10236862 0.13459875
0.114454515 0.043504827 -0.3031663 0.2532731 -0.07892877 -0.2141124 0.16185701 -0.14657395
0.008001678 0.13178009 -0.073415734 -0.1080618 0.111828715 -0.124832295 0.20463192 -0.3824913
0.035741273 -0.0989727 -0.06718315 -0.20104349 0.13542402 0.059959047 -0.23275079 0.21275851
0.18009204 0.013979957 -0.006127299 -0.15382893 0.34325147 0.22201176 -0.14663489 0.25936484
-0.034766827 0.06867128 0.325383 0.15023173 -0.16895542 0.0959903 -0.21733162 -0.048306856
-0.2974076 -0.056563754 -0.015189629 -0.0656829 -0.17221552 0.06456682 0.20690303 0.13464029
0.0003816292 0.089700215 0.045332853 0.018166577 -0.11302376 -0.120784044 -0.33486554 -0.3323652
0.0570724 -0.03432498 0.13278131 -0.018813746 -0.005020564 0.22222975 -0.13802451 0.1690164
0.16866352 -0.44787 -0.13930997 -0.1923642 -0.08026564 -0.12916838 0.09037716 0.0007761249
00000000: 34e0 233e d555 b43c 0409 30bc 302f ca3c
00000010: 9b23 b73a 817b f33c f368 c9be 6aa4 86bd
00000020: a650 e8bd ad42 dcbd 9266 19be a870 62be
00000030: 9ea7 7e3d fdf1 193e 761a 973e d733 1a3e
00000040: ec17 b5bd 93ae 88be ba6d f93d 85d6 26bd
00000050: fbc2 0fbe 5472 073e 6991 b0bc 66e3 a13d
00000060: 780e aebd 909b 393e d62f 713e ece5 7a3e
00000070: e744 a4bd d78c 973e fc4d 1bbe 592c 823e
00000080: c579 0d3e 6506 003e 9ef5 943e 2ec1 523d
00000090: bbba 74b9 110c b63d 8e10 49be 568d 58be
000000a0: 5841 86bc c344 f5bc e57f abbc 5505 523d
000000b0: eb7e a33d e32b e53d 6e3f 963e 8456 9b3e
000000c0: c3fb 58be 659c 8bbe 6f41 26bd b0d2 1abe
000000d0: 2cdd 593e 66fa a3be a4a6 d13d 41d4 093e
000000e0: 2167 ea3d 1e32 323d 9d38 9bbe 03ad 813e
000000f0: 68a5 a1bd 4840 5bbe d8bd 253e 7b17 16be
00000100: 7819 033c 5cf1 063e fd5a 96bd 814f ddbd
00000110: 7406 e53d 13a8 ffbd 088b 513e e6d5 c3be
00000120: 7165 123d 33b2 cabd 5297 89bd 58de 4dbe
00000130: 98ac 0a3e 9e97 753d 3956 6ebe 5edd 593e
00000140: 0c6a 383e 310c 653c 82c7 c8bb 5585 1dbe
00000150: a8be af3e 0d57 633e 7527 16be 78cb 843e
00000160: a967 0ebd 87a3 8c3d 9a98 a63e 59d6 193e
00000170: a602 2dbe 9096 c43d 2e8c 5ebe 69dd 45bd
00000180: cf45 98be 65af 67bd ecdd 78bc c284 86bd
00000190: 4459 30be 9c3b 843d 63de 533e 25df 093e
000001a0: 6715 c839 bfb4 b73d f1ae 393d 13d2 943c
000001b0: 0079 e7bd a05d f7bd 7f73 abbe c62b aabe
000001c0: c0c4 693d 5a98 0cbd d3f7 073e 491f 9abc
000001d0: 8b83 a4bb 3290 633e 4c56 0dbe a312 2d3e
000001e0: 21b6 2c3e 374f e5be 46a7 0ebe 1ffb 44be
000001f0: 5062 a4bd b744 04be a917 b93d dc74 4b3a

enc.EncoderList.cell1.activate.fcn.3.bias f4 [8]
-0.12785554 -0.081087016 -0.09134286 0.24286082 -0.0822532 -0.1788748 0.103418864 -0.015727887
00000000: 90ec 02be f310 a6bd f711 bbbd 82b0 783e
00000010: 5e74 a8bd f52a 37be 45cd d33d c5d7 80bc

enc.EncoderList.cell1.activate.fcn.4.weight f4 [8]
0.9808589 0.8666061 0.8652114 0.57840496 0.5981006 1.0362946 0.74191165 0.996825
00000000: 9219 7b3f e6d9 5d3f 7f7e 5d3f 5912 143f
00000010: 1f1d 193f 4da5 843f eced 3d3f ec2f 7f3f

enc.EncoderList.cell1.activate.fcn.4.bias f4 [8]
0.13638984 0.084202625 0.23568021 -0.41141784 -0.59142566 0.21717502 -0.085140966 0.24264967
00000000: c7a9 0b3e 6d72 ac3d 2756 713e 5ca5 d2be
00000010: ac67 17bf 2163 5e3e 635e aebd 2879 783e

enc.EncoderList.cell1.activate.fcn.4.running_mean f4 [8]
-0.20228876 0.22997901 0.2927619 -0.022597201 -0.28335258 0.1969342 -0.227034 -0.0874893
00000000: c924 4fbe 9e7f 6b3e e3e4 953e c41d b9bc
00000010: 9713 91be 1ea9 493e 9a7b 68be 972d b3bd

enc.EncoderList.cell1.activate.fcn.4.running_var f4 [8]
0.23999071 0.23988858 1.0166095 0.13361853 0.10788602 0.18275395 0.8983886 0.20814261
00000000: 20c0 753e 5aa5 753e 4320 823f 4cd3 083e
00000010: 58f3 dc3d da23 3b3e ccfc 653f 5623 553e

enc.EncoderList.cell1.bn.weight f4 [8]
0.82723546 0.8409105 0.84299266 0.7899033 1.0090246 0.8748238 0.8952096 0.80090994
00000000: b4c5 533f e945 573f 5ece 573f 1a37 4a3f
00000010: b827 813f 74f4 5f3f 752c 653f 6f08 4d3f

enc.EncoderList.cell1.bn.bias f4 [8]
0.330327 -0.05790983 -0.33284926 -0.2194034 0.018009247 0.0694305 -0.23282588 -0.050129153
00000000: 9f20 a93e dc32 6dbd 386b aabe 49ab 60be
00000010: 2188 933c 9431 8e3d e869 6ebe 3a54 4dbd

enc.EncoderList.cell1.bn.running_mean f4 [8]
0.48354524 0.55110294 -0.025321783 -0.20676723 -0.12489668 0.526199 0.0029136094 0.36301768
00000000: 3e93 f73e 1515 0d3f a16f cfbc caba 53be
00000010: d5c9 ffbd fab4 063f 41f2 3e3b 74dd b93e

enc.EncoderList.cell1.bn.running_var f4 [8]
0.79737777 2.6224384 0.5090657 0.25786188 0.25100335 1.1191735 1.1026891 0.67116344
00000000: f320 4c3f 08d6 2740 2152 023f 7906 843e
00000010: 8383 803e 1441 8f3f eb24 8d3f 5ed1 2b3f

enc.EncoderList.cell2.conv.weight f4 [16, 8, 3]
0.17576227 0.19098786 0.20938699 -0.1468801 0.10032473 0.14696361 0.0025952756 0.24252221
0.30845872 -0.056258533 0.0028101976 -0.08820721 -0.2246524 0.013771292 0.15845846 -0.100999236
0.070683315 -0.16160065 0.16035701 0.16918273 0.088559896 -0.07123899 0.12810613 0.037777547
-0.023582106 0.0760169 0.08305583 -0.13601018 -0.13391925 -0.08049346 0.025326569 0.2600022
-0.16891305 -0.035421103 -0.028199803 -0.24267723 0.18465143 0.12580125 -0.1554174 -0.060822282
-0.13958775 -0.046597265 -0.06827629 -0.18964288 -0.07295734 0.03906979 0.02722074 0.27035654
-0.09891082 0.16924176 0.13877301 -0.1663822 0.052931774 0.11485277 -0.13378292 -0.07458579
0.15511864 0.2230568 -0.07014008 -0.0016983201 0.03974919 -0.33627892 0.04063792 0.10430351
-0.09089625 0.059836235 -0.22112048 0.15818875 0.16795681 0.2083325 0.11442631 0.080219366
-0.11673055 -0.09725702 -0.12675047 -0.06977181 -0.13634627 0.17095917 0.14392221 -0.08760359
0.19323476 0.07181712 0.22151212 0.22939192 0.12963139 -0.008754798 0.016022926 0.1415652
-0.19826709 -0.17635646 0.002222157 0.12905142 -0.06492987 0.03176511 0.020930704 -0.038002793
-0.06550146 0.20948929 0.20758723 -0.17799556 -0.023637928 -0.027249815 0.08353618 0.25495878
0.11729934 -0.21508619 0.023671573 -0.25784838 -0.09000639 0.008733881 -0.119545355 0.0773548
-0.10003541 0.046200998 0.009523165 0.047671143 -0.15225749 -0.12781441 0.08351039 0.20088772
-0.24212247 0.086745135 -0.14867155 -0.065098114 0.14368077 0.025302682 -0.28406614 0.23572291
0.115433276 -0.0048245126 0.16610332 -0.22190616 -0.14417584 -0.031256657 -0.0002820181 0.020638954
-0.0010435135 -0.12629618 -0.13604371 0.14069483 -0.18992205 0.021436816 0.03314131 -0.1190328
0.1809148 0.068425715 0.039673578 -0.08383751 -0.18027031 0.045808844 0.08307789 -0.13093981
-0.099797145 0.0010317751 -0.3875188 -0.12412386 0.11214649 -0.1716474 -0.08178117 -0.19534607
0.08468175 0.15840337 0.026765876 0.1909099 -0.10024762 -0.2062927 0.1450972 0.17317885
0.17941347 -0.025918875 0.11098609 0.16252318 0.20042272 -0.10853648 0.31324598 0.049912747
0.36712635 0.05283601 -0.086414106 0.057003606 0.09559765 -0.075991794 -0.19557351 0.033328313
0.16520546 -0.04999216 0.23223573 0.15664333 0.08295902 0.043976266 -0.12693876 -0.0978609
-0.04156521 -0.2527947 -0.07220661 0.046125323 -0.098361924 -0.046373762 0.007396527 -0.058596123
0.011913573 0.17066656 0.023529967 0.14803566 0.20092177 -0.2186157 -0.060381223 0.01308882
-0.1368456 -0.00581281 0.002413938 0.011796692 0.021131936 0.10418304 -0.006052684 -0.13816656
0.052395344 -0.2493631 -0.112662196 -0.03878452 -0.054075535 -0.09042298 0.22212107 0.2597108
0.14871082 0.0934739 -0.16712423 -0.038491428 0.2984875 0.2590219 -0.068568006 0.08767926
-0.07334775 -0.0037732252 -0.096155725 -0.16003476 -0.19883479 -0.036489747 0.15473463 0.0984466
-0.037075315 -0.01333789 -0.049119387 -0.027945394 0.25652504 0.2929884 0.08265229 0.0071032676
0.2513888 0.20833509 0.25438067 0.0092185335 -0.15113069 0.086990096 0.017080886 0.029731303
00000000: 06fb 333e 5292 433e 8b69 563e bd67 16be
00000010: 0d77 cd3d a17d 163e 8015 2a3b be57 783e
00000020: 4dee 9d3e 596f 66bd 4b2b 383b fba5 b4bd
00000030: 470b 66be fca0 613c ef42 223e b0d8 cebd
00000040: 6ac2 903d a47a 25be a134 243e 3d3e 2d3e
00000050: e45e b53d bfe5 91bd 412e 033e a1bc 1a3d
00000060: 432f c1bc c0ae 9b3d 2d19 aa3d 4146 0bbe
00000070: 2122 09be c1d9 a4bd aa79 cf3c 021f 853e
00000080: 8bf7 2cbe b815 11bd 4603 e7bc 6180 78be
00000090: 4415 3d3e 0bd2 003e bd25 1fbe c920 79bd
000000a0: 17f0 0ebe c6dc 3ebd 71d4 8bbd be31 42be
000000b0: a86a 95bd a507 203d 08fe de3c 2c6c 8a3e
000000c0: c291 cabd b64d 2d3e 831a 0e3e 1860 2abe
000000d0: fdce 583d ee37 eb3d 64fe 08be 6fc0 98bd
000000e0: 6cd7 1e3e 0069 643e 9aa5 8fbd 2b9a deba
000000f0: 0cd0 223d c02c acbe f373 263d 149d d53d
00000100: d027 babd d716 753d 686d 62be 3bfc 213e
00000110: dffc 2b3e 1d55 553e 5758 ea3d 0d4a a43d
00000120: 6d10 efbd b02e c7bd e0ca 01be 86e4 8ebd
00000130: 5b9e 0bbe ec0f 2f3e 5860 133e 8369 b3bd
00000140: 55df 453e db14 933d 13d4 623e b7e5 6a3e
00000150: 17be 043e 4970 0fbc 8342 833c 78f6 103e
00000160: 8706 4bbe ca96 34be 9ca1 113b 0e26 043e
00000170: f4f9 84bd 221c 023d de76 ab3c d1a8 1bbd
00000180: a125 86bd 5c84 563e bf91 543e 7844 36be
00000190: 54a4 c1bc 013b dfbc 0415 ab3d f589 823e
000001a0: a33a f03d 8e3f 5cbe e3ea c13c b404 84be
000001b0: 4555 b8bd 8d18 0f3c 32d4 f4bd 326c 9e3d
000001c0: 5ddf ccbd 423d 3d3d 0d07 1c3c d142 433d
000001d0: 63e9 1bbe c8e1 02be 7f07 ab3d 83b5 4d3e
000001e0: f4ee 77be 6fa7 b13d 5b3d 18be 2952 85bd
000001f0: 0d21 133e 9247 cf3c 1e71 91be 5961 713e
00000200: 4868 ec3d f216 9ebb fd16 2a3e 5e3b 63be
00000210: d5a2 13be fb06 00bd d4db 93b9 0613 a93c
00000220: 81c6 88ba c953 01be 0b4f 0bbe 4e12 103e
00000230: ed7a 42be 439c af3c 2fbf 073d 78c7 f3bd
00000240: bb41 393e c822 8c3d c380 223d 00b3 abbd
00000250: c898 38be 0ea2 3b3d be24 aa3d 1615 06be
00000260: 7262 ccbd a13c 873a dd68 c6be a634 febd
00000270: 0fad e53d 56c4 2fbe e37c a7bd cd08 48be
00000280: a06d ad3d 7e34 223e 1c44 db3c e37d 433e
00000290: a04e cdbd 653e 53be 5c94 143e cc55 313e
000002a0: 2ab8 373e d253 d4bc ad4c e33d 7a6c 263e
000002b0: 9d3b 4d3e 6048 debd c761 a03e 4f71 4c3d
000002c0: fcf7 bb3e 926a 583d e1f9 b0bd 9d7c 693d
000002d0: b3c8 c33d 96a1 9bbd 6c44 48be 4583 083d
000002e0: 9f2b 293e 94c4 4cbd 34cf 6d3e 1c67 203e
000002f0: 6be6 a93d 7520 343d 3cfc 01be 4c6b c8bd
00000300: 4840 2abd 4f6e 81be 0fe1 93bd e8ed 3c3d
00000310: fa71 c9bd 6af2 3dbd 915e f23b 7d02 70bd
00000320: 2631 433c 37c3 2e3e ebc1 c03c a996 173e
00000330: 70be 4d3e cbdc 5fbe 4d52 77bd 7d72 563c
00000340: 4121 0cbe 6279 bebb 2933 1e3b ea46 413c
00000350: e21c ad3c eb5d d53d 9855 c6bb 897b 0dbe
00000360: 809c 563d 0a59 7fbe 70bb e6bd 84dc 1ebd
00000370: 4f7e 5dbd af2f b9bd b573 633e d0f8 843e
00000380: a647 183e 3e6f bf3d 9d22 2bbe 30a9 1dbd
00000390: 5bd3 983e 859e 843e 626d 8cbd 2f91 b33d
000003a0: 5837 96bd 3748 77bb 4bed c4bd 27e0 23be
000003b0: 599b 4bbe 4676 15bd c172 1e3e 5f9e c93d
000003c0: 49dc 17bd 2a87 5abc 6931 49bd bded e4bc
000003d0: 4057 833e 9302 963e 9b45 a93d 87c2 e83b
000003e0: 08b6 803e cb55 553e 2f3e 823e 5509 173c
000003f0: 01c2 1abe dd27 b23d 37ed 8b3c 108f f33c

enc.EncoderList.cell2.conv.bias f4 [16]
0.14862728 0.0028588206 0.17844076 -0.18211329 -0.042332407 -0.08845874 0.030527614 -0.16393611
-0.2391439 -0.1571954 -0.3880264 0.13186058 -0.14218003 0.18038952 -0.25897786 0.20091613
00000000: c031 183e 0d5b 3b3b 2db9 363e e87b 3abe
00000010: bf64 2dbd db29 b5bd 0c15 fa3c dede 27be
00000020: 23e2 74be d5f7 20be 65ab c6be 7606 073e
00000030: a497 11be 08b8 383e bf98 84be f5bc 4d3e

enc.EncoderList.cell2.activate.fcn.0.weight f4 [32, 32]
0.0010152719 0.39091167 0.11494927 0.01640108 -0.059260014 -0.105210714 0.31254765 -0.10812201
-0.0960311 -0.030938402 0.17445444 -0.034828484 -0.017927706 0.03650055 0.021677082 0.02001039
0.117771596 -0.06275283 0.17205316 -0.16805382 0.07452046 0.010020025 0.112438925 -0.24564822
-0.08526703 0.098744504 -0.18619968 -0.119152255 -0.19332686 -0.004198799 0.08952369 -0.0090113925
-0.15446395 0.09342147 -0.1815795 0.08565832 -0.16618592 -0.43475312 0.109522186 -0.1330796
0.06908652 -0.18702288 -0.07675234 -0.09497061 -0.0024798375 -0.08195332 0.10946852 -0.030236684
0.12053196 -0.22262925 0.32612413 -0.038941767 -0.02939104 0.05150996 0.10812593 0.022138348
-0.12126009 0.009842827 -0.040102474 0.20583655 0.065308265 -0.037561007 -0.067346506 -0.0027602504
-0.15859175 0.028725022 0.06644 0.12156162 0.04644951 -0.21514015 0.11105943 -0.22254194
-0.03147012 -0.04268112 0.2673655 0.12837745 -0.006270391 0.093908116 -0.25377047 0.014247458
-0.13757126 0.051006667 -0.16406277 -0.046483684 2.5337275e-05 0.21173973 -0.14381158 -0.0032747756
0.06360936 -0.07078262 -0.1295248 -0.039237335 -0.08962476 0.09940594 0.18825725 -0.06348997
0.12766989 0.17998967 0.19580851 -0.030987695 0.091461435 0.084535904 0.12561527 0.20996225
-0.040752266 0.08803763 0.051712226 -0.10025536 0.117348045 0.030883094 0.12867907 -0.12976325
0.10521229 0.22151364 -0.17722368 -0.15054712 0.011037456 0.084681526 0.2001588 -0.2375237
-0.0598764 0.031519428 -0.054323442 0.03271449 0.12788376 -0.059768412 -0.024280537 0.02185553
-0.087108575 0.0045770057 -0.21927984 0.084938474 -0.037520412 0.20212124 -0.11942919 0.07366033
0.13346863 0.13722824 0.044200864 0.13170287 -0.020523662 0.021683292 0.18790014 0.21368062
0.026677929 0.16969606 0.0041564847 -0.0007249796 0.27632776 -0.049014647 0.13255012 0.10989991
-0.08225358 0.00032874444 -0.2316077 -0.03758063 -0.28156283 -0.10346775 0.0965469 0.25129488
0.16552518 0.1233122 0.09889587 -0.15371558 0.09404652 0.11695464 0.26750126 0.066122025
-0.008767805 -0.15088241 -0.18218003 -0.07301783 0.09455235 -0.070609204 -0.13264139 -0.008959432
0.13103448 -0.011276713 -0.045062117 0.064389504 -0.078374736 -0.23599246 -0.010570956 -0.087464914
-0.19491072 0.28874817 0.013760585 -0.10036064 -0.10863221 -0.15147057 0.14573923 -0.017699473
-0.11430707 -0.082741186 0.23913917 0.02721542 -0.013113697 -0.09364325 -0.088416964 0.0034083612
0.17126814 -0.12457601 -0.048735682 -0.18078874 0.0070181196 0.17335038 -0.002291537 0.19924062
0.12280839 -0.069034524 -0.19142748 0.07144158 -0.09246057 0.13454136 0.062065966 0.241405
0.05075598 0.13198298 0.2427402 -0.13375045 -0.19453497 0.058705207 0.023156993 -0.1781211
0.013046361 -0.08875291 0.20862302 0.03671773 0.18710566 0.16133314 0.30614713 -0.076376766
-0.00022064395 0.18722142 0.13093396 -0.11958021 -0.2912199 0.113711536 0.08883797 0.01762758
0.05482849 -0.057481688 0.015706327 -0.14090674 0.052777413 0.20240979 -0.013875669 0.028841903
-0.19367516 -0.06477784 -0.18984477 0.017125878 0.130458 -0.14513563 0.100135274 0.21457776
00000000: df12 853a 9325 c83e 866a eb3d 8f5b 863c
00000010: a1ba 72bd b778 d7bd 3f06 a03e 136f ddbd
00000020: f4ab c4bd 8872 fdbc 2fa4 323e 50a8 0ebd
00000030: 20dd 92bc 9a81 153d 2394 b13c d4ec a33c
00000040: 3c32 f13d 8e84 80bd b42e 303e 4d16 2cbe
00000050: 2f9e 983d 082b 243c 6146 e63d 358b 7bbe
00000060: 7ba0 aebd 8f3a ca3d 21ab 3ebe 1906 f4bd
00000070: 7af7 45be 1496 89bb 3258 b73d 85a4 13bc
00000080: cc2b 1ebe c153 bf3d faef 39be a16d af3d
00000090: a42c 2abe f697 debe 2b4d e03d 0546 08be
000000a0: 3c7d 8d3d ed82 3fbe 5530 9dbd f47f c2bd
000000b0: c584 22bb 24d7 a7bd 0831 e03d ecb2 f7bc
000000c0: 76d9 f63d ecf8 63be bef9 a63e 6781 1fbd
000000d0: 7ac5 f0bc 1cfc 523d 2171 dd3d 7b5b b53c
000000e0: 3657 f8bd cf43 213c 7e42 24bd d1c6 523e
000000f0: 57c0 853d 92d9 19bd f7ec 89bd 51e5 34bb
00000100: e065 22be bd50 eb3c b211 883d 4cf5 f83d
00000110: d741 3e3d b34d 5cbe 2073 e33d 09e2 63be
00000120: d0e6 00bd 66d2 2ebd 21e4 883e 6175 033e
00000130: da77 cdbb e652 c03d 34ee 81be 2c6e 693c
00000140: 7bdf 0cbe 5eec 503d 1200 28be ad65 3ebd
00000150: 628b d437 4dd2 583e 5843 13be 9e9d 56bb
00000160: a045 823d 7af6 90bd 26a2 04be 54b7 20bd
00000170: 308d b7bd 5795 cb3d 82c6 403e 0807 82bd
00000180: e5bb 023e 364f 383e 0782 483e e8d9 fdbc
00000190: 2250 bb3d 2921 ad3d 4aa1 003e 5800 573e
000001a0: d9eb 26bd 134d b43d 33d0 533d af52 cdbd
000001b0: 2c54 f03d 8bfe fc3c 72c4 033e a8e0 04be
000001c0: 8b79 d73d 79d4 623e 207a 35be 0629 1abe
000001d0: 72d6 343c 826d ad3d 6ef6 4c3e 6a39 73be
000001e0: f540 75bd 841a 013d 4282 5ebd a1ff 053d
000001f0: f6f3 023e b9cf 74bd fae7 c6bc 5e0a b33c
00000200: fb65 b2bd b5fa 953b e58a 60be 39f4 ad3d
00000210: 01af 19bd dff8 4e3e 4b97 f4bd 3adb 963d
00000220: 00ac 083e 8f85 0c3e f70b 353d 1edd 063e
00000230: 3d21 a8bc 29a1 b13c e568 403e 18cf 5a3e
00000240: ac8b da3c cec4 2d3e 1f33 883b 8f0c 3eba
00000250: d57a 8d3e 95c3 48bd 38bb 073e 3413 e13d
00000260: 9174 a8bd 555b ac39 922a 6dbe 26ee 19bd
00000270: 0129 90be e6e6 d3bd 62ba c53d b9a9 803e
00000280: 6f7f 293e 1b8b fc3d eb89 ca3d 9e67 1dbe
00000290: 769b c03d ea85 ef3d edf5 883e fc6a 873d
000002a0: d7a6 0fbc eb80 1abe 678d 3abe 5f8a 95bd
000002b0: aaa4 c13d 8f9b 90bd 25d3 07be 95ca 12bc
000002c0: e72d 063e f6c1 38bc 0e93 38bd a5de 833d
000002d0: ef82 a0bd 02a8 71be ce31 2dbc ce20 b3bd
000002e0: ad96 47be cdd6 933e 1474 613c e189 cdbd
000002f0: 907a debd 1a1b 1bbe aa3c 153e 7cfe 90bc
00000300: d319 eabd 3674 a9bd e6e0 743e dff2 de3c
00000310: d5da 56bc 08c8 bfbd f413 b5bd d05e 5f3b
00000320: ea60 2f3e b521 ffbd 119f 47bd af20 39be
00000330: 41f8 e53b c382 313e 9c2d 16bb bc05 4c3e
00000340: f782 fb3d f961 8dbd 9105 44be f74f 923d
00000350: f85b bdbd 36c5 093e e238 7e3d df32 773e
00000360: 81e5 4f3d 8c26 073e e390 783e e1f5 08be
00000370: 2d34 47be df74 703d bcb3 bd3c 6165 36be
00000380: 67c0 553c 16c4 b5bd 46a1 553e 5565 163d
00000390: a098 3f3e 8434 253e 51bf 9c3e 6c6b 9cbd
000003a0: a95c 67b9 f9b6 3f3e 8d13 063e 78e6 f4bd
000003b0: c61a 95be 98e1 e83d aef0 b53d b767 903c
000003c0: d793 603d eb71 6bbd 8eaa 803c db49 10be
000003d0: 212d 583d 8344 4f3e c656 63bc db45 ec3c
000003e0: c852 46be 3faa 84bd ab66 42be 924b 8c3c
000003f0: c896 053e 6f9e 14be b913 cd3d 46ba 5b3e

enc.EncoderList.cell2.activate.fcn.0.bias f4 [32]
0.09473461 0.17479864 -0.071283 -0.076928794 0.1374279 0.027453914 -0.018781295 0.13226813
-0.084917165 -0.009324218 0.12329928 0.051886596 -0.1118057 0.04616147 -0.124682456 -0.09624292
0.12047072 -0.05085193 -0.08711822 0.012369286 0.046380654 -0.10769483 -0.11966387 -0.1688946
0.048265196 -0.11895684 0.017471356 -0.038563844 -0.116835415 -0.055396024 -0.13555938 -0.09223338
00000000: 3804 c23d 6afe 323e d2fc 91bd d88c 9dbd
00000010: e6b9 0c3e 08e7 e03c 3bdb 99bc 4c71 073e
00000020: 0de9 adbd 9bc4 18bc 5584 fc3d 0a87 543d
00000030: 63fa e4bd cf13 3d3d 8459 ffbd 021b c5bd
00000040: 5ab9 f63d 1d4a 50bd 0a6b b2bd 8ca8 4a3c
00000050: a4f9 3d3d 1b8f dcbd 5512 f5bd b5f2 2cbe
00000060: bab1 453d a59f f3bd 1720 8f3c 1ff5 1dbd
00000070: 6847 efbd f1e6 62bd 14d0 0abe dbe4 bcbd

enc.EncoderList.cell2.activate.fcn.1.weight f4 [32]
1.0457889 1.1633036 0.99899423 1.0026668 0.95506895 0.8915935 1.0619447 1.0007578
1.0559473 0.91977155 0.97671765 1.1368912 1.0398049 0.96548665 1.0639088 1.0949864
0.8835651 0.87699986 1.019695 1.0732981 0.9368957 1.057308 1.0124786 1.0902073
0.9548432 0.96179014 0.8970922 1.0078069 1.1049886 0.97472465 1.040477 0.9211903
00000000: 69dc 853f 22e7 943f 16be 7f3f 6357 803f
00000010: 667f 743f 793f 643f ceed 873f d518 803f
00000020: 4829 873f 2676 6b3f 2b0a 7a3f a785 913f
00000030: 5418 853f 222a 773f 2a2e 883f 8428 8c3f
00000040: 5331 623f 1083 603f 5e85 823f d561 893f
00000050: 66d8 6f3f de55 873f e698 813f ea8b 8b3f
00000060: 9b70 743f e137 763f d6a7 653f d1ff 803f
00000070: 4470 8d3f 8e87 793f 5a2e 853f 21d3 6b3f

enc.EncoderList.cell2.activate.fcn.1.bias f4 [32]
0.10076105 0.11819553 0.10177995 -0.1358969 0.055209775 0.1946793 -0.15419677 -0.0031873987
0.14870703 -0.021735927 -0.14166854 -0.0059725395 -0.012642231 -0.08108444 -0.0031065287 0.052153755
0.14054261 -0.18488318 -0.06644323 -0.082632944 -0.05591761 0.018998861 0.065371655 -0.09259559
-0.064195074 -0.13811128 -0.10828691 -0.08101238 -0.006286097 -0.11553549 -0.15830882 0.06306594
00000000: cf5b ce3d 7f10 f23d 0272 d03d 8f28 0bbe
00000010: a523 623d 035a 473e c2e5 1dbe ade3 50bb
00000020: a846 183e 8b0f b2bc 8f11 11be 4bb5 c3bb
00000030: 5c21 4fbc 990f a6bd e796 4bbb 2d9f 553d
00000040: 67ea 0f3e 0452 3dbe 6313 88bd 763b a9bd
00000050: dd09 65bd 80a3 9b3c 93e1 853d c2a2 bdbd
00000060: b578 83bd 0b6d 0dbe 87c5 ddbd d2e9 a5bd
00000070: 9bfb cdbb df9d ecbd b51b 22be b728 813d

enc.EncoderList.cell2.activate.fcn.1.running_mean f4 [32]
0.7155923 0.043465406 0.12932695 0.26933116 0.36298782 0.19180019 -0.3686434 0.51554507
-0.035427663 0.07707272 -0.051011834 0.17052805 -0.32054076 -0.14085625 -0.13784038 -0.3304658
-0.18386744 -0.26316914 -0.27660748 -0.77510345 -0.30993325 0.43537682 -0.17795795 -0.38222513
-0.1584529 0.017725725 0.2844887 -0.36464643 -0.3966821 -0.22715658 -0.637113 0.14433363
00000000: 0f31 373f c808 323d 496e 043e c6e5 893e
00000010: 8ad9 b93e 4567 443e d4be bcbe c3fa 033f
00000020: 991c 11bd 4dd8 9d3d c9f1 50bd e89e 2e3e
00000030: eb1d a4be 9f3c 10be 0726 0dbe d032 a9be
00000040: bf47 3cbe 1bbe 86be 7f9f 8dbe 2e6d 46bf
00000050: 92af 9ebe b6e9 de3e 9c3a 36be 03b3 c3be
00000060: 7a41 22be 8a35 913c 81a8 913e f0b2 babe
00000070: eb19 cbbe bc9b 68be d619 23bf 32cc 133e

enc.EncoderList.cell2.activate.fcn.1.running_var f4 [32]
0.05703907 0.02226783 0.013497139 0.031501304 0.019163238 0.011919217 0.04840047 0.03148281
0.007088134 0.041854925 0.018476224 0.008587682 0.043883085 0.009900341 0.020136107 0.0093237115
0.03904535 0.05258199 0.03058563 0.052233156 0.07522146 0.02557651 0.035958957 0.0055606486
0.04499161 0.015946224 0.060785312 0.0077894283 0.037987705 0.0063332487 0.009340914 0.013193851
00000000: cda1 693d 066b b63c 1b23 5d3c 8307 013d
00000010: 39fc 9c3c d248 433c 923f 463d 1ef4 003d
00000020: 9443 e83b 1270 2b3d 735b 973c 59b3 0c3c
00000030: c0be 333d 0a35 223c 7af4 a43c 7bc2 183c
00000040: 04ee 1f3d 3660 573d b78e fa3c 6ff2 553d
00000050: b50d 9a3d d485 d13c b349 133d 1a36 b63b
00000060: 1f49 383d a8a1 823c 05fa 783d 763e ff3b
00000070: ff98 1b3d 2487 cf3b a20a 193c 062b 583c

enc.EncoderList.cell2.activate.fcn.3.weight f4 [16, 32]
-0.12806681 -0.28652632 -0.11583059 0.13667688 -0.08434531 -0.092909664 0.005219466 0.082497254
-0.297753 -0.11063887 -0.15149708 0.027007164 -0.00825033 -0.20110978 0.15185371 -0.13768941
0.113274746 -0.10881627 -0.048150662 0.008489655 -0.077430494 0.1193038 -0.121710114 -0.005710496
-0.25223914 -0.06718608 0.12168176 0.20884511 0.08745511 -0.17118987 0.24719553 0.0006450693
0.13940948 -0.23543602 -0.119294606 -0.045210235 0.015376372 0.00433393 -0.10174533 0.024468357
0.018643063 -0.02987841 -0.09246104 -0.057239782 0.10708678 -0.3731166 0.0013232545 -0.17566386
-0.055581834 0.20314004 0.224032 0.21448247 0.11937485 0.25514105 -0.01393483 0.050979488
0.0067369663 0.20806386 0.1459892 -0.23616406 -0.009420414 -0.016590942 0.015246823 -0.15335731
-0.085800916 -0.0142584415 -0.044093825 -0.12886338 -0.113286585 -0.051142912 0.077482134 -0.37672478
0.21779591 -0.050699346 0.050322082 -0.051455144 0.09581563 -0.18904148 0.26857802 0.034513526
0.03712956 0.008357446 -0.20056415 0.19995387 -0.12432828 0.03318372 0.21563536 0.08326758
0.14134708 -0.048057344 -0.08384433 0.10732356 0.11727632 -0.041020848 0.21156712 -0.23120609
0.08922422 0.33134246 -0.22754097 0.09143066 -0.039106883 -0.026324347 -0.23297133 0.050026197
-0.09726784 0.12109689 -0.038715564 0.16708702 -0.15339758 -0.067441136 -0.023255754 -0.10331864
0.055082902 -0.001839346 0.00515043 -0.21155255 -0.040241376 -0.27485502 0.090442576 -0.21076931
0.050570253 0.12930693 -0.09075782 0.0025421192 -0.20909405 0.086329184 -0.25448492 0.00246518
-0.13604474 -0.24853712 0.046908226 -0.03355124 0.1208571 -0.08929546 0.15025932 0.039208177
-0.026995294 0.032828707 0.21907766 -0.22924048 -0.06733455 -0.02871283 0.081039034 -0.07599451
0.16583282 -0.026716376 0.06629546 -0.105884686 -0.032897864 0.02511328 -0.13166885 -0.0684579
0.05889494 -0.1740293 -0.15078433 0.24683732 0.15937722 -0.09514161 0.15820904 0.1915729
-0.27449566 0.1987833 0.0005884766 -0.081087045 0.12746339 -0.13604446 0.029154815 -0.18219687
-0.17997701 0.1572025 -0.04110835 0.08205732 0.13289048 -0.06426571 -0.14334737 0.03571567
0.17323123 0.11446234 0.24584658 0.06406721 0.07897068 -0.08947641 0.29080698 0.05684308
0.105909355 0.044061746 -0.15410215 -0.04188862 -0.050178107 0.002235709 -0.06338087 0.08169686
0.116030775 -0.16369714 -0.07498092 0.015498518 -0.11105748 -0.2016017 0.2136328 -0.050216224
-0.08293181 0.13907473 -0.025751421 -0.2265046 0.15522127 -0.01856645 0.0325073 0.37890264
-0.05244801 0.017913975 -0.109477244 0.04788878 0.039810475 -0.04968068 -0.118495405 0.096337855
0.018347861 -0.0558229 -0.13900076 -0.12352818 -0.18666695 0.2391089 0.083442785 -0.080313385
-0.0686604 0.02306436 -0.07208143 -0.059574563 -0.060945567 -0.027662484 -0.057804175 0.079318486
0.22926734 0.09504023 0.034287162 -0.052132387 -0.17271668 -0.009029139 -0.35048416 -0.096012756
-0.0769972 -0.047938157 -0.08801994 0.08496068 0.11173331 0.2604133 -0.12764624 0.17531104
0.034051504 -0.12383207 -0.10879231 -0.04602303 -0.13198644 0.107407644 -0.044161465 0.07810082
00000000: f223 03be 94b3 92be 9738 edbd 06f5 0b3e
00000010: 3cbd acbd 6c47 bebd 0e08 ab3b 52f4 a83d
00000020: 1573 98be a296 e2bd 0d22 1bbe 213e dd3c
00000030: 642c 07bc b9ef 4dbe 8a7f 1b3e 74fe 0cbe
00000040: 97fc e73d 11db debd a139 45bd 3218 0b3c
00000050: e193 9ebd 8d55 f43d 2743 f9bd 1d1f bbbb
00000060: 7d25 81be db98 89bd 4934 f93d 7edb 553e
00000070: aa1b b33d 664c 2fbe d320 7d3e de19 293a
00000080: 5cc1 0e3e 2416 71be bb50 f4bd 5e2e 39bd
00000090: 2eed 7b3c a403 8e3b db5f d0bd dd71 c83c
000000a0: 56b9 983c 91c3 f4bc 375c bdbd 4374 6abd
000000b0: 5050 db3d 2409 bfbe 0e71 ad3a 3ae1 33be
000000c0: c7a9 63bd f103 503e a568 653e 4ba1 5b3e
000000d0: cd7a f43d d9a1 823e ea4e 64bc decf 503d
000000e0: c5c1 dc3b b10e 553e 317e 153e fed4 71be
000000f0: 1558 1abc bae9 87bc d0cd 793c b309 1dbe
00000100: 64b8 afbd 3d9c 69bc ba9b 34bd c3f4 03be
00000110: cc02 e8bd 3b7b 51bd f4ae 9e3d 12e2 c0be
00000120: e405 5f3e 1eaa 4fbd 871e 4e3d a1c2 52bd
00000130: fc3a c43d 1794 41be 0f83 893e 0e5e 0d3d
00000140: 2a15 183d abed 083c b060 4dbe b5c0 4c3e
00000150: d39f febd a7eb 073d 84cf 5c3e 3188 aa3d
00000160: 4abd 103e c7d7 44bd 93b6 abbd 74cc db3d
00000170: 912e f03d 7a05 28bd 0da5 583e 4ac1 6cbe
00000180: 30bb b63d b8a5 a93e 8000 69be ff3f bb3d
00000190: 8a2e 20bd 28a6 d7bc 0990 6ebe 45e8 4c3d
000001a0: 5c34 c7bd a501 f83d 3694 1ebd dc18 2b3e
000001b0: 4114 1dbe 941e 8abd da82 bebc b998 d3bd
000001c0: 9c9e 613d 3616 f1ba f0c4 a83b 3ba1 58be
000001d0: 24d4 24bd ccb9 8cbe f539 b93d e9d3 57be
000001e0: c122 4f3d 0969 043e 3cdf b9bd af99 263b
000001f0: c01c 56be 5bcd b03d d94b 82be db8e 213b
00000200: 504f 0bbe 8480 7ebe d722 403d 066d 09bd
00000210: ed83 f73d 8ae0 b6bd 94dd 193e c198 203d
00000220: 3c25 ddbc 6577 063d e555 603e 04be 6abe
00000230: b2e6 89bd 2b37 ebbc cbf7 a53d 02a3 9bbd
00000240: 14d0 293e 4ddc dabc eac5 873d 12da d8bd
00000250: e9bf 06bd 5eba cd3c 33d4 06be a833 8cbd
00000260: d23b 713d bd34 32be 3567 1abe ecc2 7c3e
00000270: c833 233e 9bd9 c2bd 8d01 223e b02b 443e
00000280: b28a 8cbe d98d 4b3e ff43 1a3a f710 a6bd
00000290: c385 023e 3d4f 0bbe 14d6 ee3c d191 3abe
000002a0: e54b 38be b1f9 203e 3b61 28bd ab0d a83d
000002b0: 7114 083e be9d 83bd a7c9 12be 984a 123d
000002c0: 8763 313e 3b6b ea3d 35bf 7b3e ab35 833d
000002d0: 61bb a13d 683f b7bd a7e4 943e 4ad4 683d
000002e0: 01e7 d83d 177a 343d f4cc 1dbe 6793 2bbd
000002f0: 8f87 4dbd f984 123b d4cd 81bd af50 a73d
00000300: 8ba1 ed3d 39a0 27be 998f 99bd 7fed 7d3c
00000310: 1b72 e3bd ad70 4ebe 8fc2 5a3e 87af 4dbd
00000320: 27d8 a9bd 9b69 0e3e a5f4 d2bc d2f0 67be
00000330: 53f2 1e3e ab18 98bc 6026 053d 87ff c13e
00000340: b9d3 56bd 54c0 923c 9b35 e0bd 0627 443d
00000350: 4f10 233d f87d 4bbd b8ad f2bd c84c c53d
00000360: 414e 963c 8ea6 64bd 3756 0ebe 58fc fcbd
00000370: 9f25 3fbe f7d8 743e 0de4 aa3d 587b a4bd
00000380: d39d 8cbd 78f1 bc3c 6e9f 93bd 7504 74bd
00000390: 0fa2 79bd 6f9c e2bc 12c4 6cbd bb71 a23d
000003a0: 0fc5 6a3e 74a4 c23d b270 0c3d c588 55bd
000003b0: a4dc 30be f4ee 13bc a972 b3be 56a2 c4bd
000003c0: b5b0 9dbd cd5a 44bd cc43 b4bd ddff ad3d
000003d0: 6fd4 e43d e454 853e b2b5 02be bd84 333e
000003e0: 9779 0b3d ab9b fdbd 81ce debd a582 3cbd
000003f0: 7427 07be 8af8 db3d a7e2 34bd 53f3 9f3d
