checkpoints/best_AGSUNet_emb_snr_-2.pth (torch, 733282 bytes, 105 tensors)

EncList.0.conv.weight f4 [16, 2, 11]
000000 ef 93 03 3e 70 dc 1f 3e c0 65 6f bd a4 ff 48 3e
       0.12849401 0.15611434 -0.058446646 0.19628769
000010 1d 30 3e bd 41 f6 3d 3d 55 dd cb bd 91 db 0a 3e
       -0.046432603 0.046377424 -0.09954325 0.1356032
000020 0e e7 4e 3e 13 df 13 be 58 7b 45 3e 33 d9 5f 3d
       0.20205328 -0.14440565 0.19285333 0.054650497
000030 04 dd 2b 3e 32 e9 19 3d 76 e5 e1 3d 66 8d 85 bc
       0.1678353 0.037575908 0.11030094 -0.016302776
000040 ab 09 50 3e db c2 ab 3d c1 83 6c bd 36 3c 9e 3d
       0.20316188 0.08386775 -0.057742838 0.07726328
000050 37 ff d8 bd ad b4 23 bd 56 cd 89 bd 2e 23 24 3e
       -0.10595553 -0.039967228 -0.06728618 0.16029045
000060 d1 34 15 be 39 7b 9e bd b9 79 3a bd 0e c9 fb bd
       -0.14570929 -0.077383466 -0.04552624 -0.122942075
000070 8f 22 ca 3c 72 93 46 be 6c 19 6a 3e da 90 fc bd
       0.024674682 -0.19392183 0.2286126 -0.12332316
000080 7d 28 6a 3e 9e db 84 3d 6c 6d 56 bd 04 01 1b 3e
       0.22867008 0.06487201 -0.052350447 0.15137106
000090 4a e5 31 3d d2 a0 3a 3e 17 68 38 3d 89 32 1d bd
       0.043431558 0.1822541 0.045021143 -0.038378272
0000a0 79 7f ba 3d c3 6a 21 bd 34 68 c2 3d f3 4a 41 3e
       0.09106345 -0.039408457 0.094925314 0.18876247
0000b0 bc bd 52 3e 76 09 2d bd f8 36 0c 3e 8c 8c 3f 3b
       0.2058019 -0.04224535 0.13692844 0.002922806
0000c0 75 f5 26 3d eb e6 59 be 66 a5 85 be 8d fd e3 bd
       0.04076143 -0.21279494 -0.26102751 -0.11132345
0000d0 7e 01 47 be 70 26 0e 3e ed 08 f8 3b de 7d c4 3d
       -0.19434163 0.1388185 0.0075694234 0.0959432
0000e0 f8 cf a0 3d d5 be 68 3c 8a 48 3a 3e 65 6a 0a be
       0.07852167 0.014205654 0.18191734 -0.13517149
0000f0 59 84 b7 3c 6e 13 1c be 69 6b ea 3c 69 04 f0 bd
       0.022401975 -0.15241787 0.02861567 -0.11719591
000100 95 45 61 3c 5c fa bc bd 65 34 12 3e ba 2b 24 be
       0.0137495 -0.0922744 0.142778 -0.16032305
000110 34 54 26 be 26 80 20 be e4 5b 2e 3e 99 5d 82 3d
       -0.16243058 -0.15673885 0.17027241 0.063655086
000120 7f b9 5f 3e 51 50 2d be 59 4c 50 be 59 2f 0e be
       0.21848105 -0.1692517 -0.20341624 -0.13885249
000130 62 5f ec bd f2 36 57 3d eb be 55 3d 2b e3 2a 3e
       -0.1154163 0.052542634 0.052184027 0.1668822
000140 0b 48 da bd 09 da 0e be f3 7a db 3d 03 b8 b0 bd
       -0.10658272 -0.13950361 0.1071681 -0.086288475
000150 fb aa 06 3e 5a 0a 48 bd e1 5a 04 3e 3b 4f 25 be
       0.13151161 -0.048837997 0.12925293 -0.16143505
000160 65 7c 14 be 7c e9 bc 3c d5 24 94 3c dc a1 55 bd
       -0.14500578 0.023060553 0.01808397 -0.052156314
000170 dc 9f 18 3e 2c b7 2a 3e 14 81 2b be a4 59 14 be
       0.14904732 0.16671437 -0.16748458 -0.1448732
000180 fc 1c 32 3e d2 7f a0 bd 80 8c b0 bd cb 2c 2f be
       0.17393869 -0.0783688 -0.08620548 -0.17106931
000190 48 6d ca bd c4 c3 a5 3d 24 6d fd bc ea 1c 12 be
       -0.09884125 0.0809398 -0.030935831 -0.14268842
0001a0 56 66 b1 3c c2 98 04 be f4 c3 1b be b1 58 b8 bd
       0.021655243 -0.12948897 -0.15211469 -0.090012915
0001b0 70 73 27 be f0 35 02 be b6 60 89 3e 48 bd a6 3d
       -0.1635263 -0.12715888 0.26831597 0.08141571
0001c0 3b 10 b1 3d 91 26 37 be b4 e8 07 be 2f 77 99 bd
       0.08645674 -0.17885806 -0.13272363 -0.074934356
0001d0 66 ce f9 3b 7a ab 5b be d8 8a e6 bd 7e c9 22 be
       0.0076234816 -0.21452132 -0.11256951 -0.15897176
0001e0 3f 05 2e bd b4 fe a5 bd 94 d1 18 bd 0b dd 29 be
       -0.04248547 -0.081052214 -0.037309244 -0.16588227
0001f0 1a fa 1e be ca ea f7 bd c9 74 9f bd 7c 47 35 be
       -0.15525094 -0.12105329 -0.07785947 -0.1770305
000200 84 59 22 3e 15 53 9a bd 86 49 14 3e 44 f7 0c 3d
       0.1585446 -0.07535378 0.14481172 0.0344155
000210 6e d7 9b be 40 0c ac 3d 9c 75 b8 bd 6e 83 a5 bd
       -0.30437797 0.08400774 -0.09006807 -0.08081709
000220 a3 b4 22 be 00 58 60 be 0f 6b a0 3d 83 92 a5 3c
       -0.1588922 -0.2190857 0.0783292 0.020211464
000230 2b 7b 2b 3e 9a fc 42 bd 93 0b 99 3e 1b 21 6a bd
       0.16746204 -0.04760418 0.29891643 -0.057160478
000240 29 c2 ae 3c da 03 45 3d 8a 72 8d 3d 15 bf c0 3d
       0.021332817 0.048099376 0.06906612 0.09411446
000250 eb 35 0b 3e 2d 83 59 be b6 00 b8 3c 8e 5f ac bd
       0.13594787 -0.21241446 0.022461277 -0.08416663
000260 7c dc 1b bd 30 89 3f be 35 55 9f 3e 42 c3 8e bd
       -0.038052067 -0.18704677 0.31119695 -0.06970836
000270 dd ee 40 3e 83 90 ee 3d c0 0c 7b 3d 6d b6 2c be
       0.18841119 0.11648657 0.061291456 -0.16866465
000280 02 68 82 3d 75 1a c7 bd b4 e1 b0 bd 4e 78 87 be
       0.06367494 -0.09721843 -0.086367995 -0.26458973
000290 4e 43 0f 3d 57 29 d3 bd 54 56 04 be 81 c4 42 3e
       0.034976296 -0.10310619 -0.12923557 0.19020273
0002a0 a7 0c a5 3d 43 bf 92 bd 20 e5 8d bd f5 c8 8f 3b
       0.08059054 -0.071653865 -0.06928468 0.0043879696
0002b0 b5 4c d1 3d f7 f7 32 bd b3 83 bc bd 95 56 44 bd
       0.10219709 -0.04369351 -0.09204807 -0.047934134
0002c0 61 9c 5b be da da 37 3c de d3 da 3d 6d 5d 74 be
       -0.21446373 0.011221612 0.10684942 -0.23863764
0002d0 9d 32 1a 3d 3b 7e 08 3e 73 d3 a3 3d 19 da 89 bc
       0.037645925 0.13329403 0.07999315 -0.01682763
0002e0 c8 43 37 3e f5 d5 24 3e 10 8e ca 3d 56 48 25 bd
       0.1789695 0.16097243 0.098903775 -0.040352188
0002f0 34 ec c9 bd 63 10 88 bd 7f c4 0c be 44 35 1d be
       -0.09859505 -0.066437505 -0.13746832 -0.1535235
000300 f3 86 99 3d f8 c5 23 3e 6c 9b e4 bc bf 36 2e bd
       0.07496443 0.15993488 -0.027906142 -0.04253268
000310 63 d9 8e 3c a1 bb f1 3c e5 68 61 3e 49 77 28 3e
       0.017437642 0.029508414 0.2201267 0.16451754
000320 37 44 32 be bb 83 e8 bd e9 b1 d6 3d 49 2a 1b bd
       -0.17408834 -0.113532506 0.104831524 -0.037882123
000330 c9 20 bd bd f2 b0 13 be 06 7e b1 bd d2 e5 0f be
       -0.09234769 -0.14422968 -0.08666615 -0.14052513
000340 4e 99 25 bd fe 86 b8 3d c5 91 20 3e 44 ed 05 3e
       -0.040429406 0.09010123 0.15680607 0.13078791
000350 94 45 1a be b6 0a da bd ca 6d d9 bc bc f0 42 3e
       -0.15065604 -0.10646574 -0.02654161 0.19037145
000360 0e ad 01 3b d1 13 4d bd 5d 02 f2 3d bc c7 f2 bc
       0.0019786987 -0.050067727 0.11816857 -0.029636256
000370 61 fd e8 bd 18 51 3f 3e 92 e4 be bd 21 d6 4c bd
       -0.11376453 0.18683279 -0.0932094 -0.050008897
000380 31 aa 58 be 13 6a 60 3e f1 33 7e 3e ca fe 1e 3e
       -0.21158673 0.21915464 0.24824502 0.15526882
000390 0a a5 b1 bd e7 06 2b be 88 80 fa bd 6e 05 82 3e
       -0.08674057 -0.16701852 -0.12231547 0.25394768
0003a0 5c f2 06 3e 3d b3 32 3e ed d6 e6 3d 6d c5 3f 3d
       0.1317839 0.17451186 0.112714626 0.04681914
0003b0 9e d7 00 bd b3 cd 4e be ce 72 6b be 71 2e 47 be
       -0.03145563 -0.20195656 -0.22993013 -0.1945131
0003c0 65 31 f1 3d 51 3b 34 bd d8 9b 4c bd 94 2b e6 bd
       0.117769994 -0.04400188 -0.04995331 -0.112387806
0003d0 b9 b9 c2 bc 03 32 f5 bd 7e fd d5 bd 5b 8b cc 3d
       -0.0237702 -0.119724296 -0.104487404 0.099875174
0003e0 cc 90 0a bd 12 0a 22 3e 09 5d 22 bd 2d d3 fe bd
       -0.033829495 0.15824154 -0.039639506 -0.12442622
0003f0 d5 05 90 bc 39 42 d0 bd f0 6c 85 bd 01 fa 4c be
       -0.017580906 -0.10168881 -0.06514919 -0.20017244

EncList.0.conv.bias f4 [16]
000000 9e 53 b9 3d ee 52 2c 3e f9 a1 61 be 47 db 3a be
       0.09049152 0.1682851 -0.22034444 -0.1824771
000010 b4 3b c3 bd bf 86 31 3d 36 79 26 be 0d e6 bb 3e
       -0.09532872 0.043341395 -0.16257176 0.36698952
000020 c0 fb db bd d0 54 a8 bc 68 0f 01 3e f7 25 46 be
       -0.10741377 -0.020548254 0.12603533 -0.1935042
000030 4c 9a 6a 3d 62 02 a0 bc 61 d2 e9 bd cc 60 8f be
       0.057276055 -0.019532386 -0.1141708 -0.28003538

EncList.0.shrinkage.fc.0.weight f4 [16, 16]
000000 70 d7 91 be 1d c6 13 3d a4 fe 90 3e f8 21 80 3e
       -0.28484678 0.036077607 0.28319275 0.25025916
000010 84 86 0e be 74 f1 c1 bb b0 cd 12 be 03 10 2f be
       -0.13918501 -0.005918676 -0.14336276 -0.17095952
000020 66 cf 38 bd 61 80 4e 3e 2f d4 68 3e f3 7e 48 be
       -0.045119666 0.2016616 0.22737192 -0.19579677
000030 06 d0 2c 3e 80 82 03 be 46 35 4d 3d 11 f8 64 3e
       0.1687623 -0.1284275 0.050099634 0.22360255
000040 88 1e 1c 3d eb 1c 5c 3e 79 ce 73 be 7b 91 ee bd
       0.038115054 0.21495406 -0.23809232 -0.11648842
000050 88 7a 1c 3e b7 82 b5 bd 97 b8 be bd e9 90 a7 bd
       0.15281117 -0.088628225 -0.093125515 -0.08181936
000060 26 83 42 3e 60 24 ce 3d 7a 00 8a 3d 33 ee 22 be
       0.18995342 0.10065532 0.06738372 -0.15911178
000070 80 a5 4a be f2 65 65 bc e3 dd af 3d e1 c8 43 be
       -0.19789696 -0.014001356 0.085872434 -0.19119598
000080 af 6b 0f be 61 ff 26 3e c8 ec cf 3d ae 4a 9d 3d
       -0.14005922 0.16308357 0.10152584 0.0768026
000090 bf ab 17 bd e1 bd 26 be b5 37 21 be cf ce 05 be
       -0.037029024 -0.1628337 -0.15743907 -0.13067172
0000a0 12 08 50 be 09 b3 01 3e 74 c0 d7 bc 8c 47 f2 bc
       -0.20315579 0.12665953 -0.026336886 -0.029575132
0000b0 7f d8 87 3e 04 47 20 3e 69 9e 2c 3e e8 88 8d bd
       0.2653236 0.1565209 0.16857304 -0.069108784
0000c0 7f 75 58 be 98 7c 82 3c 59 62 de bc 00 bd 42 bd
       -0.21138571 0.015928552 -0.027146505 -0.047543526
0000d0 04 66 a9 3d f1 d9 d2 3c da f3 da bc 9c a5 2d 3e
       0.08271411 0.025738688 -0.026727606 0.16957706
0000e0 4f a0 73 3e c7 18 b9 3c f4 11 5d bc 37 60 d6 bd
       0.23791622 0.022594823 -0.01349305 -0.1046757
0000f0 99 e6 af 3c ad 69 34 3e cb 45 29 3e 8e 1a 53 3d
       0.021472262 0.17618437 0.1653053 0.051538996
000100 49 62 c4 bd b7 f5 31 3e 75 d6 44 be 33 59 2a 3e
       -0.09589059 0.17378889 -0.19222434 0.1663559
000110 b6 4a eb bd c5 cf 4e 38 e0 da a2 bd 07 d6 eb 3c
       -0.11488859 4.9307728e-05 -0.07951903 0.02878858
000120 59 5a 23 be a2 e6 9f 3e 6f d0 0a bd 74 ed 39 3e
       -0.15952434 0.31230646 -0.033890184 0.18156987
000130 4d 92 62 3e 76 4a 02 be 34 98 83 be d8 e3 2c 3e
       0.22126122 -0.12723717 -0.2570206 0.1688379
000140 ee 2e 5b 3e 6b 98 85 be 2f 0c 58 bd ba 5d e3 be
       0.21404621 -0.26092848 -0.052745994 -0.44407445
000150 87 2e 11 be 8e 15 ab 3d 31 49 5b 3d c0 1e 0e 3e
       -0.14177905 0.083537206 0.053536598 0.13878918
000160 ec 31 30 3d e8 99 db 3d 8e 30 a0 bc c0 d1 39 be
       0.04301636 0.10722715 -0.019554403 -0.1814642
000170 2a 30 24 3d 1e 13 6d 3d 1c 80 25 3e c0 e1 04 be
       0.040084995 0.05787956 0.16162151 -0.12976742
000180 89 6d fc 3c 83 f9 33 be 67 4e 10 be 35 d9 9f bd
       0.03081395 -0.1757565 -0.14092408 -0.07805101
000190 b4 c2 99 3e e2 97 8c 3e ee e1 8f 3e 34 77 24 3e
       0.3003136 0.27459627 0.28102058 0.16061097
0001a0 f1 ed 09 3e 22 03 c6 3c 01 53 ed bd 78 14 3b 3e
       0.13469674 0.024171416 -0.11588097 0.18269527
0001b0 00 21 3b bd 52 6b d6 bd d8 72 9a bd 73 2c bf 3d
       -0.045685768 -0.104696885 -0.07541436 0.0933465
0001c0 7f b1 31 3e 90 4e 01 be 6a a5 5e be 07 77 64 bc
       0.17352866 -0.12627625 -0.21742788 -0.013944394
0001d0 8f 31 f6 bd 14 bd 8c be 9d 60 97 3d 0d 0e 0d bb
       -0.12021171 -0.27488005 0.073914744 -0.0021523267
0001e0 c2 35 8c 3e f9 57 4e 3e 0a 6e 01 3d ff 2d 4c 3d
       0.27384764 0.20150746 0.031599082 0.049848553
0001f0 67 27 ab 3d e9 36 7c bd 9c ea 4b 3c 25 60 d3 bc
       0.08357125 -0.061575804 0.012446072 -0.025802681
000200 36 3f 2c 3e 8c ce 38 3e 9c 08 d6 bd 1d 74 1c be
       0.16820988 0.18047541 -0.10450861 -0.15278669
000210 ae bb 29 bc ab 8b eb bd cf a0 a6 3c e7 9c 80 3e
       -0.010359688 -0.11501249 0.020340351 0.25119707
000220 14 64 82 3e be 7e 76 3d 1f 49 7a be d3 f1 3c be
       0.2546698 0.060179465 -0.24441956 -0.18451624
000230 a0 ee 00 bc d1 70 0a be 7a 50 8c 3d 4f 9d 32 be
       -0.007869393 -0.13519599 0.06851287 -0.17442821
000240 9e f2 07 3e e8 3f 07 be 1c bc 84 be 2b a2 ac be
       0.13276145 -0.13207972 -0.25924766 -0.33717474
000250 6c 10 37 3e 3a ae 93 be 43 e8 05 3e ed 6c 9b bc
       0.17877358 -0.28843862 0.13076882 -0.018972838
000260 d2 e8 7c bc 0d 28 f5 3d 53 70 81 bd 31 11 da 3d
       -0.015436368 0.1197053 -0.06320252 0.1064781
000270 52 73 02 3e 36 68 91 be 88 08 7b 3d 6c 2f 17 38
       0.12739304 -0.2839982 0.061287433 3.604537e-05
000280 5d f2 be bd 04 c7 99 3b ba ac 07 3e 60 d1 ad bd
       -0.09323571 0.004692914 0.13249484 -0.08487201
000290 db 95 25 3c 9f f6 94 3e 5e 16 70 3e 9d cf 0e 3c
       0.010106529 0.29094407 0.23446032 0.008716491
0002a0 30 70 7f be 85 6d 4b bc 24 c1 41 be 5e 07 8d 3e
       -0.2494514 -0.012416248 -0.18921334 0.27544683
0002b0 af 6f d3 bd c6 27 b1 3d 83 84 b8 bc fa c1 c6 3d
       -0.10324036 0.08650164 -0.022524124 0.09704967
0002c0 56 12 7b 3e e4 b9 dd bc b5 4b e9 3d 51 03 1a 3e
       0.24518713 -0.027066179 0.11391393 0.15040328
0002d0 db c5 6c 3e d0 1e bb bd b4 25 3c bd 50 19 5a 3e
       0.23122351 -0.091367364 -0.045934394 0.21298718
0002e0 ab 20 23 bc 56 6e 72 3c be 2a 01 be fc 22 34 be
       -0.009956519 0.014796814 -0.12613961 -0.1759147
0002f0 e3 0f ef 3d 06 10 ee 3c e4 ba 81 3e ca 17 7c 3e
       0.11672952 0.029060375 0.253379 0.2461845
000300 78 4b 4d 3e e4 fa 5f 3e b3 8e 31 bd df 47 72 be
       0.2004832 0.21873051 -0.04334898 -0.23660229
000310 42 77 27 be 34 ee 5a be f7 55 50 be 5d ec da bd
       -0.16354087 -0.2137993 -0.20345293 -0.10689614
000320 d6 60 4b be d4 0a 83 be fe b9 1d be c7 9c 78 be
       -0.19861159 -0.255942 -0.15402982 -0.24278556
000330 49 c3 11 be b4 79 61 3d 91 68 63 3e 9c 74 a2 bd
       -0.14234652 0.055047706 0.22207858 -0.07932398
000340 b3 7c 53 3d 22 a9 4d 3e 75 b0 70 be 69 39 1c be
       0.051632594 0.2008405 -0.23504813 -0.15256275
000350 52 a6 81 3d 26 fb a4 be 77 3e ab bd 0b 6d 54 3e
       0.06330551 -0.3222286 -0.083615236 0.20744722
000360 6b 6d 0e 3d 96 cc b1 3d cb 52 15 be 88 45 7a bd
       0.034772318 0.086816 -0.14582364 -0.061101466
000370 eb 00 a6 bd 40 03 bc bd 66 c1 29 3d 81 95 da 3d
       -0.08105644 -0.091803074 0.041444205 0.10673047
000380 20 d9 e8 bd 86 c1 eb bc 71 8d 39 be a0 18 78 be
       -0.11369538 -0.028778803 -0.18120362 -0.24228144
000390 b6 1a ea bc 02 e7 a0 be 52 3e db 3d c5 8d 9f 3d
       -0.02857719 -0.31426245 0.10705246 0.07790712
0003a0 a8 4c b4 bd 1b 22 94 3d dd f8 7c be 9a c6 21 be
       -0.088036835 0.072330676 -0.24704309 -0.15798417
0003b0 0d 6b 58 bd e7 5d 95 be b0 b4 04 be 22 1f ea bd
       -0.052836467 -0.29173204 -0.12959552 -0.11431719
0003c0 71 5b 20 3e 5a 19 a7 3e b4 f6 3f 3e 3d b8 d2 bd
       0.15659882 0.3263653 0.18746454 -0.10289047
0003d0 6d ab 2c be cf 4c 74 3e 40 f7 fb 3d 75 95 1a be
       -0.16862269 0.23857425 0.123030186 -0.15096076
0003e0 e2 5b 21 bb 98 14 00 be 87 da 9b bc 5e fb 8a 3e
       -0.0024621417 -0.12507856 -0.0190251 0.27144903
0003f0 9a f8 9e bd 1d 45 b0 3c 60 3c b1 be 5e b4 de bd
       -0.07762261 0.02151733 -0.34616375 -0.10874246

EncList.0.shrinkage.fc.0.bias f4 [16]
000000 8d e4 1f bc f8 53 1f be d3 67 f8 bc e2 a5 cf 3d
       -0.009759081 -0.15559375 -0.030322945 0.101390615
000010 d7 a0 78 be 18 52 98 3d 6f 7b 28 be ff 9a f4 bd
       -0.24280106 0.07437533 -0.16453336 -0.11943626
000020 7f 59 c5 3d b2 d6 49 3e f2 46 8b bd 84 e2 d6 bd
       0.09636211 0.19710806 -0.06800641 -0.10492423
000030 68 10 67 be f5 a8 06 be 03 17 5f be c9 34 6d bd
       -0.22564852 -0.1315039 -0.21786122 -0.057911668

EncList.0.shrinkage.fc.1.weight f4 [16]
000000 9a 40 8f 3f de 73 89 3f ee 5a 82 3f 10 fa 72 3f
       1.119159 1.0738485 1.0184 0.94912815
000010 b7 18 7e 3f 31 64 89 3f e2 e1 71 3f 6a f0 7f 3f
       0.9925646 1.0733701 0.94485295 0.9997622
000020 6f 58 8b 3f 18 43 80 3f 00 80 8a 3f 00 4d 8b 3f
       1.0886363 1.0020475 1.0820312 1.0882874
000030 02 f5 7d 3f ab a2 79 3f da 8d 83 3f 49 95 7b 3f
       0.9920198 0.97513837 1.0277665 0.98274666

EncList.0.shrinkage.fc.1.bias f4 [16]
000000 56 c7 40 3e 15 60 f5 bd e6 96 06 3e aa 65 f8 bd
       0.1882604 -0.11981217 0.131435 -0.12128766
000010 c5 b1 74 3c 6e c0 2a 3e 52 71 06 be dd 4a 73 3e
       0.014934962 0.16674969 -0.13129166 0.23759027
000020 79 90 43 3c d4 01 e2 3d 81 ed 2d 3e 28 a9 db 3d
       0.0119363 0.11035505 0.16985132 0.10725623
000030 ce 29 b3 bd 73 5d 68 be dc 95 92 be 78 3b 50 3c
       -0.08748208 -0.22691898 -0.2862996 0.012709491

EncList.0.shrinkage.fc.1.running_mean f4 [16]
000000 db 39 1c be 34 d0 bf bc 20 cc 38 bd 79 e2 e6 3d
       -0.15256445 -0.023414709 -0.045116544 0.11273665
000010 05 0d 52 be 31 52 7c 3e 9c cc 72 be e8 fa e7 bd
       -0.20512779 0.24640729 -0.23710865 -0.113271534
000020 ad a9 99 3e 37 6f 65 3e 2d 88 4a be 80 74 1f be
       0.30012265 0.22405706 -0.1977851 -0.15571785
000030 97 8f 91 bd 2e 35 23 3c ed 59 b3 bd 10 b8 33 bd
       -0.07107466 0.0099614095 -0.08757386 -0.043876708

EncList.0.shrinkage.fc.1.running_var f4 [16]
000000 f3 fe 56 3d 99 42 05 3e cd a9 5d 3d 80 8e 11 3e
       0.052489232 0.13013686 0.054117013 0.14214516
000010 ba 66 bc 3d 86 c6 c4 3d 98 11 6d 3e e4 d1 d9 3d
       0.09199281 0.09608178 0.23151243 0.106357366
000020 03 0b 61 3e b2 1f 0b 3e 5a 73 4d 3e 20 17 ad 3d
       0.21976857 0.1358631 0.20063534 0.08451676
000030 fa 27 d8 3e d4 93 49 3e 6f 6b 82 3e 3c 0b 1d 3e
       0.42218 0.19685298 0.2547259 0.15336317

EncList.0.shrinkage.fc.3.weight f4 [16, 16]
000000 a8 f0 97 bd fe 2c 8d be fb 2e 24 3e 02 67 e5 3d
       -0.074189484 -0.2757339 0.16033547 0.11201288
000010 4d 8a 2a be b9 bf 36 be 66 fc eb 3c 3b 39 a1 bd
       -0.1665432 -0.17846574 0.028806876 -0.07872244
000020 0e 73 79 bd c7 29 27 be 46 07 b0 3c 85 60 5f be
       -0.06090074 -0.1632453 0.021487843 -0.21814163
000030 8a 8e 30 3e c7 13 84 bc 09 0f 03 3d 3b 94 54 3e
       0.17241874 -0.016122712 0.03199676 0.2075967
000040 f4 72 71 39 34 24 81 be 3b 06 7c bc 45 3c 23 3e
       0.00023026374 -0.25222933 -0.015382345 0.1594096
000050 59 45 36 be 39 53 06 be 70 34 60 be 54 ca eb 3c
       -0.17799892 -0.13117684 -0.21895003 0.028783001
000060 96 94 0f bd 6e 0e a7 bd 0e 67 aa 3d b7 91 0d 3c
       -0.035053812 -0.08157049 0.08320437 0.008640698
000070 3a c5 20 3c 77 b9 87 be f0 99 ff bd 03 bd 9d 3d
       0.0098126475 -0.26508686 -0.12480533 0.07702067
000080 bd ec 01 3e 95 ee 3a bd 0c 13 56 be bf 44 5e 3e
       0.12687965 -0.045637686 -0.20905703 0.21705912
000090 58 dd 9d be f9 58 48 be 1d 51 2a be fb a3 85 be
       -0.30832934 -0.1956519 -0.16632505 -0.2610167
0000a0 29 b9 b0 3d 62 25 64 bd 6f cc 61 be f0 c6 12 3e
       0.086290665 -0.055699714 -0.22050641 0.14333701
0000b0 88 67 4d be 11 9a 37 3e b6 bc d9 be 6d 5b d1 be
       -0.20059025 0.17929865 -0.42526788 -0.40890065
0000c0 1f c6 87 be 64 f2 21 bd 3c 06 cd 3d e4 14 25 3e
       -0.26518342 -0.039537802 0.10010955 0.1612125
0000d0 69 6d 4b bc ba 4e 5d 3d 26 dc db 3c 29 3f 52 3e
       -0.012416222 0.054030158 0.026838373 0.20531906
0000e0 b5 ae e9 3d e8 19 f2 3d 91 cf 27 be 42 af 8e 3e
       0.11410276 0.118213475 -0.16387774 0.27868086
0000f0 4e 73 65 3e 08 51 46 be 1f 2a 93 bd 16 42 72 be
       0.22407266 -0.19366848 -0.07185768 -0.23658022
000100 1d 55 35 3d 56 d7 4f be bb 2e c8 3d b0 22 07 3e
       0.044270623 -0.20296988 0.09774538 0.13196826
000110 4f 44 11 be 49 03 f4 3d 9b 16 26 3d ba ab c8 3d
       -0.14186214 0.11914689 0.040548902 0.09798379
000120 61 8b 29 3e 5e 17 31 be 7d 77 b2 3d a5 30 90 3e
       0.16557075 -0.1729407 0.08714197 0.28162113
000130 7c c6 b9 3d 3e 2e 3e be ed ec 57 bd 5d 37 b7 3c
       0.09071061 -0.18572327 -0.052716184 0.022365266
000140 3b b4 1d be 1f 14 26 3d be f1 72 bb 22 58 e6 3d
       -0.15400784 0.040546533 -0.003707036 0.11247279
000150 92 36 8b be 50 d3 11 3c d3 fc 31 3d 8f 0e a6 be
       -0.2719007 0.0089004785 0.043454003 -0.32432982
000160 9e a8 91 be a1 50 3f be 43 c9 be 3d 92 16 76 be
       -0.28448957 -0.18683101 0.093157314 -0.24032047
000170 45 6e a3 be 66 53 dc 3d 77 05 e0 39 e9 ce 80 bd
       -0.31920066 0.107580945 0.0004272868 -0.06289465
000180 65 c6 ae be 96 49 74 be 29 7d 37 bd 19 cb d2 3d
       -0.34135738 -0.23856196 -0.044797096 0.10292644
000190 66 24 c7 3d f7 b1 a1 bd 6c 26 b1 b9 c2 ad 31 3e
       0.09723739 -0.07895272 -0.00033788697 0.1735144
0001a0 96 ca 82 be 75 eb 82 be a8 0b 4a 3d b7 d5 62 be
       -0.25545186 -0.25570264 0.049327523 -0.22151838
0001b0 0e 0d 4b be 4b a1 c5 3d 22 75 bf 3c 8f ee 0c 3d
       -0.19829199 0.09649905 0.023371283 0.034407195
0001c0 67 7c a2 be 6d 7e 9c bc 3d ab 0f 3e 94 38 ea bd
       -0.31735536 -0.019103253 0.14030166 -0.11436573
0001d0 0f 95 84 bd c5 f4 12 3e 1e 91 1f be 9a 24 80 3e
       -0.06473743 0.14351185 -0.15582702 0.25027925
0001e0 05 aa 0e be 36 6d 8b bd f2 63 b2 be cc fb 06 be
       -0.13932045 -0.0680794 -0.34841877 -0.1318199
0001f0 23 53 84 be 3d 34 a9 3d 41 8a 1d 3d e3 12 4b be
       -0.25844678 0.08261917 0.038461927 -0.19831423
000200 71 1e 4f 3d 8b f7 d4 3d 47 21 3d 3d b3 2e e0 3c
       0.05056614 0.103987776 0.046174314 0.027366018
000210 ea 04 f8 3d 7b e6 6b be 49 a5 d6 bd 1b 68 2e be
       0.12110312 -0.2303714 -0.104807444 -0.170319
000220 0a 6c 9a be 1b 60 c8 bd aa 7f 32 3e bf 78 db bd
       -0.30160552 -0.09783956 0.17431512 -0.1071639
000230 4b 3a b8 bd 31 a6 67 be a6 e7 90 bd 3e a2 83 3e
       -0.089954935 -0.2262199 -0.070754334 0.25709718
000240 97 e1 02 3b 3c ab a8 be 63 f1 bb 3e db 84 94 3d
       0.0019970888 -0.3294314 0.367076 0.07251903
000250 17 90 15 be 00 67 50 3e fe 30 37 bd 42 34 d2 3d
       -0.14605747 0.20351791 -0.044724457 0.10263874
000260 e7 33 ae 3d 94 6f 0a be fd 00 90 3e 41 69 e4 bd
       0.08505993 -0.13519126 0.28125754 -0.11152888
000270 74 e9 65 be a1 d4 38 3c a9 2e 7f be 48 07 4a 3e
       -0.22452337 0.011281163 -0.24920143 0.1972934
000280 4e d6 03 3d 57 f8 0f 3e 7e 49 84 3c 36 1a 19 3e
       0.0321868 0.14059578 0.016148325 0.14951405
000290 a7 90 92 bd e2 b9 39 be 1b 29 ca 3d 7b e6 28 3e
       -0.071564965 -0.18137315 0.098711215 0.16494171
0002a0 d2 5a 81 3e cc 69 ef bd cb 1b 59 3d 2e 82 cf 3d
       0.25264603 -0.11690101 0.05300502 0.10132252
0002b0 82 b5 d2 3d ec f3 25 3e b3 22 54 3e df e4 45 bd
       0.10288526 0.1620633 0.20716362 -0.04831397
0002c0 46 30 a5 3d f2 7c b7 bc 23 61 20 be ed fb 77 bd
       0.08065848 -0.022398446 -0.15662055 -0.06054299
0002d0 dd fd a5 3d f7 f6 39 bd d3 c4 8d be c6 4c a1 be
       0.08105061 -0.04540154 -0.27689227 -0.31503886
0002e0 cc d0 7c be 4b 56 db bd 6c ed d7 3d 1a 69 89 be
       -0.24689025 -0.107098185 0.105433315 -0.26838
0002f0 8a 3c aa bd 5b b2 1d be 5c 8a 97 3b c0 6f 0c be
       -0.08312328 -0.15400068 0.004624648 -0.13714504
000300 bd e6 d3 be 15 6c 0f be dc fc 4f be d3 b9 01 3e
       -0.41386977 -0.14006074 -0.20311302 0.12668543
000310 41 72 9f be 7d 1d f0 bd 31 7a 8e 3d 0e 4a bc be
       -0.31141856 -0.117243744 0.069569 -0.3677525
000320 3c b8 31 be 83 d1 be be 44 58 5d be 21 21 47 be
       -0.17355436 -0.3726922 -0.21615702 -0.19446231
000330 fb 01 b1 bd f8 92 e7 bd de e5 29 3d e7 76 2b be
       -0.08642956 -0.11307329 0.041478984 -0.16744576
000340 12 2b 8c 3e a5 c6 98 3e c5 7d af 3e 37 90 4e 3e
       0.2737661 0.29839054 0.34275642 0.20172201
000350 02 08 85 be a9 2b 80 3e 64 ac 10 3d 4c e4 43 3e
       -0.25982672 0.2503331 0.035320655 0.19130057
000360 59 27 99 3e 33 2c 1f 3e 12 0e ec 3e 78 1a d2 3e
       0.29912832 0.15544204 0.46104485 0.4103582
000370 88 18 f1 3d 10 5d f5 bd 89 1a 4a 3e 53 6c 62 be
       0.11772257 -0.11980641 0.19736685 -0.22111635
000380 35 1f 65 bd b6 0b 81 3e 71 fe 7b 3e 5d cd 81 3d
       -0.055937964 0.25204247 0.2460878 0.06337998
000390 49 7a 40 3e f8 97 62 be 25 4f e3 bb 2c 40 86 3e
       0.18796648 -0.22128284 -0.006936925 0.26220834
0003a0 05 65 97 3d 78 43 08 3d e6 b7 d1 3d 86 12 78 bd
       0.07392315 0.03326747 0.10240154 -0.06056454
0003b0 04 20 47 3e af f4 a5 3d 68 3f 40 3e 77 da f6 3d
       0.19445807 0.0810331 0.18774188 0.120533876
0003c0 47 01 6c 3d 78 23 79 3c 18 4f 99 bd b4 fe 64 bd
       0.057618406 0.01520621 -0.07485789 -0.055906966
0003d0 5d f9 65 3e 29 81 14 3e 98 90 ab 3d 5b 4e 23 be
       0.22458406 0.14502396 0.083771884 -0.15947859
0003e0 63 4e 93 be bd f3 e9 3c 47 a0 cd bd de 36 09 be
       -0.28770742 0.028558606 -0.10040336 -0.13399836
0003f0 10 e4 ce bd 95 e7 bf 3c f8 a8 01 3e 79 b5 da 3d
       -0.10102093 0.023425857 0.12662113 0.106791444

EncList.0.shrinkage.fc.3.bias f4 [16]
000000 33 11 4e be 25 ea 7c bd ad 5c 63 be f4 8b c3 3b
       -0.20123748 -0.061746735 -0.22203322 0.0059676114
000010 60 a1 93 3e c1 af 82 3d 15 3a 23 3e 07 af f2 bb
       0.28834057 0.06381179 0.15940125 -0.007406119
000020 18 1e 57 3e ff 83 ca 3e f5 a7 f4 bd 04 cd a7 bd
       0.21007574 0.3955383 -0.11946098 -0.081934005
000030 66 15 b1 be 46 c5 f8 3d 4d 7b d7 bd a2 34 5e 3e
       -0.34586638 0.12147002 -0.10521565 0.21699765

EncList.1.conv.weight f4 [32, 16, 5]
000000 4a aa 40 3c 56 51 38 be fc 0b 68 bd ae 24 ca bd
       0.01175935 -0.17999777 -0.056652054 -0.09870277
000010 7a 4f e5 bd 13 96 2d 3d b0 14 24 3d 8d df b4 bc
       -0.111967996 0.04237945 0.04005879 -0.022079254
000020 d1 3a af 3d 1b 6e d4 3d a3 1a f4 3d 7c de a3 bc
       0.0855614 0.103725635 0.11919143 -0.02000355
000030 b1 b1 88 3d 10 24 86 bd 51 83 b1 bd 10 28 c3 bb
       0.06674517 -0.06549847 -0.08667625 -0.0059557036
000040 3a a0 e0 bd 2b c0 bb bd 14 87 19 be a3 96 b9 bd
       -0.10968061 -0.091675125 -0.14992934 -0.09061935
000050 42 1f 69 3d b8 0c a7 3d 62 c3 01 3c 99 90 e0 bb
       0.056914575 0.08156723 0.007920118 -0.006853175
000060 a0 cc eb 3d 95 36 82 bd 0c 3e 38 be d5 72 b7 bd
       0.115136385 -0.06358067 -0.17992419 -0.08957449
000070 de 93 99 bd af 1f 21 bd 7d d7 18 3e 73 1c b5 3d
       -0.074989066 -0.039336856 0.14925952 0.08843317
000080 0c 4e 0b 3e 9c bb a4 3d 32 8a e2 bd 8d 2a 20 be
       0.13603991 0.08043596 -0.11061515 -0.15641232
000090 3c b3 5d bd 0a b5 35 be c2 bb 1c be 92 57 2e 3d
       -0.05412601 -0.17744842 -0.15305999 0.042563982
0000a0 3e 27 2a be 23 ad d3 bd 97 0a 62 3d 23 9f a3 bd
       -0.16616532 -0.103357576 0.05518588 -0.07989337
0000b0 01 66 f7 3c 72 9c e3 bd 5c 1a 48 3c 33 80 9c bd
       0.030200006 -0.11113824 0.012213316 -0.076416396
0000c0 86 48 ae bd 40 4e f3 bb f6 8c b4 3d 20 8e 11 3b
       -0.085099265 -0.0074250996 0.08815949 0.0022209957
0000d0 03 aa 1c bb ea 09 06 be 14 28 98 bb 07 57 bb 3d
       -0.0023905046 -0.1308972 -0.0046434496 0.091474585
0000e0 02 46 1d 3d bd af 1f be 75 91 d9 bd 6e 7d 4c bd
       0.038396843 -0.15594383 -0.10623447 -0.049924307
0000f0 38 63 9c 3d 57 c0 61 bc d9 bb 05 bd 5f 7d 90 3c
       0.07636112 -0.013778768 -0.03264985 0.017637907
000100 9b b7 95 3c 87 41 72 3d 2c 67 e5 3d eb 27 03 bc
       0.018276026 0.059144523 0.11201319 -0.008005123
000110 bc e5 ac 3d 4b 3d a9 3c 48 c8 d8 bd 1b e4 21 be
       0.08442256 0.02065911 -0.105850756 -0.15809672
000120 c9 4f 25 3d 00 0e db 3c c9 4f ce bc d1 9d d4 bd
       0.040359292 0.026740074 -0.025184529 -0.103816636
000130 b0 b2 cc bd 19 8c 79 bd 08 f3 1d 3c 57 df b8 3d
       -0.099950194 -0.060924623 0.009640463 0.09026974
000140 f5 e5 06 bb ac fa 97 ba de 9f 7b bc 83 af 3f 3d
       -0.0020583842 -0.0011595092 -0.0153579395 0.04679824
000150 d2 20 e6 bd 4a 57 27 bd d8 53 8b bd 9c 3a 1a 3e
       -0.11236729 -0.04085473 -0.06803101 0.1506142
000160 ca a9 c6 3d aa 6d 11 bd 86 c8 ec 3d 39 9a 8a bd
       0.097003534 -0.035504974 0.11561684 -0.06767697
000170 5f 9b 52 3d fb f5 d6 3d 08 ce 2d 3d 05 b4 0b bd
       0.051417705 0.10496136 0.042432815 -0.034107227
000180 27 15 cd bd f0 1d 55 3d f8 ba c9 3d 6e d0 8d bd
       -0.100138 0.052030504 0.098501146 -0.069245204
000190 a3 23 01 3d c1 08 5b 3d d6 30 e4 3b 59 8d 05 be
       0.031528126 0.053475145 0.0069638295 -0.13042201
0001a0 29 5e 86 bd 96 36 99 bc cd 00 0c 3c 58 68 96 3c
       -0.065609284 -0.018702786 0.008545113 0.018360302
0001b0 95 f2 23 be b9 08 0f be 48 cf a1 3c eb 6e ae 3d
       -0.16010506 -0.13968171 0.01975216 0.0851725
0001c0 25 8e ad 3c 5b 15 9c bd bc 4f 1f 3e 87 fb a3 3d
       0.021185944 -0.07621261 0.1555776 0.080069594
0001d0 61 b0 4e bd ec e1 1b be 49 fe 3c be 3f 32 84 bc
       -0.050461177 -0.15222901 -0.18456377 -0.01613724
0001e0 3b 11 bd bd c2 d3 b9 3d 49 ea 58 3d 93 cf a1 bc
       -0.09231802 0.09073593 0.052957807 -0.0197523
0001f0 9a af a8 3d 98 c6 10 3c 65 16 d7 3d 97 29 1a 3c
       0.08236618 0.008836411 0.10502318 0.00940933
000200 0d c2 be ba 1e d4 db bd f9 7b fa bb 6a f4 10 bd
       -0.0014553681 -0.107338175 -0.007644173 -0.03538934
000210 2e 46 7e bd 6f 7b 1f 3e 15 35 f9 3d 31 7f f2 3d
       -0.062078647 0.1557443 0.12168328 0.11840666
000220 d8 d5 9b 3d d7 18 3a 3d d0 0d 52 bc 51 54 32 3b
       0.07609147 0.045433845 -0.012820676 0.00272109
000230 bd f4 4e 3d 92 53 b7 3d 63 4e a8 bd ec ed 18 be
       0.05052637 0.08951487 -0.08218076 -0.1493451
000240 6c 1f b6 bd 5d a7 15 3e f0 bb 4e bc d7 88 0b 3d
       -0.08892712 0.14614625 -0.01261805 0.034066048
000250 7f 54 dc bd 7a 46 93 bd ff 14 d6 3d 12 51 6d 3d
       -0.10758304 -0.07191177 0.104532234 0.057938643
000260 fb 16 9e bb 9d c7 5a bd e2 41 31 3c a0 9d 10 3d
       -0.004824517 -0.053413022 0.01081893 0.035306573
000270 33 1f 16 3e f3 d2 2d 3e d2 57 7a 3e 2d 20 ba 3d
       0.14660339 0.16975002 0.24447563 0.09088168
000280 3c d7 4c 3d b0 01 e5 3d 79 c4 0d 3e 7c a7 85 3d
       0.05000995 0.111819625 0.1384448 0.06526086
000290 20 ca 55 3d a9 42 ee bd fe 26 f0 bc f7 44 d6 bd
       0.052194715 -0.11633808 -0.029315468 -0.10462373
0002a0 2d 27 2f bd 34 96 18 3d a1 27 5b 3e 18 38 8f 3d
       -0.04276197 0.03725262 0.21401836 0.06993121
0002b0 48 10 0c 3d 8b 1a 44 bd 4c 89 b4 3c fc cd 84 bd
       0.034195215 -0.047876876 0.022038125 -0.06484601
0002c0 2c 65 df bc 58 45 01 3e 2c 63 ea 3d a1 cb 5f bd
       -0.027269922 0.12624109 0.11444697 -0.054637555
0002d0 51 84 aa bc 15 5e bc bd e8 d2 3e bd 51 e8 61 3c
       -0.020815047 -0.09197632 -0.046587855 0.013788299
0002e0 33 7b aa bd 1b 82 c4 3d 43 35 07 3e 62 00 8a 3d
       -0.0832428 0.09595128 0.13203911 0.06738354
0002f0 aa 5b 8f bc 23 bb f8 3c b4 41 ab bd 6d 09 57 bd
       -0.017499764 0.030362671 -0.08362141 -0.052499224
000300 4f 6f 3f be 96 39 53 bd 13 a1 16 bc b8 48 a5 3c
       -0.18694805 -0.05156859 -0.0091936765 0.020176277
000310 b9 58 65 3d 0f e8 e6 3d 1f 88 8b bd 3c 19 19 be
       0.055992816 0.112747304 -0.068130724 -0.14951032
000320 0c 02 1a 3c 80 8a 97 bd 39 58 b2 bd d6 72 0e bd
       0.009399902 -0.07399464 -0.087082334 -0.034777485
000330 6f c5 8e bd 9b b3 ab bd b6 9f fb bd 4a 9b cd 38
       -0.06971251 -0.083838664 -0.12286322 9.8040866e-05
000340 ca ef 43 3c 79 e0 15 3d 31 65 f8 bc 79 38 ad bc
       0.011959026 0.036591027 -0.03032169 -0.021145092
000350 78 39 c4 3d 76 4b f3 3d 54 24 8d bd 32 25 f4 3d
       0.09581274 0.118796274 -0.06891695 0.11921157
000360 83 0c 37 3c 9a aa 29 3d 83 6e 06 3d 33 82 f0 bc
       0.011172417 0.041422464 0.032820236 -0.029358959
000370 3f 32 53 bd 05 4c 35 3d 41 b4 b1 bd c3 50 15 be
       -0.05156159 0.04426195 -0.08676959 -0.1458159
000380 fa 18 96 3d 18 ac 83 3d a2 4c 8d 3d 89 b7 e2 bd
       0.07328983 0.06429309 0.06899382 -0.11070163
000390 d9 95 59 3d 1e f6 3e bd a7 c0 55 3c a9 16 76 bb
       0.05312142 -0.046621434 0.01304642 -0.0037550128
0003a0 c1 2c ba bd da 90 7b bd 53 36 67 bd 6b 92 88 3d
       -0.090905674 -0.061417438 -0.056448292 0.06668552
0003b0 95 db 20 bd d3 5e 92 3b eb 3e 00 be 2d 2e ec bc
       -0.03927191 0.0044668703 -0.12524001 -0.028830612
0003c0 30 63 aa 3c e7 d9 7a 3d ef 93 9a 3d e0 91 05 3e
       0.02079925 0.061242964 0.07547747 0.13043928
0003d0 60 ad 0a 3d 97 48 66 bd 53 16 d5 bb da 86 10 be
       0.03385675 -0.05622157 -0.0065029054 -0.14113942
0003e0 bd 49 3e 3d 34 57 8e 3c 2e 2e 22 3d 42 7b 0c 3d
       0.04645704 0.017375566 0.03959482 0.034297235
0003f0 b1 a3 9c bd 72 ac a6 3d e8 e3 ea bc 93 24 8e bd
       -0.07648409 0.0813836 -0.028673127 -0.0694057

EncList.1.conv.bias f4 [32]
000000 66 20 97 bd b3 20 11 bd 04 82 c6 bc eb f7 36 be
       -0.073792264 -0.035431575 -0.024231918 -0.1786801
000010 31 c7 9b bd fa bf 4f be cb 81 28 3e f5 e5 93 bd
       -0.07606352 -0.20288077 0.16455762 -0.07221595
000020 f5 4a 1a be 5f 9b 06 3e 72 bd d9 3d d2 8a 06 3e
       -0.15067656 0.13145207 0.10631837 0.13138893
000030 52 76 a0 3e 2a f7 09 3e 9e e9 06 be 66 f4 d6 3d
       0.3134027 0.13473192 -0.13175055 0.10495834
000040 5f 88 84 be 03 73 f8 3d da d5 95 3b b0 7f 0b 3e
       -0.25885293 0.12131312 0.0045726122 0.13622928
000050 aa 64 d6 bd 1f 21 80 3e 4a e2 a0 bd d9 78 be bd
       -0.10468419 0.2502527 -0.07855661 -0.093003936
000060 7c ba 83 3d 40 4d 23 be a4 89 9c be 32 58 9c 3d
       0.064320534 -0.15947437 -0.3057376 0.076340094
000070 c8 9b 82 bc 7b c0 c6 3d cb fa 1e be a2 b1 76 3e
       -0.015943423 0.097046815 -0.15525357 0.24091199

EncList.1.shrinkage.fc.0.weight f4 [32, 32]
000000 af 99 07 be eb 12 20 3e b2 10 4d 3c db e7 99 bc
       -0.1324222 0.15632217 0.0125161875 -0.018787315
000010 c0 83 00 3e c8 ce 13 3e ac 88 92 3d 00 37 96 bc
       0.12550259 0.1443435 0.07154974 -0.018336773
000020 62 e9 ec bd 2f 3f ad bd e1 8a 00 3d d1 70 99 3d
       -0.11567952 -0.08459317 0.031382445 0.07492221
000030 97 ed bc bd 82 75 20 be 21 2e 88 be ca 57 be 3d
       -0.09225004 -0.15669826 -0.26597694 0.09294088
000040 76 22 43 3b 23 6b 51 3d cb a0 0a 3e dd ec 7c 3d
       0.002977518 0.051127564 0.135379 0.061749328
000050 ab 3f 99 bd 3a 98 06 be 3a 00 70 3e d8 f5 2b 3d
       -0.07482847 -0.13144007 0.23437586 0.0419825
000060 ce 69 85 bd 02 7b f3 3d d5 aa 74 3d 26 5d f6 3d
       -0.06514321 0.11888696 0.05973323 0.120294854
000070 72 9b eb bd 26 86 ae bd 6b 54 16 3e 6b 69 e2 bd
       -0.11504258 -0.085216805 0.1468064 -0.11055263
000080 c3 dc 8e bc b1 be e7 3d 0b 8c 02 be 63 96 e0 bc
       -0.017439252 0.113156684 -0.12748735 -0.02741546
000090 b7 7c 45 be 19 ae 64 3c a1 d7 f3 3d 8a d4 fd 3d
       -0.19285856 0.013957524 0.11906362 0.12394054
0000a0 81 67 f6 bd 50 4e 74 be 51 7f 16 3d fd 66 4b be
       -0.120314606 -0.23857999 0.036742512 -0.19863506
0000b0 83 c7 2c bc 94 fb 47 bb 5f e8 f7 bb 9c 55 bf 3c
       -0.010545614 -0.0030514942 -0.0075655426 0.023356251
0000c0 f7 2b 28 3d 4b 51 16 bd a6 97 37 3e 3a c4 a3 bc
       0.041057553 -0.03669862 0.17928943 -0.019991029
0000d0 9a 16 3d 3e 31 0b b2 bd e1 e4 dd bc 0a a2 4e bc
       0.18465653 -0.08693541 -0.027086677 -0.012611875
0000e0 42 1f b4 bd de 91 f5 bd cf 74 c5 bd 61 ed df 3c
       -0.087950245 -0.119907126 -0.0964142 0.02733487
0000f0 07 22 38 bd 26 17 bc 3d 56 99 23 be 41 6c b4 bb
       -0.044954326 0.09184103 -0.15976462 -0.005506069
000100 6e 15 37 3e 89 54 0c be 4d 02 25 bd d3 3e c7 bc
       0.17879269 -0.13704123 -0.040285397 -0.02432195
000110 c5 41 ce bc a5 db 38 bd 82 ed 8f 3c 82 24 c8 3d
       -0.025177846 -0.045131344 0.017569307 0.09772588
000120 e0 d1 d3 3d 7d fe da 3d c6 7e a4 3c 9b 22 c9 bc
       0.10342765 0.10693071 0.020079982 -0.024552634
000130 a1 b5 d5 3d 62 59 12 3e 2f 40 9d 3e 2a 4a 18 be
       0.104350336 0.1429191 0.3071303 -0.14872041
000140 0f 49 4a 3e ae 6a 04 bd f4 b0 29 3e d9 e4 b1 3d
       0.19754432 -0.0323283 0.16571409 0.08686227
000150 b9 7c 79 3d 0b 58 9b bd bf 5f f7 3d ca 7a 31 3e
       0.06090996 -0.07585152 0.12078809 0.17331997
000160 07 4d b3 3d d6 50 cd bb e0 96 1a 3e 7b d0 41 be
       0.08754926 -0.00626574 0.15096617 -0.18927185
000170 41 ab a9 3d 26 a0 e9 bd 49 25 cc bd c3 c6 36 3e
       0.08284617 -0.11407499 -0.09968049 0.17849259
000180 72 73 b0 3d e9 4f 1d 3d f2 7d 6d be 53 8c b1 bd
       0.086157694 0.038406286 -0.23192576 -0.08669343
000190 c4 da 5d bd 5f 40 3b be 4e 64 50 bd 8a 2d c6 bd
       -0.05416371 -0.18286274 -0.050876908 -0.09676655
0001a0 e4 94 35 be 5b d3 16 be 63 06 9d 3d a7 88 16 be
       -0.17732579 -0.14729063 0.07667234 -0.14700566
0001b0 fd 20 e4 bd 14 53 b7 3d b5 de 00 3e b6 59 d5 3d
       -0.111391045 0.08951393 0.12584956 0.10417502
0001c0 38 39 4b be e7 bc 7c 3d c7 90 59 bc de 60 b2 3d
       -0.19846046 0.06170359 -0.0132791465 0.08709882
0001d0 f4 14 e4 3d 05 1d b9 3d 82 8f ae 3d 55 97 21 3e
       0.11136809 0.09038738 0.08523466 0.15780385
0001e0 19 2e 03 be 95 bb 5e 3d c0 39 21 bd 8a e9 2d 3d
       -0.12810554 0.05437811 -0.039361715 0.04245905
0001f0 2a eb 20 3d 15 06 47 3e 36 07 8c 3d b7 f0 21 3c
       0.03928677 0.19435914 0.06837313 0.009884051
000200 f0 f8 34 be e9 7c 7c 3d 27 21 36 3e 5b d9 0d be
       -0.17673087 0.06164256 0.17786084 -0.13852446
000210 37 50 1b 3e c5 fd 08 be 00 45 e1 bc bb 7a 09 be
       0.15167318 -0.13378055 -0.027498722 -0.13425724
000220 8f 40 d1 bc f6 ab ae 3c 56 ee cd 3d c9 49 22 bd
       -0.02554348 0.021322232 0.100552246 -0.03962115
000230 f6 82 88 3d 96 41 9e 3d 9e 33 d1 bd e5 aa 9a 3e
       0.06665604 0.07727353 -0.10214923 0.30208507
000240 7d e6 13 be df fe 65 bd 1e 57 60 be 1a e5 34 be
       -0.14443393 -0.056151267 -0.21908233 -0.1766552
000250 10 65 35 be 29 08 fe 3d 40 ad bb bd f0 1b e3 bd
       -0.17714334 0.124039 -0.09163904 -0.11089313
000260 99 58 ac 3d 7a 30 3e bd 05 13 3a 3d ab 79 18 be
       0.08415336 -0.04643295 0.045428295 -0.14890163
000270 b7 72 2a 3e 24 16 1e 3e 6f 0d 0c be 5d 8c bb 3d
       0.16645323 0.15438133 -0.13677 0.091576315
000280 93 71 8c bd e8 72 3c bd 32 58 73 3e 8a ea 81 bc
       -0.068576 -0.04600802 0.23764113 -0.015858907
000290 eb bb e2 3d 93 07 2c 3d 74 6f 84 bd 2b c7 4f 3d
       0.11070999 0.04199941 -0.064665705 0.05072705
0002a0 a0 bf ce 3d dd e5 b6 bd da f8 61 bd 8b 93 82 3d
       0.10095143 -0.08930562 -0.055168964 0.06375798
0002b0 b5 8a 4a 3e 07 57 c0 ba e9 96 8a 3d 1b 07 c3 3d
       0.19779475 -0.0014674374 0.06767065 0.0952284
0002c0 e2 c3 97 3d 82 97 a1 3c a1 65 84 3d cf b2 d2 3c
       0.074104086 0.019725565 0.06464697 0.025720028
0002d0 ed 86 49 bc 39 65 5f 3d dd 58 9b be f2 08 43 be
       -0.012300235 0.054539893 -0.30341235 -0.19046381
0002e0 ff e6 8f 3c f7 21 16 3e 4f 3d 88 bd b4 ee c7 3b
       0.017566202 0.14661394 -0.06652319 0.0061014537
0002f0 80 5f 1e 3e 67 d4 ef 3c f3 fe 07 be c0 e4 33 be
       0.15466118 0.029276086 -0.13280849 -0.1756773
000300 e6 38 6a 3c e8 d3 a7 bd f7 dd 04 be 89 d7 03 3e
       0.014295792 -0.08194715 -0.12975298 0.12875189
000310 dc 53 4e 3d da 52 13 3e 8f 53 90 be b9 c7 87 bc
       0.050372943 0.14387074 -0.2818875 -0.016574727
000320 db 31 52 be df 72 80 bd c5 4e 5b bd 27 71 8d bd
       -0.20526831 -0.0627191 -0.053541917 -0.06906348
000330 fa df c4 bc a6 65 5e bc 0f 79 0d 3e d4 1d 2e 3e
       -0.024032582 -0.01357404 0.13815711 0.17003566
000340 a3 13 4e 3e f1 c0 3c 3e 05 e3 c5 3d f1 b2 87 bd
       0.20124678 0.18432976 0.09662441 -0.06625927
000350 f2 b5 91 3d 7e 30 d1 bd 42 02 35 bd 71 32 b7 3d
       0.071147814 -0.10214327 -0.044191606 0.08945168
000360 ce 6b 1f bd ad 16 55 bd 9c 52 3b bc 85 f3 fd 3d
       -0.03892117 -0.05202358 -0.01143327 0.12399963
000370 c2 65 8e bc 62 0a 8b bd 85 f3 cd bc c2 98 23 be
       -0.017382506 -0.0678909 -0.025140533 -0.15976241
000380 5e b6 10 3e 30 f3 16 be 80 b6 36 3e 36 ec b1 3d
       0.14132068 -0.14741206 0.17843056 0.08687632
000390 be 95 ef bc 13 49 6b 3c 17 f9 aa bd 75 19 31 3d
       -0.029246207 0.014360684 -0.08348291 0.04323717
0003a0 e3 17 85 bd f3 3d 0d be 15 ad 8e bd b7 88 4c bd
       -0.06498697 -0.13793163 -0.069666065 -0.04993507
0003b0 85 fa 4d be 0b 20 f4 bd 89 0a 8d be 93 48 7a bc
       -0.20115097 -0.11920174 -0.275471 -0.015276092
0003c0 df 9f b2 3c bd 32 8c 3c 39 bd 05 3e 8c 16 b7 3d
       0.021804748 0.017114038 0.13060464 0.08939847
0003d0 b6 f5 09 bc bf f5 95 bd c4 16 5b bd 13 a4 59 3e
       -0.008420398 -0.07322263 -0.053488508 0.21253996
0003e0 76 ee 14 3e 56 e8 22 be 33 66 05 3d bb 4c ed bc
       0.1454409 -0.15908942 0.032568168 -0.028967252
0003f0 7e ac 3e 3e a0 90 0b 3e 76 83 86 3d 0b 35 66 bd
       0.18620488 0.13629389 0.06568043 -0.05620293

EncList.1.shrinkage.fc.0.bias f4 [32]
000000 20 2b 2c be c8 7a 66 bc 5c 86 15 3e 28 ea 55 bc
       -0.16813326 -0.014067359 0.14602035 -0.0130563155
000010 79 f3 23 bd 2f ed c7 3c 67 a0 2d be 3f b7 00 3e
       -0.040027115 0.02440509 -0.1695572 0.12569903
000020 93 b3 2f be 8d 68 c6 bd 6e 50 49 3d 6e 65 b2 bd
       -0.17158346 -0.0968791 0.04914897 -0.087107524
000030 1f 01 9c 3d 68 50 71 bd 25 39 c0 3d ae ac 24 3e
       0.07617401 -0.058914572 0.093858995 0.16081497
000040 c0 40 32 bd 7e a2 09 be 4f 29 fd 3b 41 af f9 3d
       -0.04351878 -0.13440892 0.0077258716 0.1219163
000050 19 ec 04 bd 8e 95 36 bd 8f 53 18 3e 91 a1 79 3c
       -0.032451723 -0.04457622 0.14875625 0.015236274
000060 31 29 28 be 6f c4 3d bd ba cb d5 3d cc f6 ea bd
       -0.16421963 -0.04632991 0.104392484 -0.11472854
000070 60 52 2b 3e 8b ee 0b 3d 07 40 25 bc 98 d7 a2 bd
       0.16730642 0.03416304 -0.010086066 -0.079512775

EncList.1.shrinkage.fc.1.weight f4 [32]
000000 4c 1d 85 3f 5a 2a 75 3f 01 e5 65 3f ee 9a 76 3f
       1.0399566 0.9576775 0.8980256 0.96330154
000010 7d ac 80 3f 83 6a 7e 3f ae 54 84 3f 2d c3 7e 3f
       1.0052639 0.99381274 1.0338342 0.99516565
000020 25 94 83 3f 39 5d 80 3f 53 8a 88 3f 8a df 85 3f
       1.0279585 1.0028449 1.0667213 1.0458844
000030 1c a4 86 3f a7 9a 7c 3f c3 54 80 3f 21 ed 88 3f
       1.0518832 0.9867348 1.0025867 1.0697366
000040 47 56 86 3f 17 93 85 3f a1 b4 88 3f 17 10 7d 3f
       1.049508 1.0435513 1.0680124 0.98852676
000050 dc 23 83 3f 1f 1b 8b 3f b6 6e 89 3f d6 6a 85 3f
       1.0245318 1.0867652 1.0736911 1.0423229
000060 21 f1 78 3f 39 16 7f 3f 99 7d 83 3f c9 3f 80 3f
       0.97242934 0.99643284 1.0272704 1.0019466
000070 2c 50 85 3f bc c6 8c 3f 25 fa 7d 3f 87 fe 89 3f
       1.0415092 1.0998149 0.99209815 1.07808

EncList.1.shrinkage.fc.1.bias f4 [32]
000000 32 6b c6 3c a0 8e 66 bd 2e 3f ab bd 36 4b 2d be
       0.024221037 -0.05628836 -0.0836166 -0.16923222
000010 b1 17 5a be 34 f6 6d bc 2e a2 c9 bc 6b eb f6 3b
       -0.212981 -0.014524031 -0.024613466 0.007535388
000020 98 08 8c bd 26 00 8b bc 7a 71 63 3d ef b7 a2 3e
       -0.06837577 -0.016967844 0.05552814 0.31780955
000030 00 f4 c1 3c aa 52 e1 bd b0 44 1d bd 34 6c 7f bd
       0.023675919 -0.11002095 -0.038395584 -0.06235905
000040 e8 26 a1 3d 80 d9 95 bb 65 bb 1f 3e 8d 92 3a 3e
       0.07868749 -0.004573047 0.15598829 0.18219967
000050 79 b8 df 3c ae 7e 81 3e 50 5b 77 3d c6 67 ad bd
       0.027309643 0.2529196 0.060389817 -0.08467059
000060 8f b8 04 be ae a9 c4 3d c1 a5 a0 bc a8 a7 51 bc
       -0.12961029 0.09602676 -0.019610288 -0.01279632
000070 9e 22 27 3d ac ac 4c 3e 12 58 54 bd 4b 0a 4e bd
       0.040804498 0.19987744 -0.051841803 -0.050302785

EncList.1.shrinkage.fc.1.running_mean f4 [32]
000000 fa 7a 6d bd 33 19 b9 bc c5 d6 f2 be 83 99 ba 3d
       -0.057978608 -0.022595024 -0.4742948 0.09111311
000010 98 71 b2 3e c9 c5 f3 3d 92 23 3e be 62 ed 49 3e
       0.3485229 0.11902959 -0.18568256 0.1971946
000020 53 da 05 bf 3f 81 9e 3e 7e 7a 8e be 72 af a6 3b
       -0.5228626 0.30957982 -0.2782783 0.0050868327
000030 94 e6 9f 3d 2b 06 ef 3e a5 27 8a 3e e5 49 93 3e
       0.07807651 0.46684393 0.2698337 0.28767315
000040 9d 0c 80 3d e8 d8 aa 3e bc e2 31 be dd d8 86 3e
       0.06252406 0.3336861 -0.17371649 0.2633733
000050 b8 14 c5 be 18 eb 45 bd 1e db 81 3e eb 3e d7 bd
       -0.3849237 -0.048319906 0.25362486 -0.105100475
000060 47 d3 db be 60 80 a6 3e 7b 99 2d bc ab 41 19 be
       -0.4293463 0.32519817 -0.010595675 -0.14966457
000070 5a d7 2e bd d3 79 f7 be 7d 40 e0 bc e2 cf 33 be
       -0.042685844 -0.48335132 -0.0273745 -0.1755977

EncList.1.shrinkage.fc.1.running_var f4 [32]
000000 96 a1 80 3c 76 86 82 3c 06 4a ec 3d 34 2c 81 3c
       0.01570205 0.015933257 0.11537556 0.015768148
000010 6f 2a 62 3d 69 1e 52 3c fe a6 dd 3c 2b 48 01 3d
       0.05521625 0.012824633 0.027057167 0.031562965
000020 d2 19 30 3d a3 ed bb 3d ad d3 55 3c 69 45 47 3d
       0.042993374 0.09176185 0.013050956 0.04865018
000030 3f 2a dd 3c 59 65 b5 3d d3 2f 29 3c 7b d1 99 3c
       0.026997684 0.08857221 0.010326344 0.018776646
000040 ab d2 ed 3c 0a 27 31 3e df 5c 31 3d 5f 03 69 3d
       0.029031118 0.17300048 0.04330146 0.05688798
000050 c5 39 01 3d b5 1a 67 3c 2b 15 1b 3d 4c 51 44 3c
       0.031549234 0.014105489 0.037861984 0.011982273
000060 d5 8d 47 3d e5 52 ea 3b 6a 74 76 3c da 43 5f 3c
       0.048719246 0.007150995 0.015042404 0.013627017
000070 14 54 4b 3d 90 7d 19 3e 35 78 19 3c bd fb 25 3c
       0.04964073 0.14989305 0.0093670385 0.01013082
