checkpoints/best_UNet_emb_snr_4.pth (torch, 66830 bytes, 62 tensors)

EncList.0.conv.weight f4 [4, 2, 3]
000000 ef 23 6a 3e bf 6a b2 3e 4d 4b 3a 3d 97 e4 32 3e
       0.2286527 0.34847066 0.04548197 0.17470013
000010 b1 02 89 3d 3b 2e c1 3e d0 51 d5 be 09 6e fc bc
       0.066899665 0.37730584 -0.4166398 -0.030814188
000020 8b 73 5a 3d 16 ae 1d be 72 ac e6 3e ff 0b 31 3e
       0.053332847 -0.1539844 0.4505344 0.17289732
000030 74 a7 d3 3d 06 aa ee 3d 6d df 90 3e b7 e5 53 be
       0.103346735 0.11653523 0.2829546 -0.20693098
000040 30 69 bb 3d ae 46 8c be 0b e4 7c be 31 33 fe 3c
       0.09150922 -0.27397674 -0.24696366 0.03103027
000050 11 ed 5e be b7 92 19 3d 0f cf 69 bd 65 ab 95 3e
       -0.21770121 0.037493434 -0.057082232 0.29232326

EncList.0.conv.bias f4 [4]
000000 0b 13 aa be 9b 6e 3b be 99 f8 f6 bd 92 bd 8f be
       -0.33217654 -0.18303911 -0.12059135 -0.28074318

EncList.0.bn.weight f4 [4]
000000 e5 e5 0c 3f f7 a5 0a 3f d1 7e 82 3f 0c 30 2d 3f
       0.5503829 0.5415949 1.0194951 0.6765144

EncList.0.bn.bias f4 [4]
000000 e9 a8 95 3f 1b af 5c 3e dc 97 09 3e 03 a2 25 bd
       1.1692172 0.21551172 0.13436836 -0.04043771

EncList.0.bn.running_mean f4 [4]
000000 9c 99 b5 be 92 66 38 be 20 5e 02 be 4a 60 8c be
       -0.35468757 -0.18007877 -0.12731218 -0.27417213

EncList.0.bn.running_var f4 [4]
000000 3d 06 5e 3f 6b cc 8b 3e 48 31 92 3e 77 6c 41 3e
       0.8672827 0.27304396 0.28553224 0.18889032

EncList.1.conv.weight f4 [8, 4, 3]
000000 06 df 1d bd 84 89 27 3e b6 d1 16 be f2 39 fd bd
       -0.03854277 0.16361052 -0.14728436 -0.12364568
000010 10 40 ed 3d af 9e 5a bd 9a 80 21 be 5b 78 5f be
       0.115844846 -0.05337399 -0.15771714 -0.21823256
000020 ac 23 7d 3e 35 85 3d bc 28 a7 56 be bc bb a4 be
       0.24720639 -0.011567404 -0.20962203 -0.3217448
000030 ba f6 ad 3c 00 97 f8 3d 2c ee ee bc 9c d9 fe 3d
       0.021235812 0.12138176 -0.029166304 0.124438494
000040 4c f2 a2 bd 65 1b 9c bd 51 01 30 3e fd f6 8a bd
       -0.07956371 -0.076224126 0.17188002 -0.067853905
000050 99 ab 1d be d0 64 db bd 90 c1 5d 3e 59 a2 76 3e
       -0.1539749 -0.10712588 0.2165587 0.24085368
000060 0c 7c af 3c d9 28 01 3e 7e d5 21 bd d1 25 6e 3d
       0.021421455 0.12613238 -0.039510243 0.058141533
000070 80 13 7c 3d 11 91 94 bd 6f 66 d3 bd 97 67 75 3e
       0.061542034 -0.07254232 -0.10322272 0.23965298
000080 03 27 80 3e e8 cf f7 bd 47 da 33 3d ea 27 e7 be
       0.25029764 -0.12100202 0.043909337 -0.4514764
000090 45 75 4d 3e db 7d af 3e 35 ae 51 3e 22 99 42 be
       0.20064266 0.34275708 0.20476611 -0.19003728
0000a0 89 62 42 be 0a e5 11 3d aa 02 5b bd 1a 5c 24 3e
       -0.189829 0.03561882 -0.053469338 0.16050759
0000b0 09 b7 8e 3c ce c3 b2 be 6d f4 cc bc c2 04 8b bd
       0.017421262 -0.34915012 -0.025018895 -0.06788017
0000c0 77 fb 8f 3e 27 95 14 bd a7 33 9e 3e a5 7c ed 3d
       0.2812154 -0.036275055 0.30898783 0.1159604
0000d0 bb ce 0d be af 7b a1 3e 2f d0 d8 3c e8 3b 69 be
       -0.13848393 0.31539676 0.026466457 -0.22776759
0000e0 71 de 44 3e 95 d6 bd bc b0 a3 3b bd 38 c5 7f be
       0.1922548 -0.02317361 -0.0458104 -0.24977577
0000f0 21 e7 86 bd c9 36 9f bd 01 d0 cb 3e f2 cb 8f 3e
       -0.06587053 -0.07774121 0.39807132 0.28085285
000100 ef de 85 3e 34 13 58 3e b0 c3 b6 bd 54 af 03 3a
       0.26146647 0.21101075 -0.08924043 0.00050233793
000110 15 20 fd bb a0 c9 58 be 7f f5 9c bc a1 54 cf bd
       -0.0077247717 -0.21170664 -0.01916003 -0.101235636
000120 1b e2 08 3e d1 fc 8b be 4f 72 13 bf d8 bc 94 be
       0.13367502 -0.2734132 -0.57596296 -0.29050326
000130 d2 ef eb bd 79 38 f1 bd c9 f7 10 3e 72 19 07 3c
       -0.115203515 -0.117783494 0.14157023 0.008245813
000140 61 be f8 bd 39 ac 41 bd 9f 67 58 3e f0 0a c2 bc
       -0.12145687 -0.047283385 0.21133278 -0.023686856
000150 2a 72 01 3d 3f d7 79 3d ad e7 8d bd f5 b4 16 bd
       0.031603016 0.06099629 -0.06928954 -0.036793668
000160 bc 26 32 be 66 e2 06 be ea 1c 03 be 84 ff 75 be
       -0.17397588 -0.13172302 -0.12803999 -0.24023253
000170 15 b5 6e 3d 35 da 28 3e 9b e7 c8 3b 6c 7e 9d 3e
       0.058278162 0.1648949 0.006131125 0.30760515

EncList.1.conv.bias f4 [8]
000000 2a f7 86 be b5 54 9f be f8 67 3b be 05 fa cd bd
       -0.26360446 -0.31119314 -0.1830138 -0.10057453
000010 23 6c 1c bd c9 d2 28 bd ec f8 fe 3d f7 83 67 be
       -0.038189065 -0.041216645 0.12449822 -0.22608934

EncList.1.bn.weight f4 [8]
000000 48 c2 51 3f 09 31 69 3f 16 2e 6c 3f 78 2a 6c 3f
       0.81937075 0.91090447 0.9225782 0.922523
000010 ee 75 39 3f 30 2b 5e 3f 9e e7 80 3f 40 d8 82 3f
       0.7244557 0.8678465 1.0070684 1.0222244

EncList.1.bn.bias f4 [8]
000000 81 b5 61 3e ff 72 ea bd 83 32 be bd 5d 20 01 3e
       0.22041894 -0.11447715 -0.09286978 0.12610002
000010 83 38 7a 3d e0 60 b4 3e 6c a5 b7 bd a6 95 04 3e
       0.06108905 0.3523016 -0.089670986 0.12947711

EncList.1.bn.running_mean f4 [8]
000000 07 61 ee be 5a de 0e be a0 a6 04 3c 5b 0c 22 3f
       -0.465584 -0.13952008 0.008096367 0.633001
000010 0d 9f 22 3f 0e ad c9 3e 0a 17 59 bf 01 99 ab be
       0.6352394 0.39389843 -0.8480078 -0.3351517

EncList.1.bn.running_var f4 [8]
000000 0b a7 3f 3d d1 fc ae 3c 2f 70 28 3e 37 e8 8f 3e
       0.046790164 0.021360787 0.16449045 0.28106853
000010 46 5a de 3d af 2c 9b 3d 22 dd 40 3e 8f 17 7f 3d
       0.10857062 0.07576882 0.18834355 0.062278327

EncList.2.conv.weight f4 [16, 8, 3]
000000 12 c2 6e 3d 39 46 fc 3a 72 cc 07 be 41 14 e0 3d
       0.05829055 0.0019247002 -0.13261583 0.10941363
000010 84 48 84 3d 94 47 3d 3e 0f 34 1e 3e 27 23 04 be
       0.06459144 0.18484336 0.15449546 -0.12904035
000020 4d 86 42 bd 37 f9 18 be f3 a8 0d 3d 13 4f 89 be
       -0.04749136 -0.14938818 0.03458495 -0.2681814
000030 89 e1 1d bd 32 42 31 be f5 df 60 bd b8 47 57 bd
       -0.038545165 -0.17310408 -0.054901082 -0.05255863
000040 75 45 68 be 4a ff 47 bd 44 b7 a4 3d 86 2c f8 bd
       -0.22682746 -0.048827447 0.08042768 -0.12117867
000050 ae f0 42 3e ed 4d 2b 3e 8d 52 32 3e d1 63 51 3d
       0.19037125 0.16728945 0.17414303 0.051120583
000060 20 b2 ae 3d d3 19 59 be 18 7c cd bd 10 6c 6e 3d
       0.085300684 -0.21201257 -0.10033435 0.058208525
000070 3c 3a d4 3d 58 e7 a5 3d ba 10 12 bd 90 05 88 3e
       0.1036267 0.08100766 -0.035660483 0.26566744
000080 8f 5a 0f be 5c c2 b8 3d a8 30 b9 3e a8 45 27 3e
       -0.13999389 0.09021446 0.36169934 0.16335166
000090 ec f1 d4 3d 44 aa 10 3e fb 86 cc 3d 16 10 72 3d
       0.103977054 0.14127451 0.09986683 0.059097372
0000a0 1b f8 3f 3e ab 5d 27 bd e2 4b 0c be c5 ec 54 be
       0.18746988 -0.040860813 -0.13700822 -0.20793445
0000b0 cf 25 b8 3d 3f d1 dc 3d ad 65 69 be 3c 94 06 3e
       0.089915864 0.10782098 -0.22792692 0.13142484
0000c0 af 62 e5 bd 63 fe d7 bd ba 2d 1e be 41 27 e7 3d
       -0.11200463 -0.10546567 -0.15447131 0.11286784
0000d0 20 54 8a bc 75 f5 b4 3c f5 0c 93 be eb 74 0f be
       -0.016885817 0.0220897 -0.28720823 -0.14009444
0000e0 96 ff 47 be 10 5a 8d be ec ef 65 be fb 84 f9 bd
       -0.19531092 -0.27607775 -0.22454804 -0.12183567
0000f0 d5 8d 8f be 5d b2 c8 bd 30 b8 86 be 24 d7 5f be
       -0.28037897 -0.09799645 -0.263124 -0.21859413
000100 ee ab 3e bc 38 79 01 be 53 6c 50 3e b2 0a d2 3b
       -0.011637671 -0.12643898 0.20353822 0.0064099664
000110 40 50 bb 3d 24 31 ba 3d 39 34 e8 bd 73 ac 07 3e
       0.09146166 0.09091404 -0.11338086 0.13249378
000120 01 87 02 bd 83 5f e0 3d d5 3f 35 bd 22 d3 b3 bc
       -0.03186703 0.109557174 -0.044250328 -0.021951262
000130 35 f8 0e 3d 5d ab 0e be b8 2b 84 bc db 08 95 bd
       0.034904677 -0.13932557 -0.016134128 -0.0727708
000140 8f f4 3e 3e a5 dd 7a 3d 6c 48 4d 3e 5e f2 fb 3d
       0.18647979 0.061246533 0.20047158 0.12302087
000150 04 04 db bc ad 36 86 3e 4b 4d 38 3e d6 38 ff bd
       -0.026735313 0.2621359 0.17998235 -0.124620125
000160 74 6d 77 bd 74 ed c1 bd 23 4b 80 3c 92 01 13 be
       -0.060407117 -0.09469119 0.015660828 -0.14356068
000170 45 9f 4d 3e a6 28 86 3e c5 b6 cc 3d 65 37 61 be
       0.20080288 0.26202887 0.09995798 -0.21993788
000180 b4 2c 34 bd e4 6b 60 3d 20 0c 9e bc 12 3b 4c 3d
       -0.043987945 0.054790393 -0.019292891 0.04986102
000190 e5 b7 a0 3d 15 3d 35 bc a1 a5 c2 bd 39 0b 3e 3e
       0.07847575 -0.011061926 -0.095042475 0.18558969
0001a0 54 97 25 3e 02 b3 54 be d5 2d 55 3d f3 f8 34 3e
       0.16171008 -0.20771411 0.052045662 0.17673092
0001b0 70 2c 42 be f5 3b 7c bc 35 af dc 3d d3 44 8a 3d
       -0.18962264 -0.015395154 0.107756056 0.067514084
0001c0 22 fc 1a 3e 18 8e ee bd 2d 00 d0 3d 2b 0c 2e be
       0.15135244 -0.11648196 0.101562835 -0.16996829
0001d0 91 92 13 be f6 b8 94 3e 83 55 b0 3c 6f f8 32 3d
       -0.1441138 0.29047364 0.02152515 0.043693956
0001e0 62 c0 85 3e c0 d5 e3 bd c4 7a ab be 21 f2 83 3c
       0.2612334 -0.11124754 -0.334921 0.016106667
0001f0 3b 52 14 3e 6d 90 32 3d e8 1d 10 3e 9f a0 45 3e
       0.14484493 0.043594766 0.14073908 0.19299553
000200 e8 5a cd 3d f6 39 35 be 56 e1 a3 3d 67 80 4d 3a
       0.100271046 -0.17697892 0.08001964 0.0007839263
000210 6f 84 46 bc 30 24 14 3d 6f e0 4d be 6f 4c 32 3a
       -0.012116536 0.036167324 -0.20105146 0.00068015506
000220 c4 49 c0 bd c2 9e 3a bd 5c 36 70 bb b8 e7 7e 3d
       -0.0938907 -0.04556156 -0.0036653494 0.062232703
000230 3e 27 27 3d 45 76 2a be 14 d1 74 be e0 38 ba 3c
       0.04080891 -0.16646679 -0.23907882 0.022732198
000240 19 96 1d be 0b 59 e8 bd 9e 28 41 3e 74 e1 e9 bc
       -0.15389289 -0.113451086 0.1886315 -0.028549887
000250 64 8b 26 be 8c 89 9c 3c 98 24 37 3e e8 40 b8 3c
       -0.16264111 0.019108556 0.17885053 0.022491887
000260 95 ff 4c 3d c6 1c eb bd 4a 39 18 bb a8 36 6c 3e
       0.05004843 -0.114800975 -0.0023227506 0.23067725
000270 47 f7 1a 3d 1e 07 33 3c fb 0c 7f bd 41 3c e2 bc
       0.03783348 0.01092699 -0.06226824 -0.027616622
000280 8f a6 51 3c a6 52 61 bd 7f 04 3a bd 01 6f 11 3d
       0.012796058 -0.05501046 -0.045414444 0.035506252
000290 ac bb 17 be 2f 44 36 be d0 e3 a1 be 67 2c 71 be
       -0.14817685 -0.17799447 -0.3161912 -0.23552094
0002a0 a0 b1 90 3a 6a 46 cb 3d f7 3b 03 3d 3c 9c af be
       0.0011039265 0.0992554 0.03203961 -0.34298885
0002b0 8e 17 84 be b1 d0 ec 3d 7d f8 c4 bd 53 04 4f 3c
       -0.2579922 0.11563242 -0.09617708 0.012635308
0002c0 2b a2 e7 3c 43 8d e0 bd 59 66 78 3d 1c a5 55 3d
       0.02827557 -0.109644435 0.06064448 0.052159414
0002d0 8e 2e c3 3d 93 a8 e0 3d 9c 86 3e 3e 2e c5 ae bd
       0.09530364 0.10969653 0.18606037 -0.08533703
0002e0 63 37 ef bd 75 6d 2d bd cc 56 bb bd 83 58 48 3d
       -0.11680486 -0.042340714 -0.091474146 0.048912536
0002f0 bb db ad 3c 33 0c 00 be 99 ee 5c be 48 22 ae bc
       0.02122294 -0.12504654 -0.21575393 -0.021256581
000300 bf 37 18 bd 84 c6 50 3e 61 cd 53 3d f5 7e d4 3c
       -0.03716254 0.20388228 0.051709536 0.025939444
000310 03 d8 87 3d d1 65 86 bc aa ac df bc 2e ba 06 3e
       0.06632998 -0.016405972 -0.027304012 0.1315696
000320 a5 07 47 be e1 84 a2 3d 77 50 85 3e f2 bb 11 3d
       -0.1943651 0.07935501 0.26037952 0.03557963
000330 02 af 45 bc 61 41 15 3e 47 eb 6a 3d 2e c1 ea 3d
       -0.012065651 0.14575721 0.057353284 0.11462627
000340 8f 60 7b bd fd 2c 3f be 7b a4 3b be 64 76 c3 3d
       -0.061371382 -0.18669505 -0.18324463 0.095440656
000350 9a fc 83 3e e6 05 fa 3d 52 bb 09 be 16 67 30 3d
       0.25778657 0.12208156 -0.13450363 0.04306706
000360 6c 4a 10 be dd 06 c1 bd c2 f0 87 be 26 27 39 be
       -0.1409089 -0.09425137 -0.2655087 -0.1808134
000370 c6 c0 f0 3d 97 b0 c1 3d 42 43 04 be c5 fa 2b be
       0.117555186 0.0945751 -0.12916282 -0.1679488
000380 47 66 5b be 2c 26 06 3e a5 3d 83 be 44 00 78 3d
       -0.21425734 0.13100499 -0.2563297 0.06054713
000390 e7 74 c8 3d 23 6d ca bd e7 1c ec bd 05 b4 1f 3d
       0.09787922 -0.098840974 -0.1152895 0.03899004
0003a0 21 8f 24 3e 52 3a 6c 3e 2c 1a 0c 3e 41 e7 98 bd
       0.16070224 0.23069122 0.13681859 -0.07465983
0003b0 0d b7 91 3d bd 48 84 3d 9a a3 b7 bd 5f 8d 49 3e
       0.07114992 0.06459186 -0.089667514 0.19682835
0003c0 0d e1 99 bd 63 57 ec bc 38 ef 46 bc b4 a8 0b 3c
       -0.07513628 -0.028850263 -0.012141995 0.008524109
0003d0 28 3b 46 bd 4e 36 a7 bd 07 bc be 3d 3e f1 34 3e
       -0.04839626 -0.08164655 0.09313207 0.17670152
0003e0 bd db 27 bd 59 9e 7b be d0 a2 bd bd 11 ed 9d be
       -0.040981043 -0.24572124 -0.0925957 -0.3084493
0003f0 cc c7 66 be c0 9b 1a be 58 62 21 3d 8e fa 24 be
       -0.22537154 -0.15098476 0.03940043 -0.16111204

EncList.2.conv.bias f4 [16]
000000 51 f3 d8 3c 83 fd 87 3d 1c 7d 49 be b2 90 9c bd
       0.02648321 0.066401504 -0.19676632 -0.07644786
000010 41 1e aa 3d 2e a7 18 3e ff 8e 62 bd 21 d4 3c 3e
       0.08306552 0.14907524 -0.055312153 0.18440296
000020 c3 3a 27 bd db ac fd bd 43 b2 a3 bd 75 2c e5 bc
       -0.040827524 -0.12386485 -0.07992985 -0.0279753
000030 48 67 0a bd ee a6 d5 3d 40 cb eb bd f7 ad 68 bd
       -0.033789903 0.1043223 -0.11513376 -0.05680653

EncList.2.bn.weight f4 [16]
000000 f5 e8 71 3f c2 fd 71 3f 8b 0e 73 3f 3d 03 7d 3f
       0.9449609 0.9452783 0.94944066 0.98833066
000010 e2 f6 6a 3f da f2 72 3f a1 60 79 3f 86 90 6f 3f
       0.91782963 0.9490181 0.9741307 0.935799
000020 f9 4d 59 3f 10 81 6b 3f 91 64 64 3f 33 31 6d 3f
       0.848846 0.9199381 0.8921595 0.926532
000030 0a 0c 74 3f 59 b4 75 3f 7f 8e 5e 3f 1f 5c 64 3f
       0.9533087 0.95978314 0.8693618 0.89203066

EncList.2.bn.bias f4 [16]
000000 61 e8 1c be 07 d7 99 3d 67 d8 84 3b 17 6b 60 bd
       -0.1532302 0.07511716 0.0040541175 -0.05478963
000010 3c 76 10 3d 56 1d 1a 3d 52 37 c3 3d 15 1c 9e 3d
       0.035269007 0.037625633 0.09532036 0.077202
000020 40 ba 93 be 98 b0 49 3d 99 68 08 3e 0e 50 0c be
       -0.28853035 0.04924068 0.13321151 -0.13702413
000030 8f 80 42 3d 3d ca f2 bd 6d 3b 2f 3e e3 94 80 3d
       0.047485884 -0.1185498 0.17112513 0.06278398

EncList.2.bn.running_mean f4 [16]
000000 25 8c 19 be 38 a0 e1 3e 59 70 7e bf e6 ff 1d 3e
       -0.14994867 0.4406755 -0.9939018 0.15429649
000010 cd 9c 89 3e 6e b5 61 bd f2 17 c6 be 17 a0 03 bd
       0.26877442 -0.055104665 -0.38690144 -0.032135095
000020 7a 48 87 3e eb 68 3c be f0 8b 4c bf ed 3d 9a 3e
       0.26422483 -0.18399398 -0.7990103 0.3012537
000030 f1 d5 aa be fd f0 86 3e 54 fe d3 bd f2 70 4b be
       -0.3336635 0.26355734 -0.103512436 -0.19867304

EncList.2.bn.running_var f4 [16]
000000 cf 06 bb 3e 52 ee c5 3e 94 3c 58 3f 23 08 f6 3d
       0.36528632 0.38658386 0.84467435 0.12013271
000010 8d 16 d7 3d f3 65 1c 3e 67 4b 97 3e 75 cc 8e 3e
       0.10502348 0.15273266 0.29549715 0.27890363
000020 3b 80 89 3d f0 d2 98 3e 18 72 4c 3e 04 50 0d 3e
       0.06713911 0.29848433 0.19965398 0.13800055
000030 82 2c 86 3d 77 03 ec 3d a4 f4 b7 3e b7 15 45 3d
       0.06551458 0.11524098 0.35928833 0.048116412

EncList.3.conv.weight f4 [32, 16, 3]
000000 1c e5 aa 3d 4a 02 7e 3d df a4 ff 3d a5 d4 dd bd
       0.083444804 0.0620139 0.124826185 -0.10831574
000010 49 a7 98 bd 00 fc a4 38 c5 7a 5b be c6 a4 8b 3d
       -0.07453782 7.867068e-05 -0.21433552 0.068185374
000020 b9 59 27 3e 47 c8 36 be 18 e1 ce bd 5b 49 6c bd
       0.1634282 -0.17849837 -0.10101527 -0.057687145
000030 b9 c1 e4 bb c3 3a 64 bc 4d 06 9d 3d 65 e0 a7 bc
       -0.0069811014 -0.0139300255 0.076672174 -0.020492742
000040 ee b0 ce bd e5 33 da bc 30 3f 2f 3e bd 83 9a 3d
       -0.100923404 -0.026636073 0.17113948 0.07544658
000050 19 fd 29 bd 9d 3a 17 3e 71 b1 62 bd 01 43 c0 3d
       -0.04150114 0.14768453 -0.055345003 0.0938778
000060 16 2e f4 bd 6e 2e 96 3b 13 fe 28 be fe 22 df bd
       -0.11922853 0.0045831716 -0.16503172 -0.10895346
000070 04 c4 09 be d9 92 0f 3e ab ca c1 bc bf 87 84 3c
       -0.1345368 0.14020862 -0.02365621 0.01617801
000080 17 df d0 bd fe b1 12 be 24 6e b2 3c af fd 12 3e
       -0.10198801 -0.14325711 0.021781035 0.14354585
000090 1d 71 57 3c 7b 54 bb ba 8b 74 d3 3c f1 af 84 3a
       0.013149527 -0.0014292145 0.025812408 0.0010123235
0000a0 c8 e3 28 3e 50 db 29 3e 29 da 3e bd 41 98 a9 bb
       0.16493142 0.16587567 -0.046594772 -0.005175621
0000b0 81 14 13 bd 82 c8 1b 3e 73 07 a1 3d ff 34 f3 3b
       -0.035908226 0.15213206 0.07862749 0.007422089
0000c0 2c 86 bf bd 8f 8c 21 3e 44 5e 87 3c f9 e4 a9 bd
       -0.09351763 0.15776275 0.016524442 -0.08295626
0000d0 0b a8 98 bc 7a 44 97 bd a0 ae 0a 3c 1b 12 0f bd
       -0.018634817 -0.07386108 0.008464485 -0.034929376
0000e0 d4 d6 fa bd 2c 08 25 bc 3e 30 27 bb 6f 3c 33 bd
       -0.122480065 -0.010072749 -0.0025510932 -0.043758806
0000f0 5e 9d a9 bc 53 6c 98 3d 62 0c ca 3d 25 ba 18 be
       -0.020704921 0.07442536 0.09865643 -0.14914759
000100 5a c4 d0 3d fa 44 8f 3d b9 42 ec bd 4d b9 57 bd
       0.10193701 0.06995578 -0.11536164 -0.05266695
000110 99 e3 3f 3d 07 f7 a5 3d b2 36 8b 3d 4c dd 31 bd
       0.046847913 0.08103757 0.06797542 -0.043423936
000120 bd 30 1c 3e 63 b0 72 3c 08 25 f0 bd 0f 18 bc bd
       0.15252967 0.014812562 -0.11725813 -0.09184276
000130 0b 88 e3 3b 5f 21 82 bd 84 d6 71 be 1b 0a 35 3a
       0.006943708 -0.06354021 -0.23616987 0.0006906108
000140 41 f8 41 3e 01 40 ff bd f7 91 53 3e 36 d6 86 bd
       0.18942358 -0.1246338 0.2066115 -0.06583826
000150 20 21 0a bd d3 aa 8e 3c 60 da a2 bd 01 4b ad 3c
       -0.033722997 0.01741544 -0.07951808 0.021153929
000160 4b 34 4d 3e 4e 0d 0d be 78 b6 29 be e7 88 20 3d
       0.2003948 -0.13774607 -0.16573513 0.03919306
000170 13 69 0e bd 85 57 5a bc ea 8b c7 3d 98 77 8a 3d
       -0.034768175 -0.01332653 0.09743483 0.06761092
000180 a2 2a 3a bd 15 36 1a 3d ad 63 99 bc 51 d3 94 bd
       -0.045450814 0.037649233 -0.018724287 -0.07266868
000190 16 7d a3 bd ff da 20 be 66 f6 29 3e 15 52 df 3d
       -0.079828426 -0.1570854 0.165979 0.10904328
0001a0 e6 15 d5 3d b4 39 bb 3b 00 a6 fb bd 1c 82 f7 bc
       0.104045674 0.005713666 -0.12287521 -0.030213408
0001b0 ff 69 a7 3c 53 d5 cd bd b4 6d 77 3d 31 4b 46 be
       0.020436285 -0.10050454 0.060407355 -0.19364621
0001c0 c7 7d 3b bd c7 b4 17 be 47 af 89 bd 97 e7 40 3d
       -0.045774247 -0.14815055 -0.067228846 0.04709586
0001d0 63 0f b3 3d c9 cd 28 3d ff 5b 45 3d 30 dc 0c bd
       0.08743169 0.041211877 0.048183437 -0.034389675
0001e0 50 0a 8c 3e 79 86 16 be 27 f3 a9 bc 37 c8 a5 bc
       0.27351618 -0.14699735 -0.020745827 -0.020237071
0001f0 bf a8 9f bd c3 cd 12 be 85 41 84 be 82 46 08 3e
       -0.07795858 -0.14336304 -0.25831237 0.13308147
000200 0f dc e7 bd 35 a9 2b 3e a8 1e ca 3d bc 3b d8 3d
       -0.1132127 0.16763766 0.098691285 0.105582684
000210 b7 44 75 3d 6e ec 1b bd bb d5 3a bd 66 a7 03 3e
       0.059879985 -0.038067274 -0.045613986 0.12856826
000220 62 9b 71 bd ee 08 c9 bd 11 96 18 bd a6 10 6f 3d
       -0.058986075 -0.09816156 -0.03725249 0.058365487
000230 1a a8 29 be c9 17 4f 3d 5e 86 1f be d5 cd 6b be
       -0.16568032 0.050559793 -0.15578601 -0.23027737
000240 02 e9 55 bc ac be 8e 3d 81 d4 15 3e c6 83 e4 3b
       -0.013056042 0.069699615 0.14631845 0.0069737164
000250 a5 87 fb bc d5 2a 05 bd 9a 23 b8 3d 7b 92 03 3e
       -0.030704329 -0.03251155 0.089911655 0.12848847
000260 f4 fd 71 3d f7 c8 3e be 81 d9 bc bd 43 42 60 be
       0.05908008 -0.1863135 -0.09221173 -0.21900277
000270 d5 d4 b6 3d a3 70 33 3d 2e 7c 7f 3d b5 78 8a 3c
       0.08927313 0.04380859 0.062374286 0.01690326
000280 ee 8e e0 bb 6f 21 08 be b4 bc 86 bd 01 34 35 3e
       -0.006852976 -0.13294004 -0.06578961 0.17695619
000290 db bb 18 be cd 23 17 3d d9 7d 6d bc 3d 26 ab bd
       -0.14915411 0.036899377 -0.014495336 -0.08356903
0002a0 5f b5 5e bc a0 21 10 be 2a b6 30 be b0 00 da bd
       -0.013593047 -0.14075327 -0.1725699 -0.106446624
0002b0 2a 85 85 3d be 3a 51 3e 1a dc bf bc 52 06 74 bd
       0.0651954 0.20432565 -0.023420382 -0.05957634
0002c0 86 8a 8b 3d 0b b1 78 bd d2 26 6a 3d 74 e9 df bd
       0.068135306 -0.060715716 0.05716593 -0.109331995
0002d0 f8 d5 d6 3d dc 13 c0 bd 13 23 ea 3b dd 11 fc bd
       0.1049003 -0.09378788 0.0071452945 -0.12308095
0002e0 7e 16 82 3d 9f bb 6e bd 01 22 ea 3d 6f 1f aa bd
       0.06351946 -0.0582844 0.11432267 -0.08306777
0002f0 39 c1 27 be f7 7b 19 be 81 99 8e be fe 20 dc bc
       -0.16382302 -0.14988695 -0.2785149 -0.0268712
000300 d0 37 c5 3d 38 fd 09 be 97 f7 4e be ba 4b d1 bd
       0.09629786 -0.13475502 -0.20211636 -0.10219522
000310 0d 69 69 3d fb 4c 0f 3e 47 58 8e 3e c9 18 bb bd
       0.05698495 0.1399421 0.27801725 -0.09135587
000320 5c 85 40 be ec 80 d7 3c 88 39 03 3e ac 03 c3 bd
       -0.18800873 0.026306592 0.12814915 -0.09522185
000330 7f 1d b1 bd d7 49 58 be e5 5f 83 be 3f 4b 92 3d
       -0.08648204 -0.21121918 -0.256591 0.07143258
000340 cc 3e d6 3c e5 ff a7 ba 6c 3a ef 3c 78 eb dd 3d
       0.02615299 -0.0012817351 0.029202662 0.10835928
000350 77 57 5c 3d 1e 8b 09 be 63 a8 5e 3d de 48 0c 3e
       0.05379435 -0.13431975 0.054359805 0.13699672
000360 df ab 4d 3d e4 ba 43 be 53 4f 51 be f7 03 28 bc
       0.050212737 -0.19114262 -0.20440416 -0.010254852
000370 19 33 fb 3c 5b 26 1a 3e 3e 7c 3b 3e 28 6c 7f 3c
       0.030664014 0.15053694 0.18309113 0.015589751
000380 cf 5a 78 bd 5e 79 d4 bc a1 2d 37 3d 89 ee 96 3d
       -0.060633477 -0.025936779 0.04472125 0.07369716
000390 b1 9a ae bc 34 11 95 3d b8 62 66 39 71 0b d2 bb
       -0.021313997 0.07278672 0.00021971285 -0.0064100553
0003a0 71 c5 ec bd a8 c8 13 be 30 3f f0 3b 6d 6f d3 bd
       -0.115610965 -0.14432013 0.0073317513 -0.10323987
0003b0 9f 2b 0d 3d fe 9c 98 3d 1b af 4b 3d 68 be b5 3d
       0.03446543 0.07451819 0.04972754 0.08874208
0003c0 6a e6 3a 3e 88 99 bb bd 7c fe 28 be 78 ba 5a be
       0.18251958 -0.09160143 -0.16503328 -0.21360195
0003d0 ec 5e 84 3d b1 24 13 bd a2 bb 4e 3e 9a 72 6e bd
       0.064634174 -0.035923664 0.20188764 -0.05821476
0003e0 d4 42 e8 3b 10 fa 1b be 43 95 36 bd b7 aa ac 3d
       0.0070880447 -0.1523211 -0.04457594 0.08430999
0003f0 d7 ae 90 3d 83 53 10 3d be e5 03 be de a4 d4 3d
       0.07064598 0.035235893 -0.12880608 0.103830084

EncList.3.conv.bias f4 [32]
000000 8b f5 b5 bd 17 ed 72 bd 97 b7 45 3a e7 fa 0c bc
       -0.08884724 -0.059308138 0.00075423106 -0.008604742
000010 93 e0 d9 3d d5 86 ff bd c6 6f 44 3c 71 69 4b bd
       0.10638537 -0.12476889 0.0119895395 -0.049661104
000020 28 f2 21 3c 26 da 0c 3e b5 c4 b4 3b 68 9d e5 bc
       0.009884395 0.13755092 0.0055166134 -0.028029159
000030 cc 6e 61 bd d4 6a 15 be 9e af 07 be 5e 7f 83 3d
       -0.055037305 -0.14591533 -0.13250586 0.06420778
000040 e6 16 b3 bd fc 4e b7 3d 1a ce 18 bd 26 a4 5b 3d
       -0.08744602 0.08950612 -0.03730593 0.05362334
000050 d0 38 da 3d 4e 9b 88 3c 89 fa 5a 3d b8 c6 fa 3d
       0.106553674 0.016675618 0.053461585 0.12244934
000060 81 b1 36 bd ae 2f d9 3d 17 41 f9 bd be 14 06 3e
       -0.044602875 0.10604797 -0.12170618 0.1309385
000070 a3 4c 33 bd f5 77 16 bc 96 c7 a4 3d 36 19 72 3c
       -0.04377426 -0.009183873 0.080458805 0.014776519

EncList.3.bn.weight f4 [32]
000000 60 03 75 3f f2 2a 78 3f 73 cf 6d 3f 6e 68 7e 3f
       0.95708275 0.9694053 0.9289467 0.993781
000010 50 9a 85 3f fe c3 87 3f 58 9d 8c 3f 8b 35 80 3f
       1.0437717 1.0606687 1.0985518 1.001634
000020 6f 51 7f 3f 27 d8 85 3f 83 95 84 3f 0f a9 71 3f
       0.9973363 1.045659 1.0358127 0.9439859
000030 18 7e 6e 3f 49 77 7f 3f 3b 15 5c 3f b2 fd 86 3f
       0.93161154 0.9979139 0.85969895 1.0546172
000040 3b 60 72 3f 03 d9 75 3f e1 8a 8a 3f 7c f5 6e 3f
       0.94678086 0.9603426 1.0823632 0.9334333
000050 c4 69 62 3f 68 7a 7a 3f cd 9f 6e 3f 1d 58 88 3f
       0.88442636 0.9784303 0.93212587 1.065189
000060 7b 28 83 3f de c5 7e 3f 65 46 87 3f 12 b9 8d 3f
       1.0246729 0.9952067 1.0568358 1.1072104
000070 20 cf 86 3f 94 03 6f 3f 39 14 76 3f a7 72 81 3f
       1.053196 0.93364835 0.9612461 1.0113114

EncList.3.bn.bias f4 [32]
000000 51 18 d6 bd 97 c5 93 bd 00 93 5b be db 2b 34 3d
       -0.10453857 -0.07215422 -0.21442795 0.043987136
000010 b5 f5 72 3e cb c9 02 3e 30 5e 22 3e d7 ef 65 3e
       0.23726542 0.1277229 0.15856242 0.22454773
000020 6b ce 6e bc a2 dc 1c bd 5e 5e 4b 3e e9 97 40 be
       -0.014575581 -0.03829635 0.19860217 -0.18807949
000030 66 a5 5e be c0 4f 59 3e ea 40 61 be 2a 48 2b 3e
       -0.21742782 0.21221828 -0.21997419 0.16726747
000040 5a 90 cd bd 4c b5 61 be 87 d9 00 3e e9 ba 98 bd
       -0.100372985 -0.22041816 0.1258298 -0.07457525
000050 f2 f3 f1 bd 94 8d bd 3c b2 61 5c be ae 9c 48 3d
       -0.11814107 0.023138799 -0.21521643 0.048977546
000060 d3 80 9f 3d a4 b0 57 3d ca 68 19 bc 45 85 09 3e
       0.07788243 0.052658692 -0.009363363 0.13429745
000070 ea dc 51 3d 31 a0 02 be 53 85 e5 3c 82 7e 0f bd
       0.05123607 -0.1275642 0.028017676 -0.035032757

EncList.3.bn.running_mean f4 [32]
000000 95 50 bc bc cd 48 4f be f7 0c b0 be 6f 36 a2 be
       -0.022987643 -0.20242615 -0.3438489 -0.31682155
000010 0a ab be 3d 44 85 0f bf a4 f1 a5 be 1b 37 27 bf
       0.09309967 -0.5606272 -0.3241092 -0.6531846
000020 6b 24 99 3e 3b f6 8e 3e 03 80 be bd ed 79 d7 3e
       0.29910597 0.27922234 -0.0930176 0.4208521
000030 ad ff 5d 3e 5a 2a b1 be 7d 27 14 3e 33 46 02 3c
       0.21679564 -0.34602624 0.14468189 0.007951307
000040 70 13 06 be 54 ca f3 3e d4 14 93 be 95 03 0f 3e
       -0.13093352 0.47615302 -0.28726828 0.1396621
000050 0c a4 50 3e 63 35 81 bc a2 e5 5f 3e 2f e0 9c be
       0.20375079 -0.015772527 0.21864942 -0.30639789
000060 d7 89 11 bf 60 54 d4 be e4 5e 1a bf f9 ea 94 3d
       -0.5685095 -0.41470623 -0.6030104 0.0727138
000070 e0 f3 a6 bc 80 71 cc 3d 14 73 15 3f 70 61 5f 3e
       -0.02037996 0.09982586 0.5837872 0.21814513

EncList.3.bn.running_var f4 [32]
000000 c1 e3 5c 3e e0 15 7a 3d 56 6a b6 3e 78 9f e3 3e
       0.21571256 0.061056018 0.35628003 0.44457603
000010 e3 01 5c 3e 45 11 38 3e 7a 2f 96 3e f3 dc cf 3e
       0.21485095 0.17975338 0.29333097 0.40598258
000020 d1 3c f4 3d 01 df 1f 3e dd 7e 79 3e 80 01 d9 3e
       0.11925662 0.15612413 0.24364801 0.42383957
000030 7a 22 3d 3e ee 1a ad 3e 04 e6 30 3e 72 5c 8c 3e
       0.18470183 0.33809608 0.17275244 0.2741428
000040 2f 4a b8 3e 56 6d aa 3e 2c 47 86 3e 29 f2 8f 3e
       0.35994098 0.33286542 0.26226175 0.2811444
000050 2e 70 05 3e 10 7c ae 3e c4 4f 12 3e 65 7d a8 3e
       0.13031074 0.34079027 0.1428824 0.32908168
000060 2a 62 b7 3e 80 73 96 3e 09 01 a1 3e d7 28 6e 3e
       0.3581708 0.29384995 0.31446102 0.23257767
000070 db d9 d4 3e a0 07 7b 3e 2c ab 0f 3e ef 41 db 3d
       0.4157246 0.24514627 0.1403014 0.10705935

DecList.0.conv.weight f4 [32, 16, 4]
000000 d3 8c 63 3d 21 c2 dd bc 7c b3 2c 3e a3 76 fa bc
       0.055554222 -0.027070107 0.16865343 -0.030574149
000010 dc dd 49 bd 7e bc 9f bd 8f 0f 7d bc ad 54 19 3d
       -0.049283847 -0.07799624 -0.015445604 0.03743427
000020 0a 84 8c 3d ae 85 2c 3e c0 a2 6d 3d 06 c1 0c 3b
       0.06861122 0.1684787 0.05801654 0.0021477356
000030 be da e5 bd 4f 37 03 bd f1 6d 14 3e 44 f9 25 3e
       -0.112233624 -0.03203517 0.14495064 0.16208369
000040 39 65 7b bd be c1 83 bd 3b be a3 bd 02 e8 3d bc
       -0.06137583 -0.06433438 -0.07995268 -0.0115909595
000050 e9 1c 5e 3d dc f3 dc bd 47 f6 ac bc 03 25 3a bd
       0.05422679 -0.107887 -0.021113528 -0.045445453
000060 44 7f 97 bd 05 84 0a 3e 8f db 02 be 7c 1a 98 bd
       -0.07397321 0.13526924 -0.12779067 -0.074269265
000070 18 1d 9e 3d ba 57 70 3c 07 6f cd 3d 24 f6 06 3d
       0.07720393 0.014669353 0.100309424 0.03294958
000080 19 7c 67 3d 19 b0 6e bd eb a6 ac 3d 65 51 29 3d
       0.056514833 -0.05827341 0.084302746 0.04133739
000090 10 25 0b 3e a1 4c fd bd c0 63 fb 3d e3 bc 17 be
       0.13588357 -0.123681314 0.12274885 -0.14818148
0000a0 ad bc 4f bd 7c 5f 1e be a4 ce e7 3c 76 0c d2 3d
       -0.050717045 -0.15466112 0.028296776 0.10256283
0000b0 a2 b8 33 3e 09 4b 1e be d7 51 7e be 51 a8 77 bd
       0.175509 -0.15458311 -0.24835907 -0.060463253
0000c0 62 89 aa bd eb 0c 9d bc ee d7 7a bd ff e2 cc 3d
       -0.08326985 -0.019171199 -0.061241083 0.100042336
0000d0 dd 3a 9e bd b6 54 95 3d 68 37 aa 3d c3 26 c6 3d
       -0.07726071 0.07291548 0.08311349 0.09675362
0000e0 b0 df ab 3d c3 73 b6 bb 21 f1 1b 3e 0f 51 ba bd
       0.083922744 -0.005567999 0.15228702 -0.09097492
0000f0 67 63 1b 3d 81 14 9a 3d 27 04 10 3d 60 98 83 bc
       0.037936594 0.07523442 0.03516021 -0.016063869
000100 d2 71 c0 3d e2 3b ff bc 7a 58 1d bd bd 2e f8 3c
       0.093967095 -0.031156484 -0.038414456 0.030295724
000110 77 ad e3 bd 43 5a d1 bd 94 a7 9a 3d 13 c2 c8 bd
       -0.1111707 -0.10222294 0.07551494 -0.09802642
000120 c5 59 89 bd 08 4e 46 3c bb 4e fe bd eb 01 71 bd
       -0.06706575 0.012103565 -0.124173604 -0.05883972
000130 da e2 85 bb e2 90 b8 3d 86 04 bf bd 0f ec 8c bd
       -0.0040858807 0.09012009 -0.09327035 -0.06880962
000140 25 0f 21 be 19 b0 24 bd 32 23 6b bd fa 55 17 bd
       -0.15728433 -0.040207002 -0.05740661 -0.036947228
000150 67 a8 2e 3c 04 8b 8e bd ae a7 25 be c7 97 ae 3d
       0.010660267 -0.06960109 -0.16177246 0.08525043
000160 f6 d7 53 bd 88 6e fd 3c 11 dc b0 bd c9 a6 66 3d
       -0.05171963 0.030936494 -0.08635724 0.056311402
000170 40 4a b1 3d 6a 4b 24 bd cd 84 3f 3d a4 28 bd 3d
       0.0865674 -0.040110983 0.046757508 0.09236267
000180 22 19 38 bb 24 bd fc 3d 3d 19 35 bc 6a b2 0a bc
       -0.0028091152 0.12340763 -0.011053381 -0.008465389
000190 2f c4 00 3e db 95 37 3d e9 0f 53 3e f6 22 9b bb
       0.12574838 0.044820648 0.20611538 -0.0047343923
0001a0 6d 07 9c 3c 03 5b 8b 3e 4c e3 fc 3c cb 87 64 bd
       0.01904651 0.27217874 0.030870102 -0.055793565
0001b0 a8 81 a7 3c 15 eb e3 bd 95 c8 a8 3d 6c 47 86 bc
       0.020447567 -0.11128823 0.08241383 -0.016391478
0001c0 01 5a b3 3d 73 e9 32 be e4 c5 4f 3b f3 34 2f 3d
       0.08757401 -0.17471866 0.0031703645 0.042775106
0001d0 09 b7 29 bd a9 d7 20 3e 7d 3c eb 3d 7a 7e b5 3d
       -0.04143432 0.15707268 0.114861466 0.08862014
0001e0 32 76 23 bc e8 86 c1 bd 23 a6 7e 3d f2 ce 06 bd
       -0.00997691 -0.094495595 0.06217016 -0.032912202
0001f0 69 36 1c 3e 77 d6 85 bd 5b 25 0c 3e 79 6f de bd
       0.15255131 -0.065350465 0.13686125 -0.108611055
000200 98 48 cf 3d 13 c0 0e 3e 97 4d 33 bc 47 be 4c be
       0.10121268 0.13940458 -0.010943792 -0.1999446
000210 36 77 5f 3d 09 82 8c bc 4f 82 01 be 7c d0 18 be
       0.054557048 -0.01715185 -0.12647365 -0.1492328
000220 e1 86 cd 3d c6 9f 9a bd 1d 5c 34 ba 5d 40 a4 3d
       0.10035492 -0.075500056 -0.0006880181 0.08020089
000230 08 31 07 bd d7 2c d9 bd 62 64 00 be a7 f2 e6 3d
       -0.033005744 -0.10604256 -0.12538293 0.11276751
000240 d4 40 6c 3e ab 06 4e 3d 9f d6 a2 bd a4 cb 08 be
       0.23071605 0.050299328 -0.07951092 -0.13358933
000250 71 4f 7a bb 41 7b ce 3d 76 5e 8e 3d f8 d2 c9 bd
       -0.0038194323 0.100821026 0.06951611 -0.09854692
000260 6d 91 49 be b4 a5 47 3d 0f 1d 04 3d 58 5a e7 bd
       -0.19684382 0.04874201 0.032254275 -0.112965286
000270 f2 e7 9b 3d c6 4d 1e 3e 88 c5 7b 3d b2 25 63 bd
       0.076125994 0.15459356 0.061467677 -0.05545587
000280 b7 92 11 be 5d 03 40 be 68 ac af 3d b9 df 04 3b
       -0.14216124 -0.18751283 0.08577806 0.002027495
000290 9b 50 c7 3a 64 3b 6f 3e e3 e0 38 3d 96 92 96 bd
       0.0015206517 0.233625 0.045136344 -0.07352178
0002a0 55 4e 65 3e 5b 61 87 3c 5d 20 42 bd 19 c2 30 bd
       0.22393163 0.016525915 -0.047394145 -0.043153856
0002b0 e9 f3 f7 bc fd a4 3d bd f1 84 c5 3d 65 f8 06 3e
       -0.030267673 -0.046299923 0.09644497 0.13180692
0002c0 a5 3e e2 bc 4f b6 9a bc 27 a2 f8 3c 13 67 c6 3c
       -0.027617762 -0.01888576 0.030350758 0.024219071
0002d0 4b 5f 94 bb 15 24 2c bc b2 84 ac 3b 20 40 37 be
       -0.0045279614 -0.0105066495 0.005264842 -0.17895555
0002e0 34 1f e2 bd 74 69 e1 bd e9 cd 5e bc ec 14 2f 3e
       -0.11041108 -0.11006442 -0.0135988975 0.17097825
0002f0 58 34 0f 3d fc 0e 85 bc 44 c7 1b bd 04 db 0e 3c
       0.03496203 -0.016242497 -0.03803183 0.00871921
000300 13 70 8b 3d 3b 65 13 3e 91 96 db bc f1 80 d1 ba
       0.06808486 0.14394085 -0.026805194 -0.0015983862
000310 8a b1 53 be cc f2 4a bc 80 68 c0 bc 49 ca 90 bd
       -0.20673195 -0.012386989 -0.02348733 -0.07069833
000320 cc d2 7e bd ff 2b 22 be 86 99 0a be 27 fa 9e 3d
       -0.06221275 -0.15837096 -0.13535127 0.077625565
000330 6b dc ec bc ab 53 17 3e d3 5f 08 3e 86 56 1d bd
       -0.028913697 0.1477801 0.13317804 -0.038412593
000340 c0 12 6d bd 9e 33 a5 bd 5b 91 52 be 44 5b d3 bd
       -0.05787921 -0.08066486 -0.20563261 -0.10320142
000350 9b 4a 4e 3c 7b db a1 bd 77 c5 1d be 21 15 e7 bd
       0.0125910295 -0.07903191 -0.15407358 -0.11283327
000360 c2 c9 98 3d 94 29 9c 3a 1e 44 bf 3d 4f b6 1c 3d
       0.07460357 0.0011914247 0.09339164 0.0382598
000370 c7 9a e4 3d 09 1d a1 3d 1c e5 ff 3d f7 11 3e 3d
       0.11162334 0.07866866 0.12494871 0.04640385
000380 47 ef c2 bb b3 8a c1 bd 8a 87 b8 3d f5 72 0e 3d
       -0.0059489342 -0.09450283 0.09010227 0.0347776
000390 69 32 0e 3e f8 a0 36 3d 7b 63 ea 3d 7e 45 d6 3d
       0.13886417 0.044587106 0.11444756 0.10462473
0003a0 1b cf 0d 3e 84 b1 4e be 99 94 b2 bc f5 85 d6 bd
       0.13848536 -0.20184904 -0.021799373 -0.10474769
0003b0 c6 d8 5a 3d 75 45 39 3d 0d 12 d5 bc 99 38 f5 3d
       0.053429388 0.045232255 -0.026009584 0.11973686
0003c0 97 b5 e8 bb 68 84 c9 bd 31 97 85 bc 22 d0 3a bd
       -0.0071017253 -0.098397076 -0.016307445 -0.045608647
0003d0 45 5a eb 3d 8b fd 12 3e 89 ea f7 3d 76 58 d2 bc
       0.11491827 0.14354531 0.12105281 -0.025676947
0003e0 f1 fe 8f bd 2c 55 06 bd f5 72 0f bb e9 6c 1a be
       -0.07031048 -0.03279607 -0.0021888588 -0.15080608
0003f0 71 4a e0 3b d4 c1 d4 bc 74 b4 5d bd 30 18 14 bd
       0.0068448116 -0.02597133 -0.05412717 -0.03615588

DecList.0.conv.bias f4 [16]
000000 74 e2 70 3d ad 58 20 3c 12 41 59 3d 10 63 a4 3d
       0.058809713 0.009786767 0.05304057 0.08026707
000010 d7 b7 c7 bd 32 12 a8 3d af 70 a2 bc 63 3f f8 bc
       -0.097518615 0.082065955 -0.019829122 -0.030303663
000020 c2 43 c8 3c 8b ae c4 3d 26 0b 8b bd 9d 3a ae bd
       0.024446372 0.09603604 -0.06789236 -0.08507273
000030 a6 0d a0 3d 76 15 6b bd 12 8f 22 3d 64 fb 99 bc
       0.07815103 -0.057393514 0.039687224 -0.01879663

DecList.0.bn.weight f4 [16]
000000 68 33 8e 3f 62 59 92 3f 53 eb 84 3f 04 0b 7d 3f
       1.1109438 1.1433527 1.0384315 0.98844934
000010 07 00 a7 3f fc 5c a5 3f 5c da 87 3f be c7 86 3f
       1.3046883 1.2919002 1.0613513 1.0529706
000020 17 19 95 3f ba a6 97 3f 12 4f 79 3f 00 6b ad 3f
       1.1648282 1.1847756 0.97386277 1.3548279
000030 d3 ac 73 3f df 81 ab 3f f2 3f 95 3f 52 6b 86 3f
       0.95185584 1.3399009 1.166014 1.0501502

DecList.0.bn.bias f4 [16]
000000 96 11 99 be ef e0 cf 3d e1 98 c3 be 84 f3 55 3e
       -0.2989623 0.101503246 -0.38202575 0.20893675
000010 e0 29 58 3d 42 3a bf bd fe c4 9e 3e a3 09 fc bd
       0.05277431 -0.09337284 0.31009668 -0.123065256
000020 53 d7 7e be b6 91 8a 3e 7b 44 04 bf ea 08 c5 3d
       -0.24886827 0.27064294 -0.5166699 0.09620841
000030 55 ab 7d be 67 c7 67 be 93 01 2a 3e 52 56 3f 3d
       -0.24772389 -0.2263466 0.16602163 0.04671318

DecList.0.bn.running_mean f4 [16]
000000 d3 40 1b bf 2c e0 19 be 61 ea 8a bd db 13 a6 3e
       -0.6064579 -0.15026921 -0.067829855 0.32437024
000010 a7 38 2b bf 49 ae 7a bf 1f d5 0f bf ef cc 96 be
       -0.6688332 -0.9792219 -0.5618457 -0.29453227
000020 46 a1 63 bf 85 13 0e be 69 54 04 bf 3a b0 13 bf
       -0.8891796 -0.13874634 -0.516913 -0.57690775
000030 57 1f 06 bf 5f e5 65 bf 9e 0f f1 3d be 19 58 bf
       -0.5239157 -0.8980312 0.11770557 -0.8441428

DecList.0.bn.running_var f4 [16]
000000 8b 3d 10 3f 6a 02 15 3f 19 d2 02 3f 7e 56 0f 3f
       0.5634391 0.5820681 0.51101834 0.5599135
000010 b0 21 fa 3e 4b 86 34 3f bd 7e 2d 3f f3 b4 05 3f
       0.48853827 0.70517415 0.6777151 0.5222923
000020 c3 fc ef 3e d0 4a 65 3f dc aa 94 3e 66 00 b1 3e
       0.4687253 0.8956728 0.29036605 0.34570616
000030 5b f2 d2 3e 1d fc 14 3f e7 b6 5f 3f e1 eb 0b 3f
       0.41200528 0.58197194 0.8738846 0.546568

DecList.1.conv.weight f4 [16, 8, 4]
000000 31 60 a4 3d f7 73 2f 3c 06 ad cc 3d d0 68 11 3e
       0.080261596 0.0107088005 0.09993939 0.14200139
000010 ec f1 15 bb 82 7b 8a 3d 56 f4 9e 3c 28 ad 79 3d
       -0.0022879792 0.067618385 0.019403618 0.06095615
000020 8d dd 9f bd 0d 0c 3c 3e 37 cb 9f 3d ed f8 7d 3e
       -0.07805929 0.18363972 0.07802432 0.24801989
000030 42 8d 16 be 3e ab bf bd e1 89 d9 3b 01 38 6e 3d
       -0.14702323 -0.09358834 0.006638751 0.05815888
000040 42 34 a0 3d 8c 0f 4b 3e 5a a3 6e 3d e2 f1 dc 3c
       0.078224674 0.1983015 0.058261253 0.026970807
000050 3b 1d 93 bd a4 1c 03 be 8a b6 86 bd 7e fb 21 bc
       -0.0718331 -0.12803894 -0.06577785 -0.009886621
000060 4d 57 f5 3d 16 e0 fb 3d fb e2 9f 3d f9 58 89 ba
       0.11979542 0.122986004 0.07806965 -0.0010478786
000070 fe 1b 39 bd 8e 1a 95 3c 15 f8 b8 3d 96 55 00 3e
       -0.04519271 0.018201139 0.09031693 0.12532648
000080 61 21 ed 3d d2 25 83 bd 9d 8b 1a be 6e 6d f4 bd
       0.11578632 -0.06403698 -0.1509232 -0.119349346
000090 ad 56 b0 bd ab 9d e7 bd 39 2a 30 3d 02 41 0e bd
       -0.08610282 -0.1130937 0.043009017 -0.034729965
0000a0 0a 20 28 3e cb 5f 15 3e 1f 71 5d bd 56 e8 0d 3c
       0.16418472 0.14587323 -0.05406296 0.00866135
0000b0 8f ec 04 bd 41 88 90 bc a0 3e ab bd 43 86 92 3c
       -0.032452162 -0.017643096 -0.08361554 0.017886287
0000c0 bc 68 86 bd 7f 82 c3 bd 9c 40 a8 bc 9b c2 5a 3d
       -0.06562945 -0.095463745 -0.02053862 0.053408246
0000d0 9d 12 fb 3d 4b 1a 1a 3e 97 e9 d0 3d 85 6b 80 bd
       0.122594096 0.15049092 0.10200804 -0.06270508
0000e0 af 07 5c be e8 09 8d be 6e 35 67 be 1c bb 13 be
       -0.21487306 -0.2754662 -0.22578976 -0.14426845
0000f0 2d 6b 81 bd ab 2e e1 bd e0 54 4f be 46 1b b7 bd
       -0.0631927 -0.10995229 -0.20247221 -0.08940749
000100 9e 8e 04 be d0 fe 07 3d 5a 33 14 3e de 64 ab 3b
       -0.12945029 0.033201993 0.14472714 0.00523053
000110 62 97 af 3d 84 54 89 3d a7 6a 9a bc 7d 6f 9c bd
       0.08573796 0.06705573 -0.018849684 -0.07638452
000120 d5 1e 95 3d 42 52 a5 3c 24 66 52 3d 3f 2c d9 3d
       0.07281271 0.020180825 0.05136694 0.106041424
000130 fc 0b f9 3c bc a0 a6 bd e7 0b 78 3d 30 f5 10 be
       0.030401222 -0.081361264 0.060558226 -0.14156032
000140 40 39 c0 bd 48 e9 a9 3d ba a3 73 3d 7d 47 5f be
       -0.093859196 0.08296448 0.059482314 -0.21804614
000150 e6 62 ec bd 52 04 25 be ef 3a 96 be da a1 18 be
       -0.11542301 -0.1611493 -0.29341838 -0.14905491
000160 28 e8 7f 3d c8 27 6d 3c 36 e2 07 3e 76 0f 32 bd
       0.06247726 0.014474817 0.13269886 -0.043471776
000170 1f e2 32 3d 38 d2 51 3e 45 99 7f 3e ea 6b 88 b9
       0.043672677 0.20490348 0.24960811 -0.00026020344
000180 2b b6 e7 bd 51 7d 30 bd 9b e5 02 3e fc bd d5 3d
       -0.11314043 -0.04308826 0.127829 0.10436627
000190 94 58 b5 bd d2 12 4b bb fd 2b 7c be 8e d8 b9 bd
       -0.088547856 -0.003098656 -0.24626155 -0.09074508
0001a0 dd d4 02 be 3c 10 0c 3d 04 f9 2d 3d 18 a9 1f 3b
       -0.12776513 0.03419517 0.042473808 0.0024362262
0001b0 5e b6 0c be 33 07 84 be e3 ea d3 bd 21 64 83 bd
       -0.13741443 -0.25786743 -0.103475355 -0.064155824
0001c0 61 82 08 be b2 2d 8e bd 4d b1 15 be 14 3c 07 be
       -0.13330986 -0.069423094 -0.14618416 -0.13206512
0001d0 c4 7d 1a 3d 26 3d 3e 3e e1 17 32 3e 5f aa 81 3d
       0.037717596 0.18578014 0.17391922 0.06331324
0001e0 d6 36 5d be 14 d5 b7 bd a7 f3 4a be 14 e0 e6 bd
       -0.2160295 -0.08976188 -0.19819508 -0.11273208
0001f0 51 f4 02 bd 29 85 b7 bd d2 82 8e 3d cd cf f4 3c
       -0.03197128 -0.08960945 0.06958546 0.029884243
000200 ab 7b 00 3e 47 e0 25 3e ad c2 4c 3d 8e e3 1b 3d
       0.12547176 0.16198836 0.049990345 0.03805881
000210 ac a2 00 be 61 59 4b bd 95 e0 47 bd 1a b2 5c bd
       -0.12562054 -0.049645785 -0.048798162 -0.05388079
000220 c8 d9 76 bd 53 7b d4 3d 5f ef 6f 3e 4f 18 cd 3c
       -0.060266286 0.10375085 0.23431157 0.025036005
000230 67 50 96 3c 1d f4 e3 3c 5c 1e 5a bd 39 69 0d bd
       0.018348886 0.027826363 -0.05325161 -0.034524176
000240 c9 4e d5 bc 00 ee 15 3d 1c 56 b4 bd 0f a7 04 be
       -0.026038544 0.036603928 -0.088054866 -0.12954353
000250 56 c8 b7 3d 93 d7 73 3e 58 0e 3a 3e 91 ce b1 3d
       0.08973758 0.23812704 0.18169534 0.086819775
000260 07 17 ed bd 91 32 72 bd 22 f9 51 bd ad 85 b6 bc
       -0.11576658 -0.059130255 -0.051262982 -0.022280538
000270 4a 10 82 3d 93 84 6e 3e 1c a5 80 bc b6 64 aa 3b
       0.06350763 0.2329276 -0.01570373 0.005199994
000280 ac ee fd 3d 12 13 08 3e 7c f7 0d 3e 4d 42 0e 3c
       0.12399039 0.13288525 0.13863939 0.0086827995
000290 2a b3 5e be cf 5e 1b 3d ff b8 b8 bd 8d f1 2a bd
       -0.21748033 0.037932213 -0.0901966 -0.041734267
0002a0 6d 27 26 3e 1d ef 87 3e 95 e5 18 3e 14 40 d8 3d
       0.16225977 0.26549616 0.14931329 0.10559097
0002b0 12 86 de bb 06 03 5e 3e 98 34 48 3e 00 a9 fd 3c
       -0.006790885 0.21680841 0.19551313 0.030964375
0002c0 b0 c9 c5 3c 14 5c 45 3e 22 da 38 3d 25 53 85 bd
       0.024144024 0.19273406 0.045129903 -0.06509999
0002d0 67 a3 47 3d 7f cb d3 3d b3 56 8f 3d b9 08 25 3d
       0.048739817 0.10341548 0.069989584 0.04029152
0002e0 17 0a db bd 96 32 37 bc 0c 40 00 be 34 02 df 3a
       -0.10695284 -0.011181494 -0.12524432 0.0017014206
0002f0 01 56 19 3e 1e 2c 57 3e 5e 30 2a 3e 8d 1e 34 3c
       0.14974214 0.21012923 0.16620013 0.010993612
000300 c2 e8 c9 3d bf ee 02 be e5 2e 41 3c 8f ef 57 be
       0.09858848 -0.12786387 0.011790966 -0.21087478
000310 c0 bf 1e be 15 99 15 be 06 79 83 be 1e 70 19 be
       -0.15502834 -0.14609177 -0.2567827 -0.14984176
000320 ea a4 6d bd 30 f1 41 3d 3f 01 21 be 48 27 90 3d
       -0.058018602 0.047349155 -0.15723132 0.07038742
000330 6f 0b 91 3d b6 d8 a4 bd ce 1d 6d bd 32 19 c4 bc
       0.07082259 -0.08049147 -0.057889752 -0.023937795
000340 b8 64 70 3d 4a f9 fa 3d c9 6d cd bd d5 ea 11 be
       0.058689803 0.12254579 -0.100307055 -0.14249738
000350 ea 05 70 be 50 ae c4 3c 8b 5c ac 3c 58 86 89 3c
       -0.23439756 0.0240089 0.021040222 0.016787693
000360 ad dc a4 3e f4 2c 2a 3d 27 ba d0 3c e9 9d 7f 3d
       0.32199612 0.041546777 0.02547939 0.062406454
000370 68 8a 11 3e 64 c1 63 3e 6f fe 64 3c f1 97 9e 3d
       0.14212954 0.22241741 0.013976677 0.07743824
000380 bd 06 49 be f0 f3 3a bd f9 e9 fe bc 0a 46 47 bd
       -0.19631477 -0.045642793 -0.031117426 -0.04865078
000390 81 83 27 3e 0d 50 93 3e 80 03 c9 3d 21 cf 1d 3e
       0.16358759 0.2877201 0.09815121 0.15411045
0003a0 c2 67 75 be ea ee 84 bd 1b 23 c6 bb f9 4b 3c be
       -0.23965362 -0.06490882 -0.0060466654 -0.18388356
0003b0 51 e3 a9 3d b5 54 7e bd 21 3a 89 bd 67 86 b1 3d
       0.0829531 -0.0620925 -0.0670054 0.08668213
0003c0 d6 ed 00 3e 75 94 64 3c e0 21 76 3d c6 e4 dc 3d
       0.12590727 0.013951411 0.0600909 0.107858226
0003d0 4b d0 65 bd ff 70 f6 3d b1 a1 fd 3d aa 70 b0 3c
       -0.056106847 0.12033271 0.12384356 0.021538097
0003e0 b0 32 1d 3e 64 cd 55 3e 1d 02 78 3d 90 45 3c 3e
       0.15351367 0.20879132 0.06054889 0.18385911
0003f0 d7 d0 96 3d 8b e6 e4 3c 4d cb 94 3d 26 5e e2 3d
       0.07364052 0.027941963 0.07265339 0.11053114

DecList.1.conv.bias f4 [8]
000000 3a e3 f2 3c b1 75 e7 bd af f4 f9 3c a4 a7 2e be
       0.029649366 -0.11301745 0.030512182 -0.17056137
000010 bd d1 e2 3c 1b c0 32 3e 01 79 26 3e ff bd 77 3d
       0.027687902 0.17456095 0.16257097 0.06048393

DecList.1.bn.weight f4 [8]
000000 db 8a 65 3f 30 28 ad 3f 54 e5 86 3f c4 ba 93 3f
       0.89665 1.3527889 1.0538735 1.1541371
000010 a2 a7 9c 3f 72 67 85 3f bc b7 81 3f 5e 4a 98 3f
       1.2238657 1.0422194 1.0134196 1.1897695

DecList.1.bn.bias f4 [8]
000000 ee cf 1a be e6 e5 7a 3e 39 e9 df bd 8c c1 b0 3e
       -0.15118381 0.24501762 -0.109331556 0.34522665
000010 fb 61 98 bd 14 9d 88 bc 83 8e d5 bc fd 41 23 be
       -0.07440563 -0.016676463 -0.026068931 -0.15943141

DecList.1.bn.running_mean f4 [8]
000000 b2 d3 30 be 35 ee b9 bd b9 0a 20 3e f3 d5 9e 3d
       -0.17268255 -0.090786375 0.1562909 0.07755651
000010 7f 39 04 3f 55 f9 23 3f 23 d2 8d 3e e8 e3 74 3e
       0.5165023 0.64052325 0.27699384 0.23915064

DecList.1.bn.running_var f4 [8]
000000 de 48 1d 3f 9c 0d 4d 3f c2 42 3c 3f 61 8e f2 3e
       0.6143931 0.8009889 0.73539364 0.4737425
000010 7f 4c 2b 3f 8f a5 3d 3f 6f c5 36 3f 3c d8 86 3e
       0.669136 0.7408075 0.7139501 0.2633685

DecList.2.conv.weight f4 [8, 4, 4]
000000 0b df b2 bd e7 80 f0 bc ca cb 72 3d 8f 44 8e bd
       -0.08733948 -0.02935834 0.05927638 -0.0694667
000010 c4 9d 94 3d 6c 7f 80 3d f5 06 35 3e 9e c3 86 bd
       0.07256654 0.06274304 0.17678435 -0.0658028
000020 18 34 bf 3d 89 0d 84 3e 6a 73 c5 3d ff 5e 5a bd
       0.09336108 0.25791577 0.09641154 -0.05331325
000030 18 96 de bc ba a8 28 3c 34 bb c2 3d 3d dd 17 3d
       -0.02717118 0.010294134 0.095083624 0.037076224
000040 28 b2 96 3d aa 10 d2 be ed 9a e4 bc 95 09 86 be
       0.07358199 -0.4102834 -0.027905906 -0.26179186
000050 da 3b a1 3d 4e 61 5d bc 0f c8 4c 3e ab 7e 88 3d
       0.07872744 -0.013511969 0.19998191 0.06664785
000060 87 26 e7 bd 4c dc 45 be 07 89 77 be 70 a4 4d be
       -0.112866454 -0.19322318 -0.24173366 -0.20082259
000070 5d 01 12 3e da a0 05 bd 47 62 51 3e 94 15 8c be
       0.14258333 -0.032624103 0.20447646 -0.27360213
000080 ba a5 ad bd 4b f1 ca bd 52 8a 6c 3d 8d bc 45 3d
       -0.084788755 -0.09909304 0.0577491 0.04827552
000090 38 bf b9 bd 26 4c 51 3e 42 3e 08 bd 36 85 bf 3d
       -0.09069675 0.20439205 -0.0332625 0.0935158
0000a0 35 a4 3b 3e e6 3c c2 3e bb cf 96 3e 43 37 de 3d
       0.18324359 0.37937087 0.2945536 0.10850384
0000b0 9a 54 27 be bf 1d a1 bd 46 cd bc bd e5 be 08 bd
       -0.16340867 -0.07867002 -0.0921884 -0.033385176
0000c0 a9 9f 83 bd e1 bd 28 3e 82 72 9e bd 78 87 30 be
       -0.06426937 0.16478683 -0.077366844 -0.17239177
0000d0 84 4b 3b 3e 30 d0 ef bd 31 27 94 3e ca b0 ef 3d
       0.18290526 -0.117096305 0.2893615 0.11703642
0000e0 4c e5 9e 3d 07 3c 01 3e 5d 6b 59 3d 21 f0 b5 bb
       0.07758579 0.12620555 0.053080905 -0.0055523072
0000f0 51 b4 e4 3d 0b 98 89 be b2 40 4b 3e 8e 23 b1 bd
       0.11167205 -0.26873812 0.19848898 -0.0864936
000100 7c bd 6a 3d 0d 1f dc be f5 18 5e 3e 8a 36 18 be
       0.057309613 -0.4299244 0.21689208 -0.14864555
000110 04 ce 2f 3e 0d 0c e0 3d 72 f1 85 3c d8 2e 31 bd
       0.17168432 0.109397985 0.016350482 -0.043257564
000120 75 e7 93 bc ae 95 7f 3d e8 39 9d 3d 24 1b b3 3c
       -0.018054703 0.062398605 0.0767706 0.021863528
000130 22 bd db 3d 05 d6 ca 3d 9f 03 b2 3d ec d7 23 3e
       0.107294336 0.09904102 0.08692097 0.16000336
000140 4c 5e 9e 3d 4b 69 b3 3e 4f 70 83 3e 40 ee 40 3d
       0.077328295 0.3504127 0.25671622 0.047102213
000150 5c 4d 3f be f1 29 5c be 8b 4a 5f bd cb 7c 36 3c
       -0.18681854 -0.21500374 -0.05451445 0.011138151
000160 67 b2 fa bc 37 2b a7 3e d9 fd a9 3e 2a 16 01 3c
       -0.030602647 0.32650158 0.33201483 0.0078788195
000170 6d 11 d5 3d d6 5c 52 be d2 7d b0 3e 93 c6 17 3e
       0.10403714 -0.20543227 0.34470993 0.14821844
000180 79 21 2d be cc 58 ae be a6 67 87 3d 4a 7e 82 be
       -0.169073 -0.34052122 0.06611566 -0.25486976
000190 c3 dd 1f 3e 7e 61 b0 3e 40 f8 b3 3d 1f 8f c7 3d
       0.15611939 0.3444938 0.08787584 0.09744095
0001a0 a9 82 43 be 65 99 5d be 5f 4b e5 bd 9a 98 07 be
       -0.19092812 -0.21640547 -0.111960165 -0.13241807
0001b0 bf 51 75 bc d5 cd 9b be 55 64 02 be 90 79 b3 3d
       -0.014973103 -0.30430475 -0.12733586 0.087634206
0001c0 c5 b3 84 bd 18 31 75 3e f6 b9 14 bd 3a b5 9a bc
       -0.06479601 0.23944509 -0.03631016 -0.018885244
0001d0 0d 94 23 3d 3e 06 8a 3e b4 a4 4b 3e 97 f3 83 3d
       0.039936114 0.26957887 0.19887048 0.064429455
0001e0 26 ee 33 3a f2 98 d7 bd c1 8e 21 be a4 0e 4a bc
       0.0006863795 -0.10527219 -0.15777113 -0.012332592
0001f0 05 84 ed bd c7 9d 0a be e0 65 dd bd ee 55 64 bd
       -0.11597446 -0.1353675 -0.10810447 -0.05574601

DecList.2.conv.bias f4 [4]
000000 59 fe 5f 3e 68 f2 e4 3d 96 e3 28 be 8f dd 1f be
       0.2187437 0.11179048 -0.16493067 -0.15611862

DecList.2.bn.weight f4 [4]
000000 81 d2 dc 3e aa 16 98 3f 9a 85 71 3f d3 f7 8d 3f
       0.43129352 1.1881917 0.94344485 1.1091255

DecList.2.bn.bias f4 [4]
000000 7c 02 6d bd 26 ec b7 3e 04 b2 c7 3e 98 e5 d0 3d
       -0.057863697 0.35922354 0.39003003 0.102000415

DecList.2.bn.running_mean f4 [4]
000000 7b 00 2a be cf 4e 71 3f a1 a5 96 3d eb d4 1d be
       -0.16601746 0.9426088 0.0735581 -0.15413253

DecList.2.bn.running_var f4 [4]
000000 22 2e e5 3f 04 73 78 3f 9e 50 98 3f 1e ac 9f 3f
       1.7904704 0.970505 1.1899602 1.2474401

DecList.3.conv.weight f4 [4, 2, 4]
000000 ee 2f 8c 3e d3 5e cd 3e 49 2c af 3e 9d 42 5a 3e
       0.27380317 0.40111408 0.34213474 0.21314473
000010 81 a6 0f 3e 23 54 17 3f 9c 31 28 3f 4a a5 58 3e
       0.1402836 0.5911276 0.657007 0.21156803
000020 ec d9 e2 bd 52 00 0f be d0 06 1c be 2b bb fd bd
       -0.110767215 -0.13964966 -0.15236974 -0.12389215
000030 3a 45 06 be 70 10 c1 bd ae 7b a6 bd 6b bf e5 bd
       -0.13112345 -0.09426963 -0.08129059 -0.11218151
000040 37 fb 66 3c 27 c3 84 3e 6b ca b5 3e 5b 7d e2 3d
       0.01409798 0.2593014 0.35505995 0.11059066
000050 f2 28 29 3d 65 89 56 bd d0 b0 88 be d8 6f 36 be
       0.041298814 -0.052377123 -0.26697397 -0.17816103
000060 b0 13 80 bd 67 17 64 bd a0 b4 12 bd 47 1c 22 bd
       -0.06253755 -0.05568638 -0.03581679 -0.03957775
000070 29 3b 83 3e b2 94 38 3e 9e 87 27 3e be 6d 6c 3e
       0.25631073 0.18025473 0.16360328 0.23088738

DecList.3.conv.bias f4 [2]
000000 7c 3f ad be 7a 36 15 be
       -0.33837497 -0.14571562

DecList.3.bn.weight f4 [2]
000000 3f e2 56 3f 40 b8 67 3f
       0.83938974 0.9051552

DecList.3.bn.bias f4 [2]
000000 e9 54 98 3c ef 57 0b 3d
       0.018595176 0.034019407

DecList.3.bn.running_mean f4 [2]
000000 66 f2 fd 3e 45 24 3b 3f
       0.49598998 0.7310222

DecList.3.bn.running_var f4 [2]
000000 82 ff 39 3f 03 e5 c2 3e
       0.726555 0.38065347
