checkpoints/best_Seq2Seq2_emb_snr_-4.pth (torch, 161054 bytes, 219 tensors)

enc.EncoderList.cell0.conv.weight f4 [4, 2, 17]
0	0x3d93a3ac	0.07208952
1	0x3da94768	0.08265573
2	0xbc7274e7	-0.0147983795
3	0x3e67f6d7	0.22652756
4	0x3dcd005e	0.10009836
5	0x3e32a468	0.17445529
6	0x3c6bc621	0.014390499
7	0x3e1092ed	0.14118548
8	0x3e3d39ae	0.18479034
9	0xbdffc9c0	-0.12489653
10	0x3dd579c4	0.104236156
11	0xbcd915a7	-0.026499582
12	0x3daa2a29	0.08308823
13	0xbcde566e	-0.027140822
14	0x3ce61d63	0.028090185
15	0xbdaea25c	-0.08527061
16	0x3d9fe3b1	0.078071006
17	0x3d24e86f	0.04026073
18	0xbd87834f	-0.06616842
19	0x3d87dcab	0.06633886
20	0xbd4fad14	-0.05070217
21	0xbcb6d29d	-0.022317225
22	0xbd6cd597	-0.057820883
23	0x3dee46cb	0.116345964
24	0xbdb20f54	-0.0869433
25	0xbaa1d0f1	-0.0012345595
26	0x3d751a13	0.05983932
27	0x3c6ca434	0.014443446
28	0x3dfcf5ef	0.123515956
29	0xbd855500	-0.06510353
30	0x3e7fc208	0.24976361
31	0xbd801743	-0.06254437
32	0x3e69836d	0.22804041
33	0x3deaf894	0.11473194
34	0xbdc5184b	-0.09623774
35	0x3d40c656	0.047064148
36	0xbccd24cf	-0.025041966
37	0x3db14560	0.0865581
38	0xbcbc81a4	-0.023011036
39	0xbdbc7ddb	-0.092036925
40	0x3cabff4b	0.020995757
41	0xbd8f3b00	-0.06993675
42	0x3d761c20	0.060085416
43	0x3e1716fc	0.14754862
44	0x3de44048	0.11145073
45	0xbd41172f	-0.04714125
46	0x3df65c73	0.12029352
47	0x3d5f9eeb	0.054594915
48	0x3dd4e9b6	0.10396139
49	0xbdc549d6	-0.09633224
50	0xbe36f32e	-0.17866203
51	0xbe2cfadd	-0.16892572
52	0xbe5e2402	-0.21693423
53	0x3dc5ca7a	0.0965776
54	0x3bbdba46	0.005790028
55	0x3dfd3ae7	0.1236475
56	0x3d877220	0.066135645
57	0x3db83bb2	0.08995761
58	0x3e665a47	0.22495376
59	0x3dc5bf54	0.096556336
60	0x3e5debda	0.21672001
61	0xbb667146	-0.003516273
62	0x3e18f06b	0.14935462
63	0xbbd06f19	-0.0063609
64	0x3d98183a	0.07426496
65	0xbd43d8d6	-0.047814213
66	0x3d7aabda	0.061199047
67	0xbe7164b1	-0.23573567
68	0xbe267896	-0.16256937
69	0xbe0579ce	-0.13034746
70	0x3dc60a62	0.09669949
71	0x3d0f9014	0.035049513
72	0x3dc762e8	0.09735662
73	0xbe26da36	-0.16294178
74	0xbe59a1b2	-0.21253088
75	0xbe109938	-0.14120948
76	0xbda41325	-0.08011464
77	0x3dfe7141	0.12423945
78	0x3e0db17c	0.13837236
79	0x3e821f9d	0.25414744
80	0x3c8ddf63	0.017318433
81	0x3c920138	0.017822847
82	0x3e31af2c	0.17351979
83	0x3c0e9b4d	0.008704019
84	0x3da5ef70	0.0810231
85	0x3decef99	0.11569137
86	0x3e4436ae	0.19161484
87	0xbd3c1870	-0.045921743
88	0xbd65cb64	-0.05610217
89	0x3db20363	0.08692052
90	0x3d349867	0.044090655
91	0xbd1bd129	-0.038041268
92	0x3d866bf6	0.06563561
93	0x3d84c89b	0.06483575
94	0xbe31da1e	-0.17368361
95	0xbdeb4f84	-0.11489776
96	0x3e1f64bf	0.15565775
97	0xbbe8363c	-0.0070865434
98	0x3bae5d5f	0.0053211893
99	0xbdee305c	-0.116303176
100	0xbdb9951c	-0.090616435
101	0x3c93cb04	0.018041141
102	0x3dc2a365	0.09503821
103	0xbd05b97c	-0.032647595
104	0x3c22a5ab	0.009927194
105	0xbdf5e579	-0.12006659
106	0xbe35ecd1	-0.1776612
107	0xbdb2ebe4	-0.08736399
108	0xbe1f0a07	-0.15531169
109	0xbdd14c87	-0.102196746
110	0x3e03f3eb	0.12886016
111	0xbcd61d22	-0.026136938
112	0xbbe18b47	-0.006883058
113	0xbe624669	-0.22097172
114	0xbdf6bfb6	-0.12048285
115	0xbd865e03	-0.065609
116	0x3d295da7	0.04134908
117	0xbe05ac0c	-0.13053912
118	0xbd1d08ba	-0.0383384
119	0xbe03534f	-0.12824748
120	0xbd214c96	-0.03937968
121	0xbde77f09	-0.11303527
122	0xbd453ddc	-0.048154697
123	0xbe2bb867	-0.16769563
124	0xbe112e91	-0.1417792
125	0xbdf42c66	-0.11922531
126	0xbd7fbf47	-0.062438276
127	0xbe08a508	-0.13344204
128	0x3e199a91	0.15000369
129	0x3b48d993	0.0030647262
130	0x3e538fbc	0.20660299
131	0x3def7645	0.1169248
132	0xbda63d67	-0.0811718
133	0x3e229263	0.15876155
134	0xbc57034f	-0.013123347
135	0xbd923eff	-0.07140922

enc.EncoderList.cell0.conv.bias f4 [4]
0	0x3d847960	0.06468463
1	0xbe886266	-0.26637572
2	0x3edb17b2	0.42791516
3	0x3e3986b5	0.18117793

enc.EncoderList.cell0.activate.fcn.0.weight f4 [8, 8]
0	0x3df713cc	0.12064323
1	0xbe9bd05e	-0.3043241
2	0x3e2d23e1	0.16908218
3	0xbe7883a9	-0.24268974
4	0xbdefe750	-0.11714041
5	0x3e3c480b	0.18386857
6	0x3e3127ad	0.17300291
7	0x3e9dbb97	0.30807182
8	0x3e936a8d	0.2879223
9	0xbeb2a0db	-0.34888348
10	0xbdb470e4	-0.08810595
11	0xbe2f060f	-0.17092155
12	0xbba97f73	-0.005172664
13	0xbe60dcf4	-0.21959287
14	0x3f04aaaf	0.5182294
15	0xbe69da6f	-0.22837232
16	0x3de88804	0.11354068
17	0xbd98d2f9	-0.07462115
18	0x3d94576d	0.07243238
19	0xbe8094e2	-0.2511359
20	0x3ebf76f7	0.3739545
21	0x3e2343eb	0.15943877
22	0x3d3931ca	0.0452135
23	0xbe90eb33	-0.28304443
24	0x3e1066e9	0.14101757
25	0xbe45adfe	-0.19304654
26	0xbe39af81	-0.18133356
27	0x3e8effa1	0.27929404
28	0x3d578a77	0.052622285
29	0xbe8a9e38	-0.27073836
30	0xbe00da20	-0.12583208
31	0xbd78353a	-0.060597636
32	0x3e3cecea	0.1844975
33	0x3bed1166	0.00723474
34	0xbb06ee1c	-0.0020588702
35	0xbe3a3812	-0.18185452
36	0xbe4a8d8c	-0.19780558
37	0x3e8906e5	0.26763073
38	0x3ea4da96	0.32198018
39	0xbe699990	-0.22812486
40	0x3e0aeaef	0.13566183
41	0x3e4058bc	0.1878385
42	0x3da05f3f	0.07830667
43	0xbdf2effb	-0.11862179
44	0x3e448129	0.19189896
45	0x3df55876	0.11979763
46	0x3e2164d8	0.15761125
47	0xbdbd3664	-0.0923889
48	0xbcce908e	-0.025215413
49	0x3dd5a13d	0.104311444
50	0xbceb8507	-0.028749956
51	0xbe76e5c5	-0.24111088
52	0x3eb9d3c3	0.36294374
53	0x3e591587	0.21199618
54	0x3ca44b83	0.020055538
55	0xbdf457f0	-0.11930835
56	0xbd5da248	-0.05410984
57	0x3bf87d5f	0.007583305
58	0x3e1013e5	0.14070089
59	0x3e6b1620	0.22957659
60	0xbeaadec6	-0.33373088
61	0xbbf47b2f	-0.0074609737
62	0x3e74f4d8	0.23921525
63	0x3e474cb5	0.19462855

enc.EncoderList.cell0.activate.fcn.0.bias f4 [8]
0	0xbd073e47	-0.033018377
1	0xbe616efc	-0.22014993
2	0xbe66dba0	-0.22544718
3	0xbea3223a	-0.3186205
4	0xbdaf9724	-0.0857375
5	0x3de3cc82	0.11122991
6	0x3e6d7281	0.23188211
7	0x3e27f602	0.16402438

enc.EncoderList.cell0.activate.fcn.1.weight f4 [8]
0	0x3fa6dff8	1.30371
1	0x3f7f81d9	0.99807507
2	0x3f8528a5	1.0403029
3	0x3f815ae0	1.0105858
4	0x3f77b290	0.9675684
5	0x3f68d3c9	0.9094816
6	0x3f654ae5	0.89567405
7	0x3f834041	1.0253984

enc.EncoderList.cell0.activate.fcn.1.bias f4 [8]
0	0xbdf02ca3	-0.11727264
1	0xbdd2ca97	-0.10292547
2	0xbd2f69cb	-0.0428255
3	0x3da45ece	0.08025895
4	0xbe1dc761	-0.15408088
5	0xbd57e557	-0.05270895
6	0x3cb30c90	0.021856576
7	0xbcad30a7	-0.021141363

enc.EncoderList.cell0.activate.fcn.1.running_mean f4 [8]
0	0xbe2ff9b2	-0.17185095
1	0xbde88a30	-0.11354482
2	0xbec5a67e	-0.38603586
3	0xbdf9579d	-0.12174914
4	0xbd4319b8	-0.04763195
5	0x3d9f074a	0.07765062
6	0xbda36559	-0.07978315
7	0x3ec31192	0.38099343

enc.EncoderList.cell0.activate.fcn.1.running_var f4 [8]
0	0x3ce68f30	0.028144449
1	0x3d48ce4a	0.049024858
2	0x3e9afb2e	0.3026976
3	0x3d5e96f2	0.05434317
4	0x3d5cb7d3	0.053886246
5	0x3dd7820f	0.105228536
6	0x3e68ee33	0.22747116
7	0x3e232097	0.15930401

enc.EncoderList.cell0.activate.fcn.3.weight f4 [4, 8]
0	0xbf307e61	-0.6894284
1	0x3d01b9d5	0.031671364
2	0xbd6d69cc	-0.057962224
3	0x3e47dbe4	0.19517475
4	0x3e3b0e5c	0.18267196
5	0xbdc28ec1	-0.094998844
6	0xbe00af4a	-0.12566867
7	0xbe48b698	-0.19600904
8	0xbed67c64	-0.41891778
9	0x3e9098ef	0.2824168
10	0xbe3dff93	-0.18554525
11	0xbddbbe01	-0.107296
12	0xbea53943	-0.3227025
13	0x3e267c4d	0.16258354
14	0x3e31f210	0.17377496
15	0x3e21191d	0.15732236
16	0xbf12beb7	-0.5732226
17	0xbe8cdba0	-0.2751131
18	0xbea13566	-0.31486052
19	0x3e2ac7db	0.16677801
20	0x3e4e01bc	0.20117849
21	0x3e61c7d1	0.2204888
22	0x3d4b8435	0.04968663
23	0x3dc10a95	0.094258465
24	0x3d814ff1	0.06314076
25	0xbe0bfc6e	-0.13670513
26	0xbe78eea7	-0.24309789
27	0xbf0c52bb	-0.54813737
28	0x3e8568fc	0.2605666
29	0xbd64cb0a	-0.055857696
30	0xbc6afdab	-0.014342706
31	0xbe95d29f	-0.29262254

enc.EncoderList.cell0.activate.fcn.3.bias f4 [4]
0	0xbda0eaec	-0.07857308
1	0xbe774207	-0.24146281
2	0xbe6c4acc	-0.23075408
3	0x3dea56d2	0.11442341

enc.EncoderList.cell0.activate.fcn.4.weight f4 [4]
0	0x3f931cd4	1.1493173
1	0x3eab094a	0.33405524
2	0x3f34ebcc	0.706723
3	0x3f685ec4	0.907696

enc.EncoderList.cell0.activate.fcn.4.bias f4 [4]
0	0x3f4a0ae4	0.7892287
1	0x3f859bd2	1.0438178
2	0x3fb8af29	1.4428455
3	0x3e892674	0.2678715

enc.EncoderList.cell0.activate.fcn.4.running_mean f4 [4]
0	0xbec6878c	-0.3877529
1	0xbebae920	-0.36505985
2	0xbedb1dee	-0.42796272
3	0xbe82c4f0	-0.25540876

enc.EncoderList.cell0.activate.fcn.4.running_var f4 [4]
0	0x3e08f225	0.13373621
1	0x3d27b4c6	0.040943883
2	0x3e3d3fa8	0.18481314
3	0x3ee4b987	0.44672796

enc.EncoderList.cell0.bn.weight f4 [4]
0	0x3f3e0a01	0.74234015
1	0x3f719931	0.94374377
2	0x3f55c962	0.8351041
3	0x3f46cfd2	0.7766086

enc.EncoderList.cell0.bn.bias f4 [4]
0	0xbdcbfcef	-0.09960353
1	0x3eb8655d	0.36014834
2	0x3d22426f	0.039614137
3	0xbe00cb5e	-0.12577578

enc.EncoderList.cell0.bn.running_mean f4 [4]
0	0x3e088e9f	0.13335656
1	0xbe2fa266	-0.17151794
2	0x3edde290	0.43336916
3	0x3e9717d5	0.2951037

enc.EncoderList.cell0.bn.running_var f4 [4]
0	0x3f922e56	1.1420391
1	0x3e987ca4	0.29782593
2	0x3e173b97	0.14768825
3	0x3f7e2e5d	0.99289495

enc.EncoderList.cell1.conv.weight f4 [8, 4, 17]
0	0xbcbdc04c	-0.023162983
1	0x3dace3d9	0.08441896
2	0x3c185cca	0.009299466
3	0xbd29d3d6	-0.041461788
4	0x3cdcfff9	0.026977526
5	0x3a8544ea	0.0010167633
6	0x3cc8903e	0.024482843
7	0xbd93cf21	-0.07217241
8	0x3df79f3c	0.120909184
9	0xbd14c651	-0.03632194
10	0x3db4778d	0.08811865
11	0x3d4d0dbe	0.050061934
12	0x3da0a604	0.07844165
13	0xbdf1b8c7	-0.118028216
14	0x3da14cd4	0.07875982
15	0xbdb77a22	-0.08958842
16	0x3ad46120	0.0016203262
17	0x3df273a9	0.11838467
18	0xbd976a78	-0.07393354
19	0x3d2f5aeb	0.042811316
20	0x3c801ce7	0.015638782
21	0xbe1f861b	-0.15578501
22	0x39b7ea20	0.00035078917
23	0xbd4159bd	-0.04720472
24	0x3e0cc438	0.13746727
25	0x3e11f76d	0.14254542
26	0x3e12804e	0.14306757
27	0xbc4396b9	-0.011937791
28	0xbd044fff	-0.032302853
29	0x3dda3c06	0.1065598
30	0x3e047cdd	0.12938257
31	0xbd9db402	-0.077003494
32	0x3b7179bf	0.0036846248
33	0xbd40ffa3	-0.047118794
34	0xbd88c656	-0.066784546
35	0xbd82b9ee	-0.063831195
36	0xbd6eb80d	-0.058280993
37	0xbd92e90a	-0.07173355
38	0xbd969606	-0.073528334
39	0x3db32291	0.087468274
40	0x3e0d425f	0.1379485
41	0xbd35eead	-0.044417072
42	0xbe59aeca	-0.21258083
43	0xbe6459e8	-0.22299922
44	0xbe96efcf	-0.29479834
45	0xbe10ea2f	-0.14151834
46	0x3da4eef8	0.08053392
47	0x3bf69518	0.0075250976
48	0xbe391c97	-0.18077312
49	0x3ac66bcf	0.0015138331
50	0xbdcf9fa6	-0.101378724
51	0xbc79218c	-0.015205752
52	0xbc82163d	-0.015879745
53	0xbda65fdf	-0.08123755
54	0xbdea84c1	-0.11451102
55	0xbe02d2a1	-0.12775661
56	0xbe1d55b5	-0.15364726
57	0x3ccf72fb	0.025323382
58	0xbe02bff8	-0.12768543
59	0xbc609fb0	-0.0137099475
60	0xbdcd87de	-0.1003568
61	0x3cbf509c	0.023353867
62	0x3def3bde	0.11681341
63	0x3d0f6d01	0.035016064
64	0xbe20d96e	-0.15707943
65	0x3bc4bf02	0.006004215
66	0x3de0a835	0.10969583
67	0x3d9d629f	0.07684826
68	0x3e24ba6c	0.1608674
69	0x3e51dc21	0.20494129
70	0x3d97a604	0.07404712
71	0x3dbc2c15	0.091880955
72	0xbd090f6a	-0.033461966
73	0x3bedc563	0.0072561963
74	0x3e18e7a6	0.14932117
75	0x3de6581e	0.11247276
76	0xbd0339be	-0.03203749
77	0xbd81c8f3	-0.06337156
78	0xbd43ea30	-0.04783076
79	0xbda8378e	-0.08213721
80	0xbd644666	-0.0557312
81	0xbc953364	-0.018212982
82	0x3da896c4	0.08231881
83	0x3be739db	0.0070564575
84	0xbdb8f1c8	-0.09030491
85	0xbdc6f4cb	-0.09714659
86	0x3caf2827	0.02138145
87	0xbd9b7dbd	-0.07592342
88	0x3d0fc08f	0.035095748
89	0x3dd5e449	0.104439326
90	0xbcf57096	-0.029960912
91	0xbb2ebaf8	-0.0026661735
92	0x3c8ede2b	0.017439922
93	0xbe0e4664	-0.1389404
94	0xbe275d9f	-0.16344307
95	0xbe025dad	-0.12731047
96	0xbd7cbc2a	-0.061702885
97	0x3c83a3e8	0.016069368
98	0x3e1246e7	0.1428486
99	0xbe013b94	-0.12620384
100	0xbdd83f68	-0.10558969
101	0x3ce9322c	0.028466307
102	0x3b621346	0.003449635
103	0x3c19bef9	0.00938391
104	0x3e1acd0a	0.15117279
105	0xbb5a99fb	-0.003335594
106	0xbe0cb23f	-0.1373987
107	0xb9e759f2	-0.00044126768
108	0x3cdd6f82	0.02703071
109	0xbd647d1c	-0.055783376
110	0xbd7d2318	-0.061801046
111	0x3df556f1	0.119794734
112	0xbd804ab7	-0.06264251
113	0xbdfe7e71	-0.124264605
114	0xbe2599f2	-0.16172007
115	0xbc4199ec	-0.011816483
116	0x3d419e48	0.04727009
117	0x3d66fe35	0.056394774
118	0x3d8dd45e	0.069252715
119	0xbe6da14a	-0.23206058
120	0xbe6dd766	-0.23226699
121	0xbda8dd99	-0.082453914
122	0x3db6504d	0.08902035
123	0x3d9809f1	0.07423771
124	0xbdad266c	-0.08454594
125	0xbdb752ee	-0.089513645
126	0xbe1fcf21	-0.15606357
127	0xbdbdb815	-0.092636265
128	0x3d98046c	0.074227184
129	0x3dd3a042	0.10333301
130	0x3e1b2cd6	0.15153822
131	0xbd9b1d63	-0.075739644
132	0x3e30ffa3	0.17285018
133	0x3d24ea61	0.040262584
134	0x3e3e204d	0.1856701
135	0x3e48eb41	0.19620992
136	0xbbdf6717	-0.006817709
137	0x3dc31e75	0.095272936
138	0xbdfddfc5	-0.12396196
139	0xbd838c29	-0.06423218
140	0x3d1a9520	0.037739873
141	0xbd0e7a47	-0.03478458
142	0x3b422c93	0.002962862
143	0xbcfdb435	-0.030969718
144	0x3dc3cff5	0.09561149
145	0x3dc5da85	0.0966082
146	0x3dc089cf	0.09401285
147	0xbbec9674	-0.007220084
148	0xbd42cd8c	-0.047559306
149	0x3d7d6a9b	0.061869245
150	0x3dba1bd4	0.09087339
151	0xbbb07d10	-0.0053860024
152	0x3c6b67a9	0.014367976
153	0xbcad57c9	-0.021160023
154	0xbd33eb40	-0.043925524
155	0xbd489091	-0.048965994
156	0xbdf65e3d	-0.12029693
157	0xbe75a73d	-0.23989578
158	0xbe87b25c	-0.26503265
159	0xbe32e0d0	-0.17468572
160	0xbe28415e	-0.16431186
161	0xbd04f486	-0.03245976
162	0xbd9ad778	-0.07560629
163	0xbbdbe2cd	-0.0067103864
164	0x3e4ec8ec	0.20193833
165	0x3e33dd5f	0.17564915
166	0x3e5aa9a8	0.21353781
167	0x3d2e8171	0.042603914
168	0x3df025a6	0.11725931
169	0x3e456232	0.1927574
170	0xbd205fed	-0.039153982
171	0xbdd70a55	-0.105000176
172	0xbcb86e09	-0.022513406
173	0xbda8479a	-0.08216782
174	0xbdd75882	-0.105149284
175	0x3db3a76e	0.08772169
176	0x3cfee857	0.031116648
177	0xbd7f6d43	-0.06236006
178	0xbda0a461	-0.07843853
179	0xbe0b41ba	-0.13599291
180	0xbdeb12fe	-0.11478232
181	0x3de0397f	0.109484665
182	0x3dbe03e6	0.09278087
183	0x397e4f51	0.00024252875
184	0xbdad6609	-0.08466727
185	0x3acb4155	0.0015507141
186	0xbd576d1f	-0.0525943
187	0x3dae9250	0.08524001
188	0x3bb3901a	0.0054798247
189	0x3d7124f5	0.058873136
190	0x3c8f3443	0.017480975
191	0x3c810af3	0.015752291
192	0xbd3fce87	-0.04682782
193	0x3de48276	0.11157696
194	0x3d4f4935	0.050606925
195	0x3e2cc140	0.16870594
196	0x3e2c523a	0.16828242
197	0xbd56330c	-0.052294776
198	0xbdcc3a06	-0.099720046
199	0x3e06cf47	0.13165008
200	0x3dbc3744	0.091902286
201	0xbdb9de41	-0.09075595
202	0xbd80bc95	-0.06285969
203	0xbe249da4	-0.1607576
204	0xbe071364	-0.1319099
205	0xbc8414ad	-0.01612314
206	0x3bbecb9b	0.0058226115
207	0xbc45e3bf	-0.012078225
208	0xbd9b651f	-0.07587647
209	0x3d709ae7	0.058741476
210	0xbd519365	-0.051165957
211	0xbe0db352	-0.13837937
212	0xbd93250b	-0.071848
213	0xbccec340	-0.025239587
214	0xbbaba0ef	-0.0052376906
215	0xbdd85eab	-0.105649315
216	0x3d158b4f	0.03650981
217	0xbd39f0f9	-0.045395825
218	0xbd831e26	-0.06402235
219	0xbc68d0c6	-0.014209932
220	0x3e429fb1	0.1900623
221	0x3dc73834	0.09727517
222	0x3dbf2c50	0.09334624
223	0x3d927b0a	0.07152374
224	0x3e12156c	0.14265984
225	0x3cd0ed03	0.025503641
226	0xbbfd414f	-0.0077287327
227	0x3ddbb357	0.10727566
228	0xbc47e06b	-0.0121995015
229	0xbe68c21e	-0.227303
230	0xbe7bec9e	-0.24601981
231	0xbe192f54	-0.1495946
232	0xbd9f5e1e	-0.07781623
233	0xbdcfd96d	-0.101488926
234	0xbe07a721	-0.13247348
235	0x3b818826	0.0039529977
236	0xbbe06ea6	-0.006849128
237	0x3d433927	0.047661927
238	0x3db3b542	0.087748066
239	0xbca41ca0	-0.02003318
240	0x3dac5ae6	0.08415775
241	0x3d9488de	0.07252668
242	0x3d1efb00	0.03881359
243	0x3d27d3fd	0.040973652
244	0x3e6e3a22	0.23264363
245	0x3ca86d21	0.02055985
246	0xbd03186f	-0.032005724
247	0xbdf2fae8	-0.11864263
248	0x391c3d66	0.00014900192
249	0x3cf960d6	0.030441683
250	0xbd57f377	-0.05272242
251	0xbdb222a6	-0.08698015
252	0xbd091003	-0.033462536
253	0xbd819ced	-0.06328759
254	0xbda4dad3	-0.0804955
255	0x3cf9cea3	0.03049404

enc.EncoderList.cell1.conv.bias f4 [8]
0	0xbbf5b51b	-0.007498396
1	0xbd5e8226	-0.054323338
2	0x3dc6fe4e	0.097164735
3	0xbedb06f1	-0.42778733
4	0xbed0c0ef	-0.40772197
5	0x3e97fb5e	0.29683965
6	0x3d09f911	0.033684794
7	0x3e557ca4	0.20848328

enc.EncoderList.cell1.activate.fcn.0.weight f4 [16, 16]
0	0x3b2603b9	0.0025331809
1	0x3dcf0e9a	0.10110207
2	0xbe08ba20	-0.13352251
3	0x3e370207	0.17871867
4	0xbdfa3ec0	-0.12219
5	0xbddd974d	-0.10819874
6	0x3db19001	0.08670045
7	0x3e5c878a	0.21536079
8	0x3da24b26	0.0792449
9	0xbe7fc2c5	-0.24976642
10	0xbe8584cb	-0.26077875
11	0x3cac7065	0.021049688
12	0xbe259b3d	-0.161725
13	0x3d39f922	0.045403607
14	0x3e8ed7ec	0.2789911
15	0xbdb3c296	-0.08777349
16	0x3e0299db	0.12754004
17	0x3e3ec500	0.18629837
18	0xbc94a3ab	-0.01814445
19	0x3ccf594f	0.02531114
20	0x3e8225c7	0.25419447
21	0x3db6f677	0.08933728
22	0xbe00f4ce	-0.12593386
23	0xbe6ecfd9	-0.23321475
24	0xbc9b0b1a	-0.018926192
25	0x3dc40feb	0.095733486
26	0x3e8a9687	0.27067968
27	0xbc8378bd	-0.016048783
28	0x3e8bb541	0.27286723
29	0xbe1c1c25	-0.15245111
30	0xbcf4172c	-0.029796205
31	0xbb043f80	-0.002017945
32	0xbe691630	-0.2276237
33	0xbe195671	-0.14974381
34	0xbe52d28d	-0.20588131
35	0x3e214c87	0.15751849
36	0xbdc7e15a	-0.09759779
37	0x3d1dafe0	0.038497806
38	0x3c1b94e3	0.009495947
39	0xbd55c4ba	-0.052189566
40	0x3dbbe0f2	0.09173764
41	0xbe3c6834	-0.18399125
42	0xbe4c8b7e	-0.19975087
43	0xbebace3a	-0.36485463
44	0xbd90eb46	-0.07076125
45	0x3dd4d009	0.10391242
46	0x3d9d5a1a	0.07683201
47	0xbd4a8cb1	-0.04945058
48	0x3dd4fa15	0.10399262
49	0x3e66ce8d	0.2253973
50	0x3d9140e8	0.07092458
51	0xbe740c29	-0.23832764
52	0xbe5ec236	-0.21753773
53	0xbca5c90d	-0.02023747
54	0xbdbe7d2d	-0.09301219
55	0x3dc25d0d	0.09490404
56	0x3e1bc144	0.15210444
57	0x3b9e118b	0.0048238686
58	0x3ea85cae	0.3288321
59	0x3e9332a0	0.2874956
60	0xbb8c8198	-0.0042879097
61	0xbe5d63af	-0.21620058
62	0x3e9635d9	0.29337958
63	0xbdeac0dd	-0.11462567
64	0xbead8ef6	-0.33898133
65	0x3e06d842	0.13168433
66	0x3dfaa3cb	0.12238272
67	0x3e35f03d	0.17767425
68	0x3c13a141	0.009010614
69	0xbe6e5e88	-0.23278248
70	0xbda9c3cf	-0.08289301
71	0x3e890257	0.26759598
72	0x3e24c660	0.16091299
73	0x3deec57e	0.116587624
74	0xbde5d5cb	-0.112224184
75	0xbcc9adfb	-0.024619093
76	0x3c98c355	0.01864783
77	0x3db89049	0.09011895
78	0x3e31de1f	0.17369889
79	0xbda4be48	-0.08044106
80	0x3e3a701c	0.18206829
81	0xbb8f007e	-0.0043640723
82	0x3d579f4a	0.052642144
83	0x3d2729db	0.0408114
84	0x3e2fb86f	0.171602
85	0x3e2909a9	0.16507591
86	0x3d73a202	0.059480675
87	0xbcbaa01c	-0.022781424
88	0xbdd93c75	-0.106072344
89	0xbe31d9f8	-0.17368305
90	0xbd010800	-0.03150177
91	0xbe7c2fa4	-0.24627548
92	0x3d2a34f0	0.04155439
93	0x3d2a0c6a	0.041515745
94	0x3eb64334	0.35598147
95	0x3e10aa79	0.1412753
96	0xbe420f8f	-0.18951248
97	0xbe3e7e40	-0.18602848
98	0xbe3c5eed	-0.18395586
99	0xbd011142	-0.0315106
100	0x3de16e0b	0.11007317
101	0x3e2b0001	0.1669922
102	0x3e15a50f	0.14613746
103	0x3c1549a1	0.009111793
104	0x3e2641bf	0.16236018
105	0x3e552e62	0.20818475
106	0xbe360de3	-0.17778735
107	0x3d4e088c	0.05030112
108	0xbc05b3f7	-0.008160583
109	0xbd9f6518	-0.07782954
110	0xbe7be89f	-0.24600457
111	0x3e86586d	0.2623934
112	0x3d9106b0	0.07081354
113	0xbb6fbedf	-0.0036582274
114	0x3e8cc720	0.2749567
115	0x3d459e62	0.04824675
116	0xbe9f2eec	-0.31090486
117	0x3e2813ac	0.16413754
118	0xbcaf5531	-0.021402927
119	0x3ab98786	0.0014154769
120	0xbe4022c2	-0.18763259
121	0x3da0faec	0.078603595
122	0xbe81894f	-0.2530007
123	0x3d48dc27	0.04903808
124	0x3e227d75	0.1586817
125	0xbe00b5b3	-0.12569313
126	0x3e2227b4	0.15835458
127	0x3dae4330	0.08508909
128	0xbcc74cfd	-0.024328703
129	0xbd83499b	-0.064105235
130	0x3eacc469	0.337436
131	0xbd846bbf	-0.064658634
132	0xbd4eb5b6	-0.05046626
133	0xbe24290e	-0.16031286
134	0x3d5ccbb7	0.053905215
135	0xbd15faf2	-0.036616273
136	0xbe0deeaa	-0.13860574
137	0x3cf30b40	0.02966845
138	0x3d865737	0.06559604
139	0xbe21fc7b	-0.1581897
140	0xbe734607	-0.23757182
141	0xbe286833	-0.16445999
142	0xbd6f01f0	-0.058351457
143	0xbe126396	-0.14295802
144	0xbe8c24f7	-0.27371952
145	0xbd877c83	-0.066155456
146	0xbe6d851a	-0.23195305
147	0x3de91850	0.1138159
148	0x3df3849c	0.118905276
149	0xbcb6db5c	-0.022321396
150	0xbe20e789	-0.15713324
151	0xbd830092	-0.06396593
152	0x3e93a53a	0.28836995
153	0x3e327974	0.17429143
154	0x3e5b17eb	0.21395843
155	0xbe85e5f3	-0.26152
156	0xbe9f2e84	-0.31090176
157	0x3d3d2c66	0.04618492
158	0x3e82bd6f	0.2553515
159	0x3d9dbce3	0.07702043
160	0xbda64fd4	-0.08120695
161	0xbda9a812	-0.0828401
162	0xbe74fc83	-0.2392445
163	0xbe8a6e86	-0.27037448
164	0x3e6acbc1	0.22929288
165	0x3e36c993	0.17850332
166	0x3cae66cd	0.021289254
167	0x3c7996b6	0.015233686
168	0x3bcb4d4d	0.0062042833
169	0xbdad7435	-0.0846943
170	0x3e4dd918	0.20102346
171	0x3dc66417	0.096870594
172	0xbd36a1cc	-0.044587895
173	0xbdabbbb5	-0.08385412
174	0x3e87e84a	0.2654441
175	0xbce2ed72	-0.027701113
176	0xbe3974a5	-0.18110903
177	0x3e384a68	0.17997134
178	0x3e6015ad	0.21883269
179	0x3ea5350a	0.32267028
180	0x3b54893b	0.0032430429
181	0xbe0d7a96	-0.13816294
182	0x3dca198c	0.09868154
183	0x3e24f09c	0.1610741
184	0xbeb04d43	-0.34433946
185	0x3caf87f9	0.021427142
186	0xbe31c0d0	-0.17358708
187	0x3d78afd6	0.060714565
188	0xbc154935	-0.009111692
189	0xbda35f45	-0.079771556
190	0x3d945856	0.07243411
191	0xbd830dcb	-0.06399115
192	0xbda34e7a	-0.079739526
193	0xbe8f21f8	-0.27955604
194	0x3e13ced7	0.14434372
195	0xbe42d0f6	-0.19025025
196	0xbce1a5f2	-0.02754495
197	0xbc74947c	-0.01492798
198	0x3cc935a8	0.024561718
199	0xbe5065d8	-0.2035135
200	0x3e091522	0.13386968
201	0xbd61dc34	-0.055141643
202	0xbd5ae31f	-0.053439256
203	0x3e4244cf	0.18971561
204	0xbe43f348	-0.19135773
205	0xbe09fb45	-0.13474758
206	0xbd8140b7	-0.063111715
207	0xbd9bcaf6	-0.07607071
208	0xbdd18237	-0.10229915
209	0xbe212fd4	-0.15740901
210	0x3da550ee	0.08072077
211	0xbeadaf1e	-0.33922666
212	0xbe37ffb7	-0.17968641
213	0xbd867411	-0.06565107
214	0x3d05e7e7	0.032691862
215	0x3d5d5524	0.054036275
216	0xbd4fbed8	-0.050719112
217	0x3de233cd	0.110450365
218	0x3e573b67	0.21018754
219	0x3e4d3d48	0.20042908
220	0xbd20003d	-0.039062727
221	0xbe0fec35	-0.1405495
222	0xbe65131a	-0.22370568
223	0xbdff3bb8	-0.12462562
224	0x3db3c179	0.08777136
225	0xbdba4555	-0.09095255
226	0x3d6da671	0.05802006
227	0xbe22e115	-0.15906174
228	0x3c594a07	0.013262278
229	0xbe699583	-0.2281094
230	0x3e2cf61e	0.16890761
231	0xbdf6af0b	-0.120451055
232	0xbd4a8ad3	-0.0494488
233	0xbe36e99d	-0.17862554
234	0x3d05eeac	0.03269832
235	0x3e96f5cf	0.29484412
236	0x3dd3879f	0.10328602
237	0xbdf08bb1	-0.11745394
238	0x3c02ddd4	0.007987458
239	0xbbb2d969	-0.005458046
240	0xbea03d84	-0.31296933
241	0x3e3186eb	0.17336623
242	0xbd12aa88	-0.035807163
243	0xbd3007ac	-0.042976066
244	0xbe0ea213	-0.13929014
245	0xbe35a874	-0.17740041
246	0xbca9c5dd	-0.020724231
247	0x3d367bc9	0.044551644
248	0x3cf58a3d	0.029973144
249	0xbda0d579	-0.07853217
250	0x3ec89ca3	0.39182004
251	0x3d24cb09	0.040232692
252	0x3b598844	0.0033192793
253	0xbe54ef01	-0.20794298
254	0x3e523407	0.2052766
255	0x3be4a52f	0.006977699

enc.EncoderList.cell1.activate.fcn.0.bias f4 [16]
0	0xbd3c44dd	-0.04596411
1	0xbdeac446	-0.114632174
2	0xbd89a8cd	-0.06721649
3	0xbe58e58c	-0.21181315
4	0xbe574e6e	-0.21026012
5	0x3e10f119	0.14154471
6	0x3e5f9224	0.21833092
7	0x3e764205	0.24048622
8	0xbe36531c	-0.17805141
9	0x3e1c0a48	0.15238297
10	0xbe1bbed8	-0.1520952
11	0x3e21caa6	0.1579996
12	0x3e2e9b3f	0.17051409
13	0x3e3cc9a2	0.18436292
14	0x3e41bf15	0.18920548
15	0x3e238964	0.15970379

enc.EncoderList.cell1.activate.fcn.1.weight f4 [16]
0	0x3f8c3e63	1.0956539
1	0x3f833342	1.0250018
2	0x3f8401d8	1.0313063
3	0x3f84b4ac	1.0367637
4	0x3f6f2b7c	0.93425727
5	0x3f700eb3	0.9377243
6	0x3f89ebfd	1.0775143
7	0x3f6d9b6c	0.9281528
8	0x3f6da4fd	0.9282988
9	0x3f9861ab	1.1904806
10	0x3f843b3e	1.0330579
11	0x3f77d220	0.96805
12	0x3f8450bf	1.0337142
13	0x3f8deb48	1.1087427
14	0x3f66da89	0.9017721
15	0x3f801227	1.000554

enc.EncoderList.cell1.activate.fcn.1.bias f4 [16]
0	0x3ddd019d	0.10791323
1	0x3df9f788	0.12205416
2	0x3e6d13f7	0.23152147
3	0x3d15c35b	0.03656326
4	0x3db770b9	0.08957047
5	0x3e7cacbd	0.2467527
6	0x3e1e71ef	0.1547315
7	0xbe02d96e	-0.12778255
8	0xbdaf6e4c	-0.08565959
9	0x3e404fc3	0.18780427
10	0xbd5c9e70	-0.053862035
11	0xba0ed1b3	-0.0005448118
12	0x3d760b7e	0.060069554
13	0x3d36f5a0	0.04466784
14	0xbe248833	-0.16067581
15	0x3d728c63	0.059215914

enc.EncoderList.cell1.activate.fcn.1.running_mean f4 [16]
0	0x3e93ec93	0.2889143
1	0xbed7daf0	-0.42159224
2	0x3e115913	0.14194135
3	0xbee18279	-0.44044855
4	0xbeac858e	-0.33695644
5	0x3efe38ec	0.49652803
6	0x3e3baf68	0.18328631
7	0x3ebf3680	0.37346268
8	0x3dab8e44	0.083767444
9	0xbca15f04	-0.019698627
10	0xbe54c237	-0.20777212
11	0x3ec3b40b	0.382233
12	0x3d96e5aa	0.07368024
13	0xbccb7872	-0.024837706
14	0xbdb31f32	-0.087461844
15	0xbe1a9bef	-0.15098546

enc.EncoderList.cell1.activate.fcn.1.running_var f4 [16]
0	0x3d16fbd0	0.03686124
1	0x3d45a68e	0.048254542
2	0x3d3018e5	0.04299249
3	0x3ce79fc6	0.028274428
4	0x3bae145d	0.005312486
5	0x3d074abe	0.033030264
6	0x3cb443e6	0.022005033
7	0x3c6b56c6	0.01436395
8	0x3d74e4e9	0.05978862
9	0x3d22f3c2	0.039783247
10	0x3c7f41f1	0.0155796865
11	0x3d72c0c1	0.059265856
12	0x3c592825	0.0132542
13	0x3cee07ad	0.029056394
14	0x3d4054ef	0.046956
15	0x3d59e72f	0.05319899

enc.EncoderList.cell1.activate.fcn.3.weight f4 [8, 16]
0	0x3ca4cd68	0.020117477
1	0x3b9a1eab	0.004703363
2	0xbde7cb02	-0.113180175
3	0xbcc84e0a	-0.024451274
4	0xbe3bfafd	-0.18357463
5	0xbd371b79	-0.044703934
6	0xbe37b279	-0.17939176
7	0xbdc31c63	-0.09526899
8	0xbe358274	-0.17725545
9	0xbe94feb7	-0.29100582
10	0xbe79c9d0	-0.24393392
11	0xbe954c09	-0.29159573
12	0xbd55933f	-0.052142378
13	0x3d865921	0.06559969
14	0x3e5247d8	0.20535219
15	0x3d8c17d2	0.06840481
16	0xbe8703ca	-0.26370078
17	0xbdd0560a	-0.10172661
18	0xbda79145	-0.08182005
19	0x3e286d53	0.16447954
20	0xbd474d80	-0.048657894
21	0x3c96c6f0	0.018405408
22	0x3c2a7ba5	0.010405456
23	0x3c91b0da	0.017784525
24	0xbe21b300	-0.1579094
25	0x3ee4a658	0.4465816
26	0x3e527ef1	0.20556237
27	0x3e1a750f	0.15083717
28	0xbe9cd03f	-0.3062763
29	0xb94725d0	-0.00018992205
30	0xbe5526d6	-0.20815596
31	0x3e8401a9	0.25782517
32	0xbe079a5d	-0.13242479
33	0x3e1e1ad5	0.15439923
34	0x3d567a9b	0.05236302
35	0x3e28293e	0.16421983
36	0xbda9ca26	-0.0829051
37	0x3d8cc196	0.06872861
38	0x3c26b69d	0.010175374
39	0xbe43ec6c	-0.19133157
40	0xbd91e589	-0.071238585
41	0x3ebbffd7	0.36718628
42	0xbd124469	-0.035709772
43	0xbd1fe44b	-0.039036077
44	0xbd863841	-0.06553698
45	0x3ea381e1	0.31935027
46	0x3e1548db	0.14578573
47	0x3d8b070d	0.06788454
48	0xbe555852	-0.20834473
49	0xbe3f1062	-0.18658593
50	0xbe098670	-0.1343019
51	0xbe7be85f	-0.24600361
52	0x3dca0e32	0.09865989
53	0xbe8b0cfd	-0.27158347
54	0x3e7286cd	0.23684235
55	0x3e3e72d8	0.18598497
56	0x3c13d216	0.009022256
57	0x3e279920	0.16367006
58	0xbe5b5566	-0.21419296
59	0x3e036d04	0.12834555
60	0xbe3dfd0f	-0.18553565
61	0xbeb53fcb	-0.35400233
62	0x3d1aeb64	0.037822142
63	0xbe64e2c5	-0.2235213
64	0xbdbe3112	-0.09286703
65	0x3eb84c52	0.35995728
66	0xbe120ee4	-0.14263493
67	0xbdeb3afb	-0.11485859
68	0x39d3455d	0.00040296736
69	0xbd3344b4	-0.043766692
70	0x3e2140ab	0.15747325
71	0xbe8a2922	-0.26984507
72	0x3d6311be	0.055436842
73	0xbdae2916	-0.0850393
74	0xbe341923	-0.17587714
75	0xbe3bd981	-0.1834469
76	0x3dc9e310	0.09857762
77	0x3dd6a935	0.104814924
78	0xbe1cc64a	-0.15310016
79	0x3e550293	0.20801763
80	0x3c98c492	0.01864842
81	0x3d918d85	0.07107071
82	0xbe7f8094	-0.24951392
83	0x3d89f12c	0.06735453
84	0x3eaf67f7	0.34259006
85	0x3d2618a4	0.040550843
86	0xbf2631a1	-0.6491948
87	0x3d486740	0.048926592
88	0x3bb36c50	0.0054755583
89	0xbd985d65	-0.074396886
90	0xbdad3265	-0.084568776
91	0x3dd1de66	0.10247497
92	0xbdea2d50	-0.11434424
93	0x3e91df4f	0.28490683
94	0xbe17bf46	-0.14819059
95	0x3d92afe3	0.07162454
96	0xbddfc6d6	-0.10926597
97	0xbd7c8a30	-0.061655223
98	0x3d1f4b3b	0.038890105
99	0xbe0c0a86	-0.1367589
100	0xbd453789	-0.048148666
101	0x3d817b82	0.06322385
102	0x3e85b7c8	0.26116776
103	0x3e1846e0	0.14870787
104	0x3e0a42dc	0.13502067
105	0x3e83471c	0.2564019
106	0x3e49b072	0.19696215
107	0xbb96a76a	-0.004597594
108	0xbdb439ea	-0.08800109
109	0xbc896029	-0.016769486
110	0xbe96cf6b	-0.29455122
111	0xbe4443a3	-0.19166426
112	0x3d5eb0d8	0.05436787
113	0xbd9d0217	-0.07666414
114	0x3e36e143	0.17859368
115	0xbe2c22f2	-0.16810206
116	0x3d73adbc	0.059491858
117	0x3e005060	0.1253066
118	0xbdbec0c8	-0.09314114
119	0x3e219fda	0.15783635
120	0x3deed43d	0.11661575
121	0xbe907eb4	-0.28221667
122	0xbe7a87dd	-0.2446589
123	0xbe6e6ab7	-0.23282896
124	0xbe331d05	-0.17491539
125	0xbe69fac1	-0.22849561
126	0xbca6eb8b	-0.020375988
127	0xbdac9ebb	-0.08428713

enc.EncoderList.cell1.activate.fcn.3.bias f4 [8]
0	0xbdf3bb1a	-0.11900921
1	0xbda9861b	-0.08277532
2	0xbdba4b2b	-0.090963684
3	0x3e761048	0.24029648
4	0xbdbe30df	-0.09286665
5	0xbe364f7f	-0.17803763
6	0x3dd32d1e	0.1031134
7	0xbc9477de	-0.018123563

enc.EncoderList.cell1.activate.fcn.4.weight f4 [8]
0	0x3f1f79cf	0.6229524
1	0x3f34a280	0.70560455
2	0x3f25beb7	0.6474413
3	0x3f543268	0.82889414
4	0x3f2ff05b	0.6872613
5	0x3f6c0b8e	0.9220513
6	0x3f3c2f55	0.7350972
7	0x3f3f9c41	0.748478

enc.EncoderList.cell1.activate.fcn.4.bias f4 [8]
0	0x3eb974ba	0.36221868
1	0xbb4cfbf8	-0.0031278115
2	0x3eedc6e8	0.46440816
3	0xbe5380e2	-0.20654634
4	0x3cd51f72	0.02601597
5	0x3ea0cd46	0.3140661
6	0x3e84b964	0.25922692
7	0x3e3e22ff	0.18568037

enc.EncoderList.cell1.activate.fcn.4.running_mean f4 [8]
0	0xbf370fe0	-0.715086
1	0x3d1639a3	0.03667606
2	0x3e927211	0.2860265
3	0xbe6f7e5f	-0.2338805
4	0xbe2ae905	-0.16690452
5	0xbec32fa0	-0.38122272
6	0x3e7d5d01	0.2474251
7	0xbed1ced7	-0.4097812

enc.EncoderList.cell1.activate.fcn.4.running_var f4 [8]
0	0x3df85c33	0.121269606
1	0x3e5a0d3a	0.21294108
2	0x3e2ddc2f	0.16978525
3	0x3edd9227	0.43275568
4	0x3e3589da	0.17728367
5	0x3f07b6c7	0.5301327
6	0x3eb7f005	0.35925308
7	0x3ebb90d3	0.3663393

enc.EncoderList.cell1.bn.weight f4 [8]
0	0x3f6df4cd	0.9295166
1	0x3f4e7861	0.80652434
2	0x3f580d94	0.8439572
3	0x3f48fd05	0.7851108
4	0x3f64a3b4	0.8931229
5	0x3f4c08bd	0.79700834
6	0x3f438f8e	0.7639092
7	0x3f42e862	0.7613584

enc.EncoderList.cell1.bn.bias f4 [8]
0	0x3dd0a30e	0.1018735
1	0xbda3f340	-0.08005381
2	0x3e05bd46	0.13060483
3	0xbebcd8d4	-0.36884177
4	0xbe4e6533	-0.20155792
5	0x3d2c86dc	0.0421208
6	0xbe816749	-0.25274113
7	0x3d9a2bfc	0.075279206

enc.EncoderList.cell1.bn.running_mean f4 [8]
0	0x3e58e981	0.21182825
1	0xbd6ddb7b	-0.05807064
2	0x3da5ae7f	0.08089923
3	0xbe26e51f	-0.1629834
4	0xbe5db3ee	-0.21650669
5	0x3edef9e0	0.43550014
6	0x3e8b7fc5	0.27245918
7	0x3f1707ab	0.58996075

enc.EncoderList.cell1.bn.running_var f4 [8]
0	0x3ebdeb3b	0.3709353
1	0x3ea14fb3	0.31506118
2	0x3f165924	0.5872977
3	0x3e9f85ec	0.31156862
4	0x3e976294	0.29567397
5	0x3f77ba8a	0.9676901
6	0x3eba5cb2	0.36398846
7	0x3ed172ac	0.409078

enc.EncoderList.cell2.conv.weight f4 [16, 8, 3]
0	0x3dc81734	0.09770051
1	0x3e5d8ccf	0.21635745
2	0x3e76e773	0.24111728
3	0xbe1d811f	-0.15381287
4	0x3e2c8642	0.1684809
5	0x3e390aeb	0.18070571
6	0xbd7bea5e	-0.061502807
7	0x3e573fc3	0.21020417
8	0x3e4c34a6	0.19941959
9	0xbcbe49f3	-0.023228621
10	0xbdcbc6a6	-0.099499986
11	0xbe06ead0	-0.13175511
12	0xbddd478d	-0.10804663
13	0x3e167028	0.14691222
14	0x3df7b3a0	0.120948076
15	0xbdc9e8cc	-0.098588556
16	0x3e09b1d6	0.13446745
17	0xbda269f8	-0.07930368
18	0x3dbaba64	0.091175824
19	0x3dff3314	0.12460914
20	0xbbcb8b08	-0.006211642
21	0xbd81a6d6	-0.063306496
22	0xbcf56ac7	-0.029958142
23	0xbcfc4734	-0.030795671
24	0x3d1c3440	0.038135767
25	0xbdb6d3f9	-0.08927149
26	0x3e07f912	0.13278607
27	0xbcb42978	-0.02199243
28	0xbdc25169	-0.09488184
29	0x3d4cb55d	0.04997765
30	0xbce61c47	-0.028089656
31	0x3e177a5a	0.14792767
32	0xbdc2dd35	-0.09514848
33	0x3d08e86b	0.033424776
34	0x3dc2c5cd	0.09510384
35	0x3c317018	0.010829948
36	0x3e5099ab	0.2037112
37	0xbde95971	-0.11394013
38	0xbea79a64	-0.32734978
39	0x3bb65922	0.0055648247
40	0xbd4527cf	-0.048133668
41	0x3d3282d0	0.043581784
42	0x3d819129	0.06326515
43	0xbebd7848	-0.3700583
44	0x3b84199a	0.0040313723
45	0xbd1206c9	-0.035651002
46	0xbddcf0dd	-0.107881285
47	0x3e134843	0.14383034
48	0xb975be27	-0.00023435858
49	0x3d43044c	0.04761152
50	0x3dad837c	0.08472344
51	0xbe602fcb	-0.21893232
52	0xbc979e96	-0.018508237
53	0x3dcf3341	0.10117198
54	0xbe9d4ded	-0.30723515
55	0xbe633b79	-0.22190656
56	0x3d7385fa	0.059453942
57	0x3e0a7b39	0.13523568
58	0xbe433223	-0.19062094
59	0x3dc04b83	0.09389403
60	0x3dcbd902	0.099535
61	0xbe58dae4	-0.2117725
62	0x3e007920	0.12546206
63	0x3dc37e25	0.095455445
64	0xbd930477	-0.07178586
65	0x3d13a7d9	0.036048744
66	0xbdeb0341	-0.1147523
67	0x3d8c616a	0.06854518
68	0x3e5cc953	0.21561174
69	0x3e03f495	0.1288627
70	0x3deb2277	0.11481183
71	0x3e0e3d99	0.13890685
72	0xbd5094a2	-0.050922997
73	0x3dae5011	0.08511365
74	0x3d52616b	0.051362436
75	0xbe0e33b1	-0.13886906
76	0xbe32d222	-0.17462972
77	0x3dac5181	0.08413983
78	0x3e233390	0.15937638
79	0xbe82e88b	-0.2556804
80	0x3c183e58	0.009292208
81	0x3cd5ac37	0.026083095
82	0x3e6b1182	0.22955897
83	0x3e9c0c63	0.304782
84	0x3e82fdc0	0.2558422
85	0x3d391dfd	0.045194615
86	0x3d1cd36f	0.038287576
87	0x3e202d02	0.15642169
88	0xbe6ccfca	-0.2312614
89	0xbdce38f1	-0.100694545
90	0xbc14209f	-0.009040981
91	0x3e0427d0	0.12905812
92	0xbe11fc1d	-0.1425633
93	0x3d65bfcc	0.056091115
94	0xbd217a49	-0.03942326
95	0x3d58991a	0.052880384
96	0xbd84846b	-0.06470569
97	0x3e270324	0.16309792
98	0x3e2774c2	0.16353133
99	0xbdf7511b	-0.120760165
100	0xbc8bc686	-0.017062437
101	0x3cf9dd60	0.030501068
102	0x3dfc1fe6	0.12310772
103	0x3e5bedd0	0.21477437
104	0x3d29a626	0.041418217
105	0xbd763f03	-0.060118686
106	0xbd66813f	-0.056275602
107	0xbe897b57	-0.26851913
108	0xbcb3fe14	-0.02197174
109	0xbced91fb	-0.029000273
110	0xbe1ca725	-0.15298136
111	0x3db9ae37	0.09066432
112	0xbdb46e08	-0.08810049
113	0x3d7b24c3	0.061314356
114	0x3c5dc491	0.013535635
115	0x3c2eaa96	0.010660788
116	0xbe43b1ed	-0.19110842
117	0xbe25c018	-0.16186559
118	0x3e0ad641	0.13558294
119	0x3e8f6402	0.28005987
120	0xbe8ffb49	-0.28121403
121	0x3d88f65b	0.066876136
122	0xbe213c7f	-0.15745734
123	0x3ddd6711	0.10810674
124	0x3e8def4f	0.2772164
125	0x3dff37dd	0.12461827
126	0xbe52a3f4	-0.20570356
127	0x3e22cff9	0.15899648
128	0x3ea09cf5	0.3136975
129	0x3de6e8b2	0.11274852
130	0x3e3e287b	0.1857013
131	0x3d148e73	0.036268663
132	0xbe1d4687	-0.15358935
133	0xbe37ce91	-0.17949893
134	0xbbc22b5c	-0.005925579
135	0x3dc1cdf7	0.09463113
136	0x3c1fd5cb	0.009755562
137	0xbd9d6891	-0.0768596
138	0xbd7439a9	-0.0596253
139	0x3d3c4c98	0.045971483
140	0xbe4264cb	-0.18983762
141	0x3d72267e	0.05911874
142	0x3dbf1df7	0.09331887
143	0xbdbf2fe3	-0.093353055
144	0x3e17e7ef	0.1483457
145	0xbdae88c7	-0.08522182
146	0xbc8b9a81	-0.017041447
147	0xbc07b6cc	-0.008283328
148	0xbe1b2b4a	-0.15153232
149	0x3e2ba37f	0.16761588
150	0xbd44c302	-0.048037536
151	0xbe214f75	-0.15752967
152	0xbe3ddfc5	-0.18542393
153	0x3d2e16c8	0.042502195
154	0xbddccafa	-0.10780902
155	0x3d791d54	0.060818985
156	0x3e41223b	0.18860714
157	0xbc00f1c6	-0.007870143
158	0xbe595eec	-0.21227616
159	0xbe82b522	-0.25528818
160	0x3dffd9fd	0.1249275
161	0x3e669340	0.22517109
162	0x3dd60172	0.104494944
163	0x3e7eccd0	0.24882817
164	0xbe5b91d9	-0.21442355
165	0xbe8a5374	-0.27016795
166	0x3d02a5e4	0.031896487
167	0x3dd32a7e	0.10310839
168	0x3e4d8ad9	0.20072497
169	0xbd68942e	-0.05678194
170	0x3e89f317	0.26943275
171	0x3e43611e	0.19080016
172	0x3e95a582	0.29227835
173	0xbe435fa3	-0.19079451
174	0x3defcbc4	0.11708787
175	0xbe7e747a	-0.2484912
176	0x3e98ff45	0.29882255
177	0x3cbb8d09	0.0228944
178	0xbe5c7e37	-0.21532522
179	0x3e2f167d	0.17098422
180	0x3bb4820f	0.0055086683
181	0xbdbcd6b7	-0.09220641
182	0xbda0e813	-0.07856765
183	0x3d3cf106	0.046128295
184	0x3e3cd079	0.18438901
185	0xbd6c3888	-0.0576711
186	0x3e076aa4	0.13224274
187	0xbd1c2827	-0.03812423
188	0x3d20f373	0.03929467
189	0x3d9869d9	0.07442064
190	0xbe2580ed	-0.16162463
191	0xbe44aa72	-0.19205645
192	0xbdbcbb48	-0.092154086
193	0xbe24d87b	-0.16098206
194	0xbe49d975	-0.1971186
195	0x3d175331	0.036944572
196	0xbd8179e7	-0.06322079
197	0xbd17568a	-0.036947764
198	0xbcbc8421	-0.023012223
199	0xbd23f560	-0.04002893
200	0xbdd4412f	-0.10363995
201	0x3d0d2881	0.034462456
202	0x3ccfa2e8	0.025346234
203	0x3de1d85e	0.11027597
204	0x3d94441d	0.07239554
205	0xbdbd0317	-0.09229105
206	0xbe068ad4	-0.13138896
207	0x3caa1bf0	0.020765275
208	0xbe169a4f	-0.14707302
209	0xbcd1bde8	-0.02560325
210	0x3c6c58cd	0.014425469
211	0x3db425ce	0.08796273
212	0x3e06f423	0.13179068
213	0x3e22e07c	0.15905946
214	0xbc57f66e	-0.013181312
215	0xbe33685d	-0.1752028
216	0x3d43d382	0.04780913
217	0xbe786dad	-0.24260588
218	0xbd35f39f	-0.04442179
219	0xbe24ec08	-0.16105664
220	0xbe39720c	-0.18109912
221	0xbe563e3d	-0.2092218
222	0x3e6c72a8	0.23090613
223	0x3e5b22e5	0.2140003
224	0x3e0493a3	0.12946944
225	0xbc805b35	-0.01566849
226	0xbe7d861d	-0.24758191
227	0xbe5d02f2	-0.21583155
228	0x3e0ee378	0.1395396
229	0x3d481098	0.04884395
230	0xbde969fb	-0.11397167
231	0x3e24915b	0.16071074
232	0x3bbeffbd	0.005828826
233	0x3d59a2bd	0.053133715
234	0xbd4dbbb5	-0.05022784
235	0xbdfda2bd	-0.123845555
236	0xbdbb9caf	-0.091607444
237	0xbd9b16fa	-0.07572742
238	0x3e55889d	0.20852895
239	0x3e80b1e9	0.25135735
240	0xbde66ac4	-0.11250833
241	0xbd4bab56	-0.049723946
242	0xbe232ca5	-0.15935
243	0xbea868ce	-0.3289246
244	0x3dbfd425	0.09366635
245	0x3e051f2e	0.13000175
246	0x3d43f4c2	0.04784084
247	0xbdd6abcd	-0.10481987
248	0x3d6c9c8a	0.057766475
249	0x3dd4f068	0.10397416
250	0x3df1ff85	0.118163146
251	0xbe42a022	-0.19006398
252	0xbe4935b9	-0.196494
253	0x3e05b0df	0.13055752
254	0xbdc3a791	-0.09553445
255	0xbe0c4cf7	-0.13701235

enc.EncoderList.cell2.conv.bias f4 [16]
0	0xbe7725e2	-0.24135545
1	0xbe0586e2	-0.13039735
2	0x3e8dc33d	0.27688017
3	0xbee7145e	-0.45132726
4	0x3dbcbd9a	0.09215851
5	0x3c19800a	0.009368906
6	0xbc80d187	-0.01572491
7	0xbcdbd1e6	-0.026833486
8	0xbeedb363	-0.46425924
9	0x3dde88d6	0.10865943
10	0xbe6ae866	-0.22940215
11	0xbe8593aa	-0.2608922
12	0xbeb63133	-0.3558441
13	0x3e9a1c68	0.30099797
14	0xbd2ee7d6	-0.042701565
15	0xbe348ec8	-0.17632592

enc.EncoderList.cell2.activate.fcn.0.weight f4 [32, 32]
0	0x3d1c5708	0.038168937
1	0x3d6b1b7b	0.057399254
2	0x3d8f1330	0.069860816
3	0xbe0a6a66	-0.1351715
4	0xbda9fe6e	-0.08300482
5	0xbe69b732	-0.2282379
6	0x3e1e055c	0.15431732
7	0xbe39d595	-0.18147881
8	0xbd753c82	-0.059872158
9	0x3d58d7db	0.05294023
10	0x3e38c765	0.18044813
11	0xbe4fcc21	-0.20292713
12	0xbe486746	-0.19570646
13	0xbe03ceed	-0.12871905
14	0x3dd91863	0.106003545
15	0x3df722c6	0.120671794
16	0x3da5af87	0.0809012
17	0xbd4dccac	-0.05024402
18	0xbc718bc7	-0.014742798
19	0xbcdbffb6	-0.02685533
20	0x3e12ae9e	0.14324424
21	0x3da8d897	0.08244436
22	0x3d8d48c4	0.068986446
23	0xbe3f2716	-0.18667254
24	0x3cd4b5b0	0.025965542
25	0x3de99036	0.11404459
26	0xbdcb683a	-0.09931989
27	0xbe0b0f04	-0.13579947
28	0xbe5a485a	-0.21316662
29	0x3d643215	0.055711824
30	0x3ddbed8d	0.107386686
31	0x3dd41137	0.10354846
32	0x3cc5c275	0.024140576
33	0x3c0303c6	0.007996505
34	0xbdb02e87	-0.086026244
35	0xbabb3adf	-0.0014284513
36	0x3dbce727	0.09223776
37	0xbe37e2f1	-0.17957665
38	0x3e0e62f1	0.1390493
39	0xbe165a29	-0.14682831
40	0xbd02b0d2	-0.03190691
41	0xbe10ce6d	-0.14141245
42	0xbd22192c	-0.039574787
43	0xbddfb797	-0.10923689
44	0x3ddeec0a	0.10884865
45	0xbeb583c9	-0.35452107
46	0x3dfd32f0	0.12363231
47	0xbc8b7fd7	-0.017028732
48	0x3e20e833	0.15713577
49	0xbe3a735e	-0.18208072
50	0x3dbe63c3	0.09296372
51	0xbe31df78	-0.17370403
52	0xbdc76fd4	-0.097381264
53	0xbd554644	-0.052068964
54	0x3e7b1dfb	0.24523155
55	0x3d80fb5a	0.062979415
56	0xbdb1b2da	-0.08676691
57	0x3d38b249	0.0450919
58	0xbceae77d	-0.028674835
59	0x3e184e84	0.14873701
60	0x3d33cd6f	0.04389709
61	0xbd8f6058	-0.07000798
62	0xbd91ee3c	-0.07125518
63	0x3c7344d5	0.014847954
64	0xbe1b44e4	-0.15162998
65	0x3cf19f5a	0.02949493
66	0x3de836cc	0.11338577
67	0x3da51850	0.08061278
68	0x3d94a203	0.07257464
69	0xbe9785f6	-0.29594392
70	0x3e35416c	0.17700738
71	0xbe085139	-0.13312234
72	0xbd8279a4	-0.06370857
73	0xbdbec394	-0.09314647
74	0x3d5f83f4	0.0545692
75	0x3daab917	0.08336084
76	0xbde4bbde	-0.11168645
77	0x3e026ac3	0.12736039
78	0xbdd3ac80	-0.10335636
79	0xbd19a157	-0.03750738
80	0xbdd86ed7	-0.10568016
81	0x3df0e3b2	0.117621794
82	0xbb9c210d	-0.004764682
83	0xbc23a1e0	-0.0099873245
84	0x3e329913	0.17441206
85	0x3ca12f5f	0.019675909
86	0xbdd6c56d	-0.10486875
87	0xbd1ce0fd	-0.038300503
88	0xbced0895	-0.028934756
89	0x3ea98250	0.33107233
90	0xbd20eadb	-0.039286476
91	0xbd9acb88	-0.07558352
92	0xbd9e7110	-0.07736409
93	0xbd008415	-0.031375963
94	0x3e3d1bb2	0.18467596
95	0xbd0390a9	-0.03212038
96	0x3d7b7752	0.06139309
97	0xbd4ecda6	-0.05048909
98	0x3e128af6	0.14310822
99	0xbd6de2d6	-0.058077656
100	0xbdf8b2d0	-0.12143481
101	0x3e10a88d	0.14126797
102	0xbaf23409	-0.0018478642
103	0x3e73f5f8	0.23824298
104	0xbe0cb2ad	-0.13740034
105	0x3df538fc	0.119737595
106	0x3d808e13	0.062770985
107	0xbc9ceb18	-0.01915507
108	0x3df1317c	0.117770165
109	0xbcab8f10	-0.020942241
110	0xbd1f652d	-0.038914848
111	0xbe122974	-0.14273626
112	0x3ca0ee88	0.01964499
113	0x3e1dca77	0.15409265
114	0xbe48459b	-0.19557802
115	0xbb01ce76	-0.0019806898
116	0xbe28f3ab	-0.16499202
117	0x3de3448b	0.11097058
118	0x3e149488	0.14509785
119	0xbe459d1d	-0.19298215
120	0x3e318a0e	0.1733782
121	0xbeb197e1	-0.34686187
122	0x3d6c7c04	0.057735458
123	0x3d9b3b3a	0.07579656
124	0x3caac2f9	0.020844923
125	0xbe06d020	-0.13165331
126	0x3da9ab31	0.08284605
127	0xbc1703fc	-0.009217259
128	0x3d7b7f3e	0.061400644
129	0xbe455207	-0.19269572
130	0xbe122bb6	-0.14274487
131	0x3e2c83a3	0.1684709
132	0xb866dd56	-5.504241e-05
133	0x3d8ff2ff	0.0702877
134	0xbe965e22	-0.29368693
135	0x3db551a2	0.08853461
136	0x3edb0f01	0.42784885
137	0x3e01a679	0.1266116
138	0x3e23ec8c	0.16008204
139	0x3e3aea02	0.1825333
140	0xbd47c19b	-0.04876862
141	0x3c3f9035	0.0116920965
142	0x3e4a0b86	0.19730958
143	0x3e569fcc	0.20959395
144	0xbe20a030	-0.15686107
145	0x3e23edc9	0.16008677
146	0x3d37c3c6	0.04486444
147	0x3ce2911e	0.027657088
148	0x3dc99b57	0.09844082
149	0xbc64d01a	-0.013965631
150	0x3df41860	0.11918712
151	0x3e1346ab	0.14382426
152	0xbe224e12	-0.15850094
153	0xbdbf6ca0	-0.093468904
154	0xbe279af1	-0.16367699
155	0xbe46b4bd	-0.19404884
156	0xbe0b830c	-0.13624209
157	0xbc5f40dd	-0.013626304
158	0xbcbadeb6	-0.022811275
159	0x3d99afc1	0.075042255
160	0x3b7c8675	0.003853229
161	0x3c9a8dc3	0.018866425
162	0x3da7e501	0.08197976
163	0xbe57c68c	-0.21071833
164	0xbda10530	-0.078623176
165	0x3dd806e8	0.10548192
166	0x3d9df458	0.077126205
167	0xbde06705	-0.109571494
168	0xbd187e84	-0.03723003
169	0x3da951a9	0.082675286
170	0xbe163062	-0.14666894
171	0xbe901271	-0.2813907
172	0x3d559b65	0.05215015
173	0x3dffbc32	0.12487067
174	0xbe164243	-0.14673714
175	0xbce66ff5	-0.028129557
176	0xbcfd1f14	-0.030898608
177	0x3e0037f5	0.12521346
178	0x3d93a2de	0.07208799
179	0x3e023efe	0.12719342
180	0x3a9643a0	0.0011464246
181	0xbe2ef97c	-0.17087358
182	0xbd723fa4	-0.059142724
183	0xbd4c585b	-0.04988895
184	0xbe69cb9e	-0.2283158
185	0x3e8b2e9e	0.27184004
186	0xbd57d674	-0.052694753
187	0xbc288962	-0.010286661
188	0xbd9ffe39	-0.07812161
189	0x3c65cc29	0.014025726
190	0x3e3ba0b5	0.18323024
191	0x3e0efb12	0.13962963
192	0xbe2ad103	-0.16681294
193	0xbe01819f	-0.12647103
194	0x3ddeb119	0.108736224
195	0xbc47dfac	-0.012199324
196	0xbd0ca7a5	-0.034339566
197	0x3d32c447	0.043644216
198	0xbdb5a216	-0.08868806
199	0xbdbbeda5	-0.091761865
200	0x3dd3a593	0.10334315
201	0x3b072fbe	0.0020627822
202	0xbdf4de3d	-0.11956451
203	0x3b05def9	0.0020427092
204	0xbdcaa3b9	-0.09894509
205	0x3e3040f2	0.17212275
206	0x3d6b25f3	0.057409238
207	0x3e02108b	0.12701623
208	0xbdd6388f	-0.104600064
209	0x3d9191e9	0.07107908
210	0xbe133e69	-0.14379276
211	0x3e8ad0ee	0.27112526
212	0xbe57389e	-0.21017691
213	0x3e00aea3	0.12566619
214	0x3d446689	0.047949348
215	0x3ec1a977	0.37824604
216	0xbb500d6d	-0.0031746284
217	0xbe05bbea	-0.13059965
218	0x3db95213	0.090488575
219	0xbd1c1cf0	-0.038113534
220	0x3d15ef3e	0.036605112
221	0x3e8254a4	0.254552
222	0x3ceffab1	0.029294344
223	0xbd92bef2	-0.07165326
224	0xbd5ddbe3	-0.05416478
225	0xbe6448c2	-0.2229338
226	0x3e221a27	0.15830289
227	0xbb82318c	-0.0039731916
228	0xbdab9815	-0.08378617
229	0x3de0ed31	0.10982741
230	0x3d83a29e	0.06427501
231	0xbddb8b9a	-0.10719986
232	0xbde38bec	-0.11110672
233	0x3ee27a9a	0.44234163
234	0x3d5efa45	0.054437894
235	0xbdb1fd53	-0.08690896
236	0xbe53df70	-0.20690703
237	0xbb980255	-0.00463895
238	0x3d461ef5	0.048369367
239	0xbccdc0f7	-0.025116427
240	0x3e051eee	0.1300008
241	0xbde2b4c8	-0.110696375
242	0x3c80602b	0.015670856
243	0xbde41d0e	-0.11138354
244	0x3e2684f4	0.16261655
245	0x3d28400d	0.04107671
246	0x3c777923	0.015104565
247	0x3e0ac2bb	0.13550846
248	0xbd863461	-0.06552959
249	0xbe7f5e03	-0.24938206
250	0xbda0f0d6	-0.07858436
251	0x3dd5356f	0.10410582
252	0x3e08ca0c	0.13358325
253	0xbd3d9e5f	-0.046293613
254	0x3dade40e	0.084907636
255	0x3e067ede	0.13134333

enc.EncoderList.cell2.activate.fcn.0.bias f4 [32]
0	0x3dbd323e	0.092380986
1	0x3e32da2c	0.17466038
2	0xbd9bc2c4	-0.07605508
3	0xbda5097d	-0.0805845
4	0x3e06f424	0.1317907
5	0x3c9c7d10	0.019102603
6	0xbc54f571	-0.012997971
7	0x3e0d62ef	0.13807271
8	0xbda95177	-0.08267491
9	0xbbe582a4	-0.007004099
10	0x3df1c732	0.118055716
11	0x3d9faf28	0.0779708
12	0xbdf4abec	-0.11946854
13	0x3d1773d5	0.0369757
14	0xbe072f27	-0.13201581
15	0xbda890bd	-0.08230732
16	0x3ddc0b3f	0.107443325
17	0xbd41cf33	-0.04731674
18	0xbdb01cb4	-0.08599225
19	0x3c901c7a	0.017591704
20	0x3d2f3deb	0.04278366
21	0xbdcbf011	-0.099578984
22	0xbdef9592	-0.1169845
23	0xbe3c0ef5	-0.1836508
24	0x3d4180ef	0.0472421
25	0xbdee83f6	-0.11646263
26	0x3c67a34d	0.014138055
27	0xbd3df10e	-0.046372466
28	0xbdb4521c	-0.088047236
29	0xbd73a137	-0.05947992
30	0xbe221745	-0.15829189
31	0xbdcaa6e0	-0.0989511

enc.EncoderList.cell2.activate.fcn.1.weight f4 [32]
0	0x3f74b37c	0.9558637
1	0x3f8f8039	1.1211005
2	0x3f817609	1.0114146
3	0x3f814e38	1.0101995
4	0x3f659950	0.8968706
5	0x3f92fac4	1.1482778
6	0x3f792238	0.9731784
7	0x3f684f2e	0.9074582
8	0x3f8cc395	1.0997187
9	0x3f789fb3	0.9711868
10	0x3f79bfbf	0.97558206
11	0x3f8c9eae	1.0985925
12	0x3f6e3277	0.93045753
13	0x3f7622d6	0.96146905
14	0x3f8b0830	1.0861874
15	0x3f9d2f28	1.2280016
16	0x3f5ea892	0.8697597
17	0x3f5898e0	0.8460827
18	0x3f7cb7d2	0.9871799
19	0x3f85d42c	1.0455375
20	0x3f873f56	1.0566204
21	0x3f77a6e5	0.96739036
22	0x3f7a9a8c	0.9789207
23	0x3f85bce4	1.044827
24	0x3f83b226	1.0288742
25	0x3f849aa0	1.0359688
26	0x3f80c28b	1.005937
27	0x3f929fe6	1.1455047
28	0x3f86e285	1.0537878
29	0x3f7f1979	0.99648243
30	0x3f7e7a26	0.99405134
31	0x3f616498	0.8804412

enc.EncoderList.cell2.activate.fcn.1.bias f4 [32]
0	0x3c546918	0.012964509
1	0xbe0f09b9	-0.13968553
2	0xbd1e3f02	-0.038634308
3	0x3e937c5f	0.28805825
4	0x3ce40270	0.027833194
5	0x3e394ab3	0.18094902
6	0xbd56c264	-0.05243148
7	0xbcd82451	-0.026384505
8	0x3dda58a1	0.10661436
9	0xbde10394	-0.109870106
10	0xbdc6f9cb	-0.09715613
11	0x3dadac69	0.0848015
12	0xbd49e155	-0.04928716
13	0xbc73ef42	-0.0148885865
14	0x3e71a90a	0.2359964
15	0x3da4b4d4	0.08042303
16	0x3c26d4b2	0.010182546
17	0xbe311e61	-0.17296745
18	0x3d2d6953	0.042336773
19	0xbdc386e4	-0.09547213
20	0x3bf4af7b	0.007467208
21	0x3d8329e5	0.06404475
22	0x3e47316a	0.19452444
23	0xbbb7c6c7	-0.005608413
24	0x3d8254d9	0.0636384
25	0xbe0a2359	-0.13490047
26	0x3ddcd2f1	0.107824214
27	0x3dc74432	0.09729804
28	0x3c0edf5c	0.008720245
29	0x3cb23838	0.021755323
30	0x3cb41a6b	0.021985253
31	0x3d910c31	0.070824035

enc.EncoderList.cell2.activate.fcn.1.running_mean f4 [32]
0	0x3d686354	0.05673535
1	0xbda58e75	-0.08083812
2	0xbd46de48	-0.048551828
3	0xbda67d75	-0.08129398
4	0x3ef56e57	0.47935745
5	0x3df5bf40	0.11999369
6	0xbe849370	-0.25893736
7	0x3eb82645	0.35966697
8	0xbe355f26	-0.17712077
9	0xbe21374f	-0.15743755
10	0x3ed48d11	0.41513875
11	0xbcdcc4f1	-0.026949378
12	0xbea51b2f	-0.32247302
13	0xbe9ed74b	-0.3102363
14	0xbe82f0fe	-0.25574487
15	0xbef77708	-0.48333
16	0x3e98d77a	0.29851896
17	0xbe0139f8	-0.1261977
18	0xbde7ca30	-0.11317861
19	0xbe9f6e0a	-0.3113864
20	0xbe5a5b6f	-0.21323942
21	0xbe5c9f14	-0.21545058
22	0xbed80c3f	-0.42196843
23	0xbeb96e82	-0.36217123
24	0xbd039f0a	-0.032134093
25	0xbea51b2f	-0.32247302
26	0x3c05a408	0.008156784
27	0xbefd093e	-0.49421114
28	0xbe402c59	-0.18766917
29	0x3f050203	0.51956195
30	0xbea5f2a4	-0.32411683
31	0x3e9f9b52	0.31173187

enc.EncoderList.cell2.activate.fcn.1.running_var f4 [32]
0	0x3cd53577	0.02602647
1	0x3cf7ba1e	0.030240115
2	0x3d0812bf	0.033221003
3	0x3ca441af	0.020050852
4	0x3bb46c1d	0.005506052
5	0x3cd15e0a	0.025557537
6	0x3c24f005	0.010066991
7	0x3ca8e7d7	0.020618362
8	0x3bc7307c	0.006078778
9	0x3cb931be	0.022606727
10	0x3c4c353a	0.012463862
11	0x3c53096f	0.012880667
12	0x3b0d0f6e	0.002152409
13	0x3c4242c2	0.011856737
14	0x3c858593	0.016299045
15	0x3c41fb6d	0.01183973
16	0x3c6bca4b	0.014391492
17	0x3cfeb6b1	0.031092973
18	0x3c5887ca	0.013215968
19	0x3c214326	0.00984267
20	0x3c975888	0.018474832
21	0x3c190191	0.009338752
22	0x3c83fe20	0.016112387
23	0x3cc1abd2	0.0236415
24	0x3d57eff5	0.052719075
25	0x3c6dd6dd	0.014516559
26	0x3cfac27c	0.030610316
27	0x3c2bac21	0.01047805
28	0x3c650a9f	0.013979583
29	0x3d1b60c7	0.03793409
30	0x3b8ac578	0.004234966
31	0x3bbfb6b9	0.0058506397
