checkpoints/best_ACDAE_emb_snr_4.pth (torch, 615378 bytes, 20 tensors)

EncList.0.conv.weight f4 [16, 2, 13]
0.29162213 0.3050276 0.008803415 0.12041257 -0.16146377 -0.09735909 -0.24113743 -0.0023351803
0.06634739 -0.23269631 0.096237294 0.029698465 0.24145459 -0.020685738 0.086558275 -0.03463904
0.14104949 0.034685 -0.06436457 0.07624993 -0.07708813 -0.045871094 -0.074153125 0.1671499
-0.06947631 0.0276936 -0.037988238 -0.104035154 0.043209605 -0.15920532 0.22246791 -0.12809934
0.18745455 0.07194015 -0.020086193 0.17685278 0.061009046 0.19490676 0.055741325 -0.081571296
0.042186577 -0.047846768 0.12237873 0.22427455 0.1699932 -0.03623446 0.16627714 0.083479375
0.15653321 -0.08567203 -0.18203391 -0.067813106 -0.16652435 0.1311136 0.023086589 0.033198573
0.015258654 -0.044269215 0.11841887 -0.1579284 -0.0031611782 -0.15807073 0.030536985 -0.09532949
0.048866723 -0.09198121 0.10058677 -0.19047986 -0.19759712 -0.19691521 0.09179092 -0.02509664
0.11011608 -0.22644573 -0.24929579 -0.19050485 -0.16846713 0.056829207 0.11712375 0.23976928
-0.03897774 -0.08964059 0.14882268 -0.013899175 0.22137116 0.038127404 0.17301482 -0.121471316
-0.08357242 0.054362003 0.0067228456 -0.028990328 0.11239951 0.10932864 -0.17406482 -0.13438994
0.17388287 -0.051232353 -0.0151922405 -0.114364386 -0.047158007 0.09734901 0.01546909 -0.11097007
-0.10624364 -0.2835813 -0.32236996 -0.2761813 -0.33213037 -0.28529593 0.031041345 -0.09436087
-0.027177308 -0.23960957 -0.15346476 -0.056525905 0.082203105 -0.13013826 -0.0647614 -0.1055901
-0.009326644 -0.07995809 -0.014425263 -0.107581176 -0.10638012 -0.0949222 -0.060083963 -0.12640975
0.23119971 0.04624467 0.13436784 -0.058102176 -0.32936206 -0.03585678 -0.21698004 -0.23299623
-0.30205366 -0.29406816 -0.021593817 -0.12454788 -0.009704791 -0.2768349 0.039701648 -0.2339392
-0.07589444 0.038124427 0.11885411 0.16087367 0.1588183 -0.18077178 0.023101272 -0.093514554
-0.00970019 -0.10503338 0.2284743 -0.08905422 0.08586416 0.06423366 0.07265102 -0.067408934
0.2729383 0.16729571 0.13573383 -0.13093255 0.09624858 -0.033748228 -0.10364134 0.12850332
-0.03603964 -0.14464997 -0.15918663 -0.07605402 0.05667931 -0.093640976 -0.1489788 -0.092809305
-0.16041799 0.06815385 0.17203595 -0.142185 0.10901294 0.17128651 -0.010640744 -0.12928727
0.014494836 0.011022457 0.00039001674 -0.06730637 -0.017007926 0.07797316 0.026652839 0.024869483
0.22613788 0.2922951 0.07596425 0.02834141 0.06815108 0.0417135 0.10652726 0.11835525
-0.12052596 -0.023242656 0.17673206 0.022051934 -0.0620265 -0.15444827 -0.09427768 -0.08502175
0.013471598 0.16016807 0.20473854 0.13335583 -0.16662465 -0.14095391 -0.0763563 0.14179918
0.0006661168 -0.062736556 0.084750555 -0.0746015 -0.14020963 0.15991746 -0.051220052 0.014721709
-0.13843651 0.19861643 0.2285004 0.15975665 -0.059649594 -0.12213789 -0.122949764 0.1517778
0.08578827 0.15607454 0.40679726 0.27177438 0.14516856 -0.06748697 -0.15831016 -0.2462968
-0.028643679 -0.2466231 -0.16717994 -0.19627368 -0.08344588 -0.19198424 -0.21603535 0.120355725
-0.017277708 0.13059357 -0.0715028 -0.14535631 0.015441687 -0.0033273788 0.011556448 -0.13621417
00000000: 7f4f 953e 942c 9c3e 333c 103c de9a f63d
00000010: c256 25be 3464 c7bd bbec 76be d309 19bb
00000020: 24e1 873d f147 6ebe 0f18 c53d 324a f33c
00000030: df3f 773e 2375 a9bc 7745 b13d aae1 0dbd
00000040: 476f 103e dc11 0e3d 92d1 83bd ec28 9c3d
00000050: 62e0 9dbd 54e3 3bbd 98dd 97bd 5829 2b3e
00000060: 9849 8ebd b0dd e23c 8e99 1bbd 6210 d5bd
00000070: 8efc 303d b806 23be a1ce 633e 792c 03be
00000080: 16f4 3f3e 5b55 933d cd8b a4bc e518 353e
00000090: 9fe4 793d a395 473e 0451 643d da0e a7bd
000000a0: d5cb 2c3d f9fa 43bd b3a1 fa3d 3aa8 653e
000000b0: b312 2e3e 966a 14bd 8e44 2a3e 3cf7 aa3d
000000c0: 3e4a 203e d174 afbd 1967 3abe 99e1 8abd
000000d0: 5c85 2abe a542 063e 1620 bd3c 3afb 073d
000000e0: 6fff 793c a353 35bd 9885 f23d fcb7 21be
000000f0: c52b 4fbb 4bdd 21be b328 fa3c 1c3c c3bd
00000100: 7928 483d a560 bcbd 7000 ce3d 270d 43be
00000110: e656 4abe 24a4 49be e1fc bb3d 7897 cdbc
00000120: 8a84 e13d 64e1 67be 6547 7fbe b413 43be
00000130: a682 2cbe bec5 683d 94de ef3d 1486 753e
00000140: 1fa7 1fbd 7c95 b7bd f964 183e 5eb9 63bc
00000150: 1faf 623e 7b2b 1c3d cc2a 313e f4c5 f8bd
00000160: 0428 abbd b1aa 5e3d 514b dc3b 207d edbc
00000170: b731 e63d b2e7 df3d 0c3e 32be 849d 09be
00000180: 5a0e 323e 04d9 51bd e0e8 78bc e037 eabd
00000190: c128 41bd eb5e c73d 1172 7d3c 4744 e3bd
000001a0: 4496 d9bd 9131 91be ad0d a5be a367 8dbe
000001b0: fe0c aabe 4f12 92be 6b4a fe3c 4640 c1bd
000001c0: f2a2 debc 365c 75be de25 1dbe b587 67bd
000001d0: 1a5a a83d f742 05be a0a1 84bd 9f3f d8bd
000001e0: c8ce 18bc 11c1 a3bd f057 6cbc 8553 dcbd
000001f0: d2dd d9bd 9266 c2bd 9a1a 76bd 8f71 01be
00000200: 9ebf 6c3e 0d6b 3d3d b997 093e 8cfc 6dbd
00000210: 25a2 a8be 8fde 12bd 0430 5ebe 9096 6ebe
00000220: c7a6 9abe 1a90 96be 84e5 b0bc f512 ffbd
00000230: d800 1fbc 4ebd 8dbe 329e 223d c28d 6fbe
00000240: 8b6e 9bbd 5c28 1c3d c969 f33d 11bc 243e
00000250: 44a1 223e 3d1c 39be e13e bd3c 8f84 bfbd
00000260: 8ced 1ebc be1b d7bd 2bf5 693e 0f62 b6bd
00000270: 8cd9 af3d f08c 833d 0fca 943d b20d 8abd
00000280: 92be 8b3e 914f 2b3e cffd 0a3e 2f13 06be
00000290: fa1d c53d 953b 0abd e941 d4bd 6096 033e
000002a0: 4d9e 13bd 1f1f 14be d201 23be 36c2 9bbd
000002b0: 9028 683d d7c6 bfbd e68d 18be ce12 bebd
000002c0: 9d44 24be 3f94 8b3d 312a 303e f298 11be
000002d0: 2d42 df3d bb65 2f3e 8456 2ebc e263 04be
000002e0: c07b 6d3c 8997 343c 297b cc39 ecd7 89bd
000002f0: 3554 8bbc 64b0 9f3d 0e57 da3c 16bb cb3c
00000300: b090 673e b4a7 953e 2593 9b3d 3f2c e83c
00000310: cb92 8b3d c6db 2a3d f72a da3d 3d64 f23d
00000320: 51d6 f6bd 6267 bebc 40f9 343e 42a6 b43c
00000330: 800f 7ebd b027 1ebe a814 c1bd e21f aebd
00000340: fab7 5c3c 1903 243e fba6 513e 6e8e 083e
00000350: a79f 2abe 3956 10be b160 9cbd ce33 113e
00000360: 579e 2e3a 067c 80bd b391 ad3d acc8 98bd
00000370: 1d93 0fbe 67c1 233e 1ecc 51bd 5333 713c
00000380: 4dc2 0dbe 1b62 4b3e 02fc 693e 3f97 233e
00000390: 2253 74bd 6e23 fabd 16cd fbbd a46b 1b3e
000003a0: c3b1 af3d 01d2 1f3e bb47 d03e 0326 8b3e
000003b0: 11a7 143e 9c36 8abd 0f1c 22be 3a35 7cbe
000003c0: 26a6 eabc c48a 7cbe 3831 2bbe f8fb 48be
000003d0: ace5 aabd 8497 44be 5f38 5dbe 107d f63d
000003e0: fb89 8dbc 52ba 053e 0f70 92bd 49d8 14be
000003f0: 21ff 7c3c 2710 5abb 4257 3d3c ba7b 0bbe

EncList.0.conv.bias f4 [16]
-0.289413 0.010251551 -0.051762458 -0.22700275 -0.019781966 -0.3765345 -0.06650909 0.16825755
0.03404124 -0.102379315 -0.11237775 -0.2106452 -0.10112217 -0.18070441 0.0010940244 0.025413273
00000000: f12d 94be 1ff6 273c df04 54bd 6973 68be
00000010: ca0d a2bc 21c9 c0be eb35 88bd b54b 2c3e
00000020: d46e 0b3d 3fac d1bd 4e26 e6bd 60b3 57be
00000030: 2419 cfbd 940a 39be 5e65 8f3a 7f2f d03c

EncList.1.conv.weight f4 [32, 16, 7]
0.09295816 -0.0029775226 0.1276933 0.04091741 -0.08235147 -0.10139973 -0.06520332 -0.016402556
0.105775915 0.18356708 0.20256399 0.19789092 0.19375698 0.16922477 -0.021639846 -0.07353539
-0.2336909 -0.253308 -0.23008478 -0.13735534 -0.05190045 -0.037143886 -0.044752542 -0.097087726
0.07445952 -0.06466474 0.038408376 -0.053637233 0.101497754 -0.022390475 -0.018086473 -0.055645753
-0.10737303 0.030234683 -0.11451283 0.06449748 0.05028268 0.10190995 -0.04236978 -0.026703835
0.027506432 0.044226184 0.029086014 0.011323147 -0.029001608 0.004577973 -0.021561472 -0.13042022
-0.17806447 -0.17509405 -0.106034756 0.030008197 0.09441028 0.12731065 0.030019425 -0.022699904
0.08159122 0.13445213 0.19613047 0.17452994 0.18017092 0.12725224 0.085834354 0.04221542
-0.01659508 0.007563852 -0.08358263 0.020468406 -0.123342656 0.005091566 -0.13588008 -0.0857794
0.045171473 0.0648254 0.19236854 0.2188155 0.1891852 0.1542345 0.06351364 -0.043262176
0.015141249 -0.10176674 -0.0059738536 -0.08811037 0.116024755 0.11323421 0.038922932 0.02705034
-0.15048829 -0.06661118 -0.06374838 0.08934392 0.13934089 0.23664157 0.19096334 0.28178453
0.28546017 0.0902134 -0.071318604 0.04448815 0.11497355 -0.044419844 0.037927914 -0.037443563
0.02093328 0.13829441 0.0377579 -0.12867533 -0.12772898 -0.1986942 -0.26132345 -0.0857875
0.0700226 0.027364181 0.064870976 0.15795867 -0.0032278572 0.057544358 0.049922656 0.0133353565
-0.051615905 0.026455168 -0.035411466 0.0004965343 0.15291153 0.13049239 -0.11805295 -0.04024961
-0.15616563 -0.1252676 -0.12364423 -0.08098132 -0.11223805 0.1366376 0.105264336 -0.024442324
-0.019739648 0.009279863 0.08050689 0.014205805 0.13442063 0.045916755 -0.05249045 -0.06309648
-0.02362984 0.030904524 0.019927183 0.09860833 0.09683716 -0.033210028 -0.046419747 -0.0023327786
0.07326345 0.15186842 0.11783464 0.18264075 0.123526916 0.0102927815 0.042657256 0.011834574
-0.061554063 0.06513562 -0.039878856 -0.097360134 0.044217136 0.11655483 0.049281932 0.0737245
0.01861292 0.14650081 0.16751835 0.053292356 -0.030857516 0.05657171 0.18462327 -0.043847352
0.07737397 0.007094018 -0.08387526 0.0397772 -0.06587097 0.06432845 0.11540425 0.15984589
-0.03648588 0.038245056 -0.004267357 0.13331462 0.09791384 0.21773444 0.019585824 0.076187514
0.091906555 -0.046038073 -0.08475187 -0.10132793 0.1327228 0.025611818 0.008683436 -0.022185119
-0.01184698 -0.085451454 -0.15005352 0.068729214 0.07185033 0.017366974 0.08573331 0.10816375
0.059095733 0.07420303 0.05189737 -0.04763647 0.059228394 0.06287981 0.02865972 0.08034616
0.04065692 0.0115417745 -0.041502334 -0.08521541 -0.13496141 -0.18742864 -0.0841822 -0.11570664
-0.11685688 -0.17988348 -0.09306392 0.049827587 -0.003708296 0.12848555 -0.043436702 -0.0745305
-0.028169626 -0.11612477 -0.058912806 -0.08394597 -0.04838723 0.06876125 0.060795672 0.04592255
0.17212914 0.03426462 0.089621894 -0.03986129 -0.011500318 -0.06319244 -0.13140507 0.048089806
0.04992793 -0.04274156 -0.056483503 -0.058810282 -0.007290113 -0.09520689 0.0023299179 -0.09298091
00000000: d960 be3d 8a22 43bb 08c2 023e 0499 273d
00000010: e3a7 a8bd a9aa cfbd 5189 85bd a75e 86bc
00000020: 0ba1 d83d 02f9 3b3e ef6c 4f3e eba3 4a3e
00000030: 3b68 463e 4249 2d3e 0c46 b1bc b999 96bd
00000040: ab4c 6fbe 96b1 81be 589b 6bbe e1a6 0cbe
00000050: 9195 54bd 3024 18bd 714e 37bd eed5 c6bd
00000060: 3c7e 983d f26e 84bd 1a52 1d3d b7b2 5bbd
00000070: 0ede cf3d 3b6c b7bc 152a 94bc cdec 63bd
00000080: 64e6 dbbd baae f73c b485 eabd 4117 843d
00000090: 36f5 4d3d 2ab6 d03d ef8b 2dbd 00c2 dabc
000000a0: 2b55 e13c 8426 353d cb45 ee3c b984 393c
000000b0: c894 edbc d202 963b afa1 b0bc e18c 05be
000000c0: 8856 36be db4b 33be c028 d9bd c0d3 f53c
000000d0: 2d5a c13d b95d 023e 4ceb f53c 26f5 b9bc
000000e0: 4c19 a73d d2ad 093e 6dd6 483e fab7 323e
000000f0: ba7e 383e 694e 023e ecc9 af3d 14ea 2c3d
00000100: 68f2 87bc 30da f73b 5f2d abbd 5cad a73c
00000110: 139b fcbd 27d7 a63b 2624 0bbe 1cad afbd
00000120: b905 393d 2ec3 843d 42fc 443e 2c11 603e
00000130: c4b9 413e a6ef 1d3e 7013 823d ae33 31bd
00000140: 0013 783c 156b d0bd 51c0 c3bb 3673 b4bd
00000150: 639e ed3d 56e7 e73d a76d 1f3d ad98 dd3c
00000160: 9a19 1abe 716b 88bd 838e 82bd f2f9 b63d
00000170: 61af 0e3e 2b52 723e e58b 433e 1046 903e
00000180: d627 923e cec1 b83d 7d0f 92bd 3539 363d
00000190: 4177 eb3d 95f1 35bd 4d5a 1b3d 6c5e 19bd
000001a0: 457c ab3c 0d9d 0d3e 07a8 1a3d 77c3 03be
000001b0: 63cb 02be 7e76 4bbe 30cc 85be 5bb1 afbd
000001c0: 0268 8f3d d92a e03c 13db 843d ebbf 213e
000001d0: 758a 53bb a2b3 6b3d b37b 4c3d 8a7c 5a3c
000001e0: 336b 53bd 82b8 d83c 9d0b 11bd da29 023a
000001f0: d794 1c3e cc9f 053e bfc5 f1bd c6dc 24bd
00000200: e2e9 1fbe 2646 00be 3039 fdbd 89d9 a5bd
00000210: 10dd e5bd baea 0b3e d494 d73d 453b c8bc
00000220: 0bb5 a1bc 910a 183c cce0 a43d 77bf 683c
00000230: 90a5 093e 3513 3c3d 3a00 57bd ba38 81bd
00000240: 5e93 c1bc 7c2b fd3c 553e a33c 2af3 c93d
00000250: 9052 c63d 3d07 08bd a222 3ebd 88e1 18bb
00000260: 260b 963d 6583 1b3e 4a53 f13d 2d06 3b3e
00000270: aefb fc3d 0ea3 283c 60b9 2e3d cde5 413c
00000280: 1d20 7cbd d365 853d 0358 23bd c064 c7bd
00000290: 071d 353d 4cb4 ee3d dadb 493d dffc 963d
000002a0: 1f7a 983c 4f04 163e ee89 2b3e 1649 5a3d
000002b0: e7c8 fcbc bdb7 673d e20d 3d3e 4899 33bd
000002c0: 3e76 9e3d f074 e83b cbc6 abbd 6bed 223d
000002d0: 5ce7 86bd a2be 833d 1059 ec3d a4ae 233e
000002e0: 3872 15bd d9a6 1c3d 2fd5 8bbb a183 083e
000002f0: 0d87 c83d c7f5 5e3e 7372 a03c 3308 9c3d
00000300: 8139 bc3d 6b92 3cbd 6392 adbd 0585 cfbd
00000310: 7ce8 073e e0cf d13c f844 0e3c 91bd b5bc
00000320: d619 42bc 2c01 afbd a1a7 19be e7c1 8c3d
00000330: 4426 933d 2f45 8e3c f294 af3d f584 dd3d
00000340: 5e0e 723d c2f7 973d 5692 543d 761e 43bd
00000350: 7999 723d 21c7 803d cac7 ea3c 878c a43d
00000360: df87 263d b619 3d3c 5afe 29bd 6b85 aebd
00000370: 5333 0abe 4bed 3fbe b867 acbd 9af7 ecbd
00000380: a952 efbd 6033 38be 4c98 bebd 0318 4c3d
00000390: e206 73bb b791 033e afea 31bd 72a3 98bd
000003a0: fdc3 e6bc d3d2 edbd 8e4e 71bd ddeb abbd
000003b0: b031 46bd b3d2 8c3d e204 793d 4919 3c3d
000003c0: 9f42 303e 0f59 0c3d af8b b73d 9845 23bd
000003d0: d46b 3cbc 0a6b 81bd 0d8f 06be d1f9 443d
000003e0: 3b81 4c3d c611 2fbd 3f5b 67bd 0de3 70bd
000003f0: e6e1 eebb d4fb c2bd 89b1 183b c66c bebd

EncList.1.conv.bias f4 [32]
-0.021793958 0.21893433 0.29785937 0.13226196 0.003475033 0.04046458 -0.15141948 0.024364982
0.11888681 -0.28057465 0.17395468 0.26384005 -0.22040032 0.025172638 -0.18402816 0.100942165
-0.09999302 0.051537342 -0.17618692 -0.11231019 -0.08072572 -0.38493732 0.005059654 0.08836398
0.02403985 -0.044983152 0.2047253 -0.23960216 0.14186457 0.20681228 0.23986426 -0.08863759
00000000: 3e89 b2bc 5230 603e 0681 983e ae6f 073e
00000010: 61bd 633b 30be 253d b50d 1bbe 1299 c73c
00000020: ee7a f33d 7ba7 8fbe 2d21 323e 0b16 873e
00000030: 9fb0 61be d936 ce3c e171 3cbe c4ba ce3d
00000040: 24c9 ccbd d218 533d 586a 34be e302 e6bd
00000050: 8753 a5bd 8116 c5be 74cb a53b 2df8 b43d
00000060: 38ef c43c 4140 38bd 82a3 513e 455a 75be
00000070: f244 113e 99c6 533e fa9e 753e a087 b5bd

EncList.2.conv.weight f4 [64, 32, 7]
-0.09768144 -0.14302172 -0.17728692 -0.29223746 -0.14735253 -0.111086525 -0.06819977 -0.11358169
-0.0871948 -0.093116865 -0.19898513 -0.018903218 -0.019211745 -0.08123843 -0.022429876 -0.005834547
-0.005340945 -0.014066725 0.068720184 0.047429502 -0.053968277 -0.05851438 -0.09292794 -0.020386478
0.0031817942 -0.05590465 -0.09218882 -0.11586412 -0.09617152 -0.036132105 0.00433462 -0.0012275964
0.038759034 0.037586957 -0.11248708 0.033333566 0.0135403825 0.07439861 0.06348982 0.080570936
0.075238205 0.03859092 -0.060068786 -0.036881328 0.04581243 0.11109934 0.13785337 0.12615983
-0.025589548 0.02735137 0.0104519725 0.03993273 0.114263356 0.16962154 -0.035100106 -0.00089781807
-0.0138554005 -0.058803182 -0.05451785 0.039753657 0.032374043 -0.061081912 -0.0953191 -0.033896506
-0.020016406 -0.09204669 0.08001353 0.11487203 0.13023837 0.024922647 -0.01516142 0.013983469
0.008472787 -0.009278852 0.04758346 0.0149738025 -0.006323804 -0.09614248 0.045323577 0.07218709
-0.01039189 0.033933528 -0.10083355 -0.08289523 -0.039076395 -0.040944785 -0.0514327 0.072520055
0.088606015 0.056262825 0.051661983 -0.08186258 0.021368718 -0.016946362 0.022963613 0.090831436
0.04770716 -0.08882457 -0.03467464 0.059988324 0.097315215 0.007747568 -0.047396056 0.03714913
-0.002879141 -0.008923181 -0.103068314 -0.07425763 -0.0056124213 -0.12837839 -0.20391324 -0.076903366
-0.020084018 -0.0033681504 -0.11044386 0.05720317 0.005914225 -0.0397325 -0.035798885 -0.04087793
-0.18597814 -0.08979776 0.089037254 0.07191382 0.041387867 0.020896146 0.010099693 0.06459646
0.056482077 0.121450484 0.17348664 0.09590918 0.084377535 -0.029785212 -0.12619977 -0.13082704
-0.019601656 0.011851384 -0.08366619 -0.11464763 -0.03321537 0.009262605 -0.056253526 -0.056216218
-0.013369805 -0.09974612 0.012200949 -0.05920185 -0.08589437 0.06254482 0.11804523 0.10804174
-0.0064871637 0.013859675 -0.08468324 -0.11051844 -0.06908768 -0.19070832 -0.13796048 -0.13058314
-0.0069469917 -0.006487013 0.051564377 0.00587959 0.0671423 -0.063284114 -0.04044391 -0.02411085
-0.067789294 -0.030404605 -0.0751586 0.10264714 0.14474481 0.043303914 -0.03872177 -0.110073686
-0.14304376 -0.034841474 0.018813774 0.10231336 -0.030149546 -0.042681035 0.020425474 -0.053361457
0.027804846 -0.0029958668 0.034189537 -0.01628548 -0.04692101 0.033648755 0.06711355 0.028090173
0.087833315 0.16155627 0.13243978 0.1165629 0.08571726 -0.06759929 -0.056938235 -0.07138811
-0.0051384056 -0.095114104 -0.06624322 -0.074526966 0.024956688 -0.032819387 0.010218497 -0.037493095
-0.084388584 -0.04763961 -0.026257228 -0.02704435 0.06472608 0.004306144 0.041557014 -0.05627137
-0.002893116 -0.049755372 -0.10568878 -0.04005985 0.03566053 0.17596066 0.17681828 0.14777976
-0.014979143 0.009762015 0.057527293 0.02005919 0.05250564 0.06599727 0.10444738 -0.15227401
-0.07787758 -0.07027808 0.012502872 -0.0532199 -0.10570892 -0.05967288 -0.07364309 -0.07063182
-0.02845394 -0.022937687 0.00667022 -0.06747671 -0.11787784 0.037732903 -0.08663045 -0.041636348
0.012609902 0.0824867 -0.040048856 -0.069209374 -0.066897675 -0.06265725 0.001762633 -0.015190411
00000000: 350d c8bd 4974 12be b48a 35be 26a0 95be
00000010: 95e3 16be 5581 e3bd 52ac 8bbd 849d e8bd
00000020: 3093 b2bd 0eb4 bebd c2c2 4bbe ecda 9abc
00000030: f361 9dbc 5660 a6bd dcbe b7bc ba2f bfbb
00000040: 1803 afbb 1f78 66bc 2bbd 8c3d 7045 423d
00000050: d70d 5dbd c6ac 6fbd 0151 bebd 8b01 a7bc
00000060: a685 503b 46fc 64bd 7ecd bcbd 2b4a edbd
00000070: 93f5 c4bd 42ff 13bd 6e09 8e3b 4de7 a0ba
00000080: cbc1 1e3d c8f4 193d a05f e6bd c788 083d
00000090: 7bd8 5d3c 4c5e 983d f306 823d 6002 a53d
000000a0: 7d16 9a3d 8311 1e3d b00a 76bd e010 17bd
000000b0: d1a5 3b3d 0d88 e33d 6f29 0d3e 0b30 013e
000000c0: 2ca1 d1bc fb0f e03c c03e 2b3c 8190 233d
000000d0: e802 ea3d 45b1 2d3e 21c5 0fbd 8d5b 6bba
000000e0: c301 63bc 9bdb 70bd 1c4e 5fbd bbd4 223d
000000f0: a59a 043d 0731 7abd a936 c3bd 10d7 0abd
00000100: 72f9 a3bc fa82 bcbd 22de a33d 0742 eb3d
00000110: 355d 053e 942a cc3c 9b67 78bc ec1a 653c
00000120: 72d1 0a3c 5306 18bc e0e6 423d ae54 753c
00000130: ea37 cfbb 59e6 c4bd 37a5 393d d3d6 933d
00000140: bf42 2abc e2fd 0a3d d281 cebd f9c4 a9bd
00000150: 920e 20bd b8b5 27bd 18ab 52bd 6585 943d
00000160: 1277 b53d d973 663d 849b 533d 91a7 a7bd
00000170: 730d af3c 19d3 8abc 301e bc3c d505 ba3d
00000180: 9568 433d a8e9 b5bd ff06 0ebd 51b6 753d
00000190: 334d c73d 50df fd3b 5e22 42bd b029 183d
000001a0: f8af 3cbb 8932 12bc 7b15 d3bd 6214 98bd
000001b0: 67e8 b7bb a075 03be a2ce 50be 837f 9dbd
000001c0: 3d87 a4bc 30bc 5cbb 6430 e2bd df4d 6a3d
000001d0: 1dcc c13b 8cbe 22bd daa1 12bd 9e6f 27bd
000001e0: 0e71 3ebe e3e7 b7bd 2a59 b63d 8e47 933d
000001f0: 5386 293d 652e ab3c 2f79 253c 264b 843d
00000200: c059 673d 08bb f83d 7ba6 313e 086c c43d
00000210: 21ce ac3d 1e00 f4bc 833a 01be 86f7 05be
00000220: a793 a0bc 4f2c 423c 2e59 abbd 60cc eabd
00000230: d70c 08bd 2ec2 173c 196a 66bd fa42 66bd
00000240: 070d 5bbc b247 ccbd 7de6 473c a47d 72bd
00000250: 63e9 afbd 8017 803d b3c1 f13d fd44 dd3d
00000260: 4692 d4bb b113 633c 686e adbd 7e57 e2bd
00000270: d77d 8dbd 0b49 43be 8345 0dbe 96b7 05be
00000280: 97a3 e3bb 0291 d4bb 2b35 533d 93a9 c03b
00000290: e781 893d 1a9b 81bd 83a8 25bd 1e84 c5bc
000002a0: 1dd5 8abd 1413 f9bc c1ec 99bd aa38 d23d
000002b0: fc37 143e 725f 313d b89a 1ebd 506e e1bd
000002c0: 107a 12be efb5 0ebd 581f 9a3c ab89 d13d
000002d0: 2efc f6bc 4fd2 2ebd 5353 a73c 8b91 5abd
000002e0: fdc6 e33c 4e56 44bb 540a 0c3d 2069 85bc
000002f0: 3f30 40bd 47d3 093d d472 893d 5d1d e63c
00000300: f4e1 b33d 026f 253e 4b9e 073e 88b8 ee3d
00000310: 888c af3d 7f71 8abd 1138 69bd ee33 92bd
00000320: 1260 a8bb 2fcb c2bd 86aa 87bd 98a1 98bd
00000330: f871 cc3c 9f6d 06bd 7c6b 273c 5c92 19bd
00000340: ecd3 acbd c021 43bd 6619 d7bc 1d8c ddbc
00000350: 1b8f 843d 8e1a 8d3b b037 2a3d cf7c 66bd
00000360: 6f9a 3dbb 4acc 4bbd 5c73 d8bd cc15 24bd
00000370: c710 123d 082f 343e da0f 353e 9453 173e
00000380: 146b 75bc dcf0 1f3c bda1 6b3d 2c53 a43c
00000390: 2710 573d 9429 873d 82e8 d53d b8ed 1bbe
000003a0: 487e 9fbd f4ed 8fbd d9d8 4c3c 1cfd 59bd
000003b0: eb7d d8bd 8d6b 74bd 30d2 96bd 6aa7 90bd
000003c0: 3d18 e9bc d1e7 bbbc dc91 da3b 3b31 8abd
000003d0: f069 f1bd d18d 1a3d 4e6b b1bd e08a 2abd
000003e0: c399 4e3c c9ee a83d 450a 24bd a5bd 8dbd
000003f0: a601 89bd 7252 80bd 2608 e73a 34e1 78bc

EncList.2.conv.bias f4 [64]
-0.16397792 -0.2912799 -0.22118892 -0.068904474 -0.0007685327 0.018408258 0.059479684 -0.043679614
0.019422678 -0.047786053 0.006460574 -0.12861551 -0.051170446 0.2208763 -0.16270632 -0.07471078
-0.08333429 0.17372516 0.13516335 0.13629657 -0.30516762 0.034161266 0.056730114 -0.22001866
-0.030160185 -0.024154311 -0.032181785 -0.09604072 0.05940648 -0.42046747 0.22770414 -0.023641802
-0.057162046 -0.046161734 -0.10415125 -0.0064055715 0.14367789 0.12080998 -0.0916969 0.11617314
-0.4001391 0.024822393 -0.3172344 0.09773125 -0.3315862 0.15189247 0.100861475 -0.025623968
-0.19247867 0.14412051 0.19550988 -0.07228189 -0.031716377 -0.14232427 0.027194928 0.18215327
0.031921964 0.16412453 -0.20756237 0.12086954 -0.23689233 -0.289904 0.04861597 0.105836734
00000000: d4e9 27be a422 95be 597f 62be ca1d 8dbd
00000010: 5b77 49ba eacc 963c f8a0 733d 65e9 32bd
00000020: 4f1c 9f3c 4fbb 43bd 39b3 d33b c9b3 03be
00000030: 1a98 51bd 662d 623e 7c9c 26be f701 99bd
00000040: 2bab aabd 02e5 313e 4368 0a3e 5491 0b3e
00000050: ee3e 9cbe afec 0b3d d65d 683d 924c 61be
00000060: 7e12 f7bc 43df c5bc 0cd1 03bd ffb0 c4bd
00000070: 3654 733d 8347 d7be 462b 693e 74ac c1bc
00000080: c022 6abd 1614 3dbd 404d d5bd d4e5 d1bb
00000090: 4c20 133e 396b f73d 96cb bbbd 2fec ed3d
000000a0: 08df ccbe 5558 cb3c 8c6c a2be 5227 c83d
000000b0: abc5 a9be b389 1b3e 7690 ce3d 5be9 d1bc
000000c0: 2119 45be 5494 133e be33 483e 8708 94bd
000000d0: 08e9 01bd 74bd 11be e6c7 de3c 6386 3a3e
000000e0: 9bc0 023d 4310 283e 3b8b 54be 738a f73d
000000f0: e793 72be 4c6e 94be 8a21 473d eec0 d83d

EncList.3.conv.weight f4 [128, 64, 7]
-0.14227864 -0.23389712 -0.12653176 -0.055569198 -0.010037053 0.073078364 0.12233845 0.06226664
-0.07081974 -0.029397322 -0.026495183 0.16859175 0.0024613943 -0.011545514 0.1927981 0.135164
0.023558287 -0.08932667 -0.22288254 -0.18006015 -0.123646714 -0.1661755 -0.008390026 0.0029755468
-0.0109098675 0.10266713 0.04624624 -0.007540981 -0.2550795 -0.26956907 -0.15923257 -0.12017914
-0.08618328 0.059397962 0.035675567 0.16897772 0.1559525 0.12577173 0.12442768 -0.07941546
-0.15704562 -0.10276212 0.15882163 0.07571123 0.05330388 0.040653348 0.0585988 0.09522344
0.16174702 0.12554453 0.16802232 0.17045711 0.12293534 0.12755439 0.05215375 -0.029673412
-0.055857 -0.04327625 -0.035813626 0.045840275 -0.03302464 0.006998576 0.14325087 0.029013572
0.015112104 0.04092403 0.008013011 -0.0069787144 0.004783351 -0.061514925 -0.03905458 -0.27850655
0.05470417 0.22877659 0.017855743 -0.15759546 -0.09823551 -0.02008189 0.054525655 0.14383365
0.14284565 -0.12755318 -0.11969649 -0.008404444 -0.114859626 -0.16758111 -0.04559835 -0.10967543
-0.090194315 -0.0020213388 0.0006333663 -0.052363317 -0.06162273 -0.017370777 -0.02532189 -0.18514383
-0.20469189 -0.06998559 -0.090750046 -0.25189263 -0.13479099 -0.10753863 0.038340107 -0.028878236
-0.05595708 -0.16526775 -0.04842248 -0.09257931 -0.14921544 -0.1591441 -0.06174403 -0.09445263
-0.17783822 -0.08834592 -0.069630556 -0.12629567 -0.016073093 -0.026992394 0.03982824 -0.28000054
-0.31614405 -0.116233185 0.022549808 -0.069467664 -0.090409495 0.08159626 0.148319 0.15551914
0.1140388 0.006408003 -0.06044221 -0.089993566 -0.020162184 -0.045885894 0.081531145 0.07610325
-0.056738626 -0.1005188 -0.07848896 0.011512266 0.017954499 -0.024201114 0.07819769 0.010525481
-0.12897685 -0.0042409506 0.1274149 -0.004492076 0.07525914 0.047328155 -0.029995512 -0.15457593
-0.0548113 -0.06076036 0.088440016 0.17859988 0.088539615 -0.027609807 -0.003112233 -0.02135492
-0.032665893 -0.16158004 -0.053183258 -0.061165515 -0.07874708 -0.10166446 -0.02229685 -0.07435456
-0.055109076 -0.08534008 -0.03801271 -0.022513356 -0.056106485 -0.0671282 -0.015096689 -0.015352773
0.012556782 0.07589305 0.034723733 -0.040113147 -0.0802804 -0.013655667 0.073760614 0.09314294
-0.009390577 0.046203397 0.010068278 -0.007079401 -0.029277012 -0.1979126 -0.1520784 -0.13963343
-0.06335652 -0.05956556 0.03903723 0.050534938 0.010555164 0.03091355 -0.022086488 -0.0302859
0.043886427 -0.08926267 -0.036144033 -0.11500394 0.07129328 -0.11997673 -0.08021041 -0.12042607
0.029845811 -0.08737538 0.14370182 0.16277157 0.18631446 0.16380334 0.11590295 -0.083345674
-0.045367796 0.09509955 0.04191357 0.08822615 0.058552995 0.081661694 -0.04146425 0.027001996
-0.07882341 -0.044972945 -0.13753408 -0.22004277 -0.28370577 -0.15272224 -0.18914707 -0.13370699
-0.15417004 0.002321449 0.051616896 0.0057467376 0.039493624 0.018363506 0.09645761 0.092794515
0.041836556 -0.06610709 -0.080657475 0.070344634 -0.000936326 0.01668284 -0.046024706 -0.03342305
0.10964501 0.10845585 0.051016822 0.115776725 0.05941634 -0.008956395 0.04920293 0.14638062
00000000: 7eb1 11be ba82 6fbe 8b91 01be 879c 63bd
00000010: 7472 24bc 1caa 953d 958c fa3d 4e0b 7f3d
00000020: f109 91bd a7d2 f0bc 6d0c d9bc 51a3 2c3e
00000030: 584f 213b 6529 3dbc dd6c 453e 6e68 0a3e
00000040: 4ffd c03c e7f0 b6bd 523b 64be b061 38be
00000050: 7d3a fdbd e929 2abe 5276 09bc 6401 433b
00000060: 4dbf 32bc 2543 d23d b36c 3d3d 551a f7bb
00000070: c899 82be f504 8abe dd0d 23be 7b20 f6bd
00000080: dc80 b0bd 474b 733d 8b20 123d 7f08 2d3e
00000090: 03b2 1f3e 4eca 003e f1d3 fe3d 93a4 a2bd
000000a0: 91d0 20be f274 d2bd 23a2 223e 7d0e 9b3d
000000b0: 2b55 5a3d 2084 263d 4c05 703d 8204 c33d
000000c0: 03a1 253e bf8e 003e 0b0e 2c3e 4f8c 2e3e
000000d0: 86c5 fb3d 9e9d 023e 2c9f 553d a815 f3bc
000000e0: 4fca 64bd 7042 31bd 4fb1 12bd 03c3 3b3d
000000f0: d844 07bd 5054 e53b 5bb0 123e dfad ed3c
00000100: c298 773c f59f 273d 0149 033c b3ad e4bb
00000110: a8bd 9c3b 13f7 7bbd b2f7 1fbd 6998 8ebe
00000120: 7b11 603d 6944 6a3e 3546 923c b460 21be
00000130: b32f c9bd c782 a4bc 4b56 5f3d 2149 133e
00000140: 2146 123e 4d9d 02be 6f23 f5bd cbb2 09bc
00000150: 863b ebbd 629a 2bbe 56c5 3abd 839d e0bd
00000160: ccb7 b8bd 7078 04bb 7e08 263a eb7a 56bd
00000170: 1e68 7cbd 294d 8ebc da6f cfbc 5896 3dbe
00000180: c09a 51be 9b54 8fbd 29db b9bd 12f8 80be
00000190: a606 0abe 373d dcbd 840a 1d3d 0d92 ecbc
000001a0: 4033 65bd f33b 29be a656 46bd 399a bdbd
000001b0: efcb 18be acf6 22be 4fe7 7cbd 6170 c1bd
000001c0: 391b 36be b5ee b4bd 779a 8ebd a753 01be
000001d0: b8ab 83bc 271f ddbc f022 233d 3b5c 8fbe
000001e0: a2dd a1be aa0b eebd 60ba b83c 1045 8ebd
000001f0: 9d28 b9bd f11b a73d f0e0 173e 6940 1f3e
00000200: 2d8d e93d 3afa d13b 4092 77bd 8c4e b8bd
00000210: 2a2b a5bc d9f2 3bbd cdf9 a63d 05dc 9b3d
00000220: c366 68bd cddc cdbd d2be a0bd f19d 3c3c
00000230: 5015 933c 6a41 c6bc 1c26 a03d 1173 2c3c
00000240: 8212 04be acf7 8abb 0d79 023e 4432 93bb
00000250: 7721 9a3d 2bdb 413d 26b9 f5bc 2749 1ebe
00000260: d081 60bd dbdf 78bd 0a20 b53d e3e2 363e
00000270: 4254 b53d f62d e2bc 9bf6 4bbb 83f0 aebc
00000280: accc 05bd 3d75 25be b0d6 59bd b188 7abd
00000290: 2646 a1bd 7535 d0bd e2a7 b6bc 3447 98bd
000002a0: 0eba 61bd c8c6 aebd 37b3 1bbd ee6d b8bc
000002b0: eacf 65bd 827a 89bd 1a58 77bc 328a 7bbc
000002c0: f6ba 4d3c d16d 9b3d 793a 0e3d af4d 24bd
000002d0: 0d6a a4bd 05bc 5fbc ce0f 973d bac1 be3d
000002e0: efda 19bc c63f 3d3d 6bf5 243c 52fa e7bb
000002f0: 58d6 efbc 9aa9 4abe 71ba 1bbe 11fc 0ebe
00000300: 10c1 81bd 04fb 73bd 81e5 1f3d b9fd 4e3d
00000310: 91ef 2c3c 6a3e fd3c b9ee b4bc 231a f8bc
00000320: 41c2 333d 59cf b6bd c40b 14bd 3087 ebbd
00000330: 3602 923d 5cb6 f5bd 5b45 a4bd f2a1 f6bd
00000340: 347f f43c ddf1 b2bd 9226 133e 97ad 263e
00000350: 38c9 3e3e 10bc 273e 875e ed3d 23b1 aabd
00000360: 95d3 39bd 8ec3 c23d 90ad 2b3d e9af b43d
00000370: 44d5 6f3d 3f3e a73d 6bd6 29bd 4a33 dd3c
00000380: 2b6e a1bd 8d35 38bd bcd5 0cbe e452 61be
00000390: e241 91be 3863 1cbe c5af 41be 7cea 08be
000003a0: c0de 1dbe 7423 183b 3d6c 533d 214f bc3b
000003b0: 11c4 213d 106f 963c 918b c53d 0d0b be3d
000003c0: cf5c 2b3d 2763 87bd bf2f a5bd d910 903d
000003d0: c673 75ba 74aa 883c 6784 3cbd 9ce6 08bd
000003e0: 908d e03d 1a1e de3d 04f7 503d 591c ed3d
000003f0: 8c5e 733d d8bd 12bc 0389 493d cde4 153e

EncList.3.conv.bias f4 [128]
-0.119947046 -0.0012486905 -0.074822694 0.13024126 -0.07712038 -0.20013781 0.15837434 0.03294581
0.08079589 -0.11343563 -0.42387444 0.23262385 -0.19874297 0.088056594 -0.107672885 -0.04266336
0.033246554 0.08951215 0.12946531 -0.044060256 0.026714545 0.039200574 0.0498841 -0.154381
-0.22284313 -0.1501637 0.09188232 0.25787714 0.025153156 -0.15298593 -0.16540025 0.30889934
-0.015318867 -0.2240073 -0.02096281 -0.15119092 -0.2603054 -0.036647543 -0.26123363 0.13569696
-0.26390582 0.06883161 -0.035251707 0.070118174 -0.1799468 -0.11597592 -0.15324695 0.0011712386
-0.25052655 -0.16654956 0.24721354 0.039450653 0.10041436 -0.09159863 -0.012034398 0.12700245
0.04592296 -0.14802963 -0.01162885 -0.02565146 0.103409216 -0.06364544 -0.009226572 0.021728918
-0.141424 0.16144279 0.2439811 0.12943783 0.17912929 -0.009651274 0.14520843 0.021707835
0.018678399 -0.13575545 0.097248085 0.04149586 0.007243726 -0.05291534 0.048918363 -0.027916541
0.092422165 -0.021476662 -0.08893182 -0.008187421 -0.22512704 0.013707945 -0.26090822 0.051543627
-0.32544088 0.18196988 0.04711831 -0.07107802 -0.054282848 0.029324861 0.048004344 -0.08358111
-0.072073735 -0.045238644 -0.046714265 0.17654853 -0.12998384 -0.110116124 -0.00896198 0.044223104
0.112734355 0.09346848 0.016944269 -0.042855572 -0.3094619 -0.12874484 0.025740556 -0.03931021
-0.12943509 -0.17478165 -0.025786933 -0.05898752 0.04950619 -0.042385362 0.044401262 -0.015415739
0.1765271 0.07023516 0.05857244 -0.057824858 -0.14392659 0.1884471 -0.044028617 -0.02612051
00000000: cca6 f5bd 1aab a3ba a43c 99bd f75d 053e
00000010: 4af1 9dbd edf0 4cbe e22c 223e 30f2 063d
00000020: 5178 a53d f150 e8bd 1206 d9be f234 6e3e
00000030: 4783 4bbe 0457 b43d 9a83 dcbd c6bf 2ebd
00000040: 8a2d 083d 2552 b73d 8e92 043e 8778 34bd
00000050: 76d8 da3c c890 203d 4553 4c3d 0e16 1ebe
00000060: fd30 64be 83c4 19be cc2c bc3d 7908 843e
00000070: fe0d ce3c 58a8 1cbe af5e 29be 0e28 9e3e
00000080: fcfb 7abc 2b62 65be 33ba abbc cbd1 1abe
00000090: c046 85be bc1b 16bd 6ac0 85be 25f4 0a3e
000000a0: aa1e 87be 96f7 8c3d 1864 10bd 1e9a 8f3d
000000b0: f943 38be c884 edbd c5ec 1cbe 3f84 993a
000000c0: 0445 80be f88b 2abe 8c25 7d3e 0297 213d
000000d0: 0ba6 cd3d 1098 bbbd ec2b 45bc ee0c 023e
000000e0: b719 3c3d 1495 17be ef86 3ebc 0323 d2bc
000000f0: 36c8 d33d 8a58 82bd 0c2b 17bc d800 b23c
00000100: 74d1 10be 4251 253e 2ed6 793e 5a8b 043e
00000110: ab6d 373e 6120 1ebc 85b1 143e a1d4 b13c
00000120: 7103 993c 7a03 0bbe 012a c73d 90f7 293d
00000130: c75c ed3b c1bd 58bd 9f5e 483d 3bb1 e4bc
00000140: d547 bd3d d3ef afbc e321 b6bd 8824 06bc
00000150: b487 66be 4a97 603c c395 85be 691f 533d
00000160: 30a0 a6be 5056 3a3e 21ff 403d 5a91 91bd
00000170: b157 5ebd b13a f03c 34a0 443d 932c abbd
00000180: 659b 93bd 284c 39bd 7557 3fbd 23c9 343e
00000190: 7c1a 05be 9084 e1bd 45d5 12bc 4923 353d
000001a0: 45e1 e63d 676c bf3d b5ce 8a3c 5389 2fbd
000001b0: ca71 9ebe b0d5 03be dcdd d23c be03 21bd
000001c0: a28a 04be f6f9 32be 1e3f d3bc e69c 71bd
000001d0: 01c7 4a3d 469c 2dbd 19de 353d 4c92 7cbc
000001e0: 85c3 343e 74d7 8f3d a8e9 6f3d c2d9 6cbd
000001f0: 7e61 13be 47f8 403e 5a57 34bd aefa d5bc

DecList.0.conv.weight f4 [128, 64, 7]
-0.14109394 -0.073373795 -0.044300783 -0.025879495 -0.12003489 -0.020480236 0.12467919 0.0074355663
-0.10608933 -0.06821205 -0.037519883 0.021518005 -0.09541322 -0.17076403 -0.11532686 -0.007651414
-0.011343819 -0.08826149 0.013755832 0.001460044 0.0056240046 -0.10156519 -0.11608469 -0.16423252
-0.021273507 -0.08383137 -0.122053675 -0.13623954 0.04620909 0.07863503 0.091189064 0.021522274
-0.017128047 -0.13830003 -0.20969427 0.017732969 0.06659448 0.057447203 0.09998343 0.05910218
-0.011455786 -0.0053771157 -0.05151669 0.116607636 0.044677444 0.0023046867 -0.06308215 -0.09785745
0.017310208 -0.04756586 0.004780305 0.12210828 0.09313801 0.07396114 0.2518081 0.1690791
-0.018071242 -0.014982956 0.04221644 0.07661822 -0.0061004655 -0.039323352 -0.005119711 -0.0014844221
0.061090186 0.06376795 -0.08439494 -0.041291807 -0.08247236 -0.28964895 0.085306644 0.13513188
0.16913421 0.020190388 0.027543569 -0.16492525 -0.29235452 -0.3877791 -0.40903226 -0.4260296
-0.2506613 -0.15927406 -0.05176089 0.008642398 -0.00086552347 -0.0876336 0.15227196 0.15047386
0.037691593 0.14190768 0.023388457 0.12666795 0.0890774 -0.073268324 -0.040761106 -0.060123216
-0.035907354 0.062737495 0.02301649 0.035167146 0.0024675753 -0.016205063 -0.018100224 -0.08625874
-0.14658783 0.12872162 0.039208975 0.056456678 -0.06707942 -0.11843497 -0.15497318 -0.042721417
-0.03231937 -0.11622773 0.009111199 -0.008712369 0.12102541 0.0068888264 -0.15228221 0.013293254
-0.05750326 0.023939999 -0.03899648 -0.13618785 -0.1409183 -0.1955938 0.13991597 0.07779837
0.08543325 0.10995514 -0.007880803 -0.1349193 0.022076767 -0.33749858 -0.23293847 -0.413585
-0.3339087 -0.1485154 -0.17901872 -0.055084124 -0.04765913 -0.01928772 -0.002563821 -0.07443199
-0.07136794 -0.008141994 -0.04765324 -0.087991856 0.088242985 0.062295634 0.05265829 0.10719303
0.0353025 0.100913525 -0.11914573 -0.083945714 -0.100916505 0.0016898281 0.044693694 0.06799695
0.058998466 -0.023832668 0.07869097 -0.054734197 -0.2070467 -0.05544642 0.13952848 0.058202587
0.056077797 0.07043349 -0.14247945 -0.10938753 -0.06754222 -0.11784678 -0.20265807 -0.12750648
-0.004076227 0.081285186 0.08517927 -0.053042598 -0.16409884 -0.030647473 -0.28077203 -0.22589701
-0.22094542 -0.3072108 -0.23557098 -0.09296995 -0.1313275 -0.017555054 -0.10264068 -0.018501358
0.039928764 0.05793534 0.13954315 0.12542896 0.060420055 0.08623223 -0.1569794 -0.0018536533
0.11988684 0.06036002 0.16911137 -0.028823406 -0.024220973 -0.033730697 -0.1181295 -0.2054243
-0.0881677 0.024432968 -0.03253993 -0.0010801038 -0.051149365 -0.032887973 -0.020722153 -0.015237737
0.054335646 -0.21636423 -0.14302623 -0.20779797 -0.08553303 -0.21666323 -0.26296502 -0.17850457
-0.04787626 -0.28214946 -0.29601124 0.20432499 0.06942249 0.045823187 0.05674939 -0.031567078
0.035933614 -0.09959176 -0.10222958 0.0046690404 0.03405086 -0.08393564 0.06633317 0.07145936
0.100136235 0.07728936 -0.06644937 -0.015055721 -0.057694986 0.122723915 -0.03080892 -0.058856886
-0.014521549 -0.064185575 -0.07384941 -0.07185148 -0.10910379 -0.030708073 -0.09822702 -0.055975076
00000000: ee7a 10be 0045 96bd bd74 35bd 3c01 d4bc
00000010: dad4 f5bd 2bc6 a7bc ce57 ff3d 0da6 f33b
00000020: 5d45 d9bd c2b2 8bbd 73ae 19bd 8746 b03c
00000030: 0268 c3bd c4dc 2ebe 7d30 ecbd b6b8 fabb
00000040: 6ddb 39bc 71c2 b4bd 2460 613c f25e bf3a
00000050: 9249 b83b 6901 d0bd cfbd edbd 922c 28be
00000060: c745 aebc c8af abbd 47f7 f9bd 6182 0bbe
00000070: be45 3d3d 670b a13d 55c1 ba3d 7b4f b03c
00000080: 1e50 8cbc 869e 0dbe 18ba 56be bb44 913c
00000090: b062 883d c24d 6b3d 1dc4 cc3d 2115 723d
000000a0: 0db1 3bbc 8432 b0bb 2a03 53bd fccf ee3d
000000b0: b2ff 363d 3a0a 173b 3731 81bd 7d69 c8bd
000000c0: 23ce 8d3c 6bd4 42bd 1ba4 9c3b e813 fa3d
000000d0: 24bf be3d f078 973d feec 803e 1223 2d3e
000000e0: 240a 94bc 137b 75bc 25eb 2c3d 03ea 9c3d
000000f0: 6ae6 c7bb 8611 21bd 40c3 a7bb f190 c2ba
00000100: b439 7a3d c598 823d 41d7 acbd 9921 29bd
00000110: 45e7 a8bd de4c 94be 40b5 ae3d 0360 0a3e
00000120: 8531 2d3e 5066 a53c 0da3 e13c 2ae2 28be
00000130: 7eaf 95be fb8a c6be ad6c d1be 8d20 dabe
00000140: ae56 80be bd18 23be 3a03 54bd d898 0d3c
00000150: 4ce4 62ba 3f79 b3bd 2eed 1b3e d215 1a3e
00000160: 8062 1a3d 3f50 113e 2699 bf3c 3eb5 013e
00000170: 366e b63d b40d 96bd 1ef5 26bd c343 76bd
00000180: 9713 13bd 847c 803d 148d bc3c 6d0b 103d
00000190: 0bb7 213b 7bc0 84bc ec46 94bc 6ca8 b0bd
000001a0: 1f1b 16be 9acf 033e 9799 203d 1e3f 673d
000001b0: ef60 89bd 098e f2bd 4ab1 1ebe a7fc 2ebd
000001c0: 5161 04bd ce08 eebd 2347 153c 53be 0ebc
000001d0: 2cdc f73d aabb e13b deef 1bbe f3cb 593c
000001e0: 8a88 6bbd d11d c43c c6ba 1fbd d474 0bbe
000001f0: e34c 10be be49 48be 2246 0f3e c054 9f3d
00000200: a1f7 ae3d 2930 e13d 7c1e 01bc 4928 0abe
00000210: 56da b43c 9dcc acbe 6c87 6ebe 6ac1 d3be
00000220: 15f6 aabe 6c14 18be af50 37be e49f 61bd
00000230: 3836 43bd 4801 9ebc c705 28bb cd6f 98bd
00000240: 5b29 92bd ff65 05bc 0b30 43bd 1335 b4bd
00000250: bdb8 b43d b529 7f3d 38b0 573d 0588 db3d
00000260: 5b99 103d c0ab ce3d ad02 f4bd bbeb abbd
00000270: 50ad cebd 397d dd3a bc10 373d fc41 8b3d
00000280: 60a8 713d ba3c c3bc bb28 a13d f730 60bd
00000290: 0d04 54be c91b 63bd 8ee0 0e3e d665 6e3d
000002a0: d5b1 653d 6f3f 903d 22e6 11be 9206 e0bd
000002b0: 9353 8abd a759 f1bd 9985 4fbe 0f91 02be
000002c0: df91 85bb d978 a63d 7872 ae3d 3243 59bd
000002d0: 8709 28be 6910 fbbc 5ac1 8fbe 8c51 67be
000002e0: 843f 62be bc4a 9dbe 8539 71be 0767 bebd
000002f0: b77a 06be 9ecf 8fbc 4735 d2bd 2990 97bc
00000300: 588c 233d 9b4d 6d3d 66e4 0e3e 7370 003e
00000310: 057b 773d 869a b03d 35bf 20be 49f6 f2ba
00000320: 3b87 f53d 113c 773d 882b 2d3e 101f ecbc
00000330: 106b c6bc 3329 0abd e1ed f1bd bf5a 52be
00000340: 4491 b4bd a627 c83c 9748 05bd 4592 8dba
00000350: ff81 51bd 8ab5 06bd 81c1 a9bc b4a7 79bc
00000360: 0e8f 5e3d 968e 5dbe 7875 12be fec8 54be
00000370: f12b afbd f7dc 5dbe 5aa3 86be e7c9 36be
00000380: e619 44bd e575 90be c98e 97be 923a 513e
00000390: 612d 8e3d 18b1 3b3d 0c72 683d 7b4c 01bd
000003a0: 202f 133d c4f6 cbbd be5d d1bd c0fe 983b
000003b0: ea78 0b3d 73e6 abbd afd9 873d 4959 923d
000003c0: 3a14 cd3d e249 9e3d 9b16 88bd 45ac 76bc
000003d0: 9451 6cbd ad56 fb3d fd62 fcbc eb13 71bd
000003e0: cbeb 6dbc ba73 83bd 5c3e 97bd de26 93bd
000003f0: cf71 dfbd 7f8f fbbc 3f2b c9bd 1f46 65bd

DecList.0.conv.bias f4 [64]
-0.037379757 -0.04584991 -0.04325755 0.11140817 -0.15537953 0.023806421 -0.07319061 0.16483329
-0.10225284 -0.015703067 -0.123909436 0.04835738 -0.045513198 -0.060572166 -0.0018893614 -0.01094607
-0.05725195 -0.08430375 -0.0012102907 -0.07731447 0.030807236 0.1675199 0.35414255 -0.26646852
0.0806562 0.14335606 -0.033241227 0.063098036 -0.046906166 0.18750219 0.086777695 -0.040570747
-0.14014064 -0.12296281 0.25944462 0.31209484 -0.17136912 -0.033157002 -0.031891614 -0.062499285
-0.06448632 -0.09497833 -0.20451488 0.030016374 -0.010510903 0.2693136 -0.13160576 -0.13467832
-0.014412964 0.24174216 0.01445873 -0.020962017 -0.12064514 -0.018997706 -0.1350942 -0.14764173
-0.0058745327 -0.071844615 -0.07031082 -0.020480925 0.019557629 0.34207088 -0.050002515 -0.011346982
00000000: 841b 19bd 1dcd 3bbd d42e 31bd f729 e43d
00000010: d01b 1fbe af05 c33c f5e4 95bd 0fca 283e
00000020: f069 d1bd b8a3 80bc 3bc4 fdbd 6312 463d
00000030: 0c6c 3abd 851a 78bd 73a4 f7ba 2557 33bc
00000040: 0581 6abd 72a7 acbd 9ea2 9eba 0d57 9ebd
00000050: 755f fc3c 568a 2b3e 2c52 b53e 906e 88be
00000060: 142f a53d eecb 123e f427 08bd 8b39 813d
00000070: ae20 40bd 9300 403e 81b8 b13d 832d 26bd
00000080: 0781 0fbe edd3 fbbd edd5 843e e5ca 9f3e
00000090: 637b 2fbe a3cf 07bd c8a0 02bd 40ff 7fbd
000000a0: 6711 84bd 0084 c2bd 596c 51be e6e4 f53c
000000b0: ec35 2cbc 79e3 893e a9c3 06be 1de9 09be
000000c0: 5a24 6cbc 428b 773e 4fe4 6c3c 89b8 abbc
000000d0: cd14 f7bd 14a1 9bbc 2256 0abe 652f 17be
000000e0: 277f c0bb 4523 93bd 1fff 8fbd 9dc7 a7bc
000000f0: 5237 a03c ea23 af3e 70cf 4cbd b1e8 39bc

DecList.0.ECA.conv.weight f4 [1, 1, 3]
0.27741277 -0.048328757 -0.84592277
00000000: 0c09 8e3e 60f4 45bd 658e 58bf

DecList.1.conv.weight f4 [64, 32, 7]
-0.13005868 -0.09564587 -0.12843446 -0.055300508 0.18166 0.09137264 -0.027694674 -0.112788595
-0.089328595 0.042969745 0.028467081 0.11968432 0.0813687 0.06653131 -0.13992643 -0.12015302
-0.034218308 -0.073206484 -0.08587919 -0.033596866 -0.12891832 0.007445934 -0.008894286 0.05927569
0.056049224 0.12991218 -0.08082394 -0.0109261805 0.11811913 -0.063401334 0.10143102 -0.0679443
0.0040507033 -0.09465397 -0.19347411 0.014874483 -0.06675232 -0.015785707 0.08831247 -0.08691958
0.051163204 -0.028713707 -0.10575202 -0.06709132 0.06359635 0.0450176 0.07698237 0.016931085
0.021466432 0.044893183 0.0852148 -0.025323484 0.102572955 0.16017722 -0.023498688 0.024306875
-0.05439304 0.08838221 -0.057880584 -0.06134995 0.088432774 -0.013302214 -0.12282281 -0.07846992
-0.08183695 0.038280975 0.05630457 -0.07465262 0.03876986 0.056272086 -0.11880303 -0.10124569
-0.04242587 0.02189186 -0.039285794 0.016200325 0.021551713 0.015279745 -0.056816958 -0.006802967
0.018595992 -0.053183638 0.10547549 -0.03156687 -0.038187537 -0.065967575 0.043636043 0.03008971
-0.14224052 -0.01714848 -0.06542712 -0.09078217 -0.21913514 -0.17310585 0.008291247 -0.06848365
-0.07271546 -0.090396546 0.005243103 -0.08586058 -0.08493511 -0.10239682 0.05115861 -0.007156356
-0.070390746 0.047735605 -0.004822978 0.078866616 -0.017567284 0.015010751 0.048586793 -0.00055298663
-0.007011393 0.14306916 0.11601018 -0.02281323 -0.005610151 0.034752265 0.09593708 -0.07245609
-0.033343274 -0.049114514 -0.20649007 -0.012268566 -0.08519528 0.0013693332 0.06275447 -0.03933037
0.102840595 0.15329558 0.14469467 0.027006472 0.06410762 0.028897507 0.041351862 -0.00057312596
-0.22848395 -0.03941129 -0.026995782 0.09761931 -0.07229788 0.0015223211 -0.08461541 -0.12738712
0.11768595 0.066609256 -0.077695645 -0.01660403 0.14594446 -0.03181035 0.075252034 0.07056591
0.092488416 0.1315929 -0.034749396 -0.06972338 -0.010883099 -0.08651564 0.04079781 -0.06640665
-0.03369266 -0.12530288 -0.108636305 -0.017168846 -0.06906368 -0.09554285 -0.10713683 -0.050884623
0.018254908 0.021296417 -0.021274481 -0.040931124 -0.01715419 -0.017777402 -0.08863345 0.094554715
0.034911945 0.060171653 0.056307804 0.02568537 -0.093615144 0.0032446748 -0.08578091 -0.025403919
0.006122895 0.08964209 -0.09813711 -0.01773193 0.0668208 0.02950926 0.06367169 0.08452391
0.14372675 0.057775088 0.003871228 0.0036187938 0.11238619 0.059476595 0.12446501 0.11689164
0.03046995 -0.025619213 0.0012571329 -0.019211654 0.09478506 -0.051767934 0.09658175 0.023566632
0.07914325 0.054022968 0.015108604 0.069815196 0.07961649 0.023508398 -0.025838736 0.017848289
0.014345093 -0.19403371 0.029984608 0.12079971 -0.03263418 -0.050926875 0.08081132 0.03927275
-0.0266363 0.08185068 0.06100051 0.04607943 -0.004649983 -0.20652792 0.05619675 -0.0023368837
-0.05195232 0.032568686 0.019451542 0.124302894 0.11303584 0.059707593 -0.08878447 -0.037425227
0.08612398 0.23598939 0.19500956 0.11000428 0.14996564 -0.006340487 -0.04129338 0.008650994
0.0034819045 -0.15536925 0.23511286 0.23831092 -0.14194894 -0.08397842 -0.04006509 0.15050341
00000000: 1a2e 05be fbe1 c3bd 5384 03be c982 62bd
00000010: 1405 3a3e 9421 bb3d f1df e2bc b5fd e6bd
00000020: e9f1 b6bd 0b01 303d cc33 e93c 0e1d f53d
00000030: a2a4 a63d 9141 883d e048 0fbe c912 f6bd
00000040: 7f28 0cbd 48ed 95bd 6ee1 afbd de9c 09bd
00000050: 2a03 04be 06fd f33b 57b9 11bc 11cb 723d
00000060: df93 653d b307 053e 0687 a5bd b903 33bc
00000070: 71e8 f13d 8fd8 81bd 11bb cf3d 6226 8bbd
00000080: c3bb 843b f1d9 c1bd 141e 46be 1bb4 733c
00000090: 71b5 88bd 0751 81bc 2bdd b43d e502 b2bd
000000a0: 8290 513d 0239 ebbc 8494 d8bd 2d67 89bd
000000b0: ce3e 823d 6064 383d efa8 9d3d 0fb3 8a3c
000000c0: 5fda af3c eae1 373d 1985 ae3d 3273 cfbc
000000d0: c511 d23d 7f05 243e 5280 c0bc 361f c73c
000000e0: 3ccb 5ebd bb01 b53d 3114 6dbd 164a 7bbd
000000f0: 3e1c b53d 88f1 59bc 878a fbbd d6b4 a0bd
00000100: 219a a7bd 83cc 1c3d 9f9f 663d 79e3 98bd
00000110: 25cd 1e3d 8f7d 663d 014f f3bd e659 cfbd
00000120: c0c6 2dbd 8f56 b33c 24ea 20bd 8bb6 843c
00000130: 388d b03c e557 7a3c e6b8 68bd 6ceb debb
00000140: 9f56 983c 16d7 59bd 8903 d83d 434c 01bd
00000150: 896a 1cbd 021a 87bd b5bb 323d b27e f63c
00000160: 80a7 11be f87a 8cbc a7fe 85bd 01ec b9bd
00000170: f664 60be a942 31be 03d8 073c 2841 8cbd
00000180: d8eb 94bd d321 b9bd 56ce ab3b acd7 afbd
00000190: 75f2 adbd 6db5 d1bd b18b 513d dd7f eabb
000001a0: 0629 90bd 6986 433d 120a 9ebb d284 a13d
000001b0: 44e9 8fbc a7ef 753c f202 473d 4ef6 10ba
000001c0: d4bf e5bb b980 123e bf96 ed3d d0e2 babc
000001d0: 5cd5 b7bb 6458 0e3d a97a c43d dc63 94bd
000001e0: f592 08bd 4d2c 49bd 2272 53be 1802 49bc
000001f0: dd7a aebd 337b b33a 6a85 803d e218 21bd
00000200: 179e d23d 84f9 1c3e d72a 143e ad3c dd3c
00000210: db4a 833d 77ba ec3c 9260 293d d53d 16ba
00000220: b2f7 69be bc6d 21bd 4226 ddbc a2ec c73d
00000230: e910 94bd 9f88 c73a d84a adbd c571 02be
00000240: 5505 f13d 6f6a 883d e51e 9fbd 2d05 88bc
00000250: 7772 153e 924b 02bd bd1d 9a3d dc84 903d
00000260: 916a bd3d 4ac0 063e 6255 0ebd 22cb 8ebd
00000270: 074f 32bc 1d2f b1bd 9b1b 273d 3600 88bd
00000280: 5101 0abd 664f 00be b67c debd aea5 8cbc
00000290: 4271 8dbd f8ab c3bd 8e6a dbbd 656c 50bd
000002a0: 518b 953c d375 ae3c d247 aebc 65a7 27bd
000002b0: f286 8cbc eaa1 91bc 7485 b5bd e7a5 c13d
000002c0: d4ff 0e3d 8d76 763d 03a3 663d 206a d23c
000002d0: 4cb9 bfbd 9ca4 543b e7ad afbd e11b d0bc
000002e0: 91a2 c83b 4696 b73d 1cfc c8bd 8d42 91bc
000002f0: 58d9 883d 67bd f13c 4e66 823d df1a ad3d
00000300: 1b2d 133e 92a5 6c3d 6eb4 7d3b 4929 6d3b
00000310: bb2a e63d bb9d 733d 83e7 fe3d e264 ef3d
00000320: 1e9c f93c 62df d1bc 61c6 a43a c261 9dbc
00000330: ab1e c23d 9d0a 54bd a7cc c53d cf0e c13c
00000340: db15 a23d 3047 5d3d 148a 773c 45fb 8e3d
00000350: f80d a33d af94 c03c c2ab d3bc 9336 923c
00000360: ae07 6b3c c6b0 46be 48a2 f53c d765 f73d
00000370: 6bab 05bd b398 50bd 6880 a53d 77dc 203d
00000380: 5f34 dabc 54a1 a73d acdb 793d c9bd 3c3d
00000390: e25e 98bb 0e7c 53be 902e 663d 6726 19bb
000003a0: f5cb 54bd be66 053d d758 9f3c 8492 fe3d
000003b0: 567f e73d f38f 743d a2d4 b5bd 324b 19bd
000003c0: c561 b03d 34a7 713e 96b0 473e ed49 e13d
000003d0: 9890 193e dcc3 cfbb 3f23 29bd e6bc 0d3c
000003e0: aa30 643b 1e19 1fbe 6dc1 703e c707 743e
000003f0: 105b 11be e1fc abbd 4b1b 24bd 911d 1a3e

DecList.1.conv.bias f4 [32]
0.08814162 0.20649298 0.10826603 0.0780992 0.06439673 0.07302831 0.10106542 0.03348559
0.10459059 0.013021189 -0.072574995 -0.06356537 -0.008084984 -0.015454427 0.1653991 0.01723474
0.11308871 0.02142399 -0.03252157 -0.018518578 0.015229823 -0.043922305 -0.06391142 0.081312664
0.21485506 -0.0028348553 0.04609862 -0.037908282 0.04620653 0.023787022 -0.04452302 0.06606267
00000000: 9883 b43d e572 533e 95ba dd3d 79f2 9f3d
00000010: 6fe2 833d de8f 953d 63fb ce3d 3028 093d
00000020: 9733 d63d d356 553c 33a2 94bd 902e 82bd
00000030: e176 04bc 9134 7dbc 625e 293e df2f 8d3c
00000040: 0e9b e73d 5d81 af3c 5635 05bd 46b4 97bc
00000050: 8286 793c e0e7 33bd fee3 82bd 4187 a63d
00000060: f702 5c3e fbc8 39bb e8d1 3c3d b745 1bbd
00000070: 0f43 3d3d 00dd c23c c55d 36bd dd4b 873d

DecList.1.ECA.conv.weight f4 [1, 1, 3]
0.8879604 0.54851466 0.670293
00000000: 5f51 633f 756b 0c3f 5298 2b3f
