checkpoints/best_Seq2Seq2_bw_snr-4.pth (torch, 105766 bytes, 209 tensors)

enc.EncoderList.cell0.conv.weight f4 [2, 1, 17]
0	0x3e46fe6d	0.19432993
1	0xbd483038	-0.04887411
2	0x3e3afdd3	0.18260889
3	0xbcf4660b	-0.029833814
4	0xbbdba054	-0.006702462
5	0x3e3f2197	0.18665157
6	0xbe103bd0	-0.14085317
7	0x3e87fa5e	0.26558203
8	0x3db4fac9	0.08836896
9	0xbdac3fb8	-0.08410591
10	0x3e4b4636	0.19851002
11	0x3e7fa957	0.24966942
12	0x3e75b16d	0.23993464
13	0x3b9105ff	0.0044257636
14	0x3c170f01	0.009219886
15	0x3e8166c0	0.25273705
16	0x3e5794bb	0.2105283
17	0xbe699bcf	-0.22813343
18	0x3e048389	0.12940802
19	0x3e16d5c8	0.14729989
20	0xbe9ae5e4	-0.30253518
21	0xbe0219d0	-0.12705159
22	0xbcae0b2b	-0.02124556
23	0x3a668ef5	0.0008795106
24	0x3d4c27b8	0.049842566
25	0x3cae2148	0.021256104
26	0x3e2db7bb	0.16964619
27	0x3c92ad8a	0.017905015
28	0x3e7362ef	0.23768209
29	0x3e3650dc	0.17804283
30	0x3d92eb45	0.0717378
31	0xbc369a49	-0.011145183
32	0x3d38c3d6	0.04510864
33	0xba0cde0e	-0.0005373665

enc.EncoderList.cell0.conv.bias f4 [2]
0	0x3e0d8f54	0.13824207
1	0xbe5e6e43	-0.21721749

enc.EncoderList.cell0.activate.fcn.0.weight f4 [4, 4]
0	0x3e9562b9	0.29176882
1	0x3dd6745f	0.10471415
2	0x3efc1d34	0.4924103
3	0x3efb1684	0.49040616
4	0x3eb880fc	0.36035907
5	0x3e5c0b49	0.2148868
6	0xbdbcc84b	-0.0921789
7	0xbea08541	-0.31351665
8	0xbe4fa7e4	-0.20278889
9	0x3d5e17c5	0.054221887
10	0x3e8a316d	0.26990834
11	0x3e1a77f8	0.15084827
12	0xbec86cb9	-0.3914545
13	0x3eca1840	0.39471626
14	0x3e7af965	0.24509199
15	0xbeadabf8	-0.33920264

enc.EncoderList.cell0.activate.fcn.0.bias f4 [4]
0	0xbe95f811	-0.29290822
1	0x3ecd4428	0.40091062
2	0xbe703d06	-0.23460779
3	0xbe40e49e	-0.1883721

enc.EncoderList.cell0.activate.fcn.1.weight f4 [4]
0	0x3f5938ca	0.8485228
1	0x3f7fa6f0	0.998641
2	0x3fa36211	1.2764302
3	0x3f80e1dc	1.0068927

enc.EncoderList.cell0.activate.fcn.1.bias f4 [4]
0	0xbddf4971	-0.1090268
1	0x3e2424a8	0.16029608
2	0x3ea49aa1	0.32149222
3	0x3ded64fd	0.115915276

enc.EncoderList.cell0.activate.fcn.1.running_mean f4 [4]
0	0xbf1386dd	-0.5762766
1	0x3fa64147	1.2988671
2	0xbf72a27f	-0.947792
3	0xbf660b9f	-0.8986148

enc.EncoderList.cell0.activate.fcn.1.running_var f4 [4]
0	0x401d4918	2.4575863
1	0x3e6e9ad2	0.23301247
2	0x3e8567b6	0.26055688
3	0x3e3c801a	0.18408242

enc.EncoderList.cell0.activate.fcn.3.weight f4 [2, 4]
0	0x3e220bcf	0.15824817
1	0xbe67a816	-0.22622713
2	0x3d93d258	0.07217854
3	0x3ea23b1e	0.31685728
4	0xbd95dcb8	-0.073174894
5	0x3db16957	0.0866267
6	0xbf421380	-0.75811005
7	0x3e84d3bc	0.2594279

enc.EncoderList.cell0.activate.fcn.3.bias f4 [2]
0	0xbdeaaa5c	-0.11458275
1	0x3ef6c4bb	0.48196968

enc.EncoderList.cell0.activate.fcn.4.weight f4 [2]
0	0x3f46c956	0.77650964
1	0x3ed2a338	0.4114015

enc.EncoderList.cell0.activate.fcn.4.bias f4 [2]
0	0x3d501983	0.05080558
1	0x3f5f6a9c	0.8727205

enc.EncoderList.cell0.activate.fcn.4.running_mean f4 [2]
0	0x3c6a42b1	0.014298127
1	0x3de6208d	0.11236677

enc.EncoderList.cell0.activate.fcn.4.running_var f4 [2]
0	0x3dbee4a2	0.09320952
1	0x3e1ac504	0.15114218

enc.EncoderList.cell0.bn.weight f4 [2]
0	0x3f61e41e	0.88238704
1	0x3f77deae	0.9682416

enc.EncoderList.cell0.bn.bias f4 [2]
0	0x3dcad06a	0.09903033
1	0xbd4cb6c0	-0.04997897

enc.EncoderList.cell0.bn.running_mean f4 [2]
0	0x3f8d962c	1.1061454
1	0xbd452550	-0.048131287

enc.EncoderList.cell0.bn.running_var f4 [2]
0	0x40d3bcae	6.616782
1	0x3f21acf3	0.63154525

enc.EncoderList.cell1.conv.weight f4 [4, 2, 17]
0	0x3ce26d0b	0.027639886
1	0xbd4df515	-0.050282557
2	0x3e199364	0.14997631
3	0x3e0bda41	0.13657476
4	0x3dd1ce33	0.102444075
5	0xbd565ac4	-0.052332655
6	0xbcc9f90e	-0.024654891
7	0x3d0b87df	0.034065124
8	0xbcd0b12c	-0.025475107
9	0xbdd40992	-0.10353388
10	0x3d506f2f	0.050887283
11	0x3d6afaae	0.057367973
12	0x3dd73973	0.105090044
13	0xbe2dcc0c	-0.16972369
14	0x3d2d85ec	0.042364046
15	0xbba74806	-0.0051050214
16	0xbd82c65c	-0.0638549
17	0xbd82af21	-0.063810594
18	0xbd8a7452	-0.067604676
19	0x3dddf25f	0.10837244
20	0xbd462f73	-0.048385095
21	0xbc41e015	-0.0118332105
22	0x3c43a4a6	0.011941111
23	0x3d4b8cf3	0.049694967
24	0xbd94e34f	-0.07269918
25	0x3dc50741	0.09620524
26	0x3e165fcb	0.1468498
27	0x3ce6dc1f	0.028181134
28	0x3e6d85b2	0.23195532
29	0x3d806fb3	0.06271305
30	0x3d4fb004	0.05070497
31	0x3d63fe47	0.05566242
32	0x3ceb1af6	0.02869938
33	0x3e7147f3	0.23562603
34	0xbcde945a	-0.027170349
35	0x3c9b3158	0.018944427
36	0x3e064300	0.13111496
37	0x3dab0a80	0.08351612
38	0xbdddd9f5	-0.10832588
39	0x3d975000	0.07388306
40	0x3e12257c	0.14272112
41	0x3ca7882d	0.020450676
42	0x3d5e1cfd	0.054226864
43	0x3dbcff25	0.092283525
44	0x3d997cf3	0.07494535
45	0x3e123081	0.14276315
46	0x3d850fb4	0.06497136
47	0xbcf84e73	-0.030310845
48	0x3dffedc6	0.124965236
49	0xbe297b78	-0.16551006
50	0xbdf2e1be	-0.11859463
51	0xbe0a0ba1	-0.13480999
52	0x3dbd100e	0.09231578
53	0x3d8721db	0.06598254
54	0x3e2d5667	0.16927491
55	0x3c95ef37	0.018302543
56	0xbdb04fdc	-0.08608982
57	0x3e27b0e4	0.16376072
58	0xbb1e1cb6	-0.0024126
59	0xbe00ae57	-0.12566505
60	0x3d6ed84c	0.058311746
61	0xbe105a8c	-0.14097041
62	0xbda744e8	-0.0816744
63	0xbe05a68f	-0.13051818
64	0xbe1bb28a	-0.15204826
65	0xbe519b5a	-0.20469418
66	0x3cc88f73	0.024482464
67	0xbd81fa34	-0.063465506
68	0xbd40240d	-0.04690938
69	0xbe5116db	-0.20418875
70	0x3da87dc7	0.08227115
71	0xbd906132	-0.070497885
72	0x3d71de3c	0.05904983
73	0xbddf69c0	-0.10908842
74	0x3e086942	0.13321403
75	0x3d962869	0.073319264
76	0x3e08a03a	0.13342372
77	0x3e5404eb	0.20705001
78	0x3c24069e	0.010011343
79	0xbdc8f724	-0.09812763
80	0xbc48a003	-0.012245181
81	0x3de6e7db	0.11274692
82	0x3dbba5a4	0.09162453
83	0x3dfbd9cd	0.122974016
84	0xbd931397	-0.07181471
85	0x3d50a84d	0.050941754
86	0xbe32b5f1	-0.17452218
87	0x3c59f3cb	0.013302754
88	0x3dc618ed	0.09672723
89	0x3d68a7a8	0.056800514
90	0xbce7ad93	-0.028281009
91	0xbdb1def2	-0.086851016
92	0xbe06ec24	-0.13176018
93	0x3d965f8c	0.07342443
94	0xbdee8bcf	-0.1164776
95	0xbd2d2c43	-0.04227854
96	0x3d62c8d4	0.055367306
97	0xbc52ab03	-0.012858155
98	0xbe0a6aa1	-0.13517238
99	0x3dbb612d	0.09149394
100	0x3e1f446f	0.15553449
101	0xbd8e5b46	-0.06951003
102	0xbdb547e7	-0.08851605
103	0xbe76cd88	-0.24101841
104	0xbe14e8fe	-0.14542004
105	0xbd1deb76	-0.03855463
106	0xbe3a17ef	-0.18173192
107	0xbe3cb70d	-0.18429203
108	0xbd7de2f1	-0.061984006
109	0xbe0d8dd2	-0.13823631
110	0xbdccf6b1	-0.1000799
111	0x3bc5a8b3	0.0060320734
112	0x3cb447a7	0.022006823
113	0xbdcfb16b	-0.10141262
114	0xbdbcd80d	-0.09220896
115	0xbd80e5fb	-0.06293865
116	0xbc5c614e	-0.013450934
117	0x3d85c469	0.06531603
118	0x3e076c28	0.13224852
119	0xbd812c77	-0.06307309
120	0x3bd7a8ea	0.0065814154
121	0x3ba9d8aa	0.005183299
122	0x3dca2a32	0.09871329
123	0x3d7889be	0.060678236
124	0xbd5f0315	-0.0544463
125	0xbbf0de35	-0.007350708
126	0xbc903b0c	-0.01760628
127	0x3d4696f0	0.04848379
128	0x3d9c79d8	0.07640427
129	0x3b19f5df	0.0023492498
130	0x3e23d03d	0.15997405
131	0x3d2776c0	0.040884733
132	0xbc9522f8	-0.018205151
133	0xbadc5ba6	-0.0016811981
134	0x3d9961b6	0.0748934
135	0x3ab20af6	0.0013583589

enc.EncoderList.cell1.conv.bias f4 [4]
0	0xbe4fdde9	-0.20299496
1	0xbcfa11bc	-0.030526035
2	0xbe29b0e5	-0.16571386
3	0xbe264d4a	-0.16240421

enc.EncoderList.cell1.activate.fcn.0.weight f4 [8, 8]
0	0x3c537dba	0.0129083935
1	0xbe837ed3	-0.25682697
2	0x3e75460d	0.23952504
3	0x3e4396d1	0.191005
4	0x3e08e855	0.13369878
5	0xbd30f5d6	-0.043203197
6	0xbe2fb0e1	-0.17157318
7	0x3ea6b080	0.32556534
8	0x3c965001	0.018348696
9	0xbe38e709	-0.18056883
10	0x3eb8dbf2	0.36105305
11	0xbe644d85	-0.22295196
12	0xbbf442d5	-0.007454256
13	0xbe6072c8	-0.21918786
14	0xbe4b15a0	-0.19832468
15	0xbe229245	-0.1587611
16	0x3e8d7138	0.27625442
17	0x3d31a564	0.04337062
18	0xbc4e79a1	-0.012602241
19	0x3d688f5c	0.056777343
20	0x3d8af934	0.06785813
21	0x3dc3441e	0.09534477
22	0x3d8d828d	0.06909666
23	0xbeabb38e	-0.33535427
24	0x3e966adb	0.293784
25	0xbe41f9e5	-0.18942983
26	0x3ed5e398	0.41775203
27	0x3e55fdca	0.20897594
28	0x3dbc730f	0.09201633
29	0x3e9c4e5b	0.3052853
30	0x3ec789c8	0.38972306
31	0x3e3e7c12	0.18602017
32	0x3e80d477	0.25162098
33	0xbe5fae07	-0.2184373
34	0x3ea1c91f	0.31598756
35	0xbe089235	-0.13337024
36	0xbda080f6	-0.07837097
37	0xbec7cfe2	-0.3902579
38	0xbeabad96	-0.33530873
39	0x3e2bb653	0.1676877
40	0x3ce626dd	0.028094703
41	0x3da131b7	0.078708105
42	0xbe819baf	-0.2531409
43	0x3e2ca6bf	0.16860484
44	0x3e87977c	0.2648276
45	0x3ea64466	0.3247406
46	0x3db8aa3d	0.090168454
47	0xbe3d3b17	-0.18479572
48	0xbcf6efe4	-0.030143686
49	0x3edbd9c7	0.42939588
50	0x3e3a2a68	0.18180239
51	0xbe4e7e49	-0.20165361
52	0xbc023263	-0.007946583
53	0x3cfda7ca	0.030963797
54	0xbcd5198b	-0.026013156
55	0xbe20894e	-0.15677378
56	0x3d97b08e	0.07406722
57	0x3e677b5b	0.2260565
58	0x3d7b2a9e	0.06131994
59	0x3e5299f0	0.20566535
60	0xbe7f996e	-0.24960873
61	0xbecaadcb	-0.3958572
62	0xbe87a422	-0.2649241
63	0xbaf6ec77	-0.0018838783

enc.EncoderList.cell1.activate.fcn.0.bias f4 [8]
0	0x3d9f2a4b	0.077717386
1	0x3e489ec3	0.19591813
2	0xbe5e958e	-0.21736738
3	0x3e8c0679	0.27348688
4	0xbe7c0f61	-0.24615242
5	0x3e8cef87	0.27526495
6	0xbcd35c32	-0.025800798
7	0x3dd7b09a	0.10531731

enc.EncoderList.cell1.activate.fcn.1.weight f4 [8]
0	0x3f9e7a86	1.2381141
1	0x3f6b53f2	0.91924965
2	0x3f859aa1	1.0437814
3	0x3f82dca4	1.0223584
4	0x3f81d5bf	1.0143355
5	0x3f6b773e	0.91978824
6	0x3f7dfded	0.99215585
7	0x3f69f292	0.9138576

enc.EncoderList.cell1.activate.fcn.1.bias f4 [8]
0	0x3e72ab4e	0.2369816
1	0x3cb0a5a8	0.021563366
2	0x3d0cbb29	0.034358177
3	0x3d48e3f9	0.049045537
4	0x3e41366a	0.18868414
5	0xbe222e84	-0.15838057
6	0x3e15352c	0.14571065
7	0xbe24b15f	-0.16083287

enc.EncoderList.cell1.activate.fcn.1.running_mean f4 [8]
0	0xbdd18b23	-0.10231616
1	0x3e937426	0.28799552
2	0xbd0e4e38	-0.034742564
3	0x3df79780	0.12089443
4	0xbe37f0d3	-0.17962961
5	0x3e68f137	0.22748266
6	0x3dd39e6e	0.103329524
7	0x3ed0612a	0.4069913

enc.EncoderList.cell1.activate.fcn.1.running_var f4 [8]
0	0x3cd358c5	0.025799165
1	0x3c003622	0.007825406
2	0x3d75f314	0.06004627
3	0x3b9f1bf7	0.0048556286
4	0x3c0a3963	0.008436534
5	0x3d171dbf	0.036893602
6	0x3ca7fbb7	0.02050577
7	0x3d27780f	0.04088598

enc.EncoderList.cell1.activate.fcn.3.weight f4 [4, 8]
0	0x3e88c205	0.26710525
1	0x3e86ec6c	0.2635225
2	0xbd70ca6d	-0.0587868
3	0xbea0d552	-0.3141275
4	0x3e92d96e	0.2868151
5	0xbeab7b9d	-0.33492747
6	0xbdda24f6	-0.10651581
7	0xbe8ecb84	-0.27889645
8	0xbd0c62f0	-0.03427404
9	0xbe9b341a	-0.30313188
10	0x3eeacf67	0.4586136
11	0x3ec1f1e9	0.37879875
12	0xbe9abbe0	-0.30221462
13	0xbde53d7f	-0.1119337
14	0xbe5e568c	-0.21712703
15	0xbe7e9418	-0.24861181
16	0xbed1a169	-0.4094346
17	0x3e5f75e1	0.21822311
18	0x3ea0ee3b	0.31431755
19	0x3d03a73d	0.032141913
20	0x3da3e149	0.08001954
21	0x3ecaf696	0.39641255
22	0xbda729ec	-0.08162293
23	0x3df355b8	0.11881584
24	0x3ed5174a	0.4161933
25	0xbd5d4add	-0.054026473
26	0x3dcddc9f	0.10051846
27	0x3dc5f048	0.09664971
28	0x3e87ef87	0.26549932
29	0x3e62480b	0.22097795
30	0xbea6b430	-0.32559347
31	0xbdd60ba8	-0.10451442

enc.EncoderList.cell1.activate.fcn.3.bias f4 [4]
0	0xbda2ada4	-0.079432756
1	0xbcafaba3	-0.021444147
2	0x3e4140f4	0.18872434
3	0xbe309051	-0.17242552

enc.EncoderList.cell1.activate.fcn.4.weight f4 [4]
0	0x3f76ea10	0.964509
1	0x3f482654	0.78183484
2	0x3f937038	1.1518621
3	0x3f5c1bef	0.85980123

enc.EncoderList.cell1.activate.fcn.4.bias f4 [4]
0	0x3eb52eb8	0.35387206
1	0x3e3614ed	0.1778142
2	0x3e1e9484	0.15486342
3	0x3db5c913	0.088762425

enc.EncoderList.cell1.activate.fcn.4.running_mean f4 [4]
0	0xbd6b205f	-0.05740392
1	0xbe3fd3d0	-0.18733144
2	0x3eae3f49	0.34032658
3	0x3e37fb91	0.17967059

enc.EncoderList.cell1.activate.fcn.4.running_var f4 [4]
0	0x3e8c382e	0.27386612
1	0x3e4c971c	0.19979519
2	0x3ecb3258	0.39686847
3	0x3e784568	0.24245226

enc.EncoderList.cell1.bn.weight f4 [4]
0	0x3f818475	1.0118548
1	0x3f69d0a6	0.91334
2	0x3f5921b3	0.84817046
3	0x3f658709	0.8965917

enc.EncoderList.cell1.bn.bias f4 [4]
0	0xbd3cdfb5	-0.04611178
1	0xbe51b72c	-0.20480031
2	0xbca25112	-0.019814048
3	0x3cb8bc12	0.022550616

enc.EncoderList.cell1.bn.running_mean f4 [4]
0	0xbdb3d3a1	-0.087805994
1	0x3df4df14	0.11956611
2	0xbc414293	-0.011795658
3	0xbb231d8d	-0.002488944

enc.EncoderList.cell1.bn.running_var f4 [4]
0	0x3eddee60	0.43345928
1	0x3e2a09bb	0.16605274
2	0x3cf57cd2	0.029966746
3	0x3e484324	0.19556862

enc.EncoderList.cell2.conv.weight f4 [8, 4, 3]
0	0x3d624154	0.055238083
1	0x3e18cad8	0.14921129
2	0x3e026975	0.12735541
3	0xbdc61c92	-0.09673418
4	0x3e077325	0.13227518
5	0x3d65f3f7	0.056140866
6	0x3d0d77b9	0.034538005
7	0xbe92ecfc	-0.2869643
8	0x3e6471f7	0.22309099
9	0xbe118048	-0.14209092
10	0xbea6b2c2	-0.32558256
11	0x3e516d6e	0.204519
12	0xbd723db7	-0.059140887
13	0x3d5dfa71	0.054193918
14	0x3b6b16dd	0.0035871782
15	0xbe91514d	-0.2838234
16	0xbcb10a5c	-0.021611385
17	0xbd9148eb	-0.07093986
18	0xbe2d768a	-0.1693975
19	0xbbd454e9	-0.0064798486
20	0xbe2dde7c	-0.16979402
21	0xbe68e6f1	-0.22744347
22	0x3e901350	0.28139734
23	0x3e8e9950	0.27851343
24	0x3e4f432e	0.20240471
25	0xbe6ee51a	-0.23329583
26	0xbe468fe7	-0.19390832
27	0x3e500ad6	0.20316634
28	0xbd9b2a49	-0.07576425
29	0x3e9deb4a	0.30843574
30	0x3d042890	0.032265246
31	0x3e8a7f56	0.27050275
32	0xbdd9ecd4	-0.106408745
33	0xbe76d688	-0.24105275
34	0xbe80d0f3	-0.25159416
35	0x3c294f9f	0.010333925
36	0x3e8d27fa	0.27569562
37	0xbe183f8f	-0.14867996
38	0x3e8136b0	0.25237036
39	0x3d539faf	0.051665958
40	0x3e324658	0.17409647
41	0xbe9ce214	-0.30641234
42	0xbe422f81	-0.18963434
43	0xbe2f7426	-0.17134151
44	0xbe3cbaee	-0.18430683
45	0xbc8c7402	-0.01714516
46	0x3e256c46	0.16154584
47	0x3d74bd25	0.059750695
48	0x3da6eee7	0.08151036
49	0xbe1209d5	-0.14261563
50	0x3ddeb28b	0.10873898
51	0xbb24f6e6	-0.0025171577
52	0x3db65f41	0.08904887
53	0x3ea0463f	0.31303594
54	0xbb2b759d	-0.0026162632
55	0xbe00fdc7	-0.12596808
56	0x3e181a03	0.14853673
57	0xbe91401d	-0.28369227
58	0x3e15e354	0.146375
59	0x3e42c31e	0.19019744
60	0xbe564384	-0.20924193
61	0xbdce71e7	-0.10080319
62	0x3e92f767	0.28704378
63	0xbe9c5523	-0.30533704
64	0x3e428e57	0.18999611
65	0x3e66adb1	0.22527196
66	0xbe5ba000	-0.21447754
67	0x3ea7a7a1	0.32745078
68	0x3e84b510	0.2591939
69	0x3e1e46d7	0.15456711
70	0x3e93b3d7	0.28848144
71	0xbc446214	-0.011986274
72	0xbe05fa9c	-0.13083881
73	0x3df292f5	0.11844436
74	0xbe3cba6c	-0.1843049
75	0x3e2cd60d	0.16878529
76	0x3d5afa07	0.0534611
77	0xbdf3c6bd	-0.11903141
78	0x3e8ba369	0.2727311
79	0xbdeb3c29	-0.11486084
80	0xbdbdd12c	-0.09268412
81	0x3de90b14	0.11379066
82	0x3e7cf0e7	0.24701272
83	0xbda8638e	-0.082221135
84	0x3dc1c732	0.094618216
85	0x3e1b3ae9	0.15159191
86	0xbe5c9691	-0.21541812
87	0x3d522683	0.05130626
88	0x3e1d15d9	0.15340365
89	0xbe4bf315	-0.19916947
90	0x3de40730	0.111341834
91	0xbe665844	-0.22494608
92	0xbe27979f	-0.16366433
93	0x3e3d6d35	0.1849869
94	0xbe1bb734	-0.15206605
95	0xbbaf645b	-0.0053525395

enc.EncoderList.cell2.conv.bias f4 [8]
0	0x3dd95d41	0.1061349
1	0xbe446940	-0.19180775
2	0xbd58886e	-0.052864484
3	0xbe9e7ddb	-0.30955395
4	0xbea96edc	-0.33092391
5	0xbd4b38d0	-0.049614727
6	0xbd622446	-0.055210374
7	0x3cb914a1	0.022592844

enc.EncoderList.cell2.activate.fcn.0.weight f4 [16, 16]
0	0xbe8cf25a	-0.2752865
1	0x3dbb20a2	0.091370836
2	0xbdf52ec2	-0.11971809
3	0xbda452f8	-0.080236375
4	0x3be13ec8	0.006873939
5	0x3e2fcf6f	0.17168973
6	0xbe7b3b73	-0.24534397
7	0xbe473dd0	-0.19457173
8	0xbd93d8d9	-0.07219095
9	0x3e206dca	0.15666881
10	0xbe37c80e	-0.17947409
11	0xbe31b21f	-0.17353104
12	0x3df7341d	0.12070487
13	0x3edd044c	0.4316734
14	0x3de0ea49	0.10982186
15	0x3d521fbe	0.051299803
16	0xbc712f47	-0.014720744
17	0xbe96d73e	-0.29461092
18	0xbddd771b	-0.10813733
19	0x3dd286b1	0.102795966
20	0xbdfa9f29	-0.12237389
21	0xbcc244fe	-0.023714539
22	0xbe7558a7	-0.239596
23	0x3dd1ed80	0.10250378
24	0xbe3c1de0	-0.18370771
25	0xbe293f0e	-0.1652796
26	0x3eb06502	0.34452063
27	0xbe362d48	-0.17790711
28	0xbb48e59e	-0.003065444
29	0x3e548ac0	0.20756054
30	0x3d640f33	0.055678558
31	0x3e300d95	0.17192681
32	0xbbe80cf4	-0.0070816223
33	0xbe799a3f	-0.24375246
34	0xbbe37af5	-0.006942148
35	0xbdab699b	-0.08369752
36	0x3d93757a	0.07200141
37	0x3dafc5de	0.08582662
38	0x3d70d3f5	0.058795888
39	0xbd315cf9	-0.043301556
40	0x3d9c6db4	0.07638112
41	0xbe2eaa54	-0.17057163
42	0xbd85c633	-0.06531944
43	0xbe44a9b2	-0.19205359
44	0x3da29913	0.07939353
45	0xbc224e31	-0.009906338
46	0x3e053cbb	0.13011448
47	0x3e2e5008	0.17022717
48	0xbe34faf6	-0.17673859
49	0xbdc04fa4	-0.0939019
50	0xbd4e3ae7	-0.050349142
51	0x3e24559b	0.16048281
52	0x3e804710	0.25054216
53	0xbdef0e9e	-0.1167271
54	0xbdfbadc7	-0.12289005
55	0xbc512065	-0.012764071
56	0x3dfd0dd8	0.12356156
57	0xbe14d672	-0.1453493
58	0xbcf79f44	-0.030227311
59	0xbda12fc3	-0.07870438
60	0xbe0c8293	-0.13721685
61	0xbeaa2e6a	-0.33238536
62	0x3d7f9b2b	0.06240384
63	0x3e281441	0.16413976
64	0xbe857bda	-0.26071054
65	0xbe7034ee	-0.23457691
66	0x3d9aa910	0.07551777
67	0xbe924f62	-0.2857619
68	0x3c0b2f19	0.008495116
69	0x3e1738a7	0.14767705
70	0x3dedc436	0.1160969
71	0xbe60e946	-0.21963987
72	0x3deca2a2	0.11554457
73	0xbc91c794	-0.017795362
74	0xbe7ed9f7	-0.24887834
75	0x3e6b0fe7	0.22955285
76	0xbe80fc63	-0.25192556
77	0xbd934b76	-0.071921274
78	0x3c11ccbf	0.008898913
79	0x3e411621	0.18856098
80	0xbb546d47	-0.0032413767
81	0x3de6b69c	0.11265299
82	0xbe51ec3f	-0.20500277
83	0xbe370cde	-0.17876002
84	0xbdf19f7b	-0.117979966
85	0xbc91b653	-0.017787134
86	0xbd9a4723	-0.075330995
87	0xbdf42f0e	-0.119230375
88	0xbe432e01	-0.19060518
89	0x3e14ddf4	0.14537793
90	0x3d2b53b0	0.041827857
91	0x3d03b8a3	0.032158505
92	0xbd0ddf2b	-0.034636658
93	0xbdb2dee3	-0.087339185
94	0xbdcd431e	-0.10022567
95	0xbd0b7163	-0.03404368
96	0x3e29f5dd	0.16597696
97	0x3c9ae529	0.0189081
98	0xbe7fd3d2	-0.24983147
99	0xbece9476	-0.40347642
100	0xbc379ef3	-0.01120733
101	0xbdb60e34	-0.08889428
102	0x3e3a5c4d	0.18199272
103	0x3e38742d	0.18013068
104	0x3dd6d2c2	0.104894176
105	0x3dc7e8b9	0.09761185
106	0xbe31cf09	-0.17364134
107	0x3e423c3b	0.18968289
108	0xbd75dffa	-0.060028054
109	0x3e4507bc	0.19241232
110	0xbc9ddef5	-0.019271353
111	0xbdbbed90	-0.09176171
112	0xbe4e7f53	-0.20165758
113	0x3dc16b39	0.09444279
114	0x3de32885	0.11091713
115	0xbd248856	-0.040169083
116	0xbe13338d	-0.14375134
117	0xbe669090	-0.22516084
118	0xbdf027c6	-0.11726336
119	0xbddc94ff	-0.10770606
120	0x3d5439ea	0.051813044
121	0x3e115b86	0.1419507
122	0xbe9cfed8	-0.3066318
123	0xbe60efa4	-0.21966416
124	0x3dea5e13	0.114437245
125	0xbd4a1869	-0.049339686
126	0xbde2d383	-0.11075499
127	0xbda313b6	-0.07962744
128	0xbd2495f3	-0.040182065
129	0x3d887d23	0.06664493
130	0xbd86f9c4	-0.06590608
131	0xbdaea95e	-0.08528398
132	0xbdf3b1c5	-0.11899141
133	0xbd26c5ca	-0.04071597
134	0xbd03350f	-0.032033022
135	0xbe29fa29	-0.16599335
136	0x3e1eb146	0.15497312
137	0xbd9fd2e9	-0.078039
138	0x3e28a446	0.16468915
139	0xbe0b9abb	-0.13633244
140	0xbe42d6a8	-0.19027197
141	0xbe10f510	-0.14155984
142	0x3d7cc85e	0.061714523
143	0x3e3aa8fb	0.18228523
144	0x3dde711e	0.10861419
145	0x3c887759	0.016658472
146	0x3ce3f40a	0.027826328
147	0x3e01d747	0.12679778
148	0x3d99a7d0	0.07502711
149	0x3e3040cd	0.1721222
150	0x3d880c2f	0.06642949
151	0xbcdd2dab	-0.026999315
152	0x3d8ca343	0.06867077
153	0xbd640a7b	-0.055674057
154	0xbd12f25e	-0.03587567
155	0xbd77e7c5	-0.060523767
156	0x3c7a34fa	0.01527142
157	0xbe34440d	-0.17604084
158	0x3cb9eea9	0.02269681
159	0xbc93f0af	-0.018059103
160	0x3c60c7e3	0.013719532
161	0xbd16eb12	-0.036845274
162	0x3d89aab2	0.06722011
163	0x3deaa170	0.11456573
164	0xbde18015	-0.11010758
165	0xbe5b0ccb	-0.21391599
166	0xbe416a16	-0.18888125
167	0xbe7ec5f3	-0.24880199
168	0xbe684d47	-0.22685729
169	0xbe89f295	-0.26942888
170	0x3c9cf4e8	0.01915975
171	0xbe3d6725	-0.18496378
172	0xbdfb8e84	-0.12283042
173	0xbdd22235	-0.10260431
174	0x3e39aa75	0.1813143
175	0xbe4a9e62	-0.19786981
176	0xbde900bf	-0.113770954
177	0xbe941b56	-0.28927106
178	0xbd5f8267	-0.05456772
179	0x3d5f4305	0.054507274
180	0xbaabbf28	-0.0013103234
181	0xbe2a6e6d	-0.16643687
182	0xbdebb3cc	-0.11508903
183	0xbe11bcb2	-0.14232138
184	0xbdfe3cba	-0.124139264
185	0x3e284261	0.16431572
186	0xbe098ef7	-0.13433443
187	0x3de2b81e	0.11070274
188	0x3e2941d2	0.16529015
189	0xbed228a8	-0.41046643
190	0xbe818cbb	-0.2530268
191	0x3e1a1413	0.1504672
192	0xbc24ff11	-0.010070578
193	0x3e758bb3	0.23979072
194	0xbdbcc510	-0.09217274
195	0xbde0b309	-0.10971648
196	0xbe597f71	-0.21240021
197	0x3e47d892	0.19516209
198	0x3d9db9b3	0.07701435
199	0x3e166659	0.1468748
200	0xbe33fac7	-0.17576133
201	0x3e27854a	0.1635944
202	0x3c45304c	0.012035441
203	0x3df0f979	0.11766333
204	0xbdcff463	-0.10154035
205	0xbd644188	-0.055726558
206	0xbb6a5123	-0.0035753928
207	0xbde03494	-0.109475285
208	0xbd80545f	-0.062660925
209	0x3de3000b	0.110839926
210	0xbe423842	-0.18966773
211	0xbdebdbc9	-0.1151653
212	0xbe3c5fc1	-0.18395902
213	0x3de292e5	0.11063174
214	0x3e73cebf	0.23809336
215	0x3d02828a	0.031862773
216	0xbe59a3e3	-0.21253924
217	0xbd51ab87	-0.05118897
218	0x3e55e256	0.20887122
219	0xbe540ba5	-0.20707567
220	0x3df2cca4	0.11855438
221	0xbd6b7acc	-0.057490155
222	0xbe80eb14	-0.2517935
223	0xbc10de37	-0.008842043
224	0xbd15d695	-0.036581594
225	0xbd58245f	-0.05276906
226	0xbecebf8c	-0.40380514
227	0xbeaf44ff	-0.34232327
228	0xbe2ed311	-0.17072703
229	0x3e519cce	0.20469972
230	0xbddc1598	-0.10746306
231	0x3e06d838	0.13168418
232	0xbc8ed694	-0.017436303
233	0x3d88e2c8	0.0668388
234	0x3bb9f4a1	0.005674914
235	0x3c0def11	0.008662955
236	0xbd677d61	-0.056516055
237	0x3da4b4ca	0.08042295
238	0xbe22faf1	-0.15916039
239	0xbdd43d99	-0.10363311
240	0x3d2a2f65	0.041549105
241	0x3d957885	0.07298378
242	0xbd91190a	-0.07084854
243	0xbe15b7e5	-0.14620931
244	0xbea4c6dc	-0.32182968
245	0xbd7b170b	-0.061301272
246	0x3def52d4	0.1168572
247	0x3c6bb3f2	0.014386164
248	0x3e39008c	0.18066615
249	0x3d406dea	0.046979822
250	0x3e4c060d	0.19924183
251	0x3e54ab08	0.20768368
252	0xbe28d71f	-0.16488312
253	0x3dbdf0cb	0.09274443
254	0x3e5a8db5	0.2134312
255	0x3e46b1f2	0.19403818

enc.EncoderList.cell2.activate.fcn.0.bias f4 [16]
0	0xbe1b0f0e	-0.15142462
1	0xbd878167	-0.066164784
2	0x3d4957d1	0.049156014
3	0xbe08edbd	-0.1337194
4	0x3e3662d5	0.17811139
5	0xbd84814c	-0.06469974
6	0xbe0649ae	-0.13114044
7	0x3e3e9c90	0.18614411
8	0xbd499857	-0.04921755
9	0xbd68f774	-0.056876615
10	0xbd9c2130	-0.076235175
11	0xbb00273b	-0.0019554633
12	0xbda230f6	-0.07919495
13	0x3e211d70	0.15733886
14	0x3d9e5802	0.0773163
15	0x3d47b5e4	0.04875745

enc.EncoderList.cell2.activate.fcn.1.weight f4 [16]
0	0x3f8314cd	1.0240723
1	0x3f760fd1	0.96117884
2	0x3f780429	0.9688135
3	0x3f790744	0.9727671
4	0x3f93ff6c	1.1562324
5	0x3f8c2eea	1.0951817
6	0x3f77bc8e	0.96772087
7	0x3f7e9b16	0.9945539
8	0x3f83ff3d	1.0312268
9	0x3f86c20f	1.0527972
10	0x3f80e51e	1.0069921
11	0x3f840da6	1.0316665
12	0x3f828073	1.019545
13	0x3f5dc0fd	0.866226
14	0x3f8f2b64	1.1185117
15	0x3f693a76	0.9110483

enc.EncoderList.cell2.activate.fcn.1.bias f4 [16]
0	0x3bc12213	0.0058939545
1	0xbdc1853a	-0.09449239
2	0x3c272b97	0.010203264
3	0x3c74e354	0.014946777
4	0x3d07e189	0.03317407
5	0x3dd7301c	0.10507223
6	0xbd9cab24	-0.0764983
7	0x3c16660f	0.009179606
8	0x3cdf886e	0.027286734
9	0x3e626d26	0.2211195
10	0x3ce41044	0.027839787
11	0x3dc5d8d1	0.09660495
12	0x3d603b31	0.05474395
13	0xbdb202ee	-0.08691965
14	0x3ccd5699	0.025065707
15	0xbd30c7a4	-0.043159142

enc.EncoderList.cell2.activate.fcn.1.running_mean f4 [16]
0	0xbeb9f76b	-0.36321577
1	0xbe575e8e	-0.21032164
2	0x3d60878e	0.054816775
3	0xbd8ef920	-0.069811106
4	0x3e39a975	0.18131049
5	0xbdad0047	-0.084473185
6	0xbe21a8db	-0.1578707
7	0x3e4f0772	0.20217684
8	0xbc8a4d14	-0.016882457
9	0x3da715e3	0.081584714
10	0x3da1ebba	0.079062894
11	0xbdf3807d	-0.118897416
12	0x3c359a9e	0.011084227
13	0x3e7b1ea7	0.24523412
14	0x3d0a84cb	0.033818047
15	0xbdf719ad	-0.12065444

enc.EncoderList.cell2.activate.fcn.1.running_var f4 [16]
0	0x3d23ca0b	0.039987605
1	0x3c5cf3f2	0.0134858955
2	0x3b9f3099	0.004858088
3	0x3bc6339d	0.0060486333
4	0x3c1e979c	0.009679701
5	0x3c089792	0.008336918
6	0x3bebf83b	0.0072012222
7	0x3b9ebebb	0.004844514
8	0x3b9d0dd2	0.0047929073
9	0x3bacce04	0.0052735824
10	0x3beff85d	0.0073233084
11	0x3bf12b07	0.0073598656
12	0x3cd255eb	0.025675735
13	0x3b9ff8e6	0.004881966
14	0x3b797d8b	0.0038069214
15	0x3c1dfb33	0.00964241

enc.EncoderList.cell2.activate.fcn.3.weight f4 [8, 16]
0	0x3e6b6f45	0.22991665
1	0xbd7e798e	-0.062127642
2	0x3e2f219d	0.17102666
3	0xbe17769f	-0.14791344
4	0xbb7364ba	-0.0037138895
5	0x3d9418da	0.072313026
6	0x3db10544	0.086435825
7	0x3deaa17a	0.114565805
8	0x3d55aafb	0.052165013
9	0xbdc23f48	-0.09484726
10	0xbc969550	-0.018381745
11	0x3e2d9ec4	0.16955096
12	0x3dd11187	0.10208421
13	0xbd79353b	-0.06084178
14	0xbe89aad4	-0.26888144
15	0xbe19b861	-0.15011741
16	0x3d62a9cb	0.05533771
17	0xbda034c6	-0.07822566
18	0xbd99fb82	-0.075186744
19	0xbd6f27fd	-0.058387745
20	0x3e5af0d7	0.21380936
21	0x3dc53f7d	0.0963125
22	0x3cb4cce5	0.022070358
23	0xbcdbb60b	-0.026820203
24	0x3d855fe8	0.06512433
25	0xbe6b35ed	-0.2296979
26	0x3e1d2fc5	0.15350254
27	0x3e4387f6	0.19094834
28	0x3e35a5e3	0.17739062
29	0xbe2b6125	-0.16736276
30	0x3dd741c7	0.10510593
31	0x3e0b3fc1	0.13598539
32	0x3e78373b	0.24239819
33	0x3de99e24	0.11407116
34	0x3e070a5b	0.13187544
35	0x3df3f490	0.11911881
36	0xbd937b07	-0.072012
37	0xbe5204c9	-0.20509638
38	0xbe699f57	-0.2281469
39	0x3ea51cfd	0.3224868
40	0x3e522e0a	0.20525375
41	0xbdd9a5c6	-0.10627322
42	0x3c919c3f	0.0177747
43	0x3e57b39b	0.21064608
44	0xbe496e4c	-0.19670981
45	0xbcd5ee6f	-0.02611467
46	0xbe19411c	-0.14966244
47	0x3d378c79	0.0448117
48	0xbe7ca27b	-0.24671356
49	0xbe19eb56	-0.1503118
50	0x3e2844c4	0.16432482
51	0x3dfa2eeb	0.1221598
52	0xbe383323	-0.17988257
53	0xbe94f12f	-0.29090258
54	0xbd785336	-0.06062623
55	0x3d900b44	0.07033399
56	0xbe6d7ebe	-0.2319288
57	0x3e65eafa	0.22452918
58	0x3dfa13cd	0.12210808
59	0xbc55e107	-0.013054139
60	0xbb4d3aa1	-0.0031315463
61	0x3da474b6	0.08030073
62	0xbe9c3a4c	-0.30513227
63	0x3b9924cd	0.0046735764
64	0xbe04bceb	-0.12962691
65	0x3dcf4e99	0.10122413
66	0x3e6cee14	0.23137695
67	0xbe26c6e1	-0.16286804
68	0xbebc2f45	-0.36754814
69	0x3d94efa2	0.07272269
70	0xbe316631	-0.17324139
71	0xbe74f14d	-0.23920174
72	0x3ca2727d	0.019829983
73	0xbddc6599	-0.10761566
74	0x3e563d2d	0.20921774
75	0xbde25f92	-0.11053385
76	0x3e41a247	0.1890956
77	0x3caed231	0.021340461
78	0x3d377d6c	0.044797346
79	0x3bec0914	0.0072032306
80	0x3d1319d5	0.035913307
81	0xbc8aac0c	-0.016927741
82	0x3dcf89f9	0.10133738
83	0xbe087711	-0.1332667
84	0x3d926877	0.07148831
85	0xbe0c36b5	-0.13692744
86	0xbe018bc2	-0.1265097
87	0xbe466c14	-0.19377166
88	0x3e133fb8	0.14379776
89	0x3e0062f3	0.12537746
90	0x3ddf85bb	0.10914179
91	0xbe0dbe98	-0.13842237
92	0xbe835e7e	-0.2565803
93	0x3de7f4e4	0.11326006
94	0xbe4d53a6	-0.2005144
95	0x3d9e3a2c	0.07725939
96	0x3e0ba856	0.13638434
97	0xbe551877	-0.20810114
98	0x3e71a0cc	0.23596495
99	0x3e89d3b5	0.26919332
100	0xbd4be366	-0.04977741
101	0xbd6c07e3	-0.05762471
102	0xbdfcd4af	-0.12345254
103	0xbdb5de68	-0.08880311
104	0x3e5a8f07	0.21343623
105	0x3e31ba34	0.17356187
106	0x3d1f9159	0.038956974
107	0x3e2aa52c	0.1666457
108	0xbe508ec7	-0.20366965
109	0x3d10584e	0.035240464
110	0xbe08a15d	-0.13342805
111	0x3e81be57	0.2534053
112	0xbe09f71b	-0.1347317
113	0x3ea94ba3	0.3306552
114	0xbd88dfde	-0.06683324
115	0x3db0aacf	0.08626329
116	0xbdd70c01	-0.105003364
117	0x3e26d9bc	0.16293997
118	0xbe338749	-0.17532076
119	0xbdbdaad2	-0.09261097
120	0x3dff8be1	0.12477852
121	0xbd4581f1	-0.048219625
122	0x3d76bc72	0.06023831
123	0xbdce455b	-0.10071822
124	0xbe287af7	-0.16453157
125	0x3df7f727	0.121076874
126	0x3d492e54	0.049116448
127	0x3ca03501	0.019556524

enc.EncoderList.cell2.activate.fcn.3.bias f4 [8]
0	0x3d1f34bc	0.03886865
1	0xbd562122	-0.05227769
2	0x3c5819e0	0.013189763
3	0xbe314c52	-0.1731427
4	0xbe276653	-0.16347627
5	0x3d57710b	0.05259804
6	0x3e767710	0.24068856
7	0xbdd9e28b	-0.10638913

enc.EncoderList.cell2.activate.fcn.4.weight f4 [8]
0	0x3f95efbb	1.1713785
1	0x3f7fb3e8	0.9988389
2	0x3f89c761	1.0763971
3	0x3f8f1250	1.1177464
4	0x3f825a06	1.0183723
5	0x3fabe77f	1.3430022
6	0x3f87c74b	1.0607694
7	0x3f8e7cfc	1.1131892

enc.EncoderList.cell2.activate.fcn.4.bias f4 [8]
0	0xbdc81bf3	-0.09770956
1	0xbd2a243a	-0.041538455
2	0x3d7f1a4b	0.062280934
3	0x3e75103d	0.23931976
4	0x3c87952b	0.016550621
5	0x3e1bc411	0.15211512
6	0x3db93a14	0.09044281
7	0x3e6be430	0.23036265

enc.EncoderList.cell2.activate.fcn.4.running_mean f4 [8]
0	0x3e25f9b3	0.16208534
1	0x3e5d9da2	0.21642163
2	0x3e4985de	0.19679973
3	0xbf006542	-0.5015451
4	0xbeba9138	-0.36438918
5	0xbe2590fe	-0.16168591
6	0x3f029f2f	0.51024145
7	0xbddd7298	-0.10812873

enc.EncoderList.cell2.activate.fcn.4.running_var f4 [8]
0	0x3d3f6c7d	0.04673432
1	0x3e489e0a	0.19591537
2	0x3e440ed0	0.19146276
3	0x3f0867df	0.53283495
4	0x3e7fa108	0.24963772
5	0x3e8db1a7	0.276746
6	0x3ea51ade	0.3224706
7	0x3e07adc5	0.13249882

enc.EncoderList.cell2.bn.weight f4 [8]
0	0x3f6ccbf5	0.92498714
1	0x3f69c8c4	0.9132197
2	0x3f7441c6	0.9541286
3	0x3f6cafda	0.9245583
4	0x3f5b25ee	0.8560475
5	0x3f77a86c	0.96741366
6	0x3f74feeb	0.95701474
7	0x3f80a136	1.0049198

enc.EncoderList.cell2.bn.bias f4 [8]
0	0xbcce4376	-0.025178652
1	0x3dbf909b	0.09353753
2	0xbe369b8c	-0.17832774
3	0xbc1fef17	-0.009761593
4	0x3dd1b9ea	0.102405384
5	0xbe4c22a5	-0.19935091
6	0xbe32da79	-0.17466153
7	0xbb7d7035	-0.0038671617

enc.EncoderList.cell2.bn.running_mean f4 [8]
0	0x3e079a92	0.13242558
1	0x3dc723e6	0.09723644
2	0x3d285776	0.041099034
3	0xbe2c7151	-0.16840102
4	0xbe320fcd	-0.1738884
5	0x3bccee84	0.006254019
6	0x3bba5dce	0.005687452
7	0x3d75e445	0.060032148

enc.EncoderList.cell2.bn.running_var f4 [8]
0	0x3e800e64	0.2501098
1	0x3e1eef1b	0.15520899
2	0x3e63bc5e	0.22239825
3	0x3da1c0ff	0.07898139
4	0x3d8c483a	0.068497136
5	0x3e64040d	0.2226717
6	0x3e020b2f	0.12699579
7	0x3d88b712	0.06675543

enc.EncoderList.cell3.conv.weight f4 [16, 8, 3]
0	0xbe06c5a8	-0.13161337
1	0x3d9dbcd4	0.07702032
2	0x3d045b85	0.032313842
3	0x3e1c4951	0.15262343
4	0x3cd4e84a	0.02598967
5	0x3e9e0a4c	0.3086723
6	0x3e62926a	0.22126165
7	0xbdf654ae	-0.1202787
8	0x3c40d8ec	0.011770468
9	0xbe28a905	-0.16470726
10	0x3d18fc0f	0.037349757
11	0xbdd52796	-0.10407941
12	0x3def747d	0.1169214
13	0xbe0ea290	-0.139292
14	0x3d9ae570	0.07563293
15	0xbc83dc03	-0.01609612
16	0x3dde622f	0.10858571
17	0xbb5e4f8c	-0.0033921925
18	0x3e1b0756	0.15139517
19	0x3e0f677d	0.14004321
20	0x3c8392d2	0.01606122
21	0xbc3aff38	-0.011413388
22	0x3e0d65a9	0.13808312
23	0x3e005b70	0.1253488
24	0x3db05e39	0.086117215
25	0x3d8eb3fb	0.06967922
26	0x3e2da3d0	0.16957021
27	0xbdc3d884	-0.095627815
28	0x3c0f9cd8	0.008765422
29	0x3cc7ba9d	0.024380976
30	0x3e4b7671	0.198694
31	0x3dd29b65	0.102835454
32	0x3e2fd783	0.17172055
33	0x3e1a0eb6	0.15044674
34	0xbc94e802	-0.018177036
35	0x3e0814b2	0.13289145
36	0xbdf3996b	-0.118944965
37	0xbe102a76	-0.14078698
38	0x3cb6cf99	0.022315787
39	0x3c2ded4f	0.010615661
40	0xbce8dc7f	-0.028425453
41	0x3db87b5d	0.09007905
42	0xbc3c396a	-0.011488298
43	0xbd9d4271	-0.07678688
44	0x3cca82b7	0.024720533
45	0xbe436991	-0.19083239
46	0xbdfbd789	-0.122969694
47	0xbe1ff21e	-0.15619704
48	0xbd582498	-0.052769274
49	0xbe4bbf96	-0.19897303
50	0x3d2a4a7d	0.041574944
51	0xbdb6d854	-0.0892798
52	0x3c40fbe3	0.0117788045
53	0x3e5d25da	0.2159647
54	0xbe2c8fbc	-0.16851705
55	0xbdced543	-0.1009927
56	0xbda88922	-0.08229281
57	0xbe2232ee	-0.1583974
58	0x3de5e712	0.11225714
59	0x3e59fba1	0.21287395
60	0xbe66e191	-0.22546984
61	0x3c998b65	0.018743226
62	0xbe6caf3b	-0.2311372
63	0x3da95c61	0.08269573
64	0xbd498808	-0.049201995
65	0xbe25c207	-0.16187297
66	0xbb1d9a7b	-0.0024048376
67	0xbdb7f704	-0.08982661
68	0xbe5fe763	-0.21865611
69	0x3cb463b8	0.022020206
70	0x3d458f4c	0.04823236
71	0x3cca498f	0.024693279
72	0xbd7017a9	-0.058616314
73	0xbd613173	-0.0549788
74	0x3e3a347d	0.18184085
75	0xbe59f3fd	-0.2128448
76	0xbe2b42ae	-0.16724655
77	0x3d9ce042	0.07659961
78	0xbdcc29c3	-0.09968903
79	0xbd706f81	-0.05870009
80	0x3da18ab4	0.07887784
81	0xbe1200aa	-0.14258066
82	0xbad794be	-0.0016447527
83	0xbdc9269f	-0.098218195
84	0xbe2af084	-0.16693312
85	0x3cce7c9b	0.0252059
86	0xbe08a25f	-0.1334319
87	0xbdcbbe72	-0.09948434
88	0x3e0c24f0	0.13685966
89	0x3e579c63	0.2105575
90	0x3c5cd434	0.013478328
91	0xbe46f739	-0.19430245
92	0x3be12ac1	0.0068715517
93	0xbd592dfc	-0.05302237
94	0x3e3a26f4	0.18178922
95	0xbd9c099a	-0.07619019
96	0xbe13426f	-0.14380811
97	0xbe3c6b3a	-0.18400279
98	0xbe6e69de	-0.23282573
99	0xbdd7fdcd	-0.105464555
100	0xbd9d571a	-0.07682629
101	0x3df819a4	0.121142656
102	0xbda8df6c	-0.08245739
103	0xbe637005	-0.22210701
104	0xbdfae64d	-0.12250958
105	0x3db84a07	0.089984946
106	0x3ca00171	0.019531937
107	0xbe05a774	-0.1305216
108	0x3c51a489	0.012795576
109	0xbda94f07	-0.082670264
110	0xbd8875fa	-0.06663127
111	0xbca48dac	-0.020087086
112	0xbd9be99e	-0.07612918
113	0xbdaf1723	-0.08549335
114	0x3e32e9ff	0.17472075
115	0x3e36d0af	0.17853044
116	0x3e63a2f6	0.22230133
117	0x3ca94d09	0.020666616
118	0x3dc0fbd1	0.0942303
119	0xbde6c072	-0.11267175
120	0x3d072e66	0.033003233
121	0x3e06542c	0.13118047
122	0x3e4f5e93	0.20250921
123	0x3d080d44	0.033215776
124	0x3d9031cc	0.07040748
125	0xbe5a039c	-0.2129044
126	0xbd4c7f72	-0.04992623
127	0x3e2128fd	0.15738292
128	0x3e506aac	0.20353192
129	0xbd806ac3	-0.06270363
130	0xbd99c63d	-0.07508514
131	0x3d5ee249	0.05441502
132	0xbde6027a	-0.11230941
133	0x3d298826	0.041389607
134	0xbe1af7d4	-0.15133601
135	0xbd6524db	-0.05594335
136	0x3df9b434	0.12192574
137	0xbd0a1902	-0.033715256
138	0x3e68ca49	0.22733416
139	0xbde69fd4	-0.112609535
140	0x3de86873	0.11348047
141	0x3e60b3d3	0.21943597
142	0x3d2b8ced	0.041882444
143	0xbd9576e1	-0.07298065
144	0x3dd4041c	0.10352346
145	0xbdfb45be	-0.12269162
146	0xbdfea742	-0.12434246
147	0x3e1e2e6b	0.15447395
148	0xbd544f4c	-0.051833436
149	0xbd898720	-0.06715226
150	0xbd9e2229	-0.07721359
151	0x3e36c066	0.17846832
152	0xbd95b526	-0.07309942
153	0x3e38e4b0	0.18055987
154	0x3d83d4c6	0.06437068
155	0xbe257d52	-0.16161087
156	0xbdf7e7b7	-0.12104743
157	0xbe907b44	-0.28219044
158	0xbe489009	-0.19586195
159	0xbd54167a	-0.051779248
160	0xbe1c7f0e	-0.15282843
161	0x3dc9616c	0.09833035
162	0xbe355dc6	-0.17711553
163	0x3d3c0f09	0.045912776
164	0x3dba16ec	0.09086403
165	0x3c7fa3e2	0.015603038
166	0xba238d3a	-0.0006239001
167	0xbc23bb25	-0.009993349
168	0xbe7beace	-0.2460129
169	0xbd3dee8d	-0.046370078
170	0x3d803f17	0.062620334
171	0xbdefa887	-0.11702066
172	0x3d81ffd0	0.063476205
173	0x3cbb1a0e	0.022839572
174	0xbe80628f	-0.25075194
175	0xbe787113	-0.24261884
176	0x3e161cd0	0.14659429
177	0xbd109bad	-0.035304714
178	0xbd8998b7	-0.06718581
179	0x3e43364e	0.19063684
180	0xbd768fc7	-0.06019571
181	0x3d2d4731	0.04230422
182	0xbe051f4a	-0.13000217
183	0x3e93cd94	0.2886778
184	0x3e0ecaea	0.13944593
185	0xbd835123	-0.0641196
186	0x3de75d5e	0.11297105
187	0xbe174881	-0.14773752
188	0xbe092998	-0.13394773
189	0x3d840444	0.06446126
190	0x3d1db822	0.03850568
191	0xbdf9207b	-0.12164398
192	0x3e3587fa	0.17727652
193	0xbe061f07	-0.13097773
194	0x3d3cc06f	0.046081956
195	0x3c2e5419	0.010640168
196	0xbd6926b7	-0.056921687
197	0x3dbcc7c1	0.092177875
198	0x3d6a766f	0.057241853
199	0x3e135a3f	0.14389895
200	0x3c58c367	0.013230181
201	0x3dc01a81	0.09380055
202	0x3e0ccf13	0.13750868
203	0xbd9646f1	-0.0733775
204	0x3dfb15ce	0.12260018
205	0xbda5e28a	-0.080998495
206	0x3e056e67	0.13030396
207	0xbe06fbf6	-0.13182053
208	0xbd98f6cc	-0.07468948
209	0xbd0b85a1	-0.034062985
210	0xbcaa3c9f	-0.02078086
211	0xbe49f478	-0.19722164
212	0xbd6d615c	-0.057954177
213	0xbbadc303	-0.005302788
214	0xbea1386f	-0.31488368
215	0x3d1db3a5	0.0385014
216	0xbd0c8f8c	-0.034316584
217	0xbd906dbf	-0.070521824
218	0xbe038167	-0.12842332
219	0xbd89b564	-0.06724051
220	0xbd902ed6	-0.07040183
221	0xbca0f7c2	-0.01964939
222	0x3e188731	0.14895321
223	0xbe62eac3	-0.22159867
224	0x3bbc86fd	0.0057533965
225	0xbdb84df9	-0.08999247
226	0x3bbc0a90	0.005738564
227	0x3dfe0093	0.12402453
228	0x3e1ce1bb	0.15320484
229	0x3da39931	0.07988203
230	0x3d8331e6	0.06406002
231	0x3d871956	0.06596629
232	0x3d232efd	0.039839733
233	0xbc48daa2	-0.012259157
234	0x3c9d0ab9	0.019170152
235	0x3da289a7	0.07936411
236	0x3d9b87d8	0.075942695
237	0x3d6bd6db	0.05757795
238	0xbc06d125	-0.008228575
239	0xbd4fb59b	-0.0507103
240	0x3dd21077	0.10257047
241	0x3cda29dc	0.026631288
242	0xbe0b2246	-0.13587293
243	0xbd859b38	-0.06523746
244	0xbd3ae527	-0.045628693
245	0x3de97015	0.11398331
246	0x3b108803	0.0022053726
247	0x3e1123c9	0.14173807
248	0x3e181530	0.14851832
249	0xbdd108a1	-0.10206724
250	0xbcc0fcb3	-0.023557996
251	0x3cb5ea55	0.022206465
252	0xbde48418	-0.111580074
253	0xbda0f04a	-0.078583315
254	0xbcfe9a7b	-0.031079521
255	0x3d909979	0.070605226

enc.EncoderList.cell3.conv.bias f4 [16]
0	0x3c447ff9	0.011993402
1	0xbc863785	-0.016383896
2	0x3e2523ec	0.16126984
3	0x3dfbc3c2	0.12293197
4	0xbdee60d5	-0.11639563
5	0xbe6761e3	-0.22595935
6	0x3dcf7efd	0.10131643
7	0xbddaa6f6	-0.106763765
8	0xbdac7977	-0.08421605
9	0xbebecce9	-0.3726571
10	0x3e074b0e	0.13212225
11	0xbc8137dc	-0.015773706
12	0x3dcdfd5f	0.10058092
13	0x3dbb94b4	0.09159222
14	0xbe0e5171	-0.13898255
15	0x3d7633c3	0.060107958

enc.EncoderList.cell3.activate.fcn.0.weight f4 [32, 32]
0	0x3d5b9d09	0.053616557
1	0x3e3637ff	0.17794798
2	0x3d157e95	0.03649767
3	0xbd88dfb8	-0.06683296
4	0xbd9d8670	-0.076916575
5	0x3cb07d15	0.021544019
6	0xbd71880b	-0.05896763
7	0x3e830800	0.2559204
8	0xbda1e384	-0.07904723
9	0xbd2000a1	-0.0390631
10	0xbda5c1b0	-0.080935836
11	0x3d9029df	0.07039236
12	0xbda923c1	-0.08258773
13	0x3c70210d	0.014656317
14	0x3cdd9c36	0.027052026
15	0xbd819ca6	-0.063287064
16	0xbe0d323a	-0.13788691
17	0xbd888138	-0.066652715
18	0xbdf6985e	-0.120407805
19	0xbd5b6d15	-0.053570826
20	0x3cd477f2	0.0259361
21	0x3ddf2899	0.10896415
22	0xbdd2052e	-0.10254894
23	0x3c8190c7	0.015816106
24	0xbd0cdf2f	-0.034392532
25	0x3c1da69b	0.009622241
26	0x3daf4dcf	0.08559763
27	0x3dc322a4	0.095280915
28	0xbe1640e9	-0.14673199
29	0xbd77ec95	-0.060528357
30	0x3c79e4e3	0.015252325
31	0xbde1fd67	-0.11034661
32	0x3e2432dd	0.16035028
33	0x3c1d5c12	0.009604471
34	0x3ea668c9	0.3250182
35	0x3d438b50	0.04774028
36	0xbd3d3e98	-0.046202272
37	0xbe0a1e4b	-0.13488118
38	0x3e1400d1	0.14453436
39	0x3e9e6dc9	0.30943134
40	0xbd70d767	-0.058799174
41	0xbd315be2	-0.043300517
42	0xbdfc6acf	-0.123250596
43	0xbd43c88d	-0.047798682
44	0x3db7239a	0.08942337
45	0x3d8f4ddc	0.06997272
46	0x3df54fdd	0.11978123
47	0xbdf89779	-0.12138266
48	0xbe26c80a	-0.16287246
49	0xbdf47025	-0.11935452
50	0x3c398c19	0.011324906
51	0x3c3d8d17	0.011569283
52	0x3d939ef5	0.07208053
53	0x3cb00000	0.021484375
54	0xbe08fc3c	-0.1337747
55	0xbdfbd2c5	-0.122960605
56	0x3baeab4d	0.0053304792
57	0xbcea5c14	-0.02860836
58	0x3d99d42e	0.07511173
59	0xbd11b63f	-0.035574194
60	0xbe5b7c11	-0.21434046
61	0xbdf85352	-0.12125267
62	0xbbb16226	-0.0054133115
63	0xbe36fb99	-0.17869414
64	0xbe28d7bf	-0.1648855
65	0x3e387b67	0.18015824
66	0xbdb99e88	-0.090634406
67	0x3dd70891	0.10499681
68	0x3c7148a5	0.014726792
69	0x3e64419b	0.22290652
70	0x3d4ed1f6	0.050493203
71	0xbd1422d5	-0.03616603
72	0x3c1fee0e	0.0097613465
73	0x3cd21f85	0.025649795
74	0x3db956f0	0.09049785
75	0x3e13c277	0.14429651
76	0xbe3a5633	-0.18196945
77	0x3dfddc39	0.1239552
78	0xbd207698	-0.0391756
79	0xbe3ef293	-0.18647222
80	0xbd9570ed	-0.072969295
81	0x3e0bd7e1	0.1365657
82	0xbe13acda	-0.14421406
83	0x3d9ce631	0.07661093
84	0xbd6a91c7	-0.05726793
85	0x3d30ef05	0.043196697
86	0xbdf21224	-0.11819866
87	0xbdc59eee	-0.09649454
88	0x3d7d7b90	0.061885417
89	0x3deafb20	0.114736795
90	0xbe8a05c1	-0.26957515
91	0x3dc23ca4	0.094842225
92	0xbda0685f	-0.07832407
93	0xbdab7cfa	-0.08373447
94	0x3d1ababc	0.03777574
95	0x3d9e4dab	0.07729658
96	0x3d5dfc81	0.054195885
97	0xbe0097f1	-0.12557961
98	0xbde3e597	-0.11127775
99	0x3bfed445	0.0077767693
100	0xbe1b5df8	-0.15172565
101	0x3e13466d	0.14382334
102	0xb9dc4bfd	-0.00042018286
103	0x3d2b06b6	0.041754447
104	0xbcf99f9a	-0.030471612
105	0xbe2850fd	-0.16437145
106	0x3d4d0c5f	0.050060626
107	0xbd800846	-0.06251578
108	0xbe034d64	-0.12822491
109	0x3d439b03	0.047755253
110	0x3e712ccc	0.23552245
111	0xbe4d8309	-0.20069517
112	0x3def5228	0.11685592
113	0x3e124fb1	0.14288212
114	0xb9cd0b77	-0.0003910919
115	0xbe837cc3	-0.25681123
116	0x3dd8dc8f	0.10588943
117	0x3e115f7e	0.14196584
118	0xbe4e9240	-0.20172977
119	0x3d863bc3	0.065543674
120	0x3dde88bd	0.108659245
121	0x3d8fbb7e	0.07018183
122	0x3a875ea2	0.0010327885
123	0x3e5057c5	0.20345981
124	0xbda1e256	-0.07904498
125	0xbd819a35	-0.06328241
126	0x3c6bcc96	0.014392039
127	0x3e679236	0.22614369
128	0xbc1869eb	-0.009302597
129	0xbdf97427	-0.121803574
130	0xbd34d83a	-0.044151522
131	0x3da00dc6	0.07815127
132	0xbd8590d5	-0.06521765
133	0xbdd8db74	-0.10588732
134	0xbdec4cd1	-0.11538089
135	0xbb53ca73	-0.0032316714
136	0xbc4dc0d0	-0.012558177
137	0xbdebad34	-0.11507645
138	0xbd718aa7	-0.05897012
139	0x3de0ace9	0.1097048
140	0x3d36664d	0.044531155
141	0x3dae52b9	0.08511872
142	0x3d61ff84	0.05517532
143	0x3e092bdf	0.13395642
144	0xbdff459c	-0.12464449
145	0x3da34304	0.079717666
146	0xbe451d57	-0.19249474
147	0x3dc7f0e5	0.09762744
148	0x3e0c5a6c	0.13706368
149	0xbdd4c7b4	-0.10389653
150	0xbdf28365	-0.11841468
151	0x3e397d84	0.18114287
152	0xbd1f48ff	-0.038887974
153	0x3e353f69	0.1769997
154	0xbdd52efe	-0.10409354
155	0x3e827cc2	0.25485808
156	0x3e047550	0.12935376
157	0xbd344b30	-0.044017017
158	0x3c132c8c	0.008982789
159	0x3dce0ea3	0.100613855
160	0xbcb778b4	-0.022396423
161	0xbd021840	-0.031761408
162	0xbd0ab126	-0.03386035
163	0xbd56c1f7	-0.052431073
164	0x3d921fb6	0.07134955
165	0xbe921a2c	-0.28535593
166	0x3df35d2b	0.11883005
167	0x3d9bb1a0	0.07602239
168	0xbd9f08e0	-0.07765365
169	0x3e513372	0.20429781
170	0xbd73b39e	-0.05949747
171	0xbd828b11	-0.06374181
172	0xbe035571	-0.12825562
173	0x3e301bbc	0.1719808
174	0x3e07462c	0.13210362
175	0xbe1f8489	-0.15577902
176	0x3d90e8a6	0.07075624
177	0x3a1cfe97	0.00059888646
178	0x3938d4e6	0.00017626918
179	0xbd8b546b	-0.06803211
180	0xbb49c37b	-0.0030786681
181	0x3dde3a8b	0.1085101
182	0x3d9e42c1	0.07727576
183	0xbe6a9821	-0.22909595
184	0x3ddd2f30	0.10800016
185	0xbd5834b2	-0.05278463
186	0xbe227ae4	-0.15867192
187	0x3d8917c3	0.06693985
188	0x3da7b94d	0.0818964
189	0x3d411d8f	0.04714733
190	0xbd87e468	-0.06635362
191	0x3f07bd26	0.5302299
192	0xbe2e38e6	-0.17013893
193	0xbdd65431	-0.10465277
194	0xbd661e15	-0.056181032
195	0xbdd012ad	-0.10159812
196	0xbe340b9f	-0.17582558
197	0xbd883f3a	-0.066526845
198	0x3d5259cb	0.051355164
199	0xbd8711ce	-0.06595193
200	0xbde5afbf	-0.112151615
201	0x3e1f17f6	0.15536484
202	0xbdee1b0f	-0.11626255
203	0x3dd674a8	0.10471469
204	0xbd422aca	-0.047404088
205	0x3c29e721	0.010370047
206	0x3e4fc5ed	0.20290346
207	0x3e4c1add	0.19932123
208	0x3e08a119	0.13342704
209	0x3c97f5ca	0.018549819
210	0xbd768807	-0.06018832
211	0xbe25ef16	-0.16204485
212	0x3dde7648	0.10862404
213	0x3e0f3be8	0.13987696
214	0x3d68bbf2	0.056819864
215	0x3e0870d3	0.13324289
216	0xbdf460e3	-0.11932542
217	0xbdaf6356	-0.08563869
218	0xbcabeaf7	-0.020986063
219	0x3e3a062f	0.18166421
220	0x3d3f3b90	0.046687663
221	0xbe50059c	-0.2031464
222	0x3e36fc6d	0.1786973
223	0xbd8688a8	-0.06569034
224	0xbded9385	-0.11600403
225	0x3e5d5078	0.21612728
226	0xbdf8ba08	-0.12144858
227	0xbcc20b0e	-0.023686912
228	0xbcec1d20	-0.028822482
229	0xbd5f10d1	-0.054459397
230	0xbc619124	-0.013767514
231	0xbe0ae49e	-0.13563773
232	0x3dc65bd9	0.09685487
233	0xbded1ed4	-0.115781456
234	0xbd46ace8	-0.04850474
235	0xbe276eda	-0.1635088
236	0xbd8fcb5f	-0.07021212
237	0xbe4fe10e	-0.20300695
238	0x3bb63f1c	0.0055617224
239	0xbd027e09	-0.031858478
240	0xbe1bebfa	-0.15226737
241	0xbe331245	-0.17487438
242	0x3d0a3aa0	0.033747315
243	0xbe1144ed	-0.1418645
244	0xbe050d4a	-0.1299335
245	0x3d0e4973	0.034738015
246	0x3e4e9ac4	0.20176226
247	0x3e0dcd34	0.1384781
248	0x3e494148	0.19653809
249	0xbd837a76	-0.06419842
250	0x3da9eb1a	0.08296795
251	0x3db4ee51	0.08834518
252	0x3d6a0c3f	0.057140585
253	0xbdb98c40	-0.09059954
254	0xbdb24e6e	-0.087063655
255	0x3c28640d	0.01027776

enc.EncoderList.cell3.activate.fcn.0.bias f4 [32]
0	0x3c5a9dc8	0.013343282
1	0xbdff8a0d	-0.12477503
2	0xbdbcb43c	-0.092140645
3	0xbc8bca56	-0.017064255
4	0xbe04222e	-0.12903664
5	0xbe0a6662	-0.13515618
6	0x3dc3045f	0.09522318
7	0xbe25b443	-0.16182046
8	0x3e00bcd1	0.12572028
9	0xbdb0fbae	-0.08641754
10	0x3ddc4ec2	0.10757209
11	0x3dd31bef	0.10308062
12	0xbdaaa5c0	-0.083323956
13	0xbd9189c3	-0.07106354
14	0xbe420325	-0.18946512
15	0x3cf11055	0.029426733
16	0x3dca943f	0.09891557
17	0xbd9fb2f9	-0.07797808
18	0x3e122d5f	0.1427512
19	0x3e1c39b9	0.15256394
20	0xbe0c6cdc	-0.13713402
21	0x3d6f2bbb	0.058391314
22	0xbd780cb0	-0.060558975
23	0x3d7aa6f1	0.061194364
24	0xbdb99446	-0.09061484
25	0x3da2c6ff	0.07948112
26	0xbd032d40	-0.032025576
27	0xbdfb5a15	-0.12273041
28	0x3de61d48	0.11236054
29	0xbdbdd2cc	-0.09268722
30	0x3c7b950a	0.015355358
31	0xbd9bf983	-0.0761595

enc.EncoderList.cell3.activate.fcn.1.weight f4 [32]
0	0x3f7660dc	0.96241546
1	0x3f7e15a8	0.99251795
2	0x3f7b1470	0.9807806
3	0x3f86474b	1.0490507
4	0x3f870fe7	1.0551728
5	0x3f7372d4	0.9509709
6	0x3f7d4db4	0.9894669
7	0x3f7e6bac	0.99383044
8	0x3f7fbe89	0.9990011
9	0x3f7f53bd	0.9973715
10	0x3f89f00b	1.077638
11	0x3f85c2ad	1.0450035
12	0x3f7eb599	0.99495846
13	0x3f8535c1	1.0407029
14	0x3f7364a0	0.95075417
15	0x3f85bdd7	1.044856
16	0x3f840039	1.0312568
17	0x3f7d6709	0.98985344
18	0x3f71ffe1	0.94531065
19	0x3f7537a9	0.95788056
20	0x3f83f810	1.0310078
21	0x3f7f2fe5	0.99682456
22	0x3f72d31b	0.9485337
23	0x3f86654d	1.0499665
24	0x3f7a5922	0.97792256
25	0x3f8686b2	1.0509856
26	0x3f863592	1.0485098
27	0x3f81ebba	1.0150063
28	0x3f857575	1.042647
29	0x3f887621	1.066105
30	0x3f85eb96	1.046252
31	0x3f6ebf70	0.9326086

enc.EncoderList.cell3.activate.fcn.1.bias f4 [32]
0	0x3d6b8de0	0.05750835
1	0xbb527c8d	-0.0032117695
2	0x3c4180db	0.011810507
3	0x3d10891d	0.03528701
4	0x3c504569	0.012711861
5	0x3dfb8350	0.12280905
6	0x3d15792e	0.03649252
7	0xbd917d3c	-0.07103965
8	0x3d6e5c5f	0.05819356
9	0xbbf3e97d	-0.0074436055
10	0x3dd0f534	0.10203019
11	0x3b92e1f6	0.004482503
12	0xbd00e3aa	-0.031467117
13	0xbd58f271	-0.052965585
14	0xbb922742	-0.0044602463
15	0x3d1f393f	0.038872954
16	0x3d200099	0.03906307
17	0xbe1444ff	-0.14479445
18	0xbdf64856	-0.12025516
19	0x3c9c59f5	0.019085864
20	0xbc980741	-0.018558146
21	0x3dc52b51	0.096274026
22	0xbdb4c43f	-0.088264935
23	0xbd61d64d	-0.055136014
24	0x3d031e08	0.032011062
25	0x3e086f0d	0.13323613
26	0x3d82a389	0.06378848
27	0xbce4ad16	-0.027914565
28	0x3c0146f5	0.007890453
29	0x3dd7cc1d	0.105369784
30	0x3de88c1b	0.11354848
31	0xbcd10888	-0.025516763

enc.EncoderList.cell3.activate.fcn.1.running_mean f4 [32]
0	0x3d8656c3	0.06559517
1	0x3e8fed44	0.28110707
2	0xbdd594c1	-0.10428763
3	0xbec1ef23	-0.3787776
4	0xbe9f22df	-0.31081292
5	0xbe859da1	-0.26096824
6	0xbe5cc9b5	-0.2156132
7	0xbe6c4e7e	-0.23076817
8	0xbd9b2607	-0.075756125
9	0xbf077daf	-0.5292615
10	0xbe3a0e13	-0.18169431
11	0xbe491a8b	-0.19639032
12	0xbd673b0f	-0.056452807
13	0xbe6efc89	-0.23338522
14	0x3d82048e	0.06348525
15	0x3e7727ab	0.24136226
16	0xbe3cdb55	-0.18443044
17	0xbe970ad2	-0.29500443
18	0x3e155b4c	0.14585608
19	0x3eb969ce	0.36213535
20	0xbe564c61	-0.20927574
21	0xbdb8c8c0	-0.09022665
22	0x3d6c8061	0.05773962
23	0x3ea4f6a3	0.3221942
24	0xbcd1a214	-0.02558998
25	0x3e94f519	0.29093245
26	0xbd736aac	-0.059427902
27	0xbe373563	-0.17891459
28	0xbdbbf0a3	-0.09176757
29	0xbe3d3b07	-0.18479548
30	0x3e8e51de	0.27796835
31	0xbe9884bd	-0.2978877

enc.EncoderList.cell3.activate.fcn.1.running_var f4 [32]
0	0x3c0e1b35	0.008673479
1	0x3bb3330c	0.0054687317
2	0x3dc5eb36	0.096640036
3	0x3c0e9bec	0.008704167
4	0x3c39541e	0.011311559
5	0x3bdee9d3	0.0068027764
6	0x3c08d996	0.008352658
7	0x3cf0b66f	0.029383866
8	0x3b425830	0.0029654615
9	0x3dc4fd87	0.09618669
10	0x3c8aa967	0.01692648
11	0x3b9a29d0	0.0047046915
12	0x3cef3501	0.029200079
13	0x3c7d3dfa	0.015456671
14	0x3c5253ed	0.012837392
15	0x3c4eed98	0.012629889
16	0x3c828fab	0.015937647
17	0x3ce50425	0.027956078
18	0x3d501c4b	0.050808232
19	0x3c07bc7e	0.008284686
20	0x3b638ae0	0.0034720227
21	0x3adcaca0	0.0016836114
22	0x3ce41ce5	0.02784581
23	0x3d42ac1c	0.047527418
24	0x3d755e3a	0.059904315
25	0x3c189dd2	0.009314971
26	0x3c46ab5f	0.012125819
27	0x3c29d956	0.010366758
28	0x3cbd0808	0.023075119
29	0x3cffdb01	0.031232359
30	0x3c82459e	0.015902337
31	0x3bf3c570	0.007439308
