checkpoints/best_AGS-UNet_emb_snr_-4.pth (torch, 733282 bytes, 105 tensors)

EncList.0.conv.weight f4 [16, 2, 11]
00000000: b788 f33d 8aff 1b3e 4bba 76bd 7251 3f3e
00000010: d0f7 5cbd 8556 333d c75e c4bd 39f3 133e
00000020: dd28 5e3e 7a5f 06be c534 553e 69a2 243d
00000030: a38a 183e 44c2 973c dbd7 d03d fcfc 6ebc
00000040: b6e7 5d3e 3df4 c83d deca 62bd 376f 863d
00000050: 4876 e6bd ab8d 46bd af79 5fbd 1dbd 343e
00000060: 6dba 05be 485f 85bd 86bd 1dbd c34f f0bd
00000070: c955 bd3c a906 52be 3b77 573e d11b 13be
00000080: cfdf 583e a0ed 8b3d 7af5 43bd 2013 203e
00000090: c32c 383d 5322 353e 4efb 2b3d c467 38bd
000000a0: 8590 b83d 4448 36bd 5ae7 b33d f209 373e
000000b0: 8440 933e 5743 013d cb6a 453e 4edd 163d
000000c0: 7782 763d 95ba 72be caaf 84be 09d7 ecbd
000000d0: daad 3dbe 7d64 163e 88a8 25bc 57bb ac3d
000000e0: a4a1 7a3d ed66 523c 7ecd 283e e1bd e4bd
000000f0: 191e 273d 5ad5 febd ae68 783d c556 cabd
00000100: 0434 8f3b f766 f2bd d7fc fb3d 5dd8 34be
00000110: e38d 2bbe f206 25be ea10 3a3e a812 7f3d
00000120: 8865 5f3e 7fc0 1abe e1a0 2ebe 05f3 f8bd
00000130: 3864 d1bd 4e1d 673d 48d7 7a3d effd 263e
00000140: e072 fabd 150f 14be 28f9 e73d 7e06 b9bd
00000150: a892 0a3e a00d 2ebd 8389 e73d 15f6 40be
00000160: f4fc f4bd 832f 383d d8f5 fb3c 9050 4cbd
00000170: d983 123e d6b1 253e ce1b 25be 2829 03be
00000180: e0cd 3c3e 4b30 89bd e93e 88bd 9a86 46be
00000190: c974 d9bd 17c1 9b3d 185e 28bc 5df7 ecbd
000001a0: feb3 643d 8108 a0bd a0d2 dfbd 0642 93bd
000001b0: 1d21 21be 2e00 f7bd a098 8b3e d777 af3d
000001c0: c04e 9e3d dec9 46be 061b 14be f924 b2bd
000001d0: a3f9 863c 979e 5cbe c65b d2bd c6cc 11be
000001e0: a645 bbbc 9d99 bebd 201e 53bd 42a2 29be
000001f0: e03f 2abe cc5e 02be 5c56 a0bd 1e9b 30be
00000200: 5dc7 3b3e d19e 46bd 963a 3e3e 99d0 9f3d
00000210: 8650 63be 026a e53d 1b82 c3bd d561 d3bd
00000220: 251d 30be e496 53be 1f9b ba3d c5e1 b63b
00000230: 684c 0b3e 5108 d0bd b9bf 7b3e 5726 23be
00000240: 57fa 06bd b256 0e3d db0b a43d 5d94 dc3d
00000250: f990 0c3e 46d5 60be 6372 743c d385 cbbd
00000260: 2087 26bd b00e 53be 0d5d a23e ed25 5cbd
00000270: f1d0 423e eedd dc3d b5ca 913d 7a93 1fbe
00000280: 9793 c83d 39be a0bd 6fbd d5bd 9612 afbe
00000290: b53c 81bd 736b 94bd 668c d5bd 0b2e 4c3e
000002a0: d844 973d 6193 cabd cda3 babd 31e6 6a3c
000002b0: be3f 0a3e ab87 01bc 0d63 80bd d2da 2dbd
000002c0: 80af 93be 3e92 3abd c760 873d 7625 87be
000002d0: cbfa a43a c40c c13d 9fca 603d b5e5 0dbd
000002e0: 1cd8 3a3e 0c54 303e 1717 f33d d24d 5ebc
000002f0: 327e 8dbd bc5e 23bd 4620 00be 4a6e 0ebe
00000300: 7b24 953d 7803 0e3e 5500 3bbd adbd 57bd
00000310: caf4 b33c f2c3 fa3c 9eba 193e 5151 bd3d
00000320: b97e 71be 7422 17be 8a0b f33d 8ae2 ba3c
00000330: 0c25 afbc 67f1 c6bd 6df1 a5bd 766c 1dbe
00000340: 056d 53bd 9a4c 9d3d 3da8 0c3e 6bdf c53d
00000350: 51ed 36be 62fb 01be ea95 f2bc 32c8 473e
00000360: 7786 123c 7389 89bd d8b6 c23d a226 a5bd
00000370: 2ac8 2fbe 1fee 153e d714 f1bd f53f 1ebd
00000380: 6427 4fbe 2f8b 423e bf73 6a3e b985 0a3e
00000390: 6ea4 b8bd 40fd 16be 7f86 d0bd 5c17 703e
000003a0: 66ca e83d 98b3 2e3e 1e93 a73d e862 293d
000003b0: ad26 bcbc fc7a 48be eb72 5fbe f6ae 3fbe
000003c0: cfa5 d93d 6c48 f4bd 85ad febc cf27 b7bd
000003d0: f4d7 0a3c 09f5 bcbd c5d5 9fbd 0847 083e
000003e0: 7efd d9ba a616 3d3e d3b9 12bd 0be4 14be
000003f0: 7fc0 77bd 117c b0bd 24bd fdbc da18 31be
0.11891311 0.15234199 -0.060236257 0.18683413 -0.05394727 0.043783683 -0.0958839 0.14448251
0.21695276 -0.13122359 0.20820911 0.04019395 0.14896636 0.01852525 0.10197421 -0.014586683
0.21670422 0.0981221 -0.05536925 0.06564181 -0.11253029 -0.04847495 -0.054559406 0.17650266
-0.13059397 -0.06512314 -0.03851082 -0.11733963 0.023112195 -0.20510353 0.21041577 -0.1436608
0.21179126 0.06832433 -0.047841527 0.15632296 0.044964563 0.17688875 0.04198771 -0.045020834
0.0901194 -0.04450251 0.08784361 0.17874888 0.2876016 0.03155836 0.1927902 0.036832146
0.060183015 -0.23703988 -0.25915366 -0.11564452 -0.1852335 0.1468677 -0.010110982 0.0843417
0.06118931 0.012841922 0.16484639 -0.11169029 0.040800188 -0.12443037 0.060646705 -0.09879831
0.0043702144 -0.11836045 0.12304085 -0.17660661 -0.16753344 -0.1611593 0.18170515 0.06227365
0.21816075 -0.15112494 -0.17053558 -0.12155727 -0.10224193 0.05642443 0.061240464 0.16307805
-0.12228942 -0.14458878 0.1132682 -0.090344414 0.13532507 -0.042493463 0.11305525 -0.18843873
-0.119623095 0.044967186 0.030756876 -0.049881518 0.14308108 0.1618112 -0.16123888 -0.12808669
0.1843791 -0.06698664 -0.06652624 -0.19387284 -0.10617978 0.07605188 -0.01027634 -0.11570618
0.055835716 -0.07814122 -0.109288454 -0.07190327 -0.15735288 -0.12060581 0.2726488 0.085677795
0.07729864 -0.19412944 -0.14463434 -0.08698458 0.016476458 -0.21544872 -0.10271411 -0.14238271
-0.02286036 -0.09306643 -0.0515424 -0.16565803 -0.16625929 -0.12731475 -0.07828972 -0.17246673
0.1833777 -0.048491303 0.18577036 0.07803459 -0.22198686 0.1120186 -0.095463 -0.10321394
-0.17198618 -0.20663029 0.09111618 0.005581113 0.13603365 -0.10157836 0.24584855 -0.15932594
-0.032953586 0.034750648 0.08010074 0.107704856 0.13727178 -0.21956357 0.01491985 -0.09937634
-0.04065621 -0.20611072 0.31711617 -0.053747106 0.19025017 0.10784517 0.071187414 -0.15583602
0.097937755 -0.07848782 -0.10436522 -0.34193867 -0.06310407 -0.07247057 -0.104271695 0.19939439
0.07386178 -0.098913915 -0.09113274 0.0143371085 0.13500878 -0.007905881 -0.062688924 -0.04244501
-0.28844833 -0.045549624 0.06610256 -0.26395768 0.0012586949 0.09426263 0.054880735 -0.034642894
0.18246502 0.17219561 0.118696384 -0.0135683585 -0.069088355 -0.039885268 -0.12512311 -0.1390926
0.07282349 0.1386851 -0.045654614 -0.052671123 0.02196731 0.030611012 0.15012595 0.092440255
-0.23583497 -0.14759237 0.11867435 0.0228131 -0.02137997 -0.097140126 -0.08102689 -0.15373406
-0.05161764 0.07680626 0.13736053 0.09661754 -0.17863967 -0.12693551 -0.0296125 0.19509962
0.008943192 -0.067156695 0.09507531 -0.08064009 -0.171662 0.14641617 -0.11771553 -0.038635213
-0.2022987 0.18998407 0.22895716 0.13527574 -0.090157375 -0.14745045 -0.10181903 0.23446411
0.113667294 0.17060697 0.08182357 0.04135409 -0.02296766 -0.19578165 -0.21821181 -0.18719086
0.106273286 -0.11927876 -0.0310886 -0.0894314 0.008474339 -0.09226424 -0.07804445 0.13308346
-0.0016631333 0.18465671 -0.035821747 -0.14540116 -0.060486313 -0.08617414 -0.030973978 -0.17294636

EncList.0.conv.bias f4 [16]
00000000: b886 ce3d a116 a23d 58b2 abbe 37f2 03be
00000010: c407 32bd 058d 2a3d 85b9 86be 2d40 973e
00000020: 69fa edbd cb81 82be 2aea cc3c 02d6 5ebe
00000030: 30e4 c63d a689 f0bd 2376 febd 1b7c 7cbe
0.10084289 0.07914472 -0.33534503 -0.12885366 -0.043464437 0.041638393 -0.26313415 0.2954115
-0.116200276 -0.2548965 0.025014002 -0.21761325 0.09711492 -0.11745004 -0.124248765 -0.24656717

EncList.0.shrinkage.fc.0.weight f4 [16, 16]
00000000: 6c84 8dbe 3f7f c9bc b616 293e 994d 153e
00000010: e039 e9bd ecd7 11bb cdee 04be 1927 0fbe
00000020: fa3f 643d 405c 0e3e 95ae 5a3e 65fa 57be
00000030: 8198 5b3e 9986 12be c941 033e d06c 763e
00000040: e551 dc3d e2f7 2d3e bc60 80be 535c 2dbe
00000050: 76b2 3b3e bfd3 29be 713a acbd 9568 3dbd
00000060: d99f 573e 8255 4e3d 3c61 303c dbf2 5bbe
00000070: 32f5 24be 38bb d7bd 0356 003e 2685 4bbe
00000080: ec8d 1fbe 3e78 223e 968d 553d 970f 863d
00000090: 3202 e5bc c4b9 20be 36d7 0ebe c958 d8bd
000000a0: 36c8 2cbe 6f4b f83d cccc 96bc f5f1 e7bc
000000b0: 5bb8 923e 7ce3 243e 918d 433e a356 3bbd
000000c0: 0dd5 3cbe 24ca cc3c 65df b9bd cb12 c0bd
000000d0: 7ed4 883d d7b7 09bc 0859 cebd 6f6c 653e
000000e0: 1d19 913e 738d 133d d5fb 4f3b 6f41 20be
000000f0: 548a 9bbc 580c 173e f428 393e cbbc 143d
00000100: 36f9 fcbc fdb7 5f3e e98e 67be 10db c03d
00000110: 188c 34be 5db2 51bd d6eb 0fbe 9ea6 4f3d
00000120: 52fb 43be 58f4 003e 1b96 77bd 57e7 013e
00000130: b215 2a3e 96f6 37be 8e47 a6be a310 033e
00000140: ea23 653e a3d4 81be 7bf0 6d3c ea04 c7be
00000150: 6224 1bbe dd70 a33d b598 6f3d 4e75 be3d
00000160: b9ca 0abc 6137 db3d d400 a9bd 2282 3cbe
00000170: c789 e63c d26a 603d 4197 103e c20f 10be
00000180: ed9a 823d 0c53 4abe 4567 23be b0b6 d5bd
00000190: 3bc6 933e 1999 7f3e 99cf 863e 5572 4d3e
000001a0: 5f4d 333e a1d9 3cbc 2961 edbd 056c 1e3e
000001b0: 4077 82bd 230b 0abe 831c a4bc 9fa8 bc3d
000001c0: 8f58 fbbb 69bb efbd 0c0f c5bd aa38 db3d
000001d0: 9a31 89bd a2f5 8dbd adb8 6c3e 56df 76bd
000001e0: 92d6 5e3e 9179 923e e457 0b3e 727a 333e
000001f0: 5786 053e cce5 f03d 6689 733b a46b cf3d
00000200: 41c9 0d3e 3ac7 4b3e 3539 fdbc 9c1e 0ebe
00000210: 2fbd c6bc f348 20be 9261 84bd a5c8 6c3e
00000220: 148a 703e 4e14 943d 9411 54be 3f8e 4fbe
00000230: 8edf 19bd ff51 08be 9199 553d 7083 69be
00000240: 3e85 093e 7104 07be 47da 73be 4f22 a9be
00000250: a7ca 343e 98f6 93be c2df 0a3e 399d 96bd
00000260: b5cb 49bd c538 c93c c4a6 0cbe 7972 e93d
00000270: 9353 f63d 2d73 8bbe 6635 273d a958 ba37
00000280: e7c8 253d 8fd5 9dbd 6b0d be3d 50c5 41be
00000290: 9adb b33d 1b35 913e c2b1 473e 26e0 103d
000002a0: 9fd4 03be 7a35 adbd 7e74 62be d6fd 403e
000002b0: e50d 48bd 5fa7 be3c 1a46 713d 9479 cd3d
000002c0: a136 9f3e 9825 8b3d 995e 373d 5f3a ec3d
000002d0: b098 1e3e c477 28be 715a 13be d64c c53d
000002e0: 5419 61bd 4197 1c3c d539 c6bd e77c 75be
000002f0: 9958 7bbb ed85 18bd 81fc b63d 1a75 2f3e
00000300: 441d 2c3e 7421 7c3e ee66 4abd a78d 4ebe
00000310: 41c2 36be 5dad 41be 7feb 91be 2467 11be
00000320: 1c3d 62be 5fdb 5fbe 83a8 11be 534e 73be
00000330: dd12 29be 716f dc3d 32a0 523e be2f cdbd
00000340: 5512 ba3c 2546 153e 25f0 4abe e2ce 51be
00000350: 88dd fa3d 3211 8cbe 7b4e 9fbb 891a 513e
00000360: 17d6 993d 9a45 553c 9fbb 73be f3bd 8cbd
00000370: 0c15 2cbc 3f39 07bd a715 a93d fe17 233e
00000380: fd90 39be 5ad2 fa3c a5ed ecbd 3b27 3dbe
00000390: b450 88bd f60d 62be 215d 103e cbe9 af3c
000003a0: 8da5 2dbe 1fa0 0e3e 7640 60be 35b7 c7bd
000003b0: 7eef 3dbe ff98 58be fe79 48be 76a6 b3bd
000003c0: a073 003e b82f c93e 7121 4a3e d87d 9dbd
000003d0: f5a7 15be 6f92 883e b737 193e b5d1 6fbd
000003e0: 01dc e5bb 0ec1 d0bd 33eb 27bc 0881 953e
000003f0: 9b0c 7bbc 9074 363d 3ad0 9cbe 8e04 babd
-0.27640092 -0.024596808 0.1651257 0.14580382 -0.11387992 -0.0022253944 -0.1298172 -0.13979758
0.055725075 0.13902378 0.2135566 -0.21091612 0.21444894 -0.14309157 0.12818064 0.24064946
0.10757808 0.16989091 -0.25073802 -0.1692975 0.18329796 -0.16584681 -0.08409584 -0.046242315
0.21057071 0.050374515 0.01076537 -0.21479361 -0.1610916 -0.10533756 0.12532811 -0.19875011
-0.15581483 0.15866181 0.05213698 0.06545942 -0.027955148 -0.15695864 -0.13949284 -0.105638094
-0.1687325 0.12123763 -0.018408202 -0.028313616 0.28656277 0.16102403 0.19096972 -0.04573692
-0.18440647 0.024998732 -0.09075812 -0.093785845 0.06681155 -0.008405647 -0.10075575 0.22404645
0.28339472 0.03602357 0.0031735797 -0.15649961 -0.018986858 0.14750803 0.18082029 0.03631286
-0.030880552 0.2184753 -0.2261311 0.09416783 -0.17631567 -0.05119549 -0.14054808 0.050696008
-0.1913884 0.1259321 -0.060445886 0.12685905 0.16609839 -0.17965159 -0.32476467 0.12799315
0.22376981 -0.2535754 0.014522667 -0.38870937 -0.15150598 0.07980511 0.058495242 0.09299718
-0.008471184 0.10703922 -0.08252111 -0.18409017 0.02814187 0.05478937 0.14120199 -0.14068511
0.06377206 -0.19758242 -0.15957363 -0.104352355 0.28862175 0.24960746 0.2633026 0.20063145
0.17509983 -0.011526496 -0.115907975 0.15470894 -0.063704014 -0.13480811 -0.020033127 0.092118494
-0.007670469 -0.117056675 -0.096220106 0.10704167 -0.06698914 -0.06931616 0.23117323 -0.060271583
0.2176154 0.28608373 0.13607746 0.17527178 0.13039528 0.1176258 0.0037160753 0.10127953
0.13846304 0.19900218 -0.030911068 -0.13878864 -0.024260132 -0.15652828 -0.064639226 0.23123415
0.23490173 0.07230435 -0.2070983 -0.20269106 -0.037566714 -0.13312529 0.052148405 -0.22804046
0.13429734 -0.13185288 -0.23813735 -0.33033988 0.1765543 -0.28899074 0.1356192 -0.073542066
-0.049266536 0.024563203 -0.13735491 0.11398787 0.12027659 -0.2723631 0.04082241 2.2214213e-05
0.0404748 -0.07706749 0.09279903 -0.18922925 0.0878212 0.2836083 0.19501403 0.035370015
-0.12874077 -0.084574655 -0.2211475 0.1884683 -0.048841376 0.023273168 0.058904745 0.10032955
0.31096366 0.0679428 0.04476795 0.11534571 0.15487933 -0.16451937 -0.1438997 0.09633796
-0.054955795 0.009557546 -0.09678999 -0.23973428 -0.003835237 -0.037237097 0.0893488 0.17134514
0.16808039 0.24622136 -0.049414568 -0.20171224 -0.1784754 -0.18913789 -0.28499982 -0.14199501
-0.22093624 -0.21861027 -0.14224438 -0.23760347 -0.16511102 0.10763443 0.20568922 -0.10018872
0.02271382 0.1457754 -0.1981817 -0.20489076 0.12249285 -0.2735687 -0.0048616505 0.20420279
0.075115375 0.013017083 -0.2380204 -0.068721674 -0.010503065 -0.03301358 0.08256083 0.15927121
-0.18121715 0.030617882 -0.115687646 -0.18471996 -0.06656018 -0.22075638 0.14098026 0.021473786
-0.16957684 0.13928269 -0.2189959 -0.09751741 -0.1854839 -0.21152113 -0.19577786 -0.08771984
0.12544107 0.3929422 0.1973932 -0.076900184 -0.14614852 0.2667422 0.1496266 -0.0585496
-0.007014752 -0.10193072 -0.010248947 0.29200006 -0.01532283 0.044544756 -0.30627614 -0.090829

EncList.0.shrinkage.fc.0.bias f4 [16]
00000000: 9965 03bc b0b8 1abe 37b7 f0bc ca81 cf3d
00000010: 7773 7bbe fe4e 953d 39bd 28be 220c f9bd
00000020: 1f69 c33d 4655 4c3e 8e1c 8bbd 0406 d2bd
00000030: fd85 67be 7e7b 04be c76d 61be c12c 6cbd
-0.008019828 -0.15109515 -0.029384239 0.10132177 -0.24555765 0.07290457 -0.16478433 -0.12160517
0.09541535 0.19954404 -0.06792556 -0.10255054 -0.22609706 -0.12937734 -0.22014533 -0.05765987

EncList.0.shrinkage.fc.1.weight f4 [16]
00000000: ffa8 833f ebc1 873f c525 753f e830 663f
00000010: 1fe4 823f 44be 803f fac1 4f3f d73e 833f
00000020: 72af 723f db34 873f f343 7c3f b181 813f
00000030: 40cf 783f a960 803f 3b12 8b3f 4bee 793f
1.0285949 1.0606054 0.95760757 0.89918375 1.0225867 1.0058064 0.8115536 1.0253552
0.9479896 1.0563005 0.9854118 1.0117704 0.9719124 1.0029498 1.0864938 0.9762923

EncList.0.shrinkage.fc.1.bias f4 [16]
00000000: 435a 6a3d 7a9d 8dbd a5f5 0e3e 9266 b43d
00000010: 5d24 a9bc b10a 47bd c223 a9bd 4620 133f
00000020: 675c 97bd c97b d7bd 8462 353e 1a57 f73b
00000030: 681e 6dbd 0320 aebd bb16 45be 6abd 84bd
0.057214987 -0.06914802 0.13960893 0.08808626 -0.020647222 -0.04859418 -0.082587734 0.5747112
-0.07390671 -0.10521657 0.17713362 0.007548225 -0.057890326 -0.085021995 -0.19246952 -0.0648144

EncList.0.shrinkage.fc.1.running_mean f4 [16]
00000000: bd30 14be 1752 723c a157 8dbd b372 1f3e
00000010: a827 cbbd ce86 2b3e 09ff 3fbe ea34 b5be
00000020: d03f 953e 38a6 833e b6b0 25be 66dc 17bd
00000030: 8b5a 19bc 3448 debc db6b 1dbe e7c8 b7bd
-0.14471717 0.01479008 -0.069014795 0.15571098 -0.09919673 0.16750643 -0.18749632 -0.35391933
0.29150248 0.25712752 -0.16180691 -0.037075423 -0.009359966 -0.027134039 -0.15373175 -0.08973866

EncList.0.shrinkage.fc.1.running_var f4 [16]
00000000: f3c6 ba3d 7fa3 203e 1ece 763d 2569 943d
00000010: 2b5f 3f3e 7578 863d 9d14 1f3e 9b26 063e
00000020: ae96 523e 9d6a fc3d 6e8e a53d ba8d 913d
00000030: 2ee0 cb3e ec95 243d 5ab8 393e 2468 153e
0.09119978 0.15687369 0.060255162 0.07246617 0.18688647 0.06565944 0.15535207 0.13100664
0.20565292 0.12325022 0.08083807 0.0710711 0.39819473 0.04018204 0.18136731 0.14590508

EncList.0.shrinkage.fc.3.weight f4 [16, 16]
00000000: 0513 e2bd 0fd5 68be c8cb 0a3e 4a59 9b3d
00000010: 65ab 3cbe 3d97 3bbe ace8 b8bc 09a0 4dbe
00000020: a27e 51bd d0be 3fbe f968 ec3d eb59 47be
00000030: d08e 403e 5017 69bc ab8e b73d f969 6e3e
00000040: 8986 c83c 8f30 77be 4877 8e3d 5bd5 323e
00000050: baac 6cbe 28c7 4abb 8cdc 5bbe a56e b13d
00000060: 0213 13bd 9488 a63d 71d1 9f3d f0dd 183d
00000070: b65c eabb ee41 3bbe de5c 12be f135 563c
00000080: 03b3 433e 379e ca3b d4bc 35be 2546 2a3e
00000090: 2913 0cbe b899 1bbe 7d94 39be 98c5 cfbd
000000a0: fdf4 903d ac2c 30bd feca 4bbe 517a d73c
000000b0: 13f8 4abe 8c7f 163e d633 abbe f21b 2cbe
000000c0: 80c5 8bbe 7444 30be 8599 903d 7cce 923e
000000d0: 5995 90bc f214 353d df87 313e cb8a 2f3e
000000e0: 6d1b 0d3e 6357 c13d 4f4c d0bd 66b6 1a3e
000000f0: fcf9 613e 6448 82be da83 d3bd e629 71be
00000100: 4530 5b3c 32dd 76be 83f5 db3d acfa 853d
00000110: e2e9 45be 7db5 013d d43f 18bd 2037 fc3d
00000120: ab77 993d 3098 81be 8074 863e afb9 503e
00000130: 35fa 0d3d 7471 72be e03b e0bd e7e8 e0bc
00000140: 7f9f 16be 8ee3 203e 1ab0 fdbc 577d 863d
00000150: 27de 8cbe f46b 283d 1a9f 1f3d a863 c3be
00000160: 58be 82be 0f80 2ebe 0ae3 d13d c5b0 4fbe
00000170: 12f2 8ebe 9e36 273e d66f 90bd 5e84 20be
00000180: 45d3 84be 4224 44be 8069 f73c ba63 313e
00000190: faa0 3c3e 79c9 193d f132 9c3d 3d8e 1f3e
000001a0: 108d 39be 82ec dbbd 22eb 393e c035 2cbe
000001b0: 7537 17be c006 473e ea71 b53d 731f d83d
000001c0: 2cd7 0cbe 3651 2f3a 274b 463e 4d6c 9cbd
000001d0: 3097 cbbd cc96 203e 8814 84bd caaf 1b3e
000001e0: 3642 c4bd 1096 88bd 8a26 e1bc 4d91 2dbe
000001f0: a6b8 5fbe 9c5f 0c3e e2be 333d d2e2 a4be
00000200: 0691 e63c ed6b 193e 7103 8c3d de16 503d
00000210: 371c 01bc 1c8f 3fbe 44b6 b1bd 8c8e 633d
00000220: ee8f 8bbe 8765 15bd 6f26 ed3d 887b 97bd
00000230: df13 91bd 0c90 26be 3cf9 fc3c 0240 183e
00000240: 23b1 60bd 7eb0 82be baae a13e c932 df3d
00000250: 161e 2dbe 9347 893e adfe 97bd b31f 1f3e
00000260: a2ad e73d 7d93 b1bd 6167 383e 1bda 143d
00000270: 99f0 4abe 34f0 3e3e 1cd9 71be aadc 2d3e
00000280: 443d a3bd 0332 1e3e ce54 7fbe 30e8 003e
00000290: 512d 28bd f1e4 20be 4e82 d03d e45a 943d
000002a0: 378c 833e ae0f 9bbd 2c05 05be 70f7 383e
000002b0: 62de e23d d2b4 383e 98db 213e 5419 02bd
000002c0: 3fc1 283e 0212 0e3e 98c9 24bb e12d 713e
000002d0: a9b5 aa3d 0b22 263e 86a8 eebd feed 95bd
000002e0: af16 14be aa20 003c 0989 483e 19f0 0cbe
000002f0: 2196 e73c d451 95bd f331 743d f639 cdbd
00000300: 5a79 45be 0fed a3be 3196 31be e4e8 ae3d
00000310: c162 4fbe d2e3 8abd 1833 933d d03a dcbd
00000320: 5306 c43c d4eb afbe b5d3 e9bd d221 96be
00000330: d0cb c7bd fe2e 91be bbf1 253d 16dc b3bd
00000340: 6e88 3f3e 3d74 a53e 822c 463e 1a8e 003e
00000350: c0f3 9ebe 49a1 ad3e 8682 df3c cda5 1c3e
00000360: dcfb 913e 4c34 6b3e e9d4 bd3e 4003 bc3e
00000370: 851c c53d 7e89 48bd b993 a73d 6b3a a5be
00000380: 119f 523d cab0 493e 5a6b 733e 250e 003e
00000390: 16c5 e1bb cb90 4ebe 848d f13c c25d 0b3f
000003a0: 076a 943d 9962 693d b2a9 cf3d 09e5 33bd
000003b0: 4605 203e a716 5b3d 04f4 c43c b76c 88bd
000003c0: 5337 3f3d ffc0 753d d707 debc b0c2 143d
000003d0: e7b5 593e 4b6f 6a3e dcf9 053e 43c9 2abe
000003e0: 3dbf 6ebe 7c98 d73d 53b1 b4bd 1c07 dabb
000003f0: 73f8 bbbd 4aae ad3d a126 013e a4a9 633c
-0.11038784 -0.22737525 0.13554299 0.0758539 -0.18424757 -0.18319412 -0.022571884 -0.2008058
-0.051146157 -0.18725133 0.115434594 -0.19467895 0.18804479 -0.01422675 0.08962759 0.23282613
0.024478214 -0.24139617 0.06956345 0.17464201 -0.23112765 -0.003094146 -0.2147085 0.08663682
-0.0359068 0.08131519 0.0780362 0.03732103 -0.0071521653 -0.18286869 -0.14293239 0.013074384
0.19111256 0.0061834115 -0.17747813 0.1662832 -0.13679184 -0.15195358 -0.1812305 -0.1014511
0.07077978 -0.043011352 -0.19901654 0.026303442 -0.19821195 0.14697093 -0.33437985 -0.16807535
-0.27299118 -0.17213613 0.070605315 0.2867316 -0.01764934 0.044209428 0.17336987 0.17142789
0.13779993 0.09440496 -0.10170805 0.15108642 0.22068018 -0.25445855 -0.10327883 -0.23551139
0.013378208 -0.24107817 0.10740187 0.065419525 -0.193275 0.03166722 -0.037170246 0.12315202
0.07493528 -0.25311422 0.26260757 0.20383333 0.034662444 -0.23676091 -0.1094892 -0.027454806
-0.1470928 0.15711805 -0.03096776 0.065668754 -0.2751324 0.041118577 0.03897009 -0.3816197
-0.25535846 -0.17041038 0.102483824 -0.20282276 -0.2791906 0.16329429 -0.07052581 -0.15675494
-0.25942436 -0.19154456 0.030201674 0.17323199 0.18420783 0.037545655 0.07626904 0.15581603
-0.18120217 -0.1073847 0.18156102 -0.16817379 -0.14767249 0.19436169 0.08859618 0.105528735
-0.13753957 0.00066878216 0.19364606 -0.07637844 -0.09940946 0.15682524 -0.064492285 0.15203777
-0.09582941 -0.06669247 -0.027484197 -0.16949959 -0.21847782 0.13708347 0.043883212 -0.322043
0.028145324 0.14982577 0.06836594 0.050803058 -0.007880262 -0.18706936 -0.086773425 0.055555865
-0.27258247 -0.036473777 0.11579596 -0.073966086 -0.07083868 -0.16265887 0.030880563 0.14868167
-0.05485643 -0.25525278 0.31578618 0.108983584 -0.16906008 0.2681242 -0.074216224 0.15539436
0.11312415 -0.08670709 0.18008186 0.036340814 -0.19818343 0.18646318 -0.23617977 0.16978708
-0.0797067 0.15448765 -0.24934694 0.12588573 -0.041058842 -0.15712334 0.10181104 0.072438985
0.25692913 -0.0757135 -0.12990254 0.1806314 0.110775724 0.18037727 0.15806425 -0.031762436
0.16479968 0.13874057 -0.0025144573 0.23552658 0.0833543 0.16223924 -0.11653237 -0.07320784
-0.14461778 0.007820288 0.19583525 -0.13763465 0.02826983 -0.07290998 0.059617948 -0.10020821
-0.19284573 -0.320168 -0.1734245 0.08540514 -0.20252515 -0.067817345 0.0718748 -0.10753405
0.023928797 -0.3435961 -0.11417333 -0.29322678 -0.09755671 -0.28356165 0.040513735 -0.087822124
0.18704388 0.32315245 0.19352916 0.12554207 -0.31045341 0.33912113 0.027283918 0.15297623
0.28512466 0.22969168 0.370765 0.3672123 0.0962458 -0.048959248 0.08182473 -0.32271132
0.05142123 0.19696346 0.2377142 0.12505396 -0.0068899496 -0.20172422 0.029486425 0.5443994
0.072467856 0.056978796 0.10139789 -0.043919597 0.15627012 0.0534884 0.024042137 -0.06661361
0.04668362 0.05999851 -0.027103348 0.03631848 0.21260796 0.22894017 0.13083595 -0.16678338
-0.23315139 0.10527131 -0.088228844 -0.0066536795 -0.09178247 0.084805086 0.12612392 0.013895426

EncList.0.shrinkage.fc.3.bias f4 [16]
00000000: 5799 fbbd 91e8 b9bc 943f 32be 2a88 89bc
00000010: 22a8 a63e de96 373d 50ed 973e de81 b0bd
00000020: cca1 873e 9367 983e c5b0 afbd 46a7 1cbd
00000030: 085c 3cbe 31c3 bdbd 8f96 abbd 8d9b 4c3e
-0.12285107 -0.022693904 -0.17407066 -0.01678856 0.3255015 0.044821613 0.29673243 -0.0861852
0.2649063 0.2976652 -0.08578638 -0.038245462 -0.18394482 -0.092657454 -0.08378326 0.19981213

EncList.1.conv.weight f4 [32, 16, 5]
00000000: 555d 52b9 bea5 33be 2b87 6ebd 05f4 d8bd
00000010: 4d1b fdbd 0331 5d3d eac0 0d3d 1276 65bd
00000020: 52ab 5b3d 343c 993d dda4 803d a2f8 53b8
00000030: 5fd3 ca3d 2342 39bd 52cb adbc 787e 04bd
00000040: 8276 acbd 8b91 02bd 68a7 88bd ebcd 0bbc
00000050: 0991 193d 0fe9 113d 6609 d5bc 0cc3 7bbd
00000060: 1bf8 313d 44d4 89bc a6a1 babd 2d87 8dbd
00000070: f26d abbd 8824 8abd 1be8 213c 4613 62bd
00000080: 408f 323d 721e d83b 2f04 f5bd 620e 56bd
00000090: b64b 563d ebce 03be 94f5 05be 530f 3e3d
000000a0: 6afb 79bd 9f7f 52bd 4d3b 323d 3dda babd
000000b0: cc63 e83c 3844 f9bd 9e44 e63c 9823 25bd
000000c0: 8d47 69bd 7f72 003d 3857 36bd ea4a 0bbe
000000d0: 5803 f7bc e7d9 09be 5e40 6ebd c956 023e
000000e0: ea92 973d 470a fcbd 9b56 b1bd 1d70 7dbd
000000f0: 9afe 223d e1af 60bd 139f 82bd 0117 38bc
00000100: 668f 9abc b1f5 fa3d 4b35 ef3d f0ea c5bb
00000110: e593 fc3d ddb5 a73d 2434 bebc a121 f3bd
00000120: 41d5 a03d 09e4 513d 6fa4 d4bb 4c93 dd3c
00000130: 34ad 92bd d8f0 5bbd 6b3f a53c 84f0 473d
00000140: 1c02 25bd 6f06 86bd 41a2 c1bd eb46 903b
00000150: a6d2 d6bd 6399 7fbd fa59 fbbd 0e10 f73d
00000160: efcd b03d d9a6 00bd 97bb ba3d 2707 cbbd
00000170: 85a0 923d 6ad4 083e 121d 213e e63e 95bc
00000180: 5289 a2bd 13fc 8f3d 0cf9 6f3d abef 22be
00000190: 4aef 16bd 2de4 febc 9f35 57bd 8e0b 29be
000001a0: c91d cabd 8006 8dbd 9772 babc a25f f03c
000001b0: a6bd fabd befa bebd e58e 833c b38e eb3d
000001c0: edf7 073d 6c0b 04bd 02a3 ac3d a12f bdbd
000001d0: e460 c1bd d92a dbbd 7d16 83bd a92b db3c
000001e0: 3d4e adbd 2044 aa3b 9631 6dbd c2f4 3f3c
000001f0: ce47 553e de1a 01bc e63b b43d 44d0 35bc
00000200: 965a 9abc 5787 f9bd 531d f0bd 1df5 323d
00000210: a619 babd 5a40 e23d 2395 073e a3b0 b13d
00000220: 2053 9e3d fa8f dc3c d9dc 54bd 5125 14bd
00000230: d9fc 6cbd 4bf0 23bd 0f1d 1fbe 954a eebd
00000240: 4f31 63bd f6ed 033e 95a5 32bd 9664 b83c
00000250: 1c37 e1bd 43dd 87bd 73ed 333d dc02 beba
00000260: 9b7e 71bd 1ea9 c2bd d50b 183d 7c8f 003d
00000270: 6c3e b43d fa39 233d 6948 4d3e 3f80 c23d
00000280: 5dbd a03c 9107 913d 1b9e c93d 1f4d 263d
00000290: ded8 3a3d 4d6a 97bd 772e fc3b 4619 27bd
000002a0: 8e07 40bb 900f 8b3d ffa2 0d3e 12d3 ca3c
000002b0: 74c9 abbd 44b5 0bbe 4fdf 6abd ab17 00bd
000002c0: 93ff 833c d4b0 b43d 6602 073e f900 24bd
000002d0: 4ca1 80bb 77fc 15bd ef0e 753d 658f bf3d
000002e0: 5f78 a3bc 8c55 8f3d 6100 083e 4cac 7e3d
000002f0: cc3e 113d cdcd a43d f46c babd 9637 44bd
00000300: 7103 4ebe 5b38 06ba eeac 003d 9205 f33d
00000310: 0691 003e e430 fb3d dc7c 2d3d bb14 23bd
00000320: cdd6 80bd a162 acbd 8c1c a6bc abc5 39bd
00000330: 5db2 d5bd 23f5 723c 1bca 6cbd a1ec f13b
00000340: 46c2 a1bc c596 403d 2edf 34b9 638c 15bd
00000350: cb5e 103d 0fa6 143e 4a75 e43a c0a3 533d
00000360: 1708 0fbd 281b 643c 5787 8e3c 9a76 57bd
00000370: 092c 58bd aa28 5b3d fb9d 63bd a02f 9cbd
00000380: 53c9 193e c48d 843c 8243 013d fc16 91bd
00000390: 81f4 f73d b60e 44bb d96c 0f3d 8285 5c3b
000003a0: 6761 d3bd 5d90 75bd 9fc3 d9bc 8bd8 f9bb
000003b0: e02e 87bd a4be 373b 921a cebd 78c1 223d
000003c0: 4c78 733a 3d85 633d e007 7b3d 8a14 d43d
000003d0: ee2c 88bb 8d8d 6abc 10b4 0f3d 8e16 fbbd
000003e0: a8ed 623d 742f 123d dc88 823d 9b20 f13d
000003f0: 7e36 dcbd 7cfe aa3c 74dd a7bd 79e3 c1bd
-0.0002006193 -0.17543694 -0.058234375 -0.10593418 -0.12358723 0.05400182 0.034607805 -0.056020804
0.05363018 0.07482186 0.06281445 -5.0537878e-05 0.09903597 -0.04522909 -0.021215115 -0.032347172
-0.08421041 -0.03187708 -0.06672555 -0.008532981 0.037491832 0.035622653 -0.026005458 -0.061465308
0.043449502 -0.016824849 -0.09112863 -0.06910548 -0.0837058 -0.06745249 0.009881998 -0.05519416
0.043593645 0.0065954262 -0.119636886 -0.05225981 0.052318297 -0.12871902 -0.13081962 0.046401333
-0.061030783 -0.05139124 0.043513585 -0.09123657 0.0283679 -0.12171215 0.028108891 -0.040317148
-0.056953 0.031359192 -0.044516772 -0.13602796 -0.030152962 -0.1346203 -0.058166854 0.12728418
0.074010685 -0.12306648 -0.08659097 -0.061874498 0.03979359 -0.05485523 -0.06377997 -0.011235953
-0.018867206 0.12253893 0.11680087 -0.0060399696 0.12332896 0.081889845 -0.023218222 -0.118716486
0.07853175 0.051242862 -0.0064893286 0.027047776 -0.07161942 -0.053696483 0.020171842 0.048813358
-0.040285215 -0.06544196 -0.094547756 0.0044029853 -0.10489397 -0.06240214 -0.12273021 0.12063609
0.08633029 -0.03140912 0.09117811 -0.099134736 0.07159523 0.1336228 0.15733746 -0.018218469
-0.07936348 0.07030501 0.05858712 -0.15911739 -0.036849298 -0.031114662 -0.05254137 -0.16508314
-0.09868962 -0.068860054 -0.022759719 0.029342476 -0.12243204 -0.09325169 0.016059348 0.11501827
0.033195425 -0.032237455 0.08429529 -0.092376 -0.094423085 -0.10701532 -0.06400774 0.026754217
-0.084621884 0.0051961094 -0.057908617 0.01171607 0.20828173 -0.007879941 0.08800487 -0.011097018
-0.018842023 -0.12184017 -0.11724343 0.04369079 -0.09086923 0.1104743 0.13240485 0.08676269
0.077306986 0.026924122 -0.05196843 -0.0361684 -0.05785832 -0.040024083 -0.15538429 -0.11635319
-0.055466946 0.12883744 -0.043614943 0.0225089 -0.109968394 -0.06633999 0.04392762 -0.0014496702
-0.05895863 -0.09504913 0.03712066 0.031386837 0.088009685 0.039850213 0.20047154 0.09497117
0.019621545 0.07081521 0.09844609 0.040600892 0.045616977 -0.07393322 0.0076959687 -0.040795587
-0.0029301378 0.06790078 0.1383171 0.02475885 -0.083880335 -0.13643366 -0.05734187 -0.03127257
0.016113078 0.0882279 0.13184509 -0.04003999 -0.003925478 -0.036617722 0.059828695 0.09353522
-0.019954858 0.06998739 0.13281395 0.062176034 0.03546028 0.08047066 -0.091028124 -0.047904573
-0.201185 -0.0005120092 0.03141492 0.11866297 0.12555322 0.122651845 0.042355403 -0.039814692
-0.0629097 -0.084172495 -0.020277284 -0.045354526 -0.10434411 0.014828953 -0.05780993 0.0073829447
-0.019745957 0.047018785 -0.00017249279 -0.036510836 0.03524665 0.14516471 0.0017429974 0.051669836
-0.034919824 0.01392249 0.01739852 -0.05260334 -0.05277637 0.053505577 -0.055570584 -0.07626271
0.15018205 0.01618088 0.03155852 -0.07084462 0.12107182 -0.0029915995 0.035015915 0.0033648913
-0.103213124 -0.05995213 -0.026582537 -0.007624691 -0.066007376 0.0028037215 -0.10063662 0.039735287
0.000928764 0.055546988 0.061286807 0.1035548 -0.0041557467 -0.014315975 0.03508383 -0.12260161
0.055402428 0.035689786 0.0637376 0.11773797 -0.10752581 0.0208733 -0.08196536 -0.09467215

EncList.1.conv.bias f4 [32]
00000000: de57 b2bd ad8f cebb 1fc3 74bd 74ea 6bbe
00000010: 7893 71bd 38c1 b6bd ae5c 8c3d efa0 7bbc
00000020: 4d39 55be ad74 b03d 3887 393d ac1d 39bd
00000030: d51d 983e 25ee 0c3d ea47 06be 3fc9 383e
00000040: d9b5 78bd fdda 01be 36ea efbc cc08 433d
00000050: a946 42be 63ba 873e 4db7 67bd 3277 b9ba
00000060: d27a 703c 4ab7 1dbe b198 53be 2385 e23d
00000070: 43dc e1bd 6be5 1f3e d33f 01be 59ae 753e
-0.087081656 -0.0063037486 -0.059756394 -0.23038656 -0.058978528 -0.08923572 0.06853615 -0.015358194
-0.2082264 0.08616004 0.04529497 -0.045194313 0.2971026 0.0344068 -0.1311337 0.1804552
-0.0607203 -0.12681194 -0.029286485 0.04761581 -0.18972267 0.2650939 -0.056571294 -0.0014149903
0.01467772 -0.1540195 -0.20663716 0.1106055 -0.1102834 0.1561486 -0.12622003 0.2399229

EncList.1.shrinkage.fc.0.weight f4 [32, 32]
00000000: a750 47be 63b4 263e 1ca7 09bb 1e35 5dbd
00000010: 6291 c83d d3e8 2e3e c230 c63c 6fae a9bd
00000020: 6fa5 f2bd cf61 d6bd 032d 1d3d 206d 033c
00000030: 187f be3b c8ee 87bd 5f64 9cbe 2090 6d3e
00000040: b8c1 083d 189a 733c a18d d53d 8280 fe3c
00000050: 5569 423d b88b cc3c 9241 093e d224 9e3c
00000060: 38e5 9ebc 66d8 0e3d 06bf 6a3d c9d3 613e
00000070: 10cc dcbd 1561 89bd 4c57 803d 2a9a 89bd
00000080: 1419 97bd ef2e c03d 4111 3fbd 6bc6 3d3b
00000090: 2019 67be 75d0 903d 7e9e ce3d aec2 c63d
000000a0: e01d f7bd 5df5 19be edd7 a63c 45c0 cfbd
000000b0: cb5a 76bc 4b57 3abd 9ae6 02be 381b 5a3c
000000c0: b032 613d e144 40bd cdc3 363e 2e16 cb3a
000000d0: d51a d23d 4f68 bdbd c193 633d 9f79 023d
000000e0: b835 3d3c a503 2cbe 95a2 74be 5c18 a1bc
000000f0: 3d1d 73bd 4b7b 163e 67a4 dabd 7601 003c
00000100: e1a6 3e3e 7c6a 9abd b0fa abbd 5e57 18bc
00000110: 94cc 663b 13ba d4bd d43e ab3d 729d 4e3d
00000120: acc6 d53d 46b7 0d3e 00d7 5dbc b938 273e
00000130: 96ff eb3c 667e ed3d 4ba5 863e bf5f 20be
00000140: 4183 d03d 9eae 243c 17ac 3e3e 1ce4 d33d
00000150: a6b8 1cbd 2daf eabd fa2b 103e 372c 103e
00000160: e281 b33d fc86 7c3e 6114 253e 302c 25be
00000170: dee3 b33d f0ff 43bb c874 ecbd 6217 833d
00000180: a1d8 ffbc 5056 86bd 069f febd c76a abbd
00000190: 1acb 21be eb0b 55bd 615f b83b 7773 393c
000001a0: a50c f3bd b8fa 0cbe 30a2 343e 19aa ddbd
000001b0: 09f7 0fbd 240a e53d 3b16 1e3e 2df1 c03d
000001c0: b8d1 4fbe 4e0f 9dbb ae52 9bbc 588e fb3d
000001d0: b835 8a3d 6901 053e e94b 233e bafb 573e
000001e0: 3675 01be 239c f2bd a129 eebd b753 ec3c
000001f0: 1bb4 19bd b7c0 503e 2aac 8f3d bcf5 6c3d
00000200: 9c33 34be cc54 e5bc b28b f63d bac4 cbbd
00000210: 250c 0e3e 43d8 11be 89fe ddbd 2dfb 59be
00000220: 258f d3bd ea9b 7cbd 9542 633d 1d47 06be
00000230: 4565 ea3d f11d ca3c b94e 9cbd 2389 763e
00000240: f2f8 98bd 9905 a0bd 4cf7 08be a149 70be
00000250: 238d 0fbe 1c69 ba3c 31e0 9ebd 7816 e5bd
00000260: 6fd3 8c3a dae3 49bd ae59 ef3c 6aa5 19be
00000270: f6a4 0b3e 3551 d83d e099 38be 7ac1 1b3e
00000280: e2ae b8bc 3e05 8cbc 19b8 433e f479 10bd
00000290: 25be 213e 4bb0 ea3c f34f 93bc bdee 393d
000002a0: cc4f af3d 6cf5 8ebd b941 d0bd 2e7d b63d
000002b0: e493 e93d e820 e7bd 301c a33d cc13 29bd
000002c0: f995 4dbd bbb7 143d 53c4 443d 927c 083e
000002d0: 11cc 01be a654 43bc 4bde 38be a924 84be
000002e0: a0f4 47bd ea77 3d3e 064e eebc 7614 7bbc
000002f0: 6d4a e33d 25af 583d da38 80bd 1d0f a3be
00000300: dea5 22bc bbef ab3d 33ba 08be 3b45 f83d
00000310: 2e5d d3bb 93d6 213e 0e1e 90bd b7c8 bcbd
00000320: a299 b5bd 84a5 5ebd fbc9 9ebc e415 0b3c
00000330: 852d a43d be17 10bd e5d0 f53d e5cb 343e
00000340: dad5 273e 3e86 b73d 657c 6b3e 2dd1 8ebe
00000350: 3df1 803c 6788 36be de77 673c da4a 043e
00000360: 7e30 83bd 0b06 813d 57de abbc 5033 803e
00000370: b02d b4bd e868 37be 3a5a c2bd e114 f5bd
00000380: b407 103e f1b9 9cbc 7ba7 113e 0590 2d3d
00000390: bf3b d6bd eea8 aa3d e974 c83d 1072 933c
000003a0: a00c 863b 94a5 a7bd 3a39 ce3d 902b e33b
000003b0: 317c 0ebe c802 143c 28c7 c5bd 14fc dcbd
000003c0: 9f32 38be 5780 57be 1554 3e3e 6120 293e
000003d0: f3b7 d9bc b51f 01bd b4b3 9a3d a14c 783e
000003e0: a432 263e b4b9 1cbe ee88 cd3d f21f 203d
000003f0: 5c04 313d b636 d53d af59 e03d 1401 1a3e
-0.1946436 0.1627975 -0.0021004146 -0.054005735 0.097933546 0.17081003 0.024193171 -0.08285224
-0.1184796 -0.10467874 0.038373005 0.008021623 0.0058134906 -0.06637341 -0.30545327 0.2319951
0.03338787 0.014868282 0.10427404 0.031067137 0.047463734 0.024968967 0.1340392 0.019304667
-0.01939641 0.034874342 0.05731108 0.22053446 -0.10781109 -0.0670797 0.062666506 -0.067188576
-0.0737783 0.09383952 -0.046647314 0.0028957378 -0.22568178 0.0707101 0.10088824 0.09705101
-0.12066245 -0.15035005 0.020366633 -0.101440944 -0.015036295 -0.045493405 -0.1278328 0.0133121535
0.05497998 -0.046940688 0.1784813 0.0015494281 0.10259024 -0.09248411 0.05556083 0.03185427
0.011548452 -0.16798265 -0.23890145 -0.019664936 -0.059354056 0.1469547 -0.106758885 0.007812848
0.18618347 -0.075398415 -0.08397424 -0.009298174 0.0035217153 -0.10387053 0.08361593 0.05044312
0.10438284 0.13839445 -0.0135400295 0.16330232 0.028808396 0.11596374 0.26297984 -0.15661524
0.10181285 0.010051398 0.18620335 0.10346243 -0.038262032 -0.114591934 0.14079276 0.14079367
0.087650076 0.24660867 0.16121055 -0.16130137 0.087836966 -0.002990719 -0.11545712 0.06400944
-0.031231226 -0.065594316 -0.12432675 -0.083699755 -0.15800133 -0.05201332 0.0056266044 0.011319033
-0.11867646 -0.13767517 0.17639995 -0.10823459 -0.0351477 0.11183575 0.15438168 0.09421001
-0.20294845 -0.004793084 -0.018960323 0.12283009 0.06748527 0.12988819 0.15946926 0.2109212
-0.12642369 -0.11846187 -0.11629034 0.028848512 -0.037525278 0.20386015 0.070152596 0.057851538
-0.17597812 -0.027994536 0.120383635 -0.09949632 0.1387182 -0.14242654 -0.10839564 -0.21287222
-0.10330037 -0.06167213 0.05548342 -0.13113065 0.11445097 0.02467248 -0.07632203 0.24075751
-0.074693576 -0.07813568 -0.13375586 -0.23465587 -0.14018683 0.022755198 -0.07757605 -0.11185926
0.0010744164 -0.04928956 0.029217567 -0.15004507 0.13637146 0.10562364 -0.18027449 0.15210524
-0.022544328 -0.017092343 0.19113196 -0.035272554 0.1579519 0.028648516 -0.017982459 0.045393694
0.08560142 -0.06980404 -0.101687856 0.08910595 0.11405161 -0.11285573 0.07964361 -0.041278645
-0.050191853 0.03630803 0.048038792 0.1332877 -0.12675501 -0.011922037 -0.18053548 -0.2580922
-0.048817277 0.18502775 -0.029089939 -0.0153247025 0.1109818 0.052901406 -0.062608436 -0.31847468
-0.009927241 0.08395334 -0.1335228 0.1212258 -0.006450317 0.1580451 -0.070369825 -0.09217971
-0.08867194 -0.054357067 -0.019383421 0.008489106 0.08016495 -0.035178892 0.12002734 0.17655905
0.16390172 0.089611515 0.22996671 -0.27893963 0.015740031 -0.17825471 0.0141277 0.12919179
-0.064057335 0.06299981 -0.020980043 0.25039148 -0.08797777 -0.17911112 -0.094898656 -0.11966873
0.14065439 -0.019131633 0.14224045 0.042373676 -0.104606144 0.08333002 0.09787924 0.017998725
0.0040908605 -0.081858784 0.10069509 0.0069326833 -0.13914563 0.009033866 -0.09657127 -0.107902676
-0.1798806 -0.21045052 0.18586762 0.16516258 -0.026576972 -0.03152438 0.07553807 0.24247982
0.16230255 -0.15305215 0.10035883 0.039092965 0.043217048 0.10410826 0.10954606 0.15039474

EncList.1.shrinkage.fc.0.bias f4 [32]
00000000: 8cdc 2bbe cfdd 8fbc 9e2f 0f3e 10af 3dbc
00000010: e159 1dbd 9350 e63c 5440 30be 3df0 013e
00000020: 3669 32be 5b99 cbbd 48fb 543d 1d18 b2bd
00000030: 2b8a 953d dafe 5cbd a470 d03d 7459 2b3e
00000040: 7433 27bd 365f 0dbe d4f0 043c 1e34 003e
00000050: 4bf6 18bd 5a6d 2fbd 220b 1b3e 6ba9 663c
00000060: 1646 2cbe e1ca 18bd 9186 d23d e577 f7bd
00000070: 300e 273e 96ce 0c3d 9f53 5abc 23d8 a9bd
-0.1678335 -0.017561821 0.13983008 -0.011577383 -0.038415793 0.028114593 -0.17212039 0.126893
-0.17422947 -0.099413596 0.051997453 -0.086960055 0.07301744 -0.053953983 0.101777345 0.16733342
-0.040820554 -0.13805851 0.0081140585 0.12519881 -0.03734426 -0.042828895 0.15140966 0.014078478
-0.1682361 -0.037302855 0.10279573 -0.12083415 0.16314006 0.034376703 -0.013325601 -0.08293178

EncList.1.shrinkage.fc.1.weight f4 [32]
00000000: 0a63 883f 4671 7e3f 21fa 843f 8a10 843f
00000010: 28e9 7e3f 8361 783f 3ea0 873f f553 7c3f
00000020: 0662 843f 14f2 763f 69ba 833f 7c4d 8f3f
00000030: ce6b 7d3f cfff 7b3f d6dc 823f fac8 863f
00000040: dd58 8a3f c12c 7b3f 9b0c 853f f69d 853f
00000050: fb71 803f 2887 853f 9020 7d3f 31c0 813f
00000060: ddb9 813f b985 743f 8b67 803f e973 863f
00000070: 718b 823f 5ef3 953f d890 8a3f c674 853f
1.0655224 0.9939159 1.0388833 1.0317547 0.9957452 0.9702379 1.0595777 0.9856561
1.0342414 0.9646313 1.0291263 1.1195521 0.9899262 0.9843721 1.0223644 1.0530083
1.0808369 0.98115164 1.0394472 1.0438831 1.0034784 1.0431871 0.9887781 1.0136777
1.0134846 0.95516545 1.0031599 1.0504123 1.0198804 1.1714895 1.0825453 1.0426261

EncList.1.shrinkage.fc.1.bias f4 [32]
00000000: 0cbb 33bc 3240 a3bd 68f3 33bd 6134 08be
00000010: 3d4f 13be 142c fe3d b860 a5bb fdf6 2ebe
00000020: d80e cf3b 3ca5 60bd 6f31 5bbd 9a39 6d3e
00000030: 7602 aa3d 7cae 0dbe 5aa1 02be 30aa 1b3c
00000040: 7d70 0e3d df4d 5b3a 89a7 e73c a6d1 c93d
00000050: 0b15 2ebd 2a67 e73d 9feb b03d 19ba c3bd
00000060: ed17 f7bd 4203 323d c8e0 05bd c36d fe3d
00000070: 015f ddbd 2ab2 213e d11a 613e df21 12be
-0.010969888 -0.07971229 -0.043933302 -0.13301231 -0.14385696 0.12410751 -0.00504693 -0.17086406
0.006318908 -0.05484508 -0.05351394 0.23166505 0.08301251 -0.13836092 -0.12756863 0.009501025
0.034775246 0.00083657907 0.02827813 0.098544404 -0.042500537 0.11298974 0.08638691 -0.0955698
-0.1206511 0.04346014 -0.03268507 0.12423279 -0.10809136 0.1579062 0.21982886 -0.14270733

EncList.1.shrinkage.fc.1.running_mean f4 [32]
00000000: d24e 3abd 4045 393e e35c a2be 9724 0f3e
00000010: fdb3 d53e 8fe5 1d3e d8bb c0be ab20 77bc
00000020: c759 95be 63b2 d1bc 53ba 11bd 8733 44be
00000030: b1ae 0f3e a2a1 1fbe 70f5 893c b46c ca3e
00000040: bc10 a23d 1bf5 c53d ae5f 0e3d 7acb 4fbe
00000050: 7018 d2be 6b55 803b 0eed 953e e509 f33c
00000060: 40e4 84be 72fa a83e 423c 923d be2e 65b8
00000070: 5f07 073c 90c8 deb9 61e4 60bd 1d95 0abe
-0.045485325 0.18092823 -0.31711492 0.13978802 0.41738883 0.15419601 -0.37643313 -0.015083472
-0.29170057 -0.025597757 -0.035578083 -0.19160281 0.14031483 -0.15589002 0.016840667 0.3953606
0.07913348 0.09665891 0.034759216 -0.20292464 -0.4103427 0.0039164326 0.2928242 0.029667804
-0.2595539 0.33003575 0.071403995 -5.4641387e-05 0.0082415035 -0.0004249257 -0.0549053 -0.13533445

EncList.1.shrinkage.fc.1.running_var f4 [32]
00000000: 62f9 833c f3e3 563c 0912 543d 0e48 db3c
00000010: a20f 3d3d 2dd2 343d 01a8 343d 2150 423d
00000020: fa41 b63c 1e97 8b3c cd2e 013d d94b 503c
00000030: 7f7e 6d3d 7c69 a43c 8fc7 e53c 86f6 2a3c
00000040: 4db2 7b3d aaf2 8f3d 62ff 993c 9d95 853d
00000050: c92e 103d 3ff0 4f3c 90db 3f3d 467f 383c
00000060: deb2 993c b5c4 363c c23d 093c 3a04 bb3c
00000070: 2bdd 603d 2b75 ff3c 5068 f03b 7e9c 213c
0.016110126 0.013115871 0.051775012 0.026767757 0.046157487 0.04414575 0.044105534 0.047439698
0.022248257 0.017039832 0.031538773 0.012713396 0.057981964 0.02006983 0.028049259 0.010434752
0.061449338 0.07028706 0.018798534 0.06522677 0.035200868 0.0126915565 0.04684025 0.011260813
0.018762048 0.011155297 0.008376541 0.022829164 0.054898422 0.0311838 0.007336654 0.009863971

EncList.1.shrinkage.fc.3.weight f4 [32, 32]
00000000: 9b24 273e ad01 0cbd cb54 2d3e 2090 ebbd
00000010: c981 0dbd 82d2 c73d cd9d 4e3c 5835 dabd
00000020: 67e1 6cba b33b 47bd b26b 4fbe 3bff 99bd
00000030: f746 8f3d 5e52 f7bd 4773 4cbd ac68 623e
00000040: ce36 c43c 5102 61bd 33eb 11be cc60 cf3c
00000050: a357 1d3e c023 b9bd 78af e83d 0bb9 ad3d
00000060: ec19 9fbd 83e7 2c3e 4ec5 0ebc 06d0 68bd
00000070: 5d3b 6a3d c0d7 8f3e 8f60 23be 6d0f 8bbe
00000080: 3cd4 863e ffdc 223e 6c16 c2bc d9f4 053e
00000090: 9460 223d fcfa 1a3e 2a59 463e 3588 293e
000000a0: 0b4b 2ebd cd27 bd3d 939d 22bd d293 34be
000000b0: d69f 4f3e 5345 8cbd 8e64 c23c 5afe cbbd
000000c0: f83d cd3d 21b3 2b3d 3b88 e3bd 35c3 4cbe
000000d0: 9d60 993d 3f6a 733d 87d9 dfbd 015f d33c
000000e0: 7f4e a4bc d062 243d cf6f 7f3d 8fa6 ec3d
000000f0: 1e5d dfbd 7daf 6b3e 6491 0a3d fef0 f2bc
00000100: 2e85 9b3d 43b0 9bbd ea50 b73d 7174 ac3d
00000110: 8ff0 e2bd 66a6 a13d 31ba 58be 81c4 bb3d
00000120: 5aa9 d7ba 3ac1 4c3d 49b8 e8bd 7975 5d3e
00000130: aba0 ab3d e25a 50be ffd5 05be eab4 6ebd
00000140: 2211 ecbd dbb4 173d 5bce 523d 6ef5 353e
00000150: c64c 14be 6af7 3cbe 1f5b 583d 0134 c6bd
00000160: 621d 23bc 56fe 3fbe 2df9 a23d 34c6 36be
00000170: 187f 1e3e 7e24 c7bd 1fb5 a3bc a23c 803c
00000180: eb84 5ebe 715a 413d 894a 123e 1980 bd3d
00000190: 23c5 e4bd 6b90 663c 2ad4 17bd bf68 6b3d
000001a0: d6f0 263e c3a5 cb3d e312 92bc 1efc 183e
000001b0: 5e07 a2bd 3eb2 f63d bf96 0bbe 7c5f 44be
000001c0: 972b 543e dc13 473e 27f5 61bd 40c3 433e
000001d0: cb0d 46ba 2421 05be c345 dcbd e4f4 aa3c
000001e0: 6191 e03d 09b1 cc3c 28ee b03d 10c1 ae3d
000001f0: 0527 ca3d bfd0 a8bd 459c d9bd ec49 c0bc
00000200: c14c b7be 88b5 a7bb 2ed9 07be 477d febd
00000210: 94e2 79bc f05c 6d3d 2f29 abbd 76cf cf3d
00000220: f5d2 613d ed88 bd3c ceb5 a23d 9577 16bc
00000230: 0bf8 d73d fe87 083d 2d12 5abd 2fdc 803d
00000240: 7e50 033e bb2d 293e a72e 98bd 73da 1f3e
00000250: 595a 3abe 6427 543e e62e 593e 7662 2abd
00000260: 040e 5c3d 1a60 d43c 68e3 553d 18b0 373e
00000270: 9f23 01be 066f 62be 7681 aabc 14e1 5abd
00000280: a329 f3bd 61f9 453e b168 d6bd acb7 ed3c
00000290: becb 963c 8beb 80bd 1298 d5bc 1eef 433e
000002a0: 1215 0ebd 82d1 a1be ffae 383e 9081 26be
000002b0: 9200 86bd ef78 8abd ee6e c9bd b334 353d
000002c0: a50f cd3c a25a 2dbd 100a 073c 5cd6 a73c
000002d0: c9fb 29bd b528 2d3c 69c2 8c3c c275 e53d
000002e0: 6761 9c3e 604f 16be 0222 913d 309d 4ebe
000002f0: d005 143d ca12 373e 654b 97bd fd2c 29be
00000300: 489a 2f3d 69e0 0abe 1009 d9bd 0894 9d3d
00000310: a3db 82be 8191 7dbd 5444 68bd 8036 c53d
00000320: 2a27 453e e8be 513e d614 403e 6241 a63d
00000330: 14c2 053d ac80 c03c 96b5 f13d 3880 353e
00000340: 9ba1 30bc 2230 e23d c170 0d3e cc65 aebd
00000350: c83d 31be 5e60 80be c3b1 03be e208 cebd
00000360: 7bab 6cbd 109d 45be 4523 4bbe 75c9 073e
00000370: cf45 1b3e d348 9ebd 1aaa c53d 6e32 4e3e
00000380: d04e 07bd 2ba7 3b3e a99b e0bd 76ac e23c
00000390: 503f e4bd a2de 85bd 86fd 993e f67b 1f3e
000003a0: 04a7 1e3e fc49 023b a93d ddbc 28db 0f3e
000003b0: 8f25 8cbd 8a80 003d 133e 993d dc93 2b3d
000003c0: 2d06 37bc 8cae 0cbd a148 f1bd bb15 a7bc
000003d0: 119e f13d f9eb 8f3e 4547 c33d c94b c63e
000003e0: a1f7 553d cd73 ed3d 8531 84bd 8be0 0bbd
000003f0: 713c 2d3e f627 343e 7db7 1d3e 41f8 01be
0.16322558 -0.034181286 0.16926877 -0.11502099 -0.0345476 0.09756948 0.012610865 -0.10654706
-0.0009036273 -0.048640918 -0.20255926 -0.075193845 0.06995957 -0.12076257 -0.049914625 0.22110242
0.023951914 -0.05493385 -0.14249878 0.025314711 0.15365462 -0.09040022 0.11361593 0.0848256
-0.07768616 0.1688519 -0.008714033 -0.05683901 0.05718552 0.28094292 -0.15954803 -0.27160206
0.26333797 0.15904616 -0.023692332 0.13081683 0.039642885 0.15134805 0.19369951 0.16555865
-0.042552035 0.09236107 -0.039701056 -0.17634514 0.20275816 -0.0684916 0.023729589 -0.09960623
0.10021585 0.041918878 -0.11109968 -0.1999634 0.07489131 0.059427496 -0.10930162 0.025802137
-0.020056961 0.040133297 0.06236249 0.11555206 -0.109064326 0.23016162 0.03383006 -0.02965593
0.075937614 -0.07601979 0.0895098 0.08420647 -0.11081039 0.07893066 -0.21164776 0.091683395
-0.0016453669 0.049988963 -0.113632746 0.21626844 0.08380254 -0.20347169 -0.13069914 -0.058278
-0.11526705 0.03703771 0.051466327 0.17769405 -0.14482412 -0.18453756 0.052821275 -0.09677888
-0.009955736 -0.18749365 0.07957683 -0.17849046 0.1547817 -0.09723757 -0.019983826 0.015653912
-0.21730392 0.047205392 0.14286245 0.09252948 -0.11170413 0.014072518 -0.03706757 0.05747294
0.16302809 0.09943726 -0.017831272 0.14939925 -0.079115614 0.12045716 -0.13631724 -0.1917705
0.20719753 0.1944117 -0.055165436 0.1911745 -0.0007555156 -0.13000923 -0.107554935 0.020868726
0.10965229 0.02498676 0.08639175 0.085329175 0.09870724 -0.0824294 -0.10625509 -0.023472749
-0.35800746 -0.0051180758 -0.13266441 -0.124262385 -0.015251774 0.05794996 -0.083574645 0.10146992
0.055132825 0.02313658 0.07944833 -0.009183784 0.10545357 0.033332817 -0.05323999 0.06291997
0.12823674 0.16521351 -0.07430773 0.15610676 -0.18198527 0.20718151 0.21209297 -0.041597806
0.053724304 0.025924731 0.052218825 0.17938268 -0.12611245 -0.22112665 -0.020813685 -0.053437307
-0.11873176 0.19333412 -0.10469187 0.029018246 0.018407699 -0.06294926 -0.02607349 0.19134185
-0.034688063 -0.31605154 0.18035506 -0.16260362 -0.065430775 -0.067613475 -0.09835611 0.04423971
0.025031874 -0.042322762 0.008242145 0.020487957 -0.041499887 0.010568787 0.017182546 0.11204101
0.30543062 -0.14678717 0.070865646 -0.2017715 0.036138356 0.17878261 -0.07387427 -0.16521068
0.042871743 -0.13562168 -0.10597432 0.0769425 -0.25558195 -0.06190634 -0.056705788 0.09629536
0.19253221 0.20482981 0.18757948 0.081179395 0.03265579 0.023498856 0.11802213 0.17724693
-0.010780717 0.11044337 0.13812543 -0.0851551 -0.17308724 -0.25073522 -0.1286078 -0.10060288
-0.057780724 -0.19298196 -0.19837673 0.13260444 0.15163349 -0.07728734 0.09651585 0.20136425
-0.033034146 0.18325488 -0.1096719 0.027670126 -0.111448884 -0.065366045 0.30076236 0.15574631
0.15493399 0.0019880524 -0.02700694 0.14048445 -0.06843101 0.031372584 0.07482543 0.041889057
-0.011170906 -0.03434615 -0.11781431 -0.020396104 0.11797727 0.2810972 0.09535078 0.38729694
0.05223811 0.11594353 -0.064547576 -0.034149688 0.16917588 0.17593369 0.15402026 -0.12692358

EncList.1.shrinkage.fc.3.bias f4 [32]
00000000: 544f d8bd 7328 4e3e 35a5 5f3e be40 ac3d
00000010: e750 dbbd 05af 22be d019 6a3e d808 99bd
00000020: 9910 ccbd c5c6 793e 7933 2f3e 349e 2e3e
00000030: ff49 123e 732f f93d 064a 873b 6fd3 003c
00000040: d09e c23d 5d3e 9d3e 5c4b 8ebe d6f8 f93d
00000050: 535b 243c d443 4a3d b3f1 cebd 79e9 0a3e
00000060: cc2a 4bbd 6a9d ecbd 64cb 5ebe ccf2 3e3e
00000070: bb05 493e a517 98bd 9cd9 1ebe 9d49 e03a
-0.10562006 0.20132618 0.21840365 0.08410786 -0.1070879 -0.15887077 0.22861409 -0.0747239
-0.09964103 0.24392231 0.17109479 0.17052537 0.1428604 0.12167253 0.0041286973 0.00786291
0.09502947 0.30711642 -0.2779187 0.12205665 0.010031539 0.049381092 -0.10104694 0.13565625
-0.04960136 -0.11553462 -0.21757275 0.18647307 0.19631092 -0.07426385 -0.15512699 0.0017111782
