checkpoints/best_ACDAE_emb_snr_2.pth (torch, 615378 bytes, 20 tensors)

EncList.0.conv.weight f4 [16, 2, 13]
00000000: f6be 273e cfc1 363e 5b88 d53b 21f8 af3e
00000010: 11cf e03d e4f2 e03d 6e83 093e fb50 e3bd
00000020: 265e d4bd 67c0 91be 1350 5bbe f2b6 a9be
00000030: 653a a3be 70a2 403d 93dc 65be 02c4 99bd
00000040: 3526 143d a34c a0bd 476f 653c a549 cebd
00000050: fec2 a63d 484d dfbc 2f79 10bd 3b3e 0a3e
00000060: d9a4 94bc 6f6f da3d 0a12 7f3d 41f9 84bd
00000070: 650e b0bd adb4 f0bd dcd5 44be 6f2d a5bd
00000080: 508b 823d 9de0 18be 2fde 4c3d 7564 edbd
00000090: 5b39 20be a65e 5e3e 41e1 cbbd 59d5 88bd
000000a0: 3078 62be 378c 5fbe 7c15 ce3d 69df 7cbd
000000b0: 334e 25be ceff 723d a148 4d3d fc2a 1bbe
000000c0: 109c 14bd 7898 6e3d 91ce 813d c87f 433e
000000d0: 5d64 d8bd 8087 be3d 4207 ee3d 8cd5 1dbe
000000e0: efc5 143d e62f f23c cf3e dc3d 3b08 023d
000000f0: 0231 873d efbf 27bd 0abd 023e a91a 2a3d
00000100: 5f4b d8bd e288 01be de3c 033e f4cf ee3c
00000110: 7453 b7bc 5249 323e e92f 963d d8c6 023d
00000120: be2b 783e 5b14 5c3e 1d63 1b3e 531e 2cbe
00000130: 1ffb a13b e497 0b3e 03a9 3dbc 7352 f73d
00000140: 8a87 52be 6b4d 3dbe 829c 2ebe a00f 94bd
00000150: 337e bc3a f8c8 2fbe 8008 e63d 2dd0 27be
00000160: 42f2 5b3e 90d2 a6bd 3b96 7a3e d1d4 21be
00000170: ec5b 27be 98e2 67bd ca79 96ba 2754 81bd
00000180: 7173 09be 6823 55be af9a 27be 5d1e c2bd
00000190: dd38 153e 7bbd a4bd 9392 8e3c 4644 313d
000001a0: 791c 393d 6294 903d ecb4 54bd f1f6 48be
000001b0: 701e 6f3c 7ddc 533e 3700 b53e f748 9c3e
000001c0: 1806 6d3e 345a aebd af5d 49be 38be 2fbe
000001d0: 670b 3c3d 5c6e 86bd 0493 e43c afef 4f3e
000001e0: 0112 5e3d 2485 3e3d a07c 713d 9023 1f3d
000001f0: 1190 293e 0f42 da3d 3349 8cbc 1010 6bbd
00000200: fcca ccbd c872 13bd c87e 4c3d 3c42 80bd
00000210: e4b1 393e 6c4b 30be a21e 523d 70d4 f7bd
00000220: 85dd 8fbd 82d6 0f3e 106c 543d 9bcd f9bd
00000230: 73b0 8f3c 31cd a4bd a4d4 5b3b 0cc2 0ebe
00000240: 6394 8a3c f1b9 603e cda3 c2bd abbb 8e3d
00000250: 6bc0 113e 6c96 5dbe c707 67bd 5e64 103d
00000260: 8d34 30bd 1d1d e83b b14e bb3d 204e bebd
00000270: 6d8d 0cbd c2ed 333e 0779 cabd 63a1 b3bd
00000280: 95e4 283e 3020 3dbc 1806 dc3d 23ef dc3d
00000290: 6778 93bc 227c 3f3e ddfe 1a3e d4bd 05bd
000002a0: b7d5 bdbd 3b5b eb3c 86cb f6bd 8d48 c2bd
000002b0: b875 ed3b e6c5 0cbe 5142 363d 4dd9 8f3c
000002c0: 85f7 31be 1bb1 d7bd e988 a0bc e049 673e
000002d0: 6a30 c73d 8626 87bd d29a 403e 112e 7ebd
000002e0: 5e10 96bd 0edd 1dbe 9b5f b93d e36d 50bd
000002f0: f01b 15bd af88 013e 4c52 7a3b 0060 c1bd
00000300: c964 913c 4230 1cbe 9f6a 98bd 448f d23d
00000310: 183d c73d de31 2e3e d245 2a3e e42b e93d
00000320: e7bd 293e 0049 1bbc c44d d33d 9b7e 373d
00000330: eae8 83be f3f2 53be 2bdd 7b3c d7a3 b33c
00000340: c162 cfbd 238f 48bd ef7e 96bd 3531 423d
00000350: a4d5 27be d37d 103e e8e0 eb3d 3a52 86be
00000360: 378c 63be dfc0 553b ce83 8dbd 2010 1bbe
00000370: 8cb3 bbbc fc14 c9bd ad79 1e3d fbbe 04be
00000380: 802d 1b3d 7e4b 4c3e 6282 f63d cc8c 05bd
00000390: 9606 283e d24f 263e 29a5 333e 3b9a 32be
000003a0: 52b5 363e a6db 7a3d 0a67 6f3c fc9b 123e
000003b0: 249e 03be 91fe 35be a8d6 b93d 27d6 4fbd
000003c0: 5d2e 57bd 2b34 d7bd 390c 0bbd bfff e8bc
000003d0: 1fb7 4cbd d0ef 82bd 8264 ec3c 038b 003d
000003e0: 5b81 b4ba c4b1 d6bc 53ca cf3c bae7 71bc
000003f0: 45f0 e43d 5fd6 19be 1bcd e33d 5ef8 303e
0.1638144 0.1784737 0.006516499 0.34368995 0.10976995 0.10983828 0.13429043 -0.1109943
-0.1036952 -0.28467104 -0.21417265 -0.3314739 -0.3188049 0.047029912 -0.22447424 -0.07508089
0.03616925 -0.07827117 0.014003581 -0.1007264 0.081426606 -0.02725853 -0.03527182 0.13500302
-0.018145012 0.106657855 0.062273063 -0.06492854 -0.085964955 -0.11753211 -0.19222206 -0.080653064
0.06374228 -0.14929433 0.05001658 -0.11591426 -0.1564688 0.21715793 -0.09955073 -0.06681318
-0.2211616 -0.21830831 0.100626916 -0.061736498 -0.16143112 0.059325986 0.050118092 -0.15153116
-0.036281645 0.058250874 0.063382275 0.19091713 -0.10566018 0.09303188 0.11622478 -0.15413493
0.036321577 0.029563855 0.10754167 0.03174613 0.066011444 -0.040954527 0.12767425 0.04152933
-0.10561251 -0.12649873 0.12816188 0.029151894 -0.02237866 0.17410782 0.07333357 0.031927913
0.24235436 0.2149214 0.15174527 -0.16808443 0.004943266 0.1363216 -0.01157594 0.12076273
-0.20559517 -0.18486564 -0.1705189 -0.07229543 0.0014380872 -0.17166507 0.1123209 -0.16388007
0.21479133 -0.0814563 0.24471371 -0.1580384 -0.16343659 -0.05661258 -0.0011480388 -0.06314879
-0.13422944 -0.20814288 -0.16367601 -0.094784476 0.14572473 -0.08043953 0.017403876 0.043278
0.04519317 0.07059552 -0.051930353 -0.1962545 0.014594659 0.20689578 0.35351726 0.30524418
0.23146856 -0.08513299 -0.19664644 -0.17162406 0.04590931 -0.06564018 0.027902134 0.20306276
0.05421639 0.04651369 0.058956742 0.038852274 0.16558863 0.10657131 -0.017124748 -0.057388365
-0.09999654 -0.035998136 0.049925596 -0.06262633 0.18134266 -0.17216271 0.051298745 -0.12101066
-0.07024673 0.14046672 0.05186087 -0.12197419 0.017540192 -0.0804695 0.0033543492 -0.1394121
0.01691646 0.21945931 -0.09503899 0.069693886 0.14233558 -0.21639413 -0.0564039 0.035251968
-0.043018866 0.0070835487 0.091458686 -0.09292245 -0.03431456 0.17571166 -0.098863654 -0.087710164
0.16493447 -0.011543319 0.1074335 0.10787799 -0.018001748 0.18699697 0.15136285 -0.032651737
-0.092692785 0.028730026 -0.12050538 -0.09486494 0.007246699 -0.13747367 0.044496838 0.017559672
-0.17379577 -0.10531827 -0.019596534 0.22586775 0.09726031 -0.06599145 0.1880906 -0.06205565
-0.073273405 -0.15416357 0.090514384 -0.050886046 -0.036403596 0.12649797 0.0038196025 -0.09442139
0.017748253 -0.15252784 -0.07442211 0.10281232 0.097284496 0.1701121 0.16628197 0.113853246
0.16576348 -0.009477854 0.10317567 0.044798475 -0.25763637 -0.20698147 0.015372555 0.02192871
-0.10126258 -0.04896463 -0.073484294 0.04741021 -0.16390091 0.14110498 0.11517507 -0.2623461
-0.22221456 0.003261618 -0.069099054 -0.1514287 -0.022912763 -0.098184556 0.038690258 -0.12963478
0.03788519 0.19950673 0.12036587 -0.032604977 0.16408762 0.16241387 0.17543472 -0.17441647
0.17842606 0.06124463 0.014611969 0.14317316 -0.12853295 -0.1777289 0.090741456 -0.05074134
-0.05253445 -0.10507997 -0.033947203 -0.028442262 -0.049979325 -0.06393397 0.02885652 0.031382572
-0.0013771461 -0.026207812 0.02536503 -0.014764721 0.1117864 -0.15023182 0.11123105 0.17282245

EncList.0.conv.bias f4 [16]
00000000: 91a2 e0bd 84ef 913e 32ca 323e e149 e5bd
00000010: 9145 a1be 2d02 35bd e342 55bd 472d a8bd
00000020: fee3 49bd 31b5 2abf ebab 61be 2365 0fbe
00000030: b76e 99be 5766 8ebe d286 81bd f2c5 dbbe
-0.10968507 0.28503048 0.17459944 -0.11195732 -0.31498387 -0.044191528 -0.05206574 -0.08211761
-0.049289696 -0.66682726 -0.22038238 -0.14003424 -0.2996728 -0.27812454 -0.06324543 -0.42924458

EncList.1.conv.weight f4 [32, 16, 7]
00000000: 712f 243d 7b2a 15be a7bc afbd e017 2ebe
00000010: aae2 8ebe 3b4a 85be 43bf adbe 93a8 4abd
00000020: e890 123e 1d6b 473e 9fbc 733e c584 7a3e
00000030: ea45 b73d c42e 983d 17d4 c5bd 264a 6fbd
00000040: 4f4c 2e3d e101 d53c 8a80 903b 9221 2ebd
00000050: 7cc3 f0bd 9048 083d e6c2 a6bb 9d72 b43d
00000060: bca8 513e 8579 813d 7dbb 293e d62c bd3d
00000070: 4850 7abe 45a2 b5bd bb9a a4bd 8a48 07be
00000080: be90 1abe 47aa 143c f861 223d 0d2f 333e
00000090: 5928 873d 8353 3a3e 8de1 213e fbe6 973c
000000a0: 7684 bf3d 6bbb 91bd 5f49 14be 9a73 f5bd
000000b0: 5aa7 0dbe 95f7 5d3d 5c1d 0c3d cdb0 763d
000000c0: cd8d 7abd 42b9 bb3c b85b bcbb cbdd b53d
000000d0: 090f 223d 024f 923d 3260 41bd 424d fabc
000000e0: 8a29 763d 37b8 283d 5cc6 bb3d 7fb5 073e
000000f0: 7327 60bd 0456 803d b538 073c 8290 fd3d
00000100: ad96 133d 01b3 763c ec97 083d f182 093e
00000110: 40c2 6b3a 13c2 aabd 199e f9ba d9c2 21bd
00000120: 3e4b 36bc 848a 8b3d 4390 0e3e 3290 5a3e
00000130: b4c0 463d 1700 553d 4647 133c e275 63bd
00000140: d188 f8bc 15e9 a2bd 6d0e dd3b eb09 813c
00000150: a61d 78bd c754 30bd 361d 493d e978 023e
00000160: 3ad8 fa3d 34c7 ec3d 1b2c 51bd 39cc 8f3d
00000170: ad02 6dbd bbeb cfbc abb3 ab3c 3769 c8bb
00000180: f402 2f3d 4d6f 163d cdcb 02be 9195 6a3d
00000190: 6f69 c53d c654 fb3d 08bf 743e 566b 5b3e
000001a0: 69cc 053e d5c8 d7bd ba4a eabd 0f44 12be
000001b0: 2ccd 89bd 2cad d8bd 53ad 2fbe c6ca 42be
000001c0: 4ad6 453e 4250 3c3e 335b 493d 62a1 8c3d
000001d0: 49f6 5e3e d68d 173e 0acc f73d 920b 5cbd
000001e0: 69a4 19be b60d 08be d91e 10be 11ee a0be
000001f0: 6c8e 7bbe b64e 83bd bee1 06be 681e a03c
00000200: d505 183d c5e4 413e 4091 4a3e 57a2 8abd
00000210: cfd8 7bbd b10a 033e ccb5 3d3d bed3 d6bd
00000220: 0780 66bd bdc3 5bbe 70ec e3bd 5198 af3d
00000230: 42d9 83bd 3987 c43c 90e4 d03b 0a89 9e3e
00000240: f7c4 723e aba8 2f3e 9a95 eabd 3781 38be
00000250: 21a5 0c3d 0b98 57bd 4234 dfbb 035d 15be
00000260: c6a8 c1bc 192b fbbd ef9a 03bd 1242 02bc
00000270: 77ba f53c 062b d8bc f3f9 8abc 2615 dabd
00000280: b5b1 e83c 2498 35be 4518 05be d35f 8bbc
00000290: 5ca5 3b3e 9062 013e 72dd ad3d 0cf7 323d
000002a0: bed2 4ebd a95b d93d 6805 d1bc 949b fc3d
000002b0: 2b12 a93d 6092 65bd 55d4 19be 923d 9abd
000002c0: aba3 07be 3710 6bbd 73d8 79bd 2af3 b43d
000002d0: 43c9 083c 9efc 51bd c5b5 383e 77bf 3c3e
000002e0: f30f 703e 3346 fb3c 24ae 96bd 3fa6 893d
000002f0: 7355 343d 9874 25be 7e6e 0fbe 8cb5 83bd
00000300: e707 eebc 2bf8 783c c6b9 1f3e 42da e43d
00000310: 7a3d 2d3d 8b27 86bc 1316 94bd 8957 41be
00000320: fbaa dcbd 4d1f 9cbc d208 473d 2c51 f4bc
00000330: 92da 3dbb 0567 ce3d fac0 2a3e 7d2a 393e
00000340: 336e 933c 5cff 18bd f3b2 093e a247 e63d
00000350: e188 8abb 9627 12bc 05eb 7b3d 749c 54bd
00000360: 8b9f b63d 62e3 b23b 20b2 313d c1bb 073e
00000370: d2b8 fd3d 7184 e33d d7f8 d73d 1891 6e3e
00000380: 4fa9 d43c e5fc 2f3e 6bce b43e 7fa1 993e
00000390: 5f9d 683e 07ff a33e e5d3 463e 010f c23c
000003a0: 0b24 e3bd 62f8 5bbe 34a3 a4be 2c03 24be
000003b0: b3a6 a9bd d339 1a3e 54b5 efbc 3363 6f3d
000003c0: fb0b 6cbd 9d9f 1abc 230e 6cbb e58c aebd
000003d0: 3cdc 423d e1df d43d ffe3 48bd e693 c6bd
000003e0: 2872 19be 3229 dd3c 6c2c a83d 0c0e c93d
000003f0: 7afa 7b3c 43b2 893e b786 773e 655a 233e
0.040084306 -0.14566986 -0.085809045 -0.17001295 -0.27907306 -0.26033196 -0.33934984 -0.04947717
0.1431309 0.19474454 0.23802422 0.2446471 0.08948882 0.07430795 -0.096595936 -0.058420323
0.042553242 0.026001872 0.0044098543 -0.042512484 -0.11756036 0.033272326 -0.0050891517 0.08810923
0.20474523 0.06322006 0.16575427 0.092370674 -0.24444687 -0.08868841 -0.08037325 -0.13211265
-0.15094277 0.0090738 0.03964421 0.17498417 0.065994926 0.1819592 0.15808697 0.018542757
0.09351437 -0.07115825 -0.14481114 -0.1198494 -0.13833371 0.05419119 0.034207687 0.060227204
-0.061170388 0.022915486 -0.0057482384 0.08880194 0.03956512 0.07143976 -0.04721088 -0.030554418
0.06009821 0.041191306 0.091686934 0.13252829 -0.05472512 0.06266406 0.008253266 0.12381078
0.036032367 0.015057326 0.03334801 0.13428856 0.0008993484 -0.08337798 -0.0019044309 -0.03949246
-0.011126338 0.06813529 0.13922219 0.21344069 0.04852362 0.05200204 0.008989161 -0.055532344
-0.030338677 -0.07954613 0.0067461045 0.0157518 -0.06057515 -0.0430496 0.049100123 0.12741436
0.12248273 0.115614325 -0.051067453 0.07021374 -0.05786388 -0.02538096 0.020959696 -0.006116058
0.042727426 0.03672724 -0.12773056 0.057271544 0.096392505 0.122720286 0.23900998 0.21427664
0.13066258 -0.105363525 -0.11440034 -0.14283775 -0.067285866 -0.10579905 -0.17155962 -0.19022664
0.19320026 0.18389991 0.04915924 0.06866719 0.21773638 0.148002 0.12099464 -0.05372197
-0.15004124 -0.1328648 -0.14074267 -0.3143163 -0.24566048 -0.06411497 -0.13172051 0.019545749
0.037114937 0.18934925 0.19781971 -0.06769245 -0.06148606 0.12797047 0.046315953 -0.10489605
-0.05627444 -0.21461387 -0.11129081 0.08573974 -0.06437923 0.02399026 0.006374903 0.30963928
0.23707949 0.17154185 -0.114543155 -0.18018042 0.034337167 -0.052635234 -0.0068116495 -0.14586262
-0.023640048 -0.122640796 -0.032130178 -0.007950323 0.02999614 -0.026387703 -0.016964888 -0.10648565
0.02840505 -0.17733818 -0.1299754 -0.017013466 0.18324798 0.12635255 0.08489503 0.043692634
-0.05049395 0.10613186 -0.025515273 0.12334362 0.082554184 -0.056047797 -0.15022404 -0.07531275
-0.13246028 -0.05738851 -0.060997438 0.08835442 0.008348766 -0.051266305 0.1803809 0.18432413
0.23443584 0.030673122 -0.073574334 0.06721162 0.044026803 -0.16157758 -0.14006993 -0.06431112
-0.029056503 0.015195887 0.1559821 0.11174442 0.042294957 -0.016376277 -0.07230773 -0.18881048
-0.107747994 -0.019057894 0.048592396 -0.029823862 -0.002896939 0.10078243 0.16675177 0.18082614
0.017996883 -0.037352905 0.1344717 0.112441316 -0.004227743 -0.008920571 0.06150343 -0.051907018
0.08917149 0.005459235 0.043382764 0.13255216 0.12388767 0.111092456 0.10545509 0.23297536
0.025959639 0.17186315 0.35313734 0.30006024 0.22716282 0.32030508 0.19416769 0.023688795
-0.11090859 -0.2148147 -0.32155764 -0.16016835 -0.082837485 0.1506112 -0.029261269 0.058444213
-0.057628613 -0.009437469 -0.0036019168 -0.08522967 0.047573313 0.10394264 -0.04904556 -0.09696178
-0.14984953 0.026997183 0.08211598 0.09817132 0.0153795425 0.26893815 0.24172483 0.15952452

EncList.1.conv.bias f4 [32]
00000000: b5bb d23b 40d6 fcbd bf18 86be f029 97bd
00000010: 8d7c d5bd 9d8a 183e 6c5d 1e3c 1a85 a8be
00000020: dcde 533e fa7c 793e 41e1 77bd b50f 54be
00000030: e2b3 cfbd c421 393e fabf 9bbd 9e57 433e
00000040: aaa6 85bd 14c6 303e c145 cc3d fae5 d3be
00000050: c1cd 8e3e f04d 2bbe fcb9 b6be eca5 8e3e
00000060: e35b 353e a782 7dbe b30b 543d 3e1a 5b3e
00000070: 55f5 083e bb64 8ebc 0be1 5cbe 18d5 cbbd
0.006431068 -0.123455524 -0.26190755 -0.07381046 -0.10424147 0.14896627 0.009665828 -0.32914048
0.20690483 0.24364081 -0.060517553 -0.20709117 -0.10141732 0.18079287 -0.07604976 0.19076392
-0.06525929 0.17263061 0.09974242 -0.41386396 0.27891353 -0.1672895 -0.3568877 0.27860963
0.17710833 -0.24756871 0.05176897 0.2139673 0.13374837 -0.017382016 -0.21570222 -0.09952754

EncList.2.conv.weight f4 [64, 32, 7]
00000000: 8999 88bd 34de b3bc 2874 233d 53b3 273d
00000010: 8e42 8ebd 99e0 f5bd f49c 86bd fa3f 8bbc
00000020: 252b b6bd 4d85 1cbd aeec a13a a094 39bd
00000030: 089d a8bb 16a0 7d3d 078c 723d 6552 87bd
00000040: 1799 67be d15d 93bd 0a1a e9bd 1058 a13d
00000050: 8029 d1bd 5619 a5bb 43c9 6dbc 1a66 08be
00000060: cf78 e6bd 6a02 f0bd 7ce4 5a3c b16b a5bb
00000070: e4de 0bbe c81b 2ebe 56db fcbd 52fd b8bd
00000080: eec5 f93c aa6c 6b3d 8a3e 613d 72a5 b4bc
00000090: 8f87 3dbd b00e 93bd 90ad f4bd b540 80be
000000a0: cb4d 07be 49fb 6fbd b1ab bc3c 5257 d23d
000000b0: fcf0 c63c 4a52 cd3d 01e8 6fbc ce57 9c3d
000000c0: ece3 3c3d 12a1 19be fa98 5cbd 2573 b8bd
000000d0: 1493 a6bd 4b28 2cbd e628 80bc 5350 89bc
000000e0: 1592 e53d 5072 1a3e a6a9 083e 012b dd3a
000000f0: 4c89 823c cf89 f2bd 9a05 54be 4c32 a93d
00000100: d96c 253e c8e2 293d d767 a23d 24ec 88bd
00000110: 514b 12be 47e6 5cbd 0b2a 79bd 8d85 8d3c
00000120: b74e 18bd b18e c63d 2e17 7f3d 1713 973d
00000130: cb17 3cbd 9474 2f3c da17 c13d 5c1f 503d
00000140: c116 423c 9e91 73bd a218 6dbe 9232 86be
00000150: 0ffd e8bd a8cb 02be 8e80 e9bd 0b1b cbbd
00000160: 81b8 26bd 6e69 bdbd 736c 98bd 7db6 63bb
00000170: b6c5 ad3d 2067 1a3e 8c09 ab3d 73bd 4bbb
00000180: d085 02be 6a64 25be 0151 533d 22c1 63bd
00000190: e686 05be 0ddb c7bd 2ae3 58be c9fa 75be
000001a0: 6fb5 ccbb a6fe 47be c563 b0bd 24bb ebbd
000001b0: f689 5ebd 51bd 86bd 8182 953c 655f fabb
000001c0: b8ad 8bbc aa4b 8b3b 39be 923d 47c3 943d
000001d0: 3b3b 2cbd b107 9a3d 8d7a a23d 652e 243c
000001e0: 78bb 7bba aba3 cc3d e547 9b3d e3da c73c
000001f0: f926 e53c ee1f cb3d 1da0 593d 6075 983d
00000200: 0edc a0bc d93a 1abd 8199 05be 4e16 1ebe
00000210: 6dda 7bba b81f b7bb b907 10bd 66ad 11bd
00000220: 3412 32bd a42b 7d3d 54f8 83bb e110 4e3b
00000230: 5ce2 62bb 5d28 14bd a073 9bbc 18b5 50bd
00000240: 2749 ee3d 3f48 113e a4f6 903e 24d6 c33c
00000250: dca9 a0bc e94c a53c d29f 4cbd 7447 d8bd
00000260: 9f56 03be 5c69 d1bd 225c 80bd d2e8 d3bd
00000270: c324 033d 155d e43c f928 8cbd 639d 24be
00000280: dd83 30bd 3e92 4f3d 23e4 623c 0704 be3d
00000290: 1e19 153e ae1f 503e eb05 283e 925c fe3d
000002a0: 9f05 c63d 2197 e43d d368 033e 5a1f 853c
000002b0: e00a 53bc 63e4 4fbe 4286 96bd d35a 5dbd
000002c0: e5a4 23bd 3832 3e3d f86d 9c3d b949 81ba
000002d0: 6a58 8fbc b86b ecbc b129 70bd ff09 643d
000002e0: 0472 a13c 986b 813d 07b3 2c3e 6e69 043e
000002f0: 9b67 2c3d 5ba2 b63c 5985 c83d 442a e73d
00000300: 38a7 833b 18e8 653d 6388 aebd 1b70 b9bd
00000310: 7fa8 c5bd d083 30bd 399a a9bd 7ac5 afbd
00000320: 434f bfbd d126 03bc 9b65 003c c39f 96bb
00000330: 27c5 cb3c 8a41 dd38 4332 5b3d b70b 4b3d
00000340: 7090 913c 9735 b93d 359d 0fbd d77b ebbc
00000350: 2513 c43c 5c0e 40bd 0705 b7bd 5522 53be
00000360: 8bfe 52be 0762 2cbc 7d89 f4bb c970 8b3d
00000370: fd2a b4bd 1e09 1abe f475 8fbe ff1f 8cbe
00000380: a39b b7bd 993c 3b3c e416 a03d 44d2 443d
00000390: 004e e63d dac4 e53b 42de 1e3d dba6 b43b
000003a0: 27fb b83c ccd3 7a3c 0101 3f3d 58bf fbbb
000003b0: 5230 2bbc 0871 9f3c a085 0dbe 9c9b e2bd
000003c0: 9e6e d5bd 7812 2abe d587 86be edbd 8dbe
000003d0: 65c0 98be f1e4 c7bd 8240 c83c 594a 8c3d
000003e0: d33b 79bc 120b 98bd f9d8 0cbe 2220 2fbe
000003f0: 1c8c 14bd 3c58 8a3d 91b5 40bc 68dd 94bb
-0.066699095 -0.02195654 0.039905697 0.0409425 -0.06946288 -0.12005729 -0.06572905 -0.01699828
-0.08894948 -0.038213063 0.0012353861 -0.045307755 -0.0051456727 0.061920248 0.05921557 -0.066075124
-0.22616993 -0.071956284 -0.1138192 0.07878125 -0.102129936 -0.0050384207 -0.014513317 -0.13320199
-0.11253511 -0.117192104 0.013360139 -0.005048238 -0.13659245 -0.17002785 -0.123465225 -0.09032692
0.030489888 0.057476677 0.054991283 -0.022051547 -0.046271857 -0.07180536 -0.11947167 -0.25049368
-0.1321327 -0.058589254 0.023031088 0.10270561 0.024284832 0.10025461 -0.014642716 0.07633935
0.0461158 -0.1500285 -0.053856827 -0.09006337 -0.08133522 -0.042030614 -0.015644502 -0.016761934
0.112095036 0.1508267 0.13345966 0.0016873778 0.015934609 -0.11842691 -0.20705262 0.082615465
0.16154803 0.04147604 0.07929962 -0.06685665 -0.14286543 -0.053930547 -0.06083111 0.017275596
-0.037184443 0.09695185 0.062277965 0.07376688 -0.04592113 0.010708947 0.094283774 0.050811157
0.011846245 -0.059465043 -0.23153928 -0.26210457 -0.11376392 -0.12773001 -0.11401473 -0.099172674
-0.0407033 -0.09248625 -0.0744256 -0.0034746223 0.08484976 0.15078402 0.0835143 -0.0031088262
-0.12746358 -0.16151586 0.051590923 -0.055604108 -0.13039741 -0.097585775 -0.21180406 -0.24021448
-0.0062472145 -0.19530734 -0.086127795 -0.115103036 -0.05433079 -0.06579078 0.018250706 -0.0076407664
-0.017050609 0.004250963 0.07165188 0.07263809 -0.042048674 0.07520998 0.07933531 0.010020827
-0.0009602825 0.09992155 0.07582072 0.024396366 0.027972685 0.099181995 0.05313121 0.074442625
-0.01963618 -0.037653778 -0.13046838 -0.15438196 -0.0009607438 -0.005588498 -0.035163615 -0.035565756
-0.04347439 0.061809197 -0.0040274058 0.0031443166 -0.0034619784 -0.036171306 -0.018976033 -0.050953954
0.116350465 0.14187716 0.28313172 0.023905821 -0.019612245 0.020178275 -0.049957104 -0.105605036
-0.12826012 -0.10225174 -0.06267573 -0.10347141 0.03201748 0.027876416 -0.068437524 -0.16075663
-0.043094505 0.050676577 0.013848337 0.09278112 0.14560363 0.20324585 0.16408508 0.1242
0.09669041 0.11161638 0.12832956 0.016250301 -0.012881011 -0.20301966 -0.073498264 -0.054041695
-0.039952178 0.04643461 0.076381624 -0.000986389 -0.017498214 -0.028859958 -0.05863351 0.055673596
0.019707687 0.0631935 0.16865169 0.12930843 0.042090993 0.022294214 0.09791059 0.112873584
0.0040177368 0.056129545 -0.085221075 -0.090545855 -0.09651279 -0.043094456 -0.08281369 -0.085825875
-0.0934129 -0.00800486 0.007836725 -0.004596682 0.024874283 0.00010550309 0.05351473 0.04957172
0.017769068 0.090434246 -0.035062034 -0.028745575 0.02393491 -0.046888694 -0.08936506 -0.20618565
-0.20604913 -0.010521418 -0.007462679 0.068086214 -0.08797262 -0.1504254 -0.2801968 -0.2736816
-0.08965232 0.011428022 0.07816866 0.048052087 0.11245346 0.007011992 0.03878618 0.005513055
0.022580696 0.015309285 0.046631817 -0.007682722 -0.010448532 0.019463077 -0.13820505 -0.110648364
-0.10421489 -0.16608608 -0.26275507 -0.27683964 -0.29834285 -0.09760464 0.024444822 0.06850118
-0.015212017 -0.074239865 -0.13754643 -0.17102101 -0.03626643 0.067551106 -0.011762039 -0.0045429952

EncList.2.conv.bias f4 [64]
00000000: 026e 573e 2df5 9ebd c744 16be 62b0 1d3e
00000010: 6c0e b5be a979 ebbd 8521 f13c 4f94 56bc
00000020: 5c64 6b3d 6c81 9a3d d9cb 283e cb87 ebba
00000030: 6d5f ae3c 5971 f6bd b297 21be 8275 02be
00000040: 1a91 b03e a87e 0ebc 2dd3 4b3e 95a9 f13d
00000050: 59bd c3be 9724 b2be dbed 34be fdf0 f1bd
00000060: 0f30 81be 9b8e 68be 6a91 413e c8c0 3ebe
00000070: e13b e33d f26f 5e3e 9795 98bd 2e24 3f3d
00000080: 485e 403c ceb4 9a3b 29b9 53be 0d16 9dbd
00000090: 6e82 49be aaa6 28be 0fe8 00bd dfde 18bf
000000a0: fa00 46be 3d88 58bd b362 1f3e 994d b03d
000000b0: 08ea aa3d 13c0 613e 2fe1 43bc 5833 453e
000000c0: e86c 05bd 8898 153e dbf0 a43d a387 a1be
000000d0: b89a 903c 7639 d3be d5b4 14be e271 bd3a
000000e0: 4fd4 1b3e 647e eabd 1b38 babd 1f17 c83c
000000f0: 982f 233d bde9 1bbe c1ae e53d 56f1 1c3d
0.21038058 -0.07761607 -0.14674674 0.15399316 -0.35362566 -0.11497814 0.029434929 -0.013096883
0.057468757 0.075442165 0.16484012 -0.0017969547 0.021285737 -0.12033338 -0.15780523 -0.12740138
0.34485704 -0.008697189 0.19904776 0.11799923 -0.38230398 -0.3479354 -0.1766886 -0.11813543
-0.25231978 -0.2271065 0.18903127 -0.18628228 0.11095405 0.21722391 -0.07450407 0.046665363
0.011741228 0.0047212606 -0.20676102 -0.076702215 -0.19678661 -0.16469827 -0.03147131 -0.59715074
-0.1933631 -0.052864302 0.15564995 0.086085506 0.08345419 0.22045927 -0.011955543 0.19257867
-0.032574564 0.14608967 0.08053752 -0.31548795 0.0176519 -0.41254777 -0.14522107 0.0014453495
0.15217708 -0.11449888 -0.090927325 0.024425087 0.03984031 -0.15225883 0.11214972 0.038316093

EncList.3.conv.weight f4 [128, 64, 7]
00000000: 94e7 c8b9 e443 e4bd aa3c 9abd dbef 72bd
00000010: 96b7 5a3c 3be6 9dbc 9524 de3c a99b bf3d
00000020: 2e78 0cbd 1725 e0bd 5cc9 4abd 1b32 623d
00000030: 3ee1 303d 69d6 0c3e df62 1a3e 7551 25be
00000040: 1426 67bd 8e1a 163c 4df9 1bbe eb95 823c
00000050: 7c5a dd3d b35f 593e d1dc 923d b2cf 20bd
00000060: e6c0 b8bd 230e 8fbd d751 5f3c b63d 49bd
00000070: f1a1 ba3d c1b0 753d 1392 e73d e0dd afbd
00000080: efa1 8ebd 5f06 24bd e7ba 0d3e b241 df3d
00000090: 10c8 66be 04f9 7cbd b33a 02be 1a58 11bd
000000a0: 43e5 af3d 6c06 5a3d aa77 c7bc bedc c6bd
000000b0: 5f06 b3bc 3f00 dfbd 74e8 0fbe cf07 a0be
000000c0: d6e4 1ebe 72c2 163e 0a10 abbe d360 3abd
000000d0: 134a 57be 00ab d4bd b379 13bd f2b0 32be
000000e0: c8e6 03bb d5f4 993d 1b88 23be 8c58 31be
000000f0: d489 5bbe 3750 b1be faf8 43be 5333 323c
00000100: 25c5 3cbd b0a9 81bd cb26 47bc cc00 5d3d
00000110: 2716 b33d 785c 6dbe 8d2e 013e c3ac 543e
00000120: 2788 953b e14c a6be cd68 7cbd b66b 47be
00000130: c74f c5be c4bf bfbd 9b12 84bd 8c1e 22bd
00000140: 36ca 323b 64f4 fdbc 1159 7d3d 5830 9e3d
00000150: 905d 0ebe 6edb 29be 9dc0 b0bd af98 b6bd
00000160: b6c2 483d 7680 883d 87f8 963c 4027 b93d
00000170: 8e7c aa3c 7d50 46bd a334 d6bc bbc8 223d
00000180: ffe9 09be 333e 21be 8506 f3bb b51e 64bd
00000190: ffdc 46bc 317b 103e c4ad e8bc 11b0 f13d
000001a0: 84a8 cebd 964e a53d 106f b03d bf86 d1bc
000001b0: 921c 38be a662 723d c785 03be b1c6 efbd
000001c0: 977e d23c b352 4bbe 2b63 21bd 3823 8f3d
000001d0: 1830 89bd 3f43 073e d7ea a5bc 7529 2e3d
000001e0: c53f 043e 5c1c 603d 3370 4cbd f0f0 ca3c
000001f0: bb20 983c 980f af3c 85fc 253d 0085 8fbe
00000200: 23f6 08be 420d 2cbe 7b80 7dbd 906f 363c
00000210: 80a4 9e3c 2e21 333d a51e 86bd 9066 3ebe
00000220: b9f8 30be 96a2 3cbe 67fa 12be 573d 4bbd
00000230: c5ac 52bd 11e5 12bd 832f 313d 78ce 0a3a
00000240: a06f 17bd bb5d a9bd 0719 a23d 0531 163e
00000250: a6b0 963e 043a 833e 92fe 27be effb f13d
00000260: b29d 96bd 88f5 60bc c6be 05be 6627 0dbe
00000270: 4086 aa3a 325e dbbd 1180 6fbc 5807 8e3d
00000280: aa1e 00bc 1851 c83b fa12 223c b1f5 503d
00000290: d9bb acbc 0add b93c 81f0 ee3a 43a3 cbbc
000002a0: c970 c83c 7b0e d53d f9a0 ad3d 60b2 f63d
000002b0: 8f27 313d f550 6e3d 9dad 46bb 8303 1cbd
000002c0: 4d1f cf3d 1bdb 27bb da32 dfbc 080b 74bd
000002d0: a9ff 413c d18b 003e 106f 34be 831c 693d
000002e0: 3b2d 133c 6e81 acbd 4f3b c0bd 7aab c43d
000002f0: d4fa 8c3d d8d7 d2be 7919 84be 1297 ab3d
00000300: a931 923c 17ba 5bbe f7aa ebbe fc4d bfbe
00000310: 1f19 d13c fa9a 8bbc b5bf 9e3d 2697 873d
00000320: a690 233d 39c2 d73c 9f34 c53d 0a4f a2bd
00000330: 8480 3bbe c0be 2ebe df45 7abd b097 90bd
00000340: 55a8 18bd a20a 76bd 5769 263d 24dc 913d
00000350: 4177 f73c 510a b73c 7ccc 7bbd 7293 14bd
00000360: dbe9 063e 3ee8 7e3e 0178 2e3e d70d 5a38
00000370: 19a5 93bd 464b 02be 1342 65bd 86a3 76bd
00000380: 1ee4 3abe b625 adbd f458 b0bd 6e6c 1abd
00000390: ae5e 893c 3d9d 793c fd00 083e e9f3 f73d
000003a0: c9ac 7a3c 6521 143d dfb1 66bb 057a fb3d
000003b0: 05b3 3b3c cd04 a8bd 3eef c13e 5182 8cbd
000003c0: 0201 c6bd b935 7ebe a28e 7f3d 8505 073e
000003d0: 7184 28be 9889 8ebc a754 c4bd 480f 09bd
000003e0: e818 91bd be9f 79bd 36cd e7bd 05d7 9abc
000003f0: 2caf fd3c 26ef 773d a502 e33c cff3 bd3d
-0.00038319512 -0.111457616 -0.07531102 -0.059310775 0.013349434 -0.019274822 0.027117053 0.09355862
-0.0342943 -0.10944574 -0.049508438 0.055223566 0.043183558 0.13753666 0.15076779 -0.16144355
-0.0564328 0.009161605 -0.1523182 0.015940627 0.10808274 0.21227913 0.07171024 -0.039260574
-0.090211675 -0.06985118 0.013630352 -0.049131118 0.09112919 0.05998302 0.11307158 -0.08587241
-0.0696448 -0.04004514 0.13840829 0.10901202 -0.22537255 -0.061760917 -0.12717704 -0.03548441
0.0858865 0.05322878 -0.024349052 -0.09710072 -0.021853624 -0.10888719 -0.14053518 -0.31255957
-0.15516981 0.14722613 -0.33410674 -0.045502495 -0.21024351 -0.10384178 -0.036004733 -0.17450312
-0.002012657 0.07517401 -0.15969889 -0.17318934 -0.21439296 -0.34631512 -0.19137946 0.010876494
-0.04608645 -0.063311934 -0.012155245 0.053955838 0.087444596 -0.23179805 0.12615414 0.20769028
0.0045633498 -0.3248053 -0.061623383 -0.19474682 -0.38537428 -0.09362748 -0.06448861 -0.039579913
0.0027281172 -0.031000324 0.06185252 0.077240646 -0.13902879 -0.16587612 -0.08630488 -0.08915841
0.049013816 0.06665127 0.018429054 0.090406895 0.020811345 -0.048416603 -0.026148146 0.039742213
-0.13468169 -0.15746383 -0.0074165487 -0.055693347 -0.0121376505 0.14109494 -0.02840317 0.1180116
-0.100907356 0.0807163 0.086149335 -0.025576947 -0.17979649 0.05917611 -0.12844001 -0.11707819
0.025695128 -0.19855766 -0.039401215 0.06989139 -0.06698626 0.13209246 -0.020253582 0.042520005
0.12914951 0.054714546 -0.04991169 0.024773091 0.018570295 0.02136974 0.040524025 -0.28031158
-0.13375144 -0.16801932 -0.061890107 0.011134997 0.01936555 0.043732814 -0.06548814 -0.18593812
-0.1728238 -0.18421397 -0.14353333 -0.049619045 -0.051434297 -0.035862986 0.0432582 0.00052950485
-0.03697169 -0.08269831 0.0791493 0.14667137 0.29431647 0.256302 -0.16405705 0.11815631
-0.07354297 -0.013730414 -0.13061056 -0.1378456 0.001300998 -0.10711326 -0.014617936 0.069349945
-0.007819811 0.0061131828 0.00989222 0.05101556 -0.021085666 0.022688407 0.0018229635 -0.024858123
0.024467843 0.104031526 0.08477969 0.12045741 0.043250617 0.058182675 -0.0030315884 -0.038089287
0.10113392 -0.0025612775 -0.027245928 -0.059580833 0.011840739 0.12553336 -0.17620492 0.056911957
0.008982952 -0.08423124 -0.09386312 0.09603019 0.06883779 -0.411803 -0.25800684 0.08378424
0.017845945 -0.21457706 -0.46028873 -0.37364185 0.025524674 -0.017041672 0.07751409 0.06620626
0.03993287 0.02633773 0.09629177 -0.07925232 -0.18310744 -0.17064953 -0.06110179 -0.07060182
-0.03726991 -0.060068734 0.040627804 0.071220666 0.030208232 0.022343786 -0.06147431 -0.036273427
0.13175146 0.24893281 0.17037965 5.198814e-05 -0.07209224 -0.12724027 -0.055971216 -0.06021454
-0.18251082 -0.084544584 -0.086107165 -0.037701063 0.01676878 0.015235242 0.13281627 0.12107069
0.015299984 0.03616466 -0.0035201234 0.12279133 0.011456256 -0.08204041 0.3787784 -0.068607934
-0.09668161 -0.24825181 0.062391885 0.131857 -0.16456772 -0.017399594 -0.09586459 -0.03346184
-0.070848286 -0.060943358 -0.11318438 -0.018901357 0.030967318 0.060530804 0.027711222 0.092750184

EncList.3.conv.bias f4 [128]
00000000: 6f78 f2bd f549 083e 3d6a 8f3b 7f98 77be
00000010: 3110 0e3d 823b 27bd 78a7 e63b 41f0 20be
00000020: 11d9 37be 8ab5 82be fb5d 22be 45a1 9a3d
00000030: 39b0 f33c 20de 113e db25 7b3e e3f6 213e
00000040: 5d02 29be eb55 733d 6066 203e 0e1f 693b
00000050: 1feb 17bd e837 d63d ea05 ef3d 8a93 acbd
00000060: 3afe 0dbe 5a3a 1b3d 1c67 56be 4c85 2bbe
00000070: cfd9 da3d 6c1b b6bc 2d24 1dbe 207d 83bd
00000080: 1e9f 663d d645 fabd f0ed 143e d15a 333e
00000090: 6c20 153e 490f efbc de26 b6bd 9521 243e
000000a0: 22ea 1fbd 7507 11bd 2907 193e 7c5f 913d
000000b0: 038d 3dbe 63b0 8d3c febf f2bd a215 353d
000000c0: 40dc 82bd 0242 083c c630 e7bd 018c 943e
000000d0: 79b0 17be b0a9 1bbe 144b 3d3e cc09 af3c
000000e0: 535f adbe 0ae2 b0bd c26e 123e 4ed3 a83c
000000f0: 4d9a afbe 969c 263d c836 2c3e a7e3 253e
00000100: bc96 6f3e b80f 31bc 42b6 f7bd 2523 e0bd
00000110: b1f8 9f3c b5fb 41be b3ad 163e 6bfd aebd
00000120: 14cf dfba cde1 94bd 0286 7fbd d011 46be
00000130: d1c3 173e 5fed 623d e959 943d 4397 b33c
00000140: ff23 69bd 9fce ddbc 8727 ebbc f31a 123b
00000150: ace2 38be 2f1b 173e b590 c2bb 9f8d 5dbd
00000160: 3b3f 1f3e fad5 8abe b353 f6bd 6328 2bbd
00000170: b2b3 423c 3dc6 d2bd 7550 f8bc 7e30 5c3d
00000180: ac4d 2bbe 4f55 4dbc 5842 cebd ba8e a23e
00000190: 6529 02be 50e1 323d aecb abbc e905 0ebd
000001a0: 6825 17be aa83 d03d e6fa 55be 4c61 dcb8
000001b0: 5b61 a73c 4bbc 97bc 7809 20bb 5669 b73d
000001c0: 5b3a af3d bff3 ab3d 184e 9fbd ef6b c13d
000001d0: 1480 a53c 9173 1c3d 23b0 b6be 174e 0bbe
000001e0: 3044 10be 0cd2 85be 8f9d 0bbd d07d 1cbd
000001f0: d699 553d b71e bdbc f7a8 e4bd 73e2 233d
-0.11839377 0.13309462 0.0043766783 -0.24179266 0.03468341 -0.040828235 0.007039007 -0.1571665
-0.17953898 -0.25529128 -0.15856163 0.07550291 0.029747115 0.1424489 0.2452616 0.15816836
-0.16504808 0.05940811 0.15664053 0.0035571489 -0.037089463 0.10459882 0.1167105 -0.08426578
-0.13866511 0.037897445 -0.2093777 -0.16750067 0.10686075 -0.022229873 -0.15345831 -0.0642035
0.05630409 -0.122203514 0.14543891 0.17515112 0.14563149 -0.029182093 -0.08894132 0.16028436
-0.039041646 -0.035407502 0.14944138 0.0709829 -0.18510823 0.017296022 -0.11853026 0.044210084
-0.063896656 0.008316519 -0.112886 0.29013065 -0.14813413 -0.1520145 0.18485671 0.021366976
-0.3386179 -0.086368635 0.14300063 0.02060857 -0.3429741 0.040676676 0.16817772 0.16200124
0.23397344 -0.01080697 -0.1209531 -0.10944203 0.019527765 -0.18943675 0.14714698 -0.085444294
-0.0017075264 -0.072696306 -0.06238366 -0.19342732 0.14820792 0.055402156 0.072437115 0.021922713
-0.056919094 -0.027076064 -0.028705372 0.0022293895 -0.18055218 0.14756463 -0.0059376606 -0.05409014
0.15551464 -0.27116376 -0.12027683 -0.041786563 0.011883663 -0.10291717 -0.030311802 0.053757183
-0.16728848 -0.012532546 -0.10071248 0.31749517 -0.12711103 0.043671906 -0.020971145 -0.034673605
-0.14760363 0.10181363 -0.20896491 -0.000105085404 0.020432165 -0.018522402 -0.0024419706 0.08955638
0.08556052 0.083961 -0.07778567 0.09444415 0.020202674 0.03819615 -0.35681257 -0.13604008
-0.14088511 -0.26136816 -0.034085806 -0.03820592 0.052148663 -0.023085935 -0.1116504 0.04001088

DecList.0.conv.weight f4 [128, 64, 7]
00000000: c50d 9dbd 56d8 11be 597b 32bd 4e75 873d
00000010: e0d8 283d 0b77 d1bd f3fe 8abd c07c b93d
00000020: c8a6 923d d0e1 7dbe 32f4 5abe b0f6 2abe
00000030: 9d57 9dbd 8fb9 59bd fc16 cc3d a9ca 0abd
00000040: cbb0 7abd 255a 0abe d1e7 37be 0ebd 1fbe
00000050: 11dc 83be 4b7c 7d3d 7b65 333e 57ff 9cbd
00000060: 430f 25be b28c 93bd 02ed 1abe a411 12be
00000070: de43 0bbe cc71 14be 27fd ccbd 344c 153d
00000080: 65fc c43c c6f3 9cbd 817c 8d3d 8a1f e0bd
00000090: 3ef8 86be 57b3 bdbe 0fce 8dbe f194 0abe
000000a0: 4447 07be 3c02 31be 8bbd a73d 36fe 2c3e
000000b0: 0ec6 dfbd be98 6abe 7572 4bbe eae1 543c
000000c0: 6b76 47be 23be 6b3d 57d9 b5bd 951b 233d
000000d0: 651c 97bc a0fd d6bc beca 41bd 96b9 07bd
000000e0: 8e83 d43d 748b 873d d124 503d 62fb d83c
000000f0: e2fa 253e e5cf e2bd 176e 36be 85a4 6e3e
00000100: c561 963e 4c80 a03e d7bf 953e e073 683e
00000110: 246f 233e 4923 033e d299 423e 3e36 443e
00000120: b21a 303d 7a88 c2bc 25af ac3c 63be 34bc
00000130: c548 4cbd 5483 f9bd 0c43 99be 0857 94bd
00000140: 920a 06be 18c3 30be 4506 dcbd 0711 19be
00000150: 2c13 88bb 0438 31be cd0c 6abe b363 e5bd
00000160: 2cb1 0d3d 2c6b 653d a4f9 0f3d 5b4f 97bd
00000170: baea 033d f2a1 bbbc 11c4 933d 3d0e 73be
00000180: 3d51 9cbe 8426 ebbd bbb9 0dbe 17fe aabd
00000190: b74a 4f3c 6cfc ee3b e985 ccbd f1b4 01be
000001a0: 1bbc 343d 90ac 213b bb43 f0bc f681 063e
000001b0: 1a3e ec3c 20a4 693c fbf0 203e b5e6 973c
000001c0: ae65 4dbd bcd6 f9bd b935 26be 1bb8 e7bc
000001d0: 161f 19bd d044 a4bd f2e4 74be 8281 0e3e
000001e0: 861f 0c3d 1341 12be 0f0a 023d 40ff c53d
000001f0: 7374 74bc 2179 09be 7825 aebd a8b6 e5bd
00000200: b3cb 8cbe 468c 47be 0211 0cbe 3d2d 9ebc
00000210: be6d 223d 955c b03d 24e6 453e 9501 513d
00000220: 2595 00bb e8a0 69bd 46f3 c7bd 1d2b 74be
00000230: 3825 ff3b 465d 3bbd 5909 0bbe e45d 6abe
00000240: 805b eabd 1ff3 973d 4e00 6ebd 7ea1 f7bc
00000250: dfe6 27bd fb87 b93c e60d 1e3e 4aae 2eba
00000260: f1cc d53d 3bbe 0c3e 34cb 213e 7580 b33d
00000270: 64a5 233d 4485 9c3d f5fa d43c 6268 d73d
00000280: d9b1 04bd 22ab 973d 4196 58bd 6336 04be
00000290: 8104 13be 5d04 4fbc b777 6c3d 1bed 5a3e
000002a0: 335b ae3c 8b62 06bd a7c2 173a a2ef b63d
000002b0: 6411 d23c dbfe 05be 3fb1 883d 1c9b 533c
000002c0: 999d 343c fd33 8ebd 294f 0abe 7246 a1bd
000002d0: f92f 063d 8d80 f33c 3f2d 84bd 4154 a53c
000002e0: 94ac 2b3d 3b29 2dbd 177e bcbd 75dd 9bbd
000002f0: a731 1d3e e2da ecbd 3598 e3bd 879e 89be
00000300: 1465 67be 619a 2bbe 9f82 7cbc b54a 6b3d
00000310: 02e7 f6bb 6d59 e1bb 1935 aa3d d8ec d93d
00000320: 4edd ad3d 36d3 603d 9d40 133e d995 48be
00000330: 9ba7 5fbe 03d8 2cbe 4806 6abe 87aa 7abe
00000340: 934d 8abe 882e a7be c38a eb3c 6687 2abe
00000350: 6cce 29be f7da 623d 5cb7 c63d 9845 0a3e
00000360: 69f3 bbbd 4526 adbc 929e aabd 3015 94bd
00000370: b092 a9bd db15 35bd 0f9b e73d c720 e7bd
00000380: e82f debd 54ee b8bd 50d3 143e 71ae 0abc
00000390: 3b98 7bbe 8020 84be 260a 79be ec63 303d
000003a0: 300c b7bd cda6 2fbe b151 2dbe 5369 b2bd
000003b0: e61d 15be ccfa 69bd 388c e3ba 92e0 85bc
000003c0: 275f dd3d 8f71 98be bf34 fcbe cd95 26be
000003d0: 7d21 34bd 098e 26bc 1dba 1e3d dbb9 6cbc
000003e0: 2ce5 9b3d d7db 543b 41bd c73d f52f e93c
000003f0: 647e 7abd 5bca 843d bb18 0dbd b627 96bd
-0.07668642 -0.14242682 -0.043574665 0.06614171 0.041222453 -0.10227784 -0.06786909 0.09056997
0.07160717 -0.24793172 -0.21382216 -0.16695666 -0.076827265 -0.053155478 0.099653214 -0.033884678
-0.06120376 -0.1351095 -0.17959525 -0.15599462 -0.25753835 0.061886113 0.1751918 -0.0766589
-0.16119103 -0.0720457 -0.15129474 -0.14264542 -0.13600108 -0.14496535 -0.100092225 0.036449626
0.024046132 -0.076636836 0.06908513 -0.109435156 -0.2636127 -0.37050888 -0.27696273 -0.13533379
-0.1321078 -0.17286009 0.08190449 0.16893849 -0.10926448 -0.22909829 -0.1986788 0.012993315
-0.19478767 0.057554375 -0.08879345 0.039821226 -0.018446157 -0.026243985 -0.04731249 -0.033135973
0.103766546 0.066183954 0.05081636 0.026487056 0.16208985 -0.11074809 -0.17815433 0.23304947
0.29371467 0.31347883 0.29247925 0.22700453 0.15960366 0.12806429 0.1900399 0.19161317
0.04299421 -0.023746718 0.02107961 -0.01103172 -0.049874086 -0.12183252 -0.29933965 -0.072431624
-0.1308997 -0.17261922 -0.10743383 -0.14947902 -0.004152676 -0.17306525 -0.22856446 -0.11200657
0.034592792 0.05601041 0.035150185 -0.07388183 0.032206275 -0.02290437 0.07215131 -0.237359
-0.3053073 -0.11481956 -0.13840382 -0.08349245 0.012652091 0.0072932746 -0.09986479 -0.1266668
0.044124704 0.0024669506 -0.029329171 0.13135514 0.028838206 0.014260322 0.15716927 0.018542627
-0.050145797 -0.121991605 -0.16231431 -0.02828603 -0.03738316 -0.080209374 -0.2391546 0.13916591
0.03420975 -0.14282636 0.031747874 0.09667826 -0.014920342 -0.13425113 -0.0850324 -0.112164795
-0.2749916 -0.19487104 -0.13678363 -0.01930868 0.03965544 0.086114086 0.19326073 0.0510269
-0.0019620147 -0.057038218 -0.097631976 -0.23844571 0.0077864192 -0.04574325 -0.13577785 -0.22887379
-0.114432335 0.074194185 -0.05810576 -0.030228373 -0.04099166 0.022647848 0.1543499 -0.00066635443
0.1043948 0.13744442 0.15800172 0.087647356 0.03995265 0.07642606 0.025998572 0.10517956
-0.03239617 0.07405688 -0.05287767 -0.12911372 -0.14357187 -0.012635318 0.057731356 0.21379511
0.021283722 -0.03280882 0.00057891983 0.08932425 0.025643058 -0.13085501 0.06674432 0.012915399
0.011023902 -0.0694351 -0.1350676 -0.078747645 0.032760594 0.029724384 -0.064539425 0.020181777
0.04191263 -0.04227565 -0.09203737 -0.07610599 0.15350972 -0.11565186 -0.111130156 -0.2687876
-0.22597152 -0.1675811 -0.015412002 0.057444293 -0.0075348625 -0.0068771155 0.08310909 0.106408775
0.08489476 0.054888926 0.14380117 -0.19588412 -0.2184128 -0.16879277 -0.22853959 -0.24479114
-0.2701231 -0.32652688 0.02875269 -0.16653213 -0.1658265 0.055384602 0.09702942 0.1350311
-0.09177286 -0.021136412 -0.08331026 -0.07230604 -0.082799315 -0.044210296 0.11308872 -0.11285549
-0.10848981 -0.090298325 0.14533734 -0.008464442 -0.2456979 -0.25806046 -0.24320278 0.043064043
-0.089378715 -0.17153473 -0.16925694 -0.08711495 -0.14562187 -0.057123944 -0.0017360514 -0.016342435
0.108091645 -0.29774138 -0.49258992 -0.16268082 -0.04397725 -0.0101657 0.03875171 -0.014448608
0.076120704 0.0032479668 0.09752894 0.02846525 -0.06115569 0.06483909 -0.034447413 -0.07331793

DecList.0.conv.bias f4 [64]
00000000: c41a c83d 2009 b73d f6b2 113d c9bb 5a3d
00000010: f5ce fb3c d618 fabb e3a7 9a3d 744a 5cbc
00000020: bb61 dfbd 8c9a 0f3c 7d05 863d c8f6 143e
00000030: d5b6 0ebd ca24 b7bc 5626 3abd 65cb 9a3d
00000040: 5ed0 9abc df6f 73bd 9ff7 d9bd 5911 803e
00000050: a574 2dbe 3743 403d 09b6 873e 5bf5 f9be
00000060: faf0 8e3e ec15 fbbc 050a 093f 166b 37bd
00000070: b14c a1bb e9c3 9a3a 5cd7 6e3e 5a90 2dbd
00000080: 5bda bebe 8e00 3cbe ce0e 6cbe 5f77 e2bd
00000090: 42db a5bd 722b 84bd cc38 a03c 4144 70bd
000000a0: 280e 23be 3fa6 23bd 94b4 a33d 51ad ccbc
000000b0: 1076 043c d615 523e 6b0e 6d3d 941c 31be
000000c0: 94e9 bc3b 60db 613e 4390 48be a9e7 833b
000000d0: 7998 2a3e 4f74 bbbd c375 98bd b8fc dd3a
000000e0: 435b 413e e538 50be 28fe c1bd c71e 023d
000000f0: 19bb 7cbd 7589 a23e a763 1bbe 4d82 013e
0.0977073 0.08937287 0.03557106 0.053401742 0.030738333 -0.007632355 0.07551553 -0.013445485
-0.109073125 0.008764874 0.065440156 0.14547265 -0.03484233 -0.02235641 -0.045446716 0.07558326
-0.018898185 -0.05943286 -0.10642933 0.25013235 -0.16939028 0.0469391 0.2650607 -0.48820004
0.27918226 -0.030650102 0.53530914 -0.04477986 -0.0049224724 0.0011807653 0.2332434 -0.042373993
-0.37275967 -0.18359587 -0.23052523 -0.110579245 -0.08098461 -0.06453599 0.019558333 -0.058658842
-0.15923369 -0.039953467 0.07993427 -0.024984987 0.008084789 0.20516142 0.05787508 -0.17296058
0.0057651494 0.22056341 -0.19586281 0.004025419 0.16659726 -0.091530435 -0.07444336 0.0016936278
0.1888247 -0.20334204 -0.094723046 0.031767633 -0.061701868 0.31745496 -0.15174733 0.12647362

DecList.0.ECA.conv.weight f4 [1, 1, 3]
00000000: 6919 05bf da80 24be b616 7d3e
-0.519919 -0.16064778 0.24715695

DecList.1.conv.weight f4 [64, 32, 7]
00000000: d645 5dbc 52bb 853d 77c7 9a3d 151a db3d
00000010: f038 8a3d f1d6 493d 3ebc f4bb 2abd c0bc
00000020: a118 a93c 7912 163d e7f4 4d3d cef5 e33c
00000030: 971f 113e ca6a 153e 3248 71bd add3 76bd
00000040: a200 ea3c b53c a93b 580e e2bd 9691 e9bc
00000050: 3af6 22bd 3678 07bd c4c9 87bc ceaa 713c
00000060: 8a6d 803d ef62 fc3d 9237 2bbc 7979 643d
00000070: f471 973d ce34 0d3d ba91 593d 645a 033e
00000080: 90b1 b4bd 127d a6bd b3c1 95bd 0f6c 2dbe
00000090: a557 1e3d cf9f 0cbc d607 5abe 6d8b 55bd
000000a0: 58a4 aebd 7724 09be 2ed4 a7bd 86ca 0fbe
000000b0: bc42 5e3c ee8c 93bd 5bc0 11bd 4e7c abbd
000000c0: a3c5 b7bd d0c2 f33d a61a 1fbd caf2 983d
000000d0: 24e2 a93d 07e2 d33d b335 993d 2bf4 bc3c
000000e0: d77f f93c ceb3 5f3d a6a5 a03d 1494 683d
000000f0: dc7d bebd 5fd6 0cbe 0b1c c4b9 6076 fdbd
00000100: bc2a 6fbc aec7 fabc 0f64 cb3c fba6 263c
00000110: ca4c d3bd 25a6 febd 479c 823c 078c e53b
00000120: 3c68 26bd 1df8 91bc 3d22 883b 10fd b43c
00000130: d24e 9ebb 2c3f 863c dfaf 883d 7577 f03d
00000140: aa38 293e 614d 3d3d e0f9 b23c 30ea cc3d
00000150: 33ae 39be eab5 0ebe 9043 f33b dcb7 143c
00000160: ec62 e3bd f1a2 80bc 2800 bf3d eed1 1ebe
00000170: e64e 01be 8938 d4bb a863 98bc 11d7 f9bd
00000180: 5cb3 68be 9f53 3abe 88b3 5b3c db66 953d
00000190: c9e1 8e3d 8f89 653c 978e aa3d 9281 f13d
000001a0: 7b8a a63d 2354 0abe 5cdd e9bd f4a1 f5bd
000001b0: ed08 c3bd c8fb 14be 2718 1cbd b91f 13be
000001c0: 9134 aabd 3690 08be 898b 8ebe 3e99 4ebe
000001d0: e66c 44be 366b cebd 496b 8abd 7bc1 23bb
000001e0: 7d41 4cbd 48e0 e9bd 7385 5b3c a847 2cbd
000001f0: 0bd0 16be 1efe 30be 70c7 853c 4619 933d
00000200: 5e9a 823d b236 053e f00a b53d af3c 83bc
00000210: b63f abbc e1b4 59be 0a3d 43be c6f3 e5bd
00000220: d57a 33be 94ed 53bd 8009 28be 6e85 73be
00000230: a294 d0bc 6437 67bb f13c 7ebc dfcd 883c
00000240: 6c57 febc 41ca 64bd fd41 6dbc 5390 373c
00000250: cd83 213d 8083 063d 2ac6 17bd 94ee 08be
00000260: 29c8 03bd 609c 0abd 92e1 48bd 1e09 90bd
00000270: 1377 24be a3e8 0fbe 40f0 f13b 6432 24bc
00000280: 95e5 10be 1a13 483d 760c 7fbd 5a61 a4bd
00000290: 4ae2 9f3c e6f0 e13d 661d 4a3e 8f0d d13d
000002a0: 40c1 0ebe 2e26 1639 acdd 033e d31a 7a3d
000002b0: 6a30 76bd f5eb 83bd f655 02bd 863e 313d
000002c0: 8a0a 243c 81f8 313d 2846 783c 8243 15bd
000002d0: d053 be3a 4868 71bb 1fe3 4cbd 8936 2dbd
000002e0: 59a1 d03c 92f5 a83c af01 8cbd 43fc 43bd
000002f0: f677 25bd 10f0 eabd f85a 98bd 09c9 863b
00000300: 6f28 943d 7e28 083d 2a2d b43d 34c1 d93d
00000310: 88fe b9bd 2e9d 97bd e54a 08be 6bc7 4c3d
00000320: 5652 f3bc 0275 453a e572 98bd 3d9e 8cbc
00000330: 5f9e 743d 7372 f13d 70ee 41bc 2e32 0b3e
00000340: 875a 0f3d e318 033d fae3 02be f91e fcbc
00000350: c738 4638 0b0c 983c 65d6 75bd 94ef ddbc
00000360: e474 a2bd bfe0 a8bd 5b9c ce3d e373 073e
00000370: 08a2 b23d c677 4fbe 0b98 bbbd cfdb 18be
00000380: 2809 7f3d 56d9 093e 9d07 463e 3b52 6a3e
00000390: 4757 383d de48 743c 235e 69bd f238 733b
000003a0: de7e 8a3d d10f 823d 7ca0 ff3d a404 a73d
000003b0: 205b 72bc 868a 97bd dba2 a33d 73cc e03d
000003c0: 376c 7b3d 04ea 003e f5bc 46bc 49e0 6dbd
000003d0: ac6f 20bd 85dc 0fbd 6563 fcbb bffb 9d3d
000003e0: 62cb 5e3b 829f a9bc b276 3c3d 2bf0 d73b
000003f0: 7e99 02bc 4afd b2bb 3034 ae3d 75f0 243e
-0.01350542 0.06529869 0.07557576 0.10698334 0.06749141 0.04927725 -0.0074687293 -0.0235277
0.020641627 0.03663871 0.050282385 0.02782717 0.14172207 0.14591518 -0.05890674 -0.060260464
0.028564755 0.0051647075 -0.11037892 -0.028511804 -0.0397856 -0.033073626 -0.016575702 0.014750196
0.06270893 0.123235576 -0.010450261 0.055779908 0.07394782 0.034474187 0.05311749 0.1282745
-0.0882293 -0.08129324 -0.07312336 -0.16935752 0.038657803 -0.008583023 -0.21292052 -0.05213492
-0.0852744 -0.13392816 -0.08194767 -0.140421 0.013565715 -0.072046146 -0.035583835 -0.083733186
-0.08973243 0.11902392 -0.038843773 0.07468183 0.08295086 0.10345846 0.074809454 0.023065647
0.030456467 0.054614834 0.07844095 0.056781843 -0.093013495 -0.13753651 -0.00037404927 -0.12376094
-0.014597591 -0.030612793 0.024827985 0.010171647 -0.10317381 -0.12434033 0.01594366 0.007005218
-0.04062675 -0.017818505 0.004154472 0.022093326 -0.0048311735 0.016387545 0.0667417 0.117415346
0.16525522 0.046216372 0.021847665 0.10005605 -0.18132858 -0.13936582 0.0074238256 0.009077039
-0.11102852 -0.015702697 0.09326202 -0.1550977 -0.12627754 -0.006476466 -0.018602207 -0.12199224
-0.2272467 -0.18195961 0.013409503 0.07295009 0.06976659 0.014009847 0.08327978 0.11792292
0.08131882 -0.13508658 -0.11419174 -0.11993781 -0.09523187 -0.14549172 -0.03810897 -0.1436757
-0.083108075 -0.13336262 -0.27840832 -0.20175645 -0.19182166 -0.100790426 -0.06758744 -0.002498715
-0.049867142 -0.114197314 0.013398516 -0.042060524 -0.147278 -0.17284438 0.01633045 0.07182555
0.063770995 0.13009146 0.08839977 -0.016020147 -0.020904403 -0.21260406 -0.19066253 -0.11228137
-0.17527325 -0.051740244 -0.16409874 -0.23781368 -0.025461499 -0.0035280818 -0.015517459 0.01669973
-0.031047545 -0.055856947 -0.014481065 0.011203843 0.039432336 0.032840252 -0.03705422 -0.1337226
-0.03217331 -0.033840537 -0.049043246 -0.07032989 -0.16061048 -0.14053588 0.0073833764 -0.01002178
-0.14150079 0.04884634 -0.062267743 -0.08026381 0.019517083 0.11032276 0.19737777 0.10207664
-0.13940907 0.00014319338 0.1287753 0.061060738 -0.060104765 -0.064414896 -0.03182026 0.043272518
0.010012278 0.043449882 0.015153445 -0.036441334 0.0014520828 -0.0036835838 -0.050021287 -0.042288337
0.025467562 0.02062491 -0.068362586 -0.047847997 -0.040397607 -0.114715695 -0.07439226 0.0041133207
0.072342746 0.03324174 0.08797677 0.10632554 -0.09081751 -0.074030265 -0.1330982 0.049994867
-0.029702347 0.0007532389 -0.074437894 -0.017165298 0.059721347 0.117894076 -0.011836633 0.13593361
0.034998443 0.032006156 -0.12782279 -0.030776488 4.7259757e-05 0.01856043 -0.060018916 -0.027091779
-0.07932451 -0.08245992 0.10088416 0.13227801 0.08722311 -0.20260534 -0.09159859 -0.149276
0.06226459 0.13461813 0.19338842 0.22882931 0.04500511 0.014909951 -0.05697454 0.00371128
0.06762479 0.06350673 0.12481782 0.08155182 -0.014792234 -0.07399468 0.079900466 0.109764956
0.0613825 0.1258927 -0.012130012 -0.058075223 -0.039169 -0.035122413 -0.0077022784 0.077140324
0.0033995737 -0.020705942 0.046011634 0.0065899095 -0.007971166 -0.0054623233 0.08506048 0.16107352

DecList.1.conv.bias f4 [32]
00000000: fda5 febd 719a 883e 309f 103e 2a57 763d
00000010: 37bb a03e dcb5 e7bb 48d1 673e d906 a23d
00000020: c709 3b3d 08e4 06be a469 c2bd 2af3 a83e
00000030: 8834 783e 8bc9 633e 188e 3dbc 1ecd 253e
00000040: ec49 01bd 9eac f0bc e165 333e ab28 aebc
00000050: bda7 ed3d 7f67 d1bc 7484 dbbe ce21 193e
00000060: b10a 35be e2b2 ff3c 8fe9 4cbd 2799 513d
00000070: 2407 003e a64e 05be cd6d 2abd d1f6 ed3d
-0.124340035 0.2668033 0.14123225 0.06014172 0.31392834 -0.00707124 0.22638428 0.07911462
0.04566362 -0.13172925 -0.094928056 0.3299802 0.24238789 0.22244851 -0.011569522 0.16191527
-0.031564638 -0.029379185 0.17519332 -0.021259626 0.11604259 -0.025562046 -0.4287449 0.14954302
-0.1767986 0.031213228 -0.050027426 0.051171448 0.12502724 -0.13018283 -0.04160862 0.11619342

DecList.1.ECA.conv.weight f4 [1, 1, 3]
00000000: 38eb e8be 3562 f13e 3471 1e3f
-0.45491958 0.4714524 0.61891484
