checkpoints/best_Seq2Seq2_emb_snr_-2.pth (torch, 161054 bytes, 219 tensors)

enc.EncoderList.cell0.conv.weight f4 [4, 2, 17]
0.06080817 0.08257069 0.019331142 0.23885801 0.104789615 0.16148295 0.007397166 0.1254852
0.17501584 -0.13893513 0.10049617 -0.024213547 0.08352908 -0.001240377 0.06696238 -0.030719465
0.11886148 0.08014568 -0.025158316 0.10330474 -0.033564024 0.0075810486 -0.029749539 0.1267917
-0.069027625 0.010472546 0.0627618 0.0098426845 0.12611558 -0.0447521 0.2713977 -0.06656214
0.21327354 0.058215793 -0.09145439 0.051489744 -0.02959101 0.08071152 -0.03505332 -0.10080122
0.00732719 -0.084451705 0.05149711 0.14043349 0.10554279 -0.053576324 0.119219616 0.05688428
0.107108735 -0.086989544 -0.17391522 -0.1860849 -0.22401735 0.08471653 -0.006012068 0.109304346
0.05937496 0.0958707 0.23002549 0.12808195 0.24147388 0.0065521784 0.13757472 -0.020852637
0.07877283 -0.03779175 0.08137904 -0.21335822 -0.16377915 -0.12907116 0.10822587 0.053056005
0.116143905 -0.1481713 -0.19960265 -0.14583966 -0.057453573 0.14214313 0.1581978 0.2732126
0.024487447 0.016576206 0.15212783 -0.022613091 0.012284055 0.08105464 0.17925915 -0.05167567
-0.02682595 0.08588497 0.040676847 -0.06817826 0.051153716 0.037145123 -0.19636865 -0.11542345
0.15048452 -0.012887764 -0.0073884544 -0.104994126 -0.064545505 0.03909503 -0.014204229 -0.103709176
-0.045058157 -0.14673975 -0.20039897 -0.099513076 -0.1615266 -0.10900727 0.10858031 -0.036978718
0.0021640076 -0.20082778 -0.09669594 -0.018474106 0.09849766 -0.069521025 0.0012201469 -0.11058102
-0.011782046 -0.086293615 -0.0239983 -0.13825968 -0.122997515 -0.11226886 -0.06494493 -0.14500593
0.14445236 -0.015615277 0.17212275 0.06796653 -0.1263394 0.14116679 -0.009301194 -0.03385479
00000000: fd11 793d d21a a93d 585c 9e3c 3297 743e
00000010: f09b d63d c95b 253e ed63 f23b 317f 003e
00000020: 5a37 333e 0345 0ebe f0d0 cd3d 7d5b c6bc
00000030: 4b11 ab3d 2594 a2ba 9323 893d 63a7 fbbc
00000040: a66d f33d 6b23 a43d d018 cebc 6f91 d33d
00000050: 6e7a 09bd 726a f83b 4eb5 f3bc afd5 013e
00000060: 5b5e 8dbd 0b95 2b3c 4289 803d 3643 213c
00000070: 7124 013e fa4d 37bd a4f4 8a3e bb51 88bd
00000080: 6164 5a3e af73 6e3d 704c bbbd e9e6 523d
00000090: d968 f2bc 154c a53d 1294 0fbd df70 cebd
000000a0: ed18 f03b 04f5 acbd a2ee 523d cccd 0f3e
000000b0: d126 d83d d972 5bbd 6a29 f43d 7eff 683d
000000c0: d35b db3d 9327 b2bd d516 32be 0a8d 3ebe
000000d0: ce64 65be dc7f ad3d e200 c5bb f5da df3d
000000e0: 2833 733d dc57 c43d cd8b 6b3e ea27 033e
000000f0: ee44 773e a8b3 d63b 63e0 0c3e 26d3 aabc
00000100: a653 a13d 86cb 1abd 0eaa a63d 947a 5abe
00000110: b9b5 27be 3b2b 04be 86a5 dd3d 4151 593d
00000120: dbdc ed3d 38ba 17be a364 4cbe fe56 15be
00000130: 7054 6bbd f88d 113e 9bfe 213e 86e2 8b3e
00000140: e699 c83c d3ca 873c 66c7 1b3e 173f b9bc
00000150: 1043 493c faff a53d b68f 373e dea9 53bd
00000160: 18c2 dbbc 76e4 af3d c49c 263d 0ba1 8bbd
00000170: 8f86 513d 7c25 183d dd14 49be 2163 ecbd
00000180: 9d18 1a3e 3327 53bc d91a f2bb 2907 d7bd
00000190: 6f30 84bd 1c22 203d dbb8 68bc 7a65 d4bd
000001a0: e78e 38bd f242 16be 6335 4dbe 83cd cbbd
000001b0: 3b67 25be 343f dfbd 5b5f de3d ff76 17bd
000001c0: 06d2 0d3b cca5 4dbe 8508 c6bd 0257 97bc
000001d0: 24b9 c93d 0a61 8ebd 56ed 9f3a 4d78 e2bd
000001e0: 7c09 41bc b5ba b0bd 1598 c4bc f293 0dbe
000001f0: 1fe6 fbbd 37ed e5bd d901 85bd 6f7c 14be
00000200: 52eb 133e 38d7 7fbc f240 303e 0932 8b3d
00000210: 1e5f 01be 078e 103e 0964 18bc 52ab 0abd

enc.EncoderList.cell0.conv.bias f4 [4]
-0.0032003021 -0.18122791 0.12588002 0.14082295
00000000: 29bc 51bb cf93 39be b1e6 003e e433 103e

enc.EncoderList.cell0.activate.fcn.0.weight f4 [8, 8]
0.15607709 -0.1567135 0.12761202 -0.22295764 -0.168388 0.2190626 0.2042402 0.28623357
0.3021241 -0.2225943 -0.046065696 -0.15833595 -0.024535475 -0.23862298 0.4948157 -0.27323994
0.13811418 -0.04397278 0.088016555 -0.23256716 0.35398692 0.16547415 0.052152615 -0.2909347
0.13692278 -0.16460681 -0.19286785 0.300246 0.032683488 -0.2909355 -0.07817072 -0.035929304
0.17314796 -0.15716906 -0.24311252 -0.17655037 -0.1941819 0.26611632 0.30292448 -0.24713686
0.1081652 0.46456125 0.07075055 -0.07381596 0.16143297 0.10045806 0.07604458 -0.066117674
-0.025364067 0.22288316 -0.015002298 -0.21383376 0.25172693 0.18390642 0.039674066 -0.14054069
0.09042942 0.29875 0.1373065 0.16491428 -0.27818632 -0.12058386 0.14409609 0.07992525
00000000: acd2 1f3e 8179 20be baac 023e 024f 64be
00000010: e76d 2cbe f251 603e 5824 513e 358d 923e
00000020: 03b0 9a3e c3ef 63be 62af 3cbd d222 22be
00000030: 9ffe c8bc 9559 74be 7c58 fd3e 1be6 8bbe
00000040: ce6d 0d3e cd1c 34bd 0642 b43d 1626 6ebe
00000050: c63d b53e 0e72 293e fb9d 553d 65f5 94be
00000060: 7c35 0c3e b08e 28be 267f 45be d8b9 993e
00000070: 1fdf 053d 7ff5 94be f817 a0bd 9b2a 13bd
00000080: b34d 313e edf0 20be 7df2 78be 9fc9 34be
00000090: 9fd7 46be 6640 883e eb18 9b3e 7211 7dbe
000000a0: b785 dd3d f9da ed3e aae5 903d d22c 97bd
000000b0: af4e 253e f5bc cd3d 43bd 9b3d b468 87bd
000000c0: 4ec8 cfbc 7c3b 643e 33cc 75bc 3df7 5abe
000000d0: 5ae2 803e f751 3c3e 4681 223d e6e9 0fbe
000000e0: 0f33 b93d c3f5 983e 139a 0c3e 4adf 283e
000000f0: 706e 8ebe acf4 f6bd ed8d 133e d9af a33d

enc.EncoderList.cell0.activate.fcn.0.bias f4 [8]
-0.017268581 -0.20587091 -0.2106926 -0.34952283 -0.12670948 0.11689172 0.22075748 0.16862257
00000000: d776 8dbc d3cf 52be cdbf 57be a8f4 b2be
00000010: 21c0 01be ed64 ef3d 400e 623e 65ab 2c3e

enc.EncoderList.cell0.activate.fcn.1.weight f4 [8]
1.2455767 0.98091763 1.051621 0.95266974 0.99993414 0.9202629 0.9542467 1.0325526
00000000: 0f6f 9f3f 6b1d 7b3f 849b 863f 2ae2 733f
00000010: affb 7f3f 5996 6b3f 8349 743f af2a 843f

enc.EncoderList.cell0.activate.fcn.1.bias f4 [8]
-0.10833739 -0.015488352 -0.12775682 0.06124526 -0.12850583 0.09924155 0.112649746 -0.07880123
00000000: fedf ddbd dbc2 7dbc afd2 02be 4fdc 7a3d
00000010: 0897 03be 273f cb3d e9b4 e63d 8a62 a1bd

enc.EncoderList.cell0.activate.fcn.1.running_mean f4 [8]
-0.14533226 -0.022939658 -0.3740579 -0.09978818 -0.11431487 0.12123922 -0.0057268715 0.5045286
00000000: fbd1 14be f3eb bbbc 8484 bfbe bf5d ccbd
00000010: ea1d eabd 454c f83d 7ba8 bbbb c928 013f

enc.EncoderList.cell0.activate.fcn.1.running_var f4 [8]
0.011480038 0.08399792 0.3815998 0.06611223 0.041893125 0.10673673 0.20077802 0.12230717
00000000: c516 3c3c 1a07 ac3d 0d61 c33e d965 873d
00000010: 2098 2b3d c998 da3d c198 4d3e 2e7c fa3d

enc.EncoderList.cell0.activate.fcn.3.weight f4 [4, 8]
-0.54091024 -0.08675722 -0.009602176 0.1805298 0.17003964 -0.14511958 0.025048977 -0.25518826
-0.39323643 0.26095125 -0.21094094 -0.09896717 -0.35088617 0.15891756 0.23028341 0.12921435
-0.5630229 -0.23857698 -0.24618423 0.20948268 0.16140008 0.24428372 0.10103775 -0.062275823
0.008092646 -0.117904246 -0.25889057 -0.36051002 0.2671983 -0.12000191 -0.09150901 -0.30919197
00000000: 1879 0abf c5ad b1bd 7252 1dbc cedc 383e
00000010: df1e 2e3e 3a9a 14be 8333 cd3c 09a8 82be
00000020: 4956 c9be 679b 853e e700 58be 4daf cabd
00000030: 5aa7 b3be 49bb 223e 6acf 6b3e c450 043e
00000040: 4522 10bf 864d 74be b817 7cbe a182 563e
00000050: 1046 253e 8325 7a3e e1ec ce3d ef14 7fbd
00000060: 0497 043c c877 f1bd 4e8d 84be c594 b8be
00000070: 37ce 883e 90c3 f5bd 1369 bbbd 694e 9ebe

enc.EncoderList.cell0.activate.fcn.3.bias f4 [4]
-0.059783388 -0.23651254 -0.22782992 0.12404882
00000000: 6ddf 74bd 5830 72be 3f4c 69be 4f0d fe3d

enc.EncoderList.cell0.activate.fcn.4.weight f4 [4]
1.0444616 0.37944293 0.3715148 0.8449796
00000000: ebb0 853f 5846 c23e 3037 be3e 9550 583f

enc.EncoderList.cell0.activate.fcn.4.bias f4 [4]
0.5433929 1.1581856 1.6129147 0.3001771
00000000: cc1b 0b3f 6d3f 943f fd73 ce3f d0b0 993e

enc.EncoderList.cell0.activate.fcn.4.running_mean f4 [4]
-0.33532155 -0.32161576 -0.3774318 -0.2354888
00000000: 44af abbe d2aa a4be be3e c1be fa23 71be

enc.EncoderList.cell0.activate.fcn.4.running_var f4 [4]
0.06317403 0.041015163 0.09893076 0.24407405
00000000: 6361 813d 84ff 273d 369c ca3d 8cee 793e

enc.EncoderList.cell0.bn.weight f4 [4]
0.7703649 0.99219143 0.8689406 0.8159025
00000000: a236 453f 4200 7e3f e472 5e3f fcde 503f

enc.EncoderList.cell0.bn.bias f4 [4]
-0.09775289 0.32965708 -0.01573873 -0.0754244
00000000: ab32 c8bd d0c8 a83e 82ee 80bc 1c78 9abd

enc.EncoderList.cell0.bn.running_mean f4 [4]
0.1368047 -0.10324725 0.133597 0.28211507
00000000: 8816 0c3e 4b73 d3bd a7cd 083e 6371 903e

enc.EncoderList.cell0.bn.running_var f4 [4]
1.3759872 0.34823933 0.12438302 1.0744094
00000000: 5920 b03f 6d4c b23e 86bc fe3d 3f86 893f

enc.EncoderList.cell1.conv.weight f4 [8, 4, 17]
-0.0708874 0.047843345 -0.027882325 -0.064299345 0.0117092235 -0.008936175 0.021939207 -0.07310375
0.08921392 -0.07700613 0.042643588 0.03991871 0.097993955 -0.09091783 0.09599089 -0.06696203
0.04733122 0.14386213 0.01744478 0.07938641 0.03030107 -0.11842059 0.06349847 -0.061907545
0.15841231 0.17895214 0.22803654 -0.00470297 -0.062098972 0.054511946 0.085290685 -0.14601609
-0.048214976 -0.049031742 0.042082503 -0.05533266 0.018471053 -0.046353653 -0.10674933 0.13243538
0.100967035 -0.08370755 -0.06600981 -0.23186055 -0.2733031 -0.24754524 -0.0039427667 0.0305207
-0.12970261 -0.022207586 -0.058261514 -0.029179452 -0.0008945597 -0.044978075 -0.08187163 -0.1155357
-0.15433554 0.0641718 -0.08387129 0.009732174 -0.06407324 0.017613135 0.089839585 0.009828103
-0.120603904 0.060787454 0.10430392 -0.03797003 0.12067333 0.14860334 0.044668958 0.07259247
-0.010961873 0.043805283 0.17586529 0.121870145 -0.03293251 -0.07101156 -0.052407254 -0.09812871
-0.06339285 -0.01141695 0.102435686 0.035408072 -0.06157847 -0.16495903 -0.0057737445 -0.059063107
0.019279461 0.08168058 -0.018508943 0.0021148382 -0.003737086 -0.11733271 -0.10190604 -0.08579277
-0.039451536 -0.011401911 0.132073 -0.05326136 -0.037602466 0.1084496 0.092251964 0.06573686
0.232144 0.06564159 -0.09194786 -0.038507454 -0.0063715284 -0.096031 -0.134386 0.10784644
-0.091657445 -0.06486309 -0.13195597 -0.03557583 0.008496931 0.08008638 -0.010472922 -0.1812073
-0.18315345 -0.07721787 0.01825662 -0.036496643 -0.15397523 -0.10869028 -0.14455412 -0.08193447
0.070129566 0.09475766 0.18258542 -0.027570272 0.20604247 0.042626936 0.19491017 0.23521008
-0.033327308 0.035907663 -0.17809722 -0.11586439 0.0075479303 -0.060285334 -0.04390877 -0.08447202
0.04651047 0.062116627 0.08055929 -0.012561979 -0.037462287 0.06750394 0.068165325 -0.05292643
-0.031074597 0.0049442463 -0.006692049 -0.028697388 -0.08481987 -0.20384713 -0.18748203 -0.16128768
-0.18836392 -0.04397231 -0.05434593 -0.004074034 0.15741394 0.12816922 0.22906764 0.061106086
0.058846887 0.05573197 -0.058668785 -0.099534035 -0.004394851 -0.17392743 -0.11102142 0.1554278
0.046438515 0.00019758947 -0.051978365 -0.10866825 -0.096173614 0.09390889 0.120203465 0.0014797595
-0.11330411 0.02423476 -0.0576427 0.02033177 -0.037624013 0.041151 0.011360666 -0.0257402
-0.07050865 0.1327355 0.06278258 0.15937035 0.16162714 -0.05199492 -0.10318275 0.114264876
0.076542154 -0.10864064 -0.08436367 -0.20053501 -0.13083966 -0.02379296 -0.023053752 -0.041290294
-0.09436846 0.03998223 -0.07161338 -0.16204618 -0.09430718 -0.05659229 -0.025794808 -0.13935149
0.019413728 -0.074511826 -0.081635065 -0.018708006 0.20948204 0.11673987 0.1336839 0.11750352
0.15803297 0.065799095 0.058615096 0.11771986 -0.07289472 -0.22861218 -0.21050848 -0.1365996
-0.06925229 -0.09292269 -0.09332651 0.022414237 -0.036581475 0.032936193 0.010479614 -0.08125309
0.042217426 -0.06528882 0.10380921 0.15396348 0.21661472 0.039559618 0.03292883 -0.05096004
0.024504963 0.06440834 -0.040302135 -0.050441906 0.037237443 -0.08001063 -0.0055462895 0.05987696
00000000: 6a2d 91bd 62f7 433d 7969 e4bc 60af 83bd
00000010: 0bd8 3f3c 0969 12bc dab9 b33c 6bb7 95bd
00000020: cab5 b63d 64b5 9dbd 0bab 2e3d cd81 233d
00000030: 0eb1 c83d 2133 babd df96 c43d 6423 89bd
00000040: 62de 413d 9850 133e 5be8 8e3c 5895 a23d
00000050: f339 f83c 7f86 f2bd 7c0b 823d c492 7dbd
00000060: d636 223e 3b3f 373e 6982 693e 5f1b 9abb
00000070: 7e5b 7ebd eb47 5f3d e2ac ae3d 3e85 15be
00000080: 117d 45bd 82d5 48bd b45e 2c3d 80a4 62bd
00000090: 9b50 973c 54dd 3dbd 659f dabd 249d 073e
000000a0: cec7 ce3d dd6e abbd 2730 87bd da6c 6dbe
000000b0: 62ee 8bbe 807c 7dbe 5332 81bb 8c06 fa3c
000000c0: c3d0 04be afec b5bc a0a3 6ebd bf09 efbc
000000d0: e380 6aba ee3a 38bd 50ac a7bd fb9d ecbd
000000e0: 230a 1ebe 816c 833d b6c4 abbd b273 1f3c
000000f0: d538 83bd 6c49 903c d1fd b73d 0d06 213c
00000100: 2eff f6bd 44fc 783d 4b9d d53d 7686 1bbd
00000110: 9423 f73d 792b 183e ccf6 363d 5cab 943d
00000120: 6e99 33bc 2b6d 333d 0816 343e 0e97 f93d
00000130: 3de4 06bd 826e 91bd fda8 56bd b5f7 c8bd
00000140: 1cd4 81bd 290e 3bbc cdc9 d13d 0e08 113d
00000150: b539 7cbd 05eb 28be ae31 bdbb 28ec 71bd
00000160: f6ef 9d3c 2648 a73d 11a0 97bc 1999 0a3b
00000170: e6e9 74bb 224c f0bd 1db4 d0bd 1fb4 afbd
00000180: ef97 21bd 15cf 3abc 253e 073e 9528 5abd
00000190: 0b05 1abd d31a de3d 99ee bc3d 0ca1 863d
000001a0: 28b7 6d3e 196f 863d 294f bcbd feb9 1dbd
000001b0: 41c8 d0bb e7ab c4bd 7c9c 09be 98de dc3d
000001c0: e6b6 bbbd f1d6 84bd 771f 07be f6b7 11bd
000001d0: b636 0b3c 5404 a43d 9e96 2bbc 688e 39be
000001e0: 948c 3bbe 6724 9ebd e88e 953c 817d 15bd
000001f0: afab 1dbe 0299 debd ff05 14be 42cd a7bd
00000200: 17a0 8f3d 4e10 c23d acf7 3a3e 0ddb e1bc
00000210: ccfc 523e 9599 2e3d 8896 473e e9da 703e
00000220: 3782 08bd ea13 133d 1e5f 36be 4f4a edbd
00000230: a154 f73b c1ed 76bd afd9 33bd abff acbd
00000240: c381 3e3d 016e 7e3d 45fc a43d c2d0 4dbc
00000250: 0e72 19bd 813f 8a3d 439a 8b3d 62c9 58bd
00000260: 2790 febc 5803 a23b fa48 dbbb c916 ebbc
00000270: 0ab6 adbd 4dbd 50be 4afb 3fbe 9928 25be
00000280: 79e2 40be 4f1c 34bd d799 5ebd 797f 85bb
00000290: 1f31 213e cb3e 033e b590 6a3e 604a 7a3d
000002a0: 6f09 713d 3547 643d ae4e 70bd 80d8 cbbd
000002b0: af02 90bb 081a 32be 335f e3bd 7728 1f3e
000002c0: 5036 3e3d 0530 4f39 44e7 54bd 768d debd
000002d0: acf6 c4bd 4e53 c03d 3c2d f63d 7df4 c13a
000002e0: fc0b e8bd fa87 c63c c01a 6cbd d08e a63c
000002f0: a31b 1abd f38d 283d 1622 3a3c 1ddd d2bc
00000300: d766 90bd d1eb 073e 2794 803d fb31 233e
00000310: 9681 253e a0f8 54bd 7a51 d3bd b403 ea3d
00000320: 22c2 9c3d fc7e debd dcc6 acbd 0d59 4dbe
00000330: d5fa 05be 74e9 c2bc 39db bcbc 0320 29bd
00000340: 4044 c1bd 68c4 233d 09aa 92bd 6fef 25be
00000350: 1f24 c1bd 51cd 67bd a24f d3bc 28b2 0ebe
00000360: 8a09 9f3c a899 98bd 4930 a7bd 8841 99bc
00000370: 7682 563e 5015 ef3d 6fe4 083e afa5 f03d
00000380: 65d3 213e adc1 863d 6216 703d 1c17 f13d
00000390: d449 95bd 5019 6abe 898f 57be c4e0 0bbe
000003a0: 25d4 8dbd 404e bebd f821 bfbd 109e b73c
000003b0: 75d6 15bd 1ae8 063d b0b2 2b3c 0568 a6bd
000003c0: 2eec 2c3d 25b6 85bd ec99 d43d 9aa8 1d3e
000003d0: 40d0 5d3e 4409 223d 61e0 063d 7abb 50bd
000003e0: a2be c83c 85e8 833d da13 25bd 2c9c 4ebd
000003f0: 4a86 183d 9ddc a3bd a6bd b5bb 8b41 753d

enc.EncoderList.cell1.conv.bias f4 [8]
0.12756354 -0.14843528 -0.038307864 -0.13568564 -0.35554105 0.263635 0.1268319 0.25763234
00000000: 04a0 023e 6bff 17be b5e8 1cbd 2df1 0abe
00000010: 7a09 b6be 2bfb 863e 39e0 013e 63e8 833e

enc.EncoderList.cell1.activate.fcn.0.weight f4 [16, 16]
-0.024152942 0.11940171 -0.11809274 0.14692785 -0.015330663 -0.018199028 -0.015237529 0.30119208
0.22449768 -0.3266133 -0.23444661 -0.007318509 -0.08258853 0.062151354 0.067487985 -0.09896405
0.13279423 0.10654868 -0.03804361 0.16344376 0.27840328 0.17627183 -0.0017582282 -0.16686186
0.04723251 0.0047739106 0.21687333 -0.050605047 0.159065 -0.23347224 0.20562273 0.018101247
-0.2877753 -0.23179476 -0.19360046 0.13985372 -0.20307894 0.007581223 -0.02876074 -0.10201684
0.064693265 -0.05651813 -0.14331187 -0.3848339 -0.07394632 -7.970948e-06 -0.14938721 -0.056517627
0.21485466 0.34202176 0.10104726 -0.09241239 -0.23992598 0.12365709 -0.13064937 0.17516695
0.06061079 0.029428072 0.2166594 0.21406275 0.13386664 -0.17971171 0.3295116 -0.18191575
-0.23401587 0.1318181 0.3780674 0.121733405 0.036536783 -0.1669932 0.012899121 0.21076109
0.14586884 0.024167096 -0.10607922 -0.04583114 0.051035367 -0.055057723 0.1860704 -0.07357391
0.33366954 0.118002154 0.043631725 0.019330213 0.17012557 0.19162701 0.12686215 -0.06384669
-0.25366014 -0.15294343 -0.008085296 -0.12495407 0.04164263 0.036877263 0.17046224 0.12620386
-0.07261636 -0.1199813 -0.12414215 -0.18072145 0.24253532 0.18582344 0.13118984 0.066805646
0.2487122 0.031207422 -0.133788 0.009808834 -0.01271008 -0.09684802 -0.13487968 0.35213146
0.17872272 0.04534658 0.29135814 0.027765939 -0.27948785 0.18388912 -0.1079205 0.06733726
-0.15871137 -0.0076004807 -0.2589169 -0.009872996 0.22277711 -0.096104346 0.01761045 0.09666697
-0.2051156 -0.110566154 0.24005611 -0.153716 -0.1564543 -0.18542975 -0.069682114 -0.1692521
-0.092370406 0.087828934 0.11545034 -0.025486326 -0.17091563 -0.0949419 -0.1424869 -0.07624735
-0.2520726 0.14317589 -0.25058585 -0.17754944 -0.2903452 0.12035379 0.0454557 -0.18667376
0.12756182 0.21291061 0.15179297 -0.28645405 -0.22242236 -0.075988136 0.21032566 -0.024595262
-0.057002705 -0.08709147 -0.24387778 -0.062756166 -0.07222017 0.2461166 0.037709493 0.018284114
0.16398567 -0.14143853 0.17445107 0.03762991 0.12699558 -0.08516488 0.1735892 0.0029463915
-0.18626769 0.16587615 0.24169922 0.35568047 0.037309244 -0.10429156 0.15439798 0.19178975
-0.20678863 -0.0060184714 -0.19602889 0.00753034 0.073803596 -0.09796924 -0.06786424 -0.044815697
-0.04350089 -0.30740798 0.12356108 -0.2391999 -0.05924945 -0.042600915 0.032011714 -0.24151962
0.21320204 0.008766717 -0.110202275 0.0590985 -0.13427463 0.0040711425 -0.20788799 -0.001352146
-0.1531373 -0.031633444 0.06676538 -0.20031375 -0.10921847 -0.14434092 0.07908051 -0.035499945
-0.16379529 0.10573462 0.15367958 0.23155867 -0.14552312 -0.13401875 -0.17525162 -0.18978414
-0.041506086 -0.114310265 0.09879039 -0.102564454 -0.07894411 -0.22107321 0.15747078 -0.24292514
-0.030471874 -0.06544288 -0.02084135 0.31169626 0.23240913 -0.12074137 0.038484257 0.043030422
-0.1612604 0.25258693 -0.104690984 -0.08599876 -0.10229022 -0.30383924 -0.035107616 -0.060544424
0.019864198 -0.07115712 0.2952332 0.021483198 -0.12042582 -0.024525218 0.27841318 0.07346656
00000000: 64dc c5bc e288 f43d 9bda f1bd 4174 163e
00000010: 762d 7bbc 2116 95bc d4a6 79bc d935 9a3e
00000020: b8e2 653e dc39 a7be c612 70be 1ad0 efbb
00000030: 2d24 a9bd 6b92 7e3d 2437 8a3d aaad cabd
00000040: 36fb 073e 3236 da3d 9ed3 1bbd cd5d 273e
00000050: e08a 8e3e 9a80 343e 5974 e6ba d6dd 2abe
00000060: e076 413d 776e 9c3b 0b14 5e3e 3d47 4fbd
00000070: efe1 223e 5913 6fbe c48e 523e 1149 943c
00000080: 4957 93be 9b5b 6dbe 333f 46be d035 0f3e
00000090: edf3 4fbe e86b f83b a59b ebbc 34ee d0bd
000000a0: e77d 843d 8e7f 67bd 59c0 12be f308 c5be
000000b0: 2b71 97bd f6ba 05b7 f6f8 18be 077f 67bd
000000c0: dc02 5c3e 7a1d af3e def1 ce3d b542 bdbd
000000d0: 28af 75be ee3f fd3d f3c8 05be f75e 333e
000000e0: 0543 783d 2413 f13c f6db 5d3e 4433 5b3e
000000f0: 5614 093e 5906 38be bfb5 a83e 1f48 3abe
00000100: dba1 6fbe 53fb 063e 0d92 c13e 5d4f f93d
00000110: 98a7 153d 4400 2bbe d656 533c c1d1 573e
00000120: a45e 153e 13fa c53c 1040 d9bd 6fb9 3bbd
00000130: 760a 513d 3584 61bd 3d89 3e3e ebad 96bd
00000140: bcd6 aa3e 1dab f13d 2eb7 323d 655a 9e3c
00000150: 6635 2e3e df39 443e 27e8 013e 0ec2 82bd
00000160: bedf 81be 349d 1cbe 3078 04bc ebe7 ffbd
00000170: 7691 2a3d 9d0c 173d a78d 2e3e 963b 013e
00000180: e3b7 94bd c1b8 f5bd 3d3e febd 0b0f 39be
00000190: 2e5b 783e 8048 3e3e a156 063e 66d1 883d
000001a0: 69ae 7e3e b5a6 ff3c b9ff 08be 3bb5 203c
000001b0: f03d 50bc 4158 c6bd e61d 0abe 934a b43e
000001c0: 1703 373e 56bd 393d e52c 953e 6575 e33c
000001d0: 0819 8fbe 6e4d 3c3e 6c05 ddbd 1ee8 893d
000001e0: 3c85 22be 740d f9bb c290 84be 59c2 21bc
000001f0: af1f 643e 5bd2 c4bd ca43 903c 55f9 c53d
00000200: d309 52be 8270 e2bd 45d1 753e ba67 1dbe
00000210: 8e35 20be 4ce1 3dbe 7fb5 8ebd 6c50 2dbe
00000220: b22c bdbd a8df b33d 3a71 ec3d b3c8 d0bc
00000230: 8204 2fbe e670 c2bd 16e8 11be 9227 9cbd
00000240: a90f 81be b39c 123e ca4c 80be 85cf 35be
00000250: 20a8 94be 0c7c f63d c22f 3a3d 6827 3fbe
00000260: 919f 023e 3d05 5a3e 9e6f 1b3e 1baa 92be
00000270: b0c2 63be ab9f 9bbd 9c5f 573e 017c c9bc
00000280: ab7b 69bd 035d b2bd 19bb 79be 4e86 80bd
00000290: 2be8 93bd fd05 7c3e 4575 1a3d 91c8 953c
000002a0: dceb 273e 43d5 10be 4da3 323e d221 1a3d
000002b0: 210b 023e ed6a aebd 5ec1 313e 3f18 413b
000002c0: f5bc 3ebe 70db 293e 0080 773e c01b b63e
000002d0: 94d1 183d d096 d5bd 811a 1e3e 8864 443e
000002e0: 66c0 53be 9936 c5bb ccbb 48be 12c1 f63b
000002f0: 5726 973d 19a4 c8bd 68fc 8abd aa90 37bd
00000300: fd2d 32bd 9464 9dbe 970d fd3d d2f0 74be
00000310: 8daf 72bd 4c7e 2ebd b71e 033d eb50 77be
00000320: a351 5a3e 47a2 0f3c bbb1 e1bd 4511 723d
00000330: 4a7f 09be 3867 853b 97e0 54be 7e3a b1ba
00000340: 06d0 1cbe 1292 01bd 4abc 883d 0c1f 4dbe
00000350: efad dfbd 1bce 13be f6f4 a13d 6468 11bd
00000360: f4b9 27be 648b d83d 2e5e 1d3e b71d 6d3e
00000370: 0304 15be 363c 09be 2975 33be c656 42be
00000380: 4902 2abd 801b eabd 9e52 ca3d 500d d2bd
00000390: 73ad a1bd 0461 62be 0540 213e 5ec1 78be
000003a0: 27a0 f9bc eb06 86bd 7bbb aabc a796 9f3e
000003b0: a9fc 6d3e 4047 f7bd aba1 1d3d ab40 303d
000003c0: 7221 25be 1353 813e 3a68 d6bd 1e20 b0bd
000003d0: 897d d1bd d190 9bbe 01cd 0fbd 6efd 77bd
000003e0: 3eba a23c d3ba 91bd ce28 973e 88fd af3c
000003f0: d0a1 f6bd 1ce9 c8bc 2c8c 8e3e a375 963d

enc.EncoderList.cell1.activate.fcn.0.bias f4 [16]
-0.032917205 -0.10556441 -0.06972539 -0.19667086 -0.19208276 0.13181248 0.21735275 0.23877971
-0.18424635 0.12341703 -0.15649605 0.14750208 0.18279558 0.19501722 0.17500123 0.15683064
00000000: 31d4 06bd 2732 d8bd 2fcc 8ebd 1664 49be
00000010: 58b1 44be daf9 063e b891 5e3e ab82 743e
00000020: 13ab 3cbe 11c2 fc3d 8040 20be c90a 173e
00000030: c42e 3b3e 98b2 473e 8633 333e 3698 203e

enc.EncoderList.cell1.activate.fcn.1.weight f4 [16]
1.1002083 0.88030356 0.9460912 0.9589727 1.0178641 1.0248146 1.046261 1.006002
1.0170029 1.0733359 0.96585727 1.0008891 1.1018441 0.9087731 1.0331153 1.045263
00000000: a0d3 8c3f 935b 613f 0833 723f 3c7f 753f
00000010: 5f49 823f 202d 833f e1eb 853f acc4 803f
00000020: 272d 823f 1263 893f 6c42 773f 221d 803f
00000030: 3a09 8d3f 5ba5 683f 1f3d 843f 2ecb 853f

enc.EncoderList.cell1.activate.fcn.1.bias f4 [16]
0.21451674 -0.16119479 -0.09721368 0.084424786 -0.037634335 0.3233845 0.065138906 -0.06970408
-0.09785112 0.07767061 0.05757026 -0.027854705 0.099446625 0.15138014 -0.0013213622 0.13814268
00000000: 47aa 5b3e 3f10 25be f717 c7bd e7e6 ac3d
00000010: 7626 1abd a792 a53e 8c67 853d 03c1 8ebd
00000020: 2b66 c8bd c511 9f3d cbce 6b3d 8d2f e4bc
00000030: acaa cb3d 6503 1b3e 8f31 adba 4675 0d3e

enc.EncoderList.cell1.activate.fcn.1.running_mean f4 [16]
0.38786805 -0.058080442 -0.09306987 -0.117289454 -0.12675127 0.5816869 0.30028602 0.5554769
-0.46983624 -0.12366609 -0.20599344 0.4656503 -0.012767613 -0.020643124 -0.2683225 -0.2780926
00000000: a496 c63e c2e5 6dbd 6a9b bebd 7435 f0bd
00000010: 16cb 01be 6fe9 143f 17bf 993e bc33 0e3f
00000020: 608e f0be a644 fdbd f2ef 52be b769 ee3e
00000030: 402f 51bc c51b a9bc 9161 89be 2762 8ebe

enc.EncoderList.cell1.activate.fcn.1.running_var f4 [16]
0.037427593 0.032963865 0.01592311 0.012468955 0.048462987 0.031817842 0.05918681 0.024951233
0.06093141 0.020640643 0.016992766 0.107755594 0.008226314 0.073715076 0.1335776 0.0542792
00000000: ad4d 193d 1e05 073d 2f71 823c 964a 4c3c
00000010: 2081 463d 6d53 023d de6d 723d 8766 cc3c
00000020: 3793 793d 9116 a93c 6a34 8b3c f7ae dc3d
00000030: a9c7 063c eef7 963d 91c8 083e de53 5e3d

enc.EncoderList.cell1.activate.fcn.3.weight f4 [8, 16]
-0.08608213 0.09026847 -0.14790428 0.075269975 -0.09318711 0.021586219 -0.26232344 -0.057415165
-0.1923922 -0.19491175 -0.18233098 -0.26358378 0.07178352 0.07634443 0.30827132 0.11814597
-0.1611767 -0.19892901 0.07227218 0.12505524 -0.24403608 0.0013314176 0.25542727 0.024318608
-0.21986556 0.19158596 0.13741377 0.12386499 -0.3351326 0.11652137 -0.25376517 0.25143126
-0.28316838 0.15893242 0.0703768 0.018845582 0.042014442 0.087437585 -0.06299219 -0.1660496
0.10139536 0.2701405 -0.21554622 0.16598105 -0.088749364 0.22662383 0.25229523 0.24663661
-0.18217152 -0.20789233 -0.05865042 -0.18973002 0.12861046 -0.46267372 0.04517727 0.10048369
0.2815662 0.083332 -0.25588235 0.13945313 -0.124482185 -0.09082153 0.15670733 0.04521341
0.0035963561 0.1488945 -0.11358637 -0.20897363 -0.11839894 0.0142954495 0.08062431 -0.34994522
0.026615437 -0.07874115 0.015916158 -0.27648896 0.12950408 0.037786804 -0.16624111 0.2461016
0.18209969 0.010217267 -0.2356292 -0.019459302 0.38152805 0.081581816 -0.5536889 0.06624762
0.026684575 0.012590744 -0.14675008 0.0046787197 0.06623386 0.014189422 -0.08251434 0.1450966
-0.038315557 -0.13196744 0.0016854367 -0.16230926 -0.15484187 0.06772386 0.21316586 0.030818956
0.036818556 0.1725443 0.22609748 -0.102153465 -0.17790441 -0.002100718 -0.31903902 -0.17403321
0.17026046 -0.050166566 0.06282102 -0.0071562934 0.040137008 0.14133297 0.12152915 0.2479138
0.16062777 -0.30216154 -0.05849559 -0.19351676 -0.25776702 -0.10980989 -0.015902268 -0.0723902
00000000: d44b b0bd adde b83d 3874 17be 2527 9a3d
00000010: e2d8 bebd 95d5 b03c 424f 86be 2a2c 6bbd
00000020: 7602 45be f296 47be f9b4 3abe 74f4 86be
00000030: 3d03 933d 785a 9c3d bdd5 9d3e 84f6 f13d
00000040: 810b 25be 0cb4 4bbe 7003 943d 7b0e 003e
00000050: 98e4 79be f682 ae3a 5dc7 823e d137 c73c
00000060: 7024 61be 1c2f 443e 32b6 0c3e eeac fd3d
00000070: 8096 abbe c2a2 ee3d 82ed 81be 99bb 803e
00000080: 72fb 90be 2ebf 223e b621 903d 0d62 9a3c
00000090: 5617 2c3d 7a12 b33d 0d02 81bd e808 2abe
000000a0: 5fa8 cf3d db4f 8a3e 26b8 5cbe f0f6 293e
000000b0: 3ac2 b5bd 1410 683e d72c 813e 4f8e 7c3e
000000c0: 2c8b 3abe bae1 54be 6c3b 70bd 9648 42be
000000d0: 76b2 033e 92e3 ecbe cd0b 393d 65ca cd3d
000000e0: 7229 903e f8a9 aa3d 0303 83be cdcc 0e3e
000000f0: 84f0 febd a300 babd e377 203e b231 393d
00000100: d8b0 6b3b cd77 183e f99f e8bd 2ffd 55be
00000110: 257b f2bd 7637 6a3c 5c1e a53d 052c b3be
00000120: 9e08 da3c 0a43 a1bd 9a62 823c f68f 8dbe
00000130: b89c 043e 56c6 1a3d 1c3b 2abe 0f02 7c3e
00000140: 5778 3a3e 5366 273c c848 71be 1d69 9fbc
00000150: a557 c33e 5e14 a73d 8ebe 0dbf d5ac 873d
00000160: 9c99 da3c 6849 4e3c a745 16be f24f 993b
00000170: 9ea5 873d c07a 683c 47fd a8bd 3494 143e
00000180: c6f0 1cbd 7922 07be dfe9 dc3a 6634 26be
00000190: de8e 1ebe cfb2 8a3d 2748 5a3e 0978 fc3c
000001a0: 0ecf 163d 74af 303e 1986 673e d635 d1bd
000001b0: 932c 36be 33ac 09bb 1559 a3be c335 32be
000001c0: c258 2e3e 757b 4dbd 4fa8 803d 577f eabb
000001d0: b466 243d 97b9 103e 46e4 f83d 1ddd 7d3e
000001e0: 9b7b 243e ebb4 9abe 1299 6fbd 4229 46be
000001f0: 0afa 83be 02e4 e0bd 7945 82bc 5041 94bd

enc.EncoderList.cell1.activate.fcn.3.bias f4 [8]
-0.12518215 -0.08414798 -0.09018835 0.24602585 -0.09895844 -0.17890616 0.10328791 -0.016697269
00000000: c02f 00be c755 acbd abb4 b8bd 33ee 7b3e
00000010: b9aa cabd 2d33 37be 9d88 d33d b6c8 88bc

enc.EncoderList.cell1.activate.fcn.4.weight f4 [8]
0.758046 0.7944274 0.97014433 0.80827624 0.62321365 1.0886139 0.8115942 0.6925678
00000000: 4d0f 423f 985f 4b3f 615b 783f 31eb 4e3f
00000010: ee8a 1f3f b357 8b3f a3c4 4f3f 204c 313f

enc.EncoderList.cell1.activate.fcn.4.bias f4 [8]
0.27945536 -0.20425777 0.47556293 0.09507102 0.041082535 0.2387089 0.19240962 0.312622
00000000: c614 8f3e f328 51be fc7c f33e 98b4 c23d
00000010: 2946 283d 1b70 743e 0707 453e fe0f a03e

enc.EncoderList.cell1.activate.fcn.4.running_mean f4 [8]
-0.4076853 -0.09985534 0.2202822 -0.061808836 -0.2859983 -0.1570853 -0.07948182 -0.090088405
00000000: 21bc d0be f580 ccbd a891 613e 432b 7dbd
00000010: 5f6e 92be f8da 20be 5dc7 a2bd 4580 b8bd

enc.EncoderList.cell1.activate.fcn.4.running_var f4 [8]
0.23935418 0.21601173 0.6534522 0.3468206 0.27984938 0.31353962 0.62855047 0.3075344
00000000: 4319 753e 2e32 5d3e a548 273f 7892 b13e
00000010: 6b48 8f3e 4488 a03e afe8 203f 2675 9d3e

enc.EncoderList.cell1.bn.weight f4 [8]
0.8478416 0.7956562 0.84800565 0.8268675 0.9107634 0.77486175 0.7964882 0.7557141
00000000: 260c 593f 20b0 4b3f e616 593f 97ad 533f
00000010: ca27 693f 575d 463f a7e6 4b3f 7b76 413f

enc.EncoderList.cell1.bn.bias f4 [8]
0.17438717 -0.28565788 0.15133709 -0.37449324 -0.065479636 -0.060267292 -0.25312534 0.26490426
00000000: 8d92 323e c041 92be 1cf8 1a3e 94bd bfbe
00000010: 301a 86bd d6da 76bd a599 81be 88a1 873e

enc.EncoderList.cell1.bn.running_mean f4 [8]
0.41607857 -0.030144334 0.093420066 0.09332544 -0.12294474 0.43568823 0.26951888 0.5032542
00000000: 4008 d53e 40f1 f6bc 0553 bf3d 6921 bf3d
00000010: 74ca fbbd 8712 df3e 61fe 893e 44d5 003f

enc.EncoderList.cell1.bn.running_var f4 [8]
0.472385 0.4521269 0.58278215 0.4358866 0.3147445 1.1091195 0.43098307 0.61048716
00000000: 72dc f13e 2d7d e73e 3631 153f 872c df3e
00000010: 3126 a13e a1f7 8d3f d0a9 dc3e e348 1c3f

enc.EncoderList.cell2.conv.weight f4 [16, 8, 3]
0.10778587 0.1992622 0.24960676 -0.19888557 0.1672527 0.22367053 -0.0038474493 0.21628825
0.1794731 -0.032962304 -0.11792507 -0.1823667 -0.20881738 0.062420744 0.08537271 -0.06543043
0.12747541 -0.12437754 0.112485036 0.12470605 0.049901158 -0.07292491 0.07103951 0.065404184
-0.01953207 0.022668296 0.1857647 0.05144163 -0.017042581 0.027762765 0.016642706 0.21402982
-0.046929166 -0.008130335 0.023116054 -0.0061463444 0.19454451 -0.048776656 -0.1800302 0.057730123
-0.016978739 0.072640456 0.071558274 -0.26084384 -0.0277277 -0.06448349 -0.055584952 0.25864577
-0.05479519 0.08833309 0.034346025 -0.26716042 -0.071085416 0.04286377 -0.21399264 -0.13231957
-0.028445069 0.03982985 -0.13514376 0.086423546 0.030107137 -0.19722639 0.0855297 0.10745981
-0.038586974 0.0951487 -0.110187024 0.1408047 0.25612542 0.12268983 0.21049702 0.26402223
-0.12039862 0.0110451635 0.03599233 -0.110022075 -0.13287537 0.23603934 0.015554157 -0.24768625
0.11925869 0.042854685 0.2365699 0.27401224 0.19805491 0.13355008 0.13933276 0.1817752
-0.16308059 -0.038891327 -0.029395077 0.07025822 -0.11612342 0.16025215 0.0441172 0.03982337
-0.05391281 0.19695267 0.13844313 -0.17658044 -0.029054418 -0.0358092 0.1305233 0.21404186
0.012229424 -0.09550228 0.030885756 -0.27633646 -0.05146734 -0.01514508 -0.15757798 0.039755598
-0.16455325 -0.029485816 0.0006133213 0.006908499 -0.19267309 -0.21935506 0.073944226 0.2196465
-0.24684331 0.15755707 -0.046427224 -0.032618668 0.17059602 0.14785631 -0.1687506 0.21267155
0.27363104 -0.05850872 0.12247677 -0.035608966 -0.15677851 -0.10326798 0.06461506 0.028777344
0.035830587 -0.12484799 -0.14452928 0.0164415 -0.19354515 -0.026340172 0.005644567 -0.108097725
0.07500203 -0.0015206449 0.07317289 -0.09909481 -0.11800166 0.18258712 -0.016336368 -0.1303114
-0.24865676 0.1345889 -0.21050957 -0.053608604 0.28668284 -0.058750216 -0.24125253 -0.17321809
0.20177135 0.2055613 0.061937712 0.26118335 -0.09292015 -0.29461738 -0.005593546 0.10426966
0.23924623 -0.17494828 0.087977 0.13778313 0.28768653 -0.2136502 0.14991777 -0.22947071
0.28449893 0.015093217 -0.14528477 0.06391145 -0.075629584 -0.3395277 -0.12806916 -0.016652951
0.12873441 -0.09559684 0.106328115 0.047718003 -0.041525956 0.09269102 -0.1047285 -0.08051602
-0.1465214 -0.023061657 -0.009921416 -0.034939248 -0.024391487 -0.04070111 0.014452966 0.01953999
-0.07735035 0.035609882 0.07512573 0.19353628 0.023353167 -0.10305018 -0.14279586 0.02541886
-0.09386131 0.037566952 -0.068520136 0.06953938 0.09737607 0.11558924 -0.045233723 -0.14597896
0.057393625 -0.1821982 -0.099426545 -0.15069917 -0.3368517 -0.31481284 0.21718661 0.14878151
0.07831111 0.06888987 -0.2825872 -0.15604588 0.018665321 -0.0075882077 -0.06874244 0.051444173
-0.13852088 -0.05668065 -0.07131883 -0.12961158 -0.08299301 -0.046226617 0.15540904 0.14859746
-0.07312863 -0.06748716 -0.09106292 -0.092748605 0.26484853 0.26466134 -0.011903857 -0.13970912
0.09020996 0.11737174 0.23166129 -0.01987618 -0.21875153 0.00874243 -0.06636949 0.05248029
00000000: d7be dc3d 640b 4c3e ea98 7f3e a9a8 4bbe
00000010: 4b44 2b3e e309 653e 7d25 7cbb ab7a 5d3e
00000020: ccc7 373e 7b03 07bd b382 f1bd 56be 3abe
00000030: 39d4 55be e5ac 7f3d e3d7 ae3d 6400 86bd
00000040: ea88 023e a7b9 febd 8e5e e63d e365 ff3d
00000050: 2865 4c3d a859 95bd 2a7d 913d a1f2 853d
00000060: b801 a0bc ddb2 b93c 1a39 3e3e 75b4 523d
00000070: e29c 8bbc bd6e e33c 4956 883c a22a 5b3e
00000080: cc38 40bd 1935 05bc e15d bd3c 4667 c9bb
00000090: ad36 473e 08ca 47bd d659 38be 6c76 6c3d
000000a0: ff16 8bbc 85c4 943d 258d 923d 538d 85be
000000b0: 3425 e3bc ec0f 84bd 0cad 63bd 386d 843e
000000c0: ec70 60bd fbe7 b43d 6bae 0c3d 40c9 88be
000000d0: 3b95 91bd ec91 2f3d e320 5bbe c87e 07be
000000e0: a205 e9bc a024 233d 2063 0abe d4fe b03d
000000f0: 3ea3 f63c b7f5 49be 322a af3d e413 dc3d
00000100: 600d 1ebd 52dd c23d bca9 e1bd 1b2f 103e
00000110: df22 833e ce44 fb3d 888c 573e ec2d 873e
00000120: 8d93 f6bd c6f6 343c b26c 133d 4153 e1bd
00000130: 7b10 08be 4cb4 713e ddd6 7e3c 77a1 7dbe
00000140: e63d f43d 6588 2f3d 613f 723e 554b 8c3e
00000150: e8ce 4a3e 5ac1 083e 3fad 0e3e 4723 3a3e
00000160: 99fe 26be 834c 1fbd f2cd f0bc 8be3 8f3d
00000170: 1ed2 edbd 2419 243e 3db4 343d d41d 233d
00000180: aed3 5cbd f6ad 493e 09c4 0d3e 81d1 34be
00000190: 8803 eebc abac 12bd e6a7 053e ca2d 5b3e
000001a0: ec5d 483c b396 c3bd 2004 fd3c f97b 8dbe
000001b0: 6bcf 52bd 1223 78bc 1f5c 21be c4d6 223d
000001c0: a680 28be 3d8c f1bc 4cc7 203a b160 e23b
000001d0: 184c 45be 9d9e 60be 1270 973d 03eb 603e
000001e0: 7ec4 7cbe a456 213e 792a 3ebd 279b 05bd
000001f0: b9b0 2e3e a567 173e f5cc 2cbe 92c6 593e
00000200: 5e19 8c3e d7a6 6fbd 1ad5 fa3d b5da 11bd
00000210: 8c8a 20be 2a7e d3bd e754 843d 77be eb3c
00000220: 18c3 123d 4eb0 ffbd 7cff 13be 53b0 863c
00000230: b330 46be 58c7 d7bc 0ff6 b83b 5762 ddbd
00000240: aa9a 993d 6050 c7ba abdb 953d 38f2 cabd
00000250: dbaa f1bd 1ef8 3a3e d9d3 85bc 5a70 05be
00000260: e19f 7ebe acd1 093e d28f 57be b294 5bbd
00000270: 18c8 923e 11a4 70bd e70a 77be 1560 31be
00000280: 269d 4e3e a97e 523e 66b2 7d3d d3b9 853e
00000290: eb4c bebd 17d8 96be 114a b7bb 558b d53d
000002a0: f7fc 743e a425 33be 492d b43d 0517 0d3e
000002b0: a64b 933e 1ec7 5abe 0b84 193e 5ffa 6abe
000002c0: d8a9 913e 8a49 773c 88c5 14be 02e4 823d
000002d0: afe3 9abd 93d6 adbe 9024 03be c56b 88bc
000002e0: f4d2 033e 47c8 c3bd 8ec2 d93d f473 433d
000002f0: 1f17 2abd cad4 bd3d e57b d6bd 95e5 a4bd
00000300: b509 16be cdeb bcbc 6f8d 22bc 751c 0fbd
00000310: a8d0 c7bc 35b6 26bd 22cc 6c3c 5412 a03c
00000320: dc69 9ebd abdb 113d 85db 993d 602e 463e
00000330: 244f bf3c f90b d3bd 1439 12be 373b d03c
00000340: 5c3a c0bd cedf 193d 4954 8cbd aa6a 8e3d
00000350: 1b6d c73d 0dba ec3d ff46 39bd 827b 15be
00000360: 9415 6b3d 2a92 3abe 25a0 cbbd e250 1abe
00000370: d377 acbe 262f a1be 2b66 5e3e 2e5a 183e
00000380: 9361 a03d 2216 8d3d 45af 90be 7eca 1fbe
00000390: 04e8 983c 80a6 f8bb d6c8 8cbd 20b7 523d
000003a0: 6bd8 0dbe f829 68bd 9b0f 92bd e6b8 04be
000003b0: 3df8 a9bd 1f58 3dbd 8c23 1f3e ef29 183e
000003c0: 77c4 95bd b536 8abd 327f babd fbf2 bdbd
000003d0: 3a9a 873e b181 873e 6508 43bc e80f 0fbe
000003e0: 00c0 b83d 9860 f03d 9e38 6d3e 5fd3 a2bc
000003f0: 6700 60be 693c 0f3c baec 87bd 93f5 563d

enc.EncoderList.cell2.conv.bias f4 [16]
-0.11464144 -0.12738964 0.21690919 -0.29939264 -0.047814064 -0.14415441 -0.088151835 -0.016859895
-0.5839768 0.3808444 -0.3645978 -0.31876877 -0.2550075 0.22731502 -0.10343738 -0.08610358
00000000: 22c9 eabd 6e72 02be 711d 5e3e fe49 99be
00000010: aed8 43bd 379d 13be f388 b4bd c31d 8abc
00000020: 817f 15bf 0afe c23e 90ac babe a935 a3be
00000030: 5890 82be 45c5 683e fad6 d3bd 1357 b0bd

enc.EncoderList.cell2.activate.fcn.0.weight f4 [32, 32]
0.032585155 0.1604809 0.10391918 0.11122539 -0.020041145 -0.1376786 0.21826471 -0.1569177
-0.04400573 0.15902212 0.18924308 -0.10085037 -0.045571454 0.024588205 0.13114752 0.060075942
0.18079774 -0.023828862 0.1170709 -0.12639672 0.062060606 -0.0064977384 0.05882203 -0.1844924
-0.07108819 -0.005881543 -0.1959169 -0.19694903 -0.2536121 -0.08168339 0.12209316 0.0864768
-0.04068149 0.15321448 -0.061397262 -0.061202865 0.01726242 -0.1251547 0.21498337 -0.10344843
0.007053672 -0.051688123 -0.0071696993 -0.08176217 0.10360699 -0.13865738 0.10710639 -0.071582384
0.050017986 -0.16651791 0.16946037 -0.12161181 -0.046942577 -0.035831276 0.17852262 0.0076157544
-0.17133027 -0.007572313 -0.08049963 0.105255045 0.15207016 -0.069599494 -0.118562154 0.18379255
-0.17949046 0.09914243 0.1789865 -0.055672895 0.0007289631 -0.32947475 0.19516733 0.016092334
-0.12704284 -0.1260955 0.121985205 0.07658897 -0.05464656 0.067866854 -0.046480693 0.17335834
-0.089198366 0.029806383 -0.0011206685 0.007893872 0.172739 0.18998033 -0.01767734 -0.0023294305
0.05998444 0.20503661 0.072891414 -0.16191591 -0.038263455 0.14855567 0.18843403 -0.04269784
0.06664567 -0.012451472 0.23412097 0.026067471 -0.057563495 0.14876367 0.06558076 0.030673407
-0.0516719 0.20730188 0.19645563 -0.12114014 -0.053641465 0.017833816 -0.027257537 -0.06254046
0.046275 0.16969512 -0.2546086 -0.09254206 -0.013047638 0.07478079 0.04917173 -0.18897182
-0.034752153 -0.019639397 -0.22912005 0.115931004 0.21608226 -0.026434332 0.0662998 -0.060453884
0.064573854 -0.017519366 -0.11290245 0.19575277 -0.0009212586 0.07510844 -0.24966104 0.11755852
0.29254124 0.09079247 0.081154816 0.24925448 0.07556386 0.068264335 0.1653521 0.1467653
-0.10740932 0.10528726 0.010108522 -0.04365385 0.09237712 -0.04785429 0.12861736 0.29147023
-0.19220127 -0.18661101 -0.12962538 -0.07559297 -0.23528512 -0.078514345 -0.04390392 0.070336945
0.12589908 0.18502341 0.085604936 -0.054010995 -0.025067238 -0.08490566 0.056239203 -0.040137917
0.061755605 -0.08933073 -0.05835232 -0.26982912 0.19893444 0.08797792 -0.030960862 0.069410525
0.10468454 -0.01132044 0.16457285 0.13702329 -0.15100834 -0.19639313 0.056806944 -0.089716
-0.19821855 0.11786968 -0.008534909 -0.17975052 -0.08686892 -0.062280457 0.21350588 0.029164752
-0.17143884 -0.24848032 0.08156661 -0.104888104 -0.11440352 -0.037798475 -0.07085098 -0.04674401
0.13914591 -0.05069144 -0.1391314 -0.07577143 -0.07315045 0.15388931 -0.062749095 0.18127285
0.05981785 -0.030197639 -0.12229693 0.27405182 -0.12591018 0.20039596 0.03200964 0.2588023
0.10477932 -0.01530612 0.22620775 -0.031488407 -0.08345154 0.050458707 0.011084218 -0.07278204
0.041156523 -0.1007452 0.1798483 0.09944251 0.15783305 0.11922582 0.12356462 -0.1745929
-0.023917003 0.19574705 0.18876055 -0.05503511 -0.17310955 0.12923008 0.19896163 0.05065317
0.21345662 -0.19895555 0.02094733 -0.13616815 0.079591356 0.03767613 -0.07835287 0.28482106
-0.073381014 -0.15993142 -0.20342949 -0.11922284 -0.082631364 -0.17255914 0.14588526 0.04108473
00000000: 0378 053d 1b55 243e 94d3 d43d 23ca e33d
00000010: 542d a4bc 9efb 0cbe c980 5f3e 09af 20be
00000020: 5a3f 34bd b2d6 223e f0c8 413e a48a cebd
00000030: 22a9 3abd 346d c93c 894b 063e 3112 763d
00000040: 0b23 393e bf34 c3bc dec2 ef3d 246e 01be
00000050: 4333 7e3d fbea d4bb 5eef 703d 93eb 3cbe
00000060: af96 91bd f5b9 c0bb 719e 48be 02ad 49be
00000070: 72d9 81be 9f49 a7bd fb0b fa3d c01a b13d
00000080: a2a1 26bd 42e4 1c3e b27b 7bbd dbaf 7abd
00000090: eb69 8d3c 8e28 00be 9a24 5c3e c5dc d3bd
000000a0: 7d22 e73b edb6 53bd ccef eabb ed72 a7bd
000000b0: e72f d43d 33fc 0dbe 985a db3d c999 92bd
000000c0: a9df 4c3d ac83 2abe 0587 2d3e 9d0f f9bd
000000d0: dc46 40bd d1c3 12bd a2ce 363e 948d f93b
000000e0: 3471 2fbe 2a21 f8bb fddc a4bd f58f d73d
000000f0: 48b8 1b3e 2e8a 8ebd b7d0 f2bd 1d34 3c3e
00000100: 59cc 37be 300b cb3d 3d48 373e 4309 64bd
00000110: e317 3f3a eab0 a8be f2d9 473e 12d4 833c
00000120: 8517 02be 2e1f 01be 61d3 f93d aeda 9c3d
00000130: 12d5 5fbd c7fd 8a3d 8a62 3ebd d984 313e
00000140: a2ad b6bd 842c f43c 65e3 92ba 4d55 013c
00000150: 7ee2 303e 348a 423e 12d0 90bc 5ca9 18bb
00000160: 3fb2 753d 1ef5 513e 1848 953d 49cd 25be
00000170: 24ba 1cbd fa1e 183e daf4 403e eee3 2ebd
00000180: 867d 883d 4201 4cbc 68bd 6f3e 738b d53c
00000190: b3c7 6bbd 8155 183e 354f 863d cc46 fb3c
000001a0: eaa5 53bd f246 543e aa2b 493e 5218 f8bd
000001b0: 27b7 5bbd 3918 923c 334b dfbc 3615 80bd
000001c0: db8a 3d3d 8fc4 2d3e 0f5c 82be b186 bdbd
000001d0: c3c5 55bc ac26 993d 4c68 493d d481 41be
000001e0: 4658 0ebd cde2 a0bc 729e 6abe 3c6d ed3d
000001f0: ab44 5d3e d08c d8bc 31c8 873d 7e9e 77bd
00000200: 4c3f 843d c684 8fbc 6639 e7bd 6a73 483e
00000210: 9e80 71ba 74d2 993d 25a7 7fbe 85c2 f03d
00000220: f7c7 953e 67f1 b93d 7f34 a63d 913c 7f3e
00000230: 3ac1 9a3d 2cce 8b3d 1052 293e a549 163e
00000240: 6bf9 dbbd d9a0 d73d 379e 253c 61ce 32bd
00000250: 3730 bd3d dc02 44bd 45b4 033e 963b 953e
00000260: 69d0 44be f516 3fbe 84bc 04be 7dd0 9abd
00000270: 95ee 70be 21cc a0bd 99d4 33bd d10c 903d
00000280: b0eb 003e c776 3d3e a451 af3d a23a 5dbd
00000290: cf59 cdbc 05e3 adbd 145b 663d a867 24bd
000002a0: 72f3 7c3d 08f3 b6bd d802 6fbd 0b27 8abe
000002b0: 78b5 4b3e c52d b43d a2a1 fdbc 1b27 8e3d
000002c0: d964 d63d 5e79 39bc c985 283e d54f 0c3e
000002d0: eea1 1abe 481b 49be 66ae 683d 06bd b7bd
000002e0: cef9 4abe a965 f13d 01d6 0bbc 8510 38be
000002f0: 55e8 b1bd cb19 7fbd 49a1 5a3e ebea ee3c
00000300: aa8d 2fbe a071 7ebe 650c a73d 93cf d6bd
00000310: 654c eabd 93d2 1abd 521a 91bd a676 3fbd
00000320: 447c 0e3e d4a1 4fbd 7678 0ebe 0d2e 9bbd
00000330: e7cf 95bd 2995 1d3e 9982 80bd 979f 393e
00000340: 9003 753d 0a61 f7bc d076 fabd 8550 8c3e
00000350: 99ee 00be 9934 4d3e 8a1c 033d bc81 843e
00000360: 8a96 d63d 85c6 7abc 01a3 673e fdf9 00bd
00000370: a4e8 aabd caad 4e3d 949a 353c c00e 95bd
00000380: be93 283d 8053 cebd 272a 383e 84a8 cb3d
00000390: fd9e 213e ab2c f43d 730f fd3d 7bc8 32be
000003a0: 97ed c3bc ea71 483e 724a 413e 7f6c 61bd
000003b0: a143 31be e454 043e 99bc 4b3e b379 4f3d
000003c0: 5f94 5a3e 01bb 4bbe bc99 ab3c aa6f 0bbe
000003d0: cb00 a33d 4952 1a3d 7877 a0bd 11d4 913e
000003e0: c948 96bd 10c5 23be d24f 50be 1b2b f4bd
000003f0: a23a a9bd 58b3 30be f262 153e 7648 283d

enc.EncoderList.cell2.activate.fcn.0.bias f4 [32]
0.08633296 0.18072174 -0.085249454 -0.08341623 0.07825411 0.023885312 -0.023709182 0.12818651
-0.09698389 -0.006425715 0.12175643 0.068075985 -0.10860685 0.038597398 -0.13992979 -0.089647755
0.11053003 -0.05025564 -0.089253224 0.010977241 0.04494196 -0.11506973 -0.11241914 -0.17240895
0.045132745 -0.1072336 0.014307738 -0.028367722 -0.11533439 -0.055361226 -0.13164137 -0.09914982
00000000: 56cf b03d 1f0f 393e 4497 aebd 21d6 aabd
00000010: b143 a03d 21ab c33c c239 c2bc 5343 033e
00000020: 7d9f c6bd ce8e d2bb 6f5b f93d 6c6b 8b3d
00000030: 456d debd 4e18 1e3d c149 0fbe 3e99 b7bd
00000040: 925d e23d dcd8 4dbd 65ca b6bd e3d9 333c
00000050: 1015 383d aea9 ebbd 023c e6bd f98b 30be
00000060: 1ddd 383d 4a9d dbbd 016b 6a3c 6d63 e8bc
00000070: 7034 ecbd 74c2 62bd ffcc 06be 100f cbbd

enc.EncoderList.cell2.activate.fcn.1.weight f4 [32]
1.0786995 1.0519464 1.0022974 1.0474901 0.8337214 0.9466615 0.8920645 0.94527394
1.2998158 0.9533676 0.92862475 1.0590184 0.96463186 1.0077465 1.1064177 1.0669124
0.8830088 0.86534727 1.0386014 1.119795 0.94830126 0.897271 1.02353 0.9954058
0.9786765 1.0017643 1.034364 1.1676391 1.1572255 1.0299098 1.0354496 1.0418452
00000000: d312 8a3f 2ea6 863f 484b 803f 2814 863f
00000010: c46e 553f 6858 723f 575e 643f 79fd 713f
00000020: 5d60 a63f e60f 743f 5aba 6d3f ea8d 873f
00000030: 1df2 763f d6fd 803f 189f 8d3f 9690 883f
00000040: dd0c 623f 6687 5d3f e4f0 843f 7155 8f3f
00000050: dfc3 723f 8db3 653f 0803 833f ead2 7e3f
00000060: 8b8a 7a3f d039 803f 0a66 843f 3375 953f
00000070: f71f 943f 16d4 833f 9d89 843f 2f5b 853f

enc.EncoderList.cell2.activate.fcn.1.bias f4 [32]
0.016581513 -0.11541884 0.1023875 -0.050377004 0.06505193 -0.01731878 0.019439118 -0.083147705
-0.14951134 -0.061150473 0.006038683 -0.07838339 -0.16546842 -0.0971325 -0.045162812 0.15069117
-0.090440206 0.063231826 0.059238255 -0.005238734 -0.038159974 0.0508369 0.020498747 -0.015432531
-0.2687508 0.087999806 0.055673815 -0.1075203 -0.03944699 0.0268496 0.05373392 0.044246867
00000000: f4d5 873c b660 ecbd 8ab0 d13d 1e58 4ebd
00000010: f239 853d 1de0 8dbc c93e 9f3c 5849 aabd
00000020: 8019 19be eb78 7abd 25e0 c53b 7987 a0bd
00000030: 8e70 29be 67ed c6bd a4fc 38bd c94e 1a3e
00000040: b738 b9bd b07f 813d d0a3 723d b0a9 abbb
00000050: a24d 1cbd 5a3a 503d fdec a73c bad8 7cbc
00000060: b499 89be 3e39 b43d 3a0a 643d 9a33 dcbd
00000070: 2b93 21bd b1f3 db3c 1918 5c3d 343c 353d

enc.EncoderList.cell2.activate.fcn.1.running_mean f4 [32]
0.7534583 0.12770866 -0.2508422 0.36083573 0.56122607 0.2058259 -0.554894 0.86670583
-0.35496777 0.49941185 -0.03136377 -0.33186162 -0.4519719 -0.33491912 0.21519025 -0.7247321
0.25598472 0.0028742165 0.0124833835 -0.37670782 0.35857534 0.25521663 -0.36895853 -0.65885067
-0.17075846 -0.05086986 -0.03170816 -0.3773886 -0.5071025 -0.42712614 -0.49955514 -0.13317789
00000000: a5e2 403f 0fc6 023e 646e 80be 76bf b83e
00000010: 83ac 0f3f 06c4 523e 880d 0ebf 6fe0 5d3f
00000020: 56be b5be e9b2 ff3e 4c77 00bd c4e9 a9be
00000030: dc68 e7be 857a abbe d55a 5c3e 0b88 39bf
00000040: 6e10 833e 5a5d 3c3b 1b87 4c3c d9df c0be
00000050: 3097 b73e c1ab 823e 22e8 bcbe 70aa 28bf
00000060: 4edb 2ebe ea5c 50bd 6ae0 01bd 1439 c1be
00000070: 78d1 01bf 47b0 dabe b1c5 ffbe c95f 08be

enc.EncoderList.cell2.activate.fcn.1.running_var f4 [32]
0.022968866 0.031492345 0.009117093 0.016039914 0.0052016303 0.027368607 0.02090965 0.015719991
0.013917885 0.053711116 0.043017156 0.014448273 0.015664302 0.029532785 0.013942271 0.010367007
0.025285656 0.024781624 0.013866509 0.018666212 0.015230205 0.015415046 0.018628486 0.02155423
0.034332912 0.01602361 0.011703691 0.009012036 0.01833681 0.008464031 0.014517151 0.012597754
00000000: 3429 bc3c 1efe 003d dc5f 153c 2366 833c
00000010: 7072 aa3b 2134 e03c b74a ab3c 36c7 803c
00000020: d707 643c 3000 5c3d c232 303d 73b8 6c3c
00000030: 6c52 803c bdee f13c 1f6e 643c 61da 293c
00000040: dd23 cf3c d502 cb3c 5b30 633c e2e9 983c
00000050: 1c88 793c 648f 7c3c c49a 983c 7f92 b03c
00000060: aba0 0c3d f243 833c d7c0 3f3c 38a7 133c
00000070: 1437 963c b8ac 0a3c 58d9 6d3c cf66 4e3c

enc.EncoderList.cell2.activate.fcn.3.weight f4 [16, 32]
-0.22401991 -0.28065366 0.005125122 0.29363504 -0.026380971 -0.13193658 -0.04974481 0.013415373
0.08671418 -0.18223077 -0.253629 0.03622665 -0.0317961 -0.15595885 0.08993288 -0.19733436
0.031730764 -0.011659885 0.017549537 0.11187405 -0.072685145 0.090840645 -0.087863095 0.025445106
-0.09604987 0.04089477 0.03726004 0.3209918 0.077253416 -0.08606068 0.19307259 0.09198283
0.2522995 0.07243398 -0.22559398 -0.07046592 0.13404335 -0.016111968 -0.009035794 0.048898283
-0.0697531 -0.004386853 0.027876021 -0.043932993 -0.018996133 -0.13951223 0.15729555 -0.18167377
-0.12907869 0.19951282 0.17156267 0.17286654 0.007800914 0.1491974 0.0036253862 -0.14709598
-0.102886096 0.024511078 0.31983313 -0.16118099 0.021400064 -0.20186564 -0.05553835 -0.12894581
0.074710615 0.21658556 0.09759105 -0.06492538 -0.081047066 0.03822047 0.12175241 -0.11247853
0.39293453 0.0620754 0.027454961 -0.07974383 0.015359167 -0.097084284 0.0494016 0.20758207
-0.07785309 0.064211145 -0.21650279 0.31293327 -0.13005999 0.118460305 0.26302308 0.13892785
0.21161628 0.078227386 0.08352479 0.08247239 0.062007215 -0.081576906 0.13158932 0.087788045
0.15194173 0.15468688 -0.1126595 0.3051448 -0.13964163 0.0085944645 0.012403749 0.0728126
-0.08407492 0.048203982 0.028985688 -0.15042084 -0.11756955 -0.19705644 0.06244788 -0.09575343
0.059120797 0.07857186 -0.12968081 -0.044789966 0.014533585 -0.044700276 0.15299782 -0.17244641
-0.14357775 0.002108585 -0.17269072 0.044938393 -0.283992 -0.2748331 -0.034568146 -0.037155047
-0.15737139 -0.18523097 -0.10537361 -0.028994907 0.1531954 0.16965264 0.10088732 -0.08981688
0.08675393 0.16334265 0.154107 -0.12915587 -0.05267933 -0.15544777 -0.0034619921 -0.01867336
0.18074898 0.022512484 0.02681896 -0.1356402 -0.17360173 -0.04275984 -0.17785385 -0.20554295
0.11201729 -0.2588284 -0.091811135 0.10068797 -0.025276046 -0.0726062 0.18275835 0.11776606
-0.19852388 -0.00082067907 0.057400357 -0.045088425 0.12996374 -0.15825385 0.22554733 -0.18329284
-0.3335663 0.06034075 -0.002147723 -0.068621755 0.065046765 -0.19364332 -0.1259701 0.14498375
0.09344459 0.02667389 0.22604613 -0.049164012 -0.05458275 -0.08573004 0.18163738 -0.1418835
0.03153584 0.089817904 -0.22683905 -0.08070207 -0.24736051 -0.018646015 0.05015898 0.01963074
-0.09826536 0.08502458 -0.20788538 -0.0035438759 0.08488774 -0.062890045 0.30294815 -0.12934451
0.041799307 0.09556186 0.12535578 -0.034922242 0.06568577 0.061784808 -0.12082121 0.067581445
0.0353646 0.1528171 -0.04968596 0.18710615 0.18407322 -0.017312074 -0.006805763 0.23881294
-0.08661192 -0.11012703 -0.16607183 0.018134285 0.04233948 0.024484754 0.19474016 -0.11622075
-0.13860953 0.1264042 -0.10095109 -0.023213588 -0.04435812 0.035306234 0.019371541 0.069728
-0.12351654 0.112934016 0.1264462 -0.04460641 -0.053344283 0.10143338 -0.061315775 0.22704256
0.036679476 -0.027131889 -0.11389697 -0.072047345 0.11060941 0.18877693 0.099179186 0.056793302
0.08892039 -0.012677388 -0.055512834 0.014958266 -0.29543647 0.42303655 0.12556897 0.1344822
00000000: 7a65 65be d6b1 8fbe a4f0 a73b 5557 963e
00000010: e81c d8bc 621a 07be 37c1 4bbd 27cc 5b3c
00000020: 3497 b13d b49a 3abe a9db 81be 6562 143d
00000030: a13c 02bd adb3 1fbe bb2e b83d 0512 4abe
00000040: 1ef8 013d 1a09 3fbc 0cc4 8f3c 391e e53d
00000050: f3db 94bd a90a ba3d 91f1 b3bd 4172 d03c
00000060: cbb5 c4bd 4681 273d fc9d 183d 0a59 a43e
00000070: 0a37 9e3d 9540 b0bd d2b4 453e 7e61 bc3d
00000080: 662d 813e 4458 943d 1c02 67be 7050 90bd
00000090: a942 093e 3ffd 83bc de0a 14bc 9149 483d
000000a0: b7da 8ebd 97bf 8fbb 415c e43c 15f3 33bd
000000b0: c79d 9bbc 4bdc 0ebe 1612 213e b008 3abe
000000c0: 342d 04be 174d 4c3e 20ae 2f3e ed03 313e
000000d0: cf9e ff3b 34c7 183e e397 6d3b 54a0 16be
000000e0: f2b5 d2bd 75cb c83c 2bc1 a33e a10c 25be
000000f0: 304f af3c deb5 4ebe 2e7c 63bd 5f0a 04be
00000100: e101 993d 9bc8 5d3e d1dd c73d 99f7 84bd
00000110: 01fc a5bd 118d 1c3d 5459 f93d 255b e6bd
00000120: b72e c93e c642 7e3d 3ae9 e03c bc50 a3bd
00000130: 04a5 7b3c 20d4 c6bd 5559 4a3d 6590 543e
00000140: 7171 9fbd 2281 833d e8b2 5dbe ca38 a03e
00000150: 722e 05be 519b f23d f6aa 863e 1a43 0e3e
00000160: f0b1 583e ae35 a03d 0c0f ab3d 49e7 a83d
00000170: 47fb 7d3d cb11 a7bd 5abf 063e 38ca b33d
00000180: 9d96 1b3e 3d66 1e3e 06ba e6bd f03b 9c3e
00000190: 37fe 0ebe cccf 0c3c 1839 4b3c c61e 953d
000001a0: 792f acbd 8a71 453d 6573 ed3c ec07 1abe
000001b0: 4ec8 f0bd 2ac9 49be 59c9 7f3d 601a c4bd
000001c0: a628 723d 49ea a03d 0ccb 04be af75 37bd
000001d0: 461e 6e3c a317 37bd 76ab 1c3e cb95 30be
000001e0: 0c06 13be 3030 0a3b d6d5 30be 5211 383d
000001f0: 6667 91be edb6 8cbe 5497 0dbd e42f 18bd
00000200: f725 21be 30ad 3dbe 1fce d7bd ba86 edbc
00000210: 41df 1c3e 6cb9 2d3e 039e ce3d eaf1 b7bd
00000220: 0bac b13d 4c43 273e 3ace 1d3e 7041 04be
00000230: 48c6 57bd b32d 1fbe 97e2 62bb e0f8 98bc
00000240: 4316 393e 1a6c b83c 70b3 db3c 44e5 0abe
00000250: a7c4 31be f124 2fbd 521f 36be da79 52be
00000260: 5269 e53d 2885 84be 7a07 bcbd 7f35 ce3d
00000270: b60f cfbc 8fb2 94bd 0125 3b3e 552f f13d
00000280: d849 4bbe d722 57ba a31c 6b3d a4ae 38bd
00000290: 3715 053e 4c0d 22be e1f5 663e 1eb1 3bbe
000002a0: 34c9 aabe dd27 773d d0c0 0cbb 9089 8cbd
000002b0: 3d37 853d 6f4a 46be 4efe 00be 9f76 143e
000002c0: e15f bf3d 3483 da3c a378 673e 3460 49bd
000002d0: 2992 5fbd 3b93 afbd 26ff 393e e949 11be
000002e0: ba2b 013d 73f2 b73d 7f48 68be 2047 a5bd
000002f0: 134c 7dbe 87bf 98bc 8173 4d3d a5d0 a03c
00000300: 593f c9bd 5e21 ae3d e8df 54be 5f40 68bb
00000310: a0d9 ad3d 7fcc 80bd 051c 9b3e e372 04be
00000320: c035 2b3d f0b5 c33d 445d 003e a00a 0fbd
00000330: 4386 863d 1112 7d3d 1c71 f7bd 2468 8a3d
00000340: 79da 103d 167c 1c3e 8183 4bbd c198 3f3e
00000350: b17d 3c3e 0dd2 8dbc e102 dfbb 618b 743e
00000360: 9761 b1bd 488a e1bd bc0e 2abe 5a8e 943c
00000370: 2a6c 2d3d 4094 c83c f769 473e 2505 eebd
00000380: a8ef 0dbe 1a70 013e 72bf cebd 6c2a bebc
00000390: dcb0 35bd 459d 103d 11b1 9e3c 8ecd 8e3d
000003a0: 3df6 fcbd f349 e73d 1d7b 013e 36b5 36bd
000003b0: 897f 5abd 4ebc cf3d 4026 7bbd d87d 683e
000003c0: 383d 163d b243 debc d142 e9bd 8f8d 93bd
000003d0: 3087 e23d bd4e 413e 751e cb3d 18a0 683d
000003e0: e51b b63d d2b4 4fbc 6d61 63bd 8413 753c
000003f0: 7343 97be 3f98 d83e 2795 003e b4b5 093e
