checkpoints/best_UNet_emb_snr_-4.pth (torch, 66906 bytes, 62 tensors)

EncList.0.conv.weight f4 [4, 2, 3]
00000000: 968d 5f3e 6da2 8d3e 64c6 c8bd b5dd 973e
00000010: 4bcb 9e3d 9493 c13e 0b02 aebe e19f 6e3d
00000020: a839 193e 4064 8bbd 0fe9 f13e ffdd 763e
00000030: c152 8b3e 330d e83d 9f67 983e 86c3 36be
00000040: 246f 163e d4c1 bdbd b507 a4be d609 3ebd
00000050: eeb6 66be b055 033c d131 e1bd 93f8 813e
0.21831354 0.27662984 -0.09803465 0.29661337 0.07753619 0.37807906 -0.33985934 0.05825794
0.149634 -0.068062305 0.47248122 0.24108122 0.27211574 0.113306426 0.29766557 -0.17848024
0.14690834 -0.092654854 -0.3203713 -0.0463961 -0.2253072 0.008016035 -0.1099583 0.2538496

EncList.0.conv.bias f4 [4]
00000000: 12fd a7be 3496 47be 7a83 02be 5176 7bbe
-0.32810265 -0.19490892 -0.12745467 -0.24556853

EncList.0.bn.weight f4 [4]
00000000: ad38 a03e 6da5 b23e 0596 393f 57e7 193f
0.3129324 0.34891835 0.72494537 0.6011862

EncList.0.bn.bias f4 [4]
00000000: 8e4f a23f f6cc e6bc ed24 573e 9d7b 58bd
1.2680528 -0.028173905 0.2101018 -0.05285226

EncList.0.bn.running_mean f4 [4]
00000000: 4e32 afbe 287a 46be c494 15be 6842 6bbe
-0.34218067 -0.19382536 -0.14607531 -0.2297455

EncList.0.bn.running_var f4 [4]
00000000: f973 2c3f dd1e c73e efb5 dd3e 5943 ab3e
0.6736446 0.38890734 0.43302867 0.3344982

EncList.1.conv.weight f4 [8, 4, 3]
00000000: 3c4b e53c ac5f 5d3e d5a6 3fbe 25da 31be
00000010: 41a8 153e b46a 6cbd 62ce 3cbd 4b11 5ebe
00000020: f121 853e 5bfc 1fbd b046 1fbe 0bc2 4cbe
00000030: f0dc 07bb eaed 413e 59d8 593d d934 373e
00000040: 3d57 d4bc 9c30 92bd b625 5d3e a1e4 11bd
00000050: 6b8c d5bd 5b20 d0bd 1c5b 563e 55c7 1a3e
00000060: afdd 94bd ead0 9c3d d7fc ffbc 802f 893d
00000070: 92ff 103e c9f5 b7bd 64d1 f33d 23db c33e
00000080: 3b0d 863c d746 52be 7023 3f3d 72f2 ebbe
00000090: 7829 823c 3bf7 9a3e 6b15 b03e 74ad 17be
000000a0: b994 13be 39f4 cf3d b342 cdbd 0e61 093e
000000b0: bad8 9b3d 976e 86be af83 cdbc db9a 38be
000000c0: bd80 ff3d 0b2b 3cbe 870e 64bd a82a 5c3e
000000d0: b840 5ebd f880 69bd 1675 8c3c 671c 7fbc
000000e0: 87f4 973e 32de 1e3e fb2b 0abe 63f1 f9be
000000f0: aa61 813d 12b3 9b3d 18da 023f 0f7d 453e
00000100: a9d8 423e c15c 2c3e a8f2 e9bc e80a f53c
00000110: 53fb 503d f4aa cebd 31c7 053e 9b22 a13d
00000120: 420f ce3d 6659 89be a801 0fbf 0545 69be
00000130: e320 f3bd 334d 3ebe f421 e13d ae9e 563c
00000140: 7dfe 2ebe 5cdf fcbd e76d 1a3e 1d3e c5bd
00000150: 9fec 253c 266f 4e3c 3428 15be 1c8c 243d
00000160: e021 c8bd cc5b 9bbd 10f8 1dbe 7dc2 90be
00000170: 64cf dd3c c070 383e f297 3ebd f98d 7c3e
0.027989976 0.21618527 -0.18715985 -0.17368372 0.14614965 -0.057718948 -0.04609526 -0.21686284
0.26002458 -0.039059024 -0.15554309 -0.19995897 -0.0020731054 0.18938413 0.05318484 0.17891254
-0.025920505 -0.07138178 0.21596417 -0.03561843 -0.10427173 -0.10162421 0.20933193 0.15115102
-0.07268845 0.07657035 -0.031248493 0.06698513 0.14159992 -0.08982427 0.119051725 0.38253126
0.01636373 -0.20534836 0.046664655 -0.4608341 0.015888914 0.30266747 0.3439134 -0.14812261
-0.14412202 0.10154004 -0.100224875 0.1341593 0.07609697 -0.26256248 -0.025087206 -0.18027823
0.12475727 -0.18375795 -0.055677917 0.21500647 -0.05426094 -0.05700776 0.017145675 -0.0155707365
0.29678747 0.15514448 -0.1349334 -0.48816976 0.06317456 0.07602514 0.51114035 0.19285987
0.19027962 0.16832258 -0.02855809 0.029912427 0.05102093 -0.100912005 0.13064267 0.078679286
0.10061504 -0.26826018 -0.558619 -0.22780235 -0.11871507 -0.18584137 0.10992804 0.013099356
-0.17089267 -0.1234729 0.15080987 -0.09630988 0.010127216 0.012599742 -0.14566118 0.04017268
-0.09772086 -0.07585868 -0.1542666 -0.28273383 0.02707643 0.1801176 -0.046531625 0.24663533

EncList.1.conv.bias f4 [8]
00000000: 60e0 8bbe fb1f 8dbe 96cd 33be bada c9bd
00000010: bbdd 4dbd 1431 76bd d374 e13d 618f 84be
-0.27319622 -0.27563462 -0.17558894 -0.09856172 -0.050260287 -0.0601054 0.110086106 -0.2589064

EncList.1.bn.weight f4 [8]
00000000: ff17 603f c286 3b3f 4959 553f 2d18 473f
00000010: d39a 583f 45ba 5e3f b51d 783f ee05 883f
0.87536615 0.732525 0.83339363 0.77771264 0.84611243 0.87002975 0.9692033 1.062681

EncList.1.bn.bias f4 [8]
00000000: 04de 053d b452 90bd f843 89bd 157d 7e3e
00000010: fb91 7abd 373e ed3d 8a5c 203d 5b2a cbbd
0.032682434 -0.07047024 -0.06702417 0.24852403 -0.061174374 0.11584132 0.039150752 -0.09920188

EncList.1.bn.running_mean f4 [8]
00000000: a3bd 92be 0ec3 ec3d 1333 e9bd 0e2c 2d3f
00000010: 07cb 25be 30d3 5c3f e892 66bf 5912 04bf
-0.28660306 0.11560641 -0.11386695 0.6764535 -0.1619073 0.86259747 -0.9006791 -0.51590496

EncList.1.bn.running_var f4 [8]
00000000: 390f ca3c 7237 523c 46cc 1b3e cb15 db3d
00000010: 3b12 873d 06e1 8c3d ea77 aa3d 8909 b03d
0.024665462 0.012830602 0.15214643 0.10697516 0.06595274 0.06878857 0.08323653 0.08595569

EncList.2.conv.weight f4 [16, 8, 3]
00000000: 1828 243e 7cf0 a63d a19b edbd 3582 5b3e
00000010: b3ef 83bd 7a5a 163e 2ecb 283e 3a27 09be
00000020: 3008 84bb 2f7f e9bc b695 893d 6d87 5abe
00000030: ebbb 9b3d a2bc 833c 8a78 a23d 7e57 f83d
00000040: 28a4 00be 74fe 8abb 50a0 e3bd c039 82bc
00000050: 3b08 fc3d 0fc8 703e cbb5 8e3e 3ad9 983e
00000060: 75f4 8639 1283 a2bd 75c3 ffbc 66a4 923d
00000070: a4e9 bf3c f9ff d63d 799a 83be 5bee 863e
00000080: df5a 00be 5ba8 773d 7839 443e 5c28 3abc
00000090: 9fa7 d63d 9ac4 bc3d c3f6 cbbc 4f5f 82bd
000000a0: cd6e 2f3e 961e 45bd d61c 0b3e 93ad 9ebe
000000b0: 81bb 993e dd34 433e 6737 8ebe 5c8d de3d
000000c0: e3e0 4fbd 1cea d93d cc81 30be dba8 4dbc
000000d0: 011a 21bd 4e43 703d 74f1 00be 3615 193d
000000e0: 72d7 e3bd db26 dcbd 6716 f0bd 2d10 acbb
000000f0: c7d6 e3b8 487b 033e 9425 133d c557 c6be
00000100: 71ee 70bd 1307 38be e231 5d3e aa1b 543e
00000110: 7778 d33d c2d3 c43c 4ea1 f7bd 40ff 793e
00000120: 6fb3 583d b185 633e ec1e 8ebd 34f7 fbbb
00000130: d0f1 08bd 6527 02be 36c1 6f3d eebb 62bd
00000140: b07e 8f3e 766d 583e 654b 293e ea95 f23d
00000150: 121f 743d b92f 833e f84d a73d 7adc e5bd
00000160: e494 35bd fec5 02be 576c 4fbd 3445 bfbd
00000170: 6187 df3d 839b 363e 18a0 cfbd 27bd aebe
00000180: 28be 15be e739 613c 23fc 69bc b28f 6c3c
00000190: 79c0 133e 1b36 7ebd 74e2 c9be 083d c3bc
000001a0: bcc3 a0bd ab57 84be 78f9 973c 2f31 903c
000001b0: 9253 71be e214 aabc f185 553c 7641 633d
000001c0: 3d52 ab3d 682c 33be 0d73 c43d dd6c 47be
000001d0: e07d b6bd b78a 2b3e dce8 1ebe c9bb 76bd
000001e0: 1686 603d 3f48 39be 8b7a 77be 2fcf b73d
000001f0: 148c 193e 764a a83d 7a20 433e 4270 aa3d
00000200: be2d 28bd c79c f2bd 3f2e b63d e04c ad3c
00000210: 47c6 bc3d eebc 2c3d ed1e 64be a86d 0d3d
00000220: c968 b7bd fba0 ca3c 73e1 09be d5cf 963d
00000230: 60dc 63bc 2310 c5be b045 0dbe 35a5 053e
00000240: ccc9 0abe c3b8 60bd 3253 ec3d 0250 59bc
00000250: 7f5d 1fbd 02e4 913d 1d49 e33d 4d21 40bd
00000260: 516b b73d 41f9 a6bd 2244 253e b9a8 b63e
00000270: 4300 e03d 1c7e c23d 99ec 2abe 9670 91bb
00000280: f81e 9ebc 9fbd d83d 748d d13d 55c0 ce3d
00000290: e53d f0bd cecf d9bd 8f35 6abe b47b 68be
000002a0: c25f f1bb 1a58 8d3e 6948 e53c 2dec 77be
000002b0: 87b7 c6bd d367 873d cd41 e2bd 0aab e83c
000002c0: 095c 91bd ee90 f5bd 7c26 e93a f45c 2dbd
000002d0: 9e60 503d 369a f63d dc27 063e ac84 073e
000002e0: 437b 30bd 8274 8ebd 78fd 8cbe 81e1 fc3d
000002f0: a746 553d 2cd9 d5bb 80d2 05be c711 6e3e
00000300: b6bb 053e 9598 8e3e 7854 e83d bc56 043e
00000310: da9f 3abc e10d 6ebd 86a4 92bd ca31 b43d
00000320: e82c 1dbe 1905 593e 9a93 223e efd6 34bd
00000330: 3202 e13d dad4 703d bcbc dc3d 39e6 1e3e
00000340: a2e8 5d3d 8559 03be 9e1c a0bd 7c7f f63d
00000350: 38ae 5d3e 7f59 4f3e dc2b cabd 7712 88bd
00000360: 5ffb 4cbe 39ae 43bd 8072 9bbe c173 93bd
00000370: 2cce ad3d fea4 fe3d 3259 7cbd 7184 32be
00000380: 6b6d 62be bce4 1a3e 771b 3cbe 458a 163e
00000390: 1484 f13d ace7 8bbc 0673 e1bd 3c48 1cbc
000003a0: a001 b13d f71b 8f3e edf7 d13d c51f 23be
000003b0: 7fca 603d 6e0d ae3d f624 5b3d dda3 4a3e
000003c0: ca4b e9bd c3b0 99bd e35c b6bd 84b3 21bd
000003d0: df2d 11bc 4694 0dbe 95d4 973d e422 1c3e
000003e0: d1b4 53bd cb5b 47be 84a0 abbd c9b2 8ebe
000003f0: 7467 45be fc2a afbd 4c88 993d 7306 84be
0.1603092 0.081513375 -0.116019495 0.21436389 -0.064422034 0.14682952 0.16483757 -0.1339387
-0.0040292963 -0.028503029 0.06718008 -0.21340723 0.07604202 0.016081158 0.07933147 0.12126063
-0.1256262 -0.004241759 -0.111145616 -0.015896678 0.12306257 0.23513816 0.27873072 0.2985323
0.00025740606 -0.07935156 -0.03122113 0.07160263 0.023426838 0.10498042 -0.2570379 0.26353726
-0.12534665 0.06046329 0.19162548 -0.0113621615 0.1048119 0.09217186 -0.024897939 -0.06365835
0.17132111 -0.048124872 0.13585219 -0.30991802 0.30025867 0.19063134 -0.27776644 0.10866806
-0.050751578 0.10640356 -0.17237014 -0.012552465 -0.03933144 0.058657937 -0.12592107 0.037373744
-0.11125077 -0.107495986 -0.11723023 -0.0052509517 -0.00010864209 0.12839997 0.03592451 -0.38738838
-0.058821145 -0.17971449 0.2160106 0.20713678 0.10325711 0.024026755 -0.12091313 0.24413776
0.052905496 0.22218968 -0.06939492 -0.007689381 -0.033433735 -0.1271034 0.05853387 -0.055355005
0.28026342 0.21135506 0.16532667 0.11845 0.059599943 0.25622347 0.08169168 -0.11223693
-0.044331446 -0.1277084 -0.05064043 -0.09339371 0.10914493 0.1783276 -0.10137957 -0.34128687
-0.1462332 0.013746715 -0.0142813055 0.0144385565 0.14428891 -0.062063318 -0.39430583 -0.023832813
-0.07849833 -0.25848135 0.018551573 0.017601578 -0.23567036 -0.02076191 0.013032422 0.05548235
0.08365295 -0.17497408 0.09592257 -0.19475122 -0.089107275 0.16752134 -0.15518516 -0.06023768
0.054815374 -0.18093966 -0.2416784 0.08975064 0.14994842 0.08217327 0.19055358 0.08322193
-0.04105925 -0.11846309 0.088955395 0.02115482 0.09217506 0.042172365 -0.22277422 0.034528404
-0.08955533 0.024734965 -0.13464908 0.073638596 -0.013907522 -0.38488874 -0.13796115 0.13051303
-0.13553542 -0.054863703 0.11539306 -0.013263704 -0.038907524 0.07123567 0.110979296 -0.046906758
0.08956016 -0.0815301 0.16139272 0.356756 0.1093755 0.0949671 -0.16691817 -0.00443847
-0.019301876 0.10583042 0.10232058 0.10095278 -0.117305554 -0.10635339 -0.22871993 -0.22703439
-0.0073661515 0.2760628 0.02798863 -0.24211188 -0.09702974 0.066116 -0.11047707 0.02840187
-0.070976324 -0.11990534 0.0017787958 -0.042324975 0.05087339 0.12041132 0.13101143 0.13234204
-0.0430863 -0.06955816 -0.2753713 0.12347699 0.052069332 -0.006526133 -0.1306858 0.23248969
0.13059887 0.27850786 0.11344236 0.12923712 -0.011390651 -0.058118705 -0.071602866 0.08798559
-0.15349162 0.21193351 0.15876618 -0.04415029 0.10986747 0.05879674 0.10778186 0.1551751
0.054176934 -0.12827118 -0.07817958 0.120360345 0.2164849 0.20248984 -0.09871647 -0.06644147
-0.20017765 -0.047773574 -0.30360794 -0.07199813 0.0848659 0.124338135 -0.0616085 -0.17433335
-0.22112052 0.15126318 -0.18369852 0.14701183 0.1179277 -0.017078243 -0.11008267 -0.009538706
0.08642888 0.27951023 0.10252366 -0.15930088 0.054880615 0.08498655 0.053502046 0.19789071
-0.11391409 -0.07504418 -0.089044355 -0.03947784 -0.008861034 -0.13826093 0.07413594 0.15247685
-0.05168611 -0.1946861 -0.08380225 -0.27870777 -0.19277745 -0.085531205 0.074967 -0.2578617

EncList.2.conv.bias f4 [16]
00000000: 2d6c b53c 09a8 7d3d 6db9 48be 69e4 95bd
00000010: 1f7a a43d f6e3 263e 3d80 69bd b320 3a3e
00000020: e55d 63bd 49ef febd ab8b adbd 74f1 2e3a
00000030: 02f3 21bd 3c28 d33d 591f e7bd 18bf 83bd
0.022146309 0.06192783 -0.19601984 -0.073189564 0.08031105 0.16297898 -0.057007063 0.18176536
-0.055509467 -0.12447984 -0.08473905 0.00066735526 -0.03953839 0.103104085 -0.11285276 -0.064329326

EncList.2.bn.weight f4 [16]
00000000: e103 763f cbaa 3b3f 7b25 823f 2226 773f
00000010: 914e 483f b041 603f acad 6d3f 41c0 613f
00000020: beb2 403f b294 693f dea7 593f ae86 543f
00000030: 6960 793f 731e 783f 6424 803f 6683 533f
0.9609967 0.73307484 1.0167688 0.9654256 0.7824488 0.8760023 0.9284313 0.8818398
0.7527274 0.91242516 0.8502177 0.83018005 0.97412735 0.9692146 1.0011106 0.82622373

EncList.2.bn.bias f4 [16]
00000000: 3dad 073d 55c1 d43d a33b c83b f279 88bd
00000010: e57c b03e 514c 913d b2ab ab3d 189c 5bbd
00000020: 5946 1ebe 69d4 e7bd 56c6 ed3d a24b 063e
00000030: 74d3 d73e 1ebb 343d c9c3 ef3d 4a82 833c
0.033124197 0.10388438 0.006110625 -0.06663884 0.34470287 0.07094634 0.08382358 -0.05361566
-0.15456523 -0.11319811 0.11610095 0.13114789 0.42153513 0.04412376 0.11707265 0.016053338

EncList.2.bn.running_mean f4 [16]
00000000: 2d7f c23e c85a 8a3e a91a a9be bbe9 1b3e
00000010: 1901 afbe 0850 c0bc 4162 243d 6b7a 473e
00000020: 2aec e33e eba0 c8bd 9964 45bf 1b37 e23d
00000030: d6a7 38be 6857 883e 6729 1dbe 8760 9cbb
0.37987652 0.27022386 -0.33028153 0.1522588 -0.34180525 -0.023475662 0.040132765 0.19480292
0.44516116 -0.09796318 -0.77106625 0.11045667 -0.18032774 0.26629186 -0.15347825 -0.004772249

EncList.2.bn.running_var f4 [16]
00000000: b6a3 9d3e dcc8 473d dff1 de3e e8d4 bc3e
00000010: 8624 1f3e 9ad6 ae3d d89f 743e 54d4 073d
00000020: f62a 993d 0afe 7b3e d720 713e aeea 393d
00000030: 098c 583e c6b5 a83d aa67 0c3f a64a 1e3d
0.30788964 0.04877554 0.43543908 0.36881185 0.15541276 0.08537026 0.238891 0.033161476
0.07478897 0.24608627 0.23547684 0.045389824 0.21147169 0.082377955 0.5484568 0.03864541

EncList.3.conv.weight f4 [32, 16, 3]
00000000: 1032 c23d e6cb bcbc 593a 1e3b 8e08 f9bc
00000010: 33eb a4bd 9355 76bc 182e 83be f7d8 b23d
00000020: dcae 103e 0d84 25bd 96bf ffbd ad79 4f3d
00000030: 5bb1 b03d b580 00be e81e 803d 46d2 00bd
00000040: d67b ccbd e46b 57be 3fa0 cc3d d660 8b3d
00000050: e68c 3cbc 6b22 183d 8b07 5cbe a03c 043e
00000060: 900a f93d 1fbe 4c3a a7eb 95bd 296f bcbd
00000070: 4001 73bd 91eb 793d e410 8cbb 39da 123c
00000080: 8d7c c6bd 6aa6 ecbd 294c ac3c fe89 413e
00000090: 1ca3 f4bc 7514 6bba f142 033e 045c db3c
000000a0: e5e8 c13d 885a 1c3e 25be d43d 913c bbbc
000000b0: bee3 c43d 7a2b ad3c 12ec e03d d077 203e
000000c0: 941c 3cbe 8a48 053e a5a0 cb3c 19e5 d7b9
000000d0: 7281 d0bc 2040 b8bd a3cc 523e dfce 58bd
000000e0: 99df 67bd ded0 b8bc 885b 5bbd 596a 1d3d
000000f0: b839 f9bd 813c 333d ce42 193e 44b1 d2bd
00000100: 7b99 0d3e b3c0 2ebd 8a35 3cbd 8b5a e03a
00000110: 6d3e 0b3d aedb 6c3d 9ac8 11bd 4837 13be
00000120: 9780 62bd 8931 033e a5a8 dabd baca bebc
00000130: 440a 39bd 29fd ddbc 39bc 7cbe e75b d63b
00000140: 3c4c 153e 4fc8 46bd c977 6e3c 37f1 5fbc
00000150: 3f94 bb3b 6bf1 f7bc d03d 3ebd ebc7 9b3d
00000160: 6b75 8b3e cc52 2dbe 551e 02be 1a89 04bb
00000170: 9402 47bc 28c2 353d 2adf c23d e554 3b3d
00000180: 262a 92bd d2b5 f43d fd3c 483d e9b1 18be
00000190: c97f a3be 3228 0bbe 5696 0b3e 7125 4f3d
000001a0: 6a7b f73d 487c 173d c66c 78bd 17e5 b6bd
000001b0: 950c aabd f38e 3dbd b86f 5e3d 2b2c 7b3d
000001c0: d9b0 9d3c d8de 373c b09c 8f3d fc54 cb3b
000001d0: a721 793c 1e7e 953d 7502 e2bc e18b a9be
000001e0: 6359 b83a e0c2 16be 0f75 0bbd 2470 4b3c
000001f0: f716 9fbd 2b79 74bd 5fe2 24bc 7466 863d
00000200: b7fa 0dbe 554e bd3d 26da 023e 676a cdbd
00000210: fc97 be3d 4d6b 02bd b90f edbd 74b4 3d3e
00000220: d0b5 9dbc 504c 5a38 28a0 50be b45d acbd
00000230: 1ba5 91be 3162 e7bd 466a e3bc c4b7 cbbd
00000240: a5dc 883a c6c3 ea3c 2be6 ca3d af82 e9bc
00000250: 1553 c2bc 7ddc 7abd 97fe 093e b091 c93d
00000260: 5fe4 1e3d feb4 13be b897 103b 8755 2bbe
00000270: 0d5f 4f3d 44fe d83d aadd d4bd ba86 8bbe
00000280: 6bff 40bd a1d9 cabd 1384 60be 4721 073e
00000290: 96c5 44be a5d1 aabd f986 b7be a47b b33b
000002a0: acfa 80bc 7148 4abe ad19 26bd 2df0 29bd
000002b0: 86e1 b03d b98a 613d 02de 3abd 16b7 01bd
000002c0: d36f b03d b992 c4bd 163e 46bd eaf8 c1bc
000002d0: fdd8 ae3c 8186 cebd 6771 33bd 3c25 03be
000002e0: 237c fe3c b1f1 14bd f6ba e13d 93da 3dbe
000002f0: a660 96bd 7a98 e0bd 3bb4 c4bd 49bf dfbd
00000300: 1da1 4e3e 1291 b0bd bd94 9ebe 675c b03d
00000310: 9bf2 6cbd eaac ed3d c493 4b3e 0f82 093d
00000320: 882d 5fbe fba0 b2bc 5924 d93d 58e4 b8bd
00000330: 88d1 0e3e 7aa0 2abd fa87 babd 2ba1 e13d
00000340: 6adc b8bd f4f8 5cbd dbb7 f4bb 93cd 133b
00000350: 0255 163d 1f33 7dbc 8661 3ebd e1d3 e33d
00000360: 128d 0b3e 5246 26be 59e5 1bbe 666c a0bc
00000370: 250c 1bbd b879 483d 8a73 ad3d 0999 f13b
00000380: c682 86bd f611 0b3e 42d1 513b 3e1c 923d
00000390: 0f45 8f3d 5054 34bd 3eb8 11be 9b91 fa37
000003a0: 3e47 bf3d 1a04 2cbe 582e cabc c5ac febd
000003b0: e75d 403e 4dab f63d 8dcd 813d 333e 74bc
000003c0: 76a2 8a3d 224e 1ebd b0b4 2abc 7a54 72bd
000003d0: 6bc8 3e3e 7714 a3bd f5bc b53d 07f5 76be
000003e0: e4c9 acbc ae83 9dbc 5924 aabd ad11 d83d
000003f0: 34b5 15be e0d5 30bd 6a00 23bd 578e ad3d
0.09482205 -0.023046445 0.0024143665 -0.030399587 -0.08052673 -0.015035051 -0.25621104 0.08732789
0.14129204 -0.040409137 -0.12487714 0.05065315 0.08627578 -0.12549098 0.06255895 -0.031450532
-0.09984557 -0.21037251 0.09991502 0.06805579 -0.011508202 0.0371422 -0.21487252 0.12913752
0.12160218 0.00078103127 -0.07320338 -0.092008896 -0.059327364 0.06101567 -0.0042744745 0.008963161
-0.09691725 -0.115551785 0.02103241 0.18900296 -0.029862933 -0.0008967587 0.12818505 0.026777275
0.09468249 0.1526891 0.1038783 -0.022856029 0.09613751 0.021138895 0.10982527 0.15670705
-0.18370277 0.13015953 0.024856875 -0.00041178687 -0.02545235 -0.08996606 0.20585875 -0.052931663
-0.056609724 -0.022560533 -0.053554088 0.0384315 -0.12169212 0.043758873 0.1496689 -0.10287717
0.1382808 -0.04266424 -0.045949496 0.0017116828 0.03399508 0.05782669 -0.0355917 -0.14376557
-0.055298414 0.12811865 -0.10676698 -0.023290027 -0.045175806 -0.027098255 -0.24681176 0.0065417173
0.14579862 -0.048530873 0.014554926 -0.01366835 0.0057244594 -0.030266484 -0.046445668 0.07606491
0.2723802 -0.16926116 -0.12706883 -0.002022332 -0.012146611 0.044374615 0.095152214 0.04573526
-0.071369454 0.11948742 0.048886288 -0.14911617 -0.3193343 -0.13589552 0.13631567 0.050572816
0.12084086 0.03698376 -0.06065061 -0.08930414 -0.08303181 -0.046278905 0.054305762 0.06132142
0.019249367 0.011222564 0.07012308 0.0062051993 0.015205777 0.072994456 -0.027589062 -0.33114532
0.0014064725 -0.14722776 -0.034047183 0.012416873 -0.07768052 -0.059685867 -0.010063737 0.0656251
-0.13865171 0.09243456 0.1277853 -0.1003006 0.093063325 -0.03184061 -0.115752645 0.18525869
-0.019251734 5.204632e-05 -0.20373595 -0.0841631 -0.28446278 -0.112980254 -0.027760636 -0.0994716
0.0010441734 0.028657805 0.09907182 -0.028504698 -0.023721257 -0.06124543 0.13476025 0.09842241
0.03879201 -0.14424512 0.0022063088 -0.16731845 0.050627757 0.10595372 -0.103938416 -0.27251226
-0.047118586 -0.09904791 -0.21925382 0.13196288 -0.19215998 -0.08340768 -0.35845163 0.0054773856
-0.01574453 -0.19754197 -0.04055183 -0.041488815 0.08636765 0.055063937 -0.04562188 -0.031668745
0.08615079 -0.095982976 -0.048399054 -0.023678262 0.021343702 -0.10084248 -0.04380932 -0.12807173
0.031065052 -0.036363307 0.11021988 -0.1854041 -0.07342653 -0.109665826 -0.09604689 -0.109251566
0.20178647 -0.0862142 -0.30972853 0.08611374 -0.057848554 0.11605246 0.19880587 0.0335713
-0.21794713 -0.021805277 0.10602636 -0.09027928 0.13947117 -0.04165695 -0.09107967 0.110170685
-0.09026416 -0.053948358 -0.0074682063 0.0022552952 0.036702164 -0.015454083 -0.046479724 0.11124397
0.13628033 -0.16237763 -0.15224208 -0.019582938 -0.03785338 0.048944205 0.08469303 0.0073729795
-0.06567912 0.1358107 0.0032015597 0.07134293 0.06995594 -0.04402572 -0.14230439 2.9870125e-05
0.0933976 -0.1679844 -0.024680302 -0.12435297 0.18785821 0.12044392 0.06338034 -0.014907408
0.06769268 -0.038648732 -0.010419056 -0.059162594 0.18631141 -0.07962888 0.08873931 -0.24116908
-0.021092363 -0.019227829 -0.08307714 0.105502464 -0.14619905 -0.043172717 -0.039795317 0.08474415

EncList.3.conv.bias f4 [32]
00000000: faac 97bd f1d7 56bd 4f9b 3739 5e8c 23bc
00000010: 4d35 d83d bbe8 06be 4c6f 6e3c 424a 3ebd
00000020: 0d23 1f3c 2058 0a3e 50e6 4c3b 4b85 b4bc
00000030: a2c6 48bd 5595 0fbe bf38 05be 5a2f 833d
00000040: 1bc6 b3bd 9b66 b33d 3710 34bd 1b2b 553d
00000050: c5bd d73d 6e4a ae3c d1dd 503d 307d f03d
00000060: 5755 23bd 8678 dd3d 3cdc 04be 5cff 053e
00000070: 800b 3bbd e2f8 e7ba 74a6 b13d 9480 7e3c
-0.074060395 -0.05245203 0.00017510097 -0.009982197 0.10557041 -0.13174717 0.014552902 -0.046457537
0.009712947 0.1351018 0.0031265207 -0.022036215 -0.049017556 -0.1402181 -0.13009928 0.06405516
-0.0877802 0.08759805 -0.043960776 0.05204306 0.105342425 0.021275725 0.05099279 0.117426276
-0.03987631 0.10814004 -0.12974638 0.13085693 -0.045665264 -0.0017698074 0.086743265 0.015533585

EncList.3.bn.weight f4 [32]
00000000: 9ef8 6e3f 1617 793f 1f50 7d3f 3b6c 843f
00000010: e47f 643f 4430 7b3f d381 7a3f 630b 713f
00000020: 5b39 713f 0805 7c3f 5086 833f 9ac9 713f
00000030: 5fb9 6b3f 5fcf 803f 99f9 813f 433c 5f3f
00000040: 7d77 683f 6f81 6e3f 91ec 853f 1963 873f
00000050: bd13 6b3f d06c 7e3f c833 7d3f 6575 7c3f
00000060: e9b5 893f 7dd8 833f db01 7a3f 1663 783f
00000070: da98 843f 83d0 5b3f 6463 7c3f 99ac 773f
0.9334811 0.9730085 0.9895038 1.0345529 0.89257646 0.9812052 0.97854346 0.94158
0.9422814 0.9844518 1.0275364 0.94448245 0.9207973 1.0063285 1.0154296 0.8720133
0.90807325 0.9316625 1.0462819 1.0577117 0.91826993 0.99384785 0.98907137 0.9861663
1.075864 1.0300442 0.9765908 0.97026193 1.0359147 0.8586504 0.9858916 0.9674774

EncList.3.bn.bias f4 [32]
00000000: f967 30be 8ea6 4e3c 8986 c33d 16e7 9d3d
00000010: 5e41 633e ff4f 963d 933e cbbd 45d6 9d3d
00000020: 30c4 a83d 1fd5 05bb c2aa 873e 24f1 4bbe
00000030: 7ad6 e4bd b19d 343e ad6b b03d f123 54bd
00000040: 6fd2 583d 6ad9 353c df8c 093e f942 3d3e
00000050: 6c59 27bd 90bd a43d 8052 643d a13a dc3d
00000060: 2611 243e 276b 0c3e 80fc ca3d 697f f4bd
00000070: 3c22 863d 9644 3a3d c68e 513e 5b94 583e
-0.17227162 0.012612952 0.09547145 0.07710092 0.22192904 0.07339477 -0.099240445 0.07706884
0.08240545 -0.002042122 0.26497465 -0.19916207 -0.11173721 0.1763828 0.086142875 -0.05179209
0.05293506 0.011099199 0.13432644 0.1848258 -0.040856764 0.08043969 0.05574274 0.1075337
0.16022167 0.1371275 0.09911442 -0.11938364 0.065494984 0.045475565 0.2046462 0.21150343

EncList.3.bn.running_mean f4 [32]
00000000: c880 f13d c242 09be 1901 e9be 6e0c 2ebf
00000010: aa86 a43d f0aa c9be 5b3e adbe 5533 0cbf
00000020: d1db 093d 21b4 e23d ae0b 5dbf 1abb 953e
00000030: 5d33 57be 68f6 84be 052d eabd 5ea3 9d3e
00000040: bbd1 5dbe 92d1 1fbe e3bf b1be 95fe 0bbd
00000050: 73c2 133f ffb5 edbd c539 95bc 904a 19bf
00000060: d838 d7be 7934 11be 83f7 9abe d1b4 62be
00000070: 9b60 0a3e 5587 073f f00c 8dbe 72ac bebe
0.11792141 -0.13404372 -0.4550865 -0.67987716 0.08033498 -0.39388227 -0.33836636 -0.54765826
0.0336569 0.11069513 -0.86345947 0.2924431 -0.21015687 -0.25969243 -0.11434368 0.30788702
-0.21662037 -0.15607288 -0.3471671 -0.034178335 0.5771858 -0.116069786 -0.018216023 -0.598794
-0.42035556 -0.14180173 -0.3026696 -0.22139288 0.13513415 0.52940875 -0.27548933 -0.3724094

EncList.3.bn.running_var f4 [32]
00000000: 8d6d 083e c72c df3d d125 f03e 3e8f fa3e
00000010: 177b e53d 2c27 903e ab1a 363e 6939 8d3e
00000020: e541 d73d ac0e 303e 8eae 2d3f 6f00 bf3e
00000030: 029f f23d 1b34 243e fe2c d63d 8ecd 7c3e
00000040: 4033 a53e da39 d23d c54b 853e 6152 603e
00000050: 4c1e 883e f2ce 823e 3cea 083e 8728 1e3e
00000060: cc21 013f b4a3 0f3f 2524 ed3e 923a 053f
00000070: 0b8d 023e 90e8 073e 367c 4d3e 1484 353e
0.1332304 0.108972125 0.46903852 0.4893741 0.11205118 0.28154886 0.1778361 0.27582863
0.10510615 0.17193097 0.67844474 0.37305018 0.118467346 0.16035502 0.104578 0.24687788
0.32265663 0.102649406 0.2603437 0.21906425 0.26585615 0.25548512 0.13370603 0.15445147
0.50442195 0.56109166 0.4631664 0.52042496 0.12749116 0.1327231 0.20066914 0.17726165

DecList.0.conv.weight f4 [32, 16, 4]
00000000: 5315 aa3d 41e3 46bd 42b0 d43d 1747 12bd
00000010: 08c4 bb3d 6fc3 e1bc cbe9 a0bd 488a 103e
00000020: bed9 2cbd 04c2 8f3d 2852 17bd 5190 abbc
00000030: 176e 9a3d 9a78 1bbd 5ffc a73d 7318 af3d
00000040: d5d2 743e 43b7 ef3c 10f9 893d 57f5 83bd
00000050: b691 d5bc f7e1 7ebe cfba 53be bd4c 07be
00000060: 9c1a f4bd 1ded cf3d 9a77 233e 725d 143d
00000070: 5e8e d9bc 2b2f d0bd 4ece 6db7 7265 fdbd
00000080: eae0 e2bc 28dc ddbd c8af 8dbd 1dcc 3cbc
00000090: a076 8c3d f46e afbd 6dad 783d 3aca 62bb
000000a0: 3882 943c 2fe6 84be 10fe 263e e508 50bc
000000b0: a182 1f3e 5017 62bd c3c7 74bd c6e1 a7bd
000000c0: 423e 583d b3c0 de3d 9b50 623d 70c3 643d
000000d0: e0f5 803d a4ad 3fbd 9bf3 a83c e1fd 4f3d
000000e0: f2f1 97bc eb83 253c ada2 373d c96c 983d
000000f0: 2768 4d3d 595d 873d 7657 a83d 371d c2bc
00000100: 166f 303e 8923 e93c ac9f 3ebc e780 fabd
00000110: e319 a73c 5b96 92bd 73f7 b63d 46d1 85bd
00000120: f731 27be ffce 053e 81d4 b2bd d95d c1bc
00000130: fdeb bc3d 1cee 403d d395 9e3c 1881 26bb
00000140: 2d45 b8bd dc27 f43d 0bb5 ff3b adf8 7b3c
00000150: 9385 c73d 8c94 f0bd b6fc 97bd d5ee 113d
00000160: ddbd 24be b276 7c3c 3c0d 15be f109 ba3c
00000170: 2da6 543d 6315 0dbe 3556 093e f351 873d
00000180: a542 4cbe af1c 94bd 8bb7 e33b 0d03 b0bd
00000190: 173d 573d 10ea 93bd e2c1 2e3e 6a9d 313d
000001a0: 73da af3c 67cf 4f3d 4b0f b4bd dd15 e63c
000001b0: 735d 1dbe a8a8 cbbd b05e 08bc e5fb f6bd
000001c0: ea6a 0c3e de78 0ebe 42e1 9f3d 6df1 463e
000001d0: dc95 d6bd 4654 ff3d c99f 083e 6e3e 8c3c
000001e0: 8697 533e 594b eebd 7679 7b3e 1a48 dabc
000001f0: b572 823d 3a95 0e3d dab6 dd3d ad13 8cbc
00000200: ec62 cc3c b2a7 613d 9bbc 473e ca1c 84bd
00000210: aa72 1b3d 52be 3ebd 9e6c 773d 07d6 023b
00000220: df27 0b3d 5df8 6dbd fe86 a43d 5469 703e
00000230: 352c 8abe 00ad d3bb 01f4 35be 2fe3 d13c
00000240: cfb9 a6bc ab8f fabc f4f3 9bbd a9aa 25be
00000250: 8a19 45be 2022 e03c 1561 953d c515 ecbc
00000260: b6d9 a93d 8c06 03bc 0967 023c fc39 18be
00000270: 1685 01bd 7a45 cb3c 15cb e53d 7c0e 45bd
00000280: 0391 cdbd dae5 f73c 81f9 8f3c e2ed 633d
00000290: 2f3f 173d 6d65 ea3d 6913 983d f443 983d
000002a0: 5fd9 2e3c 31c5 fbbd 1a13 9bbd df9e 20be
000002b0: dd23 24bd 9b95 27be 2041 423c ccda 72ba
000002c0: ff16 22be 85e7 0abe c8fd 5bbd ddf1 87bd
000002d0: 80ae 2abd 271a b7bc 2b5a f43d 1a43 9ebc
000002e0: ff42 1cbe 6ac8 a6bb d025 0bbd 5f61 043e
000002f0: 1f61 a13d 6349 d5bd c75b 333d 95f3 7f3c
00000300: 8620 fa3b c305 653e 9af0 9c3d fe68 0e3e
00000310: 193e febd 322b 8f3c a780 ae3b dad2 6bbd
00000320: 034e cc3b 5ca3 bb3c 6a6e dbbd ce2c 22bd
00000330: 04b5 db3c 55b7 0c3c d2c8 2a3e c67f 383e
00000340: c4fb 4ebd 9ba8 b73d 7779 eabc d467 04be
00000350: d2b4 1c3e 327f 81bc 6d8e 1dbe c1e2 d8bd
00000360: c341 4dbc cc29 59bd cdd3 233c 2c5f 31bc
00000370: 8bca 05bd 7ff5 1f3e b2c7 143d 1d04 59be
00000380: 3fe0 c9bd 044c 4dbe 70c1 84bd 4f25 66be
00000390: 61c5 e33d 7483 2d3d 140d 383e dbd8 fabc
000003a0: a527 6dbc ef99 4bbe 9ae8 283d 2465 ddbc
000003b0: b5d5 81bd 6d56 5f3d c613 78bd 968a 9a3d
000003c0: ee09 43be dce5 3abc c8b3 933d 28f2 b93d
000003d0: caf1 973d a5dd bf3c ac43 d13d ea49 25be
000003e0: 0aae 8dbd 31f6 36bb 1633 0b3d f25d debd
000003f0: 8e66 8cbe 0817 1e3e 22b2 883d b7fb b2bd
0.083048485 -0.04855657 0.10385181 -0.035712328 0.09168249 -0.02755901 -0.078570925 0.1411525
-0.042199843 0.070194274 -0.036943585 -0.020942839 0.07540529 -0.03795681 0.08202433 0.08549585
0.23908551 0.02926219 0.06736958 -0.06443279 -0.026070457 -0.24890886 -0.2067673 -0.13212867
-0.11919138 0.10152648 0.15963593 0.03622193 -0.026557144 -0.101652466 -1.4174335e-05 -0.12372865
-0.027695138 -0.10833007 -0.06918293 -0.011523274 0.068585634 -0.085660845 0.060712267 -0.00346054
0.0181285 -0.25956866 0.16307855 -0.012697433 0.15577175 -0.055198014 -0.05976082 -0.0819736
0.05279375 0.10876598 0.055252653 0.055850446 0.06296897 -0.046796456 0.020623973 0.050779227
-0.018547986 0.0101022525 0.044832874 0.07442624 0.050148156 0.066096015 0.08219807 -0.023695571
0.17229876 0.028459327 -0.011634748 -0.122316174 0.020398086 -0.07157584 0.08933916 -0.06534056
-0.16327654 0.13067244 -0.08731938 -0.02360432 0.09224699 0.04710208 0.019358551 -0.0025406536
-0.08997569 0.11921665 0.0078035644 0.015379113 0.09742274 -0.11747083 -0.07421248 0.03562816
-0.16088052 0.015409159 -0.1455583 0.022709819 0.05191629 -0.1377769 0.13411792 0.066074274
-0.19947298 -0.072320335 0.0069493703 -0.08594332 0.052548494 -0.07222378 0.17066148 0.043363012
0.02146647 0.050734904 -0.087919794 0.028086597 -0.1536768 -0.09944278 -0.0083233565 -0.12059764
0.1371266 -0.13913295 0.078066364 0.19428034 -0.10477802 0.12467246 0.13342203 0.017119613
0.2066327 -0.11635465 0.24558052 -0.026645709 0.06369535 0.034810282 0.10825892 -0.017099226
0.024949513 0.055091567 0.19505541 -0.064508036 0.03795115 -0.046568222 0.06040632 0.0019963996
0.03397357 -0.058098186 0.0803356 0.2347768 -0.26986852 -0.006459832 -0.17768861 0.025621025
-0.020352272 -0.030586084 -0.0761489 -0.16178383 -0.19248024 0.027360022 0.072939076 -0.028818974
0.08293478 -0.007997166 0.007959136 -0.1486587 -0.03162106 0.024813402 0.112203754 -0.048109517
-0.100374244 0.030260969 0.017575027 0.055646785 0.03692549 0.11445127 0.07425577 0.07434836
0.0106719425 -0.12293471 -0.07572003 -0.15685605 -0.040073264 -0.16365664 0.011856347 -0.00092641707
-0.15829085 -0.1356488 -0.05370882 -0.06637929 -0.041670322 -0.022351338 0.11931261 -0.019319106
-0.15259932 -0.005089809 -0.033971608 0.12927769 0.078798525 -0.10414388 0.043788698 0.015622039
0.0076332716 0.22365479 0.076630786 0.13907239 -0.12414188 0.017476652 0.005325395 -0.05757413
0.0062348857 0.022905044 -0.10714419 -0.03959351 0.026819713 0.008588632 0.1667817 0.18017492
-0.05053307 0.08967706 -0.028622372 -0.12930232 0.15303352 -0.015807722 -0.15386362 -0.10590125
-0.012527886 -0.053018376 0.009999228 -0.010825913 -0.032663863 0.15620993 0.036323257 -0.21192975
-0.09857225 -0.20048529 -0.06482208 -0.2247517 0.111216314 0.04236169 0.17973739 -0.030620983
-0.014474784 -0.1988294 0.04123745 -0.027025767 -0.063395895 0.05452578 -0.060565732 0.075459644
-0.19046757 -0.011407342 0.07212025 0.09079391 0.074191645 0.023421118 0.102179855 -0.16141477
-0.06917961 -0.0027917738 0.033984266 -0.108577624 -0.27421993 0.15438473 0.06674601 -0.08739417

DecList.0.conv.bias f4 [16]
00000000: 20fa 693d 375d 0f3c 1c0b 5b3d d6b6 a13d
00000010: 4c42 c8bd 79a9 a93d 1589 97bc f2d2 f2bc
00000020: dc62 d43c 85f2 c73d 10ac 89bd 6827 acbd
00000030: c694 993d eb4e 70bd a846 2f3d 5404 a3bc
0.057123303 0.0087502515 0.05347739 0.07896201 -0.0977827 0.082842775 -0.018497983 -0.029641602
0.025926046 0.09763054 -0.067222714 -0.08405954 0.074990794 -0.058669012 0.042791992 -0.019899525

DecList.0.bn.weight f4 [16]
00000000: a861 8c3f 77fe 943f f00e 9f3f 07d7 803f
00000010: 9745 a53f a989 a13f de81 903f 6917 963f
00000020: b69e cb3f b713 a73f 3af9 863f 362d b13f
00000030: bfb9 9b3f 80e4 9e3f e0dc 8d3f 578b 973f
1.0967302 1.1640157 1.2426434 1.0065621 1.2911862 1.2620136 1.1289632 1.1725894
1.590781 1.3052891 1.0544808 1.3841922 1.216606 1.2413483 1.1083031 1.1839398

DecList.0.bn.bias f4 [16]
00000000: e9e8 61be 6ab8 dabd c9c6 6dbc c903 5a3e
00000010: 0fe4 d7be b8d8 d43e 92c8 423e b01f d5bd
00000020: 2713 8b3e 1c80 363e a2e7 31be 887f debd
00000030: 00ec dbbe 35d6 c5be d055 473c 6d54 c7bd
-0.22061504 -0.106797054 -0.014512726 0.21290506 -0.42166182 0.41571593 0.19021824 -0.104064345
0.2716305 0.17822307 -0.17373517 -0.108641684 -0.4295349 -0.3863999 0.012166455 -0.097329

DecList.0.bn.running_mean f4 [16]
00000000: e4aa 7fbd 947f 91be 8c39 babe cbf2 f53e
00000010: 9eb7 49bf 56ea 20be b6f8 02be 4cc7 e6be
00000020: ef4b 93bd f110 4f3b a34c 2bbf b08a 63bf
00000030: 31d3 0cbf 46f4 0d3d c4d0 6dbe 165f a7be
-0.062418833 -0.28417647 -0.3637203 0.480368 -0.787958 -0.15714392 -0.12790188 -0.45073926
-0.071922176 0.0031595791 -0.66913813 -0.88883495 -0.5500975 0.034656785 -0.23224169 -0.32689732

DecList.0.bn.running_var f4 [16]
00000000: 8f4d 233f cc10 4e3f fb2f 9d3f d9b8 533f
00000010: 30f5 a03f 1633 793f e406 643f 570b 5a3f
00000020: 7dfa 883f 9cf0 8a3f e643 383f 0b17 823f
00000030: 8b8e 533f 8f53 173f 194b 613f d1e3 0d3f
0.6379022 0.8049438 1.2280267 0.8270393 1.2574825 0.97343576 0.89073014 0.85173553
1.0701443 1.0854678 0.71978605 1.0163282 0.8263938 0.59111875 0.88005215 0.55425745

DecList.1.conv.weight f4 [16, 8, 4]
00000000: a362 96bd f3fe c3bd 7757 94bc 204d 613d
00000010: 6386 9ebc 8955 80bd 0bb3 f6bd d543 a5bd
00000020: 7db0 90bb eda3 ab3d ad38 d13d e1f6 033e
00000030: afe2 e0bd e89e f4bd 8071 edbc e2ce cebd
00000040: 6d37 443d 7211 123e e192 f43d 2f6a 123e
00000050: e4e3 3fbd 5f53 12bd 044b a6bd 2e97 393d
00000060: d8aa 6a3d 34d9 db3d 33df b13d c8cb a9bd
00000070: 8001 68bc 79f9 b53c 5b8c 473d c950 173e
00000080: 067e 993d 4b32 2a3e 2f35 f13c 9ca4 353d
00000090: 0dc9 a9bd 9fca 40bd 217f 84bc cf3d 403d
000000a0: 2d1c 473d e1bd 6b3e 4877 a4bc 23fb 04be
000000b0: a90d 0c3d 13a4 c43c 655c aa3d 0914 cabd
000000c0: fd58 823d cf4b 03bd 9cf0 07be c96c cfbd
000000d0: 9a8a 003e c547 933e 13f7 dc3d c786 c8bc
000000e0: 5704 3a3d f15e e5bb 3c8d a7bd 37b1 103e
000000f0: d89f bebd 9bc5 d3bb 30e2 97bd b83a 8abc
00000100: 943c 87be 807c d6bd 4bdd 0fbe 709a 4fbe
00000110: debf b13d b29e 793d 68ab 3abd 49e1 b4bd
00000120: 965d 2cbd 8df2 833d 214a 99ba 3792 c33d
00000130: 8537 29be 865f 82bd b078 3f3e f1bd b1bd
00000140: 833a 56bd db6b a53e 717c 1fbd 319c dd3d
00000150: faa3 2ebe b7e2 55be e228 19be fde0 52bd
00000160: fbe4 5d3c 7eda 6dbd aa90 7bbd a6ce 53be
00000170: 37d9 783e 6ed6 313e 8852 b53e 58a2 58bd
00000180: ffe1 b03d b9da 673e 0b8c 903e 903c 343e
00000190: c3ab 9ebd 48aa 6e3c a0b0 31bd 0c9d 17be
000001a0: 6dc4 3f3d 4615 233e 0f4c 763d 4a5e 5fbb
000001b0: 25a8 d1bd ec9c e4bd fde6 a7bd dbd6 2ebd
000001c0: 9574 41bd 2712 103e a06f 5bbd 659e f1bd
000001d0: c1ff 5dbd 1df9 3c3d 98e5 0a3e d603 77bc
000001e0: 326e ffbd bed0 63bd 7124 56bd 6520 38be
000001f0: c376 3ebd d82e 9fbd b3a6 b53d 5d66 1e3d
00000200: dae8 d13d aac3 133e 76c7 15bd eb9e bcbc
00000210: 0051 c0be 7712 68be 8e6d cdbd c70e 14be
00000220: 2906 b23e e522 563e 394c 4e3e bb63 f9bd
00000230: e219 2b3b c96f 073e ea2e 90bc 1348 01be
00000240: 9efb ca3d cd8e 713d 23b5 4f3e b5e1 c8bd
00000250: 3791 05bd 2645 09bd 0493 f83b a87b 6bbd
00000260: 2e4a f6bd 3329 003e eb0c 953d bfe1 943c
00000270: 1399 713d 9889 723e 6d11 b63d eb0a d83c
00000280: e651 f53d 96df 193e b4b2 d13d f1f7 443c
00000290: 2450 733d f2e1 3abd a767 8dbd 9067 e8bd
000002a0: fc3f 263e c0af c73d 4329 19bd 8e61 213e
000002b0: 2781 0bbe b4c9 ed3d 5935 f03d e089 023e
000002c0: cec3 0f3e 99b8 723e 6cb3 543d 25b5 8a3d
000002d0: 9549 a6ba 6a56 5c3b 9f99 28bd ffb7 01bd
000002e0: 88dd 553d b688 99bd 4f3b 05be c33f a5bd
000002f0: 49d2 5b3e 1846 8e3d b567 ce3d bb47 fabd
00000300: 5f90 723d 0c04 203e 9519 bf3d 662c c8bd
00000310: 30e0 1abe 93dc 22be fafc 3bbe 76c9 3fbe
00000320: 5598 413c ecd6 ffbc 4ea2 1ebd 8407 9cbd
00000330: bc7c ffbd 8804 efbd ef1e 1ebe 105d 98bd
00000340: d6f4 4b3e ef2a 813d 85a8 bfbc f534 073e
00000350: 5b91 8dbe fe71 50bc 4b80 063e 0d2f 523d
00000360: ad5e 8b3d 9753 c63b 2ccb f9bd 50f9 21bc
00000370: ac5e 46bd 6344 f4bb d199 4a3c 82d6 b4bd
00000380: d114 00bd 9841 36be 80b8 95bd d626 e7bd
00000390: 75c1 0c3e cad4 373e 511c 1f3e 5e70 3c3e
000003a0: 779c 83be 4a7b ed3d 1f8a 34ba bf89 233d
000003b0: b01a 6c3c e2c1 9c3d 1382 ae3d 3222 343e
000003c0: 1e47 00bd 63af 953e af3e c43d 9e96 b43c
000003d0: f7e3 d13d ae99 3b3e 9a93 413d 2186 46bd
000003e0: 3bc9 6f3e 5977 883e d1f7 483e 2894 0e3e
000003f0: ba3e c23d e382 0c3d c163 383c 9018 4f3c
-0.07343032 -0.09570112 -0.018108113 0.055005193 -0.01935119 -0.062663145 -0.120458685 -0.080695786
-0.0044155703 0.08380876 0.10215888 0.12887146 -0.109807365 -0.119443715 -0.028984785 -0.100980535
0.04790442 0.14264467 0.119420774 0.14298318 -0.046848193 -0.03572404 -0.08119777 0.04531019
0.057291836 0.107347876 0.0868515 -0.08290821 -0.014160514 0.022213684 0.048717838 0.14776911
0.0749474 0.16620748 0.029444305 0.044346437 -0.082903005 -0.047068235 -0.016173901 0.046933945
0.048610855 0.23021652 -0.020076409 -0.12986426 0.034192715 0.024004018 0.08318404 -0.09867103
0.063646294 -0.03205472 -0.13275379 -0.10128171 0.12552872 0.28765693 0.10789313 -0.02447833
0.045414295 -0.0069998433 -0.08181235 0.14130102 -0.093078315 -0.0064627654 -0.07416189 -0.016873702
-0.26413405 -0.10472965 -0.1404926 -0.20273757 0.08679174 0.06094236 -0.045573622 -0.08832032
-0.042081438 0.06442747 -0.0011695066 0.09549373 -0.16525085 -0.06365876 0.18698382 -0.086788066
-0.052301895 0.3230885 -0.038937036 0.10820807 -0.1705474 -0.20887266 -0.14957002 -0.051484097
0.013543363 -0.0580697 -0.06141726 -0.20684299 0.24301611 0.17366955 0.3541453 -0.052889198
0.08636855 0.2264203 0.28231844 0.17601228 -0.07747605 0.014566965 -0.043381333 -0.14806002
0.046818186 0.15926084 0.06013113 -0.00340833 -0.10237149 -0.11162743 -0.081983544 -0.04268537
-0.047230322 0.14069425 -0.05357325 -0.117977895 -0.054198984 0.04613601 0.13564146 -0.015076598
-0.1247219 -0.055618994 -0.052280847 -0.17981108 -0.04649998 -0.077726066 0.08869686 0.03867184
0.10249491 0.14430109 -0.036567174 -0.023024997 -0.37561798 -0.22663294 -0.100306615 -0.14458762
0.34770325 0.20911749 0.20146264 -0.12177225 0.0026107957 0.13226236 -0.017600495 -0.1262515
0.099112734 0.058974076 0.20283942 -0.09808675 -0.03260919 -0.03351321 0.007585885 -0.057490975
-0.120258674 0.12515716 0.072778545 0.01817405 0.058983874 0.236853 0.088900425 0.026372394
0.119785115 0.15026698 0.10239163 0.012022004 0.0594026 -0.045625634 -0.06904536 -0.11347878
0.16235346 0.097503185 -0.037392866 0.1575987 -0.13623486 0.116107374 0.11728925 0.12747908
0.14039537 0.23703231 0.051928923 0.06772832 -0.0012686724 0.0033620843 -0.04116213 -0.031669613
0.05221322 -0.07496779 -0.13010906 -0.08068802 0.21466936 0.06946963 0.10078374 -0.12220713
0.059219714 0.15626544 0.09331051 -0.09774093 -0.15124583 -0.15904455 -0.18358222 -0.18729195
0.011816104 -0.031230412 -0.038729005 -0.07618621 -0.12474963 -0.11670786 -0.15441488 -0.07439625
0.19917616 0.06307017 -0.023395786 0.13203795 -0.2764996 -0.01272249 0.13134877 0.051314402
0.06805167 0.006052445 -0.12196955 -0.009886101 -0.04843013 -0.0074544414 0.012365774 -0.088299766
-0.031269852 -0.1779846 -0.07310581 -0.11286704 0.13745673 0.17952266 0.15538146 0.1840224
-0.2570531 0.11595781 -0.0006887037 0.039926287 0.01441066 0.07654168 0.085209034 0.1759117
-0.031317823 0.29235372 0.095822684 0.022044476 0.10248559 0.18320343 0.047259904 -0.04846776
0.23416607 0.26653555 0.19625784 0.13923705 0.094846204 0.03430451 0.011254252 0.0126401335

DecList.1.conv.bias f4 [8]
00000000: 92b2 053d c14a e0bd ca93 023d ca62 2dbe
00000010: c5fe de3c 053c 343e 7a24 2a3e d55e 853d
0.032641 -0.10951758 0.031879224 -0.16932216 0.027221093 0.1760102 0.16615477 0.065122284

DecList.1.bn.weight f4 [8]
00000000: 4b7e b33f 6b5d af3f d914 963f ccd8 a33f
00000010: 741f 963f 10a2 923f 1762 973f ffc4 b93f
1.4022917 1.3700384 1.1725112 1.2800536 1.1728349 1.1455708 1.182681 1.4513243

DecList.1.bn.bias f4 [8]
00000000: 2407 01be 5b14 d23e 783a d63c df70 ab3e
00000010: ef2d 51be 7e64 33be 5d68 c6be d486 853e
-0.1260038 0.41031155 0.026150927 0.3348455 -0.20427679 -0.17518803 -0.38751498 0.26079428

DecList.1.bn.running_mean f4 [8]
00000000: d71d 9c3e 7f6d b9be bccf 603f bf8a 9bbd
00000010: 6ee6 3d3f e5fe 453f f3f5 563e bad8 c43e
0.30491516 -0.3621635 0.8781698 -0.07594823 0.7417973 0.77342063 0.2099226 0.384466

DecList.1.bn.running_var f4 [8]
00000000: 0769 1c3f d5ad 103f ce90 483f 35b5 173f
00000010: 6107 4b3f cbdd 0a3f 4cd6 033f 62f8 9d3f
0.6109776 0.56515247 0.78345954 0.59260875 0.79308134 0.5424468 0.51498866 1.2341425

DecList.2.conv.weight f4 [8, 4, 4]
00000000: 1bf6 abbd 3fb2 f03d c09f 353d 320d e8bd
00000010: c7e8 a0bd 9316 12be acaa c3bd 7643 8ebe
00000020: 7f14 033e 6f81 803e 8b30 283e 55d5 cd3c
00000030: 9d2d 02be 009e 3dbd 39ce 4cbd ac23 88bc
00000040: cd89 743d 57cb c7bd e75f 723d 630a 863d
00000050: 49ab ea3d 1295 663d 4bca 8c3d 890d 89bd
00000060: c6da 5abe ef5f 80be b8c6 90be 9358 82be
00000070: 613a 813e f277 4c3d 13f3 963e 2045 2cbe
00000080: d1eb 04be c43f 833c 30ec 44bd ac57 7cbd
00000090: 8a3d 2f3c 742d 563e eb27 33bc 48e0 ba3d
000000a0: da48 cf3d 6395 8d3e 323a 803e 8f8f 523d
000000b0: 84a2 05be f61b 2cbd 5e41 83bd ca9b 713d
000000c0: a3ae d6bd 1f44 203e 8304 54bd 54ef 9cbe
000000d0: 7f55 923d e1b9 523d d4e6 6f3e c81b 663e
000000e0: 2bfb 67bd 447e 01be 2313 33be 918b b4bd
000000f0: 1e1a 5c3e 9dcb 04be e8c4 623e 72c7 033d
00000100: 1ebb 16be a34a a1be 8986 233d 5dc7 b4bd
00000110: 7cf4 1d3e c021 fa3d b4e2 bd3d a008 8abd
00000120: 8b89 813d c035 8b3d bde9 a33d 7231 b23d
00000130: cba7 67bd 6fd4 1a3d 225f 1cbd 95ea af3d
00000140: d912 523e ddbe 7f3e eeb4 663e ea2c 5d3e
00000150: 9d5c 17be 81ef 04be 22b1 b0bd 32a7 dabc
00000160: d767 353d 976e b43e 6e8e d53e 1635 0f3e
00000170: 039b 023e b54f 44be bd05 6a3e 5a28 363e
00000180: d51b 55be 36a2 72be d1da 60bb 2e18 d6bd
00000190: 51ef 663e 08d0 963e 1cde 553d c87f c2bc
000001a0: 7619 adbc 84f6 f43d 27ad 283e f997 1f3d
000001b0: 7aa5 563e c62d 50be bbf1 013e 1e3b 1a3e
000001c0: 240a 59be 98ea babd 626e febd d1d1 a4be
000001d0: 0d0d 4a3e 334c 893e 1849 683e 3d7d 5a3e
000001e0: 8da3 583d 61e9 a23d 4015 c73c 8249 443c
000001f0: 731a 43be 84bc f8bd 5d2d 28be 43d2 273c
-0.0839655 0.11752748 0.044341803 -0.11330642 -0.07856899 -0.14266424 -0.095540375 -0.27785844
0.12800787 0.2509875 0.16424768 0.025126139 -0.12712713 -0.04629326 -0.050001357 -0.016618572
0.05970173 -0.09755581 0.05917349 0.0654495 0.11458451 0.05629451 0.06874522 -0.06692035
-0.21372518 -0.25073192 -0.2827661 -0.25458202 0.25239852 0.049919076 0.29482326 -0.16823244
-0.12980582 0.016021617 -0.04807681 -0.061607048 0.010695824 0.20915776 -0.01093481 0.091248095
0.10121317 0.27653036 0.250444 0.05140644 -0.13050276 -0.042018853 -0.06408952 0.058986463
-0.10482528 0.15650986 -0.051762115 -0.30651343 0.07145213 0.0514468 0.23427898 0.22471535
-0.056636017 -0.12645823 -0.17487769 -0.08815683 0.21494338 -0.12968297 0.22145426 0.032172628
-0.14719817 -0.31502256 0.039923225 -0.08827088 0.15425295 0.122134686 0.09271756 -0.06739926
0.06325062 0.067973614 0.080035664 0.08700837 -0.056556504 0.03780025 -0.038176663 0.08589665
0.20515002 0.24975152 0.22529957 0.21599165 -0.14781423 -0.12981988 -0.086275354 -0.026691053
0.044288483 0.35240623 0.41710228 0.13985094 0.12754445 -0.19171031 0.22853751 0.1778883
-0.20811398 -0.23694691 -0.0034310112 -0.10453831 0.2255223 0.2945559 0.052213773 -0.023742571
-0.021130305 0.119610816 0.16472302 0.03896329 0.20961562 -0.20329961 0.12689869 0.15061614
-0.21195275 -0.091267765 -0.124233976 -0.32191327 0.19731541 0.26815948 0.22684133 0.21336837
0.05289035 0.0795467 0.024302125 0.011980416 -0.19053058 -0.121453315 -0.16423555 0.010243001

DecList.2.conv.bias f4 [4]
00000000: caf2 623e d78b ce3d 3032 34be 6d45 21be
0.22162929 0.10085266 -0.1759727 -0.1574914

DecList.2.bn.weight f4 [4]
00000000: 0343 0f3f b3bf a93f ae99 b63f 10c4 9d3f
0.55961627 1.3261627 1.4265649 1.2325459

DecList.2.bn.bias f4 [4]
00000000: 14df ddbd 8b25 ed3e 0efb 673e e7fa 173c
-0.108335644 0.46317706 0.22654364 0.009276128

DecList.2.bn.running_mean f4 [4]
00000000: 9c7a c4be a263 743f 43d6 183e b0b0 543d
-0.38374794 0.9546453 0.14925484 0.051926315

DecList.2.bn.running_var f4 [4]
00000000: 8019 833f 0bca 9c3f 330a a83f 38ea 5c3f
1.0242157 1.2249159 1.3128113 0.8629489

DecList.3.conv.weight f4 [4, 2, 4]
00000000: d2b3 153e 5605 2d3e 5e11 353e 22f7 1c3e
00000010: d8b8 3d3e 46dc 0a3f cafe 213f 0d11 8e3e
00000020: 0945 e6bd a347 50be 33f4 7fbe 9bc9 24be
00000030: 12ba 6cbe 9c99 74be 95bd 30be 98c4 26be
00000040: 76e0 8a3d c2a1 a73e bebf e23e edb7 3b3e
00000050: 3114 f03d ed52 ab3d 9d4e 55be 7c20 36be
00000060: 03e8 16be 00e6 02be df33 efbd d383 07be
00000070: 4dda 2a3e 71f7 1f3e 592d 0d3e 7e55 153e
0.14619377 0.16896567 0.17682406 0.15328649 0.18527544 0.5424236 0.632794 0.27747384
-0.11243636 -0.20339827 -0.24995498 -0.16092531 -0.23117855 -0.23886722 -0.1725982 -0.16285932
0.06781094 0.327406 0.44286913 0.18331881 0.11722601 0.08365426 -0.2083077 -0.1778583
-0.14736943 -0.1278305 -0.116798155 -0.1323388 0.16684838 0.15621735 0.1378683 0.14583394

DecList.3.conv.bias f4 [2]
00000000: 7392 a8be 6fb3 22be
-0.32924232 -0.15888761

DecList.3.bn.weight f4 [2]
00000000: da1f 0a3f 6b47 2e3f
0.5395485 0.68077725

DecList.3.bn.bias f4 [2]
00000000: 8f70 063d 0d3c 8e3d
0.032822188 0.069450475

DecList.3.bn.running_mean f4 [2]
00000000: cce0 fa3d 093c 413f
0.12249908 0.7548223

DecList.3.bn.running_var f4 [2]
00000000: f934 6a3f c330 f83e
0.9148708 0.48474702

bottleneck.0.weight f4 [32, 32, 1]
00000000: b9ae 12bd 63fb b23e bf38 e6bd 1791 c83b
00000010: 0f8f d1bd 3d8b 01bb 62e8 653c 81d3 01be
00000020: 7f20 083e 2ad0 0dbd 0259 603b 67f5 c2bc
00000030: 6096 2cbd e2c7 213e a639 a43d 70de 3f3d
00000040: 2f9c 7d3d 7e27 0bbe ff5b 29be a072 c23d
00000050: 325d 083e f26e 863e 3aa4 bb3d 0c08 d63d
00000060: 880f 6fbe 1ca2 14be d0e7 c9bd b9d4 7f3d
00000070: 15d3 b3bc 4175 efbd 592f e23d fff5 80bd
00000080: d37c 8d3d b49a 5fbe 1ec6 6dbd 5807 47be
00000090: 1795 3ebd fb91 513d b26e 2c3d 3f3e f7bd
000000a0: 0a0e fcbc e266 8b3e 2456 7d3a 5afe eebb
000000b0: 5f86 bf3c 6cf4 65be 9046 3f3d 35e1 6f3e
000000c0: faa4 113d bf86 25be d694 c4bc facf 433c
000000d0: b41f 74bd 5156 b33d 58b1 543e a428 4e3c
000000e0: 450d 563e b473 c4bc 2bc4 82bd 4f08 f33c
000000f0: 8bc2 103d b367 363e 2fff 083e 5b13 5bbc
00000100: 4096 93bc b578 7ebd 3d5f 403e c771 18be
00000110: 9f1f cabb fabe 9bbe 3147 323e 29ab 9bbe
00000120: dd46 993d 8b14 113e 9ae8 0d3d b13e 12bd
00000130: 90cb 4f3d 2430 4b3a 9714 56bd bdfd f0bd
00000140: f827 8abd 7fd1 cbbc be68 80be 3203 5d3e
00000150: 34e1 afbd ce33 20bd d7aa 9f3d cd44 8c3a
00000160: 06d8 88be 8e35 ccbe 7dc2 1f3d 25eb 2d3d
00000170: 2c06 bf3c 8a46 633d 0839 8c3e bac1 6bbe
00000180: 16b2 123e 1786 093d 52b7 013e 6a08 59bd
00000190: e9c8 7abc b753 c53d 4da4 e2bd a7ad 1e3e
000001a0: 0f37 03be 4fcf 033e 3b05 cc3d 3d5e e83d
000001b0: 3312 21bc d4bd b1bd d887 533b cfb5 89bd
000001c0: 13e9 c1bd 2e84 063e 4cd0 7f3c 9967 2ebe
000001d0: 6553 45be a44c dd3d d541 f53c 4bc6 29bd
000001e0: e010 27be 329a 2e3d 929e 9fbd 71ed 92be
000001f0: 5082 95be 9a5a 0e3e 02ab 0c3e ef7a 863d
00000200: dbc6 19be 8004 323e be27 97bd c31a 9d3d
00000210: ed80 b1bd cc31 83bd c967 5abe 50ce 4f3e
00000220: f06f 123e 6b24 c7bd 2ecd 6d3e f176 4abe
00000230: 2435 86be fa8f 943d 438c 693e 73b8 b53d
00000240: ae51 98bc 1abb 933e 3f9c d4bd 6f0a a83d
00000250: d3b9 013d ed61 e1bc 68a3 883d 4669 debd
00000260: 6da8 643d f4e2 3c3d 8a55 1e3e fcee d43b
00000270: 4b1f e83d 3fa0 563e 506d d8bb 990c 38bd
00000280: fbb2 453e 044f 5bbd 325b d7bd 4cb7 69b9
00000290: 6c4c 21be 4c8b 313e cbee 3fbe 5506 bfbc
000002a0: 4796 49bd 0248 133c 3316 ec3d 83c6 2a3e
000002b0: 3b60 d2bd 1151 183e 520d 263e c123 113e
000002c0: 1264 ac3d 02ba 92bd 147c 76bd 665e 923c
000002d0: 9cf8 06be daf7 ee3d e605 433e dc3d 66bc
000002e0: 0f56 66be f620 973d c3ab 13be e3a4 323e
000002f0: 1331 cabc fc5a 09be d498 febd 64ab a33e
00000300: 55ae 693d 240b ba3d ac6c e6bb cee7 8b3e
00000310: b30f 20be e79c 293d b8f8 2c3e c057 003c
00000320: 59ef 13bd ee8f 1e3e c844 743e 13c4 3bbc
00000330: 2467 6abd 16d5 8bbe a54f 453d eca9 f9ba
00000340: 4920 a9bc 4d2f 16bc 040a aabd 64e4 423e
00000350: b549 0fbe 3fe8 8f3d 6dbe d73d 9597 503d
00000360: 229e 0b3d 097d bdbd 13b2 1f3e ee32 17bd
00000370: 816d 4bbd a546 0bbe 0cc2 6c3d 5cc8 3dbd
00000380: 3482 073c 2520 02ba b692 1f3e 5212 c43d
00000390: c56f 6e3e d483 e4bc 3d09 253d 5cf0 98bd
000003a0: e235 1dbe 1fc9 d4bd 6812 8dbb 86a3 a5bd
000003b0: eab6 e2bd 8374 a43d 61b3 d03d 0be9 08be
000003c0: c8e1 0d3e f6f8 72bd 4bc8 e63d af27 063e
000003d0: 5c5b c5bd a8e6 f03d 9d0c 0abe 8c6b a0be
000003e0: 61ec 173e 4cab 323c 1c46 c3bb ee56 07be
000003f0: 6de0 323c 8f98 d43b e590 f83d e328 c53d
-0.03581116 0.34957418 -0.11241292 0.0061208117 -0.102323644 -0.001976683 0.014032455 -0.12678339
0.13293646 -0.03462235 0.003423274 -0.023798658 -0.042135596 0.15798905 0.08018808 0.046842992
0.061916526 -0.13589284 -0.16539 0.09494519 0.13316801 0.2625652 0.09162183 0.104507536
-0.23345768 -0.14514965 -0.09858668 0.062458728 -0.021951238 -0.11692286 0.11044187 -0.0629692
0.06908574 -0.21836358 -0.058050267 -0.19436395 -0.046528902 0.05116461 0.042097755 -0.120724194
-0.030768413 0.2722693 0.000966402 -0.0072935047 0.023379503 -0.22456521 0.046698153 0.23425753
0.035557725 -0.16164683 -0.023996752 0.011951441 -0.059600547 0.08756698 0.20770776 0.012582932
0.209035 -0.023980953 -0.06385072 0.029667048 0.03534178 0.17812996 0.13378595 -0.013371314
-0.01801598 -0.062126834 0.1878633 -0.14887153 -0.0061683203 -0.3041914 0.1740997 -0.30404022
0.07484219 0.14167993 0.034645654 -0.03570432 0.05073124 0.0007751009 -0.05226573 -0.11767147
-0.06745905 -0.024880169 -0.25079912 0.2158325 -0.08587876 -0.039111905 0.07796257 0.0010701657
-0.26727313 -0.3988461 0.039003838 0.04246058 0.023318373 0.055487193 0.2738726 -0.2302312
0.14325747 0.033575144 0.12667587 -0.05298654 -0.01530669 0.09635108 -0.11066494 0.1549593
-0.12813972 0.1287205 0.09961935 0.113460995 -0.009830999 -0.08678785 0.0032277014 -0.0672413
-0.094682835 0.1313636 0.015613627 -0.17031707 -0.19270094 0.10805634 0.029938618 -0.041448873
-0.16315031 0.04262752 -0.07793917 -0.28696778 -0.29200983 0.13901749 0.1373711 0.065664165
-0.15017264 0.17384529 -0.07380627 0.0767112 -0.08667169 -0.064059824 -0.21328653 0.20293546
0.14300513 -0.09723743 0.23222801 -0.19771935 -0.26212418 0.07254024 0.22807412 0.088730715
-0.018593635 0.28853685 -0.10381364 0.08205115 0.031671356 -0.027512515 0.06671792 -0.10859923
0.055824686 0.046114877 0.15462318 0.0064982157 0.11334094 0.20959567 -0.006604828 -0.04493389
0.19306557 -0.053542152 -0.10515441 -0.00022288895 -0.15751809 0.17338294 -0.18743436 -0.023318449
-0.04921558 0.008989336 0.11527672 0.16677289 -0.10272261 0.14874674 0.16216019 0.14173795
0.084175244 -0.071643844 -0.060176924 0.017867278 -0.13180774 0.11668368 0.19045219 -0.014052834
-0.22493766 0.07379334 -0.1442099 0.17445712 -0.024681604 -0.13413614 -0.124314934 0.31966698
0.05705102 0.09084156 -0.0070319977 0.2732529 -0.15630989 0.0414094 0.16891754 0.007833421
-0.03611693 0.15484592 0.23854363 -0.011460322 -0.05722727 -0.2731101 0.048171658 -0.0019047833
-0.020645278 -0.009166551 -0.083026916 0.19032437 -0.13992961 0.07026719 0.10534368 0.05092581
0.034086354 -0.09252364 0.15595274 -0.036913805 -0.049664978 -0.13601168 0.057802245 -0.046333656
0.008270789 -0.00049638964 0.1558331 0.09573807 0.23284824 -0.027894892 0.040292013 -0.0746772
-0.15352586 -0.10389923 -0.0043051727 -0.0808783 -0.11070044 0.08030035 0.10190464 -0.13370149
0.1385566 -0.05931946 0.112686716 0.13101076 -0.09636566 0.11762744 -0.13481374 -0.31332052
0.14836265 0.010905098 -0.0059592854 -0.13216755 0.010917765 0.006487913 0.121370114 0.09626939

bottleneck.0.bias f4 [32]
00000000: a264 e4bd 6f4a cc3d efa4 5a3d 8310 113e
00000010: 400f af3d 8a67 143c e10b 9a3e e265 f23d
00000020: a705 b93e e44a 613e d02a 2cbb 6ccd 4f3e
00000030: e12c 03be c786 a1bd 4004 50be 0300 4ebc
00000040: 78d9 18be dfec 703e a15b 823d e328 9ebc
00000050: 442b 42bd 9714 87be 8808 933e 5ffa e63d
00000060: 6eaa f63c d9ea a53d bbb2 1b3e d862 d43d
00000070: 0a53 9c3d 035e 9c3d 9a87 d3bd 443c 013e
-0.11152007 0.099751346 0.05337995 0.14166455 0.085478306 0.009057889 0.30087188 0.11835839
0.36137125 0.22001225 -0.0026270635 0.20293206 -0.12810089 -0.07887035 -0.20314121 -0.012573245
-0.14926708 0.23527859 0.06365133 -0.019306606 -0.047404543 -0.26382896 0.28717446 0.11278223
0.030110564 0.08101434 0.15204899 0.103704154 0.07633026 0.07635119 -0.10328598 0.12620646
