checkpoints/best_DTUNet_emb_snr_-4.pth (torch, 321266 bytes, 38 tensors)

EncList1.0.conv.weight f4 [8, 1, 13]
0	0x3e8016b4	0.2501732
1	0x3e6f8e73	0.23394184
2	0xbdabe0dc	-0.08392498
3	0x3e87c084	0.26514065
4	0xbe1be3d8	-0.15223634
5	0xbe05b5cb	-0.1305763
6	0x3c210cce	0.009829713
7	0xbdc11018	-0.09426898
8	0x3d7432f5	0.05961891
9	0xbe2bb964	-0.1676994
10	0xbd2b68c9	-0.041847978
11	0xbe620a9f	-0.22074364
12	0xbe54c843	-0.20779519
13	0x3ed0a6af	0.4075217
14	0xbd001562	-0.031270392
15	0x3dd42072	0.10357751
16	0x3e248dc1	0.160697
17	0xbdf52aa9	-0.119710274
18	0xbdce01da	-0.10058947
19	0xbea07ba4	-0.3134433
20	0xbc51f250	-0.012814119
21	0xbe0b2ede	-0.13592097
22	0xbe0fa422	-0.14027455
23	0x3e141783	0.14462094
24	0xbd8a99ce	-0.06767617
25	0x3dd98b0d	0.10622225
26	0x3dad3bcf	0.08458673
27	0xbd83f1f6	-0.06442635
28	0xbda88c05	-0.082298316
29	0xbdf8f7c3	-0.12156632
30	0xbe5bc890	-0.21463227
31	0xbd1c9e30	-0.038236797
32	0x3e32b434	0.17451555
33	0xbe116a80	-0.14200783
34	0x3e0d51a5	0.13800676
35	0xbe056134	-0.13025361
36	0xbe3e5440	-0.18586826
37	0x3eb4dc8f	0.35324523
38	0xbdde599f	-0.108569376
39	0xbe5aa130	-0.2135055
40	0xbebf9edc	-0.37425888
41	0xbeb8ed99	-0.36118773
42	0x3e2b3f5a	0.16723385
43	0xbd7996d2	-0.06093485
44	0xbe2be9a4	-0.16788346
45	0x3e459898	0.19296491
46	0x3e46f041	0.19427587
47	0xbdbf1ae1	-0.093312986
48	0x3d598dcd	0.053113747
49	0x3e0bdd04	0.1365853
50	0x3db9d2f3	0.090734385
51	0x3e65b876	0.22433648
52	0xbdfdac40	-0.1238637
53	0x3dad7808	0.0847016
54	0x3df2f82c	0.11863741
55	0xbe7033f0	-0.23457313
56	0x3d11d061	0.035599116
57	0x3dcd8350	0.100348115
58	0x3e848d1d	0.2588891
59	0x3e3a911c	0.18219417
60	0x3e63a241	0.22229864
61	0x3d1ad144	0.037797228
62	0x3e63c791	0.22244097
63	0x3db2c9bd	0.08729885
64	0xbe08c863	-0.13357691
65	0xbe400abd	-0.18754096
66	0x3e1f16fe	0.15536115
67	0x3d08b13f	0.03337216
68	0xbd609fa0	-0.05483973
69	0x3e35de85	0.17760666
70	0xbc214401	-0.009842874
71	0xbdd93be9	-0.1060713
72	0x3e2108fd	0.15726085
73	0x3e30edbd	0.1727819
74	0x3dbc73e2	0.092017904
75	0xbea58134	-0.32325137
76	0xbde7af8f	-0.11312782
77	0x3cd4a8d1	0.025959404
78	0x3dc82a06	0.0977364
79	0x3ea1d79e	0.31609815
80	0xbe38c821	-0.18045093
81	0xbe58313e	-0.21112534
82	0xbe83b9fe	-0.25727838
83	0xbe104cc3	-0.14091782
84	0xbd2c130b	-0.04201035
85	0xbe6daa53	-0.23209505
86	0x3e494e26	0.19658718
87	0xbe548365	-0.20753248
88	0x3e948266	0.29005736
89	0xbe3520c7	-0.17688285
90	0x3e91f0e8	0.2850411
91	0xbe6fa2e5	-0.23401983
92	0xbe86596a	-0.26240093
93	0xbd9a5183	-0.075350784
94	0x3d0ac237	0.033876624
95	0xbcefbfd7	-0.029266281
96	0xbdb2621b	-0.087101184
97	0xbe2ff0e9	-0.17181744
98	0xbe01507d	-0.1262836
99	0xbd92b3aa	-0.071631745
100	0x3e712ead	0.23552962
101	0xbdf3442c	-0.11878237
102	0xbb418ff7	-0.0029535273
103	0x3c56ffbd	0.013122496

EncList1.0.conv.bias f4 [8]
0	0xbd48414d	-0.0488904
1	0x3d220e9f	0.039564725
2	0xbe872d95	-0.26401964
3	0xbe273959	-0.1633047
4	0xbde46f8f	-0.111540906
5	0x3e8e0344	0.27736866
6	0x3e2ed625	0.17073877
7	0x3d0ef532	0.034901805

EncList1.1.conv.weight f4 [16, 8, 7]
0	0x3d48692b	0.04892842
1	0x3d8994a8	0.06717807
2	0xbd303081	-0.043015007
3	0xbdc17975	-0.09446994
4	0xbdd20278	-0.10254377
5	0xbdc1b49a	-0.09458275
6	0xbdc2a8d2	-0.09504856
7	0x3d40c2e8	0.047060877
8	0x3e66a006	0.22521982
9	0x3e743a9e	0.23850486
10	0x3e9f0b41	0.31063274
11	0x3d374f2e	0.044753246
12	0xbe27f4c1	-0.1640196
13	0xbe40a292	-0.18812016
14	0xbd87fd32	-0.0664009
15	0x3d2e2d55	0.0425237
16	0xbd514de5	-0.051099677
17	0xbd71b5d2	-0.059011288
18	0x3d6842ed	0.05670445
19	0xbdb339f8	-0.08751291
20	0xbe47eb45	-0.19523342
21	0xbdb40830	-0.08790624
22	0xbddcf11a	-0.10788174
23	0xbda8f9da	-0.082507804
24	0x3e728109	0.23682036
25	0x3eb88e85	0.36046234
26	0x3e39ebd4	0.18156368
27	0x3d935fd1	0.0719601
28	0xbaf65cda	-0.0018795982
29	0x3c0e3e21	0.008681805
30	0xbda7686b	-0.08174213
31	0xbe1a7254	-0.15082675
32	0x3dad2ccd	0.08455811
33	0xbd5ef91d	-0.05443679
34	0xbd640475	-0.055668313
35	0x3e8b9cac	0.2726797
36	0x3e92ab77	0.28646442
37	0x3e261256	0.16217932
38	0x3e12b88c	0.14328212
39	0xbd35d400	-0.044391632
40	0x3dc02d37	0.09383624
41	0xbd61cee3	-0.055128943
42	0x3e2fa90a	0.17154327
43	0x3bc45bf4	0.005992407
44	0x3e2f38ba	0.17111483
45	0x3e452374	0.19251806
46	0x3e613bc1	0.2199545
47	0x3df3c0da	0.11902018
48	0xba650ffa	-0.00087380374
49	0x3dc959fa	0.09831615
50	0x3db325bf	0.08747434
51	0xbd8d65b4	-0.06904164
52	0x3cc87be2	0.024473134
53	0x3db404fe	0.08790015
54	0xbd570376	-0.052493535
55	0xbd02e729	-0.031958733
56	0xbdc0b3ec	-0.094093174
57	0xbd0de73b	-0.034644347
58	0x3ccc2ddf	0.024924217
59	0x3e59e8ba	0.21280184
60	0x3eb66ca9	0.35629776
61	0x3d73da60	0.05953443
62	0x3cc954dd	0.024576599
63	0xbd45d85f	-0.04830205
64	0xbbe0d0e6	-0.00686084
65	0xbb198996	-0.0023427955
66	0x3e6450ab	0.22296397
67	0x3ec63afd	0.3871688
68	0x3e880315	0.2656485
69	0x3e60e0e4	0.21960789
70	0xbd0cce39	-0.034376357
71	0x3d8828ac	0.066483825
72	0x3df96034	0.121765524
73	0x3d97e943	0.07417538
74	0x3d3208eb	0.043465536
75	0xbda1c423	-0.07898738
76	0x3c59fe5b	0.013305272
77	0x3ef96acf	0.487143
78	0x3e80c20c	0.25148046
79	0x3d61f32b	0.055163544
80	0xbd4020ae	-0.046906166
81	0x3d213837	0.03936025
82	0x3d95ffa4	0.0732415
83	0x3e27ae8d	0.1637518
84	0x3e716168	0.23572314
85	0x3e9cbbc6	0.3061201
86	0x3d7e5fe3	0.062103163
87	0xbe6fce7a	-0.23418608
88	0xbe91930e	-0.28432506
89	0xbe9baf4d	-0.3040718
90	0xbe9402d6	-0.28908414
91	0x3e62342d	0.22090216
92	0x3ddf5a50	0.109058976
93	0x3e9fa0dc	0.31177413
94	0x3e7a928b	0.24469964
95	0xbd91b813	-0.071151875
96	0xbe190ab3	-0.14945488
97	0x3b9b890d	0.0047465623
98	0x3e163339	0.14667977
99	0x3d3ffacf	0.04687005
100	0x3e66e536	0.22548375
101	0x3df14e22	0.11782481
102	0x3e853b9f	0.2602205
103	0x3e37003c	0.17871183
104	0x3e674c4d	0.225877
105	0xbdbfb884	-0.093613654
106	0x3cd5a7c9	0.026080983
107	0x3d748cf8	0.05970475
108	0xbdd7272a	-0.10505517
109	0xbdfcaab4	-0.123372465
110	0xbc526571	-0.012841568
111	0x3de139c3	0.10997345
112	0x3e226a77	0.15860926
113	0x3e35ff67	0.1777321
114	0x3ecf417a	0.40479642
115	0x3e96efb1	0.29479745
116	0x3e96860d	0.29399148
117	0x3e2000fc	0.15625376
118	0x3e0fdae7	0.14048348
119	0xbe2e5990	-0.17026353
120	0xbe88b483	-0.2670022
121	0x3c21b1c7	0.009869046
122	0x3e746aa3	0.23868804
123	0x3e992deb	0.29917845
124	0x3eaa4879	0.33258417
125	0x3e9fc9d0	0.31208658
126	0xbe67a807	-0.22622691
127	0xbe185188	-0.14874852
128	0xbdb4886a	-0.088150814
129	0x3b8385d1	0.004013755
130	0x3d90aa52	0.07063736
131	0x3e0ffe7f	0.14061926
132	0x3da0a855	0.07844607
133	0x3dd5a908	0.10432631
134	0x3e01cf4f	0.12676738
135	0xbe7a59da	-0.24448338
136	0xbea1f407	-0.3163149
137	0xbe6019ae	-0.21884796
138	0x3e16477f	0.14675711
139	0x3e1aed4f	0.15129589
140	0x3e608bb2	0.2192829
141	0x3da94282	0.082646385
142	0xbd1c314d	-0.038132954
143	0xbddf9734	-0.109175116
144	0xbd0dc84c	-0.034614846
145	0xbd2ca870	-0.042152822
146	0xbddb883f	-0.10719346
147	0x3e240384	0.16016966
148	0x3e0a81e4	0.13526112
149	0x3db4072e	0.08790432
150	0x3da04a06	0.07826619
151	0x3cb9dbd6	0.022687834
152	0xbdfb8645	-0.12281469
153	0xbe09b8a3	-0.1344934
154	0xbe3a8b7e	-0.18217275
155	0xbdf37b1b	-0.11888715
156	0xbe29633b	-0.1654176
157	0x3dd01d87	0.10161882
158	0xbc274f83	-0.010211828
159	0x3e8b85de	0.2725057
160	0x3db3f96a	0.08787806
161	0x3d5d5327	0.05403438
162	0xbc6e9402	-0.014561655
163	0xbdd8365a	-0.10557242
164	0x3d9277d6	0.07151763
165	0x3e056346	0.13026151
166	0x3d91f653	0.07127061
167	0x3c20175b	0.009771193
168	0xbe6f9b2d	-0.23399039
169	0xbd46adf0	-0.048505723
170	0xbe10b253	-0.14130525
171	0xbd9e90ba	-0.07742448
172	0xbd97ad34	-0.07406083
173	0xbbf4e66f	-0.007473759
174	0x3cad595a	0.02116077
175	0xbc2b084c	-0.01043899
176	0xbe395c10	-0.18101525
177	0xbd9b40c0	-0.075807095
178	0xbe3cd57d	-0.18440814
179	0xbde02476	-0.10944454
180	0x3cee4c04	0.029088981
181	0xbb15bc6e	-0.0022847909
182	0xbc01ec08	-0.007929809
183	0x3d526bad	0.05137222
184	0xbdbd867a	-0.09254165
185	0x3dc825c1	0.09772826
186	0x3cb0bd3a	0.021574605
187	0xbe08350a	-0.13301483
188	0xbda17a3c	-0.078846425
189	0xbd7b7bde	-0.061397426
190	0xbc2d6c81	-0.010584951
191	0x3c0c0f76	0.008548608
192	0xbdda4776	-0.10658161
193	0xbe7e01e4	-0.24805409
194	0xbeb83a10	-0.35981798
195	0xbe8670e1	-0.26257995
196	0x3d81a4c5	0.063302554
197	0xbdfcc8f9	-0.1234302
198	0x3dd316ef	0.103071086
199	0x3e11fcd8	0.14256608
200	0x3dbdd2ff	0.0926876
201	0xbd9dce17	-0.07705324
202	0x3e0a34a7	0.13496648
203	0xbcd2bdf1	-0.025725337
204	0x3e13663a	0.14394465
205	0x3d0b71dc	0.03404413
206	0x3de25e71	0.110531695
207	0x3e29d0dd	0.16583581
208	0x3e53218a	0.20618263
209	0x3e2b51e0	0.16730452
210	0x3dd24550	0.102671266
211	0x3d9714c9	0.07377011
212	0x3db9d18f	0.09073173
213	0xbc90972e	-0.017650213
214	0x3e29945e	0.16560504
215	0x3e1c1bd9	0.15244998
216	0xbbf1fefd	-0.0073851333
217	0x3e244015	0.1604007
218	0xbcb29dc2	-0.02180374
219	0xbd667dde	-0.05627238
220	0xbd97ec81	-0.074181564
221	0xbda45073	-0.08023157
222	0xbdfe4101	-0.12414742
223	0x3b5dda81	0.0033852162
224	0xbefd16d5	-0.49431482
225	0xbebc3238	-0.36757064
226	0xbd44aaa6	-0.048014306
227	0x3e0f41b4	0.13989908
228	0x3e51f55b	0.20503752
229	0x3ec4be4c	0.38426435
230	0x3e444fd7	0.19171081
231	0xbe7b314a	-0.24530521
232	0xbe1edc41	-0.15513708
233	0xbea0f164	-0.31434166
234	0xbf24e41c	-0.6441057
235	0x3e0d336d	0.13789149
236	0x3ed29f9e	0.41137403
237	0x3ee2ac48	0.44272065
238	0xbcfdd83d	-0.0309869
239	0xbdf1d7a8	-0.11808711
240	0xbe12034a	-0.14259067
241	0xbde8e598	-0.113719165
242	0xbdd0f99d	-0.1020386
243	0xbe9b3d11	-0.30320027
244	0xbe3ec5f8	-0.18630207
245	0x3ed88d0d	0.42295113
246	0x3ed9420e	0.42433208
247	0x3ef1146b	0.4708589
248	0x3db14e5f	0.08657526
249	0xbd796e1f	-0.060896035
250	0xbe859387	-0.26089117
251	0xbd5fdd6d	-0.054654527
252	0xbd6cacfc	-0.05778216
253	0x3e24422f	0.16040872
254	0x3d9c82ee	0.0764216
255	0x3e20bbc5	0.15696628

EncList1.1.conv.bias f4 [16]
0	0x3e651c6a	0.2237412
1	0x3e3cfffc	0.18457025
2	0xbcb1d0ee	-0.02170607
3	0x3e03456a	0.12819448
4	0xbd878696	-0.06617467
5	0xbeca0b81	-0.39461902
6	0x3e5790e7	0.2105137
7	0x3d71466d	0.058905054
8	0x3cd69992	0.026196275
9	0x3e244dc4	0.1604529
10	0xbee6a84c	-0.45050275
11	0xbdae7257	-0.08517902
12	0xbd6a6e1c	-0.057233915
13	0xbe53b6df	-0.20675229
14	0xbdb42feb	-0.08798202
15	0x3cd9ea92	0.02660111

EncList1.2.conv.weight f4 [32, 16, 7]
0	0xbdc28b51	-0.09499229
1	0xbdd30fed	-0.10305772
2	0xbd97fcdb	-0.07421275
3	0x3d54c42e	0.051944904
4	0xbd914eb0	-0.070950866
5	0xbc7a7322	-0.015286239
6	0xbc14d982	-0.009085061
7	0xbd8ffa35	-0.07030145
8	0xbe14ac26	-0.14518794
9	0x3d359348	0.04432991
10	0xbdc16e99	-0.09444923
11	0xbbdca3a8	-0.0067333765
12	0xbdf768b2	-0.12080516
13	0xbad98367	-0.0016594947
14	0x3e9b567a	0.30339414
15	0x3e20ce17	0.15703617
16	0x3e2806ee	0.16408893
17	0x3d4304b2	0.0476119
18	0x3da2f03b	0.079559766
19	0x3dfc4605	0.12318043
20	0x3c165fcb	0.009178112
21	0xbe8007ff	-0.250061
22	0xbe321a7b	-0.17392914
23	0xbdc902ce	-0.09814988
24	0xbe7bbfdd	-0.24584909
25	0xbe5a240a	-0.2130281
26	0xbdfe4a04	-0.12416461
27	0x3d77e807	0.060524013
28	0x3d9287c8	0.071548045
29	0xbde2b861	-0.11070324
30	0xbeb8528f	-0.36000487
31	0xbe783bdc	-0.24241585
32	0xbe53545a	-0.20637646
33	0x3dc64d9f	0.09682774
34	0x3e38984e	0.1802685
35	0xbe8c0787	-0.27349493
36	0xbebd2fe6	-0.36950606
37	0xbec916b3	-0.3927513
38	0x3b5bf734	0.0033564093
39	0x3e838fb5	0.25695577
40	0x3e6cbe28	0.23119414
41	0x3eb5e250	0.35524225
42	0xbe83da85	-0.25752655
43	0xbe1a798c	-0.15085429
44	0xbd34ca54	-0.044138268
45	0x3d89da57	0.06731098
46	0x3e014995	0.12625726
47	0x3d885038	0.066559255
48	0x3e1328ce	0.14371035
49	0x3e84aa42	0.25911146
50	0x3e2ca54f	0.16859935
51	0x3de993ed	0.11405168
52	0xbd215817	-0.03939065
53	0xbd07573e	-0.033042185
54	0xbd14b455	-0.03630479
55	0x3df73ffa	0.120727494
56	0xbd91257e	-0.07087229
57	0xbca354cf	-0.0199379
58	0x3e276fc7	0.16351233
59	0x3d9594e5	0.0730379
60	0x3d49cd70	0.049268186
61	0x3c0eb30f	0.008709683
62	0x3e417c71	0.18895127
63	0xbd82e8a9	-0.06392033
64	0xbe30ac39	-0.17253198
65	0xbe83913b	-0.2569674
66	0xbe974b3c	-0.29549587
67	0xbe34bb62	-0.17649606
68	0xbe4dade2	-0.20085862
69	0xbe846623	-0.25859174
70	0x3ccf39f9	0.025296198
71	0xbce6cac7	-0.028172864
72	0xbe75f845	-0.24020489
73	0xbdceaa4b	-0.100910746
74	0xbda65518	-0.08121699
75	0x3cbafe6f	0.022826402
76	0x3e6a02a5	0.22852571
77	0xbd2ffb10	-0.04296404
78	0xbbbadf17	-0.005702864
79	0xbd2dab3a	-0.042399622
80	0x3e0dd586	0.13850984
81	0x3e10abda	0.14128056
82	0x3d009c20	0.031398892
83	0x3ddb49de	0.107074484
84	0x3d1c1935	0.038109977
85	0xbd641305	-0.0556822
86	0x3d7ab895	0.061211187
87	0x3e1cbc0d	0.1530611
88	0x3dbe9e21	0.093075044
89	0xbc7171e1	-0.0147366235
90	0x3d1d546a	0.03841058
91	0xbcc94c49	-0.024572508
92	0x3df357df	0.118819945
93	0x3d776f14	0.060408667
94	0xbc074010	-0.00825502
95	0x3ca34387	0.01992966
96	0x3ca8da9b	0.020612052
97	0x3db1f37c	0.08689019
98	0x3e2eb172	0.17059878
99	0xbce2be7b	-0.027678719
100	0xbe12bb93	-0.14329366
101	0x3c9c116d	0.019051278
102	0x3d97a0e0	0.07403731
103	0x3dc3d4af	0.095620506
104	0x3ec34ad2	0.3814302
105	0xbda29467	-0.07938462
106	0x3c86630a	0.016404647
107	0x3e04640d	0.12928791
108	0x3e059a3e	0.1304712
109	0x3d9b9216	0.07596223
110	0x3df2cbe1	0.11855293
111	0xb8f8997a	-0.00011854149
112	0xbcf77770	-0.03020832
113	0xbd9fac68	-0.07796556
114	0xba7a39b9	-0.00095453445
115	0xbdec07aa	-0.11524899
116	0x3db3e566	0.08783989
117	0x3d3b14d2	0.045674153
118	0x3e083507	0.13301478
119	0xbe41b686	-0.18917283
120	0xbe18b380	-0.14912224
121	0xbdd8af33	-0.105802916
122	0xbe1fbb4f	-0.15598796
123	0x3dbe2151	0.09283698
124	0x3e2be84b	0.16787831
125	0x3dfbc3fb	0.1229324
126	0xbdae0353	-0.08496728
127	0x3d0ec40f	0.034854945
128	0xbdb1c39f	-0.0867989
129	0xbb977e91	-0.004623242
130	0x3e3959d1	0.18100668
131	0x3e77140d	0.24128743
132	0x3d831322	0.06400134
133	0xbdf87d3a	-0.1213326
134	0x3ba5f001	0.005064011
135	0x3d4e8507	0.050419834
136	0x3d092f63	0.033492457
137	0xbc49b05f	-0.012310117
138	0xbdb13a65	-0.08653716
139	0xbd817f67	-0.06323128
140	0xbdd78595	-0.105235256
141	0xbbd84a05	-0.0066006207
142	0xbdfe4c1f	-0.12416863
143	0xbbcd3dd9	-0.0062634763
144	0x3e4bd9cf	0.19907306
145	0x3d981fac	0.07427916
146	0x3c85014e	0.016235974
147	0x3d5152f6	0.05110451
148	0xbbbddcb3	-0.0057941317
149	0x3d384527	0.044987824
150	0x3e2280a5	0.15869386
151	0x3e2abf02	0.16674426
152	0xbd4d91a5	-0.050187726
153	0xbdb70b14	-0.0893766
154	0x3c5eba72	0.013594257
155	0x3d15e7c3	0.03659798
156	0xbdb4e180	-0.08832073
157	0x3de02675	0.10944835
158	0x3da2d23f	0.079502575
159	0xbdce54ec	-0.10074791
160	0xbc32cf40	-0.01091367
161	0xbe8bd98d	-0.27314416
162	0xbe56794d	-0.2094471
163	0xbe13745f	-0.14399861
164	0xbd017596	-0.03160628
165	0x3dcbe94c	0.09956607
166	0x3e3e46cc	0.18581694
167	0x3e3c0388	0.18360722
168	0xbcc29e3f	-0.023757098
169	0xbde179cd	-0.1100956
170	0x3db50bb5	0.088401236
171	0xbd9ecc6c	-0.07753834
172	0xbe13290a	-0.14371124
173	0xbd9a3576	-0.07529728
174	0xbcad1611	-0.021128686
175	0xbe0bad93	-0.13640432
176	0xbdbaf8fb	-0.091295205
177	0xbe13cd88	-0.14433873
178	0x3cd3c67f	0.025851486
179	0x3d77162b	0.060323875
180	0x3d9f4b18	0.07777995
181	0xbccd566c	-0.025065623
182	0xbb47700f	-0.0030431782
183	0x3d7aca00	0.0612278
184	0x3d89bad1	0.067250855
185	0x3e1ca802	0.15298465
186	0x3e1149c6	0.14188299
187	0x3e0e81a4	0.13916641
188	0x3e11de3b	0.1424493
189	0xbd0eed86	-0.03489449
190	0xbdf241af	-0.118289344
191	0xbb3d32ad	-0.0028869316
192	0x3c7d4fe4	0.015460942
193	0x3d2aadc4	0.041669622
194	0x3db9578d	0.09049902
195	0xbc9b685b	-0.018970659
196	0xbc9be07e	-0.019027945
197	0xbd864e81	-0.06557942
198	0x3dfaa4b3	0.12238445
199	0xbd281741	-0.0410378
200	0xbd1fb334	-0.03898926
201	0xbd7f6186	-0.062348865
202	0xbca0190e	-0.019543197
203	0xbcc698fd	-0.024242872
204	0x3d07b8a8	0.033135086
205	0xbd833d3d	-0.06408165
206	0xbd26ae5f	-0.040693637
207	0x3d57a9b5	0.05265208
208	0x3e1118db	0.14169638
209	0x3db033db	0.08603641
210	0xbddfbd86	-0.109248206
211	0x3cd1c8df	0.025608478
212	0xbcca8470	-0.024721354
213	0x3bbfba9f	0.0058511044
214	0xbc41e181	-0.0118335495
215	0x3deb3151	0.11484016
216	0x3d0307e8	0.03198996
217	0xbdbf6594	-0.09345546
218	0xbc848ad5	-0.016179482
219	0xbdbb1b67	-0.09136086
220	0x3cbfaa14	0.02339653
221	0x3d84f445	0.06491903
222	0x3d21eb9f	0.039531346
223	0x3c579dd3	0.013160187
224	0x3dc236cd	0.09483109
225	0x3e88ca6b	0.26716933
226	0x3e999cc2	0.3000241
227	0x3e557f4d	0.20849343
228	0xbe318a02	-0.17337802
229	0xbe72bbf8	-0.23704517
230	0xbe84466a	-0.25834972
231	0x3e47ba50	0.19504666
232	0x3ebe5e2a	0.37181216
233	0x3e22fc39	0.15916528
234	0xbd52dcfe	-0.051480286
235	0xbe49768c	-0.19674128
236	0xbebb5fb0	-0.3659644
237	0xbe8c9343	-0.27456102
238	0x3e9844bb	0.29739937
239	0x3eced88e	0.40399593
240	0x3e265bce	0.16245958
241	0xbe5bc587	-0.2146207
242	0xbe9a2d05	-0.30112472
243	0xbec57a32	-0.3856979
244	0xbed87f07	-0.42284414
245	0xbe06f3e8	-0.1317898
246	0xbdca8b92	-0.09889902
247	0xbe566709	-0.20937742
248	0xbe120dcb	-0.14263074
249	0x3d25d7a8	0.04048887
250	0xbd3f1e1d	-0.046659578
251	0x3c744b1a	0.014910484
252	0x3e6f076b	0.23342673
253	0x3e72915e	0.23688266
254	0xbd8cb0ed	-0.068696834
255	0xbe1b7f06	-0.15185174

EncList1.2.conv.bias f4 [32]
0	0xbe42c092	-0.19018772
1	0xbe306e60	-0.17229605
2	0x3d344848	0.044014245
3	0xbd78bc8c	-0.060726687
4	0x3c0311ee	0.00799988
5	0xbe3e4b2e	-0.18583366
6	0x3dd1f3df	0.10251593
7	0x3e098cf4	0.13432676
8	0x3ec02759	0.3753002
9	0xbe05ef5b	-0.13079588
10	0xbe102f1c	-0.14080471
11	0x3ea06350	0.3132577
12	0xbdc64979	-0.096819825
13	0xbd4e6f18	-0.050398916
14	0xbe380da6	-0.17973956
15	0x3abcdad1	0.0014408474
16	0xbeb2879f	-0.34869096
17	0xbd55925f	-0.052141543
18	0xbdb9dbb8	-0.09075111
19	0xbce6e11d	-0.028183514
20	0xbe0906c7	-0.13381492
21	0xbe0f010b	-0.13965242
22	0xbcab3b78	-0.02090238
23	0x3dbffe2b	0.093746506
24	0xbc4b58fb	-0.012411351
25	0xbd253a68	-0.040338904
26	0x3ce7bc24	0.028287955
27	0x3d8d15d0	0.06888926
28	0x3ee34581	0.44388965
29	0xbd31b820	-0.043388486
30	0xbe939e06	-0.288315
31	0x3bb8bbd1	0.005637624

EncList1.3.conv.weight f4 [64, 32, 7]
0	0x3c648ded	0.013949853
1	0x3cf593f6	0.02997778
2	0x3bdc52ac	0.0067237224
3	0xbde4ef53	-0.1117846
4	0x3df93ca0	0.121697664
5	0x3dd35543	0.10318997
6	0x3bf30fda	0.007417661
7	0xbd040629	-0.032232437
8	0xbd0f6dfe	-0.035017006
9	0x3e0a3f5e	0.13500735
10	0x3e1d4ec8	0.15362084
11	0xbd87ca42	-0.066303745
12	0xbe175a68	-0.14780581
13	0xbdaebe94	-0.08532444
14	0xbc87a7e1	-0.016559543
15	0xbdc8e291	-0.09808839
16	0xbb912f03	-0.004430653
17	0xbcb5acc7	-0.022177113
18	0xbd283303	-0.041064274
19	0xbc2a5d25	-0.010398184
20	0xbde90714	-0.11378303
21	0x3e34d65c	0.17659897
22	0xbd8cf8f6	-0.06883423
23	0xbe31e257	-0.17371498
24	0xbd1efa39	-0.03881285
25	0x3ce66ee2	0.028129045
26	0xbd98b673	-0.074566744
27	0xbe27cc57	-0.16386543
28	0x3d285c5f	0.041103717
29	0xbe12eb1e	-0.14347503
30	0xbda070e8	-0.07834035
31	0xbd8c343a	-0.06845899
32	0xbc9a7e78	-0.018859133
33	0xbd399c0e	-0.04531484
34	0xbdcb27a5	-0.09919671
35	0x3dd85c27	0.10564452
36	0x3e11d97b	0.14243118
37	0x3dff331c	0.1246092
38	0xbb200eca	-0.0024422877
39	0xbd01f9a8	-0.03173223
40	0x3d4eca59	0.050485943
41	0xbda76815	-0.08174149
42	0xbd674cfa	-0.056469895
43	0x3daa9a3a	0.08330198
44	0x3e629b39	0.22129525
45	0x3e9083e2	0.2822562
46	0xbdba40a9	-0.09094364
47	0xbdbf92a9	-0.09354145
48	0x3d975c22	0.0739062
49	0x3ca29dad	0.019850576
50	0x3ca66dda	0.020316053
51	0x3d8af138	0.0678429
52	0x3dd9dd80	0.10637951
53	0xbd97e84e	-0.074173555
54	0xbc4f12d2	-0.012638764
55	0xbe01af63	-0.12664561
56	0x3d2bc631	0.041937057
57	0xbe090dd2	-0.13384178
58	0xbe0de4a3	-0.13856749
59	0xbe870f10	-0.2637868
60	0xbe76d21a	-0.24103585
61	0xbe381981	-0.17978479
62	0xbd2c36c4	-0.042044416
63	0x3d888005	0.06665043
64	0x3d73ef9a	0.059554674
65	0xbccbbbb8	-0.024869785
66	0xbe19d1c5	-0.15021427
67	0x3e63b6b5	0.22237666
68	0x3de4b03a	0.11166425
69	0xbd942df7	-0.072353296
70	0x3c06df35	0.008231928
71	0xbd38a053	-0.045074772
72	0x3c69308c	0.014232766
73	0xbd9281f7	-0.07153695
74	0xbd45cffb	-0.04829405
75	0x3d414fe9	0.04719535
76	0xbe1b689e	-0.15176627
77	0xbc778e92	-0.015109675
78	0xbc856556	-0.016283672
79	0xbe0de252	-0.13855866
80	0xbe2cf45e	-0.16890094
81	0xbcf1e69e	-0.029528912
82	0xbe412648	-0.1886226
83	0xbe03ad3a	-0.1285905
84	0xbae141f6	-0.0017185796
85	0x3d1b1d91	0.037869994
86	0x3ba5856f	0.005051307
87	0x3d29724f	0.04136878
88	0x3d4b9750	0.04970485
89	0xbcf3e3ea	-0.029771764
90	0xbda51d16	-0.08062188
91	0xbc008cf1	-0.007846103
92	0xbe2b0517	-0.1670116
93	0xbdeaeeb7	-0.114713125
94	0xbc9b4fe6	-0.018958997
95	0x3d0096cc	0.03139381
96	0x3ca4c755	0.02011458
97	0xbc7e8ae0	-0.01553604
98	0xbc3685cd	-0.011140299
99	0x3de336a2	0.11094405
100	0xbc8c49cd	-0.017125035
101	0x3cfc93dd	0.030832225
102	0x3d175673	0.03694768
103	0xbc24ff99	-0.010070705
104	0xbdb80325	-0.08984975
105	0xbd52539e	-0.051349275
106	0x3ceff3c3	0.02929104
107	0x3d44ce04	0.048048034
108	0xbdfe757c	-0.12424752
109	0x3e06c4e5	0.13161047
110	0x3df8dd61	0.121516
111	0xbd1b7d9b	-0.037961584
112	0x3d120bda	0.035655834
113	0xbe195ce8	-0.14976847
114	0xbdb19a0e	-0.08671962
115	0x3d33dba0	0.043910623
116	0x3dcece6d	0.10097966
117	0x3d92e2d8	0.07172173
118	0x3d645ce3	0.055752646
119	0x3d27b797	0.04094657
120	0xbb1550c9	-0.0022783747
121	0x3d5d8873	0.054085206
122	0x3d2745a5	0.040837903
123	0x3d31271f	0.0432502
124	0x3ce0e4ea	0.027452905
125	0x3db0a921	0.08626009
126	0x3d9e0b74	0.07717028
127	0xbad48fa8	-0.0016217129
128	0x3d0a30c9	0.03373793
129	0x3d0a006e	0.033691816
130	0xbb0c992f	-0.002145361
131	0xbd13f373	-0.036120843
132	0xbd0c96ba	-0.03432343
133	0x3d4f1f59	0.050567005
134	0xbd89f5d3	-0.067363404
135	0xbe851240	-0.25990486
136	0xbb854dca	-0.004068111
137	0x3bf226aa	0.007389863
138	0xbdd5f2a5	-0.104466714
139	0xbddd86f1	-0.10816754
140	0x3d76617b	0.06015156
141	0x3d6f03ff	0.05835342
142	0x3d91cc44	0.07119039
143	0x3c909aca	0.017651934
144	0x3d7f871d	0.062384713
145	0xbd92fed1	-0.071775086
146	0xbdb64ce7	-0.08901387
147	0xbc9f4353	-0.019441282
148	0x3d96a857	0.07356327
149	0xbc88ef1b	-0.016715577
150	0x3db36d5a	0.087610915
151	0x3e080289	0.13282217
152	0x3de9cf87	0.11416536
153	0x3d2c2b3d	0.042033423
154	0xbd8e976a	-0.06962474
155	0x3b933454	0.004492322
156	0x3dae6580	0.08515453
157	0x3d0ecc22	0.034862645
158	0x3c73d0b5	0.014881303
159	0xbd30ef5f	-0.043197032
160	0x3ca67517	0.020319505
161	0x3df45a3a	0.11931272
162	0xbd94e179	-0.07269568
163	0xbcf93ce8	-0.03042455
164	0xbdcdbb3f	-0.1004548
165	0x3d2c8be4	0.042125598
166	0xbd80afb9	-0.062835164
167	0xbe505535	-0.20345004
168	0x3d5c4690	0.05377823
169	0x3da62247	0.08112007
170	0x3d6739eb	0.05645172
171	0xbbbcbb21	-0.005759612
172	0xbdbe76b4	-0.092999846
173	0xbd96344e	-0.07334195
174	0xbd9ca2fd	-0.07648275
175	0x3d6b938e	0.057513766
176	0x3dc2e638	0.09516567
177	0xbd044091	-0.032288138
178	0x3dd3e9d7	0.10347336
179	0x3d969615	0.073528446
180	0xbc0999b5	-0.008398463
181	0x3d7f2071	0.062286798
182	0xbe43f5cb	-0.19136731
183	0xbe2a74bd	-0.16646095
184	0xbd754fcc	-0.059890553
185	0x3d1b7e9d	0.037962545
186	0x3bf840d0	0.0075760856
187	0xbe4709f5	-0.19437392
188	0xbc7f7442	-0.015591683
189	0xbd9d319d	-0.076754786
190	0x3d9f6986	0.07783799
191	0xbd23796c	-0.03991072
192	0xbdfdf8a2	-0.124009386
193	0xbd80d624	-0.06290844
194	0xbd30b273	-0.043138932
195	0xbc3b4e7c	-0.011432286
196	0x3d1c85a5	0.03821339
197	0x3cd92b17	0.026509805
198	0xbc9183b0	-0.017762989
199	0xbde61623	-0.11234691
200	0xbe2c6aeb	-0.16837661
201	0xbe0829ed	-0.13297243
202	0xbd109354	-0.035296753
203	0x3dd9583f	0.10612535
204	0x3c2a4afe	0.010393856
205	0xbd829be1	-0.06377388
206	0xbe2ba6c2	-0.16762832
207	0x3c717a6e	0.014738662
208	0x3c33c5df	0.010972469
209	0xba6f7b04	-0.0009135457
210	0x3e2e4f8b	0.1702253
211	0xbbefa68c	-0.007313555
212	0x3bba9705	0.0056942725
213	0x3dc5be27	0.09655409
214	0x3dd74993	0.1051208
215	0xbda686dc	-0.08131191
216	0x399f54e5	0.00030390095
217	0x3ccad996	0.024761956
218	0xbd89ce6b	-0.06728824
219	0xbcab6158	-0.02092044
220	0x3ddd71b5	0.108127035
221	0x3e1f8e4f	0.1558163
222	0xbbfafb95	-0.0076593854
223	0xbcaf2d25	-0.021383831
224	0xbe73231d	-0.23743863
225	0xbe7c40e1	-0.24634124
226	0xbd986fc6	-0.07443194
227	0x3ce1e223	0.02757365
228	0x3d86bdb0	0.06579149
229	0x3c7d7bdf	0.015471428
230	0x3d23b345	0.039965887
231	0xbcc5989e	-0.024120625
232	0xbd22a4dc	-0.039708003
233	0xbd74e15c	-0.059785232
234	0xbd7789e2	-0.06043423
235	0xbe8812b6	-0.26576775
236	0xbea030ef	-0.31287333
237	0xbe8288c1	-0.2549496
238	0x3e72733c	0.23676771
239	0xbdea8264	-0.11450651
240	0xbee2d569	-0.44303444
241	0xbcf8d255	-0.030373732
242	0x3e21fa97	0.15818249
243	0x3e682da1	0.22673656
244	0xbd86f065	-0.0658882
245	0x3d5bf982	0.053704746
246	0xbdc60a0d	-0.09669886
247	0xbd6589ac	-0.056039497
248	0x3d6b0e05	0.057386417
249	0x3e198387	0.1499158
250	0x3c8d98e9	0.017284827
251	0x3d0aadf5	0.033857305
252	0x3e1c4ffd	0.15264888
253	0xbd7759c7	-0.060388353
254	0xbd770c3b	-0.0603144
255	0x3dcaff49	0.09911973

EncList1.3.conv.bias f4 [64]
0	0xbdb23ab0	-0.087026
1	0xbd9f8f6d	-0.07791028
2	0x3d205b56	0.039149605
3	0xbeb2028f	-0.34767577
4	0xbe3f078d	-0.18655224
5	0x3e020027	0.1269537
6	0xbec96fab	-0.39343008
7	0xbccd06d8	-0.025027677
8	0xbe6d78f6	-0.23190674
9	0xbcaa9b1e	-0.020825919
10	0xbdba5404	-0.09098056
11	0xbe2ea423	-0.170548
12	0xbe1e2d39	-0.15446939
13	0xbe3d130f	-0.18464302
14	0x3b94841c	0.00453235
15	0x3caff137	0.021477325
16	0x3c1e5052	0.009662705
17	0xbcff40c4	-0.031158812
18	0x3d612d88	0.054975063
19	0x3e06e54e	0.1317341
20	0xbe79f7f0	-0.24410987
21	0x3db3ab19	0.08772869
22	0xbdf5d62e	-0.12003742
23	0x3e0871e2	0.13324693
24	0xbde6f39c	-0.112769336
25	0x3e20e363	0.15711741
26	0xbd3cbf3e	-0.04608082
27	0xbe93ba16	-0.2885291
28	0x3dcae257	0.09906452
29	0xbe87c62e	-0.26518387
30	0xbd7825be	-0.06058287
31	0xbc68b5ce	-0.014203502
32	0xbe624d2f	-0.22099756
33	0x3e8f0598	0.27933955
34	0x3d42b7ab	0.04753844
35	0xbda07d95	-0.07836453
36	0xbe3a5e47	-0.18200026
37	0x3dc3064d	0.09522686
38	0x3d0d4632	0.03449077
39	0xbd92b077	-0.07162564
40	0x3dccfd4e	0.100092515
41	0x3d862417	0.06549852
42	0x3cf638b5	0.030056337
43	0x3d3d5b0e	0.046229415
44	0xbe0e8f84	-0.13921934
45	0xb991af5f	-0.00027787217
46	0x3c9fcebf	0.019507764
47	0xbda56a76	-0.080769464
48	0xbce5aadc	-0.028035574
49	0xbecd440a	-0.40090972
50	0x3dabda19	0.08391208
51	0x3e9eef32	0.31041867
52	0x3deb7afb	0.11498066
53	0x3da0f619	0.078594394
54	0xbe81a350	-0.2531991
55	0xbee2e0ef	-0.44312236
56	0x3e31c55c	0.17360443
57	0xbd15eb18	-0.036601156
58	0x3e0b3367	0.13593827
59	0xbe171e81	-0.1475773
60	0x3e433848	0.19064438
61	0x3e167c33	0.14695816
62	0xbd783b51	-0.060603444
63	0xbe6818a2	-0.22665647

EncList2.0.conv.weight f4 [8, 1, 13]
0	0x3e622d7a	0.2208766
1	0xbe2739c1	-0.16330625
2	0xbea2d3a8	-0.31802106
3	0xbeb6aec5	-0.35680214
4	0xbd050fa6	-0.032485627
5	0xbe593805	-0.21212776
6	0xbd64cfe7	-0.055862334
7	0x3e80c0ae	0.25147003
8	0x3d8d4e98	0.06899756
9	0x3df92a14	0.12166229
10	0x3de6906d	0.11258016
11	0x3d40271d	0.0469123
12	0x3e05caa7	0.13065587
13	0xbd38a37d	-0.04507779
14	0xbe8ede3b	-0.27903923
15	0xbea30b27	-0.31844446
16	0xbe98cadf	-0.29842278
17	0xbe322268	-0.17395937
18	0xbde283e3	-0.11060312
19	0xbe58f687	-0.21187793
20	0x3e684ff4	0.2268675
21	0xbe4aa1f7	-0.19788347
22	0x3e29e211	0.16590144
23	0xbd80e715	-0.062940754
24	0x3d57eef4	0.052718118
25	0x3ed6aefb	0.41930375
26	0x3e8ef909	0.27924374
27	0xbce8335d	-0.028344804
28	0x3dd455a3	0.103678964
29	0xbd9c5577	-0.076334886
30	0x3caf980f	0.021434812
31	0xbe9116e6	-0.28337783
32	0xbd201fa3	-0.03909267
33	0x3e7b2299	0.24524917
34	0xbe616ba3	-0.22013716
35	0x3d77f00b	0.060531657
36	0x3e7982aa	0.2436625
37	0xbe8d6775	-0.27617994
38	0xbda3ee04	-0.08004382
39	0x3e0f0e5d	0.13970323
40	0x3d149ebb	0.03628419
41	0x3debf0eb	0.11520561
42	0x3e872ecb	0.26402888
43	0xbd48b092	-0.048996516
44	0xbce97777	-0.028499348
45	0x3e926aba	0.2859705
46	0xbdf25734	-0.11833039
47	0xbde9f09a	-0.11422844
48	0x3e47a5fb	0.1949691
49	0xbd90c4fe	-0.07068823
50	0x3d913ebf	0.07092046
51	0x3d2db221	0.042406205
52	0xbd931ace	-0.07182847
53	0x3e2a6b6c	0.1664254
54	0x3e192ffb	0.1495971
55	0x3c39b6e5	0.011335109
56	0x3d2127c5	0.039344568
57	0x3e5182ee	0.20460102
58	0x3d02bf84	0.031920925
59	0x3c168443	0.009186807
60	0x3ded40a3	0.11584594
61	0xbdd94fd7	-0.10610931
62	0x3e143c32	0.14476088
63	0x3dbc2a43	0.09187748
64	0xbe786f6c	-0.24261254
65	0xb89ca48e	-7.4693104e-05
66	0xbcf71a5b	-0.030163934
67	0x3e53718c	0.20648783
68	0xbe0a862a	-0.13527742
69	0xbecde0c5	-0.40210548
70	0x3e08233a	0.13294688
71	0xbe88a00f	-0.26684615
72	0xbe830230	-0.25587606
73	0xbe94af9c	-0.2904023
74	0x3e18d851	0.14926268
75	0xbd8b7e2f	-0.06811177
76	0xbdc56b44	-0.096396
77	0x3db30347	0.087408595
78	0x3acb5a9a	0.0015514672
79	0xbde47b16	-0.11156289
80	0x3d36d230	0.044634044
81	0xbe3c8778	-0.18411052
82	0x39e137c1	0.00042956884
83	0x3e8873b8	0.26650786
84	0x3e6327d2	0.22183159
85	0x3e892f7f	0.2679405
86	0x3e4935ee	0.19649479
87	0x3dde0dcf	0.108424775
88	0x3e06f013	0.13177519
89	0xbe2e8f99	-0.17046966
90	0xbbff66ab	-0.0077942214
91	0x3e20a233	0.15686874
92	0xbea63368	-0.32461095
93	0xbe880fdc	-0.265746
94	0xbb418590	-0.0029529072
95	0xbd50d93d	-0.050988425
96	0xbeabe902	-0.33576208
97	0xbe348ac8	-0.17631066
98	0xbe117b5a	-0.14207211
99	0x3d4cc6a9	0.049994145
100	0xbe7d9bdf	-0.24766491
101	0x3e3dd8e8	0.18539774
102	0x3e5f2ab0	0.21793628
103	0xbe8a4dd3	-0.270125

EncList2.0.conv.bias f4 [8]
0	0x3d0ce954	0.034402207
1	0xbc1c2ae8	-0.009531714
2	0x3c008b01	0.007845641
3	0xbe321bc8	-0.1739341
4	0x3d2d065c	0.042242393
5	0xbe3fd550	-0.18733716
6	0xbcc806e0	-0.02441734
7	0xbf04cf56	-0.5187887

EncList2.1.conv.weight f4 [16, 8, 7]
0	0xbda39f90	-0.079894185
1	0xbe236c98	-0.15959394
2	0xbdf0b2d7	-0.11752861
3	0xbd8c73c9	-0.06858022
4	0x3dc33318	0.0953123
5	0x3c667e9e	0.014068274
6	0xbde490a5	-0.11160401
7	0x3d2e696f	0.042581018
8	0xbe9c2576	-0.3049733
9	0xbeb5d455	-0.3551356
10	0xbd8f69db	-0.07002612
11	0xbe14c74c	-0.1452915
12	0xbe0a8f87	-0.13531314
13	0xbe82666d	-0.2546877
14	0xbd931c7a	-0.07183166
15	0xbe5736a3	-0.21016936
16	0x3d4e6f88	0.050399333
17	0xbdf2c583	-0.118540786
18	0xbd94d867	-0.07267838
19	0xbb561451	-0.0032665918
20	0xbd2e65c4	-0.04257752
21	0xbd0f1bdd	-0.034938682
22	0x3d6942e8	0.056948572
23	0x3e0c2782	0.13686946
24	0x3e171d8e	0.14757368
25	0xbd3133ed	-0.04326241
26	0x3d60b6cf	0.05486184
27	0x3d503137	0.050828185
28	0x3d3d4810	0.046211302
29	0xbd363fd5	-0.04449447
30	0x3d7829a9	0.060586605
31	0x3d1d463a	0.03839705
32	0x3deee049	0.11663873
33	0x3e17da37	0.14829336
34	0x3e1de42b	0.1541907
35	0xbe3d5b26	-0.18491802
36	0xbe484c6c	-0.19560403
37	0xbe6d73e2	-0.23188737
38	0xbde361c3	-0.11102631
39	0xbd8516f1	-0.06498516
40	0x3e357783	0.17721371
41	0x3e74f168	0.23920214
42	0xbbea6f0a	-0.00715435
43	0x3e303429	0.17207398
44	0x3e09d189	0.13458838
45	0x3db431fe	0.08798598
46	0x3dd65c35	0.10466806
47	0x3dd6dff1	0.10491932
48	0x3e16cd07	0.14726649
49	0x3d795860	0.060875297
50	0xbcc23f48	-0.023711815
51	0xbe0fcf8d	-0.14044018
52	0xbe67b5b0	-0.22627902
53	0xbe11dbb3	-0.14243965
54	0x3c988e8d	0.018622661
55	0x3e9c872f	0.30571887
56	0x3dd72b0c	0.105062574
57	0x3e78b2cf	0.2428696
58	0x3d97dde9	0.07415373
59	0xbe83a032	-0.25708157
60	0xbda840be	-0.082154736
61	0x3c4fb1df	0.012676685
62	0x3cb89174	0.022530295
63	0x3eef4ec2	0.46739775
64	0x3eb67724	0.35637772
65	0x3df06d46	0.11739592
66	0xbddb6e57	-0.10714405
67	0xbec4d6e2	-0.38445193
68	0x3e2142bf	0.15748118
69	0x3e49c420	0.19703722
70	0x3e51efad	0.20501585
71	0x3e127e6e	0.14306042
72	0x3cadd341	0.021218898
73	0x3c29d32c	0.010365289
74	0x3d4bc40f	0.049747523
75	0x3ae5cbec	0.0017532087
76	0x3da6e3e6	0.08148937
77	0x3db6199d	0.08891604
78	0xbda3d60e	-0.07999812
79	0x3dfd8f12	0.12380804
80	0x3db0af64	0.08627203
81	0x3e34a3ef	0.1764066
82	0x3d1c2d60	0.03812921
83	0x3d2ed3d3	0.04268248
84	0x3da1b6dc	0.07896206
85	0x3dcf43ff	0.10120391
86	0xbcfb6cc1	-0.030691506
87	0x3e0eee78	0.13958156
88	0x3de0ca83	0.10976126
89	0xbc7f2f95	-0.015575309
90	0xbe21aeed	-0.15789385
91	0xbe0b9b84	-0.13633543
92	0xbe76b94a	-0.2409412
93	0xbe242df3	-0.16033153
94	0xbd342251	-0.04397804
95	0x3c9e5ef6	0.01933239
96	0x3e32c1ed	0.1745679
97	0x3e099798	0.13436735
98	0x3ded4ec6	0.115872905
99	0xbd864654	-0.06556383
100	0x3dc2d03d	0.095123746
101	0xbc46cee6	-0.012134289
102	0x3d200abe	0.039072745
103	0x3c4cae56	0.012492737
104	0xbe29221e	-0.16516921
105	0xbc686269	-0.014183619
106	0xbe21d8c0	-0.1580534
107	0xbd401cee	-0.04690259
108	0xbd083f19	-0.0332633
109	0xbd12adb7	-0.0358102
110	0xbd9d4798	-0.07679671
111	0x3d0c4bb0	0.03425187
112	0xbc68e80f	-0.014215483
113	0xbe404a2e	-0.18778297
114	0xbda48ff9	-0.08035273
115	0x3df0078b	0.11720189
116	0x3e47e1bf	0.19519709
117	0x3e343589	0.17598547
118	0x3ce32a6e	0.027730193
119	0x3d5d7128	0.054062992
120	0x3c9beb90	0.019033223
121	0xbbe6c3b8	-0.0070423745
122	0x3e9e49d7	0.3091571
123	0x3ea12ae3	0.31478032
124	0x3df4c617	0.11951845
125	0x3e96d7a8	0.29461408
126	0xbdc62703	-0.0967541
127	0x3d830249	0.0639692
128	0x3e54c8d5	0.20779736
129	0x3e4386e5	0.19094427
130	0xbdc53e7b	-0.09631058
131	0x3cc20835	0.023685554
132	0xbd1b9625	-0.037984986
133	0x3c911b19	0.017713116
134	0x3e14063d	0.14455505
135	0x3de6c1d7	0.11267441
136	0x3ca15a1d	0.01969629
137	0xbe074086	-0.13208207
138	0x3bba6ff6	0.0056896163
139	0x3dd5dca3	0.10442474
140	0x3d144642	0.036199816
141	0x3dcb5afe	0.09929465
142	0xbdbc8beb	-0.09206375
143	0xbdd9355b	-0.1060588
144	0xbd291383	-0.041278373
145	0x3db428ef	0.0879687
146	0xbdb3479b	-0.08753892
147	0x3b13e22c	0.002256523
148	0x3e274911	0.16336466
149	0x3e921340	0.28530312
150	0x3ea2659b	0.31718144
151	0x3d88653e	0.066599354
152	0xbcbc17f8	-0.022960648
153	0x3d882333	0.06647339
154	0x3e09143a	0.13386622
155	0xbe387763	-0.18014292
156	0xbdd6e601	-0.104930885
157	0xbd0f4688	-0.034979373
158	0x3dced5a2	0.10099341
159	0xbca118c3	-0.019665128
160	0xbd51f322	-0.05125726
161	0xbd0ee19d	-0.03488313
162	0x3d0cdceb	0.03439037
163	0x3e20f89f	0.15719841
164	0x3e96d304	0.29457867
165	0x3e68b2d4	0.22724468
166	0x3d061ca6	0.032742165
167	0x3c8c8a1a	0.017155696
168	0x3ea49d2f	0.32151172
169	0x3daca0b5	0.0842909
170	0xbe24f22a	-0.16108003
171	0xbe9d33c4	-0.30703557
172	0x3c330293	0.010925907
173	0x3e439978	0.19101512
174	0x3bf2a8fd	0.007405399
175	0x3e2ca502	0.1685982
176	0x3dc93382	0.098242775
177	0xbd2437a3	-0.04009212
178	0xbc93424f	-0.017975954
179	0xbdf7ab44	-0.12093213
180	0x3dd0571d	0.101728655
181	0x3e0e2439	0.13881005
182	0x3e8221ba	0.25416356
183	0x3d2ae489	0.041721854
184	0x3dd76d9e	0.10518955
185	0x3d822ec1	0.06356574
186	0x3e672bfe	0.22575375
187	0x3eaa5d47	0.3327429
188	0x3e12350e	0.14278051
189	0x3d78d129	0.060746346
190	0xbd10d3d6	-0.035358272
191	0xbbb0b484	-0.005392613
192	0x3d8195dd	0.06327412
193	0xba877ca3	-0.0010336827
194	0x3d8b1e62	0.067929044
195	0xbe396602	-0.18105319
196	0x3e4faf0d	0.2028162
197	0x3d8b7256	0.06808917
198	0x3ce9cf50	0.028541237
199	0xbda75a36	-0.08171503
200	0xbd217e66	-0.039427184
201	0xbcac770d	-0.021052862
202	0xbdf45393	-0.11930003
203	0x3d2362b6	0.03988906
204	0xbce0ebc9	-0.027456181
205	0xbdc9abc7	-0.09847217
206	0x3db86d8b	0.09005269
207	0x3db5d6f4	0.0887889
208	0x3d04ceb2	0.032423683
209	0x3e0d14c5	0.13777454
210	0x3e171022	0.14752248
211	0x3e224835	0.15847857
212	0x3e22d42a	0.15901247
213	0xbe5fcee0	-0.2185626
214	0xbe63fb7a	-0.222639
215	0xbe1eafd0	-0.15496755
216	0xbc29e930	-0.010370538
217	0xbd63dc1f	-0.055629846
218	0xbd171322	-0.03688348
219	0xbdc18d9f	-0.0945084
220	0xbe0231ac	-0.12714261
221	0xbbd9a0ed	-0.0066414983
222	0x3e450210	0.19239068
223	0x3e261a9a	0.16221085
224	0x3e42ecd9	0.19035663
225	0xbe0a6564	-0.1351524
226	0xbe37cc77	-0.17949091
227	0x3dcb6220	0.09930825
228	0x3e506215	0.20349915
229	0x3c6eca36	0.014574578
230	0xbbbcd03a	-0.005762127
231	0x3e0ea40a	0.13929763
232	0xbe9523f2	-0.29128987
233	0xbec8dc7d	-0.3923072
234	0xbe24aa33	-0.16080551
235	0x3e329504	0.17439657
236	0x3ea4b282	0.3216744
237	0x3e5d1b24	0.21592385
238	0xbce4e1db	-0.027939728
239	0x3cae313d	0.021263713
240	0x3dd06a68	0.101765454
241	0x3e84c7cc	0.25933683
242	0x3ed09f03	0.40746316
243	0x3e9581b6	0.29200524
244	0x3da5b65d	0.08091424
245	0x3e9bc345	0.30422416
246	0x3e08ea7c	0.13370699
247	0x3d6110b9	0.05494759
248	0x3df268e5	0.11836413
249	0x3d4bdf53	0.049773525
250	0xbdfd891a	-0.12379666
251	0xbd9dd391	-0.07706369
252	0x3ea273f6	0.31729096
253	0x3eab697f	0.33478925
254	0x3e519f83	0.20471005
255	0xbd8293f4	-0.06375876

EncList2.1.conv.bias f4 [16]
0	0x3d2229ac	0.039590523
1	0xbe39d258	-0.18146646
2	0x3cd67bbf	0.026182054
3	0xbbb3634c	-0.0054744836
4	0x3cb94ce7	0.022619678
5	0x3eb260e3	0.34839544
6	0x3c38800d	0.011260998
7	0x3de7408f	0.112916104
8	0x3ebec4db	0.37259564
9	0x3eff06ce	0.4980988
10	0xbe0be22f	-0.13660501
11	0xbd1c82bd	-0.03821062
12	0xbdc493fb	-0.095985375
13	0xbe8741fa	-0.26417524
14	0xbec127ce	-0.3772568
15	0xbe9d8f2a	-0.30773288

EncList2.2.conv.weight f4 [32, 16, 7]
0	0x3d8deb4c	0.06929645
1	0xbdb3611f	-0.08758759
2	0xbdbd04c1	-0.09229422
3	0xbdb7a2bf	-0.08966588
4	0x3c10684c	0.008813929
5	0xbb9c8313	-0.0047763675
6	0x3d0350a0	0.032059312
7	0xbdce249f	-0.10065579
8	0xbd6f5378	-0.05842921
9	0xbdb77c2b	-0.0895923
10	0x3d6fe342	0.05856634
11	0xbc633f7f	-0.013870119
12	0xbe19a667	-0.15004884
13	0xbd6780b8	-0.05651924
14	0xbdbbee76	-0.09176342
15	0xbe41a42d	-0.18910284
16	0xbd1ba7b7	-0.038001742
17	0x3d3d3478	0.046192616
18	0x3dade8b8	0.08491653
19	0x3d8d1c03	0.068901084
20	0x3d09c8be	0.03363871
21	0xbdf0e8a6	-0.11763124
22	0xbcaa8fa8	-0.020820454
23	0x3d92dfa4	0.07171562
24	0x3db81a16	0.089893505
25	0x3cc52f0a	0.024070282
26	0xbdca23ee	-0.09870134
27	0x3d2285c4	0.03967835
28	0xbd1e2aec	-0.038615152
29	0x3d3999ac	0.04531257
30	0x3e167e66	0.14696655
31	0x3eac34a2	0.33633906
32	0x3e3eb8f6	0.18625244
33	0xbdb32f6c	-0.087492794
34	0xbdbbbd7b	-0.09167
35	0x3db3b63d	0.087749936
36	0x3db34827	0.08753996
37	0x3bfe11e5	0.007753598
38	0x3e4a3ee1	0.19750549
39	0x3e83c1dd	0.25733843
40	0x3e4133f7	0.1886748
41	0x3e15b5b6	0.14620098
42	0xbda7649a	-0.08173485
43	0xbd46f1a7	-0.0485703
44	0xbdcfc6bb	-0.10145327
45	0xbc0b27e6	-0.008493399
46	0x3d2a7105	0.04161169
47	0xbcd92bed	-0.026510203
48	0xbde60f94	-0.1123344
49	0xbc2fac9a	-0.010722304
50	0x3cff2e0b	0.031149885
51	0xbcb1fcd0	-0.021726996
52	0xbdcfcce7	-0.10146504
53	0xbdd399a3	-0.10332038
54	0xbb40fd61	-0.00294479
55	0xbd46adec	-0.04850571
56	0xbdd1fa83	-0.102528594
57	0xbd8065e7	-0.06269436
58	0xbdadfc4e	-0.08495389
59	0x3e50c26a	0.20386663
60	0x3e641d19	0.22276725
61	0x3dbd228e	0.092351064
62	0x3d99eac4	0.07515481
63	0xbe26e812	-0.16299465
64	0xbdd434e9	-0.10361654
65	0xbe05d169	-0.13068165
66	0x3e1f7bc0	0.1557455
67	0x3e76f9f6	0.2411879
68	0x3e04abf3	0.12956218
69	0x3c290398	0.010315798
70	0xbd5148c2	-0.051094778
71	0xbe35b68c	-0.17745417
72	0xbb2d18b5	-0.0026412432
73	0x3e2f4985	0.17117889
74	0x3de007eb	0.1093901
75	0x3c247676	0.010038009
76	0xbdfa22e4	-0.12213686
77	0xbbb50fce	-0.0055255657
78	0xbc8f40cf	-0.017486958
79	0x3e287d01	0.16453935
80	0x3e36f987	0.17868625
81	0x3e14eede	0.14544246
82	0xbe32f14e	-0.17474863
83	0xbd361a7b	-0.044458847
84	0xbde7eb02	-0.11324121
85	0xbe838a81	-0.25691608
86	0xbe55c9f0	-0.20877814
87	0xbd2dbeb0	-0.042418182
88	0x3e308e01	0.1724167
89	0xbbd3136f	-0.0064415256
90	0xbd18d22c	-0.03730981
91	0xbcaeab4e	-0.021321919
92	0xbe5f779a	-0.21822968
93	0xbdc65dd0	-0.09685862
94	0x3bd6ec7f	0.0065589543
95	0x3b6e0acc	0.0036322353
96	0xbda9725b	-0.08273765
97	0x3c3205d8	0.010865651
98	0xbe3e0996	-0.18558344
99	0xbe2815ac	-0.16414517
100	0xbe30071c	-0.17190212
101	0xbec75f0b	-0.389397
102	0xbddc6f52	-0.1076342
103	0xbc789105	-0.015171294
104	0xbdee944a	-0.11649378
105	0xbd997498	-0.074929416
106	0xbde24f40	-0.11050272
107	0xbd4a1426	-0.04933562
108	0xbdaaaa8a	-0.08333309
109	0x3d87b852	0.06626953
110	0xbccbe736	-0.024890523
111	0xbe167597	-0.14693294
112	0xbd497385	-0.049182434
113	0x3c577d1b	0.013152386
114	0x3d270adf	0.04078185
115	0xbd729e3c	-0.059232935
116	0x3d31a6d9	0.04337201
117	0xbc831b45	-0.016004214
118	0x3e013482	0.12617686
119	0x3d698ae4	0.057017222
120	0x3d811768	0.063032925
121	0xbdde3514	-0.108499676
122	0xbd5002bb	-0.050783854
123	0x3e434c68	0.19072115
124	0x3ddeb45e	0.10874246
125	0xbc8626bf	-0.016375897
126	0xbe1671c3	-0.14691834
127	0x3cce1696	0.025157254
128	0x3e2fa414	0.17152435
129	0x3e291724	0.16512734
130	0xbc47cc84	-0.012194756
131	0xbe46138b	-0.19343393
132	0xbe100a1a	-0.14066353
133	0x3dd86af5	0.105672754
134	0x3c2fcd3a	0.010730082
135	0xbbc7652f	-0.00608506
136	0xbc9bd71a	-0.019023467
137	0xbc4bf9d1	-0.012449698
138	0x3dacaaab	0.0843099
139	0x3cf64043	0.03005994
140	0xbd9e65fc	-0.07734296
141	0x3d6b01d1	0.05737478
142	0x3dda0112	0.106447354
143	0xbd7ad911	-0.061242167
144	0xbda89537	-0.082315855
145	0x3e28e29e	0.16492698
146	0x3e048fd4	0.12945491
147	0xbd18ceab	-0.03730647
148	0xbda6b647	-0.081402354
149	0xbdd04ec0	-0.1017127
150	0x3d04ddaa	0.032437958
151	0x3cfcd045	0.03086103
152	0xbddedb76	-0.108817026
153	0xbd887bc3	-0.06664231
154	0xbe3bb365	-0.18330152
155	0xbdd627dd	-0.10456822
156	0x3db3d61a	0.08781071
157	0x3cceb5de	0.025233205
158	0x3b8710fb	0.0041218973
159	0xbe08b360	-0.13349676
160	0xbda1aadb	-0.07893916
161	0x3d4305be	0.047612898
162	0x3d0c3892	0.034233637
163	0xbd3aefb8	-0.04563877
164	0x3b4d4bbb	0.0031325656
165	0x3dcf13b0	0.10111177
166	0x3e45e011	0.19323756
167	0x3e335a97	0.17515026
168	0xbcb659a4	-0.02225954
169	0x3ca6d7d3	0.020366585
170	0x3d919076	0.07107632
171	0x3e370b30	0.17875361
172	0x3df9f609	0.122051306
173	0xbe29fc2a	-0.16600099
174	0xbe4aca98	-0.19803846
175	0xbdeff027	-0.11715727
176	0xbe0f533c	-0.13996595
177	0xbd212a35	-0.039346892
178	0x3ca4a346	0.020097386
179	0x3b208b65	0.0024497148
180	0xbe0cdd3d	-0.1375627
181	0xbe1f435c	-0.1555304
182	0xbd76546c	-0.060139105
183	0xbd261881	-0.040550712
184	0xbd9fa25f	-0.07794642
185	0xbe01fef3	-0.12694912
186	0xbe037a5d	-0.12839647
187	0x3a983754	0.0011613169
188	0x3d17b9cb	0.03704242
189	0x3cb89912	0.022533927
190	0x3d163212	0.036668845
191	0xbc6e76ee	-0.014554722
192	0xbcf48b8c	-0.029851697
193	0xbd459294	-0.04823549
194	0x3df6ac49	0.120445795
195	0x3da8f9b8	0.08250755
196	0xbe32ccf5	-0.17460997
197	0xbd77fb80	-0.060542583
198	0xbc42d84c	-0.0118923895
199	0x3c15951c	0.009129789
200	0xbc1523be	-0.00910276
201	0xbdebcdec	-0.11513886
202	0xbdcc0ac2	-0.099629894
203	0xbdc47d9c	-0.095942706
204	0xbdae4a84	-0.085103065
205	0x3d897c4c	0.06713161
206	0xbd6e1538	-0.058125705
207	0xbd5b4452	-0.053531952
208	0xbe0ee742	-0.13955405
209	0xbda78141	-0.0817895
210	0xbdf2f979	-0.118639894
211	0x3cdf5127	0.027260376
212	0x3d9024a0	0.07038236
213	0x3d96ca2c	0.0736278
214	0x3e7b29b0	0.24527621
215	0x3e029af3	0.12754421
216	0x3cb11ebb	0.021621099
217	0x3c965a83	0.018353706
218	0x3bb7c230	0.0056078658
219	0xbd7cb32d	-0.061694313
220	0x3cde0fe9	0.027107196
221	0x3e0eee08	0.13957989
222	0x3d26bdfe	0.040708534
223	0x3d4d95f5	0.05019184
224	0xbde3e263	-0.11127164
225	0xbe013533	-0.1261795
226	0xbe0c3aae	-0.1369426
227	0x3c8ac7e9	0.016941028
228	0xbd36c94b	-0.04462556
229	0x3d474083	0.048645508
230	0x3e4468d1	0.1918061
231	0xbe724067	-0.2365738
232	0xbe964efd	-0.29357138
233	0xbe3017dc	-0.17196602
234	0xbd9d23b2	-0.07672824
235	0xbd96ab00	-0.073568344
236	0xbceb77eb	-0.028743705
237	0x3d11dbc9	0.035609994
238	0x3e01b425	0.12666376
239	0x3de3699d	0.111041285
240	0x3dccc0f2	0.09997739
241	0xbd15be8f	-0.036558684
242	0x3d01d894	0.031700686
243	0xbe514a17	-0.2043842
244	0xbe648dd0	-0.22319722
245	0xbe204749	-0.15652193
246	0xbe04894a	-0.12942997
247	0xbe40dd06	-0.18834314
248	0xbef5d826	-0.4801647
249	0xbee582eb	-0.44826445
250	0xbeedf61a	-0.46476823
251	0xbe1e29fc	-0.15445703
252	0xbe2a3fc7	-0.16625892
253	0xbe0ef71f	-0.13961457
254	0xbc5a9e8b	-0.013343464
255	0xbeca94af	-0.39566562

EncList2.2.conv.bias f4 [32]
0	0x3e3c4abd	0.18387885
1	0x3d8996d0	0.06718218
2	0x3e319c6d	0.17344828
3	0xbde13dcb	-0.10998114
4	0x3e74ac70	0.23893905
5	0x3d7af13a	0.061265208
6	0x3ca1d2d5	0.019753853
7	0x3ec655c2	0.38737303
8	0xbd41e411	-0.04733664
9	0x3e92a312	0.28640038
10	0x39063f66	0.00012802854
11	0x3d59624b	0.053072255
12	0x3edf3260	0.4359312
13	0xbda9478c	-0.082655996
14	0x3e1b8cad	0.15190382
15	0x3dda5547	0.106607966
16	0xbe55a9ed	-0.20865603
17	0x3e84cc12	0.25936943
18	0xbdf150d8	-0.11782998
19	0x3e4d7a0a	0.20066085
20	0x3db45e54	0.08807054
21	0xbf0a855e	-0.5410975
22	0xbc24f965	-0.010069226
23	0xbe27c6ac	-0.16384381
24	0xbd29422f	-0.041322883
25	0x3e98283c	0.29718196
26	0xbb2908d8	-0.0025792625
27	0xbced1b8b	-0.028943798
28	0xbd2d0c27	-0.042247918
29	0xbe3b1850	-0.18270993
30	0x3da64ec5	0.08120493
31	0x3e3a0f19	0.18169822
