checkpoints/best_UNet_bw_snr_-4.pth (torch, 66830 bytes, 62 tensors)

EncList.0.conv.weight f4 [4, 2, 3]
00000000: 4100 3b3d 430d 9e3e de3b 8cbd 1e04 b73d
00000010: 9251 9ebd febd 963e a880 adbe dda4 f33c
00000020: ca86 b73e 74ae cc3c 2f63 cb3d 1c34 8b3e
00000030: ea9c 843d c8f6 323e 448f 5f3d e621 0b3d
00000040: d84d 90be acaf c4bd f95a 90bd 035f 6cbe
00000050: eaec 233e eeda 6fbb 7649 253e fd0e f13e
0.04565454 0.30869493 -0.06847356 0.08936332 -0.07730402 0.29441828 -0.3388722 0.029741699
0.35845023 0.02498553 0.09931027 0.27188194 0.064752415 0.17476952 0.054579988 0.033967875
-0.2818439 -0.09603819 -0.07048602 -0.23083119 0.16008344 -0.0036598998 0.16141304 0.47081748

EncList.0.conv.bias f4 [4]
00000000: 2e6c 12be 323b 8ebd e4fc 9e3e 69d8 f33d
-0.1429908 -0.06944884 0.31052315 0.11906511

EncList.0.bn.weight f4 [4]
00000000: 974e 493f ad02 373f 50f4 413f 95b2 5a3f
0.78635544 0.7148846 0.75763416 0.85428745

EncList.0.bn.bias f4 [4]
00000000: b9d6 323e 3d32 893e a099 2eba fe16 8c3d
0.17464723 0.2679614 -0.0006660465 0.06840323

EncList.0.bn.running_mean f4 [4]
00000000: c650 20be 9642 fdbd f4f6 cb3e 71d4 b33b
-0.15655813 -0.12366216 0.39836848 0.0054879715

EncList.0.bn.running_var f4 [4]
00000000: 2f9f f43e 5629 d73e ad86 9c3f f871 c73f
0.47777697 0.42023724 1.22286 1.5581656

EncList.1.conv.weight f4 [8, 4, 3]
00000000: ca80 a5be 6d23 88bd 6696 85bd d048 34be
00000010: f8a2 823c 7c49 66be ccea f03d 2550 243e
00000020: c7a0 00be 9739 133e d484 033e e9ba 3b3d
00000030: a394 4e3e 2c36 5fbd a5c5 ecbb 0b3c 6e3e
00000040: e0a1 dfbd 990e dabc 11ba acbe 7963 203e
00000050: 3683 b8bd 7682 913b da71 063e 6dfb 063e
00000060: 660e 293e b061 a03c 7f6f 06bc 5ac0 14be
00000070: 78bc 8fbe 514a 41be a12d 353e 4afe cebc
00000080: 3d07 2bbe e284 67be c568 b4bd 4c54 c23d
00000090: 69a4 d7bd c6e5 41be 2a7c 7c3d 3d07 083c
000000a0: f5c4 f23d 25dd 5c3a 4b2c fabc 98b3 6dbe
000000b0: aeba 9bbe 4bb9 123d 6e78 fdbd 7c98 923e
000000c0: 588a acbd dc98 a53e 1798 043e e95b dcbd
000000d0: c0a1 983e f8a3 7d3e d12b b1bd dd94 8d3d
000000e0: c23c 953e 41d4 d8bd a299 943d d234 6bbe
000000f0: 4528 bbbb 9304 78be 754e 5b3c 4dcf 0f3e
00000100: 1579 413e 06a1 633e d109 9cbd 76f2 71bd
00000110: 5e10 bb3c 954b 22be 1c36 0c3d 3f89 69bb
00000120: ffc3 21be 9835 02be 6bc3 7cbd 2cfb 81be
00000130: 45ab 2f3e 305f 103e f442 7b3e dc20 803e
00000140: 7084 2e3e 0616 a7bb 2a02 a5be f4d1 d33d
00000150: de02 4abd 5769 a43c 22fb 30bd 8e0d 413e
00000160: ec15 4dbe 9184 17be f81d 943c 8f29 1c3e
00000170: e761 4b3d f03c fbbc 2767 c5bd 10f1 7bbe
-0.3232482 -0.06647382 -0.06522827 -0.17605901 0.01594685 -0.2248897 0.11763534 0.16046198
-0.12561332 0.14377438 0.12843639 0.04583255 0.20173888 -0.05449502 -0.0072257095 0.23265092
-0.10919547 -0.026618289 -0.33735707 0.15662946 -0.090094015 0.004440601 0.13129368 0.13181849
0.16509399 0.019577831 -0.008205294 -0.14526501 -0.28073478 -0.18876006 0.17693187 -0.025267739
-0.1670198 -0.22609285 -0.08809046 0.094887346 -0.105294056 -0.18935308 0.06164185 0.008302507
0.11853973 0.0008425287 -0.030538699 -0.23213041 -0.30415863 0.03582124 -0.12376486 0.2863196
-0.084248245 0.32343185 0.12948643 -0.10759718 0.29810905 0.2476958 -0.086509354 0.06913159
0.29147917 -0.10587359 0.07255866 -0.22969368 -0.0057115876 -0.24220495 0.013385405 0.14043923
0.18893845 0.22229394 -0.0761906 -0.05906912 0.022834953 -0.15849145 0.03423129 -0.0035634784
-0.15797423 -0.12715757 -0.061709803 -0.2538694 0.17155178 0.14098811 0.2453726 0.2502507
0.17042708 -0.005099061 -0.32228214 0.1034278 -0.04931914 0.020069761 -0.04320825 0.18852827
-0.20027894 -0.14796664 0.018080696 0.15250228 0.049653914 -0.030668706 -0.096388154 -0.24603677

EncList.1.conv.bias f4 [8]
00000000: 9809 f23d e009 95be d3d4 023e 1ab6 6ebe
00000010: 17d8 0a3e e2d1 c1bd 29ab 07be 4958 99be
0.11818236 -0.29109097 0.12776498 -0.23311654 0.13558994 -0.0946386 -0.13248886 -0.2995017

EncList.1.bn.weight f4 [8]
00000000: dcaf 7b3f a50f 713f 457f 653f 9b7c 853f
00000010: 6ed2 593f 6b48 663f 766d 7c3f 6cd3 883f
0.98315215 0.94164497 0.8964732 1.0428652 0.85086715 0.8995425 0.98604524 1.0689521

EncList.1.bn.bias f4 [8]
00000000: 0214 a8bd 1fbe 8e3d 2337 0fbe 6e21 943d
00000010: 28b6 3a3e 0069 1e3e 06e5 7d3d 7cf4 1ebd
-0.08206941 0.069698565 -0.13985877 0.07232939 0.1823355 0.15469742 0.061985992 -0.038807377

EncList.1.bn.running_mean f4 [8]
00000000: 490a 8ebd c91c 38be e0d1 18be 7934 babe
00000010: d956 eb3e 0725 d4bc 6c52 02be 7cfc edbe
-0.069355555 -0.1797973 -0.14923811 -0.36368158 0.45964697 -0.025896562 -0.12726754 -0.46481693

EncList.1.bn.running_var f4 [8]
00000000: 1cbf a23d ae0f 883d 42a3 eb3d f818 113e
00000010: d6fd b93d ab00 253d be35 053e 3dab c33d
0.079466075 0.06643616 0.11505748 0.14169681 0.090816185 0.04028384 0.13008782 0.095541455

EncList.2.conv.weight f4 [16, 8, 3]
00000000: dd88 6bbc b973 aa3d 6f40 e5bd 34af 7e3d
00000010: 72a4 573e 84ad 0bbe d39f bb3d 33f8 383c
00000020: d7d9 f9bd 1db8 f73d 7fec b83d 2416 713b
00000030: 47b8 2bbc 4051 d7bd 8aae ea3d 28e2 43bd
00000040: e777 733e ac9e 0a3e 8774 21be 99a3 49be
00000050: fcbe 9cbd ed42 f7bc bc95 173e 855c ee3d
00000060: 9a0e abbd a84f a03b 5cc6 1abe 0032 a03d
00000070: 32ef 7b3d 4747 fb3d 4f1e 1e3e 9d45 f33d
00000080: 7d61 60be 10da 62bd c9a9 19be 0588 c13c
00000090: 715e 443a 6d67 333e 855c 2b3e 6780 e43d
000000a0: 6f02 0bbd 2bdc e8bb 36c7 973d b6e3 20bd
000000b0: addd 86be ab80 46be e61f 97bd f7ba 613d
000000c0: b88c da3d 2c9a 13bd 1de5 2f3d 27d2 a3bd
000000d0: a704 87bd 22a6 273e 8972 9ebd c08e 10be
000000e0: 453e 0d3e 3c0c fb3d ff24 99bc 169e 36bc
000000f0: 343d 61bc faf7 073e ee6a 0bbe c895 cebd
00000100: b89c 143e 850e f93b 1422 3abe 294b c2bd
00000110: 89e0 bbbd bbf8 b23d f692 15be 17a4 fc3b
00000120: e3be 0bbe a3a0 cd3d e5ee ffbc ebf5 81bd
00000130: d051 4f3d 2455 903d 61e4 8b3d 9361 df3d
00000140: 6fb1 8e3d 3d1e c13d 72b3 ca3d f853 b03c
00000150: c18b 783c 8f45 2d3e 5a2b 69bd cf9a f23c
00000160: 6579 0ebe 3eca 15be 9864 3f3e 21a4 3d3d
00000170: bd03 b23d 1808 823e 9bbd fa3d a782 333e
00000180: c7bb ecbd 7656 343d fca7 c9bd c4ad 14be
00000190: 7316 17be 245d 11be d936 c7bd 871e 0ebe
000001a0: 13a9 96bd e025 2abd 8296 513d 359e 72be
000001b0: d8d1 ac3d 8714 6e3d 5e3e 72bd 0615 e5bd
000001c0: b226 9e3d d6a5 b4bd 1859 eebd 477b de3c
000001d0: c397 883d 51b5 1ebc def0 633c 2e41 a6bc
000001e0: 21d8 303e 36ff 1dbe 7bee 04be 2f87 fb3d
000001f0: 3c69 c8bd 4a86 f6bd 0afc 103d 6471 b53d
00000200: 6caa 18be 0d8c 893e fed3 653e ecab 633e
00000210: bd64 593d 5912 c3bd 636f 553c d568 f13c
00000220: 9f4a 5fbc 939d d73d 3214 823d e5a3 713b
00000230: bf29 bcbc 2de0 a1bd 4b5b 4fbe 1a9b c0bd
00000240: a195 023e 8383 563e 713c 663e ff0c f5bb
00000250: d648 3e3e 3ff2 a83d 30aa 823d 3e0e 243e
00000260: 060e 7e3d 0d20 673c dcc2 b23b d53f 8ebd
00000270: 40c6 18bd 1b38 113d d47f ecbd b91e 03be
00000280: 5f37 df3d 394f 13be 5400 b1bd 4038 debd
00000290: ef89 b43d 8537 903d 6259 d73d 7d4b 98bd
000002a0: bdb9 633e 3f42 a23d 4b4f 043e f3b9 393e
000002b0: e491 023d 10ce 2b3e 82c4 2abd dd7c e3bd
000002c0: 287d b3ba cc18 893e b9b2 94bd febd 3b3e
000002d0: 6621 4bbe b0ea 29bd 668d 2d3e 0d64 f63d
000002e0: b81f b2bc 1dd0 363e 43da 05bd 5c24 0d3e
000002f0: 496d fd3c 15bb 6ebe f210 af3d 895c 64be
00000300: 49b3 31bd c136 673d 2cfb 81be 6d36 36be
00000310: ec47 a6bd 6cae 7ebe a443 ac3d c5cb 0e3d
00000320: b7e9 1e3e 3b99 3abe f930 ac3d 54ce fabc
00000330: 00a1 0e3e 33be 26be fc4c 833d a736 b13d
00000340: e3d7 0fbe 8555 2fbe 55e5 20be deb8 7d3d
00000350: 827c 15be 7ae2 9bbd 4c5b 26be 4bd6 4f3e
00000360: 4b67 5fbc 5de6 333e 35ba 733e 5fdd f83d
00000370: 3669 133e 46d1 9ebd c8ed d53d db7b edbc
00000380: 2c9f 77bd a647 943d 42c8 6d3e 7a54 8e3e
00000390: ed23 87bd 3cd9 f4bc a7c2 9b3c 6905 513d
000003a0: ab08 d1bd 42e5 83bc 246c 43be 0ee1 a8bd
000003b0: a97d 15bd fe19 303d 1914 9dbd 95e6 b3bb
000003c0: de91 c53d 9f34 bd3d 1164 3d3d e997 3c3e
000003d0: 2114 02be c96a 093e e07b a0bd f147 f2bb
000003e0: 2847 52be ab04 473e 4e56 c23d f0ad 29be
000003f0: 2c50 973b 5b28 bebc 90fa 0e3e 1169 ff3d
-0.0143758925 0.083228536 -0.1119393 0.062178805 0.21058825 -0.1364041 0.091613434 0.011289644
-0.12199753 0.12095664 0.09029483 0.0036786878 -0.010480947 -0.10513544 0.11459072 -0.0478231
0.23776208 0.13537091 -0.15767108 -0.19691314 -0.07653615 -0.03018328 0.14803213 0.116387405
-0.083523944 0.0048923083 -0.1511473 0.07822037 0.06150741 0.122694544 0.1544125 0.11878512
-0.21912189 -0.05538374 -0.15006174 0.02362443 0.00074908795 0.17519923 0.16734512 0.11157303
-0.033937868 -0.007106324 0.07411043 -0.039279662 -0.26341 -0.1938502 -0.07379131 0.055109944
0.10671371 -0.0360357 0.04294311 -0.07999068 -0.06592684 0.16371968 -0.077366896 -0.14116955
0.13793285 0.12258193 -0.018694399 -0.011146089 -0.013747502 0.1327819 -0.13615009 -0.10087162
0.14512908 0.007600608 -0.18177062 -0.09486992 -0.09173686 0.08738848 -0.14606842 0.0077099907
-0.13647036 0.10040405 -0.031241843 -0.06345733 0.05061513 0.07047489 0.06830669 0.10907283
0.069674365 0.094295956 0.09897508 0.021524414 0.015170039 0.16921066 -0.05692611 0.029614834
-0.13913496 -0.1462793 0.18690717 0.046299104 0.08692119 0.253968 0.122431956 0.17530309
-0.11559253 0.044027768 -0.098464936 -0.14519411 -0.14754657 -0.14195687 -0.09727258 -0.13878833
-0.07356467 -0.041540027 0.051168926 -0.23693164 0.08438462 0.058125045 -0.05914151 -0.111856505
0.07722224 -0.08820693 -0.11638087 0.027158393 0.06669571 -0.009686784 0.013912408 -0.020294752
0.17269947 -0.15429386 -0.12981598 0.122816436 -0.09785697 -0.12037332 0.035396613 0.08859518
-0.14908761 0.26864663 0.2244415 0.22233552 0.053074587 -0.09524984 0.013027045 0.029468933
-0.013628631 0.10528102 0.06351508 0.003687137 -0.022969125 -0.07904086 -0.20249669 -0.09404583
0.12752391 0.20948605 0.22483994 -0.007478356 0.18582472 0.0824933 0.06380117 0.16021058
0.062025093 0.014106763 0.005455358 -0.06945769 -0.03729844 0.035453897 -0.11547819 -0.12804689
0.10899233 -0.1438569 -0.08642641 -0.108505726 0.08815371 0.070418395 0.10515095 -0.07436273
0.22238822 0.07922792 0.12920873 0.1813734 0.031877413 0.16777825 -0.04169131 -0.111078
-0.0013693916 0.2677673 -0.07260651 0.18334195 -0.19836959 -0.04148358 0.1694847 0.12030802
-0.02174364 0.17852826 -0.032678854 0.13783401 0.0309359 -0.23313554 0.08548154 -0.22300924
-0.04338387 0.0564487 -0.2538694 -0.177942 -0.08119187 -0.24871224 0.08411339 0.0348623
0.15518843 -0.18222515 0.08407778 -0.030615963 0.13928604 -0.16283493 0.06411168 0.08653002
-0.14047198 -0.17122467 -0.15712483 0.06194388 -0.14598277 -0.07611556 -0.16245764 0.2029659
-0.013635467 0.17568345 0.23801501 0.12151598 0.14395604 -0.077547595 0.10445744 -0.028989723
-0.060454533 0.07240228 0.23220924 0.27798826 -0.06598649 -0.029888742 0.019013716 0.05103055
-0.102067314 -0.01610053 -0.19084221 -0.08246051 -0.036496792 0.042993538 -0.07669849 -0.005490134
0.096469626 0.09238552 0.04623801 0.18417324 -0.12702991 0.13419642 -0.07836127 -0.00739383
-0.20534956 0.19435374 0.094891176 -0.16570258 0.0046177115 -0.023212602 0.1396277 0.12471212

EncList.2.conv.bias f4 [16]
00000000: d1fb 17be d7ac aa3d 33f5 e7bd 75dc dfbd
00000010: 10d5 38be 1420 e53c 3673 19bd 340c a9bd
00000020: 5450 33bb 5726 283e b03f a3bb 9f34 25bd
00000030: 8156 4b3e a9e8 ec3b 8172 4fbe d043 bd3d
-0.14842154 0.08333748 -0.11326065 -0.10930721 -0.18050027 0.027969398 -0.03746339 -0.08254281
-0.0027361112 0.16420875 -0.0049819574 -0.040333387 0.19857217 0.0072298837 -0.20258524 0.0924145

EncList.2.bn.weight f4 [16]
00000000: 6fb5 7e3f 1afd 733f 19ad 703f 239d 843f
00000010: 3476 733f f6ea 673f e15b 813f 0163 6d3f
00000020: 8fb3 5f3f 7290 823f 7197 783f 9f18 673f
00000030: cea4 703f bb4b 763f 7d57 7c3f b6d4 8b3f
0.99495596 0.9530808 0.94014126 1.0360454 0.9510224 0.90592897 1.0106164 0.9272919
0.8738336 1.0200331 0.9710608 0.90271944 0.9400147 0.96209306 0.98570997 1.0924289

EncList.2.bn.bias f4 [16]
00000000: 9274 ed3d c9c9 943d be2e 4abd 8090 243e
00000010: c214 113e 1994 0fbc ad04 0dbd 8088 e5bc
00000020: 4dfc 773c 6757 a03d c456 5b3d c95f 513d
00000030: 98cd cd3d c177 59bc 6dc1 443a 274a df3d
0.115945 0.0726505 -0.049360983 0.16070747 0.14168075 -0.008763337 -0.034428287 -0.02801919
0.015135837 0.07829171 0.053549543 0.05111674 0.100489795 -0.01327318 0.00075056293 0.10902815

EncList.2.bn.running_mean f4 [16]
00000000: 09a3 3f3d cc0b 283d 5d04 3dbe 0bbb a53e
00000010: d374 1ebf 1c07 2b3e 38e4 443e 4e66 ab3e
00000020: 1300 e6be 3416 e53e 10e8 0e3e 6284 7e3e
00000030: 67ee 123e 834d 363e 427f 993c 7621 c3bd
0.04678634 0.041026875 -0.18458696 0.32369265 -0.6189701 0.16701931 0.19227684 0.3347649
-0.44921932 0.44743502 0.13955712 0.24855188 0.14348756 0.17803006 0.018737439 -0.095278665

EncList.2.bn.running_var f4 [16]
00000000: 8e74 653e 6b19 603e 05e5 f83d 9ce5 a33e
00000010: c31f 0c3e 91b9 8a3e 6cf5 a63d 4d25 e33e
00000020: 4b84 723e 6032 8c3e 424a fe3e a59d 0a3e
00000030: b162 c53d 6eab 013d 581c 813e 4d94 7f3e
0.22407743 0.21884696 0.12153057 0.32011116 0.13683991 0.270947 0.08152279 0.44364396
0.23683278 0.27382183 0.4966603 0.13536699 0.096379645 0.03165763 0.25216937 0.24958916

EncList.3.conv.weight f4 [32, 16, 3]
00000000: 9d66 1fbe 9275 babd c041 d93d abb3 02bd
00000010: d139 fb3c 27aa f43d 6f1e 3d3c f203 bd3c
00000020: bd82 80bd b5ad 24bd 9d0b 05be b6fb 1c3c
00000030: 9af8 003e 903b eabb 5064 c13d ded8 063c
00000040: e978 eabd 29ff 93bd 0d52 1c3e 3f6a 383c
00000050: b013 5cbd 7a64 92bd 1adc 51bc b757 3b3d
00000060: 28db 25bd b6d7 9a3d f23c 00bc de41 a63d
00000070: 5258 0a3e e865 ba3d 2999 8f3d 13d1 a13c
00000080: d7ab 663d 7701 d3bd 90ac d6bc c3f4 42bb
00000090: d40f c83d b41c 013e 8d96 083e 736d 7f3c
000000a0: 7e8f bdbd 6b41 903d 04f1 bcbd df39 203e
000000b0: a450 ccbd 37a4 76bd 035d 223c 3a65 613c
000000c0: 81cb e1bc da4c b5bd bbee a03d 4e9b e83d
000000d0: c27b 913d 51d1 57bd baa3 b0bd d096 893c
000000e0: cab8 efbd 2b07 83bc 1299 0a3e f6ad 9ebc
000000f0: 187d b3bd aa7a 8e3d 23b7 1b3d 6131 6e3d
00000100: 9a38 d03c 8c3a 81bc bce7 ce3c 3f4c 0b3e
00000110: 7f4a 9f3d 19ef 95bd 1f4c e93c 8506 133e
00000120: b1cf 96bd f6d5 e63d b414 413d 822a 8abd
00000130: 55c1 1cbe 235b b6bd 7882 60bd 44f1 65bd
00000140: bb30 b7bd d208 c43d 4a5d a9bd 1817 e03c
00000150: d2d0 1e3d a1c6 5bbc b2c1 013e 369a cb3d
00000160: 1f9a 233d f4b4 a03d dce0 e53b 61a6 d63d
00000170: 27a1 4abe 6ba1 22be 004b 11be 60d8 0a3e
00000180: bbed 953d f6fa 0c3e 9262 033c 8d98 563d
00000190: 2513 a93d 7453 983d 8e49 ffbd 8332 8ebd
000001a0: fb70 1cbe 70c9 d6bd a467 753d cb2c de3d
000001b0: 3dac 643d f60e d5bd 86ff fd3d 8eaf d0bd
000001c0: f7a2 f73d 538c debd ca39 81bc 5cd0 73bd
000001d0: 12e8 e7bd db0d 9abd b121 493d a1ca b13c
000001e0: 259a c33d b32c 0f3e 31da d23c 9c79 0fbd
000001f0: 8f5f 563d 9406 ec3d 9777 4fba 8ea5 9d3c
00000200: 7f97 ba3d 3bac 1e3e ac99 f43d 2039 f6bd
00000210: da39 083c e7f3 ccbd 9fe5 db3c f9a8 c1bd
00000220: f46c 023d 5706 0b3e 8dfc c6bc 580e 3a3c
00000230: 1d6e 9a3b b111 253e 5fdf 003e c09a 9abd
00000240: 3ee4 1ebd fa46 773d 2d26 ee3b 497d aa3d
00000250: 578f 573e 5a23 ffb9 6ecf 283d 7828 d63d
00000260: 1d46 b13d 23b1 44bb 9a33 8bbd 8def 9b3d
00000270: 0b09 bdbd 983c a73d dae8 4e3d 8dbf 213e
00000280: 3308 de3d 3263 84bd da91 de3d 48bd 8a3d
00000290: acd0 633d afbf 6abd e619 953d 7203 dc3c
000002a0: 9a4a dd3c 59a5 a53c f8dd 9cbc 2b8c dcbd
000002b0: 5b6f 6f3d 4a87 13be 59b0 b6bd 7859 563d
000002c0: c3d3 a43c 61fb 88bd 308a 663d 0ab5 2e3d
000002d0: 6575 133e e2df cfbb 1e18 903d bbf5 82bc
000002e0: 6cec 903d e787 47bc c7dd 6dbd 79af 8dbd
000002f0: 6fe9 8bbd 8517 6bbd 5d37 c2bd 6f17 bf3d
00000300: 816e cd3d 959c 56bd 0bfc d53d 52f8 db3d
00000310: 9000 6dbd 7524 7c3d 6c58 04be 9cfe 4a3c
00000320: ba23 ec3b bd3d 13be 859f abbc 0bec cd3a
00000330: a8b1 a4bd 6491 e2bb 8a48 69bd 5cdb f4bd
00000340: f429 b1bd 836f a8bd 0a6c bbbd 3068 eabc
00000350: b8db 483d 3800 b7bd 7967 8abc 86b9 b4bc
00000360: 8330 31bd ec6c 8c3d c834 9ebd e1fa 353d
00000370: 4e65 ae3d c817 b23c 62f1 dd3d fe9d 10be
00000380: b21d a33d 5eca 113b 2213 d6bd 7091 c2bc
00000390: deea 8bbc 4b1c 763c b284 92bd 330c aa3b
000003a0: 6129 3f3d 75eb 523d 6716 2abe 7142 c13c
000003b0: 487d 91bd 780c 99bb 5522 583e a05d fc3d
000003c0: 88cb 42bd 410f 6d3d 3f11 8f3d 554e fdbd
000003d0: 97cc 0b3d 3aa1 783d 5bdd c2bd 7938 2f3d
000003e0: 6154 1bbd 26fe 22bd 25d0 e7bd 6664 acbd
000003f0: 3c39 20bd b485 813d ac78 7a3d e611 6cbd
-0.15566488 -0.09104456 0.10608244 -0.031909626 0.030667217 0.119465165 0.0115429 0.02307317
-0.06274936 -0.040204722 -0.12992711 0.009581497 0.12594834 -0.0071482137 0.09442961 0.008230416
-0.11448843 -0.07226402 0.15265675 0.0112558 -0.053729713 -0.07148071 -0.012808824 0.04573795
-0.040492207 0.07560675 -0.0078270305 0.08118032 0.13510254 0.09101468 0.07011635 0.019753015
0.056316223 -0.10303014 -0.026205331 -0.002974794 0.09768644 0.12608606 0.1333868 0.01559006
-0.092558846 0.070437275 -0.092256576 0.15647076 -0.099763185 -0.0602152 0.009909871 0.013757044
-0.027562859 -0.08852549 0.07858034 0.11357747 0.07103683 -0.052689854 -0.08624978 0.016795546
-0.117051676 -0.015994629 0.13534954 -0.01937006 -0.08764094 0.0695699 0.03801645 0.05815256
0.025417615 -0.015774988 0.025256984 0.13603304 0.07777881 -0.07320995 0.02847868 0.14357956
-0.07363833 0.112712786 0.047138885 -0.06746389 -0.15308125 -0.08904102 -0.054811925 -0.056138292
-0.089448415 0.09571995 -0.082697466 0.027354762 0.038773365 -0.013414056 0.12671545 0.09941523
0.039941903 0.07847014 0.0070153307 0.10480953 -0.19788037 -0.15881889 -0.14188766 0.13559103
0.07320734 0.13767609 0.008019106 0.052391578 0.08255605 0.074377924 -0.12465201 -0.06943228
-0.15277474 -0.1048764 0.059913293 0.10848387 0.05582832 -0.10403244 0.12402253 -0.101897344
0.1209163 -0.108666085 -0.015774626 -0.05952488 -0.11323561 -0.07522174 0.049104396 0.021703066
0.09550885 0.13981895 0.025738807 -0.035028085 0.052337226 0.11524692 -0.00079142436 0.019243982
0.09110927 0.15495388 0.11943373 -0.120226145 0.008314574 -0.10007458 0.02684289 -0.09456057
0.031842187 0.13576637 -0.024290347 0.011355959 0.0047128336 0.1612003 0.1258521 -0.075490475
-0.038791887 0.060370423 0.0072677345 0.083246775 0.21050774 -0.0004866373 0.041213445 0.104569376
0.08655951 -0.0030012808 -0.067969516 0.0761405 -0.092302404 0.08165854 0.050515033 0.15795727
0.108414076 -0.064642325 0.10867663 0.06774384 0.055618927 -0.05731171 0.0728033 0.026857112
0.027013112 0.020220445 -0.019148812 -0.107689224 0.058455806 -0.14407077 -0.089203544 0.052331418
0.020120507 -0.06688572 0.05628413 0.04265312 0.14400251 -0.0063438276 0.0703585 -0.015986314
0.07076344 -0.012178398 -0.05807283 -0.069182344 -0.06831633 -0.057395477 -0.09483216 0.093306415
0.100308426 -0.052395422 0.10448464 0.10740723 -0.057861865 0.061558206 -0.12924355 0.012389805
0.0072064074 -0.1437902 -0.020950088 0.0015710605 -0.08041698 -0.0069143046 -0.056953944 -0.11955902
-0.0865058 -0.08224394 -0.09151466 -0.028614134 0.049037665 -0.089355886 -0.016895043 -0.02206112
-0.043259155 0.06856713 -0.07724911 0.04442871 0.08515416 0.021739855 0.10837056 -0.14122769
0.07964648 0.0022245864 -0.10452868 -0.02375099 -0.017079767 0.015021394 -0.07154216 0.0051894425
0.04667032 0.05149408 -0.16610108 0.023591252 -0.071039736 -0.004670676 0.21106847 0.12322545
-0.047557384 0.057875875 0.06985711 -0.12368456 0.03413066 0.060700633 -0.095148765 0.042778466
-0.037922267 -0.039793156 -0.11318997 -0.08417587 -0.039117083 0.0632433 0.061150238 -0.057634257

EncList.3.conv.bias f4 [32]
00000000: 36b3 63bd c52d 86bd e865 623c c857 c4bd
00000010: 25e3 8d3d 8525 313d 5139 ccbb 565c 28be
00000020: e124 d3bd f008 b53d 74ad 64bc fed2 f7bd
00000030: eaa5 b13c 0296 203d 8890 eabd c26c 22bd
00000040: 26b5 03be 2b18 6b3d 9ddc 463c 7092 2a3c
00000050: a53d b63d a1e5 c9bd 1a13 e4bd a2b4 cfbd
00000060: 9973 6c3c c04c 7b3d 07a9 e2bd d7c6 373d
00000070: 010a 333c 96d2 2a3d 3393 b0bd adde c6bc
-0.05559083 -0.065516986 0.013818242 -0.095870554 0.0692809 0.043248672 -0.0062324186 -0.16441473
-0.103097685 0.08839595 -0.01395737 -0.121007904 0.02168556 0.03920556 -0.114533484 -0.0396545
-0.12862071 0.057396095 0.012137559 0.01041089 0.088984765 -0.09858251 -0.11136456 -0.10141875
0.0144318575 0.06135249 -0.11067396 0.044867363 0.010927678 0.041704737 -0.08621826 -0.024276102

EncList.3.bn.weight f4 [32]
00000000: 905c 7a3f 3c05 853f 0ea1 683f fff1 723f
00000010: 11c0 813f d96e 713f d0a2 7d3f 3825 743f
00000020: b1e5 7e3f 8ffd 7b3f 5622 7a3f 1052 7c3f
00000030: 8c96 823f f979 803f 8000 703f 2ce9 783f
00000040: 3e77 763f fdb8 853f 9c97 713f c34e 833f
00000050: 91f8 6e3f af6e 843f 3f2f 6d3f da78 883f
00000060: 41e8 7f3f 6c94 6e3f 68a4 803f 6519 843f
00000070: b4cc 793f 4afe 7c3f 7d6d 733f 7019 763f
0.9779749 1.0392222 0.9087075 0.94900507 1.0136739 0.94309765 0.9907656 0.9536929
0.9956923 0.98433775 0.9770864 0.9856272 1.0202193 1.0037223 0.9375076 0.9723079
0.962757 1.0447079 0.9437196 1.0258411 0.9334803 1.0346278 0.92650217 1.0661881
0.99963766 0.93195224 1.0050173 1.032025 0.9757798 0.98825514 0.9508894 0.96132565

EncList.3.bn.bias f4 [32]
00000000: f3e7 8e3b 0078 4f3d a3c0 293d 1f59 643d
00000010: 754f 68bb 049b 83bd b4e9 703d d6b6 1e3d
00000020: 4428 3f3d b092 6c3d d3b7 cbbc 3697 d83b
00000030: f2d3 fc3b 7ff0 973d 5250 70bb 8bb6 c73c
00000040: 2441 16bd fabe 983d 584c 90bd 1272 0d3d
00000050: 4d8d c83d 32cb 8e3d 38e4 5ebd 850b 9e3d
00000060: 9c46 b43d f5de 3cbd 3d7f ab3d 803a fa3d
00000070: 17b0 0fbc 44f3 363d 63b7 643d 1a1c 87bc
0.0043611466 0.05065155 0.04144348 0.055749055 -0.003544775 -0.06426051 0.058816627 0.038748585
0.04666926 0.05775708 -0.024867928 0.0066098226 0.0077156955 0.07418918 -0.0036668968 0.024379035
-0.036683217 0.07458301 -0.070458114 0.034532614 0.09792576 0.0697235 -0.054416865 0.07717041
0.0880253 -0.046111066 0.08373878 0.12218189 -0.00877001 0.04466559 0.055838954 -0.016492892

EncList.3.bn.running_mean f4 [32]
00000000: c3b6 463e a0de f2bb 1f2d b43e 7db3 7c3e
00000010: efde 75bd 3c56 c9bd 797a a4bd 5724 143e
00000020: 606b d2bd 0cd5 b03e 670a 40be dc43 06bf
00000030: 6733 d7be 2b2d a23d 3612 dfbe 965c 98be
00000040: fb46 25bf f2b8 5f3e dc7a 6bbe 0b96 66be
00000050: d26b 1a3e bfde 95bd 642d 133d fa17 43bf
00000060: 2d81 27bd f1c2 a2bd 2e92 e8b9 cb5c 2dbe
00000070: d7cb 8bbe 4a53 c73e c1e9 39be f65b ccbe
0.19405656 -0.007411793 0.35190675 0.24677844 -0.06002706 -0.09830901 -0.08031172 0.14466988
-0.102743864 0.34537542 -0.18753968 -0.52447295 -0.42031404 0.07918771 -0.4356858 -0.29758137
-0.6456143 0.21847895 -0.22996086 -0.22518174 0.15080193 -0.07317876 0.03593196 -0.7620846
-0.040894676 -0.07947338 -0.000443594 -0.16929929 -0.27303955 0.38930732 -0.18155576 -0.3991391

EncList.3.bn.running_var f4 [32]
00000000: 1bb5 dd3d b0b9 0d3e e434 103e 3601 cb3d
00000010: ed6f 1a3e e7ed a43d ddf3 f33d 21cc f13d
00000020: 9c00 fb3d 324c b23e 9320 f13d 04c4 743e
00000030: 3262 353f 1b51 093e 069b c83d 251e 173e
00000040: 0ab4 903e 4010 9d3d 9913 203e 15e9 8c3e
00000050: 11d1 2a3d f623 d63c 39de c43d 78b5 d53e
00000060: cf61 7c3d 71b7 4e3e aa8f e93d 4243 7b3d
00000070: 2c4e 923d 10be cf3d 7797 bf3d c7c8 933d
0.10825559 0.13840365 0.14082676 0.0991234 0.15081759 0.08053189 0.119117476 0.118065126
0.122559756 0.34823757 0.11773791 0.23902899 0.7085296 0.13409846 0.097951934 0.14757593
0.2826236 0.07669115 0.15632476 0.27521577 0.041703288 0.026140194 0.09612698 0.41740012
0.061616715 0.20187165 0.11404355 0.06134344 0.07143816 0.101436734 0.093550615 0.072160296

DecList.0.conv.weight f4 [32, 16, 4]
00000000: 1f1b 90bd 1d4c 1ebe 483f edbc a6c1 aebd
00000010: 2fab e9bc 65dc 033d 610a 833d ff73 a03d
00000020: 9667 89bd 6b3f b83d 188d 7ebd 9b2e 13be
00000030: 4d2e 97bd b265 d8bc 2297 51bd fa9a 0a3d
00000040: 5fe3 483b 55aa 09be 253c 613d 4dcf cf3d
00000050: 57af 1ebe 5255 5abd 6d1f 5a3d ea40 8abd
00000060: e84d 13be fe06 2f3d 8085 89bd ffc1 58bd
00000070: 4c8b 25be 63c6 83bd d129 83bd 011c 2cbe
00000080: 4111 65bd d675 393d 7e8c b63c c10d a4bd
00000090: 331f 203e ebb9 a43d 3c63 8cba 986c 1e3b
000000a0: df5e cfbd 2e63 60bd c7f5 873d a133 ba3d
000000b0: 63cb 1fbe b6ed 7bbd cc79 203d 6c20 b8bb
000000c0: 9550 83bd 0ede 7c3d d840 d63c 0e3b fa3c
000000d0: 6a6e 24be a7a7 2fbd face a93d e0bf 26ba
000000e0: 1286 93bd 79d7 5a3d b4da abbd ff16 43bd
000000f0: 71b6 473e 9608 f73d 72b7 933c 377e e9bb
00000100: 2025 73bc 0cf6 2e3b 8859 06be df0e 06bd
00000110: 3fa1 3cbe f122 13be 290f 6d3d c163 6bbd
00000120: 85ba ecbd 98f1 8dbc ca53 9bbc 6567 de3d
00000130: 6524 9bbc f2d2 d83d ad59 b8bd 661a 95bd
00000140: 9634 01be b7fa 2cbe 60f2 ebbd efb1 93bd
00000150: 54dc af3d d7e8 9b3d 829e 1cbe 505c c43d
00000160: 3a05 b4bd 247b 95bc dea1 003d 6f86 e73c
00000170: 0258 27be 81ed b8bd 5fbf e4ba 8c4c 8abc
00000180: 2587 78bc c5cd 1cbe bc07 a0bd 47eb 943d
00000190: 125f d53d d13a 8f3d 5a9a b4bb 2718 973d
000001a0: 3f83 e1bd 40aa 0b3d a5e7 f63c eac3 873d
000001b0: 3c83 b8bd a221 8c3c 68a9 adbd fd4b 813d
000001c0: 8c5f 4abd 6253 9abd 9ee2 da3c 192d eb3d
000001d0: e225 98bd b083 d73d 9248 b3bc a222 00bd
000001e0: 37dc d63d 60d5 bcbd 5661 9e3d b0af 3e3e
000001f0: 3326 de3c 30fd bd3d b8cf 9a3d 01ee e9bc
00000200: 09b3 7d3d 8b74 9ebd 35e4 5c3d 69ff 493c
00000210: e5e4 983d 22ff 633d 8421 ec3c 9c87 8b3d
00000220: e69b d4bd fae5 bd3c c322 383d 1b56 78bc
00000230: b894 17bd 6559 bd3d 1b07 0e3d e83b bbbd
00000240: c1ee cd3d b32c 92bd 6c09 b2bd 6926 82bd
00000250: 8850 3d3c 5110 0a3d f8c9 3bbd 32ee c8bd
00000260: af02 eabc 1bb9 043e c5b3 b6bc 6738 5a3c
00000270: a0d0 a73d c263 c6bd eb3d 40bd e064 f8bb
00000280: e2da ef3d 1478 503d 4ba9 a73d 4c43 e53d
00000290: 78dd 0abc 792a b9bc 24ab 303d b047 48bc
000002a0: 56a1 843c 1c2b 5cbd e84d 023d 489b 043d
000002b0: 0ad5 353d 9317 b0bd 4e7d 52bd 6799 013d
000002c0: 941f 123c 60cd 003d 4d7a 1ebd f42f 86bb
000002d0: a356 84bd a91b 9abd bf74 9fbd 33f6 65bd
000002e0: 1199 3d3d 71e8 d13c e13a c83b f158 c9bc
000002f0: 28a4 a73b a659 20bd 202a 3ebd f269 b33d
00000300: 042b 0cbe 4ca7 eabd 7040 52bc 4859 43bd
00000310: d61e 30bd 3969 febd 5a1e 283d db41 21bd
00000320: bf25 063e 2e73 f73d ad69 d43c 328e 39bc
00000330: e6be 953d 63b0 c33c b641 5d3d e93f 7abd
00000340: 0e4d 04be af09 96bc 1341 613d dd98 b6bd
00000350: b648 e03d d8f1 9dbd 1573 0b3d 54b0 96bd
00000360: fa25 a73c a171 67bd fd69 ef3d c8c2 523d
00000370: 7f79 193c 5ce6 813d a04d b53d bb96 e9bd
00000380: c637 073e 71cd 003e a670 b8bb 942d 82bb
00000390: c504 793d 22d4 4e3c 6a9f 3abe 861c c53d
000003a0: 4af2 f6bd 0258 c53d a888 463d e2ad 03bc
000003b0: 5173 99bd 78d9 a7bd 405b f03d 4961 6abd
000003c0: af9d 26bc 0c03 84bd 7183 71bd 9559 e0bc
000003d0: 0053 af3c 0ebf 84bd 39e5 123d 04db 38bd
000003e0: e9d2 eb3b d0f8 9c3d 7e22 a03b 55d4 5c3d
000003f0: 97d0 81bc 1924 e03d 8a81 d3bd 2ec7 50bd
-0.07036423 -0.15458722 -0.028960839 -0.08533029 -0.02852401 0.032192606 0.06398464 0.078346245
-0.067092106 0.08996471 -0.062146276 -0.14373247 -0.07381878 -0.02641568 -0.051169522 0.033839203
0.0030653102 -0.13443883 0.054989 0.10146961 -0.15496574 -0.053304024 0.053252626 -0.067506626
-0.14385188 0.042731278 -0.06714916 -0.052919384 -0.16166419 -0.06434324 -0.0640446 -0.16807558
-0.055924658 0.045278393 0.022283789 -0.08010436 0.15636902 0.080432735 -0.0010710726 0.0024173614
-0.10125517 -0.054782085 0.06638675 0.09091879 -0.1560493 -0.061505996 0.039178655 -0.0056190994
-0.06411854 0.061735205 0.026153967 0.030545738 -0.16057745 -0.042884495 0.08291431 -0.0006360989
-0.07203306 0.053428147 -0.08391324 -0.047629353 0.1950319 0.120621845 0.01803181 -0.0071256417
-0.014840394 0.0026696948 -0.13120091 -0.032729026 -0.18420886 -0.14368798 0.057875786 -0.05746818
-0.11559013 -0.017327115 -0.018960852 0.10859565 -0.018938253 0.105871096 -0.09001479 -0.07280426
-0.12617716 -0.16892515 -0.11520839 -0.072116725 0.08586946 0.0761277 -0.15294841 0.0958792
-0.087900594 -0.018247195 0.03140437 0.028262345 -0.16342166 -0.09029675 -0.0017452053 -0.016882204
-0.01516894 -0.1531287 -0.07813975 0.07271438 0.10418524 0.0699364 -0.005511564 0.073776536
-0.11011361 0.03409791 0.030139754 0.066291645 -0.09009406 0.017105881 -0.08479577 0.06313322
-0.049407527 -0.07535435 0.026719388 0.11483211 -0.074291006 0.10523164 -0.02188519 -0.03128303
0.104912214 -0.092203856 0.07733409 0.18621707 0.027117824 0.09276807 0.075591505 -0.028555872
0.06193832 -0.077370726 0.053928573 0.012328961 0.07465533 0.055663235 0.028824575 0.06812975
-0.10381298 0.02318095 0.044955026 -0.015157248 -0.037007064 0.09245566 0.034674745 -0.091422856
0.10055304 -0.07137432 -0.08693203 -0.063549824 0.011554845 0.033706967 -0.04584691 -0.09811057
-0.028565733 0.12961237 -0.022302518 0.013319111 0.08194089 -0.09686996 -0.04693405 -0.0075803846
0.117116705 0.050895765 0.08186587 0.111944765 -0.008475654 -0.02260326 0.043131962 -0.012224123
0.016190212 -0.05375205 0.03181258 0.03237465 0.044392623 -0.085982464 -0.05138903 0.031640437
0.008918662 0.03144586 -0.038690854 -0.004095072 -0.06461837 -0.07524807 -0.077859394 -0.056142997
0.046288554 0.025623532 0.0061105345 -0.024578543 0.0051160045 -0.039147995 -0.046426892 0.08760442
-0.13688284 -0.114576906 -0.012832746 -0.047692567 -0.042998157 -0.124224134 0.04104457 -0.039369445
0.13100336 0.12082516 0.025929296 -0.011325406 0.073118016 0.023887819 0.054017745 -0.061096106
-0.12920019 -0.018315164 0.0549937 -0.08915875 0.109513685 -0.07712144 0.034045298 -0.07357851
0.02040385 -0.05650485 0.116901375 0.05145529 0.009367346 0.06342766 0.088526964 -0.11405703
0.1320487 0.1257837 -0.005628663 -0.0039727185 0.060795564 0.012623819 -0.18224874 0.09624581
-0.12057932 0.09635927 0.04847017 -0.008037062 -0.07492698 -0.08195776 0.117361546 -0.057221685
-0.010169431 -0.06445894 -0.058963243 -0.027386466 0.021401882 -0.06481753 0.035863135 -0.045130745
0.0071967733 0.07664645 0.0048869243 0.053913433 -0.015846534 0.10944385 -0.10327442 -0.050971203

DecList.0.conv.bias f4 [16]
00000000: a6db d43d 92cf 8fbd e421 433d 4959 9abc
00000010: 4102 eebc 3352 e5bd 8057 babb a559 ca3d
00000020: 7238 09be 440b 9f3b 627a 563d 45c7 85bc
00000030: 38a3 693d 0451 91bd 097b 983c 7835 8ab6
0.10393457 -0.07022013 0.047639742 -0.018841403 -0.02905381 -0.11197319 -0.0056867003 0.098803796
-0.13400438 0.004853638 0.052362807 -0.01633037 0.057040423 -0.07095531 0.018613355 -4.118945e-06

DecList.0.bn.weight f4 [16]
00000000: 3109 8c3f b8fc 863f 0654 883f 4bb3 8b3f
00000010: bb2f 8a3f a05a 893f f003 833f b7f5 8e3f
00000020: 1559 963f 70da 5b3f d2e2 7b3f bc55 7c3f
00000030: ed21 883f f666 853f ebca 793f bb31 843f
1.0940305 1.0545874 1.0650642 1.0914091 1.0795816 1.0730782 1.0235577 1.1168736
1.1745936 0.85880184 0.98392975 0.9856832 1.0635353 1.0422046 0.97575253 1.0327677

DecList.0.bn.bias f4 [16]
00000000: 9e52 403e 6efb 043e 7bb3 bc3d 7592 e43d
00000010: f753 233e ad88 0a3d 8b88 ac3c 5fc4 f23d
00000020: d761 e23d c803 01be 9175 a63d 7c15 8d3d
00000030: 98a7 983d 1703 c2bc f36a 8ebd ba9e 383c
0.18781516 0.12986538 0.09213921 0.11160747 0.15949999 0.03382175 0.021061203 0.11853861
0.11053818 -0.12599099 0.08127893 0.068888634 0.07453841 -0.023683114 -0.06953993 0.011268312

DecList.0.bn.running_mean f4 [16]
00000000: a810 74bd b405 cb3d 0ebc 36bd 962b 27be
00000010: e7ee 9fbe 9fc1 fdbe 9888 393b 7e32 e43c
00000020: e4a5 a73d 136d a7bc 4424 06be 45ef 9abe
00000030: ff41 ab3c a40b b6be a890 19be d249 763e
-0.059586197 0.09913197 -0.044612937 -0.1632522 -0.31236956 -0.49561784 0.0028310176 0.027856108
0.08185938 -0.020437753 -0.13099772 -0.30260673 0.020905493 -0.35555756 -0.14996588 0.24051598

DecList.0.bn.running_var f4 [16]
00000000: 8ff5 103f d3ee 273f ae3b 043f f17c 3c3f
00000010: becc 163f b92b 9d3e 216a 833e dc7d b63e
00000020: f907 a93e 6dba 023f 6b6a a93e e851 b93e
00000030: 554f bc3e 4412 013f 04d1 b53e 602f 133f
0.5662469 0.6559879 0.51653564 0.73628145 0.5890616 0.3069742 0.25666907 0.35642898
0.33013895 0.51065713 0.33089003 0.36195302 0.36779276 0.50418496 0.3551103 0.57494164

DecList.1.conv.weight f4 [16, 8, 4]
00000000: ffbb 5fbd bef1 b7bd ba32 603c 002c a53d
00000010: a477 bb3d 232d 063e f095 473e 5da5 65bc
00000020: 1b0a aebd 9a50 8d3d 0988 12bd 7820 383e
00000030: c479 a43c f62a 35be 9023 e03d 0b21 6abd
00000040: f05f 82bd 8cd3 d3bd 8a17 9b3d b62c 243e
00000050: 2fbb c6bd 4875 303c 33df a13d 2028 3bbd
00000060: 6926 e2bd 2453 183d e082 3fbe 70d1 95be
00000070: b2f5 bbbd 0221 7cbc 87d0 86bc dd3d cabd
00000080: 02c8 77bc 6d25 b7bd 1f6b 2cbc f646 82bd
00000090: 3d1f a73d 4dc2 5d3e f57a 233e ba18 223e
000000a0: 024f d2bd dff7 373e c015 24be b157 003d
000000b0: b962 2b3e cb05 983d b216 ee3d 09fe f6bd
000000c0: eab1 bb3d f123 d33d 9b4f f03d dfe0 10be
000000d0: 302f 623d 1692 303d 9d74 e3bd f42b 25be
000000e0: 721f 02be b98f 23be bb59 8a3d f365 d03c
000000f0: 44b4 cb3d c69f a9bb 0554 6ebd 46c9 f7bd
00000100: 4aab 3dbd 1c9b 893d 63d9 83bd 5162 c03d
00000110: 6b8c 013e 82a6 9e3d 638d 193e 8437 1f3e
00000120: 8de2 84bd 55fc 033e 7563 173e 7d50 db3d
00000130: 2afe 6a3d 47c9 e23d a998 57bd 61f3 d6bd
00000140: 4f03 5f3e d8e0 bf3d fdda a73d 0074 d73d
00000150: 271f e1bd 9b10 b4bd cbf4 3dbe 8f75 01be
00000160: e0f6 b7bd 4b26 1cbd 647d fcbd a1f6 40bd
00000170: 9ac4 2cbd b0b5 60b9 3f2b 7abd 4754 c8bd
00000180: c2f7 093e de99 c7bc 4a23 5f3b 4165 583d
00000190: 5434 dc3c 6cdd 43bd 0015 24be 5768 efbd
000001a0: f930 1dbd beb3 933d 5a66 ccbd 20d9 cd3d
000001b0: c2aa 9a3d 1143 9bbd f706 f6bd eeda 2c3c
000001c0: 89b9 f33c 2069 edbd f399 bbbb c145 3b3e
000001d0: 4c70 553e 82c9 c03d 1b78 0cbe 4fc8 98bd
000001e0: a203 e03d 6927 05bd e0ba d33d fa9c 5a3d
000001f0: 8329 89bc d739 413e d65d af3b d352 d13b
00000200: f47d 7abd 9a3d 29be 4f89 4dbe 6243 36be
00000210: 2b51 e1bb da9d 9a3d 251c 57bc b28a 253c
00000220: ae18 af3d d1bc 2cbd b581 1cbe 1807 adbc
00000230: 352a cdbd 80fa 1ebd 7554 f1bd 0002 b93b
00000240: 3eb6 b8bd ae0c d0bd e403 4b3d c6d8 11be
00000250: c703 323e 1631 503e 6c8b 483c 2aa0 023e
00000260: c669 6abd f46c 3cbd 6e4d 18be 0fae 84bd
00000270: e7fb 09be 8724 d33c efbb cfbd ce73 b33d
00000280: d329 ed3d 6628 50bd 9214 153e a03f f23c
00000290: 45ed 37be 2c01 61bd 0b80 06be dd4b dbbd
000002a0: e56d 5d3d a6d5 eabd 5dcd 543d f2ed 9c3d
000002b0: 6f6e 973b 656c d0bd ae0b 0fbe f311 06be
000002c0: ba27 07be cc8c 9e3d ec62 3e3d 0c8e bdbd
000002d0: bfd4 19bc d30b 023e e75c 4dbd b2eb 743d
000002e0: 731e a53d 72a4 e7bb 389c 3d3d 0d34 b23d
000002f0: 9e0d 8e3d 1419 6d3e 747a b53a 3c64 393e
00000300: db6b f43d c257 843e 1be2 fb3d 4539 203e
00000310: 7c70 a33d d4f3 063e 70d8 95bc 7b00 17be
00000320: 8cbb bfbd d361 e03d eacb 12be 0196 403e
00000330: 7453 833d c31d 173e c08d 1d3e e285 253e
00000340: 9572 e5bd ba11 33be b923 39be 2a25 15be
00000350: 1df4 4ebc e083 d2bd 689c cebd f6f6 823d
00000360: 3511 a23c 77dc 253d 6a9e 693e 3a16 743e
00000370: f87b ca3d 8ffd 60bd 2606 1e3e 27d4 323e
00000380: 2ac5 f2bd 1531 20bc 8b54 d7bd a36c 17be
00000390: e5e6 1a3d e2b8 4f3d 5dac 31bc 13b2 cd3b
000003a0: 49d3 c93c fa18 d7bd d0fa 06bd 320c bdbd
000003b0: 49c0 4cbd 203f 31bd 1aae 0e3e 5393 163e
000003c0: 232f a43d 3131 7c3d de75 3f3c fe82 22bd
000003d0: 29ce 963d 0c2b 0b3e 581d 9c3b 5d7d d13d
000003e0: 63ed 693d 8992 a43c 4991 83bd 9694 85bd
000003f0: 7531 2cbe 3fe9 efbd 5278 0a3e 5765 97bd
-0.054622646 -0.089816555 0.013683969 0.08065033 0.09153679 0.13103156 0.1949079 -0.014016476
-0.08498021 0.06900139 -0.035774264 0.17981136 0.020077594 -0.1769217 0.10944283 -0.05716042
-0.06365955 -0.10343084 0.07572849 0.16032681 -0.09703671 0.0107701495 0.079039 -0.045692563
-0.110424824 0.037188664 -0.18702269 -0.2926135 -0.09177722 -0.015388729 -0.016456855 -0.09875081
-0.015123369 -0.08942685 -0.0105235865 -0.06361191 0.08160255 0.21656151 0.15964873 0.15829745
-0.10268976 0.17965649 -0.16023922 0.03133363 0.16736878 0.0742298 0.116254225 -0.12060172
0.09164794 0.1030959 0.117339335 -0.14148282 0.055220783 0.04310807 -0.111062266 -0.16130048
-0.12707308 -0.15972795 0.06755396 0.025439238 0.09946492 -0.005176517 -0.058185596 -0.12098937
-0.046305932 0.06719038 -0.064379476 0.09393752 0.12651221 0.077466026 0.14995341 0.15548521
-0.06488524 0.12889226 0.14784034 0.10708711 0.057371296 0.11073547 -0.052635822 -0.104956396
0.21778606 0.093690574 0.081960656 0.10520172 -0.1099227 -0.0879223 -0.18550412 -0.12642501
-0.089826345 -0.038122457 -0.12328604 -0.047110204 -0.04217968 -0.00021429989 -0.0610764 -0.097817
0.13473418 -0.024365362 0.0034048134 0.05283094 0.02688042 -0.047818586 -0.16023636 -0.11689823
-0.038376782 0.072120175 -0.099804595 0.10051179 0.07552101 -0.07581151 -0.12013047 0.010550244
0.029751556 -0.11592317 -0.0057251393 0.18288328 0.20843619 0.094134346 -0.13717692 -0.07460081
0.10938193 -0.032508288 0.10338378 0.05337236 -0.016743427 0.1886972 0.0053517623 0.0063880472
-0.061155275 -0.16527405 -0.2007191 -0.17799142 -0.006876131 0.07549639 -0.013129269 0.010103868
0.08549629 -0.042172257 -0.15283854 -0.021121547 -0.10017816 -0.038813114 -0.11783687 0.0056459904
-0.09019135 -0.101586685 0.049564257 -0.14242849 0.17384253 0.20331225 0.012240272 0.1275641
-0.05722978 -0.046002343 -0.14873287 -0.064785115 -0.13475 0.025774254 -0.10143267 0.08762322
0.11580243 -0.050819777 0.14558628 0.029571354 -0.17961605 -0.05493276 -0.13134782 -0.10707829
0.05405988 -0.114665315 0.051953662 0.07662572 0.004621319 -0.101769246 -0.13969299 -0.13092785
-0.13198748 0.077416986 0.046481058 -0.09255609 -0.0093891015 0.12699823 -0.050137427 0.05979509
0.08062448 -0.007069164 0.04629156 0.08701334 0.06936191 0.23154098 0.0013845698 0.18104643
0.11934634 0.25848204 0.122989856 0.15646847 0.07980439 0.1317895 -0.018291682 -0.14746277
-0.093619436 0.109561585 -0.143356 0.18807222 0.06412402 0.14757447 0.15386105 0.16164353
-0.112034954 -0.17487231 -0.18080033 -0.14564958 -0.012631443 -0.102790594 -0.10088426 0.0639476
0.019783596 0.040493455 0.22814336 0.23836604 0.098869264 -0.054929312 0.15432033 0.17463742
-0.11854012 -0.009777327 -0.10514172 -0.14787535 0.037817854 0.050713427 -0.010844317 0.0062773316
0.024636881 -0.10502811 -0.032954037 -0.09230842 -0.049988065 -0.04327309 0.13933602 0.14704637
0.08016803 0.06157035 0.011685817 -0.039675705 0.07363541 0.1359064 0.0047642402 0.10228989
0.057111155 0.020089405 -0.06424195 -0.06522481 -0.16815741 -0.1171441 0.13522461 -0.07392376

DecList.1.conv.bias f4 [8]
00000000: 8c7c 75bd fc29 243e f66b 23be 1763 0fbe
00000010: 3f6c 7fbc 6788 dc3c 17e9 89bd beeb 0f3e
-0.05993323 0.16031641 -0.15959153 -0.14002644 -0.015589773 0.02692051 -0.067339115 0.14054772

DecList.1.bn.weight f4 [8]
00000000: 5b26 903f 48f9 873f 5f28 7c3f b970 643f
00000010: db69 713f fe5e 9a3f c4bc 7f3f e01a 8b3f
1.1261705 1.062295 0.984991 0.892345 0.9430215 1.2060239 0.9989741 1.0867577

DecList.1.bn.bias f4 [8]
00000000: 4196 f83d 0821 553e 50e0 b2bd f318 07be
00000010: 4c97 b63c d5dd 653e 4d2d 7e3c 4919 243e
0.12138034 0.20813382 -0.087341905 -0.13193111 0.02228894 0.22447903 0.01551373 0.1602527

DecList.1.bn.running_mean f4 [8]
00000000: 1f3f 53be dee4 1c3f d0d1 ffbe 37af 1bbf
00000010: 92b8 50bf e04a f03e d8f6 83be ff0b 653e
-0.20629548 0.61286724 -0.49964762 -0.6081423 -0.8153163 0.46932125 -0.25774264 0.22367857

DecList.1.bn.running_var f4 [8]
00000000: dbe3 983e 4111 1d3f d365 223f fbae 103f
00000010: 4032 653f 6334 ad3e 8256 c43e 6910 b73e
0.2986134 0.6135445 0.6343662 0.56517 0.895298 0.3382903 0.3834725 0.35754707

DecList.2.conv.weight f4 [8, 4, 4]
00000000: 4cb6 61be 117a d1bd 6547 d7bd b5e7 29bd
00000010: 8f0a be3d 3fce 373e d093 413e d3cc 123e
00000020: 47dc 38be b073 65be 03b9 3ebe 80e7 e6bd
00000030: ac5a 4fbd 6826 69be ea0d 78be 256f 16be
00000040: 9041 febd cc1b 29be 61c2 ecbd 4e94 a93d
00000050: 8eee 11be 3b12 ea3c 3994 163d 0c93 a5bd
00000060: cf71 1ebe 8179 40be a558 8ebd c846 10bd
00000070: d55a d03d 0ae8 273e c4df 373e 5fc3 073e
00000080: 9921 b8bd 2ec1 1bbe 3dd2 26be cd22 4dbe
00000090: d7c1 bcbd 57b6 41be e6ad 26be d1ca 0ebe
000000a0: d5fd 913d 8a5a 41bb 6037 50bc 31f0 1d3c
000000b0: cc12 3bbe 0d46 14be e2f1 0f3d 24ff 11bd
000000c0: 37e7 1e3e 8831 14be 9857 4a3e f0ae cdbd
000000d0: ec72 91bc 90a8 9ebe 9291 88be 8c22 fbbd
000000e0: e310 023e 2d9f c8bd 0ae9 36be dd4d 573d
000000f0: 0623 07be 86ef 69be 96c1 ea3d e01e 113d
00000100: 400c 6bbd 8a15 4cbb fcbb a2be 0237 9dbd
00000110: d69a bfbd f538 4dbd 20d0 d73d 8e03 a83d
00000120: faf2 27be cd74 6cbd 4110 5e3d f85f ddbc
00000130: 2e70 973d 9ebf 0b3e 8529 4c3e 209b d03d
00000140: 1e33 45bd d275 963e 20e5 d9bd d316 2a3e
00000150: 5ab2 443d c7ac e33d 560d 9b3d c3a7 d63c
00000160: 1fb4 c23c a18e 8e3e 7533 d83e b79f 3f3e
00000170: fbec dbbc 820b 0a3e 7049 a5bd 1b30 3e3c
00000180: 65bc 2c3d e585 e83d 7181 86bd 6c7a 823d
00000190: 5aca 313e fa8f aa3d 971e f3bb e2b2 90bd
000001a0: 5cd8 92bd e462 a1bd 06e4 37be f455 27be
000001b0: 3c2d 89be 283b 0dbe 5199 55be f603 0f3e
000001c0: 20f9 babd 2450 4f3c 972c 0cbe 35f6 4e3d
000001d0: 92ef 093e 97ee 9e3e 9b3f 283e 834a 763e
000001e0: 796b c3bd e98f 85bd ddb2 e9bd 4ac0 00be
000001f0: 0237 a9bd 4dc4 25be f566 37be 69df 1abe
-0.22042197 -0.102283604 -0.10511664 -0.04148074 0.09279358 0.1794977 0.18904042 0.14335947
-0.18052779 -0.22407413 -0.18625264 -0.11274624 -0.05062358 -0.22768557 -0.24224058 -0.14690836
-0.12414849 -0.1651451 -0.11560512 0.0828024 -0.14251158 0.028573146 0.03676245 -0.080846876
-0.15473102 -0.1879635 -0.06950501 -0.035223752 0.10173575 0.1639711 0.17956454 0.13258122
-0.08990783 -0.15210411 -0.16291137 -0.20032807 -0.092166595 -0.18917213 -0.16277274 -0.13944556
0.07128493 -0.0029503428 -0.012708515 0.009639786 -0.18268889 -0.14479847 0.035142787 -0.03564371
0.15517889 -0.1447202 0.19759977 -0.10043132 -0.017754994 -0.30987978 -0.2667356 -0.12262449
0.12701754 -0.09795985 -0.17862335 0.05256449 -0.13196954 -0.22845277 0.11462705 0.035429835
-0.05738473 -0.0031140768 -0.31784046 -0.076765075 -0.093557045 -0.050103147 0.105377436 0.08203803
-0.16401282 -0.057728577 0.05421472 -0.0270233 0.073944435 0.13647315 0.19937713 0.10185838
-0.048144452 0.29386765 -0.10639405 0.16610269 0.04802165 0.11116939 0.07570903 0.026203042
0.023767529 0.27843192 0.4222676 0.1871327 -0.0268464 0.13480952 -0.08070648 0.011608149
0.042171855 0.11353663 -0.06567658 0.06371006 0.17362347 0.083282426 -0.007419418 -0.07065369
-0.071701735 -0.0788019 -0.17958078 -0.16341382 -0.26792324 -0.13792098 -0.20859267 0.13966355
-0.09129548 0.012653384 -0.13688885 0.05052777 0.13470295 0.31041405 0.16430514 0.24051861
-0.09541983 -0.06521589 -0.114110686 -0.12573352 -0.08262445 -0.16188164 -0.17910369 -0.15124287

DecList.2.conv.bias f4 [4]
00000000: 5c17 c7bc f4b4 64be ade3 35be 770d 2abe
-0.02430313 -0.22334653 -0.17762633 -0.16606699

DecList.2.bn.weight f4 [4]
00000000: b076 9b3f 7912 893f 3d27 913f b7e4 923f
1.2145596 1.0708762 1.13401 1.1476048

DecList.2.bn.bias f4 [4]
00000000: f794 363e 9512 d6bb 92af a13e 18f7 853e
0.17830263 -0.006532977 0.31579262 0.2616508

DecList.2.bn.running_mean f4 [4]
00000000: 0a79 0abf 73b5 d53d 6e66 2cbf d3b2 0bbf
-0.5409094 0.10434999 -0.67343795 -0.5456974

DecList.2.bn.running_var f4 [4]
00000000: c80e 3f3f 3fdb c13e 5e0e 553f 89ef 8b3f
0.7463193 0.37862584 0.8322505 1.0932475

DecList.3.conv.weight f4 [4, 2, 4]
00000000: 3aa4 923e 4b52 943e 81ad 5d3e f0ab 823e
00000010: 10c7 8d3c da9f 583b 6efc 4fbc 3010 aa3d
00000020: 4d98 c7bd 6440 173d ab3a 783d 6e06 98bd
00000030: c0a2 2ebe 600d 83bd f6c2 37be 8b05 92be
00000040: ce43 3abe 397a 08bd cd0b 9a3e a315 063e
00000050: 7071 7d3d 5e1d 17bd 1ce5 cf3c 6f6e 953d
00000060: 51bd bfbd 4d3e ebbd 2da3 1f3d b75b 263d
00000070: 88c6 653e 5449 da3e 317a bd3e 4160 083e
0.2864092 0.28969035 0.21648218 0.25521803 0.017306834 0.0033054263 -0.012694461 0.08303869
-0.09745846 0.036926642 0.060602825 -0.07423101 -0.17054272 -0.063990355 -0.17945465 -0.28519854
-0.18189928 -0.033319686 0.30087128 0.13094191 0.06187576 -0.03689324 0.025377803 0.07296454
-0.09362281 -0.11486492 0.038973976 0.04061481 0.22439015 0.4263407 0.37007287 0.13317968

DecList.3.conv.bias f4 [2]
00000000: 28a9 65bc 5321 36be
-0.014017381 -0.1778615

DecList.3.bn.weight f4 [2]
00000000: 1460 463f e61d 4c3f
0.77490354 0.7973312

DecList.3.bn.bias f4 [2]
00000000: 9845 75b7 4aa6 7639
-1.46193415e-05 0.00023522336

DecList.3.bn.running_mean f4 [2]
00000000: 01dd fa3e c7af 413e
0.48996738 0.1891471

DecList.3.bn.running_var f4 [2]
00000000: b637 d83d fe16 843e
0.10557501 0.25798792

bottleneck.0.weight f4 [32, 32, 1]
00000000: 3289 3abd 0c09 f7bc 9fcd f43c 144b f43d
00000010: 0fa2 fbbd 452f 033e a471 4c3e 4be5 fe3b
00000020: 0b8e 1ebc ac17 9cbc 6957 0cbc 5670 bdbd
00000030: eabb eb3d 3ee5 0a3e ed91 91bd 43d5 973d
00000040: 496f 633d 7d8d 8ebd 1dcb 213d ce7c 1f3e
00000050: 7171 9dbd 7286 f83b 0af7 1fbe 3a14 1ebd
00000060: d7cb 99bd 4842 83bd 0351 e83d f854 96bc
00000070: e0d0 273d 5391 1e3d d0a1 1b3e a311 093e
00000080: 94b6 ebbd 1e79 f13d 709e febd 679d 293d
00000090: 46b2 163e 907e 07be c258 053e 1f58 b6bb
000000a0: 4b28 a93b e543 23be 86ec 043e 30f3 00be
000000b0: 3b9b 5c3d 4556 00be b9c8 d9bd 8d14 42bd
000000c0: 7d72 f63d 0683 36be 314e 79bc e181 0d3d
000000d0: 9011 fe3d 96b3 283e f859 2f3d 9186 f63d
000000e0: f5ff 543d 8af5 a93b 5482 41bd 4593 10be
000000f0: 99df f2bc a352 b6bd 696c 043d 2d88 023c
00000100: 1bbe cabd c727 733d 0340 f33b e4a3 85bd
00000110: 9480 a43d d6b2 40bc deb4 f439 e662 bc3d
00000120: 10bb 5ebc aaac fd3b 907f 08bc bbd5 693c
00000130: 0bb1 4b3d db75 1f3e a4ab bdbd 332c c1bd
00000140: 4c97 fbbd ae60 493e 7961 c9bc d1c7 ddbb
00000150: dd3c 85bd 52fd afbd 05ec f9bc f6cf 52bc
00000160: a565 0f3e b75b 0a3e 22ad 2ebe 8950 6e3e
00000170: ab84 913d 4e90 12be 1469 89bd dd30 923c
00000180: 4ed3 b13d 1045 dfbc 2c55 d63c 17f6 ca3d
00000190: c78c 843d fd1d 773c 9cd5 a3bd f3f7 103e
000001a0: 6b3a 10be b17f bc3d eef6 cdbd 3d83 cb3d
000001b0: 0bca ca3d 2def 283e 2d38 90bd 879c 1d3e
000001c0: 18da 8d3d 2b57 2f3c 6eb3 94bd 68af 1abe
000001d0: 2418 193d e8d0 29be 1376 a2bd 68d1 b83d
000001e0: c8c0 1b3e 9624 863d e2a1 cc3d 48c5 f73d
000001f0: 7711 cf3d 2743 dbbd 6173 c6bb 8884 8dbc
00000200: 7577 c6bd 05a5 fc3c 30b0 21be c55b cfbb
00000210: 1367 bc3d 0a8b efbc 0ef9 85bd bd53 f63d
00000220: 437a 33bc b9e4 c5bd 1e81 1e3e b29a e9bb
00000230: b208 dd3d 2fb0 803d 82b5 ec3d 0fa2 34be
00000240: 9896 353e c6a8 4ebd df54 22be 57cf 0ebe
00000250: 06c5 ba3d f07e 11be fa9c 953d b42c f53d
00000260: 36be a0bd 4474 d13d 42e9 45be de92 8a3d
00000270: e5e5 b9bd abf0 013e de3a 5f3d 0ae8 f6bd
00000280: 4eba f73d ff71 da3d e2e6 5cbd 9c76 0c3d
00000290: 5ef3 ab3d caab 0a3e 9bd0 9b3d 8a26 bd3c
000002a0: e9a1 98bc 791d b23c ea82 44be 26a2 25be
000002b0: 5f6e 1a3e 8796 033d 8376 1f3e 3386 963d
000002c0: 8c7a 0dbd 7525 0b3e c83e 53be 506a 1fbc
000002d0: 4989 6f3d 5407 1a3d 4496 6fbd bb6f 293e
000002e0: 1c90 0f3e 5db2 963d 2fa0 63bd 872b 0e3b
000002f0: 5236 07be facc 003e 15e5 0dbe cf55 03be
00000300: 7987 19be 3afb f4bd 34df 053e a7a5 2b3e
00000310: a5bb 9b3c 2fda 49be c7ef 343d 9da1 a9bd
00000320: b0d1 eb3b 2f47 8bbd 7e76 1fbe 7ff4 5abd
00000330: 448d bd3d 3ba2 bf3c bca1 bd3d bece fe3d
00000340: b710 adbd 2aae 65bd 1d8c 0f3d fc2a 06be
00000350: bf32 1e3e 004e 0d3e ef02 78bd e292 813c
00000360: fc54 e33d b5e8 d83c d762 10be 1113 3e3d
00000370: 1570 3fbd 3467 0a3e a4b3 203e 8446 92bd
00000380: 3d10 f93c 6126 cabd ff65 583d 9e4a 84bb
00000390: 4372 8fbd 77f1 91bd 769e c93d 51af 0e3d
000003a0: fa6b 9abd f47b a5bd fa6e afbd 631c 88bd
000003b0: 27d7 ce3d 1adc 883d 1cba 993d c36c 37bc
000003c0: daeb fa3b 7ae4 063e 5945 20be 6784 02be
000003d0: 7acf ffbd d60c 793e 1bf1 c2bd 43cc c4bd
000003e0: 7df0 f93d 12d1 4bbe 953f 183e 2b1f 6eba
000003f0: bbe3 0ebd eb72 f1bd be13 06bd 4eb9 643d
-0.045540996 -0.030155681 0.029883204 0.119283825 -0.122867696 0.12811 0.19965225 0.0077787987
-0.00967742 -0.019054256 -0.008565762 -0.09249942 0.11510451 0.13564011 -0.07107911 0.07413723
0.05552605 -0.069605805 0.039500345 0.15574953 -0.07687653 0.0075843865 -0.15621582 -0.03859351
-0.075095825 -0.064091265 0.11343577 -0.018351063 0.040970683 0.03871281 0.15198445 0.13385634
-0.115094334 0.117906794 -0.12432563 0.041409876 0.14716443 -0.13231874 0.1302214 -0.005564704
0.005162274 -0.15943868 0.12980852 -0.12592769 0.053858977 -0.12532909 -0.10633988 -0.04738288
0.12033556 -0.17823419 -0.015216396 0.03454769 0.124056935 0.16474757 0.04281041 0.12037385
0.052001912 0.0051867412 -0.04724343 -0.14118679 -0.029647635 -0.089024805 0.03232995 0.007967037
-0.09899541 0.059364107 0.0074234023 -0.065254 0.08032337 -0.011761388 0.00046674063 0.09198551
-0.013594404 0.0077415304 -0.0083311945 0.014272149 0.04972939 0.15572302 -0.092612535 -0.094322585
-0.12284717 0.19665787 -0.024582611 -0.0067682047 -0.065057494 -0.08593239 -0.03050805 -0.012866965
0.14003618 0.13511549 -0.17058232 0.23272909 0.071053825 -0.1431286 -0.06709495 0.017845565
0.08682881 -0.027254611 0.02616366 0.09910219 0.06472164 0.015082833 -0.07999727 0.14157085
-0.14084785 0.09204043 -0.10056864 0.09937141 0.09901818 0.16497488 -0.07041965 0.15391742
0.06926364 0.010701935 -0.07260786 -0.15105975 0.037376538 -0.16583598 -0.07932677 0.09024316
0.15210259 0.06549947 0.09991814 0.12098175 0.10110753 -0.10706168 -0.0060562347 -0.01727511
-0.09690753 0.030840406 -0.15789866 -0.0063280785 0.09199347 -0.029241104 -0.06541644 0.120276906
-0.010954442 -0.09662766 0.15478942 -0.007129037 0.10792674 0.06283604 0.11558057 -0.17639945
0.17733228 -0.050453924 -0.15852688 -0.13946281 0.091196105 -0.14208579 0.073053315 0.11971417
-0.0784878 0.10227254 -0.19327262 0.06766294 -0.09077052 0.12689464 0.0544995 -0.12055977
0.12096082 0.10666274 -0.053931125 0.034292802 0.08396028 0.13542095 0.07608148 0.023089666
-0.018631892 0.02174257 -0.19190565 -0.16175136 0.15081166 0.032125976 0.15572552 0.07349815
-0.034540698 0.13588507 -0.20629418 -0.009729937 0.058480535 0.037604645 -0.058492914 0.16546528
0.14019817 0.07358239 -0.055572685 0.0021693425 -0.13204315 0.12578192 -0.13856919 -0.12825702
-0.14993085 -0.1196198 0.13073426 0.1676241 0.019010374 -0.19712137 0.044173982 -0.082827784
0.0071966276 -0.068006866 -0.15572545 -0.053455826 0.0925546 0.023392787 0.09259364 0.12441777
-0.08450454 -0.0560743 0.03504573 -0.13102335 0.15449046 0.13799286 -0.060549673 0.01581711
0.11100194 0.02647815 -0.14100204 0.046404902 -0.04673775 0.13515931 0.15693527 -0.07142356
0.03040325 -0.098706014 0.052831646 -0.0040372154 -0.070042156 -0.07126134 0.09844677 0.034835164
-0.07540126 -0.08080283 -0.08566089 -0.06646039 0.10099631 0.06682606 0.07506201 -0.011195364
0.00765751 0.13173094 -0.15651454 -0.1274582 -0.12490745 0.24321303 -0.095186435 -0.09609272
0.122040726 -0.19903973 0.14868005 -0.0009083624 -0.03488515 -0.11789497 -0.03273367 0.055840783

bottleneck.0.bias f4 [32]
00000000: b07d d43d 928e a23b 5311 e3bd a41b d03d
00000010: 22da 65bd 8fca 033d 02c8 3fbd 90c2 9bbc
00000020: 6b76 153c fe9d 0b3d 24e2 e9bd df11 0ebd
00000030: 6d8d 5a3e 0d68 623e c3f1 3f3e c6e6 1cbd
00000040: 1ec8 4ebd bc2a 4ebd 441f 913d be4f 5b3b
00000050: 5b1e ccbd 692d cbbd 43e8 393e c56c b4bd
00000060: 803b 0d3d c42a 1f3e 9529 553d f31b adbd
00000070: 444e 9a3d ed40 68bb 1f3e 1a3d 8b68 313d
0.103755355 0.0049608434 -0.11087289 0.10161522 -0.05611623 0.032175597 -0.0468216 -0.019013673
0.009122471 0.03408622 -0.11420086 -0.034685012 0.21343012 0.22110005 0.18744569 -0.03830602
-0.050483815 -0.050333723 0.070860416 0.0033464278 -0.09966727 -0.09920771 0.18155007 -0.08809809
0.03448057 0.15543658 0.05204161 -0.084525965 0.07534459 -0.003543909 0.0376569 0.04331259
