checkpoints/best_DTUNet_emb_snr_2.pth (torch, 321158 bytes, 38 tensors)

EncList1.0.conv.weight f4 [8, 1, 13]
0	0x3ed95b96	0.42452687
1	0x3e873e35	0.26414648
2	0xbe491ad6	-0.19639143
3	0x3dbe1f7d	0.0928335
4	0xbea647e6	-0.3247673
5	0xbe8aa86d	-0.27081624
6	0xbd8a3105	-0.06747631
7	0xbde3e000	-0.11126709
8	0x3dad62c4	0.08466104
9	0xbe06e6f5	-0.1317404
10	0x3b626ad7	0.0034548545
11	0xbe54c98e	-0.20780012
12	0xbe5226c9	-0.20522608
13	0x3f0f0d42	0.55879605
14	0x3d57c928	0.052682072
15	0x3dcf49a6	0.10121469
16	0x3dea7b2c	0.114492744
17	0xbe3a282e	-0.1817939
18	0xbe127d26	-0.14305553
19	0xbea61ffb	-0.32446274
20	0xbc7e85ec	-0.015534859
21	0xbe013f5e	-0.12621829
22	0xbe0f66a4	-0.14003998
23	0x3df6f4d2	0.120584145
24	0xbdcbb812	-0.09947218
25	0x3d869f2b	0.06573328
26	0xbd384334	-0.044985965
27	0xbe24670d	-0.16054936
28	0xbe1c6938	-0.15274513
29	0xbe304456	-0.17213568
30	0xbe7cebd7	-0.24699341
31	0xbd581468	-0.052753836
32	0x3e388896	0.18020853
33	0xbe06a6cf	-0.1314957
34	0x3dfe4501	0.12415505
35	0xbe230a78	-0.15921962
36	0xbe62da25	-0.22153528
37	0x3ea135bb	0.31486306
38	0xbe169528	-0.14705336
39	0xbe3b9076	-0.18316826
40	0xbeb1f04b	-0.3475364
41	0xbeb028f5	-0.34406248
42	0x3e37a727	0.17934857
43	0xbc842d48	-0.016134873
44	0xbde3e16e	-0.11126982
45	0x3e8bf0ea	0.2733224
46	0x3e7e18ea	0.24814191
47	0xbdbbec8d	-0.09175978
48	0x3c2fff38	0.010742001
49	0x3d915c71	0.0709771
50	0x3c9bca5d	0.019017393
51	0x3e1b4336	0.15162358
52	0xbd9ee27b	-0.077580415
53	0x3dd6e475	0.104927935
54	0x3dfcd672	0.1234559
55	0xbe6e72bc	-0.23285955
56	0x3d515412	0.051105566
57	0x3e134174	0.14380437
58	0x3ea42396	0.320584
59	0x3e7ea080	0.24865913
60	0x3e8dcfbf	0.2769756
61	0x3d9b55db	0.07584735
62	0x3e7e0a28	0.24808562
63	0x3dea6dba	0.1144671
64	0xbdce0945	-0.10060362
65	0xbe246cb0	-0.16057086
66	0x3e476392	0.19471577
67	0x3dbe547f	0.0929346
68	0xbbf728f1	-0.0075427224
69	0x3e267db7	0.16258894
70	0xbd42fb94	-0.047603205
71	0xbe1b61c6	-0.15174016
72	0x3e031842	0.12802222
73	0x3e0fad79	0.14031018
74	0x3cc7c8a7	0.02438767
75	0xbed89b54	-0.42306006
76	0xbe47e85a	-0.19522229
77	0xbd2146a0	-0.039373994
78	0x3db7221f	0.08942055
79	0x3ea4d08f	0.32190368
80	0xbe219acf	-0.15781711
81	0xbe121144	-0.14264399
82	0xbe297122	-0.16547063
83	0xbd6f80ed	-0.058472563
84	0xbb9bdfb7	-0.0047568935
85	0xbe66e672	-0.22548845
86	0x3e3e4963	0.18582682
87	0xbe459886	-0.19296464
88	0x3e9f7739	0.31145647
89	0xbe3e1491	-0.18562533
90	0x3e8234e5	0.2543098
91	0xbea21b88	-0.3166163
92	0xbe99c07e	-0.30029672
93	0xbdefbfdd	-0.11706517
94	0xba1a67a1	-0.00058900757
95	0xbd5e190b	-0.0542231
96	0xbdc3ae06	-0.09554677
97	0xbe3c31fc	-0.18378443
98	0xbe0d642c	-0.13807744
99	0xbdbf07fa	-0.09327693
100	0x3e3e7671	0.1859987
101	0xbe2c3c3b	-0.16819851
102	0xbd82ffaa	-0.0639642
103	0xbd6751f8	-0.056474656

EncList1.0.conv.bias f4 [8]
0	0xbd8cd37a	-0.068762735
1	0x3c0ba8c2	0.008524122
2	0xbe2107d1	-0.15725638
3	0xbdeab701	-0.114606865
4	0x3c191880	0.00934422
5	0x3e325544	0.17415339
6	0x3edd6612	0.43241936
7	0x3d433e71	0.04766697

EncList1.1.conv.weight f4 [16, 8, 7]
0	0x3ddbeac1	0.10738135
1	0x3e29e2a1	0.16590358
2	0x3cae957b	0.021311512
3	0x3d1345a7	0.035955098
4	0x3dfccf33	0.123442076
5	0x3db7078e	0.08936988
6	0x3da7add5	0.08187453
7	0x3e341628	0.17586577
8	0x3e985829	0.2975476
9	0x3ea3f61c	0.32023704
10	0x3efbd6dd	0.49187365
11	0x3ec58c42	0.3858357
12	0x3e138064	0.14404446
13	0xbc4c0987	-0.012453443
14	0xbda273a4	-0.07932213
15	0x3d9a37e7	0.07530194
16	0xbc63fdf3	-0.013915527
17	0xbc7ab046	-0.015300816
18	0x3e0932d0	0.1339829
19	0x3bd1ebcf	0.0064062844
20	0xbddc149f	-0.10746121
21	0x3d9c2ab9	0.07625336
22	0x3e7182c9	0.23585047
23	0x3e8adb50	0.27120447
24	0x3ec6a35d	0.3879651
25	0x3e930eb4	0.28722155
26	0x3d7e6e0d	0.06211667
27	0xbd28a949	-0.041177068
28	0x3dd52596	0.104075596
29	0x3e85ed90	0.26157808
30	0x3e33a08b	0.17541711
31	0xbcca34e6	-0.024683427
32	0xbc6c2a56	-0.014414391
33	0xbeaa12e2	-0.3321753
34	0xbe987c4f	-0.2978234
35	0x3e18eacf	0.14933322
36	0x3e2dcb01	0.16971971
37	0x3d65ef3b	0.05613635
38	0x3be14cb3	0.0068755983
39	0xbe8f6552	-0.2800699
40	0xbe0c85b1	-0.13722874
41	0xbe4c35aa	-0.19942346
42	0x3d6d3b9a	0.05791817
43	0xbde1f958	-0.11033887
44	0xbd8323a3	-0.064032815
45	0xbd4f22cd	-0.050570298
46	0x3d8812e5	0.06644229
47	0xbd4f68cb	-0.050637048
48	0xbe13b1c7	-0.14423285
49	0x3d2524d3	0.04031832
50	0x3d07a524	0.033116475
51	0xbdac855d	-0.084238745
52	0x3d042d54	0.03226979
53	0x3dbff73c	0.09373328
54	0xbcd75d6c	-0.026289664
55	0x3cf6e36a	0.030137736
56	0xbd861c95	-0.0654842
57	0x3d174974	0.036935285
58	0x3d877668	0.06614381
59	0x3e5f692a	0.2181746
60	0x3e6c69ae	0.23087189
61	0xbd9d8231	-0.07690848
62	0xbd2c0d3b	-0.042004805
63	0xbdb8ba30	-0.090198874
64	0x3d2f2168	0.042756468
65	0x3d5849d5	0.052804787
66	0x3e95e8d4	0.29279196
67	0x3e8b0755	0.2715403
68	0x3d4baec7	0.049727228
69	0x3dc97c3b	0.09838148
70	0x3d0a36f3	0.03374381
71	0x3dc2f31a	0.09519024
72	0x3dff4842	0.12464954
73	0x3dc9decb	0.098569475
74	0x3d8f1e83	0.069882415
75	0xbd64207c	-0.055695042
76	0x3d07cd75	0.033154923
77	0x3f2a373e	0.6649054
78	0x3ec4819b	0.3838013
79	0xbd2f035b	-0.04272781
80	0xbe8ab901	-0.27094272
81	0xba7f0dbf	-0.00097295264
82	0x3e08d4f6	0.13362488
83	0x3e6eaa0e	0.23307058
84	0x3eab34a7	0.33438608
85	0x3ec63bc0	0.3871746
86	0x3e04da9f	0.12974022
87	0xbd878b92	-0.06618418
88	0xbdec8b8e	-0.115500554
89	0xbe79e0e9	-0.24402203
90	0xbeed1691	-0.4630628
91	0x3e158f5d	0.1460547
92	0xbb47f3b4	-0.0030510249
93	0x3e36e8e8	0.17862284
94	0x3ddcc3f1	0.1077956
95	0xbe11a75d	-0.14224
96	0xbe362a07	-0.1778947
97	0x3c317f88	0.0108336285
98	0xbd675428	-0.056476742
99	0xbe334f5d	-0.17510743
100	0x3dabbcc8	0.083856165
101	0x3d21dac1	0.03951526
102	0x3e0611c1	0.1309271
103	0xbd34f6d3	-0.044180702
104	0xbc9144e3	-0.017733043
105	0x3baa0c6e	0.00518947
106	0x3decd4aa	0.11564
107	0x3e05ea6e	0.13077709
108	0xbd204061	-0.039123897
109	0xbd71b4ff	-0.059010502
110	0x3d69725e	0.056993835
111	0x3e19efc2	0.15032867
112	0xbc31f5f5	-0.010861863
113	0x3cbcc2cb	0.023042103
114	0x3e6d82d9	0.23194446
115	0x3bc32d90	0.005956359
116	0xbdb95e74	-0.09051219
117	0xbe349507	-0.17634974
118	0xbe13b0d3	-0.14422922
119	0xbd88aa74	-0.06673136
120	0xbdff1852	-0.124558106
121	0x3ca71a63	0.020398324
122	0x3e006b88	0.1254102
123	0x3e16a087	0.14709674
124	0x3e5b22df	0.21400021
125	0x3e5dbc86	0.21653947
126	0xbe227efe	-0.15868756
127	0xbd402535	-0.046910483
128	0x3cac7109	0.021049993
129	0x3dfccc55	0.12343661
130	0x3dcedc33	0.101005934
131	0x3d6439ed	0.055719305
132	0xbd2510b8	-0.040299147
133	0x3e34755a	0.17622891
134	0x3ebdb77b	0.37054047
135	0x3e611d08	0.21983731
136	0x3e490cb7	0.19633757
137	0x3e58034e	0.2109501
138	0x3ed34997	0.41267082
139	0x3ebf36f0	0.373466
140	0x3dfe1ca4	0.124078065
141	0x3da9335f	0.082617514
142	0xbb70894b	-0.0036702927
143	0xbdbc1804	-0.09184268
144	0xbd2d0287	-0.04223874
145	0xbd912da3	-0.07088783
146	0xbe084c27	-0.133103
147	0x3dceedb2	0.101039305
148	0x3dbed6bd	0.09318302
149	0x3dc9f8fd	0.09861944
150	0x3ca9e909	0.020741003
151	0xbdf56509	-0.119821616
152	0xbe8d5fa7	-0.2761204
153	0xbe94bbf5	-0.2904965
154	0xbdeb7867	-0.11497574
155	0x3c19e442	0.0093928
156	0xbd2f13e2	-0.04274357
157	0x3e52de90	0.20592713
158	0xbac80d30	-0.0015262719
159	0x3e2e4f32	0.17022398
160	0xbcd5369c	-0.026027016
161	0x3dcdb8ee	0.10045038
162	0x3d8069a7	0.062701516
163	0xbc9c2f88	-0.019065633
164	0x3e026db6	0.12737164
165	0x3e374a3e	0.17899415
166	0x3d0d70bc	0.03453134
167	0xbde811e7	-0.113315396
168	0xbdd5c44a	-0.1043783
169	0x3d4181ea	0.047243036
170	0xbdc8458a	-0.097788885
171	0xbda87ca6	-0.082269
172	0xbdde816a	-0.108645275
173	0xbd849606	-0.06473927
174	0xbcf7525c	-0.03019064
175	0xbea51a5b	-0.3224667
176	0xbec43bb8	-0.38326812
177	0xbe90a79f	-0.28252885
178	0xbecb7549	-0.3973792
179	0xbece7e41	-0.403307
180	0xbe6a395f	-0.22873448
181	0xbe2968b9	-0.16543855
182	0xbd545def	-0.051847395
183	0x3cc541e7	0.024079276
184	0xbe17dd27	-0.14830457
185	0x3d284f14	0.04109104
186	0x3c227041	0.009914459
187	0xbe15aaea	-0.1461598
188	0xbe074c5b	-0.13212721
189	0x3dd8e3dc	0.10590336
190	0x3ddf38c2	0.108994976
191	0x3e3951c4	0.18097597
192	0x3da44945	0.080217876
193	0xbca23a09	-0.019803064
194	0xbda9f889	-0.082993574
195	0xbe0ee655	-0.13955052
196	0x3dca19e9	0.09868223
197	0xbdcfae6d	-0.10140691
198	0x3e1e32b1	0.15449025
199	0x3e5b113c	0.21393293
200	0x3e37ac32	0.17936781
201	0x39987c8c	0.00029084494
202	0x3e56ccb0	0.2097652
203	0x3ccbec24	0.024892874
204	0x3e2ee621	0.17079975
205	0x393114e1	0.00016887813
206	0x3ddf69b4	0.10908833
207	0x3e3f60fd	0.18689342
208	0x3e2b08d0	0.1670258
209	0x3e438d84	0.19096953
210	0x3d3bcffa	0.04585264
211	0x3d6427dd	0.05570208
212	0x3df97738	0.12180942
213	0x3ce11ff6	0.02748106
214	0x3e5b5077	0.21417414
215	0x3e1ea524	0.15492684
216	0x3b8516f1	0.0040615727
217	0x3e3ac308	0.18238461
218	0xbbcb9e35	-0.006213928
219	0xbce77759	-0.028255152
220	0xbd41016e	-0.047120504
221	0xbd8534e2	-0.06504227
222	0xbdc60775	-0.09669391
223	0x3cfc7583	0.030817753
224	0xbe298f57	-0.16558586
225	0xbeb090f1	-0.34485582
226	0xbe0ef4f9	-0.13960637
227	0xbdc18662	-0.094494596
228	0x3cd050b5	0.02542911
229	0x3ebd6ff9	0.3699949
230	0x3e5b0932	0.21390226
231	0x3e172f1e	0.14764068
232	0x3d832f0c	0.06405458
233	0xbd25785f	-0.040397998
234	0xbe391bba	-0.18076983
235	0x3ece226f	0.40260646
236	0x3f0ad27b	0.5422742
237	0x3eae8376	0.34084672
238	0x3e7d2bd6	0.24723753
239	0x3e7c8b36	0.2466248
240	0x3e3b2bbe	0.18278405
241	0x3df6200f	0.120178334
242	0xbcc7e902	-0.024403099
243	0xbdec51ea	-0.11539061
244	0x3c475902	0.012167217
245	0x3e988b93	0.29793987
246	0x3ee3928f	0.44447753
247	0x3f270f75	0.6525796
248	0x3e5c83c1	0.21534635
249	0xbe5573b0	-0.20844913
250	0xbeb3fef7	-0.3515546
251	0xbe50ab88	-0.20377934
252	0x3d4472be	0.04796099
253	0x3e9aabd8	0.3020923
254	0x3e7ff6e6	0.24996528
255	0x3e98332d	0.29726544

EncList1.1.conv.bias f4 [16]
0	0xbe924fde	-0.2857656
1	0xbdcab1d9	-0.09897203
2	0xbe3d18be	-0.1846647
3	0x3e32abb4	0.17448312
4	0x3aac793b	0.0013158688
5	0xbeb1a5f0	-0.34696913
6	0x3d8b965a	0.06815787
7	0x3e8fdee3	0.28099737
8	0xbdfd85cc	-0.12379035
9	0x3e6355a3	0.22200637
10	0xbeae57d8	-0.34051394
11	0xbe09be73	-0.13451557
12	0xbd2c358d	-0.042043258
13	0xbe04b000	-0.12957764
14	0xbe0a7a26	-0.13523158
15	0x3e11ab02	0.1422539

EncList1.2.conv.weight f4 [32, 16, 7]
0	0x3c97264a	0.018450875
1	0xbca488a4	-0.020084687
2	0xbd92901d	-0.07156394
3	0x3d86f37c	0.0658941
4	0xbd196339	-0.03744814
5	0x3d37bd39	0.04485819
6	0x3d39886d	0.04529612
7	0x3d070873	0.032967042
8	0xbdda6633	-0.10664024
9	0x3da502f2	0.080572024
10	0xbd2a0fba	-0.041518904
11	0x3d080e98	0.033217043
12	0xbd256d80	-0.04038763
13	0x3d255356	0.04036268
14	0x3d751324	0.059832707
15	0xbe03a6f2	-0.12856653
16	0xbd683984	-0.056695476
17	0x3d294687	0.041327026
18	0x3d03c96f	0.032174524
19	0x3d8a60af	0.06756722
20	0x3d15f5e7	0.036611464
21	0xbe1ff36e	-0.15620205
22	0xbdb9c076	-0.09069912
23	0x3cd59832	0.026073549
24	0xbe0f95d9	-0.14022006
25	0xbe51fa0a	-0.20505539
26	0xbe35ba1a	-0.17746773
27	0xbc43aa9f	-0.011942535
28	0x3daddcdf	0.084893934
29	0xbded4c70	-0.11586845
30	0xbe0ac7ad	-0.13552733
31	0xbe9f012d	-0.31055585
32	0x3c1d8ea5	0.009616529
33	0x3cebf8a3	0.028805083
34	0xbdfbd527	-0.12296515
35	0xbe360776	-0.17776284
36	0xbea86e66	-0.32896727
37	0xbf14c48d	-0.5811241
38	0xbd9a8c15	-0.0754625
39	0x3e21e439	0.15809716
40	0xbe32bbe0	-0.17454481
41	0xbdc47462	-0.09592511
42	0xbe010baa	-0.12602106
43	0x3c8f5cf1	0.017500373
44	0xbc1f344a	-0.0097170565
45	0x3c851c0b	0.016248723
46	0x3d80ecbc	0.062951535
47	0xbc9885f5	-0.018618563
48	0x3e3a5b7b	0.1819896
49	0x3da01f14	0.07818428
50	0x3d956e86	0.07296471
51	0x3cc85917	0.024456544
52	0x3d1327c6	0.035926603
53	0x3e0b8e27	0.13628446
54	0x3d3bb3c1	0.045825724
55	0x3e1803ab	0.14845149
56	0xbd3d291f	-0.046181794
57	0xbc0c17c4	-0.008550588
58	0x3cf5fcbe	0.030027743
59	0xbd84cdfe	-0.064846024
60	0xbcd27286	-0.025689375
61	0xbd86c3e3	-0.06580331
62	0x3e2f6f74	0.1713236
63	0x3ca68c99	0.020330714
64	0xbd55a925	-0.052163262
65	0xbd1f9d37	-0.03896829
66	0xbd862f95	-0.06552044
67	0xbc8c8d41	-0.017157199
68	0xbd9be876	-0.07612698
69	0xbea2583d	-0.31707945
70	0xbdabd08f	-0.08389389
71	0xbe6bc401	-0.23023988
72	0xbe8efbff	-0.27926633
73	0xbf1c32dc	-0.61015105
74	0xbe96bde3	-0.29441747
75	0xbeb9397c	-0.3617667
76	0xbd7dbf5f	-0.061950084
77	0xbd8d4611	-0.0689813
78	0xbd3c3df8	-0.045957536
79	0xbd9c626d	-0.07635961
80	0x3d8614ad	0.06546912
81	0x3d84260d	0.0645257
82	0x3c912cda	0.017721582
83	0x3e12584b	0.14291494
84	0x3cc40999	0.023930358
85	0xbdd31b09	-0.10307891
86	0xbd311692	-0.043234415
87	0x3d89893d	0.06715629
88	0x3d958694	0.07301059
89	0xbd93eaea	-0.07222541
90	0x3d67f6d2	0.05663187
91	0xbba6f074	-0.005094582
92	0x3d26e3c6	0.040744565
93	0x3c20c598	0.009812735
94	0xbd46dc3b	-0.048549872
95	0xbd099ddd	-0.033597816
96	0x3c6ca5c4	0.0144438185
97	0x3deaaf62	0.11459233
98	0x3cf523b4	0.029924251
99	0x3ccd293d	0.025044078
100	0xbd8cfad7	-0.068837814
101	0xbe3d4251	-0.18482329
102	0xbe4d6cc2	-0.20061019
103	0xbe07807c	-0.13232607
104	0xbcefb896	-0.029262822
105	0xbda74aa2	-0.08168532
106	0xbd0e581d	-0.034752
107	0x3d8bd8ef	0.06828486
108	0x3e00262d	0.12514563
109	0x3d9b73a5	0.07590417
110	0x3dff7000	0.12472534
111	0x3c73c643	0.014878812
112	0xbce861a0	-0.028366864
113	0x3cf1385e	0.029445823
114	0x3d73be9e	0.05950796
115	0xbda10526	-0.0786231
116	0x3e7256bd	0.236659
117	0x3e4dda16	0.20102724
118	0x3e6d4f67	0.23174821
119	0xbde70def	-0.112819545
120	0xbe06d8fb	-0.13168709
121	0xbd8396eb	-0.0642527
122	0xbe15c6ef	-0.14626668
123	0x3d693e47	0.056944158
124	0x3e13f3f8	0.14448535
125	0x3e36b90f	0.17844032
126	0x3dad1cfd	0.08452795
127	0x3e33ab6f	0.17545865
128	0x3d5f3802	0.054496773
129	0x3e0124b2	0.12611654
130	0x3d9ff1af	0.07809769
131	0x3d89f9cb	0.06737097
132	0x3d223119	0.039597604
133	0xbe303fce	-0.1721184
134	0xbd37430b	-0.04474167
135	0x3d3c23a0	0.045932412
136	0x3d3fa8f6	0.046791993
137	0x3c1993c9	0.009373614
138	0xbdfc1c28	-0.12310058
139	0xbe6b16d6	-0.2295793
140	0xbced4db7	-0.028967721
141	0x3a157f9f	0.0005702916
142	0xbd1e0e1d	-0.03858768
143	0xbcd9a464	-0.026567645
144	0x3e3ee5f9	0.18642415
145	0x3e03c612	0.12868527
146	0x3d5e89b6	0.05433055
147	0x3e005f22	0.1253629
148	0x3df4de89	0.11956508
149	0x3de5c33c	0.112188786
150	0x3e8472c7	0.25868818
151	0x3ea491e3	0.32142553
152	0x3e088c59	0.13334788
153	0x3c7e41c0	0.015518606
154	0xbdfb4e5f	-0.122708075
155	0xbac8174c	-0.0015265732
156	0xbdcbb45c	-0.0994651
157	0x3e1fa3b2	0.15589789
158	0x3e3c915e	0.18414828
159	0xbe2ff28b	-0.17182367
160	0xbea81f6f	-0.32836482
161	0xbdc1e518	-0.09467524
162	0xbe3c486d	-0.18387003
163	0xbeaa106b	-0.3321565
164	0xbe89a58f	-0.26884124
165	0xbe04ed18	-0.12981069
166	0xbdb398a6	-0.0876935
167	0x3b8c938c	0.00429005
168	0xbdbb48d8	-0.09144753
169	0xbb2c8e66	-0.0026329993
170	0x3e4326cf	0.19057773
171	0x3df8d687	0.12150293
172	0xbbe23588	-0.006903354
173	0xbe88357e	-0.2660331
174	0xbe46aa64	-0.19400936
175	0xbe07271a	-0.1319851
176	0xbe1a83ab	-0.1508929
177	0xbe349e95	-0.17638619
178	0xbd517656	-0.051138245
179	0xbd13c158	-0.03607306
180	0xbc13bb79	-0.009016865
181	0xbe3a570c	-0.18197268
182	0x3e32021b	0.17383616
183	0x3e257eee	0.16161701
184	0x3e2a5e70	0.16637588
185	0x3e898c69	0.26864937
186	0x3e7ca12c	0.24670857
187	0x3e8218ca	0.25409538
188	0x3ea8ec9f	0.32993028
189	0x3d00539d	0.03132974
190	0xbcdd1107	-0.026985658
191	0x3e0fc632	0.1404045
192	0x3e6d3a33	0.23166732
193	0x3db4624d	0.08807812
194	0xbc0ac232	-0.008469151
195	0xbd37869c	-0.044806108
196	0xbdfa3cd9	-0.12218637
197	0xbb3fe179	-0.002927868
198	0x3e388960	0.18021154
199	0x3dea151e	0.11429809
200	0xbcd6e521	-0.026232304
201	0xbeafbe5a	-0.34324914
202	0xbe753061	-0.23944236
203	0x3d1035ab	0.03520743
204	0x3dd27511	0.10276235
205	0x3c861944	0.01636947
206	0x3b332ec9	0.0027341119
207	0xbdbdb777	-0.09263509
208	0xbc8e932b	-0.01740416
209	0x3d85829e	0.06519054
210	0x3d6322a0	0.055452943
211	0x3dea252a	0.1143287
212	0x3d261b37	0.040553298
213	0x3dd558ca	0.10417326
214	0x3da631de	0.0811498
215	0x3e5e76ee	0.21725056
216	0x3e250eaf	0.16118883
217	0xbd895550	-0.06705725
218	0xbd6e90e6	-0.058243655
219	0xbd918353	-0.07105126
220	0xbcd4660f	-0.025927572
221	0xbe1f23b9	-0.15540971
222	0xbe7d8ee4	-0.2476154
223	0xbdf096be	-0.11747502
224	0xbc46bd7d	-0.012130138
225	0x3cf68a0d	0.030095125
226	0x3d6ac26c	0.05731432
227	0x3de1999f	0.11015629
228	0x3d8b4590	0.06800377
229	0xbb628299	-0.0034562706
230	0xbd456fb2	-0.048202224
231	0xbbe93c17	-0.007117759
232	0x3db9fba3	0.09081199
233	0x3d12e632	0.035864063
234	0x3d1a5aa0	0.037684083
235	0xbc53bc22	-0.012923272
236	0xbdd14522	-0.10218264
237	0x3b922eea	0.004461159
238	0x3ca4439b	0.020051768
239	0xbcbff188	-0.0234306
240	0xbd320a64	-0.04346694
241	0x3e385219	0.18000068
242	0x3e1a5630	0.1507194
243	0xbca7712b	-0.020439705
244	0xbc8297c7	-0.015941514
245	0xbce46fe0	-0.027885377
246	0x3ceebb07	0.029141916
247	0xbe14296c	-0.14468926
248	0xbe670856	-0.22561774
249	0xbd95d9dc	-0.07316944
250	0xbd9a4dcf	-0.07534372
251	0x3c08d598	0.008351706
252	0x3e206452	0.15663269
253	0x3e9e301a	0.30896074
254	0x3de49274	0.11160746
255	0xbe830faa	-0.25597888

EncList1.2.conv.bias f4 [32]
0	0x3def7fc1	0.11694289
1	0xbeae72cc	-0.34071958
2	0xbcdbe1bb	-0.026841035
3	0xbdcb1656	-0.099163696
4	0x3dd4441d	0.10364554
5	0xbdd0a7e2	-0.10188271
6	0xbdd09fdb	-0.1018674
7	0xbca87e72	-0.020568106
8	0x3eb21243	0.34779558
9	0xbe3c3444	-0.18379313
10	0xbed27be4	-0.41110146
11	0x3e3b381e	0.18283126
12	0xbe0a865f	-0.13527821
13	0x3e3a5da7	0.18199788
14	0xbe93fdf2	-0.28904682
15	0x3d92f9ab	0.07176527
16	0x3d940598	0.072276294
17	0x3c986642	0.018603448
18	0xbea28af8	-0.3174665
19	0x3d829089	0.06375224
20	0x3e08e2f7	0.1336783
21	0xbc265d35	-0.010154058
22	0x3d2a21f5	0.04153629
23	0xbdf56642	-0.11982395
24	0x3d9863a8	0.07440883
25	0x3e0e8a2b	0.13919894
26	0x3d824534	0.06360856
27	0x3e166308	0.14686215
28	0x3d2ad158	0.041703552
29	0xbbeb8237	-0.0071871537
30	0xbe1bc27b	-0.15210907
31	0xbb9c41a9	-0.0047685695

EncList1.3.conv.weight f4 [64, 32, 7]
0	0xbe207d91	-0.156729
1	0xbd096c3b	-0.033550482
2	0xbe111d5a	-0.14171353
3	0xbd3a61ef	-0.045503553
4	0x3d5cc2a9	0.05389658
5	0x3dc41dc5	0.095759906
6	0x3e3c0ac2	0.18363479
7	0xbeb3e23e	-0.35133547
8	0xbd4bf15e	-0.049790733
9	0x3cf664ff	0.030077456
10	0xbd965c04	-0.07341769
11	0x3c98f50a	0.018671531
12	0x3d6f5325	0.058428902
13	0x3e8a2b50	0.2698617
14	0x3c90ab53	0.017659819
15	0xbd34f69a	-0.04418049
16	0xbdd40753	-0.103529595
17	0x3de14688	0.10999781
18	0x3e13f095	0.14447244
19	0x3df76a90	0.12080872
20	0x3e6336f9	0.22188939
21	0x3dd081d9	0.101810165
22	0x3db70d0f	0.089380376
23	0xbe169ae3	-0.14707522
24	0xbd9596f6	-0.07304184
25	0x3d5a0cc1	0.05323482
26	0x3d287e90	0.041136324
27	0x3d604e04	0.0547619
28	0xbd53cf45	-0.05171134
29	0xbd23517f	-0.039872643
30	0xbdfd8b09	-0.123800345
31	0xbd75c05d	-0.059997905
32	0xbc1bd5d2	-0.009511428
33	0x3dd33be4	0.103141576
34	0x3e03fdaf	0.12889741
35	0xbe7a4b8c	-0.24442881
36	0xbda709aa	-0.0815614
37	0xbd9ee4c8	-0.0775848
38	0xbe126eae	-0.14300033
39	0xbcc48b95	-0.02399234
40	0xbd316bc0	-0.04331565
41	0x3d820bf1	0.06349934
42	0xbd901f92	-0.070372716
43	0xbe9241b0	-0.2856574
44	0xbd3a609b	-0.045502286
45	0x3d666162	0.056245215
46	0xbb4b9405	-0.0031063568
47	0x3dc21838	0.094772756
48	0x3e1cf5ed	0.15328188
49	0xbe4c2b5f	-0.1993842
50	0xbe22dcad	-0.15904494
51	0xbdd2e396	-0.10297315
52	0xbe15f031	-0.14642407
53	0xbf121c8a	-0.570748
54	0xbea27b1f	-0.3173456
55	0xbe20f9f0	-0.15720344
56	0xbe2d114a	-0.16901127
57	0xbd63548d	-0.055500556
58	0xbceafd2d	-0.028685177
59	0xbd39de6e	-0.04537814
60	0x3cbb4500	0.02286005
61	0x3da5918d	0.08084402
62	0x3e2f93b6	0.17146191
63	0xbe081cdc	-0.13292259
64	0xbd8840cf	-0.06652986
65	0xbda4954a	-0.08036287
66	0xbd994142	-0.0748315
67	0x3cfcd9f3	0.030865645
68	0x3a398087	0.0007076342
69	0xbd6676d6	-0.056265675
70	0xbe185ab1	-0.14878346
71	0xb9b9a862	-0.00035411405
72	0x3d4d9458	0.0501903
73	0xbdbb87ab	-0.09156736
74	0xbddf2066	-0.108948514
75	0x3d59e62c	0.053198025
76	0x3d9535a2	0.0728562
77	0xbe29b004	-0.16571051
78	0x3c8eb448	0.01741995
79	0xbdf5a754	-0.11994806
80	0xbd0bc170	-0.034120023
81	0x3d957941	0.07298518
82	0x3d30427a	0.043032147
83	0x3e1348f2	0.14383295
84	0xbdedfa09	-0.11619956
85	0xbb5583b6	-0.0032579727
86	0x3d309720	0.043112874
87	0xbb9c4fc3	-0.0047702505
88	0x3ce59fe5	0.028030345
89	0xbd7f4e4a	-0.06233052
90	0x3c60ba43	0.013716283
91	0xbe34b192	-0.17645863
92	0xbe2c2f54	-0.16814929
93	0xbd57fc98	-0.052731127
94	0xbd162b87	-0.036662605
95	0x3d8ae5a4	0.06782082
96	0x3d1d7726	0.038443707
97	0xbd938b9b	-0.07204362
98	0xbf017be2	-0.50579655
99	0xbecc9776	-0.39959306
100	0xbe83f60a	-0.2577365
101	0xbe3f8754	-0.18703967
102	0xbe656b9a	-0.22404328
103	0xbd8bd730	-0.06828153
104	0x3da81155	0.08206431
105	0xbe2e4605	-0.17018898
106	0xbd97d5f7	-0.074138574
107	0xbdc23c5a	-0.094841674
108	0xbd8f134a	-0.06986101
109	0x3d927488	0.07151133
110	0x3dd33df2	0.103145495
111	0x3e0cdd99	0.13756408
112	0xbe05743c	-0.13032621
113	0x3d49f6d6	0.049307667
114	0xbd222fcc	-0.039596364
115	0xba2a3c28	-0.00064939493
116	0x3c426c33	0.011866617
117	0x3d59b6f7	0.053153004
118	0x3df1ad6a	0.11800654
119	0xbdd5cb63	-0.104391836
120	0xbd771331	-0.060321037
121	0x3c4e3c03	0.01258755
122	0xbd4a851c	-0.04944335
123	0xbdc4eeea	-0.09615882
124	0xbc99a546	-0.018755566
125	0x3d83e91e	0.06440948
126	0xbe3e9ac4	-0.18613726
127	0xbe6996d5	-0.22811444
128	0xbe629571	-0.2212732
129	0xbe4e5a39	-0.20151605
130	0xbcdd3e00	-0.027007103
131	0x3db6dac7	0.08928447
132	0x3e4bbf20	0.19897127
133	0x3c1dcf38	0.009631924
134	0x3d85312a	0.06503518
135	0xbe0a3cd0	-0.1349976
136	0xbdb71280	-0.089390755
137	0x3d728c53	0.059215855
138	0x3d823c20	0.06359124
139	0x3dbe979d	0.09306262
140	0x3b86e2a1	0.0041163717
141	0x3d814d6c	0.06313595
142	0x3e09fead	0.13476057
143	0x3d12e587	0.035863426
144	0x3df05bdc	0.11736271
145	0xbc22dc04	-0.009940151
146	0xbd3c43e9	-0.0459632
147	0xbe46726c	-0.19379586
148	0x3d6bafe9	0.057540808
149	0xbbaaea8c	-0.0052159484
150	0x3b08f80b	0.0020899798
151	0xbc8be166	-0.017075252
152	0x3daa6589	0.083201475
153	0x3d0d26ad	0.034460712
154	0xbdb6600b	-0.089050375
155	0x3d8cab80	0.068686485
156	0x3e54d62c	0.20784825
157	0xbdaa3509	-0.08310897
158	0xbdd7ef84	-0.10543731
159	0xbceb0053	-0.028686678
160	0x3deb3bfc	0.114860505
161	0xbdf652b2	-0.12027492
162	0x3d3e833a	0.046511866
163	0xbbea49a2	-0.007149891
164	0xbddb1eb8	-0.106992185
165	0xbb284e8f	-0.002568159
166	0xbae2fa91	-0.0017317106
167	0xbd0fb3fb	-0.035083752
168	0xbe1b94bf	-0.15193461
169	0x3d651dc2	0.055936582
170	0x3d15c394	0.03656347
171	0x3bbeb53b	0.005819944
172	0x3cf13eee	0.029448953
173	0x3df91772	0.12162675
174	0x3e4a1a5e	0.19736621
175	0xbdb56dcc	-0.08858833
176	0x3c8fbb1a	0.017545272
177	0xbd414ab6	-0.04719039
178	0xbb30c374	-0.0026971968
179	0xbba74973	-0.0051051914
180	0x3b030b10	0.0019995607
181	0x3d1be3c5	0.038059015
182	0xbd2bc854	-0.041939095
183	0xbe2cf210	-0.16889215
184	0xbe1afcd2	-0.15135506
185	0x3d8df990	0.06932366
186	0x3e04dcfa	0.12974921
187	0x3e051c42	0.12999061
188	0x3e3a55f7	0.18196855
189	0xbe85e18a	-0.26148635
190	0x3d289af9	0.04116342
191	0xbc73a6b3	-0.014871287
192	0xbd289793	-0.041160177
193	0xbd7575ca	-0.059926786
194	0xbc9cfca3	-0.019163435
195	0x3db56046	0.08856253
196	0xbd9d5675	-0.07682506
197	0x3d38e62e	0.04514139
198	0xbd1304f1	-0.035893384
199	0xbe23d452	-0.15998963
200	0xbe2042d0	-0.15650487
201	0xbdf2de51	-0.1185881
202	0x3e0c12ec	0.13679093
203	0xbe3c0dee	-0.18364689
204	0xbb711ab3	-0.0036789596
205	0xbd7003f2	-0.058597513
206	0xbd8f770d	-0.07005129
207	0xbc3997d7	-0.011327705
208	0xbc0410a9	-0.008060613
209	0x3dc5f8b0	0.09666574
210	0xbd3d633f	-0.046237227
211	0x3d19f0a9	0.037583027
212	0xbe0a987e	-0.13534734
213	0xbec5f795	-0.38665453
214	0xbe4c2a78	-0.19938076
215	0xbe043320	-0.12910128
216	0x3e064d7e	0.13115498
217	0x3db8bf57	0.0902087
218	0xbd117d33	-0.03551979
219	0xbe5b17ad	-0.2139575
220	0xbc1cb7a5	-0.009565269
221	0x3e2a90f1	0.16656853
222	0x3e4760ff	0.19470595
223	0x3e59d591	0.21272875
224	0xbcdd5a5f	-0.027020631
225	0xbd836781	-0.06416226
226	0x3d83e5ba	0.06440301
227	0x3c9588e6	0.018253755
228	0x3cd36097	0.025802894
229	0xbcc9e4f3	-0.024645304
230	0xbc33b587	-0.010968572
231	0xbdc1a0b6	-0.09454481
232	0x3cc8d5b0	0.024515957
233	0xbe11dc64	-0.14244229
234	0xbe1355b2	-0.14388159
235	0xbe3948a1	-0.18094112
236	0xbe70bb39	-0.2350892
237	0xbb830026	-0.0039978204
238	0x3c2cbd13	0.010543126
239	0x3d7b4fdd	0.06135546
240	0x3d56a9f7	0.052408185
241	0xbd280d4d	-0.04102831
242	0x3bceb739	0.006308463
243	0x3db35483	0.08756354
244	0x3caf4bec	0.021398507
245	0xbd73be19	-0.059507463
246	0xbd64cbcc	-0.05585842
247	0x3d983a19	0.07432956
248	0x3c224e85	0.009906416
249	0x3ceb9b19	0.02876048
250	0xbc8bc29e	-0.017060574
251	0x3d43480b	0.047676127
252	0xbc32c3af	-0.010910912
253	0x3c147173	0.0090602515
254	0xbc84fc0d	-0.016233468
255	0x3d107aee	0.035273485

EncList1.3.conv.bias f4 [64]
0	0x3e46a4f1	0.19398858
1	0x3dd4d47f	0.10392093
2	0x3dba09cd	0.090839006
3	0xbee796c9	-0.45232227
4	0xbe2fd78d	-0.1717207
5	0xbe532b1e	-0.20621917
6	0x3e15ca68	0.14627993
7	0x3e69ee98	0.22844923
8	0xbea1c52c	-0.31595743
9	0x3df4f606	0.11960988
10	0xbdaae6b1	-0.08344782
11	0x3dae7215	0.08517853
12	0x3e3b4f51	0.18291976
13	0xbe8a7ed2	-0.2704988
14	0xbdddea1d	-0.10835669
15	0xbdce6771	-0.10078324
16	0xbe28b05c	-0.16473526
17	0xbd9e658b	-0.077342115
18	0xbc1cef1e	-0.009578494
19	0x3eb9f40f	0.36319014
20	0xbd6b023d	-0.05737518
21	0xbd283cfa	-0.041073777
22	0xbe754852	-0.2395337
23	0x3e75c648	0.2400142
24	0xbd97eb03	-0.07417872
25	0x3ec0696b	0.37580428
26	0xbdec275e	-0.11530946
27	0xbd76587b	-0.060142975
28	0x3dba64ae	0.091012344
29	0xbe4694fc	-0.1939277
30	0xbc31cecc	-0.010852527
31	0xbe2447fa	-0.16043082
32	0x3c9aaaa5	0.018880198
33	0x3f0401e2	0.5156537
34	0x3e6605d0	0.22463155
35	0x3e052861	0.13003685
36	0x3ea996f7	0.3312299
37	0x3c8c0ac2	0.017094973
38	0xbd267bca	-0.0406454
39	0x3dca686d	0.09883199
40	0xbd0b0298	-0.03393802
41	0xbe4c4901	-0.19949724
42	0x3eb5068d	0.3535656
43	0x3e07d79f	0.13265847
44	0x3e2efa28	0.17087615
45	0xbdd3abb4	-0.10335484
46	0x3e3efa1c	0.18650097
47	0x3e068dc6	0.1314002
48	0x3cc20785	0.023685226
49	0xbb6f8a21	-0.0036550837
50	0x3d95b8b5	0.07310621
51	0xbbe094ab	-0.00685366
52	0xbd26118f	-0.04054409
53	0xbd8bd239	-0.06827206
54	0x3dfcb893	0.12339892
55	0xbd77348a	-0.06035284
56	0xbd8bdedf	-0.06829619
57	0xbb00ef2a	-0.0019673803
58	0xbdd185dc	-0.1023061
59	0xbdcafc6a	-0.099114254
60	0xbe6818fd	-0.22665782
61	0x3db8b31b	0.09018537
62	0x3d13f28e	0.03611999
63	0xbb47b6bf	-0.0030473915

EncList2.0.conv.weight f4 [8, 1, 13]
0	0x3e260f91	0.16216876
1	0xbe399f27	-0.18127118
2	0xbe9fd156	-0.31214398
3	0xbea567ee	-0.32305855
4	0xbc5d7e51	-0.013518886
5	0xbe3d8acf	-0.18509983
6	0xbccad937	-0.02476178
7	0x3e882ba2	0.2659579
8	0x3dbbd730	0.09171903
9	0x3e0501ca	0.12988964
10	0x3e0010b0	0.12506366
11	0x3d512f5d	0.05107056
12	0x3e0c2f83	0.1369
13	0xbe083e25	-0.13304956
14	0xbe972bd2	-0.2952562
15	0xbe8af004	-0.27136242
16	0xbe53d0cc	-0.20685118
17	0xbe3d9099	-0.18512191
18	0xbe031ce6	-0.12803993
19	0xbe0889d3	-0.13333826
20	0x3e88f716	0.26751012
21	0xbe07a2cc	-0.13245696
22	0x3e5aaea2	0.2135568
23	0xbc1d646a	-0.00960646
24	0x3ddb3c22	0.10704829
25	0x3f02b1c3	0.5105249
26	0x3e6a77f4	0.22897321
27	0xbd291850	-0.04128295
28	0x3dc3cd26	0.09560613
29	0xbd8cdcd3	-0.068780564
30	0x3ca85142	0.02054656
31	0xbe706d75	-0.23479255
32	0xbc4a542a	-0.012349168
33	0x3e878377	0.26467487
34	0xbe22f993	-0.15915518
35	0x3de3f9b1	0.11131609
36	0x3e8499fe	0.25898737
37	0xbe95436b	-0.29152998
38	0xbdd5964e	-0.10429059
39	0x3e08ac5e	0.13347003
40	0x3cd7106f	0.026252953
41	0x3de43843	0.111435436
42	0x3e8da9fc	0.2766875
43	0xbd3f9785	-0.04677536
44	0xbce28504	-0.027651317
45	0x3e9bdf19	0.30443648
46	0xbdf42be1	-0.11922432
47	0xbddcb7dc	-0.10777256
48	0x3e5dfb78	0.21677959
49	0xbd5a1726	-0.053244732
50	0x3db1500c	0.08657846
51	0x3d4d8f70	0.05018562
52	0xbd716a48	-0.05893925
53	0x3e26f214	0.16303283
54	0x3e103341	0.14082052
55	0x3bbf6f14	0.005842099
56	0x3d53a984	0.051675335
57	0x3e6d5e17	0.23180424
58	0x3d2a3dbc	0.04156278
59	0x3c7b1903	0.0153257875
60	0x3de0bbd3	0.109733246
61	0xbdd77dc8	-0.10522038
62	0x3e2a3ac6	0.16623983
63	0x3de006a2	0.10938765
64	0xbe7dcb17	-0.24784504
65	0xbe6b2603	-0.22963719
66	0xbe49217f	-0.19641684
67	0x3da2f001	0.07955933
68	0xbe36ad7a	-0.17839614
69	0xbed2ecfc	-0.4119643
70	0x3daef071	0.08541954
71	0xbea26037	-0.3171403
72	0xbead61b1	-0.33863595
73	0xbed73eae	-0.42040008
74	0xbcf7d626	-0.030253481
75	0xbe5d3235	-0.21601184
76	0xbe62f2b8	-0.22162902
77	0xbbb6c091	-0.005577155
78	0x3cca5a9a	0.024701405
79	0xbdabeff2	-0.08395375
80	0x3d895aaa	0.06706746
81	0xbe254388	-0.16139042
82	0x3d573a9a	0.05254612
83	0x3eab7c92	0.33493477
84	0x3e92fa86	0.2870676
85	0x3eb0b80e	0.34515423
86	0x3e804bd0	0.2505784
87	0x3e279c47	0.16368209
88	0x3e42d41a	0.19026223
89	0xbe1bbc06	-0.15208444
90	0xbc25684e	-0.010095669
91	0x3c186d3e	0.009303389
92	0xbed3e0a7	-0.41382334
93	0xbeb23257	-0.3480403
94	0xbda6bafd	-0.08141134
95	0xbdefe7ad	-0.117141105
96	0xbecf8749	-0.40532902
97	0xbe807d20	-0.25095463
98	0xbe645a1e	-0.22300002
99	0xbcaa028e	-0.020753171
100	0xbe91ee02	-0.28501898
101	0x3e26a028	0.16272032
102	0x3e43c195	0.19116814
103	0xbea3710e	-0.3192219

EncList2.0.conv.bias f4 [8]
0	0xbc9c9d5d	-0.019118005
1	0xbe92fd42	-0.28708845
2	0x3dfb8f5d	0.12283204
3	0xbdd56577	-0.104197435
4	0xbc5b399b	-0.013380433
5	0xbd579845	-0.05263545
6	0xbc449e2b	-0.012000601
7	0xbe0075fc	-0.12545007

EncList2.1.conv.weight f4 [16, 8, 7]
0	0xbe363ad2	-0.17795876
1	0xbe7d31dd	-0.24726053
2	0xbe49af98	-0.1969589
3	0xbe1debf5	-0.15422042
4	0x3c5ae38d	0.013359916
5	0x3c226951	0.009912805
6	0xbd33b6d9	-0.04387555
7	0x3c72ef17	0.014827511
8	0xbe8f16bb	-0.2794703
9	0xbe88c627	-0.26713678
10	0xbd8b561c	-0.068035334
11	0xbe0f8efe	-0.14019391
12	0xbd2624bd	-0.04056238
13	0xbc26bc1e	-0.010176687
14	0xbd383efb	-0.044981938
15	0xbe1a33bb	-0.15058796
16	0x3da215eb	0.07914337
17	0xbe1ca165	-0.15295942
18	0xbdb4431d	-0.08801863
19	0x3c728657	0.014802537
20	0xbda3f97e	-0.08006571
21	0xbbcefe04	-0.006316902
22	0x3d98de5b	0.07464286
23	0x3e14c6ab	0.14528911
24	0x3e2207b1	0.15823247
25	0xbcea0cd1	-0.028570564
26	0x3d96737b	0.07346245
27	0x3d74fd10	0.05981165
28	0x3daf7e44	0.08569005
29	0xbcb58afd	-0.022161001
30	0x3da1965c	0.07890007
31	0x3d46a964	0.048501387
32	0x3e12c246	0.14331922
33	0x3e31285d	0.17300554
34	0x3e33385c	0.17501968
35	0xbc4fd267	-0.012684441
36	0x3d0ef917	0.03490552
37	0xbd8faded	-0.070155956
38	0x3d1f0736	0.038825236
39	0xbd35ad31	-0.04435462
40	0x3db436a9	0.08799488
41	0x3e339d26	0.17540416
42	0x3b864705	0.0040978217
43	0x3e38b2a5	0.18036897
44	0x3e26d302	0.1629143
45	0x3dd614a7	0.10453158
46	0x3dee7ed3	0.116452836
47	0x3df45b0b	0.119314276
48	0x3e297404	0.16548163
49	0x3e206899	0.15664901
50	0x3d97a62c	0.07404742
51	0xbb1fc43e	-0.0024378444
52	0xbd10c99b	-0.035348516
53	0xbd7703b0	-0.06030625
54	0x3bcc6b84	0.006238403
55	0x3e0fbf34	0.14037782
56	0xbc1fb164	-0.009746883
57	0x3e1cbd8d	0.15306683
58	0x3c754524	0.014970098
59	0xbe401cb6	-0.18760952
60	0x3e112338	0.14173591
61	0x3ddf957b	0.10917183
62	0x3da64a2c	0.08119616
63	0x3f101b06	0.56291234
64	0x3eaee6f1	0.3416057
65	0xbc765f81	-0.015037418
66	0xbd6545c5	-0.05597474
67	0xbdea4f88	-0.11440951
68	0x3e578aab	0.21048991
69	0x3ed76633	0.4207016
70	0x3d4f0e6a	0.050550856
71	0x3d4e8a31	0.05042476
72	0xbcaf8017	-0.021423383
73	0xbc035b85	-0.008017425
74	0xbd9514e7	-0.072793774
75	0xbe21a04c	-0.15783805
76	0xbe299797	-0.16561733
77	0x3e0b9e4f	0.13634609
78	0xbd6cbe0b	-0.057798427
79	0x3dfb69a6	0.1227601
80	0x3d9a83ad	0.075446464
81	0x3e1cf719	0.15328635
82	0x3c25aa20	0.010111362
83	0x3d2bf459	0.041981075
84	0x3e0bf282	0.13666728
85	0x3dff0164	0.12451437
86	0xbd2deaf2	-0.04246039
87	0x3df991c8	0.12186009
88	0x3d8ed0e2	0.06973435
89	0xbd4b3792	-0.049613543
90	0xbe1ee95e	-0.1551871
91	0xbe345ba2	-0.1761308
92	0xbf310998	-0.69155264
93	0xbf07a501	-0.5298615
94	0xbe7490d5	-0.23883374
95	0x3e04956e	0.12947628
96	0x3f089e11	0.5336619
97	0x3f200889	0.62513024
98	0x3e07fd18	0.13280141
99	0xbd58596f	-0.052819666
100	0x3d995c2a	0.07488282
101	0xbc6c07d9	-0.014406168
102	0x3d5ddd5d	0.054166187
103	0x3d050003	0.032470714
104	0xbdf87fc9	-0.12133748
105	0x3d99505b	0.0748603
106	0xbef0b4ed	-0.47013035
107	0xbeb32071	-0.34985688
108	0xbead0941	-0.33796123
109	0x3b885ce2	0.004161463
110	0x3e652ccd	0.22380371
111	0x3f06bde3	0.52633494
112	0x3deeabc5	0.11653856
113	0xbe11070a	-0.14162841
114	0x3daf87bf	0.085708134
115	0x3e7b354f	0.24532054
116	0x3ea79e16	0.32737797
117	0x3e9de11e	0.30835813
118	0x3e2b4c0a	0.16728225
119	0xbcfa6996	-0.030567925
120	0xbd4d5e94	-0.050139025
121	0xbcc848e0	-0.024448812
122	0x3e68afd7	0.22723328
123	0x3e8c80fc	0.27442157
124	0x3d82b082	0.063813224
125	0x3e68a35c	0.22718567
126	0xbe2977d3	-0.16549616
127	0xbd0387b7	-0.03211185
128	0x3e82badd	0.2553319
129	0x3e772f65	0.24139173
130	0xbc779577	-0.015111319
131	0x3d7fe443	0.062473547
132	0x3cfbdf33	0.030746078
133	0x3c109355	0.008824189
134	0x3e27e3c6	0.16395482
135	0x3e0b5712	0.13607433
136	0x3c2c44ab	0.010514419
137	0xbe1b47c6	-0.15164098
138	0x3c1fe1a6	0.009758389
139	0x3e07d11d	0.13263364
140	0x3b6f20da	0.0036488087
141	0x3da99fea	0.08282454
142	0xbd975448	-0.07389122
143	0xbdf00988	-0.11720568
144	0xbd171806	-0.036888145
145	0x3db21f4c	0.08697376
146	0xbd78598c	-0.060632274
147	0x3d267129	0.04063526
148	0x3e3a4484	0.18190199
149	0x3e8dd5a0	0.27702045
150	0x3ea60bfb	0.32431015
151	0x3dcaa39f	0.098944895
152	0x3cb6d2c5	0.0223173
153	0x3e05ce51	0.13066985
154	0x3dfca0d1	0.12335361
155	0xbe73a126	-0.23791942
156	0xbe12b1e6	-0.14325675
157	0xbd15e926	-0.0365993
158	0x3e109a5b	0.14121382
159	0x3c49e6b7	0.012323073
160	0xbcdc2327	-0.02687223
161	0xbcc9c910	-0.024632007
162	0x3d2b72cb	0.041857522
163	0x3e2c4d11	0.16826274
164	0x3e9a9789	0.30193737
165	0x3e75157e	0.2393398
166	0x3d8ff4a6	0.07029085
167	0x3d8fe6a5	0.07026414
168	0x3ebcf453	0.36905155
169	0x3dad59cc	0.08464393
170	0xbcf6cecc	-0.030127905
171	0xbe062d2e	-0.13103172
172	0x3c8f8d24	0.017523356
173	0x3e04187c	0.12899965
174	0x3c4c8880	0.012483716
175	0x3e1e890e	0.1548197
176	0x3d11b18d	0.035569716
177	0xbd1f7a18	-0.038934797
178	0xbc011a67	-0.00787983
179	0xbde2ca3c	-0.110737294
180	0x3b4bbcfc	0.0031087985
181	0x3d98746e	0.07444082
182	0x3dad6176	0.08465855
183	0xbd892087	-0.06695657
184	0xbcc77427	-0.024347378
185	0xbdcf88dd	-0.101335265
186	0x3cd93182	0.026512865
187	0x3e581982	0.2110348
188	0x3d757059	0.059921596
189	0x3c19aafd	0.009379146
190	0xbd471cd5	-0.04861148
191	0x3c21d066	0.009876346
192	0x3dbc5f23	0.091978334
193	0x3cdaa8d1	0.026691826
194	0x3da5cb15	0.080953754
195	0xbe4467aa	-0.1918017
196	0x3df8e7c6	0.12153582
197	0x3cd6989a	0.026195813
198	0x3cb45fb2	0.022018287
199	0xbd99ed5f	-0.07515978
200	0xbd7f51ca	-0.06233386
201	0xbd67f105	-0.05662634
202	0xbe2dbcf1	-0.16966607
203	0x3df9405f	0.12170481
204	0x3d9c4b9f	0.07631611
205	0xbcefa12e	-0.029251661
206	0x3dfcd877	0.12345975
207	0x3e023bb1	0.12718083
208	0x3da38dc0	0.07986021
209	0x3e40fd6c	0.18846673
210	0x3e1bad56	0.15202841
211	0x3e3d7cd1	0.18504645
212	0x3e473612	0.1945422
213	0xbe31fe8f	-0.17382263
214	0xbe71653b	-0.23573773
215	0xbe5d2071	-0.21594407
216	0xbd7d7657	-0.061880436
217	0x3b9e8952	0.004838147
218	0x3c5ce69b	0.013482715
219	0xbce6b311	-0.028161557
220	0xbd84c86e	-0.064835414
221	0x3c9291a3	0.01789171
222	0x3e580792	0.21096638
223	0x3e2bbbe4	0.16770893
224	0xbc484cf2	-0.012225376
225	0xbe04cb13	-0.12968092
226	0xbe0204bb	-0.12697117
227	0x3dc8f226	0.09811811
228	0x3e2c58a2	0.16830686
229	0xbda5c866	-0.080948636
230	0xbd7bf938	-0.06151697
231	0x3ef83a6a	0.48482066
232	0xbcb2d088	-0.021827951
233	0xbe7f48ed	-0.24930163
234	0xbe3b03f4	-0.18263227
235	0x3eb7b8e0	0.35883236
236	0x3ea1f956	0.3163554
237	0x3e7adcbd	0.24498267
238	0x3d89b942	0.06724788
239	0xbe00667f	-0.12539099
240	0xbe5db1b8	-0.21649826
241	0xbc926b16	-0.017873328
242	0x3e6c510c	0.23077792
243	0xbd26691c	-0.040627584
244	0xbe6741c2	-0.22583678
245	0x3e89333d	0.26796904
246	0x3df93dc9	0.12169988
247	0x3d554ad6	0.052073322
248	0x3e0018af	0.12509416
249	0x3df7cb48	0.1209932
250	0xbd913e4a	-0.07091959
251	0x3d12ccf0	0.035839975
252	0x3eacdf94	0.33764327
253	0x3eadba93	0.33931407
254	0x3e5ec53e	0.2175493
255	0xbd44f9d4	-0.048089817

EncList2.1.conv.bias f4 [16]
0	0xbc85cdf0	-0.01633355
1	0xbea89417	-0.32925484
2	0x3d0a7f38	0.03381273
3	0xbea93e58	-0.33055377
4	0xbe33a686	-0.17543992
5	0x3e848cfc	0.25888813
6	0xbe233cdd	-0.15941186
7	0x3e45f2fe	0.19330975
8	0x3e681c38	0.22667015
9	0x3e832fbe	0.25622362
10	0xbe05dd00	-0.13072586
11	0x3a1b17b4	0.0005916313
12	0xbe7f7784	-0.24947935
13	0xbd913d3a	-0.07091756
14	0xbec53592	-0.38517433
15	0xbe8f222b	-0.27955756

EncList2.2.conv.weight f4 [32, 16, 7]
0	0x3d616c6f	0.05503505
1	0xbd6d5da1	-0.05795062
2	0xbd0f9eff	-0.03506374
3	0xbd40f52f	-0.047108825
4	0x3d9b7e2d	0.075924255
5	0x3d051a02	0.032495506
6	0x3d927e06	0.07152943
7	0xbe8c7136	-0.27430123
8	0xbbc840d6	-0.0061112447
9	0x3d371615	0.044698793
10	0xbceee1ca	-0.029160399
11	0xbe539106	-0.20660791
12	0xbd727cae	-0.059200935
13	0x3e1747d3	0.14773493
14	0x3d59981d	0.053123582
15	0xbc3ae5ba	-0.01140731
16	0x3e120749	0.14260592
17	0x3dabd592	0.08390345
18	0x3d914a73	0.07094278
19	0x3ccc8cf0	0.024969548
20	0x3cc7c02f	0.024383632
21	0xbe7d0c3b	-0.24711697
22	0xbe1a0c52	-0.15043762
23	0xbd891ea5	-0.06695298
24	0xbd9eb3c8	-0.07749134
25	0xbe0a03b3	-0.13477974
26	0xbe010dcc	-0.1260292
27	0xbd5de764	-0.05417575
28	0xbdf8107c	-0.12112519
29	0xbd267da8	-0.04064718
30	0x3dacfa4f	0.0844618
31	0x3dbbee1c	0.09176275
32	0xbd72c912	-0.059273787
33	0xbe0beca1	-0.13664486
34	0xbd65f64b	-0.056143086
35	0x3da4b6a2	0.08042647
36	0x3cdad75a	0.026714016
37	0x3d2429f0	0.040079057
38	0x3e41655f	0.18886326
39	0x3df2bee8	0.11852819
40	0x3d11b340	0.035571337
41	0x3dd4e42d	0.103950836
42	0x3d049eb3	0.03237791
43	0x3e291ddc	0.16515297
44	0x3db72882	0.08943273
45	0xbd9a099a	-0.075213626
46	0xbd8cac7a	-0.06868835
47	0xbd0bcbff	-0.034130093
48	0xbe599900	-0.21249771
49	0xbcd68f1c	-0.026191287
50	0x3dcc456b	0.09974178
51	0x3e1e9275	0.15485556
52	0x3c9e9ac2	0.019360904
53	0xbd100627	-0.035162117
54	0x3daf07ce	0.085464105
55	0x3d8bffb3	0.0683588
56	0xbcd90c57	-0.026495142
57	0x3c3446f5	0.011003246
58	0x3ace86af	0.0015756692
59	0x3e412196	0.18860468
60	0x3e13a0af	0.14416765
61	0x3b00b03f	0.00196363
62	0x3c6382b1	0.01388614
63	0xbc43dfcc	-0.011955213
64	0x3d706d3f	0.058697935
65	0x3c9a4052	0.018829498
66	0x3e2a7974	0.16647893
67	0x3e32e462	0.17469934
68	0x3d4ff6e6	0.05077257
69	0xbd47e358	-0.048800796
70	0xbd1b1eb0	-0.037871063
71	0xbe17c07f	-0.14819525
72	0x3d4f3e4d	0.050596524
73	0x3e09c29c	0.13453144
74	0x3dbfa3b1	0.093573935
75	0x3c4229e4	0.011850808
76	0xbdd5e10e	-0.104433164
77	0xbe49ccc1	-0.19707014
78	0xbdbca32c	-0.0921081
79	0x3e8c19d0	0.27363443
80	0x3afb93fc	0.0019193883
81	0xbd9e32f5	-0.07724563
82	0xbddc5e87	-0.10760217
83	0x3e83a75e	0.2571363
84	0xbd686eb4	-0.0567462
85	0xbe1e2798	-0.15444791
86	0xbd6e7964	-0.058221236
87	0xbcc6c923	-0.024265831
88	0x3ddaf47b	0.10691162
89	0xbdbaa0e0	-0.09112716
90	0xbd5d544b	-0.054035466
91	0x3dc45a86	0.095875785
92	0xbe34d1d7	-0.17658173
93	0xbdc392f6	-0.09549515
94	0x3d3e9491	0.046528403
95	0x3c0fff69	0.008788922
96	0xbe4569d4	-0.19278651
97	0xbc50db59	-0.012747609
98	0xbd528269	-0.0513939
99	0xbdac2d71	-0.08407105
100	0xbe145152	-0.14484146
101	0xbe83357f	-0.25626752
102	0xbd85ac27	-0.06526976
103	0xbdd6248d	-0.1045619
104	0xbe44f0f9	-0.19232549
105	0xbbd85a3b	-0.006602553
106	0xbc78301c	-0.015148189
107	0x3b98ea34	0.004666591
108	0xbdc5cd53	-0.09658303
109	0x3d8517c3	0.06498673
110	0xbd80220a	-0.062564924
111	0xbe5fbfe1	-0.2185054
112	0xbdeaae47	-0.11459022
113	0xbd0a7183	-0.03379966
114	0xbc5f3fa2	-0.013626011
115	0xbded9645	-0.11600927
116	0xbce4fcfc	-0.027952664
117	0xbda6e949	-0.08149964
118	0x3dde58d8	0.10856789
119	0xbe2ccae5	-0.16874273
120	0xbd10b9ed	-0.035333563
121	0xbe155c52	-0.14585999
122	0xbe75c2a4	-0.24000031
123	0xbdd96732	-0.10615386
124	0xbd97d328	-0.07413322
125	0x3c66d772	0.014089452
126	0x3b8c9e06	0.004291299
127	0x3df19745	0.117964305
128	0x3e4006fb	0.18752663
129	0x3e43c756	0.1911901
130	0x3d8fb72c	0.07017359
131	0xbd9e5197	-0.07730406
132	0xbddc7552	-0.107645646
133	0xbce0b641	-0.027430655
134	0xbe32f288	-0.17475331
135	0xbdf6b4ae	-0.12046181
136	0xbcded704	-0.027202137
137	0xbd83a758	-0.06428403
138	0xbe28ff4c	-0.16503638
139	0xbd65b2b7	-0.05607864
140	0xbd9877c8	-0.074447215
141	0xbbf2bb29	-0.007407565
142	0x3cde33fb	0.027124396
143	0xbdb52683	-0.08845236
144	0xbd68d492	-0.056843348
145	0x3d8ead2c	0.06966624
146	0x3d953345	0.072851695
147	0x3cd974aa	0.026544888
148	0x3c336817	0.01095011
149	0x3d087bc1	0.033321146
150	0x3db054fe	0.08609961
151	0x3ce4bfec	0.027923547
152	0xbd47cbfd	-0.048778523
153	0x3d3deb5d	0.046367038
154	0xbdbb18b0	-0.09135568
155	0x3a3bc193	0.00071623287
156	0x3ce1c3a8	0.027559116
157	0xbe04e187	-0.12976657
158	0xbd471837	-0.048607077
159	0x3de801d5	0.113284744
160	0x3e0ea099	0.1392845
161	0xbda103eb	-0.078620754
162	0xbb6e77a3	-0.0036387227
163	0xbc37f3a5	-0.011227523
164	0xbc4154ea	-0.01180003
165	0x3d25f22e	0.040514164
166	0x3d850175	0.064944185
167	0x3e0ce969	0.13760914
168	0x3d84fefe	0.064939484
169	0x3df00e13	0.117214344
170	0x3de9f948	0.114245
171	0x3e2a51c3	0.16632752
172	0x3db9a2fd	0.09064291
173	0xbdc2a63f	-0.09504365
174	0xbdd9f63e	-0.1064267
175	0x3db23d65	0.08703116
176	0x3d98b531	0.074564345
177	0x3e1e0084	0.15429884
178	0x3e437ebb	0.19091313
179	0x3df05160	0.11734271
180	0x3c92b11c	0.017906718
181	0x3d6c071b	0.057623964
182	0xbc264453	-0.010148126
183	0x3aad7678	0.0013234159
184	0xbc9e81f9	-0.019349085
185	0xbd233b65	-0.039851565
186	0xbdaeb367	-0.08530312
187	0xbd8cd5f5	-0.068767466
188	0xbcb9d8d8	-0.022686407
189	0xbe5db766	-0.21651992
190	0xbd72bde8	-0.05926314
191	0xbd55319e	-0.05204927
192	0xbda78cdf	-0.08181166
193	0xbe2f5c58	-0.1712507
194	0xbdee9f2b	-0.11651453
195	0x3cd98c59	0.02655618
196	0xbdd1202f	-0.10211217
197	0xbb3335f4	-0.002734539
198	0xbd3fbdee	-0.04681199
199	0xbd844272	-0.06457986
200	0xbd33345e	-0.043751113
201	0xbd25befa	-0.040465333
202	0x3d3b445f	0.0457195
203	0xbcaa9e8a	-0.02082755
204	0xbd71dc3f	-0.059047934
205	0x3d94cd68	0.07265741
206	0xbdb4b35a	-0.08823271
207	0xbddf0781	-0.10890103
208	0xbe418948	-0.18900025
209	0xbd300cef	-0.042981084
210	0xbe46c516	-0.1941112
211	0xbd698619	-0.05701265
212	0xbe340f6d	-0.1758401
213	0xbe894e89	-0.2681773
214	0xbd9dde66	-0.07708435
215	0xbd28f918	-0.04125318
216	0xbc5ebdf4	-0.013595093
217	0x3d12a17e	0.035798542
218	0x3d96da7d	0.07365892
219	0xbd054722	-0.03253854
220	0xbd0bdee5	-0.034148116
221	0x3d243914	0.040093496
222	0xbdcd68b8	-0.10029739
223	0xbc7a5265	-0.015278433
224	0xbdd80a58	-0.10548848
225	0xbd7afd9f	-0.06127703
226	0xbd0a2916	-0.03373059
227	0x3e2b6b2f	0.16740106
228	0x3d80a186	0.06280808
229	0x3dc0b0ee	0.09408747
230	0x3e40fce6	0.18846473
231	0xbe4ba115	-0.19885667
232	0xbeabee42	-0.33580214
233	0xbdac10ed	-0.08401666
234	0x3adc4bf8	0.0016807308
235	0x3bc3e2c4	0.0059779603
236	0x3e2d536d	0.16926356
237	0x3e3fa207	0.18714152
238	0xbc80e660	-0.015734851
239	0x3d2e2e1f	0.042524453
240	0x3cdd9c19	0.027051972
241	0xbdf25b03	-0.11833765
242	0xbe0e9525	-0.13924082
243	0xbee54b15	-0.44783846
244	0xbe495516	-0.19661364
245	0xbe046741	-0.12930013
246	0xbe2a144b	-0.16609304
247	0xbe670e3c	-0.22564024
248	0xbeb50c9d	-0.35361186
249	0xbe8e12ec	-0.2774881
250	0xbc12395c	-0.008924808
251	0x3da9c836	0.0829014
252	0x3cee644b	0.029100558
253	0x3e2567b2	0.16152838
254	0x3dbbd8a4	0.0917218
255	0xbe57876c	-0.21047753

EncList2.2.conv.bias f4 [32]
0	0x3e871ffb	0.26391587
1	0x3e4e901e	0.20172164
2	0x3e76957f	0.24080466
3	0x3d5ca4ec	0.05386822
4	0xbe1080ee	-0.14111683
5	0xbe09dc0b	-0.13462846
6	0x3d362281	0.0444665
7	0x3e99cc5c	0.30038726
8	0x3c06a4f6	0.008218041
9	0x3e0edd5e	0.13951632
10	0x3dacf452	0.08445038
11	0xbe562d8e	-0.20915815
12	0x3e4c56aa	0.19954935
13	0x3ca6fb1a	0.020383406
14	0x3e805ae3	0.2506934
15	0x3e70fd90	0.23534226
16	0xbe297b43	-0.16550927
17	0x3d1266dc	0.035742626
18	0xbd856a9f	-0.06514477
19	0x3dda0a4d	0.10646496
20	0x3c10617a	0.008812303
21	0xbf0d50a6	-0.55201185
22	0x3d7ed175	0.062211473
23	0xbea324ac	-0.31863916
24	0x3eb68272	0.35646397
25	0x3dc683b9	0.09693093
26	0x3e89f709	0.26946285
27	0xbc22a7e2	-0.009927722
28	0x3d74de1f	0.059782144
29	0xbe4411ba	-0.19147387
30	0x3d93ac82	0.07210638
31	0xbe97a652	-0.2961908
