checkpoints/best_UNet_emb_snr_2.pth (torch, 66830 bytes, 62 tensors)

EncList.0.conv.weight f4 [4, 2, 3]
0	0x3e0862e4	0.13318974
1	0x3eeabc18	0.4584663
2	0x3e6f2dd3	0.23357324
3	0x3e617c4b	0.2202007
4	0xbe689f14	-0.22716933
5	0xbdd78c8a	-0.105248526
6	0x3d737e78	0.059446782
7	0xbe1d8ebd	-0.15386482
8	0x3c54b14d	0.012981725
9	0xbe1683a8	-0.1469866
10	0xbd673f31	-0.05645675
11	0xbeb27c92	-0.34860665
12	0xbe162dc3	-0.14665894
13	0x3ec723e6	0.38894576
14	0xbe2336fb	-0.15938942
15	0x3e81f690	0.25383425
16	0x3ea8e385	0.32986084
17	0x3ed751cd	0.42054597
18	0x3dc57c7b	0.096428834
19	0xbd9034ba	-0.07041307
20	0x3e707212	0.23481014
21	0x3d8956c0	0.067059994
22	0x3d7ff33d	0.06248783
23	0x3ea451f3	0.32093772

EncList.0.conv.bias f4 [4]
0	0xbd37cd5a	-0.044873573
1	0x3e5249ac	0.20535916
2	0xbda57dd6	-0.08080642
3	0xbe3f81c6	-0.18701848

EncList.0.bn.weight f4 [4]
0	0x3eba16b9	0.3634546
1	0x3f59d6e0	0.850935
2	0x3f66da0e	0.90176475
3	0x3f373026	0.71557844

EncList.0.bn.bias f4 [4]
0	0x3f964a38	1.17414
1	0xbe8aa8d5	-0.27081934
2	0x3eb798cb	0.3585876
3	0x3ecaf005	0.39636245

EncList.0.bn.running_mean f4 [4]
0	0xbd37db5d	-0.044886936
1	0x3e4d714c	0.2006275
2	0xbd942ca2	-0.072350755
3	0xbe3b7a7b	-0.18308441

EncList.0.bn.running_var f4 [4]
0	0x3f1bd257	0.6086783
1	0x3ea28a8e	0.31746334
2	0x3f827c32	1.0194151
3	0x3e9813df	0.2970266

EncList.1.conv.weight f4 [8, 4, 3]
0	0x3e193b63	0.1496406
1	0x3de6f71e	0.112776026
2	0xbd03099a	-0.03199158
3	0xbdb3b15f	-0.08774065
4	0x3da84482	0.08216192
5	0xbee3f988	-0.44526315
6	0xbc5c249f	-0.0134364655
7	0x3d7614a4	0.06007828
8	0x3e93b813	0.28851375
9	0x3cc97edd	0.024596626
10	0x3dc51688	0.09623438
11	0xbd986c6d	-0.074425556
12	0x3c3c59f4	0.011496056
13	0xbed1af3d	-0.4095401
14	0x3e4c9148	0.19977295
15	0x3c039f31	0.00803356
16	0x3de56726	0.11201315
17	0x3cbe85ed	0.02325722
18	0xbde589cf	-0.112079255
19	0x3c398979	0.01132428
20	0xbec66d6e	-0.38755363
21	0xbd30222f	-0.04300135
22	0x3cf9a92a	0.030476172
23	0xbe95f676	-0.29289597
24	0xbee68cbb	-0.45029244
25	0xbe227bab	-0.15867488
26	0x3d60344e	0.05473738
27	0x3cb706dd	0.02234214
28	0xbdfd73b5	-0.12375585
29	0x3c4f5b70	0.012656078
30	0x3d3c62eb	0.045992773
31	0x3d95486a	0.072892025
32	0x3df92109	0.12164504
33	0xbe19aa4b	-0.15006368
34	0xbe7633ea	-0.24043241
35	0xbd922318	-0.071356
36	0xbc5f50cf	-0.013630106
37	0x3e7733d7	0.24140869
38	0x3eb49d39	0.352762
39	0x3d27bbd7	0.040950622
40	0x3e22bfdf	0.15893506
41	0x3d54a166	0.051911734
42	0x3d9227da	0.07136507
43	0x3e2016f2	0.15633753
44	0xbe064bcc	-0.13114852
45	0x3d0ad9e1	0.03389919
46	0x3e25a034	0.16174394
47	0x3e18a4a7	0.1490656
48	0xbd073222	-0.033006795
49	0xbe2e46b1	-0.17019154
50	0x3e46bc95	0.19407876
51	0x3e19bfc4	0.15014559
52	0x3e86cf5a	0.26330072
53	0xbe051ff0	-0.13000464
54	0xbdc30554	-0.09522501
55	0xbe009b54	-0.12559253
56	0x3df1ca78	0.11806196
57	0xbe5fe2ce	-0.21863863
58	0xbe5ae863	-0.21377711
59	0x3de7c38c	0.113165945
60	0x3e9d06d8	0.30669284
61	0xbcd2cc9e	-0.025732335
62	0x3d09c026	0.033630513
63	0x3cc04a1b	0.023472836
64	0x3e4aa8ac	0.19790906
65	0x3d47bebe	0.04876589
66	0xbd09b7c0	-0.033622503
67	0x3d801449	0.06253869
68	0xbdd0ee8f	-0.102017514
69	0x3e1c2501	0.15248491
70	0xbca0f18f	-0.019646434
71	0x3e8e6f18	0.27819133
72	0xbe8946aa	-0.26811725
73	0xbf1152df	-0.56767076
74	0xbf08b566	-0.5340179
75	0x3e229d58	0.15880334
76	0xbdfd5823	-0.12370326
77	0xbd6b118d	-0.057389785
78	0xbe6d4e44	-0.23174387
79	0x3de65029	0.11245758
80	0xbd16d71f	-0.03682625
81	0xbe806387	-0.25075933
82	0xbe3fc242	-0.18726447
83	0x3dea5500	0.11441994
84	0x3ee35b3d	0.44405547
85	0x3ed764ef	0.42069194
86	0x3dd642ba	0.10461946
87	0x3bdcb400	0.006735325
88	0xbceef599	-0.029169844
89	0x3d9b4f3c	0.07583472
90	0x3d4ef881	0.05052996
91	0xbe47c38b	-0.19508187
92	0x3e21fcc8	0.15819085
93	0x3d927f21	0.07153154
94	0x3def0e7f	0.11672687
95	0x3df77cec	0.12084374

EncList.1.conv.bias f4 [8]
0	0x3e442dd7	0.19158112
1	0xbe45cdc0	-0.19316769
2	0xbe30295a	-0.17203274
3	0xbc7d568e	-0.015462531
4	0xbe335e93	-0.17516546
5	0xbddf45de	-0.10901998
6	0x3e5f1e42	0.21788886
7	0xbe796b14	-0.24357253

EncList.1.bn.weight f4 [8]
0	0x3f608bc6	0.8771328
1	0x3f294d65	0.6613372
2	0x3f46d65d	0.7767084
3	0x3f65a4e3	0.8970472
4	0x3f754dc8	0.9582181
5	0x3f4961ab	0.78664654
6	0x3f6057cc	0.8763397
7	0x3f4e72cd	0.8064392

EncList.1.bn.bias f4 [8]
0	0x3e686daa	0.22698084
1	0xbe91da52	-0.28486878
2	0x3d63b764	0.055594817
3	0xbad65f44	-0.0016355296
4	0x3db9d843	0.09074452
5	0xbd5ccb6c	-0.053904936
6	0x3d1350f2	0.035965867
7	0xbc9d4506	-0.019197952

EncList.1.bn.running_mean f4 [8]
0	0x3f13ba00	0.5770569
1	0xbf54dc04	-0.8314822
2	0xbf72142b	-0.94562024
3	0x3f75006e	0.9570378
4	0xbeb531b4	-0.35389483
5	0x3efa5b53	0.488978
6	0xbfd305aa	-1.6486104
7	0x3f891593	1.0709709

EncList.1.bn.running_var f4 [8]
0	0x3e1c5855	0.15268071
1	0x3e67292b	0.22574298
2	0x3dad01e8	0.08447629
3	0x3ddb6764	0.107130796
4	0x3dc5bcf0	0.096551776
5	0x3d52f22e	0.05150049
6	0x3ec02b6c	0.37533128
7	0x3e3e590c	0.18588656

EncList.2.conv.weight f4 [16, 8, 3]
0	0x3afda987	0.0019352891
1	0xbe266e2f	-0.16252969
2	0xbe04d4e6	-0.1297184
3	0xbc256edb	-0.010097231
4	0xbe272079	-0.16320981
5	0x3d715c23	0.05892576
6	0xbce336ee	-0.027736153
7	0x3dbbf4a0	0.09177518
8	0xbe640d71	-0.22270752
9	0x3ce0bd55	0.02743403
10	0x3d321d93	0.043485235
11	0x3e627af5	0.22117217
12	0xbe1bb543	-0.15205865
13	0x3db1bbb4	0.0867838
14	0x3e056ff2	0.13030985
15	0x3dc90087	0.09814554
16	0xbdfea00a	-0.12432869
17	0xbdd74227	-0.105106644
18	0x3dc6f7e0	0.09715247
19	0xbe177f02	-0.14794543
20	0xbe9a99e2	-0.30195528
21	0x3d7b62d9	0.061373565
22	0x3ca461ba	0.02006613
23	0x3e31f788	0.17379582
24	0xbeb10833	-0.34576568
25	0xbd9fda1d	-0.07805274
26	0x3b56b293	0.0032760247
27	0x3dd5d450	0.10440886
28	0xbc7411a9	-0.014896789
29	0xbd8457ad	-0.06462035
30	0x3dbb74d8	0.091531456
31	0x3da940c0	0.08264303
32	0xbe8aac91	-0.27084783
33	0x3cad23b5	0.02113519
34	0x3e31b8b5	0.17355616
35	0xbe17a4f3	-0.14809017
36	0x3b25c829	0.0025296307
37	0xbc6fb38c	-0.01463021
38	0xbe4cf03c	-0.20013517
39	0x3c0b76d6	0.008512219
40	0xbe11bd85	-0.14232452
41	0x3d5484b6	0.051884376
42	0xbe77cb0b	-0.24198548
43	0xbe7450c1	-0.2385893
44	0x3e26c418	0.16285741
45	0x3d0e7a1e	0.03478443
46	0x3e89ccf4	0.2691418
47	0x3c4abf6f	0.012374743
48	0xbe29d0c2	-0.16583541
49	0x3e0baa2d	0.13639136
50	0xbd7a5fc6	-0.061126493
51	0x387d0089	6.03204e-05
52	0xbe360f06	-0.17779168
53	0xbeabb875	-0.33539167
54	0x3d1f34bb	0.038868647
55	0x3da8354d	0.08213291
56	0xbe135c1e	-0.14390609
57	0x3d4fe76c	0.05075781
58	0x3e332dc3	0.17497925
59	0x3dbbdcd8	0.09172982
60	0x3e168868	0.14700472
61	0xbe4fb3a6	-0.20283374
62	0xbe21d445	-0.1580363
63	0xbd882e5a	-0.06649466
64	0xbe08ffde	-0.13378856
65	0xbddff5e6	-0.10935573
66	0xbd6976af	-0.05699795
67	0x3d9c1cc0	0.07622671
68	0xbe17b14d	-0.14813729
69	0xbdabccde	-0.08388685
70	0xbdada664	-0.08479002
71	0x3d8c9795	0.068648495
72	0xbd5388d3	-0.051644158
73	0x3dffd13c	0.1249108
74	0x3e3e9fbc	0.18615621
75	0xbe10816d	-0.14111872
76	0xbe13d783	-0.1443768
77	0xbd08c6ce	-0.03339272
78	0xbe609ea7	-0.21935521
79	0x3de0bd9d	0.10973666
80	0x3ce2a348	0.02766575
81	0xbddf65f0	-0.10908115
82	0xbd27ac36	-0.040935718
83	0xbe08465f	-0.13308094
84	0x3e09a551	0.1344197
85	0x3d81d64f	0.06339704
86	0x3e4041ca	0.18775097
87	0x3de151b7	0.11001914
88	0xbd6eece0	-0.05833137
89	0xbdce2fda	-0.10067721
90	0xbea9705c	-0.33093536
91	0xbe892180	-0.2678337
92	0x3d1f947b	0.03895996
93	0x3e77a301	0.24183275
94	0x3dfefc97	0.124505214
95	0x3d815c8e	0.063164815
96	0x3d40007e	0.04687547
97	0x3e16f5e7	0.14742242
98	0x3eaa0bfe	0.33212274
99	0xbe43d8af	-0.19125627
100	0x3db29a39	0.08720822
101	0xbd67da1a	-0.056604482
102	0x3d627825	0.05529036
103	0xbda94a79	-0.08266158
104	0x3e6f5cfe	0.23375317
105	0xbdca8488	-0.098885596
106	0x3e47f793	0.19528036
107	0x3dbe51d6	0.09292953
108	0x3e864e64	0.26231682
109	0x3d8859eb	0.066577755
110	0xbde1be27	-0.11022597
111	0x3d7048b5	0.05866309
112	0x3ddcb0a8	0.10775882
113	0x3d018f41	0.03163076
114	0xbe6c0173	-0.23047428
115	0xbc4b2cb7	-0.012400798
116	0x3d8f5ace	0.069997415
117	0x3d80ff25	0.06298665
118	0xbe16a4a3	-0.14711241
119	0x3e24d6d7	0.1609758
120	0x3e3bf591	0.18355395
121	0x3c4b49ea	0.012407759
122	0x3e21ec7f	0.15812872
123	0xbe1729d8	-0.14762056
124	0x3dbc4278	0.091923654
125	0xbdf2bf61	-0.11852909
126	0xbe0aad4d	-0.13542672
127	0x3e351352	0.17683151
128	0x3e658d72	0.22417238
129	0x3dde0277	0.10840314
130	0xbe1ac4dc	-0.15114158
131	0xbe3d7c2d	-0.185044
132	0x3c402ded	0.0117297
133	0x3e553f44	0.20824915
134	0xbd92edb6	-0.07174246
135	0x3d8e1467	0.06937485
136	0xbd278701	-0.040900234
137	0xbde31603	-0.11088183
138	0xbe329ee1	-0.1744342
139	0x3e583143	0.21112542
140	0xbe6a0d76	-0.22856697
141	0xbc4b0844	-0.012392107
142	0x3dbb5640	0.0914731
143	0xbe44e84b	-0.19229238
144	0x3e3db5c9	0.18526377
145	0x3e15edf3	0.14641552
146	0x3d3cf76c	0.046134397
147	0x3d9164de	0.07099317
148	0x3dc72569	0.09723932
149	0x3e3529fa	0.17691794
150	0xbdfb8bb0	-0.12282503
151	0xbe333729	-0.1750151
152	0xbd463506	-0.04839041
153	0x3e63ae42	0.22234443
154	0x3e178f6f	0.1480081
155	0xbdaa87e5	-0.08326701
156	0x3e021191	0.12702014
157	0x3b76438a	0.0037576878
158	0x3db6df95	0.08929364
159	0xbdbad4eb	-0.09122642
160	0x3e28dc60	0.16490316
161	0xbdf88a6f	-0.12135779
162	0xbe1cb8bf	-0.1530485
163	0xbe1a74c8	-0.15083611
164	0x3e62a1ef	0.22132085
165	0x3d216af0	0.039408624
166	0x3e2293c2	0.15876678
167	0xbdb3d4d8	-0.08780831
168	0xbe6433d4	-0.22285396
169	0xbe170536	-0.14748082
170	0x3dbf1d9c	0.093318194
171	0xbc3503d9	-0.011048281
172	0x3e6082ac	0.21924847
173	0xbe345507	-0.1761056
174	0x3d1aee3c	0.037824854
175	0x3e5934a4	0.21211487
176	0x3c92f525	0.01793916
177	0xbe495059	-0.19659556
178	0xbcef8abb	-0.029240957
179	0xbd88b550	-0.066752076
180	0x3d83e2af	0.06439721
181	0x3d27c065	0.040954966
182	0xbe78ac15	-0.24284394
183	0xbc915459	-0.017740415
184	0xbe4fc809	-0.20291151
185	0x3b8fd369	0.0043892157
186	0x3e7f8467	0.24952851
187	0xbd46abd5	-0.048503716
188	0xbe2271d4	-0.15863734
189	0x3caa8f88	0.020820394
190	0xbe189d64	-0.1490379
191	0xbd8c61fa	-0.06854625
192	0xbe33493f	-0.1750841
193	0x3dd35b65	0.103201665
194	0x3e4a345a	0.19746533
195	0x3d70b02e	0.058761768
196	0x3dd7c96c	0.10536465
197	0x3e3d2446	0.18470868
198	0x3e0ec00d	0.13940449
199	0x3e3cf1f4	0.18451673
200	0x3e3579c9	0.17722239
201	0xbce02b60	-0.027364433
202	0xbe1ad506	-0.15120324
203	0x3dfc6871	0.12324608
204	0xbe159799	-0.14608611
205	0x3d96bfa5	0.07360772
206	0xbd35e42a	-0.044407047
207	0xbdd5cefd	-0.104398705
208	0x3d2d33ff	0.042285915
209	0xbe2a772a	-0.1664702
210	0xbdc90a60	-0.09816432
211	0x3e616955	0.22012837
212	0x3e036d24	0.12834603
213	0xbe31ecd5	-0.173755
214	0xbe22db59	-0.15903987
215	0x3d9bb448	0.07602745
216	0x3dd0f2e5	0.102025785
217	0xbd64efb1	-0.05589265
218	0xbd5ce1af	-0.053926166
219	0xbba82dcc	-0.0051324125
220	0xbe28562a	-0.16439119
221	0xbe79eb35	-0.2440613
222	0x3e1f1537	0.15535437
223	0x3d9b35de	0.07578634
224	0xbdf2ad4b	-0.11849459
225	0xbe24ed2b	-0.16106097
226	0x3e13f056	0.1444715
227	0x3d5e254a	0.05423478
228	0xbd934366	-0.071905896
229	0x3de3a6da	0.11115809
230	0x3e425277	0.1897677
231	0xbdab7690	-0.083722234
232	0xbd44ca1b	-0.048044305
233	0xbb8ad78a	-0.00423712
234	0x3d800157	0.062502556
235	0xbd3e3a7b	-0.04644249
236	0xbe0f1359	-0.13972224
237	0xbe584b42	-0.21122459
238	0x3e9d8c4e	0.30771106
239	0x3e716718	0.23574483
240	0x3dbdc786	0.09266572
241	0x3e4a0042	0.19726661
242	0x3e9d274a	0.30694038
243	0xbcfba268	-0.03071709
244	0xbdb9c85e	-0.0907142
245	0xbe544ddb	-0.20732825
246	0x3e674438	0.22584617
247	0x3d8fa7f4	0.070144564
248	0x3e18c998	0.14920652
249	0xbda5d675	-0.08097545
250	0x3cf67a14	0.030087508
251	0xbc462e12	-0.012095945
252	0x3c977640	0.018489003
253	0xbdbdf19e	-0.092746004
254	0xbe846efb	-0.2586592
255	0x3dd9d64c	0.10636577

EncList.2.conv.bias f4 [16]
0	0xbc7d6591	-0.01546611
1	0xbe199103	-0.14996724
2	0xbd18a617	-0.03726777
3	0xbddade11	-0.10686887
4	0x3d463c1b	0.048397165
5	0xbceb40b6	-0.02871738
6	0x3e21840b	0.15773027
7	0x3cb8e8e0	0.022571981
8	0x3e4a53d5	0.19758542
9	0xbe05d589	-0.13069738
10	0xbd9d223e	-0.07672547
11	0x3d0782bf	0.033083674
12	0x3de6ec1a	0.112755015
13	0x3e3f121c	0.18659252
14	0x3e3a9c4b	0.18223684
15	0xbd69d225	-0.057085175

EncList.2.bn.weight f4 [16]
0	0x3f77b52a	0.9676081
1	0x3f821b1b	1.0164522
2	0x3f84ed0e	1.0384843
3	0x3f622ac9	0.88346535
4	0x3f515b3d	0.81779844
5	0x3f5d68ab	0.86487836
6	0x3f438418	0.76373434
7	0x3f83bad5	1.0291392
8	0x3f6cfba3	0.9257147
9	0x3f696d29	0.9118219
10	0x3f8a4c13	1.0804466
11	0x3f6d0633	0.92587584
12	0x3f80cf77	1.0063313
13	0x3f80fee0	1.0077782
14	0x3f791b42	0.9730722
15	0x3f712872	0.9420234

EncList.2.bn.bias f4 [16]
0	0x3cbd9ada	0.023145128
1	0x3e3aac8c	0.18229884
2	0x3e308521	0.17238285
3	0x3cb139a3	0.021633929
4	0xbd172946	-0.036904596
5	0x3d59287f	0.053017136
6	0x3dba5323	0.09097888
7	0x3d1da68f	0.03848892
8	0xbe1f2f6b	-0.15545432
9	0xbd6ac12d	-0.057313133
10	0x3e06e85c	0.13174576
11	0xbd1a38dd	-0.037651885
12	0x3eb37dd4	0.35056937
13	0xbde4656a	-0.11152156
14	0xbd8db05e	-0.06918405
15	0x3e5c2466	0.2149826

EncList.2.bn.running_mean f4 [16]
0	0xbe2a6faf	-0.16644166
1	0xbef2c97e	-0.4741935
2	0xbe91302a	-0.2835706
3	0xbd73a785	-0.05948593
4	0x3efca76b	0.4934648
5	0x3d94775f	0.07249331
6	0x3ee0e563	0.43925008
7	0xbe857874	-0.2606846
8	0x3eb53eb2	0.35399395
9	0xbd08a6cb	-0.03336219
10	0xbd240da0	-0.040052056
11	0xbd9d8141	-0.07690669
12	0xbea5ddfd	-0.32395926
13	0x3f3ddd1e	0.74165523
14	0x3eee6848	0.46563935
15	0xbdd27770	-0.10276687

EncList.2.bn.running_var f4 [16]
0	0x3ddf3663	0.10899045
1	0x3dab41fa	0.083621934
2	0x3dd67686	0.10471825
3	0x3e037f1a	0.12841454
4	0x3e41333c	0.188672
5	0x3d86fc46	0.06591086
6	0x3e40c965	0.18826826
7	0x3e8e64c9	0.27811268
8	0x3e80dc97	0.25168297
9	0x3d5943e7	0.053043272
10	0x3e7a7510	0.24458718
11	0x3e75e6a4	0.24013764
12	0x3e7a0e75	0.24419577
13	0x3e959654	0.29216254
14	0x3e768023	0.24072318
15	0x3eb1d4ed	0.34732762

EncList.3.conv.weight f4 [32, 16, 3]
0	0xbe073e46	-0.13207349
1	0xbdc9d453	-0.09854951
2	0x3da304d7	0.079599075
3	0xbd63b0a8	-0.055588394
4	0xbdef51e6	-0.11685543
5	0x3e2a5524	0.16634041
6	0x3ea4f7c0	0.32220268
7	0x3d18e0cb	0.037323754
8	0xbcc42e1f	-0.023947774
9	0xbce71a8d	-0.028210903
10	0xb9d5f35f	-0.00040807851
11	0xbe14aa11	-0.14518
12	0xbd9f0547	-0.077646784
13	0xbcdfd1c6	-0.027321707
14	0x3d638153	0.055543255
15	0x3d638545	0.055547018
16	0xbd69d455	-0.05708726
17	0xbd3f2eb3	-0.046675395
18	0xbe07627c	-0.13221163
19	0xbc69e80d	-0.014276517
20	0xbdd5ca1b	-0.10438939
21	0x3e1e9caf	0.15489458
22	0x3dd0c73a	0.101942495
23	0xbcb19b08	-0.02168037
24	0xbb957a25	-0.00456168
25	0x3e0bab70	0.13639617
26	0xbd6b53e5	-0.057453055
27	0x3af5ea64	0.001876187
28	0xbcf4a9fc	-0.029866211
29	0x3d4d2456	0.05008348
30	0x3e3ecfc2	0.18633941
31	0x3d8988f9	0.067155786
32	0xbe2a019a	-0.16602173
33	0xbe03d321	-0.12873508
34	0x3ca498f4	0.020092465
35	0x3d436289	0.047701392
36	0x3d08db20	0.0334121
37	0x3d23bfb7	0.039977755
38	0xbe120a59	-0.1426176
39	0xba933edd	-0.0011233945
40	0x3e237e3d	0.15966125
41	0x3ddc9b12	0.10771765
42	0xbdc74346	-0.09729628
43	0x3dc914fc	0.098184556
44	0x3e12a1c7	0.14319526
45	0x3dbc0fca	0.09182699
46	0xbdb083db	-0.086188994
47	0xbdef7827	-0.11692839
48	0x3dcd68ea	0.100297764
49	0x3d8a4d15	0.067529835
50	0xbdeb18f5	-0.114793696
51	0xbe2a1b78	-0.16612041
52	0x3e0d2dcd	0.13787003
53	0x3e316a4e	0.17325708
54	0x3dc2fe58	0.095211685
55	0x3d9758d8	0.073899925
56	0x3d49f88e	0.049309306
57	0xbd0228b8	-0.031777114
58	0x3dc3ac71	0.09554375
59	0x3d95d991	0.07316888
60	0x3dac4c8c	0.08413038
61	0xbdcb6738	-0.09931797
62	0xbd847a1c	-0.06468603
63	0xbe0fec1a	-0.1405491
64	0x3cb99d1f	0.022657929
65	0x3dd347ed	0.10316453
66	0x3e0cee5d	0.13762803
67	0x3df43f43	0.11926129
68	0x3ddf3ddd	0.10900471
69	0xbe213524	-0.15742928
70	0xbd0c86da	-0.034308292
71	0x3d160e35	0.036634643
72	0xbe38a422	-0.18031362
73	0x3d158c67	0.03651085
74	0xbbbd9148	-0.005785141
75	0xbd7ed08c	-0.062210605
76	0x3c9f965d	0.019480878
77	0xbc22fa8f	-0.009947433
78	0xbc8a0ff3	-0.016853308
79	0xbd4fdd65	-0.050748248
80	0xbdc67a52	-0.096912995
81	0xbd578639	-0.05261824
82	0x3a7b8433	0.00095945894
83	0x3dc2e2c8	0.09515911
84	0x3e9a08c2	0.30084807
85	0x3de417d3	0.111373566
86	0x3d8c034b	0.068365656
87	0xbdcf5bd2	-0.10124935
88	0x3e357731	0.17721249
89	0x3dc0f256	0.09421222
90	0xbb580667	-0.00329628
91	0x3dbddf6d	0.09271131
92	0x3d5fb831	0.054619018
93	0x3df6b139	0.12045521
94	0x3de2bd6c	0.110712856
95	0xbda10335	-0.0786194
96	0x3d8801b5	0.066409506
97	0xbbdca7a4	-0.0067338515
98	0xbe2a2688	-0.16616261
99	0x3dbbf70b	0.09177979
100	0xbdeab5f1	-0.11460484
101	0x3e36d45d	0.17854448
102	0xbe2f20ae	-0.1710231
103	0xbc9d2897	-0.019184394
104	0xbc14e9ba	-0.009088928
105	0x3d5a25a3	0.05325855
106	0x3d716d95	0.058942396
107	0xbd1a3ffe	-0.037658684
108	0x3d7c9bff	0.061672207
109	0x3d9a3295	0.07529179
110	0xbbca8571	-0.0061804582
111	0xbd2f5574	-0.042806104
112	0x3cb604ed	0.022219146
113	0xbdb365c9	-0.08759648
114	0xbb19155a	-0.0023358674
115	0x3e1a6132	0.1507614
116	0xbdb35f3c	-0.08758399
117	0xbd85630d	-0.06513033
118	0xbd220997	-0.039559927
119	0x3e31316a	0.17304006
120	0xbd15335e	-0.03642594
121	0x3c15327f	0.0091062775
122	0xbc80e89c	-0.015735917
123	0xbc66e33b	-0.014092262
124	0xbdd50385	-0.10401062
125	0x3d79d06a	0.060989775
126	0x3d35339d	0.044238675
127	0x3daa945a	0.08329077
128	0x3df71617	0.1206476
129	0x3e15e244	0.14637095
130	0x3e33062d	0.17482825
131	0xbe4ae3c4	-0.19813448
132	0xbdabbf6b	-0.083861195
133	0xbe159f81	-0.14611627
134	0x3e23d9f6	0.16001114
135	0xbdecf44f	-0.11570036
136	0x3e3798a2	0.17929319
137	0xbdc8734e	-0.097876176
138	0xbda2b74d	-0.07945118
139	0x3e9cecfc	0.30649555
140	0x3dd0b7f6	0.10191338
141	0xbdbabcbe	-0.09118031
142	0xbd7e06fe	-0.062018387
143	0x3c593939	0.013258272
144	0x3da47cdd	0.08031628
145	0xbe166b47	-0.1468936
146	0xbbcfdb39	-0.006343272
147	0x3e41a170	0.1890924
148	0xbd660699	-0.056158636
149	0xbd57b108	-0.052659065
150	0xbd453976	-0.048150502
151	0xbdc094b2	-0.094033614
152	0x3da909f6	0.08253853
153	0x3d43b737	0.04778215
154	0x3e09fe58	0.1347593
155	0x3d6a9ab1	0.05727643
156	0x3df3eb7d	0.1191015
157	0xbdf997b9	-0.12187142
158	0x3def3709	0.11680419
159	0xbdae2be5	-0.08504466
160	0xbda49dfa	-0.08037944
161	0x3d9c5ec6	0.07635264
162	0xbdc72244	-0.097233325
163	0x3dd94856	0.106095
164	0x3cc298d2	0.023754511
165	0xbcf43510	-0.029810458
166	0xbe621198	-0.22077024
167	0x3e120cd7	0.1426271
168	0xbdf3850f	-0.11890613
169	0xbc926879	-0.017872082
170	0x3e05f8c7	0.13083182
171	0x3b7cb817	0.0038561875
172	0xbde2508d	-0.1105052
173	0x3d218bf0	0.039440095
174	0xbdf8f601	-0.121562965
175	0x3c4a5960	0.01235041
176	0x3e329fd1	0.17443778
177	0xbd8ca353	-0.06867089
178	0x3dd638e9	0.104600735
179	0x3d8a15ac	0.06742415
180	0xbe38f511	-0.18062235
181	0x3e84ee92	0.25963265
182	0x3e04b365	0.12959059
183	0xbdfd0af0	-0.12355602
184	0x3d83333d	0.06406257
185	0x3e03f865	0.12887724
186	0xbc0de6bf	-0.008660971
187	0xbd696684	-0.056982532
188	0x3e217b04	0.15769583
189	0x3d9284cf	0.071542375
190	0x3dc6fbda	0.097160056
191	0xbda2f516	-0.07956903
192	0xbd80c98c	-0.06288442
193	0xbe094142	-0.134038
194	0xbd167767	-0.036734965
195	0xbe2b4c98	-0.16728437
196	0xbd530e5a	-0.05152736
197	0xbbd0e383	-0.0063747778
198	0x3d989a0d	0.07451258
199	0x3ca92ae5	0.020650337
200	0xbd9285df	-0.0715444
201	0x3d57233a	0.05252383
202	0x3e19fcc0	0.15037823
203	0xbd57b2d0	-0.052660763
204	0x3e10c061	0.14135887
205	0xbde2b216	-0.110691234
206	0x3d7a7eb5	0.061155993
207	0xbd799ce3	-0.060940634
208	0xbc9edb04	-0.019391544
209	0x3e2f9bba	0.17149249
210	0xbd1f3df8	-0.038877457
211	0xbdad43b4	-0.08460179
212	0xbc101bce	-0.008795692
213	0xbe26d7f1	-0.16293313
214	0xbe064abc	-0.13114446
215	0xbb1776ea	-0.002311165
216	0xbe306f2e	-0.17229912
217	0xbe3ff1ee	-0.18744633
218	0x3d4b08e6	0.049569033
219	0x3d88e78c	0.06684789
220	0x3d5d95ee	0.054098062
221	0x3c40e680	0.0117737055
222	0xbe2c99d5	-0.16855557
223	0xbd98cc60	-0.074608564
224	0xbe308c22	-0.17240956
225	0xbe2ad215	-0.16681702
226	0xbc4a0ccc	-0.012332153
227	0x3c0ce63a	0.008599812
228	0xbe5bedc0	-0.21477413
229	0x3d3dbdb8	0.046323508
230	0x3d7a2ef3	0.06107993
231	0x3e3ecc56	0.18632635
232	0xbe03c876	-0.12869439
233	0x3e2b6055	0.16735967
234	0x3e857d11	0.2607198
235	0xbdd6d001	-0.10488892
236	0x3df93106	0.121675536
237	0xbd6f0a27	-0.05835929
238	0xbcd3d76a	-0.025859553
239	0xbdb3ffa2	-0.087889925
240	0x3c4a4966	0.012346601
241	0x3d750a3a	0.059824206
242	0x3dbb3292	0.09140505
243	0xbe50068c	-0.20314997
244	0xbdc2191b	-0.09477445
245	0x3c02bf2e	0.007980151
246	0xba9cbf27	-0.0011958823
247	0xbcdbf8a8	-0.026851967
248	0xbd866279	-0.06561751
249	0xbbbd925e	-0.0057852706
250	0xbe0e4df7	-0.13896929
251	0xbca70f31	-0.020392986
252	0xbda9f5f5	-0.08298866
253	0x3c01426a	0.0078893695
254	0xbd712594	-0.058873728
255	0xbcc72e51	-0.024314078

EncList.3.conv.bias f4 [32]
0	0x3de1375b	0.10996886
1	0xbd45f150	-0.048325837
2	0xbdba0b3e	-0.090841755
3	0xbc648cde	-0.013949601
4	0xbd3d7dab	-0.046262424
5	0xbc347adc	-0.01101562
6	0xbd946969	-0.07246668
7	0x3dd6669c	0.1046879
8	0xbd94af5e	-0.07260011
9	0xbd7b1475	-0.061298806
10	0xbbf02393	-0.0073284595
11	0xbdc8bdfc	-0.09801862
12	0x3d007a37	0.031366553
13	0xbb93e2fc	-0.0045131426
14	0xbd4e41bb	-0.050355654
15	0xbe036b93	-0.12834005
16	0x3d217223	0.03941549
17	0x3ded5ee5	0.11590365
18	0xbda1bf56	-0.078978226
19	0xbe0e7416	-0.13911471
20	0x3dc5a73a	0.096510366
21	0x3d718cec	0.058972284
22	0x3c43896b	0.011934618
23	0x3dcf3e30	0.10119283
24	0x3d3335ca	0.04375247
25	0x3dc56929	0.09639198
26	0xbda805e3	-0.08204248
27	0x3de9ca14	0.114154965
28	0x3d72dcbd	0.059292544
29	0xbd8ebb94	-0.069693714
30	0x3d9d24ef	0.0767306
31	0xbe0fc589	-0.14040197

EncList.3.bn.weight f4 [32]
0	0x3f77d87e	0.96814716
1	0x3f59b23f	0.85037607
2	0x3f56cb57	0.8390402
3	0x3f81b1d7	1.0132397
4	0x3f7e13fd	0.9924925
5	0x3f7ec2af	0.99515814
6	0x3f85b3fd	1.0445553
7	0x3f7c072c	0.98448443
8	0x3f78a5f7	0.9712824
9	0x3f83a5fe	1.0285032
10	0x3f5a48f0	0.85267544
11	0x3f80f0a1	1.0073434
12	0x3f80b333	1.0054687
13	0x3f6b3d49	0.9189039
14	0x3f80103e	1.0004957
15	0x3f752631	0.957614
16	0x3f9118b3	1.1335663
17	0x3f83517e	1.0259244
18	0x3f702a5f	0.93814653
19	0x3f7c23eb	0.98492306
20	0x3f60e369	0.87847
21	0x3f843789	1.0329448
22	0x3f92f526	1.1481063
23	0x3f8e924c	1.1138396
24	0x3f7272a3	0.9470617
25	0x3f8176cf	1.0114383
26	0x3f8ddb48	1.1082544
27	0x3f5fe5c4	0.8745997
28	0x3f5f3163	0.87184733
29	0x3f81de7c	1.0146022
30	0x3f68ace6	0.9088882
31	0x3f75d027	0.9602074

EncList.3.bn.bias f4 [32]
0	0xbd988bdf	-0.07448553
1	0xbe0819b9	-0.13291062
2	0xbe37fb2a	-0.17966905
3	0xbccb181e	-0.024791773
4	0xbcd337a7	-0.025783373
5	0xbd4c74d2	-0.049916096
6	0xbd07e646	-0.03317859
7	0xbdb89561	-0.09012867
8	0x3e26979d	0.16268773
9	0x3cef9b2a	0.029248793
10	0xbd184a03	-0.037179958
11	0x3df03f61	0.117308386
12	0x3c9eaf86	0.019370805
13	0x3c6a5d14	0.014304418
14	0x3e3a6b54	0.18205005
15	0x3e7aeb39	0.24503793
16	0x3ddf793e	0.10911797
17	0xbce6adaf	-0.02815899
18	0xbdeb8c8c	-0.115014166
19	0x3cbdd3d2	0.023172293
20	0xbe33348e	-0.17500517
21	0x3e4258d8	0.18979204
22	0x3e76cddb	0.24101965
23	0x3e3181b8	0.1733464
24	0x3c34f3a4	0.011044417
25	0x3db7b8f1	0.08970822
26	0xbdbe053b	-0.092783414
27	0xbd1fe2f4	-0.0390348
28	0x393f0998	0.00018218753
29	0x3e395952	0.18100479
30	0xbc291593	-0.010320085
31	0x3d3a7d13	0.045529436

EncList.3.bn.running_mean f4 [32]
0	0x3e70a7b2	0.2350147
1	0x3f13bb3c	0.5770757
2	0x3d53458b	0.051579993
3	0x3e931eef	0.28734538
4	0xbf0c88a1	-0.5489598
5	0xbf11d517	-0.56965774
6	0x3c63e171	0.01390873
7	0x3f20c746	0.6280407
8	0xbf4da41d	-0.8032854
9	0xbeb07fb1	-0.3447242
10	0x3f701074	0.93775105
11	0xbf21d536	-0.6321596
12	0xbd041c60	-0.032253623
13	0xbdffed8c	-0.1249648
14	0xbeff544a	-0.49868995
15	0x3df69d55	0.120417275
16	0x3e64ee9b	0.22356646
17	0xbe26b937	-0.16281591
18	0x3eaeb9d3	0.34126148
19	0xbefefd7f	-0.49802777
20	0x3ee5ef4b	0.4490913
21	0xbf10ecb4	-0.5661118
22	0xbf26a982	-0.651024
23	0xbf39c1c0	-0.72561264
24	0x3e76069d	0.2402596
25	0xbe9e754e	-0.3094887
26	0x3ce33ae9	0.027738051
27	0x3f220b62	0.6329862
28	0x3f56e401	0.83941656
29	0xbebf3159	-0.37342337
30	0xbee62202	-0.4494782
31	0x3dc9d3f8	0.09854883

EncList.3.bn.running_var f4 [32]
0	0x3e866a34	0.26252902
1	0x3def9279	0.11697859
2	0x3e0797dc	0.13241524
3	0x3e24156e	0.160238
4	0x3e1c2696	0.15249094
5	0x3e5bdc3f	0.21470736
6	0x3e8a3405	0.26992813
7	0x3ea0aaeb	0.313804
8	0x3e3f74d6	0.18696913
9	0x3decb0f2	0.11557187
10	0x3e9b58c0	0.30341148
11	0x3e25692b	0.161534
12	0x3e29a1da	0.16565648
13	0x3e4d94e6	0.20076331
14	0x3e4feeac	0.2030589
15	0x3e978ba4	0.29598725
16	0x3e4582a3	0.19288115
17	0x3e48e050	0.19616818
18	0x3de48375	0.11157886
19	0x3e2be146	0.16785154
20	0x3e0d20c8	0.13782036
21	0x3eb2eb62	0.34945208
22	0x3f88ae63	1.0678219
23	0x3ebd9ce3	0.37033758
24	0x3df705df	0.12061667
25	0x3e73193c	0.23740095
26	0x3e3f49f0	0.18680549
27	0x3e697e7e	0.22802159
28	0x3e5f3ada	0.21799794
29	0x3e5f00b1	0.21777608
30	0x3dcb0ee2	0.09914948
31	0x3dbb4213	0.09143462

DecList.0.conv.weight f4 [32, 16, 4]
0	0xbd480131	-0.04882926
1	0xbc6ae413	-0.014336604
2	0xbd58dd78	-0.052945584
3	0x3d35bc33	0.044368934
4	0xbc891c59	-0.01673715
5	0x3a7b2a98	0.0009581237
6	0x3c989dce	0.018629935
7	0xbd7d0152	-0.061768837
8	0xbcf25ff7	-0.029586775
9	0x3df18c16	0.117942974
10	0xbe863331	-0.2621093
11	0xbe22e6cc	-0.15908355
12	0x3cc8c0da	0.024506021
13	0xbe9ed9f1	-0.3102565
14	0x3db95a84	0.090504676
15	0x3d72b67a	0.059256054
16	0xbe31419b	-0.17310183
17	0x3cd4e82d	0.025989616
18	0x3c93d095	0.018043796
19	0xbdf94049	-0.121704645
20	0x3d951c66	0.07280807
21	0x3dc5206e	0.09625326
22	0x3e08a656	0.13344702
23	0xbc029510	-0.00797011
24	0x3bb20c2e	0.005433581
25	0x3dbf644c	0.09345302
26	0xbd1be66e	-0.03806155
27	0x3dcaf4e2	0.09909989
28	0x3c46b800	0.01212883
29	0x3e068cb3	0.1313961
30	0x3d99890d	0.074968435
31	0xbdce1217	-0.10062044
32	0x3d26270e	0.04056459
33	0xbd80925c	-0.06277916
34	0xbcde46b2	-0.02713332
35	0xbd25b09a	-0.040451623
36	0xbdd00582	-0.101573005
37	0xbcfaa1ef	-0.030594794
38	0x3e2df157	0.16986595
39	0x3d164585	0.036687393
40	0x3db77967	0.089587025
41	0xbd7ba5fc	-0.061437592
42	0xbd340b22	-0.04395593
43	0x3db1f300	0.08688927
44	0x3ca1a20a	0.019730587
45	0x3d1442d8	0.03619656
46	0x3db60af5	0.08888809
47	0xbe32002e	-0.17382881
48	0xbe2dc57e	-0.16969869
49	0x3d143edf	0.03619277
50	0x3d61503a	0.05500815
51	0x3e3c316d	0.1837823
52	0xbdd165df	-0.102245085
53	0x3c28350c	0.010266554
54	0xbdffaf88	-0.12484652
55	0xbda8f279	-0.08249373
56	0xbe25179c	-0.16122288
57	0x3c1cbae6	0.009566044
58	0x3d8a8b5f	0.06764864
59	0xbe391423	-0.18074088
60	0x3e428eec	0.18999833
61	0x3af5f72f	0.0018765683
62	0x3e309916	0.17245898
63	0xbd2a0179	-0.04150531
64	0xbdeb03d0	-0.114753366
65	0xbd6000fe	-0.054688446
66	0x3d424529	0.047429238
67	0x3d4d16a2	0.050070412
68	0xbc9540fc	-0.018219464
69	0xbd2c4321	-0.042056207
70	0xbca1a52d	-0.019732082
71	0x3ccc36cb	0.024928471
72	0x3b09f6e3	0.0021051697
73	0xbd2d5486	-0.042316936
74	0x3cbb7cc7	0.022886647
75	0xbdaba475	-0.08380977
76	0xbb8f13af	-0.00436636
77	0x3d51b5a9	0.051198635
78	0xbd6e9e08	-0.05825618
79	0xbe05014c	-0.12988776
80	0x3ce72fbd	0.028221006
81	0x3dae1009	0.08499152
82	0x3d190e90	0.037367404
83	0x3dda2376	0.10651295
84	0x3baa496c	0.005196741
85	0xbd5d5259	-0.05403361
86	0xbe12a78d	-0.14321728
87	0xbd96a7c5	-0.07356218
88	0xbcd5ab46	-0.026082646
89	0xbcde6dc0	-0.027151942
90	0xbd866b6f	-0.0656346
91	0x3c39a569	0.011330941
92	0x3cf46a34	0.029835798
93	0x3dd6a2f5	0.104803
94	0x3d35838d	0.04431491
95	0x3c47c08a	0.012191901
96	0x3e0b93de	0.13630626
97	0x3d8b6d0f	0.06807911
98	0xbd7fb4f2	-0.062428422
99	0xbd1ede5e	-0.038786285
100	0xbe1652e4	-0.14680058
101	0x3d7adf0f	0.06124788
102	0x3dd53a45	0.10411505
103	0xbc8c47e7	-0.01712413
104	0x3d8f0c49	0.06984765
105	0xbe188589	-0.1489469
106	0xbb6d0b7b	-0.0036170173
107	0xbd2dfac4	-0.042475477
108	0x3c2b9ade	0.010473935
109	0x3e069f45	0.13146694
110	0x3d6d58b5	0.057945926
111	0x3b2b4632	0.002613437
112	0xbd860e17	-0.06545656
113	0xbd9f8a10	-0.07790005
114	0xbdbbaa73	-0.0916337
115	0xbdd4c22e	-0.10388599
116	0x3dc63913	0.09678855
117	0x3e262ae5	0.162273
118	0x3d684c23	0.056713235
119	0x3d49e85f	0.049293872
120	0x3d39ab6e	0.045329504
121	0xbe3a093e	-0.18167588
122	0xbd46e398	-0.048556894
123	0x3d8239c0	0.06358671
124	0xbc65cb5e	-0.014025537
125	0x3e4308c5	0.19046314
126	0x3cdb91bf	0.026802896
127	0xbd493c07	-0.049129512
128	0xbdca4bbe	-0.09877728
129	0x3d635b19	0.0555068
130	0xbd912be4	-0.070884496
131	0xbe49d8dc	-0.19711632
132	0x3d1c59e2	0.038171656
133	0x3cb37c47	0.021909846
134	0x3c6e9b32	0.014563369
135	0x3e21376e	0.15743801
136	0xbda74358	-0.08167142
137	0x3b632d9a	0.0034664632
138	0x3e2763bd	0.16346641
139	0xbdf81687	-0.12113672
140	0xbce4c13d	-0.027924174
141	0xbdd76cf7	-0.1051883
142	0x3d7807da	0.060554363
143	0xbdf0d008	-0.11758429
144	0x3cd28c2b	0.025701603
145	0x3bef465e	0.0073020896
146	0x3de3734a	0.11105974
147	0x3c8b1d63	0.016981786
148	0xbe21d353	-0.1580327
149	0x3d7a5309	0.061114345
150	0x3cf3cdc9	0.029761212
151	0x3de5cbf1	0.11220539
152	0xbbc4ce26	-0.00600602
153	0xbde9aa4d	-0.114094354
154	0x3d394350	0.04523021
155	0xbdbdc747	-0.09266525
156	0xbd20aaab	-0.03922526
157	0xbd072d0e	-0.033001952
158	0x3d5c39f0	0.05376619
159	0xbd0e28a2	-0.03470672
160	0x3da54af7	0.08070939
161	0x3c65da2a	0.014029065
162	0x3c1ecfa9	0.009693065
163	0xbc8a184a	-0.016857285
164	0x3de775e0	0.1130178
165	0xbdc252bb	-0.09488436
166	0xbd44945b	-0.047993045
167	0xbe10752b	-0.14107196
168	0xbdcb07c0	-0.099135876
169	0xbde7c7d4	-0.11317411
170	0x3de30c62	0.11086346
171	0xbc9e313c	-0.019310586
172	0x3c9dff8d	0.019286895
173	0xbd842b06	-0.064535186
174	0x3d2f704f	0.042831715
175	0x3d7d4711	0.061835352
176	0xbe81406f	-0.2524447
177	0xbc74bcda	-0.014937604
178	0xbd0b5fc6	-0.034026884
179	0x3dd258cd	0.10270844
180	0xbc6df5bd	-0.014523921
181	0xbc5ed590	-0.013600722
182	0xbd49d6a6	-0.04927697
183	0xbd9595e8	-0.07303983
184	0xbe13e1df	-0.14441632
185	0x3dead59f	0.11466526
186	0x3de6c01f	0.11267113
187	0xbd5e75aa	-0.054311432
188	0xbd5c1b7a	-0.05373714
189	0xbe117ac8	-0.14206994
190	0xbdf34f99	-0.118804164
191	0x3d09ef0c	0.03367524
192	0x3c9ea066	0.019363593
193	0xbc37d6c1	-0.011220635
194	0xbb23b34e	-0.00249787
195	0xbd53f900	-0.051751137
196	0x3ce19fbe	0.027541991
197	0x3e5d14e5	0.21590002
198	0x3e12dca1	0.14341976
199	0x3d222e05	0.03959467
200	0xbdda021e	-0.10644935
201	0x3d3bc415	0.045841295
202	0x3e046af6	0.12931427
203	0xbe26a727	-0.16274701
204	0x3e069458	0.13142526
205	0x3cb7edff	0.022452353
206	0xbc1c2e81	-0.009532572
207	0xbd69de93	-0.05709703
208	0xbd458e69	-0.048231516
209	0xbcfda428	-0.030962065
210	0x3e3635c9	0.17793955
211	0xbd185e0a	-0.037199058
212	0xbdb4ceb5	-0.08828489
213	0xbe0b9bff	-0.13633727
214	0xbe456a75	-0.19278891
215	0x3dd938d2	0.10606541
216	0xbdede13a	-0.11615224
217	0xbe0ddd5b	-0.13853972
218	0x3c9c8e74	0.019110896
219	0xbdd28399	-0.102790065
220	0x3cd1a84e	0.02559295
221	0x3e0ce581	0.13759424
222	0x3de50120	0.11181855
223	0x3d1f9c84	0.038967624
224	0x3e1de884	0.15420729
225	0xbe079425	-0.13240106
226	0x3c7fcf9a	0.015613461
227	0xbc6350ef	-0.013874277
228	0x3d20c96b	0.039254587
229	0x3e133b38	0.14378059
230	0x3d182ca0	0.037151933
231	0xbe0f65d0	-0.14003682
232	0xbd855875	-0.065110125
233	0x3d6e2a45	0.05814578
234	0xbe0225f4	-0.1270979
235	0x3cd26b7e	0.025686022
236	0xbe6ebe3d	-0.23314758
237	0xbd27f363	-0.041003596
238	0x3cb44cf7	0.022009356
239	0xbdb53427	-0.08847838
240	0xbd704839	-0.058662627
241	0x3dbcf713	0.09226813
242	0x3d8d4f1a	0.06899853
243	0x3d936f06	0.071989104
244	0x3d857925	0.06517247
245	0x3e0154c2	0.12629989
246	0x3a296b02	0.0006462784
247	0x3cc008fd	0.023441786
248	0x3e47c3f3	0.19508342
249	0xbcb1501e	-0.021644648
250	0xbd73baa8	-0.05950418
251	0x3cb86adb	0.02251189
252	0xbd07e9d6	-0.033181988
253	0x3e38ace9	0.1803471
254	0xbd797db5	-0.0609109
255	0xbda882df	-0.08228087

DecList.0.conv.bias f4 [16]
0	0x3d753f4b	0.059874814
1	0xbdf812fc	-0.12112996
2	0x3d0d9fac	0.034576103
3	0xbd31d570	-0.04341644
4	0x3dbc0119	0.09179897
5	0xbd27ea70	-0.04099506
6	0x3d582fa1	0.052779797
7	0xbd0dbf04	-0.034605995
8	0x3ddb718f	0.10715019
9	0x3d4dd5e3	0.050252806
10	0x3d398135	0.045289237
11	0x3d2c95ff	0.042135235
12	0xbdca8b8d	-0.098898984
13	0xbdeaa6c1	-0.11457587
14	0x3df8314f	0.1211878
15	0xbdef36c3	-0.11680367

DecList.0.bn.weight f4 [16]
0	0x3f92a8c1	1.145775
1	0x3f8ac6a2	1.0841868
2	0x3f7a3689	0.97739464
3	0x3f85fdfc	1.0468135
4	0x3f94bff8	1.1621084
5	0x3f96e939	1.1789924
6	0x3f814ba4	1.0101209
7	0x3f754712	0.9581157
8	0x3f986dd1	1.1908513
9	0x3f970e28	1.1801195
10	0x3f8607fd	1.0471188
11	0x3f91b8c9	1.1384517
12	0x3fa0f890	1.2575855
13	0x3f8e8107	1.1133126
14	0x3f80023d	1.0000683
15	0x3f98fc32	1.1951964

DecList.0.bn.bias f4 [16]
0	0x3d78f06a	0.06077615
1	0x3e23b711	0.15987803
2	0x3e30d167	0.1726738
3	0x3e5b26d2	0.21401528
4	0x3e8a6608	0.2703097
5	0x3e46c5eb	0.19411437
6	0x3db0ef85	0.08639435
7	0xbdc13cf4	-0.09435454
8	0xbdf5ec78	-0.120079935
9	0xbdbd9b46	-0.09258132
10	0xbd9201ee	-0.07129274
11	0xbe912554	-0.28348792
12	0x3eb5ec52	0.3553186
13	0xbd67f878	-0.056633443
14	0x3ea9d3e2	0.33169466
15	0x3e8c11bc	0.2735728

DecList.0.bn.running_mean f4 [16]
0	0xbec6e8c2	-0.38849455
1	0xbdb4261c	-0.08796331
2	0xbe563bb7	-0.20921217
3	0xbe019507	-0.12654506
4	0xbf06f304	-0.5271456
5	0xbe1cc159	-0.15308131
6	0xbefd5cbf	-0.49484822
7	0xbecd353d	-0.4007968
8	0xbec96804	-0.3933717
9	0xbebc52d1	-0.36781934
10	0xbed69d18	-0.41916728
11	0xbf522574	-0.820884
12	0xbf292e2f	-0.66086096
13	0x3dbb1603	0.09135058
14	0x3d8e2d86	0.06942277
15	0xbf48d2bb	-0.7844655

DecList.0.bn.running_var f4 [16]
0	0x3f341556	0.70345056
1	0x3f43868f	0.76377195
2	0x3fae99e2	1.3640711
3	0x3f069978	0.52577925
4	0x3f7d162d	0.9886196
5	0x3f4950cb	0.78638905
6	0x3f2a7f2f	0.66600317
7	0x3f529d4d	0.8227127
8	0x3f2ce92c	0.6754329
9	0x3f2d9c71	0.67816836
10	0x3f86c65f	1.0529288
11	0x3f1fdce9	0.6244646
12	0x401350bb	2.3018024
13	0x3f41547b	0.7551953
14	0x3f2a6c9a	0.6657196
15	0x3fc84914	1.5647302

DecList.1.conv.weight f4 [16, 8, 4]
0	0xbbb30236	-0.00546291
1	0x3e91725a	0.28407556
2	0x3dd9fe3a	0.10644193
3	0xbd3a5323	-0.04548944
4	0xbca3579c	-0.019939236
5	0x3e586daa	0.21135584
6	0x3da07e4e	0.07836591
7	0x3e1cbfdf	0.15307568
8	0xbd5cb72f	-0.053885635
9	0x3dbeed25	0.093225755
10	0x3e3fab8c	0.18717784
11	0xbc91aa1e	-0.017781314
12	0x3d06e6c2	0.03293491
13	0x3d89e617	0.06733339
14	0x3e5d6e70	0.2162416
15	0xbc570bd5	-0.01312538
16	0x3a7e4018	0.0009698882
17	0xbd041555	-0.032246906
18	0xbb9d688d	-0.004803723
19	0xbe11c534	-0.14235383
20	0xbd550fc0	-0.052016973
21	0x3d95fb10	0.07323277
22	0x3c90b758	0.01766555
23	0xbd5cebbf	-0.053935762
24	0xbd0a7db4	-0.033811286
25	0xbe311325	-0.1729246
26	0xbe9b053f	-0.3027744
27	0xbe2854c5	-0.16438587
28	0xbe38d57e	-0.18050191
29	0xbe4932d3	-0.19648294
30	0xbbb8872f	-0.0056313495
31	0xbe1fd10f	-0.15607093
32	0x3bf0f793	0.007353732
33	0x3d967166	0.07345848
34	0xbe0b6f09	-0.13616575
35	0xbd74c5da	-0.059759
36	0x3d099ec7	0.033598687
37	0xbb54d58c	-0.0032475917
38	0x3bc3020c	0.0059511717
39	0xbdcff423	-0.10153987
40	0x3df7e9d3	0.12105145
41	0x3de31f98	0.110900104
42	0xbd4122d8	-0.04715237
43	0x3defaec4	0.11703256
44	0x3d21d633	0.039510917
45	0x3e43d3f8	0.19123828
46	0x3d20fd87	0.039304283
47	0x3b20824a	0.002449172
48	0x3df827d9	0.12116975
49	0x3e549eaf	0.20763658
50	0x3cbf2767	0.023334218
51	0xbd1694f8	-0.03676316
52	0xbd990a81	-0.074727066
53	0xbdb501ef	-0.088382594
54	0xbdaa194d	-0.08305607
55	0xbd7a3a9c	-0.06109105
56	0xbc130339	-0.008972936
57	0x3dfccf7e	0.123442635
58	0xbd88d3c2	-0.066810146
59	0x3c6f3f8e	0.014602555
60	0x3c1c33ca	0.009533832
61	0x3e7aff77	0.24511515
62	0x3d2fe26a	0.042940535
63	0x3e59f618	0.21285284
64	0xbc11e3b4	-0.008904386
65	0x3dea8739	0.11451573
66	0x3d8d1b1f	0.068899386
67	0xbd7957be	-0.060874693
68	0xbdc75c4c	-0.09734401
69	0x3e3cead5	0.18448956
70	0x3c942703	0.018085008
71	0x3e027b84	0.1274243
72	0xbd109ad1	-0.035303894
73	0xbd820a10	-0.063495755
74	0xbe8a9ac6	-0.27071208
75	0xbd0d80e9	-0.034546766
76	0xbc8b3e3a	-0.016997445
77	0x3da24096	0.07922475
78	0x3dc8b24f	0.09799635
79	0xbd5ffcb7	-0.054684367
80	0x3e1c060f	0.15236686
81	0x3e2e2778	0.17007244
82	0xbe5cad9c	-0.21550602
83	0xbe0bf5b9	-0.13667955
84	0xbd225943	-0.039635908
85	0x3d11fd9e	0.03564226
86	0xbe45391d	-0.19260068
87	0xbc261476	-0.010136714
88	0x3cd8440e	0.026399639
89	0xbe05054b	-0.129903
90	0xbe47ed7a	-0.19524184
91	0xbde6af24	-0.11263874
92	0xbea2fc8a	-0.31833297
93	0xbe261180	-0.16217613
94	0xbe086d77	-0.13323008
95	0xbe9736d4	-0.29534018
96	0xbdc3a69b	-0.09553262
97	0xbe2a95bc	-0.16658682
98	0xbd4b2bc8	-0.0496023
99	0xbde5acde	-0.112146124
100	0x3e706c7c	0.23478884
101	0xbd8fb7cd	-0.07017479
102	0x3c8e9f9e	0.017410096
103	0xbc97a6b2	-0.018512104
104	0x3d3b0533	0.045659255
105	0xbe34745e	-0.17622516
106	0xbe3e5caa	-0.18590036
107	0xbd6a7d3b	-0.057248335
108	0x3deb36af	0.114850394
109	0xbd805119	-0.06265468
110	0xbe01c564	-0.12672955
111	0xbebe29fb	-0.37141404
112	0xbca0f258	-0.019646809
113	0x3d650642	0.05591417
114	0xbdcd1aba	-0.10014863
115	0xbd70e0a4	-0.058807984
116	0x3d184391	0.03717381
117	0x3e056fd9	0.13030948
118	0x3dabec59	0.08394689
119	0x3c7234be	0.0147830825
120	0x3de87820	0.11351037
121	0x3d5b97fe	0.053611748
122	0x3e126373	0.1429575
123	0x3d0ece85	0.03486492
124	0x3d5347c8	0.051582128
125	0xbd088690	-0.033331454
126	0x3d86b002	0.065765396
127	0x3cf8dbf7	0.030378325
128	0x3d87ad49	0.066248484
129	0x3dcba2de	0.09943174
130	0x3dcb0479	0.099129625
131	0xbda028ad	-0.07820258
132	0xbd9b8fc2	-0.07595779
133	0x3ca9600b	0.02067568
134	0xbdaa2163	-0.08307149
135	0xbe3732ff	-0.17890547
136	0xbd1a8865	-0.037727732
137	0x3e0f7532	0.1400955
138	0xbe0ed02a	-0.13946596
139	0x3dfa46fb	0.1222057
140	0xbdb63f17	-0.08898752
141	0xbde08d69	-0.10964472
142	0xbdc02bb6	-0.09383337
143	0x3c4d68b8	0.012537174
144	0x3de33fe0	0.110961676
145	0x3d68cf35	0.056838233
146	0xbc522854	-0.012826998
147	0xbe2b59f9	-0.1673354
148	0x3d590c49	0.05299023
149	0xbd25e0fd	-0.04049777
150	0x3b62f0ac	0.0034628315
151	0x3bf2b831	0.0074072112
152	0xbdcd68cf	-0.10029756
153	0xbba7b40b	-0.0051178983
154	0xbd47773c	-0.048697695
155	0x3e091650	0.13387418
156	0x3c76bc59	0.015059554
157	0x3e530d82	0.20610622
158	0x3e463b7a	0.19358626
159	0x3e5684b5	0.20949061
160	0x3b59f13f	0.0033255366
161	0x3d09533a	0.033526637
162	0x3d57a08d	0.052643348
163	0x3d73c043	0.059509527
164	0xbd5d6da9	-0.05405966
165	0x3c35f669	0.011106112
166	0x3dcc58ea	0.099778965
167	0x3e10013b	0.1406297
168	0x3d4d0c0a	0.05006031
169	0x3dfbd0b9	0.1229567
170	0xbeb65d75	-0.35618177
171	0x3cf9507a	0.030433882
172	0x3dd2150e	0.10257922
173	0x3ddf0816	0.10890214
174	0x3dd7801a	0.1052248
175	0xbca6b3e2	-0.020349447
176	0x3de51983	0.111865066
177	0x3e057a70	0.13034987
178	0x3e374134	0.17895967
179	0xbd3bdbda	-0.045863964
180	0xbe360847	-0.17776595
181	0xbd0a01ce	-0.033693127
182	0x3e0b9c64	0.13633877
183	0xbe050d39	-0.12993325
184	0x3e401e1e	0.18761489
185	0x3df5319b	0.11972352
186	0xbe75953f	-0.23982714
187	0x3debb518	0.1150915
188	0xbe34b8a5	-0.17648561
189	0xbca2dbb2	-0.01988015
190	0xbd5ff191	-0.054673735
191	0x3c7d06b6	0.015443495
192	0xbdd25739	-0.10270543
193	0xbd69324d	-0.056932736
194	0xbdba569e	-0.09098552
195	0xbca5a5f2	-0.02022073
196	0x3e0ee2ad	0.13953657
197	0x3d34d7e4	0.0441512
198	0xbdaefc04	-0.08544162
199	0x3e277ffc	0.16357416
200	0x3e6b496d	0.22977228
201	0x3dbfb336	0.09360354
202	0xbd807c60	-0.06273723
203	0x3beccd09	0.0072265905
204	0x3e1a8840	0.15091038
205	0x3db1c6ed	0.0868052
206	0x3e11872e	0.14211723
207	0xbcd98b68	-0.026555732
208	0x3e1ee20f	0.15515922
209	0x3c5c92ff	0.013462781
210	0xbd7519a9	-0.059838925
211	0x3d4e5e81	0.050383095
212	0xbc0546eb	-0.008134584
213	0xbd88951c	-0.06669065
214	0x3c79acf2	0.015238987
215	0x3d8ab68a	0.06773098
216	0xbe136810	-0.14395165
217	0x3d2a609f	0.04159605
218	0xbe1ad7ec	-0.1512143
219	0x3d105ec7	0.035246637
220	0x3c727fb2	0.014800953
221	0x3d3b6a57	0.04575571
222	0xbcb86f44	-0.022513993
223	0xbdb114e4	-0.08646563
224	0xbd82e736	-0.06391756
225	0x3db97162	0.09054829
226	0x3cd64218	0.026154563
227	0xbdc52deb	-0.09627899
228	0xbe0ebc78	-0.13939083
229	0xbde3794a	-0.111071184
230	0xbcb2ecc4	-0.021841414
231	0x3d41b08e	0.047287516
232	0xbde811c3	-0.11331513
233	0xbdd03c10	-0.10167706
234	0xbcafbe92	-0.021453176
235	0x3d01ec6d	0.031719614
236	0xbdcd768b	-0.10032376
237	0x3daa5b5e	0.08318208
238	0xbd24d61a	-0.040243246
239	0x3a69bca1	0.00089163525
240	0x3e1bdc90	0.15220857
241	0xbdecc03f	-0.115601055
242	0xbd0cd400	-0.034381866
243	0xbdbe1b77	-0.09282582
244	0x3e44485f	0.19168232
245	0x3e68b7b5	0.22726329
246	0x3e5de2dd	0.21668573
247	0xbc87e22c	-0.01658734
248	0x3e3d0bd6	0.18461546
249	0xbd11e988	-0.035623103
250	0xbe14611d	-0.14490171
251	0x3d14232d	0.03616636
252	0x3d4a75c5	0.04942872
253	0xbcb32013	-0.02186588
254	0x3e444791	0.19167925
255	0xbcbb08ad	-0.022831285

DecList.1.conv.bias f4 [8]
0	0x3c300e50	0.0107456
1	0xbe0350ce	-0.12823793
2	0x3db938fa	0.090440705
3	0xbafdd8f1	-0.0019367022
4	0x3d876acd	0.066121675
5	0xbe0a87ad	-0.13528319
6	0xbe03d8dd	-0.12875696
7	0xbe2aefc3	-0.16693024

DecList.1.bn.weight f4 [8]
0	0x3fb7dc33	1.4364074
1	0x3f9b09ec	1.2112403
2	0x3fc1a68e	1.5128953
3	0x3fabefc9	1.3432552
4	0x3f78e816	0.97229135
5	0x3f8c30ea	1.0952427
6	0x3f9a5c45	1.2059408
7	0x3fac749e	1.3473089

DecList.1.bn.bias f4 [8]
0	0x3e784b8f	0.24247573
1	0x3eb88b5d	0.36043826
2	0x3f366d47	0.71260494
3	0x3ec31c74	0.38107646
4	0x3e207150	0.15668225
5	0xbe155ef9	-0.1458701
6	0x3ec62fa8	0.38708234
7	0x3eba82e5	0.3642799

DecList.1.bn.running_mean f4 [8]
0	0xbf4cebc7	-0.8004727
1	0x3f1fb24d	0.6238144
2	0xbee98694	-0.45610487
3	0x3da55a76	0.08073895
4	0xbdd68019	-0.104736514
5	0xbe45fa8e	-0.1933386
6	0xbf9cdf51	-1.2255651
7	0x3d1ae87a	0.037819363

DecList.1.bn.running_var f4 [8]
0	0x3e35eff2	0.17767313
1	0x3f98f1c5	1.1948782
2	0x3fed2340	1.8526382
3	0x3f57d98e	0.8431634
4	0x3f53977b	0.82653016
5	0x3f121307	0.57060283
6	0x4075ee61	3.8426745
7	0x3f321f80	0.69579315

DecList.2.conv.weight f4 [8, 4, 4]
0	0xbe6c595f	-0.23080967
1	0x3aa25ea2	0.0012387822
2	0x3e89cfee	0.2691645
3	0xbd0143dc	-0.031558856
4	0xbe160a24	-0.14652306
5	0xbd97e6e7	-0.07417088
6	0x3d64b3d7	0.05583557
7	0xbcf0d4ef	-0.02939841
8	0xbe480a9d	-0.19535299
9	0x3da924d8	0.082589805
10	0x3ddbae39	0.1072659
11	0x3b97d585	0.004633608
12	0x3ceef88a	0.029171247
13	0x3da63052	0.08114685
14	0xbe013123	-0.126164
15	0xbd1b96e6	-0.037985705
16	0x3dbec717	0.09315317
17	0x3e4dbe9b	0.20092241
18	0x3c9fe6c3	0.019519215
19	0x3e91f847	0.28509733
20	0x39abe9f6	0.00032789976
21	0x3e2ae754	0.16689807
22	0xbdadbc82	-0.08483221
23	0x3eb6dfc0	0.35717583
24	0xbe202d39	-0.15642251
25	0xbe1536fb	-0.14571755
26	0x3d1af54d	0.037831593
27	0x3ea09a29	0.31367615
28	0xbe48875f	-0.1958289
29	0x3e28b4c0	0.164752
30	0x3e03af61	0.1285987
31	0x3ebde928	0.37091947
32	0xbdd58e57	-0.1042754
33	0x3d9379db	0.072009765
34	0xbde2e37a	-0.11078544
35	0x3e0ae438	0.13563621
36	0xbe5bbb8c	-0.21458262
37	0x3e3780ad	0.1792018
38	0xbdaf92fb	-0.08572956
39	0x3e41eb11	0.18937327
40	0xbeeb686d	-0.45978108
41	0xbd9240c4	-0.07141259
42	0x3e67dc6d	0.2264268
43	0x3ec53abd	0.38521376
44	0xbd9c974f	-0.07646047
45	0x3ecf429c	0.40480506
46	0x3e15ce64	0.14629513
47	0x3e207fd8	0.15673769
48	0xbe267d80	-0.16258812
49	0x3e8986bd	0.2686061
50	0xbd139401	-0.03602982
51	0x3d8f27e3	0.0699003
52	0xbdac5bc1	-0.08415938
53	0x3e914f0d	0.28380623
54	0xbd3d9648	-0.046285897
55	0x3d5742cf	0.052553948
56	0x3d9181ae	0.071048126
57	0x3d8f28d8	0.06990212
58	0xbe0bcedd	-0.13653131
59	0x3a905b49	0.0011013533
60	0x3dfb6d6d	0.12276731
61	0x3e861dbf	0.2619457
62	0x3da1c1ef	0.07898318
63	0x3e46401a	0.1936039
64	0xbe224e3a	-0.15850154
65	0x3d863aac	0.065541595
66	0xbb1c7b37	-0.0023877153
67	0xbd59082f	-0.05298632
68	0x3cf7bf2e	0.030242529
69	0x3a25937b	0.0006316227
70	0x3db9c38d	0.090705015
71	0x3d1a9319	0.03773794
72	0x3e9b5ee3	0.3034583
73	0x3e90748a	0.28213912
74	0xbea50ce5	-0.322364
75	0xbe2e3303	-0.17011647
76	0x3e3f7ba4	0.18699509
77	0x3e0ed568	0.13948596
78	0xbe1b1955	-0.15146382
79	0x3c3d300e	0.011547102
80	0xbe8f2002	-0.27954108
81	0x3c8a14cf	0.016855625
82	0x3e64bcd0	0.22337651
83	0x3b9fa73a	0.00487223
84	0x3dff90fc	0.124788254
85	0x3e3ffb21	0.18748142
86	0x3e6e6d82	0.23283961
87	0x3d2e8c66	0.042614363
88	0xbd3c7abe	-0.046015494
89	0xbe6d3426	-0.23164424
90	0x3bc7e972	0.006100827
91	0xbd0a32da	-0.033739902
92	0xbdc5af69	-0.096525975
93	0xbe056a2c	-0.13028783
94	0xbe07be21	-0.13256122
95	0xbe005aed	-0.12534685
96	0xbe02f067	-0.12787019
97	0x3dbe20f3	0.09283628
98	0xbe94cc77	-0.29062244
99	0x3e64b3b7	0.22334181
100	0xbd9e4012	-0.07727064
101	0xbb3839d5	-0.0028110642
102	0xbe5f749d	-0.21821828
103	0x3e3e4d6a	0.18584219
104	0x3e0eae90	0.13933778
105	0xbdf47038	-0.119354665
106	0x3c4e3ae8	0.0125872865
107	0x3d764c40	0.06013131
108	0xbc484971	-0.012224541
109	0x3e04e9d1	0.12979819
110	0x3d89e53b	0.06733175
111	0x3da0385f	0.07823252
112	0xbe9047bd	-0.28179732
113	0xbe354218	-0.17700994
114	0xbe59301e	-0.21209762
115	0xbda39c27	-0.07988768
116	0xbdb6cb53	-0.089255
117	0xbe912ecb	-0.28356013
118	0xbd6ba66f	-0.05753177
119	0xbd9258f7	-0.07145875
120	0x3df6c716	0.120496914
121	0x3da16f7c	0.07882592
122	0x3dbd0ccd	0.09230957
123	0x3e06b8b6	0.13156399
124	0xbc944771	-0.018100472
125	0xbe241390	-0.16023088
126	0x3d6b17ec	0.05739586
127	0xbc452667	-0.012033082

DecList.2.conv.bias f4 [4]
0	0x3dd53a7f	0.10411548
1	0xbe0dcc1a	-0.1384739
2	0x3d4b96fe	0.049704544
3	0x3d8ac6e6	0.06776218

DecList.2.bn.weight f4 [4]
0	0x3f6a091a	0.9142014
1	0x3f9d2766	1.2277648
2	0x3f6f5968	0.934958
3	0x3f542d29	0.8288141

DecList.2.bn.bias f4 [4]
0	0xbd6b2177	-0.05740496
1	0x3f0a07d1	0.53918177
2	0x3ebf53f1	0.3736873
3	0x3f5ed31c	0.8704088

DecList.2.bn.running_mean f4 [4]
0	0xbd3f16da	-0.046652652
1	0x3d882ba7	0.06648951
2	0x3eb0967e	0.34489816
3	0x3f8523df	1.0401572

DecList.2.bn.running_var f4 [4]
0	0x401752f4	2.364438
1	0x3fba4aae	1.455404
2	0x3fe8836d	1.8165108
3	0x3f95d2f5	1.1705004

DecList.3.conv.weight f4 [4, 2, 4]
0	0x3db64f4e	0.08901845
1	0x3f041e3a	0.5160862
2	0x3f387387	0.7205128
3	0x3e8fcfb6	0.28088158
4	0xbe6544e9	-0.22389568
5	0xbe332542	-0.17494681
6	0x3d512b21	0.05106652
7	0x3cc6ae21	0.024252953
8	0x3d0e84be	0.03479456
9	0xbe25e25d	-0.16199632
10	0xbe137905	-0.14401634
11	0x3d640393	0.05566747
12	0xbe656faf	-0.22405885
13	0xbe9259a5	-0.28584018
14	0xbe8764ab	-0.2644399
15	0xbe48baeb	-0.19602554
16	0xbd8def21	-0.06930376
17	0xbdc51f55	-0.09625117
18	0xbd81b05a	-0.063324645
19	0xbd5cbaaf	-0.053888973
20	0x3c6ed1fb	0.01457643
21	0x3d9d33f8	0.07675928
22	0x3eb1cec7	0.3472807
23	0x3eafa7be	0.34307665
24	0x3e774b45	0.24149807
25	0x3e85ecc1	0.2615719
26	0x3d9b86a2	0.075940385
27	0x3da26cd5	0.07930914
28	0x3e9eef34	0.31041873
29	0x3ea8ff2f	0.3300719
30	0x3d8a1cef	0.067438
31	0xbcbab0df	-0.022789417

DecList.3.conv.bias f4 [2]
0	0x3e9e70f5	0.30945554
1	0x3ea8f974	0.33002818

DecList.3.bn.weight f4 [2]
0	0x3f4837e8	0.78210306
1	0x3f5ec465	0.87018424

DecList.3.bn.bias f4 [2]
0	0x3cb52577	0.022112591
1	0x3d296568	0.041356474

DecList.3.bn.running_mean f4 [2]
0	0x3fe0820e	1.753969
1	0x3f0d3c46	0.55170095

DecList.3.bn.running_var f4 [2]
0	0x3e342244	0.17591196
1	0x3ebfa893	0.374333
