checkpoints/best_UNet_bw_snr-4.pth (torch, 69706 bytes, 69 tensors)

EncList.0.conv.weight f4 [4, 2, 3]
-0.12165514 -0.19598924 0.291338 0.26565817 0.12497021 0.026454918 0.37916556 0.37105876
0.3316751 -0.11276209 0.41377047 -0.10084528 -0.063570105 -0.1152582 0.336252 -0.43407884
-0.6169785 0.19045661 0.44969633 0.25396952 0.047513183 0.14683804 -0.20471549 0.14327256
00000000: 5426 f9bd 67b1 48be 412a 953e 5904 883e
00000010: 62f0 ff3d fcb7 d83c fd21 c23e 6afb bd3e
00000020: 52d1 a93e d0ef e6bd b9d9 d33e f887 cebd
00000030: 0b31 82bd 7e0c ecbd 3929 ac3e 953f debe
00000040: 4ef2 1dbf 0f07 433e 993e e63e 4b08 823e
00000050: 2f9d 423d b65c 163e f0a0 51be 0bb6 123e

EncList.0.conv.bias f4 [4]
0.43508434 -0.20213781 -0.22453232 -0.29305726
00000000: 60c3 de3e 37fd 4ebe cdeb 65be 9a0b 96be

EncList.0.bn.weight f4 [4]
0.7029228 0.74798214 1.07119 0.86082083
00000000: c0f2 333f c27b 3f3f c11c 893f c15e 5c3f

EncList.0.bn.bias f4 [4]
0.18404329 0.09994921 -0.08263815 0.27647614
00000000: d875 3c3e 2cb2 cc3d 313e a9bd 488e 8d3e

EncList.0.bn.running_mean f4 [4]
0.54502565 -0.30484176 -0.45811334 -0.3782428
00000000: cd86 0b3f 3814 9cbe d58d eabe 0aa9 c1be

EncList.0.bn.running_var f4 [4]
0.21997556 1.3018321 0.6093251 0.558433
00000000: 4641 613e 6fa2 a63f bbfc 1b3f 77f5 0e3f

EncList.1.conv.weight f4 [8, 4, 3]
-0.17498514 0.18176363 -0.08118043 0.12758292 -0.12450747 -0.0330274 -0.35719493 -0.18465099
0.07048867 0.23282515 0.2655955 -0.08429012 -0.14883891 -0.26403746 -0.289222 0.019229427
0.035901837 0.084643126 0.19375555 0.32127878 -0.062628366 0.057189263 -0.14081702 -0.2933645
0.0039426717 -0.25341976 -0.058864206 0.17568076 0.195365 0.20033881 -0.09835587 0.0019168667
0.17887433 -0.055991724 -0.032157768 0.14280064 -0.12124892 0.009265506 0.19577755 -0.18505076
0.13141534 0.39129713 0.2939002 0.17108662 0.04810202 0.20161086 0.06333005 0.025836071
0.060410958 -0.17162898 0.39371312 0.29772455 0.1801363 0.16268155 -0.3349572 -0.13906454
-0.066834345 -0.13206504 -0.17097281 0.19700381 0.16332722 -0.30360574 0.1280977 0.13099268
0.1912368 0.19732495 -0.07337749 -0.11634993 0.011687308 0.12959304 0.020633237 -0.04977769
-0.104280554 0.02345852 0.014441855 0.0024595596 -0.13823159 0.020928506 0.08710986 0.02055896
-0.2651745 -0.32082015 -0.14362176 -0.07518226 0.1294936 0.21400179 0.07517806 0.13644472
0.2255497 0.32118455 0.05049377 0.07594701 -0.018225672 0.24554732 0.12270014 0.3180915
00000000: 4e2f 33be 3f20 3a3e ed41 a6bd 19a5 023e
00000010: c6fd febd bd47 07bd 41e2 b6be 2615 3dbe
00000020: 5d5c 903d b769 6e3e 22fc 873e 4ca0 acbd
00000030: 3a69 18be eb2f 87be e814 94be 0887 9d3c
00000040: ce0d 133d 6059 ad3d db67 463e a77e a43e
00000050: 4d43 80bd 4a3f 6a3d 5632 10be df33 96be
00000060: 8731 813b 3cc0 81be 981b 71bd a8e5 333e
00000070: c30d 483e 9e25 4d3e cd6e c9bd 603f fb3a
00000080: d52a 373e 9457 65bd ddb7 03bd 553a 123e
00000090: 5b51 f8bd 59ce 173c e979 483e f27d 3dbe
000000a0: be91 063e 1958 c83e 167a 963e 5531 2f3e
000000b0: a006 453d 1473 4e3e 2fb3 813d 2ba6 d33c
000000c0: 7b71 773d 82bf 2fbe c494 c93e 5a6f 983e
000000d0: a675 383e fe95 263e 837f abbe ef66 0ebe
000000e0: 72e0 88bd 0f3c 07be 7f13 2fbe 5ebb 493e
000000f0: 403f 273e 3672 9bbe 0b2c 033e f222 063e
00000100: 94d3 433e 8d0f 4a3e f046 96bd df48 eebd
00000110: 1f7c 3f3c 0ab4 043e 0907 a93c b1e3 4bbd
00000120: 0b91 d5bd 152c c03c 889d 6c3c 9030 213b
00000130: 958c 0dbe 4272 ab3c a766 b23d 446b a83c
00000140: f4c4 87be 8a42 a4be 9511 13be 28f9 99bd
00000150: f899 043e 4923 5b3e f4f6 993d 2ab8 0b3e
00000160: 80f6 663e 4d72 a43e 8ed2 4e3d 1b8a 9b3d
00000170: 014e 95bc c270 7b3e 364a fb3d e4dc a23e

EncList.1.conv.bias f4 [8]
0.07308478 0.047772534 0.09383714 0.1946856 0.0034794495 -0.22461547 0.17473148 -0.11116934
00000000: 79ad 953d 22ad 433d b02d c03d a95b 473e
00000010: 7a07 643b 9901 66be cfec 323e c0ac e3bd

EncList.1.bn.weight f4 [8]
0.99426526 1.1019812 0.8096522 0.90716887 0.8913203 0.86586815 1.0792528 0.88531363
00000000: 2b88 7e3f b80d 8d3f 5e45 4f3f 383c 683f
00000010: 912d 643f 89a9 5d3f f524 8a3f eaa3 623f

EncList.1.bn.bias f4 [8]
0.122052096 0.17643918 -0.028436169 0.21225132 -0.017252069 0.016786024 0.10801705 0.12498631
00000000: 73f6 f93d 79ac 343e f8f2 e8bc 6958 593e
00000010: 3654 8dbc d882 893c 0b38 dd3d d3f8 ff3d

EncList.1.bn.running_mean f4 [8]
0.10591391 -0.18240991 0.2298996 0.5939634 0.1132296 -0.060256243 -0.16953027 0.57741076
00000000: 64e9 d83d aac9 3abe cd6a 6b3e fc0d 183f
00000010: ece4 e73d 40cf 76bd 5899 2dbe 31d1 133f

EncList.1.bn.running_var f4 [8]
0.15277562 0.43784747 0.042192478 0.16148494 0.3264074 0.15051942 0.18895115 1.0247735
00000000: 3671 1c3e 8b2d e03e 05d2 2c3d 4f5c 253e
00000010: df1e a73e c321 1a3e 697c 413e c72b 833f

EncList.2.conv.weight f4 [16, 8, 3]
0.027889239 0.046051737 0.009501642 -0.078806184 -0.21116294 -0.13372765 -0.17251293 -0.07815093
-0.014702908 -0.042453747 -0.26753014 -0.11017539 0.13401167 0.09315817 -0.079356104 -0.12224326
-0.13005619 0.12284362 0.0039295526 0.10450946 0.16987346 0.09202766 -0.05892354 0.03231557
0.01795369 0.05074079 -0.08715858 0.2293389 0.12758504 0.06078839 -0.07785789 -0.101802334
0.12188761 0.12334798 -0.21940151 -0.04464149 -0.09829059 0.03560254 0.04939133 0.10971854
-0.28061193 0.09076117 0.29077995 0.012289396 -0.001371151 -0.17293602 0.11815187 0.2521342
0.15204664 0.10737693 -0.053809524 -0.032390706 -0.22259931 -0.09475938 -0.0035348802 0.12464712
-0.027751978 0.11588673 0.17389306 0.095943436 0.20881249 -0.068508014 0.08241196 0.041691836
0.2352421 -0.17494541 0.016345749 -0.30763447 -0.11454139 -0.08477499 0.04798943 -0.084637195
0.032602023 -0.059792146 -0.15436095 -0.08795875 0.25176108 0.29524323 -0.04637153 0.17010784
-0.04579486 0.027865095 0.10568208 0.12723076 -0.0018402027 0.13792494 -0.10853597 -0.13478285
-0.20360164 -0.07629127 0.0010242907 0.060257282 -0.083325915 -0.043820273 -0.15120378 -0.11819447
-0.25237125 -0.07767758 0.077502795 -0.18160625 -0.13089363 -0.2987062 0.06948003 0.094336845
-0.1378521 0.10403706 0.024435056 0.19491355 -0.11430204 0.0749428 0.13742252 -0.1893084
0.075583264 -0.0039045706 -0.08905339 -0.056963548 -0.15635215 -0.018533725 0.02649783 0.21373054
0.17712882 0.062240854 0.011131752 -0.31664556 -0.17197903 -0.093176894 -0.013101464 -0.021107024
0.13312832 -0.08960143 -0.09541788 -0.113203436 -0.14385855 0.13333647 0.0399099 0.17031592
-0.04706013 -0.013593698 -0.16591524 -0.06701718 -0.046783436 0.06957794 0.11138545 0.18674193
-0.043774735 0.068520606 0.077129066 -0.2763694 -0.06369371 -0.041642454 0.016230758 0.10063033
0.08404761 -0.16083278 0.118534 0.14909527 -0.18584056 -0.12784702 0.18771867 0.029409286
0.06456073 0.15158014 0.26233855 0.12849417 -0.19130315 -0.018774357 -0.043145932 0.12020364
0.0128278155 -0.23539422 -0.14905787 -0.02663437 0.13879812 -0.16034791 -0.084040426 0.12259499
0.05174085 0.068686515 0.058757447 0.090515725 -0.11191193 0.129664 -0.15227677 0.19591741
-0.14322242 0.20658761 -0.13014756 -0.094101965 -0.016956018 -0.022057991 -0.22026277 -0.027991058
-0.02015113 -0.07076826 -0.083461635 0.32676643 -0.021243237 -0.2353217 -0.002407463 0.009039504
-0.017620001 0.11209852 0.015197985 -0.08315738 0.10165935 -0.03251905 0.03743925 -0.042498857
-0.14100298 -0.019685749 0.0726287 0.0646951 0.07180474 -0.19404772 0.12777333 0.15929918
-0.14334755 0.19132176 0.19452849 -0.14752762 -0.2217903 0.11477247 0.022337757 0.0835472
0.14691256 -0.13176598 0.053227045 0.046703905 0.17007412 -0.14881699 0.16897848 -0.15289576
-0.0046868715 -0.027675444 -0.18368703 0.11989452 0.16746263 0.13528031 -0.022120899 0.02787079
0.06290456 0.16478781 0.052307725 -0.064653665 0.019915769 -0.08485478 0.19433646 0.20680304
0.06314855 -0.0009710782 0.09311056 -0.020941418 -0.070213094 -0.10867308 -0.008852203 0.21457615
00000000: f977 e43c bfa0 3c3d c6ac 1b3c 2365 a1bd
00000010: 193b 58be e7ef 08be 3ba7 30be 980d a0bd
00000020: 77e4 70bc fbe3 2dbd b6f9 88be a3a3 e1bd
00000030: 5b3a 093e b6c9 be3d 7485 a2bd ad5a fabd
00000040: 732d 05be 7095 fb3d 7ac3 803b 0e09 d63d
00000050: 4ff3 2d3e ff78 bc3d cf59 71bd 555d 043d
00000060: 9e13 933c 93d5 4f3d 3380 b2bd d1d7 6a3e
00000070: a7a5 023e 3ffd 783d f573 9fbd be7d d0bd
00000080: 36a0 f93d de9d fc3d caaa 60be ffd9 36bd
00000090: 944c c9bd f8d3 113d 904e 4a3d 1db4 e03d
000000a0: 5eac 8fbe fee0 b93d 1ce1 943e 7659 493c
000000b0: 31b8 b3ba 2416 31be 9cf9 f13d bc17 813e
000000c0: 1db2 1b3e 70e8 db3d 6067 5cbd 1eac 04bd
000000d0: 13f1 63be 3511 c2bd 73a9 67bb fd46 ff3d
000000e0: 1e58 e3bc 0656 ed3d 0611 323e fe7d c43d
000000f0: f1d2 553e ee4d 8cbd 9ac7 a83d 0fc5 2a3d
00000100: 4ee3 703e e424 33be 85e7 853c 4482 9dbe
00000110: ad94 eabd 839e adbd 9190 443d 4456 adbd
00000120: b389 053d 9ce8 74bd cc10 1ebe b823 b4bd
00000130: d4e6 803e 1f2a 973e 13f0 3dbd c030 2e3e
00000140: 6493 3bbd 5745 e43c d96f d83d c848 023e
00000150: f532 f1ba 323c 0d3e 1b48 debd 8404 0abe
00000160: f37c 50be 993e 9cbd 7e41 863a 57d0 763d
00000170: c7a6 aabd e37c 33bd 2ad5 1abe f10f f2bd
00000180: ce36 81be 6c15 9fbd c9b9 9e3d fdf6 39be
00000190: fb08 06be 05f0 98be 8c4b 8e3d ad33 c13d
000001a0: 1a29 0dbe 6211 d53d 072c c83c 6b97 473e
000001b0: 3017 eabd 9c7b 993d 7db8 0c3e 10da 41be
000001c0: 66cb 9a3d d3e3 7fbb a061 b6bd 9c52 69bd
000001d0: c71a 20be 0ad4 97bc fa11 d93c 2edc 5a3e
000001e0: 4261 353e 44f0 7e3d f461 363c 5e1f a2be
000001f0: 451b 30be 87d3 bebd 86a7 56bc a3e8 acbc
00000200: ca52 083e f480 b7bd 736a c3bd 34d7 e7bd
00000210: a84f 13be 5b89 083e 9078 233d 4c67 2e3e
00000220: 1fc2 40bd 1ab8 5ebc afe5 29be 4e40 89bd
00000230: fd9f 3fbd e17e 8e3d 0e1e e43d 4739 3f3e
00000240: 234d 33bd 8854 8c3d d8f5 9d3d 4a80 8dbe
00000250: d971 82bd 4791 2abd 5ef6 843c 4617 ce3d
00000260: 2721 ac3d 59b1 24be f4c1 f23d 6eac 183e
00000270: fd4c 3ebe 54ea 02be 5339 403e beeb f03c
00000280: 6a38 843d d337 1b3e 3d51 863e fa93 033e
00000290: f9e4 43be aecc 99bc cab9 30bd 532d f63d
000002a0: c22b 523c 2f0b 71be a0a2 18be 5330 dabc
000002b0: 1821 0e3e 3e32 24be 631d acbd 1513 fb3d
000002c0: 37ee 533d 84ab 8c3d a6ab 703d 4f60 b93d
000002d0: 1532 e5bd a4c6 043e 71ee 1bbe 939e 483e
000002e0: e6a8 12be b48b 533e 6745 05be 88b8 c0bd
000002f0: 59e7 8abc f6b2 b4bc 908c 61be 814d e5bc
00000300: fc13 a5bc f3ee 90bd efed aabd ee4d a73e
00000310: 4c06 aebc 2cf8 70be 87c6 1dbb 6e1a 143c
00000320: d257 90bc e993 e53d f800 793c 6b4e aabd
00000330: c732 d03d b232 05bd e659 193d 4813 2ebd
00000340: 1663 10be 0244 a1bc 5bbe 943d dd7e 843d
00000350: 5d0e 933d 72b4 46be 03d7 023e 531f 233e
00000360: b3c9 12be dae9 433e 7a32 473e 7b11 17be
00000370: ff1c 63be d40d eb3d acfd b63c cb1a ab3d
00000380: 3f70 163e a9ed 06be 9a04 5a3d 984c 3f3d
00000390: e927 2e3e 7b63 18be b208 2d3e b590 1cbe
000003a0: 5494 99bb 9db7 e2bc 7418 3cbe 428b f53d
000003b0: 537b 2b3e ec86 0a3e e336 b5bc 4851 e43c
000003c0: 1bd4 803d 23be 283e a040 563d 2469 84bd
000003d0: 6526 a33c 58c8 adbd 2300 473e 2dc4 533e
000003e0: 0754 813d f48f 7eba c0b0 be3d 568d abbc
000003f0: e2cb 8fbd fe8f debd d508 11bc dab9 5b3e

EncList.2.conv.bias f4 [16]
0.1201145 0.05947947 0.038990546 0.16879904 0.18198276 0.002515253 -0.040128633 -0.017234536
-0.012320226 0.20855863 -0.02179671 0.16258778 0.16076142 0.086406566 -0.08324432 -0.20491044
00000000: 97fe f53d bfa0 733d 8db4 1f3d a8d9 2c3e
00000010: b059 3a3e f1d6 243b ec5d 24bd 712f 8dbc
00000020: c6da 49bc 6590 553e 048f b2bc 697d 263e
00000030: a49e 243e edf5 b03d ff7b aabd 0bd4 51be

EncList.2.bn.weight f4 [16]
1.13206 0.9943617 0.95528376 1.0442812 0.9661916 0.9852033 0.900951 0.8921892
1.0612504 0.82976097 0.852892 1.0286274 0.9226815 0.8652117 0.8599246 0.90165704
00000000: 58e7 903f 7d8e 7e3f 7a8d 743f 02ab 853f
00000010: 5558 773f 4936 7c3f baa4 663f 8366 643f
00000020: 0ed7 873f 376b 543f 2157 5a3f 10aa 833f
00000030: db34 6c3f 847e 5d3f 0524 5c3f ffd2 663f

EncList.2.bn.bias f4 [16]
0.124503896 -0.052660458 0.037354253 0.052992135 0.24066254 0.13524154 0.034473713 0.113278225
0.046280235 -0.06101692 0.0059068226 -0.01032474 0.015562029 -0.044709068 -0.04387051 0.024554482
00000000: e6fb fe3d 7eb2 57bd c600 193d 480e 593d
00000010: 3e70 763e c27c 0a3e 4f34 0d3d 6afe e73d
00000020: 5890 3d3d e1ec 79bd 058e c13b 1929 29bc
00000030: e1f7 7e3c db20 37bd 90b1 33bd 7b26 c93c

EncList.2.bn.running_mean f4 [16]
-0.12607843 0.33016908 0.0140344 0.19354865 -0.12097189 -0.18882872 0.0778261 -0.22739838
0.031582955 0.35328358 0.017288923 0.010861643 0.13824151 0.425673 0.13400866 -0.16450457
00000000: b41a 01be ec0b a93e 8af0 653c 9e31 463e
00000010: 1cc0 f7bd 515c 41be 4a63 9f3d 1fdb 68be
00000020: 215d 013d 96e1 b43e 80a1 8d3c 08f5 313c
00000030: 2f8f 0d3e d0f1 d93e 9139 093e e373 28be

EncList.2.bn.running_var f4 [16]
0.20198335 0.12496805 0.49191904 0.32881242 0.29375848 0.49681926 0.24697736 0.033778165
0.055284675 0.1978899 0.16812855 0.19958177 0.06135351 0.19019525 0.57912356 0.14334857
00000000: b9d4 4e3e 40ef ff3d d0dc fb3e 1a5a a83e
00000010: 8367 963e 185f fe3e a2e7 7c3e f95a 0a3d
00000020: 2f72 623d a6a3 4a3e e429 2c3e 2a5f 4c3e
00000030: d14d 7b3d 8bc2 423e 7141 143f f8c9 123e

EncList.3.conv.weight f4 [32, 16, 3]
-0.080097355 -0.008996964 0.0005408715 -0.0057386076 -0.08901133 -0.10885059 -0.12438467 -0.10718421
-0.10747468 0.06339722 -0.012877166 -0.0074665723 -0.046926856 0.053213228 -0.014131242 -0.117678896
0.11794345 0.054016285 -0.013648439 -0.08115528 0.051024977 -0.1550587 -0.1846863 -0.163696
0.17187405 0.014781798 -0.06726956 0.12335172 -0.056686297 0.11316679 0.064075716 -0.15171883
-0.07831946 0.14903821 0.016926039 0.09233168 -0.11646049 -0.15913408 -0.11169367 -0.084016055
-0.14769252 -0.02669923 0.17159371 -0.09069508 -0.06738753 -0.09065496 -0.052833553 0.011418633
-0.13073057 -0.07676166 -0.028461784 0.0657028 -0.02870679 -0.2564835 -0.081589095 0.11859849
-0.09789392 0.0129559245 -0.030235467 -0.06340756 -0.23419708 -0.008931357 -0.05819018 -0.13136315
-0.026615169 -0.06543531 -0.22360873 -0.05606824 -0.12416858 0.06436936 0.035848342 0.010940901
0.029328262 -0.18082955 0.07117677 0.0029357367 0.024707386 -0.0878485 -0.057685647 -0.09977715
0.12273621 -0.028799193 -0.1377709 0.08759474 0.013238027 0.109426856 -0.07731274 0.026614752
-0.068935566 -0.014745182 0.012925718 -0.053411614 -0.03665363 0.0013634689 0.07809143 -0.035437077
-0.27686155 -0.048053205 0.15009414 0.18234302 0.0023892503 0.035629883 -0.06718794 0.055385534
0.02595426 0.16876668 0.13038974 -0.19647102 0.07485678 -0.07115744 -0.07309191 -0.11519396
-0.14550969 0.06082881 -0.07560827 0.060837094 0.16861023 0.056614716 -0.051185846 -0.004254558
-0.0035414598 0.22212544 0.009997044 -0.09628004 -0.12978049 -0.13616005 0.120463744 -0.09453348
-0.027973974 -0.030377787 0.16130573 0.13130979 -0.05104248 -0.076903306 0.008941933 0.1020418
0.0506237 0.058269292 -0.11161349 -0.049384583 0.048876952 0.12766697 0.009587043 -0.08259066
0.14435013 -0.05626819 -0.06250731 -0.061866842 -0.037777655 0.0059727156 0.08170108 0.024422085
-0.041547406 0.10081326 0.06761658 -0.13300622 -0.020979278 -0.061400503 -0.082585484 0.06451499
0.09039041 0.0043039005 -0.13702609 0.053225044 0.034037165 0.08795592 0.08481291 -0.16895849
0.0067892163 -0.12048107 0.21505694 0.10614084 0.09076374 -0.05470602 0.0021331788 0.024612706
-0.13601896 0.17083173 -0.02944509 0.130188 0.19579524 0.1657601 0.010171677 0.05707944
-0.070127234 0.04463443 0.17780232 -0.056254283 0.042002317 -0.04532347 -0.11763975 0.13884439
0.04444669 0.09108847 0.108830184 0.13558209 -0.016517859 0.012355307 -0.18585612 -0.0738833
-0.1865701 0.12404356 0.11042014 -0.13015081 0.03577006 0.05164889 0.16174003 -0.0355901
0.026113337 0.09349154 0.07077778 -0.054242164 0.018852094 -0.25433394 0.019584274 0.013081606
-0.02944039 0.020768108 0.054469444 0.010854178 0.022584166 0.12332158 -0.2392331 0.1443187
0.044307876 0.18396233 -0.029526146 -0.10315577 -0.2680015 -0.08883773 0.049195778 -0.13348044
-0.045593858 -0.069404796 -0.09192153 0.05932684 -0.060079433 0.080976844 -0.077509716 0.0393745
0.0049104346 0.1350161 0.15217188 -0.11773342 -0.14239746 -0.07193301 -0.0703799 0.06946789
-0.04107047 -0.13345382 -0.08394836 -0.06522126 -0.15898348 -0.03631865 0.1472572 0.009762344
00000000: 150a a4bd 0168 13bc 46c9 0d3a ee0a bcbb
00000010: 924b b6bd 0fed debd 64bd febd 6583 dbbd
00000020: af1b dcbd 67d6 813d c0fa 52bc 26aa f4bb
00000030: 6036 40bd 1df6 593d ba86 67bc a201 f1bd
00000040: 568c f13d 2e40 5d3d b49d 5fbc bd34 a6bd
00000050: 91ff 503d b5c7 1ebe 681e 3dbe ed9f 27be
00000060: c0ff 2f3e 5b2f 723c a0c4 89bd d49f fc3d
00000070: e42f 68bd fdc3 e73d 213a 833d 2e5c 1bbe
00000080: f465 a0bd 799d 183e 7aa8 8a3c 6418 bd3d
00000090: d682 eebd 0bf4 22be a7bf e4bd 9c10 acbd
000000a0: b53c 17be 58b8 dabc 43b6 2f3e 58be b9bd
000000b0: 7902 8abd 4fa9 b9bd ff67 58bd 3815 3b3c
000000c0: 3cde 05be 3835 9dbd b028 e9bc 318f 863d
000000d0: 812a ebbc ce51 83be 2f18 a7bd c4e3 f23d
000000e0: 9c7c c8bd 1645 543c 5fb0 f7bc d3db 81bd
000000f0: 5cd1 6fbe d454 12bc d458 6ebd 1084 06be
00000100: 0e08 dabc f302 86bd b0f9 64be d0a7 65bd
00000110: 194c febd 15d4 833d b6d5 123d 7741 333c
00000120: d341 f03c 622b 39be 20c5 913d 7d65 403b
00000130: 2567 ca3c eae9 b3bd c947 6cbd f657 ccbd
00000140: 1f5d fb3d 49ec ebbc d113 0dbe df64 b33d
00000150: 4fe4 583c 301b e03d 2456 9ebd 2e07 da3c
00000160: 172e 8dbd c795 71bc 64c6 533c 23c6 5abd
00000170: 1e22 16bd 6db6 b23a 66ee 9f3d 7826 11bd
00000180: ccc0 8dbe 70d3 44bd 47b2 193e 21b8 3a3e
00000190: f894 1c3b a4f0 113d d599 89bd f1db 623d
000001a0: 079e d43c 2cd1 2c3e e384 053e b32f 49be
000001b0: 834e 993d feba 91bd 36b1 95bd d0ea ebbd
000001c0: 7e00 15be a127 793d 82d8 9abd 5130 793d
000001d0: 29a8 2c3e d5e4 673d 40a8 51bd d269 8bbb
000001e0: d617 68bb da74 633e a4ca 233c 782e c5bd
000001f0: 2de5 04be 8a6d 0bbe b2b5 f63d c59a c1bd
00000200: ad29 e5bc d6da f8bc 542d 253e 1376 063e
00000210: eb11 51bd 7b7f 9dbd 2f81 123c 4bfb d03d
00000220: cc5a 4f3d c8ab 6e3d 9d95 e4bd 7d47 4abd
00000230: 3333 483d 21bb 023e f912 1d3c 4b25 a9bd
00000240: 85d0 133e 7979 66bd d503 80bd 1668 7dbd
00000250: bebc 1abd c5b6 c33b e552 a73d d310 c83c
00000260: 9d2d 2abd 2f77 ce3d 907a 8a3d c832 08be
00000270: bcdc abbc 187f 7bbd 9422 a9bd 6f20 843d
00000280: 9b1e b93d bc07 8d3b 9150 0cbe 8102 5a3d
00000290: 8e6a 0b3d 3c22 b43d 64b2 ad3d 7403 2dbe
000002a0: 1378 de3b c7be f6bd e337 5c3e 5e60 d93d
000002b0: 57e2 b93d 6b13 60bd cdcc 0b3b 96a0 c93c
000002c0: 8e48 0bbe 83ee 2e3e d436 f1bc 0150 053e
000002d0: 8c7e 483e 04bd 293e 1ba7 263c 22cc 693d
000002e0: de9e 8fbd 98d2 363d d011 363e e46a 66bd
000002f0: 9f0a 2c3d 1aa5 39bd 1ced f0bd 392d 0e3e
00000300: bb0d 363d 978c ba3d 5ce2 de3d 08d6 0a3e
00000310: 7650 87bc ea6d 4a3c 1151 3ebe 2150 97bd
00000320: 3b0c 3fbe 8d0a fe3d f423 e23d 4146 05be
00000330: a083 123d c98d 533d 2e9f 253e edc6 11bd
00000340: a3eb d53c 7e78 bf3d f1f3 903d 082d 5ebd
00000350: b56f 9a3c 0f38 82be 336f a03c 3b54 563c
00000360: f92c f1bc e121 aa3c 5a1b 5f3d b9d5 313c
00000370: 6e02 b93c 0690 fc3d 86f9 74be 48c8 133e
00000380: 2d7c 353d 9f60 3c3e d1e0 f1bc 5543 d3bd
00000390: 7e37 89be 8ef0 b5bd 8381 493d 19af 08be
000003a0: a0c0 3abd 1a24 8ebd 5b41 bcbd b300 733d
000003b0: da15 76bd 30d7 a53d 6abd 9ebd 2847 213d
000003c0: b6e7 a03b a941 0a3e f2d2 1b3e 381e f1bd
000003d0: a4d0 11be 9d51 93bd 5623 90bd 2e45 8e3d
000003e0: 8239 28bd 1ea8 08be 1eed abbd b992 85bd
000003f0: 91cc 22be ddc2 14bd 97ca 163e 3df2 1f3c

EncList.3.conv.bias f4 [32]
0.060283102 -0.086166374 0.10695976 0.094263 0.009269333 -0.050609577 -0.07020973 0.15902619
-0.060917854 0.118623324 0.020856652 0.1303111 -0.021005612 0.021263998 -0.09397228 -0.019563662
0.029380132 0.081619285 0.036330882 0.100341804 -0.028132614 -0.025695283 0.055216283 0.11701254
0.13209505 0.08177267 0.016108343 0.03361571 0.06638549 -0.17496817 0.12642927 -0.08766296
00000000: 6aeb 763d ff77 b0bd b80d db3d f60c c13d
00000010: 67de 173c fd4b 4fbd 1eca 8fbd c3d7 223e
00000020: 0085 79bd c9f0 f23d 92db aa3c 4670 053e
00000030: f613 acbc d631 ae3c 8a74 c0bd f943 a0bc
00000040: 9aae f03c 0328 a73d b1cf 143d 0180 cd3d
00000050: 5e76 e6bc ea7e d2bc 782a 623d 45a4 ef3d
00000060: ed43 073e 6e78 a73d a5f5 833c a0b0 093d
00000070: 1ef5 873d db2a 33be ad76 013e a388 b3bd

EncList.3.bn.weight f4 [32]
1.0478528 1.0434868 1.0243161 0.9151697 0.91219974 0.9351059 0.99030995 1.0218976
1.0156227 0.9652575 0.9109239 0.9554268 1.003535 0.89796776 0.99694985 0.96679187
0.9666295 0.9782486 1.014292 0.9840997 0.8596896 1.0523511 0.99800044 0.9580196
0.9194826 1.0393884 1.0260082 1.0078452 0.98339134 0.94930834 0.9808674 0.974265
00000000: 0a20 863f fa90 853f ca1c 833f 9048 6a3f
00000010: ec85 693f 1a63 6f3f f484 7d3f 8acd 823f
00000020: edff 813f 1e1b 773f 4f32 693f da96 743f
00000030: d673 803f 37e1 653f 1b38 7f3f ac7f 773f
00000040: 0875 773f 806e 7a3f 52d4 813f f5ed 7b3f
00000050: 9e14 5c3f 71b3 863f f57c 7f3f c640 753f
00000060: 3663 6b3f ae0a 853f 3d54 833f 1201 813f
00000070: 89bf 7b3f df05 733f 201a 7b3f 6e69 793f

EncList.3.bn.bias f4 [32]
0.009878393 0.021695372 -0.1245634 0.04401097 -0.047366466 -0.011347416 0.07210292 0.08988128
0.085261546 0.11292824 -0.04034143 -0.085029826 -0.035053432 -0.016848786 -0.00016383191 -0.06342861
0.027059209 -0.070043825 0.16283332 0.06729043 -0.032061942 0.07422749 0.07089973 -0.032618437
-0.11263972 0.123403504 0.14911528 0.039418485 0.024951696 0.08401543 -0.04774879 0.018304767
00000000: fcd8 213c 7eba b13c 191b ffbd d944 343d
00000010: 5703 42bd 83ea 39bc b2aa 933d ad13 b83d
00000020: 9b9d ae3d ec46 e73d 0e3d 25bd 1e24 aebd
00000030: 3094 0fbd 7706 8abc 4bca 2bb9 dce6 81bd
00000040: 46ab dd3c 2373 8fbd c7bd 263e 91cf 893d
00000050: 6253 03bd 9504 983d e133 913d e99a 05bd
00000060: a7af e6bd faba fc3d adb1 183e 4775 213d
00000070: 8067 cc3c 4810 ac3d 3c94 43bd e1f3 953c

EncList.3.bn.running_mean f4 [32]
-0.33652243 -0.74598604 0.17693406 0.34144017 0.08537044 -0.23079312 -0.6691489 0.10861533
-0.07159591 0.04601649 0.03467823 0.115506016 0.09283442 0.5082934 -0.48806342 -0.5869554
0.21294153 0.18051045 0.04243596 0.07511522 -0.015093508 -0.008398905 -0.16677818 0.24117652
0.6027085 -0.15913776 0.11665127 -0.36224332 -0.10914249 -0.5868416 0.26069683 -0.072569504
00000000: ab4c acbe f1f8 3ebf 342e 353e 3fd1 ae3e
00000010: b2d6 ae3d 0855 6cbe 584d 2bbf b771 de3d
00000020: e0a0 92bd c97b 3c3d c20a 0e3d 6b8e ec3d
00000030: f91f be3d 841f 023f 73e3 f9be b642 16bf
00000040: 580d 5a3e bbd7 383e 54d1 2d3d 02d6 993d
00000050: c34a 77bc 909b 09bc e6c7 2abe faf6 763e
00000060: 1b4b 1a3f 02f5 22be dce6 ee3d f577 b9be
00000070: 1986 dfbd 403b 16bf 0e7a 853e 529f 94bd

EncList.3.bn.running_var f4 [32]
0.36152035 0.33799958 0.2577596 0.07834134 0.18380043 0.30596808 1.1239386 0.0983195
0.09205776 0.13843435 0.16569121 0.07942076 0.19841816 0.18202025 0.4808618 0.093167506
0.2108781 0.23274101 0.14549594 0.15080565 0.13632199 0.4545402 0.17096977 0.11801324
0.26779178 0.47129172 0.22711049 0.587818 0.29381138 0.44263723 0.09076981 0.11672195
00000000: 3219 b93e 480e ad3e 11f9 833e 6d71 a03d
00000010: 2e36 3c3e d9a7 9c3e 38dd 8f3f bc5b c93d
00000020: c788 bc3d bcc1 0d3e f5aa 293e 5aa7 a23d
00000030: 212e 4b3e 8463 3a3e 8533 f63e 9bce be3d
00000040: 6ef0 573e a953 6e3e e3fc 143e cc6c 1a3e
00000050: fe97 0b3e 7eb9 e83e b312 2f3e edb0 f13d
00000060: 011c 893e 264d f13e a78f 683e 3e7b 163f
00000070: 726e 963e 59a1 e23e 86e5 b93d eb0b ef3d

DecList.0.conv.weight f4 [32, 16, 4]
-0.15776946 0.02638601 -0.06563256 -0.22276391 -0.011377329 -0.09373599 -0.16004872 0.04743391
0.15045743 -0.06168896 0.009436792 -0.030611133 -0.027579406 0.0377906 -0.18344831 -0.08138888
0.074701354 -0.10258349 0.08366333 -0.0009965895 -0.007208872 0.04686469 -0.07033335 0.11888678
0.09840401 0.076963834 -0.044781655 -0.004780468 0.027992945 -0.107225604 0.026198724 0.0016740882
-0.019600008 -0.022889573 -0.0007043466 -0.101687156 0.047463197 0.046646386 -0.18374917 -0.07307804
0.12502652 0.013377023 0.12192353 -0.0020892902 -0.027374683 0.004317627 -0.18995874 0.028682876
0.092763074 0.028686069 -0.049562886 -0.0003819228 0.043809354 0.010548674 0.085923955 -0.030715138
-0.002593409 0.029795766 0.06898738 -0.13101949 -0.068676606 -0.042145386 0.014648552 -0.09900372
-0.09133247 -0.083193675 0.047155302 -0.0529608 0.046636753 0.056791134 0.046297442 0.00045851455
0.047125053 0.085246846 -0.13128486 -0.04641041 0.12631783 -0.09022132 -0.16809885 -0.02242442
0.122791156 -0.03603286 -0.006324859 -0.17022362 0.051381726 -0.03702632 -0.024989424 0.012114226
0.0034265823 -0.098334506 -0.20725703 -0.18489696 -0.034058183 0.012325937 -0.10587489 0.012417255
0.044598136 0.09228178 -0.15538083 -0.1816629 -0.11832151 0.09373704 0.09378198 -0.17485213
-0.03634084 -0.14350416 0.08382209 -0.13384824 0.05320989 -0.020350868 -0.10383822 0.0068513574
-0.07950932 -0.16433668 -0.20411344 -0.07736639 0.032461803 0.12314114 -0.050042767 0.12871267
0.040805813 -0.030853761 -0.01772991 0.14918144 -0.114794 -0.049160145 -0.043107923 0.06578576
-0.13757919 -0.014058776 0.09553145 0.08007731 -0.07930892 -0.042829446 -0.068027094 0.012073858
-0.17870155 0.035121087 0.050826516 -0.011774313 -0.2512732 0.13929318 -0.06946358 0.017811801
-0.2149987 0.04695761 -0.08696707 -0.019585317 0.0094347885 -0.12931614 0.015582658 -0.09182659
-0.13318196 -0.13230251 0.16949554 0.03470427 -0.065805554 0.029331509 -0.051127315 -0.09468108
-0.103077956 0.0122867 0.052515358 -0.10329209 -0.014107172 -0.01695635 -0.03519407 0.06644751
-0.002721094 -0.050780255 -0.0010964001 0.078037955 -0.17369552 -0.025099471 -0.012909388 -0.038862206
-0.14201947 -0.041983426 -0.17477587 -0.0532727 -0.1042217 0.000666499 -0.051168032 -0.023232704
-0.1371914 -0.077952094 0.13259524 0.028414277 -0.060282953 0.020209907 -0.09380282 -0.010773345
-0.0020998497 -0.009471935 0.102836914 0.11692524 0.119467005 -0.024670439 0.06195276 -0.09226115
-0.08043505 0.010856051 0.0332071 -0.020376775 -0.026080482 -0.15125014 0.061724525 -0.02650112
0.059021547 0.01931545 0.008752962 -0.08550023 -0.057613526 -0.037025694 0.03805734 -0.062406473
0.103887916 -0.054624498 -0.046828404 -0.11967963 -0.0136842765 -0.01303758 0.16329041 -0.005489491
0.0030889227 -0.03639641 -0.0011166402 -0.046001792 0.08906302 -0.08462345 0.043469343 0.118473366
-0.0234499 0.05516484 -0.09458054 -0.06343415 -0.01220039 -2.6663332e-05 -0.042896472 0.08810712
-0.04739483 0.023577673 0.13609855 0.07340657 -0.029858213 0.034224503 -0.055672504 -0.036844876
-0.014291014 -0.15098365 -0.05275456 0.053644314 0.14688629 -0.0077921613 -0.08278206 0.02482685
00000000: 518e 21be 7927 d83c 5d6a 86bd 391c 64be
00000010: fa67 3abc a8f8 bfbd d0e3 23be 0f4a 423d
00000020: 8311 1a3e 90ad 7cbd c69c 1a3c 33c4 fabc
00000030: 35ee e1bc 51ca 1a3d e0d9 3bbe 37af a6bd
00000040: 06fd 983d 4b17 d2bd ae57 ab3d ff9f 82ba
00000050: 6738 ecbb 30f5 3f3d ee0a 90bd ea7a f33d
00000060: 0b88 c93d 379f 9d3d f86c 37bd 79a5 9cbb
00000070: 7651 e53c 1999 dbbd b59e d63c 146d db3a
00000080: 3290 a0bc ea82 bbbc e6a3 38ba 5b41 d0bd
00000090: c568 423d 4810 3f3d be28 3cbe f0a9 95bd
000000a0: f406 003e 4d2b 5b3c 0bb3 f93d 79ec 08bb
000000b0: df40 e0bc e17a 8d3b 8b84 42be 5af8 ea3c
000000c0: 91fa bd3d 0cff ea3c 7402 4bbd cf3c c8b9
000000d0: 7071 333d 58d4 2c3c e6f8 af3d 509e fbbc
000000e0: 2ff6 29bb 4016 f43c 4149 8d3d f929 06be
000000f0: 52a6 8cbd a4a0 2cbd 7b00 703c 76c2 cabd
00000100: 850c bbbd 7261 aabd eb25 413d 6ced 58bd
00000110: 2e06 3f3d d29d 683d 63a2 3d3d c864 f039
00000120: 3306 413d e695 ae3d 8a6f 06be d818 3ebd
00000130: 7659 013e f5c5 b8bd 1b22 2cbe 6bb3 b7bc
00000140: ee79 fb3d 3197 13bd c340 cfbb 1a4f 2ebe
00000150: a575 523d e9a8 17bd 9fb6 ccbc bf7a 463c
00000160: 8390 603b 9a63 c9bd 303b 54be a155 3dbe
00000170: 9880 0bbd baf2 493c efd4 d8bd be71 4b3c
00000180: 89ac 363d 3bfe bc3d 271c 1fbe d705 3abe
00000190: 8c52 f2bd 35f9 bf3d c410 c03d 700c 33be
000001a0: 22da 14bd c1f2 12be eaaa ab3d 830f 09be
000001b0: 9df2 593d ddb6 a6bc 22a9 d4bd 5a81 e03b
000001c0: c8d5 a2bd e047 28be 1d03 51be 4572 9ebd
000001d0: abf6 043d 6c31 fc3d a5f9 4cbd 41cd 033e
000001e0: ff23 273d 07c1 fcbc 513e 91bc 05c3 183e
000001f0: 1e19 ebbd 265c 49bd ef91 30bd afba 863d
00000200: 8fe1 0cbe c856 66bc fea5 c33d 93ff a33d
00000210: b76c a2bd ee6d 2fbd ca51 8bbd 6ed1 453c
00000220: 8afd 36be 21db 0f3d 772f 503d 0ce9 40bc
00000230: e2a6 80be dfa2 0e3e ec42 8ebd 0eea 913c
00000240: 9f28 5cbe 9f56 403d cb1b b2bd 6371 a0bc
00000250: 5f94 1a3c 736b 04be 684e 7f3c 940f bcbd
00000260: da60 08be 4f7a 07be 3d90 2d3e 1126 0e3d
00000270: 10c5 86bd a248 f03c e06a 51bd 27e8 c1bd
00000280: 891a d3bd 284e 493c 581a 573d ce8a d3bd
00000290: c521 67bc 0be8 8abc a827 10bd a215 883d
000002a0: 6254 32bb f5fe 4fbd 15b5 8fba 5dd2 9f3d
000002b0: 3ddd 31be 689d cdbc e681 53bc fa2d 1fbd
000002c0: 8d6d 11be d0f6 2bbd 72f8 32be 7a34 5abd
000002d0: 3072 d5bd feb7 2e3a 9295 51bd 8352 bebc
000002e0: e77b 0cbe 59a5 9fbd 0cc7 073e 0fc5 e83c
000002f0: 42eb 76bd 3f8f a53c b11b c0bd af82 30bc
00000300: a29d 09bb 2d30 1bbc 299c d23d 8076 ef3d
00000310: 1eab f43d a919 cabc 2dc2 7d3d 6af3 bcbd
00000320: 22bb a4bd 94dd 313c 2b04 083d 32ed a6bc
00000330: bca6 d5bc 51e1 1abe dbd2 7c3d e018 d9bc
00000340: 94c0 713d 6f3b 9e3c 9568 0f3c bf1a afbd
00000350: 29fc 6bbd 41a8 17bd 03e2 1b3d ee9d 7fbd
00000360: 30c3 d43d f0bd 5fbd 24cf 3fbd 981a f5bd
00000370: 0434 60bc 939b 55bc 9a35 273e 30e1 b3bb
00000380: 866f 4a3b 6714 15bd 3a5c 92ba 606c 3cbd
00000390: ac66 b63d 0f4f adbd e90c 323d 2aa2 f23d
000003a0: 011a c0bc 87f4 613d 71b3 c1bd c3e9 81bd
000003b0: 25e4 47bc 12ab dfb7 36b4 2fbd 8171 b43d
000003c0: 1521 42bd f725 c13c 6b5d 0b3e 2f56 963d
000003d0: 3699 f4bc fe2e 0c3d da08 64bd a7ea 16bd
000003e0: db24 6abc 759b 1abe 2a15 58bd 24ba 5b3d
000003f0: 5c69 163e 6355 ffbb a489 a9bd ae61 cb3c

DecList.0.conv.bias f4 [16]
-0.14728485 -0.0201965 -0.03865054 -0.062021576 -0.07570232 0.013844546 0.077824086 -0.118304916
-0.08456288 -0.09488746 0.07430861 0.045616534 0.12778182 0.010826399 -0.08645257 -0.11605853
00000000: d7d1 16be 2173 a5bc 0750 1ebd 560a 7ebd
00000010: d109 9bbd 3cd4 623c 3c62 9f3d d949 f2bd
00000020: 4e2f adbd 5b54 c2bd 1d2f 983d 67d8 3a3d
00000030: 3dd9 023e 3561 313c 0c0e b1bd 18b0 edbd

DecList.0.bn.weight f4 [16]
1.1353395 1.1714925 1.1817673 1.0849868 1.1122441 1.0789626 1.2238472 1.1206741
1.2602003 1.1755567 1.1809772 1.0751467 1.1820854 1.2505597 1.0645192 1.1688434
00000000: ce52 913f 77f3 953f 2744 973f d9e0 8a3f
00000010: 045e 8e3f 721b 8a3f 06a7 9c3f 4072 8f3f
00000020: 3e4e a13f a478 963f 432a 973f 689e 893f
00000030: 934e 973f 5712 a03f 2a42 883f a99c 953f

DecList.0.bn.bias f4 [16]
-0.014052336 0.022742009 0.030722037 -0.1649452 -0.20888999 -0.041163053 -0.17208004 -0.031110238
0.18473336 -0.12588963 0.07747582 -0.09510405 0.04910619 0.22938448 -0.17608364 -0.30191672
00000000: c53b 66bc 734d ba3c c8ac fb3c 65e7 28be
00000010: 42e7 55be 979a 28bd c035 30be e6da febc
00000020: be2a 3d3e 36e9 00be a5ab 9e3d eac5 c2bd
00000030: 9323 493d c4e3 6a3e 454f 34be d494 9abe

DecList.0.bn.running_mean f4 [16]
-0.9253601 -0.37049255 -0.59424144 -0.3536506 -0.3687461 -0.19899945 -0.12838182 0.15358673
-0.6111469 -0.64843416 0.16835897 -0.1272481 0.026512872 -0.12155019 -0.16312987 -0.4362622
00000000: 66e4 6cbf 33b1 bdbe 3520 18bf b111 b5be
00000010: 4acc bcbe 83c6 4bbe 8676 03be d745 1d3e
00000020: 2074 1cbf c8ff 25bf 4b66 2c3e 534d 02be
00000030: 8631 d93c 4eef f8bd 840b 27be c25d dfbe

DecList.0.bn.running_var f4 [16]
0.48266447 0.6684766 0.5606688 0.8548155 0.33294293 0.34169495 0.4100781 0.606406
0.8490082 0.6339792 0.60177577 0.6315911 0.5636587 0.30953234 0.41618556 0.45281217
00000000: cc1f f73e 4821 2b3f fe87 0f3f 30d5 5a3f
00000010: 7f77 aa3e a4f2 ae3e c2f5 d13e 6c3d 1b3f
00000020: 9a58 593f 764c 223f fa0d 1a3f f4af 213f
00000030: f04b 103f 067b 9e3e 4616 d53e ffd6 e73e

DecList.1.conv.weight f4 [16, 8, 4]
-0.014168103 -0.021074465 0.041533478 0.0523541 0.009735614 0.18108872 0.005496149 -0.14489494
0.057329785 0.03916746 0.18659557 0.07621227 0.0029181407 0.21154344 0.00041966586 0.046871006
-0.35929632 -0.14508758 -0.15175885 -0.13138981 -0.030499911 0.17955598 0.23260128 0.13713017
-0.15476489 0.09685922 -0.23979251 0.19738263 -0.01541338 0.08866671 0.0070856162 -0.134742
0.109556995 0.08637798 0.14423844 0.08098981 0.08633152 0.18172677 0.04477905 -0.18382134
-0.19577666 0.020997453 0.1128511 -0.07732531 -0.1777659 -0.08215092 0.009439191 -0.0964644
0.10830308 0.038097873 -0.078458674 -0.0076096575 0.12887208 -0.059928354 -0.12945315 -0.019427253
0.13547115 0.13357383 0.14833362 0.14481725 -0.092880964 0.012549582 -0.039741214 0.08043464
0.11330556 0.18055074 -0.026889771 -0.0487855 -0.12173046 -0.18996282 -0.16571549 -0.22103001
0.15544935 -0.08887212 -0.122442655 -0.07510348 -0.046390083 -0.15394574 0.0552459 0.145383
0.066380896 0.18364967 0.039727096 -0.035083037 0.05874469 0.068916574 0.00097368116 0.007890207
-0.21680234 0.102839254 -0.06944977 -0.07401596 -0.0141386725 -0.1959424 0.07683617 -0.088529974
0.08170333 0.13572045 0.06354232 0.04168957 -0.022966908 0.17956819 -0.0060119093 0.07692154
0.04580147 -0.03201575 0.09174316 0.24417743 0.04995097 -0.12965378 -0.07385992 -0.0060935034
-0.0011967906 -0.08785179 0.045879383 0.060040314 0.18280622 0.21264488 0.3187143 0.07586193
-0.040917937 -0.049785815 0.15729387 0.0496929 -0.19419937 -0.025471868 -0.10459071 -0.044791102
0.029262556 0.08518469 0.019439192 -0.031034682 -0.19703849 -0.047163587 0.010476863 0.07483914
-0.12416713 -0.116251186 -0.090306416 -0.019487714 0.101774186 0.122237526 -0.008430641 -0.010704754
0.19766438 0.027002733 0.24454978 0.08267708 -0.03699905 0.07543804 -0.009485772 -0.118318304
-0.029572878 -0.23468421 0.05213581 -0.21553163 -0.011917601 -0.028403088 -0.026071697 -0.07582126
0.04196434 0.05223144 -0.044613607 0.055790886 -0.16334534 -0.12011698 -0.14984778 -0.0441919
-0.046429694 0.11612556 0.048626177 -0.08589279 0.1871091 0.15398677 0.002546931 0.14938426
-0.01614895 0.123484746 -0.054144423 -0.00037573924 -0.102993 0.05742995 0.09496789 -0.12446725
0.0013403958 -0.058192298 -0.049779005 -0.010878635 -0.15317914 0.0029623676 -0.041983217 -0.16306278
-0.056778353 0.051105224 -0.08442898 -0.06903835 -0.17333154 -0.1313446 0.0040860265 -0.08495585
-0.14734124 0.016973726 0.14160101 0.063423604 -0.08364312 -0.06591778 0.061079986 0.10641048
0.0021215368 0.20257658 0.010244024 0.03151765 0.08372698 0.030466458 -0.013874867 -0.058588658
-0.056921013 -0.035123304 0.06999295 0.013997884 0.17965883 0.1838604 0.0982501 0.14714518
-0.13389066 -0.011018392 0.061256435 -0.06529073 -0.0061756773 0.033988666 -0.012782463 -0.05001745
-0.23624207 -0.02064789 -0.023760566 0.020835998 -0.0077553047 0.05740952 -0.075802214 -0.00020520327
0.043643203 0.027386244 0.09841138 -0.010048979 -0.2479881 -0.10162282 -0.12719801 -0.16641936
0.0831757 -0.14445269 -0.025774071 -0.16923076 0.07325899 0.023229752 -0.005565264 0.061596226
00000000: 5521 68bc 5ba4 acbc 021f 2a3d 4171 563d
00000010: 2082 1f3c 526f 393e 0a19 b43b 575f 14be
00000020: a3d2 6a3d 0f6e 203d e912 3f3e 2e15 9c3d
00000030: 473e 3f3b d89e 583e 9906 dc39 d0fb 3f3d
00000040: b0f5 b7be d791 14be ac66 1bbe 0d8b 06be
00000050: f3da f9bc 86dd 373e 082f 6e3e da6b 0c3e
00000060: b07a 1ebe 205e c63d 2b8c 75be ac1e 4a3e
00000070: 6788 7cbc e496 b53d 752e e83b cff9 09be
00000080: 6b5f e03d f0e6 b03d 3eb3 133e fcdd a53d
00000090: 94ce b03d 9516 3a3e 3d6a 373d a93b 3cbe
000000a0: ad79 48be da02 ac3c 7a1e e73d bb5c 9ebd
000000b0: 4408 36be be3e a8bd d6a6 1a3c 218f c5bd
000000c0: 01ce dd3d 840c 1c3d f1ae a0bd 6f5a f9bb
000000d0: 0bf7 033e 6f77 75bd 5e8f 04be e725 9fbc
000000e0: f3b8 0a3e 94c7 083e c5e4 173e f94a 143e
000000f0: 6038 bebd c39c 4d3c afc7 22bd ebba a43d
00000100: bf0c e83d 4be2 383e f047 dcbc 4ed3 47bd
00000110: d24d f9bd 9d85 42be 52b1 29be b155 62be
00000120: 1d2e 1f3e 9602 b6bd 37c3 fabd dacf 99bd
00000130: 8703 3ebd f4a3 1dbe 8649 623d 48df 143e
00000140: b5f2 873d a90e 3c3e e1b8 223d 3bb3 0fbd
00000150: 469e 703d 2224 8d3d a33e 7f3a ed45 013c
00000160: 6f01 5ebe 639d d23d ae3b 8ebd ae95 97bd
00000170: e4a5 67bc 20a5 48be 485c 9d3d 344f b5bd
00000180: 1354 a73d 4dfa 0a3e 7a22 823d afc2 2a3d
00000190: 1925 bcbc b9e0 373e 8dff c4bb 0a89 9d3d
000001a0: 529a 3b3d f222 03bd d6e3 bb3d a609 7a3e
000001b0: 6399 4c3d f6c3 04be df43 97bd 03ac c7bb
000001c0: a1dd 9cba a4eb b3bd 05ec 3b3d d5ec 753d
000001d0: 8e31 3b3e 94bf 593e 852e a33e 805d 9b3d
000001e0: 9199 27bd 36ec 4bbd a511 213e c88a 4b3d
000001f0: 33dc 46be 61aa d0bc a733 d6bd e076 37bd
00000200: 07b8 ef3c 5075 ae3d f13e 9f3c 723c febc
00000210: 75c4 49be 9b2e 41bd 26a7 2b3c 4345 993d
00000220: 564b febd 1a15 eebd 92f2 b8bd b3a4 9fbc
00000230: fc6e d03d ab57 fa3d ac20 0abc fe62 2fbc
00000240: 8868 4a3e d634 dd3c 426b 7a3e 9a52 a93d
00000250: 518c 17bd 427f 9a3d 366a 1bbc de50 f2bd
00000260: d242 f2bc 0f51 70be 5c8c 553d 53b4 5cbe
00000270: 0b42 43bc 98ad e8bc 5094 d5bc 2d48 9bbd
00000280: cde2 2b3d a2f0 553d c2bc 36bd fc84 643d
00000290: 0044 27be e4ff f5bd b271 19be 9102 35bd
000002a0: 102d 3ebd 3dd3 ed3d 3e2c 473d 8fe8 afbd
000002b0: 8799 3f3e b5ae 1d3e 69ea 263b 30f8 183e
000002c0: ce4a 84bc 92e5 fc3d 8bc6 5dbd defe c4b9
000002d0: feed d2bd ab3b 6b3d 867e c23d b0e8 febd
000002e0: 38b0 af3a 0c5b 6ebd 12e5 4bbd 4d3c 32bc
000002f0: feda 1cbe 4824 423b 98f6 2bbd eef9 26be
00000300: 6b90 68bd b653 513d 1ae9 acbd fa63 8dbd
00000310: d37d 31be 337f 06be 13e4 853b 55fd adbd
00000320: 9fe0 16be 7c0c 8b3c dbff 103e 3ce4 813d
00000330: 164d abbd e7ff 86bd 022f 7a3d bded d93d
00000340: 7b09 0b3b 3c70 4f3e 8dd6 273c a718 013d
00000350: 0d79 ab3d cb94 f93c 6953 63bc a9fa 6fbd
00000360: 0226 69bd 74dd 0fbd 7758 8f3d 6157 653c
00000370: 7cf8 373e e745 3c3e 5937 c93d 3aad 163e
00000380: a21a 09be 7c86 34bc 07e8 7a3d 25b7 85bd
00000390: 565d cabb b337 0b3d 896d 51bc 19df 4cbd
000003a0: 71e9 71be c425 a9bc 85a5 c2bc 41b0 aa3c
000003b0: 3620 febb 3f26 6b3d 313e 9bbd d52b 57b9
000003c0: 37c3 323d 1e59 e03c e88b c93d 79a4 24bc
000003d0: 98f0 7dbe a01f d0bd 3240 02be d669 2abe
000003e0: 0558 aa3d 68eb 13be 2524 d3bc d44a 2dbe
000003f0: cf08 963d 524c be3c d15c b6bb 534c 7c3d

DecList.1.conv.bias f4 [8]
0.12264808 0.1641561 0.095366985 0.08534245 -0.032895617 0.024419677 -0.06860969 0.12364916
00000000: eb2e fb3d 8918 283e c44f c33d 06c8 ae3d
00000010: 8ebd 06bd c60b c83c 3d83 8cbd c53b fd3d

DecList.1.bn.weight f4 [8]
1.1656172 1.0309733 1.2040073 1.1766373 0.9347632 1.1623371 1.0887711 1.208636
00000000: f232 953f eff6 833f e91c 9a3f 0d9c 963f
00000010: a44c 6f3f 76c7 943f da5c 8b3f 96b4 9a3f

DecList.1.bn.bias f4 [8]
-0.050072193 0.13551396 -0.06262084 0.05758704 0.0135874245 -0.11112597 -0.04327377 0.009291108
00000000: 8018 4dbd 2cc4 0a3e 5b3f 80bd 63e0 6b3d
00000010: ca9d 5e3c 0396 e3bd d63f 31bd bb39 183c

DecList.1.bn.running_mean f4 [8]
0.6183816 -0.7136077 0.19291244 0.35740602 0.07656643 0.6127303 -0.3960455 0.09918015
00000000: 424e 1e3f ffae 36bf d78a 453e ecfd b63e
00000010: dcce 9c3d e5db 1c3f 7ac6 cabe f61e cb3d

DecList.1.bn.running_var f4 [8]
0.5429669 0.800174 0.3107569 0.2313323 0.60101444 0.33857948 0.46958673 0.33654994
00000000: e1ff 0a3f 34d8 4c3f 871b 9f3e 60e2 6c3e
00000010: 15dc 193f 4a5a ad3e ac6d f03e 4650 ac3e

DecList.2.conv.weight f4 [8, 4, 4]
0.31797463 -0.04744824 -0.1328792 0.14799044 0.049731065 -0.13888761 -0.012459528 0.04815956
-0.23001954 -0.29448047 -0.0025549484 -0.06547673 -0.01324897 0.01654126 -0.060321152 0.042991582
-0.23807603 -0.09713425 -0.06275742 0.23027119 -0.046893153 0.13524647 -0.010782557 0.058335334
0.037705984 -0.038937073 -0.15616614 -0.12560897 0.27941903 -0.27084634 0.06605859 -0.0067486353
0.24575737 0.2408864 0.07164033 -0.09846412 0.3973326 0.2023649 -0.20124435 -0.09157801
-0.0076468564 -0.10689756 -0.17357469 0.07376545 0.3665834 0.17470336 0.13562633 0.079952955
0.15098403 -0.08098432 -0.07816186 -0.26595837 -0.0369676 -0.04421637 -0.16380632 0.023184353
-0.06287878 0.12409243 -0.053486537 0.18979914 -0.012618874 0.15839005 -0.03838518 -0.15292421
-0.1161061 0.13833533 0.021885965 -0.2653411 -0.0153343165 -0.22048105 -0.006157955 -0.13726729
-0.18272378 -0.037593555 0.29192644 -0.041603018 -0.11727192 -0.060562182 0.08730059 0.026493788
0.009495538 0.22342137 0.2544297 0.22109546 -0.026471404 -0.12552752 0.0015097035 -0.19997138
0.14243911 0.00791323 -0.15509278 0.08136338 -0.08856587 0.20363797 -0.16408661 0.13011493
0.096820645 0.26926166 0.021465966 0.28041247 0.04157666 0.17590524 -0.06309406 -0.051622186
0.021326967 0.02964628 0.03925412 0.026379777 0.17804034 -0.13563004 0.19105402 0.033714037
-0.05050628 0.0331256 -0.28616828 0.04074023 -0.18556087 -0.15192129 0.235616 -0.15453254
-0.038573243 0.25459522 0.09150718 0.17023444 -0.15413658 -0.09014521 0.18977827 -0.1938622
00000000: 92cd a23e 1659 42bd 7c11 08be ce8a 173e
00000010: cdb2 4b3d 8e38 0ebe 0c23 4cbc f542 453d
00000020: 3e8a 6bbe 25c6 96be ec70 27bb aa18 86bd
00000030: 3512 59bc 8981 873c 5013 77bd f117 303d
00000040: 34ca 73be 52ee c6bd f686 80bd 36cc 6b3e
00000050: 0913 40bd 0d7e 0a3e 52a9 30bc 08f1 6e3d
00000060: 9771 1a3d 7b7c 1fbd 04ea 1fbe a39f 00be
00000070: 0310 8f3e 5fac 8abe ba49 873d a823 ddbb
00000080: d2a7 7b3e edaa 763e 2ab8 923d 8ea7 c9bd
00000090: 2e6f cb3e bf38 4f3e 0013 4ebe 408d bbbd
000000a0: 7b92 fabb 1ced dabd 90bd 31be 5712 973d
000000b0: d2b0 bb3e 70e5 323e a1e1 0a3e 60be a33d
000000c0: 8f9b 1a3e 1bdb a5bd 5313 a0bd b22b 88be
000000d0: 576b 17bd 391c 35bd d8bc 27be 1ded bd3c
000000e0: 97c6 80bd 2c24 fe3d b314 5bbd b55a 423e
000000f0: 65bf 4ebc 0031 223e c739 1dbd 2a98 1cbe
00000100: 09c9 edbd c7a7 0d3e 324a b33c cada 87be
00000110: c93c 7bbc c9c5 61be acc8 c9bb cc8f 0cbe
00000120: f11b 3bbe b3fb 19bd 6277 953e ed67 2abd
00000130: 432c f0bd 0d10 78bd a7ca b23d 8009 d93c
00000140: 2c93 1b3c 92c8 643e 9c44 823e d966 623e
00000150: 8fda d8bc 498a 00be 3ee1 c53a 4cc5 4cbe
00000160: 8fdb 113e 7ea6 013c a4d0 1ebe d8a1 a63d
00000170: 0662 b5bd 7986 503e 5206 28be d93c 053e
00000180: e749 c63d aadc 893e 65d9 af3c 3992 8f3e
00000190: 4a4c 2a3d 8120 343e 7537 81bd c971 53bd
000001a0: e4b5 ae3c c1dc f23c eec8 203d 671a d83c
000001b0: 3550 363e 9ae2 0abe aaa3 433e bb17 0a3d
000001c0: acdf 4ebd b6ae 073d a684 92be 3adf 263d
000001d0: ab03 3ebe 4191 1bbe 5245 713e c73d 1ebe
000001e0: fafe 1dbd 4e5a 823e 1e68 bb3d f051 2e3e
000001f0: fbd5 1dbe 0d9e b8bd 3c55 423e d083 46be

DecList.2.conv.bias f4 [4]
0.18643445 0.014599737 0.23011056 -0.2664453
00000000: ace8 3e3e bc33 6f3c 1aa2 6b3e 856b 88be

DecList.2.bn.weight f4 [4]
1.3000919 1.0734015 1.1058638 1.0805018
00000000: 6969 a63f 3865 893f f28c 8d3f e24d 8a3f

DecList.2.bn.bias f4 [4]
0.08315519 0.13742866 -0.040848486 0.19764231
00000000: 454d aa3d 19ba 0c3e be50 27bd bf62 4a3e

DecList.2.bn.running_mean f4 [4]
0.5873436 -0.19793653 0.15440351 0.0024996912
00000000: 265c 163f e0af 4abe f41b 1e3e dcd1 233b

DecList.2.bn.running_var f4 [4]
0.5594957 0.7409601 0.33715212 0.49688876
00000000: 1c3b 0f3f 90af 3d3f 349f ac3e 3468 fe3e

DecList.3.conv.weight f4 [4, 2, 4]
0.11895528 0.21259826 0.09819657 0.0401129 0.064291164 0.14282134 0.07671319 0.35480708
0.032189853 0.122442946 -0.18795012 -0.17550096 -0.020709835 0.0042208033 -0.07611009 0.27274045
-0.2356266 -0.45684052 -0.18666452 0.07404858 0.1947443 -0.3035887 0.168155 -0.45743
0.14268824 -0.008730646 0.05807896 0.09836931 0.2039289 -0.27789694 0.21013698 -0.13374119
00000000: d39e f33d 5cb3 593e 491b c93d 6d4d 243d
00000010: 16ab 833d c23f 123e ce1b 9d3d 46a9 b53e
00000020: 82d9 033d 5ec3 fa3d ff75 40be 86b6 33be
00000030: aca7 a9bc aa4e 8a3b 9bdf 9bbd a3a4 8b3e
00000040: 1948 71be 00e7 e9be fc24 3fbe c8a6 973d
00000050: 0d6b 473e fa6f 9bbe d330 2c3e 4434 eabe
00000060: de1c 123e fc0a 0fbc 34e4 6d3d d975 c93d
00000070: bdd2 503e 8248 8ebe 262e 573e 73f3 08be

DecList.3.conv.bias f4 [2]
-0.017455108 -0.23420925
00000000: 04fe 8ebc 8dd4 6fbe

DecList.3.bn.weight f4 [2]
1.1408979 1.0295509
00000000: f108 923f 53c8 833f

DecList.3.bn.bias f4 [2]
0.0054729856 -0.033000156
00000000: bb56 b33b 2c2b 07bd

DecList.3.bn.running_mean f4 [2]
0.007896775 -0.023093356
00000000: 7a61 013c 472e bdbc

DecList.3.bn.running_var f4 [2]
0.26939952 0.60556036
00000000: bcee 893e 0106 1b3f

in_conv.0.weight f4 [2, 1, 3]
0.31917825 0.26473907 -0.38039663 0.02792218 -0.08837175 0.30113173
00000000: 556b a33e e18b 873e 59c3 c2be 0ebd e43c
00000010: 40fc b4bd f02d 9a3e

in_conv.0.bias f4 [2]
0.0049574766 -0.59975666
00000000: 5472 a23b a789 19bf

in_conv.2.weight f4 [2]
0.93273646 1.0625098
00000000: d1c7 6e3f 5200 883f

in_conv.2.bias f4 [2]
-0.14005564 0.24965097
00000000: bf6a 0fbe 81a4 7f3e

in_conv.2.running_mean f4 [2]
0.16638736 -0.092183515
00000000: 7361 2a3e b6ca bcbd

in_conv.2.running_var f4 [2]
0.12770733 0.076388724
00000000: b6c5 023e b171 9c3d

bottleneck.0.weight f4 [32, 32, 1]
0.011638701 -0.00534694 0.07563819 -0.14444557 0.011298373 -0.17628668 -0.0062766005 -0.09772649
0.042563777 -0.19151148 0.00844981 0.00437896 -0.041859813 -0.032334104 0.22900183 -0.052115843
0.20265087 -0.15702659 -0.12369055 0.026155168 -0.047684815 0.04484366 0.015828822 -0.29196692
-0.08016943 -0.011301823 0.10949792 0.03038199 0.045880273 -0.05205362 -0.13719691 0.18261099
0.19423005 0.022668252 0.11927508 -0.007080541 0.05309425 0.1386878 0.14973193 0.16523314
0.13648602 0.09345956 -0.081301756 0.15228428 -0.024296245 -0.0026192195 0.036713373 0.015234141
0.0636866 -0.1730592 -0.10898978 -0.106202714 0.12200163 0.12151835 -0.023580622 -0.08718701
-0.063169435 0.02588427 -0.09124432 0.12619312 0.27478954 -0.12109408 -0.036888193 -0.12968941
0.060652513 -0.04058546 0.009611622 -0.18646036 -0.10228079 0.17911187 -0.05486635 -0.077642545
-0.14647295 0.10757013 -0.065771535 0.006279785 -0.05932665 -0.07852764 -0.20614037 0.16819225
0.07324059 -0.11147565 0.038242612 0.12518394 0.14646226 0.14892438 -0.020328231 0.05351925
0.07095555 0.11701168 -0.07845502 0.023115424 -0.06445868 0.10741958 -0.22995012 -0.14437601
0.15057665 -0.07123107 -0.08914928 -0.15741795 -0.10381486 0.17009594 0.09130094 0.08457968
-0.012631069 0.19501488 0.119094126 -0.22290768 -0.052792355 -0.12598814 -0.13570376 -0.088814
-0.005728861 0.029068956 -0.16367975 -0.120835416 0.0899654 0.019631796 0.043028127 0.13203993
0.04569287 0.16561346 -0.07297914 0.031200033 0.055290975 0.1076801 -0.2715561 -0.13517652
-0.025021072 -0.19806798 -0.09631871 -0.025262998 0.12857826 -0.06632304 0.08709064 -0.076043464
-0.23644958 -0.09690805 0.19935203 -0.14615291 -0.14340363 0.08797096 -0.21750021 -0.041111175
0.024514532 0.12810883 0.07957516 -0.015171127 0.051752333 0.25824633 0.06470762 0.005099938
0.11108686 -0.119784884 0.056620028 -0.26233336 0.17055362 0.12962973 -0.06616252 0.16934311
0.01556519 0.17670144 -0.14154467 -0.05537405 0.040390175 0.14158563 -0.024803475 0.06259424
-0.0702442 0.23953645 0.13313563 -0.075293206 0.12847681 0.09774778 0.13251723 0.039490413
0.08878198 0.022213241 -0.134393 0.08286861 -0.15277365 0.09861947 0.023750484 -0.100427896
-0.0121311005 0.18160617 0.15972377 0.20345938 -0.07671688 -0.004067134 0.112241864 -0.06706459
0.12050789 -0.019934962 -0.025443032 0.12744313 -0.0385327 -0.122809835 -0.14698604 0.04724086
0.20442058 -0.15041679 0.200959 -0.08749247 0.008953676 0.14137186 0.0965497 -0.08391407
0.1702988 -0.04551614 0.11099787 0.0021621687 -0.07065203 0.0076394808 -0.03809054 -0.09292291
-0.1367209 0.26176694 0.023837725 0.089683205 0.049386628 0.15304507 0.08016574 -0.05161652
-0.059422188 0.033372525 -0.12774655 -0.11652662 0.16660699 0.12592219 0.0960041 0.06141399
-0.17198111 -0.022812627 0.026280116 0.11598753 -0.0856773 -0.19753644 -0.090466365 0.047168754
-0.04758927 -0.32383412 0.20397408 -0.0926146 -0.07579165 0.077932104 -0.010328919 -0.10859647
-0.05762773 0.037017953 0.14252147 -0.011884136 0.03578965 0.10236829 0.058458373 -0.042000428
00000000: 40b0 3e3c 6235 afbb 32e8 9a3d 8ae9 13be
00000010: d01c 393c 7f84 34be f1ab cdbb d324 c8bd
00000020: 5b57 2e3d 961b 44be 1271 0a3c 617d 8f3b
00000030: 3275 2bbd c470 04bd 757f 6a3e 6c77 55bd
00000040: b683 4f3e 94cb 20be 7951 fdbd 5d43 d63c
00000050: 2751 43bd fcad 373d 72ab 813c b07c 95be
00000060: df2f a4bd 482b 39bc 7240 e03d a7e3 f83c
00000070: f4ec 3b3d 2d36 55bd 597d 0cbe 60fe 3a3e
00000080: 3ee4 463e c5b2 b93c 7e46 f43d e203 e8bb
00000090: 5b79 593d 2d04 0e3e 5453 193e e032 293e
000000a0: fec2 0b3e ba67 bf3d 8981 a6bd 69f0 1b3e
000000b0: eb08 c7bc 36a7 2bbb c360 163d 9e98 793c
000000c0: 1f6e 823d 6e36 31be 0936 dfbd cf80 d9bd
000000d0: fedb f93d 9dde f83d 262c c1bc 1a8f b2bd
000000e0: fa5e 81bd 400b d43c 4dde babd c538 013e
000000f0: 37b1 8c3e 2c00 f8bd 1318 17bd 4dcd 04be
00000100: c56e 783d f03c 26bd 117a 1d3c 77ef 3ebe
00000110: 9778 d1bd 1a69 373e 8abb 60bd 0e03 9fbd
00000120: 01fd 15be ba4d dc3d 3ab3 86bd a8c6 cd3b
00000130: 8000 73bd 19d3 a0bd 7616 53be 973a 2c3e
00000140: 2aff 953d 584d e4bd 49a4 1c3d 3830 003e
00000150: 34fa 153e a27f 183e 6487 a6bc 0037 5b3d
00000160: 2551 913d d2a3 ef3d 07ad a0bd 8f5c bd3c
00000170: ea02 84bd ccfe db3d 0b78 6bbe 4ed7 13be
00000180: c430 1a3e 98e1 91bd e693 b6bd 2c32 21be
00000190: e39c d4bd a12d 2e3e fdfb ba3d 1c38 ad3d
000001a0: 8bf2 4ebc fbb1 473e 9fe7 f33d e941 64be
000001b0: cc3c 58bd 0903 01be edf5 0abe 1de4 b5bd
000001c0: 2bb9 bbbb 0522 ee3c aa9b 27be 8f78 f7bd
000001d0: c83f b83d dcd2 a03c 433e 303d 7a35 073e
000001e0: 7228 3b3d 9396 293e 1676 95bd 3697 ff3c
000001f0: ca78 623d 6287 dc3d 6709 8bbe b76b 0abe
00000200: fef8 ccbc 55d2 4abe be42 c5bd 59f4 cebc
00000210: 05aa 033e 60d4 87bd 945c b23d adbc 9bbd
00000220: d71f 72be ba77 c6bd f022 4c3e 1ca9 15be
00000230: 67d8 12be 1e2a b43d 60b8 5ebe 3164 28bd
00000240: b3d2 c83c f62e 033e 4df8 a23d 5290 78bc
00000250: 41fa 533d dd38 843e 6e85 843d 611d a73b
00000260: 8281 e33d c751 f5bd 67ea 673d 8f50 86be
00000270: 9ca5 2e3e a8bd 043e 3780 87bd 4868 2d3e
00000280: 2405 7f3c 39f1 343e 16f1 10be e6cf 62bd
00000290: 2b70 253d d3fb 103e a830 cbbc 6931 803d
000002a0: 31dc 8fbd 0b49 753e b554 083e 5333 9abd
000002b0: 6d8f 033e fd2f c83d 99b2 073e b3c0 213d
000002c0: 54d3 b53d 8bf8 b53c 529e 09be 05b7 a93d
000002d0: b270 1cbe 01f9 c93d 6090 c23c 24ad cdbd
000002e0: 86c1 46bc f8f6 393e a18e 233e a857 503e
000002f0: bd1d 9dbd 9845 85bb 10df e53d 2959 89bd
00000300: d7cc f63d a54e a3bc e86d d0bc 7480 023e
00000310: 77d4 1dbd b983 fbbd 8283 16be a27f 413d
00000320: a153 513e dc06 1abe 32c8 4d3e 412f b3bd
00000330: 70b2 123c c9c3 103e d9bb c53d 24db abbd
00000340: cf62 2e3e 226f 3abd da52 e33d 2cb3 0d3b
00000350: 03b2 90bd 9c54 fa3b d304 1cbd 5e4e bebd
00000360: 9000 0cbe 5106 863e 5547 c33c d4ab b73d
00000370: a249 4a3d d9b7 1c3e ef2d a43d d86b 53bd
00000380: ae64 73bd a1b1 083d fecf 02be 82a5 eebd
00000390: 069b 2a3e bff1 003e cc9d c43d 3c8d 7b3d
000003a0: d11b 30be 8ce1 babc 6649 d73c df8a ed3d
000003b0: 9577 afbd fe46 4abe 6e46 b9bd 0634 413d
000003c0: f7ec 42bd 96cd a5be 95de 503e b9ac bdbd
000003d0: a738 9bbd de9a 9f3d a03a 29bc d367 debd
000003e0: 0e0b 6cbd 23a0 173d 26f1 113e aeb5 42bc
000003f0: 2b98 123d 77a6 d13d 0c72 6f3d a408 2cbd

bottleneck.0.bias f4 [32]
-0.072389744 0.032242823 0.17495061 -0.1657391 0.08060902 0.041312262 -0.023073677 -0.099830024
0.11105656 0.18813165 -0.0016155953 -0.067920856 -0.31456777 -0.06369155 0.066564195 0.03144799
0.07414226 -0.1000142 -0.07962062 -0.0033215184 -0.042610716 0.022305813 -0.009491923 -0.10838453
0.05610275 0.015306988 0.085011646 0.04098383 -0.0012813642 -0.016973265 0.02744674 0.11988422
00000000: 1341 94bd 0d11 043d 4126 333e 83b7 29be
00000010: 5816 a53d 0c37 293d 0205 bdbc af73 ccbd
00000020: 9f71 e33d 95a5 403e 62c2 d3ba 171a 8bbd
00000030: 070f a1be b770 82bd cf52 883d 9ccf 003d
00000040: e6d7 973d 3fd4 ccbd 2310 a3bd d5ad 59bb
00000050: 9388 2ebd aeba b63c 0384 1bbc b5f8 ddbd
00000060: ffcb 653d 29ca 7a3c 961a ae3d a9de 273d
00000070: 73f3 a7ba 840b 8bbc fcd7 e03c dc85 f53d
