checkpoints/best_UNet_emb_snr_-4.pth (torch, 66906 bytes, 62 tensors)

EncList.0.conv.weight f4 [4, 2, 3]
00000000: ec13 98bc ae31 8a3d 393f bbbc f986 a23d
00000010: 6fd5 5f3e 5feb d13e c0a3 09bd 1c09 493e
00000020: 412e 2abe c000 89be f7cc d53d 2021 a5be
00000030: d697 9e3e 0dda b33e 460f 84bc 979c cebd
00000040: 83ee 403e d06a 4b3e 3dbd 89bd 0716 b0bd
00000050: f7d0 a1be d404 0d3b 2e4d c13d 8705 b1be
-0.018564187 0.06747757 -0.022857295 0.079359 0.21858762 0.40999886 -0.03360343 0.19632381
-0.16619207 -0.26758385 0.104394846 -0.32251835 0.30975217 0.35127297 -0.016120564 -0.10088461
0.18840985 0.19864964 -0.067255475 -0.085979514 -0.3160474 0.002151777 0.09438549 -0.3457453

EncList.0.conv.bias f4 [4]
00000000: c76c ad3e 7fbf 4e3e 6b70 123e 26ca 553e
0.33872053 0.20190237 0.14300697 0.20877895

EncList.0.bn.weight f4 [4]
00000000: dc48 973f c0a7 783f fc11 813f 6c69 543f
1.181911 0.97130966 1.0083613 0.8297336

EncList.0.bn.bias f4 [4]
00000000: 7c2b d33c 15b9 91bc 4c95 17be d6bd cf3d
0.02577757 -0.01778845 -0.14803046 0.1014363

EncList.0.bn.running_mean f4 [4]
00000000: feb4 893e 6904 803e 07ac bc3d 2eb1 803e
0.268959 0.25003365 0.09212499 0.25135177

EncList.0.bn.running_var f4 [4]
00000000: b05e 563f 1533 c33e 0615 a43f cbb7 373f
0.8373823 0.3812491 1.2818916 0.7176482

EncList.1.conv.weight f4 [8, 4, 3]
00000000: 54c6 e2bd 86e8 75be f520 7cbc 40bf 323e
00000010: 698d 843e 800d 06bd 702c 8fbd 5c96 3dbe
00000020: 961d 313b 73d7 913e 43f2 a9bc f1ae fbbd
00000030: 8e73 4f3e 7231 e33b 763a 943e f259 13be
00000040: 0a70 b7be 61e1 50be e289 383b d457 d0bd
00000050: 0351 85bd 3d65 863d 0273 52be 9579 e93d
00000060: ced6 a8be f9b8 dfbd 2148 fcbe e025 00be
00000070: 1596 2abc 4e41 fc3d 8b24 bebc 5beb 60be
00000080: 32b2 90bc 36c8 bfba ca47 863e 044e e5bc
00000090: e078 87be 1d0b e13d 6721 fe3b 265f 673e
000000a0: 6643 b339 f2a8 133e a504 393e 3943 21bd
000000b0: 258f 1f3e e3ea 95bc 66f2 85be 5e96 3dbe
000000c0: 4144 b13d caf6 febd eff4 873d 2a6f 2bbe
000000d0: 11d7 85be 2863 70bb 330a 8cbe 6e7a 3ebe
000000e0: b33c edbb 92c5 08be b669 bd3e 5450 b73e
000000f0: 462a 73bd 123e 4b3e b0fc e73d 7e44 ddbd
00000100: 4a2f 55be 514f a0be 022a 1a3d 406c abbe
00000110: b88d 9abe efc2 863e 87ef 983c d41d a63b
00000120: 9100 503e fdd3 973d 346c 4c3e c19e 373e
00000130: eea2 013e 2f59 243e 88f7 09be eac6 093d
00000140: b3ae 473e 0c65 8b3e 2df1 c2bc 16b5 f53d
00000150: 04a6 833d 913b 223d 0950 5dbe 411d d03d
00000160: ca7a 893e b71c 10be 46c9 a43e 14f8 a33c
00000170: f81a a0be a1b4 10bc cf06 d03d b95f cc3e
-0.11072984 -0.24014482 -0.015388717 0.17455769 0.25889137 -0.03272772 -0.06990898 -0.18514389
0.0027025691 0.28484687 -0.020745402 -0.12289227 0.20258924 0.0069333846 0.28950852 -0.1438978
-0.35827667 -0.20398475 0.0028158356 -0.10173002 -0.065095924 0.065622784 -0.20551684 0.11400143
-0.32976383 -0.109239526 -0.4927378 -0.12514448 -0.010411759 0.123171434 -0.023210784 -0.21964781
-0.017663095 -0.0014631811 0.26226646 -0.027991302 -0.26459408 0.10988448 0.0077554467 0.2259489
0.00034191756 0.14419916 0.18068178 -0.03937075 0.15581949 -0.01830048 -0.26161498 -0.18514392
0.086555965 -0.12449415 0.06638514 -0.16741624 -0.26140645 -0.0036680195 -0.2735153 -0.1860139
-0.007239902 -0.13356617 0.36994714 0.35803473 -0.059366487 0.19847897 0.11327493 -0.108040795
-0.2081882 -0.31310514 0.037637718 -0.33481026 -0.30186248 0.26320598 0.018668903 0.0050694738
0.20312716 0.074134804 0.19963151 0.17931654 0.12659809 0.16049646 -0.13473332 0.033636965
0.19500236 0.2722553 -0.023796642 0.1199743 0.06428149 0.03960759 -0.21612562 0.1016183
0.26851493 -0.14073454 0.3218481 0.020015754 -0.31270576 -0.008832128 0.10157549 0.3991678

EncList.1.conv.bias f4 [8]
00000000: e00e 86be e04b 643e 0e07 47be 969f 57be
00000010: db49 80bd 84ac 933e cb17 aa3e 4194 8bbe
-0.26183224 0.22294569 -0.19436285 -0.21056971 -0.06264087 0.28842556 0.33221278 -0.27261546

EncList.1.bn.weight f4 [8]
00000000: edce 673f 66c9 6d3f dd6d 3e3f fdde 713f
00000010: 59ed 3b3f 4a4a 6d3f bfab 533f c728 763f
0.9055012 0.92885435 0.7438639 0.9448088 0.7340904 0.9269148 0.8268394 0.9615597

EncList.1.bn.bias f4 [8]
00000000: c3e2 1d3e afca 4e3b 6939 8a3e d666 1e3d
00000010: 4bd5 79bd 278b 8c3e 7d52 3abd ed22 bc3e
0.15418534 0.0031553914 0.26996925 0.03867229 -0.060994428 0.27449915 -0.045488823 0.36745396

EncList.1.bn.running_mean f4 [8]
00000000: 7f62 9ebe bdea 193e fdbe 16bf a58d 67be
00000010: 9e56 f7bd 463e e83d 0c54 583f 8ce9 94bd
-0.30934522 0.15030952 -0.58885175 -0.22612627 -0.12077068 0.11340003 0.84503245 -0.07271108

EncList.1.bn.running_var f4 [8]
00000000: 3aa9 803e 80bb cd3e ed7e df3e 2354 f83d
00000010: 4240 5a3e bc5f 8f3e c13d 3c3e fd64 363e
0.2512911 0.40182114 0.43651524 0.12125423 0.21313575 0.28002727 0.18382932 0.17811961

EncList.2.conv.weight f4 [16, 8, 3]
00000000: dfb2 24be f6c1 82bc d7d6 1c3e fb36 23bc
00000010: 33e8 2dbe d703 ec3d 4b95 ef3d 5ee1 063e
00000020: 704e f23b 9bcd 013e 1dab f7bd 1c63 df3c
00000030: 908b a83d c070 343e 1d6b 1b3e 3334 b9bd
00000040: 9eb1 a13d 1a1b 4fbe 566c 65be 89e9 d33d
00000050: 7666 20be 116b 0e3d edc4 613e 5ff2 9bbc
00000060: 1500 8ebe f2e7 3d3e 873b 1e3e 76aa 3c3e
00000070: d6d1 76be 2fd9 21be 15ea 28be f35c f93b
00000080: 679a b8bd b5ac 95bd 61cd a2bc 1d14 be3d
00000090: 40ce b13d 9024 5dbd 515e c03a 3323 933c
000000a0: b799 0b3e 8c41 f6bd 1e44 4bbe 1a01 313d
000000b0: ef52 b43d 7e52 873d 2bc7 c23d 978d cbbd
000000c0: 8069 bdbc 3ff8 bcbe 78eb 34bd ecbe 113d
000000d0: 1b3f 623d e5b7 a03c 09c8 27bd 9d0d a8bd
000000e0: 0d5a 033d 8f8d ef3d 30b1 e43d d184 42bc
000000f0: a2d6 8e3d d8bb 5ebe 2a53 6bbe 1c49 603e
00000100: a5ce c8bd 2fc5 89be cd77 4f3d 3236 323d
00000110: 90a5 87bd 24ea c8bd 6594 763b 817a c0ba
00000120: 3c9e 013d c0cd 3d3e 1a87 05be 7c19 f9bd
00000130: 7cf2 66be 7da4 1f3e 85f0 f0bd 88ce 75be
00000140: ec40 193d 2caa 203e 7930 37bc 9d50 b9bd
00000150: 877f 87bb e138 09be 7c7e a4bd ad8c 04be
00000160: ba22 32be 08dc 1ebc d4a4 323e 9025 85bd
00000170: 2d12 1b3e 7e88 3e3e 1094 2b3e b5bf 303e
00000180: 5ce9 20bd 0218 88be b8ed 08be 51ec 5c3d
00000190: 1f94 283c f107 413e 4863 11be f3a3 80bc
000001a0: daa9 1cbe c3c6 b93c c12f 153d 8e72 0f3d
000001b0: f53b 32be 0f41 4cbe 74ef 393e 670d 2bbe
000001c0: 339f 08be b096 e23d eeb3 123e 076b 1fbc
000001d0: c18e 923d 657b 63be 5863 033d 6635 783e
000001e0: dffd 6abe 7c37 07be a290 86bd 6c24 a03d
000001f0: 1ca2 69bd 4bd2 453c dc52 febd a44b a03d
00000200: 183b 21be 463d 393b 0bab 7fbd 1806 733d
00000210: 8027 eebd eda3 c4bd cc12 553c 29f7 b23d
00000220: 6805 15bd 67bb 793e 91df 34be 197f 13be
00000230: b25e 98bd 7bee c0bd 815d 2bbe 3daa 65bc
00000240: 2e44 cfbd c7fe 5d3d 682c 0fbd a9d8 763e
00000250: 7ff5 023d 26b8 0b3e 391a cc3d 1476 babc
00000260: a331 90bd 36dd 8cbd e2f1 12bc ceea c13c
00000270: c7c1 6bbd 6513 93bd a21a b6bd ce77 6e3d
00000280: 21b7 13bc 8bda 33be 0843 4abd 057f 333e
00000290: e52f 333d a9bd 5dbe c4b7 0bbe 0f70 dbbd
000002a0: 3390 7a3d 0cd8 ed3d dd07 b43d ca7d 24be
000002b0: 98e7 dc3d cd22 33be 9cae f13c 2159 e13d
000002c0: 38d5 4cbe b6c6 843c 5643 2bbe 53ff ec3d
000002d0: f6c4 f83d 716f cf3d 02e0 f1bb 4aed 0d3d
000002e0: de01 78bb f9a4 4fbd 0328 99bd ee9a 9bbe
000002f0: 75e3 e93d fa70 febd 51c9 64bd d001 37be
00000300: 9955 923d 6471 22bd 7332 263e c8ea 6abc
00000310: ff70 293e 3f68 d33c 861e 09be adba 83bd
00000320: 186d 323e 8be2 333e f1d1 e2bd 3e76 db3d
00000330: e873 7cbe 363f 573e 9209 05be c994 9fbd
00000340: 4b2f 09be 88d4 273d 4f37 b3bd f3f4 c7bd
00000350: 9a73 c0bd 30b9 96bd 9293 45bd 9a67 9abd
00000360: af13 81be 3ea2 c3ba 493c 473e 1753 29be
00000370: 89ab 943c 13b4 d03d 793c a1bc 5ffe a73d
00000380: 0231 343e 031c 8d3d 687e f63b 3ec7 17be
00000390: 5212 81be d4d5 d13d c547 0f3e c655 26be
000003a0: b971 46bd 6f5c a43b 9518 ae3c c002 6ebd
000003b0: 0524 3bbc 3ce2 acbd e456 743d 1b8d 47ba
000003c0: d71f c6bd cae9 203e 081b 5e3e e6d8 063e
000003d0: 16a3 343e 2234 01be b36e 633e 364d cd3d
000003e0: cd7c 06be e8de adbd 8a16 fcbc 9e50 093d
000003f0: 3d4b fc3d 81cf b2bc 3663 3c3e 8e46 553e
-0.16083859 -0.015961628 0.1531633 -0.009961839 -0.16983108 0.1152417 0.11698397 0.13171908
0.0073946044 0.12676089 -0.12093184 0.027268939 0.082297444 0.17621136 0.15177579 -0.09043159
0.07895206 -0.20225182 -0.22404608 0.10347278 -0.15664086 0.034770075 0.22047777 -0.01903647
-0.27734438 0.18545511 0.15452395 0.184244 -0.24103484 -0.15805505 -0.16495545 0.0076099574
-0.09013825 -0.07308332 -0.019873323 0.0928118 0.08681917 -0.053989947 0.0014676546 0.01796112
0.13632856 -0.12024221 -0.19850203 0.04321394 0.08804881 0.06607531 0.095106445 -0.099391155
-0.023121595 -0.36908147 -0.044169873 0.035582468 0.055235963 0.019618938 -0.040962253 -0.082057215
0.0320683 0.11696922 0.11166608 -0.011872486 0.06974532 -0.21751344 -0.22980943 0.21902889
-0.09805039 -0.26908252 0.05065136 0.043508716 -0.066233754 -0.09810284 0.003762507 -0.0014684947
0.031645045 0.18535519 -0.13039818 -0.12163064 -0.22553438 0.15590091 -0.117646255 -0.24004567
0.03741543 0.15689915 -0.01118099 -0.09048579 -0.0041350755 -0.13400604 -0.080319375 -0.12944289
-0.1739606 -0.009696014 0.1744569 -0.06501305 0.15143652 0.18606755 0.167557 0.1726063
-0.03928505 -0.26580817 -0.13371933 0.053936306 0.010289221 0.18850686 -0.14198029 -0.015703177
-0.15299168 0.022677785 0.036422495 0.035021357 -0.17405684 -0.19946693 0.1815775 -0.16704331
-0.1334198 0.110638976 0.1432645 -0.009730107 0.071561344 -0.2221504 0.032077163 0.2423912
-0.22948407 -0.1320476 -0.06570555 0.07819447 -0.057039365 0.0120740635 -0.12418148 0.07826927
-0.15745199 0.0028265282 -0.06241898 0.059331983 -0.11628628 -0.09601579 0.01300497 0.08738548
-0.03638211 0.24387895 -0.17663409 -0.14403953 -0.07439937 -0.094204865 -0.16734888 -0.014017639
-0.10120426 0.054198053 -0.03495446 0.24106087 0.031972405 0.13644466 0.09965939 -0.022761382
-0.070407175 -0.0687813 -0.008968802 0.023671534 -0.057557847 -0.071814336 -0.088917986 0.058219723
-0.009015829 -0.17563836 -0.049380332 0.17528923 0.043746848 -0.21654381 -0.1364432 -0.10714733
0.061172675 0.11613473 0.08790562 -0.1606361 0.107863605 -0.17493744 0.029502206 0.11003328
-0.20003211 0.016208034 -0.16724905 0.11572137 0.12146942 0.10128678 -0.00738144 0.034650125
-0.003784291 -0.05069444 -0.07478335 -0.3039164 0.11420337 -0.12423892 -0.055856053 -0.17871785
0.07145233 -0.03965892 0.16230182 -0.014338203 0.16547011 0.025806544 -0.1339055 -0.0643209
0.17424428 0.17566888 -0.110751994 0.10715912 -0.2465359 0.21020207 -0.12991932 -0.077920504
-0.13396947 0.04097417 -0.08750784 -0.09763517 -0.09397049 -0.073595405 -0.048236437 -0.07539292
-0.2521033 -0.0014925671 0.1945659 -0.16535603 0.0181482 0.101905964 -0.019682156 0.08202814
0.1759682 0.068901084 0.007522393 -0.14822099 -0.2520929 0.102458626 0.13992222 -0.16243657
-0.048448298 0.0050159018 0.021251956 -0.05810809 -0.011422162 -0.08441588 0.059653178 -0.0007612274
-0.09674042 0.15714183 0.21689999 0.13168678 0.17640337 -0.12617543 0.22210197 0.100244924
-0.13133545 -0.084897816 -0.030772466 0.03352415 0.12319038 -0.021827461 0.18397221 0.20827696

EncList.2.conv.bias f4 [16]
00000000: bac9 af3c bf0a 1ebe daf8 afbd 68d3 bebd
00000010: 0373 f1bd 3620 ebbd 3634 2e3e 56a6 ca3d
00000020: 2cf2 643e 7538 a4bd d2ee ff3d 8e14 6ebd
00000030: 02df c9bd 5685 88bd 2c65 4f3c 61e1 883d
0.021458495 -0.15433787 -0.085923865 -0.09317666 -0.11789515 -0.11480753 0.17012104 0.09895007
0.22358006 -0.08018581 0.12496723 -0.05812507 -0.098569885 -0.06666057 0.012658399 0.066836126

EncList.2.bn.weight f4 [16]
00000000: 8b0b 5e3f 5748 533f e505 6e3f d119 693f
00000010: e1d6 733f 0cea 753f c83f 823f a31e 603f
00000020: df71 553f cf64 573f 2fe8 563f c660 693f
00000030: e14c 5d3f 18db 813f 66cf 763f 93f3 613f
0.86736363 0.82532257 0.92977744 0.9105502 0.95249754 0.9606025 1.0175714 0.8754675
0.8337688 0.84138197 0.83948034 0.9116329 0.8644543 1.0144987 0.96410215 0.8826229

EncList.2.bn.bias f4 [16]
00000000: c58a 113e 527d 85bd 9619 eb3d 8fb2 513e
00000010: 5f9a e2bd 2101 743e 3c54 9e3d ecf9 4fbc
00000020: 0bad 533c 21e3 293e 064c 473e 474d 7b3e
00000030: e934 4c3e b165 293e a2da 073e f963 873e
0.14213093 -0.065180436 0.114794895 0.20478271 -0.110646 0.23828556 0.0773091 -0.012693863
0.012919675 0.16590549 0.19462594 0.24541198 0.19942059 0.16542698 0.13266996 0.2644346

EncList.2.bn.running_mean f4 [16]
00000000: cc70 143e f685 8bbe 1925 cdbe 019f debd
00000010: 2232 b4be 09f1 00bf 781e 36bd 1e11 06be
00000020: b291 ea3d 0f1f 23be e503 3f3f c296 693e
00000030: dcf6 fdba e29d 88be 4799 fc3e 5a31 473e
0.14496154 -0.27250642 -0.40067366 -0.10870171 -0.35194498 -0.5036779 -0.04446265 -0.13092467
0.114535704 -0.15929817 0.7461532 0.22811416 -0.0019375938 -0.26682955 0.4933569 0.1945242

EncList.2.bn.running_var f4 [16]
00000000: 7149 063e 2f6c 063d dc5f 703e 03e1 ac3e
00000010: 86a7 283e 8ec0 1e3f eb93 7c3e 4dec af3d
00000020: c391 c33d 736c 373d 9b37 963e 3c43 953e
00000030: 0bc9 f43e 9d39 573e 69a4 023f 19c1 9a3d
0.13113953 0.032818016 0.23474067 0.3376542 0.16470155 0.62012565 0.24665801 0.08589993
0.09549286 0.04478116 0.293393 0.29152858 0.47809634 0.21018071 0.5103212 0.07556362

EncList.3.conv.weight f4 [32, 16, 3]
00000000: 7e60 563d d71f 113e 1f94 443d 8d65 8cbb
00000010: a290 18bb ca43 933d 7f5f 363d 5047 923c
00000020: a4a5 d73d b192 a03d 7617 c8bd b545 0fbe
00000030: a461 0bbd 8aab d6bd 7e30 94bd 94de 8dbd
00000040: e5aa 8e3d e04b c63d a59f 92bc b818 ccbd
00000050: d674 0ebe bcc4 263e fa1c 10bc acae 113e
00000060: aa53 0abb 19d5 453d 8278 f9bd 1dba acbc
00000070: 76c3 eebc b1f7 493e 3471 aabd 1923 c3bd
00000080: a2d0 be3b f99c 36bc 2df8 cdbc 95ac 6bbd
00000090: dc82 173e 1ea9 01be e68a 933d 7395 ed3d
000000a0: 13f2 d13b c32f ec3b 5154 403e 90a6 1d3e
000000b0: b228 633d 3a59 5c3c 69da 92bb f53d 123d
000000c0: 9b84 a8bd 9de6 063e b76d 8ebd a66b ce3d
000000d0: cf5f 96bd 2d26 b8bd 0c8c 03be fdd5 2abe
000000e0: b002 be3c 9289 00bb 1a7a 6b3d ab44 b8bc
000000f0: 7d5c 253e ca2b 14be 061e dcbd f243 cebd
00000100: 7506 babd 8def e2bd 7d84 a93d e45a a73c
00000110: f203 273e 77c1 86bd 715d c93d 2042 093d
00000120: bde2 8a3d 9293 d43d 262d 6f3c 4492 df3d
00000130: 6e55 c13d 9cde a8bd c3e3 f93c fbe7 6e3d
00000140: 7dbc 9dbd 93d8 cb3c a490 65bd 99d6 4e3d
00000150: d10e a73d 53bf 273d ae94 ff3d 0678 f1bc
00000160: 15b8 e3bc f3c0 f9bd 4e2d 443e 27a3 6ebd
00000170: 662d 8b3d 32c7 d6bd 67ff 66bc e3ee 3cbb
00000180: 2ba9 81bb 6e1f 853d 8d45 71bd 8e2a 05be
00000190: 5455 c83d 107c fc3d daa9 efbd 9374 21bd
000001a0: 552a 0ebd f242 983d 4e06 fcbd 10ae a03d
000001b0: 845a 613d 509c d73d 4e24 0b3d d95a 9cbd
000001c0: f0f3 32be 0eda 75be 47b8 acbd b604 d93d
000001d0: 2093 ca3c 4126 283d 76fc 3c3d 4ca8 413d
000001e0: c411 e53d a4a8 9dbb 8b37 fabb 7e37 1c3e
000001f0: 4afe eb3d c22c c4bd e547 d4bd c19b 4ebd
00000200: 58c0 453d 2dc7 94bd 4449 0a3d f4b7 84bd
00000210: 1af3 e7bd 2b8e 0ebe 7772 443e 9c15 4bbc
00000220: aa49 b43d 3402 d4bc b04c a43c 1e0c 4dbc
00000230: afc8 bc3d 0ead 02be 4ac3 d5bc d194 b6bd
00000240: 3a08 cabd 2114 62bd 08ef 66bd 023a 643b
00000250: 0575 5b3c 511d c23c c786 423d 70e9 063e
00000260: 7e21 953d 383b 1dbc 703e 093d c18a a7bd
00000270: 7a2e d03c 57b5 16bc c06a 53be ac9c 8f3d
00000280: ff2f 233d 2dc0 02be bfa6 493e 512b 563d
00000290: acbf 0ebd ff7a ae3d e4dc 413e bf64 8fbb
000002a0: 91fd 73bd cfbc 04bb ea7f 253d 8840 f53d
000002b0: 4c9d ff3c 6b18 d2bc 81ee e7bd 36a7 683d
000002c0: 9d16 bdbd 372e 0c3e d646 b83d 1a46 01bd
000002d0: 932f 55b9 afef 823c 62c6 b53d f588 873d
000002e0: 4e82 5d3d 078d 4d3d 8e59 0dbe 819c 9fbd
000002f0: f3ec b9bd 621e a93c 373e 9ebd 52fb 12be
00000300: 21cc 0b3d a0c7 f1bd cc83 953d 735e 1bbd
00000310: 49ab 89bd 4eaa 19be 5880 17be b9b0 95bd
00000320: 48ce b1bd 74d1 3fbd 7892 0f3e bb79 793b
00000330: 4cc6 e3bd 3212 f4bd 711a fcbd da3e 80be
00000340: bd53 e6bd d816 24bd 1ac0 15be a519 0dbd
00000350: cfa7 a6bc 4fd1 9bbd a62e a2b9 4bdf 0a3e
00000360: 30c0 343e 6f62 acbb c630 363c 1f41 2f3d
00000370: 9631 5bbd 42b2 38bd 439b 5bbd a332 133e
00000380: c762 ce3d ddb6 f4bb 1ac6 2e3c f738 b2bd
00000390: 20dc f63c 884c 5ebd 8c93 23be 29a9 883d
000003a0: 6c63 3b3e 6f3f 1ebc 1936 cf3c 7595 a1bd
000003b0: 554d debb 8c59 8ebd 7db2 95bd 93f1 e53d
000003c0: 4872 0ebe eed2 fbbc 4b30 89bd 2341 ab3b
000003d0: 6494 7e3b 3af0 d13d f7af bb3b 0ce5 0cbe
000003e0: 2f01 49bd 4622 3ebd 9e9a 78bc 19f6 bb3d
000003f0: 2a14 0f3d e93b 1dbe 6042 833d 7ca7 bc3d
0.052338116 0.14172302 0.04799282 -0.0042845667 -0.0023279567 0.07190664 0.044524666 0.01785627
0.1052964 0.07840479 -0.097701 -0.13991435 -0.034028664 -0.10481937 -0.07235812 -0.06927219
0.06966189 0.09682441 -0.01789839 -0.09965652 -0.13911757 0.16285986 -0.008795971 0.14226788
-0.0021106997 0.04829893 -0.12181188 -0.02108484 -0.029145937 0.19723393 -0.08322373 -0.09528179
0.005823211 -0.011145824 -0.025142753 -0.057537634 0.14796013 -0.1266217 0.07204227 0.11600771
0.0064070313 0.007207842 0.18782164 0.1539557 0.055458732 0.013449008 -0.004481603 0.035703618
-0.082284175 0.1317391 -0.0695452 0.10079126 -0.07342493 -0.089916565 -0.12846392 -0.16683193
0.02319464 -0.0019613248 0.057489492 -0.022493681 0.16148563 -0.14469829 -0.10747914 -0.10071553
-0.09083263 -0.11080847 0.08277223 0.020429082 0.16310099 -0.06579869 0.09832276 0.033510327
0.06781528 0.10379709 0.014598167 0.1091657 0.094401225 -0.08245584 0.030504113 0.058326703
-0.07701967 0.024883544 -0.056046143 0.050497625 0.08157123 0.040953945 0.1247953 -0.029476177
-0.027797738 -0.12195005 0.19157907 -0.058261063 0.067957684 -0.10487212 -0.014098979 -0.002882891
-0.003956934 0.06500135 -0.05890422 -0.13004515 0.097819 0.123283505 -0.117023185 -0.039417814
-0.03470834 0.07434644 -0.1230589 0.078457 0.055017963 0.10527861 0.03397017 -0.07634515
-0.17475867 -0.24008963 -0.084335856 0.10596602 0.024728358 0.041052107 0.046139203 0.04727964
0.11185029 -0.0048113633 -0.007636016 0.15255544 0.11523111 -0.095788494 -0.10365275 -0.050441507
0.048279136 -0.07264552 0.033761278 -0.06480399 -0.11325665 -0.1392142 0.1918429 -0.012395289
0.08803113 -0.025879957 0.020056099 -0.012515096 0.09217965 -0.12761328 -0.026094098 -0.08915103
-0.0986485 -0.055194978 -0.0563803 0.0034824614 0.013394599 0.02369562 0.047491815 0.13174987
0.07281779 -0.009596638 0.03350681 -0.08180762 0.025412787 -0.009198508 -0.2064619 0.07012305
0.039840695 -0.12768622 0.19692515 0.052287403 -0.03485076 0.085195534 0.1893192 -0.0043760235
-0.05956799 -0.002025414 0.04040519 0.11975199 0.031202935 -0.025646409 -0.11324788 0.05680009
-0.09232829 0.13689505 0.08997886 -0.031560995 -0.00020330986 0.01598343 0.08875729 0.06617919
0.054079346 0.050183322 -0.13803694 -0.077935226 -0.090783976 0.02064437 -0.0772671 -0.14353684
0.03413022 -0.118056536 0.07300529 -0.03793187 -0.06722123 -0.15006372 -0.14795053 -0.07309098
-0.08681923 -0.04683061 0.14020717 0.0038066942 -0.111218065 -0.11917533 -0.12309731 -0.25047952
-0.112464406 -0.040060848 -0.14624062 -0.034448285 -0.02034369 -0.07608282 -0.00030933804 0.13561742
0.17651439 -0.0052607576 0.011120027 0.042786714 -0.053514086 -0.045091875 -0.053614866 0.14374785
0.10077434 -0.007468088 0.010667348 -0.087022714 0.03013426 -0.054272205 -0.15974253 0.0667289
0.18299645 -0.009658678 0.02529435 -0.07889835 -0.006784121 -0.069506735 -0.073094346 0.11227717
-0.13910782 -0.030740228 -0.06698664 0.0052262708 0.0038845772 0.10250898 0.0057277638 -0.1375925
-0.049073394 -0.046419404 -0.015173582 0.09177799 0.03493134 -0.15354885 0.064091444 0.092116326

EncList.3.conv.bias f4 [32]
00000000: a655 a2bd e78b 98bd 1a60 4abd f85f 0c3e
00000010: a344 a03d 47dc aa3d 7124 d63d 3459 283d
00000020: 899a 2b3d 2e05 34be 1e4c 133d e31c ee3d
00000030: aeec a3bb e276 163e ff72 24be 70d6 dbbd
00000040: 567d 583c b559 85bd ccf6 4bbd cf63 113e
00000050: 1f03 a4bc c415 c23d 3995 06be 8367 7f3d
00000060: a2b5 03be 19e8 29be b7ec 053e 4aed 03bd
00000070: 3270 ed3b 1421 f53d 61fa 25bc 7cda 03be
-0.079264924 -0.07448559 -0.049408056 0.13708484 0.078255914 0.08342796 0.104561694 0.041100696
0.041895423 -0.17580101 0.035961263 0.116266035 -0.0050025797 0.14693788 -0.16059493 -0.1073426
0.013213476 -0.06511251 -0.04979591 0.1419823 -0.02002102 0.09476808 -0.13142861 0.062354576
-0.12862256 -0.16592444 0.13078581 -0.03220872 0.0072460407 0.119692 -0.010130496 -0.12876314

EncList.3.bn.weight f4 [32]
00000000: cea1 763f 5cde 703f c8b0 6f3f fd76 7d3f
00000010: 4a63 803f 1a37 753f a7c4 673f 7c1d 6d3f
00000020: eb4e 833f a1be 773f 314a 6f3f 8b25 7f3f
00000030: aab8 733f 8e02 673f 42ec 803f 13b6 6f3f
00000040: e62a 863f c41f 7d3f d08e 7d3f 2cc1 763f
00000050: 6f8a 7f3f 9ab4 723f 64c0 6c3f 5dd1 783f
00000060: 6848 733f 3967 6e3f be13 763f 4ea6 843f
00000070: bab4 703f dad7 763f e11c 5f3f 29ce 823f
0.96340644 0.94089293 0.9362912 0.99009687 1.0030301 0.95787203 0.9053444 0.92623115
1.0258459 0.9677525 0.9347258 0.9966666 0.9520365 0.90238273 1.00721 0.936372
1.0481842 0.98876595 0.9904604 0.96388507 0.9982061 0.94806826 0.92481065 0.97194463
0.9503236 0.93126255 0.96123874 1.0363252 0.94025767 0.96423113 0.8715344 1.0219165

EncList.3.bn.bias f4 [32]
00000000: 3886 6a3c de3e 203d bbde 403d 8c97 61bc
00000010: 3c16 293d d309 65bd e199 acbb 6c4f 88bc
00000020: b066 a43d 0282 673e cfb3 ccbd 7a03 943d
00000030: 2406 52bc 1665 e43c fc2d cb3d e103 d63d
00000040: 4c2f 07be 84a1 ef3d 56c6 8cbd da9f c83c
00000050: bec9 2d3e f398 743e 49d9 edbb 1fea fc3d
00000060: 5594 0c3e 180c 18bd 3df9 bf3d 6b31 c73d
00000070: 35cb 8abd ece5 dabd 3de0 2c3d 9bcf 203d
0.014314227 0.039122455 0.047087412 -0.013769042 0.04128097 -0.055917572 -0.005267367 -0.016639434
0.080273986 0.22608188 -0.09995233 0.072272256 -0.012818847 0.027880233 0.0992088 0.104499586
-0.13201636 0.117007285 -0.06873767 0.024490286 0.1697149 0.2388647 -0.0072585684 0.123493426
0.13728459 -0.03712091 0.0937371 0.097262226 -0.0677704 -0.10688385 0.042206038 0.039260488

EncList.3.bn.running_mean f4 [32]
00000000: f3c3 333e c27a a1bd 05e5 8ebe 264e 703e
00000010: 95b1 c7be 44ee 863e 3572 a23d 2829 58bd
00000020: 727f 973d 6893 9bbe 63f1 f0bd ac0f d1be
00000030: 1edd aa3e f755 5e3c 7219 52be 5217 e53d
00000040: dd7c 74bd d73a f9bc f511 df3e 97eb e53d
00000050: 9433 f2be 4fec f83d 183d 0ebe a426 813d
00000060: 0e6e 1d3e 592b 1cbe 2815 3c3e 254d 11bd
00000070: 33fc f03c 9e17 1f3e ebc9 363e 5655 55bf
0.17555217 -0.07884742 -0.27909103 0.23467311 -0.39002672 0.26353657 0.079319395 -0.052773625
0.07397355 -0.303859 -0.11764791 -0.4083227 0.33371824 0.0135703 -0.20517519 0.111860886
-0.05968939 -0.030423565 0.43568388 0.11226576 -0.47304976 0.12154447 -0.13890493 0.06306198
0.15374014 -0.15250911 0.18367445 -0.03547396 0.029417133 0.15536353 0.17850463 -0.8333334

EncList.3.bn.running_var f4 [32]
00000000: 25a3 4c3e f0ec 1d3e 8208 203e 608d 733e
00000010: f8f3 343e 95d4 393e b424 933d 354a 973e
00000020: 022f a53d 7d33 043e ca02 a03e 36c4 cb3e
00000030: 1897 0c3e bd1c a13e 68ec 9a3d 63ea da3d
00000040: 5471 a43d d4d8 713d 7931 313e ef60 473e
00000050: 3175 ce3e 17dd 9c3d 0c47 593e 152a e43d
00000060: 0428 9f3d ef30 5d3e c393 d53d 280a 933d
00000070: 2f91 b53d c950 b43d 728a a63d db97 043f
0.1998411 0.15422416 0.15628245 0.23784399 0.17671192 0.181475 0.07184735 0.29548803
0.08065607 0.12910266 0.31252128 0.39798135 0.13729513 0.31467238 0.07564622 0.10689237
0.08029428 0.059044674 0.17304029 0.19470571 0.40323785 0.07659357 0.21218508 0.11140839
0.07771304 0.21600698 0.10428574 0.071796715 0.08865582 0.08804471 0.08131875 0.51794213

DecList.0.conv.weight f4 [32, 16, 4]
00000000: cddf 0c3e e696 a2bd 9839 6f3e b56f 013d
00000010: 941a 113d 1aff 2fbd 4e87 733d ee6a 103e
00000020: 01d6 bf3d 221c b7bc fe7c 04be ba8c aabc
00000030: 8317 a33d 9b8e 8bbc bad5 d73a 7ff9 7fbd
00000040: b1ac f3bd 721f f3bd e1d5 4d3d 142c 82bd
00000050: 1323 913d 090f 8a3d 28ba ffba e6c4 4a3d
00000060: fca0 8dbd 130a ae3c 8aec 373e 8ca5 cb3c
00000070: 29b1 8e3d 72da 6bbd 881d 603d fcce 0b3e
00000080: 9089 6cbd 5a13 1f3b efa1 0c3d 6c31 88bc
00000090: 23cb efbd 3ef5 863c 0dc9 9fbd bd10 0fbd
000000a0: 8190 96bc 62f2 46bd 7a9b 70bd 839b 5bba
000000b0: 6218 05be 1fe2 3a3d 1696 a43c 6b45 15be
000000c0: 4d36 3c3d 9861 3abd f156 89bd 3522 24ba
000000d0: 1e45 18be 0a07 cdbd 5bae 6c3d d7b4 61bd
000000e0: e081 babd 8106 6cbd c533 d5bd 2c83 d2bd
000000f0: e3ab 103d 9d10 4dbd 8086 d3bd 8ea6 163d
00000100: 82e0 213d 8c3a 41bd 5600 e6bd 2764 72bd
00000110: a7a5 433c ffff 58bc bba2 87bd 5d80 c33d
00000120: 8ab9 9f3d 24d3 bcbc 2ac4 bbbb 0650 563d
00000130: 0c90 243d 2816 423c 0ad9 f4bd e89a 98bd
00000140: d3d0 1fbe 57ef 21bd cbc1 a8bd d83a 60bd
00000150: 8912 8e3c 4a01 513d aa0d 46bd b275 9ebd
00000160: 462c 63bc 7d2b 60bc d3f2 0ebe ff4a a03c
00000170: 9878 4c3c da52 e3bc d8e8 16be e1e2 5abd
00000180: 2a0f a7bd c730 c33c f5bb 74bd 6680 d0bd
00000190: 6059 cd3c 930f 93bc d14d b4bc d71c 94bd
000001a0: e5e1 bfbc 34d0 f23d fa6d cc3c f529 75bd
000001b0: 5c5d 7e3b 20f0 0b3d ae9a e0bd fb05 87bb
000001c0: 4bb6 b3bc dbbb 9f3d ae30 a7bd 46c8 a03d
000001d0: bf26 793d 76f5 a3bb 164d 7d3c a54a 01bc
000001e0: 28a6 29bd beff cbbd 84d7 69bd c080 46bd
000001f0: 4d95 39be d1f3 bbbd 549b b93d 3d81 e63d
00000200: aa28 813c c83a 8d3b 4b77 393d c04f f13d
00000210: 9685 9bbd 2e8a e2bc 07d5 1f3e a1c4 283b
00000220: 3ea5 443d bcf7 18be 03a2 dd3b 7a7a e4bd
00000230: 36c1 4b3d 41c1 8c3c 923f 18be 7ec8 a23d
00000240: 3e7f b7bd 1e29 c33c 5204 433d 9aa2 333d
00000250: 2eff fabd c9b1 2abc abb0 94bd 7a08 4ebd
00000260: 023b 89bc 454e cf3d a652 1ebd eeac 7c3b
00000270: 91b9 01bd b145 7f3d de1d 943d ff26 3f3c
00000280: 8b3d a83d 2676 f8bb 785c 223d 7a86 27bd
00000290: 1987 c23d 7c88 703d 4240 14bd 4729 f7bd
000002a0: 7718 503e ab64 9a3d 81fb b9bc 950e 97bc
000002b0: a421 19bd 7bad 7b3d b195 c9bc ab3f 11bd
000002c0: fced d0bb e11a cc3d 2149 9d3d 504d febd
000002d0: d8ed 11bd fb7f 053e fa47 1ebc e18b 8dbd
000002e0: b27e c4bb 22ef ba3c 0ffa 4a3c 8ac1 00be
000002f0: 39f8 b2bd e041 0abe af68 013e c91d 7c3d
00000300: 721d 263d 333d c63c b8a1 ac3d 0d35 423d
00000310: 32ae 083d aaee 1dbd 3e19 b3bd 6598 a0bd
00000320: 6162 b9bd c17d 0abe 6ecc 703d 2421 f0bd
00000330: f995 7ebd 9a03 16bd d084 69bd 67a5 9cbe
00000340: 4939 28bd 4285 673d 7b73 ccbb ccd4 07be
00000350: dd70 053d 5ae6 473e 0603 133e ac6e 35bd
00000360: c45d 1f3d 1167 6c3c d1f5 65bd 251b 643d
00000370: 76e8 1cbd c608 b43c 874b e7bd 7530 be3d
00000380: 9069 383e 82d5 1e3e c319 413d 08fa b73d
00000390: f5ba ff3d 0e30 4abb 3e37 b8bb f553 b73d
000003a0: 1ef9 113e 5c60 1fbc 90f6 253e ce64 993d
000003b0: 8122 c3bd 4d67 69bd 3337 3ebd 9d75 74be
000003c0: 0bad a03c 78b7 9b3c a1de dabd 3b10 ecbc
000003d0: 272f 283c b686 7d3d b4c8 923d 354a 603d
000003e0: 6706 353d 8752 333e 07a7 1f3e 08c1 f8bc
000003f0: bea0 aebd c072 f9bc 4f8a 99bd 0005 293d
0.13757248 -0.07938938 0.23361814 0.031600673 0.035425738 -0.042967893 0.05945521 0.1410329
0.0936699 -0.022352282 -0.12938306 -0.020819057 0.07963469 -0.017035773 0.0016466894 -0.062493797
-0.11898173 -0.11871232 0.0502528 -0.063560635 0.07086768 0.06741149 -0.0019510435 0.049504183
-0.06915471 0.021245038 0.17961326 0.024859212 0.06967384 -0.057581373 0.054715663 0.13653177
-0.057748377 0.002427301 0.03433412 -0.016625129 -0.11708667 0.016474362 -0.07802019 -0.034928072
-0.018379452 -0.048570998 -0.058742024 -0.000837736 -0.12997583 0.045625802 0.020091098 -0.14577262
0.045950223 -0.04550323 -0.06706036 -0.0006261201 -0.14870116 -0.10011108 0.057783466 -0.055104103
-0.09106803 -0.05762339 -0.10410265 -0.10278925 0.035320174 -0.05006467 -0.10328388 0.036779933
0.039520748 -0.047174975 -0.11230533 -0.059177544 0.01194135 -0.013244628 -0.06622835 0.09545968
0.07799061 -0.023049898 -0.0057301717 0.05232241 0.040176436 0.011846103 -0.119554594 -0.07451421
-0.15607004 -0.039534893 -0.08240088 -0.054743618 0.017342823 0.05102662 -0.048352875 -0.07737292
-0.013865536 -0.013682243 -0.13959818 0.01956701 0.012479924 -0.027749468 -0.1473726 -0.053439025
-0.08157189 0.02382697 -0.059749562 -0.1018074 0.025067031 -0.017951762 -0.022009762 -0.07232063
-0.023423145 0.11856118 0.024954785 -0.059854466 0.003881297 0.034164548 -0.10967003 -0.004120586
-0.02193751 0.077995025 -0.08163582 0.07850699 0.060827967 -0.0050036265 0.015460273 -0.007891332
-0.041418225 -0.09960888 -0.057090297 -0.04846263 -0.1812336 -0.09177364 0.090628296 0.11255119
0.01576646 0.004309986 0.045279782 0.11782789 -0.07593839 -0.02765378 0.15608607 0.0025751966
0.04800915 -0.14938253 0.006763698 -0.11156173 0.049744807 0.017181994 -0.14868 0.07948397
-0.089598164 0.023823317 0.047611542 0.04385624 -0.12255703 -0.010418364 -0.07260259 -0.050301053
-0.01675177 0.101223506 -0.03865304 0.0038555223 -0.03167111 0.062322322 0.07232259 0.011667012
0.082148634 -0.0075824438 0.039638966 -0.04089973 0.09498424 0.05872391 -0.036194094 -0.1206842
0.20321833 0.07538732 -0.022702934 -0.01843957 -0.037385598 0.06144474 -0.024607511 -0.03546111
-0.006376026 0.09966064 0.07679964 -0.1241709 -0.035627216 0.13037102 -0.009660715 -0.069114454
-0.0059965486 0.022819106 0.01238872 -0.1257383 -0.08738751 -0.13501692 0.1263759 0.061551843
0.040555425 0.024199104 0.08429283 0.047413874 0.03336925 -0.038557686 -0.08745049 -0.07841567
-0.090519674 -0.13524534 0.05878871 -0.11725071 -0.062154744 -0.03662453 -0.057011425 -0.30594942
-0.041070256 0.05652357 -0.0062393523 -0.1326477 0.032578338 0.19521466 0.14356622 -0.044294998
0.03890778 0.01442887 -0.056142632 0.05568995 -0.03830763 0.02197684 -0.112937026 0.09286586
0.18009019 0.15511134 0.04714371 0.089832366 0.12486831 -0.0030851397 -0.0056218198 0.089515604
0.14255187 -0.009727564 0.16207337 0.0748993 -0.095280655 -0.05698328 -0.04643936 -0.23872991
0.019613763 0.019008383 -0.10686994 -0.028816333 0.010265148 0.06189605 0.07167187 0.05475827
0.04419556 0.1751195 0.1559106 -0.030365482 -0.08526753 -0.030450225 -0.074970834 0.041264534

DecList.0.conv.bias f4 [16]
00000000: 0d1b abbb 1c82 523d 331c 6a3d 6e14 2c3d
00000010: 36d9 04be 7531 e63b c61f ccbd ee36 f43c
00000020: 7f0a 663d 686f a33d b750 c43d 3727 92bd
00000030: 8279 9fbd b869 de3d bf07 633d 7934 393d
-0.0052217306 0.051393613 0.0571558 0.04201167 -0.12973484 0.0070249387 -0.09966998 0.029811349
0.056162354 0.079802334 0.09585708 -0.07136386 -0.07786848 0.10860008 0.05542731 0.045216057

DecList.0.bn.weight f4 [16]
00000000: a2f5 813f 82b7 8f3f e10c a63f bb2e 8c3f
00000010: 2ffc 923f 39f9 823f c749 9d3f 59ca 9a3f
00000020: 9dd9 8c3f 10fb 943f 959d 833f 47f4 943f
00000030: 6fd5 8f3f de96 903f a109 763f 5cfc 7d3f
1.0153086 1.1227877 1.297268 1.0951761 1.148321 1.0232307 1.228814 1.2093002
1.100391 1.1639118 1.0282465 1.1637048 1.123701 1.1296041 0.9610844 0.99213195

DecList.0.bn.bias f4 [16]
00000000: ca75 7a3d 5106 b9be 70d7 533d e1e3 cf3d
00000010: bc12 8d3b fdc2 a23e 0500 23be 9222 c4bd
00000020: 12ed bc3c 9cf3 693e 0a48 2c3d 5df0 193e
00000030: a46a f63c 2e0b 4cbd e68e a13d 8c47 853e
0.06114749 -0.36137632 0.05171913 0.10150886 0.004305212 0.3178939 -0.15917976 -0.09576906
0.023062263 0.22846836 0.04206089 0.15033098 0.030080147 -0.04981535 0.07888584 0.26031148

DecList.0.bn.running_mean f4 [16]
00000000: 2316 323e 6177 2abd a835 d3be fead 2bbd
00000010: bd03 e3be 56d3 d93d 5074 a7be 37f5 e73d
00000020: 5d1e 013e 0e81 773d 3856 db3d c3d6 c1be
00000030: ebd9 aebe 1e28 713d 79d8 a8bd 98fb 54be
0.17391257 -0.041617755 -0.41251874 -0.04191398 -0.4433879 0.10636012 -0.32705927 0.11326068
0.12609239 0.06042581 0.10709804 -0.37859163 -0.34150633 0.05887615 -0.08244414 -0.207991

DecList.0.bn.running_var f4 [16]
00000000: b18a fd3e a8a8 c83e d13a 2b3f 5fac 513f
00000010: 5c50 f83e a763 263f 0b46 2e3f 755b 683f
00000020: 9afc b13e 98c7 c03e 839b ea3e 26b0 b73e
00000030: 8a18 e43e 188b e93e 449c b03e be4e ad3e
0.49519876 0.39191175 0.6688662 0.8190364 0.4849881 0.6499581 0.6807563 0.9076455
0.34763032 0.37652278 0.4582177 0.35876578 0.44549972 0.45613933 0.3449422 0.33849138

DecList.1.conv.weight f4 [16, 8, 4]
00000000: 1d92 183e f4ee ec3c 78fd 0f3e 6c0e 4c3e
00000010: da31 8dbd d52e 503d 99db 7dbd 7cb6 813d
00000020: 7e8e 75bd 6651 09be 09e3 0cbd e344 793d
00000030: 9fda 8e3d 1eed c4bd 6e46 e7bd 257d 263e
00000040: c404 b23b a5ae 953e 1a0d 133e 8b43 283e
00000050: a0e3 67bc 5abb 44be cea0 3bbd a64d 6fbd
00000060: 234e d33d 9e5e 963d 5239 9bbd 6914 afbc
00000070: f983 9c3c 31e3 15be 5e45 2abe 6842 19be
00000080: 6fc8 903d f042 0b3e d00c 993d 7d62 a3bc
00000090: 4918 afbd af43 2d3d 63b6 a8bc ae57 133d
000000a0: 0d27 c43d 4f16 56be cbb7 743d 39d0 99bd
000000b0: fe4c 20bd e231 9fbe 8c56 ad3d 551a bdbc
000000c0: 006d a73d f87c 433e 15b2 813d 4ad8 3e39
000000d0: dd8e 013e b988 a23d 4135 4c3d 92af 0e3d
000000e0: 7655 82be af9c 82be ffcd 9dbd c60d abbc
000000f0: 1f14 febc 8641 883d 547c e23d b475 bbbb
00000100: a794 95bd 8821 053d bf1d 793d e7d8 033d
00000110: 6423 4d3d f150 68be ebe6 593d 8d00 08be
00000120: 4d8f 3bbe 58cb 683c aae4 b7bd 6bfd 03be
00000130: 769b 32bd 0ae4 b13d 0f01 74bd e81e edbd
00000140: 3ad8 a3bd 2658 62bd 0cb7 c9bd f67f 25be
00000150: 48f8 1ebe 47e7 6fbe 8db8 56be 1595 27be
00000160: 63d1 c33d 2d5f 253d 9e11 bd3d 6c22 9e3d
00000170: d37f 093e 70d9 6d3d 9008 f13d 7223 1a3e
00000180: 7fb1 83bd 0a54 abbd 8b7c 573c eabb 733d
00000190: 7443 143e 8fb9 b23d b98e 5a3d 18b6 b53d
000001a0: b479 a3bd c8cd 13be 3df5 c33d 2bb8 24be
000001b0: 23ce 9abd 85ff d8bd 8667 22bd 41ff c0bd
000001c0: 9eaf 59bd bab8 b5bd 79ef c93c eb3d 4abd
000001d0: c624 56be f17d 18bc e75b c03b c133 a2bd
000001e0: 87f0 eb3d 2cc6 9d3c 9a41 f03d f850 213e
000001f0: cc2a 59bb 7cfb d33d 83ba 84bd 7f30 f3bc
00000200: c7b4 d83c 12d0 8fbd f448 833d 62b6 9c3d
00000210: 7100 323e 7de9 453e 03f9 203e 7476 623e
00000220: 6f87 53bc fb64 18bd 88fa 303d db8c e3bc
00000230: 43d2 b5bd 1685 273d 16bb 3bbe e930 31be
00000240: c209 08be ea01 2ebd fe73 b33d c5e6 8d3d
00000250: 1784 103d ec93 093d c31a 7cbd c0e2 dbbd
00000260: 453b a33c 1e37 8e3e 01cf 633e d420 133d
00000270: 1b6e d8bd 1450 14be a18f 7cbb 7ff0 22be
00000280: ef23 9fbd 3f5e 4abe bcf4 60be a40a 50be
00000290: ccba b3bd 7592 263e def3 b03c d24a bbbd
000002a0: b2e4 c73c c71c 11be e46f fbbd a79f 6fbd
000002b0: d1b5 cd3d f63c 2fbc d465 0e3e a9e5 b0bc
000002c0: 445a f9bd 35fb c03d 9230 303d 0476 92be
000002d0: e19e 063e 5079 483e 106f 4cbe 2495 45be
000002e0: 93bb 43bd 56d4 c03d 69bc f7bd 3854 f0bd
000002f0: ee89 0c3d 52aa 5d3d b353 503e 7e18 bc3d
00000300: f91f d03c 9d83 7e3e 5572 013e 144b ebbc
00000310: 100b 09be 2291 d7bd 8718 9d3d b76b 03be
00000320: 7d2d b2bd 16a2 fbbd 881c 3abe da4e 9abd
00000330: dc44 8abd 57c7 31be bb42 3abe cfe3 a1bd
00000340: 27f1 94be 4e88 b4be 467c 4bbe 49b0 bdbc
00000350: 3d32 dcbd 8fd1 1abd e306 373e 8f68 62bc
00000360: dffa e93b 1e78 7c3c ce61 743e 9684 1c3e
00000370: 41c9 28bc 3720 5a3e 1df0 a53d 4dba 333e
00000380: 3bee 68be 6625 c2bd 1a7a 3d3e 008c e33d
00000390: 0e13 e93d b050 8abe 8965 903c ac6b 87be
000003a0: f8c5 80be 38c8 93be 5ea1 0ebe 9844 25be
000003b0: 10e1 5bbd 3571 59be 4b86 b23a add5 88be
000003c0: 6c02 443c aa2b ca3c f10f b3b8 4fcb 243e
000003d0: dcf2 a0bc 792e b53d 757d 8abd 70d5 f23d
000003e0: 1422 c43d d99f c33a 58bb b13d 2a13 b93d
000003f0: c243 313e 58d9 943c 64c1 293e 8a99 d43d
0.14899488 0.028922535 0.14061534 0.19927377 -0.06894274 0.050825913 -0.061977003 0.06333634
-0.059950344 -0.13409957 -0.034396205 0.06085671 0.069752924 -0.09615539 -0.1129273 0.16258676
0.005432697 0.29234806 0.14360467 0.16432016 -0.014153391 -0.19212094 -0.045807652 -0.05842366
0.10317638 0.073422655 -0.07579292 -0.021372037 0.019105898 -0.14637448 -0.16628024 -0.14966738
0.0706948 0.13599753 0.07473147 -0.019944424 -0.08549554 0.042300876 -0.020594781 0.03597229
0.09577761 -0.20906948 0.05974559 -0.075104184 -0.039135925 -0.31092745 0.08463773 -0.023083845
0.08175087 0.1909064 0.063327946 0.00018200386 0.12652154 0.07936234 0.049855474 0.034835406
-0.25455827 -0.25510165 -0.07705306 -0.020880591 -0.031015454 0.066531226 0.1105887 -0.0057208184
-0.07303744 0.03250268 0.060819384 0.032189276 0.05008258 -0.22687127 0.053198736 -0.1328146
-0.18316384 0.014208637 -0.08979161 -0.1288964 -0.04360529 0.08686073 -0.059571322 -0.115781605
-0.08000226 -0.055259846 -0.098493665 -0.16162094 -0.155244 -0.23428069 -0.20968838 -0.16365464
0.09561422 0.04037397 0.09231876 0.07721409 0.13427667 0.058068693 0.11769211 0.15052584
-0.06430339 -0.083656386 0.013152252 0.05950538 0.14478856 0.08726799 0.053358767 0.08872622
-0.079821974 -0.14433968 0.0956826 -0.1608588 -0.07558849 -0.105956115 -0.03964951 -0.09423686
-0.053145997 -0.088731244 0.024650322 -0.049375456 -0.20912465 -0.0093073705 0.0058703306 -0.079200275
0.11520486 0.019259535 0.117312625 0.15753543 -0.0033137081 0.10350701 -0.06480887 -0.02968621
0.026453389 -0.07022108 0.06410399 0.07651974 0.17382981 0.1932735 0.1571999 0.22115499
-0.012910708 -0.037205677 0.043207675 -0.027777126 -0.08877995 0.040898405 -0.18333086 -0.17303814
-0.13284972 -0.042482294 0.08762358 0.069287814 0.03528222 0.033588335 -0.06154896 -0.107366085
0.019925723 0.27776426 0.22246934 0.03591998 -0.10567876 -0.14483672 -0.0038537758 -0.15912054
-0.07770526 -0.19762515 -0.21968359 -0.20316559 -0.08775863 0.16266806 0.02160066 -0.0914513
0.024401043 -0.14171134 -0.12277201 -0.058501866 0.10044444 -0.010695687 0.13906032 -0.021593885
-0.1217542 0.09422914 0.04301507 -0.28605664 0.13146545 0.19577527 -0.19964242 -0.19295174
-0.047786307 0.094155 -0.12096483 -0.117348135 0.034311228 0.05411751 0.20344429 0.09184359
0.02540587 0.24854894 0.1264127 -0.028722323 -0.13383126 -0.10525729 0.07670694 -0.12834059
-0.087000825 -0.12286775 -0.18174946 -0.07534571 -0.06751415 -0.17361198 -0.18189518 -0.07904779
-0.29090235 -0.35260242 -0.19871625 -0.023155348 -0.1075177 -0.037797507 0.17873721 -0.013818874
0.007140502 0.015409498 0.23865435 0.15284953 -0.010301889 0.21301351 0.081024386 0.17551537
-0.22747128 -0.094797894 0.1850361 0.11110687 0.113805875 -0.27014685 0.01762654 -0.26449335
-0.25151038 -0.28863692 -0.13928744 -0.16139448 -0.053681433 -0.21234591 0.0013620345 -0.26725522
0.011963468 0.024679024 -8.5383545e-05 0.16093181 -0.019647054 0.088467546 -0.0676221 0.11857116
0.095768124 0.0014924958 0.08678311 0.090368584 0.17311004 0.018170044 0.16577679 0.10380848

DecList.1.conv.bias f4 [8]
00000000: 900e 03bd ecff 2dbe 0e37 c83d 3508 323d
00000010: 0851 bfbd fd31 0a3e 353c 86bd 450e c3bd
-0.03199631 -0.16992158 0.09776126 0.043464858 -0.09341627 0.13495632 -0.06554452 -0.09524206

DecList.1.bn.weight f4 [8]
00000000: 5953 9e3f d7ec 9d3f 4331 963f da0a 873f
00000010: 35ac 863f a914 943f 3883 a73f f2c8 9b3f
1.2369186 1.2337903 1.1733783 1.0550187 1.0521303 1.1568805 1.308692 1.2170699

DecList.1.bn.bias f4 [8]
00000000: 8a1c 6abd 3b8f 563b 2a5a d33e cabe b13d
00000010: c197 2d3e 2470 6a3e 25a0 92bd 125e 283e
-0.057156123 0.003273918 0.41279727 0.08678968 0.16952421 0.22894341 -0.071594514 0.16442135

DecList.1.bn.running_mean f4 [8]
00000000: 273c 733e dd08 92be 90e2 a1be 8715 c6bd
00000010: 19e3 01be 424c 153e 7cd0 293f 9f24 043f
0.23753415 -0.28522387 -0.31618166 -0.09672075 -0.12684287 0.14579871 0.66333747 0.5161838

DecList.1.bn.running_var f4 [8]
00000000: 178a 1b3f 8d3a e13e 9542 073f 3edc 3b3f
00000010: d376 4e3f 41dc ef3e d473 b93e b3be 0a3f
0.60757583 0.43989983 0.5283597 0.7338294 0.8065006 0.46847728 0.36221182 0.54197234

DecList.2.conv.weight f4 [8, 4, 4]
00000000: e95b fc3d 206a 08be 7cb0 113e a424 01be
00000010: 9976 973d b949 d03d c886 b43e d50d 533e
00000020: 2832 f2bc c81a 9b3d ed08 a03e 676d 3e3e
00000030: e943 793d 5bf6 17be 7ea0 993e df48 76bd
00000040: d681 cd3e 1b44 b7bd 2312 d63e 00ed b5bc
00000050: f8c7 06be e5e4 0fbd 15dd b7bd 5f18 0cbe
00000060: 3ff2 59bd 7e34 1ebe ef56 a03c 638e 95bd
00000070: edde dcbb e85e c03d 1889 98bc cf9a ce3d
00000080: bcde ec3d 10b0 613e e7c6 023c d89a e63c
00000090: 97c3 093e 39a4 923d 826e f33d be1c 543d
000000a0: 6164 7fbe 8498 5cbe 9c0c 9dbe abd2 41be
000000b0: ab15 3d3e c742 1c3e b5e1 1f3e 820b 6c3e
000000c0: cab0 bb3d 8486 c4bd 0533 c7bd b86f c9bd
000000d0: 2767 ad3d fb15 853e a93d f73d 9ed9 df3d
000000e0: 2554 64bd d7e3 a23d db22 b53d 9283 d9bd
000000f0: cb28 74bd 0463 733e 75c6 c73b d739 5b3d
00000100: 6425 e6bb e600 26be 198d f43d 09ed 20be
00000110: 83ef dc3d 2620 8f3d 2cae bebb 8cbe 873b
00000120: 6bcd cebd 11f0 47be ff94 71bd 4e10 6abe
00000130: 0c47 a73d 7880 653e 102f d03d 98a2 4e3e
00000140: f220 a4bd 65bb e5bc 5dbb 47be 8258 513c
00000150: afbd d53d 38cc a63e d54e 663e 7f94 983d
00000160: 0304 fa3b bfad 9f3d 5421 983d 51d9 343d
00000170: 8c76 133d 9b3f ce3d 8ca7 133d ee76 12be
00000180: 2a49 793d e37d 15bd 8ba2 473e 34ee 2a3d
00000190: e37c 09bc d7a3 babd 513d febb d914 cdbc
000001a0: 611f 453e 295a a73e 4408 db3d a521 c1bc
000001b0: 73b1 03be 9396 883d de00 58bd 2248 61bd
000001c0: 5a6d 14be 9e0f bcbd 445b 6ebe 55ba 1b3e
000001d0: a89a bd3d eddd 0c3e 76aa 1b3e 6f9f 003e
000001e0: b00a 173e 3f23 b03d 84cb a0bd 1eac ae3d
000001f0: 49ba a2bd 4da4 acbe 756f 23be f56d 82be
0.12322218 -0.13321733 0.1422748 -0.12611634 0.073956676 0.101703115 0.3525908 0.20610745
-0.029564932 0.075734675 0.3125681 0.18596421 0.06085578 -0.14840071 0.30005258 -0.06012809
0.4013812 -0.08948537 0.41810712 -0.022207737 -0.1316222 -0.0351304 -0.08977715 -0.13681172
-0.05320954 -0.15449712 0.019572703 -0.07302549 -0.006740442 0.09393102 -0.018620059 0.10088121
0.11565921 0.22039819 0.007981992 0.028150007 0.13453518 0.07160229 0.11886312 0.051785223
-0.24940635 -0.21542555 -0.30673683 -0.1892802 0.18465297 0.15259849 0.15613444 0.23051265
0.09164579 -0.09595969 -0.09726528 -0.09835762 0.084669404 0.25993332 0.120723076 0.10930179
-0.05574431 0.07953613 0.08844539 -0.10620798 -0.059609216 0.2376824 0.006096656 0.053521957
-0.0070235003 -0.1621128 0.11940975 -0.15715422 0.10787871 0.06988554 -0.0058191027 0.004142588
-0.10097774 -0.19525172 -0.058979984 -0.22857782 0.08167848 0.22412288 0.101652265 0.20179212
-0.08014096 -0.028043458 -0.19505067 0.01277745 0.1043657 0.32577682 0.2249101 0.074501984
0.0076298728 0.07796811 0.07428232 0.04415256 0.036001727 0.100707255 0.036048457 -0.1430318
0.06086079 -0.036497008 0.19495599 0.041731074 -0.008391592 -0.09113281 -0.0077587743 -0.025034355
0.19250251 0.32685974 0.10694936 -0.023575613 -0.1286066 0.06669345 -0.052735202 -0.05500043
-0.1449484 -0.09182666 -0.23277003 0.15207799 0.09258014 0.13756533 0.15201744 0.12560819
0.1475017 0.08600473 -0.078513175 0.085289225 -0.07945687 -0.33719102 -0.15960486 -0.25474516

DecList.2.conv.bias f4 [4]
00000000: ae4b 583e 9f36 42be 155e 643e f5c6 42be
0.2112262 -0.18966149 0.22301514 -0.19021209

DecList.2.bn.weight f4 [4]
00000000: 59c9 8e3f 3952 903f 8657 7a3f df56 713f
1.1155196 1.1275092 0.977898 0.9427318

DecList.2.bn.bias f4 [4]
00000000: 314e 99bd 02e6 923e 7480 eebd af25 673d
-0.07485617 0.28691107 -0.11645594 0.056432422

DecList.2.bn.running_mean f4 [4]
00000000: d495 a83e 2a69 823f 2188 d93c 55ad 323e
0.3292681 1.0188344 0.02655417 0.17448933

DecList.2.bn.running_var f4 [4]
00000000: 505a 353f b7ff aa3f ea17 1f3f 6133 f63e
0.7084093 1.3359288 0.62145865 0.48086074

DecList.3.conv.weight f4 [4, 2, 4]
00000000: 0e75 7ebd 5244 aabd 8127 55bd 6755 dcbc
00000010: 33d3 5c3e f58f 6a3e 54a4 5e3e d785 503e
00000020: 07b5 6a3d bf03 b23d d78e 95bd 58af d1bd
00000030: 90e4 84be c113 bcbe e6cf 7ebe 9170 0fbe
00000040: 09f5 633e 8a4b c63e 816a 7b3e b86e 933d
00000050: 51b2 173d 9c8f 393d 4a50 0c3d d1ca db3c
00000060: ad2b 78be a85f 8cbe 22e7 59be 4dd2 39be
00000070: c772 14ba b140 9dbb 05cc 8dbd 5b5b 87bd
-0.06212335 -0.08313812 -0.052039627 -0.026896192 0.21564941 0.22906478 0.21742374 0.20363556
0.057301547 0.08692121 -0.07302635 -0.10238522 -0.2595563 -0.3673382 -0.24883994 -0.14007784
0.22261442 0.38729507 0.24552347 0.07198852 0.03703529 0.045302972 0.034256257 0.026830109
-0.24235411 -0.2741673 -0.21279576 -0.1814663 -0.0005662855 -0.0047989716 -0.06923679 -0.066092215

DecList.3.conv.bias f4 [2]
00000000: 12dd b6b9 73aa d6bd
-0.00034878455 -0.10481729

DecList.3.bn.weight f4 [2]
00000000: e6dc 553f 2d7a 5b3f
0.8354019 0.857333

DecList.3.bn.bias f4 [2]
00000000: ce4d b4ba f657 87ba
-0.0013756098 -0.0010325897

DecList.3.bn.running_mean f4 [2]
00000000: 7ae3 30be 2d23 74be
-0.17274275 -0.23841543

DecList.3.bn.running_var f4 [2]
00000000: a0bb e83e 3b44 613f
0.45455647 0.87994736

bottleneck.0.weight f4 [32, 32, 1]
00000000: b770 0f3e 4ac2 c23d e448 21be 6d67 2abe
00000010: 92c2 fb3d 479c 93bd 9572 85bd 1970 a03c
00000020: 48fc 0e3e 55c5 3d3d d7db 3fbe c292 80bd
00000030: 7aec b33d 45f7 243c 4d30 9b3c 5b88 0cbe
00000040: a17e 053b 2f62 13be 1e79 2dbd 3dc2 233d
00000050: 2fbd e83d 8f96 433d c8d0 7e3d 7742 953d
00000060: 2d86 31bc 06a9 383d b458 7cbb 4ebc 143e
00000070: df13 47be ba17 fbbd 80c2 cc3d de55 04bc
00000080: efea efbd 63a3 38bb ff20 f0bc b0eb 0fbe
00000090: 372e cd3c 8c1c 3e3d df74 2d3d 730b 253d
000000a0: a9ff c03c 3d43 ed3d 5ade 213e 0569 a03d
000000b0: 0422 063d a5d8 dfbd ec9b 523d 8c1b 8fbd
000000c0: 48eb bc3d c549 fb3d b3fa 3cbd f8ce 183e
000000d0: 4bf7 57bd 90fa 9e3c e3cc 82bc 2065 6bbe
000000e0: aa76 813c c0b7 ee3d 751c 7b3d 41a5 703d
000000f0: 1c39 8f3e d0e9 4d3d 0907 5a3e 0435 543d
00000100: 2ee2 793d 254a 4bbe 7dae febd 868e 1abe
00000110: 4580 3bbd 062b e8bc d8ef 24bc f5b8 4cbd
00000120: 7fc3 41bd 2437 af3d 013a 153e 844d 893d
00000130: 33ab 463e 57fd 4dbc 4ae9 b73d a483 10be
00000140: d625 b1bd 24f1 b8bd c606 5ebd 2970 b63c
00000150: c9c5 5a3c d797 b7bd fe15 4f3e 9c58 a93c
00000160: 9133 a5bb 4ed8 03bd d95d efbd 16a8 00be
00000170: 6939 b83d d460 c7bd 55a4 4dbd c656 0e3e
00000180: c9b1 f9bd 7407 6dbc a8b8 03bd c146 4c3c
00000190: fcaf 503d 72c4 f4bd 8584 16be 183a 1fbd
000001a0: b345 32bd 0d4f 233d 3303 11bd 6e4b eb3d
000001b0: bb40 413d ffa8 ea3d 28d7 eebd ffe4 d73c
000001c0: a3ea 46be 51dd 0bbe 285b f33c 77d1 70bd
000001d0: 8396 eebc 05da 4cbd f028 f8bd d340 2f3e
000001e0: 1e5a 02bc 4e3c b23c aedd e33d 2af2 a53c
000001f0: f956 98bd ade7 2cbe 7c5f 29be 06ca 2d3e
00000200: 2fc2 d83c 53c2 343d 816f 173e 8cfd 2ebd
00000210: 6127 1d3c 3e66 a73c 016c 63bd c95f d2bc
00000220: b41a 0d3e 1a97 87bd 6fc9 e33d 81fd ddbd
00000230: 5d87 4a3d 1a0a 98bd 30d3 cdbd 43a6 b63d
00000240: feb5 1a3e 237f 15be 80bf c3bd 6735 103e
00000250: d369 8a3c 8baf 033d 2f8d 62bd 1fca 043e
00000260: 1259 d53d b7ad 833d d104 153e 560f 043e
00000270: f313 29be c066 0e3c f700 9abd c6b0 a8bc
00000280: bd05 1a3e 549b e53c 6b0b 2d3e 27e6 8cbd
00000290: 1126 79bd 5c15 23be a378 e1bd 148b 73bd
000002a0: 04a3 16be d2c2 f73d 205f a03c 4ab4 173e
000002b0: 3812 20bd f17f 843d 022b a2bc 6b12 81bd
000002c0: e8ad 333c 84c5 2abd ccb4 b43d 6ad1 3c3e
000002d0: 41f1 223e 08a7 cb3b 9e3e 32bd 39cf d73d
000002e0: 5365 fe3d 234e 53bd e913 7ebd bcce 01bd
000002f0: 92a6 eebd b550 d9bc 127b abbc 16fd c23d
00000300: 22e9 b7bc 96e9 fa3c b1e2 ed3d c6a3 683d
00000310: bb30 ddbd f52f 9f3d e4ab 703c e857 ae3d
00000320: fc4f e53d 5b23 6a3d 2338 02be 29ae c73d
00000330: fba6 35be 8811 e4bd 727e 04be 8f5b 433e
00000340: 5939 053e a3d8 953d e630 26be 15d0 413d
00000350: 9842 ad3d 76ba 8b3d 2d68 383e ab43 943d
00000360: 9e8c a2bd 5ed5 98bd 234e 5a3c f63a 513b
00000370: 51d0 b8bd a2c4 4b3e ffda 0ebb 4b2c 983d
00000380: cd02 fe3d 9678 2a3e 68eb e53d 1a07 e6bd
00000390: 67fb 063c bfb9 36bd 996f 943c 0e43 d13c
000003a0: 60ea 23be 83bf c03d d311 d5bc cb14 133e
000003b0: fb70 dd3d 3bea 19be e252 6bbe c6fb 503c
000003c0: 3cec 2bbd b21f 3c3d c47f 1a3e a1da 73bd
000003d0: 3929 d5be 7ae0 45bd ff1b fb3d eb4f ebbd
000003e0: f368 b33d fe50 7a3c 1304 d83c 2f48 05bd
000003f0: e018 1fbe 11a9 b83c 73e9 353e 4180 fc3d
0.14007841 0.09509714 -0.15750462 -0.16641016 0.12292971 -0.07207542 -0.065159954 0.019584702
0.13963425 0.04633077 -0.18736206 -0.06277992 0.08785339 0.010068719 0.01894393 -0.1372389
0.0020369666 -0.14392923 -0.042351834 0.039980162 0.11364209 0.047751006 0.062210828 0.07288068
-0.010835213 0.04508307 -0.003850502 0.14524958 -0.19441174 -0.12260385 0.099980354 -0.008077113
-0.11714732 -0.0028173558 -0.029312609 -0.14054751 0.025046451 0.046413943 0.042347785 0.040294122
0.023559408 0.1158509 0.15807477 0.07832531 0.032747284 -0.109299935 0.05141823 -0.06987676
0.09224564 0.1226993 -0.046137523 0.14922702 -0.05272607 0.019406587 -0.015966838 -0.22987795
0.015803654 0.11656141 0.061306436 0.05875135 0.27973258 0.05027181 0.21291746 0.051808372
0.061006717 -0.19852503 -0.12435625 -0.15093431 -0.045776624 -0.028340828 -0.010066949 -0.049981076
-0.04730558 0.08555439 0.14572908 0.06704238 0.19401245 -0.012572608 0.08980043 -0.14112717
-0.08649795 -0.09030369 -0.05420568 0.022270279 0.01335282 -0.08964508 0.20223233 0.020672135
-0.0050415476 -0.032188706 -0.11687822 -0.1256412 0.08995325 -0.097352654 -0.050205547 0.13900289
-0.12192113 -0.014467109 -0.032158524 0.012468041 0.05094908 -0.119515315 -0.1469899 -0.038873762
-0.0435235 0.03987031 -0.03540344 0.114889964 0.047180872 0.11458015 -0.116621315 0.026354311
-0.19425444 -0.13658644 0.029706553 -0.05879351 -0.029124504 -0.050012607 -0.12117183 0.17114572
-0.007956056 0.021757271 0.111262664 0.020257074 -0.07438464 -0.16885252 -0.1654033 0.16971597
0.026459781 0.044130635 0.14788629 -0.04272227 0.009591908 0.020434495 -0.055522922 -0.02568044
0.13779718 -0.06620617 0.11122405 -0.10839368 0.0494455 -0.07423802 -0.100500464 0.08918431
0.15108487 -0.1459928 -0.0955801 0.14082871 0.016896164 0.032149833 -0.055310424 0.12967728
0.104173794 0.06429618 0.14552619 0.12896475 -0.16511516 0.00869149 -0.07519715 -0.020592105
0.15041251 0.028028168 0.16898887 -0.068798356 -0.06082732 -0.15926117 -0.11009338 -0.059458807
-0.14710623 0.12097706 0.01957661 0.14814869 -0.039079875 0.064697154 -0.019795898 -0.06302341
0.010966755 -0.04169227 0.08823547 0.1843926 0.15912344 0.00621498 -0.043516748 0.105375715
0.1242167 -0.05158819 -0.062030707 -0.031691298 -0.116528645 -0.026527742 -0.020932708 0.095209286
-0.022450034 0.03062896 0.116155036 0.05679681 -0.1080031 0.07772819 0.014689419 0.085128605
0.111968964 0.057162624 -0.12716727 0.09750015 -0.17739479 -0.11136156 -0.1293886 0.19077896
0.13010158 0.07316711 -0.16229591 0.047317583 0.084599674 0.06822674 0.1800849 0.07239469
-0.07936977 -0.074625716 0.013324293 0.0031926013 -0.09024108 0.19899228 -0.0021798012 0.07430323
0.12402878 0.16647562 0.11226541 -0.11231823 0.00823865 -0.044610735 0.01811962 0.02554467
-0.16007376 0.09411528 -0.026009476 0.143634 0.10812565 -0.15030758 -0.22980836 0.01275534
-0.041973338 0.045928665 0.15087801 -0.059534673 -0.41633013 -0.04830978 0.12261199 -0.114898525
0.08760252 0.015278099 0.02636913 -0.032539543 -0.15536833 0.022541555 0.17764835 0.1232915

bottleneck.0.bias f4 [32]
00000000: d03e 333d b1d7 41be 4f41 733e 8733 a13e
00000010: e014 713e 6993 9f3e f30e a03e 8ece 12be
00000020: fa60 3a3c 5514 1e3e 0472 7b3c 0058 b83d
00000030: 1748 38bd 494e 5b3e 2bfd 673d 3fe3 5c3e
00000040: 15c6 12be 3bcc e7bd c916 77bd 6abb e2bd
00000050: 2b97 593e a181 12bb cab4 38be 8749 573e
00000060: 5290 2cbe ef52 b93d c130 23be 4aea 65bd
00000070: b256 013d 097d b83d 2eab 06bd 961b f53d
0.043761075 -0.18929936 0.23755382 0.31484625 0.2354312 0.31167153 0.31261405 -0.14336607
0.01137566 0.15437444 0.015347008 0.0900116 -0.044990625 0.21416582 0.056637924 0.21571063
-0.14333375 -0.11318251 -0.060324464 -0.11070903 0.21249072 -0.0022355097 -0.18037716 0.21024142
-0.16851929 0.090490215 -0.15936567 -0.05613164 0.03157682 0.090082236 -0.032878093 0.11968152
