checkpoints/best_ACDAE_emb_snr_-4.pth (torch, 615402 bytes, 20 tensors)

EncList.0.conv.weight f4 [16, 2, 13]
00000000: 8768 7e3e 9a6c 763e 98cd d13c f53b 943e
00000010: ea0b 3f3c fe2d 6d3c d8c8 a73d 1dd7 52bd
00000020: 590a 9f3b cd4b 3ebe 9949 02be 1668 8bbe
00000030: c32a 8abe 54a4 ab3d c583 4fbe b306 33bd
00000040: 8436 a73d d779 22bd c521 063d e734 acbd
00000050: ab7d b43d 4ec0 6dbc 3aff 31bd efe8 0b3e
00000060: a7cc 0cb6 2d3c 003e 83d4 e73d 4eb9 0abc
00000070: 23c2 25bd 9de1 adbd 76d4 21be 7223 33bd
00000080: 77ab d13d 8464 f2bd 72b5 9b3d a00b c0bd
00000090: e3c0 09be e854 7a3e 7c9c 80bd 2841 29bd
000000a0: c716 2bbe 39de 23be 0953 203e 8856 f7bc
000000b0: 6070 0fbe 48d8 c53d 212c b43d 3ec3 d8bd
000000c0: 41f7 7dbc c811 353d 244e 9d3c 16c4 173e
000000d0: 6615 b6bd e532 b03d 262e df3d ac65 1bbe
000000e0: 674a 063d e8a7 3b3d 9a45 083e bc36 813d
000000f0: 2a55 c83d 7bfd 83bc 9c70 133e 48c0 8b3d
00000100: 0626 78bd a919 abbd 608e 1a3e a7c2 643d
00000110: b503 283b f055 363e eb9d 843d 2c9f 823b
00000120: 6714 443e 7966 3f3e ffb0 093e 10bc 14be
00000130: 15f2 333c 00b6 043e d61e f8bc 0b69 d73d
00000140: ee97 55be 6111 37be 8b95 29be e4a5 7dbd
00000150: 9e96 9f3c ca54 25be f8e0 ea3d bf25 40be
00000160: dabc 2b3e b4e3 1abe 27ea 3e3e f158 4ebe
00000170: 0e09 53be a712 c4bd 1e63 f1bc b8cc 98bd
00000180: 66db 00be 2fda 44be e93f 18be 4032 bdbd
00000190: 05d2 f13d 9c01 edbd 144e afbc d727 e03b
000001a0: 0b0a 71bd 82ae 38bb 7109 a3bd 6c83 32be
000001b0: 049a a03d 0f4b 4b3e 7856 9c3e f7a4 573e
000001c0: 72cb 2b3e fe86 f6bd 7a94 7ebe b9a6 8bbe
000001d0: b518 abbd 4ea4 60bd 96cf 003c 5d9d 313e
000001e0: 9526 453c 8550 8e3a 44d7 da3b 2edc a43c
000001f0: 6906 213e 9058 7a3d 3b2c afbd 5631 11be
00000200: 7542 1bbe d00d 91bd 171e 433c 542a aabd
00000210: c8e3 2c3e c330 24be 2bbb 613d 99db 03be
00000220: 1b5e 98bd a234 103e 9ca8 293d 9afb 15be
00000230: 3821 0abc 511f d9bd 037f 30bc 44a0 97be
00000240: 623d cdbd a8f8 0a3e 6154 11be 296c 8d3d
00000250: 47f6 4b3e e4ae 00be 80ce 943c b673 e63d
00000260: 1152 0e3d 3c11 8b3d 8db6 153e 6541 dfbd
00000270: b17e adbd fa89 0b3e a630 07be 77e5 eabd
00000280: e455 f93d 14c7 39bd f765 973d b12f 943d
00000290: 5aa7 52bd 5730 143e db9e ec3d 9916 5fbd
000002a0: 1867 e4bd dccb 9ebb 0dc6 ebbd 0b82 9cbd
000002b0: 067a 0c3d 934f c7bd 851c 9f3d f334 8b3d
000002c0: 8bfc d8bd 98fd 4bbd 87c7 6c3c 75a3 623e
000002d0: 01df 8a3d 9170 babd 338e 533e 8fa1 11bd
000002e0: 6709 57bd cebf 11be 5d26 bb3d e7e9 8abd
000002f0: 82df 6bbd a933 d93d 7295 c8bb 563d a9bd
00000300: 665d 1a3d be19 0ebe 43d4 84bd d19d ef3d
00000310: 1792 bc3d 27e8 203e 9208 203e b42e bf3d
00000320: e19b 0d3e 44d6 39bd 464d 8b3d e1f7 403d
00000330: f827 7ebe 8146 5abe d2a8 afbc 0ab3 3dbd
00000340: 3ee9 00be c1b5 4fbd da44 4abd 3817 7d3d
00000350: b99c 19be 00b5 193e 9766 223e 4da9 44be
00000360: 2988 16be f0f7 973d 0ef3 1a3b 23d9 9fbd
00000370: 5f5c 533d 3188 77bd 33c7 5d3d e48b 10be
00000380: 9ca8 57bc dc31 f83d e9c6 2c3c b4d8 06be
00000390: 32a9 793d e928 c33d e098 c13d f15e 5cbe
000003a0: 9970 193e c879 b83d af08 883d 5607 4b3e
000003b0: 7507 a6bd a377 ffbd 4d63 013e ac74 18bd
000003c0: c5c7 57bd f4a3 f1bd 960e 3fbd 2ac1 09bd
000003d0: 3732 5ebd 6c46 48bd e5f3 7b3d 569a dd3d
000003e0: 5723 6a3d 60f3 d23c a3d3 8d3d 9890 e13c
000003f0: b7b7 163e 85af 0bbe 9059 bb3d 7871 ec3d
0.24844562 0.24064866 0.02561073 0.28951994 0.011660555 0.014476297 0.08192605 -0.05147468
0.0048535285 -0.18583603 -0.12723388 -0.2722785 -0.2698575 0.083809525 -0.2026511 -0.04370756
0.08164695 -0.039666977 0.03274705 -0.08408528 0.08813032 -0.014511181 -0.043456294 0.13663076
-2.098075e-06 0.12522955 0.1131983 -0.008467032 -0.040468346 -0.08490298 -0.15803704 -0.043734975
0.102377824 -0.11835578 0.07602967 -0.09377217 -0.13452487 0.24446452 -0.06279847 -0.041321903
-0.16707908 -0.1600274 0.15656675 -0.030192629 -0.14007711 0.09660393 0.087974794 -0.105841145
-0.015500844 0.04420641 0.0192023 0.14820895 -0.088908 0.08603457 0.10897474 -0.15175503
0.0327858 0.045814425 0.13307801 0.06309268 0.09781869 -0.01611208 0.14398426 0.06823784
-0.060583137 -0.08354504 0.15093374 0.055849697 0.0025636975 0.1780622 0.06475433 0.00398626
0.19148408 0.18691434 0.13446425 -0.14524865 0.01098301 0.12960052 -0.030288141 0.10518082
-0.20858738 -0.17877723 -0.16560952 -0.061925784 0.019481 -0.16145626 0.11468691 -0.18764399
0.1677126 -0.15125924 0.1864401 -0.20151116 -0.20608923 -0.0957387 -0.029466208 -0.07460922
-0.12583694 -0.19223855 -0.1486813 -0.092381 0.11807636 -0.115725726 -0.021399535 0.006840687
-0.05884747 -0.0028180187 -0.07960785 -0.17432946 0.07841876 0.19852851 0.3053472 0.21059023
0.16776827 -0.120374665 -0.24861327 -0.27275637 -0.08354322 -0.054844193 0.007861992 0.17345186
0.012033124 0.0010857737 0.0066784937 0.020124521 0.15725102 0.061119616 -0.08553358 -0.14178976
-0.1516207 -0.07082713 0.011909029 -0.08308855 0.16883767 -0.16034226 0.055110138 -0.12876739
-0.07439824 0.14082578 0.041420564 -0.1464676 -0.0084307715 -0.10601676 -0.010772469 -0.2961446
-0.100214735 0.13571417 -0.14192344 0.069053955 0.19918166 -0.12566715 0.018164873 0.11252539
0.034746233 0.067903966 0.14620419 -0.10901145 -0.0847143 0.13626853 -0.13202152 -0.11469548
0.121745855 -0.04535587 0.07392495 0.07235659 -0.05142913 0.14471565 0.11553737 -0.05446491
-0.11152476 -0.0048460793 -0.115123846 -0.07641991 0.034296058 -0.097319745 0.077691115 0.06797209
-0.10595044 -0.049802393 0.014451868 0.22132666 0.06780816 -0.091035016 0.20659713 -0.035554465
-0.0524992 -0.14233324 0.091381766 -0.067828946 -0.0575862 0.106055565 -0.006121331 -0.08263652
0.037686728 -0.13877007 -0.06485798 0.11700023 0.09207552 0.15713559 0.1562827 0.0933508
0.13828994 -0.045370355 0.06801848 0.047111396 -0.24819934 -0.21315958 -0.021442804 -0.046313323
-0.12588975 -0.050710443 -0.04938207 0.06178972 -0.15001191 0.15010452 0.15859447 -0.19205208
-0.14700378 0.07420337 0.0023643407 -0.078050874 0.051601764 -0.060432617 0.05414505 -0.14115864
-0.013162758 0.12118885 0.010545471 -0.13168603 0.060952373 0.09529287 0.09452987 -0.21520592
0.14984359 0.09007603 0.06642281 0.19827017 -0.08106891 -0.12473991 0.12635536 -0.037220642
-0.05268075 -0.1179885 -0.04664477 -0.03363148 -0.054247107 -0.048895285 0.061511893 0.10820453
0.05716261 0.025750816 0.06925132 0.027534768 0.14718519 -0.13641174 0.09147942 0.1154508

EncList.0.conv.bias f4 [16]
00000000: d40b 1239 036c f9bd 6c8f 8d3d 8e06 02be
00000010: 0a3f 24be 3fd6 e6bb 6359 83be 4c3c 82bc
00000020: 16b2 cabe abeb 12bf b815 80bd fb16 4e3d
00000030: 26cb 40bf 5966 16bf 3b7c 023e 87fe 2abf
0.00013928051 -0.12178805 0.06912121 -0.12697813 -0.16039672 -0.007044583 -0.25654134 -0.015897892
-0.39588994 -0.5739085 -0.062541425 0.050314885 -0.7530998 -0.5874992 0.12742703 -0.6679463

EncList.1.conv.weight f4 [32, 16, 7]
00000000: 6d54 35bc 8aeb 27be 8cce fdbd feb8 70be
00000010: 98ae 9cbe fac2 40be cfb9 71be b1b4 e23a
00000020: 5513 1f3e 3c64 043e a2b9 2e3e e89a 2c3e
00000030: 9a14 843d 5980 ac3d 76d7 08bd 05ef f33b
00000040: 10a3 d73d 92e5 a93d bd4e 933d 8f4a 7a3c
00000050: 46c9 9abd e562 fe3c 46e5 07bd c0c9 e73c
00000060: 61e0 0f3e fe68 60bc 7086 fa3d dce9 9b3d
00000070: 4ed5 52bd be55 4c3d f097 b4bc c9a1 20bd
00000080: e687 9cbc 57e1 283e 135d dc3d d5c4 413e
00000090: 94cb 05bc d73d 133e 40a7 903d 2860 1e3c
000000a0: 9453 fa3c 5998 00be 2c8b 2abe 67c7 e3bd
000000b0: ee44 28be 3d6b 173d 2409 4dbc 7cb6 8b3c
000000c0: 4519 fdbd 17d1 413d 468f 723d 5e49 ca3d
000000d0: da14 513d cab6 a23d b49b bebc d2dd 0dbd
000000e0: 67c8 203e ce67 0c3e b024 183e b75f 443e
000000f0: d223 13bc 723c ea3d 1fbf 723d a13c 163e
00000100: 38fb d73c 7c35 e4bb 949e f73b 7674 c53d
00000110: 9ef1 99bc 9d64 bbbd bef9 2abe 6548 4ebc
00000120: f80e fa3d 0159 613e 1049 833e dd5f 963e
00000130: d45d 363e ad44 83bd 691f bebd 283c 1dbe
00000140: 5883 d1bd e371 febd baba 6d3c df4b 3e3d
00000150: 410a e4bd b86c 05be c8ab 97bd 4c71 51bc
00000160: 5cc5 4cbc ec77 d13c b446 d9bd 21f4 9b3d
00000170: 515d 2cbd a152 56bc a66a ab3d f08e 5e3d
00000180: ee20 a43d 12b7 9a3d 434b 6cbd 1854 a33c
00000190: 6253 293d 312f cf3d 9caf 413e d620 333e
000001a0: baf0 9d3d 0ec9 85bd c238 85bd 0e88 75bd
000001b0: cd79 c03c 2f0f 90bd 09fe 88bd 50ed e7bc
000001c0: 2b89 4dbb b908 01bd 5091 22bd 25c8 e13d
000001d0: 7eca 6b3e e926 483e 2114 9c3d d25a 273c
000001e0: ac67 ffbc 423b 933b 1857 f6bc 37c0 4fbe
000001f0: 0e54 52be d243 ddbd 3a84 5cbd 6165 823d
00000200: 8856 633d 978d 4a3e 4b92 823e 440e a43d
00000210: d063 cc3d ff75 963e 8042 313e 0cd0 19bd
00000220: 848a dbbd b18c 98be 74b6 83be 3ddc 70be
00000230: 241e 83be e55b 6dbd 21b1 a3bd 2009 b13d
00000240: 9a89 b9bc 261a b83d 10b5 e7bd 0efa e5ba
00000250: f1be 3c3e 5791 a43d 2501 a93d 9066 76bc
00000260: af5f 39bc 0ce5 41be 87a4 933d 1566 db3d
00000270: 81d4 e03d 8eb0 193c 309f 87bc 0817 2abe
00000280: 6060 4fbd 7b2b b8bd 4def 9ebd 5012 d6bc
00000290: 7599 ed3d 4b34 263d c178 f63d 7ab0 033e
000002a0: 4ea2 523d 9907 453e 5a9d 603d 6920 533e
000002b0: 3203 173e ae0f d93c 16f9 4dbd 9362 cd3d
000002c0: 373e 933b f8b5 973c 3670 713c f14c 333e
000002d0: 1b57 0c3e fb03 873d 1352 743e cbdd 353e
000002e0: aab7 333e acb4 413d 2a33 953c c1d3 493e
000002f0: f723 913d 7746 a1be 28d0 99be eb3d 19be
00000300: 0936 e6bd a0c8 82bd 2780 c43d 0b51 a33d
00000310: b814 693e fbe6 1f3e 930b 293d 12ea 06be
00000320: b077 25bd 3b8f 9f3b 8834 a13d add5 05be
00000330: 4bd1 03be 3243 5dbd c18c 9c3c 3b13 193d
00000340: 182b b5bc d6a9 42bd 5260 0a3e c25c 013e
00000350: 9688 c9bc 40a8 153c db0e 193e 6b28 263d
00000360: 4f0b dd3d bc85 10be 377d cdbd 7829 53bc
00000370: f6db 90bb 0506 84bc 3e34 863b 9f7c 193e
00000380: 494f 28bd aed3 b03d 6afd 473e c87d 593e
00000390: b840 563e a8ef af3e a06b 363e 5b9c 05be
000003a0: b6c2 48be c673 79be 5a23 6cbe 76dc c6bd
000003b0: a870 b0bd a9f2 343d b7d6 96bd a347 093d
000003c0: 785d 51bd 9afa ea3c 426b 763d 7fb8 a2bc
000003d0: db47 d53d a14b 7f3d ab70 66bd c401 9fbd
000003e0: bb0d 93bd 8eb4 193d e39d b4bb d9cc 72bd
000003f0: da44 adbd fd7f ff3d a053 1b3e ca8b 593e
-0.011067492 -0.16398445 -0.12392911 -0.23508069 -0.30601954 -0.18824378 -0.23606037 0.0017296282
0.15534718 0.12928861 0.17063001 0.16855967 0.06449242 0.08422918 -0.033408605 0.007444265
0.105291486 0.0829574 0.071927525 0.015276565 -0.07557921 0.031053016 -0.033177637 0.028294444
0.14050438 -0.013696907 0.12232673 0.076129645 -0.051472954 0.049886458 -0.022045106 -0.03921679
-0.01910777 0.1649221 0.1075994 0.18922742 -0.008166213 0.14379059 0.070631504 0.00966648
0.030557431 -0.12558116 -0.16654652 -0.11122017 -0.16432545 0.036967505 -0.012514386 0.017054789
-0.123583354 0.047318544 0.059218667 0.09877275 0.051045276 0.079450205 -0.023267604 -0.034635372
0.15701447 0.13711473 0.14857745 0.19177137 -0.008980708 0.1143731 0.0592643 0.14671566
0.026364908 -0.0069643836 0.007556746 0.09641354 -0.01879197 -0.0915005 -0.16696832 -0.012590502
0.12209886 0.22006609 0.2564168 0.29370013 0.1780923 -0.06409583 -0.09283335 -0.15354979
-0.1023013 -0.12424066 0.014509851 0.046459075 -0.11134768 -0.13029754 -0.074058115 -0.01278336
-0.012498226 0.025569879 -0.10609189 0.07614923 -0.04208118 -0.013081224 0.08369951 0.054335535
0.08014093 0.07554449 -0.057688963 0.01993756 0.041339286 0.10116423 0.18914646 0.17492995
0.077119306 -0.06532489 -0.06504966 -0.059944205 0.02349558 -0.07034146 -0.06689078 -0.028311402
-0.0031362276 -0.03150246 -0.039689362 0.11024503 0.23026463 0.19546093 0.07621027 0.010214524
-0.031177364 0.004493148 -0.030070826 -0.20288168 -0.20539877 -0.10803951 -0.05383704 0.06366993
0.055502445 0.19780575 0.25502238 0.080105335 0.09979975 0.293869 0.17310524 -0.037551925
-0.10719779 -0.2979484 -0.25725138 -0.23521514 -0.25608933 -0.057948966 -0.07992769 0.086443186
-0.022648621 0.089893624 -0.11313832 -0.0017545836 0.18432213 0.08035534 0.082521714 -0.015039101
-0.011314317 -0.1893503 0.072091155 0.1071283 0.10978032 0.009380473 -0.016555399 -0.16610348
-0.05062902 -0.08992668 -0.07760487 -0.026131779 0.11601535 0.040577214 0.12034751 0.12860289
0.051424317 0.1924118 0.054837562 0.20617832 0.14747313 0.026496734 -0.050286375 0.10028567
0.0044935006 0.018519387 0.014736226 0.1750982 0.13705103 0.06592556 0.23859434 0.17760389
0.17550531 0.047291443 0.018212873 0.19709684 0.07086938 -0.31499073 -0.30041623 -0.14965026
-0.11240775 -0.063859224 0.095947556 0.07974442 0.2276181 0.15615456 0.041270804 -0.13175228
-0.040397346 0.0048693693 0.07871348 -0.13069792 -0.12872808 -0.05401916 0.019110085 0.037371855
-0.022115275 -0.04752525 0.13513306 0.1263304 -0.024601262 0.009134352 0.14947073 0.04056589
0.107931726 -0.14113516 -0.100336485 -0.012888305 -0.0044207526 -0.016116152 0.004095583 0.14988945
-0.041091237 0.08634125 0.19530264 0.21239388 0.20923126 0.3436253 0.17814493 -0.13047926
-0.19605526 -0.2436057 -0.2306036 -0.09710018 -0.086152375 0.04417673 -0.07365172 0.033515584
-0.05111453 0.02868395 0.060160883 -0.019863365 0.10414096 0.062327985 -0.056259792 -0.07764009
-0.07180353 0.037525706 -0.0055119856 -0.05927739 -0.08460398 0.12475584 0.15168619 0.21244732

EncList.1.conv.bias f4 [32]
00000000: 4a3f dbbd 6a19 ec3d 3526 d4bc 7c13 bbbe
00000010: 43a8 15be 93d1 953e 9ad0 22bb 609f 8bbe
00000020: ad71 6e3d 808c cd3d e2a5 60be 3889 db3a
00000030: 312d aebc 52ce 823e 53e8 e2bd f4d3 1d3e
00000040: ed02 c3bd a95d 863e 8f79 e3bd 90f6 69be
00000050: ee71 c53d df8a 55be 67b7 14be 5489 f03d
00000060: 36b0 933e c220 79be 7a93 0bbe 3a0e f73d
00000070: 51cc 913e 1f25 863d c810 76bc 457d ebbd
-0.10705431 0.11528285 -0.025897125 -0.36538303 -0.14614968 0.29261455 -0.0024843575 -0.2727003
0.05821388 0.10036564 -0.2193828 0.0016749268 -0.021261783 0.25548035 -0.110794686 0.15412885
-0.095220424 0.26243332 -0.1110717 -0.22847962 0.09640871 -0.20853756 -0.14523087 0.11744943
0.28845376 -0.24328902 -0.13630477 0.120632604 0.28476194 0.06550049 -0.015018649 -0.11498503

EncList.2.conv.weight f4 [64, 32, 7]
00000000: 105d 90bd 0cb4 cfbd 1d7e 01bd e95d f9bc
00000010: 0a0f b3bd a02c babd 1f89 d0bc 566a 093c
00000020: 9102 bdbd 91f8 86bc a620 e6bb b3f9 6dbd
00000030: df20 b13c 34ba 1b3e 1fa5 4f3d acfd f03d
00000040: dcd3 073d 72f9 ec3d 0714 803c 82c5 b43d
00000050: 448a 26bc a336 cabc 1183 35bd f854 a8bd
00000060: ce86 97bd cd83 13be a268 0ebe 8a81 19be
00000070: 8181 b8bd c7ff 29be 0711 ecbd e134 d0bd
00000080: d886 b93b 6dce cb3b e6d8 853c 97f9 103c
00000090: af46 d23c 37b7 493d ab57 963d f0ea d83c
000000a0: 46ca a93d 41fc 3e3d 9d3a 083d 25cc ad3c
000000b0: 174b 33bd 20d8 823c 30b9 d2bd 0d4c b0bd
000000c0: 8adb a3bd e0d6 d7bd b2be 16bd ac19 c3bd
000000d0: b870 d3bd b748 cbbd 3a71 eabd c4df abbd
000000e0: 7123 963d 0da6 903d 368e 013d 0a97 9fbd
000000f0: fb21 cbbc 301c c1bd bd04 27be 6414 d7bd
00000100: 1c5c afbc 6e63 c4bd 7f9a 7fbc 463c f3bd
00000110: 442c 21be 94d2 aebd 435f bbbc 13c0 bd3c
00000120: d9a2 e6bc b7c9 7bba 5fa2 80bd 06a1 9c3d
00000130: 4e90 b93c 96c3 1ebe 38f0 3fbe 2570 f3bd
00000140: 5bd8 acbd 59ef e3bd 8778 58be 71e3 11be
00000150: 785f 993d 2ea7 153d 2f7d 7a3d 5c99 953d
00000160: 6f33 113e af2a df3d f32b 573d a962 cc3c
00000170: 5677 563d 20dd 153e 9323 f53d c3d8 cf3d
00000180: a6cc d0bc 991d 033c f898 f03d 8932 a9bc
00000190: 5ff3 273d a1ca b43d b7a0 963d 1896 373c
000001a0: 9e6b 923c bb11 6dbd 95cf 0ebd 6cb5 93bd
000001b0: 2bde fcba 45e5 a03c a41e fe3d 70ee 463d
000001c0: 12a0 d1bd f149 f3bd d0d6 48bd 2f47 52bd
000001d0: e0e5 33be ef32 dcbc ccff a93c d231 fc3d
000001e0: 72e5 203d 5e72 1d3e 1bd1 253e 2c14 3d3e
000001f0: 78c2 233e dddd 293e 49bb 21bc cacf 9bbc
00000200: e015 9cbd a69a c1bd 1fed 11be b495 1abe
00000210: f51b 0dbd 8533 953c dfaf 4c3c 28fe 80bc
00000220: 4688 71bd 7b12 1fbb dab7 15bd 99d4 0c3d
00000230: cbdc 0a3d 6425 05bd 6920 dd3c 2d48 3b3d
00000240: 741c 32bd 63b5 efbd dd97 283d be57 463d
00000250: 0f23 013c a812 2f3d 51a4 253c fdde adbc
00000260: b0f5 f23b 5104 753d 56b7 993d 61fa 15bd
00000270: fd03 713d 9f0c 273d a6a6 063d 0d88 8cbd
00000280: e644 3abc 7c6e c73d 3a59 753c 6db6 c13d
00000290: 37ea ba3d a99e f93d 2fce fa3d 2901 c23d
000002a0: 0286 8d3d 4ba7 593d 03f6 bb3d 601b 973c
000002b0: f62a 7c3d 90e1 81bd 1430 ed3b f5da 283d
000002c0: 0d72 7ebc 2b2b 9c3d 2bfc 733d a309 1c3c
000002d0: fbfc eb3b a712 58bd ad47 91bc a641 903d
000002e0: 8a95 1b3c 53f0 153c 3af5 8b3d 376a a73d
000002f0: c2cd f03c 5c50 ac3c 8440 9e3d 0c0d c13d
00000300: 63de ecbb 3f39 ad3d eeb2 e7bc 6a84 c1bd
00000310: 773c 873d 5d61 b23c 597a ba3c ee2c 263d
00000320: 73e4 313d 8212 b63d 8059 833d 8aca d73d
00000330: 0921 e73d 6177 8d3d 0fda b83d 337e 613d
00000340: 1564 b7ba 57ee 7a3d 21c6 bfbc bac7 58bd
00000350: 7829 153d 93c3 92bc edae 85bd 3ab9 67bd
00000360: f507 64bd dd10 a7bd ecec ecbd 5253 a4bb
00000370: fc69 bbbd 1f7e c9bd b651 16be 6fca 1bbe
00000380: a83f 65bd d492 9b3d 34e1 753d 99e1 0c3c
00000390: f4c2 e13d f307 9dbc 5da4 97bc 8f39 d13d
000003a0: a7a5 ec3d 3eed 773d 05a7 8cbd 99f1 78be
000003b0: 52f3 82be 7943 70be 0d0b 02bd 5e7f bf3b
000003c0: 32e4 753d 54ff 973d 6e16 2bbc 8b99 803c
000003d0: a69d 883c f36e 1fbe 89fd 91bd 1c68 e1bd
000003e0: 94e8 09be d9ee 4abd 06db a8bd 7b81 f4bb
000003f0: e45c 8ebc d560 813d 8618 85bd 9caa 97bd
-0.07049 -0.10141763 -0.03161441 -0.030440288 -0.08743103 -0.09090543 -0.02545601 0.008387169
-0.09229005 -0.016475948 -0.007022935 -0.05809946 0.02162212 0.1520775 0.05069458 0.11767134
0.03316103 0.115710154 0.01563455 0.08826734 -0.010164801 -0.024684256 -0.044314448 -0.082193315
-0.07398759 -0.14405747 -0.13907102 -0.14990821 -0.09009076 -0.16601478 -0.11526685 -0.10166336
0.0056618266 0.006219676 0.016338777 0.008848569 0.02566847 0.049246993 0.0734094 0.026479214
0.08290534 0.046627287 0.033259023 0.021215508 -0.043772783 0.015972197 -0.10289228 -0.086082555
-0.08000858 -0.10539031 -0.036802955 -0.09526381 -0.10324234 -0.09925979 -0.114473775 -0.08392289
0.07330979 0.07062922 0.031629764 -0.0779248 -0.024796477 -0.094292045 -0.16310401 -0.10501936
-0.021406226 -0.09589277 -0.0156008 -0.118767306 -0.15739542 -0.08536258 -0.022872573 0.023162877
-0.028153824 -0.0009604948 -0.0628097 0.076479 0.022651818 -0.15504298 -0.1874398 -0.11886624
-0.08439704 -0.11129636 -0.21139728 -0.14246918 0.07488912 0.036536388 0.06115454 0.073046416
0.14179777 0.10896813 0.052532148 0.024949389 0.0523599 0.14635134 0.11969676 0.10148766
-0.025488209 0.008002662 0.117479265 -0.02065398 0.04100358 0.08827711 0.07354873 0.011205219
0.017873581 -0.057878237 -0.034865934 -0.07212338 -0.0019292285 0.019640574 0.12408188 0.048567235
-0.10235609 -0.118793376 -0.049032986 -0.051337417 -0.17568159 -0.026879756 0.020751856 0.1231419
0.039281316 0.15375659 0.16193049 0.18464726 0.15992153 0.1658854 -0.009871312 -0.01901998
-0.0762136 -0.09453325 -0.14250611 -0.1509617 -0.03445049 0.018213043 0.012493103 -0.015746191
-0.05896785 -0.002427249 -0.036552288 0.034382436 0.03390197 -0.03250636 0.026992993 0.04572313
-0.043484166 -0.11704519 0.041160453 0.04842352 0.007881894 0.0427424 0.010109977 -0.021224493
0.007414542 0.05981857 0.07505672 -0.036615733 0.058841694 0.04078352 0.032873772 -0.06861887
-0.011368966 0.0973787 0.014974887 0.09458623 0.09126704 0.12188465 0.12246358 0.094728775
0.069103256 0.05313806 0.091777824 0.01844567 0.06156441 -0.06341851 0.0072383974 0.04122444
-0.0155301215 0.07625421 0.059566658 0.009523782 0.0072017885 -0.052752163 -0.017734373 0.070437714
0.009496102 0.009151536 0.06833883 0.08174556 0.029394988 0.021034412 0.07727149 0.094263166
-0.007228659 0.084581845 -0.028283563 -0.09449084 0.0660333 0.021774942 0.022763418 0.040570192
0.043430757 0.08890249 0.06413555 0.10536678 0.11285598 0.06907535 0.090259664 0.055051994
-0.0013991619 0.061262455 -0.023409905 -0.05292485 0.0364165 -0.017915523 -0.06527505 -0.05657313
-0.05567165 -0.08157513 -0.11568627 -0.0050148154 -0.09151074 -0.09838509 -0.14679608 -0.15213941
-0.05596891 0.075963646 0.060029224 0.008598709 0.110235125 -0.01916883 -0.018510992 0.102160566
0.11555033 0.060528986 -0.06867794 -0.24310912 -0.25576264 -0.23463239 -0.03174882 0.005844041
0.060032077 0.07421747 -0.010442359 0.015698215 0.016676735 -0.15569668 -0.07128436 -0.110061854
-0.13467628 -0.04954419 -0.082449004 -0.0074617243 -0.017378278 0.06317297 -0.06498818 -0.07405588

EncList.2.conv.bias f4 [64]
00000000: 3451 683e ac07 473d 8be4 62be af5c b0be
00000010: 3684 9cbc ec2d 27be d756 ebbd 24d7 7dbd
00000020: 270a 29be 60b3 8e3c 1acf fc3d 7178 043e
00000030: 7300 0d3d f79f 8ebe ab53 12bd c60b 5f3e
00000040: defb 973e b3bd 84bd 0a30 8b3e 74c5 b1bd
00000050: 686d bdbe f307 893e e11d 01be a7df 0bbe
00000060: 68db 33be 6a7e a53d f217 2b3e 4c52 90bd
00000070: 414f 3e3e a5b4 7ebe a94b 80bd 0c5d 28be
00000080: 9710 bd3d 5ee1 34be c6ea 1a3e efd1 633c
00000090: 71c5 d3bd 28ae 38be 8623 08be 36a0 80be
000000a0: 0cde c9bc ec85 d5bc 4287 0e3e 3695 593e
000000b0: 25d3 363e 8f0c d63d 9c58 f4bc da1b 963e
000000c0: 3bab 46be c3bd 413d e23c aa3d 09ae 45be
000000d0: fdb5 9e3d 5e6f 26be c393 5bbe 43f8 d9bc
000000e0: 404d 703e 3ab9 1a3d 1e70 973e 2cbb 8b3c
000000f0: 8b0b 0a3e 7582 1fbe 3eb4 a73d a047 d23d
0.22687227 0.0485913 -0.22157495 -0.34445712 -0.019106012 -0.16326112 -0.11491173 -0.061972752
-0.16507779 0.017419517 0.12344189 0.1293657 0.034424257 -0.27856418 -0.035724323 0.21781835
0.29684347 -0.06481495 0.27185088 -0.08680239 -0.36997533 0.26763877 -0.12609054 -0.13659535
-0.17564166 0.08080752 0.16708353 -0.07046947 0.1858492 -0.24873598 -0.06264431 -0.16441745
0.0923168 -0.17664096 0.15128621 0.013905033 -0.10340393 -0.18035185 -0.13294801 -0.2512223
-0.024642013 -0.026064835 0.13918784 0.21248326 0.17853983 0.10451614 -0.029827408 0.29318124
-0.19401257 0.04730011 0.08312394 -0.1930467 0.07749555 -0.1625342 -0.21443085 -0.026607638
0.23466969 0.037774302 0.29577726 0.017057024 0.13480966 -0.15577109 0.08188675 0.10267568

EncList.3.conv.weight f4 [128, 64, 7]
00000000: f52b f3bd 47f6 42be 333d 33bd 1d22 71bc
00000010: 9023 02bc cdba cdbd acbf e4bd 7fcd c1bd
00000020: db8e 07bd 59fa b6bd c807 d8bd 0879 c6bd
00000030: c8ed 8fbd 8b16 0bbd 06e5 43be 3160 37bd
00000040: 1867 0bbd 0f6a e73d 22ce 35bd 3ce8 103b
00000050: 126f f63c 2103 0ebe 998b 273d 7e7c f73d
00000060: 1bca cc3c ea91 85bd b9d7 ce3c 3603 80bd
00000070: ab2e 26be 3d8f 2ebe 6ee8 05be da57 b7bd
00000080: 16c6 4ebd ca23 e83c ae38 d13c c14e 0d3e
00000090: cbbc 823c 3796 893d d0c8 933d e0d4 88bd
000000a0: 4414 0bbd 24c8 15bc 8a0d 85bd 550b 9dbc
000000b0: 40aa 813d 73e3 1b3d 6da1 fa3c 25af 113d
000000c0: ac21 f23c 01bf 24bd 42c4 89bd cf35 893c
000000d0: db45 c73d c7c2 083d d024 3cbe acf6 6e3d
000000e0: 4918 5cbd e153 1e3e 06d2 9bbb a3a9 09be
000000f0: b6f2 a6bd cbc6 3e3c 75d7 203d fbdf c8bd
00000100: 619b 24be 7408 70be e8c6 e4bd 5e3f c7bc
00000110: 35fd 91bb 7f58 113d 9bc9 e0bc 390f d73b
00000120: 27d6 aebd 6809 13bc 32ba 043d 731f 8e3d
00000130: e388 90bd fbf6 b13b 8998 08bc ae50 07bd
00000140: 47ff 7c3c 2956 91bd a86a 8b3b 12e8 35bc
00000150: 9e10 b6bc 76b5 2fbe f8f3 9ebd ad01 feba
00000160: 18fb 71bd 60c7 2abd c505 7cbd 1a9f 1f3e
00000170: 63a0 8c3c 2000 dfbd 2433 e23b 2a01 383d
00000180: 6580 0ebd b3c9 acbd 4371 b8bc f3cf 88bd
00000190: ff65 a8bd 1d95 e0bc 233d 6cbd f064 01bd
000001a0: ed1a 2abd 8a9d 59be 7021 afbd 5e17 6b3d
000001b0: 442f c03b da00 e53d 6c60 873c da11 c3bd
000001c0: af1a f239 70e4 2abd cbcc 97be 299e f0bd
000001d0: 854c 52bc 4876 353d d225 5cbd 11e1 0c3c
000001e0: decd b33d ef00 2a3d a310 0b3d f4bf 6b3b
000001f0: d1a1 8b3b 96c3 e1bb ba42 983c bb32 44bd
00000200: 3dfc 033e 3e72 9b3d 96c1 0cbd 844b 75bd
00000210: c6d7 56bd 3d98 0bbe 7478 15be cd0e 223d
00000220: 8bbf 7e3e ac72 1f3e 3d3d 263e 7caf 653d
00000230: 3665 b3bd 9ecd 543d 9f00 213e f518 973d
00000240: b619 f2bc f4eb c2bc 5e00 e23b ad56 ed3d
00000250: f7e6 1f3d 632c 16bd a9da 1d3c 66a9 82bd
00000260: 298e abbd 35b8 b9bc f761 e8bd b780 68bd
00000270: bd41 0f3c 545c 80bd 0ea9 0fbd 6429 3c3d
00000280: e3d4 e1bb f51a edbd f425 e8bc 6652 b43c
00000290: 9844 44bb 1b39 d83d d87b 7e3d e074 023d
000002a0: 69d0 f0bd 7149 4fbd a99b e7bd 6de2 e83d
000002b0: f3e7 f03d 8989 4c3e 4aa7 093e 9743 c93b
000002c0: 26ac 953d 4954 343b 3edf 42bd a241 ddbc
000002d0: f0f4 5ebc d844 8ebd 7ef6 49be 2e5f c5bd
000002e0: 7fd5 ecbd aa66 fe3b 1361 b73d c412 0d3e
000002f0: 4793 583e de4a 26be 89df ef3c 935b 0cbe
00000300: cffa b1bd 3475 1abe fa99 253d dfca f43c
00000310: 6297 cd39 a6ae 90bd 02e3 06bc 8ffe b03d
00000320: 6204 c3bb 7a84 bebd 754b fcbb 9af3 d4bb
00000330: da3f a8bd db91 823d 17b2 b43d 8da7 90bd
00000340: 00fa 983c 06f8 e83c 41cd 0abe 672f a9bc
00000350: 5c45 6f3d e968 b63c f091 e6bc d661 9cbc
00000360: f147 1b3c 0d54 18bd 6022 c93c 139d 993c
00000370: 9662 b3bc ccc4 7ebb 9643 9d3d 0641 463b
00000380: 3ac4 39be ee8a 02bd 8ba1 493c 7906 433c
00000390: 6ceb d33c 1f68 323d 2c18 303c 6aac 5e3d
000003a0: f2fd fc3d 3d28 573d 44c7 463c 346e 853d
000003b0: c986 a5bc 7800 e5bd a61a 533e 07e4 693e
000003c0: 344b c93c 95ef e1bd 3b23 8dba 53f8 12bd
000003d0: 622b 60be ca5b 8fbb bf48 79be e620 4c3d
000003e0: e5c0 003e 7258 8f3d 7711 c83b a6b9 9a3d
000003f0: a663 96bc 6e0f 203d 4dd3 0cbd 15f0 8e3d
-0.118736185 -0.1903926 -0.043759536 -0.014717606 -0.007943049 -0.10045395 -0.11169371 -0.094630234
-0.033095222 -0.08934469 -0.10548359 -0.09691054 -0.07027775 -0.033957046 -0.19130334 -0.04476947
-0.034033865 0.11299526 -0.044386037 0.0022111079 0.03008226 -0.13868381 0.040904615 0.12084292
0.024998715 -0.065219715 0.025249349 -0.062506124 -0.1622874 -0.17046829 -0.13076946 -0.08952303
-0.05048188 0.028337378 0.025539722 0.13799573 0.015959164 0.06718104 0.07216036 -0.06681228
-0.033954874 -0.0091419555 -0.06496723 -0.019170443 0.06331301 0.03805871 0.030594552 0.03556742
0.029557072 -0.040221218 -0.06726886 0.01674929 0.09730121 0.03338888 -0.18373418 0.058340713
-0.053734098 0.15461685 -0.0047552614 -0.13443618 -0.08151762 0.011644076 0.039267976 -0.09808346
-0.16074897 -0.23440725 -0.11170751 -0.024322208 -0.0044552335 0.035484787 -0.027439883 0.006563094
-0.0853694 -0.008974411 0.032404132 0.06939592 -0.07057359 0.0054310537 -0.008337148 -0.033035927
0.015441722 -0.07096512 0.004254658 -0.011102693 -0.02222472 -0.17159066 -0.07761377 -0.0019379162
-0.059077352 -0.041694045 -0.06152894 0.15588036 0.017166322 -0.10888696 0.006903069 0.044922985
-0.034790415 -0.084369086 -0.022514945 -0.06680288 -0.08222579 -0.027414853 -0.057675492 -0.031590402
-0.041529585 -0.21251503 -0.085512996 0.05739533 0.0058650095 0.11181803 0.01652547 -0.09524889
0.00046177718 -0.04172176 -0.29648432 -0.11748917 -0.0128356265 0.044302255 -0.053747006 0.008598582
0.087795004 0.041504797 0.033951413 0.0035972567 0.0042612334 -0.0068897707 0.018586505 -0.047899943
0.1288919 0.07590149 -0.034364305 -0.05988647 -0.05245187 -0.13632293 -0.1459673 0.039564896
0.24877755 0.15571088 0.16234298 0.056075558 -0.08759539 0.051953904 0.15722893 0.07377807
-0.029553276 -0.023794152 0.0068970164 0.11588798 0.039038625 -0.036663424 0.009634652 -0.063799664
-0.08376724 -0.022670845 -0.1134681 -0.056763377 0.008743701 -0.0626761 -0.035073332 0.04593791
-0.006891833 -0.11577407 -0.02833841 0.022011947 -0.0029948112 0.10557767 0.062129825 0.031849742
-0.11758501 -0.05060715 -0.11308987 0.11371312 0.11762991 0.1997434 0.13442722 0.0061420905
0.07308225 0.0027516058 -0.04757618 -0.027008835 -0.013608202 -0.06946725 -0.19722936 -0.09637295
-0.11564159 0.0077637034 0.08954062 0.1377669 0.21149932 -0.16239497 0.029281395 -0.13706808
-0.08690416 -0.15083772 0.040430047 0.029881893 0.00039213436 -0.070645615 -0.008232834 0.08642303
-0.00595145 -0.09302612 -0.007699425 -0.006498766 -0.08215304 0.06375476 0.088230304 -0.07063208
0.018673897 0.02843858 -0.1355486 -0.020652486 0.058415756 0.022266822 -0.02814576 -0.01908962
0.009477601 -0.037189532 0.024552524 0.018751657 -0.021897595 -0.0038874624 0.076789066 0.003025116
-0.1814126 -0.031870775 0.012306581 0.011903399 0.025869094 0.04355633 0.0107479505 0.054363646
0.12353124 0.05252861 0.01213247 0.0651516 -0.020205872 -0.1118173 0.20615634 0.22840892
0.024571992 -0.11032025 -0.0010767946 -0.03588135 -0.21891549 -0.004374956 -0.24344157 0.049836062
0.12573583 0.069992915 0.0061055976 0.07554941 -0.018358063 0.039077215 -0.0343812 0.06979386

EncList.3.conv.bias f4 [128]
00000000: a78b c4bd 6a13 1ebe 72c3 c5bd a2ef 84be
00000010: b09a e4bd cdbf 5dbe 761d df3d b892 a5bb
00000020: 6308 76be b93c 3a3d 2757 4f3e 22b5 013e
00000030: 43c9 a9bc f1e9 c4bd bfa6 373e 48f6 d4bb
00000040: 3e6b 2ebe 26c8 8e3d e8a5 bbbd 4408 f83d
00000050: b71b 0ebe 8c27 4abe 3121 cd3c 3b99 93bd
00000060: 9333 8dbd c862 00be d414 ea3d 75c8 b8be
00000070: 22e7 1e3e 3f8c c4be d822 a8bd f9e7 5b3d
00000080: e112 213e a2ad 0ebe 3446 e03d 2669 eabd
00000090: 188b 40bc 8340 80be 4728 30be 3fe1 cc3c
000000a0: 879c dcbc 9bb7 283e cb1e 98be 5a42 913c
000000b0: dc77 5a3d a661 afbd 21da 49be 5bea 083d
000000c0: be3a 123e 15cd b03c 703e 09be 88df 3c3d
000000d0: 29ac 55be 8445 673e 8d03 c5bd 5306 25bd
000000e0: 2c11 c7bd 9d72 b0bd 8997 353d 4e78 14be
000000f0: a36c 703b eb1d 183d 1ba7 5ebd 9fba 1bbe
00000100: 89c7 183e bb9d 023e 5b12 5c3c fc34 e7bd
00000110: 34ad b1bd 7245 083c 70f1 b73d bd9f ff3d
00000120: 09c8 61be a37f f0bc 6924 65bd c458 4a3d
00000130: 4b30 91be 3bdd 20bd f9a2 6c3c 8095 273d
00000140: 2cbb 3bbe 8e11 bdbc 1173 4cbe a7d4 df3d
00000150: c9be ecbd d390 17be 1655 f53b ec6c 0cbe
00000160: 73ac 9ebe 6778 c4be cffb 1ebe 3602 e33c
00000170: 04dc 393d 60b2 58be 0cf1 ea3c fc4b 87bd
00000180: 6705 cf3d 325c e4bd a125 fdbd b28a e13d
00000190: 9b06 c8bd 5c17 10bd 50b7 50bd 8923 1e3d
000001a0: 5412 293e f4fa 1b3e 1f80 48bd 87b2 1f3e
000001b0: 4c1b f73d 675d 2d3d c7c7 9ebd fbf6 843c
000001c0: fd86 dbbd 2498 0f3e c18e 53be c925 e43c
000001d0: 29b3 21bd d6a5 cf3d d202 c4bd 598f 243e
000001e0: e975 0b3d f671 8c3d 4389 a8bd 9653 93bd
000001f0: acb0 90be 477f 1ebe c68d b73d dc33 56be
-0.09596949 -0.15437093 -0.09656419 -0.25964075 -0.11162317 -0.21655197 0.10894291 -0.0050528906
-0.24026637 0.045468066 0.2024809 0.12666753 -0.020725852 -0.09614933 0.17934702 -0.0064990856
-0.17033097 0.06971769 -0.091625035 0.121109515 -0.1387776 -0.19741648 0.025040241 -0.07206961
-0.068946026 -0.12537682 0.11429754 -0.36090437 0.15517858 -0.3838825 -0.08209771 0.053688023
0.15729858 -0.13933423 0.1095089 -0.11445837 -0.0117519125 -0.2504922 -0.17202865 0.02500975
-0.026930107 0.1647629 -0.29710993 0.017731834 0.053336963 -0.08563547 -0.19712116 0.033426624
0.14280221 0.021582166 -0.13402724 0.046111614 -0.20866455 0.22585112 -0.09619818 -0.040289234
-0.09720072 -0.08615611 0.04433397 -0.14499018 0.0036685846 0.037137907 -0.054358583 -0.15207909
0.14919867 0.12755482 0.013432111 -0.11289403 -0.08675614 0.008317338 0.089815974 0.124816395
-0.22048964 -0.029357737 -0.055942927 0.04940106 -0.28357157 -0.03927348 0.014443153 0.04091406
-0.18333119 -0.02307966 -0.1996577 0.10929232 -0.11559827 -0.1480134 0.0074869497 -0.13713425
-0.30990943 -0.3837311 -0.15525745 0.027711015 0.04537584 -0.21161795 0.028679393 -0.0660629
0.10108452 -0.11150397 -0.12360693 0.11012782 -0.09766885 -0.035178527 -0.05095607 0.038608108
0.16510898 0.1523245 -0.04895031 0.15595447 0.12065753 0.042325404 -0.07752948 0.01623105
-0.10719106 0.14022881 -0.20659925 0.027850049 -0.0394775 0.101390526 -0.095708504 0.16070308
0.034047995 0.06857674 -0.082293056 -0.07193677 -0.2825979 -0.1547824 0.08962588 -0.2091822

DecList.0.conv.weight f4 [128, 64, 7]
00000000: 78b2 0dbd 201b c33d 9693 473e 93ff 113e
00000010: d314 213e 6845 083e 0e72 8d3d a2b1 ef3c
00000020: b2c5 fd3d 54b2 513d ae95 073d 31a5 17bd
00000030: 7c5b 4b3d 1921 143e 284b 43bd 3fe9 403e
00000040: d56a 2e3e e930 e73d f8db 4cbc e7ca dcbc
00000050: 6112 7c3c 52f5 ff3c f0df d7bd 2aba c7bc
00000060: 73e7 d2bd 9dea 6bbd 3faf 10be a51e 12be
00000070: 5614 e53c 8f54 3f3e 5c63 953e ff5a 063e
00000080: 5f4a ad3c 0b84 473e 3e7f 6e3e d3cf 65be
00000090: d7d9 79be 0a65 b5be 1a8d 0bbe 867f a1bc
000000a0: bfd5 ec3d 305e 793d cd57 503c 87dd 2f3d
000000b0: a3dc abbc 9229 913b 30a3 2b3c 1551 a53d
000000c0: b808 12bd de4c 163e 08bc b13d c49e 7c3d
000000d0: bac4 933c b77d 213e e73e 093e 1948 223e
000000e0: 8fc6 6ebe 731f 3dbe 914a a33c 0f50 17be
000000f0: dabb 05be 8ace debd 4c2d e6bd 1930 b4bc
00000100: 159e bb3d 9ce2 8b3d ed80 e13c 5351 b63d
00000110: ca29 9ebd 0677 c2bd 6c0d c5bd 4598 b0bd
00000120: 0a0c d7bd c061 4dbd 8760 f7bd 1f90 46bd
00000130: 7a37 203c 14b8 8bbc 386a 27bd ad74 d0bc
00000140: 75d5 ab3c af09 023e a7d9 e03d 70a9 c43d
00000150: c551 573e a5c8 253e 8f90 a03d a532 a63d
00000160: ae25 883e f42d 723e 5b97 a53d 0421 813d
00000170: 9558 c83d 2a40 043b 4d55 a73d 0a8b d5bd
00000180: 2e72 a2bc 2e74 603d 707b 043d 71b1 e03c
00000190: 03cd 11bd e213 8e3c c9e2 b93d 90d8 593d
000001a0: 74e8 323d 797e 623e 50b7 3f3e 99a0 ca3d
000001b0: a13d 103e cf73 8f3d 5228 3d3c 7763 e5bc
000001c0: d8d0 71bd 3509 e0bc 1258 43bd 7efd 97bd
000001d0: 3b04 c9bd 8734 b73d 8769 aa3d 5528 d1bd
000001e0: 4da3 963d 197c 22bd dd6d e63b 398e 65bd
000001f0: 3fa8 83be 955a 8cbe 4405 92bd 9ac1 be3d
00000200: 54ea fa3d 0bc3 0f3d 6f8a 983c 6d9a 98bd
00000210: bbf1 0bbe 6495 d13c 5c8b 8bbd a7c0 61bd
00000220: 5ecf 1d3c 94c9 a2bd 5701 a2bc b6bd f9bd
00000230: cdb7 b73c 2fd5 b9bd 1ca6 c03d 1846 773d
00000240: bcbc f5bd 9591 323d 8149 39bc 8fc9 c73c
00000250: 8424 053d 0511 43ba c7dd b43d cd4e 1f3d
00000260: cc77 713d 9d79 02bd 9724 9b3e e534 663e
00000270: bf62 e33d 6522 193e 5ce8 003e 409a 1e3e
00000280: 2cc4 003e d04e 413d c07c 8d3d 4ade 1a3e
00000290: d416 05be 7b80 19be d76d 90bc 1840 38bc
000002a0: 6e9e 94bc 3270 b13d 97ea 6abd 04dc 0abd
000002b0: 0fb4 88bd b55d debc 7e05 1abd 6ec9 de3c
000002c0: 7a91 ef3c fd58 af3d 05a8 9d3d b6ea 133c
000002d0: 9f2b 8a3d 068a 923d e47b 413d 4f4b b43c
000002e0: f7a1 b53d 9d45 3bbc 6c19 5e3d 2436 493d
000002f0: 6782 b03d 8e16 cbbc f53d 25bd ce4b 803d
00000300: c0f2 823d 3fad 993d 2e40 2d3e 80a8 a83d
00000310: f7b7 9ebd 62f3 28bd 3e1f 613c 647b 0cbe
00000320: 6131 793c 7ec1 763c db0c 123c d8a7 e53d
00000330: ae94 dcbc f3c9 4a3b e01f e0bd 2f38 42bd
00000340: 2ba3 60bd ad75 8fbd 9d89 d8bc 3f63 18bd
00000350: aeec 8f3c 79f7 ef3c 07b8 ed3c 2e48 493d
00000360: 945d c1bd bbea 1ebb 3b1a c93d 5d35 9b3d
00000370: 7e87 c43b 4820 05bd a9de 20be e116 66be
00000380: 07a3 083e 677e 0e3e bb2e 77bc 1dd2 ed3c
00000390: c751 84bd 032a b93b 000c 1f3e 0521 7f3d
000003a0: cd36 703d e313 07be e032 41be ea8e 63bd
000003b0: 0996 97bd d76f 87bb e7e0 79bd 2a5b 5c3d
000003c0: 0675 73bd 7303 a6bd bdb8 3a3c 1129 e43d
000003d0: df9a 133d badf 20bd 7dd0 f03c 2fca bfbc
000003e0: 3ec8 7f3c 64d4 b4bd 7813 9d3d 523e ccbd
000003f0: 6d14 17be 164d 18b9 dd02 01bd ce4b a0bc
-0.03459403 0.09526658 0.19489893 0.1425765 0.157306 0.13307726 0.0690652 0.029259507
0.12391223 0.051195458 0.03310173 -0.037022773 0.049647793 0.14465751 -0.047679096 0.18838976
0.1703294 0.11288626 -0.0125036165 -0.02695222 0.015385241 0.031244908 -0.105407596 -0.024380762
-0.10298052 -0.05759679 -0.14129351 -0.14269502 0.027963798 0.186846 0.29177368 0.1312065
0.021153627 0.19483964 0.23290727 -0.2244256 -0.24399506 -0.3542865 -0.13628045 -0.019714128
0.11564206 0.06088084 0.012716246 0.042935874 -0.020979231 0.0044300044 0.010475919 0.08072106
-0.035652846 0.1467776 0.08678442 0.06167485 0.018038142 0.15770613 0.13402902 0.15847816
-0.23317932 -0.18469028 0.019933017 -0.14776634 -0.13059941 -0.10879238 -0.112391084 -0.021995591
0.09161011 0.06830332 0.027527297 0.0890223 -0.077228144 -0.09495358 -0.09621701 -0.08622793
-0.10500343 -0.05014205 -0.12078958 -0.04847729 0.009778852 -0.017055549 -0.040872782 -0.02544626
0.020975808 0.12699006 0.10979014 0.0960263 0.21027286 0.16189821 0.07840072 0.081151284
0.26591247 0.23650342 0.080855094 0.06305125 0.09782521 0.0020179846 0.08170567 -0.1042691
-0.019829836 0.054798298 0.03234428 0.02742836 -0.035595905 0.017343465 0.09076459 0.053185046
0.043678716 0.22118558 0.18722272 0.09893913 0.1408601 0.070045106 0.011545258 -0.02800153
-0.05903706 -0.02734814 -0.047691412 -0.07421397 -0.0981526 0.08945566 0.08320909 -0.10212771
0.07355366 -0.03966913 0.0070321397 -0.056043837 -0.257143 -0.2741286 -0.071299106 0.0931427
0.12251726 0.035098117 0.018620698 -0.074513294 -0.13666432 0.02558393 -0.0681369 -0.05511537
0.00963196 -0.07948604 -0.01977603 -0.121943876 0.02242651 -0.09073865 0.09406683 0.06036958
-0.11998889 0.04359587 -0.011309029 0.024388103 0.032505527 -0.0007441196 0.08831363 0.03889351
0.058952138 -0.03185426 0.30301353 0.22481115 0.11102819 0.14954527 0.12588638 0.15488529
0.12574834 0.047194302 0.0690856 0.15123859 -0.1299699 -0.14990418 -0.0176305 -0.01124575
-0.018141951 0.08663978 -0.05735263 -0.03390123 -0.066749685 -0.027144292 -0.037602894 0.027195659
0.029244173 0.08561895 0.07698063 0.009028127 0.06746601 0.07155232 0.047237292 0.022008566
0.08868783 -0.011430171 0.054223463 0.0491239 0.08618622 -0.024791028 -0.04034229 0.062644586
0.06393957 0.07503747 0.16919014 0.08235264 -0.07749932 -0.041247733 0.013740359 -0.13718945
0.015209527 0.015060781 0.008914198 0.11213654 -0.026926365 0.0030943125 -0.1094358 -0.047416862
-0.05484311 -0.07004867 -0.026432807 -0.037204023 0.017568912 0.029292809 0.029018415 0.0491411
-0.09441677 -0.0024248797 0.09819456 0.075785376 0.0059975972 -0.03250149 -0.15709938 -0.22469665
0.1334344 0.13915406 -0.015086825 0.029030854 -0.0646091 0.00565076 0.15531921 0.06228735
0.058646012 -0.1319118 -0.18867064 -0.055556215 -0.07401664 -0.0041332054 -0.0610055 0.05379788
-0.059437774 -0.08106127 0.011396584 0.11140645 0.03603637 -0.039275862 0.02939629 -0.023411838
0.015611706 -0.08829573 0.07669729 -0.09972824 -0.14753886 -0.00014524566 -0.03149687 -0.019567396

DecList.0.conv.bias f4 [64]
00000000: 3735 503d 173e 0d3e c493 33bd 191d a9bb
00000010: 5cba 11bd c90b 743d dedd e4bd 622a bbbc
00000020: dbc1 b0bd 823c e3bd c054 00bd b207 8fbc
00000030: 1b63 833c eced 65be 6158 a0bd 5d0d 813c
00000040: bead f23d deac 4cbd 1db5 453d e6df 85bd
00000050: cb41 9abe c571 1d3e 00f7 9a3d 31ae 60bc
00000060: 07df c1bd c2cc 993d 8566 2d3e db4f 1339
00000070: fb87 05be 2ef8 743d 0200 243d b1a4 11be
00000080: e625 883e 27cc 8b3d aaaf b63e accd 02bd
00000090: 34f3 1d3e 9521 b0bb 8c25 9d3c 18e3 bbbd
000000a0: 1eec eebd 74eb 29be 6074 9b3e 556e 36bc
000000b0: c904 33bd 12e7 3d3e 5feb a6bc bac0 083c
000000c0: 6fba 58bc b726 443e a18d ba3e 927f 0ebd
000000d0: 39d1 f73d c17a c03d fe61 193e 1ee7 2b3d
000000e0: c120 d8bb c1ef 8a3d bf94 e23d 2114 883d
000000f0: acd6 11be 780a afba 84fb d93c 8a9f 8a3d
0.050832 0.13793217 -0.043842092 -0.0051609394 -0.035578117 0.05958155 -0.1117513 -0.022847358
-0.08630725 -0.11095525 -0.031330824 -0.017459724 0.016038468 -0.22454041 -0.07829357 0.015753442
0.11849545 -0.049969546 0.048268426 -0.06536846 -0.3012832 0.15375431 0.07566643 -0.0137134055
-0.09466367 0.075097576 0.1693364 0.00014048761 -0.13040154 0.059806995 0.04003907 -0.14222981
0.26591414 0.06826048 0.35680896 -0.031934425 0.15424806 -0.005375097 0.019182943 -0.09174174
-0.116661295 -0.16593724 0.30362225 -0.011134704 -0.043705735 0.18545178 -0.020375906 0.008346731
-0.013228043 0.19155394 0.3643618 -0.03478963 0.12100453 0.093984134 0.14978787 0.041968457
-0.0065957014 0.06784011 0.11063527 0.06644464 -0.14242047 -0.001335456 0.02660919 0.06768711

DecList.0.ECA.conv.weight f4 [1, 1, 3]
00000000: 03d8 0dbf 01ca c6bd 41e9 583e
-0.5540773 -0.09706498 0.2118273

DecList.1.conv.weight f4 [64, 32, 7]
00000000: 715f e8bd d574 21bd f326 673a 2b6f a6ba
00000010: 789c 7abd 7ffd 2abd 64e5 35bd d6d4 75bc
00000020: 77f4 053d 1049 8c3d d419 623d 2933 e73c
00000030: ba2a f43d 7120 a03d af5c 6b3d f723 a83d
00000040: 0e6a 3a3e 2d73 1a3e 8a1e 4f3d b5a4 1e3e
00000050: 83e6 203e 5939 573c 9c3a c4bc ba77 e13c
00000060: 605c 8d3d e86d 843d d30e 67bd f552 7f3d
00000070: f6ef f43d e5a9 d53d 5b27 1d3e f9b3 753e
00000080: e9db 0a3e 78ac 1d3e 4939 1a3e df1f 50be
00000090: fddb 7abd 8248 4ebd 74d0 01be 76d1 c2bd
000000a0: e724 70be e0ca 9bbe d8f4 62bc a444 e63b
000000b0: e83e 4c3b c4ef 49be 3a54 07be 0147 02be
000000c0: 8f07 04be 0b7a 493d 9d90 81bd 1b28 c73d
000000d0: bac6 523d 1c7d 043d 1d42 6abb 766c 6dbd
000000e0: c515 eb3d 21ad ef3d e638 8d3d 60ee 3cbb
000000f0: 82c0 1a3d a0a3 8ebd 0714 2dbd b427 19be
00000100: 4e48 f5bd 3c87 bebd a4db ffbb ab1c cebc
00000110: 4f42 81bd 01a0 bdbd 0d41 b43d ef03 be3d
00000120: 45c3 28bd cf30 36be e377 4bbe c05e 85bd
00000130: 4f5b 28bd e797 bc3c cb29 ae3c b82c 2dbd
00000140: df37 56bd b0cc e9bd 14fc a1bd 0be8 94bd
00000150: 4a22 c7bd e3d5 0fbe 7289 a6bd 9b1a 27bd
00000160: 92cf b4bc 7aaa ce3b bd4e d838 825f 64bd
00000170: 10a7 11be 2416 71bd 9bd5 9ebd e1a2 b8bd
00000180: e563 30be f73a 0fbe 33d3 233e 3e49 373e
00000190: a948 2a3e b5e2 153e 261c 403e 311a 203e
000001a0: cc69 dc3d 159a 413d 17ee 803c 1aff 06bd
000001b0: eb3b 0fbd cbfc 34bd d280 953d 1a09 f33c
000001c0: 1bcb 8f3d c522 1d3e 12da 463c 0472 583d
000001d0: 7bb8 d9bc 825c 873d 5f23 863d f2ec b33d
000001e0: 1f6d a13d 190a 9cbd ae8d 62bd 807e e3bc
000001f0: 06c7 87bc b005 10bd 72b3 a9bd 3801 bdbc
00000200: adf9 18bd 42bf c53d e202 bd3b a9e9 8fbd
00000210: cb5a fbbd 4393 b8bd 3b4d bfbd dad6 dfbd
00000220: 847a 0dbe 8cb3 13be 3921 a9bd 48b4 ddbc
00000230: e4fd d13d a890 493b 7e2e 4bbe 72e6 263e
00000240: 8f78 733e deff 1b3e 3580 f63d 62a6 463d
00000250: c4b4 133d bcb4 723d 2f34 ccbc 71c9 dbbd
00000260: 79fa 11be 1ed2 f0bd 6e3e 9bbd edc4 bcbd
00000270: 35ea 13bd c745 abbd 219c d7bd 06d3 d5bd
00000280: fbb1 41be 2e90 76be 2ec4 90be a4bb 7cbe
00000290: 66da 5abe 121b ddbd 9b1a d13a a5cf aabd
000002a0: 3f7b ab3b 2663 ecbb 8eab 1bbd 4ad8 03bd
000002b0: 784c 27bc 0964 9d3c 050e f73d 5555 183e
000002c0: 393a f93d 7463 f73d 0781 8a3d 8f96 7a3d
000002d0: 6932 d9bc 7d3f 80bd e247 f4bd d227 cebd
000002e0: f878 41bd 74e4 5fbc a8a5 26bd 4af9 59bd
000002f0: 7de1 11be b156 1ebe 71dc c9bd d45b 70bd
00000300: 098e 08bd 043a 12be ae45 fabd c96c 07be
00000310: 2d66 69bd 0530 e6bc 7112 8fbc 02f7 673d
00000320: 5f84 f7bc fe7f d73d 22ab 263e 48f6 e83d
00000330: 590c e33d d0fa 763c 4d1e d5bc 02dc b63d
00000340: eb90 67bd 0b5d f0bd df88 38bd 09dd 93bd
00000350: 59e8 e8bc c34f 6cbb 6a30 d8bd d9ef 31be
00000360: 0b45 cebd 84f7 2dbd 9fc7 4a3d e123 8f3d
00000370: 0d88 003e a976 2c3d 8a9e e23d ed8a 25ba
00000380: 5b9e 1a3e dd48 c53d 6047 1b3e c4b3 2a3e
00000390: ae76 163e cced 283e 1917 eb3d 6eae e6bd
000003a0: 13dd 92bd b9aa bfbc 0f29 703d 3f7e 553d
000003b0: d15f dbbc 25b7 59bd 05e5 8b3d 166d 713d
000003c0: 0e60 873c 018e 9b3d 7244 d0bc 4e7e 18bb
000003d0: 63fd 283d 1f24 cd3c 3fa4 233d 1ea6 b63d
000003e0: d2b2 7abd 6c69 fcbc ea89 d63d 3d80 493d
000003f0: 505a 00be 4d85 64bc e8a3 4a3e 5b52 1f3e
-0.11346329 -0.03941806 0.00088177546 -0.0012697926 -0.061184376 -0.04174566 -0.044408217 -0.015004357
0.032703843 0.06849873 0.055200413 0.028222637 0.11922212 0.07818688 0.057461437 0.08209985
0.18204519 0.15082999 0.050566234 0.15492518 0.15712933 0.013136231 -0.023953728 0.02752291
0.06902385 0.064662755 -0.05641062 0.062334973 0.119598314 0.104327954 0.15347044 0.23994435
0.13560452 0.15397823 0.15060915 -0.20324658 -0.061244953 -0.050362118 -0.12677175 -0.09512608
-0.23451577 -0.3042822 -0.013852321 0.0070272256 0.0031165425 -0.1972037 -0.13215724 -0.12722398
-0.12893508 0.049188655 -0.06326411 0.097244464 0.05145905 0.032345876 -0.0035744973 -0.057964765
0.114787616 0.117029436 0.06895618 -0.0028828606 0.037781246 -0.06964803 -0.042255428 -0.14956552
-0.11976682 -0.09303138 -0.0078081656 -0.025160154 -0.063114755 -0.09259034 0.0880147 0.09278094
-0.04120185 -0.17792057 -0.19869952 -0.06512213 -0.041102704 0.023021651 0.021260163 -0.042278975
-0.052299377 -0.11415994 -0.07909408 -0.07270821 -0.09723337 -0.14046435 -0.08131684 -0.040796857
-0.022071633 0.0063069435 0.00010314349 -0.055755146 -0.14223886 -0.058859006 -0.07755586 -0.09015442
-0.17225607 -0.13987337 0.15998535 0.17899033 0.1662928 0.14637263 0.18760738 0.15634991
0.10762367 0.047266085 0.01573853 -0.032958128 -0.03496925 -0.044186395 0.07299961 0.029667426
0.07021161 0.15345295 0.012136953 0.05284311 -0.026577225 0.06609441 0.06549715 0.08785428
0.07882141 -0.076191135 -0.055310898 -0.02777028 -0.016574394 -0.035161674 -0.082861796 -0.02307187
-0.037347484 0.0965562 0.005768166 -0.07026989 -0.12273177 -0.09012463 -0.093409024 -0.109296516
-0.13816267 -0.1442396 -0.0825829 -0.027063504 0.10253504 0.0030756388 -0.19841954 0.16298845
0.23776458 0.15234324 0.12036172 0.04849852 0.036061063 0.059254393 -0.024927227 -0.10731781
-0.14255704 -0.11758827 -0.07580267 -0.09217248 -0.03611203 -0.08362918 -0.10527826 -0.1044064
-0.1891555 -0.24078438 -0.28274673 -0.24680954 -0.21372375 -0.10796179 0.0015953364 -0.08340386
0.005233198 -0.007213968 -0.038005404 -0.03218869 -0.010211103 0.01921274 0.12063221 0.14876302
0.12169308 0.12079516 0.06762891 0.06117874 -0.026513295 -0.062621094 -0.11927773 -0.10066189
-0.047234505 -0.013665307 -0.040685326 -0.053216256 -0.14246173 -0.15462758 -0.09856499 -0.058681324
-0.03333858 -0.14279944 -0.122203216 -0.13225092 -0.056982208 -0.02809907 -0.017464848 0.05663205
-0.030214487 0.105224594 0.1627622 0.113750994 0.110863395 0.015074447 -0.026015425 0.08928682
-0.05653469 -0.117364965 -0.045052405 -0.072198935 -0.028431104 -0.0036058284 -0.10556109 -0.17376651
-0.10071763 -0.042472377 0.04950678 0.06989265 0.12551899 0.04210535 0.11065395 -0.0006314952
0.1509947 0.09633038 0.15163946 0.16670138 0.1469371 0.16496962 0.11479015 -0.112637386
-0.07171073 -0.023396837 0.058632907 0.05212235 -0.026779087 -0.053153176 0.068307914 0.058941923
0.016525295 0.075954445 -0.025423262 -0.0023268643 0.041257273 0.025041638 0.03995156 0.08918403
-0.061205693 -0.030811988 0.10475524 0.049194563 -0.12534451 -0.013947797 0.19789088 0.1555876

DecList.1.conv.bias f4 [32]
00000000: cb21 903d c9f3 3c3e f307 f3bc 07dc d6bd
00000010: 1cf4 163e e91f 7a3e 837d a2bb 9a43 043e
00000020: f792 613c d115 a53d 0391 03be 76e5 093e
00000030: 642b 9b3d 4c34 873c cf58 173e d089 b23d
00000040: a176 57bd 2098 0ebd b9eb 493c 291c 9dbd
00000050: a18c 113e 9dac 603d 9907 82bc 004f 24be
00000060: af4b 87bc 42d7 ae3d ecff 5abe f00b 003d
00000070: a71d 833c 26e8 babc cc96 33be 3c3a ec3d
0.070376955 0.18452372 -0.029666876 -0.10491186 0.14741558 0.24426235 -0.00495881 0.12916413
0.013767949 0.08060802 -0.12848286 0.13466439 0.075766355 0.01650443 0.14779972 0.08717692
-0.052603368 -0.034813046 0.012324267 -0.07671387 0.14213802 0.054852117 -0.015872763 -0.16045761
-0.016515581 0.08537151 -0.21386689 0.031261384 0.01600535 -0.022815775 -0.17537993 0.11534545

DecList.1.ECA.conv.weight f4 [1, 1, 3]
00000000: 995f 31bf dfa6 c93e 7142 473f
-0.69286495 0.39385125 0.77835757
