checkpoints/best_DACNN_emb_snr_4.pth (torch, 160834 bytes, 219 tensors)

enc.EncoderList.cell0.conv.weight f4 [4, 2, 17]
00000000: e2e1 2a3d eaec cbbb 3622 603d 0ad0 783e
00000010: 2dd6 303e 6555 483e feb5 1a3d e529 f03d
00000020: c108 563e fbd3 f8bd 42e5 0a3d 306e 0dbe
00000030: 7b6c d43c 832e 93bd ed48 703d 5613 33bd
00000040: bb46 a83d eac7 103e 90e0 433c 9b51 1d3e
00000050: 6b27 efbb ff87 443d 9f79 1bbd 1433 a33d
00000060: 6824 0fbe dbca aabd 5017 c9bc 7ba8 2bbd
00000070: a4ba ac3d 30b6 6fbd 8cc1 883e 8b63 b7bd
00000080: 62f6 263e a526 e5bc de63 c8bd b9c2 3d3d
00000090: 9dd2 99bc c89d b73d 839d c9bc 14b4 c5bd
000000a0: 3c7a 40bc 7c74 e4bd c37f 153d efc2 fb3d
000000b0: 1f68 c43d 538a 66bd 8b0e f93d f45e a03d
000000c0: 1954 e53d 5cb6 76bd 1f36 35be 103f 1fbe
000000d0: bc05 38be 0360 a23d 79f1 66bb 7ad7 ad3d
000000e0: 2cd6 ca3c b3f9 4b3d 7245 6b3e f1e7 133e
000000f0: 5f95 873e db61 d1bb 116f c53d 23be 83bd
00000100: 4d8a 5b3d b58f 93bc ffdb f03d 8dac 4abe
00000110: c193 15be ed45 e4bd 13df 0b3e a185 963d
00000120: 9e09 0b3e 1fe7 05be 659b 4fbe 5341 10be
00000130: f274 e6bb 33f0 413e a456 1e3e 12d8 863e
00000140: 43ca 85bc 33f7 a9bc 83b4 bd3d 5362 91bd
00000150: 2d21 94bc 2d2e 0f3d 7c0b 213e 442f 76bd
00000160: b722 e3bc 8cce 683d 222d cd3b b6ca 10be
00000170: 86ba 59bb 7d36 a5bc 6606 70be 3670 e6bd
00000180: a7dc 163e 1794 c93c 431f 3a3d eb6c 48bd
00000190: c50b 393c ccf3 9e3d 4afd 723d f77f f2bb
000001a0: de9d 86bd dc85 28be 5eb0 57be 6df3 b6bd
000001b0: 71f9 e0bd 299e 1cbd 0d4e 9f3d 96ed aebd
000001c0: e055 853c f999 5cbe 871a d8bd adeb c7bd
000001d0: 6664 be3d 4cc9 21bd abfb 373d 9069 95bd
000001e0: a87b 053d fee8 ecbc 4259 bf3c 6efd 01be
000001f0: 592f d7bd 1621 eabd 5696 b9bd 8c24 46be
00000200: cf9f bb3d 69f7 4fbd d029 283e 8f59 eb3d
00000210: 8006 88bd a10d 333e aa79 793a a213 08bd
0.041719325 -0.0062233107 0.054720126 0.2429811 0.17269202 0.19563825 0.037771218 0.11726741
0.20901777 -0.12149807 0.033910044 -0.13811564 0.025930634 -0.07186606 0.058663297 -0.043719612
0.08216616 0.14138761 0.011955395 0.15363161 -0.0072984 0.04798126 -0.037957784 0.07968727
-0.13978732 -0.08339473 -0.02454725 -0.041908722 0.084340364 -0.058523357 0.26710165 -0.08954533
0.16304925 -0.027972529 -0.09784673 0.04632828 -0.018777186 0.08965641 -0.02461124 -0.09653488
-0.011747893 -0.1115503 0.036498796 0.1229304 0.09590172 -0.05628426 0.12160977 0.07830611
0.11197681 -0.060232505 -0.17696427 -0.155514 -0.17970937 0.07928469 -0.0035239144 0.084883645
0.024760328 0.04979868 0.2297571 0.14443947 0.2648115 -0.006389839 0.09640325 -0.0643275
0.05359869 -0.01801286 0.11760711 -0.19792385 -0.14607145 -0.1114615 0.13659315 0.073497064
0.13577887 -0.13076447 -0.20274122 -0.14087419 -0.007032984 0.18939285 0.15462738 0.26336724
-0.016331797 -0.020747757 0.092629455 -0.07098832 -0.018082226 0.034956146 0.15727037 -0.06010367
-0.027726514 0.056837603 0.0062614838 -0.14139828 -0.003322275 -0.020167584 -0.23439941 -0.11251871
0.1473261 0.024606748 0.04543997 -0.048931997 0.01129431 0.07761344 0.059323587 -0.0074005085
-0.065730795 -0.16457313 -0.21063372 -0.089331485 -0.10985077 -0.03823677 0.07778559 -0.0854141
0.0162763 -0.21543111 -0.10551935 -0.097617485 0.09296493 -0.039498612 0.044917744 -0.07295525
0.03258863 -0.028919693 0.023357991 -0.12694332 -0.10507078 -0.11432092 -0.090618774 -0.19349879
0.091613404 -0.050773058 0.164222 0.11491691 -0.06641865 0.17485668 0.00095167255 -0.03322185

enc.EncoderList.cell0.conv.bias f4 [4]
00000000: 902c 0cbc 10b2 b23e d5aa 16be 0d82 e83c
-0.008555546 0.34901476 -0.14713605 0.028382326

enc.EncoderList.cell0.activate.fcn.0.weight f4 [8, 8]
00000000: c34c 533e 34e1 8f38 4ba4 223c 9f38 57be
00000010: 1e47 42be 976f 3d3e f768 353e e478 893e
00000020: 19d9 9d3e d31c a5bd e367 8dbd 3c17 f4bd
00000030: 1337 8bbd 5fce b3be 3ff0 c23e 113e 60be
00000040: 2533 633d aec4 853e 0ed5 6ebd 6171 87be
00000050: a07c c53e c5c1 1d3e 12ce 2fbd 37c0 5ebe
00000060: 0f2c 063e 2bce 19be 72e2 66be 1ed5 953e
00000070: 1b83 20bd fb47 8abe 2c26 b8bd 7bf1 013c
00000080: b59e 523e a11b d7bd a337 41be df5e 4dbe
00000090: f463 44be f84e 8a3e 10df 6b3e 8b37 85be
000000a0: e395 a93d 472b 813e 124d af3d 053d afbd
000000b0: 9fb0 373e 537e 923d 2fec 823e 924c 57bd
000000c0: 58a1 52bd 0e97 5e3e 0621 14bc bc65 36be
000000d0: 9fac 993e ea6d 583e 7493 4b3d 2ba5 d0bd
000000e0: 23c2 e4bc 6c8c 053e f842 043e e09a fc3d
000000f0: 07bf 79be c2bc 71be 8f70 8d3e b7a5 063e
0.20634751 6.860719e-05 0.009926866 -0.21017693 -0.18972442 0.184996 0.17715822 0.26850045
0.30829695 -0.080621384 -0.069045804 -0.11918494 -0.06797614 -0.35118386 0.38073918 -0.21898676
0.055468697 0.26126617 -0.058308654 -0.2645369 0.38571644 0.15405948 -0.042921133 -0.21753012
0.13102745 -0.15020053 -0.2254732 0.29264158 -0.039187532 -0.27008042 -0.08991656 0.007931109
0.20568354 -0.10503317 -0.1886888 -0.20055722 -0.19178754 0.27013373 0.2303431 -0.26018938
0.08280542 0.2522833 0.08559622 -0.085565604 0.1793847 0.07153001 0.2557082 -0.052563258
-0.0514234 0.2173731 -0.0090410765 -0.17812246 0.30014512 0.21135679 0.04970117 -0.10187753
-0.027924603 0.13041848 0.12916172 0.123342276 -0.24389277 -0.23607162 0.27624938 0.13149153

enc.EncoderList.cell0.activate.fcn.0.bias f4 [8]
00000000: 71da 9abd b66c 57be 5468 59be f55a a5be
00000010: df9d f2bd 5db8 e83d e17e 643e 4302 1d3e
-0.07561196 -0.21037564 -0.21231204 -0.32295957 -0.11846518 0.113632895 0.22314025 0.15332894

enc.EncoderList.cell0.activate.fcn.1.weight f4 [8]
00000000: 0e72 a23f c93d 793f ff48 843f 595c 713f
00000010: 7b23 823f b18a 6e3f ea8b 5d3f 7fb3 7c3f
1.2691057 0.973599 1.0334777 0.94281536 1.0167078 0.93180376 0.86541617 0.9871139

enc.EncoderList.cell0.activate.fcn.1.bias f4 [8]
00000000: e154 2ebe 94c1 353d ded7 223d 7948 ac3d
00000010: 6d8d 5c3d 863c 4f3d c33c 3abd a997 1a3d
-0.17024566 0.044374064 0.03975665 0.084122606 0.05384581 0.05059483 -0.045468103 0.03774229

enc.EncoderList.cell0.activate.fcn.1.running_mean f4 [8]
00000000: 0b7a 1cbe 9daf e9bd e66e 82be 1129 3bbe
00000010: cc83 a4bd a484 fe3d 5b6d fd3d be51 8c3e
-0.1528093 -0.11410449 -0.25475234 -0.18277384 -0.08032951 0.12427643 0.123743735 0.27406114

enc.EncoderList.cell0.activate.fcn.1.running_var f4 [8]
00000000: 0e44 103b 5f34 263d e5f1 823e e816 623d
00000010: abc0 fb3c 0288 923d 64d8 043e 41c0 5b3d
0.002201322 0.04057729 0.25575176 0.055197626 0.03073152 0.07154848 0.12973171 0.053650144

enc.EncoderList.cell0.activate.fcn.3.weight f4 [4, 8]
00000000: 8b70 08bf d78a 12be f30f c1bd f679 513e
00000010: c2ad 6e3e f4b9 e2bd 40cb 0ebd 9599 7abe
00000020: faf8 e5be e250 8d3e d4d2 6abe 4453 01be
00000030: 380a a7be ff76 193e 0c55 ae3d 9f5f 833d
00000040: 9bba dfbe 6498 c2bd 7dd2 02be f8db 853d
00000050: 15d1 b23e 45f1 de3e 1691 643e b8f8 c2bd
00000060: 29bf 063e 4994 7abd c0be 91be 6810 a2be
00000070: 7f74 6f3e e1c6 2dbe 48f9 e6bd 3bd5 8dbe
-0.53296727 -0.14310776 -0.0942687 0.2045668 0.23308471 -0.11070624 -0.034861803 -0.2447265
-0.44916517 0.2760077 -0.22931987 -0.1262942 -0.32624984 0.149868 0.08512315 0.06414723
-0.43697056 -0.095017225 -0.12775607 0.06536096 0.34925142 0.4354345 0.22320971 -0.095200956
0.1315886 -0.061176572 -0.28465843 -0.31653142 0.23384283 -0.16970398 -0.112780154 -0.27701744

enc.EncoderList.cell0.activate.fcn.3.bias f4 [4]
00000000: fdda 84bd dc48 81be a1d6 67be a483 f03d
-0.06487081 -0.252509 -0.22640468 0.117438585

enc.EncoderList.cell0.activate.fcn.4.weight f4 [4]
00000000: 15f8 6b3f f843 d93e f79a 053e 6b46 513f
0.9217542 0.4243467 0.13047396 0.81748074

enc.EncoderList.cell0.activate.fcn.4.bias f4 [4]
00000000: fd94 1e3f ff7d 8d3f a21b a03f facb f33e
0.6194609 1.1054076 1.2508433 0.4761656

enc.EncoderList.cell0.activate.fcn.4.running_mean f4 [4]
00000000: a4aa a8be 4f76 f7be 76c1 d7bd a5b2 5abe
-0.32942688 -0.4833245 -0.105349466 -0.2135721

enc.EncoderList.cell0.activate.fcn.4.running_var f4 [4]
00000000: bbdc 503d df9f 283d d12b 143e 7239 3c3e
0.050991755 0.04116809 0.1446984 0.18381289

enc.EncoderList.cell0.bn.weight f4 [4]
00000000: 5c98 6d3f 5334 813f 34a7 653f c987 603f
0.92810607 1.0094093 0.89708257 0.8770719

enc.EncoderList.cell0.bn.bias f4 [4]
00000000: ad81 1c3e 7786 863e d096 083e 6aea bdbc
0.15283842 0.26274464 0.1333878 -0.023183066

enc.EncoderList.cell0.bn.running_mean f4 [4]
00000000: b4cc a93d ee1e c13e cdb4 d9bd b4cc 183e
0.08290997 0.3771891 -0.10630188 0.14921838

enc.EncoderList.cell0.bn.running_var f4 [4]
00000000: e482 5b3f fec9 a93e dee6 923d 2b56 483f
0.857466 0.3316192 0.07172941 0.7825648

enc.EncoderList.cell1.conv.weight f4 [8, 4, 17]
00000000: 8bc0 12be bcec bc3b c973 9abd c009 dbbd
00000010: 6eb2 90bc e526 0abd b375 313c ec22 edbc
00000020: 7699 163e a7a8 0fbd affc 873d 01bd 953d
00000030: c64d df3d a7bd fdbc 0ee8 143e 53ca b3bb
00000040: f411 3e3d 338a 923d 96e4 7cbd ba77 973d
00000050: 5292 b73d ff31 b8bc 99f1 163e 1738 aabd
00000060: 5459 df3d b6f7 073e 5550 2b3e 3ab5 ae3c
00000070: c5d2 19bd 76ce a43d 74ea da3d 2bd8 ecbd
00000080: a855 52bc 0e21 e2bc 3059 25bd 9b86 34bd
00000090: 17e9 523d b5f2 383d 99f1 7fbd 7596 0d3e
000000a0: 230e 0f3d 1beb 7dbc 714f febc cf15 9cbd
000000b0: 2dcd acbd 7653 4abe 5479 263d c5f5 67bd
000000c0: 9953 e9bc fa7c 1bbd 04b5 98bd be6f 07bd
000000d0: 0e93 76bc a207 8dbd 08d2 e5bd 8b49 0ebe
000000e0: c3eb 48be 1ad0 723b 65c6 1bbe 97e1 31bd
000000f0: 5ddc fcbd d92b 2cbd 71d9 333d 72a9 7abc
00000100: 8801 53be 8260 1cbd 3e6f fd36 8dc5 c0bd
00000110: 3a95 843d 704f dc3d 4097 38bd bdcf 993c
00000120: 2dd3 20bd 3359 9f3d 9c49 413e d41f 0c3e
00000130: fff4 52bd 3899 4abd 2121 2dbd e0a6 04bd
00000140: cae6 e3bc 1b5f 6e3d af48 f33d 57ed 723d
00000150: f33b 5dbd 34a4 4ebd 008d 033e ca31 25bc
00000160: ca79 243d d26f 8c3d 22ad 28bd 6d8b 153d
00000170: 5db2 643d 64ee 243c dfea 06bd 10bf 84bd
00000180: 063b 63bd 87c4 61bb e042 103e a823 06bd
00000190: 7919 26bd b443 c33d 5ddb 79bb d8d1 c93d
000001a0: 3211 a83e f914 6e3e 73dd b63d 0afd 6c3e
000001b0: 5620 1a3e 74dc b13d bacc 04bd 470d b33d
000001c0: 8e71 47bd b656 08be 89b5 19bd 78f2 343b
000001d0: 85f6 883d 1622 173d 7a4b 243c 0e39 a3bc
000001e0: c431 3bbd 7629 8a3b e1f9 e93d 137b d43c
000001f0: 0329 1abe b6dd f7bd 3b40 54be da14 0ebe
00000200: 5a87 b1bc 080a df3c 645e 373d eb0f 12be
00000210: ad30 f93d 17c9 0abc 1dcf d43d cab1 ea3d
00000220: 8b69 fd3d 8249 573e 6a00 5abd 673d 51bc
00000230: f69f d73d 45cc 5abb fec5 10bd e2bb d6bd
00000240: fafc df3c 6077 b53c eeee ae3d 9f5e 85bc
00000250: 70d6 d03a a4d1 833c e4f1 933c 8b4f d6bd
00000260: 96c5 c3bd b5da 10bc 8f4a 223a 743e f0bc
00000270: bf3f 47bd a1a5 2fbe d4df 31be da1f 92bd
00000280: 155e afbd b173 003d 7c12 c8bc 7b01 7bbd
00000290: f140 d93d 1a11 733d a5e4 ea3d dd62 3abc
000002a0: 2d31 90bc cabc 3f3d 490e 21bd 276d 13bc
000002b0: 6872 1a3d ddca 08bc 72ae 2bbe 2b6e f03d
000002c0: c66b 873c 018f f9bc 611d 12be cf76 5cbe
000002d0: 54a4 86be 1289 69bd 1c0d 753d 3d68 563d
000002e0: 2d91 dbbd c0e9 22bc ecfe fdbc 581a f3ba
000002f0: 510e 90bd c2da 98bc 7205 2bbd b4d2 21bd
00000300: 1d1b edbd fe40 063e 15b8 f03d f619 933e
00000310: 1e11 a73e d018 a23d 7243 683c fc11 283e
00000320: 956d 4b3e d3e8 dcbc 640b c63c a2c8 b6bd
00000330: 9320 03bd 408d db3c 836e 62bc abda e0bc
00000340: cba2 99bd 241e 7d3d c50b 2bbd 084f efbd
00000350: 711e 76bd b2b4 5fbd b3e2 90bd 644d 31be
00000360: e5f0 8fbb 9e7b 86bd 7633 9cbd 220d 18bd
00000370: 8988 2d3e 05c9 5c3d 2903 873d e7d0 783d
00000380: 37d7 b33d 0350 bfbb 2278 ffbc 68da deba
00000390: da1a 2bbe a160 adbe 7501 b2be 5512 4fbe
000003a0: 5c5b 0bbe a892 ebbd b7be d8bd cb92 8e3d
000003b0: c477 503d f2db 383e 4c59 c1bc 9f8e babd
000003c0: e7cd 933c 64d0 be39 f79a 933d abac c63d
000003d0: ba02 3a3c abda cfbc da8c 833c 4d54 7e3d
000003e0: 937c e03d 073b 033e 8dc4 7ebd 0590 0cbd
000003f0: c508 34bd 3c31 6dbd a162 a83a 9978 1a3c
-0.14331262 0.0057655256 -0.075416155 -0.10695219 -0.017663207 -0.0337285 0.010831284 -0.028947316
0.14706978 -0.03507295 0.066399924 0.0731144 0.10903506 -0.030974222 0.14541647 -0.0054867654
0.04640384 0.07155266 -0.061741434 0.07395883 0.08963455 -0.022484777 0.147406 -0.083114795
0.1090571 0.13278088 0.16729863 0.02132665 -0.03755452 0.08047192 0.1068925 -0.11564668
-0.012837805 -0.027603652 -0.04036826 -0.044073682 0.051491823 0.04515334 -0.062486265 0.13826926
0.03492559 -0.015497948 -0.03104374 -0.07621347 -0.08437572 -0.197584 0.04064305 -0.05663087
-0.028482245 -0.037960984 -0.07456401 -0.03306555 -0.015049709 -0.068862215 -0.11221701 -0.13895242
-0.19621186 0.0037050308 -0.152124 -0.04342803 -0.123467185 -0.042034004 0.04390854 -0.015299188
-0.20606053 -0.038177975 7.552938e-06 -0.0941268 0.06473775 0.10757339 -0.04506612 0.018775815
-0.039263893 0.07780685 0.18875736 0.13684016 -0.051503178 -0.049462527 -0.042267922 -0.032385707
-0.02782001 0.05819617 0.11879098 0.059308376 -0.05401225 -0.050449565 0.12846756 -0.010082671
0.04015521 0.068572655 -0.041180737 0.03650992 0.055834163 0.010066602 -0.032938834 -0.06481755
-0.05547621 -0.0034449415 0.14088011 -0.03274885 -0.040551636 0.09534398 -0.0038125135 0.09854478
0.3282562 0.23250188 0.08928957 0.23143402 0.15051398 0.08684626 -0.032421805 0.08742767
-0.04869228 -0.13314328 -0.03752664 0.0027610343 0.06687645 0.03689774 0.010027761 -0.019924667
-0.045701757 0.0042163683 0.11424614 0.025937593 -0.15054707 -0.12102835 -0.20727627 -0.13875142
-0.021670986 0.027226463 0.044767752 -0.14263885 0.12167487 -0.008470795 0.10391066 0.11459692
0.12373646 0.21024135 -0.05322305 -0.012770987 0.10528557 -0.0033385914 -0.03534507 -0.104850546
0.027342308 0.022151649 0.08541666 -0.01628047 0.0015933048 0.016091175 0.018059678 -0.1046439
-0.09559171 -0.008841206 0.00061909197 -0.029326655 -0.048644777 -0.17153026 -0.1737054 -0.071349815
-0.085628666 0.031360332 -0.024422877 -0.06128071 0.1060809 0.05934248 0.11469392 -0.01137611
-0.017601574 0.046810903 -0.039320264 -0.008998192 0.037706763 -0.008349148 -0.16765764 0.11739763
0.016530883 -0.030463697 -0.1426902 -0.21529697 -0.26297247 -0.057015486 0.059826955 0.052345503
-0.107210495 -0.009943426 -0.031005345 -0.001854728 -0.07033981 -0.018659 -0.04175324 -0.039507583
-0.11577437 0.1311073 0.11753861 0.28730744 0.32630247 0.07914889 0.014176236 0.1641311
0.19866021 -0.026966488 0.024175353 -0.089249864 -0.032013487 0.026800752 -0.013820293 -0.027448019
-0.075017534 0.061796322 -0.04175927 -0.11684996 -0.060087625 -0.054615684 -0.070744894 -0.17314678
-0.0043927305 -0.06566547 -0.07627003 -0.0371219 0.16946615 0.053902645 0.065923996 0.0607461
0.08781283 -0.0058383956 -0.031185213 -0.0017002346 -0.16709462 -0.33862785 -0.34766737 -0.20221837
-0.1360907 -0.11502582 -0.10583251 0.06961592 0.050895467 0.18052652 -0.02360215 -0.09109234
0.018042518 0.00036394887 0.072072916 0.097009026 0.011353189 -0.025372824 0.016058374 0.062092114
0.10961261 0.12815486 -0.062199164 -0.034317035 -0.043953676 -0.05790828 0.0012846777 0.009428167

enc.EncoderList.cell1.conv.bias f4 [8]
00000000: 55bc 9fbd 55d6 053e b1ac 943e 3989 72be
00000010: 8abd 1abf 6f14 d33d 2689 c03d e3b4 163e
-0.07799593 0.13070042 0.29038003 -0.23685159 -0.60445464 0.10306632 0.09401159 0.1471744

enc.EncoderList.cell1.activate.fcn.0.weight f4 [16, 16]
00000000: c750 01be 29a5 013d 4464 43be 1aeb 473e
00000010: bfcc debd 9629 6cbe 091d 6e3d afdb ab3d
00000020: d2da 8a3e 06d3 13be 2055 cfbd b375 0f3d
00000030: 49ba a33d 9527 ca3d 7a18 3a3e d126 c1bd
00000040: f8fc 393e 91e4 fb3d 7595 c8bd 4a11 a8bb
00000050: 4423 003e c9c1 7e3e 5fb9 7cbe 2cb8 35bd
00000060: b392 593d be24 c7bc 691e e73d 1a37 48be
00000070: 42fd 013e 4c9a 483b 2113 bf3d 2408 c93d
00000080: f554 34be 70e2 b1bd fada 75be 385a 923e
00000090: e998 a4bd d6cc 493d 14e2 373d 2e37 50bd
000000a0: 3191 973d dca1 f2bd 8da9 abbe 3eed 9bbe
000000b0: d859 42be fa97 a9bd 0128 dbbc 484a 29bd
000000c0: e20c 2f3e 15fd 783e 4544 3b3e 5713 bebd
000000d0: 95d9 dfbd ea34 0d3e 4787 3fbd f6eb 1b3e
000000e0: 5b77 a63d 7c9a cbbc cd80 553e bf0b 843e
000000f0: abc3 b3bc c7fe 76be 50eb 503e ea7a 4dbe
00000100: 908d 2ebe 2915 303e 49b1 613e 6a1a 9c3d
00000110: dff5 34be 5209 87be 7b3f d0bc 062e 113e
00000120: 05d5 6e3d cd52 083d f613 e33c 54da 18bd
00000130: 388a 853e e5fd 5c3c f21f 7d3e d670 dfbd
00000140: 6494 b43d 1a16 35bc 7ea9 103e 8bfb 183c
00000150: fc6b 9e3e d41c 6e3e b5ee 603e 900f 24be
00000160: 2171 c0bd 4900 8ebd d7d1 933a ea2e 10be
00000170: 9b5c 85be baae 6c3d 2fd6 613e 101c fb3d
00000180: 1edf eebd 2aeb b4bd b3e6 33be d3e2 c3bd
00000190: f1c9 063e 6add cf3d ebbe 103e bb12 a1bd
000001a0: 50b3 db3d e7cf 443e d990 67be 3ab7 8f3d
000001b0: 19e6 533d 0d27 d2bd 6bbb 59be d103 ad3e
000001c0: 36a4 4a3e befa f03d 9351 8a3e f9f1 1c3d
000001d0: 0fe2 a5bd 57be bc3d 007f bd3d 4666 f9bd
000001e0: 6751 93be 51eb 1b3e 98ba e1bd 9aa0 edba
000001f0: e23a 133e 9b08 38be 8cdb c9bd 9bc7 e63c
00000200: f860 1dbe a9e1 ca3d a00e 773e ecfd 74bd
00000210: 1327 96be 8cc0 40be 0b3e 22bd 458c 01be
00000220: d262 5cbe a41d 513d bb92 c0bc 336b 0c3c
00000230: 511b afbd 25ca 23be bfc4 1abd 5fa6 c1bd
00000240: 9b07 48be bed6 843d 26f3 95be 7eb3 68be
00000250: bfe5 73be ccb2 003e b04e 85be 7c30 94bd
00000260: 4688 a23e 3e56 483e 279b 023e 740a 6abe
00000270: 9107 14be 0ce9 2f3d 48a0 523e 1098 f33d
00000280: e5ae 08be 8403 2cbc 3231 88be 9f28 7cbd
00000290: 80cb 42bd 5da7 733e 6974 013d 44ee 07bd
000002a0: c7de 383d 8406 8e3c f499 823e 91df 273e
000002b0: d853 96bd 1fef b5bd becc 133e 7f98 13bd
000002c0: 2c50 36be 2161 d13d bc5f d53d eddb ed3e
000002d0: f37b 0d3e 812e 14be 3437 063e cfba cf3d
000002e0: 3126 8cbe 432f 103e 0edb 00bd 8697 0f3e
000002f0: 9dc3 b43b 12a3 adbd f654 243d fef7 193e
00000300: 14e4 3bbc 99d8 b3bd f200 af3e 32a7 9dbd
00000310: 386f 07be 0a79 8e3b 3777 22bd 3b79 2ebe
00000320: 4662 af3d b6c1 84be 779b 46be 8676 ce3b
00000330: 3bd5 13be 8797 d6bd 651d 36bd bc9c 40be
00000340: b3c2 98bc b4a8 e2bd 815f 333e ea16 87be
00000350: 183e 17be c734 a53d 54b9 063e d92e 223e
00000360: 24f0 05be ebb5 843d 2e2f 943d 9891 9b3d
00000370: 2e36 51be 0087 dabd e972 8fbe acca 29be
00000380: 9079 2e3e daa3 50be 6b2c 953e 3b08 61be
00000390: 16e5 0bbd 41a9 b9bd 0490 d83d 2072 0cbe
000003a0: 1a63 83bd f440 c1bd 07ae 2abd 8d62 343e
000003b0: 18de a23d 2eda 00be e827 c73c 9582 29bd
000003c0: 877b 31be 7c54 3a3d 7f56 d63c 902c 0e3e
000003d0: 0746 debd a293 8fbd 4ecc e93d 9b94 6f3d
000003e0: 9746 983b 7971 1cbe c1f0 8c3e 9a7c b6bc
000003f0: 84d1 83bd 5362 4fbe d04a 723e ce0d e8bc
-0.1262847 0.03165165 -0.19081217 0.19523278 -0.10878896 -0.23062739 0.05813316 0.08391511
0.27120072 -0.14435968 -0.10123658 0.035024356 0.079945154 0.09870831 0.181734 -0.09431232
0.18162906 0.12299455 -0.09794132 -0.005129014 0.12513453 0.2487861 -0.24680088 -0.044365093
0.05311842 -0.024309512 0.11285097 -0.1955227 0.12694266 0.0030609546 0.093298204 0.09816006
-0.17610534 -0.08685768 -0.24009314 0.28584456 -0.08036978 0.049267612 0.04489334 -0.050833873
0.0740074 -0.118472785 -0.33527794 -0.3045444 -0.18979585 -0.0828094 -0.026752474 -0.041330606
0.17094758 0.24315293 0.18287762 -0.092810325 -0.10930172 0.13789716 -0.04675987 0.1522673
0.08128234 -0.024853937 0.20849915 0.25790212 -0.021943888 -0.24120627 0.20402265 -0.20066419
-0.1704619 0.17195572 0.22040285 0.076222256 -0.17671917 -0.26374298 -0.025420895 0.14177713
0.05830862 0.03328209 0.027719479 -0.03731759 0.26082015 0.013488268 0.24719217 -0.109101936
0.08817366 -0.011052633 0.14127156 0.009337316 0.3094176 0.23253185 0.2196606 -0.16021562
-0.093965776 -0.06933648 0.0011277747 -0.14080396 -0.26047215 0.05778382 0.22054361 0.12261212
-0.1166365 -0.088339165 -0.17568474 -0.09564748 0.13162972 0.10149653 0.1413533 -0.07864901
0.107275605 0.19219933 -0.22613849 0.070173696 0.05173311 -0.102613546 -0.212629 0.33791974
0.19789204 0.11766575 0.2701536 0.0383167 -0.08099758 0.09215992 0.09252739 -0.1217771
-0.28773043 0.15226485 -0.11021918 -0.0018129528 0.14377931 -0.17972033 -0.09856328 0.028171351
-0.15369022 0.099063225 0.24126673 -0.05981247 -0.29326686 -0.18823451 -0.03960995 -0.12651165
-0.21522072 0.051053658 -0.023507467 0.00857048 -0.08550132 -0.15995081 -0.037785288 -0.09455561
-0.19534151 0.06486271 -0.2928707 -0.22724721 -0.2381811 0.12568206 -0.26036596 -0.0723581
0.31744593 0.19564149 0.12754498 -0.2285555 -0.14456011 0.04294686 0.20568955 0.11894238
-0.13347967 -0.010498885 -0.26600033 -0.061562177 -0.047557354 0.23794313 0.031605158 -0.033186212
0.045134332 0.017337091 0.25508082 0.16393878 -0.07340211 -0.08883499 0.14433572 -0.036034103
-0.1780402 0.10223604 0.104186505 0.46456853 0.13816814 -0.14470865 0.13106996 0.10143053
-0.27372888 0.14080529 -0.031458907 0.14022645 0.005516483 -0.08478369 0.040120088 0.15036008
-0.011467952 -0.08781547 0.3418041 -0.076979056 -0.1322602 0.004347925 -0.039664473 -0.17038433
0.08563666 -0.2592904 -0.19395243 0.00630075 -0.1443681 -0.1047812 -0.044461627 -0.1880979
-0.018647527 -0.11067334 0.175169 -0.2638467 -0.1476978 0.08066707 0.13156635 0.15838183
-0.13079888 0.064800106 0.07235561 0.07596129 -0.20430824 -0.106702805 -0.28017357 -0.1658122
0.1703856 -0.20375004 0.2913545 -0.21975796 -0.03415402 -0.09065486 0.10574344 -0.1371541
-0.064153865 -0.09436217 -0.04166987 0.17615719 0.07952517 -0.12583229 0.024311021 -0.0413843
-0.17332278 0.045490727 0.026164291 0.13884187 -0.108532004 -0.070105806 0.11415921 0.05849133
0.004647087 -0.15277661 0.2752743 -0.022276212 -0.06436446 -0.20252351 0.23661351 -0.028326895

enc.EncoderList.cell1.activate.fcn.0.bias f4 [16]
00000000: cdbf 0cbd 1e4e d8bd 1f5f 8ebd 95f5 56be
00000010: 983f 4cbe 7012 193e 97aa 563e 72fa 753e
00000020: ee56 39be 8726 0b3e 57df 2cbe d548 193e
00000030: 0130 333e 4c26 453e dd04 3a3e d8a8 1f3e
-0.034362603 -0.10561775 -0.06951737 -0.2099212 -0.19946134 0.1494844 0.20963512 0.24021319
-0.18099567 0.13588916 -0.16882072 0.1496919 0.17498781 0.1925289 0.18165918 0.15591753

enc.EncoderList.cell1.activate.fcn.1.weight f4 [16]
00000000: 6bf0 6a3f c848 7b3f b7d0 7f3f 1fbb 653f
00000010: dcce 803f dafd 803f 8f12 7e3f 2d37 793f
00000020: b494 7d3f d30b 853f 8b58 873f 4aa4 853f
00000030: fd04 743f 33cb 7b3f 9984 843f c589 853f
0.917731 0.9815793 0.9992785 0.8973865 1.0063128 1.0077469 0.9924707 0.97349817
0.9905503 1.0394233 1.0573896 1.0440762 0.9532011 0.9835693 1.0352966 1.0432669

enc.EncoderList.cell1.activate.fcn.1.bias f4 [16]
00000000: f3e5 79bd cf46 a13d 2014 1cbe ef90 7cbd
00000010: 3ade 09be 1748 9f3e 9dbb 773d 6625 ec3d
00000020: 6349 c3bd 3b0b ec3d c5fa 4cbd 3c89 6a3e
00000030: 31c4 0dbe 32fc 343e cb94 013b 1ead a03d
-0.061010312 0.07874834 -0.15242052 -0.061661657 -0.13463679 0.31109688 0.060481656 0.11530571
-0.09535482 0.115255795 -0.05004384 0.22903913 -0.13844372 0.1767433 0.0019772525 0.078455195

enc.EncoderList.cell1.activate.fcn.1.running_mean f4 [16]
00000000: 501c dbbe dfeb b9bc 6760 973e d904 8dbc
00000010: aef0 dfbe dfd5 2c3f 11ca fbbc aded 493f
00000020: a849 22bd 4755 cfbe 6687 05bf 649e 943e
00000030: d1e1 f43e 88d2 183f ee00 c43d 2692 023e
-0.42795038 -0.02269548 0.29565737 -0.017214226 -0.43738312 0.6751384 -0.030736001 0.7887829
-0.039621025 -0.4049475 -0.52159727 0.29027092 0.47828534 0.59696245 0.0957049 0.12751064

enc.EncoderList.cell1.activate.fcn.1.running_var f4 [16]
00000000: 95de 123d 8691 aa3e 35d2 043d 4819 0b3d
00000010: 8d60 9f3d e8b7 a23d 1ca7 ff3d 28f5 2b3e
00000020: 56ce 643e 3b63 503f f7a9 1d3d e3fe c03e
00000030: a958 223e 4996 b43d 7bd8 853e ca2d 883e
0.035856802 0.3331415 0.03242703 0.033959657 0.077820875 0.079452336 0.124830455 0.16792738
0.22344336 0.81401414 0.03849217 0.37694463 0.15854134 0.08817727 0.26141724 0.26597434

enc.EncoderList.cell1.activate.fcn.3.weight f4 [8, 16]
00000000: 05b8 f93d f2de 84bc 8033 523d 9feb a1bd
00000010: 6d10 52bd 1353 4e3d 4cd0 5abe 20fc dfbb
00000020: 2634 06be 2af1 82be 5550 84be de99 6ebe
00000030: 2b97 233d d5b3 303e 0d15 883e 4b6e ce3d
00000040: a71d 26bd 4a28 9dbe 37d3 853d 8535 d73d
00000050: 8b20 44be 2c8c de3d ff28 983d 9311 b03c
00000060: 83de 09be be39 ae3d 529b b03d 5a1e 8a3e
00000070: bf11 21be b50e 473e 3c58 2abe b201 9d3e
00000080: 91f2 02be 1a58 303d 2cc1 b6bd 000d 053e
00000090: 84b7 65bd 7114 263d 2230 90be 78bf 60be
000000a0: 968f e1bc 9bce 413e 22ac 5dbe 715a 84bd
000000b0: 2441 a63c d5a8 403e 8c14 a03e bf79 9e3d
000000c0: 3e29 e8bc 2808 61be 6405 16be 3969 19be
000000d0: fbf7 8d3e 61f7 8ebe 6371 613d fd21 333e
000000e0: 6137 5d3e 78ae e43d e49e 82be efcc b73e
000000f0: 597a 3abd f962 d7bd 56c9 603e a40e 2e3c
00000100: 79ef 073d 4834 173e 2a91 84be d659 e9bd
00000110: f5cc 57bb f99b d2bd e57f 403d 5046 9dbe
00000120: 4455 273c 59c1 01bc ca1b 8bbd 07d1 80be
00000130: ff98 4a3e 0136 f33c 25e7 0fbe 40b0 6a3e
00000140: 9b78 2e3e 6c55 29be 4488 59bd 9545 e8bd
00000150: afd9 713e c1e4 393e 9b7a bfbe 440e 303e
00000160: b4cb 4abd 0bef 49bd 85b9 903e 09a0 113e
00000170: df7f 0dbe 3f2f 8b3e caa6 27be 2b9f b6bc
00000180: f5bc e9bd 186e 0abe 7b7d 9dbc c4a2 b6bc
00000190: f905 d3bd 0dd2 10be fb41 6d3e 027c 0a3d
000001a0: 935b ccbc 5734 363d 3b7c e83d 786f f2bd
000001b0: 0613 0ebe cc64 fabd 0ab0 babe 5a74 9dbe
000001c0: 8dee c53d 915d 8bbc 5a31 7bbb 2404 2fbd
000001d0: fad2 c73d 9e70 0a3e 2215 b5bd 1771 713e
000001e0: bfc2 4b3e 4d1c b5be 7548 28be 4db6 3dbe
000001f0: 3bee 00be 6ffb 08be 6ca6 5ebb 951e dabc
0.12193302 -0.01621959 0.051318645 -0.07906269 -0.051285196 0.050372194 -0.21368521 -0.0068354756
-0.1310583 -0.2557462 -0.25842538 -0.23300883 0.039939087 0.172561 0.2657856 0.100796305
-0.040555622 -0.306948 0.06534427 0.10508255 -0.19153039 0.108665794 0.074296944 0.021492755
-0.13463788 0.08507107 0.08623375 0.2697628 -0.15729426 0.19439204 -0.16635221 0.30665356
-0.12787844 0.04305277 -0.08923563 0.1299324 -0.056083217 0.04054684 -0.28161722 -0.2194804
-0.027534287 0.1892647 -0.21647695 -0.06462563 0.020294733 0.18814404 0.31265676 0.07738065
-0.028339978 -0.21975768 -0.14650494 -0.14981546 0.27728257 -0.2792311 0.055039775 0.17493434
0.21603157 0.1116609 -0.2551185 0.3589854 -0.045526836 -0.105169244 0.21951804 0.010623608
0.033187363 0.14766037 -0.25892 -0.11394088 -0.003292856 -0.10283656 0.04699697 -0.30717707
0.0102132 -0.007919633 -0.0679241 -0.25159475 0.19784926 0.029688837 -0.14053018 0.22918797
0.17038195 -0.16536492 -0.05310847 -0.11341397 0.23618196 0.18153669 -0.37398228 0.17192942
-0.049510673 -0.049300235 0.2826654 0.14221205 -0.1381831 0.27184483 -0.16372219 -0.022292694
-0.11412994 -0.1351856 -0.019224873 -0.02229441 -0.103038736 -0.14142628 0.23169701 0.03380967
-0.02494601 0.04448351 0.1135182 -0.11837667 -0.13874444 -0.12226257 -0.36462432 -0.30752832
0.096646406 -0.01701239 -0.0038328976 -0.04272856 0.097570375 0.13519523 -0.088419214 0.23578297
0.19898508 -0.35373154 -0.1643389 -0.18526573 -0.12590878 -0.13377164 -0.0033973707 -0.02662591

enc.EncoderList.cell1.activate.fcn.3.bias f4 [8]
00000000: 7c6c 01be f4e5 9dbd 7ecb b9bd 9de1 7a3e
00000010: 0eb8 afbd 0ae0 37be 5615 d53d e898 91bc
-0.1263904 -0.07709876 -0.09072016 0.24500127 -0.085800275 -0.17956558 0.1040446 -0.017773107

enc.EncoderList.cell1.activate.fcn.4.weight f4 [8]
00000000: 3f45 4c3f 6598 4e3f a46f 3b3f a836 5c3f
00000010: 4b4d 073f 2890 993f e792 363f 5df7 9a3f
0.7979316 0.80701286 0.73217225 0.860209 0.52852315 1.1997118 0.71317905 1.2106739

enc.EncoderList.cell1.activate.fcn.4.bias f4 [8]
00000000: 480a a63d eec8 3c3d 1cac dc3e 10aa cdbd
00000010: b1c0 33bf 7161 ae3e 3845 85be fb36 653e
0.0810743 0.04609006 0.4310006 -0.100422025 -0.702159 0.34058717 -0.26029372 0.22384255

enc.EncoderList.cell1.activate.fcn.4.running_mean f4 [8]
00000000: 1a28 a7be 6916 e53d c1c3 aabd 9405 b03e
00000010: a99f a0be 9038 2cbd 620d c1be e548 52be
-0.32647783 0.11185915 -0.08338118 0.34379256 -0.3137181 -0.04204613 -0.37705523 -0.2053562

enc.EncoderList.cell1.activate.fcn.4.running_var f4 [8]
00000000: a442 c83d 5948 263e e177 3f3e 5446 9a3e
00000010: fbf5 523e 01b8 a13e b4b3 823f 84f1 6b3d
0.09778336 0.16238536 0.18698074 0.3013178 0.20601647 0.31585696 1.0211091 0.057603374

enc.EncoderList.cell1.bn.weight f4 [8]
00000000: fb39 613f 3ebb 6f3f e531 663f e1c7 4e3f
00000010: f83f 7e3f 3f26 4e3f ee5b 623f 023a 483f
0.87979096 0.93645084 0.89919883 0.8077374 0.9931636 0.8052711 0.88421524 0.7821351

enc.EncoderList.cell1.bn.bias f4 [8]
00000000: cd00 643e 0134 29be a622 9ebe 374a 54be
00000010: 9224 053d f14a 9e3e 95e4 9bbe d50b 34be
0.2226593 -0.16523744 -0.3088581 -0.20731436 0.03250558 0.3091655 -0.30447832 -0.17582639

enc.EncoderList.cell1.bn.running_mean f4 [8]
00000000: 0764 753e 52e5 023f 74f7 963e 38e1 a9bc
00000010: 04a5 2bbe 1e2c a93e 3e99 943e a7c5 323e
0.23963939 0.51131165 0.29485667 -0.020737275 -0.16762167 0.3304147 0.29023165 0.17458211

enc.EncoderList.cell1.bn.running_var f4 [8]
00000000: 80b6 d43f 655d cd3f e76d 9f3f e91e 3b3f
00000010: 3fb3 3a3e 20a1 843f 51bb 9b3f 9425 4a3f
1.6618195 1.6044127 1.2455415 0.7309404 0.1823244 1.0361671 1.216654 0.7896359

enc.EncoderList.cell2.conv.weight f4 [16, 8, 3]
00000000: dad5 483e 6f9b 503e 988c 353e abd8 fbbd
00000010: 80db ca3d 439b 153e 74fc 143b f1f1 bf3e
00000020: 9656 c33e 4c8e 83bc ba7c 343d 17fd 9dbd
00000030: c1a5 55be 1923 79bb a7de ecbb 5cce ccbd
00000040: 9ce5 943d fa19 1cbe f12b 513e 3ce6 393e
00000050: 882c d53d 0fd2 a2bd db78 0d3e c80b 393c
00000060: 0d7f 0bbd b531 9b3c c67a 273e 88a5 d7bd
00000070: 402d b8bd a1af efbc 82a7 9fbd d803 2f3e
00000080: b297 36be 8311 69bd 6d03 a8bd eca3 84be
00000090: 9116 1d3e 139a 353e db98 24be f910 a2bd
000000a0: b029 0abe fd9b 1a3d c628 103d 2855 eabd
000000b0: 2451 87bd edd0 d9bd 2ab0 d1bd 4212 293e
000000c0: 8550 eabd 3227 d53d 1e44 ea3d f119 90be
000000d0: 7cf8 60bd 6fc0 12bc 90b2 0bbe 7c43 21be
000000e0: 502e 7d3e 93c5 db3d 6109 5ebe b925 713d
000000f0: 5427 36bd 527e 86be 8cae 2dbd 9bb1 eb3d
00000100: c87c a0bd d30b 4f3d 9384 39be a4a7 1a3e
00000110: d134 503e f2d6 053e 8c40 c5bb 51bc 503d
00000120: 45ce 09be 29ef 38bd f419 2bbd e469 68bd
00000130: 2c4a 9ebd b3a0 623e 6299 d23c 1dd5 73be
00000140: cb5c d73c c3e7 963d ffdc 443e 9752 433e
00000150: 4658 703e 16e1 b83d ac08 233e bab6 593e
00000160: 1135 27be 7ad0 0bbe 0576 75bc 2795 183e
00000170: c80a 3abc b1c7 433d 651c c23d 689d 853d
00000180: 06f6 52bd 6da4 0e3e 3692 e73d 52c3 11be
00000190: f78c 4fbd 8753 26be bf5a de3d 865f 8d3e
000001a0: 5beb 153e ac8c 2dbe b6e7 0d3d f988 2abe
000001b0: de74 593d 9c1f 06bd 1088 11be b8fd 1d3d
000001c0: e5ec 26be 7f45 953b 4af8 ca3b 1dde 82b9
000001d0: a0b8 43be 968f 52be c048 8e3c f541 4a3e
000001e0: 4342 95be 9149 ad3d ab4d d1bd b9e7 09be
000001f0: d890 213e 16ea cb3d af49 bbbe 02e0 ff3d
00000200: 3de0 023e 9c75 e53c 4474 003e 6329 cbbd
00000210: dade 84bd 7d4f b9bd aead f1bd 1f26 013e
00000220: ae93 ec3d 6403 cfbd 70fb 53bd 78ad 203d
00000230: fad0 93be b20b 66bd ade2 25bc bbb4 e9bd
00000240: a3ee 2b3e e07d 403d d9f1 1b3e a504 f2bd
00000250: bf02 3bbe 9b29 7c3d 3531 34bb d2d3 a3bd
00000260: 41fb f3bd 2764 413d daca 92be d484 fbbd
00000270: 34b7 593e 0b41 2bbd db43 d03b a31a 10be
00000280: 7a86 433e 463d 5b3e 3ddd 7f3d 0050 6f3e
00000290: fc34 51bd 05bb 72be 3183 1dbd c1a8 433d
000002a0: ccc1 413e 1fbe 53bd 3e06 df3d 045a 323e
000002b0: a3b5 6f3e 33d0 39be 2ac9 533e e9c6 5abd
000002c0: 0506 833e 9a04 8a3d 5747 07be 7b95 c23d
000002d0: c5c2 1fbd 3cf5 a1be aa4b 5abe 5cf5 b3bb
000002e0: 67d3 183e 4a64 a4bd e68a 533e 9166 0a3e
000002f0: c3b1 863d 4a8f 1f3d 7400 dcbd 6115 fabd
00000300: a883 7bbd cc5d 0abe fe0c 32bd 420e 16bd
00000310: fead 05be b0f5 acbd 04ed 703d ec92 7f3d
00000320: ae6b 6abc 5576 083e de2d 843b 8fa3 dc3d
00000330: 4107 2f3d 1888 a4bd e16c 17be 6ee3 1d3d
00000340: 2eea 5ebd 8e3c a43d 8701 913c 0cca ca3d
00000350: 8cc2 463d fd34 0d3e 973b f2bc 7b2a 77be
00000360: 44c3 993d b7fc 53be e499 56bd d4dc babd
00000370: 3cfa febd 9ff8 65be f89d 863e 815d 5c3e
00000380: 8b39 cc3d db9e 113d 5d56 4abe 90c1 813b
00000390: 5ee3 643e a387 853e a848 9dbc c375 443d
000003a0: 7008 f1bd a83e a7bb 5f0c 03be c540 febd
000003b0: cc99 3ebe 7d4f 9b3c 3ec9 263e 88c7 b93d
000003c0: 46af e8bd 0c1a 8abd 604e cbba 45be c4bc
000003d0: 2294 7f3e 0f1b 943e 7cb5 8d3c ba0e 24be
000003e0: 6d66 0e3e 7a78 203e 01e7 753e 995b c4bc
000003f0: b3f6 21be 6866 d5bd 0826 8cbd 3e86 29bc
0.19612828 0.20371793 0.17729414 -0.122971855 0.099051476 0.14610009 0.0022733482 0.37489274
0.38151997 -0.016059063 0.04406426 -0.07714289 -0.20864011 -0.0038015305 -0.0072286907 -0.100002974
0.07270357 -0.15244284 0.20426919 0.18154234 0.10408884 -0.07950222 0.13815634 0.011294313
-0.034056712 0.0189446 0.16355428 -0.105296195 -0.08993006 -0.029258551 -0.077956215 0.1709131
-0.17831305 -0.056901466 -0.082037784 -0.25906312 0.1534064 0.17734556 -0.16073935 -0.079133935
-0.13492465 0.03774642 0.035195135 -0.114420235 -0.06607273 -0.106355526 -0.10238679 0.16510871
-0.11441139 0.104078665 0.114387736 -0.28144792 -0.054924473 -0.008957013 -0.13642335 -0.157484
0.24724698 0.10731044 -0.21683265 0.058873866 -0.0444711 -0.2626825 -0.04240279 0.11508485
-0.078363 0.050548386 -0.1811698 0.15103012 0.20332648 0.13070276 -0.0060196575 0.050960843
-0.13457592 -0.045149956 -0.041772798 -0.05674161 -0.07728991 0.22131614 0.025707904 -0.23811765
0.026289364 0.07368424 0.19224928 0.19074474 0.23471174 0.09027307 0.15921277 0.21261111
-0.16328837 -0.13653746 -0.014981751 0.14900647 -0.0113551095 0.047797862 0.09478072 0.065241635
-0.051504157 0.13929911 0.113071844 -0.14234665 -0.050671544 -0.162428 0.10857152 0.2761194
0.14640562 -0.16948193 0.034644805 -0.16653813 0.05308997 -0.03274499 -0.1421206 0.038572043
-0.16301306 0.0045554037 0.006194149 -0.0002496102 -0.19113398 -0.20562586 0.017368674 0.19751723
-0.29152116 0.08461297 -0.10219892 -0.13467301 0.1577791 0.09956758 -0.36579654 0.12493898
0.12780853 0.028010182 0.12544352 -0.09920003 -0.06487818 -0.09048364 -0.11800705 0.12612198
0.11551605 -0.101080686 -0.05175346 0.039227933 -0.28870374 -0.056163497 -0.0101248445 -0.11411425
0.16790251 0.046995044 0.15228976 -0.11817292 -0.18262766 0.061563116 -0.002749515 -0.07999386
-0.11913157 0.047214653 -0.28670388 -0.12281194 0.21261293 -0.041810077 0.0063557453 -0.14072661
0.19094267 0.21410093 0.06246685 0.23370361 -0.05107592 -0.23704155 -0.038455192 0.04776836
0.18921584 -0.051694985 0.108898625 0.1741715 0.23409133 -0.18145828 0.20682207 -0.05341235
0.2559053 0.06739159 -0.13210808 0.095011674 -0.039004106 -0.3163241 -0.21317926 -0.0054918956
0.14924394 -0.08026941 0.20658454 0.13515688 0.06576874 0.03895501 -0.10742274 -0.12211109
-0.061404854 -0.13512343 -0.04346942 -0.03663469 -0.13054654 -0.08445299 0.058819786 0.062395975
-0.014307899 0.1332639 0.004033788 0.10773384 0.042731527 -0.0803377 -0.14787628 0.038546972
-0.05442255 0.080193624 0.017700924 0.09901819 0.048525378 0.13789745 -0.02956943 -0.24137299
0.07507947 -0.20701872 -0.052392855 -0.09124151 -0.12450072 -0.22458123 0.26292396 0.21520044
0.09971913 0.035551887 -0.19759507 0.003959842 0.22352359 0.26080045 -0.019199684 0.04796387
-0.117691875 -0.0051039048 -0.12797688 -0.124146976 -0.18613356 0.018958801 0.16287705 0.09071261
-0.11361556 -0.06743249 -0.0015511028 -0.024016509 0.24958852 0.28926894 0.017298453 -0.16021243
0.1390626 0.15670958 0.24013902 -0.023969458 -0.15816765 -0.10419923 -0.068431914 -0.010346947

enc.EncoderList.cell2.conv.bias f4 [16]
00000000: 4b86 5abe 280d b8bc 5f7b 843d 6ef2 a4be
00000010: e30a 6c3e b187 1ebc 9f17 23bc 7024 c23d
00000020: 37af 55be 8d6d 21be 6323 e4be 75a3 abbd
00000030: 476d 5ebe a575 6b3e 57d4 1ebe 8c34 343e
-0.21340291 -0.02246721 0.06468844 -0.3221621 0.23051028 -0.009675906 -0.009954362 0.09479606
-0.2086762 -0.15764447 -0.44558248 -0.08380786 -0.21721373 0.22994097 -0.15510689 0.1759817

enc.EncoderList.cell2.activate.fcn.0.weight f4 [32, 32]
00000000: c327 ca3c d8a4 803d 98ff b83d ec14 b13c
00000010: 032d 02be 8d3f d1bd b3c3 373e 6318 44be
00000020: e29f e8bc 5915 4cbd 240b d33d 5acd 76bd
00000030: 4c1f 15be 0a38 adbd 7d8e bb3d b092 d63e
00000040: b61b 4a3d 8372 b5bc 2407 b33d a07c 52bd
00000050: 4665 a93d 1df5 9d3a 37db 153e 63f7 d1bc
00000060: 8b33 413d 0818 1f3e 8b68 2abe ec83 0fbe
00000070: da16 96be 94c2 5f3d ace2 833e 8e1d 503b
00000080: a8d9 d0bd b117 c33d 8195 d9bd 7c04 35bd
00000090: eb6b 1cbe 630b 09be a1d3 fa3d 8740 5bbe
000000a0: 0053 17be e338 99be 8d5d b8bc 7e7e 7bbd
000000b0: b8f9 673d 9363 c0bd 0b73 35bd 9e1d 2e3d
000000c0: c3f1 eb3c d6b5 eebd d680 813d cc20 80bd
000000d0: af67 dbbc 8348 b13d e571 353e e9d5 0c3e
000000e0: f216 e6bd 28bb 66bd 2a00 bebd 5358 883e
000000f0: 9cd2 0c3e c96e 9dbb 2fff 5bbd 1cf1 ab3c
00000100: ca78 80be 7560 b33d 8114 50bd f42b e73d
00000110: a8da 0bbe e920 b8bd 8a2f a93d 3c2c 2dbe
00000120: cb63 e7bc 6024 6abe d5cf 263e 1a2d e93d
00000130: ff41 e2bc 7d93 c93d 5c52 53be 763c f13d
00000140: 221d 79be c6fe 9f3d 30a0 07be f4a1 adbd
00000150: 885a dc3d b694 aa3e 4321 0ebe 587a 66bd
00000160: 5fb9 893c f056 ba3c ae1a 243d d9bc 65bd
00000170: b080 0e3d b2eb ca3d 76a0 b43d 5609 e6bc
00000180: 8e43 d23d 2629 373e 139c 653e 8f82 0cbc
00000190: 5f3b 703d 8d9c c4bd dc5e ac3e 77b0 393e
000001a0: 6f51 a0bc 4536 5c3d 69e7 bd3d f887 9b3d
000001b0: fcbb e63d 4061 3e3c c027 e93d 2f35 27be
000001c0: 67bb 943b be7c cd3d 01ff 35be 19ac 21be
000001d0: 6924 f4bd 280c e43d 754f be3d 9277 6fbe
000001e0: ba07 6ebd 41f6 d5bc 80f0 21be c236 c33d
000001f0: 9dae 153e 7d9c 4ebd 0d0f 59bc 9b4d 8a3c
00000200: 678f 8ebd e06c 15bb 9ba0 d4ba 4477 3f3e
00000210: dce5 413d d2d8 cabd ddec 07bd c568 d03c
00000220: f61e 483e 5c2a 4f3d 1b87 de3d f2c6 ba3d
00000230: c8a4 c4bd 9331 813d 6087 db3d 5049 313e
00000240: efb9 00be 494f 833d 340d 103e 43c4 5ebd
00000250: 0786 263e aa8f 3abd ed28 763d 2f70 513e
00000260: e297 abbd e4da 873d 9c82 81be 8b22 4dbd
00000270: 614a f4bd bf1f 99bd 6fcc 523e 0652 973e
00000280: 8bc4 da3d cf9b 9f3e 1934 1b3e b87d d3bd
00000290: 21c7 00be ba8d 163e 4330 a93e 4c07 b3bc
000002a0: f065 72bd 81b3 2fbe bf31 08be 4d1a 2fbe
000002b0: 5cb1 1cbc 1780 8f3b 6843 2cbe 3e4f 903e
000002c0: 13b6 0fbe 18c9 14bd d420 d33c ea93 093d
000002d0: c6ba 3fbe a002 2abe 7ee5 9abd 2c98 4abe
000002e0: 2f6f 09be bc18 df3d 5da0 273c 4a1c 2bbe
000002f0: ad07 163d da02 8bbd cd9c 573e 5703 423d
00000300: cdd9 e3bd 0f82 34be 78d9 513e e148 94bc
00000310: 4b7a 05bc 1670 33be c278 95bc b687 5b3d
00000320: af08 343e a379 72bd 5272 7fbd 49c6 45be
00000330: bd9c c5bd d21b 013d 7929 403d cc23 223e
00000340: 2cd5 423e 9cba 89bd fc70 13be 42ac 293e
00000350: 677d b7bd 4e15 7a3d 9fe9 563d 3a59 163e
00000360: 6353 003e ccda 243d f747 413e b0fa e8bd
00000370: 4301 17be 07f2 c73d 70f7 153e b865 17be
00000380: 81d8 b73c 9419 003c 87be 8b3d d40a fe3c
00000390: cd3f acba fa0d e73d da7f 2a3e 3d91 07be
000003a0: eae8 0dbc 8691 d73d 077b 2d3e 6fa8 f9bd
000003b0: c1c9 60be d3be 483e b9e7 a43d 6fdd 403d
000003c0: c201 30bd 6975 2dbe 566c 9c3d e84f dfbd
000003d0: 5f3a 073d 825d 003e ae21 b1bc 6072 b53c
000003e0: c3f8 40be 145b 37be bbc3 29be ddb0 033d
000003f0: c30b 3b3e 7627 39be edc1 b13c d896 403e
0.024677163 0.062814415 0.09033126 0.021616422 -0.12712483 -0.102171995 0.17945747 -0.19149928
-0.02839655 -0.049825046 0.10304859 -0.060254432 -0.1456272 -0.08457954 0.09158037 0.4190879
0.049342833 -0.02214933 0.08741596 -0.051388383 0.082712695 0.0012051199 0.14634405 -0.025630658
0.047168296 0.15536511 -0.16641442 -0.14015168 -0.2931431 0.054628924 0.25758874 0.0031755897
-0.10197765 0.09526003 -0.10624219 -0.04419373 -0.15275542 -0.1338325 0.12247396 -0.21411334
-0.14777756 -0.29926214 -0.022505546 -0.06139993 0.056634635 -0.09393992 -0.044299167 0.042508714
0.028801804 -0.11655776 0.06323402 -0.062562555 -0.026782839 0.08656409 0.17719229 0.13753475
-0.11234845 -0.05633083 -0.09277375 0.26629886 0.13752216 -0.0048044664 -0.05371016 0.020988993
-0.25092155 0.08758632 -0.050800804 0.1128768 -0.1365763 -0.08990652 0.082610205 -0.16911405
-0.028245827 -0.22865438 0.16290219 0.113855556 -0.02761936 0.09842584 -0.20636886 0.1177911
-0.2432752 0.07812266 -0.132447 -0.08478156 0.10759455 0.33316582 -0.13879876 -0.05626902
0.016812025 0.022746533 0.040064506 -0.056088302 0.034790695 0.099082366 0.08819668 -0.028080624
0.10266791 0.1788679 0.22422819 -0.0085760495 0.05865037 -0.09600172 0.33666122 0.18133722
-0.01957008 0.053762693 0.092726536 0.07594293 0.11266324 0.011619866 0.11384535 -0.16328882
0.0045389417 0.10033558 -0.17773058 -0.15788306 -0.11921007 0.11135131 0.09292499 -0.23385456
-0.058112837 -0.0261184 -0.158144 0.095319286 0.14617391 -0.050442208 -0.013248217 0.016882708
-0.069609456 -0.002280049 -0.001622218 0.1869784 0.04733835 -0.099046364 -0.033184875 0.025440583
0.1954306 0.050577506 0.10865613 0.09119977 -0.09601742 0.06308284 0.1071918 0.17313123
-0.12570928 0.06411607 0.14067537 -0.05438639 0.16262065 -0.045547165 0.060097624 0.20452951
-0.08378579 0.06633547 -0.2529496 -0.05008177 -0.11928249 -0.07476758 0.20585798 0.29554766
0.10682019 0.3117356 0.15156592 -0.10326713 -0.12575962 0.14702502 0.33044633 -0.021854065
-0.059179246 -0.17158319 -0.13300227 -0.17099877 -0.00956377 0.004379283 -0.16822588 0.28185457
-0.140343 -0.03632459 0.02577249 0.033588327 -0.18723592 -0.16602564 -0.075633034 -0.19784611
-0.1342132 0.108933896 0.010231105 -0.1671001 0.036628414 -0.06787653 0.21055909 0.047366466
-0.111255266 -0.17627738 0.20493114 -0.018101158 -0.008146833 -0.17523226 -0.018246058 0.05359622
0.17581438 -0.059198033 -0.062364884 -0.19313921 -0.09649036 0.031520672 0.04691455 0.15833968
0.19026631 -0.06725046 -0.14398569 0.16569617 -0.089594655 0.061055474 0.052468892 0.14682475
0.1253181 0.040247723 0.18875109 -0.1137594 -0.14746575 0.0976296 0.14645171 -0.14784896
0.022442104 0.007818598 0.068234496 0.031011023 -0.0013141573 0.11281963 0.16650334 -0.13238998
-0.008661488 0.10525803 0.16941462 -0.12190329 -0.21951963 0.19604044 0.0805201 0.047086176
-0.042970426 -0.1693932 0.07637851 -0.10903913 0.03301465 0.1253567 -0.021622505 0.022149265
-0.18844895 -0.17905837 -0.16578571 0.03215109 0.18266205 -0.1808146 0.021698916 0.18807542

enc.EncoderList.cell2.activate.fcn.0.bias f4 [32]
00000000: 0067 b73d 9e7d 303e 4a20 94bd 0029 9ebd
00000010: d484 103e ee93 ca3c 5361 abbc b664 0a3e
00000020: 175a bbbd 36d4 4fbc 6a9a fa3d 21be 863d
00000030: fffa e8bd a160 533d 934a 09be 2d6f c1bd
00000040: ada5 e83d af14 4abd 2d81 b2bd 5304 663c
00000050: 93e8 2e3d f498 f5bd 391d f3bd b61a 2fbe
00000060: caae 433d 6d46 fabd 317c 643c 2699 25bd
00000070: 71c2 f0bd ebba 65bd bcf9 05be 57ba c8bd
0.089551926 0.17235419 -0.07232721 -0.07722664 0.1411317 0.024728741 -0.020920431 0.1351498
-0.09148043 -0.012684872 0.122364834 0.06579233 -0.11375999 0.051605824 -0.13407354 -0.09445033
0.11359725 -0.04933613 -0.087160446 0.014039117 0.04270227 -0.11992064 -0.11870808 -0.17100033
0.047774114 -0.12220464 0.013945625 -0.040429257 -0.11755837 -0.056086462 -0.13083547 -0.098011665

enc.EncoderList.cell2.activate.fcn.1.weight f4 [32]
00000000: 5775 6c3f 2605 823f 1b90 843f 2547 853f
00000010: ca66 673f 0b1f 843f f126 883f 069d 833f
00000020: 8768 943f 259a 783f b118 803f 8813 8b3f
00000030: ee82 7e3f c302 873f 7665 793f b8bb 7f3f
00000040: ed9b 7e3f c62c 7a3f 8b2c 7d3f c178 843f
00000050: f2e0 7c3f 8af2 833f c74d 833f 3cf4 6b3f
00000060: 0096 823f 708a 813f 2b0d 763f 092f 873f
00000070: a350 783f 26db 6b3f 03c1 923f a8d1 723f
0.92366546 1.0157821 1.0356477 1.0412337 0.9039122 1.0321974 1.0636884 1.0282295
1.1594399 0.97110206 1.0007535 1.0865335 0.9941853 1.0547718 0.9742044 0.9989581
0.99456674 0.9772457 0.9889609 1.0349351 0.9878074 1.0308392 1.0258111 0.9216955
1.0202026 1.0120373 0.9611384 1.0561229 0.9699804 0.9213127 1.1465153 0.9485116

enc.EncoderList.cell2.activate.fcn.1.bias f4 [32]
00000000: 5688 bd3d 1697 3b3d ad0a 633d 1a1f 1ebe
00000010: 6595 5cbd 0933 2b3e dc4c 88bd fcb5 f03d
00000020: 27fb 02bd 9204 80be c4c4 36be cc0a 3a3d
00000030: 22d6 b3bd cf0a 3a3d be27 3fbd a6e0 803d
00000040: 75ea 743d bc06 ef3d a82b 55be 56ac 4fbe
00000050: e581 ef3c d939 563d 9d46 093d f374 8bbc
00000060: 3798 0f3e cf07 833d 3c06 55be 261d 403e
00000070: 5ac7 aebd 6212 78bb 29cc b3bd d664 edbd
0.0925452 0.045798384 0.055430103 -0.15441552 -0.05385341 0.16718687 -0.06655285 0.11753461
-0.0319778 -0.25003487 -0.17848498 0.045420453 -0.08781077 0.045420464 -0.04666876 0.06292848
0.05979391 0.11671206 -0.20817435 -0.20280585 0.029236743 0.05230126 0.033514608 -0.01702354
0.14022909 0.06397974 -0.2080316 0.18761119 -0.08534117 -0.0037852754 -0.08779175 -0.115914986

enc.EncoderList.cell2.activate.fcn.1.running_mean f4 [32]
00000000: 5049 7b3e 0726 d43c ecaf 423d 08a2 ec3e
00000010: 0b3e 0c3f b66f 963e 4876 06bf bb9b 153f
00000020: e8f8 14be 2417 09be eb7f 1a3e afea 843c
00000030: 196c 3cbf dcf6 0bbe 2c83 0f3e c04f 11bf
00000040: 1d97 b0bd f483 c5bc 1bd6 203e dca4 9cbe
00000050: eaf4 a23d c881 e93e aa80 babe 0540 bfbe
00000060: 5c23 113e 479b af3d 32b7 cebe 6f8a 97be
00000070: 9702 09bf b60c ac3d 964a 1abf 2a3d 5c3d
0.24539685 0.02589704 0.047531053 0.4621737 0.5478217 0.29382104 -0.5252423 0.5844075
-0.14548075 -0.13387734 0.1508786 0.016225187 -0.73602444 -0.13668388 0.14014882 -0.56762314
-0.086225726 -0.024110772 0.15706675 -0.30594528 0.0795687 0.45606828 -0.36426288 -0.3735353
0.14173645 0.08574539 -0.40374142 -0.29597804 -0.53519577 0.08400862 -0.6027006 0.053769268

enc.EncoderList.cell2.activate.fcn.1.running_var f4 [32]
00000000: 8999 893c 06f7 ac3d a623 dd3d 01eb 303d
00000010: 312a 9a3c 4850 983c 525a ca3d 2474 033d
00000020: 8f05 553c 7124 843c b30a 1b3d e5eb 853c
00000030: 6ebc bd3d b69d 2d3c 78fb 643c 243f b03c
00000040: 87e5 033d 8aeb c13c 60ae 993c 786e 213d
00000050: d59f 543d 6096 143d c15b a73d 0492 eb3b
00000060: 891d b63b 90e7 2e3c 6f23 763c 9a8c 123d
00000070: 0f2a 973d e5fe 173d 4161 953c e41a e23c
0.016796844 0.084455535 0.10797815 0.043192867 0.018818947 0.018592969 0.098805085 0.032093182
0.013001814 0.016130658 0.037852 0.016347835 0.09264456 0.010596683 0.01397597 0.021514483
0.032201316 0.023671884 0.018759906 0.03941199 0.05191024 0.03627622 0.081717975 0.0071890373
0.00555772 0.010675326 0.015023096 0.03577862 0.07381069 0.03710832 0.01823485 0.027600713

enc.EncoderList.cell2.activate.fcn.3.weight f4 [16, 32]
00000000: a14d 44bd b53a a2be b036 81be db5a 123e
00000010: b3a5 6ebd ec85 0bbe de3d 15bd a47c f63b
00000020: fc02 383d c68a 07bd 7c17 90be 24f6 253d
00000030: e05b 3a3d bc05 54bd b6a3 2a3e 963d 37bd
00000040: 3c85 363e 78f0 0ebe 4e49 d33c 3cff 703b
00000050: 49e2 c63c 4b79 1c3e d498 85be c750 6a3d
00000060: d579 6bbd 9e4a 60bd 1c6e 823e eddc 853e
00000070: b890 993c aaa6 c3bd 5de3 413e ebb1 c4bc
00000080: e1ef 013e 9500 0ebe 15e1 cabd cbe6 0ebe
00000090: 2fdc 193e 803e 343d 19d0 b1bd 5a20 cf3d
000000a0: 7633 913d 55d6 0d3b c164 cebc 8835 a03d
000000b0: 81d3 223e e084 aebd a929 c5bd e324 c9bd
000000c0: 47b9 59bb 7c83 913e 5ab9 083e 7ddd 2d3e
000000d0: 2156 ec3d 2711 9c3e 73c5 b03d bc2c e53d
000000e0: b4eb 8b3c 988e 213d ad64 813e 2ec9 443d
000000f0: 3e2e 073e 012d 8abd aed9 893c 9f92 54be
00000100: 2106 fbbd 8dfd 46bd 6506 253c e226 2e3d
00000110: 0d1e 11be 063e b23d 3f3f 2b3c 139c 33be
00000120: d7e2 c23e 4e43 093e eff0 c23d a8c8 3cbd
00000130: 15d0 55bb 0718 1bbe 3ff2 863c a68f 6a3e
00000140: 991d 5f3c 21c3 e4bc 3f48 4fbe c6f9 413e
00000150: b076 9abd bd4a 8dbc 742f de3d 1381 843d
00000160: ed49 3f3d 9416 6ebc ad67 da3d d1af 06bd
00000170: 35bf cd3d a865 833d f23f ad3e 549b 3fbc
00000180: c8b1 293e 5b48 a53e d8b5 0b3e 1e1d ae3d
00000190: 4c9e 19bd 0091 8bbd feb2 8fbd 17b7 4f3e
000001a0: 9f31 17be c1c6 42be 801e f33c 336c db3d
000001b0: 54c1 d7bd 3b50 59bd 8f9e 843d eb04 6bbc
000001c0: d7ba fbbd fe2c 9dbd ba56 02bd c436 6dbe
000001d0: 72b8 9f3c 5257 b63d 6fa9 203e 2807 9dbd
000001e0: 9b0b 683e f07a 053d 2b47 57be 84db 913c
000001f0: 2e0a 89bd be90 04be a678 b6bd 1f7b f9bc
00000200: ebca 61be 382c 2cbe 609f e53d 4733 54bd
00000210: b658 d23b 7a1a ac3b 00a3 b03d df32 d03d
00000220: 2e79 1f3d 67f6 9f3d d929 b83d ccee cbbe
00000230: f145 f2bd e6ce 53be 8d8a 983d 3955 36be
00000240: ad72 243e 8881 01be 0c72 263d 278a cdbd
00000250: 23b6 21be 69bc f43d c436 edbd b2d0 0ebe
00000260: 0f1e 773d 17cb 1abe 1f1e 41be e5e2 49bd
00000270: fbed bdbc f7c9 0dbe 6a4f 1f3e f425 0dbd
00000280: 646d a7bd d7e0 a23d 1f6e 993c d901 8bbd
00000290: fa4c ea3d dceb 3dbe b212 993e b5fd 17be
000002a0: 711d 95be 8cc1 b03d 0d64 e9bd 8184 9a3c
000002b0: 9267 053e 6d7e 8fbd e4e6 5ebe 8ea5 913d
000002c0: e7d9 ed3d 43c5 efbd 9fb7 993e 886f 893c
000002d0: fba9 9abd 18f1 3dbe b18c 2c3e 7827 183d
000002e0: 3f7f 89bd 0bf2 37bd 2602 22be 895d 103e
000002f0: a070 58bd a5af d2bd 8b1e 1b3d b714 2f3e
00000300: b468 b2bd a357 34bd 3294 87bd 3098 d53d
00000310: 4257 983c 57a1 18bd 7388 1b3e d60c 123e
00000320: 92f5 92bd f295 5b3e 7149 103e 9c99 0fbe
00000330: aeb1 113d 7fdd 50be 6071 673d ac32 b93d
00000340: 48c9 3a3e 29bf b83c acfd 863c 5642 d03d
00000350: 1712 e13d e86e c13d 1815 06be 0bb8 9c3d
00000360: 467a 063d 547d 503d deac 08be cf33 47be
00000370: 31ec 01be f730 473e c887 663e 1915 a9bd
00000380: 40ea 24bd 630a 0a3e dedb bc3d 6319 f7bc
00000390: 08e3 eabc 5d30 95bc 4595 a53d e735 0b3e
000003a0: ec02 58bd fbcf c93d f215 4e3e 4019 1b3d
000003b0: 8d75 0bbe 3816 af3c e90c 08be ba04 f93d
000003c0: e1cf 8ebc 819e 0e3e 3442 093d c36f 123e
000003d0: cf7b 253e 29bf 0b3e d444 01bd 8d18 ba3e
000003e0: b984 bc3b 16c2 8ebe a490 023d b197 6fbd
000003f0: d3a0 adbd dd84 d43d 9512 f83d c2b6 1d3e
-0.047925595 -0.31685415 -0.25237036 0.14292471 -0.05826349 -0.13625306 -0.036435954 0.0075221825
0.04492472 -0.03309133 -0.28142917 0.04051794 0.045497775 -0.05176328 0.16664013 -0.044736467
0.17824262 -0.13958919 0.02579179 0.0036773225 0.024277823 0.15280645 -0.2609316 0.05720594
-0.057489235 -0.05475866 0.25474632 0.26145115 0.018745765 -0.09553273 0.18934388 -0.02401062
0.12689163 -0.1386741 -0.09906212 -0.13955228 0.150254 0.044004917 -0.086822696 0.101135924
0.070898935 0.0021642644 -0.025194528 0.0782271 0.15900995 -0.08521438 -0.09627087 -0.09821489
-0.0033222006 0.28420627 0.13351956 0.16979022 0.11539865 0.30481836 0.086314104 0.11190173
0.017080165 0.03944263 0.25272122 0.048043422 0.13201234 -0.06746865 0.01682743 -0.20759057
-0.12257028 -0.04858165 0.010072325 0.04251755 -0.1417162 0.08703236 0.010452091 -0.17540006
0.3806369 0.13404581 0.09518611 -0.0460898 -0.0032625247 -0.15145884 0.016472934 0.2290636
0.0136178965 -0.027925076 -0.20242403 0.18942937 -0.07542169 -0.017247552 0.10848895 0.064699315
0.04670136 -0.01453175 0.10664306 -0.032882515 0.100462355 0.06415874 0.3383785 -0.011694748
0.16571724 0.32281765 0.13643587 0.085016474 -0.03750448 -0.06814766 -0.07016562 0.20284687
-0.14765023 -0.19021131 0.02967763 0.10713997 -0.10534921 -0.05305503 0.06475555 -0.014344434
-0.12291496 -0.07674597 -0.03182099 -0.23165423 0.01949713 0.08903374 0.15689634 -0.076673806
0.22660677 0.032587945 -0.21023242 0.017804869 -0.06691395 -0.1294584 -0.089097306 -0.030454217
-0.22050063 -0.16813743 0.11212039 -0.051806714 0.0064192666 0.0052521797 0.0862484 0.10165953
0.038933925 0.078106694 0.08992357 -0.39830625 -0.118297465 -0.20684394 0.074483015 -0.17805947
0.1605937 -0.12647069 0.040636107 -0.10036116 -0.15792136 0.11949999 -0.11582711 -0.13946798
0.0603314 -0.15116535 -0.18859147 -0.04928865 -0.023184767 -0.13846575 0.15557638 -0.034460023
-0.081751615 0.07953041 0.018729268 -0.06787462 0.11440463 -0.18547004 0.29897076 -0.14842875
-0.29124025 0.08630666 -0.11396036 0.01886201 0.1302779 -0.07006536 -0.21767765 0.07111655
0.11613827 -0.117075466 0.30022904 0.016776815 -0.075519525 -0.18549001 0.16850545 0.037147015
-0.067137234 -0.044908565 -0.15821132 0.14098181 -0.052841783 -0.10287408 0.037870925 0.17097746
-0.08711377 -0.04402889 -0.06620063 0.10429418 0.018596295 -0.03726324 0.1518877 0.14262709
-0.07175745 0.21443918 0.14090516 -0.14023441 0.03556984 -0.20396994 0.056504607 0.09042868
0.18240845 0.02255209 0.016478382 0.101689026 0.109897785 0.09444982 -0.13093984 0.07652291
0.032831453 0.050900772 -0.13347194 -0.19453357 -0.12687756 0.19452272 0.22512734 -0.08255977
-0.04026246 0.13480525 0.09221624 -0.030163473 -0.02867271 -0.018211538 0.080851115 0.13594781
-0.05273716 0.09854122 0.20125559 0.037865877 -0.13619061 0.0213729 -0.13286175 0.12159105
-0.017433109 0.13927652 0.0335104 0.14300446 0.1616051 0.1364714 -0.03155978 0.36346856
0.0057531265 -0.2788245 0.03187622 -0.058494274 -0.084779404 0.10376904 0.12112919 0.15401748
