checkpoints/best_UNet_emb_snr_0.pth (torch, 66830 bytes, 62 tensors)

EncList.0.conv.weight f4 [4, 2, 3]
0.22114837 0.33669996 -0.0062972903 0.26736176 0.07405886 0.3538769 -0.37039074 0.013891709
0.09965487 -0.093596876 0.4748234 0.21022998 0.11962002 0.07402302 0.25262597 -0.26865306
0.09467811 -0.2350535 -0.1890741 0.09392768 -0.18795848 0.04377272 -0.019301675 0.32857215
00000000: b874 623e f063 ac3e 8059 cebb a4e3 883e
00000010: 2cac 973d 5a2f b53e dba3 bdbe 0d9a 633c
00000020: da17 cc3d b8af bfbd 0d1c f33e 8746 573e
00000030: 57fb f43d 6299 973d 3158 813e e58c 89be
00000040: 99e6 c13d ddb1 70be a49c 41be 285d c03d
00000050: 3078 40be 064b 333d 8c1e 9ebc 9c3a a83e

EncList.0.conv.bias f4 [4]
-0.31485495 -0.17423679 -0.10705466 -0.26238534
00000000: ab34 a1be 216b 32be 793f dbbd 5f57 86be

EncList.0.bn.weight f4 [4]
0.36105016 0.49398392 0.86491 0.65437317
00000000: 91db b83e 76eb fc3e be6a 5d3f 0085 273f

EncList.0.bn.bias f4 [4]
1.2314849 0.043169986 0.21446058 -0.10200006
00000000: 4ca1 9d3f 03d3 303d 8e9b 5b3e 68e5 d0bd

EncList.0.bn.running_mean f4 [4]
-0.3356608 -0.17307444 -0.11485524 -0.25825062
00000000: bbdb abbe 6d3a 31be 3939 ebbd 6d39 84be

EncList.0.bn.running_var f4 [4]
0.82556635 0.33916813 0.27616718 0.15573539
00000000: 5158 533f 72a7 ad3e c965 8d3e 1979 1f3e

EncList.1.conv.weight f4 [8, 4, 3]
-0.034495413 0.13517123 -0.18144709 -0.16580531 0.16938941 -0.12424995 -0.040406324 -0.17565717
0.31432015 0.026302407 -0.11947396 -0.25622186 0.07850795 0.11309613 -0.09292264 0.117120095
-0.055395737 -0.17830625 0.16033974 -0.056871824 -0.14793424 -0.05304674 0.23193578 0.18876404
0.014139201 0.15286206 0.1465003 -0.022565389 0.035703 -0.02520112 0.21692806 0.2460059
0.19500938 -0.14086083 0.10264887 -0.36061272 0.055098556 0.37363365 0.38840285 -0.028549721
-0.023769278 0.09796247 -0.08385215 0.14864847 0.0838942 -0.23625669 -0.011015772 -0.11333164
0.15101583 -0.17719075 0.044779483 0.23678887 -0.11832565 -0.0036063693 -0.055745583 -0.14346805
0.3144129 0.090804175 -0.124353126 -0.466659 -0.05719266 0.01458487 0.51219034 0.24876958
0.17914993 0.17695682 -0.046183094 0.011151477 0.016029574 -0.16331357 -0.026777757 -0.06027725
0.22644752 -0.25746876 -0.65847456 -0.30168042 -0.08492691 -0.061025385 0.12699361 -0.00030063596
-0.14099044 -0.07974823 0.19856961 -0.01642122 -0.044103716 -0.057795785 -0.19116963 0.006127923
-0.11408389 -0.11247568 -0.175566 -0.25589404 -0.012648926 0.17492947 -0.009313262 0.2393101
00000000: 104b 0dbd 546a 0a3e 44cd 39be dec8 29be
00000010: 6b74 2d3e c276 febd 1a81 25bd 79df 33be
00000020: 92ee a03e 2578 d73c c3ae f4bd 832f 83be
00000030: c7c8 a03d f29e e73d 3a4e bebd a9dc ef3d
00000040: a4e6 62bd ea95 36be 1a30 243e 6ef2 68bd
00000050: 137c 17be 8a47 59bd 9380 6d3e 5c4b 413e
00000060: 1ba8 673c df87 1c3e 2d04 163e 0ddb b8bc
00000070: 4f3d 123d 9472 cebc 6422 5e3e f8e8 7b3e
00000080: 8ab0 473e d23d 10be 9239 d23d 3ba2 b8be
00000090: 06af 613d e94c bf3e bddc c63e 1be1 e9bc
000000a0: cab7 c2bc 8ca0 c83d adba abbd 4e37 183e
000000b0: b9d0 ab3d 46ed 71be 7f7b 34bc 6b1a e8bd
000000c0: e5a3 1a3e 7e71 35be b16a 373d c878 723e
000000d0: b854 f2bd d658 6cbb 7b55 64bd 4ae9 12be
000000e0: bafa a03e 8af7 b93d daac febd eeed eebe
000000f0: da42 6abd 61f5 6e3c e81e 033f 74bd 7e3e
00000100: 1473 373e 2b34 353e 7c2a 3dbd afb4 363c
00000110: 7450 833c ac3b 27be 075d dbbc 47e5 76bd
00000120: dce1 673e f2d2 83be ca91 28bf db75 9abe
00000130: 29ee adbd c1f5 79bd 9d0a 023e ad9e 9db9
00000140: cc5f 10be 0a53 a3bd d555 4b3e cb85 86bc
00000150: 19a6 34bd 46bb 6cbd f9c1 43be becc c83b
00000160: d1a4 e9bd a659 e6bd 93c7 33be 8b04 83be
00000170: 713d 4fbc b620 333e a796 18bc b50d 753e

EncList.1.conv.bias f4 [8]
-0.23757161 -0.26847753 -0.17572698 -0.100318015 -0.029372077 -0.0487355 0.105302595 -0.276409
00000000: f945 73be e375 89be c6f1 33be 8873 cdbd
00000010: b69d f0bc e09e 47bd e3a8 d73d 7b85 8dbe

EncList.1.bn.weight f4 [8]
0.8505324 0.8881738 0.8410568 0.8562878 0.7511391 0.8884429 0.9986476 0.96750855
00000000: 7ebc 593f 5c5f 633f 804f 573f ad35 5b3f
00000010: a74a 403f fe70 633f 5ea7 7f3f a4ae 773f

EncList.1.bn.bias f4 [8]
-0.023593979 -0.068116456 -0.19061226 0.16506518 -0.07759349 0.31832957 -0.04338391 0.09345153
00000000: 2948 c1bc a480 8bbd dc2f 43be d906 293e
00000010: 56e9 9ebd 18fc a23e 54b3 31bd 8463 bf3d

EncList.1.bn.running_mean f4 [8]
-0.37679738 -0.128111 0.41042757 0.9158111 -0.024443049 0.5969674 -0.8225428 -0.7930605
00000000: 96eb c0be 882f 03be 9023 d23e 9972 6a3f
00000010: ca3c c8bc dbd2 183f 2a92 52bf 0306 4bbf

EncList.1.bn.running_var f4 [8]
0.03680528 0.0155720655 0.22916059 0.10325572 0.039242674 0.05709109 0.094190754 0.10666208
00000000: 22c1 163d fa21 7f3c 13a9 6a3e bc77 d33d
00000010: edbc 203d 59d8 693d 15e7 c03d a671 da3d

EncList.2.conv.weight f4 [16, 8, 3]
0.06788011 0.09164216 -0.09267812 0.09378778 0.033459958 0.10982817 0.06354053 -0.060585104
0.009448539 -0.08767656 0.051225886 -0.31746566 0.034137256 -0.118755564 0.05948471 -0.07516575
-0.246334 -0.05448754 -0.040874302 -0.046744026 0.26537144 0.22574423 0.31006354 0.101529986
0.07987144 -0.09391181 -0.051936585 0.12300511 0.120081194 0.157598 -0.13372576 0.1893301
-0.094404615 0.1776392 0.32620648 0.11232118 0.1328855 0.09361321 -0.033339478 0.11043346
0.18638206 0.06263609 -0.17146389 -0.16349207 0.26242283 0.09352226 -0.20599501 0.23314257
-0.027095895 -0.14572161 -0.22393127 0.09799004 -0.08951237 -0.012976331 -0.21677825 -0.016728563
-0.1630448 -0.28073412 -0.17468275 -0.051088497 0.023987154 -0.019675408 -0.16690698 -0.2416941
-0.0716162 -0.29123232 0.24625348 -0.07615806 0.055162832 0.027046947 -0.19041547 0.10481321
-0.17244929 0.16853303 -0.010542258 -0.013725174 0.023728026 -0.03973516 0.011770467 -0.046149135
0.21222556 0.07326319 0.21824713 0.18619803 -0.034967158 0.24284078 0.18198255 -0.116976835
-0.010406597 -0.14135781 -0.05905247 -0.105314896 0.110920206 0.30554312 0.07277824 -0.24819887
-0.11478429 0.10432443 -0.025237892 0.04304042 0.1761231 -0.09203804 -0.28477755 0.1651681
0.16292807 -0.31051856 -0.06281592 0.03128056 -0.10377152 -0.0017872939 0.046285633 0.09564828
0.124670446 -0.096196726 -0.004382398 -0.15967879 -0.12898393 0.23082325 -0.05304062 -0.038457822
0.09680799 -0.16959749 -0.2682962 -0.04296993 0.112633586 0.084794864 0.24373288 0.10169695
-0.027433977 -0.079073936 0.21969962 0.029508546 -0.0067890524 -0.00050330855 -0.1782376 0.0037589686
-0.06490607 -0.028638838 0.00179871 0.051730834 0.122878835 -0.2694738 -0.2495029 0.119611025
-0.016742716 -0.069090135 0.13612255 -0.04625588 -0.10108527 0.05340044 0.11061378 -0.059248827
0.038742993 -0.1317676 0.07683434 0.26011497 0.18051411 0.05208317 -0.07624475 0.01902415
0.009575809 0.14113227 -0.10068793 -0.02214522 -0.20316954 -0.14764804 -0.31702793 -0.2836388
-0.07353851 0.21453428 -0.063242234 -0.3342069 -0.20773014 0.037269212 -0.014686303 0.1097053
0.03798684 -0.14882462 0.0057906006 0.021896046 0.12627737 0.11366287 0.15347566 -0.013761952
-0.10638391 0.048469886 -0.17031121 0.036704335 -0.022715617 -0.090771005 -0.11141213 0.018056054
0.025547681 0.11851579 -0.009527254 0.10324984 -0.017405564 0.007091805 -0.057226624 0.17758645
-0.12091366 0.058903378 0.24674709 -0.00921696 0.047440674 0.07909916 0.041716784 0.10644242
0.082379535 -0.15670107 -0.34157756 -0.0026189045 0.24940348 0.18665603 -0.18457274 -0.015624984
-0.20237051 -0.10375331 -0.36174574 -0.108989745 0.13032117 0.22723329 -0.11454479 -0.15983915
-0.18547787 0.13580778 -0.30043343 0.02070148 0.22231959 0.034795005 -0.05843539 -0.05615993
-0.011719774 0.18486263 0.106854714 -0.05163541 0.0035070784 -0.0042210566 0.0006525908 0.2446899
-0.059814136 -0.11448988 0.016701803 -0.021745948 -0.058163423 -0.09278516 0.098871514 0.18163988
-0.052041035 -0.24190307 -0.07652432 -0.19960517 -0.18315461 -0.10654653 0.12447861 -0.21438938
00000000: ba04 8b3d e3ae bb3d 07ce bdbd cf13 c03d
00000010: 4f0d 093d 97ed e03d 8a21 823d 1628 78bd
00000020: 0bce 1a3c c58f b3bd 3cd2 513d dc8a a2be
00000030: 82d3 0b3d 1e36 f3bd 3da6 733d 80f0 99bd
00000040: fb3e 7cbe 542e 5fbd d06b 27bd aa76 3fbd
00000050: c4de 873e 7f29 673e a6c0 9e3e f4ee cf3d
00000060: a393 a33d d654 c0bd 75bb 54bd 1aea fb3d
00000070: 21ed f53d 5f61 213e 68ef 08be c0df 413e
00000080: 3557 c1bd 0de7 353e 8904 a73e a608 e63d
00000090: 2313 083e 48b8 bf3d fa8e 08bd f02a e23d
000000a0: f0da 3e3e 5a47 803d 3b94 2fbe 776a 27be
000000b0: 495c 863e 9988 bf3d 5bf0 52be edbc 6e3e
000000c0: 36f8 ddbc 0c38 15be 3d4e 65be 01af c83d
000000d0: 4352 b7bd ad9a 54bc 1efb 5dbe 570a 89bc
000000e0: 37f5 26be 62bc 8fbe 09e0 32be 2c42 51bd
000000f0: b580 c43c 522e a1bc aae9 2abe a87e 77be
00000100: 84ab 92bd 671c 95be df29 7c3e c2f8 9bbd
00000110: 6cf2 613d 8f91 dd3c 46fc 42be 4fa8 d63d
00000120: 8c96 30be ec93 2c3e 6fb9 2cbc 8ddf 60bc
00000130: 4761 c23c 56c1 22bd ebd8 403c e006 3dbd
00000140: a851 593e 030b 963d 2d7c 5f3e b2aa 3e3e
00000150: b939 0fbd 41ab 783e a259 3a3e 8d91 efbd
00000160: 6e80 2abc 1ac0 10be 01e1 71bd 56af d7bd
00000170: 222a e33d 2670 9c3e c20c 953d d827 7ebe
00000180: 0714 ebbd 0ca8 d53d b2bf cebc 274b 303d
00000190: 9d59 343e 717e bcbd 5dce 91be d421 293e
000001a0: 9ed6 263e 4afc 9ebe a2a5 80bd 0b20 003d
000001b0: 2a86 d4bd a243 eaba 0196 3d3d 3fe3 c33d
000001c0: 3853 ff3d ca02 c5bd 389a 8fbb d682 23be
000001d0: 5d14 04be ee5c 6c3e 1f41 59bd f385 1dbd
000001e0: 4443 c63d f7aa 2dbe 1f5e 89be 3d01 30bd
000001f0: 70ac e63d eea8 ad3d 1d95 793e 7e46 d03d
00000200: 38bd e0bc 84f1 a1bd f0f8 603e e8bb f13c
00000210: b376 debb 77f0 03ba eb83 36be 0759 763b
00000220: 79ed 84bd ff9b eabc b1c2 eb3a b6e3 533d
00000230: e6a7 fb3d 78f8 89be b07d 7fbe a0f6 f43d
00000240: 0528 89bc 217f 8dbd b663 0b3e ce76 3dbd
00000250: cb05 cfbd 6bba 5a3d 7a89 e23d e6ae 72bd
00000260: f9b0 1e3d 16ee 06be 535b 9d3d ca2d 853e
00000270: b1d8 383e 2955 553d 3526 9cbd 89d8 9b3c
00000280: dbe3 1c3c fa84 103e 7935 cebd e469 b5bc
00000290: ad0b 50be 0c31 17be 7c51 a2be 1b39 91be
000002a0: 5c9b 96bd e0ae 5b3e 2585 81bd 2b1d abbe
000002b0: 36b7 54be 9aa7 183d d29e 70bc 2cad e03d
000002c0: 1798 1b3d 7b65 18be 14bf bd3b 565f b33c
000002d0: db4e 013e 14c8 e83d b928 1d3e cf79 61bc
000002e0: cfdf d9bd 5c88 463d 1066 2ebe 4957 163d
000002f0: 1a16 babc 26e6 b9bd 0b2c e4bd 4aea 933c
00000300: 5f49 d13c 68b8 f23d 3318 1cbc a774 d33d
00000310: 1d96 8ebc 5f62 e83b 7766 6abd 39d9 353e
00000320: 95a1 f7bd ab44 713d 45ab 7c3e bb02 17bc
00000330: 2751 423d befe a13d 38df 2a3d 7cfe d93d
00000340: 9ab6 a83d 3f76 20be 41e3 aebe eda1 2bbb
00000350: a063 7f3e c222 3f3e a300 3dbe efff 7fbc
00000360: 373a 4fbe 9e7c d4bd bd36 b9be 0436 dfbd
00000370: ea72 053e d8af 683e 7596 eabd e0ac 23be
00000380: e9ed 3dbe 3211 0b3e 69d2 99be 2696 a93c
00000390: bfa7 633e 3585 0e3d f359 6fbd f407 66bd
000003a0: 4c04 40bc a14c 3d3e a5d6 da3d a77f 53bd
000003b0: 03d7 653b ca50 8abb a112 2b3a fd8f 7a3e
000003c0: abff 74bd ac79 eabd 38d2 883c 8f24 b2bc
000003d0: c53c 6ebd 2506 bebd 267d ca3d ceff 393e
000003e0: fb28 55bd 70b5 77be c8b8 9cbd 4c65 4cbe
000003f0: e28c 3bbe 1135 dabd a4ee fe3d e488 5bbe

EncList.2.conv.bias f4 [16]
0.020543974 0.06761354 -0.19560322 -0.065536715 0.08705037 0.16892084 -0.05559958 0.19008656
-0.054268077 -0.12421425 -0.07484457 0.029957384 -0.051181246 0.091875955 -0.10869268 -0.06982872
00000000: d64b a83c f878 8a3d 364c 48be 1d38 86bd
00000010: 7747 b23d 96f9 2c3e 63bc 63bd 0da6 423e
00000020: 3448 5ebd 0a64 febd 1c48 99bd 3069 f53c
00000030: 6da3 51bd 7629 bc3d 459a debd 5c02 8fbd

EncList.2.bn.weight f4 [16]
0.96084964 0.96072674 0.89552104 0.9242146 0.85363483 0.8518677 0.9187865 0.9307836
0.84321904 0.9364121 0.8562394 1.0005327 0.8091512 0.985979 0.93766654 0.82018626
00000000: 3efa 753f 30f2 753f de40 653f 5499 6c3f
00000010: d087 5a3f 0014 5a3f 9835 6b3f d647 6e3f
00000020: 34dd 573f b4b8 6f3f 8132 5b3f 7511 803f
00000030: 8824 4f3f 1f69 7c3f ea0a 703f baf7 513f

EncList.2.bn.bias f4 [16]
-0.08988987 0.14670081 -0.05345335 -0.038675096 0.063877456 0.079126805 0.19957753 0.040247846
-0.31986517 -0.09385292 0.22081617 0.15423109 -0.13287035 -0.08275835 0.27884185 -0.08261364
00000000: 2e18 b8bd bd38 163e e6f1 5abd c769 1ebd
00000010: 2fd2 823d 3c0d a23d 0d5e 4c3e edda 243d
00000020: 5ec5 a3be f635 c0bd a21d 623e c1ee 1d3e
00000030: 2a0f 08be 367d a9bd 5cc4 8e3e 5731 a9bd

EncList.2.bn.running_mean f4 [16]
0.06284199 0.6477625 -0.8925772 0.13530663 -0.014473157 0.07801762 -0.23897535 -0.015225129
0.14311399 -0.1862376 -0.7933701 0.16432667 -0.014945215 0.12606795 -0.014692388 0.07103568
00000000: 4db3 803d c3d3 253f f07f 64bf d28d 0a3e
00000010: d220 6dbc b4c7 9f3d f4b5 74be d272 79bc
00000020: 798c 123e 12b5 3ebe 4e1a 4bbf 4045 283e
00000030: c6dc 74bc f517 013e 57b8 70bc 287b 913d

EncList.2.bn.running_var f4 [16]
0.38632703 0.3474598 0.46987832 0.16164203 0.11363333 0.098256305 0.3920689 0.22988658
0.088264495 0.35351327 0.32077378 0.16946611 0.030526059 0.080771625 0.36500472 0.04860418
00000000: a8cc c53e 40e6 b13e e493 f03e 7d85 253e
00000010: 97b8 e83d 9a3a c93d 41bd c83e 6367 6b3e
00000020: 04c4 b43d b1ff b43e 763c a43e 8688 2d3e
00000030: c911 fa3c 986b a53d e6e1 ba3e 2d15 473d

EncList.3.conv.weight f4 [32, 16, 3]
0.06386119 0.09632124 0.07021602 0.034444325 0.0022547652 0.064231835 -0.21572965 -0.011058425
0.038582794 -0.07287518 -0.12141679 -0.19260366 0.09652242 -0.017855532 0.055130836 -0.01711477
-0.016361568 -0.0998847 0.05106318 0.044374418 -0.07733515 0.085161045 -0.13235697 0.057597734
0.0138039645 -0.03773864 -0.14355592 -0.15483075 -0.06880472 0.09808789 -0.15540084 -0.037337653
-0.13939099 -0.063205175 0.084324114 0.15593159 0.15108977 0.14191906 0.035205103 0.08392628
0.19660228 0.033118322 -0.05295965 -0.06392103 0.07652259 0.08265561 0.1916545 0.039997373
0.04817512 0.24350765 -0.092623316 0.012260113 0.026702857 -0.09141338 -0.028339887 -0.030296506
-0.16059825 -0.114395924 -0.06451222 -0.020270277 -0.01238511 0.028351218 0.118126 -0.10818911
0.028988162 0.020109944 0.012003944 -0.14224918 0.15413798 -0.07561319 0.13477188 -0.08724484
-0.007354431 0.065775886 -0.21633716 -0.017939385 0.008495878 -0.074395314 -0.13544388 0.05514035
0.16472562 -0.093297765 0.16493955 -0.17873274 -0.02385154 0.09609511 0.0056208703 0.112400375
0.17660066 -0.15577587 -0.14504026 -0.090070345 0.010323347 0.049945988 0.05168803 0.013914045
-0.13251755 0.045859993 0.024947792 -0.027072959 -0.12044615 -0.09350911 0.03533445 -0.07333761
0.096316256 0.106494054 -0.057822213 0.0073680775 -0.08150181 -0.19351932 0.18830177 0.069965675
0.015431716 -0.24984872 0.16782725 0.08261956 -0.19311076 0.022028962 -0.030420912 -0.105488315
0.18503702 -0.02105243 -0.2678533 0.001877203 -0.11843324 -0.031076454 -0.051867798 -0.12095953
-0.05914747 -0.0079653645 0.077621914 0.026056677 0.027509978 0.062545866 -0.05009119 0.13817766
-0.1306285 -0.06382805 -0.014956733 0.08894746 -0.33358303 -0.12735143 -0.08401177 -0.118306704
-0.0006061263 0.014540529 0.18287896 0.029327374 0.0019528408 -0.06976141 0.13045254 0.108019516
0.013126517 -0.04606354 -0.107675895 -0.13522501 0.059968207 0.042645004 0.0057922895 -0.07572534
-0.08211071 -0.22451124 -0.08581143 0.023300879 -0.16666527 -0.10109989 -0.10109838 -0.03013154
0.117288455 -0.03408241 -0.0070576966 -0.039358467 0.16266795 0.1636731 0.0123101305 -0.06416902
0.15642363 -0.038619988 0.033902146 -0.016326 -0.033851646 -0.15011594 -0.019633375 -0.23241465
0.10970111 0.00015760685 0.2117227 -0.09243116 -0.092018135 -0.06629455 -0.09056177 -0.04602129
0.14211008 -0.17265822 -0.15392372 -0.008965441 0.019795904 0.10779197 0.082468085 -0.03059239
0.007963264 -0.012660588 0.031964295 -0.10518977 0.0435123 -0.12321575 -0.1451321 0.083048865
0.06057712 -0.028806739 0.08479964 0.07589419 -0.12382474 0.023688318 0.006570232 0.13347799
0.16447546 -0.08507278 -0.15026307 -0.030801682 -0.07755714 0.15518926 0.27207294 0.012457345
-0.048996087 -0.09006249 0.07626474 0.096242316 -0.120051004 -0.11810854 -0.21060225 -0.13752389
-0.20253883 -0.1206385 0.026139997 -0.09783718 0.11538398 -0.21065229 -0.33061737 -0.023536855
0.090208754 -0.06093777 -0.058627967 -0.07555078 -0.025477607 0.018970294 0.14156204 -0.051987782
0.060299616 -0.042846058 -0.0607182 0.17672218 -0.034853473 -0.13574813 -0.12736906 0.021069076
00000000: a8c9 823d 1244 c53d 6bcd 8f3d 7e15 0d3d
00000010: afc4 133b fb8b 833d 3ce8 5cbe 652e 35bc
00000020: fe08 1e3d 953f 95bd 5ea9 f8bd e539 45be
00000030: 8cad c53d c445 92bc dfd0 613d 4634 8cbc
00000040: b208 86bc 5990 ccbd a027 513d f3c1 353d
00000050: e461 9ebd ea68 ae3d 9688 07be 9aeb 6b3d
00000060: 062a 623c d593 1abd 5300 13be f48b 1ebe
00000070: 7de9 8cbd 4ee2 c83d 6621 1fbe 5eef 18bd
00000080: 83bc 0ebe b771 81bd 1fb2 ac3d 88ac 1f3e
00000090: 47b7 1a3e 3b53 113e 3a33 103d 8be1 ab3d
000000a0: 1c52 493e 14a7 073d 38ec 58bd 07e9 82bd
000000b0: e0b7 9c3d 5847 a93d 1441 443e 49d4 233d
000000c0: 4653 453d 125a 793e 4bb1 bdbd a4de 483c
000000d0: f3bf da3c f036 bbbd 0d29 e8bc 6130 f8bc
000000e0: de73 24be 6948 eabd fc1e 84bd da0d a6bc
000000f0: ebea 4abc d040 e83c 0bec f13d 4192 ddbd
00000100: 9578 ed3c 9cbd a43c 31ac 443c c5a9 11be
00000110: 59d6 1d3e 17db 9abd a401 0a3e 6cad b2bd
00000120: 70fd f0bb 82b5 863d 7d87 5dbe 9ef5 92bc
00000130: 4c32 0b3c 925c 98bd cdb1 0abe d9da 613d
00000140: d5ad 283e e612 bfbd eae5 283e b705 37be
00000150: 4e64 c3bc 83cd c43d 472f b83b 2b32 e63d
00000160: ced6 343e b683 1fbe 6f85 14be cd76 b8bd
00000170: 4123 293c 2a94 4c3d d4b6 533d bcf7 633c
00000180: aeb2 07be b0d7 3b3d 505f cc3c 1cc8 ddbc
00000190: 79ac f6bd b481 bfbd dbba 103d 0732 96bd
000001a0: 7541 c53d 8e19 da3d fcd6 6cbd ea6f f13b
000001b0: 6cea a6bd ee29 46be 2ed2 403e 2a4a 8f3d
000001c0: 4fd5 7c3c 58d8 7fbe e8da 2b3e 7234 a93d
000001d0: d4be 45be 1576 b43c 4735 f9bc 420a d8bd
000001e0: 587a 3d3e 2576 acbc 1124 89be 7b0c f63a
000001f0: 208d f2bd 0c94 febc 5473 54bd a1b9 f7bd
00000200: 9e44 72bd 2981 02bc 3df8 9e3d d074 d53c
00000210: 9b5c e13c 0c18 803d 6b2c 4dbd 727e 0d3e
00000220: 7ac3 05be 48b8 82bd 160d 75bc 162a b63d
00000230: 65cb aabe 6a68 02be 5d0e acbd c94a f2bd
00000240: 73e4 1eba 663b 6e3c 9f44 3b3e f63f f03c
00000250: 77f6 ff3a 12df 8ebd 5a95 053e 5639 dd3d
00000260: 9a10 573c 1fad 3cbd 2e85 dcbd 6d78 0abe
00000270: 39a1 753d 87ac 2e3d 3fcd bd3b e315 9bbd
00000280: a929 a8bd 46e6 65be e7bd afbd 7ce1 be3c
00000290: 4daa 2abe 760d cfbd ab0c cfbd 6bd6 f6bc
000002a0: ee34 f03d ff99 0bbd 4044 e7bb 5836 21bd
000002b0: 6d92 263e ec99 273e 6eb0 493c 0c6b 83bd
000002c0: 842d 203e fe2f 1ebd fadc 0a3d 1bbe 85bc
000002d0: 06a8 0abd feb7 19be 2cd6 a0bc 1bfe 6dbe
000002e0: faaa e03d 4443 2539 d6cd 583e 8c4c bdbd
000002f0: 0174 bcbd 70c5 87bd 7378 b9bd d280 3cbd
00000300: 4e85 113e 51cd 30be 2e9e 1dbe c9e3 12bc
00000310: 052b a23c 09c2 dc3d 07e5 a83d e49c fabc
00000320: 5a78 023c 5b6e 4fbc feec 023d bc6d d7bd
00000330: f439 323d 8a58 fcbd 829d 14be 8615 aa3d
00000340: b71f 783d 1cfc ebbc 6fab ad3d 6a6e 9b3d
00000350: d397 fdbd 010e c23c 1a4b d73b 74ae 083e
00000360: 416c 283e a33a aebd 90de 19be cf53 fcbc
00000370: 47d6 9ebd efe9 1e3e 254d 8b3e e419 4c3c
00000380: 1fb0 48bd af72 b8bd b030 9c3d b11a c53d
00000390: 4ddd f5bd e4e2 f1bd 1ea8 57be 10d3 0cbe
000003a0: 5766 4fbe 5111 f7bd 8c23 d63c dc5e c8bd
000003b0: 704e ec3d 3cb5 57be ae46 a9be 5dd0 c0bc
000003c0: 5ebf b83d e299 79bd e123 70bd 5eba 9abd
000003d0: 6ab6 d0bc 9767 9b3c a4f5 103e 24f1 54bd
000003e0: bbfc 763d 597f 2fbd a6b3 78bd a9f6 343e
000003f0: 84c2 0ebd 8f01 0bbe 096d 02be 0e99 ac3c

EncList.3.conv.bias f4 [32]
-0.085068114 -0.056966368 0.0015828677 -0.010728067 0.10225892 -0.1323685 0.014293277 -0.04375884
0.008060277 0.14490256 0.0012873096 -0.021581914 -0.047234647 -0.1438181 -0.12754709 0.061373014
-0.08798916 0.09058351 -0.054349996 0.05178923 0.10458777 0.01034611 0.04789805 0.12263436
-0.048460145 0.10363577 -0.121337056 0.1286636 -0.046377175 -2.3238674e-05 0.081576526 0.008956196
00000000: 3138 aebd 9155 69bd 3a78 cf3a c6c4 2fbc
00000010: 206d d13d 9c8b 07be 592e 6a3c 783c 33bd
00000020: 410f 043c 5661 143e f1ba a83a 8ecc b0bc
00000030: 1e79 41bd 0d45 13be b49b 02be 4562 7b3d
00000040: a933 b4bd d983 b93d 1a9e 5ebd f220 543d
00000050: 1d32 d63d bb82 293c bf30 443d b927 fb3d
00000060: 257e 46bd fe3e d43d 907f f8bd 64c0 033e
00000070: fef5 3dbd acf0 c2b7 9811 a73d 02bd 123c

EncList.3.bn.weight f4 [32]
0.91175264 0.9668409 1.0268784 1.0283517 0.9439381 0.99025667 0.9329705 1.0511528
0.9398057 0.8808834 0.9197143 0.9688878 0.9377345 1.0334431 1.0234852 0.92570674
0.9452284 0.92516595 0.97637147 1.0938495 0.94026756 1.0373611 0.9892221 1.0364242
1.0932106 1.0798603 0.9455281 1.0746201 1.0644816 0.9060249 1.0569525 0.94506705
00000000: 9f68 693f e382 773f c070 833f 07a1 833f
00000010: eda5 713f 7681 7d3f 28d7 6e3f 2d8c 863f
00000020: 1b97 703f 9381 613f 6572 6b3f 0809 783f
00000030: 5e0f 703f dd47 843f 9001 833f 1efb 6c3f
00000040: 7dfa 713f add7 6c3f 7bf3 793f 4303 8c3f
00000050: 60b5 703f 40c8 843f a93d 7d3f 8ca9 843f
00000060: 53ee 8b3f dd38 8a3f 210e 723f 278d 893f
00000070: ef40 883f 3ff1 673f 384a 873f eaef 713f

EncList.3.bn.bias f4 [32]
-0.18280782 -0.044421013 0.24135336 0.016559007 0.14026438 0.060404025 -0.11239702 0.10055801
-0.029018076 -0.24968123 0.16688752 -0.016727883 -0.2160718 0.09704251 0.075027324 0.038775425
-0.2553126 -0.117585234 0.10453889 -0.14074089 -0.008909154 0.08529295 0.08948756 0.13304137
0.1777216 0.13898289 0.12506266 -0.2042399 -0.024875898 -0.15006343 0.25013703 0.022092644
00000000: f931 3bbe cff2 35bd 5625 773e c1a6 873c
00000010: 77a1 0f3e 366a 773d 6930 e6bd 5cf1 cd3d
00000020: 51b7 edbc 70ac 7fbe 90e4 2a3e ea08 89bc
00000030: ed41 5dbe 39be c63d eda7 993d fbd2 1e3d
00000040: 55b8 82be 87d0 f0bd 7c18 d63d 611e 10be
00000050: b3f7 11bc 12ae ae3d 4145 b73d ff3b 083e
00000060: a7fc 353e 8851 0e3e 6d10 003e 4424 51be
00000070: 8ac8 cbbc 3aaa 19be f611 803e a2fb b43c

EncList.3.bn.running_mean f4 [32]
-0.044964626 -0.19467337 -0.51989263 -0.21199332 -0.07390306 -0.6970876 -0.087973714 -0.6695303
-0.3775976 0.20804307 -0.3304501 0.19709152 0.45325735 -0.29623482 0.047477737 0.2209783
-0.26868436 0.14423352 -0.057098273 0.15825988 0.23888841 -0.5088714 -0.24087723 -0.18651931
-1.0373387 -0.45923626 -0.21666496 0.30052084 -0.2957728 0.19115709 -0.020176083 0.3626811
00000000: d42c 38bd 7558 47be af17 05bf c714 59be
00000010: 7d5a 97bd 5574 32bf 902b b4bd 5666 2bbf
00000020: 7954 c1be 3e09 553e c130 a9be 5cd2 493e
00000030: 5911 e83e 17ac 97be 0478 423d 2348 623e
00000040: ff90 89be f4b1 133e e1df 69bd e10e 223e
00000050: 2a9f 743e 6545 02bf 85a8 76be ebfe 3ebe
00000060: 84c7 84bf 0421 ebbe 6bdd 5dbe dedd 993e
00000070: 886f 97be afbe 433e 5048 a5bc 56b1 b93e

EncList.3.bn.running_var f4 [32]
0.23040329 0.1340955 0.28362125 0.45631248 0.30075034 0.37529123 0.21013641 0.41668856
0.14877048 0.19494085 0.23456998 0.29244888 0.19210671 0.447647 0.18425034 0.28935114
0.27963588 0.20074125 0.17983185 0.22322653 0.14312123 1.0268191 0.17642696 0.41164237
0.8602008 0.5531836 0.3256993 0.2630058 0.37532967 0.27534702 0.14712298 0.19551156
00000000: d7ee 6b3e 5550 093e ce36 913e caa1 e93e
00000010: f3fb 993e 2c26 c03e 002e 573e 3458 d53e
00000020: 4a57 183e 939e 473e 1d33 703e dcbb 953e
00000030: 9fb7 443e fd31 e53e 1fac 3c3e d525 943e
00000040: 6f2c 8f3e 1d8f 4d3e d725 383e 7f95 643e
00000050: 5f8e 123e cf6e 833f 45a9 343e cac2 d23e
00000060: 1f36 5c3f 719d 0d3f 0fc2 a63e b2a8 863e
00000070: 362b c03e 49fa 8c3e 68a7 163e 2f34 483e

DecList.0.conv.weight f4 [32, 16, 4]
0.050117336 -0.050009657 0.096436255 -0.03292405 0.018494988 0.02209359 0.04140116 0.12484161
0.017267192 0.17918396 0.006988426 0.03049604 -0.041277044 -0.06427426 0.072472416 -0.03954129
0.11131554 -0.022746684 -0.06975251 -0.0026663498 0.11725381 -0.061434347 -0.11391072 -0.08443871
-0.087985836 0.072181426 0.012556811 0.12230993 -0.0014395242 0.053852655 0.093528524 0.1681162
0.043985054 -0.019173631 0.22152373 0.03084184 0.019948779 -0.18491983 0.051828675 0.0011295342
0.12679029 -0.2301297 -0.17892511 0.067417815 0.021976098 -0.07315496 -0.19119735 0.0028478403
0.0352954 0.036207743 0.13018328 0.13034864 -0.11818179 0.07464801 -0.0070426553 0.030291213
0.031855386 0.00018512878 0.14541946 -0.06852545 0.055064935 0.027485842 -0.10954405 -0.014617203
0.1891801 0.016874982 -0.13655017 0.011803526 -0.0071351686 0.024546081 0.005542497 -0.21641998
-0.040790074 0.04818786 -0.037104253 -0.116597444 0.06743747 -0.018171776 -0.042249937 -0.20437685
-0.15213718 0.040745903 0.103814274 0.11497448 0.040376153 -0.056481216 -0.055128336 0.009543549
-0.0897358 -0.19631916 -0.017646624 0.095586196 0.05888821 -0.0010758755 0.046149306 0.05373807
0.09932002 0.06882673 0.0748212 0.013274894 0.21112658 -0.13204809 0.047090348 0.083211884
-0.010221201 0.038026933 -0.07905576 -0.07158576 -0.120206356 -0.16490702 -0.02629261 -0.10460691
0.03399054 0.052080233 -0.0059398348 -0.0534665 0.0970478 0.17205474 0.2649886 0.26828638
0.1833325 -0.07784218 -0.046204668 -0.1905358 0.065707766 -0.107337624 -0.04715232 0.11767708
-0.032398313 0.08205812 0.01634549 -0.046726916 0.116234735 -0.082071654 0.01401586 -0.20919114
0.024952337 0.04246387 -0.030662505 0.15199803 -0.020047363 -0.14497289 -0.22765696 -0.06031042
0.23388144 -0.05905826 -0.044862654 -0.03018797 -0.23461261 -0.08946178 0.04016735 -0.08028285
0.063641176 0.011680875 -0.048962135 -0.12582538 0.101514615 0.16049017 0.03701293 -0.13336614
-0.01870575 -0.050372686 -0.06719899 0.044024844 0.030480796 -0.03926541 0.07492568 0.08674075
0.12273055 -0.00815399 -0.07310342 0.037632655 -0.11999985 -0.01729315 -0.071434855 -0.22935185
0.0019493308 -0.010761505 -0.0052373298 0.028841808 0.046513412 -0.18423118 -0.0012648865 -0.035442803
-0.033457424 -0.022401813 0.078620225 0.10837239 0.29696217 -0.10916808 -0.02525758 -0.0849671
-0.06837705 0.07691941 -0.017365372 0.06980192 -0.09599839 -0.052666876 0.0026185773 0.07213497
-0.08658017 -0.06343189 -0.22567579 0.09503037 0.015925098 0.25300178 0.14508696 0.122111626
0.0048560146 0.018353371 -0.17500062 -0.1425115 -0.008845213 -0.10549807 -0.13212892 -0.19717714
0.008893142 0.025193246 -0.05550816 0.0056404164 -0.08215237 0.04526991 -0.092399314 0.027273977
-0.18859218 -0.011074919 0.10376225 -0.040646624 0.012989252 -0.123505525 -0.0070606773 -0.006345174
0.0867455 -0.12224463 0.06027418 -0.006406783 -0.04512056 0.03110453 -0.10258921 -0.05424401
0.07453206 0.0111935865 0.03311588 0.035641886 -0.047335003 0.19691323 0.10000779 -0.0716319
-0.09305324 0.12020894 -0.12564775 -0.2480876 0.038191337 -0.12232367 0.071477674 0.08500475
00000000: d647 4d3d edd6 4cbd 5f80 c53d 5edb 06bd
00000010: cd82 973c 9efd b43c 4394 293d f5ac ff3d
00000020: ed73 8d3c 007c 373e 2bff e43b d5d2 f93c
00000030: 1e12 29bd 39a2 83bd 6b6c 943d 0cf6 21bd
00000040: 67f9 e33d 4157 babc 67da 8ebd edbd 2ebb
00000050: c422 f03d 95a2 7bbd 064a e9bd 34ee acbd
00000060: eb31 b4bd dbd3 933d 15bb 4d3c a17d fa3d
00000070: 6bae bcba 9a94 5c3d e28b bf3d a726 2c3e
00000080: ac29 343d 0512 9dbc 1ed7 623e 07a8 fc3c
00000090: 9f6b a33c a05b 3dbe 4e4a 543d e10c 943a
000000a0: 50d5 013e 1fa7 6bbe 2538 37be 5a12 8a3d
000000b0: 3807 b43c 45d2 95bd 3dc9 43be d5a2 3a3b
000000c0: e991 103d 924e 143d c44e 053e 1d7a 053e
000000d0: 4b09 f2bd 0ee1 983d 13c6 e6bb 4725 f83c
000000e0: cb7a 023d 211f 4239 d7e8 143e 1257 8cbd
000000f0: c58b 613d fd29 e13c a258 e0bd fe7c 6fbc
00000100: 6eb8 413e 673d 8a3c cfd3 0bbe 9463 413c
00000110: 22ce e9bb dd14 c93c d69d b53b 339d 5dbe
00000120: 7e13 27bd a260 453d a1fa 17bd a4ca eebd
00000130: a81c 8a3d fadc 94bc 450e 2dbd 2a48 51be
00000140: d9c9 1bbe 2de5 263d 949c d43d bd77 eb3d
00000150: 7761 253d d958 67bd 40ce 61bd 8c5c 1c3c
00000160: 67c7 b7bd e407 49be a78f 90bc b2c2 c33d
00000170: c434 713d 6404 8dba 0e07 3d3d 731c 5c3d
00000180: 4b68 cb3d 07f5 8c3d db3b 993d f17e 593c
00000190: 9131 583e 9d37 07be cfe1 403d fe6a aa3d
000001a0: d376 27bc 21c2 1b3d fce7 a1bd 8e9b 92bd
000001b0: c02e f6bd 63dd 28be 9a63 d7bc 263c d6bd
000001c0: aa39 0b3d 1552 553d f2a2 c2bb b0ff 5abd
000001d0: ffc0 c63d 1e2f 303e 96ac 873e d55c 893e
000001e0: 84bb 3b3e b96b 9fbd 1b41 3dbd d11b 43be
000001f0: cb91 863d d4d3 dbbd cb22 41bd ae00 f13d
00000200: 18b4 04bd 160e a83d fae6 853c b964 3fbd
00000210: 7a0c ee3d 2f15 a8bd c7a2 653c 3436 56be
00000220: d868 cc3c 98ee 2d3d ef2f fbbc 5fa5 1b3e
00000230: 5e3a a4bc c673 14be e81e 69be 0f08 77bd
00000240: 9e7e 6f3e 13e7 71bd e7c1 37bd c34c f7bc
00000250: 4a3e 70be bd37 b7bd 8586 243d 566b a4bd
00000260: 4e56 823d 2461 3f3c 858c 48bd 5ed8 00be
00000270: e5e6 cf3d 8957 243e df9a 173d 2291 08be
00000280: cd3c 99bc 9753 4ebd a09f 89bd 6553 343d
00000290: ddb2 f93c c4d4 20bd a372 993d 22a5 b13d
000002a0: 285a fb3d 5098 05bc 3fb7 95bd b324 1a3d
000002b0: 7bc2 f5bd 5daa 8dbc 704c 92bd 36db 6abe
000002c0: b080 ff3a 0651 30bc e89d abbb a845 ec3c
000002d0: d984 3e3d 19a7 3cbe 8cca a5ba 792c 11bd
000002e0: a70a 09bd 0284 b7bc a403 a13d 58f2 dd3d
000002f0: 6d0b 983e 8493 dfbd fce8 cebc 3b03 aebd
00000300: 4409 8cbd ec87 9d3d d341 8ebc 4ff4 8e3d
00000310: ce9a c4bd 39b9 57bd 709c 2b3b 80bb 933d
00000320: f250 b1bd 94e8 81bd 8e17 67be 489f c23d
00000330: 5a75 823c 7389 813e ad91 143e a915 fa3d
00000340: 341f 9f3b cf59 963c 5d33 33be 89ee 11be
00000350: 83eb 10bc 5f0f d8bd ce4c 07be cee8 49be
00000360: 8bb4 113c 1162 ce3c 865c 63bd 3ed3 b83b
00000370: 803f a8bd f16c 393d da3b bdbd ad6d df3c
00000380: 4f1e 41be 9473 35bc 4d81 d43d 137d 26bd
00000390: dfd0 543c 77f0 fcbd 415d e7bb 2deb cfbb
000003a0: a0a7 b13d 645b fabd 0fe2 763d feef d1bb
000003b0: 56d0 38bd edce fe3c 4b1a d2bd f82e 5ebd
000003c0: 44a4 983d 4e65 373c 84a4 073d 3afd 113d
000003d0: 59e2 41bd 9fa3 493e e2d0 cc3d bfb3 92bd
000003e0: b292 bebd 1b30 f63d cea9 00be ad0a 7ebe
000003f0: 856e 1c3d d584 fabd e362 923d f816 ae3d

DecList.0.conv.bias f4 [16]
0.05760298 0.011375491 0.054996602 0.07887799 -0.0986583 0.08361603 -0.01856742 -0.029776542
0.02529261 0.09980848 -0.06839086 -0.08768371 0.078341 -0.058352787 0.03843732 -0.017931333
00000000: 1af1 6b3d 4460 3a3c 1e44 613d c98a a13d
00000010: 5d0d cabd e23e ab3d b41a 98bc efed f3bc
00000020: 7332 cf3c 6368 cc3d 8210 8cbd 8493 b3bd
00000030: 3f71 a03d 5503 6fbd 7470 1d3d bbe4 92bc

DecList.0.bn.weight f4 [16]
1.2187071 1.0906593 1.1063277 1.0774089 1.2253715 1.3066722 1.1559572 1.2053401
1.2694045 1.3574687 1.2610049 1.1504307 1.1109298 1.1522815 1.0206809 1.2457393
00000000: 98fe 9b3f b99a 8b3f 259c 8d3f 89e8 893f
00000010: f9d8 9c3f 0941 a73f 68f6 933f 9648 9a3f
00000020: d97b a23f 89c1 ad3f 9c68 a13f 5041 933f
00000030: f332 8e3f f67d 933f aca5 823f 6374 9f3f

DecList.0.bn.bias f4 [16]
-0.06369113 0.027572438 -0.20161301 0.042902913 -0.3429732 0.37014657 0.16821179 -0.036393292
-0.5293478 0.23874848 -0.32803774 -0.25617275 -0.37307623 -0.022068288 0.038164172 -0.17656839
00000000: 7f70 82bd 98df e13c a473 4ebe f7ba 2f3d
00000010: 2f9a afbe da83 bd3e b63f 2c3e 2211 15bd
00000020: 5683 07bf 7b7a 743e 90f4 a7be 1329 83be
00000030: d903 bfbe 8ec8 b4bc 0952 1c3d 58ce 34be

DecList.0.bn.running_mean f4 [16]
-0.24272656 -0.4637386 -0.49951515 0.4953224 -0.39148727 -0.7095912 0.059085928 -0.032917086
-0.5750537 -0.5676541 -0.58226305 -1.1111273 -0.19788422 -0.46767047 0.440325 0.068756096
00000000: 508d 78be 256f edbe 73c0 ffbe e69a fd3e
00000010: 0571 c8be c5a7 35bf 1604 723d 11d4 06bd
00000020: b836 13bf c751 11bf 310f 15bf 6b39 8ebf
00000030: 29a2 4abe 8172 efbe 4772 e13e ffcf 8c3d

DecList.0.bn.running_var f4 [16]
0.88809824 0.839127 0.7235923 0.45766965 0.66838294 0.85960895 0.94735545 0.94219613
0.6081723 0.5781462 0.6525987 0.67490095 0.704021 0.5708086 0.66590935 0.37505847
00000000: 685a 633f 07d1 563f 583d 393f ad53 ea3e
00000010: 251b 2b3f 550f 5c3f e385 723f c433 713f
00000020: 2eb1 1b3f 6401 143f b510 273f 4fc6 2c3f
00000030: b83a 343f 8320 123f 0979 2a3f aa07 c03e

DecList.1.conv.weight f4 [16, 8, 4]
0.08590057 0.022950133 0.09840634 0.08567061 0.093744285 0.03640476 0.05172142 0.026706463
-0.08538831 0.09327689 -0.11343117 0.021217864 0.0032571058 0.0014095072 0.059579268 0.08838076
0.23245664 0.33316395 0.087314345 0.102109954 -0.013023922 -0.08978753 -0.08918568 0.0153556075
-0.021479731 0.03827603 0.038870733 -0.026550977 -0.15891215 0.08978389 -0.0051493132 0.20126165
0.1344466 0.16447559 0.0126119265 0.03808318 -0.13709919 -0.12896338 0.09027011 0.043748397
0.11531676 0.13339573 -0.0056206933 0.025806002 -0.0627914 0.0016293913 0.037978467 -0.08121125
-0.14450899 -0.29714063 -0.20511977 0.021275723 0.16122602 0.1601642 0.103951536 0.02672937
-0.1238673 -0.30395973 -0.15403657 -0.21874915 -0.058802504 -0.0951888 -0.022339128 -0.16387679
-0.1723119 -0.08115695 0.025567971 -0.1019221 0.051016476 0.08879233 -0.031846575 -0.15270239
0.01951824 0.028884297 -0.061893903 0.052716535 0.019688629 0.039545793 0.071679085 -0.072751
0.1323382 0.21302989 0.054120746 -0.031648066 -0.14534731 -0.13658994 -0.17950808 -0.13813055
0.092443496 -0.018452657 0.12547684 -0.029760994 0.12590316 0.14263088 0.22263901 0.07167394
0.05898479 0.079443276 0.17012629 0.09651657 -0.11016653 -0.09654701 -0.083726466 -0.1982921
-0.046524655 0.06860838 0.077939354 0.036117084 -0.18455859 -0.24993844 -0.11130916 -0.16468038
-0.17974693 0.0407201 0.07608097 -0.1439716 0.010530452 0.14929636 0.11321555 0.08210694
-0.18596011 -0.064597815 -0.043536883 -0.15338369 0.0265911 -0.089857176 0.13113162 0.07849498
0.0714703 0.10364625 0.029475218 -0.021765621 -0.118007384 -0.13972427 0.011986429 -0.032662965
0.048365016 0.19258751 0.070146896 0.051308505 -0.033363342 -0.012893896 -0.13019714 -0.11388758
0.028512316 0.1402441 0.10867841 -0.06517024 0.06242549 0.16481616 0.10107224 -0.08967919
-0.020434268 0.09483141 0.044740193 0.05229625 0.1812953 0.27483055 0.065690175 0.00452624
0.17687513 0.27608776 0.055889685 -0.041373864 -0.09774546 -0.06330746 -0.088387765 0.022559395
0.13612758 0.10646253 0.15687202 0.16799873 -0.08429461 0.19692105 0.06937213 -0.079477936
-0.03365805 -0.05802324 0.0108077545 0.02737205 -0.10238967 -0.0041686716 -0.012668655 -0.10715973
-0.001880162 0.013775896 0.077969626 0.030377783 0.15092933 0.06680816 0.063039966 0.048655394
0.15222234 0.095515676 -0.03835316 -0.100503966 -0.07013212 -0.0648584 -0.16670041 -0.18271168
-0.044868805 -0.06539388 0.11686094 0.123806685 -0.12970416 -0.18449382 -0.19252765 -0.2051791
0.21677537 -0.034539416 0.01588871 -0.010431214 -0.23776357 -0.037345815 -0.047577314 -0.05553121
0.119588345 0.09294142 -0.12011215 0.040850516 -0.060192026 0.18452723 -0.07067515 0.17358944
-0.20741086 -0.121405594 -0.081175864 -0.23138292 0.19741021 0.30651033 0.18711606 0.24664931
-0.23196816 -0.03234404 -0.1895041 -0.20319612 -0.031096227 0.014885912 0.019107953 0.15901156
0.091533735 0.19479772 0.14858852 -0.021130718 0.006051189 -0.11156351 0.104457445 0.030068478
0.1804415 0.22304505 0.18165678 0.26571247 -0.0615915 0.08237466 -0.062342558 0.097881384
00000000: a3ec af3d eb01 bc3c 4389 c93d 1374 af3d
00000010: 01fd bf3d 281d 153d d7d9 533d 83c7 da3c
00000020: 11e0 aebd f407 bf3d 9a4e e8bd 16d1 ad3c
00000030: 2b75 553b 37bf b83a 6409 743d f900 b53d
00000040: 1d09 6e3e 7794 aa3e ddd1 b23d 061f d13d
00000050: 4a62 55bc 86e2 b7bd fba6 b6bd 1696 7b3c
00000060: 43f6 afbc 54c7 1c3d eb36 1f3d 6f81 d9bc
00000070: deb9 22be 9ee0 b73d 92bb a8bb 8917 4e3e
00000080: 5fac 093e 4a6c 283e 41a2 4e3c 1cfd 1b3d
00000090: bb63 0cbe fa0e 04be 89df b83d 8531 333d
000000a0: 322b ec3d e498 083e cb2d b8bb 1c67 d33c
000000b0: c798 80bd 4d91 d53a 4f8f 1b3d 1552 a6bd
000000c0: 2afa 13be d122 98be eb0a 52be 6d4a ae3c
000000d0: 6f18 253e 1602 243e 8be4 d43d 8df7 da3c
000000e0: 24ae fdbd 9ca0 9bbe c3bb 1dbe c7ff 5fbe
000000f0: e5da 70bd 58f2 c2bd 8c00 b7bc 51cf 27be
00000100: 8872 30be 9d35 a6bd ec73 d13c 89bc d0bd
00000110: a7f6 503d c1d8 b53d 8e71 02bd 045e 1cbe
00000120: b7e4 9f3c c39e ec3c 7684 7dbd 4bed 573d
00000130: 0c4a a13c c5fa 213d 7ccc 923d 7afe 94bd
00000140: aa83 073e 8224 5a3e b7ad 5d3d 67a1 01bd
00000150: edd5 14be 3cde 0bbe f7d0 37be 1872 0dbe
00000160: 0453 bd3d 072a 97bc 007d 003e 54cd f3bc
00000170: c2ec 003e d40d 123e 7bfb 633e c9c9 923d
00000180: 099a 713d 28b3 a23d 9635 2e3e 7baa c53d
00000190: fd9e e1bd 70ba c5bd c878 abbd 160d 4bbe
000001a0: a390 3ebd 8d82 8c3d ab9e 9f3d 82ef 133d
000001b0: edfc 3cbe ddef 7fbe 0ff6 e3bd f9a1 28be
000001c0: 940f 38be 1fca 263d 57d0 9b3d 4b6d 13be
000001d0: eb87 2c3c 25e1 183e 8edd e73d af27 a83d
000001e0: 546c 3ebe dc4b 84bd bb53 32bd 9d10 1dbe
000001f0: 94d5 d93c 0a07 b8bd 5e47 063e fac1 a03d
00000200: 055f 923d 7c44 d43d 0376 f13c d14d b2bc
00000210: dbad f1bd e113 0fbe ba62 443c 9ac9 05bd
00000220: 651a 463d a935 453e 2da9 8f3d de28 523d
00000230: 00a8 08bd eb40 53bc 6652 05be e43d e9bd
00000240: a992 e93c 269c 0f3e c992 de3d fa77 85bd
00000250: dfb1 7f3d 91c5 283e f6fe ce3d b9a9 b7bd
00000260: c465 a7bc f836 c23d 7e41 373d 9834 563d
00000270: 7aa5 393e 97b6 8c3e 9288 863d da50 943b
00000280: c11e 353e 605b 8d3e 95ec 643d a477 29bd
00000290: c62e c8bd 57a7 81bd a504 b5bd 7bce b83c
000002a0: 0765 0b3e 0709 da3d 0fa3 203e dc07 2c3e
000002b0: a7a2 acbd aca5 493e fa12 8e3d 54c5 a2bd
000002c0: 06dd 09bd c7a9 6dbd 0213 313c 593b e03c
000002d0: adb1 d1bd 5a99 88bb 3190 4fbc 8f76 dbbd
000002e0: c56f f6ba 4cb4 613c 8aae 9f3d d4da f83c
000002f0: 388d 1a3e b7d2 883d 191b 813d e14a 473d
00000300: 2ce0 1b3e b99d c33d 3418 1dbd 06d5 cdbd
00000310: 6ea1 8fbd 7bd4 84bd 83b3 2abe c518 3bbe
00000320: 5ac8 37bd 3aed 85bd ca54 ef3d 5c8e fd3d
00000330: 2bd1 04be f3eb 3cbe f825 45be 781a 52be
00000340: 5dfa 5d3e 3479 0dbd 0a29 823c afe7 2abc
00000350: 4b78 73be edf7 18bd 6ee0 42bd b274 63bd
00000360: bcea f43d 1258 be3d 5cfd f5bd df52 273d
00000370: ea8b 76bd b5f4 3c3e 22be 90bd 6ec1 313e
00000380: 8363 54be 7fa3 f8bd 883f a6bd a5ef 6cbe
00000390: e725 4a3e ecee 9c3e 5a9b 3f3e a391 7c3e
000003a0: 1089 6dbe 2f7b 04bd 5d0d 42be a512 50be
000003b0: 84bd febc 0ae4 733c 4888 9c3c edd3 223e
000003c0: 0a76 bb3d 0e79 473e 9727 183e 541a adbc
000003d0: 0d49 c63b 697b e4bd c9ed d53d 2b52 f63c
000003e0: a8c5 383e ec65 643e 3c04 3a3e 770b 883e
000003f0: 5e47 7cbd 0cb4 a83d e95a 7fbd 0976 c83d

DecList.1.conv.bias f4 [8]
0.030465132 -0.11306897 0.03303128 -0.1718822 0.028806036 0.17414668 0.15935147 0.06611992
00000000: 0392 f93c b490 e7bd cf4b 073d e301 30be
00000010: a3fa eb3c 8253 323e 082d 233e e169 873d

DecList.1.bn.weight f4 [8]
1.0723075 1.3142425 1.1320994 1.2955357 1.214612 1.1574937 1.0283 1.4119734
00000000: 5f41 893f 1939 a83f a2e8 903f 1dd4 a53f
00000010: 6878 9b3f c128 943f 569f 833f 8bbb b43f

DecList.1.bn.bias f4 [8]
-0.14242437 0.1854143 0.0071032746 0.02017164 0.016914163 0.027045164 -0.20465457 0.06276803
00000000: b2d7 11be 3fdd 3d3e 96c2 e83b ff3e a53c
00000010: 928f 8a3c d28d dd3c f890 51be 868c 803d

DecList.1.bn.running_mean f4 [8]
0.32273278 0.040580887 0.10273442 -0.19423652 0.31339216 0.43412778 0.38325894 0.49509653
00000000: 3b3d a53e 2538 263d 6c66 d23d f0e5 46be
00000010: f074 a03e ff45 de3e 843a c43e 4b7d fd3e

DecList.1.bn.running_var f4 [8]
0.4594072 0.5715519 0.6888068 0.5046168 0.83088785 0.59166056 0.62697405 0.440783
00000000: 6c37 eb3e 3a51 123f a455 303f 912e 013f
00000010: 11b5 543f 1177 173f 5f81 203f 4fae e13e

DecList.2.conv.weight f4 [8, 4, 4]
-0.06627367 0.19205728 -0.0288496 -0.038302105 -0.0048922664 0.05039968 0.13691501 -0.07898676
0.16463041 0.38472995 0.19525643 0.030603105 -0.13768151 -0.05382284 -0.016931096 -0.026562903
-0.01676805 -0.2200632 -0.07387601 -0.03371797 0.06543961 0.023931438 0.10732176 -0.022651518
-0.10370072 -0.18700315 -0.28565225 -0.25177735 0.15857825 -0.017615862 0.2685963 -0.25831288
0.012087998 -0.007838842 0.18839152 0.08261051 -0.02368535 0.19669499 -0.037101787 0.09103529
0.12931533 0.33022314 0.31771314 0.11299016 -0.12984698 -0.04582204 -0.039905593 -0.02858927
-0.048011106 0.20641391 -0.04537999 -0.17503767 0.04586886 -0.048966944 0.20691116 0.11246802
-0.0047537847 -0.021655746 -0.13273402 -0.12697072 0.19960447 -0.19065784 0.2560324 0.00534562
-0.040204924 -0.4144851 0.02751951 -0.13685645 0.24987054 0.27032864 0.107711025 -0.03699898
-0.023005791 -0.019557433 0.00033229875 -0.044446677 -0.028570794 0.04389839 0.11649382 0.10455397
0.18028986 0.32294807 0.30616015 0.1744868 -0.25265017 -0.089785405 -0.091732785 0.024692398
0.030426497 0.3345699 0.36118734 0.08583925 0.12611791 -0.2366591 0.2443998 0.15426286
-0.22677097 -0.29388407 -0.1841189 -0.13756126 0.3073333 0.38117844 0.11684112 0.1631968
-0.14942281 -0.07646158 -0.0017643404 -0.021398474 0.022797197 -0.31153077 0.0076361597 0.060350128
-0.0885528 -0.016111018 -0.114427134 -0.049853977 0.11211552 0.25177202 0.15805565 0.23502961
0.033222042 0.036209915 -0.029528493 0.027144127 -0.15149643 -0.15147121 -0.11686055 -0.06362549
00000000: 7dba 87bd aaaa 443e ff55 ecbc abe2 1cbd
00000010: 4e4f a0bb e56f 4e3d 7333 0c3e cfc3 a1bd
00000020: e094 283e 53fb c43e 4df1 473e 5db3 fa3c
00000030: 62fc 0cbe 5775 5cbd 15b3 8abc 729a d9bc
00000040: 265d 89bc 3f58 61be 4e4c 97bd db1b 0abd
00000050: 3405 863d dd0b c43c 83cb db3d ad8f b9bc
00000060: 0b61 d4bd c17d 3fbe 0341 92be f6e8 80be
00000070: 5662 223e 244f 90bc 7485 893e 9641 84be
00000080: bd0c 463c 7d6e 00bc b5e9 403e b32f a93d
00000090: c707 c2bc 696a 493e 0bf8 17bd b670 ba3d
000000a0: 3d6b 043e 0213 a93e 4cab a23e 6367 e73d
000000b0: 9bf6 04be e4af 3bbd 0c74 23bd 0b34 eabc
000000c0: 4ba7 44bd 2b5e 533e 5ee0 39bd 133d 33be
000000d0: fce0 3b3d 9091 48bd 85e0 533e a255 e63d
000000e0: a3c5 9bbb 6467 b1bc 6deb 07be 9d04 02be
000000f0: 1d65 4c3e cf3b 43be ae16 833e 502a af3b
00000100: ebad 24bd 6437 d4be 9870 e13c 1924 0cbe
00000110: 10de 7f3e 8468 8a3e 9997 dc3d 3e8c 17bd
00000120: a476 bcbc e936 a0bc 6238 ae39 b80d 36bd
00000130: 4c0d eabc ccce 333d 5094 ee3d 6420 d63d
00000140: e89d 383e 7359 a53e 06c1 9c3e abac 323e
00000150: 5d5b 81be 69e1 b7bd 66de bbbd b647 ca3c
00000160: fd40 f93c bf4c ab3e 8ced b83e 7dcc af3d
00000170: 0e25 013e c356 72be f143 7a3e 15f7 1d3e
00000180: a636 68be f977 96be aa89 3cbe dcdc 0cbe
00000190: ca5a 9d3e d229 c33e 664a ef3d 101d 273e
000001a0: 4b02 19be e497 9cbd 7141 e7ba da4b afbc
000001b0: 30c1 ba3c f680 9fbe c038 fa3b b231 773d
000001c0: 2c5b b5bd 41fb 83bc c658 eabd af33 4cbd
000001d0: d29c e53d 43e8 803e 57d9 213e 9aab 703e
000001e0: d613 083d d950 143d bde5 f1bc 5c5d de3c
000001f0: e121 1bbe 451b 1bbe 9654 efbd 154e 82bd

DecList.2.conv.bias f4 [4]
0.21966986 0.104608916 -0.17658764 -0.15232024
00000000: 23f1 603e 333d d63d 64d3 34be d6f9 1bbe

DecList.2.bn.weight f4 [4]
0.6090927 1.2513018 1.2153164 1.1136063
00000000: 80ed 1b3f a82a a03f 7d8f 9b3f a78a 8e3f

DecList.2.bn.bias f4 [4]
0.14578764 0.30243295 0.33071387 0.10094954
00000000: 5b49 153e 7ed8 9a3e 5453 a93e a2be ce3d

DecList.2.bn.running_mean f4 [4]
0.0072660223 1.0870422 0.13370317 -0.20242879
00000000: d017 ee3b 3324 8b3f 7ce9 083e 7e49 4fbe

DecList.2.bn.running_var f4 [4]
1.385165 1.5143558 1.7390308 1.3125719
00000000: 164d b13f 69d6 c13f 9098 de3f 5b02 a83f

DecList.3.conv.weight f4 [4, 2, 4]
0.22019348 0.37255472 0.3891584 0.23505291 0.10897759 0.5126446 0.5668537 0.16562684
-0.12712471 -0.19128938 -0.20586266 -0.14391354 -0.17851672 -0.16562107 -0.12525739 -0.13479935
0.021807307 0.258019 0.332054 0.09724018 0.06377321 -0.05375901 -0.305788 -0.19280668
-0.090325154 -0.07911426 -0.07458659 -0.08005748 0.23880807 0.23267324 0.22517726 0.2280148
00000000: 667a 613e 7ebf be3e c53f c73e b6b1 703e
00000010: a52f df3d ad3c 033f 531d 113f 159a 293e
00000020: fb2c 02be 5de1 43be a9cd 52be 125e 13be
00000030: 16cd 36be 9298 29be 7943 00be d708 0abe
00000040: 3da5 b23c 111b 843e fb02 aa3e dc25 c73d
00000050: 879b 823d 6832 5cbd 3f90 9cbe 1d6f 45be
00000060: 65fc b8bd a806 a2bd dbc0 98bd 2df5 a3bd
00000070: 1a8a 743e e541 6e3e de94 663e b67c 693e

DecList.3.conv.bias f4 [2]
-0.32624874 -0.13972385
00000000: 130a a7be c513 0fbe

DecList.3.bn.weight f4 [2]
0.7123068 0.8218197
00000000: bd59 363f c762 523f

DecList.3.bn.bias f4 [2]
0.025880609 0.05028912
00000000: 9203 d43c f7fb 4d3d

DecList.3.bn.running_mean f4 [2]
0.58996487 0.71603745
00000000: f007 173f 3b4e 373f

DecList.3.bn.running_var f4 [2]
0.84906256 0.5358646
00000000: 2a5c 593f 6c2e 093f

bottleneck.0.weight f4 [32, 32, 1]
-0.011099108 0.25662583 -0.2502886 0.17607082 -0.12898855 0.13415372 -0.075322635 -0.1539605
-0.04730129 0.014078689 -0.10426924 0.18965317 -0.004830323 -0.05759531 0.06583099 0.012298419
0.0002204335 -0.010835336 -0.2336443 -0.09926676 0.12139485 0.1792685 0.04487939 0.014793217
-0.033887904 -0.33116016 -0.094910815 0.10829277 0.045385327 0.01971288 0.07321137 -0.13214742
0.059558686 -0.07138879 -0.16521853 -0.119126126 -0.0291179 -0.051912613 -0.103970736 -0.12793152
-0.1541925 0.05315475 -0.0024378991 0.024590567 0.08866747 0.08510664 0.020739224 0.2692855
-0.1456518 -0.092831545 -0.0080455085 -0.14796065 -0.08451328 0.06322369 0.045568686 -0.14409621
0.25661027 -0.15320678 0.08338032 -0.08952299 -0.010228517 0.20847853 0.09184045 0.037776478
-0.0871419 -0.036292106 0.004380839 -0.2800739 0.15669623 -0.17142808 0.016925022 -0.051984474
-0.040429108 0.17374094 -0.03645518 0.018226292 0.07590819 0.14525872 0.0068369065 -0.118001215
0.066766046 -0.13813311 -0.09685905 0.114927046 -0.011233361 -0.024716891 0.13590744 0.20827453
-0.18167128 -0.112725675 -0.056032903 0.28429198 0.27311313 0.11244884 0.26256186 -0.108492695
0.10818413 -0.0075226096 0.15661117 -0.09964527 0.04798299 0.11170683 -0.013964332 0.00046748173
0.016305603 0.058447864 0.01952936 0.07881346 -0.06780208 -0.11357938 0.088879064 -0.06099408
-0.14365402 0.025508627 0.035229642 -0.099055335 -0.23528908 0.14846574 0.08973305 -0.14145638
-0.15565123 0.060343713 -0.0032671136 -0.27996385 -0.08609596 0.26387036 0.20814423 0.13467477
-0.13530248 0.1902709 -0.17846945 0.05668946 -0.23175074 -0.1841128 -0.13264872 0.16154684
0.21795674 -0.13509898 0.12500054 -0.054374572 -0.32005122 0.031244446 0.08347734 0.00015951485
0.059189744 0.1692698 -0.32731667 0.10763272 0.1193411 -0.074384354 0.13230821 -0.2660189
0.082122855 -0.097077385 0.09992781 -0.029491741 -0.16350967 0.1279875 -0.096557215 -0.21327846
0.24851298 -0.11402864 -0.01728817 -0.04882203 0.08241737 0.21986917 0.04918503 0.09161594
0.07994958 0.027195133 0.083220355 0.11095933 -0.099002354 0.07127704 0.11210533 0.084877856
0.17206597 0.21448836 0.0025196539 -0.04480404 -0.07064401 0.16541663 0.043236036 -0.03331186
-0.16467227 0.22974432 -0.16520405 0.08759519 -0.21893395 -0.09378823 -0.23164223 0.18729404
0.04806068 0.11804041 0.14209175 0.21282248 0.16564639 0.19245915 0.14675976 -0.11890349
0.15794227 0.094017155 0.16138946 -0.03019804 -0.19143225 -0.11723225 -0.084202096 0.05510258
-0.12029317 0.020379564 -0.049066063 0.02528488 -0.15866546 0.26550466 0.042577177 0.03513818
0.024698548 -0.19431101 0.050976783 0.112229325 0.047709536 -0.15138008 -0.0039067133 -0.03778145
-0.0034668646 -0.070564315 0.27197516 0.17658922 0.2597462 -0.0138085075 0.06812662 -0.02838364
-0.013885214 0.0041403007 0.0383239 -0.0750318 -0.13767569 0.1445588 0.020386973 -0.12513807
0.16686448 -0.02309811 0.08950927 -0.0895375 -0.13232872 0.20965162 -0.08567034 -0.10074979
0.20360367 -0.12832528 -0.040960692 0.038939282 -0.010721824 0.094724774 0.16227928 0.069709346
00000000: 08d9 35bc 7664 833e d425 80be e94b 343e
00000010: 9315 04be 985f 093e c142 9abd d2a7 1dbe
00000020: ffbe 41bd 4daa 663c 1c8b d5bd 7134 423e
00000030: b047 9ebb 0fe9 6bbd 66d2 863d 4f7f 493c
00000040: 2b24 6739 b186 31bc 7440 6fbe 5f4c cbbd
00000050: dd9d f83d 2992 373e 74d3 373d 405f 723c
00000060: 0bce 0abd d38d a9be 9a60 c2bd 9ac8 dd3d
00000070: f7e5 393d e87c a13c d8ef 953d a751 07be
00000080: cff3 733d 4934 92bd 0c2f 29be 66f8 f3bd
00000090: aa88 eebc 52a2 54bd 9cee d4bd 7b00 03be
000000a0: a4e4 1dbe ccb8 593d 29c5 1fbb 2872 c93c
000000b0: 4a97 b53d 644c ae3d 4ee5 a93c cadf 893e
000000c0: bf25 15be 771e bebd 4fd1 03bc ff82 17be
000000d0: 4c15 adbd 6c7b 813d 3ba6 3a3d f58d 13be
000000e0: 6c62 833e 3de2 1cbe 4dc3 aa3d d457 b7bd
000000f0: 8395 27bc 657b 553e d916 bc3d 82bb 1a3d
00000100: 7477 b2bd 08a7 14bd 248d 8f3b d965 8fbe
00000110: fa74 203e d88a 2fbe 58a6 8a3c aced 54bd
00000120: fe98 25bd 25e9 313e 0752 15bd 4e4f 953c
00000130: c175 9b3d b4be 143e 2108 e03b 9faa f1bd
00000140: a3bc 883d c472 0dbe 0a5e c6bd df5e eb3d
00000150: 220c 38bc 147b cabc 522b 0b3e eb45 553e
00000160: 0908 3abe b8dc e6bd c282 65bd b88e 913e
00000170: 7cd5 8b3e 944b e63d 826e 863e 6b31 debd
00000180: a48f dd3d 3980 f6bb ae5e 203e d212 ccbd
00000190: d089 443d 8dc6 e43d a7ca 64bc 5618 f539
000001a0: 5493 853c 0767 6f3d 09fc 9f3c f468 a13d
000001b0: d1db 8abd 4e9c e8bd 3a06 b63d eed4 79bd
000001c0: 0a1a 13be 78f7 d03c f54c 103d 86dd cabd
000001d0: 9fef 70be 6707 183e f6c5 b73d f1d9 10be
000001e0: 0963 1fbe f82a 773d 121d 56bb 6c57 8fbe
000001f0: 1453 b0bd 041a 873e c323 553e 2fe8 093e
00000200: bc8c 0abe 60d6 423e b2c0 36be 3533 683d
00000210: 1150 6dbe 1188 3cbe 11d5 07be 896c 253e
00000220: 0d30 5f3e 6357 0abe 2400 003e dfb7 5ebd
00000230: c1dd a3be 5af4 ff3c 2bf6 aa3d 7143 2739
00000240: f270 723d 1055 2d3e 0d96 a7be 8b6e dc3d
00000250: 1b69 f43d d356 98bd ce7b 073e a133 88be
00000260: 0730 a83d 82d0 c6bd f4a6 cc3d aa98 f1bc
00000270: 146f 27be 280f 033e cabf c5bd ab65 5abe
00000280: 307a 7e3e d987 e9bd ec9f 8dbc 9cf9 47bd
00000290: 70ca a83d 6225 613e 3e76 493d 23a1 bb3d
000002a0: 9bbc a33d 54c8 de3c 6f6f aa3d a53e e33d
000002b0: bfc1 cabd b2f9 913d 7b97 e53d 71d4 ad3d
000002c0: 1032 303e d6a2 5b3e c720 253b 7184 37bd
000002d0: cfad 90bd fa62 293e 4518 313d 0472 08bd
000002e0: d99f 28be 1842 6b3e 402b 29be 1b65 b33d
000002f0: 3930 60be 0b14 c0bd 9f33 6dbe 02ca 3f3e
00000300: 47db 443d 2cbf f13d 8080 113e 23ee 593e
00000310: 359f 293e 0314 453e 3148 163e ac83 f3bd
00000320: 9ebb 213e 118c c03d 4743 253e e161 f7bc
00000330: d106 44be 7617 f0bd 2672 acbd 3eb3 613d
00000340: 445c f6bd 0bf3 a63c 7ff9 48bd 3d22 cf3c
00000350: 3379 22be 3af0 873e 6865 2e3d 0ded 0f3d
00000360: 9c54 ca3c 77f9 46be 08cd 503d 7dd8 e53d
00000370: 136b 433d 6103 1bbe e303 80bb b9c0 1abd
00000380: 5634 63bb 0684 90bd 5440 8b3e ced3 343e
00000390: 74fd 843e 143d 62bc f885 8b3d cf84 e8bc
000003a0: cf7e 63bc 5cab 873b 86f9 1c3d 46aa 99bd
000003b0: dbfa 0cbe 3907 143e 9502 a73c 3224 00be
000003c0: 86de 2a3e 3f38 bdbc a350 b73d 705f b7bd
000003d0: 2e81 07be eaae 563e ee73 afbd e855 cebd
000003e0: 7b7d 503e b467 03be 66c6 27bd cc7e 1f3d
000003f0: 97aa 2fbc 10ff c13d 8a2c 263e c6c3 8e3d

bottleneck.0.bias f4 [32]
-0.09101307 0.07884702 -0.008664145 0.10970012 0.04789962 -0.14700432 0.24773502 0.12812439
0.29827252 -0.1457639 0.24801491 0.18559118 0.028682912 0.06525547 0.1384564 0.094371304
-0.15443398 0.32039422 -0.04966808 -0.033174936 -0.06818051 -0.12138119 0.059599593 0.11687552
-0.04064131 0.19166356 0.23583141 0.12045743 0.06813462 0.034741066 -0.019361617 -0.12107075
00000000: 0f65 babd 8c7a a13d 0ff4 0dbc 75aa e03d
00000010: 6432 443d 4d88 16be 40ae 7d3e 0a33 033e
00000020: 2db7 983e 2243 15be 9ff7 7d3e 9d0b 3e3e
00000030: 6df8 ea3c a9a4 853d 84c7 0d3e be45 c13d
00000040: f123 1ebe b60a a43e c270 4bbd 71e2 07bd
00000050: 39a2 8bbd b496 f8bd b41e 743d 6f5c ef3d
00000060: 8177 26bd 7443 443e ca7d 713e 63b2 f63d
00000070: 2a8a 8b3d a64c 0e3d 419c 9ebc f1f3 f7bd
