checkpoints/best_UNet_emb_snr_-2.pth (torch, 66906 bytes, 62 tensors)

EncList.0.conv.weight f4 [4, 2, 3]
0.23231803 0.42359847 0.017553546 0.26886672 -0.22419453 -0.11061796 0.015872156 -0.16675785
0.031857807 -0.15690985 -0.04561782 -0.3464469 -0.13027564 0.41634867 -0.13414554 0.30556196
0.31340235 0.2326515 0.11597425 -0.07897584 0.24380848 0.06491676 0.0049621253 0.2959693
00000000: c7e4 6d3e e6e1 d83e 74cc 8f3c e6a8 893e
00000010: 4093 65be ab8b e2bd 5306 823c 92c2 2abe
00000020: 557d 023d faac 20be c0d9 3abd 7d61 b1be
00000030: fa66 05be a72b d53e 735d 09be 9e72 9c3e
00000040: 4676 a03e 323c 6e3e e883 ed3d 16be a1bd
00000050: eea8 793e 14f3 843d 5399 a23b 4a89 973e

EncList.0.conv.bias f4 [4]
-0.04093601 0.2042595 -0.06436932 -0.18673483
00000000: 85ac 27bd 6729 513e 10d4 83bd 6a37 3fbe

EncList.0.bn.weight f4 [4]
0.29731792 0.80945164 0.94848615 0.7832851
00000000: 0e3a 983e 3938 4f3f fdcf 723f 5f85 483f

EncList.0.bn.bias f4 [4]
1.0650538 -0.24109347 0.39009207 0.3075618
00000000: af53 883f 35e1 76be 26ba c73e be78 9d3e

EncList.0.bn.running_mean f4 [4]
-0.039259903 0.20177852 -0.06056604 -0.18458796
00000000: fece 20bd 079f 4e3e 1914 78bd a004 3dbe

EncList.0.bn.running_var f4 [4]
0.42425698 0.31343073 0.7451313 0.21528208
00000000: 3638 d93e fe79 a03e edc0 3e3f e872 5c3e

EncList.1.conv.weight f4 [8, 4, 3]
0.17726965 0.047786653 -0.15152746 -0.026607292 0.11902911 -0.40864775 0.0024505334 0.016148673
0.32621196 0.044920392 0.09745895 -0.028924989 0.013416494 -0.3193342 0.34587997 0.0076277764
0.13059148 0.10572423 -0.15693973 -0.24682528 -0.29052752 0.07009765 0.010100726 -0.07460789
-0.4977949 -0.07297591 0.19348425 -0.01126145 -0.15114595 -0.0386037 0.053726006 -0.011212143
0.11316715 -0.09655696 -0.16202225 0.044021856 -0.14016725 0.20755926 0.36957923 -0.02709478
0.12440955 0.052970517 0.09643714 0.13661814 -0.12931015 -0.0480136 0.1208129 0.15534733
0.042179354 -0.083079524 0.2448164 0.21926822 0.25273857 -0.058822002 -0.13774215 -0.16843191
0.15408851 -0.17697518 -0.15397279 0.11102447 -0.0022284598 -0.23446845 -0.15270853 0.037042394
0.2061627 0.15808819 -0.075767234 0.03692745 -0.09980846 -0.02715984 -0.19582461 0.08761017
-0.37740737 -0.7356293 -0.45952997 0.07791044 -0.13721669 -0.016379222 -0.1270309 0.060303945
-0.14370456 -0.057515506 -0.19060542 0.027463645 0.30795598 0.50352895 0.364222 0.02560152
-0.028392423 0.07882875 0.037167955 -0.15739381 0.14825869 0.08962895 0.09414092 0.047034312
00000000: 2d86 353e f0bb 433d 042a 1bbe 89f7 d9bc
00000010: 89c5 f33d 473a d1be 2199 203b 394a 843c
00000020: 4105 a73e 72fe 373d 8f98 c73d 19f4 ecbc
00000030: dbd0 5b3c c67f a3be 2e17 b13e 6df2 f93b
00000040: c6b9 053e f285 d83d cfb4 20be c4bf 7cbe
00000050: 06c0 94be 5b8f 8f3d 847d 253c 05cc 98bd
00000060: f9de febe 6574 95bd bc20 463e f281 38bc
00000070: 01c6 1abe ea1e 1ebd cd0f 5c3d 23b3 37bc
00000080: 2ec4 e73d a8bf c5bd 29e9 25be 4350 343d
00000090: 0188 0fbe 6a8a 543e 7d39 bd3e dff5 ddbc
000000a0: 6fca fe3d 9df7 583d d680 c53d a0e5 0b3e
000000b0: e169 04be e9a9 44bd c16c f73d 5f13 1f3e
000000c0: 42c4 2c3d 9925 aabd 26b1 7a3e d987 603e
000000d0: f366 813e 57ef 70bd 470c 0dbe 6a79 2cbe
000000e0: 61c9 1d3e fb38 35be 0bab 1dbe cc60 e33d
000000f0: 5a0b 12bb 7f18 70be a05f 1cbe c4b9 173d
00000100: 511c 533e dfe1 213e da2b 9bbd 3d41 173d
00000110: 6168 ccbd 507e debc 3f86 48be f66c b33d
00000120: 8a3b c1be 3452 3cbf 8347 ebbe 828f 9f3d
00000130: 8882 0cbe b82d 86bc 6314 02be 4501 773d
00000140: 4a27 13be 6195 6bbd 112e 43be 70fb e03c
00000150: 68ac 9d3e 46e7 003f 4e7b ba3e 47ba d13c
00000160: 3a97 e8bc f870 a13d 6d3d 183d d82b 21be
00000170: 20d1 173e 628f b73d f4cc c03d 0da7 403d

EncList.1.conv.bias f4 [8]
0.19770546 -0.19546953 -0.21028344 -0.009847955 -0.15388376 -0.108600855 0.22466798 -0.22502096
00000000: 4d73 4a3e 2a29 48be 8b54 57be 5159 21bc
00000010: b493 1dbe 206a debd 5d0f 663e e56b 66be

EncList.1.bn.weight f4 [8]
0.90822303 0.6843205 0.781405 0.78758943 0.899968 0.90493953 0.9257078 0.71268433
00000000: 4e81 683f a12f 2f3f 280a 483f 769f 493f
00000010: 4e64 663f 1eaa 673f 30fb 6c3f 7b72 363f

EncList.1.bn.bias f4 [8]
0.22642657 -0.33615848 -0.03170639 0.22926761 0.24293654 -0.19095488 0.028166022 -0.05324339
00000000: 5edc 673e f71c acbe 8fde 01bd 21c5 6a3e
00000010: 5bc4 783e ad89 43be 6ebc e63c be15 5abd

EncList.1.bn.running_mean f4 [8]
0.4701978 -0.5163494 -0.65709937 0.66203064 -0.050921816 -0.5910179 -1.6932967 1.1675112
00000000: c4bd f03e 792f 04bf aa37 28bf d77a 293f
00000010: 6593 50bd f34c 17bf f2bd d8bf 0271 953f

EncList.1.bn.running_var f4 [8]
0.12874354 0.2203076 0.03661138 0.054221783 0.10838279 0.11050099 0.31417346 0.16608225
00000000: 59d5 033e 5198 613e d0f5 153d a917 5e3d
00000010: ccf7 dd3d 584e e23d 58db a03e 7711 2a3e

EncList.2.conv.weight f4 [16, 8, 3]
-0.029284341 -0.20956923 -0.040774517 0.03870654 0.05561191 0.23480311 -9.742005e-05 -0.055108327
-0.0060176607 -0.021008363 0.013576759 0.24033435 -0.014187978 0.03733894 0.15637429 0.10756353
-0.022510106 -0.14473318 0.1367421 -0.11580222 -0.3182788 -0.02145788 0.06254748 0.23704809
-0.26130393 -0.12662181 0.09099982 0.08437617 0.09275193 -0.076402776 0.11171547 -0.021315744
-0.25289953 0.059050333 0.20457944 -0.1310984 -0.12970805 0.0041182474 -0.1842922 0.08471789
-0.13664399 0.17254089 -0.05585455 -0.29082242 0.092742644 0.058012582 0.22605252 -0.07288716
-0.15959844 0.21122435 -0.0721811 0.082859136 -0.1352038 -0.04240935 0.07126476 0.09019379
-0.056685664 0.01798887 0.15909274 0.11019518 0.164173 -0.15085457 0.009323016 0.07588779
-0.16188957 -0.004035147 -0.06624137 0.046138592 -0.07924014 -0.22601965 -0.10501128 0.01955022
-0.0505096 0.22781418 0.17277676 0.047479533 -0.05886984 0.06903113 -0.28669813 -0.12125159
0.034788597 -0.09156472 -0.117846064 -0.1299756 0.16141196 0.07518695 0.056336813 0.027272353
-0.078451835 -0.04850145 -0.22326379 -0.15483885 0.18139502 0.33264083 0.14916028 -0.09141586
0.12489359 0.04933598 0.32338086 -0.18967046 0.21041879 -0.11486074 -0.12831353 0.064989895
0.096336 0.0067024883 0.032359485 0.10501146 0.26026413 0.11922514 -0.050549086 0.18217005
0.08118753 -0.14728601 -0.16207263 0.16779724 -0.10719983 0.1419922 -0.06609319 0.11963355
0.109953135 -0.017200403 0.22975218 -0.14733618 0.087971285 -0.07975483 -0.09706261 0.108074866
0.25008333 0.16650045 -0.17416869 -0.18155827 0.03827757 0.2748588 -0.13173667 0.050776474
0.040029466 -0.17474182 -0.07992588 0.22214627 -0.1457803 -0.038728595 0.14126712 -0.1613003
0.2216834 0.113960005 -0.03719611 0.098552875 0.08307341 -0.0051020146 0.062084526 -0.03078751
0.0028208818 0.117593095 0.1451758 0.03086361 -0.004836788 0.031979334 -0.020335028 -0.25234452
0.14664248 -0.24753234 -0.15789692 -0.2651576 0.15329494 -0.095751524 0.085831515 -0.025315225
-0.11114017 -0.13561925 0.10442254 -0.013609907 0.2607976 -0.08413671 -0.059609484 0.21156865
-0.0035427853 -0.25488552 -0.120032005 -0.15989465 -0.046382714 0.024643315 -0.12932043 0.04173059
-0.1328173 0.082093805 0.3693983 0.071323544 -0.13100742 -0.022174599 -0.14300169 -0.19608684
-0.053311966 0.19919062 0.2664747 0.024428612 0.091889754 0.18259543 0.056818966 0.13026194
0.19371776 0.15806645 -0.12348732 0.09650884 -0.0813807 0.08378133 0.040520158 0.050464798
0.1315312 -0.13162455 -0.01337422 0.24155825 0.27982682 -0.059842076 -0.10344885 -0.0074665067
-0.033198636 -0.12317579 -0.12258879 -0.011290451 -0.18401165 -0.22633284 0.13095088 0.05176264
-0.025750088 -0.10147295 0.16646867 0.01891687 -0.12606747 0.17680043 0.18610923 -0.041203193
0.0020194228 0.038233317 0.11981298 0.045986712 -0.07023969 -0.11873061 0.37019238 0.25430888
0.07458942 0.19671804 0.30342534 -0.099136636 -0.18329638 -0.06440066 0.1901373 0.09680379
0.12559 0.024368774 0.04706154 -0.0071654804 -0.13837644 -0.096639425 -0.21087298 0.19515666
00000000: b7e5 efbc 5199 56be 2e03 27bd c08a 1e3d
00000010: 50c9 633d 3a70 703e fe4d ccb8 45b9 61bd
00000020: cc2f c5bb bb19 acbc 0e71 5e3c 351a 763e
00000030: b174 68bc b7f0 183d 9520 203e 454a dc3d
00000040: 1d67 b8bc ef34 14be 1f06 0c3e b729 edbd
00000050: 70f5 a2be 70c8 afbc e518 803d bcbc 723e
00000060: a1c9 85be 26a9 01be 1d5e ba3d 6acd ac3d
00000070: b9f4 bd3d 0f79 9cbd 15cb e43d 5b9e aebc
00000080: 0c7c 81be c3de 713d 467d 513e a93e 06be
00000090: 30d2 04be 5df2 863b 18b7 3cbe 9380 ad3d
000000a0: 67ec 0bbe 8fae 303e bec7 64bd ade6 94be
000000b0: dbef bd3d 9a9e 6d3d 507a 673e dd45 95bd
000000c0: c66d 23be 324b 583e afd3 93bd 0db2 a93d
000000d0: dd72 0abe 6db5 2dbd 42f3 913d 86b7 b83d
000000e0: 3a2f 68bd 655d 933c 35e9 223e 03ae e13d
000000f0: f81c 283e 9f79 1abe 90bf 183c 0f6b 9b3d
00000100: 61c6 25be 4439 84bb 8ea9 87bd d2fb 3c3d
00000110: a848 a2bd b271 67be 2710 d7bd c827 a03c
00000120: 28e3 4ebd 1f48 693e 64ec 303e e679 423d
00000130: 8021 71bd 3160 8d3d 19ca 92be c152 f8bd
00000140: 7d7e 0e3d 4986 bbbd 4759 f1bd 5318 05be
00000150: 2d49 253e 9efb 993d 6ec1 663d 456a df3c
00000160: 5bab a0bd 75a9 46bd 439f 64be 138e 1ebe
00000170: 9ebf 393e e64f aa3e 79bd 183e 3d38 bbbd
00000180: 36c8 ff3d 8614 4a3d 2d92 a53e f938 42be
00000190: 0678 573e 1c3c ebbd 9f64 03be 6c19 853d
000001a0: cf4b c53d 8ca0 db3b 618b 043d 4010 d73d
000001b0: 5741 853e 4f2c f43d 8f0c 4fbd c98a 3a3e
000001c0: a645 a63d 25d2 16be 5ef6 25be 0ad3 2b3e
000001d0: 968b dbbd 6766 113e de5b 87bd 6f02 f53d
000001e0: 1c2f e13d dce7 8cbc 2844 6b3e 4cdf 16be
000001f0: 4a2a b43d 8056 a3bd c3c8 c6bd 5b56 dd3d
00000200: ec0a 803e 187f 2a3e 4759 32be 69ea 39be
00000210: f1c8 1c3d 4bba 8c3e fae5 06be fefa 4f3d
00000220: f0f5 233d 85ef 32be 2eb0 a3bd 507a 633e
00000230: 6e47 15be e0a1 1ebd 54a8 103e e82b 25be
00000240: f900 633e dd63 e93d f35a 18bd 17d6 c93d
00000250: 6422 aa3d cd2e a7bb 584c 7e3d 1736 fcbc
00000260: 8bde 383b a6d4 f03d f7a8 143e aed5 fc3c
00000270: eb7d 9ebb c3fc 023d a595 a6bc 4d33 81be
00000280: 7229 163e 1e79 7dbe bbaf 21be bdc2 87be
00000290: 59f9 1c3e 6019 c4bd 6fc8 af3d e061 cfbc
000002a0: 759d e3bd c6df 0abe 7cdb d53d 16fc 5ebc
000002b0: 4387 853e de4f acbd 1329 74bd 74a5 583e
000002c0: 132e 68bb 5b80 82be 57d3 f5bd 6cbb 23be
000002d0: cdfb 3dbd c7e0 c93c 936c 04be b2ed 2a3d
000002e0: 4201 08be cc20 a83d c621 bd3e 1412 923d
000002f0: cf26 06be 81a7 b5bc 096f 12be fdca 48be
00000300: a65d 5abd a0f8 4b3e 5f6f 883e 831e c83c
00000310: b230 bc3d 4cfa 3a3e 01bb 683d 6363 053e
00000320: f35d 463e 2cdc 213e ece6 fcbd 6da6 c53d
00000330: edaa a6bd 8c95 ab3d 77f8 253d 2db4 4e3d
00000340: 1db0 063e 96c8 06be 8b1f 5bbc 0c5b 773e
00000350: 7645 8f3e f71c 75bd fedc d3bd 99a9 f4bb
00000360: 4bfb 07bd 9743 fcbd d50f fbbd 95fb 38bc
00000370: 8d6d 3cbe ccc3 67be fd17 063e 1005 543d
00000380: d9f1 d2bc 0dd1 cfbd c376 2a3e 8df7 9a3c
00000390: d517 01be 2c0b 353e 6b93 3e3e aec4 28bd
000003a0: 4b58 043b 8a9a 1c3d 8260 f53d 905c 3c3d
000003b0: d4d9 8fbd 0929 f3bd db89 bd3e c634 823e
000003c0: 56c2 983d 7470 493e 915a 9b3e 2608 cbbd
000003d0: 0cb2 3bbe 7ee4 83bd 5ab3 423e 1141 c63d
000003e0: aa9a 003e 06a1 c73c 9ac3 403d 68cc eabb
000003f0: 8eb2 0dbe e4ea c5bd 16ef 57be 26d7 473e

EncList.2.conv.bias f4 [16]
-0.009305456 -0.14502962 -0.0411776 -0.106491655 0.043692816 -0.04507032 0.15858436 0.031852096
0.1823737 -0.13573353 -0.083850816 0.04087822 0.1189281 0.191295 0.16993621 -0.061668888
00000000: e975 18bc a582 14be d8a9 28bd 4c18 dabd
00000010: 3df7 323d a89b 38bd f063 223e 5877 023d
00000020: 2cc0 3a3e bbfd 0abe fab9 abbd ec6f 273d
00000030: 9390 f33d d6e2 433e c203 2e3e 8498 7cbd

EncList.2.bn.weight f4 [16]
0.98872924 0.9448553 0.90400285 0.8442719 0.71377397 0.7517228 0.92449725 0.97729105
0.8228432 0.8843469 1.0700755 0.8220086 0.93902427 0.9731548 0.93306553 0.80271447
00000000: 5c1d 7d3f 09e2 713f bb6c 673f 3422 583f
00000010: e4b9 363f e870 403f daab 6c3f bf2f 7a3f
00000020: daa5 523f 8f64 623f 3cf8 883f 286f 523f
00000030: e563 703f ac20 793f 62dd 6e3f b27e 4d3f

EncList.2.bn.bias f4 [16]
0.67890483 0.31877404 0.19637606 0.299472 -0.07668143 0.12106235 -0.080301225 0.019209309
-0.14970179 -0.22135982 0.3232178 0.0167077 0.32108396 0.0432813 0.008205456 0.21042202
00000000: b5cc 2d3f 5a36 a33e ce16 493e 6554 993e
00000010: 270b 9dbd 8aef f73d f874 a4bd d75c 9d3c
00000020: 6d4b 19be 26ac 62be ce7c a53e 96de 883c
00000030: 1e65 a43e bc47 313d 2d70 063c df78 573e

EncList.2.bn.running_mean f4 [16]
-0.00049479806 -0.39622766 -0.036311556 -0.04002374 0.523377 0.11802961 0.25232828 -0.2332474
0.7291128 0.008327199 0.010813707 -0.10574212 -0.37257144 0.40913343 0.24158695 0.081941895
00000000: 56b5 01ba 5ade cabe 6dbb 14bd efef 23bd
00000010: 09fc 053f 82b9 f13d 2c31 813e 68d8 6ebe
00000020: 23a7 3a3f ce6e 083c f92b 313c 538f d8bd
00000030: afc1 bebe f079 d13e 9262 773e 27d1 a73d

EncList.2.bn.running_var f4 [16]
0.13683215 0.07131999 0.03671142 0.099520415 0.16505003 0.055489574 0.23766822 0.36861607
0.17739843 0.0773648 0.35467294 0.22078837 0.20587048 0.29736483 0.45758963 0.04952833
00000000: ba1d 0c3e 3710 923d b75e 163d 5cd1 cb3d
00000010: e002 293e 0949 633d 4c5f 733e 3fbb bc3e
00000020: efa7 353e 7071 9e3d b197 b53e 5916 623e
00000030: b6cf 523e 3440 983e 3049 ea3e 38de 4a3d

EncList.3.conv.weight f4 [32, 16, 3]
-0.10804671 -0.028606493 0.0673753 -0.1248086 -0.034345817 0.030422991 0.15073983 -0.06562398
-0.108754255 -0.109422855 0.049508043 -0.031905077 -0.08095926 -0.0452532 -0.07718475 0.035795957
-0.11268595 -0.039991982 -0.03353096 0.1289079 -0.18152156 0.08100361 0.060951743 -0.046251636
-0.016023334 0.058396604 -0.0729535 0.017408926 0.07857648 0.08521407 0.3054949 0.04991234
-0.26557082 -0.06413727 0.061658114 0.11758557 0.0032546697 0.018235939 -0.09668421 -0.071765445
0.08406945 0.045385927 -0.17077635 0.087180845 0.18596424 0.18508814 -0.15353549 -0.12289619
0.038020115 0.11197773 -0.029316233 -0.00010936116 0.03793312 0.07417235 -0.017314501 -0.11288534
-0.13580777 0.072322816 0.19893356 -0.04065502 0.15855536 -0.02612076 -0.060477648 -0.09603694
-0.13216312 0.057591293 0.26633197 0.077437036 0.08692374 -0.041853968 0.032454595 -0.01294931
-0.14091723 0.013596762 -0.08025184 0.06511364 -0.11985375 0.011959611 0.013498953 -0.07816541
-0.14748198 -0.07330214 -0.009986255 0.11512525 0.36728206 0.08839294 -0.028766839 -0.08959884
0.10413659 0.14244483 0.013984866 0.13728 0.1939619 0.1263498 -0.018759968 -0.08440413
0.09269384 -0.08353346 -0.101479545 0.22869752 -0.07034668 0.18520702 -0.036799487 -0.16430728
0.022053996 0.19108908 0.10426299 -0.106437415 0.09355874 -0.033504285 -0.07641707 -0.0449302
-0.06723092 -0.1165352 0.0012144491 0.013851093 -0.13472065 -0.13965043 -0.083490856 0.0736292
0.0031751066 -0.022002911 -0.055714794 -0.03290187 -0.1775199 0.04757907 -0.103124164 0.00092886534
0.17267883 0.030911835 0.13007471 -0.14893505 -0.25820348 -0.14884551 -0.04573928 -0.056554917
0.16949594 -0.062326264 -0.04757113 0.18285254 0.08813226 -0.018637337 -0.010718679 -0.051739704
-0.029102363 0.03410155 0.007793447 0.1262099 -0.06692038 0.16261248 -0.1338706 -0.12818778
0.058947198 -0.21000414 0.09059454 0.2555163 -0.008274868 -0.029862227 0.24568391 0.016912177
-0.17023224 0.029148145 -0.10566599 0.0776257 0.014575853 -0.082645014 -0.30046645 -0.078714445
-0.10638115 0.0232506 0.17145726 -0.013909807 0.076871425 -0.03647738 -0.0018932483 -0.0005351226
0.18835023 -0.11640972 0.05946141 0.042523447 0.17001441 0.060501963 0.017848628 -0.119472764
0.04243603 0.13218349 -0.062885605 0.023895664 0.19967848 0.12841938 -0.003588164 -0.014960775
-0.031627204 -0.081888676 -0.044661585 -0.21930185 -0.009831522 -0.038051553 -0.1150636 0.03684531
0.057825185 0.09465192 0.043183453 0.041107383 0.18767388 -0.117479734 0.007375261 0.014453683
-0.033937633 0.20396368 -0.011379348 -0.092607185 -0.11674724 -0.21051072 -0.10973246 -0.10294344
-0.01814715 -0.045008987 0.011102736 0.02877944 0.046392143 0.0146932155 -0.15079926 -0.111299075
-0.24991225 -0.18524307 0.08752448 0.049736682 -0.2704235 0.092115566 0.15957543 0.18990831
-0.088907614 0.1579504 0.17828016 -0.22973783 0.0721147 -0.029693296 0.14857252 -0.0029119826
0.06641567 -0.012516568 0.1344294 -0.039398484 -0.16559437 -0.1546013 -0.08359254 -0.014074791
-0.028328912 0.055944875 -0.11440997 -0.095453344 0.055941395 -0.094131775 -0.17160377 -0.017499253
00000000: 9847 ddbd 2a58 eabc 10fc 893d a79b ffbd
00000010: 33ae 0cbd a339 f93c 8b5b 1a3e dd65 86bd
00000020: 8dba debd 1719 e0bd f2c8 4a3d e6ae 02bd
00000030: f8cd a5bd 6b5b 39bd 0a13 9ebd c89e 123d
00000040: e4c7 e6bd a2ce 23bd c357 09bd 6f00 043e
00000050: cae0 39be 38e5 a53d 89a8 793d 5b72 3dbd
00000060: 5e43 83bc 4731 6f3d a568 95bd 2a9d 8e3c
00000070: b5ec a03d b784 ae3d d469 9c3e e270 4c3d
00000080: e6f8 87be 675a 83bd 388d 7c3d b4d0 f03d
00000090: 4c4c 553b 8963 953c 5f02 c6bd c3f9 92bd
000000a0: 9b2c ac3d 98e6 393d ffdf 2ebe df8b b23d
000000b0: 696d 3e3e bf87 3d3e 6838 1dbe ffb0 fbbd
000000c0: fbba 1b3d 9554 e53d 9928 f0bc d358 e5b8
000000d0: c25f 1b3d ace7 973d 24d7 8dbc 6e30 e7bd
000000e0: 3111 0bbe fc1d 943d 3db5 4b3e e185 26bd
000000f0: 565c 223e 34fb d5bc 69b7 77bd 04af c4bd
00000100: c555 07be d9e4 6b3d aa5c 883e 4f97 9e3d
00000110: 1305 b23d 116f 2bbd 1cef 043d 5829 54bc
00000120: 9b4c 10be f4c4 5e3c 145b a4bd 4d5a 853d
00000130: e275 f5bd 3ff2 433c b62a 5d3c 3015 a0bd
00000140: 8405 17be 6f1f 96bd 649d 23bc c9c6 eb3d
00000150: 650c bc3e 5c07 b53d 6fa8 ebbc 997f b7bd
00000160: 9145 d53d 0fdd 113e c820 653c 2193 0c3e
00000170: f39d 463e d861 013e 81ae 99bc 13dc acbd
00000180: 45d6 bd3d 9713 abbd 82d4 cfbd af2f 6a3e
00000190: ec11 90bd e9a6 3d3e 0fbb 16bd 2b40 28be
000001a0: 95aa b43c dbac 433e d687 d53d dcfb d9bd
000001b0: ba9b bf3d ca3b 09bd 8e80 9cbd bb08 38bd
000001c0: 5db0 89bd 02aa eebd 262e 9f3a b2ef 623c
000001d0: 36f4 09be 8600 0fbe 41fd aabd e8ca 963d
000001e0: 7315 503b 733f b4bc 3235 64bd 1cc4 06bd
000001f0: c7c7 35be 45e2 423d c332 d3bd 197f 733a
00000200: b8d2 303e d13a fd3c 4e32 053e 6e82 18be
00000210: 3f33 84be f56a 18be 1c59 3bbd 21a6 67bd
00000220: 5890 2d3e d349 7fbd f2d9 42bd b23d 3b3e
00000230: b07e b43d 54ad 98bc 669d 2fbc 03ed 53bd
00000240: 1468 eebc 11ae 0b3d 2c60 ff3b 2b3d 013e
00000250: 8d0d 89bd e383 263e 6015 09be a843 03be
00000260: 9e72 713d 530b 57be a189 b93d 08d3 823e
00000270: 5093 07bc a1a1 f4bc 9094 7b3e 688b 8a3c
00000280: 5c51 2ebe 17c8 ee3c 6967 d8bd 39fa 9e3d
00000290: 8fcf 6e3c ca41 a9bd bdd6 99be 0a35 a1bd
000002a0: 5cde d9bd 0b78 be3c 7e92 2f3e f6e5 63bc
000002b0: c46e 9d3d 4e69 15bd df26 f8ba 7847 0cba
000002c0: e2de 403e 3868 eebd cf8d 733d 112d 2e3d
000002d0: 4218 2e3e e8d0 773d 4937 923c 23ae f4bd
000002e0: 67d1 2d3d 1c5b 073e 2bca 80bd d7c0 c33c
000002f0: 8478 4c3e 5f80 033e 6727 6bbb 0a1e 75bc
00000300: 878b 01bd 40b5 a7bd 11ef 36bd aa90 60be
00000310: 6414 21bc f2db 1bbd 77a6 ebbd 1ceb 163d
00000320: 1ada 6c3d ded8 c13d 22e1 303d 3760 283d
00000330: 952d 403e 3799 f0bd 2cac f13b 24cf 6c3c
00000340: 3002 0bbd dbdb 503e 7270 3abc d6a8 bdbd
00000350: 2d19 efbd 1f90 57be 69bb e0bd 03d4 d2bd
00000360: 55a9 94bc 585b 38bd 40e8 353c dcc2 eb3c
00000370: b005 3e3d d0bb 703c 1f6b 1abe c5f0 e3bd
00000380: ffe8 7fbe 5cb0 3dbe 0940 b33d b1b8 4b3d
00000390: f374 8abe 16a7 bc3d be67 233e 5377 423e
000003a0: 3215 b6bd c0bd 213e 138f 363e 6540 6bbe
000003b0: dfb0 933d 5b3f f3bc 6523 183e f6d6 3ebb
000003c0: f004 883d 4b12 4dbc dca7 093e 4e60 21bd
000003d0: 9291 29be ce4f 1ebe 9132 abbd f499 66bc
000003e0: 0912 e8bc 7426 653d c64f eabd 0b7d c3bd
000003f0: ce22 653d 29c8 c0bd e6b8 2fbe 985a 8fbc

EncList.3.conv.bias f4 [32]
0.118106194 -0.051188897 -0.09073485 -0.013653525 -0.03761326 -0.013876571 -0.07168759 0.10259041
-0.07172366 -0.065758064 -0.005173279 -0.09539207 0.035755888 0.0012933537 -0.05059718 -0.13223304
0.041554485 0.12726821 -0.085101515 -0.14225626 0.10146568 0.052427255 0.011023432 0.09990873
0.04672818 0.10002919 -0.07835654 0.115707316 0.06279025 -0.07281645 0.069913365 -0.1385666
00000000: a9e1 f13d 73ab 51bd 31d3 b9bd 09b3 5fbc
00000010: 5d10 1abd 8f5a 63bc f1d0 92bd ec1a d23d
00000020: dbe3 92bd 2aac 86bd 9c84 a9bb eb5c c3bd
00000030: c474 123d c085 a93a fd3e 4fbd 1968 07be
00000040: 0935 2a3d 9952 023e b449 aebd a0ab 11be
00000050: 3dcd cf3d f6bd 563d a09b 343c f39c cc3d
00000060: 0c66 3f3d 1bdc cc3d 6579 a0bd f5f7 ec3d
00000070: 2d98 803d ca20 95bd bd2e 8f3d 67e4 0dbe

EncList.3.bn.weight f4 [32]
0.97616535 0.86128896 0.9194082 0.88443613 0.94159704 0.9021492 0.9423232 0.88800144
0.97003376 0.97120374 0.90900505 1.1413156 0.9896006 1.0698773 0.98953074 1.031872
1.0243345 0.9846417 0.9286128 0.9051196 0.8816809 0.99978906 1.0094978 1.0650433
0.9072891 0.994591 1.0013617 0.82666177 0.9099018 1.0462079 0.85298175 1.1120406
00000000: f9e5 793f 6f7d 5c3f 565e 6b3f 686a 623f
00000010: 810c 713f 40f3 663f 183c 713f 1054 633f
00000020: 2254 783f cfa0 783f 8eb4 683f a116 923f
00000030: 7756 7d3f bdf1 883f e351 7d3f 6214 843f
00000040: 651d 833f 7a11 7c3f 92b9 6d3f ebb5 673f
00000050: d7b5 613f 2df2 7f3f 3937 813f 5753 883f
00000060: 1944 683f 849d 7e3f 9f2c 803f 1ba0 533f
00000070: 53ef 683f 24ea 853f 035d 5a3f 5957 8e3f

EncList.3.bn.bias f4 [32]
0.014388076 -0.011863524 0.087422855 0.09258194 -0.06099793 -0.06685006 -0.20274125 -0.1252782
0.13428815 -0.08231404 0.034002304 0.054558568 0.06860135 0.03402444 0.10741805 0.15754163
0.09104119 -0.08066015 -0.052893844 0.25912574 -0.085683316 0.10738129 0.32055387 -0.043117233
0.053096093 0.06948291 0.10089487 0.2214165 0.179127 0.12803619 -0.06377677 0.014685462
00000000: f7bb 6b3c 3a5f 42bc c10a b33d 9a9b bd3d
00000010: f7d8 79bd afe8 88bd 679b 4fbe ee48 00be
00000020: d582 093e 4394 a8bd 0046 0b3d ce78 5f3d
00000030: dd7e 8c3d 365d 0b3d fffd db3d 9852 213e
00000040: ce73 ba3d 2631 a5bd 37a7 58bd 21ac 843e
00000050: bc7a afbd b9ea db3d a31f a43e b29b 30bd
00000060: 4a7b 593d 0e4d 8e3d f8a1 ce3d 02bb 623e
00000070: 116d 373e eb1b 033e 659d 82bd 4b9b 703c

EncList.3.bn.running_mean f4 [32]
-0.040557098 0.4153726 -0.30778483 0.32940844 -0.5226645 -0.67393565 0.330117 0.14615583
-0.8456317 -0.70720786 0.28093678 -0.6843911 0.2062049 0.097902976 -0.6598926 -0.3178421
-0.03227625 -0.04673212 0.16454986 -0.5451992 0.12574603 -0.30217046 -0.5236845 -0.41060993
0.018704794 -0.42265335 0.0023944043 0.026248893 0.40752232 -0.47488606 -0.12676899 0.08740992
00000000: 331f 26bd b8ab d43e f995 9dbe 39a8 a83e
00000010: 57cd 05bf 0c87 2cbf 1805 a93e e0a9 153e
00000020: 527b 58bf 930b 35bf f2d6 8f3e 4134 2fbf
00000030: 6127 533e 5b81 c83d b9ee 28bf 33bc a2be
00000040: 1a34 04bd 2e6a 3fbd c27f 283e 2d92 0bbf
00000050: 91c3 003e 16b6 9abe 3010 06bf 773b d2be
00000060: cc3a 993c 0566 d8be 70eb 1c3b eb07 d73c
00000070: c4a6 d03e 4424 f3be bbcf 01be f903 b33d

EncList.3.bn.running_var f4 [32]
0.18354101 0.28039414 0.22373095 0.21665736 0.19405918 0.25402358 0.34545457 0.25123686
0.4311487 0.50181854 0.41293722 0.31283882 0.19866887 0.24389467 0.29858756 0.2906217
0.24139641 0.15289289 0.29344904 0.23589887 0.20478453 0.36505768 0.37779576 0.1702497
0.22733478 0.18780643 0.3380455 0.14222372 0.122410946 0.42073745 0.1307239 0.15512381
00000000: 2df2 3b3e d28f 8f3e ba19 653e 6ddb 5d3e
00000010: 73b7 463e 610f 823e 6cdf b03e 1ea2 803e
00000020: 86bf dc3e 2e77 003f 826c d33e 692c a03e
00000030: da6f 4b3e 86bf 793e 78e0 983e 5ecc 943e
00000040: 9f30 773e f48f 1c3e f43e 963e 798f 713e
00000050: 09b3 513e d7e8 ba3e 726e c13e f055 2e3e
00000060: 73ca 683e 5450 403e 4d14 ad3e 18a3 113e
00000070: 97b2 fa3d e66a d73e 7cdc 053e c7d8 1e3e

DecList.0.conv.weight f4 [32, 16, 4]
-0.1439186 -0.1681076 0.053287152 -0.02764527 -0.040981207 -0.15181614 0.0878247 0.0755742
-0.046299808 -0.04382189 -0.18658338 0.16223282 0.017537415 -0.10767703 -0.07666789 0.02329229
-0.01888274 0.07429197 -0.0343164 -0.06316385 0.016336259 0.06308513 0.021309502 0.007563943
0.0045742868 0.19598873 0.09297995 0.061920926 -0.016084377 0.010571681 -0.03680186 -0.051622614
0.05176442 -0.002882319 0.017021138 -0.09930824 -0.0055859787 0.063442916 0.20917816 0.0030116807
-0.11949871 -0.12521179 0.008581825 0.05734168 0.13749644 0.16279615 -0.090585686 0.021261329
-0.100856915 0.082031585 0.06900766 0.3024616 -0.08528436 0.046703674 0.05266117 0.0051736766
-0.37321702 -0.03966753 -0.055298496 -0.23111072 -0.008229776 -0.1406826 0.11534327 -0.16723706
-0.0015522063 -0.016561769 -0.040343944 0.09609322 -0.036766686 -0.08153145 -0.031852905 -0.057667006
0.03305531 -0.016350089 0.0014157668 0.009166082 -0.14346507 -0.06309572 -0.08522457 -0.052495956
0.047383066 0.04706828 0.106006056 0.12788107 0.14739619 0.006978277 -0.0062390775 -0.052545868
-0.034081217 -0.16816714 -0.13140088 0.034334645 0.115322135 0.08406227 0.06603902 -0.045686994
0.10768777 0.115787484 -0.05791998 -0.12731391 -0.21668908 0.11637307 0.082834765 -0.027552197
0.06753056 -0.03123378 0.07137202 0.03890762 0.25160545 0.17997764 0.1815718 -0.012140918
-0.05833014 -0.101288944 -0.045063592 -0.21319477 0.13116415 0.17207395 -0.0036918893 0.16596496
0.21064648 -0.15280992 -0.042696707 0.07962914 -0.035301328 0.17430665 -0.0070680967 -0.018944727
-0.03236661 -0.07672609 -0.12583114 -0.124852605 -0.09944881 -0.09404236 -0.017591953 0.08546903
0.018774668 -0.036497597 0.06502721 -0.14299531 -0.02433604 -0.26526383 -0.043862775 0.037770454
-0.0573277 -0.06848327 0.1616313 0.097271286 -0.09847985 0.069702685 0.0021672929 0.029614817
-0.19682917 -0.16794032 -0.0104463445 -0.11184223 -0.008769885 -0.15975153 -0.0261273 -0.07263677
-0.059009325 -0.052299846 -0.07134864 -0.11077224 0.038343742 -0.11253448 -0.049563102 -0.162327
-0.018345714 0.024328899 0.09640028 0.06325753 0.10631957 -0.08997551 -0.09305064 -0.08662612
-0.079916194 -0.023560682 0.028137889 -0.02013209 -0.07740525 -0.050158482 0.0003301859 0.085202366
-0.025394918 0.019626446 -0.00952643 0.022838095 -0.09585097 -0.10887592 -0.13407534 -0.15283443
-0.025192358 -0.053660873 0.0905517 0.08546007 0.051623326 0.053306542 -0.012364958 -0.06666166
-0.1957384 0.018030599 -0.079501875 -0.061273117 0.054935817 0.09336301 0.07305775 0.019029781
-0.08773749 -0.013330591 -0.019252788 0.015776081 -0.11737894 -0.14364228 -0.073883414 0.011243671
0.064556606 -0.053624474 0.065598466 0.01304254 0.0499017 0.063984096 0.14210662 0.10457865
0.018422887 -0.14813948 0.06402779 0.061848342 -0.032404624 0.23854142 -0.015091188 -0.106679946
-0.09356832 -0.030042756 -0.18085027 -0.13641217 -0.17308661 0.033667523 -0.029808892 -0.13249016
-0.08323269 0.07882659 0.1573712 0.13085145 -0.041304182 0.07846011 -0.01338439 -0.11010861
-0.001845115 -0.14475022 0.0018389008 -0.051905558 -0.13764066 0.14796014 -0.017732859 0.010752868
00000000: 665f 13be 6624 2cbe a143 5a3d 5578 e2bc
00000010: e9db 27bd b175 1bbe 70dd b33d a5c6 9a3d
00000020: dea4 3dbd 957e 33bd b70f 3fbe 5c20 263e
00000030: a0aa 8f3c c685 dcbd 0e04 9dbd 79cf be3c
00000040: faaf 9abc 6326 983d 5a8f 0cbd 0c5c 81bd
00000050: 9ed3 853c c732 813d 4491 ae3c f4da f73b
00000060: e6e3 953b 45b1 483e 466c be3d cca0 7d3d
00000070: 62c3 83bc d834 2d3c 8cbd 16bd 3c72 53bd
00000080: ee06 543d 4ae5 3cbb ea6f 8b3c 1e62 cbbd
00000090: 960a b7bb 5cee 813d cd32 563e 9e5f 453b
000000a0: bdbb f4bd 8537 00be c89a 0c3c 1cdf 6a3d
000000b0: decb 0c3e 09b4 263e fd84 b9bd 3d2c ae3c
000000c0: 128e cebd 2d00 a83d e353 8d3d 3fdc 9a3e
000000d0: 91a9 aebd 5a4c 3f3d 3db3 573d f287 a93b
000000e0: 4d16 bfbe 6c7a 22bd ad80 62bd 4aa8 6cbe
000000f0: 2fd6 06bc 190f 10be 1839 ec3d 3140 2bbe
00000100: 6773 cbba 8cac 87bc b13f 25bd 86cc c43d
00000110: aa98 16bd f6f9 a6bd 3178 02bd 3d34 6cbd
00000120: 0165 073d 9ff0 85bc 4091 b93a 562d 163c
00000130: 82e8 12be 5438 81bd 388a aebd 0006 57bd
00000140: bf14 423d abca 403d b419 d93d 41f3 023e
00000150: 07ef 163e 08aa e43b 2d71 ccbb 563a 57bd
00000160: bf98 0bbd 0234 2cbe f48d 06be 7ca2 0c3d
00000170: 032e ec3d d728 ac3d 773f 873d 4922 3bbd
00000180: 688b dc3d fd21 ed3d 803d 6dbd 945e 02be
00000190: bee3 5dbe 0155 ee3d 46a5 a93d 25b5 e1bc
000001a0: 764d 8a3d fcdd ffbc 7e2b 923d 995d 1f3d
000001b0: 6ed2 803e 0f4c 383e f5ed 393e b3ea 46bc
000001c0: 96eb 6ebd 9470 cfbd 9a94 38bd bb4f 5abe
000001d0: e54f 063e 2734 303e a0f3 71bb b8f2 293e
000001e0: b6b3 573e 347a 1cbe bee2 2ebd 9a14 a33d
000001f0: 2098 10bd 717d 323e 7e9b e7bb f931 9bbc
00000200: da92 04bd 9122 9dbd e1d9 00be b9b2 ffbd
00000210: d1ab cbbd 4899 c0bd 001d 90bc 630a af3d
00000220: 55cd 993c 817e 15bd fc2c 853d 5d6d 12be
00000230: 605c c7bc a9d0 87be 74a9 33bd 31b5 1a3d
00000240: 73d0 6abd f540 8cbd ad82 253e 2b36 c73d
00000250: ceaf c9bd 48c0 8e3d 2409 0e3b c69a f23c
00000260: 968d 49be 8cf8 2bbe 2527 2bbc 8a0d e5bd
00000270: 90af 0fbc e895 23be eb08 d6bc 96c2 94bd
00000280: c3b3 71bd 5d38 56bd 3c1f 92bd 8edc e2bd
00000290: 540e 1d3d 7a78 e6bd ae02 4bbd 0d39 26be
000002a0: c049 96bc 664d c73c 836d c53d 2a8d 813d
000002b0: 13be d93d 1545 b8bd 5591 bebd 0969 b1bd
000002c0: 1aab a3bd 5502 c1bc 6e81 e63c 0eec a4bc
000002d0: a586 9ebd fb72 4dbd cd1c ad39 947e ae3d
000002e0: 0109 d0bc a4c7 a03c be14 1cbc f516 bb3c
000002f0: 834d c4bd 57fa debd 0c4b 09be a180 1cbe
00000300: 3460 cebc 81cb 5bbd 2b73 b93d b005 af3d
00000310: fb72 533d f657 5a3d 6596 4abc e985 88bd
00000320: a66f 48be e8b4 933c e1d1 a2bd 85f9 7abd
00000330: 6104 613d 1b35 bf3d 4d9f 953d 58e4 9b3c
00000340: b7af b3bd 8d68 5abc 06b8 9dbc d73c 813c
00000350: 5f64 f0bd f616 13be 3050 97bd 6037 383c
00000360: 4136 843d 56a5 5bbd 7d58 863d 61b0 553c
00000370: ba65 4c3d 180a 833d 6684 113e 552d d63d
00000380: 98eb 963c e0b1 17be 0121 833d b054 7d3d
00000390: b6ba 04bd 3444 743e 0841 77bc 047b dabd
000003a0: bfa0 bfbd 3a1c f6bc d030 39be a2af 0bbe
000003b0: 9e3d 31be f5e6 093d c731 f4bc 80ab 07be
000003c0: e775 aabd d66f a13d ea25 213e ecfd 053e
000003d0: 932e 29bd b2af a03d 334a 5bbc 9f80 e1bd
000003e0: c9d7 f1ba 6739 14be 4607 f13a ec9a 54bd
000003f0: acf1 0cbe dd82 173e 8044 91bc cc2c 303c

DecList.0.conv.bias f4 [16]
0.0597952 -0.12247874 0.034240827 -0.042046536 0.09194716 -0.039592892 0.053878907 -0.036409914
0.105877504 0.049291518 0.04458013 0.043334097 -0.099788845 -0.1120499 0.11930275 -0.11728441
00000000: d0eb 743d 22d6 fabd 1c40 0c3d fd38 2cbd
00000010: cb4e bc3d 282c 22bd 21b0 5c3d 9022 15bd
00000020: 4ed6 d83d e7e5 493d a899 363d 187f 313d
00000030: 185e ccbd 6b7a e5bd 0055 f43d cf32 f0bd

DecList.0.bn.weight f4 [16]
1.2287799 1.3934207 0.79651874 1.4659144 1.2811725 1.107512 1.0915264 1.0872947
1.1690156 1.2595301 1.191751 1.2342598 1.174611 1.0911549 1.2434379 1.2611637
00000000: a948 9d3f 9c5b b23f a7e8 4b3f 15a3 bb3f
00000010: 76fd a33f f4c2 8d3f 23b7 8b3f 792c 8b3f
00000020: 4ea2 953f 4838 a13f 4c8b 983f 3afc 9d3f
00000030: a759 963f f7aa 8b3f f928 9f3f d06d a13f

DecList.0.bn.bias f4 [16]
-0.3012963 0.05264911 -0.0062475554 -0.23214667 0.07972827 0.21904494 -0.07453376 -0.1770189
-0.0037593942 -0.115310065 0.047508493 0.27085853 0.033508863 0.033744723 -0.19531679 -0.07702221
00000000: 8243 9abe 98a6 573d 4bb8 ccbb dbb7 6dbe
00000010: 9348 a33d 514d 603e 28a5 98bd 7144 35be
00000020: 2b60 76bb af27 ecbd 4498 423d f8ad 8a3e
00000030: 9740 093d e837 0a3d 2001 48be d2bd 9dbd

DecList.0.bn.running_mean f4 [16]
-0.6045026 -0.50801116 -0.63910234 -0.21133228 -0.15485087 -0.30268246 -0.4998763 -0.7322285
-0.88375896 -0.17453401 -0.60733944 -0.45852175 -0.42539486 -0.36459583 -0.32291678 -0.49496984
00000000: afc0 1abf 050d 02bf 369c 23bf 7d67 58be
00000010: 3a91 1ebe 32f9 9abe c9ef ffbe 5473 3bbf
00000020: 073e 62bf 0bb9 32be 997a 1bbf 5dc3 eabe
00000030: 5bcd d9be 4eac babe 5955 a5be b06c fdbe

DecList.0.bn.running_var f4 [16]
0.6865261 0.7280747 1.3435583 0.6448318 1.0110769 1.0248612 0.47670528 0.6177699
0.93551564 0.9741651 0.635751 0.7024477 0.82629967 0.85692143 0.5018092 0.7212365
00000000: 2dc0 2f3f 1b63 3a3f b8f9 ab3f b213 253f
00000010: f86a 813f a72e 833f b712 f43e 2b26 1e3f
00000020: f47d 6f3f e262 793f 94c0 223f 9dd3 333f
00000030: 6088 533f 345f 5b3f 9176 003f f5a2 383f

DecList.1.conv.weight f4 [16, 8, 4]
-0.018252 0.2102635 0.15932432 -0.0043266905 -0.07442698 0.06530194 0.2074657 0.02906031
-0.08806698 0.18419956 0.37995565 -0.07321043 0.09821037 -0.17790866 -0.022263385 -0.06008627
-0.17966387 -0.08903439 -0.16389027 -0.24930145 -0.017374953 -0.03848842 -0.02186098 -0.010031605
0.013974474 -0.18132219 -0.25089747 -0.37484124 -0.078976594 -0.026836257 -0.06584796 -0.15529093
0.16103835 0.040744726 -0.13794129 0.04300679 -0.038510453 0.054907832 -0.04960596 -0.041152887
0.17749363 0.2166209 -0.112766236 0.11738446 -0.062178563 0.030345423 -0.08772784 -0.226134
0.108679 0.040021863 -0.004856208 0.06642486 -0.11657168 -0.17528155 -0.03925819 -0.1669781
0.040937427 0.18211971 0.08991245 0.13700892 0.0413994 0.109896295 -0.008330028 0.06340567
0.108027995 0.05803703 0.06087269 -0.17834541 -0.14317314 -0.09162982 -0.07327189 0.037705198
-0.00029710366 0.09354275 -0.0025663795 0.10230021 -0.007133043 0.081233844 0.08151847 -0.0023611542
0.30098075 0.13519767 -0.19743071 -0.07302336 -0.24383472 -0.016468002 -0.11405541 -0.07108853
0.19461344 -0.13407451 0.16944878 0.017747106 -0.10511199 -0.06994645 0.038714338 -0.13617735
-0.0322041 -0.14326811 -0.067602076 -0.018471548 0.14868161 -0.090980396 0.07123178 -0.046037763
-0.034948684 0.0005822782 -0.0022915832 0.076032676 -0.13127543 -0.20997745 -0.14368029 -0.22929701
0.18371904 0.17504159 0.09352079 0.056415934 -0.04503261 -0.02279114 0.102383 -0.044648465
0.16917895 0.20785646 0.16501452 0.1679958 0.100374036 0.16146483 0.13999936 0.16001606
0.12100064 0.12757805 0.10367561 0.13058288 -0.20242266 0.008716684 -0.06340998 -0.21455792
-0.13096122 0.0026405833 -0.017821854 0.011557386 0.042672873 0.015177101 -0.01963041 0.08169496
0.060349345 0.1305785 -0.026420452 -0.12153123 0.11876081 -0.0011245428 -0.06416244 -0.08980445
-0.056212112 0.06424743 0.17450394 0.22047743 0.04478914 0.05959855 0.10145141 0.16143936
0.058988772 0.09627218 -0.020857912 0.027845928 -0.06980187 0.010791002 -0.015801039 0.093364485
0.10828617 0.14685343 0.017893506 0.094546065 0.11166238 0.19089265 0.14975151 0.11506546
-0.0124139255 0.14565344 0.04550536 -0.09057914 -0.070525244 -0.04776324 0.06652346 0.022034176
0.060970273 -0.008397053 0.06847464 0.0258457 -0.19639938 -0.08010137 -0.12097578 -0.09908435
-0.20471586 -0.055507924 -0.041611426 -0.14407179 0.18085653 0.075819775 0.052528452 0.16850962
0.26870194 0.11971923 0.022038957 -0.056185056 0.2093859 -0.038494986 0.053793345 -0.06565884
0.13264441 0.05051464 0.0147268735 0.09109612 0.080885544 -0.16872165 -0.02692162 -0.021004587
-0.063096344 0.008188903 0.10647553 -0.051154032 -0.06386151 0.03903725 -0.063590564 -0.12928212
0.031471897 -0.15308608 0.0053044404 0.018716881 -0.2561258 -0.1377606 -0.16749421 -0.08288606
-0.061365727 -0.055697218 -0.061989006 -0.14671521 -0.059742965 0.04735222 0.008918517 -0.05021585
0.100810796 0.08849 -6.382399e-05 -0.0137262335 0.11329348 0.19963352 0.09440121 0.08417753
0.038973086 0.0822312 0.021910375 -0.025651678 0.23746222 0.14288004 0.16632356 0.032859948
00000000: 3885 95bc 514f 573e ea25 233e e9c6 8dbb
00000010: 2c6d 98bd 06bd 853d e371 543e e30f ee3c
00000020: 765c b4bd cf9e 3c3e 8c89 c23e 5aef 95bd
00000030: 8522 c93d b02d 36be b461 b6bc 051d 76bd
00000040: cef9 37be aa57 b6bd dad2 27be e148 7fbe
00000050: eb55 8ebc 09a6 1dbd cc15 b3bc 9a5b 24bc
00000060: 31f5 643c 86ac 39be a275 80be 31eb bfbe
00000070: 7bbe a1bd b6d7 dbbc 4cdb 86bd 9604 1fbe
00000080: 3de7 243e f1e3 263d 7b40 0dbe e327 303d
00000090: 23bd 1dbd 09e7 603d 9e2f 4bbd ee8f 28bd
000000a0: e4c0 353e dfd1 5d3e fcf1 e6bd 4467 f03d
000000b0: f3ae 7ebd f796 f83c a7aa b3bd ac8f 67be
000000c0: 1893 de3d f7ed 233d d320 9fbb c209 883d
000000d0: 22bd eebd 027d 33be 32cd 20bd 4ffc 2abe
000000e0: 01ae 273d 977d 3a3e 0524 b83d 114c 0c3e
000000f0: 6b92 293d 4f11 e13d ab7a 08bc d5da 813d
00000100: c83d dd3d 3db8 6d3d a455 793d 2ea0 36be
00000110: fb9b 12be 6aa8 bbbd 930f 96bd c470 1a3d
00000120: 94c4 9bb9 5793 bf3d b430 28bb c682 d13d
00000130: 4dbc e9bb ee5d a63d 28f3 a63d 98bd 1abb
00000140: 261a 9a3e 4271 0a3e 472b 4abe 458d 95bd
00000150: cfaf 79be e7e7 86bc e295 e9bd dd96 91bd
00000160: bf48 473e d44a 09be fb83 2d3e 6162 913c
00000170: f444 d7bd 1640 8fbd ed92 1e3d 1372 0bbe
00000180: 72e8 03bd e0b4 12be f572 8abd a551 97bc
00000190: fe3f 183e ee53 babd f8e1 913d 1892 3cbd
000001a0: 5a26 0fbd 07a4 183a 632e 16bb 05b7 9b3d
000001b0: 116d 06be 5404 57be ed20 13be d6cc 6abe
000001c0: d820 3c3e 1a3e 333e d487 bf3d 6514 673d
000001d0: 1d74 38bd 7cb4 babc 2eae d13d 4fe1 36bd
000001e0: 3f3d 2d3e 53d8 543e 91f9 283e 1707 2c3e
000001f0: e790 cd3d 0957 253e fe5b 0f3e 40db 233e
00000200: 2fcf f73d d2a3 023e e153 d43d 85b7 053e
00000210: e347 4fbe 6cd0 0e3c 17dd 81bd 12b5 5bbe
00000220: b31a 06be a30d 2d3b 23ff 91bc 315b 3d3c
00000230: c0c9 2e3d 60a9 783c f4cf a0bc b04f a73d
00000240: e030 773d 5fb6 053e b46f d8bc 5ee5 f8bd
00000250: de38 f33d 6565 93ba 9967 83bd 65eb b7bd
00000260: ac3e 66bd 2894 833d 29b1 323e d6c4 613e
00000270: d174 373d 9c1d 743d c2c5 cf3d 5c50 253e
00000280: 369e 713d 592a c53d 36de aabc 251d e43c
00000290: 48f4 8ebd becc 303c 2e71 81bc e135 bf3d
000002a0: 24c5 dd3d bf60 163e 6795 923c 5ea1 c13d
000002b0: 3faf e43d 5d79 433e 7658 193e 71a7 eb3d
000002c0: c763 4bbc 2d26 153e d463 3a3d 8e81 b9bd
000002d0: 8a6f 90bd 63a3 43bd 743d 883d 0481 b43c
000002e0: f7bb 793d cb93 09bc 6f3c 8c3d 5dba d33c
000002f0: eb1c 49be 300c a4bd 26c2 f7bd bcec cabd
00000300: 09a1 51be 475c 63bd be70 2abd 8e87 13be
00000310: 7432 393e 6647 9b3d 1328 573d c98d 2c3e
00000320: 4d93 893e 5b2f f53d 0b8b b43c 4d22 66bd
00000330: 4269 563e ebac 1dbd 6956 5c3d 2478 86bd
00000340: f0d3 073e 70e8 4e3d fc48 713c 9a90 ba3d
00000350: 52a7 a53d 5ec5 2cbe bb8a dcbc d011 acbc
00000360: a838 81bd c02a 063c d80f da3d e486 51bd
00000370: d3c9 82bd 86e5 1f3d c53b 82bd 8862 04be
00000380: ade8 003d 99c2 1cbe dfd0 ad3b 2554 993c
00000390: ec22 83be 1d11 0dbe 9a83 2bbe 2bc0 a9bd
000003a0: a15a 7bbd c422 64bd 2fe8 7dbd 833c 16be
000003b0: 0ab5 74bd 67f4 413d f91e 123c 23af 4dbd
000003c0: e475 ce3d 3f3a b53d 3ed9 85b8 ffe3 60bc
000003d0: 6906 e83d bb6c 4c3e 6c55 c13d 4565 ac3d
000003e0: 3ea2 1f3d d568 a83d 637d b33c 7823 d2bc
000003f0: 4c29 733e 254f 123e b950 2a3e 2798 063d

DecList.1.conv.bias f4 [8]
0.012247315 -0.12145693 0.09067957 -0.0043056915 0.067539826 -0.13418403 -0.12792033 -0.16627507
00000000: f6a8 483c 69be f8bd 36b6 b93d c216 8dbb
00000010: 5252 8a3d 8a67 09be 8cfd 02be 0344 2abe

DecList.1.bn.weight f4 [8]
1.1771857 1.1109642 1.4478472 1.3624387 0.9853241 1.231584 1.2747337 1.4917376
00000000: 05ae 963f 1334 8e3f 0f53 b93f 6464 ae3f
00000010: 333e 7c3f 8ba4 9d3f 792a a33f 42f1 be3f

DecList.1.bn.bias f4 [8]
0.87777275 0.10023622 0.025334423 0.4941776 0.20102325 0.06066858 0.4470795 0.12872985
00000000: b7b5 603f a648 cd3d 238a cf3c d904 fd3e
00000010: 0ad9 4d3e 9e7f 783d 9be7 e43e c2d1 033e

DecList.1.bn.running_mean f4 [8]
-0.4264016 0.5039458 1.1225706 0.0035083487 0.03161217 -0.087467775 0.3789213 0.22051239
00000000: 4f51 dabe 9802 013f 65b0 8f3f 53ec 653b
00000010: c37b 013d 4e22 b3bd f901 c23e 00ce 613e

DecList.1.bn.running_var f4 [8]
0.82904977 0.6038836 0.62420124 1.1371726 0.46762848 1.1654963 0.9479432 0.64293534
00000000: 9b3c 543f 1e98 1a3f a7cb 1f3f df8e 913f
00000010: 006d ef3e fc2e 953f 68ac 723f 6997 243f

DecList.2.conv.weight f4 [8, 4, 4]
-0.25020242 -0.018462257 0.07289185 0.06374944 -0.3125708 -0.15432788 -0.23080797 -0.1750535
0.063383155 0.03355891 0.22813626 0.015628794 -0.012383413 -0.028868407 -0.035616178 -0.14110686
0.19587797 0.30607682 0.3289325 0.27840242 0.13344245 0.12319583 0.04383409 0.10874254
0.017755058 -0.22910452 0.049877156 -0.16393034 0.054652523 0.060751535 0.15671529 0.081551
0.06701764 0.14534804 0.24058484 0.05443829 0.11851613 0.14727743 0.20621094 -0.028923128
-0.032654412 0.2207568 0.18634076 0.22597481 0.15628985 0.30367205 0.16927612 0.02864214
-0.07702709 0.18917565 0.05473746 0.14710759 -0.183139 0.16045022 -0.15423734 0.075821035
-0.057247717 -0.2018842 0.018047916 -0.21426703 -0.076148525 0.019189399 0.018062418 0.0007124044
0.07059585 0.04190108 0.07064395 -0.006582604 0.06872219 -0.16161782 0.14895861 0.29145914
0.2672451 0.17035961 -0.2690948 0.008841199 0.20011383 0.00976551 -0.14849395 0.11198221
-0.0052408325 0.07709364 0.11774125 0.034744207 0.08790873 0.23997799 0.22232603 0.12994283
-0.13656853 -0.29817083 -0.10915088 -0.30386615 -0.33718818 -0.2908343 -0.28566882 -0.31010145
-0.27750018 0.08869953 -0.3941327 0.13476036 -0.0731221 -0.014382202 -0.27301928 -0.04040402
0.3632332 0.04914211 0.36157858 0.16599019 0.016341394 0.083394624 0.089250565 -0.08268573
-0.13397802 -0.15313537 -0.11484708 -0.15253553 0.14247799 -0.08856323 0.008295578 0.0336699
0.07821525 0.18971257 0.034404203 0.3056467 -0.064758606 -0.12594038 -0.012808564 0.06821619
00000000: 881a 80be 293e 97bc 5248 953d 118f 823d
00000010: 4809 a0be 2108 1ebe ed58 6cbe 3a41 33be
00000020: 07cf 813d 1175 093d 8d9c 693e f507 803c
00000030: cce3 4abc 707d ecbc 45e2 11bd 517e 10be
00000040: 3c94 483e 1ab6 9c3e d769 a83e c38a 8e3e
00000050: 23a5 083e 184e fc3d 608b 333d 69b4 de3d
00000060: 0e73 913c 609a 6abe fd4b 4c3d 5bdd 27be
00000070: 53db 5f3d 9ad6 783d f979 203e 3604 a73d
00000080: 8b40 893d 1ed6 143e df5b 763e affa 5e3d
00000090: 96b8 f23d e5cf 163e f628 533e 32f0 ecbc
000000a0: a2c0 05bd 120e 623e 1dd0 3e3e f165 673e
000000b0: 720a 203e e77a 9b3e b856 2d3e eca2 ea3c
000000c0: 61c0 9dbd 43b7 413e 6334 603d 5fa3 163e
000000d0: ca88 3bbe 104d 243e 65f0 1dbe 0f48 9b3d
000000e0: 957c 6abd bbba 4ebe 39d9 933c d168 5bbe
000000f0: c2f3 9bbd 1633 9d3c a3f7 933c a6c0 3a3a
00000100: 8f94 903d 78a0 2b3d c6ad 903d e2b2 d7bb
00000110: 38be 8c3d 247f 25be 9b88 183e 223a 953e
00000120: 5ad4 883e c072 2e3e cbc6 89be adda 103c
00000130: a4ea 4c3e 85ff 1f3c cc0e 18be ee56 e53d
00000140: 4abb abbb 45e3 9d3d 5322 f13d f14f 0e3d
00000150: 7e09 b43d cabc 753e 6fa9 633e bc0f 053e
00000160: 9fd8 0bbe d9a9 98be 7f8a dfbd 5894 9bbe
00000170: eea3 acbe 3ce8 94be 2f43 92be 9ec5 9ebe
00000180: 8114 8ebe 19a8 b53d c3cb c9be 9ffe 093e
00000190: 0ac1 95bd 54a3 6bbc 2fc9 8bbe b07e 25bd
000001a0: b4f9 b93e 3d49 493d d420 b93e 55f9 293e
000001b0: 63de 853c cdca aa3d 00c9 b63d 2357 a9bd
000001c0: 8931 09be 85cf 1cbe f234 ebbd 4632 1cbe
000001d0: c0e5 113e a460 b5bd 2dea 073c 73e9 093d
000001e0: 512f a03d 0344 423e 6ceb 0c3d b97d 9c3e
000001f0: 29a0 84bd 84f6 00be 03db 51bc eeb4 8b3d

DecList.2.conv.bias f4 [4]
0.09530084 -0.13933003 0.045924485 0.08001371
00000000: 162d c33d 88ac 0ebe 501b 3c3d 3ade a33d

DecList.2.bn.weight f4 [4]
1.0896541 1.1960698 0.91301954 0.72892326
00000000: c979 8b3f d118 993f a6bb 693f b79a 3a3f

DecList.2.bn.bias f4 [4]
0.35604137 0.31780693 0.35645744 0.6945668
00000000: 0e4b b63e 97b7 a23e 9781 b63e 21cf 313f

DecList.2.bn.running_mean f4 [4]
0.39077258 -0.33829883 0.6268756 -0.1581081
00000000: 5813 c83e 8135 adbe eb7a 203f 17e7 21be

DecList.2.bn.running_var f4 [4]
1.3539377 0.75903535 0.9673845 0.7703204
00000000: d54d ad3f 2450 423f 83a6 773f b833 453f

DecList.3.conv.weight f4 [4, 2, 4]
0.2717187 0.47505912 0.50245726 0.30073822 -0.23189934 -0.15701754 -0.03210863 -0.08734243
-0.09362533 -0.19818199 -0.20533113 -0.101323634 -0.14636481 -0.21813439 -0.259235 -0.20034617
-0.1378608 -0.04139638 -0.011927689 -0.10657393 0.14663891 0.15895297 0.30461103 0.3006941
0.093562506 0.34041983 0.31860393 0.0691305 0.29821262 0.40873727 0.073934264 -0.060598064
00000000: b71e 8b3e f33a f33e 0aa1 003f 5cfa 993e
00000010: 0577 6dbe 35c9 20be 5784 03bd 97e0 b2bd
00000020: a3be bfbd 38f0 4abe 5342 52be c482 cfbd
00000030: a8e0 15be 9f5e 5fbe 73ba 84be 8c27 4dbe
00000040: 622b 0dbe 408f 29bd 5b6c 43bc 6f43 dabd
00000050: 8328 163e 91c4 223e faf5 9b3e 94f4 993e
00000060: b39d bf3d 824b ae3e 0e20 a33e 4b94 8d3d
00000070: 53af 983e 0346 d13e d96a 973d ad35 78bd

DecList.3.conv.bias f4 [2]
0.24986641 0.33900633
00000000: fbdc 7f3e 3d92 ad3e

DecList.3.bn.weight f4 [2]
0.6304547 0.759315
00000000: 7b65 213f 7862 423f

DecList.3.bn.bias f4 [2]
0.029451795 0.059475973
00000000: e444 f13c 149d 733d

DecList.3.bn.running_mean f4 [2]
1.6660933 0.5530148
00000000: 8c42 d53f 6192 0d3f

DecList.3.bn.running_var f4 [2]
0.5055349 0.9672568
00000000: bc6a 013f 249e 773f

bottleneck.0.weight f4 [32, 32, 1]
-0.066976584 0.12622145 0.20385736 -0.18650727 -0.06534443 0.04670177 -0.080120146 0.21377033
0.11123181 0.0014217949 -0.18361004 -0.09987889 0.048807815 -0.053550776 0.26666796 0.12788473
0.04722932 -0.07230715 0.095255546 0.060950883 0.058370735 0.21662419 -0.07846069 -0.10828603
-0.060383692 -0.1790323 -0.10858008 0.33493337 -0.016535139 -0.045629144 -0.0036960833 -0.03822519
0.15700737 0.17453918 0.16191117 -0.026729817 0.008538171 0.12714213 -0.10423215 -0.20790362
0.023437018 0.16348334 -0.28220442 0.0040312973 -0.16690159 -0.02768611 -0.10435054 0.007968369
-0.1535238 0.246165 -0.044581126 -0.038927276 -0.025171427 -0.17317925 -0.069039255 -0.091772765
0.12961857 -0.22601132 -0.0031320166 -0.25001457 0.0041203923 -0.07771139 -0.10182218 0.08933369
0.14612809 0.0827403 -0.16874877 -0.12689646 -0.1338442 0.121868886 0.124339595 -0.1041377
0.11553247 0.07464621 -0.13402256 0.00888565 0.12168384 0.055961676 -0.13362293 -0.18209392
-0.15800104 0.14660965 -0.09297033 -0.027057122 -0.0419109 0.13369274 -0.15638733 -0.12707599
-0.043431193 -0.21179248 0.14450371 -0.036675308 -0.21179743 -0.04973573 -0.14564323 -0.124087825
-0.118309334 0.014022447 0.20100518 0.03332333 -0.10201197 0.14811984 0.08438558 -0.17091
-0.003102981 -0.21255112 -0.1013857 0.01005289 -0.19960459 -0.10849514 -0.14224598 -0.009649902
-0.04544462 0.12845573 -0.08921696 0.09050332 0.22281972 0.04467513 0.055465404 -0.08673925
0.05915002 0.049195778 -0.06292261 0.1219426 0.015290628 0.06978579 0.10986565 0.116341315
-0.1673088 -0.075940065 0.034454193 0.026917052 -0.030502344 0.14007737 -0.08240106 -0.036618352
-0.18827939 -0.00468623 0.075415395 0.04455081 0.21585838 0.31108344 0.040972706 -0.08626738
-0.11787167 -0.050990995 -0.08299694 0.021258641 0.011284971 0.030610377 0.20537841 -0.3403377
-0.04405538 0.06667034 0.017139016 -0.27344102 0.092720754 -0.0921539 0.02677265 -0.18211035
-0.008407143 0.11765996 -0.077813484 0.07409806 0.008851188 0.06829612 -0.114161044 0.2181754
0.19290891 -0.12233284 -0.17743646 0.027290704 -0.05208806 0.3000384 -0.15689561 -0.05927477
0.089816734 -0.023641909 -0.09555443 -0.041980647 -0.14008524 0.14519754 -0.0005728449 0.013244373
0.16225892 0.09901719 -0.08868354 0.03165498 0.10878385 0.0681129 -0.20934066 0.014864475
0.10695436 -0.18805563 0.030224245 -0.106811084 0.007048656 0.011016296 0.054001912 0.07168965
-0.030552795 0.065639265 0.033022434 -0.2598248 0.17954867 -0.0060980767 -0.07277761 -0.32485506
0.09740294 -0.09173557 0.073161006 -0.10203242 0.07144217 -0.16871071 -0.09604788 0.124696545
-0.07609011 0.058578443 -0.18742959 0.06912471 -0.035083946 -0.09384909 0.048173435 0.20091987
0.09442613 -0.007704174 0.0008300273 0.10605996 -0.14929861 -0.2736062 -0.054801375 0.10153112
-0.10646835 -0.038106546 -0.20116557 -0.16503482 0.13113631 0.1730996 -0.16243304 0.2758647
-0.120917164 0.12841281 0.051662184 0.09181257 -0.08261808 -0.065392345 0.07985775 0.042130593
-0.0061607114 -0.067729525 -0.20471554 0.066714205 0.25674263 0.05332618 -0.100188136 -0.07029443
00000000: 052b 89bd 3240 013e fcbf 503e c3fb 3ebe
00000010: 4dd3 85bd 5b4a 3f3d 0816 a4bd 9ce6 5a3e
00000020: 81cd e33d 855b ba3a 4504 3cbe 4e8d ccbd
00000030: b4ea 473d 0f58 5bbd b488 883e 37f4 023e
00000040: 8873 413d c515 94bd 5715 c33d a2a7 793d
00000050: 2716 6f3d bbd2 5d3e 00b0 a0bd 11c5 ddbd
00000060: e454 77bd 3e54 37be 3c5f debd 637c ab3e
00000070: b374 87bc a0e5 3abd fd39 72bb 0492 1cbd
00000080: 8ac6 203e 66ba 323e 0bcc 253e 7df8 dabc
00000090: afe3 0b3c 8c31 023e aa77 d5bd b0e4 54be
000000a0: fdfe bf3c 2d68 273e 197d 90be f918 843b
000000b0: 40e8 2abe fbcd e2bc bcb5 d5bd c38d 023c
000000c0: 5835 1dbe ae12 7c3e b39a 36bd 3572 1fbd
000000d0: 4f34 cebc e755 31be 7464 8dbd 5cf3 bbbd
000000e0: bbba 043e 836f 67be 8542 4dbb e901 80be
000000f0: 5b04 873b 2627 9fbd 2688 d0bd 95f4 b63d
00000100: 9aa2 153e bf73 a93d 7acc 2cbe 25f1 01be
00000110: 740e 09be 6596 f93d c2a5 fe3d 2546 d5bd
00000120: 4a9c ec3d 1de0 983d 363d 09be 1e95 113c
00000130: 6135 f93d 1238 653d 73d4 08be d476 3abe
00000140: 06cb 21be d720 163e 3a67 bebd e6a6 ddbc
00000150: c4aa 2bbd c0e6 083e 0024 20be 3520 02be
00000160: e8e4 31bd 21e0 58be c8f8 133e d938 16bd
00000170: 6de1 58be b1b7 4bbd 8023 15be c221 febd
00000180: 2a4c f2bd 68be 653c 4dd4 4d3e 0b7e 083d
00000190: a7eb d0bd baac 173e 59d2 ac3d 0803 2fbe
000001a0: 625b 4bbb 00a7 59be 4ea3 cfbd e0b4 243c
000001b0: 2565 4cbe b332 debd eea8 11be 9f1a 1ebc
000001c0: 2324 3abd e689 033e 62b7 b6bd ce59 b93d
000001d0: da2a 643e 45fd 363d b12f 633d 59a4 b1bd
000001e0: 4b47 723d 8381 493d 92dd 80bd 0bbd f93d
000001f0: 8b85 7a3c daeb 8e3d 3e01 e13d 5b44 ee3d
00000200: 0053 2bbe 7786 9bbd d71f 0d3d 2681 dc3c
00000210: 0de0 f9bc 7170 0f3e e3c1 a8bd 20fd 15bd
00000220: 50cc 40be f28e 99bb 6373 9a3d e97a 363d
00000230: fb09 5d3e 5446 9f3e ffd2 273d f4ac b0bd
00000240: b466 f1bd efdb 50bd 4dfa a9bd 9a26 ae3c
00000250: 99e4 383c 9dc2 fa3c b84e 523e be40 aebe
00000260: 6a73 34bd 768a 883d 1f67 8c3c 7600 8cbe
00000270: 61e4 bd3d 2fbb bcbd 5152 db3c 237b 3abe
00000280: 1dbe 09bc b5f7 f03d ad5c 9fbd b9c0 973d
00000290: 9304 113c d6de 8b3d 44cd e9bd 5f69 5f3e
000002a0: ea89 453e a489 fabd e7b1 35be c190 df3c
000002b0: 4a5a 55bd a29e 993e 3ea9 20be 1aca 72bd
000002c0: d6f1 b73d adac c1bc 0ab2 c3bd e6f3 2bbd
000002d0: 8172 0fbe aaae 143e f82a 16ba edfe 583c
000002e0: 3427 263e 86c9 ca3d b79f b5bd a7a8 013d
000002f0: 11ca de3d c77e 8b3d 665d 56be 208a 733c
00000300: e30a db3d a891 40be d698 f73c c5bf dabd
00000310: 6af8 e63b b27d 343c 1c31 5d3d 06d2 923d
00000320: db49 fabc e16d 863d 8842 073d c207 85be
00000330: 9bdb 373e 60d2 c7bb 6d0c 95bd 6753 a6be
00000340: 317b c73d dcdf bbbd 70d5 953d 60f6 d0bd
00000350: 4650 923d 80c2 2cbe c0b4 c4bd e760 ff3d
00000360: 22d5 9bbd f3ef 6f3d 8bed 3fbe 4291 8d3d
00000370: 2fb4 0fbd f433 c0bd 8251 453d f0bd 4d3e
00000380: 7d62 c13d 4c73 fcbb 3096 593a f735 d93d
00000390: bce1 18be 1d16 8cbe 6877 60bd 8cef cf3d
000003a0: 140c dabd 9c15 1cbd 59fe 4dbe e3fe 28be
000003b0: 9948 063e 0641 313e d954 26be 233e 8d3e
000003c0: 6ba3 f7bd a67e 033e ba9b 533d 3b08 bc3d
000003d0: ab33 a9bd 6cec 85bd 768c a33d 2191 2c3d
000003e0: cbdf c9bb c7b5 8abd f3a0 51be 75a1 883d
000003f0: c573 833e 8d6c 5a3d 702f cdbd 87f6 8fbd

bottleneck.0.bias f4 [32]
-0.19402562 -0.049792033 -0.029920159 -0.07852144 0.11536192 -0.006589471 -0.318041 -0.21446276
-0.17052087 0.12248497 -0.34223616 -0.108476676 -0.2173457 -0.19905105 -0.22465873 0.17357002
0.04384069 0.019123998 0.14785238 0.2385725 0.13046166 0.1789799 -0.33529994 -0.13500616
-9.5375966e-05 -0.18057194 0.20696373 0.030494006 -0.2830467 0.11474513 -0.1565186 0.088086076
00000000: a7ae 46be bbf2 4bbd 1f1b f5bc d9cf a0bd
00000010: df42 ec3d 7dec d7bb 45d6 a2be 209c 5bbe
00000020: 069d 2ebe 66d9 fa3d 9439 afbe 0529 debd
00000030: df8f 5ebe 0ad4 4bbe f00c 66be 57bc 313e
00000040: 4c92 333d eea9 9c3c 9d66 173e 594c 743e
00000050: be97 053e 8246 373e 6fac abbe 0e3f 0abe
00000060: 9504 c8b8 dae7 38be 4dee 533e 91ce f93c
00000070: 7feb 90be 7fff ea3d 6946 20be 7966 b43d
