checkpoints/best_ACDAE_emb_snr_0.pth (torch, 615378 bytes, 20 tensors)

EncList.0.conv.weight f4 [16, 2, 13]
000000 58 7e 43 3e 94 be 3c 3e af 10 90 bd 63 8f c1 3d
       0.19091165 0.18432075 -0.07034432 0.09451177
000010 09 cb 2c be 74 26 dc bd 87 a6 81 be e1 89 ec bc
       -0.16874327 -0.10749522 -0.25322363 -0.02887434
000020 1f c0 43 3d fb 31 71 be 86 7e cf 3d 82 c5 30 3c
       0.047790643 -0.23554222 0.10131554 0.010789277
000030 bc e6 33 3e e7 64 cc 3c 58 21 da 3d 73 d4 b9 bc
       0.17568487 0.024950458 0.10650891 -0.022684311
000040 10 22 14 3e d6 d6 96 3c 96 82 d8 bd 21 41 0b 3d
       0.14466119 0.018412989 -0.10571782 0.03399766
000050 c3 f5 af bd 51 06 05 bd af 60 a6 bd 89 6c 17 3e
       -0.08591797 -0.032476727 -0.0812391 0.14787497
000060 37 03 dd bd 2d 35 48 bc 1e b2 94 bd 67 d4 04 be
       -0.10791629 -0.012219709 -0.07260536 -0.1297165
000070 c2 bc 74 3c 7c 81 3c be d4 ed 4b 3e 4b 3c 10 be
       0.0149375815 -0.1840877 0.19914943 -0.140855
000080 85 49 3b 3e d8 60 90 3d 5f 36 c7 bc 4e 34 2f 3e
       0.18289764 0.070497215 -0.024317918 0.17109796
000090 e8 1c 77 3d bd c6 45 3e 00 7e 45 3d 9d 7a 9b bd
       0.0603303 0.19314094 0.048215866 -0.07591746
0000a0 8a d1 18 3d 55 d9 77 bd 53 65 c2 3d 6e 6d 4b 3e
       0.037309207 -0.06051 0.09491982 0.19865963
0000b0 17 22 16 3e f0 01 56 bd d1 5c 22 3e ec 68 ac 3d
       0.14661442 -0.05224794 0.15855719 0.0841845
0000c0 b8 7c 28 3e d4 5b 8a bd d6 1c 29 be cd 4a 3e bd
       0.16453826 -0.06755796 -0.16514906 -0.046458054
0000d0 00 3e 68 be 24 68 b2 3d 7e 15 7f bc e4 ea 66 3c
       -0.22679901 0.087112695 -0.015569089 0.014094088
0000e0 37 e9 40 ba 5a 0e 77 bd 5f f4 d1 3d 2d e3 3c be
       -0.00073589705 -0.06031642 0.10251688 -0.18446036
0000f0 70 70 fe bc 3e 6d 3a be 72 16 6c 3b e0 11 07 be
       -0.031059474 -0.18205735 0.003602412 -0.13190413
000100 a2 90 8e bb 7f a2 ec bd b6 2e ad 3d 89 53 4b be
       -0.0043507377 -0.11554431 0.08456175 -0.19856085
000110 81 db 4c be a1 23 4c be 2f 28 be 3d c7 51 ab bc
       -0.20005609 -0.19935466 0.09285008 -0.020913018
000120 d4 fd e3 3d 8a 0e 6a be 73 13 81 be c3 3d 4a be
       0.11132398 -0.22857109 -0.2521015 -0.19750123
000130 e0 1e 33 be 06 8c 24 3d de ab d8 3d 16 e0 66 3e
       -0.17492247 0.0401726 0.10579656 0.2254642
000140 da 3e 0c bd bb 60 84 bd 8d 2c 31 3e e6 20 22 bc
       -0.034239627 -0.064637624 0.17302151 -0.009895539
000150 78 2b 3f 3e 5c 4e d0 bb 8f c9 07 3e b8 7f 22 be
       0.18668926 -0.0063569974 0.13260482 -0.15869033
000160 27 6c f5 bd 3f b2 9c 3c c4 c5 b7 bc fb 6f 7a bd
       -0.11983519 0.019127963 -0.02243317 -0.06114195
000170 1b ad bd 3d c7 c3 d0 3d df 3f 2b be 99 c9 f0 bd
       0.09261533 0.101935916 -0.16723584 -0.11757202
000180 1e c7 3c 3e f5 58 0d bd d1 f6 3f bc 76 b7 e4 bd
       0.18435332 -0.034508664 -0.01171656 -0.11167805
000190 f4 ab 2f bd 60 c7 e9 3d b4 a0 07 3d 12 2e bc bd
       -0.042888597 0.11414981 0.033112243 -0.09188475
0001a0 aa cc 48 3e 55 a7 e8 bc d1 ac d6 bd 16 92 89 bd
       0.19609323 -0.028400103 -0.10482181 -0.06717317
0001b0 ba 2f 11 be 93 b2 c7 bd 41 0a c9 3d 09 28 35 bd
       -0.14178362 -0.09750857 0.09816409 -0.044227634
0001c0 00 ca 79 3c d9 4c 41 be 87 e9 be bd eb d5 09 3d
       0.015245914 -0.18876971 -0.093218856 0.033651274
0001d0 1f 68 89 3e 6a 80 d9 bd 60 56 a8 bc b4 e3 59 bd
       0.2683725 -0.10620196 -0.020549 -0.05319567
0001e0 70 39 6b 3d f3 ad 40 bc 33 2f 66 3d fb 33 92 bd
       0.057427824 -0.011760223 0.056197356 -0.07138821
0001f0 72 ab 6b bd ca 86 08 bd fa 3e 1a 3c 90 ac bb bd
       -0.05753655 -0.03333167 0.009414429 -0.09163773
000200 f7 5b 76 3e 21 48 ee 3c 2d 0f 8c 3e 5a 44 af 3d
       0.2405852 0.029087128 0.27355328 0.08557959
000210 1b 02 5d be 12 24 da 3c d9 6e 5c be b7 24 8e be
       -0.21582834 0.026628528 -0.2152666 -0.27762386
000220 cf 4c c0 be 5f a9 c0 be 2b 51 ac bd aa 38 23 be
       -0.375586 -0.3762922 -0.08413919 -0.15939584
000230 55 bf 94 bb 53 6a 59 be ac a7 31 3e af 74 95 be
       -0.00453941 -0.21231966 0.17349118 -0.29190585
000240 89 e9 c9 bd 37 a9 d0 3c 05 e7 05 3e a7 37 3a 3e
       -0.098589964 0.025471313 0.13076408 0.18185292
000250 70 2b 1e 3e f6 db 5c be 16 8f 00 bd 8a dd 36 be
       0.15446258 -0.21568283 -0.031386457 -0.17857948
000260 5d 08 e0 bd 5b 06 5e be 07 1b 0c 3e 8b 91 25 be
       -0.10939095 -0.21682112 0.13682185 -0.16168801
000270 80 db c1 3d 7b f5 a1 3d 22 70 b0 3d 47 62 88 bd
       0.094656944 0.0790815 0.08615138 -0.0665937
000280 c3 61 77 3e 3d ec de 3d 03 6c a3 3d f6 e2 1a be
       0.24158387 0.108849026 0.07979586 -0.15125641
000290 9a 93 ad 3d 7d 96 39 bd 26 4b f7 bd 4a 19 fa 3d
       0.084754184 -0.045309532 -0.1207488 0.12211855
0002a0 cf b1 88 bc 7d e4 0a be a5 33 03 be f4 41 0c bd
       -0.016686348 -0.13563724 -0.1281267 -0.034242585
0002b0 3c 38 be 3d 06 14 8a bd 4f 89 05 be f4 08 a8 bd
       0.092880696 -0.067421004 -0.1304066 -0.08204833
0002c0 e8 2c 1a be 0f be 98 3d c7 8c 20 3e ed 3f 2d be
       -0.15056193 0.07458126 0.15678702 -0.16918917
0002d0 88 ba 86 3d f6 0f f4 3d 8d 62 b0 bd 14 e2 44 be
       0.06578547 0.11917107 -0.08612547 -0.19226867
0002e0 75 87 d9 bc 54 ae b5 bc 1f b0 1e bd 75 66 fc bd
       -0.026553849 -0.022177853 -0.03874218 -0.1232423
0002f0 1a 8a ce bd 97 10 7b 39 28 e2 02 bd 21 77 fe bc
       -0.100849345 0.00023943406 -0.03195396 -0.031062664
000300 ae 99 33 3e 16 87 73 3e 1c 49 3e 3d 03 b3 7a 3c
       0.17539093 0.23782 0.04645644 0.015301469
000310 86 1a 70 3d 1e fe 1b 3d b9 e1 cb 3d 73 55 cc 3d
       0.058619045 0.038084142 0.099551626 0.09977236
000320 0f b7 12 be 85 4e 29 bd eb 9c 38 3e 40 c8 6c 3d
       -0.14327644 -0.041334648 0.1802861 0.05780816
000330 a2 f3 ce bc 0a c6 fc bd a8 ad b5 bd 29 7a e7 bd
       -0.025262658 -0.123424605 -0.08871013 -0.11302597
000340 eb 3e 88 3c f0 53 23 3e 1c f9 5a 3e 89 0a 22 3e
       0.016631564 0.15949988 0.2138409 0.15824331
000350 ba 09 05 be 67 e3 c8 bd c1 d9 02 bd 56 2c 3d 3e
       -0.12991992 -0.098089986 -0.031945948 0.18473944
000360 07 b9 18 3d 18 55 dc bc bc f1 ef 3d ff 77 fd bc
       0.03728583 -0.026896045 0.11716029 -0.030941008
000370 5b 45 ae bd 81 75 f9 3d 8d 45 a4 bd 5b 1e 1d bc
       -0.08509322 0.12180615 -0.08021078 -0.009589757
000380 1e de 21 be af b4 2f 3e 85 ee 49 3e 5d 74 09 3e
       -0.15807387 0.17158769 0.19719894 0.13423295
000390 fc 1d 9a bd e2 c9 07 be 0a a8 04 be 51 85 0b 3e
       -0.0752525 -0.13260606 -0.12954727 0.13625075
0003a0 96 37 5c 3d 1a cb ec 3d f3 ad f7 3e bf f8 b7 3e
       0.05376395 0.11562176 0.483749 0.35931966
0003b0 97 a7 64 3e 0f f7 e7 bb 7a 42 e4 bd 99 34 4b be
       0.22329555 -0.007079012 -0.11145492 -0.19844283
0003c0 a2 e1 91 3c db 58 3f be b1 74 0c be 72 0e 0e be
       0.017807785 -0.1868624 -0.13716389 -0.13872698
0003d0 fa 29 87 bd 29 53 3d be cc 19 5a be 49 fc fe bc
       -0.06599803 -0.18488754 -0.21298903 -0.031126158
0003e0 9c ef d9 bd 4f d4 fc 3d 37 f5 b3 bc 74 3b b8 bd
       -0.10641405 0.12345182 -0.021967513 -0.08995715
0003f0 8e 55 88 3d 18 32 c4 3c 1a c1 16 3d 40 c1 fa bd
       0.06656943 0.023949668 0.03680525 -0.12243891

EncList.0.conv.bias f4 [16]
000000 12 b0 81 be 91 32 96 bc f4 2a 84 be f6 3f da be
       -0.25329643 -0.018334659 -0.2581402 -0.42626923
000010 32 7b 1b be a5 17 7a be de 95 d7 be 5f b1 62 3d
       -0.15183714 -0.24423082 -0.42106527 0.055344936
000020 2c b6 eb 3c 83 7c 99 3d 0d a4 0b be 72 48 c7 be
       0.02877339 0.07494452 -0.13636799 -0.3892246
000030 9d 9a 89 bc df d7 05 3e 42 66 a8 3d 14 57 8a be
       -0.016797358 0.1307063 0.08222629 -0.2701956

EncList.1.conv.weight f4 [32, 16, 7]
000000 14 b0 95 3d ad 95 5a bd 24 e3 dc 3d d0 3a 20 3d
       0.07308975 -0.0533654 0.10785511 0.039118588
000010 f2 cc 3f bc 8e a6 55 3a 99 d1 af 3c b7 0b 7e 3b
       -0.011706578 0.0008150124 0.021462249 0.0038764307
000020 e7 be bf 3d 2c 88 0d 3e be ed 09 3e dc be 0e 3e
       0.093625836 0.13821477 0.13469598 0.13939995
000030 89 d2 2a 3e 94 94 2f 3e 8d b4 35 bc b8 f8 a0 bd
       0.16681875 0.17146522 -0.01109041 -0.07859939
000040 48 5b 74 be 96 af 83 be 87 ec 73 be 09 ec 08 be
       -0.23862946 -0.257199 -0.23820697 -0.1337129
000050 cb bd 74 bd 45 cf db bb ae f2 e2 3b 8b e4 00 bd
       -0.059751313 -0.006708058 0.0069259023 -0.031467956
000060 0c 77 f4 3d 68 f6 97 3b 33 56 00 3e 95 75 02 3d
       0.11936769 0.004637528 0.12532882 0.031850416
000070 41 d6 eb 3d eb c2 6a bd 52 33 9c bd 72 b9 ec bd
       0.11515475 -0.057314795 -0.07626976 -0.115588084
000080 05 59 47 be 9b 77 77 bd ba d0 55 be 0a d1 f8 bc
       -0.19467552 -0.0604168 -0.20880404 -0.030373115
000090 d2 24 99 bd ce c5 16 bd ab 0d 2d be 38 02 12 be
       -0.07477726 -0.036809735 -0.16899745 -0.14258659
0000a0 7a 8f c8 bd 93 bb 80 bd e3 5c da 3d 8f 87 db 3d
       -0.09792991 -0.06285777 0.10662248 0.10719215
0000b0 cd 3d b1 3d 22 8d e6 3d 54 d0 b8 3d 50 ad b8 bc
       0.08654366 0.11257388 0.090241104 -0.02254358
0000c0 fd 4c ad bd 4d b1 40 bd 71 d4 13 bd c7 b8 39 3d
       -0.0846195 -0.047044087 -0.03609127 0.045342233
0000d0 b0 c7 c0 3d 1c 91 ff 3d 3a 52 99 3d e4 e7 05 3d
       0.09413087 0.12478849 0.074863866 0.03269185
0000e0 c6 7a 5e bc ff ea 30 3d 1c af 94 3d 8d 37 2b 3d
       -0.013579076 0.04319286 0.07259962 0.041801024
0000f0 2f ca a4 3d 6c 08 27 3d b7 b3 85 3c 8e f7 1b 3d
       0.08046376 0.040779516 0.016321046 0.038077883
000100 98 b7 5c 3c 1c ca 1f 3d 65 3f 00 be 6f 0a 83 bd
       0.013471507 0.039011106 -0.12524183 -0.063984744
000110 76 e3 42 be d6 25 b8 bd f6 b0 f2 bd 23 41 d0 bd
       -0.19032082 -0.08991592 -0.11850159 -0.10168674
000120 58 4e 83 3b e2 9c cd bc 19 3a b5 3d c1 4f 01 3e
       0.004007142 -0.025099222 0.08848972 0.1262808
000130 47 84 0b 3e 2f e4 84 3d bc 59 48 bb 44 46 9b bd
       0.13624679 0.06488835 -0.0030571064 -0.075817615
000140 19 87 bb ba 01 d4 c2 bd bd 8b c6 bb 8f d4 66 bd
       -0.001430723 -0.09513093 -0.0060591386 -0.056355055
000150 f1 4a 0b 3c d5 7b a7 bc 19 f0 d1 bd 59 c2 2e bd
       0.008501754 -0.02044479 -0.10250873 -0.042665813
000160 05 b1 17 be fd ff 8a bd ae b4 c6 bc ba 72 ef 3d
       -0.14813621 -0.06787107 -0.024256077 0.11691804
000170 e5 5f 10 3e da ea 4f 3e 08 06 f4 3d fb e7 43 3e
       0.14099081 0.20304433 0.11915213 0.19131462
000180 ac e8 2a 3e 2d 74 f1 bb be f3 3c bd 60 75 fb 3c
       0.1669032 -0.0073685856 -0.04613089 0.030695617
000190 3f 7d a4 3d e9 d3 b2 bd 80 62 07 bb c0 9b 91 bd
       0.08031701 -0.08731825 -0.0020658076 -0.07109785
0001a0 8c f6 1e bc 64 f2 23 3e f4 d0 8e 3d ff 0e 7d bd
       -0.009702336 0.16010433 0.069734484 -0.06178188
0001b0 28 31 51 3c 21 38 36 3b 62 75 b8 bd 92 77 fa 3c
       0.012768067 0.0027804452 -0.09006764 0.030574594
0001c0 eb e4 ab 3d 64 65 a9 3c 87 6d 76 3d 82 b2 0f 3e
       0.08393272 0.02067823 0.060163047 0.14032939
0001d0 d2 93 94 bb a8 91 b0 3d 9c 2e e9 3d 11 e1 2c 3a
       -0.004534223 0.08621532 0.11385843 0.0006594817
0001e0 14 db 31 bd ad 14 8b 3d df 78 b0 bb e6 f3 e3 bb
       -0.04342182 0.06791053 -0.0053855027 -0.006956565
0001f0 3c 7e 00 3e 99 c2 05 3e 38 96 f8 bd e4 ca d5 bb
       0.12548155 0.13062514 -0.12138027 -0.0065244306
000200 89 ac e4 bd ee 2d b6 bd d4 aa cf bd 6b dc 6c bd
       -0.11165721 -0.08895479 -0.10140005 -0.057827394
000210 67 68 ce bd 82 d0 f4 3d 87 8b ae 3d a7 8e 27 bd
       -0.10078507 0.11953832 0.085227065 -0.04090753
000220 11 86 ef bc c2 3c e1 3c 5d 1d af 3d 01 e5 a6 3b
       -0.029238733 0.027494792 0.085505225 0.0050932174
000230 87 73 07 3e ff 06 57 3d 08 df d0 bc c3 0e 95 bc
       0.13227664 0.052496906 -0.025496975 -0.018195515
000240 a9 53 33 3c 11 7a e9 3c a9 9d 50 3c a9 f6 dd 3d
       0.010945239 0.028500589 0.012732902 0.10838062
000250 98 01 f7 3d 61 cf b5 3b dc e7 20 bc 3b 93 93 3c
       0.12060851 0.005548403 -0.009820905 0.01801454
000260 e0 62 84 3d b2 96 07 3e 8d c6 d8 3d e9 e5 33 3e
       0.064641714 0.1324108 0.105847456 0.17568173
000270 d2 2a 05 3e 38 6b 1e 3d 9f aa c3 3d 1b f0 aa 3d
       0.13004616 0.03867647 0.09554028 0.08346578
000280 64 f7 3d bb 35 3a 60 3d 48 1d 23 bd 81 c1 83 bd
       -0.0028986568 0.05474301 -0.039822847 -0.06433392
000290 da 22 b3 3d b0 27 16 3e f9 9b da 3d 52 60 1d 3e
       0.08746882 0.14663577 0.10674281 0.15368775
0002a0 6a 5e 69 bd a7 e2 79 3d 0b 14 63 3d e8 bb 3d bd
       -0.056974806 0.06100717 0.055439036 -0.04632178
0002b0 56 58 b6 bd 05 53 77 bd 93 ab 22 3d ba be 0c bc
       -0.089035675 -0.060381908 0.039714407 -0.008590395
0002c0 9f 12 cb 3d 1a f1 70 3d 07 9c 1d bd 42 d4 42 3d
       0.09915661 0.058823682 -0.038478877 0.047565706
0002d0 e9 d1 22 be ac 14 6f bd 3f a5 62 3c 4f 63 8b 3d
       -0.15900387 -0.058369324 0.013833343 0.06806051
0002e0 d5 7a cb bd 80 13 35 3a 0c 5b f1 bb e8 fd de 3d
       -0.09935538 0.0006907508 -0.00736559 0.108882725
0002f0 44 4b 5d 3d 9c 6f 1f 3e 86 ab cd bc d9 ba 22 3d
       0.054026857 0.1556992 -0.025106203 0.039728973
000300 80 49 a5 3d 25 10 73 bd 5b 19 c5 bd 31 73 d2 bd
       0.0807066 -0.05934157 -0.09623977 -0.10275877
000310 6c fa 69 3c 0a f9 a4 bd ca 9d b1 bd c8 66 ce bd
       0.014280897 -0.08055313 -0.08672674 -0.10078198
000320 33 80 93 bd a0 d0 08 be 8b 0b 5b be 4b 2b 86 3d
       -0.072021864 -0.13360834 -0.21391122 0.06551226
000330 0f 21 b4 3d d3 7c 95 3d 2a b5 3a 3e a3 3b 4b 3e
       0.08795368 0.07299199 0.18233171 0.19846968
000340 a6 44 d9 3d 30 4c 04 3e e2 2a ec 3d 52 4f a9 3c
       0.10608797 0.12919688 0.11531617 0.020667706
000350 d3 04 e1 3d ea 33 d9 3d 1e 9c 85 3d 7d 76 87 3d
       0.10987248 0.10605605 0.065239176 0.06614397
000360 0e 8b 45 3d 45 6c af bc d5 df 60 bd c2 d7 92 bd
       0.048228316 -0.021413932 -0.054900963 -0.07170059
000370 5c 32 af bd 43 cc fc bd 4e 01 1c bc 50 f1 6f bd
       -0.08554527 -0.12343647 -0.009521795 -0.058579743
000380 44 47 08 be 38 0b 22 be 2e 2d 5b bd b5 6a 48 ba
       -0.13308436 -0.15824592 -0.053509884 -0.0007645295
000390 79 c8 b2 bd 80 f8 9d 3d 62 9d 58 bd 57 4b 56 bd
       -0.087296434 0.07713413 -0.052884467 -0.052317943
0003a0 82 2f 9d bc 38 b9 bd bd 25 6c 69 bc eb b5 fa bc
       -0.019187693 -0.09263843 -0.014246975 -0.030604323
0003b0 7f 1f 24 bc 75 50 be 3d fe 58 c8 3d 7d b5 1f 3d
       -0.010017275 0.0929269 0.09782599 0.03899144
0003c0 0d 79 fa 3d 60 14 8f 3c f0 39 d0 3d ab 1f f0 bc
       0.1223012 0.01746577 0.10167301 -0.029311975
0003d0 ba be 17 3a 68 77 d2 bd 43 83 29 be 60 0e 0b 3d
       0.00057886133 -0.10276681 -0.16553979 0.033949256
0003e0 68 22 1f 3d 3f 6d ae bd 09 5e b0 bd 8b 8f fb bc
       0.03885117 -0.08516931 -0.08611686 -0.030708095
0003f0 70 97 01 be db 9f 26 be 91 61 be bd 9c 7c 55 be
       -0.12655425 -0.16271918 -0.09295953 -0.20848316

EncList.1.conv.bias f4 [32]
000000 e9 81 2b be 67 2a cb 3d de b6 bb 3e 30 c7 56 3e
       -0.16748776 0.09920197 0.36662954 0.20974422
000010 70 e4 f4 bd 73 3c da bd 5d c8 a7 bd d6 e2 05 bd
       -0.119576335 -0.10656061 -0.08192513 -0.03268703
000020 d3 61 1a 3e 4a f4 77 bd 30 03 a0 3d 62 6c a5 3e
       0.1507638 -0.060535707 0.07813108 0.32309252
000030 e9 e1 e9 bd 12 2c 92 3d 7d 91 dd be 51 97 6a 3d
       -0.11420042 0.07137312 -0.4327506 0.057273213
000040 8f a7 79 be 37 bd a9 3d 32 6f 68 3d fe 24 99 bd
       -0.24380325 0.08288043 0.05674667 -0.07477759
000050 3e a2 dd 3c e0 03 a6 be 80 d0 6a bd 7f dc bf 3d
       0.027054902 -0.3242483 -0.057327747 0.09368228
000060 3a 90 07 3d a7 fc b2 bd 27 d1 17 3e c4 dd 40 bd
       0.03309653 -0.08739596 0.14825879 -0.047086492
000070 a7 f9 26 3e 2d a2 6c 3e 38 f9 8a 3e 0f 5d 15 be
       0.16306172 0.2310874 0.27143264 -0.1458628

EncList.2.conv.weight f4 [64, 32, 7]
000000 76 fb f7 3c a0 7d 13 3c 13 e0 31 3d f6 97 f3 bb
       0.030271273 0.009002119 0.043426584 -0.0074338866
000010 b5 34 c9 3d c8 92 9e bc 52 8f ae 3c 93 5a 0a be
       0.09824506 -0.0193571 0.021308575 -0.13511114
000020 7c 3a f3 bd ac 48 97 bd 4a 93 fd bd 44 28 d3 3c
       -0.118763894 -0.07386908 -0.12381609 0.025776036
000030 09 16 3e 3c 1a 0f 05 bc 37 0d ad bd c4 3a 66 bd
       0.011601933 -0.008121276 -0.08449786 -0.056208387
000040 9a a2 85 bd 68 1a dc bd d3 01 39 3c 4c 5a ad 3c
       -0.065251544 -0.10747224 0.011291939 0.021161221
000050 57 3e 23 be e5 31 cb 38 6b 57 eb bc 20 39 22 3c
       -0.1594175 9.689088e-05 -0.028728208 0.009901315
000060 86 b8 43 3d 2d 8e 79 3c f8 ec f6 bc 7a f6 d7 bd
       0.047783397 0.015231651 -0.030142292 -0.105450585
000070 84 64 b0 bd ff 53 b8 bc bd 90 04 3c 5d a0 1e bd
       -0.08612922 -0.02250099 0.008091149 -0.038727153
000080 ef fc ea bc 46 ab 7c bc 76 a4 d5 bd 4e 49 6b bd
       -0.028685061 -0.015421694 -0.10431759 -0.057442956
000090 68 71 66 bd 81 5f 95 3d cf d5 6f 3d 0c 39 62 bc
       -0.056260496 0.072936065 0.058553513 -0.013807546
0000a0 9c 88 b8 bc 20 6a 9f bc 8f 06 1d bc 11 38 5f bc
       -0.022526078 -0.019459784 -0.009584083 -0.013624207
0000b0 a4 1f 40 3d 71 3e ed 3d 73 10 11 3e ad 8a f2 3d
       0.046905175 0.115841754 0.14166431 0.118428566
0000c0 4e d6 79 bd 00 c4 e1 bd bf a6 03 be a3 d2 9c bd
       -0.060995393 -0.11023712 -0.12856577 -0.07657363
0000d0 bd 4b 14 bd 85 7e c4 bd e8 a9 34 be a4 40 c4 3b
       -0.036205042 -0.09594444 -0.17642939 0.005989151
0000e0 aa 59 a3 bc 92 2c 46 bd 9d 44 85 bd 25 62 a5 bc
       -0.019940216 -0.04838235 -0.065072276 -0.0201884
0000f0 9a 07 cf bb 3c 4a 24 bd 15 fb dc bd ef 1b 07 bd
       -0.006318045 -0.040109858 -0.107900776 -0.032985624
000100 7c 6c a9 bd f8 60 f2 bd a3 2c 1d 3d f0 19 ee 3d
       -0.08272645 -0.118349016 0.038372647 0.11626041
000110 e4 97 00 3e 8e 89 02 be a3 9d 12 bb f3 c3 b2 3c
       0.12557942 -0.12747785 -0.002237179 0.021821951
000120 16 91 9b 3b 59 59 de bc 8e 2e e5 3c 5c 05 c7 bb
       0.00474752 -0.027142214 0.0279763 -0.006073637
000130 56 9c 8a bc 9b 61 5f be 00 41 bb bd 56 66 09 bd
       -0.01692025 -0.21814577 -0.09143257 -0.03354486
000140 43 90 1f be 2f 94 dc bd 08 e7 0c be b1 06 06 be
       -0.15582375 -0.10770451 -0.13760006 -0.1308849
000150 27 e9 4c bd 37 cb f8 3b 36 dc 85 bd 24 81 15 3d
       -0.05002704 0.0075925845 -0.065361425 0.03650011
000160 0b 6f 16 3e 13 bc c2 3d 0b e6 9d 3c 82 c5 85 bd
       0.14690797 0.095085286 0.019274732 -0.06531812
000170 1d 6f 8e 3c 54 b9 06 bd b8 61 10 bc 48 44 17 3d
       0.017386967 -0.032891586 -0.00881236 0.036930352
000180 3e 88 8d 3a 8a d7 e2 bd b8 12 f6 bc 62 97 9c 3d
       0.001079805 -0.11076267 -0.030038223 0.076460615
000190 08 c3 39 3e b1 c3 13 3e 0a 9a 39 bc a2 c0 5a 3d
       0.18140805 0.14430119 -0.01132823 0.053406365
0001a0 b5 4a de 3c 3f 9f 24 be 23 18 48 be b4 52 06 be
       0.027135232 -0.16076373 -0.19540457 -0.13117486
0001b0 c3 ae 45 bd 80 d7 0a be 27 ab 24 be ae 56 ea 3c
       -0.04826237 -0.13558769 -0.16080914 0.028605785
0001c0 4c f6 bc bb e1 db 83 3d 62 57 31 bd ff 6b 80 3d
       -0.0057666656 0.06438423 -0.043296225 0.062705986
0001d0 93 bd 28 3c 4d 77 27 bd 13 02 cc bc 3c 17 05 bd
       0.010299104 -0.04088526 -0.024903333 -0.03249286
0001e0 ad df b7 bd 6e fd 8e 3c cc 07 e5 3d 34 56 95 3c
       -0.0897821 0.017454829 0.11183128 0.018229581
0001f0 7b 39 9b bc b3 ed 0b bd 37 c8 cb bc 13 d8 e6 3c
       -0.018948307 -0.034162235 -0.024875743 0.028179204
000200 e3 b0 62 3c bc 40 9c 3d 4a 0a 07 3e 5a e9 5f 3d
       0.013836118 0.076295346 0.13187519 0.0546659
000210 8b 58 2e 3d 1a 2b 09 3c 33 32 b3 bd 45 38 b7 bd
       0.04256491 0.008372093 -0.08749809 -0.089462794
000220 06 10 a3 3d b2 23 46 3e 8c 59 d9 3d fd 88 12 bd
       0.079620406 0.19349554 0.10612783 -0.035775173
000230 b5 b9 22 bd db 16 71 3c b3 01 74 bd 99 58 85 bd
       -0.039727885 0.014714922 -0.059571933 -0.06511039
000240 bd 1f 85 3c 4e ff f0 bd f4 0f 5d 3c da a3 ec 3c
       0.016250486 -0.117674455 0.013492573 0.028886724
000250 ed 16 f6 bb 54 23 e0 3d cd 4e 07 3e ce df a4 3d
       -0.007510057 0.10944238 0.13213654 0.080505
000260 74 84 25 bd 69 4d 77 3c 78 b6 43 3d ed dc c3 3d
       -0.04040952 0.01509414 0.047781438 0.095636226
000270 22 8d 0b 3e 58 6a e4 3b 1b 0e 63 3d d2 9a 85 3c
       0.13628057 0.006970685 0.055433374 0.016309176
000280 05 9d 9c 3d 40 04 2d bd b0 cf d9 3c 81 6a 69 3b
       0.076471366 -0.04224038 0.02658829 0.003561646
000290 ad fc a7 3d 0d f0 04 bd d3 cf 9d 3c fa ba 04 3d
       0.08202491 -0.032455493 0.019264137 0.032404877
0002a0 2a de de bc c1 47 3e 3c 34 29 80 bd 30 cd 96 3d
       -0.027205545 0.011613787 -0.06257859 0.07363355
0002b0 d3 04 b9 3d 6c 63 12 3b 43 63 56 bd 72 7a b1 bd
       0.09034123 0.0022337092 -0.052340757 -0.08665933
0002c0 83 81 ff bd d2 ef 4f bd 99 08 23 bd 8c 06 be 3d
       -0.12475874 -0.05076582 -0.03980312 0.092785925
0002d0 66 9c 26 bc 8b f9 a7 bd b5 de ad bb f5 7d 98 bd
       -0.010169124 -0.082018934 -0.0053060898 -0.074458994
0002e0 d1 08 e3 3c d5 8f 2a 3c a1 7a 77 3d 17 46 d7 3c
       0.027714165 0.010410269 0.060419682 0.026278539
0002f0 72 3f d7 3a 48 20 d2 3c 1e d8 df 3c 7e 07 f7 bc
       0.0016422106 0.025650159 0.027324732 -0.03015494
000300 c8 71 a5 3c 14 3d 9d 3d ea dc c7 3c be 68 9a 3b
       0.020195857 0.07677665 0.024397332 0.0047121933
000310 df 13 b2 3c 9c 60 a0 bc 20 9c cd 3c ed d9 ed 3c
       0.02173799 -0.019577317 0.02509886 0.02903458
000320 65 d3 14 3d e2 40 5f 3d c2 6e d2 3d 8b cd fc bd
       0.036334414 0.054505236 0.102750316 -0.12343892
000330 cc 6b c1 ba 21 f3 8a bd f6 65 ba bd ec 4f 1c be
       -0.0014756857 -0.067846544 -0.09101479 -0.15264863
000340 5d 52 b6 bd e2 ea 9d 3c c9 ef cc 3b f1 de 1d bd
       -0.08902428 0.01927704 0.0062541706 -0.03854269
000350 74 1c ef bc 80 0f d8 bd 08 c1 57 3d b1 55 74 bd
       -0.029188372 -0.105498314 0.052674323 -0.059652034
000360 f9 f7 a8 bd 2a 57 7c bd 1c 6c 05 be 73 f8 ad bd
       -0.08250422 -0.061606564 -0.13029522 -0.084946536
000370 36 a7 80 3d 7d e2 3d 3e 11 ce 2a 3d 4e 7b 13 be
       0.06281893 0.1854343 0.041700426 -0.14402506
000380 63 cb 0a be 25 e2 d1 bd ab 83 94 bc d7 8f 57 3c
       -0.13554148 -0.10248212 -0.01812919 0.013156853
000390 1b a9 26 3e 5c 68 5d 3e 35 bb 72 3e 61 7e 5a be
       0.16275446 0.21621841 0.23704226 -0.21337272
0003a0 c6 ec 05 be a1 e0 f9 bd 3c 16 a5 bd f5 19 d2 bd
       -0.13078603 -0.12201048 -0.080608815 -0.10258857
0003b0 4f fd 9e bd e1 47 e1 bb 05 ed c4 bd 02 56 b6 bd
       -0.077631585 -0.0068750237 -0.096155204 -0.089031234
0003c0 e8 26 b3 3c a5 ca 86 bc 35 4f 39 be 59 e7 3c be
       0.021869138 -0.01645405 -0.18096621 -0.18447627
0003d0 4a b2 83 bd e6 cd 15 3d 37 de b1 bc 05 26 d2 3d
       -0.0643049 0.036573313 -0.021712406 0.10261158
0003e0 a2 71 62 3d ba 39 09 3c e1 f1 b4 bd 01 7c 18 bd
       0.05528415 0.0083755795 -0.08835197 -0.037227634
0003f0 16 2a d4 3c 97 46 72 bd 5b c8 78 bc d3 92 e2 3b
       0.025898974 -0.05914935 -0.015184487 0.0069144755

EncList.2.conv.bias f4 [64]
000000 d3 74 5b be 6e 6e d3 be e3 bd ad 3d 8f cc 10 be
       -0.21431284 -0.4129519 0.08483484 -0.14140533
000010 05 3a 3c 3d af 2a 13 3e 13 1c 2f 3d c3 82 c4 bd
       0.04595377 0.14371751 0.042751383 -0.09595253
000020 ac 55 85 bd 70 25 34 be f9 a9 24 be 95 9c 9f bd
       -0.06510481 -0.17592406 -0.16080464 -0.077935375
000030 92 20 a0 bd f0 1d 19 be 2b 73 93 be b1 9d 41 bd
       -0.07818712 -0.14952826 -0.28798804 -0.047269527
000040 dc 14 38 bd 7a 91 5c 3d 14 da 06 3e be d8 d8 bd
       -0.044941768 0.053849675 0.13169128 -0.10588215
000050 2c b0 66 bd 64 01 c6 bc 72 a2 1a 3d 9b 9b be 3d
       -0.056320354 -0.024170585 0.037752576 0.09307023
000060 32 6f b7 bd 2f a5 d5 3d 6f 6e 01 bd 5b 0e a5 bd
       -0.08956756 0.10431897 -0.03159946 -0.08059379
000070 7d 14 22 3e cf ff c1 be 11 81 35 be b1 5e 43 bb
       0.15828128 -0.3789048 -0.17725016 -0.002981108
000080 eb 97 a0 3d 8f 98 ce 3c 6c 79 3b bd b0 11 9d 3d
       0.07841476 0.02521923 -0.045770094 0.07669389
000090 16 a0 3f be de 2a 87 3d 5c 44 14 be b1 22 15 be
       -0.18713412 0.06599973 -0.14479202 -0.14564015
0000a0 01 7c 71 be 66 f8 91 3d 4f 88 9b be 77 6d 0e 3e
       -0.2358246 0.07127456 -0.30377433 0.13908945
0000b0 8c 6c c6 bd ec de 3e be f6 22 6b bc 38 4d a0 3b
       -0.096886724 -0.18639725 -0.014351597 0.0048920177
0000c0 55 3b 6d be f2 05 52 3d 2f 5d f0 bc 8d ff 31 3c
       -0.23167165 0.0512752 -0.029341308 0.010864151
0000d0 62 41 25 3e c6 28 8a be a5 1a 6a 3c 38 0d 13 3e
       0.16138223 -0.26984233 0.014288579 0.14360511
0000e0 f8 f2 97 3e 01 23 9e 3d 51 68 1c ba cd 49 08 3e
       0.29677558 0.0772152 -0.0005966472 0.13309403
0000f0 4c d0 a9 bd 84 d4 11 bb 15 5a 96 3e ad f8 b6 3c
       -0.082916826 -0.0022251913 0.29365602 0.022335375

EncList.3.conv.weight f4 [128, 64, 7]
000000 50 ab 08 3d 80 68 60 bd 76 d8 8b bc 56 96 53 bc
       0.0333665 -0.05478716 -0.01707099 -0.012914261
000010 29 83 4d 3b 5b a3 30 3d 30 65 1f 3d 3c 75 37 bd
       0.0031358695 0.043124538 0.03891486 -0.044789538
000020 3c 62 82 bd 13 c5 73 bc 52 b8 16 bd 5f a0 3e 3d
       -0.06366393 -0.014878529 -0.036796875 0.04653966
000030 e9 7e ea bb b0 73 c0 3b 5f 82 43 bd d2 3f c1 bd
       -0.007156242 0.005873166 -0.047731753 -0.09436001
000040 9f c6 1f be 71 b6 f3 bd 71 27 15 be 09 40 a1 bd
       -0.15603112 -0.11900032 -0.14565827 -0.07873542
000050 6e 84 82 bd 04 c1 04 3b b1 07 cf 3c 9f ca db 3c
       -0.06372915 0.0020256648 0.025272222 0.026830016
000060 64 bc fe bc a2 3d 30 bd 6a 18 dd bc fc 58 96 bd
       -0.031095691 -0.043027528 -0.02698918 -0.07341191
000070 dc 9e 95 bc d9 1c 49 bd 9c 50 04 bd 3b a9 da 3b
       -0.018264227 -0.049099777 -0.032303438 0.006673006
000080 db 25 15 bd a3 3d b5 bb 60 cf 5a bb 70 58 e8 bc
       -0.036413055 -0.0055310293 -0.0033387765 -0.028362483
000090 c5 cc 89 bc e7 51 0d bd 8a 4f e0 3c f0 21 e8 bc
       -0.016821275 -0.034501936 0.027381677 -0.028336495
0000a0 b7 3b 9c bd 14 6c a0 bd 59 c7 0b 3b 6a 42 05 3d
       -0.07628577 -0.07833114 0.0021328537 0.03253404
0000b0 57 bc 8b 3c 4b 71 5a 3c 86 33 2c 3d 63 aa 69 3c
       0.01705758 0.013332675 0.042041324 0.014261815
0000c0 5f 98 c6 3c e1 24 a4 bb eb ff cf 39 fe 29 26 3d
       0.024242578 -0.005009279 0.0003967279 0.04056739
0000d0 cc eb 49 3b 8a 36 f9 3c 56 27 cb 3a a3 a3 6a bb
       0.0030810712 0.030421514 0.0015499394 -0.0035803101
0000e0 0e 43 97 bd 7a d4 8b bd 31 8b 91 bd 78 2f 79 bd
       -0.073858365 -0.06827636 -0.07106627 -0.060836285
0000f0 0f 59 96 bd 3b 2a 7e bd 26 ae 03 3c 45 44 99 3b
       -0.07341205 -0.062051993 0.008037126 0.004677328
000100 a4 8c 70 3d 6c 6b 86 3d dd 6d 01 bd 19 df b9 3c
       0.058727875 0.06563458 -0.031598914 0.022689389
000110 17 3f ca 3b 41 56 d5 bd 33 50 8b 3b 01 b4 98 3c
       0.0061720717 -0.10416842 0.004251504 0.01864052
000120 04 75 49 bd 4a f4 b6 bd 9e 87 91 bd 50 86 27 bc
       -0.04918386 -0.08933313 -0.07105945 -0.010224894
000130 e0 94 de bd 1b b0 48 bd 81 ba 86 bd 4b 4b f6 bd
       -0.108682394 -0.048996072 -0.065785415 -0.1202608
000140 05 de a2 3b c1 c0 9f bd be f7 05 be 0d 40 c5 bc
       0.0049703144 -0.07800437 -0.13082787 -0.024078393
000150 24 55 bf ba 11 8f 7b bd fb ba a1 bc d2 80 96 bc
       -0.0014597517 -0.061415736 -0.01974248 -0.018371973
000160 1d ba bc bc ae 27 43 3d 6f e6 d7 3c 74 7c 88 bd
       -0.023037964 0.047645263 0.026354996 -0.066643625
000170 0e 61 c2 bd e3 64 bd bd 5a c7 8e bb 5b 31 b1 3c
       -0.09491168 -0.09247758 -0.0043572607 0.02162998
000180 70 94 6a bd 2d c6 0e 3d 9b a6 02 3c 60 63 9b bd
       -0.057270467 0.034856964 0.007974292 -0.07587314
000190 a5 40 e0 3c 0d bd 6e bd 6b c8 c3 3c cf 8b 4d bb
       0.027374575 -0.05828576 0.023899278 -0.003136385
0001a0 7e 0c 71 3d 4d 39 03 bd e9 e6 31 3c 62 ab 2c bd
       0.058849804 -0.03203707 0.010858276 -0.04215563
0001b0 c2 44 66 bd 5f c8 7f bd 59 04 91 ba 59 69 3e bc
       -0.056217916 -0.06244695 -0.0011063918 -0.0116217965
0001c0 92 eb 63 bd f5 3b 18 bd 4d a7 84 bd 5c 9f c6 bd
       -0.05564458 -0.037166554 -0.064772226 -0.09698364
0001d0 8f 87 f0 bb 75 03 93 bd 1b 95 fb 3c 23 0e 23 bd
       -0.0073403786 -0.07178394 0.030710747 -0.039808404
0001e0 40 1a 0a bd c4 56 c4 bd a9 fb 41 bd 26 be c9 bc
       -0.03371644 -0.09586862 -0.047359142 -0.024626803
0001f0 1f 30 c7 3b d7 77 4f 3c b0 f2 8d 3d 42 f9 d5 3d
       0.0060787345 0.012662849 0.069310546 0.10447933
000200 2e 8d 8a 3d 3e d3 95 3c 48 f4 23 3d d1 5c 14 bd
       0.06765209 0.018289205 0.040027887 -0.03622133
000210 82 81 65 3d 2e 99 61 bd 75 bb 22 3b 97 8c a3 bc
       0.05603171 -0.055077724 0.0024830971 -0.0199645
000220 6a 28 2a 3c b9 a4 10 3d 83 2a 87 bd a5 32 1d 3d
       0.010385612 0.03531334 -0.06599905 0.038378377
000230 78 48 36 3b a0 09 65 bd da 0e ae bd 2a 76 a0 bd
       0.002781419 -0.055917382 -0.084989265 -0.07835038
000240 39 32 e6 bb 75 68 ed bc 15 16 bf bc 09 e6 8c bd
       -0.00702503 -0.028980473 -0.02332596 -0.06879813
000250 90 c7 27 3d 7a 99 ac bc 56 fd 47 bd 55 78 17 bd
       0.040961802 -0.021069277 -0.048825584 -0.036979992
000260 8d 9e 0e bd 74 85 97 bd 63 7c 5a bd a7 5d 42 3d
       -0.034819175 -0.07398501 -0.05334128 0.047452595
000270 38 62 d4 bc 2d e3 a6 bd eb b0 22 bd b8 06 b2 bd
       -0.02592574 -0.08148799 -0.039719503 -0.08692688
000280 68 66 40 bd 03 17 36 bd c4 b2 33 bd 32 2c 9c bd
       -0.046972662 -0.04445554 -0.043871656 -0.07625617
000290 55 09 69 3b 4e af bf bc 02 7e b9 bb 8b 5d ca bc
       0.003555854 -0.023399021 -0.0056607733 -0.024702808
0002a0 1c d3 0e bc ff 67 52 bd 6e be cb 3c f0 65 1f 3d
       -0.008717325 -0.05136871 0.024871077 0.038915575
0002b0 52 22 71 3c a6 72 29 bc 59 ac 03 3d 99 55 b3 bc
       0.014717655 -0.010342276 0.032146785 -0.021891402
0002c0 de 1a f1 3c b1 59 27 bc 71 d4 78 bd e9 8d 3d 3b
       0.029431757 -0.010214255 -0.060749475 0.0028923696
0002d0 51 fa 01 3d 7b f5 a9 bc 4c f0 0e bb fe d7 dd 3b
       0.03173286 -0.020746937 -0.0021810709 0.006770133
0002e0 03 db 28 bd 3e 10 db 3c 65 15 e8 bb 39 77 3f 3b
       -0.04122449 0.026741143 -0.0070826286 0.002921535
0002f0 bf 46 61 3d 0f cd 16 3b ae f6 e8 3c 13 a5 a0 3c
       0.05499911 0.0023010408 0.028437939 0.019609964
000300 07 76 96 3d 32 74 74 3d 87 e8 94 3d d7 61 01 3d
       0.07346731 0.059681125 0.072709136 0.031587448
000310 e7 1d ef bd c8 f6 9c bd 9c 84 61 bd aa 5d 9e bd
       -0.11675625 -0.07664257 -0.055058107 -0.07732709
000320 2f 33 33 bc f4 e4 83 bd 73 58 6e bd e0 24 51 bd
       -0.010937496 -0.06440154 -0.05818982 -0.051060557
000330 4c ca ad 3a 79 87 95 bd 9e 35 af 3c 44 3c 1b bb
       0.0013259142 -0.0730123 0.021387871 -0.0023687044
000340 f0 4d 16 3d 94 5b bd 3d 6c ce 86 bd fd 31 2d 3d
       0.03669542 0.09245983 -0.065823406 0.042284
000350 b1 56 22 bd d3 4a 45 bc fc e2 80 3d b5 f5 7a 3d
       -0.039633457 -0.012041765 0.06293294 0.06126948
000360 8b e9 7f 3c b0 7f 30 3d f6 8c 0b 3d 8f 05 8b 3d
       0.015619646 0.043090522 0.034069978 0.067881696
000370 05 8e 3d bb 9a 2b 8b 3d 96 46 81 3b eb 84 eb b9
       -0.0028923762 0.06795426 0.003945182 -0.00044921724
000380 fb d9 e6 3c 1e 37 67 bc f4 5f b8 bc 11 4f 81 bc
       0.028180113 -0.014112262 -0.022506692 -0.015784772
000390 7a e3 25 bd 78 94 a8 3c 50 15 15 bb dc b7 16 3b
       -0.04050014 0.020578608 -0.00227483 0.0022997772
0003a0 04 d0 30 bd 13 9f 89 3d 27 1b 40 3d 8c 35 af bc
       -0.04316713 0.06719794 0.046900894 -0.021387838
0003b0 d5 e8 c9 3d 5b ca fc 3c 73 9d 0b 3d 38 68 33 3d
       0.09858862 0.03085821 0.034085702 0.043800563
0003c0 e0 92 18 3d 54 29 21 be cb 24 86 bd 69 80 9e bb
       0.037249446 -0.15738422 -0.065499865 -0.004837085
0003d0 90 5a 87 3c 3b f8 a4 3b be 04 aa bc ca 9e 97 bc
       0.016522676 0.005034474 -0.020754214 -0.018508334
0003e0 56 77 47 3d af 4d 73 bc 75 58 a4 bd 48 8d 8e bc
       0.048697792 -0.014850064 -0.08024684 -0.017401353
0003f0 b8 2c 58 bd 71 7f a4 bd b4 1d 2e ba 07 1a 97 3b
       -0.052777022 -0.0803212 -0.00066419994 0.004611257

EncList.3.conv.bias f4 [128]
000000 fd d8 84 bd cd cb f0 bc 74 14 14 be a0 9a 69 3e
       -0.064867 -0.029394055 -0.14460927 0.22812891
000010 93 3e a2 bd f8 a2 5e bd 11 1f 11 be 45 c6 cd bb
       -0.07922091 -0.054354638 -0.14172007 -0.006279739
000020 fc 07 bf 3d ae 25 47 bd 20 98 26 bc 0a 70 6a bd
       0.09327695 -0.04861992 -0.010168105 -0.057235755
000030 dd 8e d1 bd 19 9c 77 bd 84 18 46 3e 0d d0 26 bd
       -0.10232327 -0.0604516 0.1934529 -0.040725756
000040 d5 44 a2 3d fd 6c 7f bd f2 77 01 be 61 44 b5 3b
       0.07923285 -0.0623598 -0.12643412 0.005531833
000050 d2 74 f4 bd 4b 3a b9 3d a5 48 a6 3d 8e 85 20 bd
       -0.11936344 0.090443216 0.081193246 -0.039189868
000060 32 6e 74 bd 9b b5 bc bd 1f b5 0e bd 0c 7d 84 3d
       -0.059675403 -0.09214326 -0.0348407 0.06469163
000070 25 37 11 3d 65 4c fd 3d 6b bb c7 bd 57 c0 e8 3d
       0.03545298 0.12368087 -0.09752544 0.11364811
000080 be 97 de bc 0d 68 1b 3c e1 4a b6 3c 7b a9 c8 3d
       -0.027171966 0.009485257 0.022252502 0.09797951
000090 e7 ea b8 be 00 ac 86 3d 04 15 49 3e e7 d9 74 bd
       -0.36116716 0.06575775 0.19636923 -0.05977812
0000a0 75 e2 c8 bd 08 78 28 3e 13 18 f5 bd bd 48 85 3c
       -0.09808818 0.16452038 -0.119674824 0.016270036
0000b0 eb 7b e5 bd 6c c9 89 3c f4 56 e6 3d a4 e7 22 3e
       -0.11205276 0.016819678 0.11247054 0.15908676
0000c0 b9 bf b2 bc 92 f5 0b 3e 30 02 f5 3d b0 5c bc bd
       -0.021819936 0.13667896 0.11963308 -0.09197366
0000d0 8e 68 b3 3e d0 d5 3b 3e 87 a4 72 bd 5f 06 93 bd
       0.35040706 0.18343282 -0.059238937 -0.071789496
0000e0 4b d1 15 3d a8 92 a2 bd 62 cb 92 3c d4 11 c4 3d
       0.03657655 -0.07938129 0.017919246 0.09573713
0000f0 35 b1 60 be c8 31 fe 3c e2 d1 77 bd 1d d3 5e bc
       -0.21942599 0.031029597 -0.060502894 -0.013600138
000100 82 c8 1d be f8 9b 47 3e 8b bc 23 be 05 b4 c0 3d
       -0.15408519 0.19493091 -0.15989892 0.09409336
000110 56 a9 8d 3d a0 02 03 bd b7 80 7f be b6 ff 8b 3d
       0.06917064 -0.031984925 -0.24951445 0.06835882
000120 9a dc 68 3d fc 19 74 3e a7 cf 14 3e 28 53 29 be
       0.056851007 0.23838037 0.14532338 -0.16535628
000130 48 1b ab 3d c1 fd d1 3d d9 f7 00 3d 64 18 c1 3e
       0.08354813 0.10253478 0.031486366 0.3771392
000140 b6 41 99 3c 33 ca ab bd dc 92 9c bd de be 99 3d
       0.018708091 -0.08388176 -0.07645199 0.07507108
000150 92 02 b4 3d 82 74 b2 3d f6 a4 a5 bd d6 07 8e be
       0.08789553 0.08713628 -0.080881044 -0.27740353
000160 80 20 9a be 56 55 0a 3d ce 6d 0b 3e 8d a0 34 3e
       -0.3010292 0.03377279 0.13616106 0.1763937
000170 3a 33 83 be 9d 8a 34 be a2 57 35 3c c5 e8 55 3d
       -0.2562502 -0.17631002 0.011068257 0.05222394
000180 e0 5b 93 3c f4 7b 27 be c6 1f 74 bd e0 4f 04 3e
       0.017988145 -0.16355878 -0.059600614 0.12921095
000190 11 76 ce bd 6f 4a 2c be 00 ff 19 be 96 ad cd bd
       -0.10081113 -0.16825269 -0.15038681 -0.100428745
0001a0 93 23 50 be 73 93 d9 3d 5f b6 de 3d 5d ef 94 bb
       -0.2032607 0.10623827 0.10874628 -0.004545136
0001b0 31 f4 60 3d 71 d2 be bd 1c f3 ee bd 7c 4e 44 be
       0.05492038 -0.09317482 -0.11667463 -0.19170564
0001c0 bf c6 3e 3c ac 13 12 3d 0e 94 a6 3c 8c 2a 45 bc
       0.011644064 0.03566329 0.02033427 -0.01203407
0001d0 b2 32 c9 3c 35 d5 6f 3d 94 d5 23 3d 44 fc 47 3c
       0.024560306 0.05855294 0.039998606 0.012206141
0001e0 a7 09 a7 3c a0 c5 3a be 83 d5 92 ba 30 45 dd bc
       0.020390345 -0.1823945 -0.0011202547 -0.02701053
0001f0 14 e5 20 bc 49 d2 24 be 5a 11 e6 bb e5 04 9e bd
       -0.0098202415 -0.16095842 -0.0070211114 -0.07715777

DecList.0.conv.weight f4 [128, 64, 7]
000000 39 f9 b3 bd 2b c4 83 bd 8f 54 0d be d4 81 0b bd
       -0.0878777 -0.064339004 -0.13801788 -0.03405936
000010 cb 97 82 bd 21 a4 c4 bc af 1a 01 bd bb 53 81 bc
       -0.063766085 -0.024004044 -0.031519588 -0.015786996
000020 7a c4 e8 bb d3 a9 80 3d 7c 2a 5c 3d 5c 13 ca 3d
       -0.0071035 0.062823914 0.053751454 0.09866974
000030 9e 98 c6 3d 8b 0c cf 3a 3a 30 26 be 0a 27 a8 bd
       0.09697078 0.0015796585 -0.16229334 -0.08210571
000040 78 fd 81 bd 17 34 c5 bc 49 6e e8 3c c9 b5 02 bd
       -0.063471735 -0.02407269 0.0283729 -0.031911645
000050 02 06 bd ba b6 98 37 bd 16 6b c8 3a 90 61 20 3d
       -0.0014421346 -0.04482337 0.0015290703 0.039155543
000060 f2 a1 3b bb 11 a7 40 3d 54 75 82 3c d7 46 88 bc
       -0.0028630462 0.047034327 0.015925087 -0.016635342
000070 a9 e1 ee 3c 5a d0 06 3d 8e bb 90 3c d8 d6 06 bd
       0.029160338 0.032913543 0.017667558 -0.032919735
000080 ac 5a 95 3c 22 58 99 bc 9d cc 85 bc 3b ea 46 bd
       0.018231712 -0.018718783 -0.016332919 -0.048563223
000090 42 d8 b4 3c b3 49 66 3c ca 9c 02 bd aa b7 5d 39
       0.022075776 0.014055657 -0.031887807 0.00021144623
0000a0 89 70 20 3d c5 88 11 bd c3 f5 54 bd 9f 3a c8 3b
       0.039169822 -0.035530824 -0.05199219 0.006110504
0000b0 71 38 fc bc d8 3d 28 bd 4c 8f d1 bc 36 0a 4c bb
       -0.030788632 -0.041074604 -0.025581025 -0.0031134016
0000c0 2c 44 9b 3c 2f 6f 82 3c df 19 44 bc b1 19 80 3c
       0.018953405 0.015922157 -0.011969059 0.01563725
0000d0 9c b2 cb bc 10 6a 3f bd 44 d3 e9 3a 2d 71 24 bb
       -0.024865441 -0.04673201 0.0017839451 -0.0025091872
0000e0 f1 41 0b bd 79 c1 1b bd 60 2f 36 bd 1c 6e 4f bc
       -0.033998434 -0.038026307 -0.044478774 -0.012660529
0000f0 b3 5d f6 bc a1 d6 4f bd 24 76 55 bd 95 c1 a0 bb
       -0.030073976 -0.050741795 -0.05211462 -0.0049058893
000100 a6 c0 aa b9 14 3c 8b 3c 59 62 73 bd 5a 2c c1 bd
       -0.0003256846 0.01699642 -0.059419964 -0.094322875
000110 75 88 a8 bd 2c ae 65 bd 60 b8 8a bc cb 70 91 3a
       -0.08229152 -0.056074306 -0.01693362 0.0011096237
000120 25 3f 5d 3c a9 74 40 bc ff 82 9c bd 83 e0 3e bd
       0.013503824 -0.011746564 -0.07642173 -0.04660083
000130 54 26 da bc 30 d5 05 3c 6b 5f be 3c 71 2f 40 bd
       -0.026629604 0.008168504 0.023238858 -0.046920244
000140 f0 73 09 bd 0c ec ef bd e3 d9 ed bd ae 53 01 be
       -0.033557832 -0.11714944 -0.11613824 -0.12629578
000150 c8 ed d1 bc b1 d8 97 bd 2a a2 e1 3c 15 4e 23 3b
       -0.025626078 -0.074143775 0.027543146 0.0024918367
000160 a8 f7 8a 3c d2 98 8b 3c a7 12 49 bd 5b 6b ff 3d
       0.016963795 0.017040644 -0.049090054 0.12471648
000170 67 80 1a 3e 3a 1b 8c 3d 9d 9a a4 3d 9f c5 8e 3d
       0.15088044 0.068411306 0.08037303 0.06971287
000180 53 a1 ae 3d b5 ae de 3d 72 ed 84 3c d4 29 de bb
       0.08526864 0.108731665 0.016226504 -0.0067798886
000190 19 c2 be 3c 5d 26 bf 3d d3 fe ca 3d 80 0f 5f 3d
       0.023285912 0.09333489 0.09911885 0.05445814
0001a0 18 78 32 bc a0 6a 2b 3b e1 9b ff 3a fd 40 b8 3d
       -0.01089289 0.0026156083 0.0019501412 0.089967705
0001b0 92 a5 27 bc 7c 1b 9c bc 29 91 98 bc d7 07 b3 3c
       -0.010232346 -0.019056074 -0.018623905 0.021854324
0001c0 50 75 93 bd bf 0a e3 bd e3 8e dc bd 99 12 81 3a
       -0.0720011 -0.11086034 -0.10769441 0.0009847461
0001d0 57 46 9c 3d 79 ae 2b 3d 05 91 41 3b 38 4c 8c 3c
       0.07630604 0.041914437 0.0029535901 0.017126188
0001e0 21 c1 22 bd 72 15 fa 3c 22 0e af 3a 34 f8 ae 3a
       -0.039734963 0.030527804 0.0013355652 0.0013349117
0001f0 ea a6 a4 3d 4a 06 59 3d 5a e2 46 bd be 9d 9a 3c
       0.08039649 0.052984513 -0.04855571 0.018874045
000200 47 87 24 bc 54 97 ce bc dd 9b 5e bd 1a 49 92 bd
       -0.010042018 -0.025218643 -0.05434786 -0.07142849
000210 2b d6 7c bd 9c 52 09 3e 92 e1 60 3d e4 c1 38 3d
       -0.061727684 0.13410419 0.05490262 0.045106784
000220 46 af 16 bc ab 88 38 bd 20 3f 3a bd b6 ba 8d bd
       -0.009197062 -0.04505221 -0.045470357 -0.06920378
000230 a8 18 24 bd 9f b5 d8 3c 56 69 56 3d e0 a6 d8 bb
       -0.040062577 0.026453791 0.05234655 -0.00661169
000240 5e 21 92 bc 4f e2 7c 3c 6a e8 11 bd 30 75 6d bd
       -0.017838176 0.015434816 -0.035622038 -0.057973087
000250 7f cc 80 bc 6c a2 bd bd 0d de 94 bd 73 db 35 bc
       -0.015722511 -0.09259495 -0.07268915 -0.011099684
000260 57 78 c2 bb ab 73 8a 3c 62 8f ff bd 08 87 34 bd
       -0.005934756 0.016900858 -0.1247852 -0.04407409
000270 db 1a 67 bb 25 e8 04 3d 52 87 9e 3c fb 72 02 3b
       -0.003526381 0.032447953 0.019351635 0.001990496
000280 52 2d 9d bd 36 11 8b bd 5f 32 11 bd 9a b0 85 bd
       -0.0767466 -0.06790392 -0.03544843 -0.06527825
000290 cb f5 4c bd e4 e0 93 bd 28 32 ff 3c a4 2d be 3b
       -0.050039094 -0.07220629 0.031151846 0.0058037806
0002a0 4a 14 d5 3b 0e 86 56 3d 3e 8e 9c bc f9 53 98 3c
       0.006502663 0.05237394 -0.019110795 0.018594729
0002b0 46 77 70 3d 5f cc 25 3d 19 bc 15 3d a2 9d f0 39
       0.058707498 0.040478107 0.036556337 0.00045893813
0002c0 10 00 01 3d 17 75 7c 3d 87 57 35 3d 70 4e f6 bc
       0.0314942 0.061635103 0.044272926 -0.030066699
0002d0 27 c7 e7 bc 33 1a 92 3d b7 18 1f 3c bf bc 10 bc
       -0.028293205 0.07133903 0.009710482 -0.008834063
0002e0 7e 85 0d bc a1 9b ce bc ce c9 06 3d c0 f3 94 3d
       -0.008637784 -0.025220694 0.0329073 0.07273054
0002f0 91 9c 0f bd cf c1 1a bd f4 d8 49 bd 19 5a d5 bc
       -0.035061423 -0.037782487 -0.04927917 -0.026043938
000300 7a 3f 55 3d 69 18 18 3d ab f4 d0 3c 84 be 37 3c
       0.05206249 0.037132654 0.025507292 0.011214856
000310 12 2a 4c 3c f7 46 91 3d fb 8e 93 3c 9e 6d c9 3c
       0.012461202 0.070936136 0.018012514 0.024588402
000320 2b 52 8c 3d 0e be 9a 3d f7 4e 14 3b 8c 20 c7 bd
       0.0685161 0.07555781 0.0022630075 -0.09723005
000330 41 0a a8 bd 13 01 3c bd 4e fa ca bd f2 fa 97 bd
       -0.08205081 -0.045899462 -0.09911023 -0.07420911
000340 c4 11 02 bd 5c dd 73 bd 61 d5 1e bc ef 9e 14 bc
       -0.031755224 -0.059537277 -0.009694428 -0.009071096
000350 83 ad 8a bd e4 0d 04 bd ea 98 52 3b d5 d8 06 bd
       -0.06771376 -0.03223981 0.00321346 -0.03292163
000360 c9 74 11 bd 20 ec 39 bd af bf bd bc 21 78 d7 bd
       -0.035511766 -0.045391202 -0.02316269 -0.1052096
000370 0a 93 90 bc 7b 5e 97 bb 04 44 19 3d 13 67 de 3d
       -0.017648239 -0.0046194172 0.03741838 0.108595036
000380 8a 78 26 bd 25 9e bb bd c2 ea 87 bd 4c ba 97 bc
       -0.0406423 -0.09161023 -0.066365734 -0.01852145
000390 78 37 c7 bd 55 7a fe bc d6 21 d5 bc 29 5c a8 3b
       -0.09727377 -0.031064192 -0.02601711 0.0051379395
0003a0 69 63 e1 bc 85 46 87 bc 09 ae f1 3c f7 33 c4 3c
       -0.027513223 -0.016513119 0.029501932 0.02395056
0003b0 62 bf 2e 3d e6 07 2b bd 5f 61 bd bb d2 b7 91 bc
       0.042662986 -0.04175558 -0.00577943 -0.017787848
0003c0 31 7e 5b bc 81 ff 24 bd 7f 34 ac bd 53 1f 2e bc
       -0.013396786 -0.04028273 -0.0840845 -0.010627585
0003d0 cd 0f 5b bd 23 9d 10 3d 4f 21 ea 3c 6c d0 2a 3d
       -0.053481866 0.035306107 0.028580336 0.041702673
0003e0 3e 1f 51 3d 98 47 67 3c 35 bc 42 bc 21 e4 b0 3c
       0.051055185 0.01411619 -0.011885692 0.021593155
0003f0 ef dd 2d 3d 5a f3 55 3d 8f 73 9a bd 54 57 b0 bd
       0.04244798 0.05223403 -0.07541572 -0.086104065

DecList.0.conv.bias f4 [64]
000000 35 45 93 3b 0d 2e 9e bc 52 b7 90 3d b4 19 46 3c
       0.004494334 -0.019309068 0.070662156 0.012091089
000010 3b 7d 46 bd 8a d3 23 3c e4 4d 40 be a3 ea 13 3c
       -0.048459273 0.009999165 -0.18779713 0.00902811
000020 39 64 8b 3e 3c c8 9c bd b2 b2 e7 bc b5 a9 f5 bc
       0.272249 -0.07655379 -0.02828345 -0.02998815
000030 fd 32 81 bd e1 f5 26 be e3 69 22 3d 23 eb e9 3d
       -0.06308553 -0.16304733 0.039651763 0.11421802
000040 46 b4 0d be 55 27 22 bd 09 9e b9 bd 50 ad c8 bd
       -0.138383 -0.03958829 -0.09063346 -0.09798682
000050 c5 7f b7 bc ed 74 81 3d 16 a7 43 3e 07 b8 11 be
       -0.022399792 0.0632113 0.19106707 -0.14230357
000060 a8 0a 0e 3d 07 cc 6e bd 5b e5 1a 3e f5 1b 05 be
       0.03467813 -0.058300044 0.15126555 -0.12998946
000070 3b d9 4b 3c 97 9a 6e 3d 64 4e 11 3e 0f 9b a3 3b
       0.0124419285 0.058252897 0.1419006 0.0049928497
000080 14 16 7e be 40 6e 24 3e c9 50 b8 bd 87 78 2c be
       -0.2481311 0.16057682 -0.089997835 -0.16842853
000090 f3 7f 58 3e c2 58 1c bd de f3 a9 bd 44 11 b4 bc
       0.21142559 -0.038170584 -0.08298467 -0.02198089
0000a0 05 03 bb 3e c5 af af bc 8f a2 1f be 5e 24 30 bd
       0.3652574 -0.021446118 -0.15589355 -0.043003432
0000b0 98 b8 ff 3d 59 bb 95 be ff 43 82 bd fe d3 6f 3e
       0.1248638 -0.29244497 -0.063606255 0.23420712
0000c0 c1 08 12 be 8e 35 53 3e 3a 5c b1 bd 4d 7e 07 be
       -0.14261152 0.20625898 -0.08660169 -0.13231774
0000d0 5e ee 23 3e 0d 5b 42 be a4 8b 92 bd 51 51 9a 3e
       0.16008899 -0.18980046 -0.071555406 0.30140164
0000e0 84 75 6c 3d 01 de 53 3d 80 cf d7 3c e4 f4 e9 3e
       0.05772926 0.05172539 0.02634406 0.4569465
0000f0 37 29 17 3d dc 5f 67 bd 69 0d 22 3e 6e 0d 87 3d
       0.03690454 -0.056487903 0.15825428 0.065943584

DecList.0.ECA.conv.weight f4 [1, 1, 3]
000000 31 94 82 3e 21 41 2c bd 71 14 3a bf
       0.25503686 -0.0420543 -0.7268744
