checkpoints/best_fcndae.pth (torch, 350780 bytes, 63 tensors)

encoder.0.conv.weight f4 [40, 1, 16]
-0.20245367 0.12319194 -0.06763472 0.1799833 0.08276204 0.17777295 0.05832489 -0.040008266
0.08460791 -0.20358741 -0.21263656 -0.12979983 -0.041281197 -0.19206347 0.13848007 0.18179028
-0.17757998 0.112571865 0.20337656 0.13772886 -0.12823729 0.04014155 -0.21450014 0.012369242
0.12291143 0.092468955 -0.25328353 -0.03178662 -0.05532145 0.004029743 0.05580774 0.25832018
0.14331615 -0.06531038 0.011298115 0.17722218 -0.25009468 -0.08305869 -0.13648508 -0.23375958
-0.17045125 0.25771612 -0.12862529 0.06463142 -0.053065494 0.08360546 0.0955887 0.24741955
-0.218898 0.14821848 -0.23180899 -0.05622309 -0.055821773 0.087454155 0.11422485 0.1947469
-0.19526626 0.2599675 0.055520512 -0.1152986 0.121277645 0.15009527 -0.12630221 -0.1952544
0.13053918 -0.067378566 -0.064099684 0.072928235 0.07051213 -0.21689224 0.029216785 0.2111328
-0.060443927 0.04502452 -0.12906902 -0.025821378 -0.20948349 -0.111451946 0.05005274 0.2812325
-0.13660958 -0.23128442 0.036962748 0.015979657 0.24171898 -0.04915243 0.120616235 0.21168993
-0.0903069 -0.23961681 -0.10906065 0.02433998 0.014217749 0.04395845 0.28308034 -0.13481712
-0.22770706 0.09939278 -0.18936563 -0.019305289 0.16812228 0.055226304 -0.108297914 0.20289348
-0.0063183885 -0.025708206 0.13359283 0.0006764115 0.11436398 -0.0081909 0.047800403 -0.1309554
0.0896364 -0.028031493 -0.21287344 -0.0177183 0.20300226 -0.093084976 0.08848127 -0.23043555
0.1272485 0.17042221 -0.05584451 -0.1881893 0.20879234 0.15096825 -0.022530293 -0.17997248
0.005954416 -0.17650256 0.12435187 -0.10639648 0.25824267 -0.20120806 -0.20357239 -0.021960285
-0.15452152 0.09163704 0.054646637 -0.0360015 -0.13497229 0.17069377 -0.061262008 0.26247033
-0.17624918 -0.01750587 0.090176456 -0.02437013 0.07814483 -0.02473495 0.23219427 -0.10107613
0.2107853 -0.09610846 0.1195627 0.07881086 -0.19852944 -0.12843046 -0.02946347 -0.17250526
0.21071102 0.13352631 0.019618059 -0.008931853 0.24564977 0.10023051 -0.12657903 -0.15953343
-0.15451927 -0.25894856 0.08223878 0.112754956 0.08916136 -0.053608 -0.13530433 0.20722435
0.20709221 -0.22186281 -0.10181097 0.022994498 0.21703328 -0.2066622 0.19017115 -0.040343076
-0.16950834 -0.016185181 0.06886459 0.16326319 0.03197639 -0.17129278 -0.07911679 0.11046971
-0.13294415 -0.15363647 -0.24769193 -0.24851997 0.17119783 0.05647416 -0.019710513 0.23633903
-0.10702502 -0.004879004 0.0100622885 0.19665128 -0.1054376 0.09588317 0.23936558 -0.08517139
0.12831777 0.015555253 0.12711017 -0.23644458 0.2254826 -0.02707964 -0.026229525 -0.043428306
0.120110154 0.14580064 -0.24618998 0.16287237 -0.16970451 -0.1652882 -0.091666184 0.031223191
-0.22956407 -0.13738394 -0.09765492 0.06423538 0.10007563 0.15828905 0.15088342 0.09601309
0.11830615 -0.10740457 -0.051165283 0.047108155 -0.21243429 0.007860761 0.21815139 -0.13915111
-0.15068965 -0.089854926 -0.21467757 0.18217117 0.23042482 0.16776986 0.22451456 -0.13099107
-0.23921436 -0.051960047 -0.12023021 0.07595764 0.06610888 -0.07118482 -0.16378571 0.28177202
00000000: 0450 4fbe 0e4c fc3d 1284 8abd 8b4d 383e
00000010: 257f a93d 1d0a 363e 14e6 6e3d b5df 23bd
00000020: e946 ad3d 3879 50be 66bd 59be 3fea 04be
00000030: 7916 29bd 49ac 44be b8cd 0d3e 3b27 3a3e
00000040: 87d7 35be 148c e63d f241 503e cb08 0d3e
00000050: a350 03be 776b 243d eda5 5bbe 5ca8 4a3c
00000060: fdb8 fb3d 5d60 bd3d 61ae 81be b032 02bd
00000070: bf98 62bd ef0b 843b a896 643d 8b42 843e
00000080: 78c1 123e 73c1 85bd bb1b 393c bb79 353e
00000090: 690c 80be ad1a aabd bfc2 0bbe ac5e 6fbe
000000a0: c68a 2ebe 5ef3 833e 59b6 03be 7a5d 843d
000000b0: 345b 59bd 5739 ab3d 02c4 c33d 8d5b 7d3e
000000c0: cc26 60be 96c6 173e 565f 6dbe 2f4a 66bd
000000d0: 5fa5 64bd 2a1b b33d b8ee e93d bb6b 473e
000000e0: e1f3 47be 761a 853e 7a69 633d ac21 ecbd
000000f0: 6a60 f83d 93b2 193e 5e55 01be c5f0 47be
00000100: 10ac 053e c6fd 89bd b246 83bd 665b 953d
00000110: aa68 903d 0019 5ebe 0a58 ef3c 3233 583e
00000120: 0d94 77bd a26b 383d ab2a 04be 5b87 d3bc
00000130: d782 56be eb40 e4bd 1a04 4d3d b5fd 8f3e
00000140: 62e3 0bbe d3d5 6cbe 4066 173d c5e7 823c
00000150: 2e85 773e 0f54 49bd a505 f73d 3fc5 583e
00000160: d3f2 b8bd 1c5e 75be 315b dfbd a364 c73c
00000170: 90f1 683c c70d 343d e8ef 903e 800d 0abe
00000180: 0a2c 69be 718e cb3d 10e9 41be 2026 9ebc
00000190: 3f28 2c3e fa34 623d 4ccb ddbd 4fc3 4f3e
000001a0: 7c0a cfbb 049a d2bc 8fcc 083e 3551 313a
000001b0: aa37 ea3d 2033 06bc 5bca 433d 2c19 06be
000001c0: 4a93 b73d 4da2 e5bc 7ffb 59be f825 91bc
000001d0: d3df 4f3e 56a3 bebd ab35 b53d 4cf7 6bbe
000001e0: 6e4d 023e 2983 2e3e 37bd 64bd b2b4 40be
000001f0: a9cd 553e 6c97 1a3e 7391 b8bc b54a 38be
00000200: 431d c33b 16bd 34be 31ac fe3d 66e6 d9bd
00000210: 6238 843e 7c09 4ebe 4875 50be 0ee6 b3bc
00000220: e43a 1ebe 33ac bb3d 27d5 5f3d 4f76 13bd
00000230: 2d36 0abe 59ca 2e3e dfed 7abd 8362 863e
00000240: aa7a 34be 7868 8fbc 6fae b83d dea3 c7bc
00000250: 660a a03d f3a0 cabc 56c4 6d3e 0101 cfbd
00000260: 1ad8 573e 83d4 c4bd 4add f43d 9767 a13d
00000270: 4d4b 4bbe 4683 03be 605d f1bc 38a5 30be
00000280: a1c4 573e 1fbb 083e 0db6 a03c e856 12bc
00000290: 9d8b 7b3e a745 cd3d ef9d 01be bb5c 23be
000002a0: 4d3a 1ebe e894 84be ce6c a83d 12ec e63d
000002b0: 3b9a b63d 1094 5bbd 388d 0abe 9f32 543e
000002c0: fb0f 543e 0130 63be 4582 d0bd f55e bc3c
000002d0: f93d 5e3e 419f 53be 3abc 423e c83e 25bd
000002e0: 9893 2dbe c996 84bc e108 8d3d 772e 273e
000002f0: adf9 023d 6067 2fbe fc07 a2bd f13d e23d
00000300: 8322 08be e152 1dbe f4a2 7dbe 057c 7ebe
00000310: 7c4e 2f3e 7351 673d f177 a1bc dc02 723e
00000320: ef2f dbbd 0de0 9fbb 4cdc 243c f45e 493e
00000330: abef d7bd 655e c43d 401c 753e 566e aebd
00000340: bc65 033e 76db 7e3c 2b29 023e 871e 72be
00000350: e9e4 663e 1fd6 ddbc 4ddf d6bc e1e1 31bd
00000360: 50fc f53d c34c 153e 3a19 7cbe 04c8 263e
00000370: 05c7 2dbe 4f41 29be 7bbb bbbd c7c7 ff3c
00000380: d812 6bbe 60ae 0cbe 4dff c7bd d78d 833d
00000390: 74f4 cc3d 8616 223e 2f81 1a3e 83a2 c43d
000003a0: 7f4a f23d edf6 dbbd b092 51bd 7bf4 403d
000003b0: 6088 59be 6cca 003c 1463 5f3e a17d 0ebe
000003c0: 634e 1abe dc05 b8bd 70d4 5bbe 148b 3a3e
000003d0: 7cf4 6b3e ddcb 2b3e 25e7 653e 8622 06be
000003e0: 9cf4 74be 0fd4 54bd 423b f6bd ae8f 9b3d
000003f0: 1864 873d 59c9 91bd 71b7 27be 6c44 903e

encoder.0.conv.bias f4 [40]
-0.22306085 -0.20359254 -0.26592326 0.052183907 0.1924521 -0.15155528 -0.16228782 -0.12369574
0.0042974264 0.24051753 -0.20553069 -0.13653418 -0.00090243225 0.15822884 0.29519394 -0.19883044
-0.018868104 -0.16393271 -0.15691043 0.094347045 -0.08467104 0.046269745 0.19290781 0.031606928
0.24855189 0.026367508 -0.011745122 0.26054078 -0.21645279 0.021068225 0.10094104 -0.16644314
-0.10985221 0.15390019 -0.1045534 0.021177197 -0.019958792 -0.06887706 -0.10940892 -0.091873735
00000000: 106a 64be 907a 50be 1827 88be cbbe 553d
00000010: 2a12 453e 4f31 1bbe c72e 26be 3154 fdbd
00000020: 6dd1 8c3b 3a4a 763e a376 52be 9ecf 0bbe
00000030: 3491 6cba be06 223e a923 973e 359a 4bbe
00000040: 4891 9abc fadd 27be 21ad 20be 0639 c13d
00000050: 0368 adbd 5885 3d3d a089 453e 4476 013d
00000060: 6384 7e3e ac00 d83c 9d6e 40bc 9a65 853e
00000070: cda5 5dbe 4597 ac3c 2dba ce3d 1270 2abe
00000080: 32fa e0bd 0398 1d3e 1820 d6bd cd7b ad3c
00000090: 9f80 a3bc 6b0f 8dbd c911 e0bd 4c28 bcbd

encoder.0.bn.weight f4 [40]
1.1824266 0.8042475 1.1176931 1.2549845 1.1513306 1.2580065 0.8423254 1.0806563
0.902029 0.89940625 0.87225395 1.2877833 0.88748175 1.0027177 1.1958174 1.3321003
1.3055494 0.86376256 1.3152422 0.84942514 1.1324432 1.0303105 0.82615256 1.2545205
0.8503119 0.79345006 1.1205623 0.8881175 1.3901136 1.3812921 1.2045274 1.021251
0.8304639 0.87679285 1.2609937 0.96772486 0.91901207 1.1598269 1.019228 0.9912464
00000000: c159 973f 2ae3 4d3f 9110 8f3f 55a3 a03f
00000010: cd5e 933f 5b06 a13f a3a2 573f f252 8a3f
00000020: 5feb 663f 7d3f 663f 094c 5f3f 15d6 a43f
00000030: 0132 633f 0e59 803f 8b10 993f 4382 aa3f
00000040: 3e1c a73f 8b1f 5d3f db59 a83f ed73 593f
00000050: e6f3 903f 37e1 833f bc7e 533f 2194 a03f
00000060: 0aae 593f 8b1f 4b3f 966e 8f3f ab5b 633f
00000070: 3eef b13f 2ece b03f f42d 9a3f 5ab8 823f
00000080: 4899 543f 7f75 603f 3e68 a13f d1bc 773f
00000090: 6044 6b3f 3575 943f 1076 823f 53c2 7d3f

encoder.0.bn.bias f4 [40]
-0.3707537 -0.22841267 0.021271316 -0.24982776 -0.14035836 -0.21594155 -0.2778714 -0.2765542
-0.06918735 0.049327575 -0.07208627 -0.4728565 -0.25422812 -0.15004897 -0.21869346 0.084842965
-0.25652936 -0.098030426 -0.39535686 0.026803996 -0.447463 -0.213608 -0.04374185 -0.12146877
-0.19639567 -0.023432607 -0.023844844 -0.13572726 0.05667699 -0.20290288 -0.20386656 -0.13097048
-0.18723932 -0.09566874 0.25969377 -0.16668987 -0.075398795 -0.033085946 -0.20424955 -0.24584304
00000000: 6ed3 bdbe 03e5 69be 2f41 ae3c d9d2 7fbe
00000010: 1aba 0fbe c81f 5dbe 2945 8ebe 8398 8dbe
00000020: 19b2 8dbd b60b 4a3d f7a1 93bd 3f1a f2be
00000030: 302a 82be 70a6 19be 2ef1 5fbe 26c2 ad3d
00000040: d157 83be 2dc4 c8bd 376c cabe 0e94 db3c
00000050: df19 e5be 0ebc 5abe a72a 33bd 9ec4 f8bd
00000060: f21b 49be bdf5 bfbc 4356 c3bc 16fc 0abe
00000070: 2226 683d c6c5 4fbe 65c2 50be 201d 06be
00000080: aabb 3fbe f9ed c3bd 95f6 843e c0b0 2abe
00000090: af6a 9abd 2185 07bd cb26 51be 47be 7bbe

encoder.0.bn.running_mean f4 [40]
-0.22200833 -0.20639862 -0.2651485 0.053186376 0.19242574 -0.1515654 -0.16402741 -0.12386532
0.006417621 0.24294336 -0.21038222 -0.13668187 0.0006683153 0.15900007 0.29536638 -0.1986713
-0.018905997 -0.15306439 -0.15696967 0.09806852 -0.085341886 0.04706523 0.19443457 0.031442214
0.24517693 0.04957092 -0.011180587 0.258422 -0.2167636 0.021017954 0.10088615 -0.1670308
-0.108162984 0.15368304 -0.1044231 0.021577038 -0.015916828 -0.06835372 -0.10823779 -0.092153944
00000000: 2756 63be 295a 53be 8bc1 87be f5d9 593d
00000010: 410b 453e f633 1bbe cdf6 27be 1aad fdbd
00000020: e84a d23b 25c6 783e 706e 57be 55f6 0bbe
00000030: e131 2f3a ead0 223e 433a 973e 7d70 4bbe
00000040: c0e0 9abc e9bc 1cbe a8bc 20be 26d8 c83d
00000050: bac7 aebd 78c7 403d db19 473e 8dc9 003d
00000060: a90f 7b3e e10a 4b3d c82e 37bc e34f 843e
00000070: 47f7 5dbe d82d ac3c 669d ce3d 1f0a 2bbe
00000080: 8e84 ddbd 165f 1d3e c7db d5bd 54c2 b03c
00000090: 0264 82bc 09fd 8bbd c6ab ddbd 35bb bcbd

encoder.0.bn.running_var f4 [40]
0.08013271 0.088226154 0.14927804 0.06706479 0.018785104 0.035085414 0.08285 0.008139068
0.11676958 0.12249144 0.2814808 0.001826558 0.23557237 0.0799389 0.06360796 0.03468012
0.036991436 1.323408 0.014085707 0.22341734 0.068972796 0.12100005 0.10597372 0.014274484
0.43661413 4.6584077 0.25591648 0.13838543 0.015700743 0.027096957 0.06403693 0.25789556
0.077735156 0.029571299 0.1156688 0.018870933 0.40338308 0.09536719 0.06867255 0.025848664
00000000: 9e1c a43d eaaf b43d 58dc 183e 4459 893d
00000010: 38e3 993c b9b5 0f3d 43ad a93d ba59 053c
00000020: e424 ef3d cbdc fa3d 401e 903e 1e69 ef3a
00000030: e239 713e 02b7 a33d e444 823d be0c 0e3d
00000040: 5584 173d 6f65 a93f bdc7 663c 84c7 643e
00000050: 9c41 8d3d e0ce f73d c008 d93d 86df 693c
00000060: e38b df3e ad11 9540 7c07 833e e9b4 0d3e
00000070: d89e 803c 70fa dd3c cb25 833d e30a 843e
00000080: 9c33 9f3d 823f f23c c4e3 ec3d 3797 9a3c
00000090: 3a88 ce3e e04f c33d 32a4 8c3d 94c0 d33c

encoder.1.conv.weight f4 [20, 40, 16]
0.01204493 -0.047145817 -0.045291126 0.034888092 -0.008466722 0.096927896 0.027357383 0.04858924
-0.04760763 0.042742778 -0.08679671 -0.032495216 -0.061292693 0.03732861 0.0056748185 0.1259676
-0.007508453 0.014822666 0.045348093 -0.0059537827 -0.01511035 -0.011589464 -0.03312665 -0.0030808316
-0.06555748 -0.057214268 -0.025474193 -0.060705822 0.006472334 -0.02882991 -0.0050652004 -0.015352841
-0.02125457 -0.05760946 -0.09085691 -0.0008763095 0.057835523 0.10973095 0.08027434 0.045323685
0.023592524 -0.0037032294 -0.015964113 -0.02466532 0.034910377 -0.0076896795 0.031591322 0.016458318
-0.09164803 -0.026892561 -0.022262858 -0.042369023 0.034783 0.029057637 0.071708 0.055286366
0.06115281 -0.026519295 0.016362632 -0.1250118 0.008282068 -0.107358105 0.03135803 -0.14657268
-0.06413555 -0.02366022 0.06590338 0.002161605 0.034826044 -0.047869753 0.0022949665 -0.04904649
-0.00613221 -0.0024938476 -0.03992597 0.056822516 -0.017704371 0.08405263 -0.08757745 0.07172177
0.05302042 0.023853427 0.047169592 -0.051077362 0.013163358 -0.07261658 0.058837224 -0.05877559
0.039112143 -0.06120103 -0.01965358 -0.056352396 -0.044702545 0.020200076 -0.052303776 0.028243924
-0.0034531483 -0.0018520098 0.00441545 -0.0042698337 0.046803713 0.029848332 0.03751936 -0.006128746
0.039537508 0.04404965 0.022042321 0.03134655 -0.027999349 -0.024623299 -0.06425339 0.0057531507
-0.005913539 0.06825047 -0.061476924 0.024595303 0.01363943 -0.010223479 0.01620454 0.07220652
0.0735409 -0.017819164 0.032186203 0.007497556 0.032735836 -0.032821875 0.08361025 -0.08550673
-0.043269936 -0.04958357 -0.023103287 0.023837246 0.03452362 0.010300383 0.06775277 0.033765987
0.043288734 -0.009023113 0.055974007 0.034075126 0.058342773 0.04364736 0.038507424 -0.031146165
0.059811726 0.028637597 0.036256526 0.037074108 0.03539017 0.011999667 0.048440356 0.032621108
0.0137943765 -0.05258906 -0.08710899 -0.05045613 -0.062955484 -0.05907962 -0.0022146904 -0.008371028
0.012301329 0.06027623 0.021555174 -0.00262192 -0.0016049697 -0.0016370052 0.012685089 0.0023430458
-0.025206571 -0.005799682 0.0041868715 0.02355975 -0.033598594 -0.00044608722 0.005700529 0.0016471359
0.07413275 -0.068510674 0.041854754 -0.103511035 0.011515928 -0.1582393 -0.023729613 0.03273134
-0.020497479 0.06558223 -0.10296823 0.056268137 -0.05859103 0.078020275 -0.00597069 0.19975445
-0.013699586 -0.05918099 -0.036257956 -0.017290983 -0.03818577 0.0055724005 0.02176689 0.05155979
0.083209336 0.0714026 -0.0036866886 -0.022413181 0.04012078 -0.018005712 0.015023915 0.03716454
0.01301655 0.010137733 0.021767192 0.0019530521 0.015988236 -0.014832772 0.010909785 0.028153803
0.03681491 0.038814936 -0.08395964 -0.021764345 -0.053682927 0.024016777 -0.03378248 -0.004551874
0.022166066 0.0039919955 0.020584196 -0.08111129 -0.046421092 0.052665982 0.09709928 0.011942201
0.052007552 -0.011331822 -0.0035955922 -0.042588722 -0.03977297 -0.039746895 -0.13137291 -0.06820564
0.21708818 0.041456457 0.10798572 -0.008612332 -0.007438794 -0.10686535 -0.023015972 -0.04735387
-0.037676632 -0.05999083 -0.07319263 -0.08955649 -0.04502434 -0.036992885 -0.0679153 0.001619308
00000000: 1958 453c f91b 41bd 3083 39bd d1e6 0e3d
00000010: 02b8 0abc 2282 c63d 971c e03c 8305 473d
00000020: 3800 43bd 0d13 2f3d 79c2 b1bd b419 05bd
00000030: 0c0e 7bbd e2e5 183d d4f3 b93b a7fd 003e
00000040: 7809 f6bb c4da 723c ecbe 393d f317 c3bb
00000050: 6791 77bc bce1 3dbc cfaf 07bd c7e7 49bb
00000060: 0043 86bd 8259 6abd 41af d0bc aba6 78bd
00000070: df15 d43b b42c ecbc fbf9 a5bb 7b8a 7bbc
00000080: 101e aebc e6f7 6bbd 3013 babd 23b8 65ba
00000090: f1e4 6c3d 9fba e03d e066 a43d 54a5 393d
000000a0: 1c45 c13c e1b1 72bb 2cc7 82bc ed0e cabc
000000b0: 2ffe 0e3d b5f9 fbbb e765 013d 98d3 863c
000000c0: f6b1 bbbd ca4d dcbc 9960 b6bc 248b 2dbd
000000d0: 9e78 0e3d 480a ee3c a5db 923d f573 623d
000000e0: 5e7b 7a3d fe3e d9bc ed0a 863c 1803 00be
000000f0: 83b1 073c 91de dbbd 4771 003d 2617 16be
00000100: 8059 83bd 14d3 c1bc 5af8 863d b7a9 0d3b
00000110: c1a5 0e3d 1313 44bd 2667 163b f9e4 48bd
00000120: b5f0 c8bb d26f 23bb 6a89 23bd babe 683d
00000130: c208 91bc c923 ac3d ce5b b3bd dde2 923d
00000140: f12b 593d 4368 c33c e734 413d 7f36 51bd
00000150: 20ab 573c 00b8 94bd 4dff 703d acbe 70bd
00000160: 0e34 203d eead 7abd 8b00 a1bc c5d1 66bd
00000170: 041a 37bd a17a a53c 7c3c 56bd cd5f e73c
00000180: 374e 62bb 23bf f2ba 7baf 903b f6e9 8bbb
00000190: 40b5 3f3d 7d84 f43c e7ad 193d a6d3 c8bb
000001a0: 15f2 213d 686d 343d 1992 b43c 3d65 003d
000001b0: e45e e5bc cdb6 c9bc 4897 83bd ed84 bc3b
000001c0: 5cc6 c1bb e7c6 8b3d 3acf 7bbd 177c c93c
000001d0: ea77 5f3c 6180 27bc 62bf 843c 03e1 933d
000001e0: 9d9c 963d 7ff9 91bc aed5 033d 0fae f53b
000001f0: 0316 063d 3b70 06bd da3b ab3d 271e afbd
00000200: d13b 31bd 2418 4bbd 1b43 bdbc 5446 c33c
00000210: a468 0d3d f0c2 283c f7c1 8a3d 344e 0a3d
00000220: 874f 313d aed5 13bc 0045 653d 5c92 0b3d
00000230: d5f8 6e3d 93c7 323d f6b9 1d3d 3e26 ffbc
00000240: 24fd 743d 6599 ea3c b981 143d 05db 173d
00000250: 48f5 103d 409a 443c 6569 463d b69d 053d
00000260: cf01 623c a067 57bd 3366 b2bd 16ab 4ebd
00000270: ceee 80bd 79fd 71bd 5724 11bb a326 09bc
00000280: 838b 493c 35e4 763d 7a94 b03c 85d4 2bbb
00000290: d95d d2ba c890 d6ba 1fd5 4f3c c98d 193b
000002a0: 037e cebc 420b bebb 0632 893b 6000 c13c
000002b0: ae9e 09bd d0e0 e9b9 81cb ba3b b6e4 d73a
000002c0: e9d2 973d 534f 8cbd e46f 2b3d 98fd d3bd
000002d0: 4ead 3c3c 7c09 22be 9b64 c2bc 4c11 063d
000002e0: 54ea a7bc fa4f 863d 02e1 d2bd 6b79 663d
000002f0: 26fd 6fbd 18c9 9f3d c7a5 c3bb 6e8c 4c3e
00000300: 3a74 60bc c467 72bd 3983 14bd d2a5 8dbc
00000310: af68 1cbd af98 b63b 7a50 b23c 5c30 533d
00000320: a869 aa3d 873b 923d 5f9c 71bb d99b b7bc
00000330: b055 243d b780 93bc de26 763c d839 183d
00000340: 5e43 553c bc18 263c 1c51 b23c 8efd ff3a
00000350: c3f9 823c 2805 73bc f4be 323c cea2 e63c
00000360: 3bcb 163d 69fc 1e3d 08f3 abbd 244b b2bc
00000370: a1e2 5bbd d5be c43c 7f5f 0abd e327 95bb
00000380: 9c95 b53c 49cf 823b 30a0 a83c ad1d a6bd
00000390: 0b24 3ebd 49b8 573d fddb c63d 39a9 433c
000003a0: df05 553d 1ba9 39bc 07a4 6bbb 8371 2ebd
000003b0: fbe8 22bd a4cd 22bd 9f86 06be 66af 8bbd
000003c0: 5d4c 5e3e 3fce 293d 9e27 dd3d bd1a 0dbc
000003d0: 20c1 f3bb 38dc dabd fe8b bcbc 22f6 41bd
000003e0: d052 1abd f2b8 75bd 05e6 95bd 6569 b7bd
000003f0: 716b 38bd da85 17bd 2d17 8bbd f63e d43a

encoder.1.conv.bias f4 [20]
-0.063997336 -0.09222759 -0.024517573 0.10809455 0.006118543 -0.009610198 -0.008828747 -0.046887293
-0.093476884 0.06941414 0.026265286 0.082105905 -0.03955038 0.07955908 -0.040975157 0.045309648
0.035008255 -0.026589558 -0.051326312 -0.11215227
00000000: 0911 83bd d2e1 bcbd 14d9 c8bc ad60 dd3d
00000010: 0f7e c83b 1874 1dbc 73a6 10bc e40c 40bd
00000020: cf70 bfbd 0029 8e3d 4c2a d73c 2427 a83d
00000030: 94ff 21bd dfef a23d 91d5 27bd 9c96 393d
00000040: d164 0f3d 58d2 d9bc 8a3b 52bd 17b0 e5bd

encoder.1.bn.weight f4 [20]
0.9485606 0.902003 0.9958294 1.0143704 1.2598482 0.9763178 1.2614095 1.2694585
1.1490369 0.95943946 0.98494256 1.0826887 1.1166106 1.445989 1.0132979 1.0672243
1.0578159 1.025172 1.1097516 1.0245768
00000000: ded4 723f abe9 663f adee 7e3f e4d6 813f
00000010: b542 a13f f7ef 793f de75 a13f 9e7d a23f
00000020: a413 933f d39d 753f 3225 7c3f 8b95 8a3f
00000030: 19ed 8e3f 2b16 b93f bfb3 813f ce9a 883f
00000040: 8366 873f d638 833f 570c 8e3f 5525 833f

encoder.1.bn.bias f4 [20]
-0.118369415 -0.3574984 -0.15052664 -0.29837924 -0.15225644 -0.2977079 0.06139784 -0.20343335
-0.15220903 -0.07738185 -0.27843672 -0.30819628 -0.47380057 -0.34011465 -0.1508952 -0.45754868
-0.39011714 -0.23091254 -0.33364064 -0.35597304
00000000: aa6b f2bd 080a b7be a823 1abe 2ac5 98be
00000010: 1de9 1bbe 2b6d 98be 4d7c 7b3d d550 50be
00000020: afdc 1bbe 607a 9ebd 428f 8ebe e7cb 9dbe
00000030: fd95 f2be 8223 aebe 4584 1abe d243 eabe
00000040: 6fbd c7be 5674 6cbe f2d2 aabe 1942 b6be

encoder.1.bn.running_mean f4 [20]
0.05290727 -0.4670232 -0.62736934 0.38247576 -0.0651861 -0.10237343 -0.10495743 0.21055901
-0.124745734 0.21238135 0.03368865 0.24912535 -0.084722385 -0.055389073 -0.108057804 -0.11698059
0.048622385 0.0147563005 -0.22166164 0.20244965
00000000: 4bb5 583d aa1d efbe 479b 20bf ddd3 c33e
00000010: 4a80 85bd 29a9 d1bd ecf3 d6bd c89c 573e
00000020: b17a ffbd 7f7a 593e 1cfd 093d b71a 7f3e
00000030: ee82 adbd a7df 62bd 694d ddbd 8593 efbd
00000040: 4428 473d 69c4 713c 45fb 62be f64e 4f3e

encoder.1.bn.running_var f4 [20]
3.0557177 2.0455592 10.467505 4.1912456 9.657739 4.778016 7.8517804 4.250944
6.611766 5.792197 6.1260657 7.3462734 5.8479066 5.032852 2.9154935 2.5401764
5.4577546 3.1559792 4.8480506 14.159983
00000000: e190 4340 71ea 0240 e77a 2741 af1e 8640
00000010: 1986 1a41 82e5 9840 c941 fb40 bc07 8840
00000020: 9693 d340 ae59 b940 bb08 c440 ac14 eb40
00000030: 0d22 bb40 200d a140 7297 3a40 4092 2240
00000040: eda5 ae40 90fb 4940 3b23 9b40 4a8f 6241

encoder.2.conv.weight f4 [20, 20, 16]
0.06006843 -0.011965864 -0.024097838 0.013373804 -0.0033110778 -0.014718938 -0.0258811 -0.00083309534
0.029402072 0.077956796 0.060003772 0.040887844 -0.06772916 -0.006192431 0.06957246 0.014398585
0.029230183 0.024297936 0.024191989 0.034838177 -0.00033711948 -0.037105512 0.016803004 0.015017144
0.008876387 0.07351036 -0.023637643 0.040125083 0.02626369 -0.06432374 0.038613558 0.007889127
0.068805255 0.081267074 0.01000108 -0.09211862 -0.068105996 -0.021050116 0.049730908 0.06853203
0.113044865 0.00021486342 0.16038087 0.063306965 0.0624567 0.09697066 -0.039455198 -0.022139631
0.05870091 -0.053377558 0.07996502 -0.046475768 0.009418354 -0.072105505 -0.0262211 0.04098804
0.056585714 0.025730567 -0.010580625 -0.024799883 0.008278179 -0.028442644 -0.041582733 -0.074078634
-0.07088227 -0.02261504 0.0024183432 -0.009238471 0.05085235 -0.030134225 -0.007037607 -0.016725553
0.103544146 0.04312771 0.05137276 -0.086731516 -0.112631276 -0.069544666 -0.06529906 0.0006765512
0.0222616 0.07388684 0.01594584 -0.03428445 0.015935548 -0.018182406 0.06865892 0.0850694
-0.038282614 0.033471465 0.061847784 0.008225268 -0.004064641 -0.025303433 0.04385539 0.061325245
0.06829266 -0.022942495 -0.0029372894 0.07878277 -0.0274663 -0.0315556 -0.035903692 -0.05498074
-0.0067589334 -0.06023409 -0.01085174 0.036322214 -0.064753234 -0.12824583 0.013633844 -0.037135743
-0.05692326 -0.049980264 0.03765469 -0.0270798 -0.0060679363 0.028746046 0.011834636 -0.029227965
-0.037593406 -0.020281948 0.008518773 -0.04084102 0.0054841843 -0.0041715824 0.03218282 -0.01834985
0.009582398 -0.008718388 0.03799063 -0.024314241 0.00054767524 0.07092028 -0.015229104 -0.0011302929
0.091146074 0.06993702 0.041185208 0.023813905 0.0607527 0.007323677 -0.12190751 -0.031874344
-0.04863059 -0.019728344 -0.06390358 0.010094805 -0.014843815 -0.08953956 -0.0911735 -0.001434842
0.0009528335 0.04404787 0.003746021 0.055041812 0.008305789 0.065769754 0.053240925 0.035749633
-0.06196901 0.0018680914 -0.05473201 -0.03640876 -0.03250493 -0.06635538 0.024355555 -0.026258182
-0.018245786 0.07661792 0.01559601 -0.022531299 -0.013470375 -0.051928245 -0.0024967082 -0.007432808
7.927864e-05 0.02794631 0.01937208 0.081413314 0.08378076 0.022251656 0.013786235 -0.040117867
-0.13261236 -0.1143104 -0.11044231 -0.23114079 -0.12223488 -0.100140736 -0.042732146 -0.050351974
0.0020718675 0.0010663535 0.095528886 0.076679975 0.030382061 -0.015098714 -0.08933953 -0.0601899
-0.1437181 -0.002708581 0.08682035 0.04328753 0.0888795 -0.0292583 -0.02882532 0.07226728
0.060575005 0.117646836 0.10810072 0.091477446 0.049370788 -0.054909717 0.0023447245 -0.052768413
-0.052270845 0.037503764 -0.046155997 -0.017021896 -0.014110437 -0.1277171 -0.1351577 0.040512614
0.08945887 0.024672573 -0.02499056 0.04053291 -0.08694531 -0.07046569 0.049266525 0.042795673
-0.0014791337 0.041126974 0.075091146 -0.008630372 0.0049859546 -0.0069865035 0.010205831 0.0004805143
0.04714017 0.1217866 0.041303925 0.031160375 -0.072879255 -0.048879128 -0.09580803 -0.1227983
-0.10522438 -0.03361183 -0.11020086 -0.0779398 -0.041097097 -0.030453803 -0.10356307 -0.04602595
00000000: 500a 763d 790c 44bc d468 c5bc cd1d 5b3c
00000010: abfe 58bb b327 71bc 9a04 d4bc 1564 5aba
00000020: 9ddc f03c d0a7 9f3d 84c6 753d 037a 273d
00000030: 96b5 8abd e0e9 cabb 027c 8e3d 0be8 6b3c
00000040: 2374 ef3c 770c c73c 472e c63c 7ab2 0e3d
00000050: 69bf b0b9 f3fb 17bd 74a6 893c 780a 763c
00000060: 446e 113c 9a8c 963d bba3 c1bc 335a 243d
00000070: f326 d73c 2abc 83bd 4029 1e3d 6641 013c
00000080: c5e9 8c3d 5a6f a63d 92db 233c b0a8 bcbd
00000090: 287b 8bbd 4b71 acbc a3b2 4b3d 855a 8c3d
000000a0: 1184 e73d f64c 6139 e23a 243e 15a7 813d
000000b0: 99d2 7f3d 8e98 c63d c69b 21bd 2c5e b5bc
000000c0: 5e70 703d 6da2 5abd b3c4 a33d 605d 3ebd
000000d0: 714f 1a3c 0dac 93bd a2cd d6bc 13e3 273d
000000e0: 6cc6 673d e9c8 d23c 5c5a 2dbc 2029 cbbc
000000f0: 33a1 073c 8c00 e9bc a852 2abd 8ab6 97bd
00000100: b92a 91bd 2d43 b9bc 117d 1e3b f55c 17bc
00000110: 8e4a 503d 0ddc f6bc ba9b e6bb 0704 89bc
00000120: f40e d43d afa6 303d 3e6c 523d 4ba0 b1bd
00000130: 3aab e6bd 6f6d 8ebd 83bb 85bd 955a 313a
00000140: f55d b63c fc51 973d daa0 823c da6d 0cbd
00000150: 448b 823c 45f3 94bc 0c9d 8c3d de38 ae3d
00000160: 3bce 1cbd 6019 093d 1a54 7d3d 46c3 063c
00000170: ae30 85bb 2549 cfbc b6a1 333d 2e30 7b3d
00000180: 06dd 8b3d e6f1 bbbc 8a7f 40bb dc58 a13d
00000190: 0201 e1bc 7240 01bd c00f 13bd 7c33 61bd
000001a0: 0b7a ddbb 05b8 76bd 7fcb 31bc 9ac6 143d
000001b0: 589d 84bd e052 03be 7d60 5f3c a61b 18bd
000001c0: 5d28 69bd 1bb8 4cbd ce3b 1a3d 75d6 ddbc
000001d0: 8ad5 c6bb d47c eb3c 10e6 413c 7c6f efbc
000001e0: 8bfb 19bd 5426 a6bc 5392 0b3c ea48 27bd
000001f0: acb4 b33b c5b1 88bb 22d2 033d 6d52 96bc
00000200: 7eff 1c3c 92d7 0ebc 109c 1b3d a92e c7bc
00000210: dd91 0f3a a73e 913d 7e83 79bc 5626 94ba
00000220: cbaa ba3d 243b 8f3d d2b1 283d 6115 c33c
00000230: d3d7 783d 75fb ef3b a5aa f9bd ac8e 02bd
00000240: df30 47bd 569d a1bc e1df 82bd ae64 253c
00000250: 7933 73bc 8460 b7bd 2cb9 babd 4f11 bcba
00000260: 93c7 793a 8a6b 343d ce7f 753b 8673 613d
00000270: 0115 083c 4bb2 863d 2813 5a3d 356e 123d
00000280: 37d3 7dbd bfda f43a ac2e 60bd 5a21 15bd
00000290: e423 05bd 54e5 87bd 4d85 c73c 661b d7bc
000002a0: 3078 95bc dbe9 9c3d 6886 7f3c 8f93 b8bc
000002b0: d9b2 5cbc b6b2 54bd d09f 23bb ea8e f3bb
000002c0: 6542 a638 a9ef e43c 32b2 9e3c 06bc a63d
000002d0: 3f95 ab3d 1b49 b63c a9df 613c a252 24bd
000002e0: 89cb 07be 921b eabd 942f e2bd 2cb0 6cbe
000002f0: 4856 fabd 9616 cdbd e707 2fbd df3d 4ebd
00000300: 2bc8 073b e3c4 8b3a a6a4 c33d 640a 9d3d
00000310: cde3 f83c 9960 77bc a5f7 b6bd af89 76bd
00000320: d62a 13be 7382 31bb dece b13d 444e 313d
00000330: 7506 b63d 1aaf efbc 1423 ecbc de00 943d
00000340: 7f1d 783d d3f0 f03d e963 dd3d 8758 bb3d
00000350: 0639 4a3d 03e9 60bd f3a9 193b b123 58bd
00000360: f419 56bd 8c9d 193d 120e 3dbd 8171 8bbc
00000370: 762f 67bc 45c8 02be c866 0abe 8ef0 253d
00000380: 3636 b73d 231e ca3c 01b9 ccbc d605 263d
00000390: 6210 b2bd 5150 90bd b2cb 493d 844a 2f3d
000003a0: 7edf c1ba c274 283d 63c9 993d 6766 0dbc
000003b0: 3861 a33b 0aef e4bb 5c36 273c 8aed fb39
000003c0: 0d16 413d 416b f93d 4e2e 293d 0b44 ff3c
000003d0: b841 95bd 7b35 48bd 0037 c4bd ad7d fbbd
000003e0: e17f d7bd 8fac 09bd fdb0 e1bd e79e 9fbd
000003f0: 6e55 28bd 417a f9bc e018 d4bd b585 3cbd

encoder.2.conv.bias f4 [20]
0.07051511 -0.0020721122 -0.04085408 -0.064033166 -0.014756038 0.04649031 0.08718388 -0.12765853
0.023603164 0.01015748 -0.09611724 -0.073628835 -0.04260337 0.032531463 -0.018668478 0.007185389
0.03480692 -0.07765988 0.021289796 0.08490065
00000000: 3a6a 903d 46cc 07bb 9c56 27bd d223 83bd
00000010: 4fc3 71bc a06c 3e3d 768d b23d ebb8 02be
00000020: 6c5b c13c 8f6b 263c 1ed9 c4bd b7ca 96bd
00000030: df80 2ebd b63f 053d a3ee 98bc 6973 eb3b
00000040: b391 0e3d 250c 9fbd f067 ae3c 64e0 ad3d

encoder.2.bn.weight f4 [20]
1.1380736 1.05755 0.9778918 0.9455579 0.9668466 1.131384 1.0120556 1.2537208
0.99276155 1.2285843 1.2538316 1.1396481 1.1756209 1.0488988 1.2701489 1.1045792
1.1454622 0.98130363 1.1800675 1.177623
00000000: 65ac 913f cc5d 873f 1e57 7a3f 1510 723f
00000010: 4283 773f 31d1 903f 0a8b 813f ec79 a03f
00000020: 9f25 7e3f 4042 9d3f 8e7d a03f fddf 913f
00000030: bf7a 963f 5142 863f 3d94 a23f da62 8d3f
00000040: 819e 923f b736 7b3f 740c 973f 5abc 963f

encoder.2.bn.bias f4 [20]
-0.20113456 -0.15496558 -0.057760168 -0.399618 -0.55914474 -0.13271184 -0.18566364 -0.38860124
-0.10939065 -0.15236463 -0.3679066 -0.39095646 -0.14332917 -0.20300929 -0.11269716 -0.37203124
-0.34549406 -0.112834655 -0.14170977 -0.16371661
00000000: 38f6 4dbe 4caf 1ebe ed95 6cbd bb9a ccbe
00000010: 1c24 0fbf 9de5 07be 9c1e 3ebe bef6 c6be
00000020: 3508 e0bd 7905 1cbe 415e bcbe 722b c8be
00000030: e2c4 12be abe1 4fbe c5cd e6bd e17a bebe
00000040: 99e4 b0be db15 e7bd 5e1c 11be 54a5 27be

encoder.2.bn.running_mean f4 [20]
0.13489656 -0.04079567 0.23300155 0.022778152 -0.34074968 0.24846211 -0.07023162 -0.5467681
-0.052802756 -0.0033511287 0.03330463 0.18441722 -0.05174644 -0.08642764 0.083757095 -0.18002506
-0.07558258 0.09526651 -0.0021450708 0.21822524
00000000: 5322 0a3e 5c19 27bd f597 6e3e 3f99 ba3c
00000010: be76 aebe da6c 7e3e 98d5 8fbd fff8 0bbf
00000020: b447 58bd 9c9e 5bbb 706a 083d ded7 3c3e
00000030: 13f4 53bd f900 b1bd d788 ab3d 7d58 38be
00000040: 0acb 9abd 171b c33d 5194 0cbb 7076 5f3e

encoder.2.bn.running_var f4 [20]
1.4479582 0.90833527 0.61286974 0.85603666 1.3300792 1.296815 0.70222425 0.9233213
0.96210307 0.56979823 0.9603486 1.0565529 1.1079721 0.6118404 1.3010161 0.70107836
0.6970341 1.2023084 0.8277533 0.81527853
00000000: b256 b93f a988 683f 08e5 1c3f 3825 5b3f
00000010: 0940 aa3f 09fe a53f f8c4 333f c95e 6c3f
00000020: 634c 763f 4cde 113f 68d9 753f 203d 873f
00000030: 08d2 8d3f 93a1 1c3f b287 a63f df79 333f
00000040: d470 323f 3ee5 993f a4e7 533f 18b6 503f

encoder.3.conv.weight f4 [20, 20, 16]
-0.005876163 0.004792305 -0.038078517 0.00079733686 -0.092396006 -0.023233954 0.026450183 0.04532229
0.13277479 0.19005713 0.046754647 -0.046269584 -0.05550209 -0.07795517 -0.06798605 -0.05717871
-0.037151434 -0.010301781 0.01501132 0.041344702 0.031215057 -0.011716848 0.037893083 0.07723033
0.03200941 0.014034511 0.01022924 0.026158893 0.020260436 -0.018327245 -0.017294133 0.006293167
0.052931394 0.03974731 -0.03271516 -0.076447695 -0.09553196 -0.02424318 0.037074476 0.0022995707
-0.018187594 0.025725413 -0.055020183 -0.012405079 0.03501907 0.001716909 -0.017387295 -0.033346243
0.030617058 0.032893896 0.016415615 0.054648347 0.033801425 0.0108805895 0.037596263 0.029636126
0.080640465 -0.07011332 -0.014744536 -0.053158056 0.022469727 0.0153039135 0.07581249 0.009053653
0.0047194134 -0.015997294 -0.018852906 -0.012473622 -0.012731116 -0.051982064 0.005787393 0.0447493
0.024692662 0.021549728 0.02364152 0.055371106 0.0033352305 0.008761315 -0.07056011 -0.10398904
0.104440294 0.04546698 0.02432365 0.10516468 0.031565625 0.018944856 0.022700282 -0.09140944
-0.07448555 -0.10453649 -0.07146322 0.069249235 -0.010242874 -0.063474715 0.016322747 0.0031156826
-0.057796963 -0.04275023 -0.0621335 0.027499156 0.0044202367 0.04410043 -0.018657025 -0.07210969
-0.017517842 0.08520669 0.08143942 0.04091307 0.091336496 0.003078422 -0.016070416 0.029053206
-0.031244218 -0.0372762 0.01164723 0.008084004 0.07896341 0.14401586 0.045509424 -0.08382348
-0.14391746 -0.19556646 -0.1956321 -0.1354482 0.05924955 0.031881366 -0.029486187 0.003911349
4.8444053e-06 -0.023574129 -0.06842627 -0.037192915 -0.0037607315 -0.049411282 0.024096807 -0.008567159
0.009794967 0.039357025 -0.03736926 -0.018724727 0.039353587 0.049509324 0.053976037 -0.016341956
-0.02774726 -0.011286424 -0.01737732 -0.004289896 0.055708822 0.06572179 -0.0024178096 -0.0211067
-0.013251846 -0.004895689 0.017949674 -0.004096107 -0.044858977 -0.06760941 -0.02884863 -0.0395601
-0.018835729 -0.002057403 0.021276938 0.05161755 -0.023408612 0.055596404 0.07625662 0.058563497
-0.020830523 -0.080384195 -0.01120879 0.039817978 -0.037832603 0.021842768 -0.11661423 -0.065112926
0.05250467 -0.0090146195 -0.059372064 0.070550874 0.08330177 0.08647442 0.0006202863 -0.050860595
-0.08779133 -0.07032027 -0.0339166 -0.06727409 -0.036517825 0.046716355 -0.056800343 -0.04462405
0.0194715 0.044839956 0.0041049486 0.045083437 -0.03521549 0.023735479 0.005480784 0.011755201
0.002999658 -0.086697616 -0.071686074 -0.07533169 -0.07598609 -0.022128576 -0.020849261 -0.12428055
0.0016929836 -0.016250491 -0.028621167 -0.054892067 0.036209762 -0.021598151 -0.02803718 -0.16451015
-0.06057662 -0.018575625 0.020851308 -0.0034550594 -0.011965148 -0.033180658 -0.011600308 -0.023624914
0.045466065 0.07626127 -0.007978052 -0.018687116 -0.06237315 -0.08647091 -0.018913187 0.07717799
0.04896319 0.060745437 -0.050893575 -0.0148754725 -0.056298584 0.0024152265 -0.00050885463 0.074626096
0.004807082 0.011646895 0.04763502 0.08723078 -0.037892956 0.050293352 0.012314721 0.013484994
0.0055564735 -0.015523154 -0.07669759 -0.09245408 -0.025496451 0.044289663 -0.029329993 0.0024527048
00000000: d48c c0bb c508 9d3b 38f8 1bbd 5f04 513a
00000010: 1e3a bdbd 2255 bebc 0eae d83c dea3 393d
00000020: 1df6 073e 569e 423e cd81 3f3d 2d85 3dbd
00000030: 2956 63bd f6a6 9fbd 453c 8bbd 3934 6abd
00000040: 1a2c 18bd cdc8 28bc 0af2 753c 1059 293d
00000050: b8b6 ff3c 06f8 3fbc c735 1b3d ef2a 9e3d
00000060: 4d1c 033d 01f1 653c 8b98 273c 2d4b d63c
00000070: 37f9 a53c 0523 96bc 6dac 8dbc e936 ce3b
00000080: 97ce 583d 13ce 223d 5500 06bd 9c90 9cbd
00000090: 43a6 c3bd a299 c6bc 68db 173d 65b4 163b
000000a0: 26fe 94bc 1abe d23c d85c 61bd ac3e 4bbc
000000b0: 2870 0f3d e809 e13a cd6f 8ebc 1296 08bd
000000c0: a0d0 fa3c c0bb 063d 0a7a 863c f2d6 5f3d
000000d0: 5d73 0a3d 8044 323c 8afe 193d 76c7 f23c
000000e0: d426 a53d 9397 8fbd 1193 71bc 43bc 59bd
000000f0: 6f12 b83c 44bd 7a3c 9443 9b3d c655 143c
00000100: 4fa5 9a3b c20c 83bc 6971 9abc 2a5e 4cbc
00000110: 2c96 50bc 25eb 54bd 2ca4 bd3b 0b4b 373d
00000120: 4448 ca3c 0e89 b03c dcab c13c d0cc 623d
00000130: e293 5a3b 9e8b 0f3c d281 90bd 35f8 d4bd
00000140: cbe4 d53d 963b 3a3d 6442 c73c 9460 d73d
00000150: f54a 013d 3e32 9b3c f1f5 b93c df34 bbbd
00000160: e18b 98bd 3a17 d6bd 4f5b 92bd 8bd2 8d3d
00000170: bad1 27bc 08ff 81bd 48b7 853c 7b30 4c3b
00000180: 82bc 6cbd dd1a 2fbd b27f 7ebd e945 e13c
00000190: a2d7 903b a7a2 343d 9ed6 98bc 3fae 93bd
000001a0: 9481 8fbc d880 ae3d b6c9 a63d 7794 273d
000001b0: a10e bb3d 5abf 493b 1ba6 83bc fd00 ee3c
000001c0: e0f3 ffbc eeae 18bd 06d4 3e3c c572 043c
000001d0: 91b7 a13d e578 133e 1768 3a3d a5ab abbd
000001e0: 195f 13be 9342 48be c853 48be efb2 0abe
000001f0: a8af 723d 0996 023d 048d f1bc c62a 803b
00000200: 208d a236 881e c1bc 1223 8cbd 9957 18bd
00000210: 9b76 76bb 7c63 4abd ab66 c53c 455d 0cbc
00000220: 127b 203c d534 213d 8210 19bd 9964 99bc
00000230: 3a31 213d 4aca 4a3d fa15 5d3d 91df 85bc
00000240: 394e e3bc b1ea 38bc e25a 8ebc 4292 8cbb
00000250: ef2e 643d 2599 863d 1d74 1ebb f5e7 acbc
00000260: 451e 59bc 046c a0bb 320b 933c a338 86bb
00000270: 0cbe 37bd cd76 8abd f653 ecbc c509 22bd
00000280: 634d 9abc 7fd5 06bb f94c ae3c ed6c 533d
00000290: 6bc3 bfbc 0eb9 633d 6e2c 9c3d 47e0 6f3d
000002a0: c6a4 aabc 78a0 a4bd 13a5 37bc 2d18 233d
000002b0: 5cf6 1abd 9bef b23c 71d3 eebd ed59 85bd
000002c0: 230f 573d 0eb2 13bc 1f30 73bd fa7c 903d
000002d0: 1e9a aa3d 8019 b13d b59a 223a 3353 50bd
000002e0: f1cb b3bd 1304 90bd 22ec 0abd 00c7 89bd
000002f0: b793 15bd a659 3f3d 7aa7 68bd b5c7 36bd
00000300: b282 9f3c 1aaa 373d ce82 863b 69a9 383d
00000310: 1e3e 10bd e870 c23c 2698 b33b e398 403c
00000320: e995 443b 858e b1bd 26d0 92bd 8047 9abd
00000330: 989e 9bbd fd46 b5bc 12cc aabc cd86 febd
00000340: 1ae7 dd3a c01f 85bc f076 eabc 81d6 60bd
00000350: b050 143d 9bee b0bc 3aae e5bc 5975 28be
00000360: 311f 78bd e92b 98bc 5dd0 aa3c 476e 62bb
00000370: 7809 44bc 71e8 07bd 380f 3ebc 0989 c1bc
00000380: a03a 3a3d de2e 9c3d 60b6 02bc b915 99bc
00000390: fd7a 7fbd a917 b1bd d4ef 9abc 7e0f 9e3d
000003a0: a08d 483d 35d0 783d c875 50bd 41b8 73bc
000003b0: 5899 66bd c748 1e3b a864 05ba 91d5 983d
000003c0: ba84 9d3b 9ed2 3e3c f01c 433d 0da6 b23d
000003d0: a535 1bbd 6700 4e3d afc3 493c 2af0 5c3c
000003e0: 1413 b63b d454 7ebc a013 9dbd 9158 bdbd
000003f0: efdd d0bc 1469 353d 7445 f0bc 8fbd 203b

encoder.3.conv.bias f4 [20]
-0.027337786 -0.11239186 0.051449772 -0.005964388 -0.06069771 -0.028228782 0.091027066 0.01024802
-0.084617876 0.0596379 -0.08853639 0.00837613 0.06163973 0.02081741 0.13258477 -0.03459349
-0.010690217 -0.014531232 0.10747767 -0.051605184
00000000: 7ef3 dfbc b42d e6bd ffbc 523d ea70 c3bb
00000010: 299e 78bd 0c40 e7bc 666c ba3d 50e7 273c
00000020: 234c adbd df46 743d 9152 b5bd 093c 093c
00000030: f179 7c3d 4689 aa3c 4dc4 073e e7b1 0dbd
00000040: 0526 2fbc 6814 6ebc 411d dc3d f55f 53bd

encoder.3.bn.weight f4 [20]
1.1898403 1.150331 1.008979 1.1683974 1.0537177 1.2233063 1.0132843 0.99922425
1.1334417 1.0328585 1.1779652 1.0935642 1.0549465 0.99164855 1.0175825 0.9886696
1.1238444 1.1816723 1.0457065 1.2384428
00000000: b04c 983f 0c3e 933f 3926 813f 0c8e 953f
00000010: 39e0 863f 4d95 9c3f 4db3 813f 29cd 7f3f
00000020: 9e14 913f b534 843f 90c7 963f e9f9 8b3f
00000030: 7d08 873f aedc 7d3f 2540 823f 7319 7d3f
00000040: 22da 8f3f 0a41 973f b6d9 853f 4b85 9e3f

encoder.3.bn.bias f4 [20]
-0.6929378 -0.40023023 -0.099482015 -0.3347931 -0.099269666 -0.44294304 -0.5225361 -0.29064766
-0.3229807 -0.39868197 -0.34837666 -0.3575154 -0.05820904 -0.13846327 -0.3840241 -0.0020750812
-0.20051728 -0.14541103 -0.32159728 -0.010758488
00000000: 5f64 31bf faea ccbe 3abd cbbd 006a abbe
00000010: e54d cbbd 6ec9 e2be edc4 05bf c5cf 94be
00000020: ba5d a5be 0b20 ccbe 6d5e b2be 420c b7be
00000030: 9a6c 6ebd 51c9 0dbe cf9e c4be 16fe 07bb
00000040: 6754 4dbe a1e6 14be 66a8 a4be 5f44 30bc

encoder.3.bn.running_mean f4 [20]
-0.07097473 -0.23639196 0.14146622 0.072862424 -0.062194765 0.03413754 0.18385002 -0.22741003
-0.1763308 -0.07176483 -0.27910784 0.060465563 0.03449017 0.16430247 -0.15850951 -0.14256783
-0.04225659 -0.03996503 -0.032386325 -0.20316197
00000000: 335b 91bd bc10 72be 85dc 103e e538 953d
00000010: f0bf 7ebd ced3 0b3d 2e43 3c3e 2dde 68be
00000020: 1090 34be 70f9 92bd 39e7 8ebe bdaa 773d
00000030: 9145 0d3d e83e 283e 5150 22be 4dfd 11be
00000040: 3f15 2dbd 5fb2 23bd 86a7 04bd b109 50be

encoder.3.bn.running_var f4 [20]
1.2709512 0.9675016 2.2074893 1.102365 1.337745 1.4069853 0.7404014 0.6281161
0.6987892 0.81141406 0.499223 1.0287116 1.8174508 0.44681334 1.1553775 0.6756357
1.4564378 1.7639915 0.34925458 2.444309
00000000: 87ae a23f 2fae 773f 8147 0d40 4c1a 8d3f
00000010: 3a3b ab3f 1818 b43f f28a 3d3f 37cc 203f
00000020: d9e3 323f d5b8 4f3f 289a ff3e d2ac 833f
00000030: 3aa2 e83f b8c4 e43e 69e3 933f 76f6 2c3f
00000040: 8e6c ba3f 79ca e13f 7fd1 b23e 8f6f 1c40

encoder.4.conv.weight f4 [40, 20, 16]
0.15472148 0.04019895 0.005531368 0.009751341 0.10782757 0.011062736 -0.003806438 -0.02270435
0.093726136 0.010022991 -0.037080094 0.07854965 0.061557937 0.0326969 0.02841049 0.000904008
-0.10803286 -0.13945222 0.024594298 0.0966372 0.06440012 -0.0040912204 -0.0024514107 -0.010076289
-0.04262942 0.023216976 -0.004485616 -0.036948673 -0.032053534 -0.0587268 -0.07315442 -0.047771994
-0.031170594 0.038159087 0.03426366 0.026613675 0.07818874 -0.011795196 -0.036694787 -0.020193642
-0.00042091036 -0.03740981 -0.03902079 0.01055279 -0.002051759 0.026934765 0.05926037 -0.010607078
0.018355506 -0.0037593406 -0.044873513 -0.028731458 0.03202775 0.0014401666 0.008194053 0.09909278
-0.04798576 0.0067481324 -0.010553747 -0.13953614 -0.013878907 -0.025013037 -0.03203547 0.017998297
-0.09621681 0.056915127 0.012014498 -0.017647227 -0.010800809 -0.06616148 0.0921745 -0.05880293
-0.072221115 -0.087843016 -0.008028229 -0.062325742 -0.044318482 0.028123181 -0.066940874 -0.0012569923
-0.082015134 -0.04076622 0.036045153 0.017002035 0.060030427 0.08650498 -0.021541506 -0.005685699
0.032404717 -0.00039908345 -0.16207331 0.023104334 -0.016972108 -0.07284817 0.008337827 0.015470655
-0.14006296 -0.1000226 -0.075917736 0.07041085 0.016855812 -0.0022832218 0.05720085 0.053013813
-0.011259684 -0.021207511 -0.0015973012 -0.030132767 -0.07970275 -0.07466643 -0.0065665585 -0.040903542
-0.012763556 0.09734666 0.04287919 0.049629126 0.052125275 -0.035234157 0.03763615 0.026543068
0.007489437 0.018212846 -0.022502873 0.0027715154 0.08927945 0.06643528 0.007664852 0.018029202
-0.11847449 0.02470669 0.03271675 0.013107783 0.061883967 0.017360913 -0.045073844 0.041533727
0.015116983 -0.03884397 -0.033226635 -0.03668545 -0.051592197 0.003067747 0.0006840533 -0.053545147
0.13818008 -0.0030558028 0.06049589 0.04789487 0.045238078 0.021350248 0.019104175 -0.062425938
-0.052547865 -0.08018652 -0.07301966 -0.06651386 -0.040748525 -0.016712649 -0.056839067 -0.06255177
0.0041597164 0.014485198 0.01608582 -0.071654126 0.020632485 -0.014403453 0.041894257 0.0024377392
-0.05971669 0.031103432 0.03549554 -0.0278319 -0.012628958 -0.040270787 -0.053861875 -0.10386469
-0.042187672 -0.041299075 0.04139294 -0.03728987 -0.021256987 0.040699743 0.040812075 -0.028066255
-0.072180554 -0.0516634 -0.04306123 -0.053951044 -0.043619435 -0.08164153 -0.10157168 -0.091611594
-0.11260606 0.011063299 -0.02598606 -0.0047694626 0.03098666 0.009256129 0.0333362 -0.012774334
-0.06301424 0.09793945 -0.040261243 -0.029389689 0.026886016 0.017494759 0.044151127 0.08287203
0.10035912 -0.00035772196 0.0380953 0.011867105 0.061324667 0.018833393 -0.032940004 0.05908373
-0.042423528 0.0021299121 0.012847179 -0.03564553 -0.062453896 -0.025052648 -0.026744321 0.03399072
-0.17531444 0.02510391 -0.007928615 0.02101052 0.038503878 0.03434754 0.008582609 -0.0040271007
-0.051327687 0.026317114 -0.03843065 -0.011012969 -0.013511264 -0.04986812 -0.0603914 -0.03878717
0.10817113 0.0029943415 0.06372532 0.008216154 -0.056484714 -0.057527557 0.021180416 -0.025857808
-0.05580571 0.07986606 -0.086711206 -0.05815689 0.013041378 0.00579122 0.05262913 -0.017669888
00000000: 4f6f 1e3e a7a7 243d 7a40 b53b 17c4 1f3c
00000010: b3d4 dc3d 7a40 353c 6f75 79bb 79fe b9bc
00000020: 7df3 bf3d 7937 243c 4ce1 17bd a4de a03d
00000030: 2d24 7c3d 2fed 053d 1ebd e83c f3fa 6c3a
00000040: 5540 ddbd 90cc 0ebe fb79 c93c b9e9 c53d
00000050: 36e4 833d a50f 86bb d9a7 20bb 0517 25bc
00000060: 309c 2ebd 8731 be3c 13fc 92bb 7e57 17bd
00000070: 914a 03bd 838b 70bd fcd1 95bd 91ac 43bd
00000080: 7959 ffbc b44c 1c3d 0d58 0c3d ec04 da3c
00000090: 6b21 a03d a340 41bc 464d 16bd 236d a5bc
000000a0: a2ad dcb9 073b 19bd 44d4 1fbd 9ce5 2c3c
000000b0: ce76 06bb 4ca6 dc3c 00bb 723d 4fc9 2dbc
000000c0: 495e 963c 455f 76bb 4acd 37bd 3c5e ebbc
000000d0: 882f 033d f9c3 bc3a 5940 063c 28f1 ca3d
000000e0: b78c 44bd 701f dd3b a0e9 2cbc 90e2 0ebe
000000f0: 5b64 63bc 24e8 ccbc a037 03bd 2a71 933c
00000100: 520d c5bd d61f 693d 75d8 443c eb90 90bc
00000110: e0f5 30bc ac7f 87bd fcc5 bc3d 57db 70bd
00000120: aae8 93bd 0ae7 b3bd d588 03bc 4749 7fbd
00000130: 4c87 35bd 9662 e63c 4c18 89bd aac1 a4ba
00000140: 8df7 a7bd 7bfa 26bd 15a4 133d da47 8b3c
00000150: 77e2 753d 8629 b13d d077 b0bc 1a4f babb
00000160: cfba 043d 133c d1b9 8cf6 25be 4d45 bd3c
00000170: 1709 8bbc 6c31 95bd 629b 083c a178 7d3c
00000180: aa6c 0fbe a6d8 ccbd c27a 9bbd 9033 903d
00000190: 3315 8a3c 1ba2 15bb 704b 6a3d 0325 593d
000001a0: 8a7a 38bc 60bb adbc 895c d1ba fed8 f6bc
000001b0: 323b a3bd b7ea 98bd 492c d7bb 798a 27bd
000001c0: 3c1e 51bc b05d c73d 17a2 2f3d e947 4b3d
000001d0: 5081 553d b151 10bd 5d28 1a3d d970 d93c
000001e0: f369 f53b 1b33 953c f257 b8bc 50a2 353b
000001f0: 25d8 b63d 380f 883d 7029 fb3b fab1 933c
00000200: c1a2 f2bd af65 ca3c 0002 063d 07c2 563c
00000210: 0b7a 7d3d 7938 8e3c 5a9f 38bd 451f 2a3d
00000220: 39ad 773c db1a 1fbd a718 08bd 7b43 16bd
00000230: 5752 53bd 410c 493b 0a52 333a 2852 5bbd
00000240: 147f 0d3e dd43 48bb 8aca 773d 692d 443d
00000250: 904b 393d b7e6 ae3c 5c80 9c3c 57b2 7fbd
00000260: 6e3c 57bd d538 a4bd 558b 95bd 6b38 88bd
00000270: ede7 26bd f7e8 88bc 15d0 68bd 241b 80bd
00000280: 3b4e 883b 5353 6d3c 69c6 833c 66bf 92bd
00000290: 7505 a93c 76fc 6bbc 5099 2b3d 7ac2 1f3b
000002a0: 7d99 74bd a0cc fe3c c563 113d baff e3bc
000002b0: b0e9 4ebc fbf2 24bd 459e 5cbd 03b7 d4bd
000002c0: fbcc 2cbd 3829 29bd a58b 293d 43bd 18bd
000002d0: 2223 aebc c6b4 263d 902a 273d 34eb e5bc
000002e0: 66d3 93bd 009d 53bd f960 30bd c5fb 5cbd
000002f0: 4baa 32bd ad33 a7bd d004 d0bd dc9e bbbd
00000300: 029e e6bd d742 353c b8e0 d4bc 2749 9cbb
00000310: bcd7 fd3c 05a7 173c 8a8b 083d 714b 51bc
00000320: 9c0d 81bd 7a94 c83d f9e8 24bd a5c2 f0bc
00000330: 1040 dc3c 2b51 8f3c d0d7 343d d0b8 a93d
00000340: 1589 cd3d a18c bbb9 d109 1c3d 3f6e 423c
00000350: 932f 7b3d 7d48 9a3c 19ec 06bd c801 723d
00000360: 4bc4 2dbd ff95 0b3b f97c 523c 0c01 12bd
00000370: a8cf 7fbd 363b cdbc e816 dbbc da39 0b3d
00000380: a185 33be b7a6 cd3c 06e7 01bc 411e ac3c
00000390: 3eb6 1d3d 02b0 0c3d 129e 0c3c c5f5 83bb
000003a0: fb3c 52bd fd96 d73c 7569 1dbd bd6f 34bc
000003b0: 595e 5dbc 8442 4cbd f95c 77bd 4cdf 1ebd
000003c0: d388 dd3d b73c 443b 6c82 823d 0c9d 063c
000003d0: 845c 67bd 04a2 6bbd 8d82 ad3c c1d3 d3bc
000003e0: 8794 64bd d190 a33d a595 b1bd eb35 6ebd
000003f0: 81ab 553c 46c4 bd3b a591 573d 71c0 90bc

encoder.4.conv.bias f4 [40]
0.046205617 -0.01645558 -0.044755906 0.014020925 0.08434347 -0.061525084 -0.09482636 0.022883924
0.034562428 -0.0043152007 -0.01601734 0.0879681 0.033936676 0.011792007 -0.04776274 0.09742637
0.0069834273 0.024902055 0.0835664 0.0185975 -0.0150878765 -0.119248025 0.03619095 -0.08088615
0.073360704 -0.022285033 0.0479854 -0.05692469 -0.09088001 -0.03639501 0.011742869 -0.054171883
0.04776272 -0.067803055 0.041186385 0.022157414 0.01834316 -0.07710634 -0.0061357687 0.003158833
00000000: 1a42 3d3d dacd 86bc f851 37bd 06b8 653c
00000010: 45bc ac3d ba01 7cbd 5334 c2bd 1177 bb3c
00000020: 5591 0d3d 8766 8dbb cc36 83bc 9f28 b43d
00000030: 2f01 0b3d 4333 413c dda2 43bd 7a87 c73d
00000040: 3cd5 e43b 65ff cb3c dc24 ab3d c959 983c
00000050: 2433 77bc 4f38 f4bd f63c 143d a3a7 a5bd
00000060: 233e 963d 1a8f b6bc 578c 443d dd29 69bd
00000070: 4c1f babd ef12 15bd 2a65 403c 56e3 5dbd
00000080: d8a2 433d 54dc 8abd 0eb3 283d 7783 b53c
00000090: 6544 963c eee9 9dbd 8f0e c9bb 6c04 4f3b

encoder.4.bn.weight f4 [40]
1.0748736 1.0705731 1.066894 1.2292255 1.0824212 1.0568224 1.0832572 1.0373157
1.0678165 1.065172 1.0597023 1.0647969 1.0121032 1.0595711 1.0573283 1.1383127
1.0521864 1.0367049 1.1765289 1.1205822 1.0923953 1.1175715 1.0774504 1.1009344
1.0353136 1.1276195 1.0972838 1.0831397 1.1226004 1.1717211 1.0454181 1.1075133
1.11454 1.1497184 1.0684036 1.1461833 1.1240414 1.1291232 0.99117184 1.0242428
00000000: 7595 893f 8a08 893f fc8f 883f 4357 9d3f
00000010: c78c 8a3f f545 873f 2ca8 8a3f c3c6 843f
00000020: 36ae 883f 8e57 883f 53a4 873f 444b 883f
00000030: 998c 813f 07a0 873f 8956 873f 3bb4 913f
00000040: 0bae 863f bfb2 843f 8098 963f 3d6f 8f3f
00000050: 9cd3 8b3f 950c 8f3f e5e9 893f 6beb 8c3f
00000060: 2885 843f d655 903f cc73 8c3f 52a4 8a3f
00000070: 5fb1 8f3f f5fa 953f 43d0 853f ffc2 8d3f
00000080: 3fa9 8e3f f929 933f 73c1 883f 22b6 923f
00000090: 97e0 8f3f 1c87 903f 70bd 7d3f 631a 833f

encoder.4.bn.bias f4 [40]
-0.34751916 -0.33341068 -0.4911671 -0.22581553 -0.01792894 -0.3656894 -0.43001652 -0.38610128
-0.3320976 -0.30873582 -0.38670987 -0.12647437 -0.37490392 -0.3286994 -0.4183247 -0.33719066
-0.26326165 -0.346429 -0.38388842 -0.14264801 -0.15208101 -0.29919904 -0.21454336 -0.48760787
-0.25216177 -0.4051943 -0.29087892 -0.3536621 -0.44328544 -0.14369223 -0.23621325 -0.253238
-0.26421788 -0.15429337 -0.26513332 -0.118892185 -0.19739982 -0.47035423 -0.41728938 -0.22955179
00000000: 08ee b1be ceb4 aabe 417a fbbe 303c 67be
00000010: b6df 92bc a43b bbbe 202b dcbe 11af c5be
00000020: b208 aabe 9f12 9ebe d6fe c5be 7f82 01be
00000030: 68f3 bfbe 4a4b a8be a82e d6be 41a4 acbe
00000040: 3bca 86be 245f b1be 068d c4be 5212 12be
00000050: 20bb 1bbe 9e30 99be 41b1 5bbe bda7 f9be
00000060: 591b 81be a175 cfbe 15ee 94be 3313 b5be
00000070: 4ff6 e2be 0e24 13be e3e1 71be 69a8 81be
00000080: 9147 87be 15ff 1dbe 8ebf 87be bf7d f3bd
00000090: 2e23 4abe 45d2 f0be f4a6 d5be a00f 6bbe

encoder.4.bn.running_mean f4 [40]
0.11451834 0.06334248 -0.07327979 -0.0090622045 0.37539977 0.46193573 -0.4815145 0.09341649
-0.41376936 0.2472921 0.13095698 0.016996339 -0.2493566 0.16651051 0.26424074 -0.084837265
0.021179665 0.16436717 0.06034847 0.13078079 -0.008687265 -0.09666207 0.22402543 -0.22415674
-0.25766215 0.05625703 0.023856208 -0.2015876 0.009356448 0.029853148 -0.3022589 -0.2765452
-0.031738285 -0.02469938 -0.17411993 -0.05168447 0.17932248 -0.3797457 -0.21672119 -0.32093117
00000000: 9788 ea3d b4b9 813d b713 96bd a479 14bc
00000010: 6634 c03e d782 ec3e 1289 f6be 2551 bf3d
00000020: 94d9 d3be 243a 7d3e 9619 063e e83b 8b3c
00000030: 5657 7fbe bb81 2a3e 904a 873e 29bf adbd
00000040: fa80 ad3c de4f 283e f52f 773d 66eb 053e
00000050: 0855 0ebc c3f6 c5bd ec66 653e 5889 65be
00000060: 4bec 83be c66d 663d 186e c33c fb6c 4ebe
00000070: ca4b 193c 978e f43c aec1 9abe 5597 8dbe
00000080: 0100 02bd 5b56 cabc 7f4c 32be 18b3 53bd
00000090: 50a0 373e 076e c2be 29ec 5dbe 1751 a4be

encoder.4.bn.running_var f4 [40]
1.3173213 0.9290595 0.47952437 1.5629023 1.0055025 0.61549217 0.8435972 1.4186985
0.5020933 0.6106193 0.5922289 0.7956162 0.73061997 0.59989357 0.8650387 0.96076256
1.0022092 0.65122044 1.2251266 1.5681542 0.9407454 1.1771909 1.1613481 0.57010174
1.1209396 0.7856855 1.0869856 1.3873645 1.073185 0.6229055 1.1181098 0.8938531
1.3843566 1.3107872 1.0133219 1.6428574 0.70376766 1.1756979 0.6515004 1.0188718
00000000: fc9d a83f d8d6 6d3f 3884 f53e 2f0d c83f
00000010: 4eb4 803f e590 1d3f fcf5 573f ea97 b53f
00000020: 3089 003f 8c51 1c3f 509c 173f 81ad 4b3f
00000030: e909 3b3f a092 193f 2d73 5d3f 89f4 753f
00000040: 6448 803f 62b6 263f f3d0 9c3f 47b9 c83f
00000050: b1d4 703f 31ae 963f 0ea7 943f 30f2 113f
00000060: f37a 8f3f af22 493f 5822 8b3f 2995 b13f
00000070: 205e 893f bc76 1f3f 391e 8f3f 8fd3 643f
00000080: 9932 b13f e0c7 a73f 88b4 813f 2749 d23f
00000090: 1e2a 343f 457d 963f bbc8 263f 646a 823f
