checkpoints/best_ACDAE_emb_snr_0.pth (torch, 615378 bytes, 20 tensors)

EncList.0.conv.weight f4 [16, 2, 13]
0.19692525 0.21733661 0.03783391 0.33085674 0.06873675 0.056745525 0.10525607 -0.07734121
-0.04789675 -0.24692003 -0.18260954 -0.32060397 -0.30945256 0.07759332 -0.21100655 -0.0674593
0.044312615 -0.07409909 0.020231668 -0.08913944 0.094882995 -0.0066108424 -0.017315641 0.15319319
0.006100816 0.122113995 0.051481694 -0.047376826 -0.058588192 -0.07594785 -0.14860262 -0.03761872
0.1080964 -0.11614518 0.07227188 -0.10277903 -0.14966363 0.2135647 -0.111306936 -0.088880636
-0.24179737 -0.22839668 0.09763076 -0.061010044 -0.15488575 0.054506 0.040445507 -0.15876512
-0.05367819 0.028845629 0.030061325 0.16806868 -0.07299979 0.10627846 0.12512429 -0.13989832
0.044108536 0.05213234 0.13250102 0.055673778 0.087020434 -0.030922813 0.12388602 0.037299264
-0.107214056 -0.084200665 0.16014801 0.060278434 0.0044973977 0.18186942 0.06124227 0.004033202
0.20528369 0.19579147 0.13964507 -0.16239558 0.0016369963 0.12203186 -0.030709906 0.10825395
-0.20617028 -0.17208149 -0.1587929 -0.056647394 0.028279997 -0.14988711 0.12733695 -0.17352863
0.17975938 -0.13815242 0.19080074 -0.17270859 -0.17224719 -0.06160686 -0.0013653314 -0.057371706
-0.12873125 -0.20778899 -0.17917538 -0.12810028 0.09211689 -0.13868457 -0.054227825 -0.036227223
-0.0925175 -0.02422651 -0.101676635 -0.18710689 0.058208607 0.20275111 0.3203479 0.23897639
0.19311376 -0.10626817 -0.23436254 -0.2571814 -0.06837717 -0.10782818 -0.039211564 0.13220531
-0.0038712218 0.014051798 0.044555634 0.072684444 0.19360642 0.100706235 -0.06253925 -0.13318509
-0.19320998 -0.13906574 0.103892535 -0.01839315 0.19443215 -0.18392475 0.015098248 -0.17616525
-0.13466169 0.088120036 0.008799667 -0.16036911 -0.007545411 -0.10348864 -0.002938839 -0.25849146
-0.06192966 0.16643561 -0.12072397 0.06457244 0.15142234 -0.20282453 -0.063542366 0.022942118
-0.06310284 -0.014486261 0.07671101 -0.16705833 -0.10017318 0.12691882 -0.13765422 -0.118620306
0.13337997 -0.034141757 0.08576991 0.08038632 -0.049163356 0.14670926 0.110257044 -0.06412601
-0.11659602 0.017174255 -0.11380789 -0.0817858 0.023467924 -0.11565808 0.07377569 0.04927215
-0.1444729 -0.090283506 -0.022335183 0.20825882 0.075505145 -0.066273704 0.21849579 -0.03178139
-0.046116065 -0.13113424 0.10857565 -0.04266687 -0.029235061 0.121179104 0.004449906 -0.08054444
0.034216426 -0.14173985 -0.05893812 0.108290695 0.09474647 0.16670132 0.1708868 0.118615314
0.17931612 0.005656561 0.12717783 0.08414674 -0.21294512 -0.16798617 0.042220898 0.034461714
-0.11399026 -0.04503963 -0.06626509 0.046613157 -0.17324556 0.13418762 0.116476625 -0.25948107
-0.19854331 0.0380867 -0.028341495 -0.1105969 0.0292231 -0.103994876 0.02871646 -0.1515906
0.01458544 0.18215154 0.1139677 -0.034731258 0.15171194 0.13917646 0.14625151 -0.20926839
0.16386385 0.0634151 0.11615913 0.2150322 -0.09163444 -0.17479253 0.0689255 -0.093199
-0.09321655 -0.13025457 -0.04685956 -0.025611768 -0.038238384 -0.036928747 0.066764936 0.01772458
-0.008863989 -0.027014777 0.03959338 -0.0045060846 0.12752327 -0.14453867 0.10788688 0.15753493
00000000: c6a6 493e 7d8d 5e3e bbf7 1a3d 0e66 a93e
00000010: dac5 8c3d ff6d 683d 7f90 d73d 1165 9ebd
00000020: 622f 44bd 9bd8 7cbe fffd 3abe 3426 a4be
00000030: 9170 9ebe 3fe9 9e3d 1a12 58be 1a28 8abd
00000040: 2581 353d 44c1 97bd e2bc a53c bd8e b6bd
00000050: 0452 c23d c49f d8bb 88d9 8dbc adde 1c3e
00000060: 5be9 c73b e716 fa3d 78de 523d 340e 42bd
00000070: 2cfa 6fbd 8c8a 9bbd 492b 18be 1616 1abd
00000080: a561 dd3d 86dd edbd 4803 943d d07d d2bd
00000090: 6c41 19be b4b0 5a3e e4f4 e3bd 0d07 b6bd
000000a0: bb99 77be d2e0 69be a3f2 c73d abe5 79bd
000000b0: 5f9a 1ebe af41 5f3d 30aa 253d 5393 22be
000000c0: a9dd 5bbd ab4d ec3c 2b43 f63c 321a 2c3e
000000d0: ea80 95bd 85a8 d93d 9520 003e 8141 0fbe
000000e0: 27ab 343d b888 553d 59ae 073e 300a 643d
000000f0: c537 b23d d751 fdbc f4b7 fd3d 1dc7 183d
00000100: 0b93 dbbd 6671 acbd d7fd 233e 85e6 763d
00000110: e85e 933b fa3b 3a3e 2dd9 7a3d f328 843b
00000120: e335 523e 8f7d 483e 1eff 0e3e 074b 26be
00000130: 7b90 d63a d7eb f93d 5793 fbbc 3fb4 dd3d
00000140: 4d1e 53be 2136 30be 9b9a 22be 1907 68bd
00000150: 74ab e73c 027c 19be 9e64 023e 7db1 31be
00000160: d812 383e d477 0dbe 4561 433e 85da 30be
00000170: 9161 30be 7a57 7cbd ebf4 b2ba 98fe 6abd
00000180: 20d2 03be a3c6 54be c079 37be b82c 03be
00000190: c8a7 bc3d 5403 0ebe ff1d 5ebd ff62 14bd
000001a0: d179 bdbd ad76 c6bc d73b d0bd f398 3fbe
000001b0: 266c 6e3d fd9d 4f3e a404 a43e 3ab6 743e
000001c0: 9dbf 453e 20a3 d9bd bcfc 6fbe 48ad 83be
000001d0: 5409 8cbd 05d5 dcbd 4e9c 20bd d460 073e
000001e0: 53b4 7dbb 8339 663c f87f 363d 95db 943d
000001f0: c340 463e 123f ce3d 9414 80bd ac61 08be
00000200: d6d8 45be 4067 0ebe 9cc5 d43d 3bad 96bc
00000210: 3919 473e c556 3cbe a45e 773c aa64 34be
00000220: c1e4 09be 4778 b43d 7a2c 103c cd37 24be
00000230: 7f3f f7bb daf1 d3bd 8999 40bb fe58 84be
00000240: f5a9 7dbd 196e 2a3e 213e f7bd 8e3e 843d
00000250: 750e 1b3e 3cb1 4fbe 8022 82bd 1cf1 bb3c
00000260: 103c 81bd c857 6dbc a91a 9d3d 5711 2bbe
00000270: 9927 cdbd 02f7 013e 3af5 0cbe 34ef f2bd
00000280: c294 083e 3ad8 0bbd 22a8 af3d 95a1 a43d
00000290: 845f 49bd f43a 163e 72ce e13d 7f54 83bd
000002a0: e5c9 eebd 06b1 8c3c 1c14 e9bd 507f a7bd
000002b0: ce3f c03c 25de ecbd b517 973d 98d1 493d
000002c0: b4f0 13be 8fe6 b8bd 46f8 b6bc cd41 553e
000002d0: 71a2 9a3d 82ba 87bd 5cbd 5f3e 342d 02bd
000002e0: 33e4 3cbd 0e48 06be e95c de3d 75c3 2ebd
000002f0: 5e7e efbc c02c f83d 84d0 913b 7cf4 a4bd
00000300: 8626 0c3d 4024 11be 1969 71bd 83c7 dd3d
00000310: 700a c23d c0b3 2a3e f3fc 2e3e 96ec f23d
00000320: a59e 373e ac5a b93b e83a 023e 2055 ac3d
00000330: 490e 5abe 9104 2cbe d2ef 2c3d ba27 0d3d
00000340: ba73 e9bd 7a7b 38bd feb5 87bd 70ed 3e3d
00000350: 4967 31be 7b68 093e 4c8b ee3d b4da 84be
00000360: f04e 4bbe cd00 1c3d 6c2c e8bc a180 e2bd
00000370: 4865 ef3c 44fb d4bd c83e eb3c 913a 1bbe
00000380: c5f7 6e3c ef85 3a3e e667 e93d 5d42 0ebd
00000390: 605a 1b3e 4684 0e3e f5c2 153e 744a 56be
000003a0: edcb 273e c7df 813d d7e4 ed3d 6731 5c3e
000003b0: d6aa bbbd d0fc 32be d028 8d3d 1edf bebd
000003c0: 52e8 bebd 7461 05be cfef 3fbd c5cf d1bc
000003d0: da9f 1cbd 9942 17bd 0ebc 883d 2333 913c
000003e0: 443a 11bc 184e ddbc ab2c 223d c7a7 93bb
000003f0: 7695 023e f201 14be ccf3 dc3d d650 213e

EncList.0.conv.bias f4 [16]
0.023990719 0.11141112 0.10351342 -0.110027455 -0.1782578 0.17889917 -0.12778018 -0.108128764
0.07648914 -0.61853415 -0.31481788 -0.1793729 -0.4202981 -0.3072753 0.20210293 -0.5071323
00000000: 2f88 c43c 832b e43d d8fe d33d 1356 e1bd
00000010: 3689 36be 5831 373e cfd8 02be 9d72 ddbd
00000020: 57a6 9c3d 4158 1ebf cf2f a1be 88ad 37be
00000030: 5031 d7be 3053 9dbe 12f4 4e3e 6cd3 01bf

EncList.1.conv.weight f4 [32, 16, 7]
-0.011003554 -0.17724766 -0.10853616 -0.13871783 -0.16848373 -0.07810482 -0.14940035 -0.1510897
0.035448644 0.069185175 0.13935187 0.17148478 0.045393053 0.017323976 -0.11597022 -0.07727699
0.018583179 -0.009406862 -0.011766352 -0.044862237 -0.087688 0.03642984 0.009445917 0.10282097
0.2139943 0.059249423 0.1573652 0.07690476 -0.09098641 -0.011273069 -0.07154534 -0.17828815
-0.14521325 -0.0020107587 -0.014742568 0.17483258 -0.006190561 0.12594043 0.058928207 -0.02016125
0.0014464052 -0.18095559 -0.1496415 -0.12722656 -0.11921554 0.097863294 0.090421066 0.15502569
0.055849925 0.10397816 0.051301733 0.12108391 0.072993554 0.07856783 -0.053377703 -0.06333737
0.13684702 0.100913346 0.11812059 0.15429057 -0.024180163 0.091466345 0.0246408 0.15800335
0.047723256 0.015314151 0.042132944 0.1579404 0.04149468 -0.027559819 0.0409657 0.08697706
0.12231359 0.12492562 0.20781727 0.30427223 0.1987232 0.17172134 0.11077167 0.028203892
0.045898765 -0.009820511 0.0939306 0.104048274 -0.068309136 -0.041579727 0.05817578 0.14040181
0.13835676 0.13557138 -0.043399382 -0.011681098 -0.14805648 -0.1254524 -0.04581953 -0.06232085
0.012296753 0.029762791 -0.057781838 0.08575204 0.126559 0.13345824 0.21946941 0.19801858
0.084184945 0.0061100908 -0.005035701 -0.06343267 -0.04340578 -0.13007393 -0.15381873 -0.11187012
-0.14116131 -0.22992168 -0.3038261 -0.15369497 0.10249969 0.12258156 0.05487003 -0.07953041
-0.14134695 -0.08485095 -0.061726257 -0.22182602 -0.18439709 -0.046219192 -0.040527355 0.05508519
0.043548316 0.1866387 0.22758655 0.025699118 0.043094903 -0.009022801 -0.018982548 -0.12837957
-0.04818866 -0.22564568 -0.15986988 -0.0647735 -0.084666714 0.03539917 -0.025855944 0.23572733
0.21862802 0.20585518 -0.12660727 -0.09226605 0.06953069 -0.07022812 -0.02641301 -0.10977006
-0.026394939 -0.17276427 0.029072119 0.059749514 0.09005839 0.056123335 0.07285224 -0.014300681
0.09971773 -0.04876774 -0.035868615 0.025433486 0.14822665 0.050533425 0.08314176 0.059525173
-0.024074322 0.10064343 -0.046382725 0.11125356 0.07773301 -0.027768327 -0.10621562 0.020321608
-0.048779532 -0.013042408 -0.02004185 0.116142966 0.03632967 -0.03079181 0.20099792 0.18559308
0.21742411 0.07121925 0.008215369 0.13728373 0.09769898 -0.041042786 -0.031116277 0.018480055
0.016201284 0.013009905 0.13483137 0.075962655 0.004588404 -0.006605593 -0.053510778 -0.1605729
-0.09893089 -0.02508265 -0.023157718 0.07722494 0.07148634 0.13235249 0.16500671 0.16768053
0.07801629 0.038883876 0.0062975497 0.05879264 -0.034253992 0.014318139 0.035295818 -0.08807011
-0.02071402 0.05338603 0.10129459 0.17783664 0.15881287 0.11671572 0.09442147 0.210772
-0.033520546 0.055627197 0.3006643 0.3807974 0.33491513 0.3693105 0.13526995 -0.009789159
-0.057325996 -0.033138756 -0.07159065 0.022752581 -0.012612617 0.12206383 -0.07314697 0.022831472
-0.06764608 -0.012793892 -0.0070987954 -0.09738193 0.018773502 0.056438897 -0.054305818 -0.07107538
-0.12639189 -0.024006238 -0.054270994 -0.092993304 -0.1954674 0.13948075 0.253216 0.2592038
00000000: 4048 34bc 6980 35be 3548 debd 0c0c 0ebe
00000010: 0087 2cbe 6bf5 9fbd 68fc 18be 42b7 1abe
00000020: 9932 113d f5b0 8d3d 42b2 0e3e b599 2f3e
00000030: 11ee 393d 03eb 8d3c cb81 edbd 6643 9ebd
00000040: c03b 983c 3d1f 1abc a8c7 40bc 77c1 37bd
00000050: c495 b3bd 7537 153d 0cc3 1a3c cd93 d23d
00000060: 5221 5b3e 86af 723d 5824 213e 3e80 9d3d
00000070: 1557 babd aeb2 38bc 5d86 92bd 2b91 36be
00000080: c8b2 14be efc6 03bb d08a 71bc 5007 333e
00000090: 31da cabb 87f6 003e b45e 713d 3529 a5bc
000000a0: 4e95 bd3a 6c4c 39be 9f3b 19be ae47 02be
000000b0: 4727 f4bd 8d6c c83d ae2e b93d 0ebf 1e3e
000000c0: e4c2 643d 80f2 d43d c421 523d d7fa f73d
000000d0: a57d 953d 2ce8 a03d 94a2 5abd 06b7 81bd
000000e0: a021 0c3e a8ab ce3d 35e9 f13d 59fe 1d3e
000000f0: 7a15 c6bc b552 bb3d 81db c93c a1cb 213e
00000100: 7679 433d 34e8 7a3c 9893 2c3d 21bb 213e
00000110: 53f6 293d 21c5 e1bc a6cb 273d 0721 b23d
00000120: 8c7f fa3d 01d9 ff3d 0dce 543e 92c9 9b3e
00000130: 187e 4b3e b8d7 2f3e 42dc e23d d90b e73c
00000140: 5800 3c3d 35e6 20bc b05e c03d 4317 d53d
00000150: a9e5 8bbd 814f 2abd ba49 6e3d 7ec5 0f3e
00000160: 65ad 0d3e 39d3 0a3e 8dc3 31bd 1362 3fbc
00000170: 1e9c 17be 9876 00be 42ad 3bbd 2644 7fbd
00000180: 5278 493c 19d1 f33c a6ac 6cbd c49e af3d
00000190: af98 013e 47a9 083e 97bc 603e 62c5 4a3e
000001a0: 2869 ac3d 2837 c83b 8602 a5bb fde8 81bd
000001b0: 42ca 31bd 1a32 05be a882 1dbe 291c e5bd
000001c0: 978c 10be 9770 6bbe 188f 9bbe 3762 1dbe
000001d0: 5ceb d13d 0a0c fb3d 66bf 603d d7e0 a2bd
000001e0: 41bd 10be 56c6 adbd acd4 7cbd 5c26 63be
000001f0: 97d2 3cbe 5650 3dbd 0300 26bd 02a1 613d
00000200: b85f 323d 371e 3f3e 730c 693e f586 d23c
00000210: 4884 303d 5fd4 13bc 4a81 9bbc ef75 03be
00000220: 7961 45bd a90f 67be eeb4 23be f8a7 84bd
00000230: be65 adbd b8fe 103d d8cf d3bc 8162 713e
00000240: 06e0 5f3e b3cb 523e 56a5 01be fcf5 bcbd
00000250: 1b66 8e3d c3d3 8fbd 1960 d8bc 20cf e0bd
00000260: 333a d8bc 1ee9 30be a728 ee3c e8bb 743d
00000270: 8870 b83d 95e1 653d 8e33 953d 674d 6abc
00000280: cf38 cc3d afc0 47bd f8ea 12bd e359 d03c
00000290: bac8 173e 23fc 4e3d 3a46 aa3d abd0 733d
000002a0: 8337 c5bc 251e ce3d d0fb 3dbd e8d8 e33d
000002b0: 7c32 9f3d 677a e3bc 9387 d9bd 8079 a63c
000002c0: 0ccd 47bd d3af 55bc ce2e a4bc 5ddc ed3d
000002d0: 6cce 143d 1b3f fcbc 66d2 4d3e 1d0c 3e3e
000002e0: 6da4 5e3e 66db 913d c199 063c 1b94 0c3e
000002f0: 6716 c83d 7b1c 28bd 90e7 febc 7c63 973c
00000300: 8eb8 843c 7f27 553c 3c11 0a3e 4f92 9b3d
00000310: 535a 963b bb73 d8bb 1e2e 5bbd 396d 24be
00000320: 479c cabd 217a cdbc 41b5 bdbc 1c28 9e3d
00000330: 6e67 923d 6987 073e 85f7 283e 72b4 2b3e
00000340: 01c7 9f3d b344 1f3d ad5b ce3b 8dd0 703d
00000350: ea4d 0cbd a196 6a3c 5992 103d 1a5e b4bd
00000360: 73b0 a9bc 4fab 5a3d 8a73 cf3d cf1a 363e
00000370: d79f 223e a708 ef3d 0b60 c13d 9dd4 573e
00000380: d74c 09bd 58d9 633d acf0 993e e0f7 c23e
00000390: ff79 ab3e 4416 bd3e 3584 0a3e b562 20bc
000003a0: aace 6abd 81bc 07bd 1e9e 92bd 9f63 ba3c
000003b0: 26a5 4ebc 9afc f93d 14ce 95bd 1109 bb3c
000003c0: 078a 8abd 799d 51bc 039d e8bb 2d70 c7bd
000003d0: e3ca 993c 792c 673d c76f 5ebd f88f 91bd
000003e0: e06c 01be bba8 c4bc 434b 5ebd 4673 bebd
000003f0: 9b28 48be 0bd4 0e3e 87a5 813e 5cb6 843e

EncList.1.conv.bias f4 [32]
-0.08854892 0.0004197681 0.044038106 -0.16154209 -0.12035014 0.21055746 0.17925487 -0.3214283
0.0501565 0.21550652 -0.08959881 -0.3666546 0.023128673 0.089029655 0.031566553 0.17884238
-0.15343727 0.09346457 -0.1545764 -0.38370198 0.64978397 -0.13142759 -0.37980667 0.2685496
0.18631783 0.043832075 -0.091326006 0.1560267 -0.07700982 0.25350526 -0.1463315 -0.08876067
00000000: 2359 b5bd 5214 dc39 4d61 343d 4a6b 25be
00000010: 227a f6bd 609c 573e 978e 373e 4092 a4be
00000020: e770 4d3d bead 5c3e 957f b7bd 27ba bbbe
00000030: 5878 bd3c 2e55 b63d ee4b 013d 7522 373e
00000040: a91e 1dbe 5a6a bf3d 4749 1ebe 9674 c4be
00000050: 3e58 263f f494 06be 0576 c2be 557f 893e
00000060: 1aca 3e3e 4389 333d 2109 bbbd 77c5 1f3e
00000070: 53b7 9dbd 71cb 813e edd7 15be 27c8 b5bd

EncList.2.conv.weight f4 [64, 32, 7]
-0.07748754 -0.014734906 0.0066679213 -0.02767255 -0.10242237 -0.13975565 -0.099629216 0.052742876
-0.03472939 0.036991023 0.084911674 0.0009421888 0.020084819 0.12707783 -0.035490572 -0.0079117175
-0.035990372 0.1059117 0.04945632 0.078060165 -0.010182371 0.061751638 -0.024057563 -0.1250231
-0.033715926 -0.008420728 0.067587584 0.018547231 -0.05448375 -0.118406616 -0.09590069 -0.054313246
0.07208428 0.05896391 0.018467613 0.037126094 -0.009414733 -0.085842066 -0.096576646 -0.13505132
-0.07976182 -0.06749195 0.032419723 0.11485519 0.0035332665 0.06412618 -0.059905052 0.0042422796
-0.05686236 -0.059273493 0.016028073 -0.043525137 -0.016884701 0.013928884 -0.016227558 -0.025230145
0.21148677 0.24956627 0.19694114 0.016314853 0.011123841 -0.15481469 -0.19347379 0.096633404
0.15229888 -0.008021409 -0.026710577 -0.19979694 -0.2392443 -0.12156251 -0.040086508 0.11844139
0.20768571 0.28211355 0.18078768 0.13221711 0.037628856 0.037612505 -0.00047795824 -0.13054614
-0.1821097 -0.15194638 -0.06263413 -0.05543791 -0.0061195944 -0.052794237 -0.04681475 -0.03244984
0.06971639 -0.014038883 -0.043752708 0.094232336 0.1597174 0.17524281 0.07405658 -0.033586793
-0.18679753 -0.23185962 0.053643797 -0.096909374 -0.19124827 -0.20780604 -0.08341878 -0.051096685
0.041172903 -0.21268995 -0.10153949 -0.12502918 -0.078049175 -0.040294953 0.0698851 0.011449238
-0.027986582 -0.04073012 0.019107351 -0.0075006005 -0.12703565 0.012171173 0.04217127 -0.077850126
-0.090828046 -0.020194547 -0.0006774937 0.050919887 0.07215343 0.08983602 0.12448604 0.0792639
-0.097866505 -0.13138534 -0.1735916 -0.21194766 -0.022542626 -0.05164397 -0.0873449 -0.04990153
-0.050281152 -0.018928569 -0.07346036 0.032618046 0.09776039 0.03496609 0.02411258 0.027127096
-0.015127479 -0.09716567 0.07566166 0.113990866 0.048690677 0.051886752 -0.019194301 -0.0860284
-0.09169607 -0.038303018 0.14416216 0.09057018 0.122499324 0.09332134 0.06323176 -0.09224311
-0.08132817 -0.012207179 -0.06781036 0.05587962 0.11708496 0.16100739 0.19092631 0.15541022
0.14033842 0.09208231 0.03950693 -0.039405856 -0.09733334 -0.3158592 -0.16989997 0.046997264
0.0037466884 0.099800475 0.10034112 0.043369006 0.03298774 -0.0065298514 -0.03876375 0.07608391
0.03731601 0.08457135 0.14273404 0.12328372 0.06425215 0.06843495 0.13695805 0.12005857
-0.028113388 0.0054993024 -0.181159 -0.16901956 -0.32730106 -0.11834491 -0.019660566 -0.08765046
-0.12616915 -0.022915974 0.008743707 0.04844814 0.06757086 0.043967996 0.09360661 0.083555974
0.04571377 0.11723894 0.018989498 0.019629225 0.04679938 -0.1008375 -0.16169721 -0.17734692
-0.13918772 0.11982896 0.106768005 0.15279453 -0.03218231 -0.067060985 -0.15623432 -0.15978663
-0.050452884 0.031017436 0.02018517 -0.033504456 0.06837668 -0.0104474 0.021249687 -0.081624486
-0.08158803 -0.0966146 -0.05808793 -0.15392326 -0.17997392 -0.12537801 -0.02126087 0.007304293
0.012357146 0.040714636 -0.014947126 -0.020420672 -0.03943104 -0.07334852 0.000864 -0.020591777
-0.0888044 -0.063673526 -0.089944154 -0.110412925 0.00011073797 0.031012649 -0.117249034 -0.11073151
00000000: cab1 9ebd ad6a 71bc 947e da3b 8bb1 e2bc
00000010: d2c2 d1bd 1b1c 0fbe 670a ccbd ea08 583d
00000020: 6840 0ebd e683 173d 2ce6 ad3d 38fd 763a
00000030: eb88 a43c b120 023e 905e 11bd 26a0 01bc
00000040: a46a 13bd 3ce8 d83d b692 4a3d 02de 9f3d
00000050: f6d3 26bc 49ef 7c3d 5e14 c5bc 0e06 00be
00000060: b619 0abd 18f7 09bc 5c6b 8a3d 5df0 973c
00000070: 5a2a 5fbd 2b7f f2bd 9567 c4bd 9177 5ebd
00000080: eca0 933d 2484 713d 6449 973c 8811 183d
00000090: 4140 1abc f7cd afbd fac9 c5bd e54a 0abe
000000a0: 2a5a a3bd 3839 8abd 8bca 043d 3339 eb3d
000000b0: 608e 673b 9654 833d 005f 75bd d202 8b3b
000000c0: 82e8 68bd c3c8 72bd 4e4d 833c 6a47 32bd
000000d0: c951 8abc f935 643c a8ef 84bc 73af cebc
000000e0: fd8f 583e 4d8e 7f3e f0aa 493e baa6 853c
000000f0: c540 363c be87 1ebe fe1d 46be bce7 c53d
00000100: 3df4 1b3e 3a6c 03bc 24d0 dabc 9297 4cbe
00000110: 75fc 74be c4f5 f8bd c031 24bd 6691 f23d
00000120: 90ab 543e 3071 903e 6820 393e ec63 073e
00000130: b720 1a3d 920f 1a3d 7896 fab9 e3ad 05be
00000140: f77a 3abe d597 1bbe 5346 80bd dd12 63bd
00000150: e186 c8bb c53e 58bd d3c0 3fbd 20ea 04bd
00000160: 77c7 8e3d 5803 66bc 0a36 33bd e2fc c03d
00000170: f58c 233e da72 333e faaa 973d 4e92 09bd
00000180: da47 3fbe 9c6c 6dbe 99b9 5b3d 6c78 c6bd
00000190: 96d6 43be 1bcb 54be 77d7 aabd c24a 51bd
000001a0: eba4 283d 65cb 59be f0f3 cfbd a607 00be
000001b0: 3fd8 9fbd 520c 25bd eb1f 8f3d 9695 3b3c
000001c0: 1e44 e5bc a0d4 26bd 0587 9c3c 99c7 f5bb
000001d0: a215 02be 9969 473c c8bb 2c3d e36f 9fbd
000001e0: 0e04 babd 096f a5bc d599 31ba 5f91 503d
000001f0: 2dc5 933d f2fb b73d 89f2 fe3d 1d55 a23d
00000200: 3c6e c8bd e189 06be ffc1 31be cf08 59be
00000210: 50ab b8bc a188 53bd e2e1 b2bd 8c65 4cbd
00000220: 9cf3 4dbd 1610 9bbc 6372 96bd 809a 053d
00000230: 9936 c83d 9a38 0f3d bf87 c53c a539 de3c
00000240: 3fd9 77bc cbfe c6bd 80f4 9a3d 0b74 e93d
00000250: e06f 473d 3487 543d 5e3d 9dbc a82f b0bd
00000260: 26cb bbbd a0e3 1cbd 3f9f 133e dc7c b93d
00000270: ede0 fa3d 421f bf3d a77f 813d f5e9 bcbd
00000280: 628f a6bd 9f00 48bc 28e0 8abd 07e2 643d
00000290: 3dca ef3d 1fdf 243e 3082 433e db23 1f3e
000002a0: e0b4 0f3e a695 bc3d 05d2 213d 0968 21bd
000002b0: b456 c7bd 4cb8 a1be 42fa 2dbe 3480 403d
000002c0: 008b 753b 3164 cc3d a57f cd3d b3a3 313d
000002d0: 271e 073d 5df8 d5bb bdc6 1ebd e2d1 9b3d
000002e0: acd8 183d be33 ad3d df28 123e 2d7c fc3d
000002f0: a296 833d a027 8c3d bb3e 0c3e 44e1 f53d
00000300: 0c4e e6bc 7e33 b43b bf81 39be 7713 2dbe
00000310: 0194 a7be d15e f2bd 320f a1bc 1682 b3bd
00000320: 7c32 01be 48ba bbbc c441 0f3c 8f71 463d
00000330: 9762 8a3d c917 343d d3b4 bf3d 651f ab3d
00000340: 5d3e 3b3d f81a f03d dd8f 9b3c 78cd a03c
00000350: b5b0 3f3d e483 cebd f493 25be 6e9a 35be
00000360: 3a87 0ebe e368 f53d 2fa9 da3d 2b76 1c3e
00000370: 99d1 03bd 4557 89bd e4fb 1fbe 1b9f 23be
00000380: afa7 4ebd 4718 fe3c 5f5b a53c f83b 09bd
00000390: 1309 8c3d 922b 2bbc d313 ae3c bd2a a7bd
000003a0: a017 a7bd e0dd c5bd 9ced 6dbd 0f9e 1dbe
000003b0: 154b 38be 1863 00be 472b aebc da58 ef3b
000003c0: a075 4a3c 64c4 263d cae4 74bc 4149 a7bc
000003d0: 7182 21bd c037 96bd 0f7e 623a 16b0 a8bc
000003e0: 15df b5bd 4467 82bd a434 b8bd 2c20 e2bd
000003f0: ff3b e838 3d0e fe3c 4320 f0bd 34c7 e2bd

EncList.2.conv.bias f4 [64]
0.19866921 -0.17892693 -0.010495172 0.4837678 -0.16745912 -0.16291168 -0.29156804 -0.039676018
-0.061724678 0.039852962 0.025995107 -0.16271909 -0.3030754 0.040438186 -0.026099183 0.1081047
0.16992211 -0.11234375 0.045361716 0.011426177 -0.45450455 -0.07925731 -0.064874485 -0.18172619
-0.118432224 -0.058794573 0.025723848 -0.011853014 -0.046155006 -0.17094022 -0.01686682 0.00056228286
-0.27533823 -0.3511909 -0.15909626 0.051602006 -0.0070619793 -0.37983674 -0.11024422 -0.105718195
0.039072465 -0.016867407 -0.0055215517 0.15475257 0.14237899 0.05090352 0.078378 0.140187
0.11145831 0.12449927 -0.17604774 -0.1847483 -0.08548281 0.039945472 0.25700954 -0.11640569
0.040620793 -0.21010363 -0.01633788 -0.044130325 0.07172805 -0.021863654 0.07289312 -0.034347825
00000000: f16f 4b3e 9f38 37be f1f3 2bbc 6ab0 f73e
00000010: 677a 2bbe 52d2 26be 6848 95be 5283 22bd
00000020: 04d3 7cbd dc3c 233d b1f3 d43c d59f 26be
00000030: b32c 9bbe 83a2 253d f4cd d5bc ff65 dd3d
00000040: 1000 2e3e 7b14 e6bd 35cd 393d dc34 3b3c
00000050: d2b4 e8be a851 a2bd eadc 84bd 6e16 3abe
00000060: 988c f2bd 94d2 70bd d2ba d23c 2533 42bc
00000070: 080d 3dbd f40a 2fbe 492c 8abc 2a66 133a
00000080: 22f9 8cbe 4bcf b3be 21ea 22be a05c 533d
00000090: 2d68 e7bb f679 c2be b9c7 e1bd c882 d8bd
000000a0: 730a 203d 842d 8abc 22ee b4bb 7577 1e3e
000000b0: cccb 113e 3680 503d a584 a03d 2e8d 0f3e
000000c0: 4144 e43d 79f9 fe3d dc45 34be a92e 3dbe
000000d0: 9d11 afbd dd9d 233d c196 833e 1b66 eebd
000000e0: fd61 263d 6825 57be 05d7 85bc 00c2 34bd
000000f0: 28e6 923d 681b b3bc fd48 953d 4eb0 0cbd

EncList.3.conv.weight f4 [128, 64, 7]
-0.052931495 -0.14025463 -0.033879317 0.07899211 -0.11993458 -0.1282523 -0.049353797 -0.009680257
-0.024320848 -0.068265565 0.05073956 0.06568202 0.06175893 0.1527072 -0.1516255 -0.1408036
-0.14293732 0.021099657 0.02542501 0.0896121 0.19024776 -0.22535859 -0.2684441 -0.1487285
-0.13312343 -0.113823645 -0.02286985 -0.12589183 0.02805214 0.02092279 0.04385678 0.009086182
0.049347613 0.13299023 0.17427047 -0.10481495 -0.17996974 -0.2305402 -0.17548299 -0.23730496
-0.012949959 0.15380862 0.047611456 0.11177865 0.14846618 0.005648348 -0.05195398 0.021286212
0.07150861 -0.16343825 -0.03435692 0.03606749 -0.026518453 0.019066628 -0.02623701 0.11038475
0.13492472 0.16544305 -0.085029356 -0.11651542 -0.15387398 0.030611921 0.011665216 -0.16855486
-0.084025085 -0.050845142 -0.051699817 -0.023587665 0.01762357 0.09482927 -0.05406194 0.025509758
-0.014309353 -0.022653632 -0.14038037 -0.16302517 -0.014702357 -0.16278064 0.007544554 -0.025790565
-0.075402364 -0.109234735 -0.095838435 -0.11271643 0.09012762 0.060089193 0.08356252 0.016234687
-0.024125274 0.077536404 0.11706704 -0.059981268 -0.06448487 -0.018316481 0.20795627 -0.13078508
-0.21090095 0.10138202 0.12467233 0.061528407 0.014319577 0.08190872 0.09373203 0.14302978
0.15258773 0.03611593 -0.035527345 0.1279286 0.08365124 0.064472064 0.058907222 0.1218621
-0.1996538 -0.0871755 -0.14274217 0.03955555 -0.022098469 0.0926036 0.11782144 0.03195216
0.12627803 0.084985845 -0.00449172 0.015956877 0.046594016 0.06672987 -0.09060431 -0.15711063
-0.07235496 -0.062312867 0.068300724 0.11667177 0.123677306 0.05863305 -0.02893279 0.06821886
-0.028974969 -0.22218077 -0.5422835 -0.62352914 0.029128836 0.10947078 0.12424815 0.06685643
-0.15032616 -0.053362202 0.08509112 0.055099484 -0.10495446 -0.061326955 0.038086817 0.13901943
0.1449421 0.15575549 -0.01765407 -0.03162632 -0.08321996 -0.047312878 -0.0147888055 0.048300195
0.0047740256 -0.029501662 0.031772368 0.059945002 0.029738827 0.09992938 0.07680173 0.07264806
-0.09561885 -0.0014314293 -0.03606718 0.037933894 0.018001216 0.09564607 0.16236782 0.034623384
0.07021023 0.06467529 -0.051417775 -0.021274071 0.07473647 0.049368788 -0.054665904 -0.05912607
0.0022133067 0.020835847 0.040406767 0.07652572 0.06723343 -0.35652873 -0.26456037 -0.14587846
-0.23296289 -0.18593863 -0.24631193 -0.051418412 -0.057131324 -0.09422924 0.04480795 0.023158023
-0.048380326 -0.096497916 -0.019513583 0.12555723 0.09964271 0.124470964 0.081091665 0.022180203
0.14632884 0.14462116 -0.10018745 -0.08021592 -0.053898342 -0.112052634 -0.067296475 -0.142565
-0.09543106 -0.021141475 -0.17421722 -0.10725588 -0.005257137 0.013025781 0.08353897 0.070640065
-0.05320532 -0.017830797 -0.006889871 0.011004681 0.039506357 0.022209307 -0.0026442006 0.13559076
0.038838863 0.13185145 0.08384014 0.11051575 0.12115771 -0.0129107805 0.13132226 -0.07037834
-0.12528121 -0.013742563 0.023608241 0.021244366 0.04545114 0.07805267 0.03971936 0.06688911
-0.048703194 0.023372795 0.08638347 0.16960168 0.037092227 0.15849243 0.053871043 0.0677334
00000000: b2ce 58bd e99e 0fbe 0ac5 0abd 9ec6 a13d
00000010: 43a0 f5bd 9254 03be 3527 4abd f199 1ebc
00000020: 843c c7bc d1ce 8bbd 49d4 4f3d 4b84 863d
00000030: eff6 7c3d 475f 1c3e b743 1bbe d22e 10be
00000040: 295e 12be 30d9 ac3c 1c48 d03c 8c86 b73d
00000050: 4fd0 423e 67c4 66be 8171 89be 494c 18be
00000060: 8251 08be 5f1c e9bd 8d59 bbbc cae9 00be
00000070: 9acd e53c 4566 ab3c 2ba3 333d 36de 143c
00000080: b920 4a3d 972e 083e f573 323e 38a9 d6bd
00000090: fd49 38be bb12 6cbe d0b1 33be 1200 73be
000000a0: 112c 54bc 0280 1d3e 3b04 433d 34ec e43d
000000b0: 8507 183e c715 b93b b2cd 54bd 6c60 ae3c
000000c0: 1b73 923d 5b5c 27be d7b9 0cbd 81bb 133d
000000d0: 3a3d d9bc 9e31 9c3c ffee d6bc 6611 e23d
000000e0: b529 0a3e e769 293e df23 aebd a39f eebd
000000f0: 2491 1dbe dac5 fa3c 761f 3f3c a599 2cbe
00000100: 5815 acbd ff42 50bd 30c3 53bd eb3a c1bc
00000110: 4e5f 903c d935 c23d 0e70 5dbd d7f9 d03c
00000120: c771 6abc 1c94 b9bc dfbf 0fbe 12f0 26be
00000130: 28e2 70bc f8af 26be 4e38 f73b bc46 d3bc
00000140: 8e6c 9abd 76b6 dfbd f146 c4bd dfd7 e6bd
00000150: d494 b83d 1620 763d d422 ab3d 9bfe 843c
00000160: 5ea2 c5bc 68cb 9e3d d8c0 ef3d ebae 75bd
00000170: a510 84bd 720c 96bc 7df2 543e 86ec 05be
00000180: 6bf6 57be 60a1 cf3d 3554 ff3d 3605 7c3d
00000190: a99c 6a3c c2bf a73d 94f6 bf3d 6676 123e
000001a0: f53f 1c3e 4cee 133d 1f85 11bd b7ff 023e
000001b0: 5751 ab3d ee09 843d b348 713d d692 f93d
000001c0: 0c72 4cbe 1289 b2bd 012b 12be 0005 223d
000001d0: d907 b5bc f5a6 bd3d 5e4c f13d 45e0 023d
000001e0: 074f 013e 0f0d ae3d 472f 93bb ffb7 823c
000001f0: 5ed9 3e3d aca9 883d c18e b9bd 9ce1 20be
00000200: d62e 94bd c73b 7fbd 40e1 8b3d 9cf1 ee3d
00000210: 874a fd3d 3629 703d 7504 edbc 54b6 8b3d
00000220: ea5c edbc 5b83 63be 17d3 0abf 9b9f 1fbf
00000230: 999f ee3c 3732 e03d d075 fe3d 06ec 883d
00000240: 1aef 19be 5392 5abd 4144 ae3d ffaf 613d
00000250: 5df2 d6bd f931 7bbd ec00 1c3d 1c5b 0e3e
00000260: b46b 143e 5e7e 1f3e 459f 90bc 9a8a 01bd
00000270: 3a6f aabd 26cb 41bd bf4c 72bc 6dd6 453d
00000280: 6e6f 9c3b 78ad f1bc be23 023d e488 753d
00000290: d79e f33c c6a7 cc3d 3a4a 9d3d 82c8 943d
000002a0: d1d3 c3bd cc9e bbba 2ebb 13bd 9260 1b3d
000002b0: 4977 933c 16e2 c33d c043 263e 40d1 0d3d
000002c0: 62ca 8f3d 7a74 843d 729b 52bd f646 aebc
000002d0: 6f0f 993d ed36 4a3d 5be9 5fbd 2e2e 72bd
000002e0: 200d 113b f0af aa3c 9181 253d 84b9 9c3d
000002f0: aeb1 893d ef8a b6be 7574 87be 2a61 15be
00000300: d38d 6ebe b266 3ebe 3239 7cbe 1d9c 52bd
00000310: 8902 6abd 43fb c0bd 8a88 373d e5b5 bd3c
00000320: 732a 46bd b3a0 c5bd f3da 9fbc 1392 003e
00000330: 7a11 cc3d a2ea fe3d 6313 a63d 42b3 b53c
00000340: 3ad7 153e 9217 143e 142f cdbd 3f48 a4bd
00000350: 82c4 5cbd da7b e5bd bcd2 89bd 8ffc 11be
00000360: 5c71 c3bd e330 adbc 0066 32be f9a8 dbbd
00000370: 1044 acbb 166a 553c 7b16 ab3d bdab 903d
00000380: d2ed 59bd e411 92bc 6dc4 e1bb fa4c 343c
00000390: 6bd1 213d 4bf0 b53c 534a 2dbb 4ed8 0a3e
000003a0: 8015 1f3d 1104 073e 61b4 ab3d 1556 e23d
000003b0: 8921 f83d bd87 53bc 5879 063e 8522 90bd
000003c0: b849 00be 7d28 61bc 1266 c13c aa08 ae3c
000003d0: f92a 3a3d 14da 9f3d c5b0 223d 28fd 883d
000003e0: 007d 47bd 4e78 bf3c d1e9 b03d 10ac 2d3e
000003f0: 05ee 173d d74b 223e e2a7 5c3d cfb7 8a3d

EncList.3.conv.bias f4 [128]
-0.038666226 0.053225826 0.03356653 -0.29725432 0.11829303 -0.045899864 -0.014410504 -0.039630786
-0.06383286 0.20755674 -0.10204567 -0.17032228 0.1513758 0.0137271425 0.07258057 0.038123902
0.14315721 0.039794993 -0.18391219 0.05287453 -0.069326065 0.026753735 -0.16660902 0.1449319
-0.010825956 0.0061137807 -0.019532152 -0.042383123 -0.06854799 -0.10222518 -0.15483175 0.22539572
0.002997529 -0.038244534 -0.15950428 -0.02695568 0.07230556 -0.097095504 -0.07855653 -0.09592063
-0.018034928 -0.034126483 0.23256592 -0.3219724 -0.002563583 0.09976438 -0.0859722 0.003284823
-0.1864827 0.304974 -0.044648748 0.059904303 -0.030899346 -0.006054542 0.13385403 -0.04551325
-0.23120657 -0.12567955 -0.0030906007 -0.08858996 -0.098084636 -0.012829549 -0.29103488 -0.07952827
0.24816096 -0.0126609625 -0.061288245 -0.06058948 0.03499697 -0.13244604 0.027135637 0.07907378
0.010190743 -0.033714663 0.12327452 -0.005878866 -0.13642287 0.011880107 0.062098175 -0.07669389
0.08392491 0.038626265 0.1787457 -0.19947919 -0.12519678 -0.11066658 0.08862877 -0.18287608
-0.26904973 -0.30290917 -0.055229947 0.042320643 0.1547934 0.05172046 0.09944188 -0.23003776
0.004709441 -0.030813482 0.13408658 0.067131914 -0.0024739495 -0.19848289 0.10452065 -0.17542735
0.06179957 0.04599333 0.019619543 0.10300485 0.1708117 -0.058762018 -0.009895697 -0.126514
0.008590828 -0.08862143 0.07988771 -0.15818478 0.1726857 -0.06637576 -0.4613759 0.053252574
0.071427174 0.058436744 -0.03459405 0.09920789 -0.06201913 -0.0930873 -0.029351776 -0.10818992
00000000: 7a60 1ebd 5303 5a3d 0f7d 093d b831 98be
00000010: 9e43 f23d 7f01 3cbd 091a 6cbc e453 22bd
00000020: cdba 82bd c189 543e 52fd d0bd f768 2ebe
00000030: 4202 1b3e cfe7 603c 1fa5 943d cf27 1c3d
00000040: ce97 123e 1300 233d 7a53 3cbe f792 583d
00000050: d3fa 8dbd a62a db3c 8e9b 2abe 0769 143e
00000060: 5a5f 31bc 1c56 c83b e401 a0bc ed99 2dbd
00000070: e362 8cbd 6f5b d1bd 378c 1ebe 23ce 663e
00000080: 3172 443b 4da6 1cbd 1755 23be 29d2 dcbc
00000090: f014 943d 02da c6bd 3fe2 a0bd 0972 c4bd
000000a0: fcbd 93bc 36c8 0bbd c325 6e3e 91d9 a4be
000000b0: c901 28bb 4451 cc3d 3112 b0bd 2f46 573b
000000c0: 52f5 3ebe 8d25 9c3e 9be1 36bd 375e 753d
000000d0: a020 fdbc 2e65 c6bb 0811 093e 1a6c 3abd
000000e0: 6ac1 6cbe 24b2 00be ad8b 4abb a76e b5bd
000000f0: 99e0 c8bd 0733 52bc 8602 95be b8df a2bd
00000100: e81d 7e3e ed6f 4fbc 6209 7bbd ad2c 78bd
00000110: fc58 0f3d ef9f 07be 8e4b de3c 6ff1 a13d
00000120: 13f7 263c 6318 0abd 5a77 fc3d 81a3 c0bb
00000130: 70b2 0bbe c8a4 423c a85a 7e3d b011 9dbd
00000140: d3e0 ab3d 9336 1e3d 1d09 373e 4644 4cbe
00000150: 9633 00be 29a5 e2bd 0083 b53d de43 3bbe
00000160: e3c0 89be e916 9bbe cc38 62bd 6958 2d3d
00000170: 2982 1e3e d5d8 533d 2fa8 cb3d 058f 6bbe
00000180: a851 9a3b 8e6c fcbc fe4d 093e 757c 893d
00000190: fc21 22bb 193f 4bbe ec0e d63d 3aa3 33be
000001a0: 8c21 7d3d 8163 3c3d 2ab9 a03c 35f4 d23d
000001b0: 43e9 2e3e 71b0 70bd 9021 22bc e38c 01be
000001c0: 8bc0 0c3c 277f b5bd 2b9c a33d 31fb 21be
000001d0: 85d4 303e 04f0 87bd 7639 ecbe 5f1f 5a3d
000001e0: 6948 923d 5e5b 6f3d 7eb2 0dbd 822d cb3d
000001f0: c507 7ebd 8ea4 bebd 2373 f0bc ad92 ddbd

DecList.0.conv.weight f4 [128, 64, 7]
-0.06592614 0.0108183315 0.12789965 0.020161487 -0.113362536 -0.16543119 -0.09151327 -0.022501064
0.045600902 -0.03090293 -0.033693645 0.03275546 0.13715027 0.057162467 -0.10235911 -0.12606007
-0.13248785 -0.11942457 -0.05334872 -0.06855693 0.030887935 -0.008767307 -0.01879292 -0.065961026
-0.035755165 0.09169556 -0.0115616 -0.014673723 0.03795667 0.04071575 0.09798247 0.11852709
0.07815354 0.12407435 0.091412246 -0.10796855 -0.10768315 -0.10264931 -0.2663988 -0.45274076
-0.45144206 -0.4245389 0.15599374 0.20246615 0.14515682 0.06835088 0.029174183 0.16012974
-0.009891442 -0.23842469 -0.20647843 -0.15748125 -0.28747618 -0.24824378 -0.26237753 -0.18922634
0.1684502 0.0748773 0.11863591 -0.023319686 -0.081529774 -0.047325898 0.0023612096 -0.04400547
-0.05342139 -0.0664938 -0.049525175 -0.061377466 -0.03227134 0.0566543 -0.04960186 0.031941216
0.007940817 -0.10791096 -0.26239848 -0.19093584 0.030580783 -0.084048726 -0.11474222 -0.012093778
0.017969245 -0.0215364 -0.030086156 -0.03599543 0.30369294 0.15919249 0.04316309 0.074045256
-0.011519761 0.056738924 0.08587408 0.03764285 0.055484965 -0.0027777567 0.0896857 0.03688109
0.022679403 -0.025586577 0.091454476 -0.020369181 -0.06899047 -0.026273007 -0.057918645 -0.0610012
0.07029121 0.004399476 -0.025129238 0.0411894 0.05865278 -0.06553412 -0.056471247 0.07595967
0.1272856 0.07191671 -0.01877039 0.085081294 0.21391024 0.14347127 -0.0019291716 0.0038117138
0.02906378 -0.11370881 -0.10800414 -0.116227895 -0.19987443 -0.17155428 -0.1333926 -0.13758737
-0.10077498 -0.20210353 -0.19030836 -0.060795616 0.03836919 -0.09058901 -0.04383508 0.05933976
0.10562661 0.0172021 -0.10365711 -0.07967788 -0.11716244 0.16374052 0.24993826 0.100230224
0.06673799 0.1253963 0.018454509 -0.13347425 -0.02362827 0.06737723 0.14475302 0.043670073
-0.11801463 0.020937096 -0.090543725 -0.18312216 -0.2612202 -0.10107542 -0.10761464 0.09560656
0.11310565 0.07232457 -0.021119155 0.009765926 -0.0785804 -0.021001492 -0.041414186 -0.03799643
0.018147377 0.0013909603 0.027586374 0.05406344 -0.21339773 0.13433595 0.194744 0.10461843
-0.08449308 -0.08887598 -0.0057942998 -0.05778651 -0.040596902 0.03222707 -0.30777287 -0.26666254
-0.1995337 -0.23837754 -0.19226226 -0.20592448 -0.048028406 0.16785535 0.05300637 -0.05532229
-0.043823373 -0.06506852 -0.084016755 -0.15933762 -0.091803126 -0.024890931 0.1756539 0.12902409
0.15479459 0.064408764 0.030375943 0.2036236 0.039631993 -0.04790055 0.049483757 0.039944354
-0.23584385 -0.050854012 -0.035772417 0.011452554 -0.015281218 0.0051608062 -0.01960417 -0.1982467
-0.11344664 0.063478015 -0.036421996 -0.013897082 -0.078550376 -0.025429022 -0.018742505 -0.029171564
-0.027533142 -0.056949135 0.015155378 -0.010542105 0.08072538 0.19724518 0.137584 0.017144386
-0.018518472 0.011113869 0.029563515 -0.085188426 0.021739127 0.19007038 -0.15906273 -0.120418735
-0.12775996 -0.12527797 -0.10720642 -0.12237113 -0.22460996 0.007517329 -0.0781178 -0.02149457
-0.10470556 -0.27832288 -0.25756958 -0.18151686 -0.09492568 -0.16550244 -0.1879415 -0.02255408
00000000: 4904 87bd 5f3f 313c 20f8 023e b429 a53c
00000010: 9e2a e8bd cb66 29be 4f6b bbbd 2754 b8bc
00000020: 03c8 3a3d 2428 fdbc 5902 0abd 972a 063d
00000030: 1f71 0c3e 3123 6a3d a7a1 d1bd e415 01be
00000040: e5aa 07be de94 f4bd 3084 5abd 9367 8cbd
00000050: b208 fd3c c0a4 0fbc 9cf3 99bc 9316 87bd
00000060: 0274 12bd e2ca bb3d dd6c 3dbc 0e6a 70bc
00000070: 7478 1b3d 8fc5 263d 09ab c83d 55be f23d
00000080: f70e a03d b11a fe3d 5836 bb3d 9d1e ddbd
00000090: fc88 dcbd cd39 d2bd 6c65 88be a3cd e7be
000000a0: 6a23 e7be 2a5d d9be d3bc 1f3e 4953 4f3e
000000b0: fda3 143e 8cfb 8b3d b2fe ee3c 0df9 233e
000000c0: b70f 22bc 9a25 74be 156f 53be c442 21be
000000d0: 1430 93be 9e33 7ebe 5956 86be 8dc4 41be
000000e0: 367e 2c3e 4559 993d 62f7 f23d ed08 bfbc
000000f0: 15f9 a6bd cdd8 41bd 86be 1a3b 143f 34bd
00000100: 63d0 5abd e72d 88bd e9da 4abd f066 7bbd
00000110: f42e 04bd 570e 683d 522b 4bbd cbd4 023d
00000120: 331a 023c 6c00 ddbd 1859 86be af84 43be
00000130: 8d84 fa3c bd21 acbd f8fd eabd fb24 46bc
00000140: 3d34 933c 1b6d b0bc 3e77 f6bc f26f 13bd
00000150: a47d 9b3e 5b03 233e c8cb 303d 0aa5 973d
00000160: 61bd 3cbc 1367 683d c0de af3d 642f 1a3d
00000170: 3444 633d 060b 36bb 23ad b73d a010 173d
00000180: 28ca b93c f19a d1bc 7c4c bb3d 45dd a6bc
00000190: e04a 8dbd 7d3a d7bc 1a3c 6dbd 65dc 79bd
000001a0: d7f4 8f3d 7b29 903b d5db cdbc 37b6 283d
000001b0: e63d 703d c136 86bd 654e 67bd be90 9b3d
000001c0: 2857 023e 1149 933d 5cc4 99bc 1a3f ae3d
000001d0: 490b 5b3e 22ea 123e 42dc fcba f2cd 793b
000001e0: 2a17 ee3c 2ae0 e8bd 4631 ddbd e408 eebd
000001f0: e2ab 4cbe edab 2fbe 1298 08be b4e3 0cbe
00000200: 1d63 cebd 3af4 4ebe 32e0 42be d304 79bd
00000210: 0329 1d3d bb86 b9bd 6a8c 33bd 400e 733d
00000220: c452 d83d 6beb 8c3c 2e4a d4bd 282e a3bd
00000230: ddf2 efbd 98ab 273e d1ef 7f3e 8145 cd3d
00000240: edad 883d e367 003e e92d 973c 79ad 08be
00000250: 1390 c1bc 13fd 893d 233a 143e 64df 323d
00000260: a8b1 f1bd 4684 ab3c fd6e b9bd 6084 3bbe
00000270: a7be 85be a100 cfbd 1065 dcbd 5fcd c33d
00000280: efa3 e73d e71e 943d 1402 adbc 4301 203c
00000290: c3ee a0bd 520b acbc eca1 29bd 25a2 1bbd
000002a0: cfa9 943c e250 b63a d2fc e13c a071 5d3d
000002b0: ef84 5abe 5d8f 093e f96a 473e 3042 d63d
000002c0: b50a adbd 9c04 b6bd 1cde bdbb 8cb1 6cbd
000002d0: f048 26bd 8800 043d 6894 9dbe fe87 88be
000002e0: 9052 4cbe 3e19 74be 66e0 44be dedd 52be
000002f0: 6fb9 44bd 46e2 2b3e 351d 593d a099 62bd
00000300: 2380 33bd a542 85bd fa10 acbd 6729 23be
00000310: 4703 bcbd 11e8 cbbc 9ede 333e e41e 043e
00000320: 7982 1e3e bee8 833d f8d6 f83c b482 503e
00000330: 2855 223d 5e33 44bd 7baf 4a3d b19c 233d
00000340: 0d81 71be 4c4c 50bd 1986 12bd 7ea3 3b3c
00000350: 135e 7abc fb1b a93b ed98 a0bc 2f01 4bbe
00000360: b656 e8bd c300 823d 3b2f 15bd 96b0 63bc
00000370: 05df a0bd 8650 d0bc e289 99bc 34f9 eebc
00000380: 2f8d e1bc 7f43 69bd 434e 783c cbb8 2cbc
00000390: 5953 a53d a4fa 493e d2e2 0c3e 6272 8c3c
000003a0: 0db4 97bc f216 363c 2f2f f23c 4577 aebd
000003b0: 4116 b23c cfa1 423e 57e1 22be 199e f6bd
000003c0: 82d3 02be de48 00be 0a8f dbbd b79d fabd
000003d0: 2700 66be ed53 f63b 3afc 9fbd 6115 b0bc
000003e0: de6f d6bd 5680 8ebe 29e0 83be 8edf 39be
000003f0: 6568 c2bd 7979 29be bd73 40be 55c3 b8bc

DecList.0.conv.bias f4 [64]
-0.058897622 -0.07877328 0.21945016 0.042687602 0.06520912 -0.07759932 0.026831977 -0.024829812
-0.13576853 -0.08024347 0.031984378 0.085856475 -0.2532928 0.1994841 -0.063874245 -0.065072246
0.1518535 0.040474866 0.017593866 -0.16598189 -0.17185728 0.108695075 0.030805614 -0.04280615
-0.022269089 0.10301207 -0.007894915 -0.14854454 -0.19988176 -0.07996572 -0.06021624 0.05623852
0.27219313 -0.07724057 -0.045705978 0.065746024 -0.11142606 -0.0029699928 0.0318416 -0.067295395
0.13587883 0.04333147 0.3748435 0.10514174 0.1108162 -0.12776788 -0.04522338 -0.3424222
0.016122235 0.005314435 -0.0015530392 -0.04487297 -0.058936592 0.029427992 0.54032606 0.0950104
0.0077589653 0.23902471 -0.16438493 -0.10225348 -0.06996907 0.15455876 -0.2769843 0.27605465
00000000: a23e 71bd e353 a1bd 8bb7 603e 32d9 2e3d
00000010: 5c8c 853d 64ec 9ebd bcce db3c e467 cbbc
00000020: e806 0bbe b056 a4bd 0d02 033d 85d5 af3d
00000030: 98af 81be 8f45 4c3e 80d0 82bd 9944 85bd
00000040: 7c7f 1b3e f9c8 253d 0321 903c 28f7 29be
00000050: 5bfb 2fbe 869b de3d 0e5c fc3c 8055 2fbd
00000060: aa6d b6bc fef7 d23d ac59 01bc 0f1c 18be
00000070: cead 4cbe 11c5 a3bd 4ea5 76bd 5d5a 663d
00000080: e65c 8b3e 4e30 9ebd 3136 3bbd daa5 863d
00000090: 5933 e4bd 36a4 42bb 566c 023d 2bd2 89bd
000000a0: d223 0b3e 577c 313d 7deb bf3e 8d54 d73d
000000b0: 9bf3 e23d 95d5 02be 273c 39bd f651 afbe
000000c0: c712 843c b624 ae3b 598f cbba b8cc 37bd
000000d0: 7f67 71bd f912 f13c cf52 0a3f d094 c23d
000000e0: eb3e fe3b e5c2 743e 8654 28be 466a d1bd
000000f0: f24b 8fbd a744 1e3e e3d0 8dbe 0957 8d3e

DecList.0.ECA.conv.weight f4 [1, 1, 3]
-0.5915737 -0.15381886 0.16370952
00000000: 6071 17bf b182 1dbe 78a3 273e

DecList.1.conv.weight f4 [64, 32, 7]
0.013447586 0.11974712 0.10243769 0.10543086 0.09252224 0.09697137 0.07481918 -0.07681297
0.015657727 0.12041413 0.07014637 0.03863642 0.17228027 0.045757677 0.021101957 0.035439197
0.12062928 0.056070313 -0.021514937 0.041154157 0.06390398 -0.041373137 -0.024507692 0.02631636
0.078859426 0.12477689 -0.013902579 0.073359214 0.041028243 0.09789329 0.0056127235 0.1134986
0.08385968 0.1470887 0.11156023 -0.086057395 -0.06693831 0.035695888 -0.024433767 -0.13447188
-0.10541054 -0.08601974 -0.1629816 -0.0495706 0.016408054 -0.088527866 -0.035479445 -0.1547988
-0.12838136 -0.016447306 -0.010606296 0.13837226 0.14646444 0.21552713 0.13400361 0.032049574
-0.06661723 0.005873338 -0.027290381 -0.027221434 0.01671364 -0.052218113 -0.12990777 -0.07438474
-0.0067187864 -0.039318442 -0.107713826 -0.077468574 -0.10985635 -0.101927295 0.07256219 0.117728844
-0.0019140596 0.030030314 -0.031168086 -0.02402053 -0.13574572 0.04789583 -0.0026098066 -0.0045308275
0.09568369 -0.12064694 -0.07882722 0.011109264 0.028133515 -0.007084376 -0.00032187 -0.029508553
-0.20197979 -0.04280795 0.030297022 -0.032979965 -0.0021450392 0.22535552 0.07145056 -0.008643468
-0.07553613 -0.0021426736 0.03924747 0.002598596 -0.08474693 -0.07727583 0.042530954 0.06581132
0.06240864 0.09294561 0.08367812 0.019293737 0.13118409 0.0021922712 0.11923113 0.103979364
-0.11784016 -0.041482765 -0.20426384 -0.23196925 -0.5849836 -0.3143169 -0.14334896 -0.068554714
0.03362204 0.043445118 0.103622794 0.019604784 -0.047622684 -0.049059946 0.07289437 0.12982813
0.08214739 0.06799082 -0.017744558 0.03841342 0.07496897 0.025728742 -0.12264073 0.015180428
0.073069826 -0.0079437345 0.06302134 -0.015093185 -0.026681418 0.005136591 0.15995373 -0.012587695
-0.12656347 -0.071856536 -0.023853295 -0.014581135 0.04937563 0.12581491 -0.02817297 -0.24772115
-0.1354279 -0.10239464 0.10991089 -0.02525278 -0.06819181 -0.23172615 -0.23833449 -0.045841925
-0.01721257 -0.032746837 -0.067953534 -0.06280506 -0.004450977 0.09904621 0.0989423 -0.030924048
0.051221218 0.08959843 0.08271986 0.058537025 0.030835439 0.031938747 0.11987274 0.3730859
-0.069858454 0.09860941 0.08598806 0.009052768 -0.10606609 -0.22038408 -0.07597699 -0.0439334
0.056668386 0.08556139 -0.06156762 -0.014828096 0.01863777 -0.075161435 -0.04469424 -0.026895618
0.05818957 -0.015870001 0.026400069 0.061037883 -0.06979897 -0.010993802 -0.017582491 0.13647668
0.13005875 0.026791103 -0.04527415 -0.17985667 0.17033543 0.27306175 -0.22591682 -0.025396697
0.0076545565 0.051349707 -0.0068408153 0.10245373 0.11700376 0.053463787 -0.059358217 -0.04178717
0.038505677 -0.042729136 0.061704062 0.046390023 0.001533904 -0.53732574 -0.3604518 -0.3235889
0.049435344 0.026616314 -0.012518959 0.0101648355 0.01391469 -0.0044723586 -0.025120622 -0.018803196
-0.008363995 -0.015828582 0.06305011 0.08834421 0.049491543 0.013587614 0.022900715 0.03443347
0.004644572 0.08340479 0.026858352 0.030839823 0.047579203 -0.08798715 -0.14039291 -0.06068267
-0.14496483 -0.20912571 -0.104803756 -0.08333864 -0.010839603 -0.038100865 -0.13554691 -0.13944383
00000000: 4453 5c3c fa3d f53d daca d13d 22ec d73d
00000010: 4d7c bd3d ed98 c63d cc3a 993d 1e50 9dbd
00000020: a244 803c af9b f63d e6a8 8f3d 3941 1e3d
00000030: 3d6a 303e 676c 3b3d 03de ac3c b128 113d
00000040: 7c0c f73d fca9 653d 1840 b0bc 4391 283d
00000050: 17e0 823d e176 29bd 5bc4 c8bc 6895 d73c
00000060: 0d81 a13d 078b ff3d a5c7 63bc 5b3d 963d
00000070: 3b0d 283d 477c c83d f0ea b73b f471 e83d
00000080: a0be ab3d 6c9e 163e b179 e43d dc3e b0bd
00000090: f416 89bd da35 123d 5329 c8bc ffb2 09be
000000a0: 7be1 d7bd 1e2b b0bd a6e4 26be 8b0a 4bbd
000000b0: 2f6a 863c 194e b5bd e552 11bd 9483 1ebe
000000c0: 6776 03be 80bc 86bc 08c6 2dbc 75b1 0d3e
000000d0: c6fa 153e 25b3 5c3e 3e38 093e 6a46 033d
000000e0: 9d6e 88bd 2175 c03b 1490 dfbc 7cff debc
000000f0: 0beb 883c a9e2 55bd 8b06 05be 0757 98bd
00000100: 4429 dcbb 600c 21bd 1199 dcbd d8a7 9ebd
00000110: 5efc e0bd 42bf d0bd 7c9b 943d d21b f13d
00000120: 2fe1 faba 2202 f63c 3754 ffbc b4c6 c4bc
00000130: ed00 0bbe 6b2e 443d 4a09 2bbb 5677 94bb
00000140: cff5 c33d be15 f7bd 2a70 a1bd a103 363c
00000150: 4278 e63c 0e24 e8bb a9c0 a8b9 ecbb f1bc
00000160: cad3 4ebe 6457 2fbd 7631 f83c 0016 07bd
00000170: c993 0cbb 99c3 663e ac54 923d 559d 0dbc
00000180: b0b2 9abd 196c 0cbb f5c1 203d 354d 2a3b
00000190: cc8f adbd ca42 9ebd f034 2e3d 16c8 863d
000001a0: 34a0 7f3d 455a be3d 6f5f ab3d e60d 9e3c
000001b0: 1f55 063e 35ac 0f3b 732f f43d 22f3 d43d
000001c0: 2f56 f1bd d5e9 29bd 8a2a 51be 5989 6dbe
000001d0: 7cc1 15bf 25ee a0be 12ca 12be 6a66 8cbd
000001e0: 44b7 093d 82f3 313d 3038 d43d 369a a03c
000001f0: 0110 43bd 15f3 48bd a549 953d aaf1 043e
00000200: e43c a83d c53e 8b3d 095d 91bc 6457 1d3d
00000210: 5589 993d 15c5 d23c 102b fbbd 54b7 783c
00000220: a2a5 953d 7026 02bc 5511 813d 6849 77bc
00000230: fd92 dabc d950 a83b e9ca 233e 9f3c 4ebc
00000240: db99 01be 8529 93bd fc67 c3bc b6e5 6ebc
00000250: 1a3e 4a3d a0d5 003e 00cb e6bc 9daa 7dbe
00000260: 9dad 0abe 48b4 d1bd f618 e13d ebde cebc
00000270: 26a8 8bbd 9f49 6dbe f50d 74be bec4 3bbd
00000280: 6001 8dbc 8c21 06bd 392b 8bbd f09f 80bd
00000290: 80d9 91bb bdd8 ca3d 43a2 ca3d 6e54 fdbc
000002a0: 57cd 513d 627f b73d 0869 a93d 85c4 6f3d
000002b0: 9a9a fc3c 34d2 023d d77f f53d 1d05 bf3e
000002c0: f311 8fbd bbf3 c93d 821a b03d 1052 143c
000002d0: 2e39 d9bd 5dac 61be d399 9bbd 82f3 33bd
000002e0: 1c1d 683d cf3a af3d 542e 7cbd 8bf1 72bc
000002f0: 3dae 983c 3dee 99bd 4f11 37bd 3354 dcbc
00000300: 3058 6e3d ce01 82bc f544 d83c dc02 7a3d
00000310: c3f2 8ebd 591f 34bc 2809 90bc 8bc0 0b3e
00000320: 1f2e 053e 0479 db3c 6371 39bd 592c 38be
00000330: 696c 2e3e c0ce 8b3e bd56 67be bc0c d0bc
00000340: 13d3 fa3b 1254 523d eb28 e0bb 43d3 d13d
00000350: ab9f ef3d d8fc 5a3d 9a21 73bd 0629 2bbd
00000360: 21b8 1d3d bf04 2fbd 66bd 7c3d 7703 3e3d
00000370: 470d c93a 2e8e 09bf 238d b8be 72ad a5be
00000380: b77c 4a3d 750a da3c 521c 4dbc 698a 263c
00000390: 71fa 633c dd8c 92bb c3c9 cdbc 2909 9abc
000003a0: 2309 09bc f1aa 81bc 6b20 813d cfed b43d
000003b0: a5b7 4a3d 959e 5e3c 489a bb3c 1c0a 0d3d
000003c0: 7e31 983b 21d0 aa3d 0c06 dc3c cca3 fc3c
000003d0: 69e2 423d 9b32 b4bd 29c3 0fbe 648e 78bd
000003e0: a971 14be 0d25 56be 5aa3 d6bd 73ad aabd
000003f0: 9798 31bc a70f 1cbd cfcc 0abe 5dca 0ebe

DecList.1.conv.bias f4 [32]
-0.095774524 0.34577152 0.11966803 -0.055801485 0.12062429 0.08312235 -0.102262765 0.05933488
0.21528114 -0.06513741 -0.13553657 0.20225744 0.05150778 -0.14740117 0.04656674 0.117148526
0.06295211 -0.042118333 0.26152477 -0.05618803 -0.14284326 0.05480601 -0.05700912 0.0027357284
0.010281325 0.046740282 -0.008805172 0.018565435 0.112918705 -0.012255789 -0.06478572 0.114225805
00000000: 6f25 c4bd f708 b13e 8314 f53d 1990 64bd
00000010: de09 f73d 0d3c aa3d 246f d1bd 2209 733d
00000020: a972 5c3e c366 85bd 19ca 0abe 931c 4f3e
00000030: d2f9 523d 55f0 16be c4bc 3e3d 91eb ef3d
00000040: 09ed 803d 4684 2cbd 93e6 853e 6b25 66bd
00000050: 8145 12be 447c 603d 6582 69bd e849 333b
00000060: 0173 283c bd72 3f3d 9143 10bc 8a16 983c
00000070: ec41 e73d 81cc 48bc 60ae 84bd 38ef e93d

DecList.1.ECA.conv.weight f4 [1, 1, 3]
-0.5859805 0.38988262 0.72242177
00000000: d102 16bf b29e c73e a2f0 383f
