checkpoints/best_Seq2Seq2_bw_snr_-4.pth (torch, 160834 bytes, 219 tensors)

enc.EncoderList.cell0.conv.weight f4 [4, 2, 17]
000000 10 b2 29 3e 15 95 3e 3e c8 f1 1e 3c 42 ab 0b be
       0.16571832 0.18611558 0.0097012 -0.13639548
000010 49 06 d5 3d ea 04 27 bd 3b 14 5b bd 94 a7 d4 3b
       0.104015894 -0.04077617 -0.05348609 0.0064897034
000020 fb 50 83 3c a2 f0 1b be 7f 1f 40 bd 47 73 11 be
       0.016029825 -0.15228513 -0.046905037 -0.14204131
000030 97 da 2b be 43 5c be 3d 08 e3 e8 3c a1 29 29 be
       -0.16782604 0.09294941 0.02842857 -0.16519786
000040 1d 90 84 bd f8 8d c0 bd 76 c3 85 bd 0b 06 c4 bd
       -0.064728 -0.094020784 -0.06531422 -0.09571465
000050 15 f5 4f 3d 90 79 f1 3d 32 cb 02 3c 4c 2a 1d be
       0.050770838 0.11790764 0.007983016 -0.15348166
000060 06 61 07 be 82 42 03 3e b5 8d c0 3c 15 62 d9 3d
       -0.13220605 0.1281834 0.023505071 0.10614411
000070 34 23 99 bd d4 72 bc 3c 2f 4a 2d 3d 2a b4 f0 3d
       -0.074774176 0.023003973 0.042307075 0.117531136
000080 a4 30 11 3c 98 5a cf 3d 04 0c 33 bc b9 05 3d be
       0.0088616945 0.10124701 -0.010928158 -0.18459214
000090 d1 8f 6d 3d 4b 06 d4 bd 6d d6 d1 bd c6 cb bc bd
       0.057998482 -0.10352763 -0.102459766 -0.09218554
0000a0 4b b6 f0 3d 95 a1 0f bd 8b 8e 8d 3d 05 ce 1d 3e
       0.117535196 -0.035066206 0.069119535 0.15410621
0000b0 98 02 86 3d 63 f5 63 bb ea b3 83 3c 28 a0 f6 bd
       0.065434635 -0.0034783713 0.016077 -0.12042266
0000c0 ed aa f1 bc a2 3a 27 bd a4 3b 0b bc 06 f7 03 be
       -0.02950045 -0.0408274 -0.008498106 -0.128872
0000d0 86 b9 12 bd 8d 95 cc bd 41 e3 2e ba 62 e5 1d be
       -0.03582146 -0.09989462 -0.0006671437 -0.15419534
0000e0 d2 11 cd bc 03 ee f6 3c 31 43 1b 3d 22 d7 ee 3d
       -0.025032911 0.03014279 0.037905876 0.11662127
0000f0 d6 9b f0 3d 87 81 50 3d 1f 33 7f 3d dc a9 09 bd
       0.11748473 0.050904777 0.062304612 -0.033609256
000100 d1 55 a5 3d cd f4 cf bd 9c 7a 08 3e 66 a1 76 bb
       0.08073009 -0.10154114 0.13328022 -0.0037632822
000110 72 fc db bd 88 17 a2 bd 07 d9 ef 3c e2 11 02 bc
       -0.107415095 -0.079146445 0.029278291 -0.007938834
000120 6d 7d ac 3d 9c 90 36 3e d9 93 10 3e 00 c1 b2 bd
       0.084223606 0.17828602 0.141189 -0.08728218
000130 e3 36 96 3d 19 cc 4b 3e 11 f5 36 bd 85 d8 6b bd
       0.073346876 0.19902076 -0.044667307 -0.057579536
000140 e3 27 2d 3d 02 2e 82 3d 4e 24 06 be 7d 12 fb 3b
       0.042274367 0.063564315 -0.13099787 0.007662116
000150 31 8f 00 3e 16 ae bd 3d 2d c1 ca 3d 35 3a 31 be
       0.12554623 0.0926172 0.099001266 -0.1730736
000160 bf 05 47 be 37 6d 3d be 92 79 af 3d d6 04 6f be
       -0.19435786 -0.18498693 0.085681096 -0.23341689
000170 35 43 c7 bd 4f 05 24 be 46 93 ef bd a2 31 33 bd
       -0.097296156 -0.1601765 -0.11698012 -0.043748505
000180 b5 68 93 bd 91 7a 5e bd bc 79 0c 3e 2a eb 56 bd
       -0.07197706 -0.054316107 0.13718313 -0.052470364
000190 8f a8 1b 3d 9c ae 3a bd bc c8 16 bc 86 df 32 bd
       0.038002547 -0.045576677 -0.009203132 -0.0436702
0001a0 8a a5 c2 3d ef 01 82 3d 28 a3 26 be c1 59 b1 bd
       0.0950423 0.06348025 -0.16273177 -0.08659697
0001b0 df d3 86 bd 95 19 35 be 5b 82 1d be b4 5a b6 bd
       -0.0658338 -0.1768554 -0.15381758 -0.08904019
0001c0 b2 46 13 be 73 ff 30 be e5 0a ba 3a 40 45 df 3d
       -0.14382437 -0.17284946 0.0014193921 0.1090188
0001d0 ef 1c 5d bd 64 89 6e 3c b1 94 a9 3c 65 ed 34 be
       -0.05398267 0.014559124 0.020700784 -0.17668684
0001e0 b3 b9 7e bc d4 d8 09 be 95 4f 30 3b 89 43 d7 3d
       -0.015547204 -0.1346162 0.0026902903 0.10510928
0001f0 51 13 47 bd 0e db 08 3e ca ab a1 3d 1e 35 69 bd
       -0.048602406 0.13364813 0.07894094 -0.056935422
000200 ee 59 64 3d ab d7 f6 3d 94 ac a3 bd cc 2f 3e 3d
       0.055749826 0.12052854 -0.07991901 0.0464323
000210 3f 48 1d be c0 17 65 bc b6 ed 8a bd 89 02 02 be
       -0.15359591 -0.013982713 -0.06783621 -0.1269628

enc.EncoderList.cell0.conv.bias f4 [4]
000000 b6 37 2f 3d db d0 4b be 65 74 15 bd cc 21 48 3e
       0.04277774 -0.19903891 -0.036487956 0.19544142

enc.EncoderList.cell0.activate.fcn.0.weight f4 [8, 8]
000000 7f ab 66 3e 75 4f b8 bd 7e f8 19 be bc 5e 41 bd
       0.22526358 -0.0899953 -0.15036198 -0.047209486
000010 8b 1b 48 3e bc 4d 8f be df 2f d9 3e 19 ec 10 3d
       0.19541757 -0.27988994 0.42419335 0.03538141
000020 ec ea 90 3d 10 c8 7e be 61 bb 2e 3c b9 35 9b bd
       0.07076058 -0.24881005 0.010664792 -0.07578606
000030 c5 48 51 bd ca f8 2a be 53 14 84 3e bc 86 47 be
       -0.05109479 -0.16696468 0.25796756 -0.19484991
000040 8f 2c f5 bd cb 42 a0 3e 97 4d 18 3e e6 5a 98 be
       -0.119713895 0.3130096 0.14873348 -0.2975685
000050 b0 c8 c5 bb f0 24 c8 bd bc cf 23 bd 41 31 b3 3b
       -0.0060358867 -0.0977267 -0.039993033 0.005468518
000060 9b ea a7 3d 05 21 3d be dd 3f 7b 3e 13 1c 20 3e
       0.08199044 -0.18469627 0.2453608 0.1563571
000070 d2 bb cb be cd 54 50 be 39 43 97 3e 50 1f 04 3d
       -0.39791733 -0.20344849 0.29543474 0.032256424
000080 84 00 6e be 5b 42 a4 be a6 92 b2 be c0 69 c2 3e
       -0.23242384 -0.32081875 -0.3487751 0.37971306
000090 3d ac 90 3e d1 22 a0 be 0e 68 83 3e 96 89 83 be
       0.28256407 -0.31276563 0.25665325 -0.25690907
0000a0 78 20 fb bd 08 05 54 3c c7 26 fc bd c6 f2 b2 3d
       -0.12262052 0.012940653 -0.12312084 0.087377116
0000b0 22 db 09 3d a9 d9 93 3e 47 13 7b 3e 83 62 59 be
       0.033656247 0.28877 0.24519072 -0.21228985
0000c0 37 eb f6 3d 55 03 c8 bd 24 ad f1 bd 38 b5 92 be
       0.120565824 -0.097662605 -0.11800602 -0.28653884
0000d0 aa 45 8a 3e da 99 87 3e 3e f6 91 bd c1 f3 b1 3e
       0.27006274 0.26484567 -0.07127045 0.34756282
0000e0 6b a7 b2 3e 01 2e 9f be 26 b1 07 be 49 55 68 3e
       0.34893355 -0.31089786 -0.1325117 0.22688784
0000f0 36 00 30 3c 8a 4f a7 3e 91 57 b1 bd 00 b3 05 3e
       0.010742238 0.3267787 -0.0865928 0.13056564

enc.EncoderList.cell0.activate.fcn.0.bias f4 [8]
000000 43 4d d2 3d a7 2c f8 bd 6d 29 71 3e 53 1a 1b 3d
       0.10268643 -0.12117892 0.23550959 0.0378669
000010 97 13 9d be 9c 2f 63 be 87 57 56 3e dc d7 8f 3e
       -0.30679008 -0.2218613 0.20931827 0.28094375

enc.EncoderList.cell0.activate.fcn.1.weight f4 [8]
000000 40 60 85 3f a4 53 79 3f 4c 77 85 3f f8 31 79 3f
       1.0419998 0.9739325 1.0427032 0.9734187
000010 53 35 85 3f 85 81 6f 3f 62 25 6d 3f 96 ff 83 3f
       1.0406898 0.93557006 0.92635167 1.0312374

enc.EncoderList.cell0.activate.fcn.1.bias f4 [8]
000000 2b 64 2c 3c 73 46 e3 bc a7 c4 a5 3d c3 85 dd 3c
       0.010521929 -0.027743554 0.08094149 0.027041322
000010 9d 97 1c 3d fb 35 a5 bd 44 38 81 bc 78 c4 48 3d
       0.038230527 -0.080669366 -0.0157739 0.049015492

enc.EncoderList.cell0.activate.fcn.1.running_mean f4 [8]
000000 e8 26 cd bd 77 95 2b be e9 cd 63 3e d2 07 47 3e
       -0.100171864 -0.16756235 0.22246517 0.19436577
000010 7c 13 d0 be 70 ee d2 be e0 aa ac bd bf 65 93 3e
       -0.40639865 -0.41197538 -0.08431029 0.28788564

enc.EncoderList.cell0.activate.fcn.1.running_var f4 [8]
000000 a9 f7 1b 3d b2 04 4e 3d 05 99 1e 3d ba 84 e8 3d
       0.038077984 0.050297447 0.03872015 0.113534406
000010 17 10 4b 3d b6 5f 7c 3c 33 20 51 3d ea c2 c7 3d
       0.04957589 0.015403679 0.0510561 0.09753974

enc.EncoderList.cell0.activate.fcn.3.weight f4 [4, 8]
000000 8e 5a 06 3e 40 d0 b3 3e bb 5c 3b be 09 0f 77 3e
       0.13120481 0.3511982 -0.18297093 0.24126829
000010 96 96 8c be 89 66 28 3e 7b 4c 96 be b5 85 79 3e
       -0.27458638 0.16445364 -0.29355225 0.24367411
000020 fb 72 e8 bd 09 01 7a 3e e6 73 44 3e f5 3b 81 3e
       -0.11350056 0.24414457 0.19184837 0.25241056
000030 79 9b 54 be ec da 91 3e e9 fe 3e be 6e b6 16 3d
       -0.20762433 0.28487337 -0.18651928 0.036795072
000040 94 1f 7e bd 58 a0 14 3e fc 40 75 be 3e 9f b3 be
       -0.062041834 0.14514291 -0.23950571 -0.3508243
000050 5d 92 67 bd 4c de 78 3e b7 eb 15 be bd 09 9f 3e
       -0.056536067 0.2430355 -0.146407 0.31062117
000060 30 5d 8b 3e 5b b5 3e 3e a1 e7 aa 3e 38 8f 23 bd
       0.27219534 0.18623869 0.33379844 -0.039931506
000070 62 71 95 bc 16 d9 94 3e c8 71 44 be 85 d9 0d be
       -0.018242542 0.29071873 -0.19184029 -0.13852508

enc.EncoderList.cell0.activate.fcn.3.bias f4 [4]
000000 e8 34 27 bd 04 b4 d4 3d a4 0a 30 3e 4d bb ff bd
       -0.04082194 0.10385898 0.17191559 -0.12486897

enc.EncoderList.cell0.activate.fcn.4.weight f4 [4]
000000 ac b5 4d 3f fd f4 65 3f 38 a6 5e 3f d1 00 53 3f
       0.80355334 0.8982695 0.8697238 0.8242312

enc.EncoderList.cell0.activate.fcn.4.bias f4 [4]
000000 b6 b7 c1 3e f3 a1 62 3e 19 d8 1b 3e 76 0b 3e 3e
       0.37835473 0.22132091 0.15219153 0.1855906

enc.EncoderList.cell0.activate.fcn.4.running_mean f4 [4]
000000 74 e9 e8 3d 32 5d 98 3e 40 d9 d2 3d ce 06 1c 3e
       0.11372653 0.29758602 0.102953434 0.15236971

enc.EncoderList.cell0.activate.fcn.4.running_var f4 [4]
000000 f3 b3 98 3d 99 79 2a 3e c5 37 34 3e d7 86 6e 3e
       0.074561976 0.16647948 0.175994 0.23293625

enc.EncoderList.cell0.bn.weight f4 [4]
000000 b0 6c 72 3f 66 93 6b 3f d7 36 67 3f 8b 2e 6d 3f
       0.94697094 0.9202179 0.90318054 0.92649144

enc.EncoderList.cell0.bn.bias f4 [4]
000000 4e 49 a2 bc 61 74 dd 3d 9f ee f0 bd aa 08 dc bd
       -0.019810345 0.10813213 -0.11764263 -0.1074384

enc.EncoderList.cell0.bn.running_mean f4 [4]
000000 57 53 98 3d 41 fc f3 bd 25 28 20 3e 30 9b 77 3e
       0.07437771 -0.11913348 0.15640314 0.24180293

enc.EncoderList.cell0.bn.running_var f4 [4]
000000 23 28 2e 3e e7 e6 84 3d 0b fa 84 3f 29 89 04 3f
       0.17007498 0.064893536 1.0388807 0.5177179

enc.EncoderList.cell1.conv.weight f4 [8, 4, 17]
000000 27 3d 74 3d 56 e8 94 3c 42 58 87 3d 27 17 98 3d
       0.059628632 0.018177193 0.06608631 0.07426291
000010 93 fa 1b be 78 40 5b bd 43 e8 89 bd 01 da b8 3b
       -0.15232305 -0.05352828 -0.067337535 0.0056412225
000020 95 78 66 3d ae bb 84 3d 7b 9a b2 3d ab d3 0a bd
       0.05626734 0.064811096 0.08720871 -0.03389327
000030 30 0f 05 be 60 85 86 3d fc ba 9d bd 4c 35 8d 3d
       -0.12994075 0.06568408 -0.0770168 0.06894931
000040 71 4d 67 bd 3a 63 36 3d f5 60 4a 3d ff d7 6b bc
       -0.05647034 0.044528224 0.04940887 -0.014394759
000050 20 6b e5 3d 87 69 c8 bc f5 5e c9 3d 5c 1a 05 bd
       0.11202073 -0.024464382 0.09832565 -0.03249584
000060 3d 0a 36 3d f6 4b 8f 3d 35 57 84 3d de 62 b2 3d
       0.044443358 0.0699691 0.06461946 0.08710264
000070 74 53 a2 3d 13 6f 02 bd 90 c2 3e bd cb 6d 2d 3d
       0.07926074 -0.03184421 -0.046572268 0.042341035
000080 94 6e 05 3e 0c cf 1d bd 91 23 b5 bd c7 fc d3 bd
       0.13030463 -0.038527533 -0.088446744 -0.10350948
000090 7e 29 aa bd 16 54 35 bd 5f 94 f3 3d 8b 13 fc 3b
       -0.08308695 -0.044269644 0.11893534 0.0076927594
0000a0 9f 2d 1d 3d e8 23 83 bd 56 53 bb 3d 0f 8c 2a bc
       0.038373586 -0.06403333 0.091467544 -0.010409369
0000b0 79 27 be 3d a7 91 0a bc 93 93 0c 3d 27 c6 b0 bd
       0.092848726 -0.008457578 0.034320425 -0.086315446
0000c0 b0 f7 34 bd 37 9c 89 bd c3 88 f9 3c 72 8f 87 bd
       -0.044181526 -0.06719249 0.03046072 -0.06619157
0000d0 8d de e4 3c ce cd cb 3d c5 07 c9 3d 08 25 aa bd
       0.027938152 0.099513635 0.09815935 -0.083078444
0000e0 37 11 9c bd f2 35 0b bd 53 5f f2 bd b2 34 8d 3c
       -0.07620471 -0.033986993 -0.11834588 0.017237041
0000f0 d6 20 24 bc fe 23 2a bd 55 b7 a1 bc 45 63 a7 3a
       -0.010017594 -0.04153823 -0.01974074 0.0012770673
000100 1e a2 2a bc 65 cb fd bd 88 64 d3 bd d7 9b b3 bc
       -0.010414628 -0.1239231 -0.10321909 -0.021924896
000110 1b bf a7 3d 28 23 9d 3d 81 ba ee 3c db 1f da 3d
       0.08190747 0.07672721 0.029141666 0.10650607
000120 bb 4c ce 3c e3 62 99 3a 73 b2 3e 3d aa 35 41 3c
       0.025183072 0.0011702444 0.0465569 0.01179258
000130 d9 0a 08 bd 9b 71 88 3c 16 91 9a bd d5 09 28 3c
       -0.03321347 0.016655734 -0.07547204 0.01025625
000140 6e cd fd 3d 01 5f 7c bc 78 b4 61 3d a1 c7 18 3c
       0.12392698 -0.01540351 0.05510375 0.009324939
000150 40 88 fe bd 6d 4b 6e bd 17 20 0f 3c de 07 14 be
       -0.124283314 -0.0581774 0.008735678 -0.14456126
000160 eb 4f 6f bc 73 6a 11 3d 9f 81 5d 3d d2 c0 11 bd
       -0.014606456 0.03550191 0.054078694 -0.03558428
000170 ce 37 1a bd e6 04 4d 3d 29 34 37 bd 1e b4 5d bd
       -0.037650876 0.0500535 -0.04472748 -0.05412685
000180 f8 b5 cc 3d a3 42 61 3d 73 b2 46 3d 45 5a d0 bd
       0.09995645 0.05499519 0.048510026 -0.101734675
000190 b3 73 93 3d 38 16 c3 bd 02 64 13 3d 2a a4 e6 3d
       0.07199802 -0.09525722 0.035984047 0.112617806
0001a0 d8 60 80 3d 6a dd ab bc 0b 8e 21 3e fb 65 18 3e
       0.062684715 -0.020979602 0.15776841 0.14882652
0001b0 37 67 11 bd 37 9a 68 3d 75 14 00 bd 77 8f 09 3e
       -0.035498824 0.056787696 -0.03126951 0.13433634
0001c0 a1 40 90 bd 34 90 de 3d a3 fd 13 3d ee 89 24 3d
       -0.07043577 0.10867348 0.03613056 0.040170603
0001d0 0e e7 2e bb 7b ce e7 bc 42 3f 2b be 4d 3c f0 3d
       -0.0026688012 -0.0282967 -0.1672335 0.117302515
0001e0 e0 15 7e 3c 3d 92 a6 3d 3c 38 e0 3d 17 79 aa 3d
       0.015508145 0.081333615 0.10948226 0.08323877
0001f0 ff b0 1e 3d d6 43 ba 3d f6 59 15 3e c7 8b a6 bd
       0.038743015 0.0909497 0.14585099 -0.08132129
000200 d1 29 07 3e 5b 57 75 3d 12 eb 77 bd 4d 14 13 3e
       0.13199545 0.05989776 -0.060526915 0.14363213
000210 ac 74 18 3d 79 df c5 3c 50 f7 11 bc 4f cd 83 bd
       0.037220642 0.024154412 -0.008909062 -0.06435644
000220 0d a6 08 be b1 6b 45 bd 9e c9 96 bc 83 81 ec 3c
       -0.13344593 -0.048198406 -0.018406685 0.02887035
000230 47 bc a5 bd 7c cc 5d 3d 6d 98 af 3c d1 fa aa bd
       -0.08092552 0.05415009 0.021434987 -0.08348621
000240 07 d2 cf 3d a1 53 eb bd 8a 02 46 bc 94 a4 46 bd
       0.101474814 -0.1149056 -0.012085566 -0.048496798
000250 d2 36 f8 bd ce df d5 bc 08 35 12 bd 6d 06 fa bd
       -0.12119831 -0.026107695 -0.035695106 -0.12208257
000260 f8 4b 2b 3d c8 f7 e6 bc a7 06 bf 3c cb 41 91 3d
       0.041820496 -0.028194323 0.023318602 0.07092627
000270 dd 07 0a 3d c9 71 39 bc 7c 75 8b 3c 63 70 cb 3d
       0.033698905 -0.011318632 0.017023794 0.099335454
000280 c5 1a 61 bd 34 a9 99 3b ee 07 f3 3c 0c f4 bf bc
       -0.05495717 0.00468936 0.029666867 -0.0234318
000290 8a c6 b2 3d d3 58 73 3d 2b 53 84 3d 89 d1 83 3d
       0.087292746 0.05941088 0.064611755 0.0643645
0002a0 e8 e3 62 bd 86 3c 70 bd 90 67 22 3e 2a 9f 88 bd
       -0.05539313 -0.05865147 0.15859818 -0.06670983
0002b0 2b a3 7c bd 45 13 15 3c 68 8d 0a bd f1 98 a2 3d
       -0.061679047 0.0090988325 -0.03382626 0.079393275
0002c0 cb 98 25 bd 8f 98 b9 bd 3e 09 95 3c 1a 1c 5a bd
       -0.040428918 -0.09062301 0.018192884 -0.053249456
0002d0 f6 6b 29 bd 9d b5 b7 3c d5 bb ea 3c e5 89 ce bd
       -0.041362725 0.022425467 0.028654018 -0.10084895
0002e0 31 52 df 3d cc 98 47 bd dd cc 2a bd b9 53 86 3d
       0.10904349 -0.048729703 -0.04169928 0.065589376
0002f0 00 dd 94 3d 01 b2 eb bc 88 07 94 bc 99 df 03 3e
       0.07268715 -0.028771402 -0.018069997 0.12878264
000300 c1 27 06 bd 51 1c b6 bd 49 9c 42 3d 13 af 0c bc
       -0.032752756 -0.0889212 0.047512326 -0.008586663
000310 f8 f5 32 3d 22 46 f3 bd 17 1a 16 be 89 d1 95 bd
       0.043691605 -0.11878611 -0.1465839 -0.07315356
000320 c6 9d 99 bb 98 04 5d bd 67 f3 85 bd 3e ec 1b bd
       -0.0046879975 -0.05395946 -0.06540566 -0.038067095
000330 74 d2 d2 3d 56 86 78 bd 11 b2 3b bd 33 ef 94 3d
       0.10294047 -0.060674988 -0.045824114 0.07272186
000340 40 95 fd bd d4 cd 9d bd a7 60 cf 3d d5 7d eb 3c
       -0.12381983 -0.07705274 0.10125857 0.028746525
000350 ec a3 a4 3d 47 58 4c 3d 33 f7 8e 3d 50 34 e7 3c
       0.08039078 0.049888875 0.06980743 0.028223187
000360 1c 25 78 3d 10 1a 93 3b 3f c0 a5 bd c7 93 4c bd
       0.060582265 0.004489191 -0.08093309 -0.04994562
000370 c1 a1 73 bc fd 88 88 3d 5b c3 05 3d 6c ad b0 bc
       -0.014870108 0.066667534 0.03265701 -0.021567069
000380 ba 97 82 bd 2c cb 32 bc b0 c1 a2 bd dc 06 08 bd
       -0.06376596 -0.010912698 -0.07947099 -0.033209667
000390 d5 9d 75 bd 61 bd 58 bb 21 48 b8 3d e1 8d 0a be
       -0.059964973 -0.0033071863 0.089981325 -0.13530685
0003a0 a7 c8 99 bd 4f 0d 82 3d 78 09 10 3d b1 94 a0 3c
       -0.075089745 0.06350195 0.03516528 0.019602152
0003b0 60 a0 fd bc b8 f7 b7 bd 20 db 9b bd f5 72 d4 3d
       -0.030960262 -0.089827955 -0.07610154 0.10373489
0003c0 1b 3d 0d bd 18 8d dd bc 76 1b ab 3d 81 46 9f 3d
       -0.034482103 -0.027044818 0.08354847 0.077771194
0003d0 d3 2a 0a bd e5 63 df 3b 94 e5 9a bc 2b 67 dd bd
       -0.033732247 0.0068173283 -0.0189083 -0.10810693
0003e0 c8 89 68 3d 89 30 00 bd 11 6e f5 3d 6a 3d 10 3e
       0.056772023 -0.031296287 0.11983884 0.14085928
0003f0 ed 95 bc 3d 43 04 a1 3c 14 30 b7 3d 90 a0 32 3c
       0.092082836 0.019655352 0.08944717 0.010902539

enc.EncoderList.cell1.conv.bias f4 [8]
000000 4a 41 b2 3d 74 e2 a2 3d 4c dc 9b bd 93 ac 47 3c
       0.08703859 0.07953349 -0.07610378 0.012187141
000010 93 78 b6 3d 69 03 8e 3d 19 1c ee 3d fb fe 97 bc
       0.089097165 0.06934244 0.11626453 -0.018554201

enc.EncoderList.cell1.activate.fcn.0.weight f4 [16, 16]
000000 6a 3e 3e 3e 2c df 6f 3d 9f 25 9a bd b6 10 39 be
       0.18578497 0.058562443 -0.07526707 -0.18072781
000010 ff 4d 43 bd a6 d2 18 3e d5 5f df bd b6 31 60 3e
       -0.047681805 0.14924106 -0.109069504 0.21893963
000020 55 a9 34 bd 28 1a 14 3e 1b 97 3f be 50 cb 80 bd
       -0.0441068 0.14463103 -0.18709986 -0.06288779
000030 00 9f 51 3e 0d 74 49 3d 3e 86 f7 bd 64 74 22 bd
       0.2047081 0.04918294 -0.120861515 -0.03966178
000040 8a d4 15 be db b0 04 3e 8f 6d bd bd 20 08 d9 3c
       -0.14631858 0.1295809 -0.09249412 0.026493132
000050 2e 9d 15 bd f5 85 c2 bc 6e 35 e6 bd d9 7e 90 3d
       -0.03652685 -0.023745516 -0.1124066 0.07055444
000060 b7 69 3a bc 01 c0 4e bd 44 3c 76 3b 6d 57 a3 bd
       -0.011377743 -0.050476078 0.0037572542 -0.079756595
000070 13 bb 53 3d 67 82 08 be 88 40 2c 3e 84 e2 50 3e
       0.05169208 -0.13330995 0.16821492 0.20398909
000080 af c6 a2 3b 13 6f 8f 3e da 2f 6b bc 4c 94 c6 3d
       0.0049675326 0.2801443 -0.01435467 0.09696254
000090 cf 38 20 be 26 6e 88 3e 06 36 d5 bc 33 46 0a 3b
       -0.15646671 0.26646537 -0.026026737 0.002109897
0000a0 fe a3 21 bc 6a ff 37 be 7c 6f 9b 3d 9c 1a ba 3b
       -0.009865759 -0.17968526 0.07589623 0.0056794416
0000b0 5b ef f1 bd 79 9a cc bd 11 55 16 be cc 03 41 be
       -0.118132316 -0.09990401 -0.14680888 -0.18849105
0000c0 a3 0d 6b be 5a ee 71 bd a0 6e f8 3d 32 20 59 be
       -0.22954421 -0.0590652 0.12130475 -0.21203688
0000d0 22 4c b7 3d e6 f9 7e 3e b8 74 41 3d 12 13 45 3d
       0.08950068 0.24900016 0.047230452 0.04811389
0000e0 9f fa 26 be 94 43 ea 3d ed 81 e1 3c 53 70 40 3e
       -0.16306542 0.11438671 0.027527774 0.18792848
0000f0 03 a3 7d 3e 7a a1 a9 bd 85 7d 17 3e 50 10 b9 bd
       0.24769215 -0.08282752 0.14793976 -0.090363145
000100 88 10 12 bd c7 f9 15 be 83 2e 0c 3e 7b 42 4b 3e
       -0.035660297 -0.14646064 0.13689618 0.19849579
000110 45 9d 06 be fe e7 50 3d c5 0d 4e 3d 31 63 ff bc
       -0.13145931 0.051002495 0.0503061 -0.031175228
000120 1a ba d1 bb 3f 46 c4 3c c8 1d d4 3c 91 b6 02 3e
       -0.006400359 0.023959277 0.025893107 0.12764956
000130 5d 85 fb bd 08 93 79 be 96 46 81 3d 53 be 81 bd
       -0.122812964 -0.24372494 0.06312291 -0.063351296
000140 be 1f 9d 3d bd 82 68 bd 41 f2 3d 3e 75 6d b1 bc
       0.0767207 -0.056765307 0.18549444 -0.021658638
000150 f9 e8 22 3e 22 33 d0 bc cf d5 c7 bc 97 e3 2b 3e
       0.15909185 -0.025415007 -0.024393944 0.16786037
000160 09 b2 d5 3d 77 cc 31 be 10 f6 cf 3d 85 ab 13 be
       0.10434348 -0.17363153 0.101543546 -0.14420898
000170 3c d8 11 3c a6 18 87 3e 5b 71 0d bc 40 fe 76 be
       0.008901652 0.26385993 -0.008632983 -0.24120426
000180 3c 63 12 be 60 49 0a bc ce a5 88 be 8e f8 b9 bd
       -0.14295667 -0.0084403455 -0.26689 -0.09080611
000190 1c 79 25 be 6c 77 d3 3c 00 3b 56 3e 78 23 20 3e
       -0.16159481 0.02581378 0.20920944 0.1563853
0001a0 0a ad 56 be 23 83 89 3e 01 bf 4e be f5 d1 2e be
       -0.20964447 0.26857862 -0.2019005 -0.1707228
0001b0 a6 66 6f 3d cd ac d7 3d 63 a6 87 3d 83 64 08 be
       0.058447503 0.10531006 0.066235326 -0.13319592
0001c0 ba 6b 4a 3e 1d 74 65 bc 42 1b 3b bb 85 d6 0b be
       0.19767657 -0.014004734 -0.0028550182 -0.13656051
0001d0 d2 70 32 be e3 43 80 3e f7 88 49 3e 02 6a 83 3d
       -0.1742585 0.25051793 0.19681154 0.06416704
0001e0 5b c9 86 3c d2 5a 87 3e 59 70 a6 3d 71 cb 89 3e
       0.016453436 0.26436478 0.08126897 0.26913026
0001f0 b3 7e 4e be 7b 2f 3f be e9 20 a3 3d 74 9b 4f 3e
       -0.2016552 -0.18670456 0.079652615 0.20274144
000200 22 08 49 be 28 b0 76 bd 48 5a 47 be 3b 4c d2 3d
       -0.19632009 -0.06022659 -0.19468033 0.10268446
000210 86 16 cc bd 24 13 86 be 80 f5 a5 bc f2 eb 19 3d
       -0.099652335 -0.26186478 -0.020258665 0.03757853
000220 a3 78 54 3e bd 0d f9 bd e0 6a 8d bd a6 ac 6e be
       0.20749144 -0.121608235 -0.069051504 -0.23308048
000230 54 73 28 3e c2 54 9e be 61 ed 24 be 19 06 75 be
       0.16450244 -0.3092404 -0.16106178 -0.23928107
000240 60 fb a6 bd 16 a6 37 be 0c 44 99 3d a8 30 5f 3e
       -0.08153415 -0.1793445 0.07483682 0.21795905
000250 a1 42 e8 3d f5 b7 49 3a d4 48 2e 3e 12 70 d3 bd
       0.113408335 0.0007694953 0.17019969 -0.1032411
000260 4d 30 b5 3d cc 98 f5 3d d6 43 74 bd 79 fc 49 3e
       0.08847103 0.11992034 -0.059635006 0.19725217
000270 76 80 71 be 33 69 b4 bd 31 87 6e bd de a8 3a be
       -0.2358416 -0.08809128 -0.058234397 -0.1822848
000280 b1 87 13 be 5f 55 1f bc 35 e4 81 bc 90 1d 26 be
       -0.14407231 -0.009724944 -0.015855888 -0.16222215
000290 3e 51 3f be 39 a0 36 bc ab 41 11 be 61 d4 bd 3d
       -0.18683335 -0.0111465985 -0.14185207 0.09269024
0002a0 c5 c6 c8 3d 1f 46 5c 3b 0a aa 16 3c f9 62 c0 bd
       0.09803537 0.0033611131 0.009195814 -0.093938775
0002b0 08 f3 82 be 97 50 3d 3e 55 e3 c2 bd 06 af dc 3c
       -0.25576043 0.18487774 -0.095160164 0.026938926
0002c0 9f b9 2c 3e e7 17 11 bc 4b 3b 3f be 1e 1f 69 bd
       0.16867684 -0.008855796 -0.18674962 -0.05691444
0002d0 7f 74 9c 3d 02 0f 0c 3e 32 2f 38 3e 01 09 84 3e
       0.07639407 0.136776 0.17986754 0.2578812
0002e0 35 7d 0c be e1 03 6c bc c9 fc 45 be 15 94 80 3e
       -0.13719638 -0.014405222 -0.19334711 0.25112978
0002f0 67 c4 e4 bd c6 f4 b7 3d 2e 14 17 3d 13 68 96 3d
       -0.11170273 0.08982234 0.03688448 0.07344069
000300 e9 1a 41 3e f7 3b 25 be 29 0e 14 be 44 b4 00 3d
       0.18857922 -0.16136156 -0.14458527 0.031421915
000310 32 47 9d bd ca 34 ce 3d 1a ec 60 3e e2 43 b7 3d
       -0.07679595 0.100686625 0.21965066 0.089484945
000320 b3 55 8c 3e a3 1f 81 3e 74 9b 01 3b a7 ae 70 bd
       0.27409133 0.2521945 0.0019776495 -0.05876031
000330 f3 ff 85 be 8f 42 00 3e 6f 68 85 3d fb d7 9a bd
       -0.26171836 0.1252539 0.0651406 -0.07560726
000340 dd e0 47 bc e5 4c d8 bd b7 98 0e 3e 8b cc 55 3e
       -0.012199608 -0.105615415 0.13925444 0.20878808
000350 ad 22 c8 3d b8 31 aa bd 5e e9 96 bb b4 44 e9 3d
       0.09772239 -0.08310264 -0.0046054563 0.11390057
000360 9b 27 60 be 64 4f 82 3e bb 52 a1 bd a1 94 fb bd
       -0.21890108 0.25451195 -0.07877108 -0.12284208
000370 1d 5f 3a 3e cb 25 06 be e6 0f 4d be 76 d2 04 be
       0.18200345 -0.13100354 -0.20025596 -0.1297091
000380 a8 69 31 be 48 a2 53 be f6 b8 f7 3d 90 3a 03 3e
       -0.17325461 -0.20667374 0.120958254 0.12815309
000390 29 4d f6 3b 68 09 46 3e 55 95 79 3e 53 6d be 3d
       0.0075165224 0.19339526 0.24373372 0.09298196
0003a0 83 29 ff bd 97 ee be 3c 79 25 93 bd 2f 88 85 3c
       -0.124590896 0.023307128 -0.07184882 0.016300289
0003b0 41 4a 43 3d 9c 7a 88 3c c0 80 4a 39 41 7a 03 be
       0.047678236 0.016660027 0.00019312184 -0.12839605
0003c0 59 bd 0c be 2d a9 42 3e 4a 7d 1e 3e ed 70 96 bc
       -0.13744105 0.19009848 0.15477481 -0.018364394
0003d0 6f 86 15 bd 76 dc ae 3b 5a ac d8 3d 41 40 13 be
       -0.03650516 0.0053363396 0.105797485 -0.1437998
0003e0 b2 2a 9d 3d 2b 09 58 be 4d b4 2f be 2f cd 08 3e
       0.07674159 -0.21097247 -0.17158623 0.13359521
0003f0 45 b8 3c be 92 14 67 bd c0 64 23 be 51 b5 1e be
       -0.18429668 -0.0564161 -0.15956402 -0.15498854

enc.EncoderList.cell1.activate.fcn.0.bias f4 [16]
000000 9a 04 e9 bd c4 9f 83 3e 9b 77 d4 3d 0b f9 65 3d
       -0.11377831 0.2570783 0.103743754 0.05614571
000010 1c be 82 bd 57 ee 42 be 32 03 1e be 68 b1 9d bd
       -0.06383917 -0.19036232 -0.15430906 -0.07699853
000020 b7 16 a5 bd 37 7d f3 3d 69 1e 61 be 74 38 45 3b
       -0.08060973 0.11889117 -0.21984257 0.0030093463
000030 24 ed 37 3e 70 e2 79 3e 60 b4 24 3d 66 ad 93 bd
       0.17961556 0.24402785 0.04021108 -0.072108075

enc.EncoderList.cell1.activate.fcn.1.weight f4 [16]
000000 1f 0d 87 3f b6 8d 80 3f 0f 8a 7c 3f 3b 3f 85 3f
       1.0550879 1.0043247 0.9864816 1.0409921
000010 0d dd 82 3f 44 c4 7d 3f ba 5d 7e 3f b2 22 74 3f
       1.0223709 0.991276 0.99361765 0.9536544
000020 4c 29 81 3f 0c b7 72 3f fc 7c 76 3f d3 37 6f 3f
       1.0090728 0.9481056 0.9628446 0.93444556
000030 84 cb 83 3f 1d 6b 83 3f 2e 95 81 3f 08 6a 79 3f
       1.0296483 1.0267063 1.0123651 0.97427416

enc.EncoderList.cell1.activate.fcn.1.bias f4 [16]
000000 43 9d b6 3d c8 75 cc 3c d6 55 fe bc 63 83 b9 3d
       0.08916714 0.024958506 -0.03104679 0.09058263
000010 5d 1f 47 3d 1b 77 8e 3c 78 ae 7b 3d 5d 08 22 bd
       0.048613895 0.017390778 0.061445683 -0.039558757
000020 68 b7 09 bd 11 09 19 3c c2 9b cb bd 6d 51 cb bc
       -0.033622175 0.0093405405 -0.09941818 -0.0248191
000030 f5 66 58 3d 57 e3 df 3c 20 87 0c bc cf 55 b5 3c
       0.052832562 0.027330084 -0.008577138 0.022135643

enc.EncoderList.cell1.activate.fcn.1.running_mean f4 [16]
000000 7d b4 ea bd 92 b2 16 3e 6b 52 a7 3e 9f 77 f0 bd
       -0.11460207 0.14716557 0.32680067 -0.11741566
000010 59 22 91 bd df 49 07 3d a8 dd 7c be 8c 3e 0d be
       -0.070866294 0.033029433 -0.2469393 -0.13793391
000020 c2 64 f9 bd a6 3f 67 3e 82 ac a1 be 83 18 3e 3e
       -0.12177421 0.22582874 -0.31576926 0.18564038
000030 3e 05 68 3e 5a 49 a2 3e 64 db 02 3e ac c5 17 3e
       0.2265825 0.31696588 0.12779003 0.148215

enc.EncoderList.cell1.activate.fcn.1.running_var f4 [16]
000000 a9 0e 7c 3d 33 a1 f8 3b fe 75 d5 3c ad c5 bf 3b
       0.06153742 0.007587576 0.02605724 0.005852422
000010 8b e9 86 3d 99 68 cf 3c 58 f0 6c 3c 63 a6 b3 3d
       0.065875135 0.02531843 0.014461599 0.0877197
000020 33 68 9f 3c d1 ac de 3c b6 a1 5e 3c e6 ac 9d 3c
       0.019458866 0.027182015 0.01358836 0.019247483
000030 d5 c8 ee 3c 43 c8 64 3d 6a 9b d2 3c ef 76 15 3d
       0.029148499 0.055855047 0.025708873 0.036490377

enc.EncoderList.cell1.activate.fcn.3.weight f4 [8, 16]
000000 05 68 51 3e 65 57 12 be fe dd 1d 3e 1e 85 69 3e
       0.20449837 -0.14291151 0.15416715 0.22804686
000010 b7 9f f5 bc db 67 22 be 38 6b 26 3e f2 a1 ab 3d
       -0.029983385 -0.1585993 0.16251838 0.08380498
000020 02 c8 12 3b 01 a7 3a be 13 34 5a be f1 54 29 bc
       0.0022397046 -0.1822777 -0.21308927 -0.010335193
000030 1c 29 00 be b2 93 53 be bb 9b 96 3c da e9 3c be
       -0.12515682 -0.2066181 0.018384805 -0.18448582
000040 8f 3a a7 bd cd ae 48 be 86 d5 6a be a8 19 09 be
       -0.08165466 -0.19597931 -0.22933015 -0.13388693
000050 3e c1 99 bc 30 a0 ea 3d cb 7b 3e be 9f f0 1d be
       -0.018768903 0.114563346 -0.18601911 -0.15423821
000060 b9 9a ae be d8 79 d3 bc 8b f4 28 be 40 a8 39 be
       -0.3410242 -0.025814936 -0.16499536 -0.18130589
000070 3c bb 08 be da 65 0d bb e6 7f 33 be fd e7 ce 3d
       -0.13352674 -0.00215756 -0.17529258 0.10102842
000080 76 99 88 bd 06 42 72 be 02 fa 16 be 77 e6 80 3b
       -0.06669895 -0.23657998 -0.14743808 0.0039337236
000090 76 9c a9 3d ae a5 6b bd c4 4d 6e be 81 8e 0c 3e
       0.08281796 -0.05753105 -0.23271853 0.13726236
0000a0 2d 4e 5b 3e 21 ac 17 3e 69 63 b5 3d df 54 88 3d
       0.2141654 0.14811756 0.088568516 0.06656813
0000b0 5d a0 58 3e e8 0c 08 bc 25 2e f1 bc 69 3f 00 3d
       0.21154924 -0.008303858 -0.029440949 0.031310473
0000c0 02 b0 e3 3d 51 41 2a be d7 e4 3f 3d d0 70 0d be
       0.11117555 -0.16626479 0.046849098 -0.13812566
0000d0 82 da 08 3e a6 4e 4f 3d 45 df cc 3d 02 49 23 3e
       0.13364604 0.050612114 0.10003523 0.15945819
0000e0 2a 60 e5 bc e0 4a 5c 3d d6 21 58 3e 6d 97 9a 3e
       -0.027999956 0.053782344 0.21106657 0.30193654
0000f0 e6 22 35 3e c2 e6 77 3c 92 6c 5c 3d 6d 92 dc 3d
       0.17689094 0.015130701 0.05381448 0.10770116
000100 75 89 62 3d d7 80 15 3e 0c c8 21 3e 88 01 eb 3b
       0.05530687 0.1459993 0.15798968 0.0071718134
000110 8b 0f 22 3e ec 2d 87 be 74 0e 64 3e 80 f8 14 3e
       0.15826242 -0.26402223 0.22271138 0.1454792
000120 97 26 1d 3d 9a e4 88 3d 0d c8 2f bd 5c ee 05 bd
       0.03836688 0.06684227 -0.042915393 -0.03269802
000130 59 31 7a 3d 0e 42 19 3e 76 9d 8b be 16 d5 62 be
       0.061082218 0.14966604 -0.2726857 -0.22151598
000140 f0 27 a1 bd a9 db 80 3e 61 4b aa 3d e5 d2 77 3e
       -0.078689456 0.25167587 0.08315159 0.24201544
000150 78 97 de 3d 18 bb 94 be 14 b2 26 be b4 7f 5d 3e
       0.10868734 -0.2904899 -0.16278869 0.21630746
000160 11 88 1e 3d 1f 98 0f 3e 92 b6 26 be 36 82 94 bd
       0.03870398 0.14022873 -0.16280583 -0.07251398
000170 7a c0 fa 3d 54 5f 29 be 06 1c 8d bd 22 0b 4c be
       0.12243743 -0.16540271 -0.06890111 -0.19926122
000180 37 9a 4f be 67 73 88 bd 8f e0 ac 3d 22 a7 35 3e
       -0.20273672 -0.06662636 0.08441269 0.17739537
000190 f9 d7 a7 bd fb bd 02 3e 05 8f 90 3c 29 22 62 3e
       -0.081954904 0.12767784 0.017646322 0.22083344
0001a0 16 1a 96 be d4 48 3f 3e 54 a4 2c 3e 67 d2 fb 3d
       -0.29316777 0.18680125 0.16859561 0.122959904
0001b0 cc 81 24 3d 20 53 43 be 81 d7 0d 3e 5a 01 30 be
       0.040162846 -0.19074678 0.1385174 -0.17188016
0001c0 80 ce 1d 3e c7 fb 26 bb 4a 70 c0 bc 7f 9b 3c 3e
       0.15410805 -0.002547966 -0.023491044 0.18418692
0001d0 dd 24 34 be d4 91 38 3c 90 71 4b be 65 31 f3 3c
       -0.17592187 0.011265237 -0.1986754 0.02968664
0001e0 ba ba 06 be 7e f2 3d be f8 2b 7f 3c 5b 77 d3 3d
       -0.13157168 -0.18549535 0.015574448 0.103254996
0001f0 12 c4 0c bd 82 22 33 bd 21 e2 69 bb 46 63 10 3e
       -0.034366675 -0.04373408 -0.0035687762 0.1410037

enc.EncoderList.cell1.activate.fcn.3.bias f4 [8]
000000 3a 43 13 be 24 c5 a0 bd a7 e5 d7 3c 6f 28 3e 3e
       -0.14381114 -0.078501016 0.026354624 0.18570112
000010 bc 8e 4f be d7 b1 57 be 0c 54 38 3e 9e ee cf bc
       -0.20269293 -0.21063934 0.18000811 -0.025382336

enc.EncoderList.cell1.activate.fcn.4.weight f4 [8]
000000 67 bc 67 3f 84 f8 8a 3f 27 30 6d 3f 90 a9 58 3f
       0.90521854 1.0857091 0.926516 0.8463373
000010 a8 cc 76 3f 03 96 74 3f 13 58 79 3f ff 11 81 3f
       0.9640603 0.955414 0.97400016 1.0083617

enc.EncoderList.cell1.activate.fcn.4.bias f4 [8]
000000 fd c1 95 3d da 82 52 3d 97 d7 bd 3d c8 89 b5 3d
       0.07312391 0.05139432 0.09269636 0.0886417
000010 c4 9a ca bc 7c 2a a9 3d 37 80 3a 3c 6e cf 68 3d
       -0.024732001 0.082600564 0.011383108 0.056838445

enc.EncoderList.cell1.activate.fcn.4.running_mean f4 [8]
000000 68 50 85 be 31 b0 44 bf 91 6e c2 3d fc a7 22 3f
       -0.26037908 -0.76831347 0.09493745 0.63537574
000010 0e cf 5c bd 6c d1 58 be ec 7a 85 3e 32 1b 97 bd
       -0.0539084 -0.21173638 0.26070344 -0.07378234

enc.EncoderList.cell1.activate.fcn.4.running_var f4 [8]
000000 9d 38 02 3e 57 90 98 3e 3b 0a 18 3e 28 f6 d4 3e
       0.12716909 0.29797623 0.14847653 0.41594052
000010 f1 7c f4 3d 71 07 67 3e 75 bc e1 3e de 47 b1 3d
       0.11937893 0.22561432 0.44089094 0.08656286

enc.EncoderList.cell1.bn.weight f4 [8]
000000 98 fc 6f 3f 13 92 71 3f 4b e1 77 3f 7b 84 6f 3f
       0.937448 0.94363517 0.96828145 0.93561524
000010 16 90 69 3f 11 95 7f 3f 27 e9 73 3f 8f 09 74 3f
       0.9123548 0.9983683 0.9527764 0.95327085

enc.EncoderList.cell1.bn.bias f4 [8]
000000 89 81 8f 3d 97 82 af bd 11 34 df bb b9 53 14 3c
       0.07007129 -0.0856983 -0.0068116267 0.009053164
000010 a9 61 f2 3b a4 84 71 3c 15 54 ff 3c 42 58 0d bd
       0.007396896 0.014741097 0.031168023 -0.034507997

enc.EncoderList.cell1.bn.running_mean f4 [8]
000000 9e 36 92 3e ca 5f 80 3d 7c 4d f4 3d 0f a2 8c 3d
       0.28557295 0.0626827 0.119288415 0.06866848
000010 6d 03 7a 3e 13 37 c1 3d 33 29 9b 3e a0 f2 db 3d
       0.2441537 0.09434333 0.3030487 0.107396364

enc.EncoderList.cell1.bn.running_var f4 [8]
000000 55 e7 0f 3e 5b ba 00 3f 7f 48 e9 3d ca 20 35 3e
       0.1405309 0.50284356 0.11390781 0.1768829
000010 74 7f 3d 3f ba 5f de 3d ed b5 51 3e f0 5f 30 3e
       0.74022603 0.10858102 0.20479555 0.17224097

enc.EncoderList.cell2.conv.weight f4 [16, 8, 3]
000000 6c 34 47 3e 24 86 47 be cb fd 10 3e a9 1b 31 be
       0.19453591 -0.19484764 0.14159314 -0.17295708
000010 07 0f 0b be b0 2a 1e be ff 5b 95 3d 34 67 75 3e
       -0.13579951 -0.15445971 0.072929375 0.2396515
000020 af 1a bc 3c c4 d3 18 3e 4e e0 09 3e 9b 06 58 3d
       0.022961942 0.14924532 0.13464472 0.052740674
000030 e4 90 62 3e e5 0b 06 be 6d ad 7a bc d3 e7 4f 3c
       0.22125584 -0.13090475 -0.015300137 0.012689549
000040 b0 7c b2 bd b7 2a 0e 3e a8 2a fd 3d 2f 54 a6 bd
       -0.087151885 0.13883482 0.12361652 -0.081215255
000050 ac f1 92 bd 53 e2 5a 3c 1e a8 e3 3c 78 82 b9 bd
       -0.071750015 0.013359624 0.027790125 -0.09058088
000060 e0 8d 36 3d 36 02 e5 3d b1 b1 5f bc 79 c3 6a bd
       0.044568896 0.11182062 -0.013653205 -0.057315324
000070 95 e9 d5 bd 97 9f 9c bd c6 2d 80 3d 08 84 5e be
       -0.10444943 -0.07647627 0.062587306 -0.21730053
000080 00 0d 61 bd 62 3b 74 3e db 14 db 3d 72 c9 12 3e
       -0.05494404 0.23850778 0.10697337 0.14334658
000090 fa 5b 3b 3d 7d d1 d1 bd 23 f0 85 3a 8b 00 42 3e
       0.045742013 -0.10245035 0.0010218661 0.1894552
0000a0 59 c7 9b 3d d6 8b 7e 3e dc 00 d8 bd ba 77 f2 bd
       0.07606382 0.2485803 -0.10547039 -0.11839242
0000b0 14 0c 41 bd c7 82 71 bd f9 fa bf bd 13 aa 37 3d
       -0.04713066 -0.05896261 -0.09374041 0.04483993
0000c0 18 07 a8 3d cb 79 e1 3d 5b 5b 28 3e 89 77 03 3d
       0.08204478 0.11009558 0.164411 0.03209642
0000d0 6b 8e ea 3d 05 ac ff bd 33 9c fb 3d db f1 ff 3d
       0.11452945 -0.12483982 0.12285652 0.12497302
0000e0 48 d4 11 3e 03 ea 5c 3d 64 c5 fd 3c db fa d3 3c
       0.14241135 0.05393411 0.030977912 0.025876453
0000f0 e2 03 f5 3d 54 4d 5c 3d b2 d8 e2 bc c8 b3 8a bc
       0.11963631 0.053784683 -0.027691219 -0.01693143
000100 fe e2 88 3e a9 a3 15 3e 19 38 bd bd ce 8f e0 bd
       0.2673568 0.14613213 -0.092392154 -0.109649286
000110 a4 0b 1b be a0 1f e7 3d b0 b9 22 3e 51 33 e5 bd
       -0.1514116 0.11285329 0.15891147 -0.111914285
000120 43 b3 08 be 87 0e 68 bd ea 27 0f bc 57 09 78 3d
       -0.13349633 -0.05665448 -0.008737544 0.060555782
000130 b1 9d 81 bd 82 4c e3 3d 3b 14 3d be fe 72 4e bd
       -0.063289054 0.11098577 -0.18464749 -0.050402634
000140 e3 2e 7f be f8 e6 ca 3d a4 39 dc bd 84 9a 36 be
       -0.2492023 0.09907335 -0.107531816 -0.1783238
000150 66 e9 18 be 15 52 21 3d 22 31 28 be d0 e9 41 3e
       -0.14932784 0.03938492 -0.16424993 0.18936849
000160 88 8c 98 3d 28 bd 17 3e 29 fa c7 3d 1e a9 3c 3c
       0.07448679 0.14818251 0.09764511 0.01151493
000170 04 f6 93 bc bf e0 2c 3d b2 3f e2 bc 82 56 32 3e
       -0.018061645 0.042206522 -0.027618263 0.17415813
000180 81 5a 7f ba df a6 76 3e ae 15 14 be 4a 17 a3 bd
       -0.0009740964 0.24087094 -0.14461395 -0.079634264
000190 d1 05 17 3e 00 f6 02 bd 9c 8b c5 bd 13 03 b6 bc
       0.14748313 -0.031972885 -0.09645769 -0.022218263
0001a0 de 7f d8 3d bd e2 d1 3d cf 21 2e bc 00 69 57 bd
       0.10571264 0.10248325 -0.010628178 -0.05259037
0001b0 50 18 2d 3e 7e 4d e2 bd 18 6a 3f 3e 18 b2 8c bd
       0.16903806 -0.11049937 0.18692815 -0.06869906
0001c0 82 60 25 3e d7 52 b9 bd 81 62 0d 3d 55 e5 fe bd
       0.16150096 -0.090490036 0.03451777 -0.12446085
0001d0 b8 06 c9 bd 5e bc 4a be c2 7d 17 be 57 8a bb bc
       -0.098157346 -0.19798419 -0.14794067 -0.022893114
0001e0 2d 0f 9c 3d 6a 34 0a 3c f4 d8 28 3d 0f 3b a9 3d
       0.07620082 0.008435348 0.041222528 0.08263218
0001f0 2e df 06 3e 91 7b 35 3e d8 bd 04 3e 13 de 25 3e
       0.13171074 0.17722918 0.12963045 0.16197996
000200 9b 3a 67 3e 8a f4 11 be 5c 48 85 bd 08 d9 33 be
       0.2258095 -0.1425344 -0.06507942 -0.1756326
000210 c6 86 15 be 8d 56 ce 3d fe 2c 64 3d cd 32 d4 3d
       -0.14602193 0.10075102 0.05570697 0.10361252
000220 01 5c 0e 3c 16 09 c8 bd d5 bd 0b be 6e 12 00 3e
       0.008688928 -0.09767358 -0.13646634 0.1250703
000230 61 0b e3 3d f2 59 a1 3d c5 2d f5 3d ce 11 ad 3c
       0.11086155 0.07878484 0.119716205 0.021126654
000240 09 dc 37 3e 97 72 43 3e 07 58 b7 bc 4f 77 10 3d
       0.1795503 0.19086681 -0.022380842 0.03527003
000250 17 80 c5 bd f9 80 19 be 67 8c b9 bd cf f9 66 3d
       -0.09643572 -0.14990605 -0.09059983 0.05639058
000260 7e 42 52 3e ae 26 cb 3c 93 bd ed 3d 85 86 62 bd
       0.20533177 0.024798717 0.11608424 -0.05530407
000270 f8 29 2a be f9 cf 1f 3e bf b6 26 3e 4b 80 38 bd
       -0.16617572 0.15606679 0.1628065 -0.045044225
000280 24 a5 c6 3c 6f 10 fb 3d 32 55 4c 3e 8a 6d 89 bd
       0.024248667 0.12258994 0.19954374 -0.06710346
000290 88 56 60 3d 4e 86 e3 3d 29 d2 14 3e 31 a0 e1 bd
       0.054770023 0.11109601 0.14533295 -0.11016882
0002a0 42 f0 90 bd 91 d6 ac 3d 04 07 d9 3d a9 d5 d9 3d
       -0.070770755 0.08439363 0.10597041 0.106364556
0002b0 66 e1 0e be 41 39 c5 bd 9f 83 9f 3d 38 e7 7b bd
       -0.1395317 -0.09630061 0.077887766 -0.061499804
0002c0 7a 6b bb bd a7 3b 75 bc 0b 40 9e bd 89 10 a8 3d
       -0.09151359 -0.0149678355 -0.07727059 0.08206279
0002d0 16 24 b9 bd 07 45 e0 bd f0 8b 19 bc 94 38 7c 3e
       -0.09040086 -0.10950666 -0.009371743 0.24630958
0002e0 ee 3c b7 3d 92 e8 80 3d 51 20 ae bd 92 cb ca 3d
       0.08947168 0.06294359 -0.085022576 0.09902109
0002f0 48 15 38 3d 6e 0c 0d 3e c9 fc 7f 39 84 1c a9 bd
       0.04494217 0.13774273 0.00024412865 -0.08257392
000300 21 ef f8 3d f2 49 92 3d 92 58 47 3e f8 7c 16 3e
       0.12154985 0.0714301 0.1946738 0.1469611
000310 aa a8 92 bd f8 6a 0d 3e 30 6d 6b 3c 26 b4 b5 3d
       -0.07161076 0.13810337 0.014369294 0.08872251
000320 5b 31 69 be 05 da ce 3d a9 8b d2 3d 7d d1 44 be
       -0.22772734 0.10100178 0.10280544 -0.19220538
000330 2d 24 3f be 52 fc f7 bc 79 1b 83 3d c4 2d 4e bd
       -0.18666144 -0.030271683 0.06401724 -0.050336614
000340 7b 4f cd 3d de 35 4d 3e 98 25 5d 3e 77 2a 19 3d
       0.10024925 0.2004008 0.21596372 0.037394013
000350 fd e5 2c 3e f9 ed bf 3d d7 40 e7 3a b1 34 7d bd
       0.16884609 0.093715616 0.0017643225 -0.06181783
000360 6c be 00 bd 0b 34 0d be 7f 65 8f 3d cd de b1 3d
       -0.0314316 -0.13789384 0.07001781 0.08685074
000370 42 e4 c8 3d cc c2 df 3b 6c aa b5 bd ae 10 cd bc
       0.09809162 0.0068286415 -0.08870396 -0.025032368
000380 c3 8c 09 bb 58 cf c8 3d 2f 8f 22 3e e5 d6 2a bd
       -0.0020988442 0.09805173 0.15874933 -0.041708846
000390 d7 c1 d8 bd a9 f5 b7 bd bc 7d be bd b5 96 b6 3b
       -0.10583847 -0.08982403 -0.09301326 0.005572165
0003a0 68 3f 47 3e f0 1c 85 bd ea 5d 4f 3d af 7e 12 3d
       0.19457781 -0.0649966 0.050626673 0.035765346
0003b0 c6 0a 54 3d 7f fb a6 3d 7c f3 1c 3c e1 93 7f 3e
       0.051768087 0.08153438 0.009579536 0.24958755
0003c0 31 12 23 3e 06 f6 5e 3e 6a 95 c0 3d d2 20 70 3d
       0.15924908 0.21773538 0.094034985 0.05862505
0003d0 3d d1 48 be 5f 4c 43 3e 3b 60 0c bd 70 af 1b 3e
       -0.19611068 0.19072102 -0.03427146 0.15203643
0003e0 e0 6f 67 3d 59 4c 2c bd f2 ed fa bb d8 a8 20 3d
       0.056503177 -0.042065 -0.00765776 0.039223522
0003f0 96 c6 d1 bd cb fa de 3d e2 da 2e 3d 68 06 69 3e
       -0.102429554 0.10887679 0.04268921 0.2275635

enc.EncoderList.cell2.conv.bias f4 [16]
000000 c6 80 a4 3d 1f af c9 bd 58 00 ed 3c d7 5d 83 be
       0.08032374 -0.09847855 0.028930828 -0.25657532
000010 e5 4f 03 be e2 a4 88 be 22 47 ce 3d b2 25 a4 3c
       -0.12823446 -0.26688296 0.10072161 0.020037506
000020 1c 9b f7 3d db a2 07 3e ef 86 55 3e c0 d9 8c 3d
       0.12090132 0.13245718 0.20852254 0.0687747
000030 d1 0c 02 be ec 84 45 3c 63 df 3d be 52 51 3c 3e
       -0.12700202 0.012055617 -0.18542247 0.18390396

enc.EncoderList.cell2.activate.fcn.0.weight f4 [32, 32]
000000 cc ee 12 3e 3c e7 ed 3d 5d 3b 93 3d 21 3a 00 be
       0.14348906 0.1161637 0.07189057 -0.12522174
000010 a7 e2 3e 3d 01 9f 12 bd d4 41 c7 3c 77 11 d6 bd
       0.04660287 -0.03579617 0.024323381 -0.1045255
000020 70 61 a9 bd 6c fb af bd a9 b8 0c bd 6c 35 b6 3c
       -0.08270538 -0.08592877 -0.034355793 0.02224227
000030 f3 dd 1f 3d 53 75 17 bd 1e 74 22 bc 17 72 38 3d
       0.039030027 -0.036977123 -0.00991538 0.04503068
000040 a0 09 85 3d 04 e2 24 bd f8 1c 60 bd 7e f1 ab bd
       0.064959764 -0.040254608 -0.054715127 -0.0839567
000050 cf 78 20 be 80 d9 db 3d f0 c6 64 bd 91 58 c6 bd
       -0.15671085 0.10734844 -0.055853784 -0.096848615
000060 d0 d9 a6 bd 74 32 a3 bd 97 09 56 bc 0e c5 23 bd
       -0.08147013 -0.079686075 -0.01306381 -0.039982848
000070 dd f6 2b be d4 9e 9f 3d 5d 6f e6 3d d6 16 ed bc
       -0.1679339 0.07793966 0.112517096 -0.028941553
000080 34 e9 5a be ef 71 06 be 78 18 a0 3d 37 39 16 3e
       -0.21378022 -0.131294 0.07817167 0.14670263
000090 94 6c 20 be 9f 21 19 be b5 9b 0f 3e ad 02 a4 bd
       -0.1566642 -0.14954232 0.14024241 -0.08008323
0000a0 b5 2a fa 3c 2f 89 b5 3d 9c 3c e1 3c ec 91 20 be
       0.030537942 0.08864056 0.027494721 -0.15680665
0000b0 17 91 11 bc ae 1f 8d bd 15 9a f9 bd 17 cb 55 3d
       -0.00888469 -0.06890808 -0.12187592 0.052195635
0000c0 cc ed a1 3b 72 c1 49 3e 50 78 52 be 48 2f 8c bd
       0.0049416777 0.197027 -0.20553708 -0.06844956
0000d0 44 9a ef bc 39 8f 52 bd ac 47 8c bb 33 60 64 bd
       -0.029248364 -0.05140612 -0.004281005 -0.055755805
0000e0 26 6b 76 3b 12 9b 05 be e9 2d 3f be 76 a3 1c 3d
       0.0037600487 -0.13047436 -0.18669857 0.038241826
0000f0 3a bc 85 bd f7 84 25 3c d2 36 97 bd c7 54 86 3c
       -0.06530042 0.010102502 -0.07383503 0.016397847
000100 a2 70 ab bd a5 53 36 be 3d 3a 50 3d dd 69 65 bd
       -0.083710924 -0.17805345 0.05083679 -0.056009162
000110 35 1f 0b 3e 9d 6c 2f bd 1d 9b 43 bd 2c 44 25 be
       0.13586123 -0.04282819 -0.04775535 -0.16139287
000120 fd 81 3e 3d 67 55 18 3e 38 e5 1f bd 78 49 d2 3d
       0.046510685 0.14876328 -0.03903696 0.10267919
000130 c1 03 4d 3e 9a ed ef bd ce 67 dc bd b2 bd 88 bd
       0.20020963 -0.11715241 -0.10761987 -0.066768065
000140 ea 3f 03 be f7 7c 85 bd c9 c9 73 bd da 03 31 3c
       -0.1281735 -0.06517976 -0.05951861 0.010804141
000150 59 e2 db 3d 50 c5 9c 3d 82 08 61 3d 6d 56 ed 3d
       0.10736532 0.07654822 0.054939754 0.1158875
000160 a3 f8 1f 3d e4 e4 b2 bd 22 cd fe bd 6e 7c da bd
       0.039055478 -0.08735064 -0.1244147 -0.10668264
000170 e5 8c 57 3c 35 c2 3d 3e cd 54 7b 3e 26 12 3b bd
       0.0131561505 0.18531115 0.24544068 -0.045671605
000180 b2 1d 86 3d da 07 9d bc 74 be fa bd 5d 28 4f 3e
       0.06548633 -0.019168783 -0.12243357 0.20230241
000190 67 ba a6 bd 5b 79 c4 bd a0 d3 97 3d c0 85 54 bd
       -0.08141022 -0.09593459 0.07413411 -0.051885366
0001a0 fc fb 4d bd 6e bd 56 bd ea 22 41 3c b4 ef 21 3e
       -0.05028914 -0.052426748 0.011788109 0.15814096
0001b0 f9 26 ca 3d 8c 39 0e be 4a 2c 42 3d 5f 0f 1d 3e
       0.09870715 -0.1388914 0.04740552 0.15337895
0001c0 3b 12 ae bd 37 64 34 be 32 92 96 3c 75 85 8e bb
       -0.08499571 -0.17616354 0.018380258 -0.0043494054
0001d0 f2 0d a2 3c fc 9e 30 3e e8 15 58 bd 9d 85 b3 3b
       0.01978204 0.17248148 -0.052755266 0.0054785744
0001e0 04 e0 a0 bd e7 80 ba 3d b7 16 40 be ab bf e1 bd
       -0.078552276 0.091066174 -0.18758665 -0.11022886
0001f0 6e db 36 be 9d e5 ae bd 17 b4 a7 3c eb aa 3a be
       -0.17857143 -0.08539889 0.020471616 -0.18229263
000200 d8 75 1f be 2f 7d 10 be 5c 7d 1f 3d 62 6f d7 3d
       -0.15572298 -0.14110254 0.03893791 0.105192915
000210 ad 31 06 be 8c 4f 86 3c 47 11 25 be 0a ec bf 3c
       -0.13104887 0.016395353 -0.16119872 0.023427982
000220 f3 11 23 3e 58 50 05 be 62 58 eb bd bc 52 21 3e
       0.15924816 -0.1301893 -0.11491467 0.15754217
000230 58 b1 b6 3d 7c 14 84 3d 85 09 cf bd b1 5b a4 bd
       0.089205444 0.064492196 -0.101092376 -0.08025301
000240 6e 3a 95 bd 60 8a 9c bd 55 d0 e0 bc 19 74 86 3c
       -0.07286535 -0.076435804 -0.02744309 0.016412782
000250 13 a3 4b be 0b 3d 8c 3d 84 07 04 bc e9 44 18 3e
       -0.19886427 0.068475805 -0.0080584325 0.14870037
000260 b4 19 a8 bd d7 de 4f 3e 7f 59 c1 bc 02 43 10 3e
       -0.082080275 0.2029985 -0.023602245 0.14088061
000270 62 c4 09 bd b2 23 da 3d 7e 50 ea 3d 97 43 81 bc
       -0.03363455 0.106513396 0.11441134 -0.0157793
000280 49 aa 8e bd 7f 36 33 be c4 3f c3 bb 47 e4 c4 3d
       -0.06966073 -0.17501257 -0.005958529 0.09613853
000290 66 ff 47 bc af 7c 37 bd 5f 1f 94 bc 79 4e 00 be
       -0.012206888 -0.044796642 -0.018081365 -0.12529935
0002a0 fd 3b 33 3d ed 94 be 3d 3b 28 1a 3e a6 a4 00 be
       0.04375838 0.09305749 0.15054409 -0.12562808
0002b0 bb 59 4f be 69 54 4c be 4e db 6a 3d f7 33 33 3d
       -0.20249073 -0.19954075 0.05733805 0.04375073
0002c0 cd 1f 1c be f1 a8 05 3e 1b 48 c8 bd dc ba 11 3d
       -0.15246506 0.13052727 -0.09779378 0.035578594
0002d0 42 93 34 be 50 a3 dc bd b5 13 26 bd 2b 46 80 3d
       -0.176343 -0.10773337 -0.040546138 0.062633835
0002e0 c0 47 03 be 69 50 8a bd 46 6d 32 be 51 df 56 3c
       -0.12820339 -0.06753618 -0.17424497 0.013114766
0002f0 21 44 0a 3e d4 ab 2f 3e ef 75 d3 3d 33 d7 16 3e
       0.13502552 0.17155391 0.103252284 0.1473053
000300 ca 10 04 be de e0 8d 3c 0f 1f 3b 3d ff 14 38 3d
       -0.1289703 0.01731914 0.045683917 0.0449419
000310 dd 25 79 3d 7e d7 9f 3d 0f 60 c8 bd 75 25 0f 3e
       0.060827125 0.07804774 -0.09783947 0.13979132
000320 3d 28 b6 3c 8d 57 52 3e 81 5a 80 bd 58 5a 08 be
       0.022235984 0.2054121 -0.06267262 -0.13315713
000330 a3 3b 79 3d 2b a7 15 3e fa a0 50 bd 23 cf d4 3d
       0.06084789 0.14614551 -0.05093477 0.10391071
000340 3c 2b 44 3d 5d 8a 76 3d ce 82 1e 3e ff 1a b1 bd
       0.047892794 0.060190547 0.15479586 -0.08647727
000350 1a 23 74 3b 13 25 d3 3d f7 04 ce bd c6 14 00 3e
       0.0037252367 0.10309806 -0.10059541 0.12507924
000360 c0 69 16 3d e8 c1 7d 3d 14 8c 53 3d dd e5 c6 bc
       0.036721945 0.0619525 0.05164726 -0.02427953
000370 fb c5 48 bb 19 31 2c be 7d 51 d1 bd 9b 74 51 bd
       -0.0030635584 -0.16815604 -0.10220621 -0.051136594
000380 27 d0 61 bc 55 90 02 3d 25 a6 14 be 9e 75 f5 bd
       -0.013782538 0.031875927 -0.14516504 -0.11985324
000390 a2 5e fe bd e9 77 84 3d 12 ec b9 bd a9 ca 5d 3d
       -0.124203935 0.064681835 -0.0907823 0.05414835
0003a0 54 8f 2b 3d d5 4b 1d 3e b9 35 3e 3d 9b 2d a3 bc
       0.041884735 0.15360959 0.046437953 -0.019919207
0003b0 74 b3 f4 3d 3a 82 0e be 0f e2 2c bd 56 27 20 be
       0.119482905 -0.13916865 -0.042207774 -0.15640005
0003c0 f1 94 50 bc 32 ae 1d bd 92 84 70 3d 69 43 2c 3e
       -0.012730823 -0.038496204 0.05872018 0.1682259
0003d0 a1 25 11 3e 88 c9 4b bd 77 f5 ae bd 51 29 2e 3e
       0.1417451 -0.049752742 -0.085429125 0.17007948
0003e0 8f ad a1 3d 22 47 06 be 80 38 bf bd 10 e2 bc bd
       0.07894432 -0.13113073 -0.093369484 -0.092228055
0003f0 a8 b6 80 bd bd 47 1d be 4c 53 74 3e ed b0 82 bd
       -0.06284839 -0.15359397 0.238599 -0.06381402

enc.EncoderList.cell2.activate.fcn.0.bias f4 [32]
000000 31 b5 19 be 7d 33 a4 bd 52 6e 1e be 55 a4 f1 bd
       -0.15010525 -0.08017633 -0.15471771 -0.11798922
000010 38 23 32 be 32 f2 9c 3c 47 76 ab 3c 96 d3 6e bd
       -0.17396247 0.019158456 0.020930422 -0.058307253
000020 59 d5 9f 3c 64 0f 8e 3d 8f b9 29 3d d7 1e 15 3e
       0.019510912 0.06936529 0.041436728 0.14562546
000030 e5 a3 3c 3e df 5d 1f 3e 81 dd cc 3d 95 53 79 bd
       0.18421896 0.15563153 0.10003186 -0.060870726
000040 02 c4 ff bc 85 a3 af bd 70 af 99 3d 8f c8 b9 bd
       -0.031221393 -0.08576111 0.07504165 -0.09071457
000050 5f da 3f bc e4 c6 29 3e c9 12 86 3d 51 6c 0f 3d
       -0.011709779 0.16579777 0.06546552 0.035015408
000060 e2 14 33 3e df a9 17 3e 40 60 1d 3e 8a 25 d2 bd
       0.17488435 0.14810894 0.15368748 -0.10261066
000070 80 cc 17 3e 33 58 20 3e dd f2 02 be 5d 1f 0a 3d
       0.14824104 0.15658645 -0.12787957 0.033721317

enc.EncoderList.cell2.activate.fcn.1.weight f4 [32]
000000 46 1c 7f 3f 24 bb 77 3f 61 0e 82 3f ec e2 85 3f
       0.99652517 0.9676993 1.0160638 1.0459876
000010 d3 14 81 3f ee d6 8d 3f 32 f6 73 3f 9c 2f 76 3f
       1.008448 1.1081216 0.9529754 0.96166396
000020 da 2f 6e 3f 74 d6 75 3f 7a c8 82 3f 2b 87 85 3f
       0.93041766 0.96030354 1.021743 1.0431875
000030 1a 86 80 3f 3a 16 82 3f d6 21 7a 3f 4e 01 81 3f
       1.0040925 1.0163033 0.9770788 1.0078523
000040 92 18 7a 3f 65 61 7d 3f 8a e1 74 3f ea 44 81 3f
       0.9769374 0.9897674 0.95656645 1.0099156
000050 68 b4 80 3f 9e 63 84 3f 4d ef 80 3f 43 e9 6d 3f
       1.0055056 1.0342901 1.0073029 0.92934054
000060 68 7e 81 3f 29 80 71 3f 2d 11 87 3f 6f 66 72 3f
       1.0116701 0.9433618 1.0552117 0.9468755
000070 78 16 85 3f 6d bf 83 3f 3d 4a 71 3f 4f f8 82 3f
       1.0397482 1.0292794 0.94253904 1.0232028

enc.EncoderList.cell2.activate.fcn.1.bias f4 [32]
000000 de 31 41 3c 95 34 38 bd c5 ab 73 3d 35 8c b2 3d
       0.011791674 -0.04497202 0.059489984 0.087181486
000010 e1 77 1d 3c b3 2f 3f 3d 83 4b d0 bc fb a7 2b bd
       0.009611101 0.04667635 -0.025426632 -0.041908246
000020 b6 61 69 bd fc e6 ab bd 5c 60 11 3c d4 39 a9 3d
       -0.05697795 -0.08393666 0.0088730715 0.08262983
000030 d6 d0 2a 3d 76 ea 67 bc 84 6c d1 ba 62 79 34 bd
       0.041703068 -0.014155021 -0.0015977775 -0.044061072
000040 bb a2 43 bc 0d 74 44 bd 92 4d 9f bc 6c 0d 65 3d
       -0.011940653 -0.047962237 -0.019446168 0.055921003
000050 3b b7 96 b8 0a d9 0a 3c 07 58 98 bc 6a 5f 21 bd
       -7.186687e-05 0.008474598 -0.018596662 -0.039397635
000060 a7 5c 88 3c 7f cb 0c bc 2e 57 1f 3d d4 5a da bd
       0.016645743 -0.008593439 0.0389015 -0.10661855
000070 c1 65 c7 3d cd 65 d1 3b 47 84 53 bd 14 cb d2 3c
       0.09736205 0.0063903094 -0.05163982 0.0257316

enc.EncoderList.cell2.activate.fcn.1.running_mean f4 [32]
000000 9d c6 ff bc 3b 46 15 bc 35 94 95 be 4d c4 cd ba
       -0.031222636 -0.0091109825 -0.29214635 -0.0015698761
000010 a9 be bd be 0f 2f 04 3d f9 45 aa 3d c0 4f 62 be
       -0.37059525 0.03227144 0.083141275 -0.22100735
000020 96 43 2e 3d 85 f0 da 3d 3a d4 f1 bd f1 7f 27 be
       0.042544924 0.10690407 -0.11808057 -0.163574
000030 98 7b 82 3d cc 69 1e 3d 3b ca 85 3d 37 f3 84 3e
       0.0637123 0.038675115 0.06532713 0.25966808
000040 0e e0 68 be 78 97 ae 3c 08 09 da bb dd 04 bb bd
       -0.2274172 0.02131246 -0.0066539086 -0.09131787
000050 83 c3 b0 3d 0a db 91 bd a1 35 3a 3e 00 29 3d 3e
       0.08631041 -0.071218565 0.1818452 0.18472672
000060 d3 56 37 3e b5 e6 c9 3d f8 7c ca 3e c2 1a b8 3d
       0.17904215 0.09858457 0.3954847 0.08989479
000070 24 70 c6 3e 92 95 7a 3d eb e3 ee be 05 bc 91 3e
       0.38757432 0.061177798 -0.46658263 0.2846376

enc.EncoderList.cell2.activate.fcn.1.running_var f4 [32]
000000 a3 94 e4 3b 3d c0 5a 3c 68 0e 9a 3c eb d5 5a 3c
       0.0069757267 0.013351497 0.018805698 0.013356666
000010 8f 5c f0 3c 2f 82 e7 3c f3 bb ee 3b 6a f4 de 3c
       0.02934101 0.028260319 0.007285589 0.027216155
000020 40 6b 5c 3c ee a2 20 3d 0f 79 96 3c 62 97 dc 3c
       0.013453305 0.03921788 0.018368272 0.026927654
000030 9e 7a 64 3c 96 27 2b 3d 3c d0 41 3c dc c6 25 3d
       0.01394525 0.0417858 0.011829432 0.04047285
000040 fe 38 85 3d 83 68 83 3d 04 48 b0 3c de 97 aa 3c
       0.06505011 0.064164184 0.021518715 0.020824369
000050 6b 15 bb 3c 99 bf 80 3c f8 7b f7 3c 5d 49 90 3c
       0.022837361 0.01571636 0.03021048 0.017613107
000060 91 e1 cb 3c b5 fa c1 3c 67 a6 20 3d cf 38 9c 3c
       0.024887832 0.023679117 0.039221194 0.019070057
000070 14 d8 a8 3c 48 f7 10 3d 3e 9c b0 3c da 41 aa 3c
       0.020610847 0.035392076 0.021558877 0.020783354
