checkpoints/best_ACDAE_emb_snr_-2.pth (torch, 615402 bytes, 20 tensors)

EncList.0.conv.weight f4 [16, 2, 13]
0	0x3e710d94	0.23540336
1	0x3e6506c8	0.22365868
2	0xbd111ed2	-0.035429783
3	0x3e05c476	0.13063225
4	0xbe064190	-0.13110948
5	0xbd91d7f9	-0.07121272
6	0xbe5bb7b5	-0.21456797
7	0x3c831934	0.016003229
8	0x3dae91b9	0.08523888
9	0xbe47462b	-0.1946036
10	0x3e009440	0.12556553
11	0x3ca9bb8b	0.02071931
12	0x3e340ba3	0.17582564
13	0x3cf84f91	0.030311378
14	0x3df1b440	0.11801958
15	0xbc2d4cd0	-0.010577396
16	0x3e1b7287	0.15180407
17	0x3c56cfd9	0.013111078
18	0xbe06dc31	-0.13169934
19	0xba43773b	-0.00074564264
20	0xbdd7d5f5	-0.10538856
21	0xbd635d8b	-0.05550913
22	0xbde33dfa	-0.110958055
23	0x3dd454d2	0.10367741
24	0xbe34914c	-0.17633551
25	0xbdd523c2	-0.10407211
26	0xbdbe6314	-0.092962414
27	0xbe1656d7	-0.14681564
28	0x396e3960	0.00022718823
29	0xbe497bb8	-0.19676101
30	0x3e4286ad	0.18996687
31	0xbe1708bf	-0.1474943
32	0x3e39c147	0.18140136
33	0x3d9ce4b4	0.07660809
34	0xbc370ff2	-0.011173235
35	0x3e415581	0.18880273
36	0x3db91fb3	0.09039249
37	0x3e66c513	0.22536115
38	0x3da2c732	0.0794815
39	0xbd7f4039	-0.062317107
40	0x3d474974	0.048654035
41	0xbd53f633	-0.051748466
42	0x3dd26b1e	0.10274337
43	0x3e4ea112	0.20178631
44	0x3e19f92a	0.15036455
45	0xbd4b7900	-0.04967594
46	0x3e202248	0.15638077
47	0x3d9cede0	0.076625586
48	0x3e1aebc5	0.15129001
49	0xbda180f5	-0.07885925
50	0xbe35a98d	-0.1774046
51	0xbd7039f0	-0.058649004
52	0xbe57e8ed	-0.21084948
53	0x3dcea685	0.10090355
54	0xbb68dbc2	-0.0035531376
55	0x3cdaa170	0.026688308
56	0x3c819c3a	0.015821565
57	0xbd1b6140	-0.03793454
58	0x3e0c60ad	0.13708754
59	0xbe0f48f3	-0.13992672
60	0x3cb0ae40	0.021567464
61	0xbe013e74	-0.1262148
62	0x3d721a68	0.059107214
63	0xbd993306	-0.07480435
64	0x3d585cee	0.052823
65	0xbd8c0ee3	-0.06838777
66	0x3df904e5	0.12159137
67	0xbe215ec9	-0.15758814
68	0xbe23b4c3	-0.15986924
69	0xbe27b285	-0.16376694
70	0x3dde1397	0.1084358
71	0xbc643268	-0.013928033
72	0x3e0379a6	0.12839374
73	0xbe448137	-0.19189917
74	0xbe4c3dc9	-0.19945444
75	0xbe056e15	-0.13030274
76	0xbdef9680	-0.116986275
77	0x3db2a342	0.08722545
78	0x3d9d63d6	0.07685058
79	0x3e35e738	0.17763984
80	0xbdadd7d2	-0.0848843
81	0xbdf8ba30	-0.121448874
82	0x3deb5055	0.114899315
83	0xbd932211	-0.07184232
84	0x3e028fd1	0.12750174
85	0xbd8e44b5	-0.069466986
86	0x3d9cff62	0.07665898
87	0xbe5b7131	-0.21429898
88	0xbe2cb6ee	-0.16866657
89	0xbc7ea8c5	-0.0155431675
90	0xbd3ec2af	-0.046572383
91	0x3cd8916e	0.026436534
92	0x3e37da35	0.17954333
93	0x3e343311	0.17597605
94	0xbdeac6c8	-0.11463696
95	0xbdbc95b5	-0.09208242
96	0x3e3ea20e	0.18616506
97	0xbd759577	-0.059956994
98	0xbd321ff9	-0.043487523
99	0xbe1b5158	-0.15167749
100	0xbd9f4566	-0.077769086
101	0x3da9eabb	0.082967244
102	0x3c0986b5	0.008393933
103	0xbde26dab	-0.11056074
104	0x3e508a86	0.20365342
105	0xbc8aceac	-0.016944252
106	0xbdd6fd61	-0.10497547
107	0xbd8c2d9b	-0.06844636
108	0xbe193608	-0.14962018
109	0xbdd62909	-0.104570456
110	0x3dd8b904	0.10582164
111	0xbd15632c	-0.03647153
112	0x3c9ff3c4	0.019525416
113	0xbe208c92	-0.15678623
114	0xbd8142ae	-0.06311546
115	0x3d35e48d	0.044407416
116	0x3e62f8b9	0.22165193
117	0xbda4375f	-0.08018374
118	0xbc2fe323	-0.010735306
119	0xbd7860ae	-0.060639076
120	0x3d15cb13	0.03657062
121	0xbce92ecb	-0.028464695
122	0x3d2e6fa1	0.042586926
123	0xbd5f8e8b	-0.0545793
124	0xbcd2849a	-0.025697995
125	0x3b7b7a93	0.003837262
126	0x3c228c8f	0.009921207
127	0xbdcbe075	-0.09954921
128	0x3e61e197	0.22058712
129	0x3c7202ee	0.014771206
130	0x3e83ba6c	0.25728166
131	0x3daf08f3	0.08546629
132	0xbe6724a8	-0.22572577
133	0x3c5e16d0	0.013555244
134	0xbe6babc3	-0.2301474
135	0xbe929685	-0.28630462
136	0xbebf683a	-0.37384206
137	0xbebd3cd2	-0.36960465
138	0xbd8d05dd	-0.06885884
139	0xbdfccdcc	-0.1234394
140	0x3d4c8293	0.049929213
141	0xbe0e8529	-0.13917984
142	0x3e7ce13a	0.24695292
143	0xbe756908	-0.23965847
144	0xbdb4d9c4	-0.08830598
145	0x3cceef41	0.02526057
146	0x3df6a325	0.12042836
147	0x3e2f5330	0.17121577
148	0x3e123ea4	0.14281708
149	0xbe6155a2	-0.22005323
150	0xbd069336	-0.032855235
151	0xbe35cf72	-0.17754915
152	0xbdda4748	-0.10658127
153	0xbe591e1b	-0.2120289
154	0x3e0b9872	0.13632372
155	0xbe3cb8ef	-0.18429922
156	0x3da17b98	0.07884902
157	0x3d5e2769	0.054236803
158	0x3d54bab7	0.051935878
159	0xbddaf6c4	-0.10691598
160	0x3e4b12ef	0.19831441
161	0x3d88ba4c	0.06676158
162	0x3d383990	0.04497677
163	0xbe30b2c1	-0.17255689
164	0x3d93bb7d	0.07213495
165	0xbd3daa24	-0.046304837
166	0xbde96835	-0.11396829
167	0x3e0909be	0.13382623
168	0x3a4b766e	0.0007761483
169	0xbde95b0a	-0.113943174
170	0xbddecf5d	-0.10879395
171	0xbca6a409	-0.02034189
172	0x3dd7ceef	0.10537516
173	0xbd5b0cd2	-0.053479023
174	0xbdefd5b4	-0.117106825
175	0xbd8c1a95	-0.068410076
176	0xbe120d48	-0.14262879
177	0x3d958612	0.073009625
178	0x3e16a72d	0.1471221
179	0xbe36bdc6	-0.1784583
180	0x3d7650e4	0.060135737
181	0x3dfe8daf	0.12429368
182	0xbcf7b1b5	-0.030236105
183	0xbe119387	-0.14216433
184	0x3c8730f1	0.01650283
185	0x3c8b9083	0.017036682
186	0x3b043389	0.002017232
187	0xbda011ae	-0.07815872
188	0xbd8628e9	-0.06550772
189	0x3cf542ae	0.029939022
190	0xbc13e02a	-0.009025613
191	0xbc35b897	-0.011091373
192	0x3e48c072	0.19604662
193	0x3e8667c5	0.26251045
194	0x3d76726e	0.060167722
195	0x3d2b43b6	0.04181262
196	0x3d901570	0.07035339
197	0x3cf9ceff	0.030494211
198	0x3d932572	0.071848765
199	0x3d78f0a0	0.060776353
200	0xbe463fc5	-0.19360264
201	0xbdb70cac	-0.08937964
202	0x3e0e0c39	0.1387185
203	0x3cb64baf	0.022252886
204	0xbd5ad29d	-0.053423513
205	0xbe28b00b	-0.16473405
206	0xbe1eec4f	-0.15519832
207	0xbe284531	-0.16432644
208	0x3ccd2bee	0.025045361
209	0x3e2a6134	0.16638643
210	0x3e60aa9c	0.21940082
211	0x3e2479b6	0.16062054
212	0xbe043f9a	-0.12914887
213	0xbdd014b8	-0.10160202
214	0xbd37d2a8	-0.04487863
215	0x3e26718e	0.16254255
216	0x3c10e10e	0.00884272
217	0xbd6ba859	-0.057533596
218	0x3db0e8e3	0.086381696
219	0xbd6a4b69	-0.057200823
220	0xbde80532	-0.11329116
221	0x3dfeaf26	0.12435751
222	0xbd8d1d84	-0.06890395
223	0x3afa2782	0.001908526
224	0xbe192e9e	-0.1495919
225	0x3e34799a	0.17624512
226	0x3e4fca45	0.20292003
227	0x3e177539	0.1479081
228	0xbd5f4aed	-0.054514814
229	0xbdd204d2	-0.10254826
230	0xbdcf6843	-0.10127308
231	0x3e25b17a	0.16180983
232	0x3d9db26a	0.077000454
233	0x3e096e54	0.13420993
234	0x3ed81b49	0.42208317
235	0x3e9ea917	0.3098838
236	0x3e429de6	0.19005546
237	0xbce54d8c	-0.027991079
238	0xbdeb930e	-0.11502658
239	0xbe42852f	-0.18996118
240	0x3d062e16	0.032758795
241	0xbe24b2c0	-0.16083813
242	0xbde6a9aa	-0.112628296
243	0xbe0ce000	-0.13757324
244	0xbd791baf	-0.060817417
245	0xbe32a268	-0.17444766
246	0xbe5c0ebf	-0.2149
247	0xbbe74f06	-0.007058981
248	0xbdde004c	-0.108399004
249	0x3debbf03	0.11511042
250	0xbd17d900	-0.03707218
251	0xbde7872a	-0.113050774
252	0x3cdd5dfd	0.027022356
253	0xbca6cdeb	-0.020361861
254	0xbc09a5ed	-0.008401376
255	0xbe0fef42	-0.14056113

EncList.0.conv.bias f4 [16]
0	0xbe045d49	-0.1292621
1	0xbd773d3d	-0.060361136
2	0xbed7c620	-0.42143345
3	0xbe1f2bf9	-0.15544118
4	0xbe6eecf6	-0.23332581
5	0xbd9ff4ad	-0.0781034
6	0xbf045287	-0.51688427
7	0xbe071fd3	-0.13195734
8	0x3d5e879e	0.054328553
9	0x3d8e6c0c	0.06954202
10	0xbdc474dd	-0.095926024
11	0xbedeec19	-0.43539503
12	0xbd984604	-0.074352294
13	0x3d35eda4	0.044416085
14	0x3d0a8dee	0.03382676
15	0x3d6fa5ae	0.058507614

EncList.1.conv.weight f4 [32, 16, 7]
0	0x3da02cfc	0.0782108
1	0xbd09c835	-0.033638198
2	0x3df3e3e8	0.11908704
3	0x3cffc26a	0.031220634
4	0xbd041bf8	-0.032253236
5	0x3c01b3c3	0.007916394
6	0x3d8a303d	0.06747482
7	0xbd50dbea	-0.050990976
8	0x3d5a9ff2	0.053375192
9	0x3de8c9ea	0.11366637
10	0x3ded7f34	0.11596528
11	0x3e090064	0.13379055
12	0x3e14b188	0.14520848
13	0x3e14ba7b	0.14524262
14	0x3d2b9985	0.041894455
15	0xbd0369fe	-0.032083504
16	0xbe2b792e	-0.16745445
17	0xbe1a91f3	-0.15094738
18	0xbd8f5264	-0.06998137
19	0x3cc9ff9e	0.02465802
20	0x3db9c4d8	0.09070748
21	0xbd4ae1f9	-0.04953191
22	0x3ca1a7a9	0.019733267
23	0xbcb18cb6	-0.021673542
24	0x3e062d14	0.13103133
25	0xbc0d9130	-0.008640572
26	0x3dc2836c	0.09497723
27	0x3d48402c	0.048889324
28	0x3e4f8fe1	0.20269729
29	0x3d8a7610	0.067608
30	0x3d6ae23f	0.05734467
31	0x3c1ee794	0.009698767
32	0xbd35269f	-0.044226285
33	0x3d367295	0.044542868
34	0xbdc69549	-0.09696443
35	0x3d9cef83	0.07662871
36	0x3d4ea613	0.05045135
37	0x3db47ac9	0.08812482
38	0xbdbd9146	-0.09256224
39	0xbda9b95e	-0.08287309
40	0xbd1f3959	-0.03887305
41	0xbc3d2112	-0.011543529
42	0x3e3a1eeb	0.18175857
43	0x3e2ea433	0.17054825
44	0x3dfc2a92	0.12312807
45	0x3e18da89	0.14927115
46	0x3e0738b1	0.1320522
47	0x3ca85714	0.020549335
48	0xbd3b47ba	-0.0457227
49	0xbdff6654	-0.124706894
50	0xbdaa326e	-0.083104
51	0x3c93aeb4	0.01802764
52	0x3d60e2b0	0.054903686
53	0x3dbbcdad	0.09170089
54	0x3d30beab	0.043150585
55	0x3d157188	0.036485225
56	0xbdc00d83	-0.09377577
57	0xbd28c36e	-0.041202
58	0x3c248c6b	0.010043244
59	0xbc861b10	-0.016370326
60	0x3bc6c02b	0.0060653887
61	0x3b038580	0.0020068586
62	0x3cb14454	0.021639027
63	0xbd2b2f24	-0.041793004
64	0xbd90c998	-0.07069701
65	0xbc827db7	-0.015929086
66	0xbe242e78	-0.16033351
67	0xbd62cd96	-0.055371843
68	0xbe0f395c	-0.13986725
69	0x3c939487	0.01801516
70	0xbe4e070d	-0.20119877
71	0xbe359103	-0.17731099
72	0xbdaeaa16	-0.08528535
73	0xbdf1792b	-0.11790689
74	0x3c9e85ab	0.019350847
75	0x3d8f2b43	0.069906734
76	0x3dd9c575	0.10633365
77	0x3df6cae4	0.12050417
78	0x3d1b3617	0.03789338
79	0xbdb1492b	-0.08656534
80	0xbcef3fd8	-0.029205248
81	0xbdfc74aa	-0.123269394
82	0xbc66b919	-0.014082217
83	0xbd59142c	-0.052997753
84	0x3e05c748	0.13064301
85	0x3c92be67	0.017913057
86	0xbdde0518	-0.10840815
87	0xbdb83389	-0.089942046
88	0xbe32203e	-0.17395112
89	0xbdd3edaa	-0.10348065
90	0xbdbf17dc	-0.09330723
91	0x3daedfb2	0.0853876
92	0x3de6eb5f	0.11275362
93	0x3e3bce7c	0.18340486
94	0x3db56cbb	0.08858629
95	0x3e197887	0.14987384
96	0x3e07e1e8	0.1326977
97	0xbce87241	-0.028374793
98	0xbd41d53d	-0.0473225
99	0xb8f7e44a	-0.000118204
100	0x3d077112	0.033066817
101	0xbda75606	-0.081707045
102	0xbc0e4fe1	-0.008686037
103	0xbde00e7a	-0.10940261
104	0xbcdda089	-0.027054088
105	0x3e27d0e5	0.1638828
106	0x3d2ee82c	0.042701885
107	0xbe037cf5	-0.12840636
108	0xbda264ad	-0.07929359
109	0xbd88c535	-0.06678239
110	0xbe040a3f	-0.12894534
111	0x3d105d1d	0.03524505
112	0x3a27dbd6	0.00064033025
113	0xbc8fcae4	-0.0175528
114	0x3d18dff1	0.037322942
115	0x3dd462c2	0.10370399
116	0xbd026deb	-0.031843107
117	0x3d968de1	0.0735128
118	0x3dfb0807	0.122573905
119	0xbcf5d2bf	-0.030007718
120	0xbd56829a	-0.052370645
121	0x3d9067af	0.07051026
122	0xbc9727d4	-0.018451609
123	0xbd05bdcf	-0.03265172
124	0x3ddce4d7	0.10785835
125	0x3dfdff75	0.1240224
126	0xbe53851f	-0.2065625
127	0xbd3c3a52	-0.045954056
128	0xbe0b4dd4	-0.13603908
129	0xbdd02f02	-0.10165216
130	0xbdf06dfe	-0.11739729
131	0xbd2bb690	-0.041922152
132	0xbd74e57e	-0.059789173
133	0x3d7c164d	0.061544705
134	0x3cc301ec	0.023804627
135	0xbdec9e4e	-0.11553632
136	0xbd92133c	-0.07132575
137	0xbd90a645	-0.070629634
138	0xbd0e5a5f	-0.034754153
139	0xbd8322a0	-0.064030886
140	0xbd08c650	-0.03339225
141	0xbd94bb0a	-0.07262237
142	0xbe2b95e1	-0.16756393
143	0xbe1c7d9d	-0.15282293
144	0xbde341d4	-0.1109654
145	0xbdc04321	-0.09387804
146	0xbd8a5532	-0.06754531
147	0x3b852301	0.0040630107
148	0x3d2a413e	0.041566126
149	0xbd8fc4bd	-0.07019947
150	0xbdb4a936	-0.08821337
151	0xbd6b8031	-0.0574953
152	0xbc8659d5	-0.016400257
153	0x3d951b2a	0.07280572
154	0x3d62155e	0.05519616
155	0x3e0d2a04	0.13785559
156	0x3dcca182	0.09991743
157	0x3ccee972	0.0252578
158	0x3dbe4cb4	0.09291974
159	0x3dab95e3	0.08378198
160	0xbc1d7883	-0.009611252
161	0x3d5da03f	0.0541079
162	0xbc9e7cd1	-0.019346626
163	0xbd8b9af9	-0.06816668
164	0x3d09d781	0.033652786
165	0x3d9eba17	0.077503376
166	0x3d19dd0f	0.037564334
167	0x3dd728da	0.10505839
168	0xbdbf2c70	-0.09334648
169	0x3b895175	0.0041906186
170	0x3cfba69b	0.030719092
171	0xbd08e6d3	-0.033423256
172	0xbdb8ba31	-0.09019888
173	0xbd44fcc0	-0.048092604
174	0x3d9acc38	0.07558483
175	0xbda713c6	-0.08158068
176	0xbbc6efa8	-0.0060710497
177	0xbd9d820f	-0.07690822
178	0xbe2cedc0	-0.1688757
179	0xbd00c79e	-0.03144037
180	0xbe14ae55	-0.14519627
181	0xbc4cbf68	-0.012496807
182	0xbb80856a	-0.003922154
183	0x3d24ec75	0.040264565
184	0xbdf14f6f	-0.11782729
185	0xbd2f05ec	-0.042730257
186	0xbda7355c	-0.08164474
187	0x3cfdb94b	0.030972144
188	0xbc540af4	-0.012942065
189	0xbd13a595	-0.036046583
190	0xbe4afa90	-0.19822145
191	0xbe01118b	-0.12604348
192	0xbd83353a	-0.064066365
193	0xbe1fe88c	-0.15616053
194	0xbe149040	-0.14508152
195	0xbdfe929b	-0.124303065
196	0x3d0d27c9	0.03446177
197	0xbda4cdcf	-0.080470674
198	0xbd2dbe59	-0.042417858
199	0xbcbbc976	-0.022923212
200	0x3d24f806	0.040275596
201	0x3c9df5e4	0.019282289
202	0xbd94c445	-0.07263998
203	0x3d936817	0.07197588
204	0x3d9cdcc8	0.07659298
205	0x3d0af547	0.03392532
206	0x3dc1190b	0.09428605
207	0x3d9d057a	0.0766706
208	0xbc9aee64	-0.018912502
209	0x3c132f95	0.008983512
210	0x3d2c771f	0.04210579
211	0xbd821155	-0.06350962
212	0x3d80b416	0.06284349
213	0x3d5e60fa	0.054291703
214	0xbcb31925	-0.021862576
215	0x3c99380e	0.018703487
216	0x3d081421	0.03322232
217	0xbdae8e59	-0.085232444
218	0xbd9fbeb1	-0.078000434
219	0xbdafa0a1	-0.085755594
220	0xbdf5fc92	-0.120110646
221	0xbe1723fe	-0.14759824
222	0x3c66826f	0.014069184
223	0xbca70601	-0.020388605
224	0xbd99aa35	-0.075031675
225	0xbdda1b6d	-0.10649762
226	0xbca44a5f	-0.020054994
227	0x3daa073b	0.0830216
228	0x3b6aec03	0.003584624
229	0x3de2b72e	0.11070095
230	0xbce0abc3	-0.027425652
231	0xbd9df5ff	-0.07712936
232	0xbd822a42	-0.06355716
233	0xbe1242d9	-0.14283313
234	0xbd95f85e	-0.07322763
235	0xbde5dd51	-0.112238534
236	0xbdbe5ac3	-0.09294655
237	0x3c89e5c7	0.0168332
238	0x3bb70f82	0.0055865655
239	0xbbd78e60	-0.0065782517
240	0x3de25f53	0.11053338
241	0xbd1912f6	-0.0373716
242	0x3cc0e226	0.023545336
243	0xbd9af162	-0.07565571
244	0xbd0100c6	-0.03149488
245	0x3c810e69	0.015753942
246	0xbda6ed19	-0.081506915
247	0x3d8a77f8	0.067611635
248	0x3d311439	0.043232176
249	0xbcd51c8d	-0.02601459
250	0xbd3965a6	-0.045262955
251	0xbd1e5320	-0.038653493
252	0xbdc2904f	-0.09500181
253	0xbe460578	-0.19338024
254	0xbd98d73f	-0.0746293
255	0xbe29ac1b	-0.1656956

EncList.1.conv.bias f4 [32]
0	0xbe75585e	-0.2395949
1	0x3e53bbd7	0.20677124
2	0x3e6f14f1	0.23347832
3	0x3e6dd3f0	0.23225379
4	0xbd2cdf79	-0.042205308
5	0xbe97af18	-0.29625773
6	0xbe108e1f	-0.14116715
7	0x3d7547e2	0.059883006
8	0x3e08ec1a	0.13371316
9	0xbdd24e07	-0.10268789
10	0x3d062679	0.032751534
11	0x3f09c62b	0.53818005
12	0xbdd3405d	-0.10315011
13	0xbd44ff95	-0.048095305
14	0xbe79cab9	-0.24393739
15	0x3e29cdae	0.16582367
16	0xbd99588e	-0.074875936
17	0xbb8c6928	-0.0042849965
18	0xbd783a4c	-0.06060247
19	0xbe3ec8e3	-0.1863132
20	0xbe86dd83	-0.26340875
21	0xbef1e417	-0.4724433
22	0xbd962969	-0.07332117
23	0x3d851884	0.064988166
24	0xbe01cb00	-0.12675095
25	0xbea51eb6	-0.32249993
26	0x3df7e294	0.12103763
27	0x3cef3c75	0.029203633
28	0x3e361fe6	0.17785606
29	0x3e82b738	0.2553041
30	0x3e477b49	0.19480623
31	0xbcb61e3e	-0.022231217

EncList.2.conv.weight f4 [64, 32, 7]
0	0x3e4b48af	0.19851945
1	0x3e092691	0.13393618
2	0x3c4b2b56	0.012400469
3	0xbc9e11d6	-0.019295614
4	0x3e1df362	0.15424874
5	0xbb6b181e	-0.003587253
6	0x3cb746f7	0.022372706
7	0xbdc4ccb8	-0.096093595
8	0xbdb8a8f4	-0.090166
9	0xbcb59159	-0.022164034
10	0xbd97cadd	-0.0741174
11	0x3d25fba2	0.04052318
12	0xbd9b9edf	-0.07598662
13	0xbe7abe2e	-0.2448661
14	0xbd92a337	-0.07160037
15	0xbcd0a5f2	-0.025469754
16	0xbd5a3264	-0.053270712
17	0xbd52cb95	-0.051463682
18	0xbcf3c394	-0.029756345
19	0x3cafe08a	0.021469373
20	0xbd517b2e	-0.051142864
21	0xbcbdb1f0	-0.023156136
22	0xbd5c5caa	-0.05379931
23	0x3a869551	0.0010267888
24	0x3a67e79d	0.0008846464
25	0xbd55389f	-0.05205595
26	0xbd9f6ead	-0.077847816
27	0xbe0c2bd1	-0.1368859
28	0xbd1620d0	-0.036652386
29	0x3a0464eb	0.00050504383
30	0xbcf3a979	-0.029743897
31	0xbdbb44c7	-0.091439776
32	0x3d0cfa3f	0.03441834
33	0xbc28184f	-0.010259702
34	0xbdd99664	-0.10624388
35	0xbd262f06	-0.04057219
36	0xbc08123f	-0.008305131
37	0x3c5dc924	0.013536725
38	0xbb0917c7	-0.0020918713
39	0x3c1e4c39	0.009661728
40	0x3d4a85c6	0.049443983
41	0x3ca6a685	0.020343075
42	0xbce88ed8	-0.028388426
43	0xbcc47d26	-0.023985457
44	0x3d86fb69	0.065909214
45	0x3d9527bc	0.07282969
46	0x3d97f9bb	0.07420679
47	0x3e03bcba	0.12864962
48	0xbd79f36c	-0.06102316
49	0xbcf2fdf8	-0.029662117
50	0xbe3b6301	-0.18299486
51	0xbe5d818f	-0.21631454
52	0xbdf57aff	-0.1198635
53	0x3d9c80f2	0.07641782
54	0xbe2393db	-0.15974371
55	0xbdd956e1	-0.10612274
56	0xbd825a0b	-0.063648306
57	0xbdf078f5	-0.11741821
58	0xbdda0735	-0.10645906
59	0x3d2218a8	0.039574295
60	0x3d109457	0.035297718
61	0xb9490cef	-0.00019173672
62	0x3cb3f77c	0.021968596
63	0xbdee7f79	-0.11645407
64	0x3d54c3df	0.05194461
65	0x3da9d3ca	0.08292349
66	0x3e4558f5	0.19272216
67	0x3de32fec	0.11093125
68	0x3dabd727	0.083906464
69	0xbdf9ed0c	-0.12203416
70	0x3cfed639	0.031108009
71	0x39eabd24	0.0004477288
72	0xbdc4989a	-0.09599419
73	0xbdfbea20	-0.12300515
74	0x3c9cce8c	0.019141458
75	0x3d2a49b4	0.041574195
76	0xbd02e19c	-0.03195344
77	0xbe878228	-0.2646649
78	0xbe152e83	-0.14568524
79	0xbdce4243	-0.10071232
80	0xbdc9b4f9	-0.09848971
81	0xbdc1b36f	-0.09458052
82	0xbe27b7dc	-0.1637873
83	0xbdc81978	-0.09770483
84	0x3c2c056a	0.010499338
85	0x3e0f8ef0	0.1401937
86	0x3df00c57	0.11721104
87	0x3e051f60	0.1300025
88	0x3e2d1325	0.16901834
89	0x3e57a844	0.21060282
90	0x3e09bd7e	0.13451192
91	0xbcd56a63	-0.026051706
92	0x3cca9b22	0.024732176
93	0xbdaa1216	-0.08304231
94	0xbd67d137	-0.056596007
95	0x3d016214	0.031587675
96	0x3d5969d0	0.053079426
97	0xbdfaa33c	-0.12238166
98	0x3c11a39b	0.008889104
99	0x3dbb8ce2	0.09157731
100	0xbba9561a	-0.005167735
101	0xbe81d77c	-0.25359714
102	0xbea7e9d8	-0.32795596
103	0xbe3ba419	-0.18324317
104	0xbdb86391	-0.09003366
105	0xbdc66f17	-0.096891575
106	0xbe2a923d	-0.16657348
107	0xbdcc8122	-0.09985568
108	0x3d80808c	0.06274518
109	0x3d3b97a2	0.045798905
110	0xbce3cd20	-0.027807772
111	0x3ddfbd20	0.109247446
112	0xbcdd3b34	-0.02700577
113	0x3d4e1705	0.050314922
114	0xbd05ecf2	-0.03269667
115	0x3dce36a9	0.10069019
116	0x3b9c7d47	0.0047756764
117	0xbde3736e	-0.11106001
118	0xbda4e719	-0.08051891
119	0xbc28fb9e	-0.010313896
120	0x3b7fc7f5	0.0039029096
121	0x3d0829c6	0.033242963
122	0x3dfba550	0.1228739
123	0xbcdef329	-0.027215557
124	0xbdf2becf	-0.118528
125	0xbdba625a	-0.0910079
126	0xbe285a01	-0.16440584
127	0xbdaa36f7	-0.08311265
128	0xbd957ab8	-0.07298797
129	0x3d645c85	0.055752296
130	0x3e06932e	0.13142082
131	0x3d361cd3	0.044461083
132	0x3aca4366	0.0015431463
133	0xbe0e92d8	-0.13923204
134	0xbe252c77	-0.16130243
135	0xbce574da	-0.02800982
136	0x3e0fc44f	0.1403973
137	0x3dffaed2	0.12484516
138	0x3d2a3c93	0.041561674
139	0xbd262036	-0.040558062
140	0xbd9ec39a	-0.07752152
141	0x3d036ec4	0.032088056
142	0xbd77fbda	-0.06054292
143	0x3d359766	0.044333838
144	0x3de68dbc	0.112575024
145	0xbdbae4b4	-0.09125653
146	0x3e03f9c6	0.1288825
147	0x3e0cfd72	0.13768557
148	0x3d6d4957	0.05793127
149	0x3d836570	0.06415832
150	0x3ce1b3de	0.027551588
151	0x3dd59723	0.10429218
152	0x3d9178b1	0.07103098
153	0x3d0a9ae4	0.03383912
154	0x3dbc0b3d	0.09181831
155	0xbaf169a9	-0.001841833
156	0xbd63c15a	-0.055604316
157	0xbe4cbb82	-0.19993404
158	0xbe302015	-0.17199738
159	0xbe4cc25a	-0.19996014
160	0xbdd6a62d	-0.10480914
161	0xbe253db9	-0.16136827
162	0xbca2706a	-0.019828994
163	0xbd3fc057	-0.04681429
164	0x3d8f3905	0.069932975
165	0xbd89ba09	-0.067249365
166	0xbcdca7cb	-0.026935479
167	0x3b4e46e8	0.003147537
168	0x3c4fa04f	0.012672498
169	0xbc3e4259	-0.011612498
170	0xbe2a808b	-0.16650598
171	0xbd3f51dd	-0.04670893
172	0x3cf49eab	0.029860815
173	0xbb0f8239	-0.0021897687
174	0xbd5082a2	-0.05090583
175	0xbd987538	-0.07444233
176	0xbe2659f9	-0.1624526
177	0xbd1abfbc	-0.03778051
178	0x3d4cb953	0.049981426
179	0x3e016163	0.12634806
180	0x3c9867cb	0.01860418
181	0xbd1ca547	-0.03824356
182	0xbe0c87f6	-0.1372374
183	0xbe5eb8dc	-0.21750206
184	0xbd86301a	-0.065521434
185	0x3c36f007	0.011165625
186	0x3dcc9903	0.09990122
187	0x3d4aff30	0.049559772
188	0xba5c4dc5	-0.00084039225
189	0x3d759816	0.059959494
190	0x3d2ae142	0.04171873
191	0xbd62ab45	-0.055339117
192	0x3dca2109	0.09869582
193	0x3e506a24	0.2035299
194	0x3df33960	0.11876178
195	0x3d8dadf4	0.069179446
196	0xbd07fbcf	-0.033199128
197	0xbdaa55ec	-0.083171695
198	0x3c305921	0.0107634375
199	0x3d8c4fd4	0.068511635
200	0x3d161196	0.036637865
201	0x3d8a1861	0.06742931
202	0x3e0943b5	0.13404734
203	0xbe39cba3	-0.18144087
204	0xbdc7ced3	-0.097562455
205	0xbe41192c	-0.18857259
206	0xbc82e735	-0.015979389
207	0xbd93e0d4	-0.07220617
208	0xbdf5660c	-0.119823545
209	0xbd362517	-0.044468965
210	0xbcc6cc12	-0.02426723
211	0xbd15dc08	-0.03658679
212	0x3bc1e458	0.0059171133
213	0xbd58ac5b	-0.052898746
214	0xbdba849e	-0.09107326
215	0xbe4d6792	-0.2005904
216	0xbcc496c1	-0.023997666
217	0x3da3f699	0.08006019
218	0xbd166141	-0.036713842
219	0x3d988c7c	0.0744867
220	0x3d0e8980	0.0347991
221	0x3e065f69	0.13122334
222	0x3e250729	0.16116013
223	0x3cba9895	0.022777835
224	0xbd3cafba	-0.046066023
225	0x3ce3bfb5	0.027801374
226	0x3d83a7f0	0.06428516
227	0x3c3e8a3c	0.011629637
228	0x3dadb3b4	0.08481541
229	0x3da20da6	0.079127595
230	0x3dc19bfa	0.09453578
231	0xbe30cd20	-0.17265749
232	0xbd796d8d	-0.06089549
233	0xbdc4926f	-0.095982425
234	0xbcfed80e	-0.031108882
235	0xbd3f7482	-0.04674197
236	0xbd37da65	-0.04488601
237	0x3c45678b	0.012048612
238	0x3d8786c3	0.06617501
239	0x3d450ad2	0.048106022
240	0x3d7ea5f9	0.062170003
241	0xbcc71996	-0.024304193
242	0xbe0d5e70	-0.13805556
243	0xbd425c83	-0.047451507
244	0xbc7fc294	-0.015610356
245	0x3e118f8b	0.14214914
246	0x3d781625	0.060567994
247	0x3d93cb0c	0.072164625
248	0x3c8c3e86	0.017119657
249	0x3a9e14d1	0.0012060647
250	0xbdbdf83e	-0.09275864
251	0xbc809598	-0.015696332
252	0x3b1897e0	0.0023283884
253	0xbda83725	-0.08213643
254	0xbd363070	-0.044479787
255	0xbcb142f3	-0.02163837

EncList.2.conv.bias f4 [64]
0	0xbdc17c0e	-0.0944749
1	0xbe99e29f	-0.3005571
2	0xbc8e8966	-0.017399501
3	0xbdab03ab	-0.08350309
4	0x3d904689	0.070447035
5	0x3cf07dc9	0.029356854
6	0x3ddb4e94	0.10708347
7	0x3d9e6a24	0.077350885
8	0x3cbfd054	0.023414768
9	0xbe672584	-0.22572905
10	0xbd164cd9	-0.03669438
11	0xbb82db51	-0.0039934297
12	0xbd195563	-0.037434947
13	0xbe096dd0	-0.13420796
14	0xbdb85f85	-0.09002594
15	0xbce2fe44	-0.027709134
16	0x3edaeeef	0.42760417
17	0x3e6badef	0.23015569
18	0x3b33d9ca	0.0027443045
19	0xbbce2b4e	-0.0062917834
20	0x3be31e79	0.006931123
21	0xbdaafbe4	-0.083488256
22	0xbe85a874	-0.26105082
23	0xbaa4b382	-0.0012565705
24	0xbe64ead7	-0.2235521
25	0x3e1d8716	0.15383562
26	0x3dd565bf	0.10419797
27	0x3dba2f9b	0.09091111
28	0x3dc82b0a	0.09773834
29	0xbde93612	-0.11387266
30	0xbdd485bb	-0.103770696
31	0x3e2dc99b	0.16971438
32	0x3e5a34d6	0.21309218
33	0x3cfcbd21	0.030851902
34	0x3d393805	0.04521944
35	0x3dde1926	0.108446404
36	0x3cc14c7b	0.023596039
37	0x3db97376	0.090552256
38	0xbe6d4ea1	-0.23174526
39	0xbe2d2bc2	-0.16911224
40	0xbe4da7ee	-0.20083591
41	0x3de02891	0.109452374
42	0xbe3ac659	-0.18239726
43	0x3e361ef0	0.17785239
44	0xbdd4b7df	-0.10386633
45	0xbe59baa4	-0.21262604
46	0xbce50d73	-0.027960515
47	0x3d4ab2a8	0.049486786
48	0xbe8dbc37	-0.2768266
49	0x3c06cbe7	0.008227325
50	0xbde0307f	-0.1094675
51	0x3c1ca858	0.009561621
52	0x3e072091	0.13196017
53	0xbe170c99	-0.147509
54	0x3d027008	0.031845123
55	0x3d0da8da	0.034584858
56	0x3e2bd2f7	0.16779695
57	0xbdfa08da	-0.122087196
58	0xbd9a6a54	-0.07539812
59	0x3df075a3	0.117411874
60	0xbea736a4	-0.32658875
61	0x3d0e04a0	0.03467238
62	0x3ee041a6	0.43800086
63	0xbc1067f9	-0.0088138515

EncList.3.conv.weight f4 [128, 64, 7]
0	0x3e07ac38	0.1324929
1	0x3d5d64ef	0.054051336
2	0x3df58d3b	0.11989828
3	0x3d75c71b	0.060004335
4	0xbc3148ad	-0.01082055
5	0x3bf98e2f	0.0076158266
6	0xbd98e218	-0.07464999
7	0xbc621b1e	-0.013800411
8	0x3c29f3fd	0.010373113
9	0xbd4c20a7	-0.049835827
10	0xbe1dc30b	-0.15406434
11	0x3d8387ab	0.06422361
12	0x3dc785ae	0.09742294
13	0x3d191314	0.03737171
14	0x3e470966	0.19437179
15	0xbd5bd017	-0.053665247
16	0xbddf7834	-0.10911599
17	0xbca83c10	-0.020536453
18	0xbc693f9b	-0.014236356
19	0xbd81dca7	-0.06340914
20	0x3db02875	0.086014666
21	0x3dfbdc98	0.12297934
22	0x3d227485	0.039661903
23	0x3db298b1	0.0872053
24	0x3d99d613	0.075115345
25	0xbd82569e	-0.06364177
26	0xbe24fac7	-0.16111289
27	0xbe23c251	-0.15992095
28	0x3c502b0d	0.012705577
29	0xbd8762aa	-0.066106156
30	0xbda68d78	-0.08132452
31	0xbcddfa2e	-0.027096834
32	0xbdf45dfc	-0.119319886
33	0xbc0e8cac	-0.008700531
34	0x3d8bb330	0.06821287
35	0xbd338aa4	-0.04383339
36	0x3d6be9e8	0.057596117
37	0x3d704d07	0.05866721
38	0x3deb830a	0.11499603
39	0x3d8f51bd	0.06998012
40	0x3d53c788	0.05170396
41	0x3ca574f5	0.020197371
42	0x3d569483	0.052387726
43	0x3d426f55	0.047469456
44	0xbc06fe51	-0.008239345
45	0xbd46aa85	-0.048502464
46	0x3b822030	0.003971122
47	0xbd9ae0e0	-0.07562423
48	0xbc9277a3	-0.017879313
49	0x3d029027	0.031875756
50	0x3c5f8fb8	0.013645105
51	0x3de6dae0	0.11272216
52	0x3cf8b687	0.030360473
53	0x3d845f4f	0.06463491
54	0x3d28b6d3	0.04118998
55	0x3d956d1e	0.07296203
56	0x3c18e2be	0.009331403
57	0x3d8c446f	0.0684899
58	0x3ca40fc3	0.020027047
59	0x3ce3ed73	0.027823186
60	0xbcfa3d5f	-0.030546842
61	0xbe084306	-0.13306817
62	0x3ce05142	0.027382497
63	0x3dcc622a	0.09979661
64	0x3dcde1d3	0.10052838
65	0x3e20a6e4	0.15688664
66	0x3e1f9a6a	0.15586248
67	0x3e41097c	0.18851274
68	0x3e487317	0.19575153
69	0x3e129696	0.14315256
70	0x3cd3a2d9	0.025834488
71	0x3b998063	0.0046844943
72	0x3c3093ec	0.010777455
73	0xbd0ab063	-0.03385962
74	0xbded76d0	-0.11594927
75	0xbdac538c	-0.08414373
76	0x3d32daa9	0.04366556
77	0xbe20dab7	-0.15708433
78	0xbd7c6566	-0.06162014
79	0xbdb4db40	-0.08830881
80	0x3e111db4	0.14171487
81	0x3b97921d	0.0046255724
82	0xbdacdb7b	-0.084403
83	0x3d878bbb	0.06618448
84	0x3d08487c	0.03327225
85	0xbcdacbfa	-0.026708592
86	0xbb122945	-0.002230243
87	0xbd0b9e83	-0.034086715
88	0xbd54be57	-0.051939335
89	0xbd3df40a	-0.046375312
90	0xbcf9475d	-0.030429536
91	0x3d6963ab	0.056979816
92	0x3d4d0e42	0.050062425
93	0xbe396060	-0.1810317
94	0xbd927056	-0.07150333
95	0x3e4797ea	0.19491544
96	0x3de4ab2d	0.11165462
97	0x3dbbe784	0.091750175
98	0xbbe4d388	-0.0069832243
99	0xbd51033b	-0.05102847
100	0x3c0f52e4	0.00874779
101	0xbd5f085f	-0.054451343
102	0x3d219b54	0.039454773
103	0xbc8c0651	-0.017092856
104	0x3d3f4f26	0.04670634
105	0x3acd9cb8	0.0015686965
106	0xbdc332e7	-0.09531193
107	0xbe21ff11	-0.15819956
108	0xbdd4ec5b	-0.10396644
109	0x3dc63a41	0.0967908
110	0x3e04bce8	0.12962687
111	0xbe167b97	-0.14695583
112	0x3d8b91bb	0.06814905
113	0x3d9f28fa	0.077714875
114	0x3d80fe5c	0.06298515
115	0x3c2f1a2b	0.010687391
116	0xbd8833eb	-0.066505276
117	0xbe21eafe	-0.15812299
118	0x3b130786	0.0022434904
119	0xbe083c53	-0.13304262
120	0xbd9e5aa3	-0.07732131
121	0xbd580f6d	-0.052749086
122	0x3d76f4e2	0.060292132
123	0x3e19958f	0.14998458
124	0x3e2e8450	0.1704266
125	0x3e360904	0.17776877
126	0x3dad742d	0.084694244
127	0x3d5aa8b5	0.053383548
128	0x3d27081f	0.04077923
129	0xbd1fa673	-0.038977098
130	0xbdb38b27	-0.087667756
131	0xbdde2ca9	-0.10848362
132	0xbd2a9943	-0.041650068
133	0xbe38768c	-0.18013972
134	0xbe135326	-0.14387187
135	0xbb8ac97d	-0.004235445
136	0xbd116f03	-0.03550626
137	0xbbdc23de	-0.006718143
138	0xbdab0966	-0.08351402
139	0xbcd87d56	-0.026426952
140	0x3e77d0a2	0.24200681
141	0x3ce6b239	0.028161155
142	0x3c9858ba	0.018596996
143	0xbe001885	-0.12509353
144	0xbd765067	-0.06013527
145	0x3dfb7ef2	0.12280072
146	0xbe19b349	-0.15009798
147	0x3d470e5b	0.048597675
148	0x3cd5a539	0.02607976
149	0xbc27f695	-0.010251661
150	0xbe8b5f90	-0.27221346
151	0xbd21c9f4	-0.039499238
152	0xbe1c5c67	-0.15269624
153	0xbec06fc2	-0.37585264
154	0xbc82f086	-0.015983831
155	0xbe3f05b2	-0.18654516
156	0xbc6b0297	-0.014343879
157	0x3ca53bd6	0.020170134
158	0xbd106538	-0.03525278
159	0xbd8fe4de	-0.07026075
160	0xbdaf1c92	-0.08550371
161	0x3df2fe20	0.11864877
162	0xbdcf87fe	-0.1013336
163	0xbe45230e	-0.19251654
164	0xbdd71c99	-0.105035014
165	0xbe573966	-0.2101799
166	0xbeb01207	-0.34388754
167	0xbeedb90b	-0.4643024
168	0xbd65682d	-0.056007553
169	0xbd882e95	-0.0664951
170	0x3cadb35a	0.021203686
171	0xbd2ad58f	-0.04170757
172	0xbcdccd6d	-0.026953423
173	0xbdaf6500	-0.08564186
174	0xbdc2312f	-0.09482037
175	0x3e035cbc	0.12828344
176	0x3dc3b24e	0.09555493
177	0x3d5b19cf	0.05349141
178	0xbd67a619	-0.056554887
179	0xbdf6493a	-0.120256856
180	0xbda682ee	-0.081304416
181	0xbe24bf01	-0.16088487
182	0x3e01eb38	0.12687385
183	0x3e058f98	0.13043058
184	0x3d03ac15	0.032146532
185	0x3d1871be	0.037217848
186	0xbe5be655	-0.21474583
187	0xbe69e9c4	-0.22843081
188	0xbd8b87ee	-0.06813036
189	0x3b6e6f53	0.0036382272
190	0x3c1efbde	0.0097036045
191	0x3c0bbe47	0.008529252
192	0x3d122275	0.035677392
193	0xbd86b138	-0.065767705
194	0x3a7bdd42	0.000960786
195	0xbce08186	-0.027405512
196	0x3d1871a9	0.03721777
197	0x3d7b632c	0.061373875
198	0x3cd9f6da	0.026606966
199	0x3cff77bb	0.031185022
200	0xbdfaa1c4	-0.122378856
201	0xbe54a76f	-0.20766996
202	0xbe1c072f	-0.15237115
203	0x3df1c361	0.11804844
204	0x3dd5af4a	0.10433824
205	0x3c66db95	0.014090438
206	0x3c74a019	0.014930748
207	0x3e261d21	0.1622205
208	0x3e22eed5	0.1591142
209	0xbcfaafbd	-0.030601377
210	0x3c47a40c	0.012185108
211	0x3ca6cb16	0.02036051
212	0x3cb3c8a7	0.021946264
213	0x3ca9c666	0.020724487
214	0xbdc76c25	-0.09737424
215	0xbe33acdf	-0.17546414
216	0x3e569dd5	0.20958646
217	0x3e14fe2f	0.14550088
218	0x3d8261a2	0.06366278
219	0x3e1b1710	0.15145516
220	0x3e09d207	0.13459025
221	0xbd0f1d4a	-0.03494004
222	0xbdd6ff16	-0.104978725
223	0x3bad2fd5	0.005285243
224	0xbe0fbf5a	-0.14037839
225	0xbec6daec	-0.388389
226	0xbe04f06b	-0.12982337
227	0xbdc04d7c	-0.09389779
228	0xbb6bc698	-0.0035976525
229	0x3e391ecb	0.18078153
230	0x3e0af298	0.13569105
231	0xbe1ffc29	-0.15623535
232	0xbe53d417	-0.20686375
233	0x3e12cc8c	0.14335841
234	0x3e15098c	0.14554423
235	0xbdbefe9a	-0.09325905
236	0xbdbc2149	-0.09186036
237	0x3d75274d	0.059851933
238	0x3d9f35cb	0.07773932
239	0x3e0e71e0	0.13910627
240	0x3d8e80f4	0.069581896
241	0xbb14f111	-0.0022726695
242	0xbdb91c8f	-0.0903865
243	0xbe1a0b87	-0.1504346
244	0xbd6a3be5	-0.057186026
245	0xbee5e1de	-0.44898885
246	0xbe81ab7c	-0.25326145
247	0xbd49cea3	-0.04926933
248	0x3e13bad0	0.14426732
249	0xbc240598	-0.010011099
250	0xbd9130a9	-0.07089359
251	0x3e10dd51	0.14146926
252	0x3c96f0c9	0.018425362
253	0xbd5b4f32	-0.053542323
254	0xbdd80b60	-0.105490446
255	0xbd97e44b	-0.0741659

EncList.3.conv.bias f4 [128]
0	0xbd675a33	-0.056482505
1	0xbd6c8232	-0.05774135
2	0x3e06800e	0.13134786
3	0xbbcca03e	-0.0062446883
4	0x3dd8c6b2	0.10584773
5	0xbe4bf18a	-0.19916359
6	0xbf011201	-0.50418097
7	0x3d2bacc0	0.041912794
8	0x3d3ec478	0.046574086
9	0xbce44625	-0.027865479
10	0xbe6141f2	-0.21997812
11	0x3d00eac6	0.031473897
12	0xbb7b37b2	-0.0038332758
13	0xbdb26996	-0.08711545
14	0xbd1607a6	-0.036628388
15	0xbc62f11c	-0.01385143
16	0x3de5b211	0.11215604
17	0xbd45d6f7	-0.04830071
18	0x3c75b07f	0.014995693
19	0xbd06a097	-0.032867994
20	0x3bbfb3ed	0.0058503062
21	0xbe81ae76	-0.25328416
22	0xbdbd4c7d	-0.092431046
23	0xbe2794c9	-0.16365351
24	0xbe8765ef	-0.26444957
25	0xbe2093ef	-0.15681432
26	0xbd7075b0	-0.058705986
27	0x3e117899	0.1420616
28	0xbcd9fb8a	-0.026609201
29	0xbe3259d0	-0.17417073
30	0x3c19a4ba	0.009377653
31	0x3d143f82	0.03619338
32	0xbe05cb25	-0.13065775
33	0xbd92f39c	-0.07175371
34	0xbe6c5c58	-0.23082101
35	0x3df46ad3	0.119344376
36	0xbe90bd22	-0.28269297
37	0x3dacc97c	0.084368676
38	0x3d928b7c	0.07155511
39	0x3d93842e	0.07202946
40	0xbe0e13c6	-0.1387473
41	0x3df5d24c	0.120030016
42	0xbe02f0a5	-0.12787111
43	0xbde32f35	-0.110929884
44	0xbd485c4f	-0.048916157
45	0xbe11cd6b	-0.14238517
46	0x3dc2e5d4	0.095164925
47	0xbd383542	-0.044972666
48	0xbdc29272	-0.095005885
49	0xbd8a3546	-0.06748442
50	0xbe7e3072	-0.24823168
51	0x3e1ce2de	0.15320918
52	0x3e575479	0.21028318
53	0xbe0adab6	-0.13559994
54	0xbd6abf0e	-0.05731111
55	0xbd551730	-0.052024066
56	0x3d89b196	0.06723325
57	0xbe8a7ab1	-0.2704673
58	0xbd137cd7	-0.03600773
59	0x3e10bdcf	0.14134906
60	0x3d0a98e2	0.033837207
61	0x3dfa8933	0.122332
62	0x3c04485a	0.008073891
63	0x3df656f0	0.12028301
64	0xbe78b774	-0.24288732
65	0x3e96586b	0.29364333
66	0xbeb041e0	-0.3442526
67	0x3e2ad8e8	0.16684306
68	0x3dcba8a0	0.09944272
69	0x3bb8c62b	0.005638858
70	0xbdc6b971	-0.09703339
71	0x3d2fb66e	0.042898588
72	0x3e3ba0ef	0.1832311
73	0xbe3cc880	-0.1843586
74	0x3de0573c	0.10954139
75	0xbe447aeb	-0.19187514
76	0x3d09c876	0.03363844
77	0x3e4628c0	0.19351482
78	0xbe2d0dee	-0.16899845
79	0x3dffc20e	0.12488185
80	0xbebbae06	-0.36656207
81	0x3ba595ce	0.0050532585
82	0xbe3158db	-0.17319052
83	0x3dd0d740	0.10197306
84	0x3e3abab4	0.18235284
85	0x3e4fc137	0.2028855
86	0xbe249ef2	-0.16076258
87	0xbe4c9874	-0.19980031
88	0xbe53d5ab	-0.20686977
89	0x3e8c7c51	0.27438596
90	0xbde57dfb	-0.112056695
91	0x3d03cec9	0.032179628
92	0xbde5ff19	-0.11230297
93	0xbdb9c563	-0.09070852
94	0xbc36dd2d	-0.011161131
95	0x3e482121	0.19543888
96	0x3dd17e9b	0.10229226
97	0xbe83647c	-0.256626
98	0x3e1d2ad2	0.15348366
99	0x3bfa95b9	0.007647243
100	0xbe80f37d	-0.25185767
101	0xbe9888a6	-0.29791754
102	0x3d84495f	0.06459307
103	0xbe333dcb	-0.17504041
104	0xbe15856a	-0.14601675
105	0xbd81f493	-0.06345477
106	0x3df84ae3	0.121236585
107	0x3cf4ebe7	0.029897643
108	0xbdb6dd32	-0.089289084
109	0xbdbbf817	-0.09178179
110	0xbd86e588	-0.06586748
111	0x3b8c31b7	0.0042783874
112	0x3c8a8ba9	0.016912298
113	0x3c095066	0.008380985
114	0x3e3ac477	0.18239008
115	0xbdc64b61	-0.09682346
116	0xbe1abb44	-0.15110499
117	0x3dde6ff5	0.10861198
118	0x3bc05360	0.005869314
119	0x3d61137e	0.05495023
120	0xbc961c7e	-0.018324133
121	0xbef5a0a8	-0.47974133
122	0x3e6936d4	0.22774822
123	0x3e6ac566	0.22926864
124	0xbd6b706d	-0.057480264
125	0xbde4a6e3	-0.111646436
126	0xbd073d55	-0.033017475
127	0x3d1b6f32	0.03794784

DecList.0.conv.weight f4 [128, 64, 7]
0	0xbe1b81aa	-0.15186182
1	0xbd793d4a	-0.060849465
2	0xbb3b5737	-0.002858592
3	0x3dd418fd	0.10356329
4	0xbd8d40aa	-0.06897099
5	0x3dc428bf	0.09578084
6	0x3e137125	0.1439863
7	0x3da3bbf5	0.07994834
8	0x3d005c41	0.03133798
9	0x3dc46d52	0.09591164
10	0x3d4b22f0	0.049593866
11	0x3ce9bced	0.02853247
12	0x3db056fe	0.086103424
13	0xbd46e91b	-0.04856215
14	0x3d9ac7cb	0.07557639
15	0x3db03b43	0.08605053
16	0x3e134dff	0.14385222
17	0xbe320807	-0.17385875
18	0xbd9dd58d	-0.07706747
19	0xbda83a25	-0.08214215
20	0xbdcfc7de	-0.101455435
21	0xbd0c478c	-0.03424792
22	0xbdb73981	-0.08946515
23	0x3df44ec3	0.11929085
24	0x3e28487b	0.16433899
25	0x3e1b527d	0.15168186
26	0xbe24cdd5	-0.16094144
27	0xbdd168b2	-0.10225047
28	0xbd6c66aa	-0.057715096
29	0xbdbd9fa3	-0.09258964
30	0xbd2ae4dc	-0.041722164
31	0xbdda3a1a	-0.10655613
32	0xbe011fbf	-0.12609766
33	0xbdaa2341	-0.083075054
34	0xbdbcb72e	-0.09214626
35	0x3d99579e	0.07487415
36	0x3e529247	0.20563613
37	0x3ddffa51	0.10936416
38	0x3deed1b4	0.116610914
39	0x3e9e3d68	0.30906224
40	0x3e965dad	0.29368344
41	0x3ef98b94	0.48739302
42	0x3e252a1b	0.16129343
43	0x3e101ead	0.14074202
44	0x3d9f2b94	0.07771984
45	0xbd17758f	-0.036977347
46	0xbdb910a5	-0.09036378
47	0xbcbc643e	-0.022997018
48	0x3daab8da	0.08336039
49	0x3d63d6b2	0.05562467
50	0xbcb45fad	-0.022018278
51	0xbdb4c8b2	-0.08827342
52	0xbcd9b756	-0.02657668
53	0xbd70bb74	-0.05877252
54	0xbb72e50b	-0.003706279
55	0xbddfe4d6	-0.10932319
56	0x3d5e3b94	0.054256037
57	0xbd6391b0	-0.05555886
58	0xbe154f1e	-0.14580962
59	0xbeb97336	-0.3622071
60	0xbda44a53	-0.08021989
61	0x3c3e4cef	0.011615022
62	0xbd97ab9a	-0.07405777
63	0x3e2579bd	0.1615972
64	0xbcd2f6f2	-0.025752518
65	0xbc7aaa88	-0.015299447
66	0xbbfbba6f	-0.0076821367
67	0xbd24151c	-0.040059194
68	0x3d152a65	0.036417384
69	0x3dab75ee	0.08372103
70	0x3ca57408	0.02019693
71	0xbdf60aa5	-0.12013749
72	0x3e1c775e	0.1527991
73	0x3e1b9e77	0.15197168
74	0x3daffe44	0.08593419
75	0xbc39dca7	-0.0113441115
76	0xbe3232d1	-0.17402197
77	0x3dac6de6	0.08419399
78	0x3e1902bc	0.1494245
79	0x3e264c3d	0.1624002
80	0x3dab49ef	0.08363711
81	0xbd378a54	-0.044809654
82	0xbd97dc6f	-0.07415091
83	0xbe66b162	-0.22528604
84	0xbc0a9b26	-0.008459842
85	0xbd9d1cca	-0.07671507
86	0x3d8691a6	0.06570749
87	0x3d9924e8	0.074777424
88	0xbc9a13b1	-0.018808218
89	0x3cc198f1	0.023632498
90	0x3d5f3ad9	0.05449948
91	0x3da01667	0.07816773
92	0x3d198d1d	0.03748809
93	0x3c35a27e	0.011086104
94	0x3e03718b	0.12836282
95	0x3db67b1b	0.08910199
96	0x3dcac4cb	0.099008165
97	0x3d8d0aa3	0.068867944
98	0xbd94feba	-0.07275148
99	0xbdd93d94	-0.10607448
100	0xbdaa0d15	-0.083032764
101	0x3e2ae09f	0.16687249
102	0x3dc90859	0.09816045
103	0x3d8df29b	0.06931039
104	0x3d2551a5	0.040361065
105	0x3ce349ab	0.027745089
106	0x3ba029a0	0.0048877746
107	0x3d95275b	0.07282897
108	0x3e35361f	0.17696427
109	0x3c4a7e82	0.012359263
110	0xbd8c9d62	-0.06865956
111	0xbd1d562d	-0.03841226
112	0xbd11e4f6	-0.035618745
113	0xbc73f8f1	-0.014890895
114	0x3dbef6fc	0.09324452
115	0x3e11f086	0.14251909
116	0x3e1aa150	0.15100598
117	0xbdacc72c	-0.084364265
118	0xbe253c4a	-0.1613628
119	0xbe318deb	-0.17339294
120	0x3a9ff660	0.0012204163
121	0x3c9e38bb	0.01931416
122	0xbbbbdd35	-0.005733157
123	0x3c1d6e52	0.009608822
124	0x3d393219	0.045213792
125	0xbcedbb6b	-0.029020032
126	0x3dae652e	0.08515392
127	0xbd9bd6a6	-0.076093
128	0xbe0073a8	-0.1254412
129	0xbcae20e4	-0.021255918
130	0x3da48021	0.08032251
131	0x3d879bdf	0.06621527
132	0x3d5c2322	0.053744443
133	0xbe1c9956	-0.15292868
134	0xbe4da430	-0.20082164
135	0xbe2858b5	-0.16440089
136	0xbd90be5e	-0.0706756
137	0x3da77231	0.08176077
138	0x3db35fd4	0.08758512
139	0x3d82c686	0.063855216
140	0xbe0c06e1	-0.13674499
141	0xbd606d4e	-0.05479174
142	0xbc1cada8	-0.009562887
143	0x3bab662b	0.005230685
144	0xbdd923d9	-0.106025405
145	0xbe6f9384	-0.23396116
146	0xbe814af2	-0.2525249
147	0xbd511d27	-0.051053192
148	0x3dd3ca96	0.103413746
149	0xbe082af4	-0.13297635
150	0xbc428e89	-0.011874803
151	0x3cce3026	0.025169443
152	0xbe02ea0f	-0.12784599
153	0xbe82e51e	-0.25565428
154	0x3dc34f1d	0.09536574
155	0x3da7a883	0.08186438
156	0xbe888262	-0.26661974
157	0x3d78bb3c	0.060725436
158	0x3d2285f9	0.039678548
159	0xbd2a693f	-0.041604277
160	0xbe6274ec	-0.22114915
161	0xbc58d5a9	-0.013234534
162	0xbe0649e4	-0.13114125
163	0xbd9284f6	-0.071542665
164	0xbc35e941	-0.011102975
165	0x3d4b6f0d	0.049666453
166	0x3d8106ba	0.06300111
167	0xbcba0355	-0.022706667
168	0xbdfb6206	-0.12274556
169	0x3cacd3e9	0.02109714
170	0x3e008049	0.12548937
171	0x3da7772a	0.081770256
172	0xbd905f36	-0.0704941
173	0xbe10bd02	-0.14134601
174	0xbdeeab4d	-0.11653767
175	0xbe055a10	-0.13022637
176	0xbd313e74	-0.04327245
177	0x3d039b62	0.032130606
178	0x3db62143	0.08893063
179	0x3d41c029	0.0473024
180	0x3d1b7bf3	0.037960004
181	0x3e0282c2	0.12745193
182	0xbdead191	-0.11465753
183	0xbd45645e	-0.04819142
184	0x3d9766a2	0.073926225
185	0x3e04b7b7	0.12960707
186	0xbe747740	-0.23873615
187	0xbce35fcc	-0.02775564
188	0x3d108f81	0.035293106
189	0xbda6a97d	-0.08137796
190	0xbda768af	-0.08174264
191	0xbc1fc367	-0.009751177
192	0xbb1087d3	-0.0022053614
193	0xbea466ee	-0.3210978
194	0xbe2123b1	-0.15736271
195	0xbd8397fd	-0.06425474
196	0xbe2c4890	-0.16824555
197	0xbcaff3bb	-0.021478524
198	0xbca4c00e	-0.02011111
199	0x3bc4ccdc	0.0060058665
200	0xbde49143	-0.11160519
201	0x3ca4bbff	0.020109175
202	0xbd6be367	-0.057589915
203	0xb99a3fe5	-0.00029420774
204	0xbe785b0b	-0.2425348
205	0xbd900575	-0.07032291
206	0xbdb8fd98	-0.09032744
207	0xbd877ccf	-0.06615602
208	0x3d4dc177	0.05023333
209	0x3dfd823e	0.12378357
210	0x3c5cb3ab	0.013470571
211	0x3dd8efb4	0.10592595
212	0x3d440ec0	0.04786563
213	0x3e10b937	0.14133154
214	0xbe128d6b	-0.14311759
215	0xbc960bd4	-0.018316187
216	0x3dd3c06b	0.10339435
217	0x3c3549d3	0.011064964
218	0xbe4430ff	-0.19159316
219	0xbe540f47	-0.20708953
220	0xbd86ffef	-0.06591784
221	0xbdc6ca2c	-0.0970653
222	0x3c8c48c9	0.01712455
223	0x3e143b9c	0.14475864
224	0xbd25de89	-0.04049543
225	0xbd84d04e	-0.064850435
226	0xbdb8d31c	-0.09024641
227	0xbc1cd095	-0.009571214
228	0xbcb8b463	-0.022546953
229	0xbe0a9856	-0.13534674
230	0xbe4f2f54	-0.20232898
231	0xbd57afac	-0.052657768
232	0xbdb9ebe2	-0.09078194
233	0xbdb97ffd	-0.09057615
234	0xbc21c21f	-0.009872942
235	0xbde2b783	-0.11070158
236	0xbde7419c	-0.11291811
237	0xbe29f4b9	-0.1659726
238	0x3d586c16	0.052837454
239	0xbc639d5e	-0.0138925
240	0x3e55cee4	0.20879704
241	0x3de9b7b7	0.11411994
242	0xbdb32c62	-0.087487
243	0x3e3afdf9	0.18260945
244	0x3e2b034a	0.16700473
245	0x3e3adccd	0.18248291
246	0x3d074231	0.03302211
247	0xbe79978c	-0.24374217
248	0x3de6e14c	0.11273441
249	0xbdb1bc56	-0.086785
250	0xbdf8a8d5	-0.12141577
251	0xbe8ac236	-0.27101296
252	0x3d60557b	0.05476902
253	0x3da91ee0	0.08257842
254	0xbd3ae6a5	-0.045630116
255	0x3d324129	0.043519173

DecList.0.conv.bias f4 [64]
0	0xbd0ee236	-0.0348837
1	0x3c80efce	0.015739348
2	0xbcf0b698	-0.029383942
3	0xbd65bbe2	-0.056087382
4	0xbc6084c6	-0.013703531
5	0x3e0e095b	0.13870756
6	0xbe3247a2	-0.17410138
7	0xbd098044	-0.03356959
8	0x3d9b5117	0.07583826
9	0x3ea3b9be	0.31977648
10	0xbd82cbd0	-0.063865304
11	0xbdecdc07	-0.115654044
12	0x3da37550	0.0798136
13	0xbd35e7eb	-0.044410627
14	0x3d35aa90	0.044352114
15	0x3e54fdd1	0.20799948
16	0xbddecca7	-0.10878878
17	0x3e8dcf0e	0.27697033
18	0x3df32a32	0.118732825
19	0xbdb54f9d	-0.08853076
20	0x3cc24b89	0.023717659
21	0xbe0ce654	-0.13759738
22	0xbb8c900b	-0.004289632
23	0xbdb41484	-0.087929755
24	0xbd0d3ea8	-0.03448358
25	0x3ba25230	0.004953645
26	0x3e3d9f27	0.18517743
27	0xbe52a490	-0.20570588
28	0x3da46508	0.08027083
29	0x3e29e361	0.16590644
30	0x3e3d4452	0.18483093
31	0x3dbfd5ce	0.09366952
32	0xbe547eba	-0.20751467
33	0xbcb4e5fd	-0.022082323
34	0x3e207fe8	0.15673792
35	0xbd653f5d	-0.05596863
36	0xbc0c6e55	-0.008571227
37	0x3ecf99fc	0.40547168
38	0x3cf8e61d	0.030383164
39	0xbe7bd8cf	-0.24594425
40	0xbdb611f5	-0.08890144
41	0x3cfaea31	0.03062925
42	0x3d33ae23	0.04386724
43	0x3c59b95e	0.013288824
44	0x3e755a8f	0.23960327
45	0xbe80ced0	-0.25157785
46	0xbd6668ce	-0.056252293
47	0xbd05ddbc	-0.032682166
48	0x3dd0616b	0.10174831
49	0x3ee47c24	0.44625962
50	0xbdad6f47	-0.0846849
51	0xbd2feef3	-0.04295249
52	0xbbae5f36	-0.0053214086
53	0x3dba8b01	0.09108544
54	0xbc491bf4	-0.012274731
55	0xbd48f711	-0.049063746
56	0xbda47fcf	-0.0803219
57	0xbc9b03dd	-0.01892274
58	0xbdd97b2d	-0.10619197
59	0x3e03c1e6	0.12866935
60	0xbd53cb50	-0.051707566
61	0xbd02a75a	-0.03189788
62	0x3de45eb6	0.11150877
63	0x3d8af8a4	0.06785706

DecList.0.ECA.conv.weight f4 [1, 1, 3]
0	0x3ed7c274	0.42140543
1	0xbd4a2f49	-0.0493615
2	0xbf54554a	-0.8294264

DecList.1.conv.weight f4 [64, 32, 7]
0	0x3d1124a6	0.03543534
1	0xbc08e7c5	-0.008356039
2	0xbda04ddf	-0.07827353
3	0xbdc7d888	-0.09758097
4	0xbcffedbd	-0.031241292
5	0x3cdda6ff	0.027057169
6	0xbd4b71f0	-0.049669206
7	0xbd532477	-0.051548447
8	0xbd9bc506	-0.076059386
9	0x3d0c2abf	0.034220453
10	0xbd58b405	-0.052906055
11	0xbdcdc3e0	-0.10047126
12	0xbe30dedf	-0.17272519
13	0xbd0d5a01	-0.034509663
14	0xbbfd446c	-0.007729104
15	0x3d660072	0.05615277
16	0x3dc21320	0.09476304
17	0x3dc14bd6	0.09438293
18	0x3d82f67e	0.06394671
19	0x3ddd1f26	0.10796957
20	0x3da55624	0.08073071
21	0x3e12cf7f	0.14336966
22	0x3e25ab17	0.16178547
23	0x3e4f9f62	0.20275643
24	0x3e66abce	0.22526476
25	0x3e9ba088	0.30395913
26	0x3e44edd1	0.19231345
27	0x3e261fbe	0.16223046
28	0xbd833c44	-0.06407979
29	0xbe0819ac	-0.13291043
30	0x3df3f109	0.11911208
31	0x3da0e6e6	0.078565404
32	0xbbfaf109	-0.007658128
33	0xbd8c8132	-0.068605796
34	0xb9539b26	-0.00020180325
35	0x3e2cec17	0.16886936
36	0x3d9f7c4e	0.07787381
37	0x3da3b9af	0.07994401
38	0x3e8d4b06	0.275963
39	0x3debf85d	0.11521981
40	0x3e4008eb	0.18753402
41	0x3cf2c549	0.029635089
42	0x3ce681c4	0.028138049
43	0xbbe6414a	-0.007026826
44	0x3dbcaf0c	0.09213075
45	0x3e17539d	0.1477799
46	0x3e5db60d	0.21651478
47	0x3d46814c	0.04846315
48	0x3c5795e1	0.0131582925
49	0xbd3981bd	-0.045289744
50	0xbc27e121	-0.010246546
51	0xbd06d7c6	-0.03292062
52	0xbc07bdaa	-0.0082849655
53	0xbcc58eca	-0.024115939
54	0xbd86aa97	-0.06575506
55	0xbc072924	-0.008249555
56	0x3d7b6be2	0.061382182
57	0x3e048fb1	0.12945439
58	0xbb5b44e5	-0.0033457812
59	0x3e12e119	0.1434368
60	0x3dcbc289	0.09949214
61	0x3cf57410	0.02996257
62	0xbd3a9b55	-0.045558292
63	0x3b98bd05	0.0046612048
64	0xbca5eb3e	-0.020253774
65	0x3d499a95	0.049219687
66	0x3def9ec4	0.11700204
67	0xbd21cf22	-0.039504178
68	0x3c86c564	0.016451545
69	0xbc269ec7	-0.010169691
70	0x3d89663a	0.06708951
71	0xbd496b07	-0.049174335
72	0xbd86ef60	-0.06588626
73	0xbc902914	-0.017597713
74	0xbd600370	-0.05469078
75	0xbcf93e80	-0.03042531
76	0xbd888798	-0.066664875
77	0x3dc018a8	0.09379703
78	0xbc6e3b38	-0.014540486
79	0x3d5f65ae	0.05454033
80	0x3db208e2	0.086931005
81	0x3d91bf4a	0.071165636
82	0xbb841097	-0.004030298
83	0x3cac6fbd	0.021049375
84	0x3cc1f25e	0.02367514
85	0x3bdc85bd	0.00672981
86	0xbc056489	-0.008141645
87	0x3d9716db	0.07377406
88	0x3b9a2121	0.0047036563
89	0xbce8c44e	-0.028413918
90	0x3bac1c83	0.0052524223
91	0xbddad24e	-0.10684644
92	0xbe1ce9db	-0.15323584
93	0xbe075a13	-0.13217954
94	0x3d417403	0.047229778
95	0x3d92beaa	0.071652725
96	0x3dbe930e	0.09305392
97	0xbd02a00c	-0.031890914
98	0xbe25d257	-0.1619352
99	0xbe4aa704	-0.19790274
100	0xbdd9a454	-0.10627046
101	0xbdcf5500	-0.10123634
102	0x3c94f76a	0.018184382
103	0xbc4f94fa	-0.012669796
104	0xbe0ef23c	-0.13959593
105	0xbdecbff2	-0.11560048
106	0xbe272fde	-0.16326854
107	0xbd8fa6db	-0.07014247
108	0xbe781e1f	-0.2423024
109	0xbe60df04	-0.21960074
110	0xbe442a08	-0.19156659
111	0xbe6e1df1	-0.23253609
112	0xbdfe002c	-0.124023765
113	0xbce45ecc	-0.027877234
114	0x3d133e4d	0.035948087
115	0x3e1d5016	0.15362582
116	0x3e0b0b16	0.13578448
117	0x3e00659e	0.12538764
118	0x3ddce3d3	0.107856415
119	0xbde87647	-0.113506846
120	0xbd980590	-0.07422936
121	0xbc879a5a	-0.016553093
122	0xbe043501	-0.12910844
123	0xbde150b4	-0.11001721
124	0xbe49caef	-0.1970632
125	0xbd913f39	-0.07092137
126	0x3e0781b3	0.1323307
127	0x3d075e7c	0.03304909
128	0x3e2a43f4	0.16627485
129	0x3e5df863	0.21676783
130	0x3e39d487	0.18147479
131	0x3d8e50b2	0.06948985
132	0x3e069c6d	0.13145609
133	0x3d7ce71e	0.061743848
134	0x3d898269	0.06714327
135	0x3de216a1	0.11039472
136	0x3dc45eb6	0.09588377
137	0x3e389716	0.18026385
138	0x3d786916	0.060647093
139	0x3e03d433	0.12873916
140	0xbe487795	-0.19576867
141	0xbd52c9d8	-0.051462024
142	0xbd86dacd	-0.06584702
143	0xbb370885	-0.0027928662
144	0xbd972b4d	-0.07381306
145	0x3c19a7e7	0.00937841
146	0xbd171f22	-0.036894925
147	0x3c5edac3	0.013601962
148	0x3cc8e723	0.024524277
149	0xbcab09b3	-0.020878648
150	0x3e7fbe73	0.24974994
151	0x3e28c747	0.16482268
152	0x3de91fa0	0.11382985
153	0x3dca1faa	0.09869321
154	0xbd6fef41	-0.05857778
155	0xbda6f3a7	-0.08151942
156	0xbd3b1825	-0.045677323
157	0xbdb60bfc	-0.088890046
158	0x3db8d5c3	0.09025147
159	0xbc034fa9	-0.008014598
160	0xbd62fd5c	-0.055417404
161	0x3ddd1283	0.107945465
162	0x3de3618e	0.111025915
163	0x3de242bb	0.11047884
164	0x3de1a6fc	0.11018178
165	0x3e3703d2	0.17872551
166	0x3e090d95	0.13384087
167	0x3e75fcf2	0.24022272
168	0x3cc3e160	0.023911178
169	0x3de228a7	0.1104291
170	0x3b6f8d8f	0.0036552881
171	0xbdfdc76c	-0.12391552
172	0xbc4ae8b1	-0.0123845795
173	0x3d0b6700	0.034033775
174	0x3cee0f54	0.029060043
175	0x3e5f6d43	0.21819024
176	0x3e12d25e	0.14338061
177	0x3e6376cc	0.22213286
178	0x3e40a562	0.18813089
179	0x3e03d8f7	0.12875734
180	0x3dda1d3f	0.106501095
181	0x3e130b5e	0.14359805
182	0xbbdddff8	-0.006771084
183	0x3d7970d5	0.06089862
184	0x3e0d6356	0.13807425
185	0x3e8878cb	0.26654658
186	0x3e333fc9	0.17504801
187	0x3e1f2b36	0.15543827
188	0x3de73371	0.112891085
189	0xbdcfc1f9	-0.10144419
190	0xbccc875b	-0.024966886
191	0x3df5a911	0.119951375
192	0x3e9e60f5	0.30933347
193	0x3e1ce53e	0.15321824
194	0xbcf80e38	-0.030280218
195	0xbd0c24a5	-0.034214634
196	0x3d464713	0.048407625
197	0xbd15acec	-0.036541864
198	0xbdb9964d	-0.09061871
199	0xbdd73f94	-0.105101734
200	0xbdc503e3	-0.09619882
201	0xbda2a7ab	-0.079421364
202	0xbcebbcc8	-0.028776541
203	0xbd6432ef	-0.055712637
204	0xbd0d3f28	-0.03448406
205	0xbda2e6cf	-0.079541795
206	0xb98bcf15	-0.00026666434
207	0xbdb894fa	-0.0901279
208	0xbd4c6e72	-0.049910016
209	0xbd2633f6	-0.040576898
210	0x3dd52b55	0.104086556
211	0x3e153ee7	0.14574777
212	0x3e07be9c	0.13256305
213	0x3da182e9	0.07886297
214	0x3e09bbbe	0.13450524
215	0x3d1b29a6	0.037881516
216	0x3e12549b	0.14290087
217	0xbd805dd1	-0.06267894
218	0xbc3a1725	-0.011358057
219	0xbcacdfbc	-0.021102779
220	0xbd49300b	-0.049118083
221	0x3cb1cb98	0.021703526
222	0xbd1195e0	-0.035543323
223	0xbdcaf93a	-0.099108174
224	0xbd776166	-0.06039562
225	0xbcd4820b	-0.025940916
226	0xbd6a83e2	-0.05725468
227	0xbb436740	-0.002981618
228	0x3dd0fcbe	0.10204457
229	0xbd644ea8	-0.055739075
230	0xbd63ad28	-0.055585057
231	0x3d856a27	0.065143876
232	0x3bd9b9cb	0.0066444627
233	0x3dafc2fc	0.08582112
234	0x3db4cf61	0.08828617
235	0x3db4eb2a	0.088339165
236	0x3cd61e34	0.026137449
237	0x3e0843cf	0.13307117
238	0x3d565fbd	0.052337397
239	0x3d67904e	0.056534104
240	0x3db1536d	0.0865849
241	0x3da367ea	0.079788044
242	0x3d0a6497	0.033787336
243	0x3bbdaede	0.005788668
244	0x3da9377c	0.08262536
245	0xbd1b1783	-0.03786422
246	0xbd5600f3	-0.052247
247	0x3dd23bee	0.10265337
248	0x3b60c621	0.0034297782
249	0xbe47dd1a	-0.19517937
250	0xbdd14fd6	-0.102203056
251	0xbe1f9db1	-0.15587498
252	0x3e2206d3	0.15822916
253	0x3d61ab25	0.055094857
254	0x3d20b434	0.039234355
255	0x3dea0dba	0.114283994

DecList.1.conv.bias f4 [32]
0	0x3d5c3b7a	0.05376766
1	0xbde938da	-0.11387797
2	0x3da20b05	0.07912258
3	0x3e56b5b6	0.20967755
4	0x3d98334e	0.074316606
5	0x3e4a5ec6	0.19762716
6	0x3dff4f63	0.12466314
7	0x3d03a43f	0.03213906
8	0x3e0600dc	0.13086265
9	0x3e587b8a	0.21140876
10	0xbe05ffd3	-0.1308587
11	0x3e3fd151	0.18732192
12	0x3e11d25b	0.142404
13	0xbb609400	-0.0034267902
14	0x3dc99c99	0.09844322
15	0xbc9cb16d	-0.019127572
16	0x3de3095f	0.11085772
17	0xbcf4be20	-0.029875815
18	0x3d863219	0.06552524
19	0x3cf8e214	0.03038124
20	0xbd114dac	-0.035474464
21	0x3e31a13a	0.1734666
22	0xbe0beb32	-0.13663939
23	0xbd700032	-0.058593936
24	0x3bd41fe5	0.0064735287
25	0x3e26fc77	0.16307245
26	0xbdce4277	-0.10071271
27	0x3b095cb1	0.002095979
28	0x3c44b11b	0.012005116
29	0x3e240cab	0.16020457
30	0xbcd97f8a	-0.026550073
31	0x3d74ead9	0.05979428

DecList.1.ECA.conv.weight f4 [1, 1, 3]
0	0x3f2e5523	0.6809866
1	0x3ed0a6a4	0.40752137
2	0x3e940e72	0.2891727
