checkpoints/best_UNet_emb_snr_-2.pth (torch, 66906 bytes, 62 tensors)

EncList.0.conv.weight f4 [4, 2, 3]
0.23372686 0.2951054 -0.060693104 0.28494292 0.06478409 0.36927223 -0.40066758 0.004194046
0.09005478 -0.1075702 0.45715603 0.1868095 0.23663831 0.06884468 0.30679682 -0.21049109
0.121258594 -0.16254438 -0.243185 0.021413507 -0.22852689 0.039455786 -0.08024106 0.28694427
00000000: 1856 6f3e 0e18 973e 5599 78bd 0ae4 913e
00000010: 85ad 843d 4011 bd3e 4d24 cdbe 356e 893b
00000020: a46e b83d c44d dcbd 5b10 ea3e fd4a 3f3e
00000030: 5051 723e 71fe 8c3d 7914 9d3e fa8a 57be
00000040: 6d56 f83d 0972 26be 7d05 79be 616b af3c
00000050: f402 6abe 649c 213d 6d55 a4bd 5cea 923e

EncList.0.conv.bias f4 [4]
-0.29700324 -0.18692815 -0.11477669 -0.23707645
00000000: cf10 98be 186a 3fbe 0b10 ebbd 2bc4 72be

EncList.0.bn.weight f4 [4]
0.3549313 0.4208967 0.8059424 0.6273278
00000000: 8eb9 b53e c67f d73e 3e52 4e3f 8e98 203f

EncList.0.bn.bias f4 [4]
1.2381022 0.013750817 0.16357185 -0.029933913
00000000: 227a 9e3f 1b4b 613c 617f 273e f737 f5bc

EncList.0.bn.running_mean f4 [4]
-0.31449112 -0.18225306 -0.12967485 -0.22652665
00000000: fb04 a1be 8ca0 3abe 7cc9 04be 9af6 67be

EncList.0.bn.running_var f4 [4]
0.7291072 0.31853214 0.3664093 0.21722817
00000000: c5a6 3a3f a516 a33e 009a bb3e 1071 5e3e

EncList.1.conv.weight f4 [8, 4, 3]
-0.015377503 0.16544606 -0.2049554 -0.15265234 0.12022963 -0.14450273 -0.066568166 -0.2096544
0.2841695 0.018338965 -0.09505724 -0.28876117 0.028476901 0.17333001 0.0093449745 0.19243
-0.06569241 -0.13138771 0.16201368 -0.02466868 -0.091125086 -0.08770086 0.26837245 0.213612
-0.09888153 0.057942998 0.034255464 -0.0020635743 -0.035999283 -0.13773216 0.19008544 0.27012974
0.092270896 -0.204505 0.021707546 -0.46869224 0.08327134 0.33157915 0.3335978 -0.10734157
-0.07794186 0.15148102 -0.072734 0.1709932 0.11937303 -0.1799145 0.007080406 -0.11846988
0.12656927 -0.18341863 -0.0008100923 0.25971958 -0.116420165 -0.09651824 0.027096525 -0.10830431
0.29106343 0.0724228 -0.14481 -0.4967984 -0.016448922 0.05177647 0.52713704 0.1756966
0.20568794 0.2393138 -0.031189477 0.015389399 0.020651639 -0.15588804 0.044319943 -0.0055185547
0.15466969 -0.29342744 -0.6092257 -0.30332297 -0.06534356 -0.03880052 0.123880826 -0.00029515792
-0.14957191 -0.12455709 0.18985993 -0.04623547 0.00010602976 0.020744987 -0.12686229 0.057483293
-0.12402241 -0.13576706 -0.16072923 -0.26257068 0.015066513 0.19115525 -0.024026215 0.2427814
00000000: ecf1 7bbc b16a 293e d4df 51be e550 1cbe
00000010: f43a f63d 86f8 13be e454 88bd a5af 56be
00000020: aa7e 913e 993b 963c 5fad c2bd 81d8 93be
00000030: 6448 e93c 6c7d 313e aa1b 193c 5f0c 453e
00000040: be89 86bd 808a 06be eae6 253e f915 cabc
00000050: ca9f babd 829c b3bd 1d68 893e 1bbd 5a3e
00000060: 6682 cabd a355 6d3d 754f 0c3d 083d 07bb
00000070: fc73 13bd a909 0dbe c2a5 423e 724e 8a3e
00000080: 86f8 bc3d c269 51be 06d4 b13c 6ef8 efbe
00000090: 2a8a aa3d bec4 a93e 55cd aa3e e6d5 dbbd
000000a0: fb9f 9fbd d71d 1b3e 90f5 94bd d718 2f3e
000000b0: d979 f43d 823b 38be c002 e83b 56a0 f2bd
000000c0: 609b 013e 18d2 3bbe 605c 54ba f7f9 843e
000000d0: b26d eebd 5bab c5bd 88f9 dd3c a6ce ddbd
000000e0: 4406 953e 6852 943d 1349 14be 5c5c febe
000000f0: e4bf 86bc 9013 543d 74f2 063f cfe9 333e
00000100: dc9f 523e ad0e 753e 1381 ffbc d123 7c3c
00000110: a02d a93c 1da1 1fbe d488 353d fed4 b4bb
00000120: bb61 1e3e 1f3c 96be 37f6 1bbf 264d 9bbe
00000130: d8d2 85bd 4bed 1ebd 3bb5 fd3d 6dbf 9ab9
00000140: 6129 19be ca17 ffbd a46a 423e 6761 3dbd
00000150: 4b5c de38 64f1 a93c 30e8 01be 9a73 6b3d
00000160: 76ff fdbd 8506 0bbe 3496 24be aa6f 86be
00000170: 89d9 763c 34be 433e a0d2 c4bc b09b 783e

EncList.1.conv.bias f4 [8]
-0.29926914 -0.2873016 -0.18130672 -0.101727255 -0.02798707 -0.05805596 0.10775489 -0.25555244
00000000: ce39 99be 3219 93be 78a8 39be 6156 d0bd
00000010: 2445 e5bc 16cc 6dbd 99ae dc3d c5d7 82be

EncList.1.bn.weight f4 [8]
0.85820264 0.82396823 0.84298486 0.79955035 0.7897791 0.859854 0.94990104 1.0229429
00000000: 2bb3 5b3f 95ef 523f dbcd 573f 55af 4c3f
00000010: f72e 4a3f 641f 5c3f b72c 733f cbef 823f

EncList.1.bn.bias f4 [8]
0.115448385 -0.08857104 -0.0953273 -0.011531433 -0.09954837 0.20402114 -0.049191736 -0.08725281
00000000: 3470 ec3d bc64 b5bd f63a c3bd 56ee 3cbc
00000010: 04e0 cbbd ebea 503e 467d 49bd 9ab1 b2bd

EncList.1.bn.running_mean f4 [8]
-0.46420935 0.069655985 -0.13990624 0.8425413 -0.13313325 0.7110664 -0.8889242 -0.48838452
00000000: d9ac edbe cca7 8e3d 9543 0fbe c9b0 573f
00000010: 1554 08be 7308 363f 8990 63bf 890d fabe

EncList.1.bn.running_var f4 [8]
0.030444646 0.020412493 0.22318134 0.12457066 0.07431755 0.071593314 0.09550373 0.08772604
00000000: 0d67 f93c 1a38 a73c a689 643e e71e ff3d
00000010: cd33 983d 849f 923d 7697 c33d b6a9 b33d

EncList.2.conv.weight f4 [16, 8, 3]
-0.059655663 0.147637 -0.047132514 0.18048626 0.017685795 0.14444202 0.17021503 -0.09997231
0.038187064 -0.011511089 0.0850535 -0.13776675 0.04941771 0.04426464 0.1398895 0.0470349
-0.12896606 0.055411376 -0.082844265 -0.038980924 0.15987183 0.36029428 0.44329837 0.15558915
-0.043858085 0.04109161 -0.26116234 -0.037423212 -0.010874644 0.118272044 -0.22723232 0.18012418
-0.11632571 0.011663969 0.27725604 0.122264266 0.102813974 0.046633843 -0.09790801 -0.0062764604
0.23873276 0.19892232 0.028015697 -0.2975307 0.18375331 0.09929173 -0.2679579 0.005791993
0.007850065 -0.047508355 -0.1831975 0.07913587 -0.114664815 0.0977366 -0.15178709 -0.0496433
-0.12800124 -0.24679329 -0.24808581 -0.22868283 -0.026913246 0.17481579 -0.03554087 -0.29878515
-0.104690805 -0.14706491 0.15713483 0.1123882 0.12078549 0.04241867 -0.12811552 0.20679569
-0.12376778 -0.018985279 -0.025174085 -0.04503388 0.038870677 -0.17347181 -0.021792552 -0.1058825
0.20725146 0.16982763 0.20749289 0.21030022 0.022863936 0.2289262 0.10916076 -0.09508512
0.007947168 -0.13877364 -0.0014110896 -0.06975521 0.14088522 0.2883276 0.019991694 -0.26911148
-0.20467219 0.0030735484 -0.039885134 0.09665479 0.19780368 -0.031135693 -0.3012901 -0.023041697
-0.044636566 -0.20047435 -0.067174755 0.046542604 -0.27647465 -0.078174174 -0.047947124 0.10545404
0.13888499 -0.112947784 -0.0066703185 -0.19654697 -0.08879333 0.17726816 -0.041847497 0.05792038
0.10124028 -0.1834954 -0.24568935 -0.033815417 0.07992402 0.11099199 0.2213486 0.023399185
-0.1146508 -0.07197161 0.14079458 -0.01212265 0.09500634 0.056129105 -0.2108719 0.031061266
-0.1448111 -0.015643228 -0.061407488 0.06777129 -0.017471176 -0.36240268 -0.12537941 0.13629073
-0.07928421 -0.021607049 0.13289696 -0.033308424 -0.1812078 0.01692966 0.07365538 -0.058795918
0.07610912 -0.18909857 0.10901245 0.33242065 0.091392 0.09433848 -0.10982336 0.04344797
-0.021158837 0.07788735 0.018044163 0.0013450658 -0.1771719 -0.08777861 -0.19580391 -0.33255023
-0.1547686 0.31114784 0.05668956 -0.16758136 -0.14724328 -0.009166056 -0.14787088 0.004425203
0.04662931 -0.17810197 0.012434461 0.056785498 0.054353092 0.042980112 0.18202567 0.023760166
-0.009833418 0.058062997 -0.21838185 0.09638031 -0.043558877 0.11152085 -0.06937399 0.08268661
0.13562067 0.1733643 0.0665819 0.12088518 -0.058797892 -0.031147433 -0.085446134 0.11030482
-0.12360391 0.165485 0.21390519 -0.03938706 0.018319638 -0.029716667 0.035261128 0.123489015
0.04554725 -0.14996578 -0.3942502 0.02257606 0.29416165 0.1678439 -0.08951465 0.039364427
-0.11884276 -0.05170736 -0.31357303 -0.104298756 0.11108496 0.15466616 -0.13659595 -0.18196258
-0.22508347 0.11389679 -0.24812198 0.1518598 0.17283438 -0.08538043 -0.13493532 -0.0022202404
0.06472765 0.24773102 0.09600578 -0.055921897 0.06044648 0.036191534 -0.006958276 0.27551082
-0.04458585 -0.047951948 -0.014728941 -0.04344741 -0.09551377 -0.12599364 0.11605142 0.2359422
0.011248439 -0.24465865 -0.0090181 -0.24232964 -0.183495 -0.031161752 0.06785294 -0.12153082
00000000: 7f59 74bd 272e 173e 060e 41bd 64d1 383e
00000010: cde1 903c 9ce8 133e d94c 2e3e 48be ccbd
00000020: 0a6a 1c3d 0299 3cbc 8830 ae3d ba12 0dbe
00000030: 3a6a 4a3d d74e 353d 313f 0f3e aba7 403d
00000040: ae0f 04be 0af7 623d 41aa a9bd 76aa 1fbd
00000050: 71b5 233e 7e78 b83e 01f8 e23e c352 1f3e
00000060: 89a4 33bd ad4f 283d 12b7 85be 1549 19bd
00000070: 902b 32bc 9d38 f23d 97af 68be 7972 383e
00000080: 2d3c eebd 3b1a 3f3c 81f4 8d3e b065 fa3d
00000090: 2290 d23d 2103 3f3d ff83 c8bd c4aa cdbb
000000a0: 5c76 743e 4bb2 4b3e 2d81 e53c f255 98be
000000b0: d429 3c3e 7659 cb3d c731 89be c2ca bd3b
000000c0: 8f9d 003c 1f98 42bd 2098 3bbe fd11 a23d
000000d0: 63d5 eabd 202a c83d 136e 1bbe c656 4bbd
000000e0: c212 03be 61b7 7cbe 350a 7ebe d52b 6abe
000000f0: 2b79 dcbc e902 333e 4e93 11bd 5efa 98be
00000100: 2268 d6bd 2f98 16be f4e7 203e c92b e63d
00000110: 625e f73d 33bf 2d3d b730 03be 40c2 533e
00000120: f679 fdbd 0487 9bbc e239 cebc 7275 38bd
00000130: dc36 1f3d 98a2 31be 4b86 b2bc edd8 d8bd
00000140: ba39 543e 4be7 2d3e 0479 543e f158 573e
00000150: 264d bb3c a16b 6a3e ad8f df3d fdbb c2bd
00000160: d734 023c ad1a 0ebe 4ff4 b8ba d2db 8ebd
00000170: 3744 103e ad9f 933e 9fc5 a33c fbc8 89be
00000180: 9695 51be 966d 493b 985e 23bd f2f2 c53d
00000190: 0c8d 4a3e 4810 ffbc b242 9abe f1c1 bcbc
000001a0: d5d4 36bd 2649 4dbe eb92 89bd 75a3 3e3d
000001b0: 168e 8dbe c819 a0bd 3464 44bd 4af8 d73d
000001c0: de37 0e3e 2b51 e7bd b092 dabb 9c43 49be
000001d0: 47d9 b5bd c985 353e 4868 2bbd ec3d 6d3d
000001e0: 1057 cf3d 38e6 3bbe fd95 7bbe 0982 0abd
000001f0: 34af a33d c54f e33d 35a9 623e a6af bf3c
00000200: 0ace eabd da65 93bd 742c 103e 149e 46bc
00000210: af92 c23d a2e7 653d ceee 57be 3274 fe3c
00000220: 5c49 14be 3a26 80bc 6b86 7bbd adcb 8a3d
00000230: b61f 8fbc d88c b9be 7663 00be cc8f 0b3e
00000240: c35f a2bd 4401 b1bc 2416 083e 6a6e 08bd
00000250: 8a8e 39be 12b0 8a3c a2d8 963d fdd3 70bd
00000260: 19df 9b3d 0ea3 41be eb41 df3d 0a33 aa3e
00000270: bb2b bb3d 8834 c13d 12eb e0bd 80f6 313d
00000280: 4c55 adbc 6783 9f3d 5ad1 933c eb4c b03a
00000290: 8d6c 35be 46c5 b3bd d280 48be 0644 aabe
000002a0: a97b 1ebe c54e 9f3e 5033 683d 739a 2bbe
000002b0: f1c6 16be 3a2d 16bc 776b 17be 4b01 913b
000002c0: 60fe 3e3d 5d60 36be e9b9 4b3c e997 683d
000002d0: 59a1 5e3d ea0b 303d f064 3a3e aea4 c23c
000002e0: 581c 21bc 77d3 6d3d 7e9f 5fbe 0a63 c53d
000002f0: cb6a 32bd 0b65 e43d f313 8ebd 9957 a93d
00000300: 25e0 0a3e 6986 313e 175c 883d a692 f73d
00000310: 0fd6 70bd e728 ffbc 62fe aebd 7ee7 e13d
00000320: 0c24 fdbd e674 293e f609 5b3e 5354 21bd
00000330: 1113 963c 5e70 f3bc f96d 103d cfe7 fc3d
00000340: c18f 3a3d a190 19be 2adb c9be 6ef1 b83c
00000350: 5b9c 963e 45df 2b3e 7553 b7bd 983c 213d
00000360: d563 f3bd 19cb 53bd a58c a0be 969a d5bd
00000370: 8380 e33d ce60 1e3e cfdf 0bbe 6654 3abe
00000380: 487c 66be b842 e93d b013 7ebe 2381 1b3e
00000390: 7ffb 303e efdb aebd 7c2c 0abe 7481 11bb
000003a0: ee8f 843d 33ad 7d3e ae9e c43d 5c0e 65bd
000003b0: ba96 773d 933d 143d 4002 e4bb c10f 8d3e
000003c0: a79f 36bd 4369 44bd a851 71bc e9f5 31bd
000003d0: b99c c3bd 7a04 01be 5eac ed3d d59a 713e
000003e0: 5f4b 383c cc87 7abe a7c0 13bc 4325 78be
000003f0: 1de6 3bbe ee46 ffbc 7bf6 8a3d 27e5 f8bd

EncList.2.conv.bias f4 [16]
0.029186983 0.06477698 -0.18969011 -0.072860904 0.0872 0.14380665 -0.0639171 0.18981585
-0.050106723 -0.1116598 -0.12503873 0.0013848898 -0.056771055 0.086945005 -0.110275686 -0.044131715
00000000: 8a19 ef3c cba9 843d 203e 42be 1938 95bd
00000010: ea95 b23d 0d42 133e f8e6 82bd 165f 423e
00000020: b53c 4dbd e5ad e4bd 270a 00be 3185 b53a
00000030: c488 68bd 3910 b23d 38d8 e1bd 75c3 34bd

EncList.2.bn.weight f4 [16]
1.00079 0.8590018 0.9005762 0.8820406 0.8983679 0.7887012 0.96119326 0.8351495
0.86045486 0.911964 0.83601135 0.96944535 0.836636 0.964201 0.932408 0.84439397
00000000: e319 803f 8be7 5b3f 298c 663f 6acd 613f
00000010: 70fb 653f 52e8 493f c310 763f 5ccc 553f
00000020: c546 5c3f 7976 693f d704 563f 922d 783f
00000030: c72d 563f e0d5 763f 4ab2 6e3f 342a 583f

EncList.2.bn.bias f4 [16]
-0.011356667 0.15182507 0.0059696296 -0.12443683 0.09458076 0.08231521 0.2800271 -0.18544655
-0.11323554 -0.058038015 0.2305053 0.018289411 -0.14202245 0.03663846 0.23930854 -0.03672424
00000000: 5011 3abc 0878 1b3e e29c c33b bdd8 febd
00000010: 8fb3 c13d e094 a83d b65f 8f3e b3e5 3dbe
00000020: 09e8 e7bd 45b9 6dbd 9509 6c3e add3 953c
00000030: 556e 11be 3612 163d 4c0d 753e 286c 16bd

EncList.2.bn.running_mean f4 [16]
0.50253683 0.17876908 -0.59046423 0.028955787 -0.15766089 -0.07902911 -0.19511679 0.22403517
0.1965103 -0.1320367 -0.5859607 0.19212905 0.045655366 0.19030441 -0.13954306 0.0530222
00000000: 41a6 003f 3e0f 373e aa28 17bf b034 ed3c
00000010: db71 21be 04da a1bd b2cc 47be 7a69 653e
00000020: ff39 493e a134 07be 8501 16bf 7abd 443e
00000030: 1f01 3b3d 29df 423e 60e4 0ebe ce2d 593d

EncList.2.bn.running_var f4 [16]
0.38025346 0.20840907 0.49416593 0.1274213 0.32444465 0.060580466 0.29851863 0.065811
0.05474413 0.33851144 0.2170766 0.109382704 0.06995582 0.094811164 0.32844207 0.039189436
00000000: 95b0 c23e 3069 553e 5103 fd3e bb7a 023e
00000010: 9c1d a63e 3923 783d 6fd7 983e ebc7 863d
00000020: 613b 603d 5f51 ad3e 5449 5e3e 0a04 e03d
00000030: ff44 8f3d 5b2c c23d 8f29 a83e 1a85 203d

EncList.3.conv.weight f4 [32, 16, 3]
0.06661696 0.024875209 0.03409096 -0.0028194457 0.010313429 0.07044986 -0.15732051 0.13111593
0.14836067 -0.11746415 -0.038993906 0.00245182 0.066530965 -0.06356876 0.1097506 -0.074843414
-0.045749627 -0.08427007 0.066468425 0.082840286 -0.057127293 0.113794 -0.1446739 0.136357
-0.046139818 0.044308603 -0.03951139 -0.062811084 -0.07654771 0.056876827 -0.1597796 0.03131806
-0.12975635 -0.10845582 0.07716395 0.20796311 -0.039223887 0.068678185 0.089517936 0.06146787
0.232471 0.14233778 0.053951856 -0.014087894 0.13002244 0.09317536 0.096272826 0.18794116
-0.05301559 0.19960439 -0.036506724 0.097106576 -0.1647881 -0.15078278 0.028949833 0.021092651
-0.040599678 -0.048336025 -0.14552628 0.03816426 -0.09517019 0.09336707 0.12053227 0.09482892
0.024088703 -0.16543086 0.034336604 -0.15181768 0.19806813 -0.03769585 0.09755785 -0.07555542
-0.010328766 0.061586738 -0.2276552 -0.058482133 -0.0019370872 -0.11862316 -0.16431615 0.008233175
0.14343695 -0.08396876 0.10712294 -0.08328422 -0.03732381 0.0050844625 -0.11258022 0.020808587
0.25473 -0.08197959 -0.19885306 0.02047343 0.026251927 0.011003317 0.08638905 -0.021976912
-0.14413866 0.049096763 0.04816088 0.09516672 -0.18630852 -0.02433206 0.10124155 -0.04965261
0.06508822 0.027942477 -0.11097818 -0.0018199711 -0.040116485 -0.028029462 0.087441154 -0.029935794
-0.07105721 -0.25501123 0.1291281 -0.050665796 -0.13822861 0.10465391 -0.008787937 -0.079429306
0.30258495 -0.0767982 -0.10158653 -0.071260825 -0.104615964 -0.14230695 -0.11728073 0.120460115
-0.00434578 0.10972986 0.010953601 0.121722795 0.19434758 -0.0075016273 -0.041058194 0.080374494
-0.12334234 -0.06742947 0.04549273 0.024265846 -0.18213975 -0.044817206 -0.14278385 -0.04579952
0.00870637 -0.009496272 0.05358405 0.02376672 -0.096609 -0.058507368 0.044954687 0.08244053
0.0415079 -0.2002448 -0.08761831 -0.16841997 0.056054737 0.009856581 0.019989755 -0.3596978
-0.030844113 -0.05991749 -0.07862563 0.10388896 -0.09794253 -0.096915595 -0.18378638 -0.024759598
0.07160235 -0.16686282 -0.029215267 -0.07331412 0.023973417 0.07283345 -0.040846124 -0.07429517
0.002124229 -0.15223397 0.058816444 -0.016776865 -0.14030851 -0.27281564 -0.15115458 -0.18526012
0.07128022 -0.045372438 0.2158918 -0.14589779 -0.011757571 -0.12845877 -0.17862278 0.0020777849
-0.2133889 -0.22511955 -0.11152603 -0.016841039 0.007494361 0.12330508 0.030257976 -0.06705074
-0.09397657 0.046241414 0.1497154 -0.1086164 -0.15856332 0.011652945 -0.09686395 0.28368312
-0.007115153 0.08574704 0.099120334 0.051056687 -0.06836535 -0.034355093 0.029664552 0.01915319
0.1313872 -0.070876494 -0.07902983 -0.046121333 -0.14177358 0.10264751 0.18044797 0.033755112
-0.18914236 -0.19662262 -0.06308719 0.14839983 -0.041140955 -0.16037332 -0.097510956 -0.02139672
0.11185551 -0.1320583 -0.019819092 -0.10447494 0.04658521 0.030291216 -0.19343062 -0.071530096
-0.11335148 -0.11859575 -0.24926892 -0.29319113 0.046255793 -0.08441508 0.13856874 -0.120436944
0.047641475 -0.010536925 0.0031976236 -0.029717786 -0.14737295 -0.10390547 -0.2878709 -0.05671404
00000000: 796e 883d 18c7 cb3c f6a2 0b3d 73c6 38bb
00000010: a8f9 283c 0448 903d a118 21be 4143 063e
00000020: dceb 173e 0b91 f0bd 13b8 1fbd b7ae 203b
00000030: 6341 883d 5730 82bd ecc4 e03d 8147 99bd
00000040: f663 3bbd c995 acbd 9920 883d 2ba8 a93d
00000050: 4ffe 69bd d40c e93d 6525 14be 2ba1 0b3e
00000060: 1bfd 3cbd f07c 353d b2d6 21bd 19a3 80bd
00000070: 0cc5 9cbd adf7 683d 439d 23be 5e47 003d
00000080: d9de 04be 161e debd 2208 9e3d 48f4 543e
00000090: 3aa9 20bd 26a7 8c3d 2e55 b73d bcc5 7b3d
000000a0: e10c 6e3e ffc0 113e 9ffc 5c3d e9d0 66bc
000000b0: 9a24 053e b9d2 be3d b02a c53d a673 403e
000000c0: e026 59bd 1865 4c3e 1388 15bd d0df c63d
000000d0: 36be 28be cd66 1abe 3328 ed3c 7fca ac3c
000000e0: d94b 26bd fffb 45bd d704 15be 2152 1c3d
000000f0: 97e8 c2bd 3c37 bf3d 9fd9 f63d aa35 c23d
00000100: ac55 c53c b566 29be 8aa4 0c3d 1876 1bbe
00000110: 5fd2 4a3e f766 1abd 69cc c73d cdbc 9abd
00000120: fc39 29bc 6042 7c3d 721e 69be f68a 6fbd
00000130: dce5 fdba b3f0 f2bd 7e42 28be 70e4 063c
00000140: 23e1 123e d0f7 abbd 4663 db3d eb90 aabd
00000150: dae0 18bd 909b a63b 7590 e6bd c576 aa3c
00000160: f86b 823e eae4 a7bd 23a0 4bbe e5b7 a73c
00000170: 480e d73c 4247 343c beec b03d ed08 b4bc
00000180: 1699 13be b019 493d 5844 453d c5e6 c23d
00000190: a9c7 3ebe 0754 c7bc bb57 cf3d 8960 4bbd
000001a0: f94c 853d 9fe7 e43c 8748 e3bd 198c eeba
000001b0: 2f51 24bd 0b9e e5bc 5914 b33d e93b f5bc
000001c0: 7186 91bd d590 82be 283a 043e f086 4fbd
000001d0: cd8b 0dbe ca54 d63d 48fb 0fbc d5ab a2bd
000001e0: 6aec 9a3e 6048 9dbd 990c d0bd 32f1 91bd
000001f0: e540 d6bd eab8 11be e130 f0bd cbb3 f63d
00000200: 0b67 8ebb 0dba e03d bc76 333c cd49 f93d
00000210: 0d03 473e 36d0 f5bb a32c 28bd 629b a43d
00000220: e99a fcbd 7618 8abd 9656 3a3d 2bc9 c63c
00000230: d882 3abe 3f92 37bd ee35 12be 4798 3bbd
00000240: 2aa5 0e3c 4096 1bbc f37a 5b3d 6db2 c23c
00000250: f0da c5bd 6ca5 6fbd 6822 383d 95d6 a83d
00000260: 3004 2a3d f90c 4dbe 3a71 b3bd 4976 2cbe
00000270: a799 653d 7f7d 213c 8ec1 a33c 4f2a b8be
00000280: cbac fcbc 0b6c 75bd 7906 a1bd bcc3 d43d
00000290: 1896 c8bd af7b c6bd 7f32 3cbe a4d4 cabc
000002a0: 41a4 923d 16de 2abe db54 efbc b725 96bd
000002b0: e663 c43c b429 953d 444e 27bd 1128 98bd
000002c0: a636 0b3b 39e3 1bbe 83e9 703d a36f 89bc
000002d0: 09ad 0fbe 7eae 8bbe 44c8 1abe d4b4 3dbe
000002e0: 5dfb 913d 73d8 39bd bd12 5d3e 3b66 15be
000002f0: d4a2 40bc b28a 03be e4e8 36be 722b 083b
00000300: 9f82 5abe bd85 66be c267 e4bd 38f6 89bc
00000310: 4293 f53b 6087 fc3d 93df f73c e651 89bd
00000320: ca76 c0bd a367 3d3d fe4e 193e 4672 debd
00000330: 6c5e 22be feeb 3e3c 9b60 c6bd ea3e 913e
00000340: 3b26 e9bb 259c af3d 9aff ca3d d120 513d
00000350: 2203 8cbd edb7 0cbd 1303 f33c 27e7 9c3c
00000360: 5e8a 063e b227 91bd 64da a1bd b9e9 3cbd
00000370: 182d 11be dc38 d23d 5ac7 383e cd42 0a3d
00000380: 89ae 41be 7157 49be db33 81bd 20f6 173e
00000390: 6b83 28bd e738 24be d3b3 c7bd 2d48 afbc
000003a0: 8014 e53d 4a3a 07be a65b a2bc f5f6 d5bd
000003b0: 22d0 3e3d 4925 f83c ad12 46be 5f7e 92bd
000003c0: d224 e8bd 54e2 f2bd 5a40 7fbe 261d 96be
000003d0: b776 3d3d d0e1 acbd f7e4 0d3e a5a7 f6bd
000003e0: b523 433d 11a3 2cbc 398f 513b b772 f3bc
000003f0: efe8 16be 64cc d4bd d163 93be fb4c 68bd

EncList.3.conv.bias f4 [32]
-0.092268206 -0.054370433 0.0007296143 -0.0032536369 0.10477253 -0.13088804 0.01290488 -0.046610493
0.015960325 0.14862946 0.0070593413 -0.031122373 -0.047353514 -0.14628233 -0.1268504 0.064437106
-0.08926959 0.0831466 -0.04036345 0.05697264 0.10067168 0.017647121 0.04978 0.120934814
-0.044129048 0.10815975 -0.11769212 0.12851979 -0.04543465 -0.008943242 0.08716899 0.0067957267
00000000: 1df7 bcbd 88b3 5ebd 9643 3f3a f83a 55bb
00000010: fb92 d63d 8407 06be fd6e 533c a5ea 3ebd
00000020: 3abf 823c 5232 183e 0c52 e73b 59f4 febc
00000030: c2f5 41bd 09cb 15be 12e5 01be 9af7 833d
00000040: fad2 b6bd c448 aa3d 2554 25bd 255c 693d
00000050: f42c ce3d b290 903c 1de6 4b3d acac f73d
00000060: a9c0 34bd dc82 dd3d 9108 f1bd b19a 033e
00000070: af19 3abd ad86 12bc a885 b23d b0ae de3b

EncList.3.bn.weight f4 [32]
0.86862534 0.9852814 0.98268676 1.0549055 0.9947799 1.0175742 0.95589733 1.0128626
1.0040333 0.94118947 0.9145739 0.9555875 0.8009929 0.95786124 1.0748028 0.86259097
0.933308 0.8820196 1.0685698 1.0413847 0.9621087 1.0195433 0.9541844 0.95939296
1.0516009 1.0784496 0.9628431 0.9761411 0.96057516 1.0019935 1.0231984 1.134438
00000000: 3b5e 5e3f 673b 7c3f 5c91 7b3f 2507 873f
00000010: e5a9 7e3f df3f 823f b0b5 743f 7ba5 813f
00000020: 2a84 803f cbf1 703f 8421 6a3f 62a1 743f
00000030: df0d 4d3f 6536 753f 2393 893f c3d2 5c3f
00000040: 46ed 6e3f 09cc 613f e5c6 883f 184c 853f
00000050: c14c 763f 6580 823f 6e45 743f c79a 753f
00000060: dc9a 863f a30a 8a3f e37c 763f 62e4 793f
00000070: 41e8 753f 5341 803f 2af8 823f 4435 913f

EncList.3.bn.bias f4 [32]
-0.21395716 0.09294263 0.05808761 0.118315816 0.15666775 0.11348146 -0.136263 0.04526686
0.14258096 -0.2994471 0.1827833 -0.11398205 -0.1667887 0.14983265 0.06832792 -0.18243808
-0.10669678 -0.11144652 0.09271453 0.039409537 0.047216915 0.12926695 0.096193545 0.12765235
0.07289253 0.065575615 0.11382163 -0.13441376 0.104374126 -0.0073495787 0.22702374 0.2300944
00000000: 9617 5bbe b558 be3d 46ed 6d3d 904f f23d
00000010: 836d 203e f868 e83d 8788 0bbe be69 393d
00000020: be00 123e 2151 99be 8c2b 3b3e 6c6f e9bd
00000030: a8ca 2abe bb6d 193e 82ef 8b3d 0cd1 3abe
00000040: d783 dabd 133e e4bd 1ee1 bd3d e56b 213d
00000050: 8666 413d 8e5e 043e 1f01 c53d 4cb7 023e
00000060: ae48 953d 824c 863d 511b e93d c3a3 09be
00000070: 1ac2 d53d bcd4 f0bb e978 683e de9d 6b3e

EncList.3.bn.running_mean f4 [32]
0.31763327 -0.20233603 -0.28912872 -0.61997575 -0.24659233 -0.995148 -0.0102963 -0.5940508
-0.008326318 -0.012269174 -0.37361014 0.20157605 0.13997385 -0.50216573 -0.26308477 0.3447582
-0.09547751 -0.17957506 -0.49028787 0.03890731 0.4413789 -0.18696845 0.19676203 -0.23548682
-0.801185 -0.17928481 -0.25471017 -0.03038994 -0.63860774 -0.14790352 0.21950544 -0.52638423
00000000: d4a0 a23e 2d31 4fbe ae08 94be bbb6 1ebf
00000010: b382 7cbe 05c2 7ebf d0b1 28bc b713 18bf
00000020: 1c6b 08bc a504 49bc d449 bfbe f469 4e3e
00000030: 4e55 0f3e ef8d 00bf 0cb3 86be 2684 b03e
00000040: b689 c3bd 86e2 37be 0307 fbbe 465d 1f3d
00000050: 6afc e13e a874 3fbe fc7b 493e 7523 71be
00000060: 761a 4dbf 7096 37be 5f69 82be 53f4 f8bc
00000070: cc7b 23bf 0574 17be 09c6 603e 1ec1 06bf

EncList.3.bn.running_var f4 [32]
0.34321377 0.22139032 0.21936034 0.50450575 0.61661977 0.81374025 0.16164356 0.32639232
0.14087935 0.19732313 0.17435594 0.28523412 0.3446458 0.11398008 0.14774284 0.2573177
0.4262489 0.1508222 0.22980739 0.19589885 0.11811447 0.32004523 0.110193156 0.15500146
0.39936063 0.36948195 0.7433809 0.39889842 0.4524846 0.3696171 0.26089734 0.71773773
00000000: b7b9 af3e 25b4 623e ff9f 603e 4a27 013f
00000010: cbda 1d3f 4851 503f e485 253e e51c a73e
00000020: ad42 103e 130f 4a3e 5d8a 323e 350a 923e
00000030: 6a75 b03e 636e e93d e649 173e 25bf 833e
00000040: 4c3d da3e 2371 1a3e a152 6b3e b599 483e
00000050: 00e6 f13d f8dc a33e f3ac e13d b4b8 1e3e
00000060: ff78 cc3e bd2c bd3e 364e 3e3f 6a3c cc3e
00000070: 10ac e73e 743e bd3e 5694 853e a9bd 373f

DecList.0.conv.weight f4 [32, 16, 4]
-0.00822 0.03484615 0.19472134 -0.043677725 -0.091014996 0.010182407 0.0067300405 0.1963338
-0.08656176 0.12691578 -0.016927319 -0.097587936 0.07706956 -0.024482619 -0.010902691 0.025367208
0.097646095 -0.006328659 0.08154525 -0.039344188 -0.021156806 -0.21312141 -0.1387604 -0.18339056
-0.20237662 -0.003233461 0.02573076 0.0021773123 -0.0334302 -0.005600756 -0.05180309 -0.012883915
0.04583572 0.04657868 -0.11410072 -0.001260318 -0.017011233 -0.002294319 0.09487042 0.066471145
0.11862822 -0.15726912 0.031933222 0.16386141 0.05557503 -0.11064033 -0.086796135 -0.1837116
0.0037034845 -0.054380536 0.22545536 0.15989311 -0.0025865259 -0.018281173 0.11577491 -0.065824784
0.03046835 -0.105545536 0.11792131 -0.038344424 0.0015489282 0.096982494 -0.041665107 -0.06817342
0.11868107 0.11519094 0.096486405 0.033645738 0.043980617 -0.15367071 -0.073700614 -0.120446496
-0.14015034 0.12570763 0.022221522 -0.031465534 -0.031883325 -0.13539234 -0.17984582 -0.061614092
-0.08341612 -0.050932713 -0.04150472 0.016892519 -0.032583542 -0.09216781 -0.050568853 0.11694139
-0.27436385 -0.13274583 -0.14204775 -0.27015996 -0.010105604 -0.08476765 -0.04181218 -0.029119652
-0.020579817 0.0020853167 0.104008764 -0.11100671 0.14243518 -0.0037899946 0.10109323 -0.00376177
0.019484008 0.015549156 -0.15689962 -0.108874194 -0.053266488 -0.13773064 0.004653794 -0.056459688
0.010876133 -0.12763058 0.06295353 0.0040784087 -0.042646326 0.041883547 0.10479718 0.08942829
0.08884319 -0.03984885 0.07610873 -0.1311815 0.07091499 0.020459784 0.11771784 0.08297034
-0.04788631 0.11190779 0.12586762 -0.1282852 0.17062135 -0.10410811 0.024184184 -0.17259647
0.12780255 0.010651087 0.008052819 0.1765405 -0.10316409 0.051340744 -0.09698835 -0.16835426
0.23008321 -0.06374906 -0.16886958 -0.10113184 -0.19761622 0.0411969 0.07990929 -0.12878616
-0.018289125 0.07060274 -0.044244464 -0.02239886 0.056294546 0.17104249 0.09128336 0.033339486
-0.046037298 0.08406339 0.09495196 0.08562209 0.01778634 0.08762376 0.096956074 0.05665481
-0.07136555 -0.040690955 -0.15453938 0.0237041 -0.10229003 -0.07668522 -0.0855919 -0.23681335
-0.22776422 -0.07075455 0.008241166 -0.084798224 0.18706381 0.007885429 0.021533394 0.09829643
-0.14675651 -0.09569162 0.015891602 0.13913237 0.2990537 0.05257563 0.007943473 0.118096694
0.19754279 0.063525856 0.12661242 0.099961795 -0.1397747 -0.03700958 0.10550142 0.01531194
-0.017472629 -0.05731748 -0.12419344 0.06214952 -0.07038744 0.059214868 0.023645483 -0.002107734
-0.13778386 -0.06849195 -0.20238231 -0.18540065 0.2973525 -0.01853982 -0.051295605 -0.04706684
-0.02394448 -0.08164222 -0.11928311 -0.07312476 -0.09175004 0.107284024 -0.036120515 -0.08729351
-0.19247319 -0.20316997 -0.045798484 -0.09967522 0.14018056 -0.061776392 0.040793557 0.062176824
-0.013760828 -0.27268 -0.082193 -0.029725363 -0.11564196 0.14698146 0.08303585 0.024098838
0.07879893 0.04227532 -0.03324573 -0.064070575 -0.13571972 0.15571839 0.13831683 -0.0773537
-0.10893701 0.093828924 -0.018027343 -0.1666832 -0.07326088 -0.1332244 0.09897331 0.11024056
00000000: 2ead 06bc d6ba 0e3d 0865 473e 6ae7 32bd
00000010: 1266 babd 1cd4 263c ac87 dc3b ba0b 493e
00000020: 4b47 b1bd 36f6 013e 29ab 8abc 2fdc c7bd
00000030: a5d6 9d3d c68f c8bc 33a1 32bc e4ce cf3c
00000040: adfa c73d a460 cfbb 3201 a73d 5f27 21bd
00000050: 0a51 adbc 803c 5abe 3517 0ebe bcca 3bbe
00000060: d13b 4fbe 79e8 53bb 51c9 d23c 3db1 0e3b
00000070: 1bee 08bd 8c86 b7bb 7a2f 54bd 0e17 53bc
00000080: 3cbe 3b3d 49c9 3e3d a3ad e9bd 4131 a5ba
00000090: 245b 8bbc 495c 16bb 6c4b c23d 0622 883d
000000a0: 5af3 f23d 280b 21be 69cc 023d 49cb 273e
000000b0: a5a2 633d 6697 e2bd 2cc2 b1bd e51e 3cbe
000000c0: 29b6 723b 20be 5ebd c5dd 663e 05bb 233e
000000d0: b482 29bb 66c2 95bc 651b ed3d 25cf 86bd
000000e0: c398 f93c 4228 d8bd ba80 f13d 0b0f 1dbd
000000f0: 6805 cb3a c29e c63d 08a9 2abd 829e 8bbd
00000100: 100f f33d 3ae9 eb3d aa9a c53d 1dd0 093d
00000110: 0525 343d db5b 1dbe 59f0 96bd a7ac f6bd
00000120: 9283 0fbe 80b9 003e e909 b63c 01e2 00bd
00000130: 1798 02bd 4aa4 0abe 8129 38be 0f5f 7cbd
00000140: 12d6 aabd d29e 50bd da00 2abd 2e62 8a3c
00000150: 5276 05bd 7ac2 bcbd 4921 4fbd f87e ef3d
00000160: 6b79 8cbe 86ee 07be f774 11be 6852 8abe
00000170: fa91 25bc a99a adbd 4043 2bbd 568c eebc
00000180: 0197 a8bc cfa9 083b 8c02 d53d 7c57 e3bd
00000190: 87da 113e 8f61 78bb f809 cf3d 0788 76bb
000001a0: ed9c 9f3c e3c1 7e3c 4baa 20be 6ff9 debd
000001b0: f62d 5abd 4309 0dbe db7e 983b 4642 67bd
000001c0: cf31 323c 97b1 02be c8ed 803d 2ca4 853b
000001d0: eaad 2ebd 158e 2b3d e79f d63d 2e26 b73d
000001e0: 6bf3 b53d 8c38 23bd e5de 9b3d 7154 06be
000001f0: e13b 913d 479b a73c 0d16 f13d 5bec a93d
00000200: 6f24 44bd e92f e53d 71e3 003e 325d 03be
00000210: 5db7 2e3e a236 d5bd e91d c63c 21bd 30be
00000220: acde 023e e681 2e3c f9ef 033c 08c7 343e
00000230: b247 d3bd ac4a 523d d4a1 c6bd 0f65 2cbe
00000240: ef9a 6b3e de8e 82bd 26ec 2cbe 361e cfbd
00000250: e85b 4abe 15be 283d 7ba7 a33d 85e0 03be
00000260: 13d3 95bc 2b98 903d af39 35bd d07d b7bc
00000270: 1c95 663d c325 2f3e c5f2 ba3d fc8e 083d
00000280: 9b91 3cbd 6d29 ac3d 2c76 c23d a25a af3d
00000290: a9b4 913c 1674 b33d e890 c63d e00e 683d
000002a0: 1a28 92bd 8fab 26bd 923f 1ebe 1a2f c23c
000002b0: 6f7d d1bd 240d 9dbd ce4a afbd 337f 72be
000002c0: 063b 69be c3e7 90bd f505 073c b1aa adbd
000002d0: a88d 3f3e e331 013c cd66 b03c a44f c93d
000002e0: 5747 16be f8f9 c3bd 1b2f 823c b778 0e3e
000002f0: 911d 993e 8b59 573d 5725 023c aedc f13d
00000300: a848 4a3e d819 823d b0a6 013e c5b8 cc3d
00000310: 1921 0fbe 5b97 17bd 2111 d83d eede 7a3c
00000320: c222 8fbc bcc5 6abd 2159 febd 7f90 7e3d
00000330: 4a27 90bd 4a8b 723d 2cb4 c13c e921 0abb
00000340: 3617 0dbe 8245 8cbd 4f3d 4fbe abd9 3dbe
00000350: 963e 983e d2e0 97bc 571b 52bd 29c9 40bd
00000360: 3727 c4bc 0934 a7bd b44a f4bd 6fc2 95bd
00000370: 72e7 bbbd bab7 db3d 1bf3 13bd f1c6 b2bd
00000380: b117 45be ca0b 50be 3197 3bbd 8622 ccbd
00000390: 7e8b 0f3e 3e09 7dbd 2517 273d 20ad 7e3d
000003a0: 1975 61bc b79c 8bbe ce54 a8bd 9b82 f3bc
000003b0: b1d5 ecbd 4f82 163e b30e aa3d ed6a c53c
000003c0: 5561 a13d e328 2d3d ad2c 08bd 6f37 83bd
000003d0: 1cfa 0abe a474 1f3e eda2 0d3e 9e6b 9ebd
000003e0: 5e1a dfbd 6129 c03d 14ae 93bc 00af 2abe
000003f0: cd09 96bd fa6b 08be 85b2 ca3d cdc5 e13d

DecList.0.conv.bias f4 [16]
0.05893619 0.012552937 0.05414989 0.079192445 -0.09777034 0.077278614 -0.019606402 -0.030923126
0.02539226 0.10122704 -0.06791178 -0.084693074 0.078040384 -0.059039958 0.041901723 -0.01820364
00000000: 1367 713d d5aa 4d3c 46cc 5d3d a62f a23d
00000010: d13b c8bd 4044 9e3d 9b9d a0bc 7f52 fdbc
00000020: 6e03 d03c 1f50 cf3d 5515 8bbd 9073 adbd
00000030: a3d3 9f3d e2d3 71bd 24a1 2b3d cd1f 95bc

DecList.0.bn.weight f4 [16]
1.0488656 1.1287625 1.1293559 1.0575914 1.2605379 1.4382466 1.0810106 1.175634
1.3526027 1.3946742 1.2556306 1.2993915 1.0927372 1.2481076 1.0973524 1.122628
00000000: 3a41 863f 4a7b 903f bc8e 903f 285f 873f
00000010: 4e59 a13f 7718 b83f 8e5e 8a3f 2d7b 963f
00000020: 1622 ad3f af84 b23f 81b8 a03f 7652 a63f
00000030: d0de 8b3f fdc1 9f3f 0b76 8c3f 46b2 8f3f

DecList.0.bn.bias f4 [16]
-0.34003255 -0.07198892 -0.36879355 0.0043970407 -0.32764167 0.37275258 0.5872842 0.14231117
0.02462125 0.25812876 0.03587702 -0.21292889 -0.6196927 -0.12785633 -0.01717601 -0.18607163
00000000: bf18 aebe ed6e 93bd 82d2 bcbe 0d15 903b
00000010: a6c0 a7be 6dd9 be3e 4258 163f 05ba 113e
00000020: 81b2 c93c 7429 843e c8f3 123d 080a 5abe
00000030: 2ea4 1ebf c5ec 02be b4b4 8cbc 9089 3ebe

DecList.0.bn.running_mean f4 [16]
-0.13058534 -0.36123452 -0.40079418 0.32996136 -0.95911545 -0.1400471 -0.54626226 -0.33061156
-0.6461398 -0.1082094 -0.7493498 -0.8891081 -0.71089244 -0.0954872 -0.03198863 -0.7132759
00000000: 2ab8 05be bbf3 b8be e534 cdbe b2f0 a83e
00000010: 9788 75bf 8268 0fbe d8d7 0bbf eb45 a9be
00000020: 6b69 25bf e49c ddbd 63d5 3fbf 979c 63bf
00000030: 0cfd 35bf cb8e c3bd 8206 03bd 4099 36bf

DecList.0.bn.running_var f4 [16]
0.6718848 0.9348328 0.55173016 0.50432324 0.83654726 0.8870361 0.8892045 0.9618245
0.7760142 0.977683 0.69542104 1.0954878 0.91719466 0.7214083 0.9560096 0.53484046
00000000: a400 2c3f 3451 6f3f 303e 0d3f 541b 013f
00000010: f627 563f cc14 633f e8a2 633f 213a 763f
00000020: dea8 463f 6f49 7a3f 1d07 323f f238 8c3f
00000030: 45cd 6a3f 37ae 383f 0cbd 743f 4eeb 083f

DecList.1.conv.weight f4 [16, 8, 4]
0.09325095 0.0032780876 0.07822569 0.16523468 -0.059505668 -0.07101656 -0.09597841 -0.10904959
-0.015988601 0.10060576 0.084085286 0.13331322 -0.08643591 -0.1326554 -0.06349776 0.013217385
0.048604477 0.11200344 -0.022214571 -0.0062025916 -0.0013966901 0.036586475 -0.042265408 0.02374893
-0.004837831 -0.0072500654 0.03821243 -0.043389734 -0.05916696 0.03908176 0.040534776 0.18405913
0.09019864 0.13948093 0.101725794 0.06076851 -0.05835678 -0.064804144 0.06304127 0.0027686206
0.008515635 0.16829577 -0.008977699 -0.016521392 -0.18374239 -0.04590806 0.08038031 -0.11537349
-0.20544232 -0.4549766 -0.21179976 0.043226294 0.08393952 0.2189059 0.08586345 -0.054788075
0.016758395 -0.21147847 -0.04779305 -0.06947854 -0.12527895 -0.08411539 -0.046908226 -0.041633204
-0.15150802 -0.13284063 -0.06632258 -0.20668808 -0.07935228 0.07418609 -0.061698068 -0.13498446
0.015868017 -0.048351727 0.036545396 -0.0037074417 -0.034762308 -0.094228804 0.0435088 -0.12708944
-0.08965858 0.18312323 -0.1470767 -0.27339432 -0.162257 -0.14844686 -0.20638715 -0.14505258
0.05707254 -0.023099415 0.043482684 -0.14121985 0.065074876 0.15406694 0.25130582 0.053774405
0.0128713 -0.012929578 0.083637685 0.06279817 -0.042505268 -0.0068790214 -0.14105158 -0.0716613
-0.0102782985 0.09490111 0.15492392 -0.05163791 -0.07791438 -0.21430476 -0.110343486 -0.046344608
-0.17325844 0.024363065 0.0344831 -0.047948785 0.004426984 0.15686718 0.21216133 0.1304494
-0.13381727 -0.03408894 -0.075742505 -0.12100577 -0.05316184 -0.009621202 0.11110947 0.08383932
0.26379323 0.26571244 0.06744798 0.028448362 -0.22683987 -0.17768966 -0.08558327 -0.12763442
0.16023397 0.18127875 0.10139007 -0.011294543 0.022983905 0.024165113 -0.11386167 -0.11964898
-0.0612318 -0.017735908 0.009976347 0.0313303 0.13393253 0.17543516 0.15030941 -0.04966194
0.04023222 0.13388096 0.046516787 -0.032751124 0.10000443 0.2709912 -0.021165263 -0.030575268
0.051151086 0.021014825 0.024142489 -0.030076103 0.02630065 -0.054636512 0.027290165 -0.13657457
0.08642908 0.059351306 -0.0047784997 0.2038992 -0.12190596 0.04170207 0.004187401 0.176983
-0.056244258 0.12970178 0.0738906 0.0016789094 -0.1152017 -0.09868734 -0.040902216 -0.11794966
0.020263163 0.0074818144 -0.026654964 0.118731506 0.23506013 0.102718204 0.19370829 0.040554922
0.047404554 0.13278478 -0.07487343 -0.19876553 -0.14582784 0.005357788 -0.29545942 -0.12674433
-0.040659387 -0.05025499 0.08241747 0.05880896 -0.14963916 -0.08236696 -0.31950426 -0.24153775
-0.08123508 -0.22882313 0.107247084 -0.06280615 -0.33488965 -0.105838664 0.059599306 -0.08762954
0.25780722 0.053332157 -0.12710698 0.20512502 -0.11554894 0.003169528 0.061782107 0.016650993
-0.13412169 -0.13585617 0.015329843 -0.07891764 0.05397211 0.1251688 0.12877919 0.065373205
-0.17788258 0.010324003 0.0088058645 -0.10541479 0.020038852 0.06799261 -0.017459776 0.27188328
0.11071401 0.16656336 0.17525506 -0.06641606 0.0142463725 0.040082224 0.11109041 0.032335326
-0.036654018 0.19860454 0.060162332 0.30060792 0.08782584 -0.0013332438 0.12365064 -0.042157397
00000000: 5bfa be3d 2fd5 563b ca34 a03d 4833 293e
00000010: 37bc 73bd 2171 91bd 5490 c4bd 6455 dfbd
00000020: 87fa 82bc 650a ce3d e834 ac3d 4383 083e
00000030: 4f05 b1bd d1d6 07be 1d0b 82bd bb8d 583c
00000040: 7d15 473d 0f62 e53d 55fb b5bc 1c3f cbbb
00000050: 2511 b7ba b3db 153d 7e1e 2dbd 1e8d c23c
00000060: ab86 9ebb f591 edbb a384 1c3d 6fb9 31bd
00000070: 0e59 72bd 3214 203d cb07 263d ff79 3c3e
00000080: 11ba b83d 17d4 0e3e 9d55 d03d 67e8 783d
00000090: 8507 6fbd 09b8 84bd c81b 813d bf71 353b
000000a0: 2985 0b3c ba55 2c3e 3317 13bc df57 87bc
000000b0: f726 3cbe 170a 3cbd 6f9e a43d f048 ecbd
000000c0: 795f 52be b1f2 e8be 09e2 58be 0e0e 313d
000000d0: 7ce8 ab3d de28 603e 2dd9 af3d 7669 60bd
000000e0: e748 893c d08d 58be a5c2 43bd c44a 8ebd
000000f0: 2049 00be b144 acbd d722 40bd 9487 2abd
00000100: eb24 1bbe 6007 08be 22d4 87bd 0aa6 53be
00000110: 7383 a2bd e0ee 973d 1db7 7cbd 5e39 0abe
00000120: a5fd 813c 760c 46bd a0b0 153d 8df8 72bb
00000130: ec62 0ebd 08fb c0bd 4936 323d bc23 02be
00000140: eb9e b7bd a884 3b3e 469b 16be 57fa 8bbe
00000150: b326 26be 7402 18be 2757 53be aa88 14be
00000160: e5c4 693d fc3a bdbc e61a 323d f09b 10be
00000170: fa45 853d b9c3 1d3e 28ab 803e 8d42 5c3d
00000180: 25e2 523c 95d6 53bc 3c4a ab3d 549c 803d
00000190: 011a 2ebd 6a69 e1bb d36f 10be 29c3 92bd
000001a0: 4f66 28bc 835b c23d 60a4 1e3e 4682 53bd
000001b0: 9391 9fbd b572 5bbe c4fb e1bd d8d3 3dbd
000001c0: a96a 31be 0d95 c73c 273e 0d3d f265 44bd
000001d0: 3c10 913b caa1 203e d240 593e 8794 053e
000001e0: 6507 09be d8a0 0bbd e31e 9bbd e0d1 f7bd
000001f0: 3bc0 59bd 3fa2 1dbc 5d8d e33d f3b3 ab3d
00000200: e80f 873e 760b 883e 2b22 8a3d 8a0c e93c
00000210: b648 68be 47f4 35be 4846 afbd 99b2 02be
00000220: 6014 243e 23a1 393e 99a5 cf3d bf0c 39bc
00000230: be48 bc3c eaf5 c53c 4f30 e9bd 860a f5bd
00000240: 32ce 7abd e54a 91bc d573 233c 3354 003d
00000250: 9c25 093e 46a5 333e b6ea 193e 526a 4bbd
00000260: 8aca 243d 1718 093e 6388 3e3d 0b26 06bd
00000270: 1fcf cc3d 5cbf 8a3e c662 adbc fc78 fabc
00000280: cd83 513d 4827 ac3c 78c6 c53c 2962 f6bc
00000290: 7674 d73c 89ca 5fbd a08f df3c 34da 0bbe
000002a0: bb01 b13d 5b1a 733d f694 9cbb f4ca 503e
000002b0: d5a9 f9bd cacf 2a3d 7736 893b 083b 353e
000002c0: 6160 66bd 8bd0 043e f453 973d da0e dc3a
000002d0: deee ebbd 971c cabd 1589 27bd 978f f1bd
000002e0: effe a53c 022a f53b 835b dabc 8129 f33d
000002f0: 9ab3 703e ec5d d23d 775b 463e eb1c 263d
00000300: 472b 423d bcf8 073e 3e57 99bd 3189 4bbe
00000310: e553 15be 6290 af3b 7546 97be 44c9 01be
00000320: 758a 26bd 2dd8 4dbd 7eca a83d aae1 703d
00000330: 023b 19be 02b0 a8bd 1096 a3be ac55 77be
00000340: 945e a6bd 9c50 6abe 5ca4 db3d 83a0 80bd
00000350: a876 abbe f1c1 d8bd 671e 743d 1e77 b3bd
00000360: 4fff 833e d272 5a3d 5528 02be 4b0c 523e
00000370: eca4 ecbd dbb7 4f3b 3c0f 7d3d aa67 883c
00000380: 3257 09be e11d 0bbe 062a 7b3c 929f a1bd
00000390: dc11 5d3d 402c 003e b1de 033e 63e2 853d
000003a0: da26 36be 0226 293c 7946 103c b6e3 d7bd
000003b0: 8528 a43c b63f 8b3d ce07 8fbc 4934 8b3e
000003c0: 07be e23d 968f 2a3e 1076 333e 2505 88bd
000003d0: 9e69 693c 422d 243d 5e83 e33d 0c72 043d
000003e0: 8622 16bd fd5e 4b3e c76c 763d 48e9 993e
000003f0: 09de b33d 3dc0 aeba 8c3c fd3d 3cad 2cbd

DecList.1.conv.bias f4 [8]
0.03377521 -0.11195435 0.036464415 -0.16879238 0.028457236 0.17720579 0.16442238 0.06672343
00000000: e057 0a3d 5248 e5bd b65b 153d e9d7 2cbe
00000010: 261f e93c 6f75 353e 575e 283e 4ba6 883d

DecList.1.bn.weight f4 [8]
1.2622852 1.2878702 1.1235082 1.2980465 1.2795814 1.1778637 1.2794462 1.3658329
00000000: 9092 a13f eed8 a43f 1ecf 8f3f 6326 a63f
00000010: 53c9 a33f 3dc4 963f e5c4 a33f 9dd3 ae3f

DecList.1.bn.bias f4 [8]
-0.0048709786 0.32302538 -0.18506579 0.30954403 -0.17413901 -0.053004123 -0.25040773 0.14665419
00000000: bb9c 9fbb 9563 a53e e381 3dbe 8e7c 9e3e
00000010: 7f51 32be da1a 59bd 7135 80be 842c 163e

DecList.1.bn.running_mean f4 [8]
0.058057975 -0.18369563 0.52360374 -0.41522235 -0.13367666 0.55171204 0.616646 0.25561094
00000000: 33ce 6d3d b51a 3cbe e50a 063f 0698 d4be
00000010: 89e2 08be 003d 0d3f 83dc 1d3f 70df 823e

DecList.1.bn.running_var f4 [8]
0.48814574 0.58465004 0.692309 0.6450703 0.703403 0.70616347 0.6988646 0.5957713
00000000: 3dee f93e a0ab 153f 2a3b 313f 5423 253f
00000010: 3812 343f 21c7 343f cae8 323f 7884 183f

DecList.2.conv.weight f4 [8, 4, 4]
-0.04902536 0.228134 -0.022276456 -0.07523249 -0.101118304 -0.042637754 -0.009787632 -0.21311481
0.158573 0.27252853 0.13171652 0.03752073 -0.23658274 0.05894366 -0.044428576 0.12789708
-0.0099446075 -0.08217605 -0.031421266 -0.01860175 0.113645904 0.049873944 0.10497733 -0.034134675
-0.16327879 -0.23140344 -0.316183 -0.26124352 0.1784113 0.007487612 0.22726044 -0.2163868
-0.045654163 -0.04135057 0.02507573 0.025587985 -0.04684795 0.14878708 -0.0666443 -0.002065463
0.10193158 0.31584778 0.3189282 0.093294665 -0.15468574 -0.051130928 -0.058950197 -0.04869538
-0.097229965 0.09884956 -0.08525847 -0.18281114 0.07400726 0.044855658 0.26738247 0.16167533
-0.041846238 -0.098033346 -0.15321614 -0.120245285 0.20197612 -0.14967343 0.23365276 -0.013295905
-0.015261084 -0.47815472 0.071968466 -0.14667517 0.23620217 0.23720162 0.12495399 -0.084089555
-0.0025235857 -0.014621412 0.0208052 0.014812941 0.070193104 0.08002583 0.13672353 0.10123005
0.235932 0.30821088 0.32097197 0.18360876 -0.17901096 -0.061536707 -0.09772081 -0.0017507379
0.031728934 0.33842018 0.40229166 0.12366239 0.12830298 -0.19682138 0.22141619 0.17251478
-0.19476843 -0.27962527 -0.13484673 -0.15465038 0.27665627 0.44331366 0.18283133 0.20963414
-0.067591384 0.012608911 0.038804583 0.037156813 0.024597585 -0.25094032 0.03577147 0.039861985
-0.11342167 -0.04783083 -0.056371417 -0.17790018 0.117234945 0.24775371 0.16855098 0.14361432
0.04595462 0.059691187 0.04142284 0.04254423 -0.19786175 -0.1678033 -0.17903693 -0.035885587
00000000: d1ce 48bd f69b 693e 1d7d b6bc 7e13 9abd
00000010: 1d17 cfbd eda4 2ebd 4e5c 20bc c53a 5abe
00000020: f660 223e dc88 8b3e b2e0 063e 56af 193d
00000030: bf42 72be e86e 713d bdfa 35bd 74f7 023e
00000040: b5ee 22bc eb4b a8bd 96b3 00bd b262 98bc
00000050: 2fbf e83d 9f48 4c3d 5bfe d63d cdd0 0bbd
00000060: 8e32 27be 06f5 6cbe bde2 a1be b6c1 85be
00000070: 74b1 363e a45a f53b f6b6 683e 8094 5dbe
00000080: dcff 3abd 375f 29bd 9e6b cd3c e59d d13c
00000090: a3e3 3fbd a45b 183e cf7c 88bd b85c 07bb
000000a0: 81c1 d03d cdb6 a13e 8f4a a33e 4611 bf3d
000000b0: f065 1ebe aa6e 51bd c375 71bd cf74 47bd
000000c0: 8120 c7bd a371 ca3d fe9b aebd d832 3bbe
000000d0: 1e91 973d 91ba 373d 5be6 883e 388e 253e
000000e0: f666 2bbd b5c5 c8bd b1e4 1cbe 2943 f6bd
000000f0: d4d2 4e3e fe43 19be ab42 6f3e 11d7 59bc
00000100: a009 7abc b2d0 f4be 3464 933d 0432 16be
00000110: fbde 713e fbe4 723e e1e7 ff3d 2537 acbd
00000120: be62 25bb a68e 6fbc ab6f aa3c fab1 723c
00000130: 67c1 8f3d 95e4 a33d 4101 0c3e b351 cf3d
00000140: 2998 713e d1cd 9d3e 7056 a43e ef03 3c3e
00000150: a64e 37be ea0d 7cbd d921 c8bd 0479 e5ba
00000160: 33f6 013d 6945 ad3e 2cf9 cd3e b542 fd3d
00000170: db61 033e 8b8b 49be edba 623e b7a7 303e
00000180: 6071 47be 0b2b 8fbe 4315 0abe ab5c 1ebe
00000190: e4a5 8d3e 02fa e23e 2338 3b3e 55aa 563e
000001a0: 5a6d 8abd 9b95 4e3c 8ef1 1e3d be31 183d
000001b0: e080 c93c 407b 80be 1b85 123d 5246 233d
000001c0: 9f49 e8bd 43ea 43bd b7e5 66bd 772b 36be
000001d0: e018 f03d 26b3 7d3e a198 2c3e a20f 133e
000001e0: e93a 3c3d bf7e 743d ffaa 293d dc42 2e3d
000001f0: 459c 4abe a1d4 2bbe 7555 37be c4fc 12bd

DecList.2.conv.bias f4 [4]
0.23091286 0.10534242 -0.16007824 -0.16034506
00000000: 6c74 6c3e c4bd d73d 8deb 23be 7f31 24be

DecList.2.bn.weight f4 [4]
0.5688463 1.2994652 1.337752 1.1865178
00000000: e99f 113f e054 a63f 753b ab3f d1df 973f

DecList.2.bn.bias f4 [4]
0.04877163 0.3660265 0.2798099 0.059303116
00000000: c3c4 473d d367 bb3e 3e43 8f3e d3e7 723d

DecList.2.bn.running_mean f4 [4]
-0.13221753 1.0340177 0.1310066 -0.12933283
00000000: 0864 07be b15a 843f 9826 063e d36f 04be

DecList.2.bn.running_var f4 [4]
1.2646037 1.7077278 1.3547479 0.81405026
00000000: 89de a13f d396 da3f 6168 ad3f 9965 503f

DecList.3.conv.weight f4 [4, 2, 4]
0.19531915 0.23301256 0.21765245 0.17808501 0.14573804 0.55676574 0.64233696 0.23346637
-0.111856535 -0.20046408 -0.22984415 -0.1437935 -0.20805527 -0.19003628 -0.14381607 -0.159694
0.038430218 0.30943373 0.4278033 0.15751429 0.08442977 0.015713979 -0.2480696 -0.18232045
-0.13395388 -0.11931938 -0.113205224 -0.121702254 0.20263673 0.18845941 0.17741826 0.18834789
00000000: be01 483e d89a 6e3e 49e0 5e3e eb5b 363e
00000010: 5a3c 153e 3388 0e3f 3270 243f cf11 6f3e
00000020: 0a15 e5bd 7546 4dbe 445c 6bbe 9a3e 13be
00000030: 710c 55be df98 42be 8544 13be d386 23be
00000040: 0169 1d3d 196e 9e3e 0909 db3e 6d4b 213e
00000050: 84e9 ac3d 9aba 803c f505 7ebe 36b2 3abe
00000060: 352b 09be b85d f4bd 24d8 e7bd 083f f9bd
00000070: 0180 4f3e 81fb 403e 22ad 353e 45de 403e

DecList.3.conv.bias f4 [2]
-0.33429697 -0.16486728
00000000: f928 abbe f8d2 28be

DecList.3.bn.weight f4 [2]
0.6296036 0.7582512
00000000: b42d 213f c01c 423f

DecList.3.bn.bias f4 [2]
0.0295253 0.059737436
00000000: 0bdf f13c 3eaf 743d

DecList.3.bn.running_mean f4 [2]
0.27481198 0.7952044
00000000: 28b4 8c3e 8492 4b3f

DecList.3.bn.running_var f4 [2]
0.96234393 0.5364214
00000000: 2c5c 763f ea52 093f

bottleneck.0.weight f4 [32, 32, 1]
-0.012363092 0.17138453 0.109934084 0.16989477 -0.11338752 0.07565882 0.02845997 -0.12933418
0.015901815 0.14000723 0.015951185 0.16004167 0.018749433 -0.047643155 0.07638341 -0.050080687
0.0062504634 -0.08004168 -0.3288089 0.086196646 0.067802794 0.19098453 0.105278365 0.08040242
-0.21423353 -0.23013473 -0.15640639 0.014514775 -0.18996082 0.00048573525 0.12984031 -0.11265504
-0.006456717 -0.097105354 -0.09997707 -0.25867912 0.06008198 0.071766965 0.12121215 -0.30075368
-0.025014026 0.054181624 -0.1992346 -0.09437458 0.10701928 0.039122693 0.06892786 0.13628958
-0.034050904 -0.18278693 -0.24916594 -0.06251898 -0.05054835 -0.047142774 0.09434036 -0.07364082
0.002415611 -0.31585374 -0.12409672 0.061650094 0.018126141 0.19416301 0.17350855 0.044769995
-0.04402165 0.0640413 -0.055648375 -0.2713632 0.27553934 -0.18432018 -0.08814966 -0.063337326
0.06870784 0.21195072 -0.09033044 0.0018270727 -0.25659817 0.18688858 0.08378754 -0.19389568
-0.17707212 -0.04028809 -0.06566378 0.14267647 -0.10526195 -0.08321376 0.11973109 -0.14813863
-0.10650657 -0.34944633 -0.06312317 -0.041134603 0.108991146 0.051884312 0.11240428 -0.23353827
0.11945109 0.0376756 0.09466219 -0.01629233 0.17289871 0.17271636 -0.044296578 0.23525736
-0.18946467 0.022032972 0.015874106 0.053501353 0.018301837 0.06702492 0.050869696 0.05055518
0.09626504 -0.13596068 0.13325793 -0.23998606 -0.13792926 0.17614184 0.03111092 -0.026483217
-0.15799841 0.06695306 0.045124423 -0.038499165 -0.15280628 0.3313994 0.0064722276 0.098883286
-0.14626437 0.35554498 -0.13703418 -0.014509657 -0.21641676 -0.12080716 -0.09039904 0.27406844
0.15735151 -0.006214186 0.067363836 -0.046843477 -0.16721773 0.14554507 0.09024033 0.13245268
0.044535488 0.1240362 -0.046674497 0.05236207 0.09855189 0.1000692 0.09860568 -0.09486576
0.16382754 -0.099862285 0.13798533 0.05687308 0.06619461 0.28875375 -0.0373619 -0.18893543
0.16452217 -0.14251338 -0.035030965 0.14344166 0.10856577 0.15543897 -0.09344117 0.09629165
0.09037529 -0.16749477 0.02403799 0.070113026 -0.1630472 0.009356261 0.13512202 0.07444786
0.06418083 0.10327115 0.027593797 -0.13182156 -0.088353194 0.23152566 0.17233963 -0.14396863
-0.104864076 0.2334585 -0.2795081 -0.029165082 -0.18276836 -0.17815575 0.15825394 0.18058755
0.05701461 0.11405271 0.1375584 0.19340919 0.119703054 0.23176907 0.1615279 -0.028664755
-0.2749303 0.14869437 0.19524556 -0.078517385 -0.13458323 -0.035152577 -0.047282204 -0.11073216
-0.14321145 0.029563805 -0.03703997 0.07528059 -0.32777372 0.06676636 -0.014830883 -0.07744334
-0.06836323 -0.1365444 0.02148694 0.013993761 0.11880543 -0.1476954 0.013132691 0.06285315
-0.029422268 -0.016304387 0.22411545 0.14107041 0.1314449 0.10116255 0.07063048 -0.03342413
-0.12890333 -0.09096054 0.009728281 -0.15330002 -0.0420613 0.12757665 -0.008787473 -0.0040174546
0.083814435 -0.08956411 0.07211802 -0.09961719 -0.15153766 0.029721739 -0.20607321 -0.149286
0.09712871 0.03437869 -0.07965205 -0.08420732 0.058039114 0.018691994 0.10532815 0.3367477
00000000: 918e 4abc 6d7f 2f3e 1f25 e13d e5f8 2d3e
00000010: b737 e8bd 03f3 9a3d e224 e93c 2e70 04be
00000020: 8644 823c 0e5e 0f3e 0fac 823c f7e1 233e
00000030: 6998 993c 7825 43bd e86e 9c3d 6821 4dbd
00000040: b0d0 cc3b e4ec a3bd a459 a8be de87 b03d
00000050: 31dc 8a3d 7391 433e 2f9c d73d 06aa a43d
00000060: 0960 5bbe 70a8 6bbe ff28 20be 61cf 6d3c
00000070: 1785 42be 48aa fe39 dcf4 043e b0b7 e6bd
00000080: de92 d3bb 2cdf c6bd c7c0 ccbd 9771 84be
00000090: 8618 763d 8ffa 923d 133e f83d 63fc 99be
000000a0: 37ea ccbc 8ded 5d3d 2804 4cbe 7647 c1bd
000000b0: ed2c db3d 1e3f 203d 0d2a 8d3d 7f8f 0b3e
000000c0: f678 0bbd 7f2c 3bbe 5b25 7fbe f309 80bd
000000d0: c90b 4fbd c818 41bd 8535 c13d 00d1 96bd
000000e0: 3a4f 1e3b 95b7 a1be 6c26 febd cf84 7c3d
000000f0: 467d 943c abd2 463e 3aac 313e be60 373d
00000100: 0c50 34bd 1628 833d 8def 63bd 1ef0 8abe
00000110: 7e13 8d3e 6ebe 3cbe cf87 b4bd 00b7 81bd
00000120: b2b6 8c3d 9c09 593e 2aff b8bd 637a ef3a
00000130: d660 83be b85f 3f3e cd98 ab3d 978c 46be
00000140: 6552 35be 2005 25bd bb7a 86bd c819 123e
00000150: 9493 d7bd fa6b aabd 9335 f53d a7b1 17be
00000160: 1e20 dabd a1ea b2be b846 81bd c27c 28bd
00000170: c036 df3d a584 543d 3734 e63d a824 6fbe
00000180: c6a2 f43d bb51 1a3d 40de c13d 7e77 85bc
00000190: 5c0c 313e 8fdc 303e 5470 35bd 4ee7 703e
000001a0: 0703 42be 7e7e b43c 6a0a 823c 3c24 5b3d
000001b0: bced 953c 5c44 893d be5c 503d f312 4f3d
000001c0: 9b26 c53d 4739 0bbe c474 083e e8be 75be
000001d0: 543d 0dbe 875e 343e 54dc fe3c 55f3 d8bc
000001e0: 56ca 21be b01e 893d 63d4 383d 4db1 1dbd
000001f0: 4079 1cbe 2fad a93e fb14 d43b 5283 ca3d
00000200: 54c6 15be fe09 b63e b052 0cbe eab9 6dbc
00000210: 5b9c 5dbe bf69 f7bd 2223 b9bd b352 8c3e
00000220: c120 213e 5fa0 cbbb 0df6 893d f2de 3fbd
00000230: 203b 2bbe c409 153e eccf b83d ada1 073e
00000240: d86a 363d b106 fe3d c22d 3fbd 9c79 563d
00000250: 93d5 c93d 15f1 cc3d c6f1 c93d fb48 c2bd
00000260: 68c2 273e 9984 ccbd 074c 0d3e bff3 683d
00000270: 0a91 873d 88d7 933e cb08 19bd 4a78 41be
00000280: 8078 283e 07ef 11be a17c 0fbd 5fe2 123e
00000290: bb57 de3d 652b 1f3e 165e bfbd 8e34 c53d
000002a0: ae16 b93d c083 2bbe 52eb c43c 6b97 8f3d
000002b0: d8f5 26be 014b 193c 6d5d 0a3e 1f78 983d
000002c0: 3d71 833d d37f d33d 630c e23c 3bfc 06be
000002d0: 85f2 b4bd 1015 6d3e cd79 303e 836c 13be
000002e0: fac2 d6bd bf0f 6f3e b01b 8fbe 9ceb eebc
000002f0: a127 3bbe 766e 36be 520d 223e f1eb 383e
00000300: 2788 693d 7894 e93d 1cdc 0c3e 0f0d 463e
00000310: e026 f53d df54 6d3e 9267 253e 59d2 eabc
00000320: aac3 8cbe 5643 183e 74ee 473e b9cd a0bd
00000330: 30d0 09be 26fc 0fbd fcaa 41bd 8bc7 e2bd
00000340: 06a6 12be cb2f f23c 39b7 17bd b62c 9a3d
00000350: f5d1 a7be cdbc 883d 3bfd 72bc 9d9a 9ebd
00000360: 0502 8cbd 4cd2 0bbe 6105 b03c 1646 653c
00000370: 4350 f33d 773d 17be 802a 573c 27b9 803d
00000380: f806 f1bc c790 85bc 857e 653e c374 103e
00000390: 7e99 063e 502e cf3d b7a6 903d bee7 08bd
000003a0: 3cff 03be 8549 babd 5e63 1f3c aefa 1cbe
000003b0: 7848 2cbd 74a3 023e 55f9 0fbc daa4 83bb
000003c0: e7a6 ab3d 636d b7bd 9db2 933d 1904 ccbd
000003d0: b02c 1bbe 017b f33c db04 53be 6ede 18be
000003e0: 6beb c63d abd0 0c3d 9d20 a3bd e374 acbd
000003f0: 6cba 6d3d f41f 993c 49b6 d73d 326a ac3e

bottleneck.0.bias f4 [32]
-0.104153 0.07497044 -0.0032995911 0.25599733 0.0618238 0.04964142 0.17587475 0.22795649
0.3834735 0.020771634 0.06753371 0.09597222 -0.01849962 0.19764678 -0.0023458812 -0.14255735
-0.27359873 0.32098243 0.011364297 -0.08053084 -0.07961478 -0.0387254 0.2178486 0.0793726
0.044207137 0.19461241 0.23808515 0.27403274 -0.0024984828 0.08815889 -0.034876287 -0.020852175
00000000: 2b4e d5bd 1a8a 993d f43d 58bb 1512 833e
00000010: f43a 7d3d cd54 4b3d 8318 343e 6d6d 693e
00000020: a356 c43e 4629 aa3c 1d4f 8a3d 158d c43d
00000030: 848c 97bc eb63 4a3e 5bbd 19bb 8efa 11be
00000040: 2215 8cbe cf57 a43e 5131 3a3c 5aed a4bd
00000050: 130d a3bd 869e 1ebd b413 5f3e 1a8e a23d
00000060: 8b12 353d 7a48 473e 98cc 733e 054e 8c3e
00000070: 96bd 23bb a68c b43d 70da 0ebd 2ed2 aabc
