checkpoints/best_Seq2Seq2_emb_snr_-2.pth (torch, 161054 bytes, 219 tensors)

enc.EncoderList.cell0.conv.weight f4 [4, 2, 17]
000000 92 d9 95 3a 3a 15 3e 3c c3 b0 36 be a4 15 ad 3d
       0.0011432639 0.0116017405 -0.17840867 0.08451393
000010 9b 02 01 be 15 e9 9b bd 8e ea 22 3d 2b 10 22 bc
       -0.1259865 -0.07612816 0.03977447 -0.00989155
000020 84 9d 31 3e 94 7c ba 3d 97 ef 30 3e d8 29 77 3d
       0.17345244 0.09105793 0.17278896 0.06034264
000030 35 80 5f 3c 09 de 89 3e ef 4d 0e bc ff 59 c8 3d
       0.013641407 0.26927212 -0.008685573 0.097827904
000040 79 67 bd 3d da 3f ae bb cc 1c 78 3c 5a f4 a0 bd
       0.092482515 -0.0053176703 0.015143584 -0.07859106
000050 0e 6e 9b 3d f7 fd 75 bb cc 3f 26 bd 17 04 a6 3d
       0.07589351 -0.0037535408 -0.040588185 0.08106249
000060 03 60 b0 bd 37 d9 be bb 9b db be bd ae cc a2 bd
       -0.08612063 -0.005824234 -0.0931923 -0.07949196
000070 c2 c9 61 bd 58 b1 21 bd d8 0a c1 bd a0 50 e1 3c
       -0.055124052 -0.03947577 -0.094258964 0.027504265
000080 85 2c 3b 3e 85 8e 45 3d 02 c8 d6 3d fc 01 30 bd
       0.18278702 0.04823162 0.10487367 -0.042970642
000090 ad 71 a2 bd a5 32 53 3e a0 54 03 be 27 b9 ac bd
       -0.07931838 0.20624788 -0.1282525 -0.084337525
0000a0 39 42 4d be f3 19 36 be 57 b2 30 3e 04 c9 59 3d
       -0.20044793 -0.17783336 0.17255531 0.05317022
0000b0 b9 96 c4 bc bb de 31 3e d0 04 1f 3e d6 76 c4 bc
       -0.023997651 0.17370121 0.1552918 -0.023982447
0000c0 48 ef 1a 3c af 08 26 3d 15 fb 4a bd de 32 4d 3d
       0.009456463 0.040535625 -0.049555857 0.05009734
0000d0 ef 56 ce bd 90 cc 93 3d 9d 6a e0 3d 02 e2 db bd
       -0.10075175 0.072167516 0.10957835 -0.10736467
0000e0 6c 69 35 3d c4 45 79 3d bb 0e e8 3d 70 49 86 3d
       0.04428999 0.06085755 0.113309346 0.06556976
0000f0 31 9e 03 3e 1b ac 2e 3c f9 9f 30 3e 07 09 d8 3d
       0.12853314 0.01066115 0.17248525 0.10548597
000100 42 0d 9a bc ef 8a b3 bd 11 74 d9 3d 05 3a bf bc
       -0.01880515 -0.08766734 0.10617841 -0.023343096
000110 72 c8 c3 3a 9f 2b 07 3e bd 12 7d ba c6 54 34 bd
       0.0014937057 0.13200234 -0.00096539763 -0.04402616
000120 ef 69 02 3e 2c f9 16 3e 37 87 4f 3d 78 46 51 be
       0.12735723 0.14743489 0.05066606 -0.20437038
000130 f8 ae 16 be 35 01 4e bd 03 b6 75 bd 13 57 82 3d
       -0.14715183 -0.05029412 -0.059988033 0.06364264
000140 21 0b 21 be ad 54 eb bd 9d fe da bd a8 5d d4 bc
       -0.15726902 -0.1149076 -0.10693095 -0.025923565
000150 98 4c 7b 3d 2f 63 89 3d e0 e5 51 3e 8b f2 cc bd
       0.061352342 0.06708371 0.20497847 -0.10007199
000160 92 56 44 3e 00 5f c0 bd ff 26 3d 3e 87 b0 3f be
       0.19173649 -0.0939312 0.18471907 -0.18719684
000170 98 4a 49 be 6b 9c 3c be d8 02 0b be 52 72 88 bd
       -0.19657362 -0.18419044 -0.13575304 -0.0666243
000180 61 09 f9 bd 73 3c b3 bd f3 f8 b3 bd 71 c2 6c bc
       -0.12159992 -0.08751764 -0.08787718 -0.014450655
000190 84 41 17 3e 50 8f 02 bd 55 f8 bb bd aa f2 98 bd
       0.14771086 -0.031874955 -0.09178225 -0.074681595
0001a0 80 26 20 bd a0 86 f8 3b fe 85 aa bd 33 90 21 be
       -0.039099216 0.007584408 -0.08326338 -0.15777664
0001b0 a3 df 5c 3d 2f c0 de 3d 51 52 4e 3e 37 c0 f6 3d
       0.053924214 0.108765 0.20148589 0.12048381
0001c0 7b 04 03 3e f4 9d 81 bd 2b 8d 0e be 83 0b 1a be
       0.12794678 -0.06328955 -0.13921039 -0.15043454
0001d0 91 67 4f 3d 37 e7 72 bd 96 5f 40 3c 23 d4 1a 3e
       0.050635878 -0.059302535 0.011741539 0.15119986
0001e0 98 d5 c1 3c dd a0 41 3d 0a 1d 3a 3d 97 cd a7 bc
       0.02366142 0.04727255 0.04543785 -0.020483775
0001f0 d3 64 65 3d 3d 67 3b bd cb dc f6 bd e0 9b 71 be
       0.056004357 -0.045752753 -0.12053832 -0.23594618
000200 74 8b 6e be 3b 6c 8b bd e2 0e 34 bd 1e 35 9d bd
       -0.23295385 -0.06807753 -0.043959506 -0.07676147
000210 88 f1 e6 3d ec 03 05 be 6d 8b 54 3d d9 04 bd bc
       0.11276537 -0.12989777 0.05189078 -0.0230736

enc.EncoderList.cell0.conv.bias f4 [4]
000000 16 b5 20 bd 54 cd 3f 3e 9d d8 38 be 38 4f 01 be
       -0.039235197 0.1873067 -0.18051381 -0.12627876

enc.EncoderList.cell0.activate.fcn.0.weight f4 [8, 8]
000000 64 1c 80 3e c1 13 31 be 87 ec 87 3d d7 af a3 be
       0.2502166 -0.17292692 0.06636911 -0.31970093
000010 2a b6 49 bc 6e a7 8a 3e 01 61 e8 bd 95 e4 11 3e
       -0.012311498 0.27080864 -0.11346627 0.14247353
000020 9b 2d 4a 3e 78 52 bb be ca a0 33 3d dc 33 84 3e
       0.1974396 -0.36586356 0.043854512 0.25820816
000030 cb 8b 8d bd bc 53 98 3b ac 8a d8 3e d4 f5 12 bd
       -0.06911429 0.004648654 0.42293298 -0.03587897
000040 a7 e4 27 be 46 bc 9e 3e 81 ad 81 be 43 c8 a0 be
       -0.16395818 0.31003016 -0.25327685 -0.31402788
000050 7e a2 d4 3d 9e ab bc 3c e4 13 52 3d 93 61 86 3d
       0.103825554 0.023031052 0.0512885 0.065615796
000060 7e ae cb bd c0 ce 91 3e e5 71 25 3e a7 82 83 bd
       -0.09945391 0.2847805 0.16156729 -0.06421404
000070 26 f7 2f 3e e7 2b b9 3d 9e 85 0c be 0f 53 25 be
       0.17184123 0.09041577 -0.13722846 -0.16144966
000080 cd f1 3c be 18 12 45 be 6a e3 97 3e 9b 22 8b 3d
       -0.18451615 -0.19245183 0.2966569 0.0679371
000090 19 81 f7 bd a9 79 c6 bd 16 a6 24 bd 02 1b b1 3e
       -0.1208517 -0.096911736 -0.040197454 0.34590918
0000a0 0a 33 ad bd fd 38 e3 be e1 a7 86 3e a2 f8 79 be
       -0.084570006 -0.44379416 0.26299956 -0.24411252
0000b0 0e ed 05 be f1 d6 5d be 72 ce 8e 3e 7d c7 b1 3d
       -0.1307871 -0.21664025 0.2789188 0.086806275
0000c0 58 0c 93 3c 3d d0 37 3e c8 cb 57 3d a1 05 a6 bd
       0.017950222 0.1795053 0.052684575 -0.081065424
0000d0 41 d2 4f 3e 2d e5 95 be 57 5c 9f bd c0 cd 2b 3e
       0.20295049 -0.2927641 -0.07781284 0.16777706
0000e0 63 87 2f bd 4e 8f 07 3e dd f0 8c 3e 04 d9 a8 3d
       -0.042853724 0.1323826 0.27527514 0.082445174
0000f0 c3 5f 8a 3e f4 e5 21 be 99 c5 1d 3e 6b b7 69 3e
       0.27026185 -0.15810376 0.15407409 0.22823875

enc.EncoderList.cell0.activate.fcn.0.bias f4 [8]
000000 fe ed af be 70 74 74 be 48 aa f3 3d e8 56 62 3d
       -0.3436126 -0.23872542 0.11897713 0.05525866
000010 0b aa 98 be a5 23 02 be 9b 33 02 be fa d4 f1 3d
       -0.29817232 -0.1270891 -0.12714998 0.118082

enc.EncoderList.cell0.activate.fcn.1.weight f4 [8]
000000 0f 88 84 3f 37 1a 7c 3f 13 38 77 3f 94 60 73 3f
       1.0354022 0.984775 0.9656994 0.9506924
000010 0e 81 8d 3f 65 ce 88 3f bb 58 73 3f c0 68 73 3f
       1.1055009 1.0687987 0.95057267 0.9508171

enc.EncoderList.cell0.activate.fcn.1.bias f4 [8]
000000 b4 15 83 be 55 c6 d9 bd 0b 36 34 3e 3a 45 3e 3e
       -0.25602496 -0.10633532 0.17598741 0.18581095
000010 2b 39 72 3e b5 de 47 bd 05 96 0b bd 9a cb 78 3c
       0.2365462 -0.048796374 -0.034078617 0.015185261

enc.EncoderList.cell0.activate.fcn.1.running_mean f4 [8]
000000 1b 72 e2 be 9a 47 cc be bd 51 9e 3c 2d c9 41 3e
       -0.4422768 -0.39898378 0.019326085 0.18924399
000010 a1 d0 bf be 0c a6 b2 be 0e d4 a5 bd 5d 80 70 3d
       -0.3746386 -0.3489231 -0.08097087 0.058716167

enc.EncoderList.cell0.activate.fcn.1.running_var f4 [8]
000000 b2 23 a4 3c 0e 00 99 3d c9 e0 53 3d 19 ff fd 3c
       0.020036552 0.074707136 0.051728044 0.03100543
000010 aa 68 8e 3d 4d 90 c2 3d 4c d8 06 3c 5e af de 3c
       0.06953557 0.095001794 0.00823028 0.027183231

enc.EncoderList.cell0.activate.fcn.3.weight f4 [4, 8]
000000 52 2c f9 3d c0 82 8f 3e aa e1 8b 3e 97 fb 8b be
       0.121666566 0.28029442 0.27320606 -0.27340385
000010 36 ed c2 be 5a 49 95 bc 24 07 62 be 16 46 5f be
       -0.38071603 -0.018223453 -0.22073036 -0.2180408
000020 c3 61 94 be 07 bf 22 be 2c bf 81 be 9a 43 90 be
       -0.28980836 -0.15893184 -0.25341165 -0.28176576
000030 bc 6f 24 bc 0b d0 95 3e 5a 1e 02 3e 31 30 fb bd
       -0.010036405 0.29260287 0.1270689 -0.12265051
000040 77 cc b2 3d 04 8b bd 3e 96 46 1b 3e da 9c 97 be
       0.08730405 0.37020123 0.15163645 -0.29611856
000050 a0 d8 e0 3e b9 e4 d7 3e 31 73 80 bd 75 bc 5a 3e
       0.43915272 0.4216669 -0.06271971 0.21360953
000060 1a 8c 89 be b2 3f 66 be 13 75 55 3e e0 15 0a bd
       -0.26864702 -0.22485235 0.20845442 -0.033712268
000070 c3 dc bb bd 94 b4 b0 be 25 22 d6 bd 86 5d 1f be
       -0.09172966 -0.3451277 -0.10455731 -0.1556302

enc.EncoderList.cell0.activate.fcn.3.bias f4 [4]
000000 f9 8d 32 be 7e a5 21 be 69 35 eb 3c 7a 8f a1 3e
       -0.17436971 -0.15785787 0.028711991 0.31554776

enc.EncoderList.cell0.activate.fcn.4.weight f4 [4]
000000 6f 22 bc 3e 2c 82 29 3f 41 b9 3b 3f a9 f5 4a 3f
       0.3674502 0.6621425 0.7332955 0.792811

enc.EncoderList.cell0.activate.fcn.4.bias f4 [4]
000000 88 b9 7b 3f 7a ba 13 3f 22 53 e2 3e b5 aa 6f 3e
       0.98329973 0.57706416 0.4420405 0.23404963

enc.EncoderList.cell0.activate.fcn.4.running_mean f4 [4]
000000 90 82 ca be 43 7a da be 7a 86 0f 3f d5 f5 ac bb
       -0.39552736 -0.42671403 0.5606457 -0.005278329

enc.EncoderList.cell0.activate.fcn.4.running_var f4 [4]
000000 66 f8 56 3e af da cb 3d 3b 31 84 3f ca 9e b4 3e
       0.20993194 0.0995382 1.0327524 0.35277396

enc.EncoderList.cell0.bn.weight f4 [4]
000000 67 32 66 3f ae 6b 58 3f f1 3f 5e 3f e5 b9 5e 3f
       0.8992066 0.84539306 0.86816317 0.870024

enc.EncoderList.cell0.bn.bias f4 [4]
000000 12 59 96 bd 3e 56 58 be bd 2c 94 3b 4b ea 67 be
       -0.073412076 -0.21126649 0.004521935 -0.2264797

enc.EncoderList.cell0.bn.running_mean f4 [4]
000000 f7 35 1c 3d 36 93 5f 3e 9f eb 66 3c 9a 17 6d bc
       0.038137402 0.218335 0.014094262 -0.014470959

enc.EncoderList.cell0.bn.running_var f4 [4]
000000 3f 6d bd 3e 1d 0a ce 3e f1 db 9b 3e 51 2b 89 3e
       0.3699741 0.4024209 0.3044124 0.2679086

enc.EncoderList.cell1.conv.weight f4 [8, 4, 17]
000000 12 2d 8c 3d 28 83 28 3d 43 65 b5 3d da 41 6c 3d
       0.06844534 0.041140705 0.08857205 0.05767999
000010 5f ea 2b 3e c2 d2 7a ba 1f ae 08 3e b4 aa f1 3d
       0.16788624 -0.00095681485 0.13347672 0.11800137
000020 22 91 8d bc 06 2e 67 3d 1e 2d 0a ba a8 46 07 be
       -0.017281119 0.056440376 -0.0005271005 -0.13210547
000030 3d 94 40 bd bb 72 a9 bd e5 8e e4 bd 4f d2 94 bc
       -0.04701637 -0.08273836 -0.111600675 -0.01816669
000040 cf f5 bd bd de 14 ef bd 55 c3 9c bd 9c 0a b2 bd
       -0.092754 -0.11673902 -0.07654444 -0.0869343
000050 0a a5 f5 bd 18 36 3e 3e 57 81 20 3e d8 f9 eb 3d
       -0.11994369 0.18575323 0.15674339 0.11522263
000060 34 4f 4e 3e 0c 60 65 3e 53 73 0a 3e 5a a5 98 bc
       0.20147401 0.2239992 0.13520555 -0.018633533
000070 7e 9f e0 bc c2 b0 47 be 58 1f 57 bd 84 82 38 bd
       -0.027419802 -0.19501022 -0.052520126 -0.045046344
000080 61 7d 00 3c ca 55 5e 3d 0d 74 99 bc fd 44 64 bd
       0.007842393 0.054281034 -0.018732095 -0.055729855
000090 bd d5 29 3c 7a c2 02 be 8d 97 f4 bc 63 a2 6e bd
       0.010365901 -0.127695 -0.029857421 -0.058260333
0000a0 42 f1 25 be ca 7e 75 bd 3e cc a5 bd 93 dc 69 3d
       -0.16205314 -0.05993537 -0.08095597 0.05709512
0000b0 c1 f3 82 3d 3a 4c 64 bd 93 e6 26 3d 4e 9b b6 3d
       0.063941486 -0.055736758 0.040747236 0.08916341
0000c0 dc 34 95 bd 91 63 01 3e 3c 17 10 3d e8 d6 73 3d
       -0.07285473 0.12635638 0.035178408 0.059531122
0000d0 ca 97 8c bd af da 90 3d 9c 0c a2 3c ed e7 d0 bd
       -0.06864889 0.070729606 0.019781403 -0.10200486
0000e0 87 42 54 3c b4 23 63 bd 9a 90 d1 bd 3c d3 c2 3b
       0.0129553145 -0.05545397 -0.10232659 0.0059455913
0000f0 c4 1d f2 bd e6 e3 a5 3c f1 b4 e9 bb 0f 1f a8 bd
       -0.118220836 0.020250272 -0.0071321656 -0.08209049
000100 ad cb cc bd e7 5a 94 3d 68 d6 2f 3d 71 fc 05 3e
       -0.099997856 0.07243901 0.042929083 0.1308458
000110 5c 03 1f bd 50 5f 5f 3d 40 30 23 3e 36 25 e2 3c
       -0.038821563 0.054534256 0.15936375 0.027605634
000120 aa 1b 33 bd b5 3a ba bb 59 1a fc bd 33 6a e5 b9
       -0.043727554 -0.005683268 -0.12309713 -0.00043757408
000130 41 0d b1 bd e1 25 82 bd ca c9 07 bd 6d 57 7d bd
       -0.08645106 -0.06354881 -0.033151425 -0.061850954
000140 5b f7 87 bd e6 25 1a 3e 73 e9 e1 3d 15 e8 83 bb
       -0.06638976 0.1505352 0.11030855 -0.004025469
000150 96 09 99 3d 2f 9f cb bc 1d 3b 65 be f6 8b d8 3d
       0.074725315 -0.024856178 -0.22385831 0.105735704
000160 e6 af 41 bd 16 0a aa 3d 09 43 3a 3d 2a 6c 94 3c
       -0.04728689 0.08302705 0.045474086 0.018117983
000170 1a bc a2 3c f8 b8 16 be 22 6f 7b 3d 96 5a 00 3e
       0.019865084 -0.14718997 0.06138528 0.12534556
000180 3a 3d 08 3d 3c 55 4e 3d 44 4b 9f bc 8d 4a 13 bc
       0.033261515 0.050374255 -0.01944507 -0.008989942
000190 a9 0d 20 bd b3 b3 e3 3d ba ec c4 3d 5e 3a 87 3d
       -0.039075527 0.11118259 0.096154645 0.066029295
0001a0 17 7f 93 bd c9 10 03 3c 59 c7 de 3d 7f 1d 13 3d
       -0.07201975 0.007999607 0.10877866 0.0359168
0001b0 51 0d af 3d 6b e0 1e 3d 7b 3f 8d 3e 3c 09 1a 3e
       0.08547462 0.03878824 0.27587494 0.15042585
0001c0 ed a2 b0 3c 7e a9 2d 3e 4d 21 ba bd 5e 5f 2c be
       0.021562064 0.16959187 -0.09088383 -0.16833255
0001d0 2c f7 33 bb e6 78 a9 bd 5e fc f5 bd 67 d8 56 bd
       -0.0027460558 -0.08275013 -0.12011026 -0.05245247
0001e0 14 f6 78 bd 3f f4 cd bd a9 23 a2 bc 1b 76 74 3d
       -0.060781553 -0.10056352 -0.019792395 0.059682947
0001f0 16 37 6d bd 3a 8f e4 3b 27 cf 84 bb 19 ef 85 bd
       -0.057913862 0.0069750817 -0.004053015 -0.06539745
000200 35 8b 19 3d 52 de b0 3d 6a ad 17 bc 2c 5d 92 3d
       0.037486274 0.08636154 -0.009257654 0.071466774
000210 f6 35 c7 3d aa 8b ab 3c f2 32 64 3d 10 46 ce 3d
       0.09727089 0.02094062 0.055712648 0.10071957
000220 6d 7f 1c be 8b 2c 06 be a4 19 d4 bd 44 11 84 3c
       -0.15282984 -0.1310293 -0.10356453 0.016121514
000230 39 1a ee bc 9b 1f 24 3d 84 c3 35 3e 1c e1 2a 3e
       -0.029065238 0.040069204 0.17750365 0.16687435
000240 3e 65 85 3d 00 f7 1b 3e 2d 3a 0a 3e be fa 67 3d
       0.06513451 0.15230942 0.13498755 0.05663561
000250 85 34 06 be 12 ef 8d bd 5f 01 97 bd dd 01 a1 3d
       -0.13105972 -0.06930365 -0.073733084 0.078616835
000260 e1 f0 a2 bd 80 fe fe bc 71 d0 8a 3d 5a 21 ca 3c
       -0.079561 -0.031127214 0.06778038 0.024674106
000270 b3 bb 08 3e 40 d6 55 3d 01 9b 9c 3d 40 74 1e bd
       0.13352852 0.052206278 0.07646752 -0.038685083
000280 58 3a 8e bd 46 d7 0b 3e fd dc 19 3e f3 75 3d bd
       -0.06944722 0.13656339 0.15025707 -0.046255063
000290 ec 2f 31 bd a7 57 b6 bb 7c e1 ca bd e3 3c 03 be
       -0.043258592 -0.005564648 -0.09906289 -0.12816195
0002a0 e8 3a bf bd d7 09 81 3d 34 ff 4d 3d 53 ca 8a bd
       -0.09337407 0.06300705 0.05029221 -0.067768715
0002b0 1e ef ba bd 0f 7f 8c bc ea dd 5d 3c 6f b0 8f bd
       -0.09127639 -0.01715043 0.013541678 -0.07016074
0002c0 77 b0 0f bd 30 19 ab bd 69 b4 34 bd 9e ef 93 3d
       -0.0350804 -0.083544135 -0.044117365 0.07223438
0002d0 50 15 00 bc a1 2a 16 bd 41 a4 22 3e 51 71 62 bd
       -0.007817581 -0.036661748 0.1588297 -0.05528385
0002e0 bc 04 ec 3c 86 4a de bc 48 ca 31 3e 54 91 86 3d
       0.028810851 -0.027135145 0.1736232 0.06570688
0002f0 68 fb 34 3c d3 e8 fa bd ae d3 86 3d f0 a7 cb bd
       0.011046268 -0.12251439 0.065833434 -0.09944141
000300 a8 57 9e 3d 17 a8 73 3d 05 3f 40 3e a3 93 0b 3e
       0.07731563 0.059486475 0.1877404 0.13630538
000310 ae 29 d3 3d 25 ff 97 3d 4e 0d 12 3e e9 d3 59 bd
       0.10310684 0.07421712 0.14262888 -0.05318061
000320 a6 3b 0e 3d 9c 6f 99 3a 55 a0 b9 3c ff 79 5e bd
       0.034724854 0.0011706236 0.02265946 -0.054315563
000330 b4 1b e8 3d 5a f9 1b 3d e2 28 0d bc 89 5e e3 bd
       0.11333409 0.038079597 -0.008615704 -0.111020155
000340 c5 cc 68 bd e6 63 1f 3e 37 44 04 be d7 60 e5 bd
       -0.05683591 0.15565452 -0.12916647 -0.11200111
000350 4d 9c 88 be 54 0a 4f be c1 20 24 3d 1d 48 d6 3d
       -0.26681748 -0.20218784 0.0400703 0.10462973
000360 3f d0 d9 bc e1 ca 02 3d 46 da b6 bd f0 b9 0d bc
       -0.026588557 0.03193176 -0.08928351 -0.008650288
000370 a9 c8 20 be 3b 33 0f be fa 65 1e be e2 70 a2 bd
       -0.15701546 -0.13984387 -0.15468588 -0.07931687
000380 74 5f 21 3c a7 e8 bd 3d 18 e5 06 be 8a 48 a3 bc
       0.009849418 0.092728905 -0.1317333 -0.01993205
000390 35 6d b5 3c 1e c3 dc bc 61 73 64 bd df 01 f0 3d
       0.0221468 -0.026948508 -0.055774096 0.11719107
0003a0 4b 99 54 bd b3 22 ea 3c 4d d4 0f bc 8b 48 11 3e
       -0.051904004 0.028580999 -0.008778644 0.14187829
0003b0 12 69 fb bc 03 10 69 bd 3e 23 71 bd da 96 99 bd
       -0.03068975 -0.056900036 -0.0588715 -0.07499476
0003c0 27 fa ae 3c ad 0f 1e 3d f0 ad eb 3b ef 46 b1 bd
       0.021359516 0.03858917 0.007192366 -0.08656108
0003d0 85 2d 01 3e d4 e1 07 bd bd 7b 0a bc 36 e8 99 3d
       0.1261502 -0.03317435 -0.008452353 0.07514994
0003e0 f5 50 96 3d f1 54 df 3d c1 d7 a3 3c 4b 02 6d bd
       0.0733966 0.10904873 0.02000034 -0.057863515
0003f0 96 3e fe bd 14 6a 0c 3b ad 5b e1 3c c1 38 86 bd
       -0.12414281 0.0021425532 0.027509535 -0.06553794

enc.EncoderList.cell1.conv.bias f4 [8]
000000 48 10 59 bd ea 5c 64 3e af 2e 90 be 8a 4d 8d 3d
       -0.052994043 0.22301069 -0.28160617 0.06899555
000010 c6 43 ec 3b 8d b3 6c bc 35 4f bf 3d 6a 6e e1 bc
       0.0072102277 -0.014447105 0.093412794 -0.02751847

enc.EncoderList.cell1.activate.fcn.0.weight f4 [16, 16]
000000 e3 08 82 bd 0a bb 83 3e df a7 00 3d fd eb 8d be
       -0.06349351 0.25728637 0.031410094 -0.27719107
000010 77 df 17 3e 58 cb f8 3d 2a e8 6c 3e 13 e2 12 3e
       0.14831339 0.1214816 0.23135439 0.14344053
000020 1a 3c ad bc e3 ce a0 3d 52 95 7d bd d9 fa 4c 3e
       -0.021146823 0.078519605 -0.06190998 0.20017566
000030 3d 68 43 3d f2 9d a0 3d 4f 1a cf 3d 1e ad 9d be
       0.04770683 0.07842626 0.1011244 -0.3079614
000040 ef 35 18 be 9a 99 7b 3e 59 68 92 bd 82 50 60 bd
       -0.14864324 0.24570313 -0.07148809 -0.05476428
000050 9c bc a2 3c 86 84 af be f1 db 78 3d 6f 17 b2 3d
       0.019865327 -0.34280795 0.060756627 0.08695876
000060 61 df 06 3d 50 78 58 be ad 36 8a bd 00 2b 48 be
       0.032927874 -0.21139646 -0.0674871 -0.19547653
000070 61 40 43 bd 46 44 ab bd a0 f5 54 be 24 ff cc bd
       -0.04766882 -0.083626315 -0.20796824 -0.10009602
000080 b9 05 27 bd af 28 a5 3e 1f d0 71 bd 4d 9e fc bd
       -0.040776942 0.32257602 -0.05903637 -0.12334881
000090 42 8f 63 be aa f8 0a 3e ac 11 00 3e cc 87 73 3e
       -0.22222617 0.1357142 0.12506741 0.23782271
0000a0 69 6f 75 be b6 ee 02 be d5 79 95 bd bf 5b 21 be
       -0.23968281 -0.12786373 -0.07298628 -0.15757655
0000b0 f7 f1 41 be a0 0a 50 bd ec 09 95 bc 12 84 0a bc
       -0.18939959 -0.050791383 -0.018193208 -0.00845434
0000c0 55 7d 57 3e 74 7d be 3c 02 22 9a 3e 55 7b 45 bc
       0.21043904 0.02325318 0.3010407 -0.01205333
0000d0 47 31 3c 3e cf e7 94 bd d2 bf 5e 3e 50 b9 6c bd
       0.18378173 -0.072707765 0.21752861 -0.057793915
0000e0 5e b1 9d bd ea 95 e8 3d 04 40 16 bb ba 80 00 3e
       -0.07699846 0.11356719 -0.002292634 0.12549105
0000f0 ec 1b 93 3d f6 47 0f be 42 31 64 3e 21 a8 39 be
       0.0718306 -0.13992295 0.22284415 -0.18130542
000100 cf 26 6e bc fc 24 92 3e cb fc 34 be 7a 52 3c 3e
       -0.01453562 0.28543842 -0.17674558 0.18390837
000110 e2 9d 4e be 26 1d 9f 3e e6 2c 82 be 5d 3f d9 bd
       -0.20177415 0.31076926 -0.2542488 -0.10607789
000120 30 c9 45 bd de 2b eb bc e1 ce f8 bd cb a2 86 bd
       -0.04828757 -0.028707441 -0.12148834 -0.06574019
000130 62 1e 97 3e e0 79 47 3e e9 bb 40 3e 3a 9c cb 3d
       0.29515368 0.19480085 0.18821682 0.09941907
000140 8c 7e de 3d 23 d3 25 be a9 03 a8 3e 3a 2a 4b 3d
       0.10863981 -0.16193824 0.32815292 0.049600817
000150 77 7d fd 3d 4c 77 c7 3d 4c 91 aa 3d 78 4d c9 bd
       0.12377446 0.09739551 0.083284944 -0.09829229
000160 86 d0 3f 3e 36 7b 69 be d8 ae 98 be ed 77 8b 3c
       0.18731889 -0.22800907 -0.29820895 0.017024959
000170 33 99 09 3d 59 68 d8 3d 99 6c 85 3e 85 4d 39 bd
       0.033593368 0.10566778 0.26059416 -0.045239944
000180 33 dc 1c bc e5 69 74 3c 05 e4 a9 3e 29 15 0c be
       -0.009573984 0.014917825 0.33181778 -0.13679947
000190 d5 b6 b5 bc d0 fa 68 3e 60 92 16 3d c7 77 1d 3e
       -0.022181908 0.22751927 0.036760688 0.15377723
0001a0 99 be 96 3e 97 f1 d7 bd bc 6f 4e be 3c 5c ca bd
       0.2944229 -0.105441265 -0.20159811 -0.098808736
0001b0 fb 07 0a be e3 6d 3c be f0 61 7d be d5 7d 4f 3d
       -0.13479607 -0.18401293 -0.24744391 0.050657112
0001c0 ae 8c 2e 3e 22 67 7e 3e 27 c1 54 3e aa ff 2f 3e
       0.17045853 0.2484403 0.20776807 0.17187372
0001d0 36 30 35 be 48 5a 58 be 74 86 56 3e 4e 8b 26 3e
       -0.17694172 -0.2112819 0.20949727 0.16264078
0001e0 72 aa 02 be 50 b3 98 be ba 96 a4 bc af 0f 51 3e
       -0.12760332 -0.29824305 -0.020091403 0.20416139
0001f0 ec 1e 59 3c ac e8 48 be c3 30 0b 3d 9d 1f 7d be
       0.013252001 -0.19620007 0.03398205 -0.24719091
000200 f7 18 96 3d 70 4c 24 3e 19 2a c9 bc ce 13 a3 bd
       0.073289804 0.16044784 -0.024556207 -0.07962762
000210 be 52 c2 bd 9c 50 cc bc 03 ab 43 bd ca 68 22 3d
       -0.09488438 -0.024940781 -0.04777051 0.039650716
000220 01 db 8d bd d3 da 1a be 4f 22 6f be eb d3 25 3b
       -0.06926537 -0.15122537 -0.23352931 0.0025303315
000230 d5 51 9e bd f8 7b 19 3e 99 38 70 be d8 cc b4 3e
       -0.07730452 0.14988697 -0.2345909 0.35312533
000240 90 f5 1e 3d 59 12 45 be 01 a5 86 3d da 9e 6b be
       0.038808405 -0.1924528 0.06574441 -0.23009816
000250 9c 96 2d be a2 59 68 be ee ad 06 3e 9a cd 2c 3e
       -0.16951984 -0.22690442 0.13152286 0.16875306
000260 4d cc 0c be f3 53 49 bd e0 24 26 3e 4f 04 76 be
       -0.1374981 -0.049152326 0.16225004 -0.24025081
000270 58 9a 3a bd 2d fd c4 3d c6 bd f8 3d 03 08 60 bd
       -0.04555735 0.09618602 0.121455714 -0.05469514
000280 4a 4e 35 be 0b 9d 17 bd 98 fd 63 be 9f 02 c5 bc
       -0.17705646 -0.037015002 -0.22264707 -0.024049101
000290 00 b2 53 bb 3d c7 13 bd 72 6c 89 3d 03 c2 6b 3e
       -0.0032302141 -0.03607868 0.067101374 0.23023228
0002a0 7f bc 52 3e 10 c0 be 3a a0 b2 0e be 24 3f bb 3d
       0.20579718 0.0014553089 -0.13935328 0.091429025
0002b0 93 fa 82 3e c7 86 54 3e 53 f9 8a bd 7e eb 44 3e
       0.25581798 0.20754538 -0.06785836 0.19230458
0002c0 00 37 1a 3e a2 1a 03 3b 25 17 04 be ba 93 cf bd
       0.15060043 0.0020004888 -0.12899454 -0.101355985
0002d0 f7 c4 27 3e 2e c6 a4 3e 55 17 52 3d e4 16 24 be
       0.1638373 0.3218245 0.051291782 -0.16024357
0002e0 f5 eb 26 3e ec aa eb 3d 76 f9 0d bd 49 6a 5a be
       0.16300948 0.1150721 -0.034661733 -0.21329607
0002f0 d9 43 69 3e e2 ed 42 be 4c 3e 82 be 16 63 66 3d
       0.22779788 -0.19036058 -0.25438154 0.05624684
000300 ba 00 69 be cf 1d bf bd f5 8d bf 3d 62 c5 46 3d
       -0.22754183 -0.093318574 0.09353248 0.048528083
000310 da bc 4b 3e 3b 97 1c 3e ac 94 99 3d 4d ca 00 3d
       0.1989626 0.15292065 0.0749906 0.03144293
000320 8e 97 60 3e d5 1b 49 be ca a0 2b 3e 20 12 c5 bd
       0.21932814 -0.19639523 0.16760555 -0.09622598
000330 c7 dd 80 3e 0b 82 22 be 27 63 f7 3d 1c d9 11 be
       0.25169203 -0.1586992 0.12079459 -0.14242977
000340 85 04 3a bd e8 9f a8 bd c8 96 85 be 93 a6 4a 3d
       -0.045414466 -0.08233625 -0.260916 0.049475264
000350 4a 62 e5 3b 60 1c ae bd 73 d9 72 3e a4 54 9e 3d
       0.0070002424 -0.08501506 0.23715763 0.07730988
000360 84 fe 84 3d 5a ae 76 3d 28 da 78 bd 31 8f 5a 3e
       0.064938575 0.06022487 -0.060754925 0.21343686
000370 6f 17 7d be 2f 4c 85 3e e2 b3 fc bd 73 cf 61 3d
       -0.2471597 0.26034686 -0.123389974 0.05512948
000380 b5 2b 39 be 08 d7 5d bd 37 e7 3f be 4d 46 1f 3e
       -0.18083079 -0.054160148 -0.18740545 0.15554161
000390 2b ea 84 be 09 ae 75 be 3a 1f d3 bd 38 30 70 3c
       -0.25959906 -0.2399217 -0.1030869 0.014659934
0003a0 21 db d1 bd d9 e8 25 3e a9 d2 99 3e b7 aa 21 be
       -0.10246874 0.16202106 0.30043533 -0.15787779
0003b0 63 e7 7a bd 17 34 be bd 3e cd 76 3e eb 11 2d bd
       -0.061255824 -0.09287279 0.24101731 -0.042253416
0003c0 16 ec bc bd b8 de b4 bb 98 65 20 bd f0 13 79 bc
       -0.09224717 -0.005519714 -0.039159387 -0.015202507
0003d0 cc f7 42 3e 68 32 89 3e c4 a4 57 ba 0a 01 51 3c
       0.1903984 0.2679627 -0.0008226151 0.012756595
0003e0 d2 45 3a 3e e8 d2 69 bd 8f 3c 11 3d ad 0f 01 be
       0.18190697 -0.0570859 0.035458144 -0.12603636
0003f0 e8 43 1b be 7a d9 29 be d5 68 57 be 74 64 60 be
       -0.15162623 -0.16586867 -0.21036084 -0.2191332

enc.EncoderList.cell1.activate.fcn.0.bias f4 [16]
000000 26 d6 5a be e3 00 bf bd 8f e6 e9 3d a0 f1 13 be
       -0.21370754 -0.09326341 0.11420929 -0.14447641
000010 57 22 cf bc 99 64 b3 bc db b0 de bd 2e 67 40 be
       -0.02528493 -0.021898555 -0.10873576 -0.1878936
000020 1b 49 28 be af d7 44 3e 47 40 34 3b a2 68 82 3d
       -0.16434138 0.19222902 0.0027504133 0.063676134
000030 19 39 80 be 54 f1 71 3e 23 c9 9a bd ab a1 f5 bd
       -0.25043562 0.23627216 -0.07557895 -0.11993726

enc.EncoderList.cell1.activate.fcn.1.weight f4 [16]
000000 6b 38 7e 3f bd cb 7a 3f 02 43 7e 3f cc 35 7f 3f
       0.99304837 0.9796713 0.99320996 0.9969146
000010 1b e0 8e 3f d8 86 78 3f 96 73 7c 3f 6d 90 7c 3f
       1.1162142 0.97080755 0.9861387 0.98657876
000020 48 dd 80 3f db 34 81 3f 4f 27 99 3f 58 c1 77 3f
       1.006753 1.0094255 1.1965121 0.96779394
000030 16 c8 73 3f 17 71 85 3f f6 fd 7f 3f 2d 2b 84 3f
       0.9522718 1.0425137 0.9999689 1.0325676

enc.EncoderList.cell1.activate.fcn.1.bias f4 [16]
000000 d0 4f 55 3c a6 b3 ad 3d 0f 1c 56 bc 63 bb bb 3d
       0.013019517 0.08481531 -0.013068213 0.091666006
000010 33 a2 91 3c 6d b7 ec 3a 4a dc ec bd 64 56 44 3d
       0.017777538 0.0018060036 -0.11565454 0.04793395
000020 28 f8 c3 3d 93 72 d2 3d f9 40 73 3e 56 2b 23 3e
       0.095688164 0.102757595 0.23755254 0.159345
000030 be 3b c7 3d 3b 22 27 3e 18 dd 53 3e eb f9 4c 3e
       0.09728192 0.16321652 0.2068981 0.20017211

enc.EncoderList.cell1.activate.fcn.1.running_mean f4 [16]
000000 b2 16 5c bd 24 52 ea 3d 93 f8 08 3f 5a f9 44 3c
       -0.05373258 0.11441448 0.53504294 0.012022341
000010 c3 ec 40 be ec 4f 07 3d aa ca 89 3e e3 6b 91 3e
       -0.18840317 0.033035204 0.26912433 0.28402624
000020 2d 6d 87 bc 12 e7 11 bc 5c db 66 be be b4 82 3e
       -0.016531551 -0.008905189 -0.22544616 0.2552852
000030 ef 81 c1 be 2c ea a5 3e e7 94 e8 be e7 84 51 3e
       -0.37794444 0.3240522 -0.45426103 0.20460854

enc.EncoderList.cell1.activate.fcn.1.running_var f4 [16]
000000 42 e9 39 3d f6 f7 50 3d b0 25 05 3e eb 9f 8a 3d
       0.045388468 0.051017724 0.13002658 0.06768783
000010 0f 4b 86 3d 49 89 11 3e d1 f9 16 3d c5 af a2 3d
       0.06557285 0.14212526 0.036859337 0.07943682
000020 2e ac 28 3d c9 7f 80 3d bb 40 4f 3d 80 14 56 3d
       0.04117983 0.06274373 0.05059884 0.052265644
000030 73 8f 1d 3d 38 5f 35 3c 09 e9 85 3d 56 0c 07 3d
       0.038466882 0.011070065 0.065385886 0.03297075

enc.EncoderList.cell1.activate.fcn.3.weight f4 [8, 16]
000000 ca e3 03 3e 05 7d a1 3d c0 bf 19 be f0 ac 32 3d
       0.12879863 0.07885174 -0.15014553 0.043621957
000010 81 a9 28 be 6c e1 0d bd ce 56 48 3e a3 42 4a 3e
       -0.1647091 -0.034638807 0.19564363 0.19751982
000020 c4 c1 98 3e f8 ea 30 be 40 0d 52 be fc ba 29 3d
       0.2983533 -0.17277133 -0.20512867 0.041438088
000030 02 46 c5 3c f6 59 87 3d b8 cc 52 3d 54 23 e0 3c
       0.024081234 0.066089556 0.051464766 0.027360596
000040 4d 69 c2 bb 1a 5c 09 be 52 6e cc be 5f e2 8d be
       -0.005932963 -0.1341404 -0.39927918 -0.2771177
000050 56 60 41 3e 0c 56 6e 3d 86 05 50 3e 53 0f d8 bd
       0.18884405 0.05818753 0.20314607 -0.10549798
000060 45 86 0e be c6 5d 87 3e 69 93 29 3e ea 27 22 be
       -0.13918407 0.2643873 0.16560139 -0.15835539
000070 f3 99 b3 bc 87 d6 29 3e 3a c7 f9 3d 60 c3 4a bd
       -0.021923995 0.16585742 0.121962026 -0.04950273
000080 cb 97 02 be 95 d5 2c 3d a9 66 57 3e 00 64 28 3e
       -0.12753217 0.042195875 0.21035255 0.16444397
000090 3c ec cb bd bd 3a 46 be 1f fb b0 3d d5 f1 91 bd
       -0.099571675 -0.19358344 0.086416475 -0.07126204
0000a0 26 f5 3d bd 54 a2 1c 3e 93 89 dd bc bd f9 1b be
       -0.04637637 0.15296298 -0.02704314 -0.15231986
0000b0 5e 4d 4b be c0 f3 03 3e e8 00 c1 3e 8c bf 21 be
       -0.19853732 0.12885952 0.37696004 -0.15795726
0000c0 a1 4d d9 bd fd 57 35 3d ec b8 81 3d ce d8 75 be
       -0.1061051 0.044273365 0.06334099 -0.24008486
0000d0 74 28 6f be 6c 3f 85 3d bb 49 0e be 05 9a 3f 3e
       -0.23355275 0.065062374 -0.13895313 0.18711098
0000e0 3f a5 f2 bd 8a c9 ea bb 77 a4 f5 bd 73 21 6f be
       -0.118479244 -0.0071651386 -0.1199426 -0.23352604
0000f0 da d1 11 3e 61 a4 b6 bd e5 78 b2 3d 24 87 b9 bd
       0.14240208 -0.089180715 0.08714465 -0.09058979
000100 59 91 d9 bd 22 33 13 be d3 f3 a6 be 0a c4 56 be
       -0.10623426 -0.14374974 -0.32607898 -0.2097322
000110 51 3a f6 3d 3e 16 6a be ce 48 42 3c 2a 93 1c 3d
       0.12022842 -0.22860047 0.011858178 0.038226284
000120 06 07 f6 bc c3 6d 4e be d4 b0 19 3f e8 75 4c bd
       -0.030032646 -0.20159058 0.60035443 -0.04991713
000130 66 fb 4e 3e eb 28 67 3e c2 7a f2 3c 55 7f df 3d
       0.20213088 0.22574203 0.029599551 0.109129585
000140 86 90 b8 3d 81 bc 5a 3d 7c 1a 8e be 59 a5 6d bd
       0.09011941 0.053402428 -0.2775458 -0.058019016
000150 bb 79 c8 3e ac c2 2c 3e 42 de 2a 3d df 92 1d bd
       0.39155373 0.16871136 0.041715868 -0.038470145
000160 f4 9f 9c 3c b9 a7 b6 bd 08 df 87 3e 31 23 35 bc
       0.01911924 -0.08918709 0.26537347 -0.011055754
000170 43 e1 64 3e c8 2a 0d 3e 14 f4 4a be dc 22 28 bd
       0.22351556 0.13785851 -0.19819671 -0.04104887
000180 98 dc a9 3d 49 0c 8a be 62 74 f5 3d 67 b9 0d be
       0.08294028 -0.26962498 0.11985089 -0.13840257
000190 d5 78 88 be 2f 2d 80 bd ff 7f 6a bb dd 82 8e be
       -0.26654688 -0.06258618 -0.0035781858 -0.27834216
0001a0 06 27 47 be fe 4b 2f be 0e f6 2c bd 50 69 c1 bc
       -0.1944848 -0.17118832 -0.042226844 -0.023609787
0001b0 87 79 cd bd 7b 15 5a be ce b9 ad 3b 19 29 10 3e
       -0.10032945 -0.21297257 0.0053016907 0.14078178
0001c0 b7 c1 97 bd 86 bb 1f 3e 68 2d 4c 3e 59 57 d1 bd
       -0.07409995 0.15598878 0.19939196 -0.10221738
0001d0 b7 d9 6a be 33 a3 af bd 99 20 01 be 2f 42 96 bd
       -0.22934614 -0.0857605 -0.12610091 -0.07336842
0001e0 6f 11 6f 3e 8b 73 41 3e fa 27 59 be f3 67 1a 3d
       0.23346494 0.18891732 -0.21206656 0.03769679
0001f0 86 be 1b be f7 6a a6 3d 15 17 49 3e 2b 64 db bd
       -0.15209398 0.08125871 0.19637711 -0.10712465

enc.EncoderList.cell1.activate.fcn.3.bias f4 [8]
000000 1b 3d 11 bd 8c c3 54 3d df 81 34 be 99 75 00 3d
       -0.035458665 0.0519443 -0.17627667 0.03136215
000010 7e 3f 13 3e 98 e2 d2 3d 60 6d e9 bd c7 aa e6 3d
       0.14379689 0.102971256 -0.11397815 0.11263042

enc.EncoderList.cell1.activate.fcn.4.weight f4 [8]
000000 05 bb 5f 3f 36 37 4d 3f 5d 9d 80 3f 60 d2 5b 3f
       0.87394744 0.8016237 1.0048023 0.8586788
000010 6b c2 42 3f ac b0 4f 3f 42 1b 62 3f 9f ee 32 3f
       0.7607791 0.81128955 0.8832284 0.69895357

enc.EncoderList.cell1.activate.fcn.4.bias f4 [8]
000000 b7 76 9d bc 8a ef 04 be 43 8e 6a be 1f 83 15 3e
       -0.019221647 -0.12982002 -0.22905831 0.146008
000010 da a0 b1 3e 64 c0 1f bc 93 7f 79 3e 3a c3 a4 3e
       0.34693033 -0.009750459 0.24365072 0.32180196

enc.EncoderList.cell1.activate.fcn.4.running_mean f4 [8]
000000 f4 f2 a6 3d 8e 1f 53 3d 09 e6 04 be b1 c9 a6 be
       0.081518084 0.051543765 -0.12978376 -0.32575753
000010 f2 de a2 3e 13 7f df 3e db bd 38 bf 64 d4 6d 3d
       0.3181072 0.43651637 -0.72164696 0.05806388

enc.EncoderList.cell1.activate.fcn.4.running_var f4 [8]
000000 00 0e 96 3e cb d6 98 3e e2 12 ab 3e 67 a0 4a 3e
       0.29307556 0.29851374 0.33412844 0.19787751
000010 f8 c4 02 3f cf c6 be 3e fa 37 27 3e 56 92 aa 3e
       0.510818 0.37261054 0.16329947 0.3331477

enc.EncoderList.cell1.bn.weight f4 [8]
000000 32 84 5a 3f a4 ba 79 3f 4a c3 5f 3f 9d 1a 57 3f
       0.85357964 0.97550416 0.8740736 0.84024984
000010 44 01 5b 3f 78 5f 63 3f b8 cf 49 3f 5e 6a 65 3f
       0.85548806 0.8881755 0.7883258 0.8961543

enc.EncoderList.cell1.bn.bias f4 [8]
000000 ad e6 ba bd 41 51 8c bd c4 8b ed bd c8 fa 77 be
       -0.09126029 -0.068514355 -0.11598924 -0.24216759
000010 2f 48 a2 bd a5 10 f2 3d 95 f8 18 be 9c 89 77 3d
       -0.07923924 0.11819581 -0.14938577 0.06043397

enc.EncoderList.cell1.bn.running_mean f4 [8]
000000 f7 37 18 3d f7 0b 5d 3e d1 c9 df bd 8c 8d bc 3e
       0.037162747 0.21586595 -0.10927165 0.36826742
000010 19 ad 2a bd a4 08 5d 3e a3 60 77 3e 92 0e 42 3d
       -0.041668985 0.21585327 0.24157958 0.047377177

enc.EncoderList.cell1.bn.running_var f4 [8]
000000 cf 64 22 3f 13 e2 8a 3e 6f 50 8c 3e 46 f7 91 3e
       0.6343507 0.27125606 0.27405116 0.28508967
000010 28 4e 2c 3e d8 d8 e8 3e f2 29 ab 3f 44 32 f8 3e
       0.16826689 0.4547794 1.3372176 0.4847585

enc.EncoderList.cell2.conv.weight f4 [16, 8, 3]
000000 bd 62 ba 3d bd 13 13 3e 4d 2e 25 3e 60 a4 0d 3e
       0.09100864 0.14362998 0.16130944 0.13832235
000010 40 d1 8d be 48 36 d3 bd f0 64 52 3d 1c ab 74 bd
       -0.27698708 -0.10313088 0.051365793 -0.059733495
000020 3b f9 98 3d 97 e3 96 bd 57 7d 3a bd e2 ba 38 3d
       0.07469412 -0.07367628 -0.04552969 0.0451001
000030 66 44 3a 3e a4 4e 6f be 50 ee 84 3d d7 13 4a 3e
       0.18190154 -0.23369843 0.06490767 0.19734131
000040 e7 c0 8a bd de 0a 28 be e8 1e 8b bc 7d b1 4c 3c
       -0.067750745 -0.16410396 -0.01698251 0.012493488
000050 46 6e 05 bd a1 17 82 bd 4a 9d 0a be 76 6c 05 3c
       -0.032575868 -0.06352163 -0.13536564 0.008143535
000060 ab d3 42 be a6 3a e0 3d f6 bd 48 3e 99 d0 5e 3e
       -0.19026057 0.10948686 0.19603714 0.21759261
000070 8f e9 84 3e 60 00 fb bc a6 c7 a4 bd c1 cd 09 be
       0.2595944 -0.030639827 -0.080458924 -0.13457395
000080 88 f0 23 bd e5 38 5c 3d a1 93 26 3e 80 e6 ad 3d
       -0.04002431 0.053765196 0.16267253 0.0849123
000090 c0 23 63 3d 65 20 5d 3b b1 33 b7 bc 04 f9 b6 3c
       0.055454016 0.0033741232 -0.022363516 0.022335537
0000a0 ea f0 98 3d 6c d6 c5 bd 21 41 a5 bd 02 93 14 be
       0.07467826 -0.09660038 -0.08069063 -0.14509204
0000b0 47 8f 97 3d b4 4a 49 bc d9 f5 63 be 1b 92 01 3e
       0.07400375 -0.012285877 -0.22261752 0.12653391
0000c0 d4 62 0b be 65 16 3d 3e e9 7f 66 3e 4a 61 1b 3c
       -0.13611919 0.18465574 0.22509731 0.009483645
0000d0 3c eb 68 bd ef d7 9b 3a 87 94 2a 3e 6d 66 b9 3d
       -0.056864962 0.0011889915 0.16658221 0.09052739
0000e0 df e9 73 bd 04 09 3a 3e e9 22 58 3e 7d 07 d7 bd
       -0.05954921 0.18167502 0.21107067 -0.10499475
0000f0 38 26 5d be 7d b2 e5 3d a7 50 81 3e da d5 5e be
       -0.2159661 0.112156846 0.25256845 -0.21761265
000100 8c 4a c8 3d 52 46 4f 3e 27 a7 6a 3c 9c a0 4e 3b
       0.09779844 0.20241669 0.014322079 0.0031528836
000110 73 f4 1d 3e dc 9e 4a 3e 16 3a 2f be 64 7d 3b 3d
       0.15425281 0.19787163 -0.17112002 0.04577388
000120 1e 2d 69 bd 4a ad 3d be 60 06 49 3d 7a 3a 29 be
       -0.056927793 -0.18523136 0.049078345 -0.16526213
000130 85 ed 2e 3e 21 06 7b be fb 5f 8f 3d dd 08 d9 bd
       0.17082794 -0.24514057 0.07000729 -0.10597394
000140 4a e8 34 3e 4f db 7a 3e 74 45 99 be 5b 38 3e 3d
       0.17666736 0.24497722 -0.299358 0.046440464
000150 e2 ca b0 bd 00 66 bb 3d 33 32 38 3a d7 85 e2 bd
       -0.08632447 0.09150314 0.0007026523 -0.11060684
000160 21 31 9c 3e 35 22 57 be b2 92 3f be f6 8a d6 3d
       0.30506232 -0.21009143 -0.18708304 0.104757234
000170 56 11 0c 3d a4 f1 ca bd 4f 3c 8d 3e a4 75 2e be
       0.03419622 -0.099093705 0.27585074 -0.17037064
000180 8d e2 44 bc b8 35 55 bd 03 b5 38 3e 81 d5 7c 3d
       -0.012016905 -0.052053183 0.180378 0.06172705
000190 0b 4a 20 bb ae b5 26 be aa dd 6c 3d b1 f3 2a 3e
       -0.0024458196 -0.16280243 0.057828583 0.16694523
0001a0 8a 87 f6 bd 34 53 c5 3b 4b a7 14 be 6f b1 80 3d
       -0.12037571 0.0060218815 -0.14516942 0.06283843
0001b0 b8 ee 8d 3c 05 dd 32 be 7b 36 18 be 1d f6 1d be
       0.017325744 -0.17467125 -0.14864533 -0.15425916
0001c0 e2 fd 04 3d fe 29 0d be 9c df cc 3c 1b c7 dc bc
       0.032468684 -0.1378555 0.025008969 -0.02695041
0001d0 ee 2b 52 bd 95 84 6b 3e bc 40 6f 3c 25 42 57 bc
       -0.051311426 0.22999795 0.014602836 -0.013138329
0001e0 06 d8 c4 3d fb c2 12 be 74 95 0e 3e cc 36 1d 3e
       0.09611516 -0.14332192 0.139242 0.15352935
0001f0 18 53 05 3e b5 42 02 bd 4f 0e be bd c6 2c b9 be
       0.13019979 -0.031801898 -0.09280073 -0.36166972
000200 91 c1 24 3e b2 38 92 3d 5f 8c 44 3e 36 2d 05 3e
       0.16089465 0.0713972 0.19194172 0.13005528
000210 27 6a cb 3d 60 3c ea 3d c4 b8 8d 3d d8 7d 35 be
       0.09932356 0.11437297 0.06920007 -0.17723787
000220 e3 83 e1 3d 03 bc 24 bd be c1 64 3d a1 0b 89 3d
       0.110114835 -0.040218364 0.05584883 0.06691671
000230 30 8f 04 3e 3f 26 f1 3d e3 28 32 3d 6e 27 d0 3d
       0.12945247 0.11774873 0.043496024 0.101637706
000240 7a d9 2b 3e cf 20 2e 3e c0 a9 83 bd fd 2b d0 bd
       0.1678218 0.17004703 -0.064288616 -0.1016464
000250 97 d1 29 3e 79 4e e2 3d 7f 8f b4 3d 78 3e e5 3d
       0.16583858 0.11050124 0.08816432 0.111935556
000260 95 96 e6 3d cf 91 3a 3e 35 93 82 bd 6c 25 b6 3c
       0.1125919 0.18219684 -0.06375734 0.022234641
000270 82 73 34 3d 05 73 53 3d 21 b5 65 be 95 22 2a be
       0.04405547 0.051623363 -0.22432376 -0.16614754
000280 a5 1e 95 3d 1e fa 9b be 98 1b 4d be d7 d7 2a 3e
       0.072812356 -0.30464262 -0.20030057 0.16683899
000290 71 ee 5c bd a9 e2 2d be ca 4b 9a be 59 48 82 be
       -0.053938333 -0.16980995 -0.30135947 -0.25445822
0002a0 4c 72 3d 3e 11 93 f3 bd 2e 9e 11 3e 82 b9 37 3e
       0.18500632 -0.11893285 0.14220497 0.1794186
0002b0 74 a4 4c 3e b7 7b 64 bd 85 8d 69 be 0c cf 9d 3d
       0.19984609 -0.055782046 -0.22807892 0.07705507
0002c0 04 2c 83 3d a2 26 a4 3c 7e ad 3f 3d 37 31 cc bb
       0.0640488 0.020037953 0.046796314 -0.006231453
0002d0 f1 03 98 3c a8 79 db bd cc 70 00 be 1f 93 57 3e
       0.018556567 -0.107165635 -0.12543029 0.21052216
0002e0 cf 9d 2e 3e b6 75 20 3d 03 ee 5c bd 88 5b 7c bd
       0.17052387 0.039174758 -0.053937923 -0.06161073
0002f0 62 f9 1c 3d 7f 38 8e bd 45 ea 49 bd 0c 81 1f 3e
       0.038323767 -0.069443695 -0.049295682 0.15576571
000300 8a ca 3b be 13 4e 01 be 51 e5 d3 3d e2 65 ed bd
       -0.18338981 -0.12627439 0.10346473 -0.11591698
000310 fe a0 b6 ba 5f 10 8d be 21 31 bb bd 98 00 1c bd
       -0.0013933477 -0.27551553 -0.0914023 -0.038086504
000320 98 1f 3e be 30 11 02 3e df a0 45 be fd dd 06 be
       -0.1856674 0.12701869 -0.19299649 -0.1317062
000330 2c 58 15 be ec 24 ce 3d f9 a6 77 be ec bd 7c 3e
       -0.14584416 0.10065636 -0.24184789 0.24681824
000340 06 8e 2f 3d 24 d0 a2 3d 38 ba 59 3e 87 c8 70 bd
       0.042860053 0.07949856 0.21262443 -0.058784988
000350 f2 62 11 be b0 47 4a 3e 49 f2 fa bd e6 26 99 3d
       -0.14197901 0.19753909 -0.122532435 0.074781224
000360 d9 54 e4 bd 20 5b 82 3d 23 a4 13 3c e0 71 f6 bd
       -0.11148996 0.06365037 0.009011301 -0.12033439
000370 53 a9 b8 3e 51 d1 ad 3d 47 66 7e bd 05 7a d4 bc
       0.36066684 0.084871896 -0.062109258 -0.02593709
000380 58 ce 9b bc b9 1b 04 3e 8e 03 38 3c 10 8b d6 3d
       -0.01901929 0.129012 0.011231316 0.10475743
000390 ff 12 38 bd e6 e4 2b be 4a e0 48 bd 41 e1 02 be
       -0.04493999 -0.16786537 -0.049042024 -0.1278124
0003a0 ea bd 34 3e 4d a2 3d be a7 19 be 3d b2 21 c1 3d
       0.17650571 -0.18518944 0.092822365 0.09430255
0003b0 fb 5e d0 3d 8f ba 41 be 21 59 3a 3d ac 49 53 3c
       0.10174366 -0.18918823 0.045495156 0.012895983
0003c0 2a 7c 1a be 09 fe 8f 3d a4 15 8c 3e 69 30 08 3e
       -0.15086427 0.07030875 0.2736026 0.13299717
0003d0 89 c2 e6 bc 7f b4 4f 3e 30 22 f6 3b 80 82 12 3e
       -0.028168933 0.20283698 0.0075113997 0.14307594
0003e0 9e 3c 77 3e ce cc 22 3d d1 51 1e be 68 63 ae 3d
       0.24144217 0.0397461 -0.15460898 0.08515054
0003f0 17 6e 0c be d1 3d 51 be 58 a2 b5 bd fa a8 89 3d
       -0.13713871 -0.20433737 -0.08868855 0.06721683

enc.EncoderList.cell2.conv.bias f4 [16]
000000 ed eb 0d 3e 06 f5 d1 be 57 99 a9 bd 94 ae 20 3d
       0.1385953 -0.4100725 -0.082812004 0.03922899
000010 12 51 9d 3e 87 64 ab 3e d2 a1 88 3e f0 08 c7 be
       0.30725914 0.33475134 0.2668596 -0.38874006
000020 eb 62 10 3e 6d 38 0a be 0d 74 c6 be 73 b8 d5 be
       0.14100234 -0.13498087 -0.38760415 -0.41742286
000030 e6 4f 54 3d b1 8a fb be 45 52 4c 3e 8d f8 f3 be
       0.05183401 -0.4912925 0.19953258 -0.47650567

enc.EncoderList.cell2.activate.fcn.0.weight f4 [32, 32]
000000 c1 ee c6 3d 26 92 9f bd 28 d7 05 be 43 75 a3 be
       0.097135074 -0.077915475 -0.13070357 -0.319254
000010 49 6b 1c be fb 6e 03 3d 73 dd ce 3d 3c 13 97 bc
       -0.15275301 0.03208826 0.10100832 -0.018441789
000020 eb 12 bc 3e dd ac f2 bd 30 b4 90 bb 99 30 98 be
       0.36733183 -0.11849377 -0.0044160113 -0.29724577
000030 da 11 67 bc 02 74 f3 bd ae 3c 0d be 2e bd 2a bd
       -0.014103377 -0.11887361 -0.13792679 -0.041684322
000040 b8 26 31 be 50 6e 5f 3c 84 b1 1f 3e d6 f7 c3 bb
       -0.17299926 0.01363714 0.1559506 -0.005980472
000050 f4 8b 5d bc fc cd 9d bd 78 13 b3 bc 0b bf da 3d
       -0.013522137 -0.07705304 -0.02185987 0.1068097
000060 c6 e6 88 bd 7d 45 aa bd 1a ff 08 3c 0a 3e 97 bd
       -0.066846415 -0.08314035 0.008361602 -0.0738488
000070 90 d5 52 be d7 ec 79 bd bf f2 01 3e 0a 63 72 bd
       -0.2058928 -0.061016884 0.12690257 -0.059176482
000080 69 b6 25 3c 16 06 69 bd 4d d8 42 3d 03 0c e7 3e
       0.010114291 -0.05689057 0.04756956 0.45126352
000090 ff 0c 62 3d 22 08 05 3e 95 70 8b bd 83 4e b2 bc
       0.055188175 0.12991384 -0.06808583 -0.021765953
0000a0 3d 81 86 3c 34 d1 7c 3d 0b 71 3d be d0 aa 97 3e
       0.016419047 0.06172295 -0.18500154 0.29622507
0000b0 17 d7 10 3d b5 58 64 3d ad 47 dc bc aa 6f 43 bd
       0.035361376 0.05574866 -0.026889646 -0.047713913
0000c0 a7 fa c4 ba bf 8e 00 3e 73 14 29 be ca da 78 be
       -0.0015028314 0.12554453 -0.16511707 -0.24302211
0000d0 3d 97 90 bd a5 ea 85 bd 14 65 3e 3e 49 cf cd bd
       -0.070600964 -0.065388955 0.18593246 -0.10049302
0000e0 bd b2 9a bd 98 ab 36 3e 63 e2 bd 3b 78 1f d9 bc
       -0.07553623 0.17838895 0.0057948097 -0.026504263
0000f0 75 69 13 bd 20 41 12 3e db 49 21 bd 61 b6 82 bd
       -0.035989244 0.14282656 -0.039377075 -0.06382442
000100 52 6b 57 bd cf 92 53 be 30 fa dc bc 78 78 74 3e
       -0.052592583 -0.20661472 -0.026974767 0.2387408
000110 a0 c0 17 3e 2c d8 06 3e 2f 2b 7f be dd 35 dd bd
       0.14819574 0.131684 -0.24918817 -0.10801289
000120 de 7d a5 bd d0 8b 61 be 97 58 30 3e 6c c3 c6 3e
       -0.08080648 -0.2202599 0.17221294 0.3882097
000130 e5 33 10 3e 60 da 2b 3e 43 16 21 bd 7c 6f 8e bd
       0.14082296 0.16782522 -0.03932787 -0.06954858
000140 47 bb 2e 3d 0a 24 3c 3e ba 21 76 bd 59 e2 65 bd
       0.04265907 0.18373123 -0.060090758 -0.056124065
000150 2b 1f a1 bd 2c 9e 5e be 95 e8 15 3e f3 25 53 bd
       -0.07867273 -0.21740025 0.14639504 -0.051549863
000160 1f 22 b9 bd 94 26 1b 3e 58 2d 84 3c a5 f5 a2 bd
       -0.09039711 0.15151435 0.016134903 -0.07957009
000170 f4 31 94 bd 8f 35 22 bd 6e e0 d6 3d 33 07 2c 3e
       -0.0723609 -0.03960186 0.10492025 0.16799621
000180 f3 53 db 3d cd e4 1c 3e a8 9a 61 3d 7d 19 86 be
       0.107093714 0.15321656 0.055079132 -0.2619132
000190 d1 a2 8c 3e dd f7 ae 3c 05 81 07 3d 59 1c 5d be
       0.2746797 0.021358425 0.033082027 -0.21592845
0001a0 40 c2 5c 3d d4 54 a1 3d 5b fe 64 3b b9 b8 84 be
       0.05389619 0.07877508 0.0034941647 -0.25922182
0001b0 61 85 81 be aa 26 81 3e 1b de b2 bc 7c cb 20 bd
       -0.25297073 0.2522481 -0.021834424 -0.039256558
0001c0 1e 66 f4 bd c3 40 84 be ee a8 d3 bc d2 8d 72 3d
       -0.1193354 -0.2583066 -0.025837388 0.05921728
0001d0 62 0d 27 be 57 88 a8 bc 0b 47 87 3d 1d b7 19 3d
       -0.16313699 -0.020572824 0.06605347 0.037528146
0001e0 09 83 f0 3d f7 cb 10 bd 69 5e e5 3d 90 1a 6d bd
       0.11743743 -0.035350766 0.11199648 -0.05788666
0001f0 ec 67 df 3c 00 e7 99 3d 7f 8f 2f be e6 c3 7d 3e
       0.027271233 0.07514763 -0.17144583 0.2478176
000200 b9 85 a7 bd d8 2e 11 bd a4 57 e6 ba 05 42 a2 3e
       -0.081798024 -0.035445064 -0.0017573726 0.31690994
000210 34 41 04 be e8 5f c5 3d 89 ef 70 be c8 a5 d5 bd
       -0.12915498 0.09637433 -0.23528875 -0.10432011
000220 ae c7 ea bd 4c 77 4b bd 20 86 cc 3b 1f 2c e8 3d
       -0.11463867 -0.049674317 0.006241575 0.113365404
000230 9f b2 aa 3d b7 89 09 be 89 8c a8 bd e3 e1 ab bc
       0.083348505 -0.1343144 -0.0822993 -0.020981735
000240 9c 8e a3 3d c8 96 2c 3d a3 ac d6 bd 4b bc af be
       0.07986185 0.042135984 -0.104821466 -0.34323344
000250 53 ef cd bd 48 e1 9e 3d 01 b8 d1 bd af d1 37 3c
       -0.10055413 0.07757813 -0.10240174 0.011219426
000260 23 07 6b 3e 6e b0 13 3e 75 c3 00 3e 92 e3 a6 3c
       0.22951941 0.14422771 0.12574561 0.020372186
000270 2b 54 0b 3e a7 71 9c 3c 83 5c a3 bd c1 d5 5f bc
       0.13606326 0.019097162 -0.079766296 -0.013661803
000280 c6 02 62 bd 71 12 50 be c7 a0 d6 bd 70 52 18 bd
       -0.055178426 -0.20319535 -0.104798846 -0.037187994
000290 ad a4 af 3d 85 c5 84 3d 50 9a 9d bd 2d bd 97 be
       0.08576331 0.06482986 -0.076954484 -0.29636517
0002a0 0c 09 4a be e4 14 89 3d e0 94 00 be d6 a9 e4 3d
       -0.19730014 0.06693438 -0.12556791 0.11165206
0002b0 c4 e6 14 3d 6f e3 eb bd 08 e9 e7 bd ef e6 a9 bd
       0.036352888 -0.11517989 -0.11323744 -0.08296
0002c0 31 2b fc 3d 08 9d 29 3e 84 20 83 be 2e b5 ce bd
       0.123129256 0.16563809 -0.25610745 -0.10093151
0002d0 0f 73 2e 3e c2 33 30 3e 96 a0 a4 bc 0e d6 d7 bd
       0.17036079 0.17207244 -0.020096105 -0.105388746
0002e0 8f ee 16 3e 14 0a 49 3d ae 6e 51 3d e0 17 ec bd
       0.1473944 0.049081877 0.051130943 -0.11527991
0002f0 21 6d 04 3e aa 32 a3 3d 71 8a 21 3d 58 47 a9 3d
       0.12932254 0.07968648 0.03943867 0.08265561
000300 78 d5 40 3e ed 0f b7 3d 87 15 94 bd 22 46 8f 3d
       0.18831432 0.089385845 -0.072306685 0.06995799
000310 c1 92 f7 bd 31 12 e4 3d 1a ae eb bd d1 f7 51 3e
       -0.12088538 0.11136282 -0.115078166 0.2050469
000320 89 84 92 3e f4 71 63 bd c5 b3 d0 3c 87 45 92 bc
       0.2861674 -0.055528596 0.025476346 -0.017855419
000330 d8 c2 ae 3b be 33 af 3d 14 da f8 3d 5c 17 da bd
       0.005333286 0.08554791 0.1215097 -0.10648987
000340 fe c6 00 be 86 e9 46 3e fa 5d 8c bb 1b 6e 8d bd
       -0.1257591 0.1942502 -0.004283664 -0.069057666
000350 9e f1 e1 3d 88 4c 6e 3e 84 fd 92 bd 17 bc 59 3c
       0.11032413 0.23271382 -0.071772605 0.013289473
000360 1f 70 30 be bd 7a 64 3d 7d 9b 83 3d 4e df 30 be
       -0.17230271 0.055781115 0.064261414 -0.17272684
000370 1a ac d4 39 22 3f 1c be 89 dd 5b bd 8a 5d f9 bd
       0.00040564017 -0.15258458 -0.05367807 -0.12176044
000380 18 96 13 be 73 f8 95 be db 89 d5 bc af c0 70 3e
       -0.14412725 -0.29291114 -0.026066711 0.23511003
000390 4a 95 43 bd 5d ad 21 3d 68 18 36 bd d3 0a ab be
       -0.047749795 0.039471973 -0.04445687 -0.33406696
0003a0 a2 4f 0a be ba 18 ad bb b9 35 8a be a6 2f f7 3e
       -0.1350694 -0.0052824887 -0.26994112 0.4827854
0003b0 9e da 19 3e a3 46 4f 3e 45 2c 9d 3c 36 05 9e 3b
       0.15024802 0.2024179 0.019186148 0.0048223985
0003c0 02 f4 18 3d 0a 9f 4b bd 7f 64 18 3b 01 68 33 be
       0.03734208 -0.04971222 0.002325326 -0.17520143
0003d0 cc 94 3c 3e 97 da 07 be 92 1e 6c bb 30 8c d3 bd
       0.18416137 -0.13266979 -0.0036028964 -0.10329473
0003e0 42 29 ae 3d d0 1a 0e bd 8f 27 a1 3d 48 9f c9 bc
       0.08503963 -0.03469354 0.07868873 -0.024612084
0003f0 ec f4 12 3e 61 f9 12 be be b9 08 3e e7 30 f4 3c
       0.14351243 -0.14352943 0.13352105 0.029808475

enc.EncoderList.cell2.activate.fcn.0.bias f4 [32]
000000 af d8 3a bd e1 a6 e8 3d 1c 32 31 3e bc 90 f5 bb
       -0.0456168 0.113599546 0.17304271 -0.0074940603
000010 3a 17 bd bc 34 22 ba bd c4 c9 ac bd 8c de 14 3e
       -0.023082364 -0.09088555 -0.08436921 0.1453802
000020 4a fa cb bb 8b da 99 3c 36 1e 00 be 90 be d5 3d
       -0.006224905 0.018780967 -0.12511525 0.104367375
000030 85 c6 d4 bd dd 61 5c bd e4 ec 7c 3d c8 c8 20 3d
       -0.10389427 -0.053804267 0.061749354 0.03925398
000040 55 ae 92 3c ac 95 f3 3d 33 c2 ab 3c ba 2e b0 3d
       0.017905394 0.11893782 0.020966625 0.086026624
000050 92 44 9f bc 27 8c 99 3d ac e7 83 bd 9a 18 52 bd
       -0.019441877 0.07497435 -0.06440672 -0.051292993
000060 ee 20 47 be b0 f3 7b bc 5f 15 b0 bd 31 26 08 be
       -0.19446155 -0.015377924 -0.08597826 -0.13295819
000070 61 6b 9c bd 20 19 b5 3c a0 b1 cb bd 9e 3b 4b bd
       -0.076376684 0.022106707 -0.09945989 -0.049617402

enc.EncoderList.cell2.activate.fcn.1.weight f4 [32]
000000 3f 8b 7f 3f 78 90 82 3f b1 f7 97 3f a1 64 81 3f
       0.9982185 1.0200338 1.1872464 1.0108835
000010 d6 3b 84 3f a2 ab 7a 3f 7b 33 64 3f 6c 7d 93 3f
       1.033076 0.9791814 0.8914105 1.1522651
000020 e5 35 87 3f 1f af 74 3f a4 ec 75 3f 16 5d 69 3f
       1.0563322 0.95579714 0.9606421 0.9115766
000030 6b 61 85 3f cf 7e 6e 3f f0 bd 76 3f e6 e5 74 3f
       1.0420355 0.93162245 0.9638357 0.956633
000040 79 f2 8a 3f 5f 70 8e 3f b1 ac 80 3f da dd 81 3f
       1.0855247 1.1128043 1.0052701 1.0145829
000050 f9 9c 6e 3f 62 c3 7a 3f b2 40 69 3f 10 cd 83 3f
       0.9320827 0.9795438 0.9111434 1.0296955
000060 1f 86 a7 3f 7c 83 71 3f eb e6 78 3f df 92 8d 3f
       1.3087806 0.94341254 0.9722735 1.1060447
000070 97 d8 84 3f c2 07 7e 3f 62 56 89 3f bd 3d 7e 3f
       1.0378598 0.9923059 1.0729487 0.99312955

enc.EncoderList.cell2.activate.fcn.1.bias f4 [32]
000000 63 f2 87 3d 71 6b 7a 3a 40 42 07 bc 0e fd 25 bd
       0.066380285 0.0009552753 -0.008255541 -0.040524535
000010 a2 5a 46 be 3d 51 08 be 3b d6 39 3e 3d c4 86 3e
       -0.19370511 -0.1331224 0.18148129 0.26321593
000020 9d ff 45 3e 16 63 95 3e ac 00 1c bd 2f 59 25 bd
       0.1933579 0.2917716 -0.03808658 -0.040368255
000030 47 ae 00 be 8c 5e 18 be 98 ac 4d 3e c4 30 80 3c
       -0.12566482 -0.14879817 0.2008537 0.015648253
000040 77 7e 96 3d ce 65 41 ba e0 4b af 3b 1f fd f8 3c
       0.0734834 -0.0007377536 0.005349621 0.030394135
000050 ee ef b9 bd e6 bc 4e bd e5 1d 8a 3e 0e 62 9d 3d
       -0.09078966 -0.050473116 0.26975933 0.07684718
000060 9a db 1b 3e d6 91 67 be c2 29 3a 3e dc 9c 20 3e
       0.1522049 -0.22614226 0.18179992 0.15684837
000070 bc 75 31 be fe 7f 1d be 03 76 32 3e 1a ad 2a 3e
       -0.17330068 -0.15380856 0.1742783 0.16667596

enc.EncoderList.cell2.activate.fcn.1.running_mean f4 [32]
000000 cc 22 a5 3d c3 d0 2b 3e 17 bf 83 3d 0a 95 09 3d
       0.080632776 0.16778855 0.06432932 0.0335894
000010 70 db 97 be 8b bf ca be ef 38 64 3e b8 4e 15 3e
       -0.29659605 -0.3959926 0.22287343 0.1458081
000020 c7 86 da be 74 89 0b 3f 91 5f 8c be 69 ca 57 3e
       -0.42680952 0.5450661 -0.2741666 0.21073307
000030 a7 62 50 be d3 67 cb bd b5 c3 37 3e b4 af 4a 3e
       -0.20350133 -0.09931912 0.1794575 0.19793588
000040 78 db 75 bd 5c 85 2d bd f3 f5 90 bc 76 48 23 bf
       -0.060023755 -0.04236351 -0.017695403 -0.6378244
000050 65 ad 58 bd 15 da 10 be 5a 41 8d 3c 3c 66 a6 be
       -0.052899737 -0.14145692 0.017243076 -0.32499874
000060 8d fa d9 be a2 c2 aa 3e 89 65 56 3d 77 8c 71 be
       -0.42573968 0.33351618 0.052342925 -0.2358874
000070 38 48 9f ba 55 ed 85 3d 05 09 7d be 2a f2 07 bc
       -0.001215226 0.06539408 -0.24710472 -0.0082974825

enc.EncoderList.cell2.activate.fcn.1.running_var f4 [32]
000000 ef b5 fc 3b 72 9c 4d 3c 32 66 46 3c 65 c6 a1 3c
       0.007712118 0.0125495065 0.012109326 0.019747922
000010 37 cc 7e 3c 00 d3 cc 3c 17 20 7b 3c 7f 6d 04 3c
       0.015551618 0.025002956 0.015327475 0.0080827465
000020 5c 70 00 3d f7 49 1c 3c e7 f2 5f 3c 8d 3f 0d 3c
       0.031357154 0.009539119 0.013668752 0.008621109
000030 9b ea da 3b 93 b1 dc 3b 9f b1 98 3b 0e 02 4b 3c
       0.006680799 0.0067350357 0.004659846 0.012390627
000040 9f bc d3 3b 43 dc 82 3b ad a1 69 3c 0a 8b df 3c
       0.0064616944 0.0039935424 0.014259738 0.027287979
000050 0f aa 81 3d 0f ae b1 3c 83 ac 85 3c 9f 26 78 3b
       0.06331264 0.021689443 0.016317612 0.0037864817
000060 e2 ce 4b 3c dd 08 4c 3c fe 79 db 3b 32 21 ed 3c
       0.012439461 0.012453285 0.006697892 0.028946493
000070 59 9f cc 3b 47 9f 7c 3c 88 93 15 3c 25 2a 08 3d
       0.0062445817 0.015418834 0.0091294125 0.033243317
