checkpoints/best_ACDAE_bw_snr-4.pth (torch, 160442 bytes, 19 tensors)

EncList.0.conv.weight f4 [8, 1, 13]
000000 ef bf 23 3e fc 82 69 be c5 d0 99 bd e4 ca 2c bd
       0.15991186 -0.22803873 -0.07510523 -0.04218568
000010 63 4f dc bd 74 c6 13 be 35 c4 5e be 75 ba 9d 3e
       -0.10757329 -0.14431173 -0.21754535 0.30806318
000020 f3 3a 86 3e bd d3 06 3e 14 f2 24 3e 84 37 38 be
       0.2621685 0.13166709 0.1610797 -0.17989928
000030 53 7e 28 3e a5 02 fe 3d 77 8f f6 bd 5c 7d ec 3d
       0.16454439 0.12402848 -0.120390825 0.11547348
000040 f6 a1 b4 3e 0e 28 98 bd bc 13 4c be e9 f2 ad 3e
       0.35279816 -0.07429515 -0.19929403 0.33974388
000050 2e 9b a6 3e 74 a7 50 be 62 70 60 3d f5 41 9d bd
       0.32540268 -0.20376378 0.054794677 -0.07678596
000060 0e 2b 8e 3d 4b 03 8d be b5 e7 f7 3d 9c 65 8e bc
       0.06941806 -0.27541575 0.121047415 -0.017382436
000070 f2 0b 90 be 80 32 0c 3e 9c af 23 3e 8d 0a d0 3d
       -0.28134114 0.13691139 0.15984958 0.101582624
000080 2b 62 a3 b8 80 ab d8 3c 03 ba cd bb 49 47 a6 be
       -7.790731e-05 0.026448965 -0.006278278 -0.3247626
000090 d4 dd 43 bd a1 c5 0b bc 50 e6 39 3e c7 dc a3 3d
       -0.047818974 -0.008531005 0.18154263 0.08001094
0000a0 74 2d 63 3d ec 6a 09 3e a2 e3 70 be bc 23 5d 3c
       0.05546327 0.13419694 -0.23524335 0.013497289
0000b0 f6 5b 19 bd 64 47 26 3c b9 9b b6 bd d0 fe d5 3d
       -0.037441216 0.010148857 -0.089164205 0.10448992
0000c0 7e 2f bf bd 8f fa 02 be 61 b5 72 3d 20 55 62 be
       -0.0933523 -0.12790893 0.059255008 -0.22102785
0000d0 10 b2 ed bd c3 b2 8f 3d f4 d4 d0 bd 39 02 a4 be
       -0.11606228 0.07016518 -0.101968676 -0.32032946
0000e0 76 1b 67 be 60 74 11 3e 55 13 67 be 8e ee 7a bd
       -0.2256907 0.1420455 -0.22565968 -0.06126266
0000f0 99 bf 89 bd 0a d3 8b be 1c 7a 3b be 4c 33 e7 bd
       -0.067259975 -0.27309448 -0.183083 -0.11289081
000100 52 fe 44 3d 87 77 90 3e 08 f6 38 3e c2 e2 80 3e
       0.0480941 0.28216192 0.18062603 0.25173002
000110 f2 38 55 3e 1b 02 db bd e0 23 18 be f9 7b b9 be
       0.20822504 -0.10693761 -0.14857435 -0.36227396
000120 43 61 95 be 6a 58 4d 3d 9e ec 5b 3c cb 6e 8a 3d
       -0.29175767 0.050133146 0.013423113 0.06759413
000130 20 68 1b be 04 1c 8f bd 6e 8c 15 be 64 df ab bd
       -0.1517644 -0.069877654 -0.14604351 -0.08392218
000140 7e 1e f9 3c 67 56 5b 3c 0e 2f 26 3e d6 fc 89 be
       0.030410048 0.013387299 0.16228887 -0.2695071
000150 c0 fa 2b 3e 5a fa a6 bb c7 ea 06 bd d5 86 e4 3d
       0.16794872 -0.005095762 -0.032938745 0.1115853
000160 99 cf 89 be c0 db 49 be 0e 55 fd bd 27 d3 2f 3e
       -0.26916197 -0.19712734 -0.123697385 0.17170392
000170 f6 1d bc 3d a0 2d 87 3e e4 3b b8 bd 87 96 43 3e
       0.09185402 0.26401997 -0.08995798 0.1910039
000180 04 01 50 3d 90 5b b6 3e a2 1a 78 3e ba 16 ec 3d
       0.05078222 0.35616732 0.2422891 0.11527772
000190 1e 5f 1e bd a5 18 42 be 14 a7 d7 3d 88 a1 01 be
       -0.03866493 -0.18954714 0.105299145 -0.12659276

EncList.0.conv.bias f4 [8]
000000 52 13 85 be 78 91 5f be 32 ca 0c bd 2e 96 ba be
       -0.25991303 -0.21832836 -0.034372516 -0.36442703
000010 c3 e0 e8 ba 9b 36 1c 3e 85 18 7c 3c e2 39 08 bd
       -0.001776718 0.15255205 0.015386705 -0.033258326

EncList.1.conv.weight f4 [16, 8, 7]
000000 73 34 14 3e 95 f3 dc 3d 82 44 8c 3d 60 0d 35 3e
       0.14473133 0.10788647 0.06849004 0.17680883
000010 fb ab 0c bd 80 2a f5 bc 96 5b df 39 9b 1e bb 3c
       -0.0343437 -0.029927492 0.0004260211 0.022841742
000020 7b 76 aa bd 81 98 02 3d f6 24 41 3e cf f4 33 3c
       -0.083233796 0.03188372 0.18861756 0.01098366
000030 59 40 23 3e 05 5a fc 3d 27 a8 a4 3d 12 56 12 bd
       0.15942515 0.12321857 0.08039885 -0.035726614
000040 63 f4 88 3d a6 e9 5f bc 12 57 1d 3e 8b d5 16 3d
       0.06687238 -0.013666546 0.15365246 0.036824744
000050 b6 11 04 3e 4f 4e 87 3d ab b0 05 be 0b 7e 13 be
       0.12897381 0.06606733 -0.13055675 -0.1440355
000060 98 49 c2 3d 6c 26 3b 3d de 5d 7f 3d e8 5e 57 3e
       0.09486693 0.04569094 0.062345378 0.21032298
000070 de c3 78 3d 2c d7 ec bc d3 dc 02 be e2 b1 01 be
       0.06073367 -0.028911196 -0.1277955 -0.12665513
000080 2f db 5c 3d fa 87 de 3d 67 48 83 bd fd 77 ef bd
       0.053919967 0.10865779 -0.06410294 -0.11692808
000090 26 69 57 be 3d ba 09 be a0 9d 6e 3d 75 5d f6 3d
       -0.21036205 -0.1344995 0.05825579 0.12029544
0000a0 c5 0d ed ba 1e c3 24 3e a9 d7 86 3d df 08 6c 3d
       -0.0018085769 0.16090056 0.06584103 0.057625648
0000b0 14 6e f0 3c b0 8f 70 3d e4 13 80 3e 76 43 6e 3e
       0.029349364 0.05873078 0.25015175 0.23267922
0000c0 d4 40 b6 3b 08 7b 98 bc 55 4b a6 3d 8a df f0 3d
       0.0055619273 -0.018613353 0.08119837 0.11761387
0000d0 49 bd 20 3e 83 af 0a 3e 0c e1 03 3e 36 f0 68 3d
       0.15697207 0.13543515 0.12878817 0.056869708
0000e0 a6 f8 d3 be 82 bd 03 bf 88 71 9b be fa ae 72 be
       -0.4140064 -0.5146104 -0.30360055 -0.23699561
0000f0 c9 3b dd 3d 08 71 28 bd c4 d4 97 bc ba 4b 7c be
       0.10802419 -0.04112342 -0.018534072 -0.24638262
000100 d2 b3 2c be b8 50 00 be 7f da 24 bd 83 50 1b be
       -0.16865471 -0.12530792 -0.040247437 -0.15167432
000110 38 56 a0 bd 98 dd 7b be 61 cd a1 3a fe ae 02 be
       -0.07828945 -0.2459625 0.0012344533 -0.12762067
000120 ad af e8 3d 41 55 47 bd ae 4c a8 bd 0f df 0d be
       0.113616325 -0.04866529 -0.082177505 -0.13854621
000130 c6 6e 4d 3d 16 40 3e 3e 2c b0 ee 3d ee e9 ab 3d
       0.05015447 0.18579134 0.11654696 0.08394228
000140 36 1f 7a bd cc 1a de 3d fe 1d 54 3c f6 d5 9b bd
       -0.06106492 0.10844955 0.012946604 -0.07609169
000150 29 c4 fc 3d c5 21 36 bd 3c 86 30 3e 29 61 1b 3e
       0.12342102 -0.0444658 0.17238706 0.15173782
000160 af 9b 5c 3c ef d1 d3 3c d9 3e 0b 3e 14 a4 26 3e
       0.013464852 0.02585694 0.13598193 0.16273528
000170 e7 3b 0f 3e 73 76 03 be b8 d7 f8 bd 29 c1 c8 be
       0.13987695 -0.12838154 -0.1215052 -0.3920987
000180 6f 32 34 be 3c 8b 67 be e0 7c 00 be ae 2a 04 be
       -0.17597364 -0.22611707 -0.12547636 -0.12906906
000190 35 47 db 3d 2b 37 90 bd af 22 f2 bd d3 d4 4a 3c
       0.10706941 -0.070417725 -0.118230216 0.012379843
0001a0 2f bc 26 be 4c 8f 63 be 97 f8 0f be 8f 4d c4 bd
       -0.16282724 -0.22222632 -0.14059673 -0.09585106
0001b0 ed a7 bf bd 2d 46 a4 bd 77 ec e4 3b 1f f5 24 be
       -0.09358201 -0.080211975 0.0069861966 -0.16109131
0001c0 b1 85 c5 bc a4 1e 16 3d 21 7a 5f bd b3 c2 00 be
       -0.0241116 0.036650315 -0.05455983 -0.12574272
0001d0 5a 28 3e bd 1e a3 c8 3d ae aa 90 3c b7 6d 39 3d
       -0.0464252 0.09796737 0.017659511 0.045270648
0001e0 dc 50 87 3e 1d 7b 85 3e 12 12 30 3e f9 08 89 bd
       0.26428878 0.2607049 0.17194393 -0.066911645
0001f0 b7 95 a5 bd 02 b2 9e 3d bd 82 d2 3c 90 9e 83 bc
       -0.080851965 0.07748796 0.025697106 -0.01606682
000200 4d fc f5 bd b4 3c cf 3d bc 1a 0c 3e f8 05 c8 bc
       -0.12011013 0.10119 0.13682073 -0.024416909
000210 68 9e 76 3c bd c7 c0 3c e7 aa 96 3c 8d 77 ba 3d
       0.015052415 0.023532743 0.01839204 0.09104834
000220 77 5b d2 bb fe b4 39 3d ba 0e 03 3e a5 29 02 bb
       -0.006419595 0.045338623 0.12798586 -0.0019861248
000230 54 5a 03 be e6 66 09 be 02 9e bc bd 5a 94 89 3c
       -0.12827426 -0.13418159 -0.09209825 0.016794372
000240 2c 43 e6 3d 56 b8 c5 3d 09 82 2f 3e f7 1e e3 3d
       0.11243281 0.096543 0.17139448 0.110898905
000250 35 11 8b bb 7f da 96 3d 0b ca 30 3e 1e 3d 91 3e
       -0.0042439946 0.073658936 0.17264573 0.2836694
000260 1b 6f 7c 3d 00 21 bf 3d 7b bf a6 bd b4 f4 0c be
       0.061629396 0.09332466 -0.08141991 -0.13765222
000270 bb 4c 91 3c a9 5b 42 bd 58 3e c2 3d d5 3c 1c 3e
       0.017736783 -0.047450695 0.094845474 0.1525758
000280 82 5c 28 3e 98 0e 74 3e 5e 31 73 3e d5 1f 6b bb
       0.16441539 0.23833692 0.23749301 -0.0035877128
000290 4d 71 8e bc 68 cf e1 bd b0 9f f7 bd 89 e7 85 bd
       -0.01738801 -0.11025888 -0.12091005 -0.065383025
0002a0 8f 0f e3 be 84 48 02 bf f0 99 07 be 2b bc c3 3e
       -0.44347808 -0.508919 -0.13242316 0.38229498
0002b0 fe 77 41 be 7c 59 34 3e c1 fd 17 3f cc 21 9a bd
       -0.1889343 0.1761226 0.5937157 -0.075259775
0002c0 2b 46 1f bd 7d e0 0b be 2f 4d ca bd 11 c1 8b be
       -0.038885277 -0.13659854 -0.09878003 -0.27295735
0002d0 ab 56 73 be 4f ec 69 3d d2 6b 7f bd 13 0a 0d bc
       -0.2376353 0.057110127 -0.062358685 -0.008608359
0002e0 9c e5 ce 3d 0e bc 96 be a9 5e c5 3d 85 0f 3e be
       0.10102388 -0.2944035 0.096371956 -0.18560608
0002f0 8c d7 eb be 54 67 20 3e 34 14 17 3e 53 88 3f 3d
       -0.46062887 0.15664417 0.147538 0.04676087
000300 a4 76 0b 3c 75 cd c5 bd 0f b6 ac 3c d1 a7 2f 3d
       0.008512173 -0.096583284 0.021082906 0.04288465
000310 59 d0 b3 3d bd 24 b5 3d da f8 55 bd c3 3b ae 3c
       0.087799735 0.08844898 -0.052239276 0.021268731
000320 dc d2 97 bd 2f 6b 05 bd 9f 9f bd 3d 8c c8 fd 3d
       -0.07413265 -0.03257292 0.09258961 0.12391767
000330 14 bf a9 bc 3f 07 88 3b 69 10 4e be c6 13 8f be
       -0.020720996 0.0041512544 -0.20123447 -0.27944773
000340 44 3c ba be dd ee 8f be 99 03 91 bd 61 3a 15 be
       -0.36374104 -0.28111926 -0.07080764 -0.14573051
000350 4c d0 8b bc 46 54 98 3d 7a 1d dd 3b ca 9a 20 be
       -0.017067097 0.07437949 0.0067478986 -0.15684047
000360 74 80 fe 3b 50 2f 38 bc 8a 24 dc bd 0f d2 ad bd
       0.0077667776 -0.011241749 -0.10749157 -0.08487331
000370 42 37 0b bd d8 0a 46 3d ff a0 cd bd 29 90 0f 3e
       -0.033988245 0.048350185 -0.10040473 0.14019836
000380 fe bd e1 bd 0e d2 20 be 6c f4 c0 bd d7 1d fd 3d
       -0.11022566 -0.1570513 -0.0942162 0.12359207
000390 b0 1d b1 3e a4 7f 3b 3e 22 56 95 3d 08 c5 0e 3e
       0.34592962 0.1831041 0.07291819 0.13942349
0003a0 c5 a6 a2 3d 2f 52 aa bd 70 9a 55 be 07 18 01 be
       0.07941965 -0.083164565 -0.20859694 -0.12606822
0003b0 5a 87 26 be f6 88 06 bd 3f cb ed bc be fc 2f 3e
       -0.1626257 -0.03284546 -0.02902758 0.17186257
0003c0 61 59 a4 3e 58 31 ef 3c a8 11 bc bc 71 01 90 3e
       0.3209944 0.029198334 -0.022957638 0.281261
0003d0 f5 b0 23 3e ce 4d 75 bd 1e 92 88 3d de 15 b1 3d
       0.15985473 -0.059888653 0.06668495 0.08646749
0003e0 53 39 8b 3d 43 de 78 3d 59 42 0c be d6 8f c5 bd
       0.06798043 0.06075884 -0.13697185 -0.09646575
0003f0 4b 2d 68 3d b1 7a d9 bc 49 5f e5 3d 2f a5 d2 3c
       0.05668382 -0.026547762 0.11199815 0.025713531

EncList.1.conv.bias f4 [16]
000000 a1 0b b9 3c cf 3d 7a bd 79 b5 c3 bd b9 d8 b3 bb
       0.022588553 -0.0610941 -0.095560975 -0.005488482
000010 c2 ea 79 3e d8 44 82 be 6b 96 37 3b db 4a ac 3e
       0.24405959 -0.2544315 0.002801324 0.3365086
000020 b6 e1 13 3d 5c 4b 45 3e 20 20 b9 bd 19 77 e9 bc
       0.036103927 0.19267029 -0.090393305 -0.028499173
000030 fd d5 92 3e 75 5e 8a 3e 65 e4 3e 3e 3f c2 5e be
       0.28678885 0.2702519 0.18641813 -0.21753787

EncList.2.conv.weight f4 [32, 16, 7]
000000 35 f6 92 3c 9a 7c 8c bd bb 7b 8c 3d 29 0b a6 bd
       0.017939666 -0.06859703 0.06859537 -0.081075974
000010 ae 2d fd 3d ba 49 f2 3d e9 8e bb 3d eb 26 ff 3d
       0.12362228 0.118304685 0.09158117 0.12458595
000020 45 32 7e 3d e5 9f a9 3d 4b 49 00 bc bb 15 f7 bc
       0.06205966 0.082824506 -0.007829974 -0.03016173
000030 19 65 01 be 51 84 17 bd 9c 9f 4e 3d df 3f 3d 3d
       -0.12636222 -0.03699142 0.050445184 0.04620349
000040 9c 95 3e 3d 90 d5 6d bd 12 8f cd bb 24 6d 20 3d
       0.046529397 -0.058064997 -0.006273159 0.039166585
000050 66 2e a9 bc 6f 34 a2 bc 4f a9 31 bc 14 b5 6b 3b
       -0.020652007 -0.019800393 -0.010843589 0.0035966085
000060 bc 57 a9 3d ae b8 c2 bd ef 9c 8d bd 40 d9 bf 3c
       0.08268687 -0.09507881 -0.06914698 0.023419023
000070 a9 e1 29 bd 71 80 aa bb f8 ef 58 3c f9 66 93 3d
       -0.041474972 -0.0052032997 0.013240807 0.07197375
000080 e3 d0 ce bc 95 8c 83 bd 20 a4 8f bd df 57 a7 3c
       -0.02524609 -0.06423298 -0.07013726 0.020427642
000090 89 fc 24 3e 4c 96 0e 3d f7 a9 ef 3d 2c 2e b2 3d
       0.1611196 0.034811303 0.1170234 0.08700213
0000a0 de 90 4b 3d 82 63 7b bd d1 b0 60 3d aa 35 14 3e
       0.049698703 -0.061374195 0.054856125 0.14473596
0000b0 e0 7c 83 bd 35 d5 c5 bd 5f fe 8d bd ca 3e 8c bd
       -0.064203024 -0.09659807 -0.06933283 -0.068479136
0000c0 7b 97 e3 3d 25 ef e0 bd 6d 14 c7 bd 11 77 8a 3d
       0.11112877 -0.10983113 -0.09720693 0.06760991
0000d0 d7 96 b8 3d d5 de 69 3d 1d 11 52 3c ea 8a cc bc
       0.090131454 0.057097275 0.012821463 -0.024968583
0000e0 eb ac e3 bc 7b 68 00 3d 80 07 ff bd c0 81 f9 3a
       -0.027792415 0.03134964 -0.124526024 0.0019035861
0000f0 e3 86 c5 bd 04 0f 8f 3b 4a 9a 12 3c 14 cc df bc
       -0.09644868 0.0043658037 0.008947918 -0.027318992
000100 cd 85 d1 bc a3 97 c8 bd 0f 9f 2c 3d 80 ad 9a 3d
       -0.025576496 -0.097945474 0.042143878 0.07552624
000110 59 58 06 bd d4 f0 05 3e 2d 5c 94 3d a6 19 f4 3d
       -0.0327991 0.1308015 0.07244144 0.119189546
000120 59 d0 ee 3d 97 f0 c1 3a b4 ea 01 3e 50 48 3b bc
       0.11660833 0.0014796433 0.12687188 -0.011430815
000130 46 96 9c 3b b9 6b e3 3b 25 a3 2e bd f4 af 0a bb
       0.004778656 0.006940332 -0.042636055 -0.0021162005
000140 a2 0e 02 3e 21 9d 1b 3e 69 8e cd 3d 70 56 a7 3d
       0.12700894 0.15196659 0.10036928 0.081707835
000150 71 08 82 3d 53 96 01 bd 76 fb 39 bc f4 ce 49 3d
       0.06349266 -0.0316375 -0.011351457 0.04926963
000160 c0 0f 88 3b fc 7d 1d be 3a 82 f2 bd 9e ad 50 be
       0.004152268 -0.1538009 -0.11841245 -0.2037873
000170 0d a4 39 be a1 35 68 be e4 87 27 be 98 e7 bc bd
       -0.18128987 -0.22676708 -0.16360432 -0.092238605
000180 0c e1 3c be 30 63 35 be 84 1b ec bb 5a b1 a6 bc
       -0.18445224 -0.17713618 -0.0072054286 -0.02034824
000190 f4 fe 2e 3d 5c 6a 4e 3d a8 8b e5 bc a6 b7 e7 3c
       0.04272361 0.0503944 -0.028020695 0.028285813
0001a0 d1 0e fe 3d 04 1e ed 3d d7 ee f1 3d 6b 79 34 bd
       0.1240517 0.11577991 0.11813133 -0.044061106
0001b0 ca 62 69 3d 87 ac a1 bd 01 d3 38 bd 22 99 5e 3c
       0.05697898 -0.07894235 -0.045123104 0.013586314
0001c0 13 aa 31 be 2e 8e 4b be 44 bb 31 be a9 60 45 bd
       -0.17350034 -0.19878456 -0.17356592 -0.048187885
0001d0 dc c6 1a bd 87 f5 b9 3b ee 83 b2 3c bf 5c 8a 3d
       -0.037787303 0.005675021 0.021791425 0.06755971
0001e0 7e d5 07 3e 39 0e f5 3d 6a e7 90 3d c7 c6 fc bd
       0.13265035 0.119656034 0.07075389 -0.12342601
0001f0 db 1e 1b be 7c 94 82 bc 0f 6c 86 3c 9f 4f 7b bd
       -0.15148489 -0.015939943 0.016408948 -0.06135523
000200 da 1c 8f bd 12 7b 0c be da 50 5b bd 28 00 c2 bd
       -0.06987925 -0.13718823 -0.053543903 -0.09472686
000210 20 d8 84 bc 1c 42 db 3c 18 ab 5d 3d bd 90 0e bd
       -0.016216338 0.026764922 0.054118246 -0.034806002
000220 f8 68 6d 3d a5 8f d0 bc b8 ca 11 be c1 d2 61 bc
       0.057961434 -0.02545912 -0.14237487 -0.013783158
000230 34 c5 7b bc 34 99 c2 3d cd 82 43 3d 70 3d 8f bd
       -0.015366841 0.095018774 0.047732163 -0.0699414
000240 e6 36 5c 3d d3 82 0f bd 88 28 71 3c c6 7c 08 3d
       0.053763293 -0.035036873 0.014719136 0.03332212
000250 2e f0 ae 3d ad ae 0b bd 89 2a 32 3c a3 19 d6 bc
       0.085419044 -0.03410213 0.010874399 -0.026135271
000260 72 e4 0b be 2d df e2 bd 91 40 11 3e 7e 74 ee 3d
       -0.13661364 -0.11077724 0.14184786 0.11643313
000270 0e 89 1d 3d b5 dd a6 ba e4 e6 26 be 05 ca e5 bc
       0.038460784 -0.0012730869 -0.16299015 -0.028050432
000280 6f 64 24 be a2 13 3d 3e f2 93 0c 3e b4 ca 82 3e
       -0.16053937 0.1846452 0.13728312 0.25545275
000290 78 3d 93 3e 6f 6e bf 3d 48 2b 86 3d f7 f7 19 3e
       0.28757834 0.093472354 0.06551224 0.15035997
0002a0 9f 94 92 3c e9 1e 0a 3d 0e df 83 3d 8c 97 d2 3d
       0.017893134 0.033720884 0.06439029 0.102828115
0002b0 c4 3f 3a 3e 88 16 00 3e c9 f9 0f 3e d4 50 d1 bc
       0.18188387 0.12508595 0.14060129 -0.025551237
0002c0 b5 36 fa bd fc cb ef bd b3 5a 82 be c1 e3 31 bd
       -0.12217466 -0.11708829 -0.25459823 -0.043430094
0002d0 ba cf 6b bd 84 3f 64 3d a9 df 32 bd 54 f8 e9 bd
       -0.05757115 0.055724636 -0.04367033 -0.11424318
0002e0 a5 02 f8 bc f0 a7 48 bd 59 64 30 bc 00 5d b1 bc
       -0.030274699 -0.048988283 -0.010766112 -0.021650791
0002f0 13 f0 67 3b 77 62 08 be e6 03 a0 be a8 83 3c be
       0.0035390898 -0.13318811 -0.31252974 -0.18409598
000300 08 3f a6 bd 7d d9 78 bd a1 ff 78 3d 0e 4b f2 3b
       -0.08117491 -0.060754288 0.06079066 0.007394201
000310 d9 6a 35 3e ea 2f bf 3d 46 49 51 bd e4 12 a9 bc
       0.1771654 0.09335311 -0.05109527 -0.02063889
000320 fd 06 22 be 9a 91 d1 bd 6f cd 1b bd 0f e2 14 3c
       -0.15822978 -0.102328494 -0.038037714 0.0090871
000330 ee b5 b2 3d 2e 9f bb 3c 4e 1d 8c 3d 64 41 04 3e
       0.087261066 0.022903051 0.06841527 0.1291557
000340 cf 21 1a 3e fe d0 1a 3e a0 55 f2 3d 6c 26 94 bd
       0.1505196 0.15118787 0.11832738 -0.07233891
000350 3a e7 fb bd e0 0c 28 be db 58 ec bd 39 af 36 bc
       -0.12299962 -0.16411161 -0.11540385 -0.011150175
000360 1a 37 73 3c 07 65 02 3e bc 97 a8 3d e0 d1 cd 3d
       0.01484468 0.12733851 0.08232066 0.10049796
000370 cd 78 e7 bd 1d f4 1b be ac fe 89 bd 51 87 f4 bd
       -0.11302338 -0.1522984 -0.06738028 -0.11939872
000380 9b d0 33 be 0e ea 2f bd dd 46 f6 bd a1 b0 20 be
       -0.17560045 -0.04294782 -0.12025235 -0.15692379
000390 ad 53 f7 bd 51 1e 2d be 30 78 1f bd 2a f9 83 ba
       -0.12076507 -0.16906096 -0.03893298 -0.0010068764
0003a0 79 72 90 3d ff b1 96 bb 28 b5 c0 3d ae d6 18 3d
       0.07053084 -0.0045988555 0.09409553 0.03731411
0003b0 22 40 1b bd 26 e0 e3 3d 1e 7c 93 3b d5 e0 a9 3c
       -0.03790296 0.11126737 0.00450088 0.020737091
0003c0 d8 d2 a2 bc 79 d0 ac 3d 9c 52 64 bd 93 e5 02 3d
       -0.019875929 0.084382005 -0.055742845 0.03195722
0003d0 85 cb 8e 3c fc 60 a0 3d df c3 1c bc 74 d5 8a bc
       0.01743103 0.07830998 -0.009568184 -0.016947486
0003e0 ae 74 f9 3c d2 19 38 3d 57 ac 30 bd e2 d0 da bc
       0.030451145 0.0449465 -0.043133106 -0.026710931
0003f0 86 c6 8b 3c be 01 b1 3d 79 5d cc 3c e0 7d ba bc
       0.017062437 0.086429104 0.024946915 -0.0227651

EncList.2.conv.bias f4 [32]
000000 80 de 40 bd 1d df 90 3d d9 8b 3a be d8 78 98 bd
       -0.047087193 0.070738055 -0.1821741 -0.07444924
000010 67 7e 92 3e b8 94 88 3e 97 7c 5b 3e 8e 3c cb bc
       0.28612062 0.26675963 0.21434246 -0.024809148
000020 b8 fc cf bd 9d 16 3d 3e c3 bd a2 bd 77 ad d1 bd
       -0.10155624 0.18465658 -0.079463504 -0.10238164
000030 8f b8 5b 3e ad d9 20 bd f8 1b 32 3d 06 97 a0 3e
       0.21457122 -0.03927009 0.043483704 0.31365222
000040 e4 a2 1d 3b 9e 74 47 bd 12 a3 c9 3d b6 aa 9b be
       0.002405339 -0.0486952 0.09845556 -0.3040368
000050 7a 66 a4 bd 17 ce 83 3e 9f 59 cd bd af e2 88 3e
       -0.08027358 0.25743172 -0.100268595 0.26735446
000060 92 1c a1 bc c7 c2 ad 3e f2 0e 65 bd 3e 32 91 3b
       -0.019666944 0.33937666 -0.055922456 0.004431038
000070 58 24 31 3e c3 d2 cc bd 1e 19 a1 bd 5c 9c 4e be
       0.1729902 -0.10001137 -0.07866119 -0.20176834

EncList.3.conv.weight f4 [64, 32, 7]
000000 cb fc dd bd f4 c7 90 bc 5f 98 81 3d 5e 26 ef bc
       -0.10839232 -0.01767347 0.063278906 -0.0291931
000010 25 3d 54 bd 59 8d 53 3d 63 93 5b bc 50 2e e8 bd
       -0.051816124 0.05164847 -0.013401839 -0.113369584
000020 76 9d 50 bc 77 3c d2 bd 6f f3 02 be fa 19 03 bd
       -0.012732854 -0.10265439 -0.12788175 -0.032007195
000030 15 9e 1c bb 3c d9 2c bc 0d 84 10 bd 4f e7 f6 3b
       -0.0023897935 -0.01054984 -0.035282183 0.0075348984
000040 e3 5e d9 bd 70 a8 17 3c 03 b0 c6 bc 10 28 a1 bd
       -0.10613801 0.009256467 -0.02425385 -0.078689694
000050 f9 bb d1 3b 19 f6 a5 bd 47 99 79 bd 57 fb c3 3c
       0.006400582 -0.0810358 -0.060937192 0.02392356
000060 e3 71 03 bd 60 6d 89 bc b9 40 a8 bd e3 82 8b 3c
       -0.032091033 -0.016775787 -0.0821547 0.017030185
000070 56 6e e1 3d 7c d5 78 3d fa 3c ff 3d 78 db e2 3d
       0.11007373 0.06075047 0.12462802 0.110770166
000080 18 58 05 3d 78 23 80 3c b7 65 01 3d 58 de 2f 3d
       0.032554716 0.015641913 0.031591143 0.042936653
000090 a5 49 f2 bb bb a1 23 3c 59 6a 5c 3d 0a 7a 54 3d
       -0.007394033 0.00998729 0.05381236 0.051874198
0000a0 27 20 19 3d bb 75 30 bc 48 a9 49 bd 88 11 4d bd
       0.03738418 -0.010770257 -0.049233705 -0.050065547
0000b0 a6 4e 00 bc e2 cd 07 bc 32 5a 6a 3c 0a 5f cb 39
       -0.007831251 -0.008288832 0.014303731 0.00038789987
0000c0 b7 64 15 3d 4d bd 4d bc 5f 50 9f bc e3 51 06 3c
       0.036473002 -0.01255734 -0.019447504 0.008198234
0000d0 d2 e7 7c bc 2f 0c a9 bd 9e 3a b8 bd c7 48 9f 3c
       -0.01543613 -0.08254277 -0.08995555 0.019443883
0000e0 58 6e 88 bd a8 cc cd bc 1d f0 8d 3c 74 f5 a5 bc
       -0.066616714 -0.025122002 0.017326409 -0.020258643
0000f0 1b 4f 92 bd e1 ee 86 3d 07 91 84 3b 7b b1 92 3c
       -0.071439944 0.06588531 0.004045609 0.017906895
000100 64 ec 2d 3d 4b e4 f0 bc ad 0a ed bc e9 63 92 bd
       0.042461768 -0.029405734 -0.028935755 -0.071479626
000110 6f 55 aa 3c 7a 30 90 bd 5b dd bd bd cb 4d 72 3b
       0.020792691 -0.07040496 -0.09270736 0.0036972638
000120 60 cb 22 bd 47 ba 94 bd 9a 8d 24 3d 40 69 70 bd
       -0.039744735 -0.07262092 0.040174104 -0.058694124
000130 f5 a9 64 3d ca a1 e4 3c 66 dc d7 3a a7 91 c2 bc
       0.055826146 0.027909178 0.0016468882 -0.023751093
000140 92 98 a0 bc f1 b9 ad bc 2a 62 6d 3d 5f fd 47 3d
       -0.019604001 -0.021206828 0.057954945 0.048825618
000150 78 3d e3 3c 34 a6 93 3d c8 32 ac bd 70 db c0 3b
       0.027739272 0.07209435 -0.08408123 0.005885534
000160 77 4a 28 bd 46 95 45 3d 17 e1 60 bc 04 e7 a6 bd
       -0.04108664 0.04823806 -0.013725541 -0.081495315
000170 9a 28 c0 bd 83 9c ae 3c 83 db 24 3d 0e 31 3e 3d
       -0.09382744 0.021314865 0.040248405 0.0464335
000180 6e 23 48 bd 8c 47 07 3d 94 57 a7 bd 67 f7 06 3d
       -0.048861913 0.033027217 -0.08171001 0.032950785
000190 ff 15 a8 ba d9 42 77 bd e7 33 0a bb 87 ab 61 3d
       -0.0012823938 -0.060366485 -0.0021088065 0.05509522
0001a0 8c c2 86 3b 6c ec 92 bc 68 36 51 3c 58 1b c3 bc
       0.0041125473 -0.017935 0.012769319 -0.02381675
0001b0 2a 04 28 bd b9 63 4b 3c 14 95 29 bd a0 fb e3 bc
       -0.041019596 0.012413912 -0.041401938 -0.027829945
0001c0 85 91 bb 3d 26 23 7d 3c ce 35 47 bd 41 da 7f 3c
       0.09158615 0.015450275 -0.048635297 0.015616001
0001d0 c4 5d cb bc a9 86 1c bd 36 3d 86 3d 2d 44 a4 3d
       -0.024824984 -0.03821436 0.06554644 0.08020816
0001e0 78 2e 93 3d a6 35 76 3d 02 17 15 3d 5f 40 37 3d
       0.071865976 0.060109757 0.036398895 0.044739123
0001f0 d9 90 0a 3c 6f 0c 57 bd d1 9f cc 3d b2 8f 80 3d
       0.008457386 -0.052502092 0.0999142 0.06277408
000200 46 dd 3a 3d 43 26 aa 3d 3f ed 23 3d 2c 9e 63 3d
       0.04562118 0.08308079 0.040021177 0.055570766
000210 32 da 25 3d ff ca c9 bd f3 40 1f bd 20 86 b8 bd
       0.04049129 -0.098531716 -0.0388803 -0.09009957
000220 2a cb ab bc 55 39 a5 bd 63 63 c5 bd 48 53 3f bd
       -0.0209709 -0.08067576 -0.09638097 -0.046710283
000230 ef 9b a2 3c 29 c7 92 3c 07 d3 1b bc 51 c7 2b 3d
       0.019849746 0.017917233 -0.009510762 0.04193813
000240 5a 39 89 bd 93 6d e2 bc 22 21 81 3d 2f f1 bd bc
       -0.06700392 -0.02764014 0.06305148 -0.023186294
000250 f5 fd 06 bd 77 e9 51 3d a8 e9 b8 3c 94 8d de 3b
       -0.032957036 0.05124804 0.022572353 0.00679178
000260 78 cc 5d bd 35 0d ed 3c e9 59 89 bc 30 d6 dd bc
       -0.054150075 0.028936962 -0.016766505 -0.027079672
000270 2c 4b 25 3d d5 17 30 bd 62 2b 85 bc d7 7b b7 bd
       0.040354893 -0.042991478 -0.016256038 -0.089591675
000280 1e 8f 08 bd ab b2 01 bd a4 06 d8 39 b3 f9 af 3d
       -0.033339612 -0.03166453 0.00041203678 0.08592548
000290 c8 12 e0 3b 05 24 5e 3d 25 dc 8a bc 57 68 01 bd
       0.0068381764 0.05423357 -0.016950676 -0.031593647
0002a0 ae 94 03 3d e7 07 01 bd 6e 34 b8 b8 db 43 db b9
       0.032124214 -0.031501677 -8.7835695e-05 -0.0004182149
0002b0 a1 54 65 bd a3 17 7e bc f6 5b 31 bc 62 20 08 bc
       -0.05598891 -0.015508565 -0.010825148 -0.008308502
0002c0 2a a0 15 3d f2 42 65 3c d4 8d 26 bd bd 38 a9 3d
       0.036529697 0.013993012 -0.0406626 0.08262775
0002d0 28 5c 21 bc 95 be d5 3d 85 47 a9 3c dc 1f a5 bd
       -0.009848632 0.10436741 0.020663986 -0.08062717
0002e0 84 0c 1b 3c 0e b6 80 3a cb 1f 27 bd be b8 ba bd
       0.009463433 0.0009819882 -0.040801805 -0.09117268
0002f0 3b 75 62 bd ba 29 f4 bd a6 b4 c6 bc 23 8f 82 bc
       -0.05528758 -0.11922021 -0.024256062 -0.015937394
000300 08 af 2d bc f7 21 11 bd 33 c4 ab bc b6 0f 0a bc
       -0.010600813 -0.035432782 -0.020967579 -0.008426597
000310 fc 92 10 bd 68 74 ce bc ec d9 f7 bc 43 36 2b 3d
       -0.035296425 -0.025201991 -0.03025528 0.041799795
000320 46 67 a8 bb 56 fa 40 bd d7 15 6b 3d e5 bd e6 bc
       -0.0051392643 -0.04711374 0.057393875 -0.02816672
000330 ab 49 7f 3a ab 4e 98 bd a0 15 47 bd b1 4a f6 3c
       0.00097384554 -0.0743688 -0.048604608 0.030064913
000340 b6 dc fb 3c 26 ad d6 3c 85 f0 92 3d b0 5e 26 3d
       0.030744892 0.02620561 0.07174782 0.040617645
000350 5c ec 58 bd a1 a0 b0 3d 46 6f 5b 3d 12 43 3a 3d
       -0.052959785 0.086243875 0.053572915 0.04547412
000360 1e ec 28 3d 9c eb 1b 3d 6d 3e 10 3d 34 65 86 bd
       0.041240804 0.03806649 0.035215784 -0.06562272
000370 b2 b1 58 bb 90 64 cf bd 65 21 84 bd 71 68 2d bd
       -0.00330649 -0.10126603 -0.06451682 -0.04233593
000380 92 86 39 bc 24 b5 58 bd 46 87 50 bd 0c cf cd bd
       -0.011323588 -0.052907124 -0.050910257 -0.10049257
000390 95 0f 07 3c 75 95 24 bd c8 64 da 3c 4e ef 0f 3d
       0.008243461 -0.040181596 0.026659384 0.035140328
0003a0 2d d2 7b ba 5a 4f 97 bc 2b 8f 3e bd aa b1 f5 bd
       -0.0009606209 -0.018470455 -0.046523254 -0.11996777
0003b0 fa 77 82 bd 6d 77 e9 bb f8 ea c5 bb 73 01 b2 3c
       -0.0637054 -0.0071248324 -0.0060399733 0.021729207
0003c0 28 c8 76 bb 41 2e ca 3b 24 bb 16 3d 36 62 5c 3b
       -0.0037655924 0.0061700647 0.036799565 0.0033627874
0003d0 e7 76 bb bc d4 3e 3d 3d 4e f8 21 3d c4 56 c7 3d
       -0.022883845 0.046202496 0.039543442 0.09733346
0003e0 05 61 5d 3d 3e 70 5b bd 9d f0 5c bd 5f 44 59 bd
       0.054047603 -0.05357384 -0.053940404 -0.05304372
0003f0 05 b8 0a bd e9 58 8d 3d 5d 6b 97 3d 9e fe 97 3d
       -0.0338669 0.06901724 0.07393525 0.07421611

EncList.3.conv.bias f4 [64]
000000 da bc 40 3e 94 be 84 bd 73 6c 30 bb 00 00 fc 3d
       0.18822041 -0.064816624 -0.002692011 0.123046875
000010 38 42 89 3d dc 71 2e bc c4 b8 7a 3d 66 e8 1b 3d
       0.06702083 -0.010647263 0.061211362 0.03806343
000020 6b 8f 36 bd c5 66 2c 3c bd e4 f7 bd 2c 5e 5d 3e
       -0.044570368 0.010522549 -0.12104175 0.21617955
000030 46 41 2e 3d 7f db 70 be a1 97 8e 3e 44 0e 73 bd
       0.04254272 -0.23521231 0.2785006 -0.059339777
000040 ad b8 af be 7a 72 73 3e a4 7f d5 bd f9 16 9e bc
       -0.34320584 0.23774138 -0.10424736 -0.019298064
000050 2c 26 0c bc be 79 0c 3c df a3 b5 3e 03 5b b4 3d
       -0.008554023 0.0085739475 0.35476586 0.088064216
000060 75 13 e8 3d 45 f2 f1 bd 1a 41 05 3d de 47 3a 3e
       0.11331836 -0.11813787 0.03253279 0.18191478
000070 69 8d 3b be b6 af 7a 3e fd 1b 69 3e 8c 46 94 bc
       -0.18315662 0.24481091 0.22764583 -0.018100046
000080 88 72 2e 3b dd ad 7d 3e 01 30 10 be fc bd 2e be
       0.002661856 0.24773355 -0.14080812 -0.17064661
000090 11 c1 65 bd 5b cd 92 3e 2d d8 07 3e 10 ef f7 3d
       -0.056092326 0.286723 0.13266058 0.121061444
0000a0 b5 60 84 3e 55 1f 75 bd 55 3f c7 bd a2 00 a8 3c
       0.25855032 -0.059844334 -0.097288765 0.020508114
0000b0 1b 4f 6e be af 14 30 be 27 05 26 bd e3 ae dd 3d
       -0.23272364 -0.1719539 -0.040532257 0.108243726
0000c0 04 d4 aa 3e b0 13 13 be 9d a8 2a be 20 e0 96 bd
       0.3336488 -0.14362979 -0.16665883 -0.07366967
0000d0 d5 f8 22 3e 6a f2 f4 bd 41 23 f0 bd 8d 56 5f 3e
       0.15915234 -0.11960299 -0.11725474 0.2181036
0000e0 13 d0 a4 3d d3 40 26 be 31 8d a6 3e e3 73 3c 3e
       0.080474995 -0.16235666 0.32529595 0.18403582
0000f0 a5 66 5e 3c d1 d2 5f ba 31 a3 32 be 8e 00 1a bc
       0.013574277 -0.0008538189 -0.17445065 -0.009399546

DecList.0.conv.weight f4 [64, 32, 7]
000000 2c c1 1f 3d 0d e7 df 3d 3a 8e 32 3d d2 0c 24 bc
       0.039002582 0.10932741 0.04359267 -0.010012822
000010 5c 6b 22 bc ef 87 7e bd 9d fa ca bd af 21 ab 3c
       -0.009913292 -0.062141355 -0.09911082 0.020890085
000020 7c 6c 10 bd 3a b4 ec bc 37 0a cc bc 56 b8 4f 3d
       -0.03525971 -0.028894532 -0.024907215 0.050712906
000030 2f 4e 3e 3c 0b ac 9f 3c 71 9d 41 bd 79 6e c9 bc
       0.01161532 0.019491216 -0.04726929 -0.02458881
000040 e3 f1 53 3c 2b 83 7c 3d e3 ed b3 bb 5e 85 5d 3c
       0.012936088 0.06164853 -0.005491005 0.013520567
000050 d5 9c ee 3c 5e e3 33 bd 49 f8 d7 bc 91 64 89 3d
       0.029127518 -0.043918006 -0.026363509 0.06708635
000060 30 cc a5 3d 7f 3e 40 3d 14 8c 6b 3d bf 31 9d 3d
       0.08095586 0.0469346 0.057506636 0.07675504
000070 06 14 9c bd 76 b9 db 3c 6c f8 0d 3d 21 bf 7d 3d
       -0.07621007 0.026821833 0.03466074 0.061949853
000080 f5 10 ec 3b 53 3a 4a bd e8 54 56 bc 6c 6a 73 bc
       0.00720417 -0.04937203 -0.013081767 -0.014856916
000090 84 df 56 3c dd a7 85 3d 5e 73 7a 3d b0 9e 61 3c
       0.013114814 0.06526158 0.06114518 0.013770744
0000a0 bc ef a5 3d e1 f7 aa 3d cb 33 bc bd 76 08 1e 3a
       0.08102366 0.083480604 -0.09189566 0.00060284825
0000b0 8f 48 55 bd 08 2a 7c 3d b5 0d 87 bd f3 ac f0 bc
       -0.05207115 0.06156352 -0.06594411 -0.029379344
0000c0 f5 29 38 bd a0 f3 a5 3d 0d e4 59 39 d9 0a 8e 3d
       -0.04496189 0.081031084 0.00020779688 0.06935663
0000d0 71 ab 98 3d cc 49 29 3d 2c 24 84 3d 84 03 89 3d
       0.07454575 0.041330144 0.06452212 0.06690124
0000e0 32 59 56 3d 90 c1 ef 3c 93 3f 24 3d 3e ab 14 3a
       0.052331157 0.029267102 0.04009969 0.0005671269
0000f0 35 d1 e4 bc 44 ec ec 3c 15 b6 9f bd ae 50 02 3d
       -0.027931789 0.028921254 -0.07798401 0.031815223
000100 56 4d 21 3c b1 ab 68 bc 89 b8 35 3d 31 c1 e7 3c
       0.0098450985 -0.014201091 0.04436544 0.028290363
000110 5b d7 0c 3a 25 c8 db 3d 12 34 a0 3d 3b 48 27 bd
       0.00053726666 0.10731534 0.078224316 -0.04084037
000120 0e 50 cb 3b e4 9a f1 bc 32 a2 6b bd fa 72 5e bd
       0.0062046116 -0.029492803 -0.05752773 -0.05430887
000130 ed e1 4c bd 2a 40 5c 3d 95 a6 e0 3c b9 e4 85 bd
       -0.050020147 0.05377213 0.027423183 -0.06537766
000140 6d d4 c9 3c a3 9d 53 3c ea e9 15 3d 29 d6 88 bd
       0.024637425 0.0129160015 0.03660003 -0.06681473
000150 c6 a8 0f bd 51 f1 36 bd f8 b6 15 bc 60 6e 42 bc
       -0.035073064 -0.04466373 -0.009137861 -0.011867136
000160 62 b3 81 3c ae ab 2e bd c7 c1 d5 ba a1 a9 a3 3c
       0.015832607 -0.042644195 -0.001630836 0.019978346
000170 ec 4e 27 3d 34 46 02 bd 25 f5 c9 3b f6 c8 d5 3a
       0.04084675 -0.031805232 0.0061632567 0.0016310501
000180 80 bc aa 3d a4 1d a7 3d a6 ac 6b 3b a1 ec 46 bd
       0.08336735 0.081599504 0.003596106 -0.04856551
000190 da ec 95 3d bd fa aa bc dd 34 27 3d 11 3d 66 3d
       0.073205665 -0.020871514 0.0408219 0.05621058
0001a0 e6 4d 43 3d 15 44 7c 3d ac 12 26 3d b8 8b 54 bb
       0.04768171 0.061588366 0.04054515 -0.0032431912
0001b0 2c cb e4 bc 60 e7 74 bd c1 d0 16 bc 6d 19 1c 3c
       -0.027928911 -0.05979097 -0.009205044 0.009527546
0001c0 5a 09 e4 bc 36 ea b3 bd 07 dd 99 3c 08 79 8c 3d
       -0.02783649 -0.087849066 0.018782152 0.068590224
0001d0 6c 1b a2 3d 4d 17 d9 bb f0 aa 84 3c c8 27 84 bd
       0.079153866 -0.006625092 0.01619479 -0.064529
0001e0 be 20 22 3d 5a 5b 43 3c ab b6 87 3d f1 70 4e 3c
       0.039582007 0.011923635 0.06626638 0.0126001695
0001f0 b0 8e 59 bc f6 a9 87 3d 81 fa b0 bc 6c e8 2e 3c
       -0.013278648 0.06624214 -0.021603825 0.010675531
000200 16 72 cf 3c e8 0d 51 3d c1 14 7c 3d 0c c4 66 bd
       0.025322955 0.051038653 0.06154323 -0.05633931
000210 6a 61 3b 3d 43 ab 74 3d 8e 62 85 3c 78 b5 b4 bb
       0.0457472 0.05973364 0.016282346 -0.005514797
000220 52 fa 76 3d b8 96 38 3d 6f 0f 37 3c e1 25 18 bb
       0.060297318 0.04506561 0.011173113 -0.0023215937
000230 1a f5 9e bc 28 1e fa 3c 04 fb 20 bb 89 c7 64 3d
       -0.019403983 0.030531958 -0.002456368 0.055854354
000240 88 65 90 3c 9d 90 bf bd d0 27 b0 bd 95 95 34 bd
       0.017626539 -0.09353755 -0.08601344 -0.044087965
000250 1a ce 86 bb fc 2d 30 bd 61 b2 41 bd 2e 77 93 bd
       -0.0041139247 -0.043012604 -0.047289256 -0.07200466
000260 88 36 a7 bd a5 02 49 bc 29 3e 5e 3d 84 e3 22 3d
       -0.08164698 -0.012268697 0.0542585 0.039767757
000270 c7 15 25 bd c5 d5 99 bd 7e 34 05 bb d0 39 88 bd
       -0.04030397 -0.075114764 -0.0020325477 -0.06651652
000280 f4 6d 1a bb e0 fd 94 bd 39 45 3a 3d fb 52 78 bd
       -0.0023564072 -0.07274985 0.045476172 -0.06062601
000290 77 70 84 bb 14 eb 21 bd b2 52 e6 3c 77 d8 57 3d
       -0.004041727 -0.03953083 0.028115604 0.05269667
0002a0 93 34 38 bd 17 eb 95 3c 37 54 5d 3d b2 33 a2 3c
       -0.044972014 0.018300576 0.05403539 0.01980004
0002b0 bb 58 0c 3d 17 be 82 3c 13 a6 9b 3d aa 97 0a bd
       0.034264307 0.015959783 0.076000355 -0.033836044
0002c0 fa e1 81 bd 67 57 07 3c ed 1b 8a bd 3d fe 22 3c
       -0.0634193 0.008260584 -0.06743608 0.00994831
0002d0 79 7d a9 bd 0c 5e b0 bd b3 34 5d bd 1f b7 3a 3d
       -0.08275885 -0.08611688 -0.054005336 0.045584794
0002e0 e7 da 1b 3a 17 fe 1f 3d 6d 74 81 bd d3 8f 8a bd
       0.00059454 0.03906068 -0.063210346 -0.067657135
0002f0 48 b5 52 3d 15 0c eb 3b f9 f1 ce 3c 1c 33 f9 3b
       0.051442415 0.007173071 0.025261866 0.0076049697
000300 f1 fc 4b bd e1 fe 65 3c bd d1 63 bc 2d 16 98 3a
       -0.04980177 0.014037819 -0.013904986 0.0011603289
000310 98 3c c6 3c 9d 71 c6 3c 62 16 93 3c 8d a6 69 bd
       0.024198815 0.024224097 0.017955009 -0.0570436
000320 c3 80 85 38 0b 21 a2 3d 9d d9 4d 3d 80 00 f3 bd
       6.365918e-05 0.07916459 0.05025636 -0.1186533
000330 0f 16 22 be fc 99 bb bc 32 64 ce bd 85 3f d6 bc
       -0.15828727 -0.022900574 -0.100777045 -0.026153335
000340 8e 40 7b bd a7 f5 f1 bd 9a 35 0f be c7 06 c8 39
       -0.06134086 -0.118144326 -0.13985291 0.00038152022
000350 31 1d 51 bd 04 3e 79 ba a1 7d 8f 3d f8 49 90 3c
       -0.05105323 -0.0009507837 0.07006384 0.017613396
000360 13 ae 38 bb fe c4 67 3b 65 f0 a3 bd 08 2c 72 bc
       -0.0028179928 0.003536522 -0.08004836 -0.014781006
000370 72 f6 a9 bd e8 a8 a7 3a b2 6d c0 3b bf ae 81 3d
       -0.08298959 0.0012791427 0.0058724517 0.06332158
000380 ad a1 07 3e 30 f3 d0 3b 3a 7e 8f 3d bd 19 07 bc
       0.13245268 0.0063766465 0.07006498 -0.008245883
000390 fb a6 68 bd 3d 12 ee 3b b2 18 1a bd 94 44 49 bd
       -0.05679987 0.0072653578 -0.037621208 -0.049137667
0003a0 6e 86 63 3d aa c8 8a 3c 59 2a 43 bd 78 e1 43 bd
       0.055548124 0.016941387 -0.047647808 -0.047822446
0003b0 35 9f b6 bd 1d 05 30 bc c0 12 81 3d 80 39 fe 3c
       -0.08917085 -0.010743407 0.063024044 0.031033278
0003c0 b0 a8 4b 3d 30 54 7b bc ff 6a b7 3d 26 bc f6 3c
       0.04972142 -0.015339896 0.08955955 0.030119013
0003d0 e0 e6 14 3d 03 f1 b6 bc 14 db f7 bc dc 32 eb bc
       0.036352992 -0.02233172 -0.030255832 -0.028710775
0003e0 f6 7e a0 3d 4c dc 90 3d 18 ee 32 3d a1 cf 7c 3c
       0.07836716 0.07073268 0.043684095 0.015430362
0003f0 de e4 25 bc b2 8d d3 bd 05 78 df bb b1 bf 88 3d
       -0.010125367 -0.103297606 -0.0068197274 0.06677187

DecList.0.conv.bias f4 [32]
000000 74 ec fa 3d e1 5f 8c 3d fb 89 48 bd 76 f1 66 3e
       0.12252131 0.06854225 -0.048959713 0.22553048
000010 7c ad 69 3d 60 ea 9e 3d 35 82 a4 bd 1f d3 db 3d
       0.057050213 0.07759547 -0.080326475 0.107336275
000020 c5 ca 71 3e 86 34 ef 3c ff a6 38 be 3e 3b 04 bd
       0.23612507 0.02919985 -0.18032454 -0.03228306
000030 8f ab e7 3b a3 ec bf 3c 26 f9 13 3e 1c 71 17 3e
       0.007070012 0.023428267 0.14450511 0.14789242
000040 06 cc f7 bd a2 f7 a7 bd 66 75 5c 3e 6f 5c 2b 3d
       -0.12099461 -0.08201529 0.21529159 0.0418362
000050 2a d8 03 3d dd 6d 93 3d c0 2b 28 3e ed 41 37 bd
       0.032188572 0.07198689 0.1642294 -0.044740606
000060 00 b3 40 bd f2 a6 0d bd 82 b8 55 bc 27 4d 15 3e
       -0.047045708 -0.03458304 -0.013044478 0.14580213
000070 df 0c 91 bd 7f 04 a2 bc 84 54 8b bb 17 59 0b 3e
       -0.07082533 -0.019777535 -0.0042520184 0.13608204

DecList.0.ECA.conv.weight f4 [1, 1, 3]
000000 4e 17 b2 3e 2b 2c c5 3e c8 95 8d be
       0.34783405 0.3851026 -0.27653337

DecList.1.conv.weight f4 [32, 16, 7]
000000 9f 07 1b 3e ed 60 5e 3e 4f 97 c9 3d d7 b9 11 3e
       0.15139626 0.21716662 0.09843313 0.14231049
000010 a6 28 d6 3d 1d 0f 00 bd dd 4c fb 3d be f0 03 3e
       0.10456972 -0.031264413 0.1227052 0.12884805
000020 fc 82 48 3e 76 96 8a 3d 34 24 4b 3e 60 e8 e7 3d
       0.19581217 0.067669794 0.19838029 0.11323619
000030 0a 74 53 bd 72 85 51 3d b3 00 28 3e 77 3d 39 3e
       -0.051624335 0.051152654 0.16406517 0.18089853
000040 bc 32 00 3e 09 54 47 3d 33 85 2c bd a0 43 45 3c
       0.12519354 0.048664127 -0.042119216 0.012040049
000050 45 40 a2 3d 2e c5 55 3d 38 de 73 3d 22 c3 a0 3d
       0.07922415 0.05219 0.059538096 0.07849719
000060 4f 42 c4 3d 0b a9 41 3d a9 91 ca bc be de 63 bd
       0.0958296 0.047280353 -0.02472766 -0.055632345
000070 88 a7 21 3c 1f 76 e6 bd d2 f3 0b be 9a 0a 2a 3d
       0.009866603 -0.112529986 -0.13667229 0.041514017
000080 16 17 a8 3d b7 76 b3 3d 8d e9 95 bd a2 6d 1a 3e
       0.08207528 0.087628774 -0.07319937 0.15080884
000090 ea 54 f2 3d 92 ee 50 bc f5 a9 19 3e f2 b1 2b bd
       0.11832602 -0.012752192 0.1500624 -0.04191775
0000a0 55 2f b6 bb 92 07 87 3b 47 39 9d bd 0a e9 db 3d
       -0.0055598416 0.0041207755 -0.076769404 0.10737808
0000b0 e4 8f ba 3d c7 9c 7d 3d 6d 73 b3 bd 7f fc 88 3d
       0.09109476 0.061917093 -0.0876225 0.06688785
0000c0 2a 23 91 3b b8 90 9c 39 4a 60 3a 3d 02 a6 3d 3d
       0.0044292407 0.00029862463 0.045501985 0.046300896
0000d0 1d 11 76 bd 8f 04 7a bb b3 d0 e0 3c fb ab 2d 3d
       -0.060074914 -0.003814969 0.027443266 0.04240034
0000e0 54 3c 16 3e 7c c8 43 3e 5e d8 70 3e 85 01 37 3e
       0.14671451 0.19119447 0.23520038 0.17871673
0000f0 4b fe 6b 3e ca 4a 01 bc 56 b6 0b be 26 27 aa bc
       0.23046224 -0.007891366 -0.13643774 -0.02077062
000100 42 71 51 3c ad d3 f8 3c eb 7b f3 bd d1 df 0a 3d
       0.01278335 0.030374372 -0.1188887 0.033904854
000110 a2 96 09 bd de bc 45 bd 05 f5 a4 bd 90 88 5d bd
       -0.03359092 -0.04827582 -0.08054546 -0.054085314
000120 e6 db 11 bd 7d 41 22 3e 0a e2 20 3e 02 f3 a7 3d
       -0.035610102 0.15845294 0.15711227 0.08200647
000130 6e 7d 44 be bb b4 ed bc ed a5 6d bc 4d 22 6c bd
       -0.19188473 -0.029016843 -0.014504892 -0.0576499
000140 69 41 b3 bd 51 ab 36 bd bb 43 3d 3d bb 0a e0 3b
       -0.0875271 -0.044596974 0.04620717 0.0068372167
000150 4e a4 fe 3c 96 31 10 3e c0 c8 b7 3c 38 9c ba 3d
       0.031084206 0.14081416 0.022434592 0.091118276
000160 17 87 d8 3c 78 2d 5e bc 5b 4a 27 3c a9 de 1c bd
       0.026431603 -0.013560645 0.010210599 -0.038298283
000170 8b 2d 4c bd 0f 93 38 3d c7 42 49 bd 7b fa 89 3d
       -0.04984812 0.04506212 -0.04913595 0.067372285
000180 ed 85 ce bd e5 6f 78 bd a0 f9 bb bc fc 3e 13 3c
       -0.10084138 -0.060653586 -0.022946179 0.008987185
000190 76 bd 97 3d 5e e0 78 3d 13 55 13 3d 9a e6 93 bd
       0.07409184 0.06076085 0.035969805 -0.07221718
0001a0 94 c1 68 3d 13 43 1c 3e 54 14 ca 3d c3 51 d4 3d
       0.056825235 0.15259962 0.098671585 0.10367157
0001b0 54 16 e0 3d 9d ce 86 3c 7e 21 6e 3d a2 aa 08 3e
       0.10941759 0.016455943 0.05813741 0.13346341
0001c0 9a 64 14 be c6 76 83 bd c0 15 23 be b9 ec 33 be
       -0.14491501 -0.064191386 -0.15926266 -0.17570771
0001d0 50 09 a7 bd cf 13 3a be 1e e6 5f bd ce 45 28 be
       -0.08156073 -0.18171619 -0.054662816 -0.16432878
0001e0 bd 0f 3f be 41 8a 2f be 29 6c 5c bc c6 74 81 bd
       -0.18658347 -0.17142583 -0.013453522 -0.06321101
0001f0 15 cf 89 bd 72 a2 1f be ad 32 a4 bd 2e d3 04 be
       -0.06728951 -0.15589312 -0.08017478 -0.12971184
000200 08 af 64 bd d8 29 15 be ba be 91 bd 69 83 1b be
       -0.055830985 -0.14566743 -0.07116456 -0.15186848
000210 c0 96 78 be 34 5a 40 be fb 49 18 be b0 6d dc bd
       -0.24276257 -0.1878441 -0.14871971 -0.10763109
000220 a0 81 c7 3c f1 4d 9c bc 0b eb b7 bd 77 86 2d bd
       0.024353802 -0.019080134 -0.08980378 -0.042364564
000230 d1 65 2a 3e 36 da 2a 3e 64 fc 3d 3d d0 19 03 3e
       0.16640402 0.16684803 0.046383277 0.12802815
000240 2b 40 99 bc e4 2b 2c 3d ca b1 a9 3d 54 dd a2 bd
       -0.018707355 0.042034045 0.08285864 -0.07952371
000250 cf ee e9 bd bf d2 85 bd c2 7a 8a bc 6c 45 ed 3c
       -0.11422502 -0.06534337 -0.016904239 0.028963767
000260 50 f7 e3 bd 09 f6 79 bb d9 4f ba bd 5a 03 8f 3c
       -0.111311555 -0.0038141033 -0.09097261 0.017457653
000270 f2 9b 82 bd 83 73 9f bd 70 5a 09 38 7a 56 d4 3c
       -0.063774005 -0.07785704 3.2747572e-05 0.025920141
000280 41 ac 00 be f2 cf 09 bd 83 f4 94 3d 90 39 8c 3d
       -0.1256571 -0.033645578 0.072731994 0.06846917
000290 35 62 ff 3d fa 59 7f 3d c7 33 8b 3d 9b d1 6f bd
       0.124699034 0.062341668 0.06796985 -0.058549505
0002a0 7b c4 6e 3d e1 65 05 bc 28 af 16 bd 82 de d7 bd
       0.058292847 -0.008141966 -0.036788136 -0.10540487
0002b0 d3 e3 df 3b c4 27 1e 3d ce d7 65 3e ce fc e4 3d
       0.0068325787 0.038612142 0.22445604 0.11181031
0002c0 97 5a fe 3d fd 8e 10 3c f6 9d c9 3c 31 f6 9c 3d
       0.124196224 0.008823154 0.024611454 0.07664145
0002d0 78 fc 91 3d 1c f8 03 3d e8 11 db bd d7 b9 44 be
       0.07128233 0.032219037 -0.10696775 -0.19211517
0002e0 53 3a 62 bd a6 72 cf 3a be 75 b4 3d 3c d6 04 3e
       -0.055231404 0.0015827015 0.0881152 0.12972349
0002f0 6e cd d3 3d 15 ec e0 3d d5 4c 0a 3e 7a 6e 5a 3e
       0.10341917 0.10982529 0.13505872 0.21331206
000300 91 42 dd 3d 6c 2a 03 3e 57 dd b3 3d f6 ee 8e 3d
       0.10803712 0.12809151 0.087824516 0.06979172
000310 8b f3 1e be 12 2d c0 bd 50 27 c7 bc 70 5f c1 be
       -0.15522592 -0.093835965 -0.024310738 -0.37768126
000320 77 75 10 be bd cf ec bd 28 c4 71 be b0 d3 1d 3e
       -0.1410731 -0.115630604 -0.23609984 0.15412784
000330 11 3d a2 3d b1 58 e5 3d 6e 7b 14 3c ef 78 15 3e
       0.07921804 0.11198557 0.009062631 0.14596914
000340 06 22 08 3e 68 e8 5d 3e 4e 0e 56 bd 08 fc 2a 3d
       0.13294229 0.21670687 -0.052259736 0.041744262
000350 3f 93 23 3d 47 f0 44 bd 8a b2 1d 3e b9 74 c6 bc
       0.039935347 -0.04808071 0.15400138 -0.02422558
000360 8b a5 6c 3d cd 2b 9f be e7 7c 88 be 32 b8 49 be
       0.05777506 -0.31088105 -0.26657793 -0.19699171
000370 3c e4 6d bd 64 4b 27 be 18 2c 2b be 0e c5 9c be
       -0.05807899 -0.16337353 -0.16716039 -0.3061909
000380 45 2b 94 3d 71 21 90 3d c7 cc c9 bb 53 22 89 bd
       0.072348155 0.070376284 -0.0061584446 -0.06696
000390 e1 44 be bc 0f 5b 86 3d 7f dc e3 bd 08 0c e4 3d
       -0.023226203 0.06560337 -0.11126041 0.11135107
0003a0 61 30 77 3d ae 86 e7 ba 2b 3c 01 3e a2 7e 8a 3d
       0.060348872 -0.0017664039 0.12620609 0.067624345
0003b0 23 95 37 bd d4 77 90 bd ef 92 28 3b 23 a9 17 bd
       -0.044819962 -0.070541054 0.0025722345 -0.037026536
0003c0 b2 ce 63 bc 3f 9d a6 bd 08 91 f8 3c c0 6a d9 3c
       -0.0139042605 -0.08135461 0.030342594 0.02654016
0003d0 03 4a 9f bd 28 fe 04 3c 39 9c 17 3e 94 58 3d 3d
       -0.077777885 0.008117236 0.14805688 0.046227053
0003e0 bf 9c 3d 3b 7d 61 95 3d d4 d4 a9 bd 48 20 f8 bc
       0.002893254 0.07293985 -0.08292547 -0.03028883
0003f0 df e4 87 3c 01 84 82 3d 7f ba 6a bd 86 d2 a7 bd
       0.016588626 0.06372834 -0.057306763 -0.08194451

DecList.1.conv.bias f4 [16]
000000 83 8f a2 3d c1 64 f2 3d 1a 1c c7 3d b0 27 d2 3d
       0.07937529 0.118356235 0.09722157 0.10261476
000010 b9 19 88 3e 34 d8 b6 ba 41 9d e2 bd ec a9 eb 3d
       0.26582125 -0.0013949932 -0.1106515 0.115070194
000020 b5 9a 71 3e 11 63 a1 3d 70 d9 27 3c ee a1 98 3d
       0.23594172 0.078802235 0.010244712 0.07452761
000030 10 41 8b 3e f0 c6 ae 3c 2b 63 4a 3d 26 92 2c 3d
       0.27198076 0.021335095 0.04941098 0.042131566

DecList.1.ECA.conv.weight f4 [1, 1, 3]
000000 e4 dc 99 3e a3 73 02 be c0 35 2e 3f
       0.3005134 -0.12739424 0.68050766

DecList.2.conv.weight f4 [16, 8, 7]
000000 87 e9 32 bc 57 ca 56 bd 33 cc f2 3d e7 5d c9 bd
       -0.010919935 -0.05243906 0.11855354 -0.098323636
000010 df 1b b5 bb ad 08 2a bd 3a 31 99 3d 3f d8 fd bc
       -0.005527004 -0.04151218 0.07480092 -0.030986903
000020 d9 74 14 be 5d f9 b3 bd ba e5 0e bd 23 b6 35 bd
       -0.14497699 -0.08787797 -0.034887053 -0.044363152
000030 d3 12 1e 3e 0a bb aa bc 55 d5 fc 3c b6 d5 ef 3c
       0.15436868 -0.02084114 0.030863443 0.02927671
000040 28 1d 84 3d fb 9f 00 3e 9a 39 01 bd 07 71 ff bd
       0.064508736 0.12561028 -0.031549074 -0.1247273
000050 e8 8d f6 bc 6f d2 fb bd 7d 89 73 3d 21 1a 82 3d
       -0.030096963 -0.122959964 0.05945729 0.0635264
000060 f8 2b 86 ba a7 ac 67 bd 4a 6c e6 bd b2 dd e3 bd
       -0.0010236492 -0.05656114 -0.11251123 -0.111262694
000070 cd ae 54 3d e0 e9 9c bd 67 e4 54 3c 04 c4 1e 3d
       0.051924516 -0.076617956 0.0129939085 0.038761154
000080 9f c6 64 bd 3d 7d a9 bd 07 06 cc 3d c6 98 f9 bd
       -0.055853482 -0.082758404 0.09962087 -0.12187342
000090 b2 58 ba bc 3f 14 9e bc 2c 77 08 bd 7a c0 12 be
       -0.022747371 -0.019296763 -0.033316776 -0.14331236
0000a0 2d 6c 22 be f2 b9 e7 3c ad 65 0a 3e cb 76 a1 3d
       -0.15861578 0.028286908 0.13515349 0.07883986
0000b0 05 d0 7b bd 0f 3b 97 3d 35 ee c4 3d 36 35 55 3e
       -0.06147768 0.073843114 0.09615747 0.2082108
0000c0 33 39 46 3e f1 4b 93 bd 80 2b ac 3d 68 9f 80 bd
       0.19357757 -0.07192219 0.084067345 -0.06280404
0000d0 82 7b 07 bd 9b 1a a5 bd 93 c0 da 3d 2d 20 03 3e
       -0.03307677 -0.08061715 0.10681262 0.12805243
0000e0 f5 b5 eb 3d 12 3f 54 3c 0f 9b 94 bd 5b 25 37 3d
       0.11509315 0.01295449 -0.072561376 0.04471336
0000f0 93 ce dd 3d b7 3b d9 bc ea 89 79 3d 9f 2d ab bd
       0.108304165 -0.026517732 0.06092254 -0.08358311
000100 3f a5 c8 bc 79 d7 04 bd 77 2e df 3d 76 39 bb bc
       -0.024492858 -0.032432053 0.10897534 -0.022854548
000110 87 b6 42 3a 57 2c 42 bc 13 1a 14 be bf de 9e bd
       0.00074277114 -0.011851392 -0.14463072 -0.07757329
000120 b7 4f b9 bb f8 ac bf bc 89 e9 ad 3d 55 d3 ae bd
       -0.0056552547 -0.023397908 0.08491809 -0.08536402
000130 16 d4 b5 bc e3 66 e3 3d da d0 e3 bc 4c ac dc 3d
       -0.022195857 0.111036085 -0.02780955 0.107750505
000140 6a 0b d5 bd 00 29 22 3c 83 d2 96 bd 70 00 51 bd
       -0.10402568 0.0098974705 -0.07364371 -0.051025808
000150 04 62 e5 bd 06 9e b0 bd 45 c1 31 bd 41 e9 84 3d
       -0.112003356 -0.086238906 -0.043397207 0.06489802
000160 4a 29 6a 3d 18 b8 06 3e 2d e1 90 3d 94 a0 ec bd
       0.057168283 0.13156164 0.07074199 -0.11554065
000170 ad 38 0f be 09 2b 1b be 75 83 e5 bd 92 a9 0b 3e
       -0.13986464 -0.15153135 -0.11206714 0.13638905
000180 57 f5 19 3e d7 a8 0d bd d7 65 86 3e da be ba 3e
       0.15034996 -0.034584846 0.26249573 0.36473733
000190 56 05 c3 3e d6 e5 85 3e 86 44 0b 3c e5 15 16 3d
       0.38090008 0.26151913 0.008500224 0.036641974
0001a0 52 16 a8 bd b7 5b 90 bd b3 40 40 3e 19 2e 32 3c
       -0.08207382 -0.07048743 0.18774681 0.010875248
0001b0 90 7d 08 bd b5 73 15 3e 0b d8 28 bc 5f 93 6f bd
       -0.03332287 0.1459492 -0.010305415 -0.058490153
0001c0 81 40 41 bd db 99 bc 3c 21 ad 17 bd e4 10 9d bd
       -0.047180656 0.023022583 -0.037030343 -0.07669237
0001d0 4b 99 2d 3d 5a 05 1d 3d b0 ed 67 bd a5 0d b2 bd
       0.04238252 0.03833518 -0.05662316 -0.08694009
0001e0 82 ec 9f 3d 7a 85 36 bc 91 5c 99 bd e1 db c1 bd
       0.07808782 -0.011140222 -0.07488359 -0.09465767
0001f0 33 a3 49 3d 0f 98 a5 bd 87 d0 2a bc 94 83 b6 bd
       0.049227905 -0.080856435 -0.010425693 -0.08911815
000200 48 42 a9 3d 26 60 a3 3d 38 f1 fa 3d 4a dc de 3d
       0.08264595 0.07977323 0.1225304 0.108818606
000210 0b f5 cd 3d d9 13 a0 bc 66 60 b1 3d df 41 23 be
       0.10056504 -0.019540714 0.08660965 -0.15943097
000220 01 12 fe bd b5 83 15 3d 0e a3 89 bd 31 af b1 bc
       -0.12405778 0.03650256 -0.06720553 -0.021689983
000230 fe 29 fb bd 5d 74 b8 bd 14 8a cb 3d ef 02 8a bd
       -0.12263869 -0.090065695 0.09938446 -0.06738841
000240 16 d3 8c bd 55 09 da 3d 7f 5b 75 3d 2d 0e 68 bd
       -0.06876199 0.10646311 0.05990171 -0.056654144
000250 c7 23 27 be 60 0d 1b be c9 d6 a0 bd 2f 53 df bd
       -0.16322242 -0.15141821 -0.07853467 -0.10904538
000260 89 42 c1 3d 99 26 c5 bc a7 74 94 bd 67 26 9b bd
       0.09436519 -0.024066256 -0.07248812 -0.07575684
000270 5a b8 24 3e 80 ae 39 3e 09 72 2c 3e 3e 4c 6d 3e
       0.1608595 0.18132973 0.16840376 0.23173615
000280 ac bb fb 3d 74 42 c2 3d f3 ee 35 3a 4f 89 08 3e
       0.12291655 0.09485331 0.0006940208 0.13333629
000290 2f 09 7c bd cf f5 48 bb 03 6d f7 bc 7b 50 bb bd
       -0.061532196 -0.0030664091 -0.030203348 -0.0914621
0002a0 61 a4 b7 3c 44 95 6d bd e4 8a 02 be fd 92 a1 3d
       0.02241725 -0.05800368 -0.12748295 0.07889364
0002b0 13 6a c6 bd bf 0c bd 3d 35 c3 2e bd 14 c2 29 bc
       -0.09688201 0.09230947 -0.042666633 -0.010361213
0002c0 43 59 26 bd a1 89 b9 3d db f1 b6 bd 03 95 ec 3d
       -0.04061247 0.09059454 -0.08932849 0.11551859
0002d0 44 e7 e5 bd 91 28 ce 3d 93 0c 91 3d c8 e0 93 3d
       -0.11225751 0.10066331 0.070824765 0.07220608
0002e0 fb ac ae bd cf 19 d1 bd c5 07 2e bc 89 35 66 be
       -0.08529087 -0.10210001 -0.01062197 -0.2248136
0002f0 71 69 21 3c cf 8e da bd a4 d5 a1 3d 62 43 fd 3c
       0.009851799 -0.1067177 0.07902077 0.03091592
000300 d0 88 1b 3d 5d 2b f3 3c b5 72 82 bd a8 28 a8 bd
       0.03797227 0.029683763 -0.06369535 -0.082108796
000310 3d 32 da bd a7 10 fb bd f6 a4 7e 3a 12 a5 3e 3c
       -0.106541134 -0.122590356 0.0009713912 0.0116360355
000320 8f 9f 2a bc 4e 30 a1 3d 17 43 2a be 02 6d a4 bd
       -0.010414018 0.078705415 -0.16627155 -0.08028604
000330 2b 22 74 bd 00 81 4c bd ec f7 7f 3c 7a f3 82 3d
       -0.059602898 -0.04992771 0.015623074 0.06394096
000340 cd fb e4 3d b2 b7 97 3d c5 ee 38 3e 87 db d5 3e
       0.1118084 0.07408084 0.18059833 0.4176905
000350 32 7b 6d 3e 33 87 89 3e 6a c1 72 3c 0c a3 0d 3c
       0.23191527 0.2686096 0.014816621 0.00864483
000360 79 04 10 3d a2 75 2d 3e af df c0 3d 28 20 d2 3d
       0.035160515 0.16939405 0.09417664 0.102600396
000370 5e d9 d9 3d 54 69 e4 3d e3 17 64 bd 6d 1a c2 3c
       0.106371626 0.11152902 -0.055686843 0.023694241
000380 d1 e7 92 3d a3 80 e0 3d b4 2d 8f 3d 31 2d 95 3d
       0.07173122 0.109620355 0.06991139 0.0728401
000390 79 76 1d 3d 7d b5 1a 3e 11 09 84 bd 1e 9e 05 bd
       0.038443062 0.15108295 -0.06447042 -0.032621495
0003a0 4b b2 3c 3c fc 3e 6c 3d e6 e0 e7 bd 5e 8a 87 3d
       0.011517118 0.057677254 -0.11322193 0.06618188
0003b0 2d aa bd 3d 1f f8 21 bb 63 5f 5d 3d c4 b9 22 bb
       0.09260974 -0.0024714542 0.054046046 -0.0024829963
0003c0 1d e0 ab 3d b6 b1 fd bc bc 00 62 bd 2f 2d c8 ba
       0.083923556 -0.030968528 -0.05517648 -0.0015272255
0003d0 bf 6e 15 3b 96 6a a1 3b e0 ee a2 bd a4 d0 32 3c
       0.0022801606 0.004926036 -0.07955718 0.010914002
0003e0 30 d7 1e 3e 0d 15 b0 3d 84 42 d3 3d 6e f7 2a bc
       0.15511775 0.08597765 0.10315421 -0.010434968
0003f0 d5 02 c8 bc 58 84 68 3d 57 f9 23 be ff 29 16 be
       -0.024415413 0.056766838 -0.16013084 -0.14664458

DecList.2.conv.bias f4 [8]
000000 26 a6 96 bd 76 f0 ba 3d d5 3a ee 3d 02 8c 96 bd
       -0.07355909 0.091278955 0.11632315 -0.07350923
000010 f7 80 c0 bd 24 f1 0f be 89 8f a4 3d c0 aa 86 3e
       -0.09399598 -0.14056832 0.0803519 0.26302147
