checkpoints/best_Seq2Seq2_emb_snr_2.pth (torch, 160834 bytes, 219 tensors)

enc.EncoderList.cell0.conv.weight f4 [4, 2, 17]
-0.02005061 -0.016309926 -0.19230619 0.07342899 -0.09722995 -0.0641602 0.06685775 0.027312562
0.23890176 0.15254965 0.18241186 0.052393597 -0.049773544 0.20260468 -0.08092427 0.009304667
0.01389118 -0.024764577 0.008912525 -0.07761316 0.07501549 0.006084624 -0.040389974 0.10079566
-0.05454095 0.054557573 -0.03897248 -0.051297754 -0.03822572 -0.03885106 -0.09687188 0.029691363
0.18770914 0.030266639 0.109888546 0.005436638 -0.03440117 0.23995295 -0.14752863 -0.09079521
-0.18581524 -0.16058083 0.22802126 0.099859506 -0.029154234 0.16109791 0.12167906 -0.02740442
-0.017003665 0.038008045 -0.07311197 0.07769312 -0.07099136 0.05893823 0.1277978 -0.14075679
0.017674154 -0.00057070644 0.04719185 0.00067889824 0.07410866 -0.014368477 0.12885177 0.04798518
-0.037936836 -0.07053736 0.13307154 -0.011884365 0.007904929 0.13563627 0.016917769 -0.03724993
0.11865724 0.12918185 0.033538584 -0.20864394 -0.12372029 -0.0033264766 0.019821372 0.14149332
-0.09810226 -0.0820363 -0.09080328 -0.015081353 0.06949743 0.070363365 0.1835831 -0.082967505
0.18398827 -0.100695334 0.17754813 -0.20668064 -0.18328291 -0.21631813 -0.14381781 -0.041625388
-0.12357124 -0.08403814 -0.08499795 0.021162465 0.16509105 -0.02038126 -0.087446414 -0.06554828
-0.03831029 0.01870911 -0.07524328 -0.14683598 0.052827265 0.107363045 0.17731144 0.10043178
0.112631194 -0.07288662 -0.13995121 -0.15162829 0.055814933 -0.056390595 0.023045868 0.15066583
0.0284022 0.0397306 0.026401496 -0.008340962 0.0592645 -0.04360742 -0.14226179 -0.26815084
-0.2628539 -0.046934694 -0.030133924 -0.049287908 0.10269613 -0.14245248 0.050102364 0.0024093054
00000000: 2d41 a4bc 659c 85bc eaeb 44be f061 963d
00000010: 7f20 c7bd 6c66 83bd b7ec 883d 98be df3c
00000020: aaa2 743e fa35 1c3e 2dca 3a3e ab9a 563d
00000030: 58df 4bbd 9a77 4f3e a0bb a5bd 9a72 183c
00000040: d597 633c 15df cabc d705 123c a6f3 9ebd
00000050: b9a1 993d 8761 c73b f56f 25bd f46d ce3d
00000060: 5566 5fbd c377 5f3d 9ba1 1fbd 981d 52bd
00000070: 9392 1cbd 4a22 1fbd c464 c6bd 4d3b f33c
00000080: d336 403e bef1 f73c 3f0d e13d d325 b23b
00000090: 3ee8 0cbd 3ab6 753e bf11 17be d7f2 b9bd
000000a0: 5a46 3ebe 4d6f 24be 687e 693e 2483 cc3d
000000b0: dcd4 eebc daf6 243e df32 f93d 3c7f e0bc
000000c0: 454b 8bbc 53ae 1b3d bbbb 95bd 921d 9f3d
000000d0: eb63 91bd 3769 713d 6ddd 023e 8c22 10be
000000e0: 63c9 903c 769b 15ba 3e4c 413d 17f8 313a
000000f0: 48c6 973d c369 6bbc b8f1 033e 1c8c 443d
00000100: a863 1bbd e475 90bd e843 083e a4b6 42bc
00000110: ad83 013c 3ce4 0a3e 2297 8a3c 6293 18bd
00000120: 9102 f33d 3f48 043e c15f 093d c2a6 55be
00000130: 1061 fdbd 0401 5abb 6e60 a23c a0e3 103e
00000140: d6e9 c8bd a602 a8bd 12f7 b9bd c717 77bc
00000150: ab54 8e3d ab1a 903d 35fd 3b3e deea a9bd
00000160: 6c67 3c3e 5b39 cebd 2dcf 353e 17a4 53be
00000170: 84ae 3bbe 8082 5dbe fa44 13be 627f 2abd
00000180: eb12 fdbd 301c acbd 6813 aebd e85c ad3c
00000190: a10d 293e 9af6 a6bc 1b17 b3bd 2d3e 86bd
000001a0: 40eb 1cbd d943 993c 2619 9abd 2c5c 16be
000001b0: 6761 583d 28e1 db3d 2191 353e 2daf cd3d
000001c0: 2fab e63d 9545 95bd 5f4f 0fbe 7244 1bbe
000001d0: 339e 643d d3f9 66bd b0ca bc3c 2548 1a3e
000001e0: bbab e83c 8ebc 223d f347 d83c 88a8 08bc
000001f0: 55bf 723d b29d 32bd 13ad 11be 114b 89be
00000200: c994 86be 983e 40bd 6bdb f6bc 1ee2 49bd
00000210: 5952 d23d 10df 11be 2338 4d3d 70e5 1d3b

enc.EncoderList.cell0.conv.bias f4 [4]
-0.05446274 0.2303806 -0.17398052 -0.10599998
00000000: 5214 5fbd e4e8 6b3e f327 32be 8416 d9bd

enc.EncoderList.cell0.activate.fcn.0.weight f4 [8, 8]
0.20748292 -0.14603747 -0.015842356 -0.40097958 0.065897 0.35757613 -0.13692573 0.11679227
0.3293707 -0.2288964 0.058825646 0.2576384 -0.04392255 0.034210417 0.2770241 -0.18092495
-0.18081519 0.32978913 -0.24599832 -0.23574601 0.08674206 -0.05122928 0.03729462 0.06309013
-0.12986761 0.25421423 0.21531717 -0.024789175 -0.02790365 0.06264692 -0.18045034 -0.16968565
-0.061490368 -0.15979353 0.27847102 0.30122274 -0.115711786 -0.22243501 -0.0048054294 0.33700752
-0.06222594 -0.3808168 0.31372136 -0.20405926 -0.048688855 -0.24303423 0.22697885 0.00069942453
-0.09102033 0.16626151 0.02763178 -0.13969342 0.23700777 -0.23572864 -0.09733148 0.15709451
-0.24681039 0.26002824 0.26705813 0.16597807 0.13610986 -0.1735885 0.0020158961 0.060805727
00000000: 6776 543e d98a 15be d4c7 81bc 324d cdbe
00000010: 02f5 863d 3814 b73e 4236 0cbe c930 ef3d
00000020: 47a3 a83e d163 6abe 29f3 703d 2ee9 833e
00000030: 22e8 33bd 3920 0c3d 1ad6 8d3e 6444 39be
00000040: 9e27 39be 1fda a83e fce6 7bbe 6767 71be
00000050: d2a5 b13d cbd5 51bd 3ec2 183d 6635 813d
00000060: 04fc 04be 5e28 823e 1b7c 5c3e ab12 cbbc
00000070: 3296 e4bc 074d 803d f9c7 38be 13c2 2dbe
00000080: 53dd 7bbd eaa0 23be c193 8e3e de39 9a3e
00000090: 4dfa ecbd 01c6 63be dd76 9dbb 408c ac3e
000000a0: a1e0 7ebd 6bfa c2be 16a0 a03e e9f4 50be
000000b0: f76d 47bd f7dd 78be 256d 683e 9659 373a
000000c0: de68 babd 7540 2a3e 0b5c e23c cb0b 0fbe
000000d0: 2ab2 723e d962 71be ba55 c7bd 62dd 203e
000000e0: ddbb 7cbe 6c22 853e d8bb 883e 28f6 293e
000000f0: 6260 0b3e 2fc1 31be 201d 043b 6d0f 793d

enc.EncoderList.cell0.activate.fcn.0.bias f4 [8]
-0.34427375 -0.23732026 0.10090889 0.05266807 -0.29631415 -0.12387243 -0.109226175 0.109458156
00000000: a644 b0be 1504 73be 52a9 ce3d 79ba 573d
00000010: 7db6 97be d4b0 fdbd f9b1 dfbd 992b e03d

enc.EncoderList.cell0.activate.fcn.1.weight f4 [8]
0.85911715 0.92317796 0.93392843 1.0177975 1.1404343 1.0141224 0.9705296 0.9567738
00000000: 1aef 5b3f 6455 6c3f ef15 6f3f 3047 823f
00000010: c0f9 913f c3ce 813f a174 783f 21ef 743f

enc.EncoderList.cell0.activate.fcn.1.bias f4 [8]
-0.28264725 -0.30511412 0.07843532 0.02226294 0.21785788 -0.07792267 -0.16333532 0.25877056
00000000: 24b7 90be eb37 9cbe b2a2 a03d c560 b63c
00000010: 2316 5f3e ec95 9fbd 6041 27be 937d 843e

enc.EncoderList.cell0.activate.fcn.1.running_mean f4 [8]
-0.48551947 -0.22486451 0.054267004 0.24439037 -0.30767313 -0.28798485 -0.13818139 0.1945848
00000000: 0296 f8be e242 66be 1447 5e3d 7841 7a3e
00000010: 5587 9dbe c072 93be 6c7f 0dbe 3d41 473e

enc.EncoderList.cell0.activate.fcn.1.running_var f4 [8]
0.03619979 0.01744542 0.02421315 0.014849301 0.085721575 0.031814773 0.004640889 0.008796255
00000000: 3b46 143d b3e9 8e3c a85a c63c 7c4a 733c
00000010: cb8e af3d 3550 023d 9912 983b 2b1e 103c

enc.EncoderList.cell0.activate.fcn.3.weight f4 [4, 8]
-0.09952715 0.27764964 0.37883437 -0.22872363 -0.32578024 0.007816145 -0.27344158 -0.22294857
-0.23920645 -0.101174325 -0.09698339 -0.41549784 -0.026810925 0.2581233 0.06068322 -0.12897404
-0.015617276 -0.013793913 0.1779879 -0.28812975 0.56689316 0.46091485 0.00091929926 0.25787172
-0.13609423 -0.38576508 0.18571104 -0.010873766 -0.06824754 -0.40131798 -0.12480893 -0.15333779
00000000: e4d4 cbbd 1828 8e3e 94f6 c13e 8736 6abe
00000010: abcc a6be 4a0f 003c 8900 8cbe a14c 64be
00000020: 89f2 74be 7c34 cfbd 3a9f c6bd 22bc d4be
00000030: 96a2 dbbc bd28 843e f88e 783d c511 04be
00000040: 9adf 7fbc ddff 61bc 7642 363e be85 93be
00000050: e91f 113f 08fd eb3e 21fd 703a c307 843e
00000060: 495c 0bbe 0083 c5be 092b 3e3e e127 32bc
00000070: 5ec5 8bbd 8d79 cdbe d39b ffbd 9504 1dbe

enc.EncoderList.cell0.activate.fcn.3.bias f4 [4]
-0.16446607 -0.1590308 0.033635013 0.3148884
00000000: cb69 28be f8d8 22be dec4 093d 0d39 a13e

enc.EncoderList.cell0.activate.fcn.4.weight f4 [4]
0.28344157 0.71557623 0.6011069 0.69713783
00000000: 411f 913e 0130 373f 24e2 193f a077 323f

enc.EncoderList.cell0.activate.fcn.4.bias f4 [4]
1.0082467 0.59278405 0.5531911 0.42765558
00000000: 3a0e 813f b2c0 173f ef9d 0d3f acf5 da3e

enc.EncoderList.cell0.activate.fcn.4.running_mean f4 [4]
-0.37647292 -0.37967634 0.56553096 -0.01631606
00000000: 0fc1 c0be f064 c2be a3c6 103f 42a9 85bc

enc.EncoderList.cell0.activate.fcn.4.running_var f4 [4]
0.1284642 0.11769932 1.0272994 0.41139007
00000000: 1f8c 033e 570c f13d 8c7e 833f b8a1 d23e

enc.EncoderList.cell0.bn.weight f4 [4]
1.0099375 0.9199541 0.9434478 1.0233883
00000000: a245 813f 1d82 6b3f cc85 713f 63fe 823f

enc.EncoderList.cell0.bn.bias f4 [4]
-0.067768954 -0.087242626 0.013425583 -0.047260683
00000000: 73ca 8abd 43ac b2bd faf6 5b3c 6b94 41bd

enc.EncoderList.cell0.bn.running_mean f4 [4]
0.0068261153 0.2523745 -0.030638048 0.00028118832
00000000: 9bad df3b 3b37 813e a5fc fabc 756c 9339

enc.EncoderList.cell0.bn.running_var f4 [4]
0.21747097 0.1666938 0.2094357 0.30629545
00000000: b6b0 5e3e c8b1 2a3e 5076 563e c2d2 9c3e

enc.EncoderList.cell1.conv.weight f4 [8, 4, 17]
0.030436445 0.008199643 0.060401823 0.05305056 0.16057985 0.01283571 0.14440255 0.14155766
0.029764922 0.08915016 0.011521987 -0.1269665 -0.031963006 -0.0730358 -0.108353354 -0.016984615
-0.08386954 -0.083792225 -0.019275405 -0.10422057 -0.14729926 0.13557416 0.1386447 0.06056837
0.12368114 0.140237 0.060003143 -0.051323406 0.04809757 -0.10027434 0.029279532 -0.029008985
0.022378184 0.0876887 -0.028658506 -0.047848146 0.06640751 -0.06739675 0.0044500236 -0.033947695
-0.14373864 -0.025115874 -0.003573049 0.07091742 0.049545698 -0.104773 -0.021287177 0.007444345
-0.109296195 0.0755992 0.006204739 0.02943227 -0.10687336 0.067867644 0.020419577 -0.12857625
-0.0005388795 -0.029226655 -0.05860046 0.0956357 -0.07711588 -0.05250082 -0.08473639 -0.11511746
-0.08064975 0.08171171 -7.5811375e-05 0.020600038 -0.09939255 0.0178621 0.16098358 0.0050560697
-0.04530481 0.054690845 -0.093880124 -0.033026308 -0.13613887 -0.13490586 -0.0756615 -0.089706205
-0.09458278 0.10076134 0.10609468 -0.045030672 0.00838269 -0.055336952 -0.26393384 0.042825025
-0.09858771 0.12897143 0.13585967 -0.0534204 -0.03905171 -0.13435738 0.06962968 0.08950294
0.03129034 0.029513165 -0.02370538 -0.059037905 -0.088303395 0.080248006 0.11142283 0.06507147
-0.054636028 -0.019743534 0.091976166 -0.011695493 0.026840229 -0.04629241 0.13593595 0.050802954
-0.06309756 0.09422211 -0.10018238 -0.1523371 0.043139983 -0.09878002 -0.0997629 -0.10158913
0.00608279 -0.05099121 -0.052756056 0.061683822 -0.08142815 0.01040095 -0.0073724394 -0.065932944
0.042445656 0.11667218 -0.031288 -0.0022891217 0.13537244 0.090527065 0.06037113 0.08640011
-0.15475023 -0.15165447 -0.1077773 -0.03596898 -0.062531166 -0.007953483 0.1146355 0.098858945
0.048583437 0.1409189 0.0975291 0.052191135 -0.11035035 -0.032334063 -0.056154437 0.08425624
-0.10632887 -0.09576148 0.015267838 -0.005392174 0.10840184 0.06254171 0.08093141 -0.083367236
-0.12054497 0.14827581 0.14070858 -0.06530814 -0.02010408 0.032433357 -0.050952405 -0.064393416
-0.039460804 0.0953884 0.06115494 -0.0418517 -0.048464853 0.025715224 0.052059047 -0.062151924
-0.030875387 -0.05079674 -0.0094932215 0.07609371 -0.0018231239 -0.044347133 0.13550007 -0.07246668
-0.0032783512 -0.09092196 0.07662992 0.06058806 0.011689484 -0.11656234 0.056715336 -0.09412056
0.11007288 0.08649115 0.17896791 0.084511146 0.081821464 0.0608611 0.12116594 -0.09346784
0.05675755 0.031875852 -0.024900202 -0.12185794 0.14530107 0.01391831 -0.07736118 -0.13383661
-0.08897584 0.09307888 -0.07231886 -0.07656411 -0.33238804 -0.3459922 -0.06935208 -0.008240181
-0.115405135 0.03840571 0.00037383338 0.086283654 -0.057454463 -0.074882366 -0.07158842 -0.018282373
0.08213001 0.1040281 -0.10152106 0.05401428 0.02331411 -0.08286512 -0.10392379 0.10343741
-0.07516069 -0.0211793 -0.01569764 0.1497057 0.02081852 0.016621133 0.058896895 0.008699293
0.104454234 0.09162682 0.040585093 -0.08933868 0.14130867 0.010603128 0.038306583 0.13790397
0.15200509 0.17728093 0.09315361 -0.018346973 -0.11888255 -0.031643827 -0.040503237 -0.08866722
00000000: da55 f93c cc57 063c e767 773d 8b4b 593d
00000010: 0b6f 243e df4c 523c 43de 133e 7ef4 103e
00000020: 91d5 f33c 5c94 b63d b7c6 3c3c 8203 02be
00000030: a4eb 02bd cb93 95bd 5de8 ddbd 5223 8bbc
00000040: cbc3 abbd 429b abbd 74e7 9dbc 9871 d5bd
00000050: 9ed5 16be f4d3 0a3e e0f8 0d3e 8a16 783d
00000060: 8a4c fd3d 4a9a 0f3e dbc5 753d 7e38 52bd
00000070: f501 453d a25c cdbd a1db ef3c 40a4 edbc
00000080: 7452 b73c 2296 b33d 3ec5 eabc 6bfc 43bd
00000090: a900 883d 4f07 8abd 81d1 913b bd0c 0bbd
000000a0: 3930 13be cebf cdbc d129 6abb 273d 913d
000000b0: 6ef0 4a3d 3a93 d6bd 7262 aebc b1ef f33b
000000c0: afd6 dfbd c1d3 9a3d 2051 cb3b f21b f13c
000000d0: 6ce0 dabd 31fe 8a3d f546 a73c 7ea9 03be
000000e0: 9743 0dba bd6c efbc 0907 70bd a6dc c33d
000000f0: eeee 9dbd 1a0b 57bd 468a adbd b4c2 ebbd
00000100: b22b a5bd 7858 a73d ecfc 9eb8 69c1 a83c
00000110: 528e cbbd 8a53 923c e1d8 243e 63ad a53b
00000120: 8991 39bd 8203 603d 3944 c0bd 9846 07bd
00000130: fd67 0bbe c324 0abe 6bf4 9abd e3b7 b7bd
00000140: 9eb4 c1bd f65b ce3d 2b48 d93d 1572 38bd
00000150: 8d57 093c 00a9 62bd 5622 87be 4b69 2f3d
00000160: 5ae8 c9bd 1611 043e cc1e 0b3e 59cf 5abd
00000170: b0f4 1fbd fb94 09be 019a 8e3d 514d b73d
00000180: 4d2a 003d 98c5 f13c c931 c2bc bbd1 71bd
00000190: 69d8 b4bd 1159 a43d a731 e43d 3144 853d
000001a0: 07ca 5fbd 31bd a1bc 005e bc3d 749e 3fbc
000001b0: 0ae0 db3c 1c9d 3dbd cb32 0b3e c216 503d
000001c0: 4b39 81bd 86f7 c03d 6b2c cdbd 42fe 1bbe
000001d0: 8db3 303d 2e4d cabd 7e50 ccbd f60d d0bd
000001e0: 2452 c73b 29dc 50bd bc16 58bd 2da8 7c3d
000001f0: cdc3 a6bd bf68 2a3c 8194 f1bb da07 87bd
00000200: 7fdb 2d3d d3f1 ee3d d927 00bd 1705 16bb
00000210: 139f 0a3e 4166 b93d b847 773d 8af2 b03d
00000220: d876 1ebe 4f4b 1bbe 58ba dcbd 3654 13bd
00000230: 5710 80bd 534f 02bc 04c6 ea3d 8f76 ca3d
00000240: 6dff 463d 0b4d 103e 56bd c73d 5fc6 553d
00000250: 5dff e1bd b970 04bd 3202 66bd 898e ac3d
00000260: f3c2 d9bd 981e c4bd f425 7a3c d5b0 b0bb
00000270: c901 de3d de15 803d 5ebf a53d 71bc aabd
00000280: 48e0 f6bd 9dd5 173e e915 103e 46c0 85bd
00000290: 50b1 a4bc d7d8 043d 78b3 50bd b2e0 83bd
000002a0: a7a1 21bd fe5a c33d 9a7d 7a3d b06c 2bbd
000002b0: 1583 46bd bca8 d23c de3b 553d 0493 7ebd
000002c0: 61ee fcbc 3e10 50bd 7589 1bbc 05d7 9b3d
000002d0: e3f5 eeba 57a5 35bd 88c0 0a3e 6969 94bd
000002e0: 9bd9 56bb 4b35 babd 26f0 9c3d 302b 783d
000002f0: 4085 3f3c 3cb8 eebd 574e 683d 48c2 c0bd
00000300: e46d e13d 4622 b13d 5d43 373e 2e14 ad3d
00000310: 0392 a73d 7d49 793d d925 f83d 116c bfbd
00000320: 9b7a 683d 4190 023d 82fb cbbc a890 f9bd
00000330: cec9 143e a009 643c 8a6f 9ebd 770c 09be
00000340: f738 b6bd 24a0 be3d e91b 94bd a5cd 9cbd
00000350: c42e aabe e425 b1be 7708 8ebd d301 07bc
00000360: 8759 ecbd 4e4f 1d3d 11ff c339 7cb5 b03d
00000370: 5f55 6bbd ed5b 99bd f39c 92bd eac4 95bc
00000380: c733 a83d af0c d53d 46ea cfbd 143e 5d3d
00000390: 3bfd be3c 30b5 a9bd ffd5 d4bd fed6 d33d
000003a0: d9ed 99bd 3680 adbc 5698 80bc 734c 193e
000003b0: 9a8b aa3c 0b29 883c df3d 713d 7b87 0e3c
000003c0: 1aec d53d d8a6 bb3d 8e3c 263d 33f7 b6bd
000003d0: 38b3 103e beb8 2d3c 5de7 1c3d b336 0d3e
000003e0: 39a7 1b3e 2289 353e 52c7 be3d 644c 96bc
000003f0: b278 f3bd f59c 01bd b9e6 25bd 2997 b5bd

enc.EncoderList.cell1.conv.bias f4 [8]
0.011354725 0.121429965 -0.026698878 0.017930923 0.07189566 -0.0077411225 0.31003764 0.07861512
00000000: 2b09 3a3c 46b0 f83d 9bb7 dabc dfe3 923c
00000010: 083e 933d 3ea9 fdbb 41bd 9e3e f700 a13d

enc.EncoderList.cell1.activate.fcn.0.weight f4 [16, 16]
-0.008347533 0.26218358 -0.008861852 -0.2782065 0.21959226 0.08224312 0.16445625 0.08039652
0.021118147 0.10404084 0.010426514 0.24112436 0.044539694 0.11307889 0.015417731 -0.20381153
-0.14637063 -0.009820603 -0.26343152 -0.14498533 0.07643214 -0.24626166 0.123512335 -0.026583454
0.1672277 -0.13467985 -0.12351069 -0.1662069 0.07332214 -0.010325093 -0.20513129 -0.12628381
-0.0007460235 0.12005832 -0.036706287 -0.15348677 -0.17618142 0.15616703 0.1251601 0.30113816
-0.19840859 -0.08240356 -0.20702222 -0.054318685 -0.17246172 -0.016862223 0.0019451904 -0.17300455
0.20393933 -0.00033000577 0.243269 -0.04613632 0.20764957 -0.11770423 0.22028373 -0.065119274
-0.08386925 0.11672938 0.09471524 0.08064619 0.015154725 -0.19794793 0.20469564 -0.10061083
-0.053456683 0.14736645 -0.27060026 0.21792932 -0.30446556 0.23908728 -0.34376103 -0.1860554
-0.11630689 0.082242005 -0.026755303 0.09663927 0.26934388 0.12204383 0.21392758 0.18567672
0.15108103 -0.16276588 0.32396302 0.061925545 0.11390897 -0.052540544 0.08519232 -0.064557664
0.16436462 -0.16808558 -0.24983369 0.02724727 0.048350334 0.10034364 0.30643213 0.03741487
0.12006981 0.05780306 0.27123493 -0.06470353 -0.034938835 0.3591686 -0.060127914 0.0754999
0.2998677 -0.2672664 -0.22837725 -0.010581099 0.013961871 -0.17830332 -0.22582436 0.0025629124
0.17271248 0.31618845 0.14451206 0.29098296 -0.16476113 -0.14923732 0.27603525 0.16744317
-0.092840016 -0.19798905 0.08602299 0.18518873 0.1728594 -0.15165955 -0.024565294 -0.22467975
0.12244053 0.12064938 -0.04885068 -0.12584037 -0.019999955 0.09882111 -0.018598713 -0.034202393
-0.059149675 -0.13940936 -0.1586777 0.025153829 -0.06260905 0.17197534 -0.36380818 0.24881673
-0.028216865 -0.2560661 0.094608605 -0.17682731 -0.17771444 -0.24708681 0.16776642 0.21656977
-0.11510192 -0.103019126 0.07641333 -0.20990479 -0.03385345 0.08021332 0.09717842 -0.045464456
-0.064734794 -0.001229845 -0.08499849 -0.015701784 -0.048398804 -0.05661071 -0.03956602 0.1978999
0.16186836 -0.15266983 -0.121220574 0.13681287 0.32228616 0.341627 0.09269426 0.12955387
0.18397953 0.029389907 -0.17829485 -0.102933474 0.1247688 0.23585072 0.024529621 -0.18725081
0.21738033 0.07472846 0.114777915 -0.20642218 0.1681086 -0.16320169 -0.19066106 0.17589399
-0.23293307 -0.04793415 0.09751161 0.07673797 0.18453062 0.14932069 0.02628057 0.15673268
0.16991772 -0.14404513 0.14174405 -0.13649562 0.23105957 -0.17990892 0.091346644 -0.17035776
-0.08627852 -0.114951044 -0.31668738 -0.06893289 -0.07628708 -0.07765261 0.21092427 0.16265169
0.06596971 0.12667957 0.074979246 0.33170202 -0.2148373 0.1712597 0.059454206 0.025715033
0.09195707 -0.2812242 -0.23935239 -0.043885197 -0.07682948 -0.041369464 -0.01390325 -0.100849904
0.017559113 0.077873014 0.18524657 -0.270151 -0.0044019627 0.0058675893 0.18969084 -0.36934048
-0.025108462 -0.110426605 -0.0973987 -0.09448594 0.1593913 0.1448107 0.031091247 -0.05123014
0.2613277 -0.16608855 0.067505606 -0.13675807 -0.10179253 -0.106478594 -0.1071953 -0.18108071
00000000: 17c4 08bc ed3c 863e 4d31 11bc 1571 8ebe
00000010: cbdc 603e 156f a83d 3867 283e eea6 a43d
00000020: f7ff ac3c 5d13 d53d f8d3 2a3c 4ee9 763e
00000030: 416f 363d e895 e73d a79a 7c3c f8b3 50be
00000040: 2fe2 15be 98e6 20bc 7fe0 86be 0977 14be
00000050: 7488 9c3d 042c 7cbe 09f4 fc3d 8bc5 d9bc
00000060: bd3d 2b3e 84e9 09be 2cf3 fcbd 2432 2abe
00000070: eb29 963d 942a 29bc f00d 52be 8b50 01be
00000080: ca90 43ba 23e1 f53d 5559 16bd a32b 1dbe
00000090: e768 34be 40ea 1f3e f829 003e c82e 9a3e
000000a0: 9f2b 4bbe 33c3 a8bd a2fd 53be 457d 5ebd
000000b0: ce99 30be a522 8abc c2f5 fe3a 1b28 31be
000000c0: 79d5 503e a004 adb9 821b 793e 70f9 3cbd
000000d0: 17a2 543e ea0e f1bd 0f92 613e 415d 85bd
000000e0: a4c3 abbd d00f ef3d 10fa c13d d429 a53d
000000f0: 864b 783c ddb2 4abe bc9b 513e 0d0d cebd
00000100: 65f5 5abd 3be7 163e 1e8c 8abe dd28 5f3e
00000110: e9e2 9bbe 4cd3 743e 7201 b0be 4f85 3ebe
00000120: 4f32 eebd 7f6e a83d f02d dbbc cfea c53d
00000130: 71e7 893e 1ef2 f93d d50f 5b3e 0a22 3e3e
00000140: fcb4 1a3e 19ac 26be 7bde a53e a4a5 7d3d
00000150: 1b49 e93d c134 57bd 5079 ae3d cf36 84bd
00000160: 334f 283e a01e 2cbe 67d4 7fbe ab35 df3c
00000170: 000b 463d f780 cd3d ace4 9c3e 5640 193d
00000180: 29e7 f53d e7c2 6c3d 4edf 8a3e 4983 84bd
00000190: 061c 0fbd f2e4 b73e b048 76bd b19f 9a3d
000001a0: 4288 993e 24d7 88be badb 69be 595c 2dbc
000001b0: 55c0 643c 2595 36be 803e 67be 89f6 273b
000001c0: 8adb 303e 74e3 a13e f8fa 133e b8fb 943e
000001d0: 24b7 28be abd1 18be 7e54 8d3e 3976 2b3e
000001e0: e822 bebd a4bd 4abe d22c b03d 1da2 3d3e
000001f0: 0e02 313e a44c 1bbe 283d c9bc 7312 66be
00000200: 1ac2 fa3d 0617 f73d a717 48bd 4cdc 00be
00000210: f2d6 a3bc b962 ca3d 545c 98bc cf17 0cbd
00000220: ee46 72bd 54c1 0ebe 687c 22be 670f ce3c
00000230: 2c39 80bd 4e1a 303e 1145 babe d0c9 7e3e
00000240: 0e27 e7bc 191b 83be 28c2 c13d 3812 35be
00000250: c6fa 35be 5304 7dbe f6ca 2b3e 77c4 5d3e
00000260: 8eba ebbd b1fb d2bd 987e 9c3d 48f1 56be
00000270: eaa9 0abd e246 a43d 7b05 c73d f038 3abd
00000280: ad93 84bd c032 a1ba b013 aebd 07a1 80bc
00000290: d33d 46bd a2e0 67bd fb0f 22bd 45a6 4a3e
000002a0: d2c0 253e 7b55 1cbe 7e42 f8bd ac18 0c3e
000002b0: b102 a53e bce9 ae3e 7dd6 bd3d c5a9 043e
000002c0: 2165 3c3e 1ac3 f03c ed92 36be c9ce d2bd
000002d0: c986 ff3d da82 713e 58f2 c83c adbe 3fbe
000002e0: f398 5e3e 3c0b 993d af10 eb3d 5660 53be
000002f0: a924 2c3e 581e 27be a73c 43be 8e1d 343e
00000300: 0286 6ebe 9956 44bd 2bb4 c73d cc28 9d3d
00000310: 98f5 3c3e 86e7 183e 5a4a d73c 887e 203e
00000320: e9fe 2d3e 9180 13be 5a25 113e 82c5 0bbe
00000330: e19a 6c3e 0b3a 38be f313 bb3d 4472 2ebe
00000340: cbb2 b0bd 746b ebbd d924 a2be b02c 8dbd
00000350: 673c 9cbd 5508 9fbd 88fc 573e 2a8e 263e
00000360: 211b 873d 4ab8 013e b88e 993d d9d4 a93e
00000370: 4ffe 5bbe b45e 2f3e 4186 733d 55a8 d23c
00000380: fd53 bc3d 9efc 8fbe cb18 75be f7c0 33bd
00000390: c658 9dbd 0773 29bd 75ca 63bc 658a cebd
000003a0: 21d8 8f3c e37b 9f3d 47b1 3d3e 3b51 8abe
000003b0: 573e 90bb e844 c03b 513e 423e 321a bdbe
000003c0: 43b0 cdbc 5827 e2bd f878 c7bd d881 c1bd
000003d0: 7937 233e 4249 143e 12b3 fe3c b2d6 51bd
000003e0: bfcc 853e 1e13 2abe 6140 8a3d 4f0a 0cbe
000003f0: 9a78 d0bd 7311 dabd 3689 dbbd 396d 39be

enc.EncoderList.cell1.activate.fcn.0.bias f4 [16]
-0.20743357 -0.08593288 0.09746468 -0.14634702 -0.031830415 -0.02206115 -0.11559345 -0.18746921
-0.16662581 0.19797625 0.009603603 0.06360178 -0.23734592 0.22841436 -0.07352854 -0.121023424
00000000: 7769 54be 94fd afbd 909b c73d fedb 15be
00000010: 9c60 02bd 96b9 b4bc 42bc ecbd eef7 3fbe
00000020: f59f 2abe 49ba 4a3e 6e58 1d3c a641 823d
00000030: cf0a 73be 74e5 693e 2296 96bd 21db f7bd

enc.EncoderList.cell1.activate.fcn.1.weight f4 [16]
0.95100105 1.0012048 1.008665 0.98210907 1.0854182 1.0059718 0.99220353 1.0227951
1.0096076 1.0161245 1.1384145 0.98151356 0.9365804 1.0299453 1.0381122 0.9419612
00000000: ce74 733f 7b27 803f ef1b 813f 806b 7b3f
00000010: fcee 8a3f afc3 803f 0d01 7e3f f3ea 823f
00000020: d23a 813f 5e10 823f 91b7 913f 7944 7b3f
00000030: bcc3 6f3f 3fd5 833f dce0 843f 5f24 713f

enc.EncoderList.cell1.activate.fcn.1.bias f4 [16]
0.07962519 0.0735041 -0.07811507 0.050682765 0.07670334 0.09260998 -0.054510538 0.031829502
0.06503064 0.034270134 -0.027111964 0.104314625 -0.04629976 0.02507929 0.012221511 -0.12564437
00000000: 8812 a33d 5189 963d cbfa 9fbd bb98 4f3d
00000010: a416 9d3d 4daa bd3d 7146 5fbd a75f 023d
00000020: c92e 853d d75e 0c3d e919 debc e8a2 d53d
00000030: d1a4 3dbd 1573 cd3c bc3c 483c eba8 00be

enc.EncoderList.cell1.activate.fcn.1.running_mean f4 [16]
-0.13295594 -0.15202785 0.5851519 0.062473968 -0.4508807 -0.069687456 0.26506865 0.39422786
-0.07973163 0.16660161 -0.3593273 0.08091719 -0.07660352 -0.034045022 -0.19652165 -0.019963102
00000000: 9a25 08be 30ad 1bbe 84cc 153f b4e4 7f3d
00000010: d6d9 e6be 4cb8 8ebd 14b7 873e 3cd8 c93e
00000020: 564a a3bd 9d99 2a3e bff9 b7be e9b7 a53d
00000030: 4ee2 9cbd cb72 0bbd f93c 49be a989 a3bc

enc.EncoderList.cell1.activate.fcn.1.running_var f4 [16]
0.019857436 0.049858984 0.079838775 0.045521002 0.072364755 0.12048097 0.043983027 0.2234495
0.030202083 0.038000133 0.054665342 0.09437268 0.019867973 0.021761978 0.18202573 0.10719958
00000000: 10ac a23c ef38 4c3d 8382 a33d 3b74 3a3d
00000010: f933 943d babe f63d 8c27 343d f2cf 643e
00000020: 5c6a f73c 07a6 1b3d c4e8 5f3d 7746 c13d
00000030: 29c2 a23c 2d46 b23c f464 3a3e 748b db3d

enc.EncoderList.cell1.activate.fcn.3.weight f4 [8, 16]
0.08854611 0.0043613627 -0.16623636 0.04166233 -0.18319616 0.07391842 0.10610484 0.16860986
0.2759172 -0.18413396 -0.2229326 0.20821376 0.04213786 -0.13854113 0.11033157 0.04264431
-0.16432634 -0.034790438 -0.25432178 -0.33090895 0.19089018 0.14427027 0.20000279 0.090343595
-0.07224636 0.16005786 0.4609025 -0.12868243 -0.11545535 -0.006673101 0.12123692 0.014889033
-0.041846827 0.020263284 0.2427109 0.18102118 -0.13136172 -0.21587758 -0.037234813 -0.012655619
-0.30592954 0.12604076 -0.18972588 -0.13707696 -0.081445456 0.1593609 0.1739635 -0.15041846
-0.044084586 0.100904055 0.08810138 -0.21159738 -0.21360339 0.14843638 -0.0077591822 0.21788691
-0.055465374 0.009607732 -0.05718432 -0.11683396 0.2260403 -0.025067246 0.03977962 -0.029454837
-0.4641927 -0.12488302 -0.25332075 -0.15180682 -0.012103361 -0.20735635 -0.060532875 0.15324119
0.10394331 -0.107678436 -0.09364235 -0.19751817 -0.10715801 0.15480992 -0.28675985 0.09037165
0.039236322 0.03271302 -0.28052795 -0.10100383 0.2460483 -0.06900606 0.10020069 -0.002938133
0.21702208 -0.16788775 0.026104232 -0.11355051 0.15334396 -0.06215195 -0.23452951 -0.024552353
0.2578802 -0.25749022 0.13383494 -0.16856958 -0.28686866 -0.03642517 -0.09252956 -0.09521533
-0.11244249 -0.2350927 -0.07143867 -0.073641084 -0.20297344 -0.18765366 0.21481255 0.09618763
-0.19022363 -0.0023772807 0.032239947 -0.28742287 -0.075285584 -0.11929494 -0.07680144 -0.31292474
0.1845534 0.014755631 -0.105551206 -0.008351064 -0.13003589 0.07506305 0.00457422 -0.091832906
00000000: aa57 b53d c3e9 8e3b dd39 2abe 1fa6 2a3d
00000010: c697 3bbe 8a62 973d 7f4d d93d 10a8 2c3e
00000020: 0545 8d3e 9d8d 3cbe 7248 64be fd35 553e
00000030: c098 2c3d badd 0dbe 85f5 e13d cdab 2e3d
00000040: 2a45 28be 6b80 0ebd 7736 82be e66c a9be
00000050: b778 433e 96bb 133e 88cd 4c3e 1006 b93d
00000060: e6f5 93bd 35e6 233e 6afb eb3e 54c5 03be
00000070: db73 ecbd 07aa dabb 104b f83d 21f1 733c
00000080: 9467 2bbd 30ff a53c 3589 783e 9e5d 393e
00000090: b083 06be 030f 5dbe 8883 18bd 8359 4fbc
000000a0: cca2 9cbe d410 013e 8047 42be e75d 0cbe
000000b0: e0cc a6bd 812f 233e 7d23 323e 4c07 1abe
000000c0: 0a92 34bd c9a6 ce3d 7f6e b43d fcac 58be
000000d0: d9ba 5abe b5ff 173e bd40 febb bf1d 5f3e
000000e0: a92f 63bd c069 1d3c 1b3a 6abd a546 efbd
000000f0: 1c77 673e d359 cdbc f4ef 223d 454b f1bc
00000100: aaaa edbe abc2 ffbd 42b3 81be 3f73 1bbe
00000110: 2d4d 46bc 3955 54be 52f1 77bd 42eb 1c3e
00000120: 3be0 d43d 8386 dcbd 8fc7 bfbd 3442 4abe
00000130: a975 dbbd 7e86 1e3e 30d2 92be c614 b93d
00000140: 44b6 203d 16fe 053d 5ca1 8fbe 19db cebd
00000150: 16f4 7b3e 0d53 8dbd 0536 cd3d b18d 40bb
00000160: 093b 5e3e c4ea 2bbe 8bd8 d53c 2b8d e8bd
00000170: 3306 1d3e 0b93 7ebd 8128 70be 0422 c9bc
00000180: e008 843e c2d5 83be 070c 093e 819d 2cbe
00000190: 73e0 92be 8f32 15bd 2380 bdbd 4100 c3bd
000001a0: 4048 e6bd 24bc 70be 704e 92bd 23d1 96bd
000001b0: 45d8 4fbe 4828 40be d2f7 5b3e 05fe c43d
000001c0: fcc9 42be 27cc 1bbb 090e 043d 1729 93be
000001d0: 542f 9abd e850 f4bd 134a 9dbd ac37 a0be
000001e0: 91fb 3c3e 9ac1 713c 3b2b d8bd e7d2 08bc
000001f0: 2128 05be a8ba 993d 57e3 953b e412 bcbd

enc.EncoderList.cell1.activate.fcn.3.bias f4 [8]
-0.04160212 0.050318167 -0.17484751 0.04434685 0.1395209 0.10505177 -0.11888518 0.11247899
00000000: fc66 2abd 6c1a 4e3d 3a0b 33be 0ba5 353d
00000010: 91de 0e3e 6225 d73d 137a f3bd 625b e63d

enc.EncoderList.cell1.activate.fcn.4.weight f4 [8]
0.89199805 0.74262106 0.67777175 0.76623285 0.8412298 0.6569259 0.6372941 0.77850807
00000000: fc59 643f 6a1c 3e3f 7382 2d3f d627 443f
00000010: d65a 573f 4c2c 283f b525 233f 4e4c 473f

enc.EncoderList.cell1.activate.fcn.4.bias f4 [8]
0.06790693 -0.15188074 -0.48818564 0.10712673 0.23937078 0.1261726 0.23051043 0.106257915
00000000: ca12 8b3d a086 1bbe 78f3 f9be 4265 db3d
00000010: 9d1d 753e 6433 013e ed0a 6c3e c09d d93d

enc.EncoderList.cell1.activate.fcn.4.running_mean f4 [8]
0.052305404 0.20168062 -0.33993542 0.05241817 -0.52094746 -0.0055272733 -0.56865203 -0.32734948
00000000: 313e 563d 5d85 4e3e 040c aebe 6fb4 563d
00000010: d05c 05bf 211e b5bb 2e93 11bf 5a9a a7be

enc.EncoderList.cell1.activate.fcn.4.running_var f4 [8]
0.2031035 0.24908224 0.22023325 0.10050274 0.56363314 0.18475142 0.12531936 0.25608176
00000000: 5dfa 4f3e 6a0f 7f3e d384 613e 61d4 cd3d
00000010: 434a 103f 7a2f 3d3e b853 003e 261d 833e

enc.EncoderList.cell1.bn.weight f4 [8]
0.95108306 1.011724 0.9351711 0.92130923 0.7883111 0.8278249 0.82253104 0.84640074
00000000: 2e7a 733f 2c80 813f 6067 6f3f ecda 6b3f
00000010: c2ce 493f 55ec 533f 6591 523f b8ad 583f

enc.EncoderList.cell1.bn.bias f4 [8]
-0.13151996 -0.20652743 -0.023622213 -0.1539325 0.046690527 -0.18083137 -0.19199625 -0.12311364
00000000: 2bad 06be ed7b 53be 5f83 c1bc 7ba0 1dbe
00000010: 913e 3f3d dc2b 39be aa9a 44be 0123 fcbd

enc.EncoderList.cell1.bn.running_mean f4 [8]
0.1829864 0.25653312 0.1113453 0.2551917 0.0798385 0.21608625 0.33147535 0.3085074
00000000: c960 3b3e 4f58 833e 0109 e43d 7da8 823e
00000010: 5e82 a33d b745 5d3e 23b7 a93e aff4 9d3e

enc.EncoderList.cell1.bn.running_var f4 [8]
0.74027044 0.3283321 0.27782908 0.8005508 0.28802794 0.6696945 1.1146413 1.0184522
00000000: 5d82 3d3f 251b a83e 9d3f 8e3e e6f0 4c3f
00000010: 6678 933e 1971 2b3f 91ac 8e3f a45c 823f

enc.EncoderList.cell2.conv.weight f4 [16, 8, 3]
-0.06286342 0.12796193 0.119524136 0.021050533 -0.17954393 -0.083433434 0.014984193 -0.008126969
0.03755884 -0.059478253 -0.061698236 0.021133013 0.13114046 -0.16512755 0.12581308 0.21093743
-0.085545674 -0.20878085 0.017483622 0.01713672 -0.001692793 -0.027475782 -0.114293374 -0.1138491
-0.16642775 0.10921017 0.23250103 0.21556287 0.21239915 -0.040474262 -0.051700346 -0.10335764
-0.06806206 0.0989765 0.063982084 0.1012878 0.13915332 0.07540373 0.053690594 0.060789786
0.1336455 -0.05225843 -0.114408724 -0.17003228 0.09349387 0.005585419 -0.17552559 0.1090123
-0.10008017 0.19689147 0.16565764 -0.06929506 0.011843694 0.11631318 0.24999987 0.15188208
-0.009578814 0.2366264 0.27785814 0.108197674 -0.21357353 0.016931511 0.21048549 -0.24236637
0.030627178 0.17550321 0.015876204 0.01987916 0.1505096 0.13621446 -0.18945017 0.06918998
0.011331129 -0.18196297 -0.06111139 -0.31170356 -0.005999317 -0.26278567 -0.052942436 -0.049067754
0.085889265 0.17086877 -0.17451334 0.018044706 -0.042406958 0.018329997 0.017498016 -0.1475677
0.027147755 -0.36996624 -0.1067309 0.16688406 0.0466113 0.013868535 0.22590448 -0.0005996542
0.09973983 0.04409716 0.25169402 0.05934993 -0.039221555 -0.15110536 0.030884856 0.24558365
-0.0039655995 -0.00975649 -0.0898046 0.15399227 -0.021067182 -0.118996195 -0.089502476 -0.053460196
0.011191051 -0.263698 0.17068407 0.047052793 -0.00909447 0.10648384 -0.042437926 -0.067593485
0.13042504 -0.084954746 0.25948736 0.09447818 0.096767336 -0.07675809 -0.14441085 -0.2974435
0.02297812 0.14140141 0.33221662 0.18416242 0.015266076 0.060938075 0.09517436 -0.11598067
0.10789841 -0.07530708 -0.054342538 -0.027685985 0.03572492 0.059218835 0.059194308 0.11693305
0.15334837 0.20204577 0.0027807744 -0.11892022 0.23073527 0.22568664 0.07306407 0.055023078
0.1603868 0.16204138 -0.06853209 0.007381328 0.058528736 0.1294754 -0.17577617 0.091849215
0.37925103 -0.13796775 -0.16634384 0.1608861 -0.070453405 -0.081213176 -0.25051516 -0.23057245
0.17568518 -0.18052359 0.0697412 0.15341297 0.16048668 -0.065249816 -0.09180776 0.05251644
-0.036597125 -0.040063128 0.07627757 0.0010708474 0.04217215 -0.015986618 -0.030246845 0.12497875
0.11939493 -0.052235022 -0.10530754 -0.038246065 0.06714575 -0.11289279 -0.08207567 0.09425959
-0.17746152 -0.09526461 0.07259644 -0.13596998 0.14424132 -0.29160944 0.03146027 0.04969642
-0.17267907 0.15973341 -0.12774284 -0.14659785 -0.044907235 0.11668659 -0.2624332 0.14403182
-0.087641835 0.0060419533 0.21838737 -0.08094811 -0.1884155 0.2469462 -0.13472287 0.021683205
-0.11863478 0.019012827 0.017400833 -0.06582614 0.21228947 0.05148415 -0.036261413 -0.024904527
0.06095117 0.118719935 0.08218323 0.21100642 0.002181063 -0.18224917 -0.03494471 -0.13953422
0.19262263 -0.11286184 0.1028514 0.15108177 0.09006088 -0.09055907 0.13932653 0.15811972
-0.17134295 -0.027749091 0.19637038 0.029141445 -0.15799448 0.114721715 -0.08882929 0.107819274
0.2697983 0.14322841 -0.1582196 0.08398379 0.032268647 -0.14837742 -0.21147017 0.019038308
00000000: 89be 80bd 7408 033e 12c9 f43d 2b72 ac3c
00000010: 5dda 37be 26df aabd 4380 753c fb26 05bc
00000020: 4cd7 193d 789f 73bd 4ab7 7cbd 241f ad3c
00000030: af49 063e 3217 29be 25d5 003e fbff 573e
00000040: 9232 afbd a6ca 55be d039 8f3c 4e62 8c3c
00000050: b5e0 ddba e414 e1bc a512 eabd b829 e9bd
00000060: 096c 2abe 95a9 df3d c014 6e3e 83bc 5c3e
00000070: 2a7f 593e 57c8 25bd bec3 53bd 2cad d3bd
00000080: 1f64 8bbd 31b4 ca3d 0a09 833d fa6f cf3d
00000090: 357e 0e3e 456d 9a3d abea 5b3d b6fe 783d
000000a0: 5eda 083e ef0c 56bd 1f4f eabd f11c 2ebe
000000b0: b779 bf3d e405 b73b fbbc 33be d741 df3d
000000c0: d5f6 ccbd eb9d 493e 28a2 293e 92ea 8dbd
000000d0: 0e0c 423c 9b35 ee3d f7ff 7f3e fa86 1b3e
000000e0: 75f0 1cbc 314e 723e 6c43 8e3e be96 dd3d
000000f0: 05b3 5abe f4b3 8a3c 8289 573e e42e 78be
00000100: d9e5 fa3c 1db7 333e d00e 823c 9fd9 a23c
00000110: 301f 1a3e ce7b 0b3e 3aff 41be 7ab3 8d3d
00000120: 33a6 393c 8054 3abe f04f 7abd 9c97 9fbe
00000130: eb95 c4bb d88b 86be 2bda 58bd 45fb 48bd
00000140: b6e6 af3d 39f8 2e3e a0b3 32be 7ed2 933c
00000150: ebb2 2dbd ca28 963c 0058 8f3c fd1b 17be
00000160: f864 de3c 376c bdbe bb95 dabd a8e3 2a3e
00000170: 7eeb 3e3d da38 633c 8153 673e 1d32 1dba
00000180: 6544 cc3d 399f 343d 0ade 803e ea18 733d
00000190: c8a6 20bd 5dbb 1abe 3d02 fd3c 487a 7b3e
000001a0: dcf1 81bb afd9 1fbc 79eb b7bd 26b0 1d3e
000001b0: 1595 acbc 47b4 f3bd 134d b7bd 14f9 5abd
000001c0: ac5a 373c 6d03 87be cec7 2e3e 6eba 403d
000001d0: f900 15bc 3314 da3d 64d3 2dbd 746e 8abd
000001e0: 248e 053e c1fc adbd 87db 843e c77d c13d
000001f0: f42d c63d 5833 9dbd 70e0 13be 844a 98be
00000200: 9c3c bc3c 88cb 103e 4c18 aa3e 1395 3c3e
00000210: 901e 7a3c 349a 793d c6ea c23d 4687 edbd
00000220: d7f9 dc3d 993a 9abd 4896 5ebd b8cd e2bc
00000230: 4b54 123d 738f 723d bb75 723d 987a ef3d
00000240: 5b07 1d3e 16e5 4e3e a73d 363b 728c f3bd
00000250: de45 6c3e 661a 673e 9da2 953d e15f 613d
00000260: 703c 243e 2dee 253e 8d5a 8cbd 11df f13b
00000270: d4bb 6f3d 3395 043e abfe 33be 711b bc3d
00000280: 312d c23e 6b47 0dbe 0a56 2abe 53bf 243e
00000290: e049 90bd 1853 a6bd 8643 80be 2f1b 6cbe
000002a0: d1e6 333e 2ddb 38be 79d4 8e3d 4a18 1d3e
000002b0: 9f56 243e b2a1 85bd b505 bcbd 7b1b 573d
000002c0: dee6 15bd 3c19 24bd 6a37 9c3d ad5b 8c3a
000002d0: b4bc 2c3d 5ef6 82bc 3bc8 f7bc dcf4 ff3d
000002e0: 5485 f43d 64f4 55bd 7bab d7bd e8a7 1cbd
000002f0: b683 893d 5634 e7bd 4a17 a8bd 2c0b c13d
00000300: 79b8 35be 181a c3bd 71ad 943d b73b 0bbe
00000310: ffb3 133e d54d 95be 7cdc 003d 798e 4b3d
00000320: c8d2 30be 2891 233e 05cf 02be bf1d 16be
00000330: a6f0 37bd 61f9 ee3d a55d 86be 147d 133e
00000340: 907d b3bd 94fb c53b f0a0 5f3e 1fc8 a5bd
00000350: feef 40be 77df 7c3e cbf4 09be faa0 b13c
00000360: cbf6 f2bd cac0 9b3c 318c 8e3c dbcf 86bd
00000370: 6962 593e 0be1 523d d986 14bd 9404 ccbc
00000380: efa7 793d 7023 f33d ae4f a83d 1112 583e
00000390: 2af0 0e3b 879f 3abe 2f22 0fbd 0fe2 0ebe
000003a0: de3e 453e 1c24 e7bd c1a3 d23d 2eb5 1a3e
000003b0: d771 b83d 0977 b9bd 9dab 0e3e 23ea 213e
000003c0: 8774 2fbe 1052 e3bc 5115 493e 0aba ee3c
000003d0: 4ec9 21be 38f3 ea3d 21ec b5bd 5ad0 dc3d
000003e0: 0123 8a3e 78aa 123e 5204 22be b1ff ab3d
000003f0: 212c 043d 40f0 17be a38b 58be 3af6 9b3c

enc.EncoderList.cell2.conv.bias f4 [16]
0.31625146 -0.37093478 0.035927814 0.18490425 -0.19352104 0.15409058 0.2087432 -0.57267743
0.10273805 -0.24843971 -0.06465313 -0.25912008 0.2804029 -0.1639779 0.2599746 -0.49720567
00000000: b6eb a13e 2aeb bdbe 0b29 133d 8a57 3d3e
00000010: 612a 46be ecc9 1d3e c7c0 553e fd9a 12bf
00000020: 5468 d23d fb66 7ebe dc68 84bd 63ab 84be
00000030: f890 8f3e d3e9 27be 641b 853e be91 febe

enc.EncoderList.cell2.activate.fcn.0.weight f4 [32, 32]
0.061768077 -0.14208134 0.011553242 -0.09957608 -0.18240924 0.06638055 -0.08253619 -0.09111776
0.18619409 -0.1324754 0.20240228 -0.25611693 -0.092753515 0.18223765 -0.042842254 -0.14471757
-0.15325283 0.04751524 0.10328064 0.084861346 -0.08401863 -0.14086008 0.06924367 -0.046114724
-0.06060159 -0.1335252 -0.02785206 -0.12614168 -0.10041176 -0.3081087 0.075659424 -0.046957538
0.034027014 -0.097173445 0.105106525 0.07315766 0.09622038 0.0119786225 0.036189053 0.056157764
-0.1797818 0.0068419296 -0.017683653 0.24508321 -0.031167187 0.12816608 -0.00019498727 -0.048234317
-0.036807086 0.097834356 -0.16374633 -0.16972181 -0.120185144 -0.13890648 0.08472021 -0.09836814
-0.08762017 0.25819376 -0.03402704 0.13173099 0.038552336 0.19606389 -0.10819258 -0.024862979
-0.064858094 -0.24777573 -0.05594329 -0.0956609 0.20687836 0.14635904 -0.20291384 -0.24177136
-0.14678858 -0.080250464 0.082190655 0.095946625 0.06404192 0.16937006 -0.111878924 -0.06808273
0.1214088 0.20940919 0.110003054 0.23431766 0.019632949 -0.09492632 0.071312495 -0.032284845
-0.10199327 0.101906195 -0.08313382 0.0050244983 -0.07258409 -0.10587955 0.24251378 0.19388758
-0.020057132 0.21156858 0.097766764 -0.075913526 0.101427756 0.025614569 0.023027293 -0.010658101
0.18695028 -0.11611052 -0.008088609 -0.63030976 -0.13746402 0.15723449 -0.080402814 -0.2665889
-0.14914869 -0.1162213 -0.26569888 0.17213827 -0.11117017 0.300035 0.09664179 0.081619926
0.048346862 -0.020085175 0.2762902 -0.09157231 0.22366749 0.11059527 -0.0145672 0.09915468
-0.013193458 -0.062489793 0.04025585 0.094989866 -0.07523866 0.19071674 -0.12269001 0.022562163
-0.4315147 -0.025251947 0.005947857 0.13531248 0.059352126 -0.07694932 -0.080456935 0.09572767
0.08842928 -0.01679362 0.015717987 -0.26450095 -0.16072203 -0.068389766 -0.020363295 -0.02019547
0.16633117 0.09950681 0.21364976 -0.024823206 0.0033067514 0.086441584 -0.100191794 -0.19264296
-0.23178604 -0.13482244 -0.00692973 -0.045263175 0.14579026 0.1451925 0.029272936 -0.22039469
-0.22799891 0.11436364 0.02669001 0.0036330349 0.044783168 0.19280016 -0.103313014 0.118028805
0.11441284 -0.0054804557 -0.06012762 -0.07076295 0.1511706 0.014812634 -0.1880236 -0.1143164
-0.00039924844 0.1402984 0.13766584 -0.23058729 -0.0075198812 0.1140856 -0.07742311 -0.04536187
0.1703705 0.09313781 -0.038787685 0.1662402 -0.09190505 0.23529388 -0.10298436 0.05471132
-0.037879173 0.020612797 0.07724484 0.14569879 -0.04765978 0.25500903 0.046824094 0.10986958
-0.039525688 -0.041798886 0.12614141 -0.22388814 0.09423473 0.12436459 -0.06624417 -0.05345849
-0.11919491 0.10031004 0.027138328 -0.23238534 -0.07791508 -0.08942109 -0.1487432 -0.10467186
-0.20028725 -0.20766339 -0.0632256 -0.07713795 0.018261274 0.063227095 -0.0977623 -0.013125846
-0.10645794 -0.045966268 -0.16372271 0.08771416 0.15267628 0.18646406 -0.09765971 -0.021289086
0.06091908 0.013077403 0.20475937 0.2068174 0.2739782 0.06940012 -0.036287703 -0.13889204
0.058807183 0.029406775 0.17206013 0.039223157 0.16275854 -0.006302887 0.27619207 -0.057330336
00000000: 8600 7d3d c57d 11be cf49 3d3c 8bee cbbd
00000010: 7dc9 3abe 87f2 873d bc08 a9bd f39b babd
00000020: aaa9 3e3e a2a7 07be 8b42 4f3e c221 83be
00000030: 8ef5 bdbd 829c 3a3e 5c7b 2fbd d830 14be
00000040: 4fee 1cbe 579f 423d cd84 d33d c9cb ad3d
00000050: f611 acbd a03d 10be a0cf 8d3d cbe2 3cbd
00000060: 5f39 78bd d4ba 08be 012a e4bc 492b 01be
00000070: aea4 cdbd 6cc0 9dbe 54f3 9a3d 8c56 40bd
00000080: e95f 0b3d df02 c7bd 1742 d73d afd3 953d
00000090: 310f c53d fc41 443c f93a 143d af05 663d
000000a0: b818 38be 4432 e03b 4fdd 90bc 18f7 7a3e
000000b0: 5452 ffbc f83d 033e 7f75 4cb9 5991 45bd
000000c0: 07c3 16bd 615d c83d 1ead 27be 8ecb 2dbe
000000d0: a123 f6bd 803d 0ebe ca81 ad3d 3c75 c9bd
000000e0: 3472 b3bd f931 843e f05f 0bbd 7de4 063e
000000f0: 0ee9 1d3d f9c4 483e 1294 ddbd 72ad cbbc
00000100: 52d4 84bd ecb8 7dbe cb24 65bd dde9 c3bd
00000110: ecd7 533e 25df 153e a5c8 4fbe e992 77be
00000120: bf4f 16be 5b5a a4bd 9353 a83d aa7f c43d
00000130: 6928 833d 586f 2d3e c720 e5bd f56e 8bbd
00000140: 2da5 f83d 5d6f 563e 4849 e13d f8f0 6f3e
00000150: 47d5 a03c bb68 c2bd 490c 923d 1d3d 04bd
00000160: d9e1 d0bd 32b4 d03d 1042 aabd 8ca4 a43b
00000170: f8a6 94bd 61d7 d8bd 8855 783e 778a 463e
00000180: db4e a4bc 6fa5 583e f139 c83d 8d78 9bbd
00000190: 5bb9 cf3d a5d5 d13c bca3 bc3c 519f 2ebc
000001a0: e56f 3f3e 5acb edbd 1686 04bc fb5b 21bf
000001b0: 5ec3 0cbe 1402 213e 3baa a4bd 577e 88be
000001c0: 6fba 18be 6f05 eebd af09 88be 0445 303e
000001d0: 30ad e3bd 309e 993e 21ec c53d 5928 a73d
000001e0: 5c07 463d aa89 a4bc e975 8d3e 438a bbbd
000001f0: 1709 653e c67f e23d 44ab 6ebc 9c11 cb3d
00000200: 6029 58bc 4cf5 7fbd 51e3 243d 0c8a c23d
00000210: ba16 9abd 404b 433e e644 fbbd 49d4 b83c
00000220: 7fef dcbe 2cdd cebc 3ee6 c23b 5b8f 0a3e
00000230: 371b 733d 9b97 9dbd 9bc6 a4bd de0c c43d
00000240: 691a b53d c692 89bc 02c3 803c ab6c 87be
00000250: 5194 24be ef0f 8cbd edd0 a6bc f870 a5bc
00000260: b852 2a3e 3aca cb3d 01c7 5a3e 095a cbbc
00000270: 15b6 583b 4908 b13d 5b31 cdbd 3244 45be
00000280: 5259 6dbe e50e 0abe ca12 e3bb e165 39bd
00000290: 0b4a 153e 58ad 143e cccd ef3c 25af 61be
000002a0: 8c78 69be 7c37 ea3d 02a5 da3c 3618 6e3b
000002b0: 8e6e 373d 686d 453e c695 d3bd 16b9 f13d
000002c0: 4751 ea3d 6595 b3bb 6148 76bd 2aec 90bd
000002d0: 77cc 1a3e b1b0 723c 4289 40be b71e eabd
000002e0: 3852 d1b9 62aa 0f3e 46f8 0c3e 131f 6cbe
000002f0: 5669 f6bb b6a5 e93d 0290 9ebd 5ecd 39bd
00000300: 9b75 2e3e 09bf be3d d6df 1ebd df3a 2a3e
00000310: b738 bcbd e1f0 703e 77e9 d2bd fa18 603d
00000320: 3127 1bbd 2bdc a83c 8b32 9e3d 1032 153e
00000330: e736 43bd 8b90 823e 9fca 3f3d 4d03 e13d
00000340: b0e5 21bd 4f35 2bbd 372b 013e ef42 65be
00000350: 23fe c03d ddb2 fe3d 06ab 87bd 4af7 5abd
00000360: 761c f4bd 5a6f cd3d 3351 de3c 6cf6 6dbe
00000370: f191 9fbd 6822 b7bd 2350 18be 335e d6bd
00000380: 1a18 4dbe b6a5 54be 6c7c 81bd 80fa 9dbd
00000390: ab98 953c 357d 813d 9a37 c8bd ca0d 57bc
000003a0: 9f06 dabd 2047 3cbd eda6 27be 7ba3 b33d
000003b0: 2c57 1c3e 6ff0 3e3e d001 c8bd 7366 aebc
000003c0: 4986 793d 9b42 563c 71ac 513e f1c7 533e
000003d0: df46 8c3e a621 8e3d 6aa2 14bd b739 0ebe
000003e0: cddf 703d 7ae6 f03c 8830 303e 76a8 203d
000003f0: 2daa 263e 7388 cebb 0c69 8d3e 37d3 6abd

enc.EncoderList.cell2.activate.fcn.0.bias f4 [32]
-0.04028513 0.104744874 0.16752586 -0.008041609 -0.026676025 -0.093234405 -0.08102881 0.14755045
-0.008746902 0.04190434 -0.13331075 0.10924778 -0.11736943 -0.05787825 0.06256752 0.03991726
0.022238383 0.12615438 0.03593457 0.08107909 -0.021780591 0.07494103 -0.06280553 -0.05278637
-0.1744546 -0.0030810367 -0.08628167 -0.12603392 -0.08317598 0.021217264 -0.09375793 -0.060245875
00000000: 0502 25bd 7b84 d63d e68b 2b3e f4c0 03bc
00000010: ae87 dabc aef1 bebd 6ff2 a5bd 7717 173e
00000020: 2b4f 0fbc e3a3 2b3d 9d82 08be 4dbd df3d
00000030: 625f f0bd be11 6dbd 6623 803d 4880 233d
00000040: 452d b63c 9d2e 013e 2130 133d cb0c a63d
00000050: 366d b2bc af7a 993d 30a0 80bd 8536 58bd
00000060: 3aa4 32be 38eb 49bb 72b4 b0bd 090f 01be
00000070: 2b58 aabd d4cf ad3c 2804 c0bd 61c4 76bd

enc.EncoderList.cell2.activate.fcn.1.weight f4 [32]
0.98737454 1.0141063 1.1201237 1.0698287 0.9923401 0.8979017 0.987706 1.1738166
0.98159206 1.0721979 0.9433822 0.903447 0.9491139 0.96834445 1.2799639 1.0276574
0.9947093 0.98327583 0.97850263 1.0317893 0.99214554 1.0541167 0.92527723 1.0580761
1.128682 0.8946106 0.9567612 1.1247559 0.98404723 1.0104051 1.055792 1.0392188
00000000: 94c4 7c3f 3cce 813f 3760 8f3f 26f0 883f
00000010: 000a 7e3f e3dc 653f 4dda 7c3f 9f3f 963f
00000020: 9e49 7b3f c83d 893f 7f81 713f 4d48 673f
00000030: 21f9 723f 6ce5 773f dbd5 a33f 478a 833f
00000040: 45a5 7e3f f7b7 7b3f 267f 7a3f ac11 843f
00000050: 40fd 7d3f 4ced 863f f8de 6c3f 0a6f 873f
00000060: a778 903f 3305 653f 4dee 743f 00f8 8f3f
00000070: 85ea 7b3f f454 813f 3124 873f 1f05 853f

enc.EncoderList.cell2.activate.fcn.1.bias f4 [32]
0.025331123 -0.08890641 0.16022892 0.14760724 0.05873081 -0.17013527 0.18524761 0.05718325
0.058201272 0.067311905 -0.11218294 -0.06986651 0.06673062 0.09115228 0.1929509 0.03694657
0.07666681 0.22856548 -0.19233605 0.11418059 0.024474934 0.09476009 -0.099476725 0.052647766
0.1390596 -0.14932309 -0.0068647284 -0.02963887 0.07810033 0.018866844 0.09330512 0.07376438
00000000: 3783 cf3c 9014 b6bd 0d13 243e 5a26 173e
00000010: b88f 703d f137 2ebe 8db1 3d3e fc38 6a3d
00000020: 7564 6e3d d3da 893d 2bc0 e5bd 2c16 8fbd
00000030: 10aa 883d 0cae ba3d ec94 453e 4955 173d
00000040: 7d03 9d3d 120d 6a3e bef3 44be 83d7 e93d
00000050: a87f c83c 9411 c23d 74ba cbbd 2fa5 573d
00000060: a465 0e3e 27e8 18be 84f1 e0bb 37cd f2bc
00000070: 11f3 9f3d a48e 9a3c c116 bf3d c711 973d

enc.EncoderList.cell2.activate.fcn.1.running_mean f4 [32]
0.24348685 0.0679762 -0.19241521 -0.14955422 -0.056471534 -0.21523632 0.22686958 -0.15251297
-0.22275196 0.43229112 -0.10776738 -0.15345646 -0.18079261 -0.060552094 0.011824239 0.30494764
0.058479454 -0.07331471 0.40014237 -0.43463722 -0.23957619 -0.34816852 -0.0008746442 -0.09940525
-0.3492057 0.028364744 0.19251615 -0.3951085 0.18372713 -0.08094905 -0.29623547 0.035135563
00000000: 9e54 793e 1b37 8b3d 7e08 45be be24 19be
00000010: b24e 67bd e966 5cbe 8050 683e 5c2c 1cbe
00000020: 1719 64be 4355 dd3e 25b5 dcbd b123 1dbe
00000030: b321 39be 7905 78bd 74ba 413c 1922 9c3e
00000040: 2788 6f3d 0626 96bd 76df cc3e c588 debe
00000050: 7653 75be 2543 b2be 6148 65ba fb94 cbbd
00000060: 17cb b2be 2e5d e83c f422 453e a94b cabe
00000070: f722 3c3e 9ec8 a5bd 2dac 97be 4fea 0f3d

enc.EncoderList.cell2.activate.fcn.1.running_var f4 [32]
0.011040248 0.014361787 0.014277553 0.007899547 0.02023594 0.07409818 0.033656597 0.034295682
0.04460411 0.018910687 0.030481607 0.045350272 0.012923143 0.034674376 0.010284963 0.027963078
0.038617507 0.024752658 0.017879993 0.046985507 0.061296847 0.032014772 0.027751116 0.0027674607
0.04266164 0.03177043 0.0033340575 0.024534235 0.0065787286 0.0034899295 0.025669284 0.008745155
00000000: 28e2 343c b34d 6b3c 66ec 693c 1a6d 013c
00000010: d8c5 a53c c9c0 973d 80db 093d a179 0c3d
00000020: cdb2 363d 96ea 9a3c 90b4 f93c 35c1 393d
00000030: 97bb 533c b806 0e3d 4382 283c d312 e53c
00000040: 642d 1e3d 16c6 ca3c 1079 923c e073 403d
00000050: 6712 7b3d ec21 033d 4f56 e33c 495e 353b
00000060: f9bd 2e3d b621 023d 3480 5a3b 05fc c83c
00000070: 6092 d73b 4db7 643b 6448 d23c d747 0f3c

enc.EncoderList.cell2.activate.fcn.3.weight f4 [16, 32]
0.03826287 0.05827424 -0.26082417 0.047112696 -0.25506616 0.073159166 -0.16166526 -0.40503034
0.09022101 0.12767743 0.004633198 0.009687858 -0.013663867 -0.001942087 0.36482468 0.04278948
-0.16453771 -0.03586965 0.01818553 -0.012422255 0.033186283 -0.022173105 0.0057618394 -0.020293303
-0.016712556 -0.034879796 -0.10910246 -0.11278663 -0.08324936 -0.23696162 0.075405836 -0.087886184
-0.060451433 0.13855292 -0.15238297 -0.07315263 0.061796498 0.0978757 -0.09921029 -0.095164664
0.1004952 0.16990277 0.022389498 -0.11361795 -0.0066123446 -0.12173215 0.13819003 -0.0070884633
0.05458997 -0.078601964 -0.017474802 -0.27038375 -0.041801974 -0.15347643 0.00028614237 0.020385668
-0.19597639 0.08827453 -0.04935828 0.109644964 -0.09543021 0.044756122 0.19173266 0.35387883
-0.116116226 0.105721265 0.07117778 0.26723182 -0.011894227 0.045995425 0.2141834 -0.0975134
-0.048838716 0.0414867 0.047309443 0.2551227 -0.060273983 -0.06338727 0.004081918 0.042416967
0.052643627 0.030508924 0.0011336935 0.13544695 -0.024909953 0.22814156 0.046437506 -0.28125614
-0.048364103 0.059325628 -0.13521777 0.30240026 -0.30490813 0.05664706 -0.10690832 0.06292488
0.15452474 0.051509906 0.18747087 0.09376359 -0.24581741 -0.05329491 -0.09208248 -0.053011768
-0.06656376 -0.1184659 0.034005847 -0.06861631 0.021205746 -0.0026542994 0.09928062 0.11510232
0.14790227 -0.036706064 0.09978834 0.004001027 -0.09276631 0.042267323 -0.17244223 0.08160605
-0.1319489 -0.024434865 -0.151553 0.11550767 -0.15771982 0.062909104 0.109394394 -0.049433105
-0.0019322122 0.13506927 -0.32943982 0.09575945 -0.08909208 -0.13218777 -0.014071766 -0.06931344
0.13669872 0.27773234 0.16914646 0.051992744 -0.008296495 -0.15621829 0.046620827 -0.0324854
-0.033574376 -0.0043911636 0.13102469 0.11706718 0.14823605 -0.040851943 0.13294123 -0.045542028
0.27640438 -0.090359494 -0.03912629 0.049838733 -0.06023427 0.21965021 0.040179938 0.005980796
0.11460749 0.13518237 -0.080707036 0.42079923 0.19919883 -0.030214582 -0.18149401 0.22852299
0.012996155 -0.005544375 -0.2048401 0.004609822 0.11920933 0.00011092368 0.13659488 -0.21372183
0.057193864 0.07225186 -0.09969816 0.21160078 0.20854807 0.19444561 -0.14931442 0.049135298
-0.011035564 0.094576925 -0.14972785 0.13911001 -0.009509913 -0.041474078 -0.10865037 0.0016275027
-0.14096464 0.06689172 0.1514138 0.09737314 0.0839796 0.0140846595 0.04391369 0.14134164
-0.08170848 0.13065024 0.13488674 -0.00058549206 0.04539408 0.116146065 0.066665575 0.16233255
0.26548684 -0.09911294 0.17364617 -0.16315821 0.27083832 -0.15089151 -0.13326675 -0.07761491
-0.1004185 0.20508823 0.08236341 -0.033492617 -0.08467082 -0.029384186 0.122398056 -0.19197212
-0.15445793 -0.19671221 -0.06840666 0.2674001 -0.03120223 -0.15445936 -0.16817278 0.0093170265
0.10056201 -0.19176738 -0.15860991 0.044009313 -0.07209409 -0.03512855 0.4396664 -0.18425049
-0.19663624 0.02892423 -0.03704251 -0.084281474 -0.22655329 -0.03941053 0.03525259 0.01818166
0.07657341 0.113160186 0.03457796 0.20520152 0.13009694 -0.06548956 -0.2527805 0.0734322
00000000: 87b9 1c3d f8b0 6e3d bf8a 85be 3ef9 403d
00000010: 0898 82be 79d4 953d 948b 25be 2360 cfbe
00000020: cbc5 b83d dfbd 023e 15d2 973b d2b9 1e3c
00000030: 69de 5fbc a08d feba 4dca ba3e 0644 2f3d
00000040: 937c 28be 0eec 12bd d2f9 943c b786 4bbc
00000050: 57ee 073d 5fa4 b5bc d0cd bc3b 243e a6bc
00000060: c5e8 88bc 1ede 0ebd 1c71 dfbd adfc e6bd
00000070: a47e aabd 11a6 72be 606e 9a3d acfd b3bd
00000080: ec9b 77bd d1e0 0d3e 480a 1cbe 0cd1 95bd
00000090: 531e 7d3d 0e73 c83d c42e cbbd b1e5 c2bd
000000a0: 6dd0 cd3d fefa 2d3e 2e6a b73c 87b0 e8bd
000000b0: 5eac d8bb b54e f9bd b081 0d3e 5746 e8bb
000000c0: bb99 5f3d 11fa a0bd 5127 8fbc bd6f 8abe
000000d0: 8c38 2bbd ed28 1dbe 6105 9639 d8ff a63c
000000e0: 09ae 48be 47c9 b43d e82b 4abd 8a8d e03d
000000f0: ea70 c3bd 3252 373d 9155 443e 9b2f b53e
00000100: 58ce edbd 6484 d83d a8c5 913d 9cd2 883e
00000110: 01e0 42bc b365 3c3d e552 5b3e 1bb5 c7bd
00000120: 1b0b 48bd f5ed 293d 8cc7 413d 719f 823e
00000130: dae1 76bd 2fd1 81bd 9cc1 853b 6abd 2d3d
00000140: d8a0 573d daed f93c 7198 943a 9bb2 0a3e
00000150: f50f ccbc f19d 693e 4135 3e3d ce00 90be
00000160: 7019 46bd 6eff 723d 8776 0abe 35d4 9a3e
00000170: eb1c 9cbe bf06 683d c0f2 dabd c2de 803d
00000180: bc3b 1e3e 0dfc 523d 5df8 3f3e 2007 c03d
00000190: 8fb7 7bbe c34b 5abd bd95 bcbd de22 59bd
000001a0: 9552 88bd 409e f2bd b749 0b3d b586 8cbd
000001b0: acb7 ad3c c1f3 2dbb a353 cb3d c4ba eb3d
000001c0: b173 173e 1959 16bd d45d cc3d 0c1b 833b
000001d0: 43fc bdbd 8020 2d3d b294 30be 1321 a73d
000001e0: 9d1d 07be a02b c8bc b630 1bbe 498f ec3d
000001f0: 4e81 21be 7dd6 803d 2b0a e03d 5e7a 4abd
00000200: 4842 fdba 994f 0a3e 56ac a8be 881d c43d
00000210: e975 b6bd 3b5c 07be 448d 66bc 34f4 8dbd
00000220: c0fa 0b3e ef32 8e3e bb34 2d3e 58f6 543d
00000230: 06ee 07bc b0f7 1fbe 7bf5 3e3d 690f 05bd
00000240: 4985 09bd c0e3 8fbb 562b 063e ebc0 ef3d
00000250: 31cb 173e 5e54 27bd bf21 083e 478a 3abd
00000260: e084 8d3e 660e b9bd e342 20bd b323 4c3d
00000270: 36b8 76bd fceb 603e b893 243d 8efa c33b
00000280: 55b7 ea3d 3f6d 0a3e bb49 a5bd ff72 d73e
00000290: c7fa 4b3e 9284 f7bc 91d9 39be ee01 6a3e
000002a0: d3ed 543c 97ad b5bb 9ac1 51be fd0d 973b
000002b0: 0524 f43d b29f e838 87df 0b3e e5d9 5abe
000002c0: 1d44 6a3d c8f8 933d 8d2e ccbd e0ad 583e
000002d0: a08d 553e c01c 473e e1e5 18be 1842 493d
000002e0: 83ce 34bc 8cb1 c13d 4252 19be db72 0e3e
000002f0: 77cf 1bbc b9e0 29bd 1684 debd ee51 d53a
00000300: 0959 10be 87fe 883d 380c 1b3e 926b c73d
00000310: 7ffd ab3d 58c3 663c d7de 333d ddbb 103e
00000320: c756 a7bd 2dc9 053e c01f 0a3e b57b 19ba
00000330: 25ef 393d fddd ed3d f687 883d 813a 263e
00000340: e4ed 873e bafb cabd 4dd0 313e f212 27be
00000350: 52ab 8a3e 4e83 1abe 1477 08be 91f4 9ebd
00000360: 37a8 cdbd a602 523e 26ae a83d 8e2f 09bd
00000370: e567 adbd 1bb7 f0bc d5ab fa3d 5794 44be
00000380: 382a 1ebe ed6e 49be ca18 8cbd aae8 883e
00000390: d29b ffbc 982a 1ebe 7c35 2cbe 71a6 183c
000003a0: 75f3 cd3d ab5e 44be a36a 22be 1c43 343d
000003b0: 11a6 93bd f4e2 0fbd f41b e13e 29ac 3cbe
000003c0: 035b 49be 82f2 ec3c e3b9 17bd c49b acbd
000003d0: 96fd 67be f06c 21bd 0565 103d b4f1 943c
000003e0: 85d2 9c3d 87c0 e73d 9ea1 0d3d 5920 523e
000003f0: 2238 053e 641f 86bd 726c 81be 9f63 963d
